name : "relay_ir"
layer {
  name:"DecodeJpeg/contents"
  type:"input"
  top:"DecodeJpeg/contents"
  layer_param {
    idx:0
    out_0 {name:"DecodeJpeg/contents:0",dtype:uint8,shape:[299, 299, 3]}
  }
}
layer {
  name:"Node_286"
  type:"annotation_compiler_begin"
  top:"Node_286"
  bottom:"DecodeJpeg/contents"
  layer_param {
    idx:286
    in_0 {name:"DecodeJpeg/contents:0",dtype:uint8,shape:[299, 299, 3]}
    out_0 {name:"Node_286:0",dtype:uint8,shape:[299, 299, 3]}
    attrs {'compiler': 'default'}
  }
}
layer {
  name:"Node_287"
  type:"cast"
  top:"Node_287"
  bottom:"Node_286"
  layer_param {
    idx:287
    in_0 {name:"Node_286:0",dtype:uint8,shape:[299, 299, 3]}
    out_0 {name:"Node_287:0",dtype:float32,shape:[299, 299, 3]}
    attrs {'dtype': 'float32'}
  }
}
layer {
  name:"Node_288"
  type:"annotation_compiler_end"
  top:"Node_288"
  bottom:"Node_287"
  layer_param {
    idx:288
    in_0 {name:"Node_287:0",dtype:float32,shape:[299, 299, 3]}
    out_0 {name:"Node_288:0",dtype:float32,shape:[299, 299, 3]}
    attrs {'compiler': 'default'}
  }
}
layer {
  name:"Node_289"
  type:"annotation_compiler_begin"
  top:"Node_289"
  bottom:"Node_288"
  layer_param {
    idx:289
    in_0 {name:"Node_288:0",dtype:float32,shape:[299, 299, 3]}
    out_0 {name:"Node_289:0",dtype:float32,shape:[299, 299, 3]}
    attrs {'compiler': 'default'}
  }
}
layer {
  name:"Node_290"
  type:"expand_dims"
  top:"Node_290"
  bottom:"Node_289"
  layer_param {
    idx:290
    in_0 {name:"Node_289:0",dtype:float32,shape:[299, 299, 3]}
    out_0 {name:"Node_290:0",dtype:float32,shape:[1, 299, 299, 3]}
    attrs {'axis': 0, 'num_newaxis': 1}
  }
}
layer {
  name:"Node_291"
  type:"annotation_compiler_end"
  top:"Node_291"
  bottom:"Node_290"
  layer_param {
    idx:291
    in_0 {name:"Node_290:0",dtype:float32,shape:[1, 299, 299, 3]}
    out_0 {name:"Node_291:0",dtype:float32,shape:[1, 299, 299, 3]}
    attrs {'compiler': 'default'}
  }
}
layer {
  name:"Node_292"
  type:"annotation_compiler_begin"
  top:"Node_292"
  bottom:"Node_291"
  layer_param {
    idx:292
    in_0 {name:"Node_291:0",dtype:float32,shape:[1, 299, 299, 3]}
    out_0 {name:"Node_292:0",dtype:float32,shape:[1, 299, 299, 3]}
    attrs {'compiler': 'default'}
  }
}
layer {
  name:"Node_293"
  type:"image_resize"
  top:"Node_293"
  bottom:"Node_292"
  layer_param {
    idx:293
    in_0 {name:"Node_292:0",dtype:float32,shape:[1, 299, 299, 3]}
    out_0 {name:"Node_293:0",dtype:float32,shape:[1, 299, 299, 3]}
    attrs {'size': [299, 299], 'layout': 'NHWC', 'method': 'bilinear', 'coordinate_transformation_mode': 'asymmetric', 'rounding_method': '', 'bicubic_alpha': -0.5, 'bicubic_exclude': 0, 'out_dtype': ''}
  }
}
layer {
  name:"Node_294"
  type:"annotation_compiler_end"
  top:"Node_294"
  bottom:"Node_293"
  layer_param {
    idx:294
    in_0 {name:"Node_293:0",dtype:float32,shape:[1, 299, 299, 3]}
    out_0 {name:"Node_294:0",dtype:float32,shape:[1, 299, 299, 3]}
    attrs {'compiler': 'default'}
  }
}
layer {
  name:"Node_295"
  type:"annotation_compiler_begin"
  top:"Node_295"
  bottom:"Node_294"
  layer_param {
    idx:295
    in_0 {name:"Node_294:0",dtype:float32,shape:[1, 299, 299, 3]}
    out_0 {name:"Node_295:0",dtype:float32,shape:[1, 299, 299, 3]}
    attrs {'compiler': 'tensorrt'}
  }
}
layer {
  name:"Node_297"
  type:"const"
  top:"Node_297"
  layer_param {
    idx:297
    out_0 {name:"Node_297:0",dtype:float32,shape:[]}
  }
}
layer {
  name:"Node_298"
  type:"annotation_compiler_begin"
  top:"Node_298"
  bottom:"Node_297"
  layer_param {
    idx:298
    in_0 {name:"Node_297:0",dtype:float32,shape:[]}
    out_0 {name:"Node_298:0",dtype:float32,shape:[]}
    attrs {'compiler': 'tensorrt'}
  }
}
layer {
  name:"Node_299"
  type:"subtract"
  top:"Node_299"
  bottom:"Node_295"
  bottom:"Node_298"
  layer_param {
    idx:299
    in_0 {name:"Node_295:0",dtype:float32,shape:[1, 299, 299, 3]}
    in_1 {name:"Node_298:0",dtype:float32,shape:[]}
    out_0 {name:"Node_299:0",dtype:float32,shape:[1, 299, 299, 3]}
  }
}
layer {
  name:"Node_300"
  type:"annotation_compiler_end"
  top:"Node_300"
  bottom:"Node_299"
  layer_param {
    idx:300
    in_0 {name:"Node_299:0",dtype:float32,shape:[1, 299, 299, 3]}
    out_0 {name:"Node_300:0",dtype:float32,shape:[1, 299, 299, 3]}
    attrs {'compiler': 'tensorrt'}
  }
}
layer {
  name:"Node_301"
  type:"annotation_compiler_begin"
  top:"Node_301"
  bottom:"Node_300"
  layer_param {
    idx:301
    in_0 {name:"Node_300:0",dtype:float32,shape:[1, 299, 299, 3]}
    out_0 {name:"Node_301:0",dtype:float32,shape:[1, 299, 299, 3]}
    attrs {'compiler': 'tensorrt'}
  }
}
layer {
  name:"Node_303"
  type:"const"
  top:"Node_303"
  layer_param {
    idx:303
    out_0 {name:"Node_303:0",dtype:float32,shape:[]}
  }
}
layer {
  name:"Node_304"
  type:"annotation_compiler_begin"
  top:"Node_304"
  bottom:"Node_303"
  layer_param {
    idx:304
    in_0 {name:"Node_303:0",dtype:float32,shape:[]}
    out_0 {name:"Node_304:0",dtype:float32,shape:[]}
    attrs {'compiler': 'tensorrt'}
  }
}
layer {
  name:"Node_305"
  type:"multiply"
  top:"Node_305"
  bottom:"Node_301"
  bottom:"Node_304"
  layer_param {
    idx:305
    in_0 {name:"Node_301:0",dtype:float32,shape:[1, 299, 299, 3]}
    in_1 {name:"Node_304:0",dtype:float32,shape:[]}
    out_0 {name:"Node_305:0",dtype:float32,shape:[1, 299, 299, 3]}
  }
}
layer {
  name:"Node_306"
  type:"annotation_compiler_end"
  top:"Node_306"
  bottom:"Node_305"
  layer_param {
    idx:306
    in_0 {name:"Node_305:0",dtype:float32,shape:[1, 299, 299, 3]}
    out_0 {name:"Node_306:0",dtype:float32,shape:[1, 299, 299, 3]}
    attrs {'compiler': 'tensorrt'}
  }
}
layer {
  name:"Node_307"
  type:"annotation_compiler_begin"
  top:"Node_307"
  bottom:"Node_306"
  layer_param {
    idx:307
    in_0 {name:"Node_306:0",dtype:float32,shape:[1, 299, 299, 3]}
    out_0 {name:"Node_307:0",dtype:float32,shape:[1, 299, 299, 3]}
    attrs {'compiler': 'tensorrt'}
  }
}
layer {
  name:"Node_308"
  type:"layout_transform"
  top:"Node_308"
  bottom:"Node_307"
  layer_param {
    idx:308
    in_0 {name:"Node_307:0",dtype:float32,shape:[1, 299, 299, 3]}
    out_0 {name:"Node_308:0",dtype:float32,shape:[1, 3, 299, 299]}
    attrs {'src_layout': 'NHWC', 'dst_layout': 'NCHW'}
  }
}
layer {
  name:"Node_309"
  type:"annotation_compiler_end"
  top:"Node_309"
  bottom:"Node_308"
  layer_param {
    idx:309
    in_0 {name:"Node_308:0",dtype:float32,shape:[1, 3, 299, 299]}
    out_0 {name:"Node_309:0",dtype:float32,shape:[1, 3, 299, 299]}
    attrs {'compiler': 'tensorrt'}
  }
}
layer {
  name:"Node_310"
  type:"annotation_compiler_begin"
  top:"Node_310"
  bottom:"Node_309"
  layer_param {
    idx:310
    in_0 {name:"Node_309:0",dtype:float32,shape:[1, 3, 299, 299]}
    out_0 {name:"Node_310:0",dtype:float32,shape:[1, 3, 299, 299]}
    attrs {'compiler': 'tensorrt'}
  }
}
layer {
  name:"Node_312"
  type:"const"
  top:"Node_312"
  layer_param {
    idx:312
    out_0 {name:"Node_312:0",dtype:float32,shape:[32, 3, 3, 3]}
  }
}
layer {
  name:"Node_313"
  type:"annotation_compiler_begin"
  top:"Node_313"
  bottom:"Node_312"
  layer_param {
    idx:313
    in_0 {name:"Node_312:0",dtype:float32,shape:[32, 3, 3, 3]}
    out_0 {name:"Node_313:0",dtype:float32,shape:[32, 3, 3, 3]}
    attrs {'compiler': 'tensorrt'}
  }
}
layer {
  name:"Node_314"
  type:"nn_conv2d"
  top:"Node_314"
  bottom:"Node_310"
  bottom:"Node_313"
  layer_param {
    idx:314
    in_0 {name:"Node_310:0",dtype:float32,shape:[1, 3, 299, 299]}
    in_1 {name:"Node_313:0",dtype:float32,shape:[32, 3, 3, 3]}
    out_0 {name:"Node_314:0",dtype:float32,shape:[1, 32, 149, 149]}
    attrs {'strides': [2, 2], 'padding': [0, 0, 0, 0], 'dilation': [1, 1], 'groups': 1, 'channels': 32, 'kernel_size': [3, 3], 'data_layout': 'NCHW', 'kernel_layout': 'OIHW', 'out_layout': '', 'out_dtype': ''}
  }
}
layer {
  name:"Node_315"
  type:"annotation_compiler_end"
  top:"Node_315"
  bottom:"Node_314"
  layer_param {
    idx:315
    in_0 {name:"Node_314:0",dtype:float32,shape:[1, 32, 149, 149]}
    out_0 {name:"Node_315:0",dtype:float32,shape:[1, 32, 149, 149]}
    attrs {'compiler': 'tensorrt'}
  }
}
layer {
  name:"Node_316"
  type:"annotation_compiler_begin"
  top:"Node_316"
  bottom:"Node_315"
  layer_param {
    idx:316
    in_0 {name:"Node_315:0",dtype:float32,shape:[1, 32, 149, 149]}
    out_0 {name:"Node_316:0",dtype:float32,shape:[1, 32, 149, 149]}
    attrs {'compiler': 'tensorrt'}
  }
}
layer {
  name:"Node_318"
  type:"const"
  top:"Node_318"
  layer_param {
    idx:318
    out_0 {name:"Node_318:0",dtype:float32,shape:[32]}
  }
}
layer {
  name:"Node_319"
  type:"annotation_compiler_begin"
  top:"Node_319"
  bottom:"Node_318"
  layer_param {
    idx:319
    in_0 {name:"Node_318:0",dtype:float32,shape:[32]}
    out_0 {name:"Node_319:0",dtype:float32,shape:[32]}
    attrs {'compiler': 'tensorrt'}
  }
}
layer {
  name:"Node_321"
  type:"const"
  top:"Node_321"
  layer_param {
    idx:321
    out_0 {name:"Node_321:0",dtype:float32,shape:[32]}
  }
}
layer {
  name:"Node_322"
  type:"annotation_compiler_begin"
  top:"Node_322"
  bottom:"Node_321"
  layer_param {
    idx:322
    in_0 {name:"Node_321:0",dtype:float32,shape:[32]}
    out_0 {name:"Node_322:0",dtype:float32,shape:[32]}
    attrs {'compiler': 'tensorrt'}
  }
}
layer {
  name:"Node_324"
  type:"const"
  top:"Node_324"
  layer_param {
    idx:324
    out_0 {name:"Node_324:0",dtype:float32,shape:[32]}
  }
}
layer {
  name:"Node_325"
  type:"annotation_compiler_begin"
  top:"Node_325"
  bottom:"Node_324"
  layer_param {
    idx:325
    in_0 {name:"Node_324:0",dtype:float32,shape:[32]}
    out_0 {name:"Node_325:0",dtype:float32,shape:[32]}
    attrs {'compiler': 'tensorrt'}
  }
}
layer {
  name:"Node_327"
  type:"const"
  top:"Node_327"
  layer_param {
    idx:327
    out_0 {name:"Node_327:0",dtype:float32,shape:[32]}
  }
}
layer {
  name:"Node_328"
  type:"annotation_compiler_begin"
  top:"Node_328"
  bottom:"Node_327"
  layer_param {
    idx:328
    in_0 {name:"Node_327:0",dtype:float32,shape:[32]}
    out_0 {name:"Node_328:0",dtype:float32,shape:[32]}
    attrs {'compiler': 'tensorrt'}
  }
}
layer {
  name:"Node_329"
  type:"nn_batch_norm"
  top:"Node_329"
  bottom:"Node_316"
  bottom:"Node_319"
  bottom:"Node_322"
  bottom:"Node_325"
  bottom:"Node_328"
  layer_param {
    idx:329
    in_0 {name:"Node_316:0",dtype:float32,shape:[1, 32, 149, 149]}
    in_1 {name:"Node_319:0",dtype:float32,shape:[32]}
    in_2 {name:"Node_322:0",dtype:float32,shape:[32]}
    in_3 {name:"Node_325:0",dtype:float32,shape:[32]}
    in_4 {name:"Node_328:0",dtype:float32,shape:[32]}
    out_0 {name:"Node_329:0",dtype:float32,shape:[1, 32, 149, 149]}
    out_1 {name:"Node_329:1",dtype:float32,shape:[32]}
    out_2 {name:"Node_329:2",dtype:float32,shape:[32]}
    attrs {'axis': 1, 'epsilon': 0.0010000000474974513, 'center': 1, 'scale': 0}
  }
}
layer {
  name:"Node_330"
  type:"annotation_compiler_end"
  top:"Node_330"
  bottom:"Node_329"
  layer_param {
    idx:330
    in_0 {name:"Node_329:0",dtype:float32,shape:[1, 32, 149, 149]}
    out_0 {name:"Node_330:0",dtype:float32,shape:[1, 32, 149, 149]}
    out_1 {name:"Node_330:1",dtype:float32,shape:[32]}
    out_2 {name:"Node_330:2",dtype:float32,shape:[32]}
    attrs {'compiler': 'tensorrt'}
  }
}
layer {
  name:"Node_331"
  type:"annotation_compiler_begin"
  top:"Node_331"
  bottom:"Node_330"
  layer_param {
    idx:331
    in_0 {name:"Node_330:0",dtype:float32,shape:[1, 32, 149, 149]}
    out_0 {name:"Node_331:0",dtype:float32,shape:[1, 32, 149, 149]}
    out_1 {name:"Node_331:1",dtype:float32,shape:[32]}
    out_2 {name:"Node_331:2",dtype:float32,shape:[32]}
    attrs {'compiler': 'tensorrt'}
  }
}
layer {
  name:"Node_333"
  type:"annotation_compiler_end"
  top:"Node_333"
  bottom:"Node_331"
  layer_param {
    idx:333
    in_0 {name:"Node_331:0",dtype:float32,shape:[1, 32, 149, 149]}
    out_0 {name:"Node_333:0",dtype:float32,shape:[1, 32, 149, 149]}
    attrs {'compiler': 'tensorrt'}
  }
}
layer {
  name:"Node_334"
  type:"annotation_compiler_begin"
  top:"Node_334"
  bottom:"Node_333"
  layer_param {
    idx:334
    in_0 {name:"Node_333:0",dtype:float32,shape:[1, 32, 149, 149]}
    out_0 {name:"Node_334:0",dtype:float32,shape:[1, 32, 149, 149]}
    attrs {'compiler': 'tensorrt'}
  }
}
layer {
  name:"Node_335"
  type:"nn_relu"
  top:"Node_335"
  bottom:"Node_334"
  layer_param {
    idx:335
    in_0 {name:"Node_334:0",dtype:float32,shape:[1, 32, 149, 149]}
    out_0 {name:"Node_335:0",dtype:float32,shape:[1, 32, 149, 149]}
  }
}
layer {
  name:"Node_336"
  type:"annotation_compiler_end"
  top:"Node_336"
  bottom:"Node_335"
  layer_param {
    idx:336
    in_0 {name:"Node_335:0",dtype:float32,shape:[1, 32, 149, 149]}
    out_0 {name:"Node_336:0",dtype:float32,shape:[1, 32, 149, 149]}
    attrs {'compiler': 'tensorrt'}
  }
}
layer {
  name:"Node_337"
  type:"annotation_compiler_begin"
  top:"Node_337"
  bottom:"Node_336"
  layer_param {
    idx:337
    in_0 {name:"Node_336:0",dtype:float32,shape:[1, 32, 149, 149]}
    out_0 {name:"Node_337:0",dtype:float32,shape:[1, 32, 149, 149]}
    attrs {'compiler': 'tensorrt'}
  }
}
layer {
  name:"Node_339"
  type:"const"
  top:"Node_339"
  layer_param {
    idx:339
    out_0 {name:"Node_339:0",dtype:float32,shape:[32, 32, 3, 3]}
  }
}
layer {
  name:"Node_340"
  type:"annotation_compiler_begin"
  top:"Node_340"
  bottom:"Node_339"
  layer_param {
    idx:340
    in_0 {name:"Node_339:0",dtype:float32,shape:[32, 32, 3, 3]}
    out_0 {name:"Node_340:0",dtype:float32,shape:[32, 32, 3, 3]}
    attrs {'compiler': 'tensorrt'}
  }
}
layer {
  name:"Node_341"
  type:"nn_conv2d"
  top:"Node_341"
  bottom:"Node_337"
  bottom:"Node_340"
  layer_param {
    idx:341
    in_0 {name:"Node_337:0",dtype:float32,shape:[1, 32, 149, 149]}
    in_1 {name:"Node_340:0",dtype:float32,shape:[32, 32, 3, 3]}
    out_0 {name:"Node_341:0",dtype:float32,shape:[1, 32, 147, 147]}
    attrs {'strides': [1, 1], 'padding': [0, 0, 0, 0], 'dilation': [1, 1], 'groups': 1, 'channels': 32, 'kernel_size': [3, 3], 'data_layout': 'NCHW', 'kernel_layout': 'OIHW', 'out_layout': '', 'out_dtype': ''}
  }
}
layer {
  name:"Node_342"
  type:"annotation_compiler_end"
  top:"Node_342"
  bottom:"Node_341"
  layer_param {
    idx:342
    in_0 {name:"Node_341:0",dtype:float32,shape:[1, 32, 147, 147]}
    out_0 {name:"Node_342:0",dtype:float32,shape:[1, 32, 147, 147]}
    attrs {'compiler': 'tensorrt'}
  }
}
layer {
  name:"Node_343"
  type:"annotation_compiler_begin"
  top:"Node_343"
  bottom:"Node_342"
  layer_param {
    idx:343
    in_0 {name:"Node_342:0",dtype:float32,shape:[1, 32, 147, 147]}
    out_0 {name:"Node_343:0",dtype:float32,shape:[1, 32, 147, 147]}
    attrs {'compiler': 'tensorrt'}
  }
}
layer {
  name:"Node_345"
  type:"const"
  top:"Node_345"
  layer_param {
    idx:345
    out_0 {name:"Node_345:0",dtype:float32,shape:[32]}
  }
}
layer {
  name:"Node_346"
  type:"annotation_compiler_begin"
  top:"Node_346"
  bottom:"Node_345"
  layer_param {
    idx:346
    in_0 {name:"Node_345:0",dtype:float32,shape:[32]}
    out_0 {name:"Node_346:0",dtype:float32,shape:[32]}
    attrs {'compiler': 'tensorrt'}
  }
}
layer {
  name:"Node_348"
  type:"const"
  top:"Node_348"
  layer_param {
    idx:348
    out_0 {name:"Node_348:0",dtype:float32,shape:[32]}
  }
}
layer {
  name:"Node_349"
  type:"annotation_compiler_begin"
  top:"Node_349"
  bottom:"Node_348"
  layer_param {
    idx:349
    in_0 {name:"Node_348:0",dtype:float32,shape:[32]}
    out_0 {name:"Node_349:0",dtype:float32,shape:[32]}
    attrs {'compiler': 'tensorrt'}
  }
}
layer {
  name:"Node_351"
  type:"const"
  top:"Node_351"
  layer_param {
    idx:351
    out_0 {name:"Node_351:0",dtype:float32,shape:[32]}
  }
}
layer {
  name:"Node_352"
  type:"annotation_compiler_begin"
  top:"Node_352"
  bottom:"Node_351"
  layer_param {
    idx:352
    in_0 {name:"Node_351:0",dtype:float32,shape:[32]}
    out_0 {name:"Node_352:0",dtype:float32,shape:[32]}
    attrs {'compiler': 'tensorrt'}
  }
}
layer {
  name:"Node_354"
  type:"const"
  top:"Node_354"
  layer_param {
    idx:354
    out_0 {name:"Node_354:0",dtype:float32,shape:[32]}
  }
}
layer {
  name:"Node_355"
  type:"annotation_compiler_begin"
  top:"Node_355"
  bottom:"Node_354"
  layer_param {
    idx:355
    in_0 {name:"Node_354:0",dtype:float32,shape:[32]}
    out_0 {name:"Node_355:0",dtype:float32,shape:[32]}
    attrs {'compiler': 'tensorrt'}
  }
}
layer {
  name:"Node_356"
  type:"nn_batch_norm"
  top:"Node_356"
  bottom:"Node_343"
  bottom:"Node_346"
  bottom:"Node_349"
  bottom:"Node_352"
  bottom:"Node_355"
  layer_param {
    idx:356
    in_0 {name:"Node_343:0",dtype:float32,shape:[1, 32, 147, 147]}
    in_1 {name:"Node_346:0",dtype:float32,shape:[32]}
    in_2 {name:"Node_349:0",dtype:float32,shape:[32]}
    in_3 {name:"Node_352:0",dtype:float32,shape:[32]}
    in_4 {name:"Node_355:0",dtype:float32,shape:[32]}
    out_0 {name:"Node_356:0",dtype:float32,shape:[1, 32, 147, 147]}
    out_1 {name:"Node_356:1",dtype:float32,shape:[32]}
    out_2 {name:"Node_356:2",dtype:float32,shape:[32]}
    attrs {'axis': 1, 'epsilon': 0.0010000000474974513, 'center': 1, 'scale': 0}
  }
}
layer {
  name:"Node_357"
  type:"annotation_compiler_end"
  top:"Node_357"
  bottom:"Node_356"
  layer_param {
    idx:357
    in_0 {name:"Node_356:0",dtype:float32,shape:[1, 32, 147, 147]}
    out_0 {name:"Node_357:0",dtype:float32,shape:[1, 32, 147, 147]}
    out_1 {name:"Node_357:1",dtype:float32,shape:[32]}
    out_2 {name:"Node_357:2",dtype:float32,shape:[32]}
    attrs {'compiler': 'tensorrt'}
  }
}
layer {
  name:"Node_358"
  type:"annotation_compiler_begin"
  top:"Node_358"
  bottom:"Node_357"
  layer_param {
    idx:358
    in_0 {name:"Node_357:0",dtype:float32,shape:[1, 32, 147, 147]}
    out_0 {name:"Node_358:0",dtype:float32,shape:[1, 32, 147, 147]}
    out_1 {name:"Node_358:1",dtype:float32,shape:[32]}
    out_2 {name:"Node_358:2",dtype:float32,shape:[32]}
    attrs {'compiler': 'tensorrt'}
  }
}
layer {
  name:"Node_360"
  type:"annotation_compiler_end"
  top:"Node_360"
  bottom:"Node_358"
  layer_param {
    idx:360
    in_0 {name:"Node_358:0",dtype:float32,shape:[1, 32, 147, 147]}
    out_0 {name:"Node_360:0",dtype:float32,shape:[1, 32, 147, 147]}
    attrs {'compiler': 'tensorrt'}
  }
}
layer {
  name:"Node_361"
  type:"annotation_compiler_begin"
  top:"Node_361"
  bottom:"Node_360"
  layer_param {
    idx:361
    in_0 {name:"Node_360:0",dtype:float32,shape:[1, 32, 147, 147]}
    out_0 {name:"Node_361:0",dtype:float32,shape:[1, 32, 147, 147]}
    attrs {'compiler': 'tensorrt'}
  }
}
layer {
  name:"Node_362"
  type:"nn_relu"
  top:"Node_362"
  bottom:"Node_361"
  layer_param {
    idx:362
    in_0 {name:"Node_361:0",dtype:float32,shape:[1, 32, 147, 147]}
    out_0 {name:"Node_362:0",dtype:float32,shape:[1, 32, 147, 147]}
  }
}
layer {
  name:"Node_363"
  type:"annotation_compiler_end"
  top:"Node_363"
  bottom:"Node_362"
  layer_param {
    idx:363
    in_0 {name:"Node_362:0",dtype:float32,shape:[1, 32, 147, 147]}
    out_0 {name:"Node_363:0",dtype:float32,shape:[1, 32, 147, 147]}
    attrs {'compiler': 'tensorrt'}
  }
}
layer {
  name:"Node_364"
  type:"annotation_compiler_begin"
  top:"Node_364"
  bottom:"Node_363"
  layer_param {
    idx:364
    in_0 {name:"Node_363:0",dtype:float32,shape:[1, 32, 147, 147]}
    out_0 {name:"Node_364:0",dtype:float32,shape:[1, 32, 147, 147]}
    attrs {'compiler': 'tensorrt'}
  }
}
layer {
  name:"Node_366"
  type:"const"
  top:"Node_366"
  layer_param {
    idx:366
    out_0 {name:"Node_366:0",dtype:float32,shape:[64, 32, 3, 3]}
  }
}
layer {
  name:"Node_367"
  type:"annotation_compiler_begin"
  top:"Node_367"
  bottom:"Node_366"
  layer_param {
    idx:367
    in_0 {name:"Node_366:0",dtype:float32,shape:[64, 32, 3, 3]}
    out_0 {name:"Node_367:0",dtype:float32,shape:[64, 32, 3, 3]}
    attrs {'compiler': 'tensorrt'}
  }
}
layer {
  name:"Node_368"
  type:"nn_conv2d"
  top:"Node_368"
  bottom:"Node_364"
  bottom:"Node_367"
  layer_param {
    idx:368
    in_0 {name:"Node_364:0",dtype:float32,shape:[1, 32, 147, 147]}
    in_1 {name:"Node_367:0",dtype:float32,shape:[64, 32, 3, 3]}
    out_0 {name:"Node_368:0",dtype:float32,shape:[1, 64, 147, 147]}
    attrs {'strides': [1, 1], 'padding': [1, 1, 1, 1], 'dilation': [1, 1], 'groups': 1, 'channels': 64, 'kernel_size': [3, 3], 'data_layout': 'NCHW', 'kernel_layout': 'OIHW', 'out_layout': '', 'out_dtype': ''}
  }
}
layer {
  name:"Node_369"
  type:"annotation_compiler_end"
  top:"Node_369"
  bottom:"Node_368"
  layer_param {
    idx:369
    in_0 {name:"Node_368:0",dtype:float32,shape:[1, 64, 147, 147]}
    out_0 {name:"Node_369:0",dtype:float32,shape:[1, 64, 147, 147]}
    attrs {'compiler': 'tensorrt'}
  }
}
layer {
  name:"Node_370"
  type:"annotation_compiler_begin"
  top:"Node_370"
  bottom:"Node_369"
  layer_param {
    idx:370
    in_0 {name:"Node_369:0",dtype:float32,shape:[1, 64, 147, 147]}
    out_0 {name:"Node_370:0",dtype:float32,shape:[1, 64, 147, 147]}
    attrs {'compiler': 'tensorrt'}
  }
}
layer {
  name:"Node_372"
  type:"const"
  top:"Node_372"
  layer_param {
    idx:372
    out_0 {name:"Node_372:0",dtype:float32,shape:[64]}
  }
}
layer {
  name:"Node_373"
  type:"annotation_compiler_begin"
  top:"Node_373"
  bottom:"Node_372"
  layer_param {
    idx:373
    in_0 {name:"Node_372:0",dtype:float32,shape:[64]}
    out_0 {name:"Node_373:0",dtype:float32,shape:[64]}
    attrs {'compiler': 'tensorrt'}
  }
}
layer {
  name:"Node_375"
  type:"const"
  top:"Node_375"
  layer_param {
    idx:375
    out_0 {name:"Node_375:0",dtype:float32,shape:[64]}
  }
}
layer {
  name:"Node_376"
  type:"annotation_compiler_begin"
  top:"Node_376"
  bottom:"Node_375"
  layer_param {
    idx:376
    in_0 {name:"Node_375:0",dtype:float32,shape:[64]}
    out_0 {name:"Node_376:0",dtype:float32,shape:[64]}
    attrs {'compiler': 'tensorrt'}
  }
}
layer {
  name:"Node_378"
  type:"const"
  top:"Node_378"
  layer_param {
    idx:378
    out_0 {name:"Node_378:0",dtype:float32,shape:[64]}
  }
}
layer {
  name:"Node_379"
  type:"annotation_compiler_begin"
  top:"Node_379"
  bottom:"Node_378"
  layer_param {
    idx:379
    in_0 {name:"Node_378:0",dtype:float32,shape:[64]}
    out_0 {name:"Node_379:0",dtype:float32,shape:[64]}
    attrs {'compiler': 'tensorrt'}
  }
}
layer {
  name:"Node_381"
  type:"const"
  top:"Node_381"
  layer_param {
    idx:381
    out_0 {name:"Node_381:0",dtype:float32,shape:[64]}
  }
}
layer {
  name:"Node_382"
  type:"annotation_compiler_begin"
  top:"Node_382"
  bottom:"Node_381"
  layer_param {
    idx:382
    in_0 {name:"Node_381:0",dtype:float32,shape:[64]}
    out_0 {name:"Node_382:0",dtype:float32,shape:[64]}
    attrs {'compiler': 'tensorrt'}
  }
}
layer {
  name:"Node_383"
  type:"nn_batch_norm"
  top:"Node_383"
  bottom:"Node_370"
  bottom:"Node_373"
  bottom:"Node_376"
  bottom:"Node_379"
  bottom:"Node_382"
  layer_param {
    idx:383
    in_0 {name:"Node_370:0",dtype:float32,shape:[1, 64, 147, 147]}
    in_1 {name:"Node_373:0",dtype:float32,shape:[64]}
    in_2 {name:"Node_376:0",dtype:float32,shape:[64]}
    in_3 {name:"Node_379:0",dtype:float32,shape:[64]}
    in_4 {name:"Node_382:0",dtype:float32,shape:[64]}
    out_0 {name:"Node_383:0",dtype:float32,shape:[1, 64, 147, 147]}
    out_1 {name:"Node_383:1",dtype:float32,shape:[64]}
    out_2 {name:"Node_383:2",dtype:float32,shape:[64]}
    attrs {'axis': 1, 'epsilon': 0.0010000000474974513, 'center': 1, 'scale': 0}
  }
}
layer {
  name:"Node_384"
  type:"annotation_compiler_end"
  top:"Node_384"
  bottom:"Node_383"
  layer_param {
    idx:384
    in_0 {name:"Node_383:0",dtype:float32,shape:[1, 64, 147, 147]}
    out_0 {name:"Node_384:0",dtype:float32,shape:[1, 64, 147, 147]}
    out_1 {name:"Node_384:1",dtype:float32,shape:[64]}
    out_2 {name:"Node_384:2",dtype:float32,shape:[64]}
    attrs {'compiler': 'tensorrt'}
  }
}
layer {
  name:"Node_385"
  type:"annotation_compiler_begin"
  top:"Node_385"
  bottom:"Node_384"
  layer_param {
    idx:385
    in_0 {name:"Node_384:0",dtype:float32,shape:[1, 64, 147, 147]}
    out_0 {name:"Node_385:0",dtype:float32,shape:[1, 64, 147, 147]}
    out_1 {name:"Node_385:1",dtype:float32,shape:[64]}
    out_2 {name:"Node_385:2",dtype:float32,shape:[64]}
    attrs {'compiler': 'tensorrt'}
  }
}
layer {
  name:"Node_387"
  type:"annotation_compiler_end"
  top:"Node_387"
  bottom:"Node_385"
  layer_param {
    idx:387
    in_0 {name:"Node_385:0",dtype:float32,shape:[1, 64, 147, 147]}
    out_0 {name:"Node_387:0",dtype:float32,shape:[1, 64, 147, 147]}
    attrs {'compiler': 'tensorrt'}
  }
}
layer {
  name:"Node_388"
  type:"annotation_compiler_begin"
  top:"Node_388"
  bottom:"Node_387"
  layer_param {
    idx:388
    in_0 {name:"Node_387:0",dtype:float32,shape:[1, 64, 147, 147]}
    out_0 {name:"Node_388:0",dtype:float32,shape:[1, 64, 147, 147]}
    attrs {'compiler': 'tensorrt'}
  }
}
layer {
  name:"Node_389"
  type:"nn_relu"
  top:"Node_389"
  bottom:"Node_388"
  layer_param {
    idx:389
    in_0 {name:"Node_388:0",dtype:float32,shape:[1, 64, 147, 147]}
    out_0 {name:"Node_389:0",dtype:float32,shape:[1, 64, 147, 147]}
  }
}
layer {
  name:"Node_390"
  type:"annotation_compiler_end"
  top:"Node_390"
  bottom:"Node_389"
  layer_param {
    idx:390
    in_0 {name:"Node_389:0",dtype:float32,shape:[1, 64, 147, 147]}
    out_0 {name:"Node_390:0",dtype:float32,shape:[1, 64, 147, 147]}
    attrs {'compiler': 'tensorrt'}
  }
}
layer {
  name:"Node_391"
  type:"annotation_compiler_begin"
  top:"Node_391"
  bottom:"Node_390"
  layer_param {
    idx:391
    in_0 {name:"Node_390:0",dtype:float32,shape:[1, 64, 147, 147]}
    out_0 {name:"Node_391:0",dtype:float32,shape:[1, 64, 147, 147]}
    attrs {'compiler': 'tensorrt'}
  }
}
layer {
  name:"Node_392"
  type:"nn_max_pool2d"
  top:"Node_392"
  bottom:"Node_391"
  layer_param {
    idx:392
    in_0 {name:"Node_391:0",dtype:float32,shape:[1, 64, 147, 147]}
    out_0 {name:"Node_392:0",dtype:float32,shape:[1, 64, 73, 73]}
    attrs {'pool_size': [3, 3], 'strides': [2, 2], 'dilation': [1, 1], 'padding': [0, 0, 0, 0], 'layout': 'NCHW', 'ceil_mode': 0}
  }
}
layer {
  name:"Node_393"
  type:"annotation_compiler_end"
  top:"Node_393"
  bottom:"Node_392"
  layer_param {
    idx:393
    in_0 {name:"Node_392:0",dtype:float32,shape:[1, 64, 73, 73]}
    out_0 {name:"Node_393:0",dtype:float32,shape:[1, 64, 73, 73]}
    attrs {'compiler': 'tensorrt'}
  }
}
layer {
  name:"Node_394"
  type:"annotation_compiler_begin"
  top:"Node_394"
  bottom:"Node_393"
  layer_param {
    idx:394
    in_0 {name:"Node_393:0",dtype:float32,shape:[1, 64, 73, 73]}
    out_0 {name:"Node_394:0",dtype:float32,shape:[1, 64, 73, 73]}
    attrs {'compiler': 'tensorrt'}
  }
}
layer {
  name:"Node_396"
  type:"const"
  top:"Node_396"
  layer_param {
    idx:396
    out_0 {name:"Node_396:0",dtype:float32,shape:[80, 64, 1, 1]}
  }
}
layer {
  name:"Node_397"
  type:"annotation_compiler_begin"
  top:"Node_397"
  bottom:"Node_396"
  layer_param {
    idx:397
    in_0 {name:"Node_396:0",dtype:float32,shape:[80, 64, 1, 1]}
    out_0 {name:"Node_397:0",dtype:float32,shape:[80, 64, 1, 1]}
    attrs {'compiler': 'tensorrt'}
  }
}
layer {
  name:"Node_398"
  type:"nn_conv2d"
  top:"Node_398"
  bottom:"Node_394"
  bottom:"Node_397"
  layer_param {
    idx:398
    in_0 {name:"Node_394:0",dtype:float32,shape:[1, 64, 73, 73]}
    in_1 {name:"Node_397:0",dtype:float32,shape:[80, 64, 1, 1]}
    out_0 {name:"Node_398:0",dtype:float32,shape:[1, 80, 73, 73]}
    attrs {'strides': [1, 1], 'padding': [0, 0, 0, 0], 'dilation': [1, 1], 'groups': 1, 'channels': 80, 'kernel_size': [1, 1], 'data_layout': 'NCHW', 'kernel_layout': 'OIHW', 'out_layout': '', 'out_dtype': ''}
  }
}
layer {
  name:"Node_399"
  type:"annotation_compiler_end"
  top:"Node_399"
  bottom:"Node_398"
  layer_param {
    idx:399
    in_0 {name:"Node_398:0",dtype:float32,shape:[1, 80, 73, 73]}
    out_0 {name:"Node_399:0",dtype:float32,shape:[1, 80, 73, 73]}
    attrs {'compiler': 'tensorrt'}
  }
}
layer {
  name:"Node_400"
  type:"annotation_compiler_begin"
  top:"Node_400"
  bottom:"Node_399"
  layer_param {
    idx:400
    in_0 {name:"Node_399:0",dtype:float32,shape:[1, 80, 73, 73]}
    out_0 {name:"Node_400:0",dtype:float32,shape:[1, 80, 73, 73]}
    attrs {'compiler': 'tensorrt'}
  }
}
layer {
  name:"Node_402"
  type:"const"
  top:"Node_402"
  layer_param {
    idx:402
    out_0 {name:"Node_402:0",dtype:float32,shape:[80]}
  }
}
layer {
  name:"Node_403"
  type:"annotation_compiler_begin"
  top:"Node_403"
  bottom:"Node_402"
  layer_param {
    idx:403
    in_0 {name:"Node_402:0",dtype:float32,shape:[80]}
    out_0 {name:"Node_403:0",dtype:float32,shape:[80]}
    attrs {'compiler': 'tensorrt'}
  }
}
layer {
  name:"Node_405"
  type:"const"
  top:"Node_405"
  layer_param {
    idx:405
    out_0 {name:"Node_405:0",dtype:float32,shape:[80]}
  }
}
layer {
  name:"Node_406"
  type:"annotation_compiler_begin"
  top:"Node_406"
  bottom:"Node_405"
  layer_param {
    idx:406
    in_0 {name:"Node_405:0",dtype:float32,shape:[80]}
    out_0 {name:"Node_406:0",dtype:float32,shape:[80]}
    attrs {'compiler': 'tensorrt'}
  }
}
layer {
  name:"Node_408"
  type:"const"
  top:"Node_408"
  layer_param {
    idx:408
    out_0 {name:"Node_408:0",dtype:float32,shape:[80]}
  }
}
layer {
  name:"Node_409"
  type:"annotation_compiler_begin"
  top:"Node_409"
  bottom:"Node_408"
  layer_param {
    idx:409
    in_0 {name:"Node_408:0",dtype:float32,shape:[80]}
    out_0 {name:"Node_409:0",dtype:float32,shape:[80]}
    attrs {'compiler': 'tensorrt'}
  }
}
layer {
  name:"Node_411"
  type:"const"
  top:"Node_411"
  layer_param {
    idx:411
    out_0 {name:"Node_411:0",dtype:float32,shape:[80]}
  }
}
layer {
  name:"Node_412"
  type:"annotation_compiler_begin"
  top:"Node_412"
  bottom:"Node_411"
  layer_param {
    idx:412
    in_0 {name:"Node_411:0",dtype:float32,shape:[80]}
    out_0 {name:"Node_412:0",dtype:float32,shape:[80]}
    attrs {'compiler': 'tensorrt'}
  }
}
layer {
  name:"Node_413"
  type:"nn_batch_norm"
  top:"Node_413"
  bottom:"Node_400"
  bottom:"Node_403"
  bottom:"Node_406"
  bottom:"Node_409"
  bottom:"Node_412"
  layer_param {
    idx:413
    in_0 {name:"Node_400:0",dtype:float32,shape:[1, 80, 73, 73]}
    in_1 {name:"Node_403:0",dtype:float32,shape:[80]}
    in_2 {name:"Node_406:0",dtype:float32,shape:[80]}
    in_3 {name:"Node_409:0",dtype:float32,shape:[80]}
    in_4 {name:"Node_412:0",dtype:float32,shape:[80]}
    out_0 {name:"Node_413:0",dtype:float32,shape:[1, 80, 73, 73]}
    out_1 {name:"Node_413:1",dtype:float32,shape:[80]}
    out_2 {name:"Node_413:2",dtype:float32,shape:[80]}
    attrs {'axis': 1, 'epsilon': 0.0010000000474974513, 'center': 1, 'scale': 0}
  }
}
layer {
  name:"Node_414"
  type:"annotation_compiler_end"
  top:"Node_414"
  bottom:"Node_413"
  layer_param {
    idx:414
    in_0 {name:"Node_413:0",dtype:float32,shape:[1, 80, 73, 73]}
    out_0 {name:"Node_414:0",dtype:float32,shape:[1, 80, 73, 73]}
    out_1 {name:"Node_414:1",dtype:float32,shape:[80]}
    out_2 {name:"Node_414:2",dtype:float32,shape:[80]}
    attrs {'compiler': 'tensorrt'}
  }
}
layer {
  name:"Node_415"
  type:"annotation_compiler_begin"
  top:"Node_415"
  bottom:"Node_414"
  layer_param {
    idx:415
    in_0 {name:"Node_414:0",dtype:float32,shape:[1, 80, 73, 73]}
    out_0 {name:"Node_415:0",dtype:float32,shape:[1, 80, 73, 73]}
    out_1 {name:"Node_415:1",dtype:float32,shape:[80]}
    out_2 {name:"Node_415:2",dtype:float32,shape:[80]}
    attrs {'compiler': 'tensorrt'}
  }
}
layer {
  name:"Node_417"
  type:"annotation_compiler_end"
  top:"Node_417"
  bottom:"Node_415"
  layer_param {
    idx:417
    in_0 {name:"Node_415:0",dtype:float32,shape:[1, 80, 73, 73]}
    out_0 {name:"Node_417:0",dtype:float32,shape:[1, 80, 73, 73]}
    attrs {'compiler': 'tensorrt'}
  }
}
layer {
  name:"Node_418"
  type:"annotation_compiler_begin"
  top:"Node_418"
  bottom:"Node_417"
  layer_param {
    idx:418
    in_0 {name:"Node_417:0",dtype:float32,shape:[1, 80, 73, 73]}
    out_0 {name:"Node_418:0",dtype:float32,shape:[1, 80, 73, 73]}
    attrs {'compiler': 'tensorrt'}
  }
}
layer {
  name:"Node_419"
  type:"nn_relu"
  top:"Node_419"
  bottom:"Node_418"
  layer_param {
    idx:419
    in_0 {name:"Node_418:0",dtype:float32,shape:[1, 80, 73, 73]}
    out_0 {name:"Node_419:0",dtype:float32,shape:[1, 80, 73, 73]}
  }
}
layer {
  name:"Node_420"
  type:"annotation_compiler_end"
  top:"Node_420"
  bottom:"Node_419"
  layer_param {
    idx:420
    in_0 {name:"Node_419:0",dtype:float32,shape:[1, 80, 73, 73]}
    out_0 {name:"Node_420:0",dtype:float32,shape:[1, 80, 73, 73]}
    attrs {'compiler': 'tensorrt'}
  }
}
layer {
  name:"Node_421"
  type:"annotation_compiler_begin"
  top:"Node_421"
  bottom:"Node_420"
  layer_param {
    idx:421
    in_0 {name:"Node_420:0",dtype:float32,shape:[1, 80, 73, 73]}
    out_0 {name:"Node_421:0",dtype:float32,shape:[1, 80, 73, 73]}
    attrs {'compiler': 'tensorrt'}
  }
}
layer {
  name:"Node_423"
  type:"const"
  top:"Node_423"
  layer_param {
    idx:423
    out_0 {name:"Node_423:0",dtype:float32,shape:[192, 80, 3, 3]}
  }
}
layer {
  name:"Node_424"
  type:"annotation_compiler_begin"
  top:"Node_424"
  bottom:"Node_423"
  layer_param {
    idx:424
    in_0 {name:"Node_423:0",dtype:float32,shape:[192, 80, 3, 3]}
    out_0 {name:"Node_424:0",dtype:float32,shape:[192, 80, 3, 3]}
    attrs {'compiler': 'tensorrt'}
  }
}
layer {
  name:"Node_425"
  type:"nn_conv2d"
  top:"Node_425"
  bottom:"Node_421"
  bottom:"Node_424"
  layer_param {
    idx:425
    in_0 {name:"Node_421:0",dtype:float32,shape:[1, 80, 73, 73]}
    in_1 {name:"Node_424:0",dtype:float32,shape:[192, 80, 3, 3]}
    out_0 {name:"Node_425:0",dtype:float32,shape:[1, 192, 71, 71]}
    attrs {'strides': [1, 1], 'padding': [0, 0, 0, 0], 'dilation': [1, 1], 'groups': 1, 'channels': 192, 'kernel_size': [3, 3], 'data_layout': 'NCHW', 'kernel_layout': 'OIHW', 'out_layout': '', 'out_dtype': ''}
  }
}
layer {
  name:"Node_426"
  type:"annotation_compiler_end"
  top:"Node_426"
  bottom:"Node_425"
  layer_param {
    idx:426
    in_0 {name:"Node_425:0",dtype:float32,shape:[1, 192, 71, 71]}
    out_0 {name:"Node_426:0",dtype:float32,shape:[1, 192, 71, 71]}
    attrs {'compiler': 'tensorrt'}
  }
}
layer {
  name:"Node_427"
  type:"annotation_compiler_begin"
  top:"Node_427"
  bottom:"Node_426"
  layer_param {
    idx:427
    in_0 {name:"Node_426:0",dtype:float32,shape:[1, 192, 71, 71]}
    out_0 {name:"Node_427:0",dtype:float32,shape:[1, 192, 71, 71]}
    attrs {'compiler': 'tensorrt'}
  }
}
layer {
  name:"Node_429"
  type:"const"
  top:"Node_429"
  layer_param {
    idx:429
    out_0 {name:"Node_429:0",dtype:float32,shape:[192]}
  }
}
layer {
  name:"Node_430"
  type:"annotation_compiler_begin"
  top:"Node_430"
  bottom:"Node_429"
  layer_param {
    idx:430
    in_0 {name:"Node_429:0",dtype:float32,shape:[192]}
    out_0 {name:"Node_430:0",dtype:float32,shape:[192]}
    attrs {'compiler': 'tensorrt'}
  }
}
layer {
  name:"Node_432"
  type:"const"
  top:"Node_432"
  layer_param {
    idx:432
    out_0 {name:"Node_432:0",dtype:float32,shape:[192]}
  }
}
layer {
  name:"Node_433"
  type:"annotation_compiler_begin"
  top:"Node_433"
  bottom:"Node_432"
  layer_param {
    idx:433
    in_0 {name:"Node_432:0",dtype:float32,shape:[192]}
    out_0 {name:"Node_433:0",dtype:float32,shape:[192]}
    attrs {'compiler': 'tensorrt'}
  }
}
layer {
  name:"Node_435"
  type:"const"
  top:"Node_435"
  layer_param {
    idx:435
    out_0 {name:"Node_435:0",dtype:float32,shape:[192]}
  }
}
layer {
  name:"Node_436"
  type:"annotation_compiler_begin"
  top:"Node_436"
  bottom:"Node_435"
  layer_param {
    idx:436
    in_0 {name:"Node_435:0",dtype:float32,shape:[192]}
    out_0 {name:"Node_436:0",dtype:float32,shape:[192]}
    attrs {'compiler': 'tensorrt'}
  }
}
layer {
  name:"Node_438"
  type:"const"
  top:"Node_438"
  layer_param {
    idx:438
    out_0 {name:"Node_438:0",dtype:float32,shape:[192]}
  }
}
layer {
  name:"Node_439"
  type:"annotation_compiler_begin"
  top:"Node_439"
  bottom:"Node_438"
  layer_param {
    idx:439
    in_0 {name:"Node_438:0",dtype:float32,shape:[192]}
    out_0 {name:"Node_439:0",dtype:float32,shape:[192]}
    attrs {'compiler': 'tensorrt'}
  }
}
layer {
  name:"Node_440"
  type:"nn_batch_norm"
  top:"Node_440"
  bottom:"Node_427"
  bottom:"Node_430"
  bottom:"Node_433"
  bottom:"Node_436"
  bottom:"Node_439"
  layer_param {
    idx:440
    in_0 {name:"Node_427:0",dtype:float32,shape:[1, 192, 71, 71]}
    in_1 {name:"Node_430:0",dtype:float32,shape:[192]}
    in_2 {name:"Node_433:0",dtype:float32,shape:[192]}
    in_3 {name:"Node_436:0",dtype:float32,shape:[192]}
    in_4 {name:"Node_439:0",dtype:float32,shape:[192]}
    out_0 {name:"Node_440:0",dtype:float32,shape:[1, 192, 71, 71]}
    out_1 {name:"Node_440:1",dtype:float32,shape:[192]}
    out_2 {name:"Node_440:2",dtype:float32,shape:[192]}
    attrs {'axis': 1, 'epsilon': 0.0010000000474974513, 'center': 1, 'scale': 0}
  }
}
layer {
  name:"Node_441"
  type:"annotation_compiler_end"
  top:"Node_441"
  bottom:"Node_440"
  layer_param {
    idx:441
    in_0 {name:"Node_440:0",dtype:float32,shape:[1, 192, 71, 71]}
    out_0 {name:"Node_441:0",dtype:float32,shape:[1, 192, 71, 71]}
    out_1 {name:"Node_441:1",dtype:float32,shape:[192]}
    out_2 {name:"Node_441:2",dtype:float32,shape:[192]}
    attrs {'compiler': 'tensorrt'}
  }
}
layer {
  name:"Node_442"
  type:"annotation_compiler_begin"
  top:"Node_442"
  bottom:"Node_441"
  layer_param {
    idx:442
    in_0 {name:"Node_441:0",dtype:float32,shape:[1, 192, 71, 71]}
    out_0 {name:"Node_442:0",dtype:float32,shape:[1, 192, 71, 71]}
    out_1 {name:"Node_442:1",dtype:float32,shape:[192]}
    out_2 {name:"Node_442:2",dtype:float32,shape:[192]}
    attrs {'compiler': 'tensorrt'}
  }
}
layer {
  name:"Node_444"
  type:"annotation_compiler_end"
  top:"Node_444"
  bottom:"Node_442"
  layer_param {
    idx:444
    in_0 {name:"Node_442:0",dtype:float32,shape:[1, 192, 71, 71]}
    out_0 {name:"Node_444:0",dtype:float32,shape:[1, 192, 71, 71]}
    attrs {'compiler': 'tensorrt'}
  }
}
layer {
  name:"Node_445"
  type:"annotation_compiler_begin"
  top:"Node_445"
  bottom:"Node_444"
  layer_param {
    idx:445
    in_0 {name:"Node_444:0",dtype:float32,shape:[1, 192, 71, 71]}
    out_0 {name:"Node_445:0",dtype:float32,shape:[1, 192, 71, 71]}
    attrs {'compiler': 'tensorrt'}
  }
}
layer {
  name:"Node_446"
  type:"nn_relu"
  top:"Node_446"
  bottom:"Node_445"
  layer_param {
    idx:446
    in_0 {name:"Node_445:0",dtype:float32,shape:[1, 192, 71, 71]}
    out_0 {name:"Node_446:0",dtype:float32,shape:[1, 192, 71, 71]}
  }
}
layer {
  name:"Node_447"
  type:"annotation_compiler_end"
  top:"Node_447"
  bottom:"Node_446"
  layer_param {
    idx:447
    in_0 {name:"Node_446:0",dtype:float32,shape:[1, 192, 71, 71]}
    out_0 {name:"Node_447:0",dtype:float32,shape:[1, 192, 71, 71]}
    attrs {'compiler': 'tensorrt'}
  }
}
layer {
  name:"Node_448"
  type:"annotation_compiler_begin"
  top:"Node_448"
  bottom:"Node_447"
  layer_param {
    idx:448
    in_0 {name:"Node_447:0",dtype:float32,shape:[1, 192, 71, 71]}
    out_0 {name:"Node_448:0",dtype:float32,shape:[1, 192, 71, 71]}
    attrs {'compiler': 'tensorrt'}
  }
}
layer {
  name:"Node_449"
  type:"nn_max_pool2d"
  top:"Node_449"
  bottom:"Node_448"
  layer_param {
    idx:449
    in_0 {name:"Node_448:0",dtype:float32,shape:[1, 192, 71, 71]}
    out_0 {name:"Node_449:0",dtype:float32,shape:[1, 192, 35, 35]}
    attrs {'pool_size': [3, 3], 'strides': [2, 2], 'dilation': [1, 1], 'padding': [0, 0, 0, 0], 'layout': 'NCHW', 'ceil_mode': 0}
  }
}
layer {
  name:"Node_450"
  type:"annotation_compiler_end"
  top:"Node_450"
  bottom:"Node_449"
  layer_param {
    idx:450
    in_0 {name:"Node_449:0",dtype:float32,shape:[1, 192, 35, 35]}
    out_0 {name:"Node_450:0",dtype:float32,shape:[1, 192, 35, 35]}
    attrs {'compiler': 'tensorrt'}
  }
}
layer {
  name:"Node_451"
  type:"annotation_compiler_begin"
  top:"Node_451"
  bottom:"Node_450"
  layer_param {
    idx:451
    in_0 {name:"Node_450:0",dtype:float32,shape:[1, 192, 35, 35]}
    out_0 {name:"Node_451:0",dtype:float32,shape:[1, 192, 35, 35]}
    attrs {'compiler': 'tensorrt'}
  }
}
layer {
  name:"Node_453"
  type:"const"
  top:"Node_453"
  layer_param {
    idx:453
    out_0 {name:"Node_453:0",dtype:float32,shape:[64, 192, 1, 1]}
  }
}
layer {
  name:"Node_454"
  type:"annotation_compiler_begin"
  top:"Node_454"
  bottom:"Node_453"
  layer_param {
    idx:454
    in_0 {name:"Node_453:0",dtype:float32,shape:[64, 192, 1, 1]}
    out_0 {name:"Node_454:0",dtype:float32,shape:[64, 192, 1, 1]}
    attrs {'compiler': 'tensorrt'}
  }
}
layer {
  name:"Node_455"
  type:"nn_conv2d"
  top:"Node_455"
  bottom:"Node_451"
  bottom:"Node_454"
  layer_param {
    idx:455
    in_0 {name:"Node_451:0",dtype:float32,shape:[1, 192, 35, 35]}
    in_1 {name:"Node_454:0",dtype:float32,shape:[64, 192, 1, 1]}
    out_0 {name:"Node_455:0",dtype:float32,shape:[1, 64, 35, 35]}
    attrs {'strides': [1, 1], 'padding': [0, 0, 0, 0], 'dilation': [1, 1], 'groups': 1, 'channels': 64, 'kernel_size': [1, 1], 'data_layout': 'NCHW', 'kernel_layout': 'OIHW', 'out_layout': '', 'out_dtype': ''}
  }
}
layer {
  name:"Node_456"
  type:"annotation_compiler_end"
  top:"Node_456"
  bottom:"Node_455"
  layer_param {
    idx:456
    in_0 {name:"Node_455:0",dtype:float32,shape:[1, 64, 35, 35]}
    out_0 {name:"Node_456:0",dtype:float32,shape:[1, 64, 35, 35]}
    attrs {'compiler': 'tensorrt'}
  }
}
layer {
  name:"Node_457"
  type:"annotation_compiler_begin"
  top:"Node_457"
  bottom:"Node_456"
  layer_param {
    idx:457
    in_0 {name:"Node_456:0",dtype:float32,shape:[1, 64, 35, 35]}
    out_0 {name:"Node_457:0",dtype:float32,shape:[1, 64, 35, 35]}
    attrs {'compiler': 'tensorrt'}
  }
}
layer {
  name:"Node_459"
  type:"const"
  top:"Node_459"
  layer_param {
    idx:459
    out_0 {name:"Node_459:0",dtype:float32,shape:[64]}
  }
}
layer {
  name:"Node_460"
  type:"annotation_compiler_begin"
  top:"Node_460"
  bottom:"Node_459"
  layer_param {
    idx:460
    in_0 {name:"Node_459:0",dtype:float32,shape:[64]}
    out_0 {name:"Node_460:0",dtype:float32,shape:[64]}
    attrs {'compiler': 'tensorrt'}
  }
}
layer {
  name:"Node_462"
  type:"const"
  top:"Node_462"
  layer_param {
    idx:462
    out_0 {name:"Node_462:0",dtype:float32,shape:[64]}
  }
}
layer {
  name:"Node_463"
  type:"annotation_compiler_begin"
  top:"Node_463"
  bottom:"Node_462"
  layer_param {
    idx:463
    in_0 {name:"Node_462:0",dtype:float32,shape:[64]}
    out_0 {name:"Node_463:0",dtype:float32,shape:[64]}
    attrs {'compiler': 'tensorrt'}
  }
}
layer {
  name:"Node_465"
  type:"const"
  top:"Node_465"
  layer_param {
    idx:465
    out_0 {name:"Node_465:0",dtype:float32,shape:[64]}
  }
}
layer {
  name:"Node_466"
  type:"annotation_compiler_begin"
  top:"Node_466"
  bottom:"Node_465"
  layer_param {
    idx:466
    in_0 {name:"Node_465:0",dtype:float32,shape:[64]}
    out_0 {name:"Node_466:0",dtype:float32,shape:[64]}
    attrs {'compiler': 'tensorrt'}
  }
}
layer {
  name:"Node_468"
  type:"const"
  top:"Node_468"
  layer_param {
    idx:468
    out_0 {name:"Node_468:0",dtype:float32,shape:[64]}
  }
}
layer {
  name:"Node_469"
  type:"annotation_compiler_begin"
  top:"Node_469"
  bottom:"Node_468"
  layer_param {
    idx:469
    in_0 {name:"Node_468:0",dtype:float32,shape:[64]}
    out_0 {name:"Node_469:0",dtype:float32,shape:[64]}
    attrs {'compiler': 'tensorrt'}
  }
}
layer {
  name:"Node_470"
  type:"nn_batch_norm"
  top:"Node_470"
  bottom:"Node_457"
  bottom:"Node_460"
  bottom:"Node_463"
  bottom:"Node_466"
  bottom:"Node_469"
  layer_param {
    idx:470
    in_0 {name:"Node_457:0",dtype:float32,shape:[1, 64, 35, 35]}
    in_1 {name:"Node_460:0",dtype:float32,shape:[64]}
    in_2 {name:"Node_463:0",dtype:float32,shape:[64]}
    in_3 {name:"Node_466:0",dtype:float32,shape:[64]}
    in_4 {name:"Node_469:0",dtype:float32,shape:[64]}
    out_0 {name:"Node_470:0",dtype:float32,shape:[1, 64, 35, 35]}
    out_1 {name:"Node_470:1",dtype:float32,shape:[64]}
    out_2 {name:"Node_470:2",dtype:float32,shape:[64]}
    attrs {'axis': 1, 'epsilon': 0.0010000000474974513, 'center': 1, 'scale': 0}
  }
}
layer {
  name:"Node_471"
  type:"annotation_compiler_end"
  top:"Node_471"
  bottom:"Node_470"
  layer_param {
    idx:471
    in_0 {name:"Node_470:0",dtype:float32,shape:[1, 64, 35, 35]}
    out_0 {name:"Node_471:0",dtype:float32,shape:[1, 64, 35, 35]}
    out_1 {name:"Node_471:1",dtype:float32,shape:[64]}
    out_2 {name:"Node_471:2",dtype:float32,shape:[64]}
    attrs {'compiler': 'tensorrt'}
  }
}
layer {
  name:"Node_472"
  type:"annotation_compiler_begin"
  top:"Node_472"
  bottom:"Node_471"
  layer_param {
    idx:472
    in_0 {name:"Node_471:0",dtype:float32,shape:[1, 64, 35, 35]}
    out_0 {name:"Node_472:0",dtype:float32,shape:[1, 64, 35, 35]}
    out_1 {name:"Node_472:1",dtype:float32,shape:[64]}
    out_2 {name:"Node_472:2",dtype:float32,shape:[64]}
    attrs {'compiler': 'tensorrt'}
  }
}
layer {
  name:"Node_474"
  type:"annotation_compiler_end"
  top:"Node_474"
  bottom:"Node_472"
  layer_param {
    idx:474
    in_0 {name:"Node_472:0",dtype:float32,shape:[1, 64, 35, 35]}
    out_0 {name:"Node_474:0",dtype:float32,shape:[1, 64, 35, 35]}
    attrs {'compiler': 'tensorrt'}
  }
}
layer {
  name:"Node_475"
  type:"annotation_compiler_begin"
  top:"Node_475"
  bottom:"Node_474"
  layer_param {
    idx:475
    in_0 {name:"Node_474:0",dtype:float32,shape:[1, 64, 35, 35]}
    out_0 {name:"Node_475:0",dtype:float32,shape:[1, 64, 35, 35]}
    attrs {'compiler': 'tensorrt'}
  }
}
layer {
  name:"Node_476"
  type:"nn_relu"
  top:"Node_476"
  bottom:"Node_475"
  layer_param {
    idx:476
    in_0 {name:"Node_475:0",dtype:float32,shape:[1, 64, 35, 35]}
    out_0 {name:"Node_476:0",dtype:float32,shape:[1, 64, 35, 35]}
  }
}
layer {
  name:"Node_477"
  type:"annotation_compiler_end"
  top:"Node_477"
  bottom:"Node_476"
  layer_param {
    idx:477
    in_0 {name:"Node_476:0",dtype:float32,shape:[1, 64, 35, 35]}
    out_0 {name:"Node_477:0",dtype:float32,shape:[1, 64, 35, 35]}
    attrs {'compiler': 'tensorrt'}
  }
}
layer {
  name:"Node_478"
  type:"annotation_compiler_begin"
  top:"Node_478"
  bottom:"Node_477"
  layer_param {
    idx:478
    in_0 {name:"Node_477:0",dtype:float32,shape:[1, 64, 35, 35]}
    out_0 {name:"Node_478:0",dtype:float32,shape:[1, 64, 35, 35]}
    attrs {'compiler': 'tensorrt'}
  }
}
layer {
  name:"Node_504"
  type:"annotation_compiler_end"
  top:"Node_504"
  bottom:"Node_449"
  layer_param {
    idx:504
    in_0 {name:"Node_449:0",dtype:float32,shape:[1, 192, 35, 35]}
    out_0 {name:"Node_504:0",dtype:float32,shape:[1, 192, 35, 35]}
    attrs {'compiler': 'tensorrt'}
  }
}
layer {
  name:"Node_505"
  type:"annotation_compiler_begin"
  top:"Node_505"
  bottom:"Node_504"
  layer_param {
    idx:505
    in_0 {name:"Node_504:0",dtype:float32,shape:[1, 192, 35, 35]}
    out_0 {name:"Node_505:0",dtype:float32,shape:[1, 192, 35, 35]}
    attrs {'compiler': 'tensorrt'}
  }
}
layer {
  name:"Node_507"
  type:"const"
  top:"Node_507"
  layer_param {
    idx:507
    out_0 {name:"Node_507:0",dtype:float32,shape:[48, 192, 1, 1]}
  }
}
layer {
  name:"Node_508"
  type:"annotation_compiler_begin"
  top:"Node_508"
  bottom:"Node_507"
  layer_param {
    idx:508
    in_0 {name:"Node_507:0",dtype:float32,shape:[48, 192, 1, 1]}
    out_0 {name:"Node_508:0",dtype:float32,shape:[48, 192, 1, 1]}
    attrs {'compiler': 'tensorrt'}
  }
}
layer {
  name:"Node_509"
  type:"nn_conv2d"
  top:"Node_509"
  bottom:"Node_505"
  bottom:"Node_508"
  layer_param {
    idx:509
    in_0 {name:"Node_505:0",dtype:float32,shape:[1, 192, 35, 35]}
    in_1 {name:"Node_508:0",dtype:float32,shape:[48, 192, 1, 1]}
    out_0 {name:"Node_509:0",dtype:float32,shape:[1, 48, 35, 35]}
    attrs {'strides': [1, 1], 'padding': [0, 0, 0, 0], 'dilation': [1, 1], 'groups': 1, 'channels': 48, 'kernel_size': [1, 1], 'data_layout': 'NCHW', 'kernel_layout': 'OIHW', 'out_layout': '', 'out_dtype': ''}
  }
}
layer {
  name:"Node_510"
  type:"annotation_compiler_end"
  top:"Node_510"
  bottom:"Node_509"
  layer_param {
    idx:510
    in_0 {name:"Node_509:0",dtype:float32,shape:[1, 48, 35, 35]}
    out_0 {name:"Node_510:0",dtype:float32,shape:[1, 48, 35, 35]}
    attrs {'compiler': 'tensorrt'}
  }
}
layer {
  name:"Node_511"
  type:"annotation_compiler_begin"
  top:"Node_511"
  bottom:"Node_510"
  layer_param {
    idx:511
    in_0 {name:"Node_510:0",dtype:float32,shape:[1, 48, 35, 35]}
    out_0 {name:"Node_511:0",dtype:float32,shape:[1, 48, 35, 35]}
    attrs {'compiler': 'tensorrt'}
  }
}
layer {
  name:"Node_513"
  type:"const"
  top:"Node_513"
  layer_param {
    idx:513
    out_0 {name:"Node_513:0",dtype:float32,shape:[48]}
  }
}
layer {
  name:"Node_514"
  type:"annotation_compiler_begin"
  top:"Node_514"
  bottom:"Node_513"
  layer_param {
    idx:514
    in_0 {name:"Node_513:0",dtype:float32,shape:[48]}
    out_0 {name:"Node_514:0",dtype:float32,shape:[48]}
    attrs {'compiler': 'tensorrt'}
  }
}
layer {
  name:"Node_516"
  type:"const"
  top:"Node_516"
  layer_param {
    idx:516
    out_0 {name:"Node_516:0",dtype:float32,shape:[48]}
  }
}
layer {
  name:"Node_517"
  type:"annotation_compiler_begin"
  top:"Node_517"
  bottom:"Node_516"
  layer_param {
    idx:517
    in_0 {name:"Node_516:0",dtype:float32,shape:[48]}
    out_0 {name:"Node_517:0",dtype:float32,shape:[48]}
    attrs {'compiler': 'tensorrt'}
  }
}
layer {
  name:"Node_519"
  type:"const"
  top:"Node_519"
  layer_param {
    idx:519
    out_0 {name:"Node_519:0",dtype:float32,shape:[48]}
  }
}
layer {
  name:"Node_520"
  type:"annotation_compiler_begin"
  top:"Node_520"
  bottom:"Node_519"
  layer_param {
    idx:520
    in_0 {name:"Node_519:0",dtype:float32,shape:[48]}
    out_0 {name:"Node_520:0",dtype:float32,shape:[48]}
    attrs {'compiler': 'tensorrt'}
  }
}
layer {
  name:"Node_522"
  type:"const"
  top:"Node_522"
  layer_param {
    idx:522
    out_0 {name:"Node_522:0",dtype:float32,shape:[48]}
  }
}
layer {
  name:"Node_523"
  type:"annotation_compiler_begin"
  top:"Node_523"
  bottom:"Node_522"
  layer_param {
    idx:523
    in_0 {name:"Node_522:0",dtype:float32,shape:[48]}
    out_0 {name:"Node_523:0",dtype:float32,shape:[48]}
    attrs {'compiler': 'tensorrt'}
  }
}
layer {
  name:"Node_524"
  type:"nn_batch_norm"
  top:"Node_524"
  bottom:"Node_511"
  bottom:"Node_514"
  bottom:"Node_517"
  bottom:"Node_520"
  bottom:"Node_523"
  layer_param {
    idx:524
    in_0 {name:"Node_511:0",dtype:float32,shape:[1, 48, 35, 35]}
    in_1 {name:"Node_514:0",dtype:float32,shape:[48]}
    in_2 {name:"Node_517:0",dtype:float32,shape:[48]}
    in_3 {name:"Node_520:0",dtype:float32,shape:[48]}
    in_4 {name:"Node_523:0",dtype:float32,shape:[48]}
    out_0 {name:"Node_524:0",dtype:float32,shape:[1, 48, 35, 35]}
    out_1 {name:"Node_524:1",dtype:float32,shape:[48]}
    out_2 {name:"Node_524:2",dtype:float32,shape:[48]}
    attrs {'axis': 1, 'epsilon': 0.0010000000474974513, 'center': 1, 'scale': 0}
  }
}
layer {
  name:"Node_525"
  type:"annotation_compiler_end"
  top:"Node_525"
  bottom:"Node_524"
  layer_param {
    idx:525
    in_0 {name:"Node_524:0",dtype:float32,shape:[1, 48, 35, 35]}
    out_0 {name:"Node_525:0",dtype:float32,shape:[1, 48, 35, 35]}
    out_1 {name:"Node_525:1",dtype:float32,shape:[48]}
    out_2 {name:"Node_525:2",dtype:float32,shape:[48]}
    attrs {'compiler': 'tensorrt'}
  }
}
layer {
  name:"Node_526"
  type:"annotation_compiler_begin"
  top:"Node_526"
  bottom:"Node_525"
  layer_param {
    idx:526
    in_0 {name:"Node_525:0",dtype:float32,shape:[1, 48, 35, 35]}
    out_0 {name:"Node_526:0",dtype:float32,shape:[1, 48, 35, 35]}
    out_1 {name:"Node_526:1",dtype:float32,shape:[48]}
    out_2 {name:"Node_526:2",dtype:float32,shape:[48]}
    attrs {'compiler': 'tensorrt'}
  }
}
layer {
  name:"Node_528"
  type:"annotation_compiler_end"
  top:"Node_528"
  bottom:"Node_526"
  layer_param {
    idx:528
    in_0 {name:"Node_526:0",dtype:float32,shape:[1, 48, 35, 35]}
    out_0 {name:"Node_528:0",dtype:float32,shape:[1, 48, 35, 35]}
    attrs {'compiler': 'tensorrt'}
  }
}
layer {
  name:"Node_529"
  type:"annotation_compiler_begin"
  top:"Node_529"
  bottom:"Node_528"
  layer_param {
    idx:529
    in_0 {name:"Node_528:0",dtype:float32,shape:[1, 48, 35, 35]}
    out_0 {name:"Node_529:0",dtype:float32,shape:[1, 48, 35, 35]}
    attrs {'compiler': 'tensorrt'}
  }
}
layer {
  name:"Node_530"
  type:"nn_relu"
  top:"Node_530"
  bottom:"Node_529"
  layer_param {
    idx:530
    in_0 {name:"Node_529:0",dtype:float32,shape:[1, 48, 35, 35]}
    out_0 {name:"Node_530:0",dtype:float32,shape:[1, 48, 35, 35]}
  }
}
layer {
  name:"Node_531"
  type:"annotation_compiler_end"
  top:"Node_531"
  bottom:"Node_530"
  layer_param {
    idx:531
    in_0 {name:"Node_530:0",dtype:float32,shape:[1, 48, 35, 35]}
    out_0 {name:"Node_531:0",dtype:float32,shape:[1, 48, 35, 35]}
    attrs {'compiler': 'tensorrt'}
  }
}
layer {
  name:"Node_532"
  type:"annotation_compiler_begin"
  top:"Node_532"
  bottom:"Node_531"
  layer_param {
    idx:532
    in_0 {name:"Node_531:0",dtype:float32,shape:[1, 48, 35, 35]}
    out_0 {name:"Node_532:0",dtype:float32,shape:[1, 48, 35, 35]}
    attrs {'compiler': 'tensorrt'}
  }
}
layer {
  name:"Node_534"
  type:"const"
  top:"Node_534"
  layer_param {
    idx:534
    out_0 {name:"Node_534:0",dtype:float32,shape:[64, 48, 5, 5]}
  }
}
layer {
  name:"Node_535"
  type:"annotation_compiler_begin"
  top:"Node_535"
  bottom:"Node_534"
  layer_param {
    idx:535
    in_0 {name:"Node_534:0",dtype:float32,shape:[64, 48, 5, 5]}
    out_0 {name:"Node_535:0",dtype:float32,shape:[64, 48, 5, 5]}
    attrs {'compiler': 'tensorrt'}
  }
}
layer {
  name:"Node_536"
  type:"nn_conv2d"
  top:"Node_536"
  bottom:"Node_532"
  bottom:"Node_535"
  layer_param {
    idx:536
    in_0 {name:"Node_532:0",dtype:float32,shape:[1, 48, 35, 35]}
    in_1 {name:"Node_535:0",dtype:float32,shape:[64, 48, 5, 5]}
    out_0 {name:"Node_536:0",dtype:float32,shape:[1, 64, 35, 35]}
    attrs {'strides': [1, 1], 'padding': [2, 2, 2, 2], 'dilation': [1, 1], 'groups': 1, 'channels': 64, 'kernel_size': [5, 5], 'data_layout': 'NCHW', 'kernel_layout': 'OIHW', 'out_layout': '', 'out_dtype': ''}
  }
}
layer {
  name:"Node_537"
  type:"annotation_compiler_end"
  top:"Node_537"
  bottom:"Node_536"
  layer_param {
    idx:537
    in_0 {name:"Node_536:0",dtype:float32,shape:[1, 64, 35, 35]}
    out_0 {name:"Node_537:0",dtype:float32,shape:[1, 64, 35, 35]}
    attrs {'compiler': 'tensorrt'}
  }
}
layer {
  name:"Node_538"
  type:"annotation_compiler_begin"
  top:"Node_538"
  bottom:"Node_537"
  layer_param {
    idx:538
    in_0 {name:"Node_537:0",dtype:float32,shape:[1, 64, 35, 35]}
    out_0 {name:"Node_538:0",dtype:float32,shape:[1, 64, 35, 35]}
    attrs {'compiler': 'tensorrt'}
  }
}
layer {
  name:"Node_540"
  type:"const"
  top:"Node_540"
  layer_param {
    idx:540
    out_0 {name:"Node_540:0",dtype:float32,shape:[64]}
  }
}
layer {
  name:"Node_541"
  type:"annotation_compiler_begin"
  top:"Node_541"
  bottom:"Node_540"
  layer_param {
    idx:541
    in_0 {name:"Node_540:0",dtype:float32,shape:[64]}
    out_0 {name:"Node_541:0",dtype:float32,shape:[64]}
    attrs {'compiler': 'tensorrt'}
  }
}
layer {
  name:"Node_543"
  type:"const"
  top:"Node_543"
  layer_param {
    idx:543
    out_0 {name:"Node_543:0",dtype:float32,shape:[64]}
  }
}
layer {
  name:"Node_544"
  type:"annotation_compiler_begin"
  top:"Node_544"
  bottom:"Node_543"
  layer_param {
    idx:544
    in_0 {name:"Node_543:0",dtype:float32,shape:[64]}
    out_0 {name:"Node_544:0",dtype:float32,shape:[64]}
    attrs {'compiler': 'tensorrt'}
  }
}
layer {
  name:"Node_546"
  type:"const"
  top:"Node_546"
  layer_param {
    idx:546
    out_0 {name:"Node_546:0",dtype:float32,shape:[64]}
  }
}
layer {
  name:"Node_547"
  type:"annotation_compiler_begin"
  top:"Node_547"
  bottom:"Node_546"
  layer_param {
    idx:547
    in_0 {name:"Node_546:0",dtype:float32,shape:[64]}
    out_0 {name:"Node_547:0",dtype:float32,shape:[64]}
    attrs {'compiler': 'tensorrt'}
  }
}
layer {
  name:"Node_549"
  type:"const"
  top:"Node_549"
  layer_param {
    idx:549
    out_0 {name:"Node_549:0",dtype:float32,shape:[64]}
  }
}
layer {
  name:"Node_550"
  type:"annotation_compiler_begin"
  top:"Node_550"
  bottom:"Node_549"
  layer_param {
    idx:550
    in_0 {name:"Node_549:0",dtype:float32,shape:[64]}
    out_0 {name:"Node_550:0",dtype:float32,shape:[64]}
    attrs {'compiler': 'tensorrt'}
  }
}
layer {
  name:"Node_551"
  type:"nn_batch_norm"
  top:"Node_551"
  bottom:"Node_538"
  bottom:"Node_541"
  bottom:"Node_544"
  bottom:"Node_547"
  bottom:"Node_550"
  layer_param {
    idx:551
    in_0 {name:"Node_538:0",dtype:float32,shape:[1, 64, 35, 35]}
    in_1 {name:"Node_541:0",dtype:float32,shape:[64]}
    in_2 {name:"Node_544:0",dtype:float32,shape:[64]}
    in_3 {name:"Node_547:0",dtype:float32,shape:[64]}
    in_4 {name:"Node_550:0",dtype:float32,shape:[64]}
    out_0 {name:"Node_551:0",dtype:float32,shape:[1, 64, 35, 35]}
    out_1 {name:"Node_551:1",dtype:float32,shape:[64]}
    out_2 {name:"Node_551:2",dtype:float32,shape:[64]}
    attrs {'axis': 1, 'epsilon': 0.0010000000474974513, 'center': 1, 'scale': 0}
  }
}
layer {
  name:"Node_552"
  type:"annotation_compiler_end"
  top:"Node_552"
  bottom:"Node_551"
  layer_param {
    idx:552
    in_0 {name:"Node_551:0",dtype:float32,shape:[1, 64, 35, 35]}
    out_0 {name:"Node_552:0",dtype:float32,shape:[1, 64, 35, 35]}
    out_1 {name:"Node_552:1",dtype:float32,shape:[64]}
    out_2 {name:"Node_552:2",dtype:float32,shape:[64]}
    attrs {'compiler': 'tensorrt'}
  }
}
layer {
  name:"Node_553"
  type:"annotation_compiler_begin"
  top:"Node_553"
  bottom:"Node_552"
  layer_param {
    idx:553
    in_0 {name:"Node_552:0",dtype:float32,shape:[1, 64, 35, 35]}
    out_0 {name:"Node_553:0",dtype:float32,shape:[1, 64, 35, 35]}
    out_1 {name:"Node_553:1",dtype:float32,shape:[64]}
    out_2 {name:"Node_553:2",dtype:float32,shape:[64]}
    attrs {'compiler': 'tensorrt'}
  }
}
layer {
  name:"Node_555"
  type:"annotation_compiler_end"
  top:"Node_555"
  bottom:"Node_553"
  layer_param {
    idx:555
    in_0 {name:"Node_553:0",dtype:float32,shape:[1, 64, 35, 35]}
    out_0 {name:"Node_555:0",dtype:float32,shape:[1, 64, 35, 35]}
    attrs {'compiler': 'tensorrt'}
  }
}
layer {
  name:"Node_556"
  type:"annotation_compiler_begin"
  top:"Node_556"
  bottom:"Node_555"
  layer_param {
    idx:556
    in_0 {name:"Node_555:0",dtype:float32,shape:[1, 64, 35, 35]}
    out_0 {name:"Node_556:0",dtype:float32,shape:[1, 64, 35, 35]}
    attrs {'compiler': 'tensorrt'}
  }
}
layer {
  name:"Node_557"
  type:"nn_relu"
  top:"Node_557"
  bottom:"Node_556"
  layer_param {
    idx:557
    in_0 {name:"Node_556:0",dtype:float32,shape:[1, 64, 35, 35]}
    out_0 {name:"Node_557:0",dtype:float32,shape:[1, 64, 35, 35]}
  }
}
layer {
  name:"Node_558"
  type:"annotation_compiler_end"
  top:"Node_558"
  bottom:"Node_557"
  layer_param {
    idx:558
    in_0 {name:"Node_557:0",dtype:float32,shape:[1, 64, 35, 35]}
    out_0 {name:"Node_558:0",dtype:float32,shape:[1, 64, 35, 35]}
    attrs {'compiler': 'tensorrt'}
  }
}
layer {
  name:"Node_559"
  type:"annotation_compiler_begin"
  top:"Node_559"
  bottom:"Node_558"
  layer_param {
    idx:559
    in_0 {name:"Node_558:0",dtype:float32,shape:[1, 64, 35, 35]}
    out_0 {name:"Node_559:0",dtype:float32,shape:[1, 64, 35, 35]}
    attrs {'compiler': 'tensorrt'}
  }
}
layer {
  name:"Node_596"
  type:"annotation_compiler_end"
  top:"Node_596"
  bottom:"Node_449"
  layer_param {
    idx:596
    in_0 {name:"Node_449:0",dtype:float32,shape:[1, 192, 35, 35]}
    out_0 {name:"Node_596:0",dtype:float32,shape:[1, 192, 35, 35]}
    attrs {'compiler': 'tensorrt'}
  }
}
layer {
  name:"Node_597"
  type:"annotation_compiler_begin"
  top:"Node_597"
  bottom:"Node_596"
  layer_param {
    idx:597
    in_0 {name:"Node_596:0",dtype:float32,shape:[1, 192, 35, 35]}
    out_0 {name:"Node_597:0",dtype:float32,shape:[1, 192, 35, 35]}
    attrs {'compiler': 'tensorrt'}
  }
}
layer {
  name:"Node_599"
  type:"const"
  top:"Node_599"
  layer_param {
    idx:599
    out_0 {name:"Node_599:0",dtype:float32,shape:[64, 192, 1, 1]}
  }
}
layer {
  name:"Node_600"
  type:"annotation_compiler_begin"
  top:"Node_600"
  bottom:"Node_599"
  layer_param {
    idx:600
    in_0 {name:"Node_599:0",dtype:float32,shape:[64, 192, 1, 1]}
    out_0 {name:"Node_600:0",dtype:float32,shape:[64, 192, 1, 1]}
    attrs {'compiler': 'tensorrt'}
  }
}
layer {
  name:"Node_601"
  type:"nn_conv2d"
  top:"Node_601"
  bottom:"Node_597"
  bottom:"Node_600"
  layer_param {
    idx:601
    in_0 {name:"Node_597:0",dtype:float32,shape:[1, 192, 35, 35]}
    in_1 {name:"Node_600:0",dtype:float32,shape:[64, 192, 1, 1]}
    out_0 {name:"Node_601:0",dtype:float32,shape:[1, 64, 35, 35]}
    attrs {'strides': [1, 1], 'padding': [0, 0, 0, 0], 'dilation': [1, 1], 'groups': 1, 'channels': 64, 'kernel_size': [1, 1], 'data_layout': 'NCHW', 'kernel_layout': 'OIHW', 'out_layout': '', 'out_dtype': ''}
  }
}
layer {
  name:"Node_602"
  type:"annotation_compiler_end"
  top:"Node_602"
  bottom:"Node_601"
  layer_param {
    idx:602
    in_0 {name:"Node_601:0",dtype:float32,shape:[1, 64, 35, 35]}
    out_0 {name:"Node_602:0",dtype:float32,shape:[1, 64, 35, 35]}
    attrs {'compiler': 'tensorrt'}
  }
}
layer {
  name:"Node_603"
  type:"annotation_compiler_begin"
  top:"Node_603"
  bottom:"Node_602"
  layer_param {
    idx:603
    in_0 {name:"Node_602:0",dtype:float32,shape:[1, 64, 35, 35]}
    out_0 {name:"Node_603:0",dtype:float32,shape:[1, 64, 35, 35]}
    attrs {'compiler': 'tensorrt'}
  }
}
layer {
  name:"Node_605"
  type:"const"
  top:"Node_605"
  layer_param {
    idx:605
    out_0 {name:"Node_605:0",dtype:float32,shape:[64]}
  }
}
layer {
  name:"Node_606"
  type:"annotation_compiler_begin"
  top:"Node_606"
  bottom:"Node_605"
  layer_param {
    idx:606
    in_0 {name:"Node_605:0",dtype:float32,shape:[64]}
    out_0 {name:"Node_606:0",dtype:float32,shape:[64]}
    attrs {'compiler': 'tensorrt'}
  }
}
layer {
  name:"Node_608"
  type:"const"
  top:"Node_608"
  layer_param {
    idx:608
    out_0 {name:"Node_608:0",dtype:float32,shape:[64]}
  }
}
layer {
  name:"Node_609"
  type:"annotation_compiler_begin"
  top:"Node_609"
  bottom:"Node_608"
  layer_param {
    idx:609
    in_0 {name:"Node_608:0",dtype:float32,shape:[64]}
    out_0 {name:"Node_609:0",dtype:float32,shape:[64]}
    attrs {'compiler': 'tensorrt'}
  }
}
layer {
  name:"Node_611"
  type:"const"
  top:"Node_611"
  layer_param {
    idx:611
    out_0 {name:"Node_611:0",dtype:float32,shape:[64]}
  }
}
layer {
  name:"Node_612"
  type:"annotation_compiler_begin"
  top:"Node_612"
  bottom:"Node_611"
  layer_param {
    idx:612
    in_0 {name:"Node_611:0",dtype:float32,shape:[64]}
    out_0 {name:"Node_612:0",dtype:float32,shape:[64]}
    attrs {'compiler': 'tensorrt'}
  }
}
layer {
  name:"Node_614"
  type:"const"
  top:"Node_614"
  layer_param {
    idx:614
    out_0 {name:"Node_614:0",dtype:float32,shape:[64]}
  }
}
layer {
  name:"Node_615"
  type:"annotation_compiler_begin"
  top:"Node_615"
  bottom:"Node_614"
  layer_param {
    idx:615
    in_0 {name:"Node_614:0",dtype:float32,shape:[64]}
    out_0 {name:"Node_615:0",dtype:float32,shape:[64]}
    attrs {'compiler': 'tensorrt'}
  }
}
layer {
  name:"Node_616"
  type:"nn_batch_norm"
  top:"Node_616"
  bottom:"Node_603"
  bottom:"Node_606"
  bottom:"Node_609"
  bottom:"Node_612"
  bottom:"Node_615"
  layer_param {
    idx:616
    in_0 {name:"Node_603:0",dtype:float32,shape:[1, 64, 35, 35]}
    in_1 {name:"Node_606:0",dtype:float32,shape:[64]}
    in_2 {name:"Node_609:0",dtype:float32,shape:[64]}
    in_3 {name:"Node_612:0",dtype:float32,shape:[64]}
    in_4 {name:"Node_615:0",dtype:float32,shape:[64]}
    out_0 {name:"Node_616:0",dtype:float32,shape:[1, 64, 35, 35]}
    out_1 {name:"Node_616:1",dtype:float32,shape:[64]}
    out_2 {name:"Node_616:2",dtype:float32,shape:[64]}
    attrs {'axis': 1, 'epsilon': 0.0010000000474974513, 'center': 1, 'scale': 0}
  }
}
layer {
  name:"Node_617"
  type:"annotation_compiler_end"
  top:"Node_617"
  bottom:"Node_616"
  layer_param {
    idx:617
    in_0 {name:"Node_616:0",dtype:float32,shape:[1, 64, 35, 35]}
    out_0 {name:"Node_617:0",dtype:float32,shape:[1, 64, 35, 35]}
    out_1 {name:"Node_617:1",dtype:float32,shape:[64]}
    out_2 {name:"Node_617:2",dtype:float32,shape:[64]}
    attrs {'compiler': 'tensorrt'}
  }
}
layer {
  name:"Node_618"
  type:"annotation_compiler_begin"
  top:"Node_618"
  bottom:"Node_617"
  layer_param {
    idx:618
    in_0 {name:"Node_617:0",dtype:float32,shape:[1, 64, 35, 35]}
    out_0 {name:"Node_618:0",dtype:float32,shape:[1, 64, 35, 35]}
    out_1 {name:"Node_618:1",dtype:float32,shape:[64]}
    out_2 {name:"Node_618:2",dtype:float32,shape:[64]}
    attrs {'compiler': 'tensorrt'}
  }
}
layer {
  name:"Node_620"
  type:"annotation_compiler_end"
  top:"Node_620"
  bottom:"Node_618"
  layer_param {
    idx:620
    in_0 {name:"Node_618:0",dtype:float32,shape:[1, 64, 35, 35]}
    out_0 {name:"Node_620:0",dtype:float32,shape:[1, 64, 35, 35]}
    attrs {'compiler': 'tensorrt'}
  }
}
layer {
  name:"Node_621"
  type:"annotation_compiler_begin"
  top:"Node_621"
  bottom:"Node_620"
  layer_param {
    idx:621
    in_0 {name:"Node_620:0",dtype:float32,shape:[1, 64, 35, 35]}
    out_0 {name:"Node_621:0",dtype:float32,shape:[1, 64, 35, 35]}
    attrs {'compiler': 'tensorrt'}
  }
}
layer {
  name:"Node_622"
  type:"nn_relu"
  top:"Node_622"
  bottom:"Node_621"
  layer_param {
    idx:622
    in_0 {name:"Node_621:0",dtype:float32,shape:[1, 64, 35, 35]}
    out_0 {name:"Node_622:0",dtype:float32,shape:[1, 64, 35, 35]}
  }
}
layer {
  name:"Node_623"
  type:"annotation_compiler_end"
  top:"Node_623"
  bottom:"Node_622"
  layer_param {
    idx:623
    in_0 {name:"Node_622:0",dtype:float32,shape:[1, 64, 35, 35]}
    out_0 {name:"Node_623:0",dtype:float32,shape:[1, 64, 35, 35]}
    attrs {'compiler': 'tensorrt'}
  }
}
layer {
  name:"Node_624"
  type:"annotation_compiler_begin"
  top:"Node_624"
  bottom:"Node_623"
  layer_param {
    idx:624
    in_0 {name:"Node_623:0",dtype:float32,shape:[1, 64, 35, 35]}
    out_0 {name:"Node_624:0",dtype:float32,shape:[1, 64, 35, 35]}
    attrs {'compiler': 'tensorrt'}
  }
}
layer {
  name:"Node_626"
  type:"const"
  top:"Node_626"
  layer_param {
    idx:626
    out_0 {name:"Node_626:0",dtype:float32,shape:[96, 64, 3, 3]}
  }
}
layer {
  name:"Node_627"
  type:"annotation_compiler_begin"
  top:"Node_627"
  bottom:"Node_626"
  layer_param {
    idx:627
    in_0 {name:"Node_626:0",dtype:float32,shape:[96, 64, 3, 3]}
    out_0 {name:"Node_627:0",dtype:float32,shape:[96, 64, 3, 3]}
    attrs {'compiler': 'tensorrt'}
  }
}
layer {
  name:"Node_628"
  type:"nn_conv2d"
  top:"Node_628"
  bottom:"Node_624"
  bottom:"Node_627"
  layer_param {
    idx:628
    in_0 {name:"Node_624:0",dtype:float32,shape:[1, 64, 35, 35]}
    in_1 {name:"Node_627:0",dtype:float32,shape:[96, 64, 3, 3]}
    out_0 {name:"Node_628:0",dtype:float32,shape:[1, 96, 35, 35]}
    attrs {'strides': [1, 1], 'padding': [1, 1, 1, 1], 'dilation': [1, 1], 'groups': 1, 'channels': 96, 'kernel_size': [3, 3], 'data_layout': 'NCHW', 'kernel_layout': 'OIHW', 'out_layout': '', 'out_dtype': ''}
  }
}
layer {
  name:"Node_629"
  type:"annotation_compiler_end"
  top:"Node_629"
  bottom:"Node_628"
  layer_param {
    idx:629
    in_0 {name:"Node_628:0",dtype:float32,shape:[1, 96, 35, 35]}
    out_0 {name:"Node_629:0",dtype:float32,shape:[1, 96, 35, 35]}
    attrs {'compiler': 'tensorrt'}
  }
}
layer {
  name:"Node_630"
  type:"annotation_compiler_begin"
  top:"Node_630"
  bottom:"Node_629"
  layer_param {
    idx:630
    in_0 {name:"Node_629:0",dtype:float32,shape:[1, 96, 35, 35]}
    out_0 {name:"Node_630:0",dtype:float32,shape:[1, 96, 35, 35]}
    attrs {'compiler': 'tensorrt'}
  }
}
layer {
  name:"Node_632"
  type:"const"
  top:"Node_632"
  layer_param {
    idx:632
    out_0 {name:"Node_632:0",dtype:float32,shape:[96]}
  }
}
layer {
  name:"Node_633"
  type:"annotation_compiler_begin"
  top:"Node_633"
  bottom:"Node_632"
  layer_param {
    idx:633
    in_0 {name:"Node_632:0",dtype:float32,shape:[96]}
    out_0 {name:"Node_633:0",dtype:float32,shape:[96]}
    attrs {'compiler': 'tensorrt'}
  }
}
layer {
  name:"Node_635"
  type:"const"
  top:"Node_635"
  layer_param {
    idx:635
    out_0 {name:"Node_635:0",dtype:float32,shape:[96]}
  }
}
layer {
  name:"Node_636"
  type:"annotation_compiler_begin"
  top:"Node_636"
  bottom:"Node_635"
  layer_param {
    idx:636
    in_0 {name:"Node_635:0",dtype:float32,shape:[96]}
    out_0 {name:"Node_636:0",dtype:float32,shape:[96]}
    attrs {'compiler': 'tensorrt'}
  }
}
layer {
  name:"Node_638"
  type:"const"
  top:"Node_638"
  layer_param {
    idx:638
    out_0 {name:"Node_638:0",dtype:float32,shape:[96]}
  }
}
layer {
  name:"Node_639"
  type:"annotation_compiler_begin"
  top:"Node_639"
  bottom:"Node_638"
  layer_param {
    idx:639
    in_0 {name:"Node_638:0",dtype:float32,shape:[96]}
    out_0 {name:"Node_639:0",dtype:float32,shape:[96]}
    attrs {'compiler': 'tensorrt'}
  }
}
layer {
  name:"Node_641"
  type:"const"
  top:"Node_641"
  layer_param {
    idx:641
    out_0 {name:"Node_641:0",dtype:float32,shape:[96]}
  }
}
layer {
  name:"Node_642"
  type:"annotation_compiler_begin"
  top:"Node_642"
  bottom:"Node_641"
  layer_param {
    idx:642
    in_0 {name:"Node_641:0",dtype:float32,shape:[96]}
    out_0 {name:"Node_642:0",dtype:float32,shape:[96]}
    attrs {'compiler': 'tensorrt'}
  }
}
layer {
  name:"Node_643"
  type:"nn_batch_norm"
  top:"Node_643"
  bottom:"Node_630"
  bottom:"Node_633"
  bottom:"Node_636"
  bottom:"Node_639"
  bottom:"Node_642"
  layer_param {
    idx:643
    in_0 {name:"Node_630:0",dtype:float32,shape:[1, 96, 35, 35]}
    in_1 {name:"Node_633:0",dtype:float32,shape:[96]}
    in_2 {name:"Node_636:0",dtype:float32,shape:[96]}
    in_3 {name:"Node_639:0",dtype:float32,shape:[96]}
    in_4 {name:"Node_642:0",dtype:float32,shape:[96]}
    out_0 {name:"Node_643:0",dtype:float32,shape:[1, 96, 35, 35]}
    out_1 {name:"Node_643:1",dtype:float32,shape:[96]}
    out_2 {name:"Node_643:2",dtype:float32,shape:[96]}
    attrs {'axis': 1, 'epsilon': 0.0010000000474974513, 'center': 1, 'scale': 0}
  }
}
layer {
  name:"Node_644"
  type:"annotation_compiler_end"
  top:"Node_644"
  bottom:"Node_643"
  layer_param {
    idx:644
    in_0 {name:"Node_643:0",dtype:float32,shape:[1, 96, 35, 35]}
    out_0 {name:"Node_644:0",dtype:float32,shape:[1, 96, 35, 35]}
    out_1 {name:"Node_644:1",dtype:float32,shape:[96]}
    out_2 {name:"Node_644:2",dtype:float32,shape:[96]}
    attrs {'compiler': 'tensorrt'}
  }
}
layer {
  name:"Node_645"
  type:"annotation_compiler_begin"
  top:"Node_645"
  bottom:"Node_644"
  layer_param {
    idx:645
    in_0 {name:"Node_644:0",dtype:float32,shape:[1, 96, 35, 35]}
    out_0 {name:"Node_645:0",dtype:float32,shape:[1, 96, 35, 35]}
    out_1 {name:"Node_645:1",dtype:float32,shape:[96]}
    out_2 {name:"Node_645:2",dtype:float32,shape:[96]}
    attrs {'compiler': 'tensorrt'}
  }
}
layer {
  name:"Node_647"
  type:"annotation_compiler_end"
  top:"Node_647"
  bottom:"Node_645"
  layer_param {
    idx:647
    in_0 {name:"Node_645:0",dtype:float32,shape:[1, 96, 35, 35]}
    out_0 {name:"Node_647:0",dtype:float32,shape:[1, 96, 35, 35]}
    attrs {'compiler': 'tensorrt'}
  }
}
layer {
  name:"Node_648"
  type:"annotation_compiler_begin"
  top:"Node_648"
  bottom:"Node_647"
  layer_param {
    idx:648
    in_0 {name:"Node_647:0",dtype:float32,shape:[1, 96, 35, 35]}
    out_0 {name:"Node_648:0",dtype:float32,shape:[1, 96, 35, 35]}
    attrs {'compiler': 'tensorrt'}
  }
}
layer {
  name:"Node_649"
  type:"nn_relu"
  top:"Node_649"
  bottom:"Node_648"
  layer_param {
    idx:649
    in_0 {name:"Node_648:0",dtype:float32,shape:[1, 96, 35, 35]}
    out_0 {name:"Node_649:0",dtype:float32,shape:[1, 96, 35, 35]}
  }
}
layer {
  name:"Node_650"
  type:"annotation_compiler_end"
  top:"Node_650"
  bottom:"Node_649"
  layer_param {
    idx:650
    in_0 {name:"Node_649:0",dtype:float32,shape:[1, 96, 35, 35]}
    out_0 {name:"Node_650:0",dtype:float32,shape:[1, 96, 35, 35]}
    attrs {'compiler': 'tensorrt'}
  }
}
layer {
  name:"Node_651"
  type:"annotation_compiler_begin"
  top:"Node_651"
  bottom:"Node_650"
  layer_param {
    idx:651
    in_0 {name:"Node_650:0",dtype:float32,shape:[1, 96, 35, 35]}
    out_0 {name:"Node_651:0",dtype:float32,shape:[1, 96, 35, 35]}
    attrs {'compiler': 'tensorrt'}
  }
}
layer {
  name:"Node_653"
  type:"const"
  top:"Node_653"
  layer_param {
    idx:653
    out_0 {name:"Node_653:0",dtype:float32,shape:[96, 96, 3, 3]}
  }
}
layer {
  name:"Node_654"
  type:"annotation_compiler_begin"
  top:"Node_654"
  bottom:"Node_653"
  layer_param {
    idx:654
    in_0 {name:"Node_653:0",dtype:float32,shape:[96, 96, 3, 3]}
    out_0 {name:"Node_654:0",dtype:float32,shape:[96, 96, 3, 3]}
    attrs {'compiler': 'tensorrt'}
  }
}
layer {
  name:"Node_655"
  type:"nn_conv2d"
  top:"Node_655"
  bottom:"Node_651"
  bottom:"Node_654"
  layer_param {
    idx:655
    in_0 {name:"Node_651:0",dtype:float32,shape:[1, 96, 35, 35]}
    in_1 {name:"Node_654:0",dtype:float32,shape:[96, 96, 3, 3]}
    out_0 {name:"Node_655:0",dtype:float32,shape:[1, 96, 35, 35]}
    attrs {'strides': [1, 1], 'padding': [1, 1, 1, 1], 'dilation': [1, 1], 'groups': 1, 'channels': 96, 'kernel_size': [3, 3], 'data_layout': 'NCHW', 'kernel_layout': 'OIHW', 'out_layout': '', 'out_dtype': ''}
  }
}
layer {
  name:"Node_656"
  type:"annotation_compiler_end"
  top:"Node_656"
  bottom:"Node_655"
  layer_param {
    idx:656
    in_0 {name:"Node_655:0",dtype:float32,shape:[1, 96, 35, 35]}
    out_0 {name:"Node_656:0",dtype:float32,shape:[1, 96, 35, 35]}
    attrs {'compiler': 'tensorrt'}
  }
}
layer {
  name:"Node_657"
  type:"annotation_compiler_begin"
  top:"Node_657"
  bottom:"Node_656"
  layer_param {
    idx:657
    in_0 {name:"Node_656:0",dtype:float32,shape:[1, 96, 35, 35]}
    out_0 {name:"Node_657:0",dtype:float32,shape:[1, 96, 35, 35]}
    attrs {'compiler': 'tensorrt'}
  }
}
layer {
  name:"Node_659"
  type:"const"
  top:"Node_659"
  layer_param {
    idx:659
    out_0 {name:"Node_659:0",dtype:float32,shape:[96]}
  }
}
layer {
  name:"Node_660"
  type:"annotation_compiler_begin"
  top:"Node_660"
  bottom:"Node_659"
  layer_param {
    idx:660
    in_0 {name:"Node_659:0",dtype:float32,shape:[96]}
    out_0 {name:"Node_660:0",dtype:float32,shape:[96]}
    attrs {'compiler': 'tensorrt'}
  }
}
layer {
  name:"Node_662"
  type:"const"
  top:"Node_662"
  layer_param {
    idx:662
    out_0 {name:"Node_662:0",dtype:float32,shape:[96]}
  }
}
layer {
  name:"Node_663"
  type:"annotation_compiler_begin"
  top:"Node_663"
  bottom:"Node_662"
  layer_param {
    idx:663
    in_0 {name:"Node_662:0",dtype:float32,shape:[96]}
    out_0 {name:"Node_663:0",dtype:float32,shape:[96]}
    attrs {'compiler': 'tensorrt'}
  }
}
layer {
  name:"Node_665"
  type:"const"
  top:"Node_665"
  layer_param {
    idx:665
    out_0 {name:"Node_665:0",dtype:float32,shape:[96]}
  }
}
layer {
  name:"Node_666"
  type:"annotation_compiler_begin"
  top:"Node_666"
  bottom:"Node_665"
  layer_param {
    idx:666
    in_0 {name:"Node_665:0",dtype:float32,shape:[96]}
    out_0 {name:"Node_666:0",dtype:float32,shape:[96]}
    attrs {'compiler': 'tensorrt'}
  }
}
layer {
  name:"Node_668"
  type:"const"
  top:"Node_668"
  layer_param {
    idx:668
    out_0 {name:"Node_668:0",dtype:float32,shape:[96]}
  }
}
layer {
  name:"Node_669"
  type:"annotation_compiler_begin"
  top:"Node_669"
  bottom:"Node_668"
  layer_param {
    idx:669
    in_0 {name:"Node_668:0",dtype:float32,shape:[96]}
    out_0 {name:"Node_669:0",dtype:float32,shape:[96]}
    attrs {'compiler': 'tensorrt'}
  }
}
layer {
  name:"Node_670"
  type:"nn_batch_norm"
  top:"Node_670"
  bottom:"Node_657"
  bottom:"Node_660"
  bottom:"Node_663"
  bottom:"Node_666"
  bottom:"Node_669"
  layer_param {
    idx:670
    in_0 {name:"Node_657:0",dtype:float32,shape:[1, 96, 35, 35]}
    in_1 {name:"Node_660:0",dtype:float32,shape:[96]}
    in_2 {name:"Node_663:0",dtype:float32,shape:[96]}
    in_3 {name:"Node_666:0",dtype:float32,shape:[96]}
    in_4 {name:"Node_669:0",dtype:float32,shape:[96]}
    out_0 {name:"Node_670:0",dtype:float32,shape:[1, 96, 35, 35]}
    out_1 {name:"Node_670:1",dtype:float32,shape:[96]}
    out_2 {name:"Node_670:2",dtype:float32,shape:[96]}
    attrs {'axis': 1, 'epsilon': 0.0010000000474974513, 'center': 1, 'scale': 0}
  }
}
layer {
  name:"Node_671"
  type:"annotation_compiler_end"
  top:"Node_671"
  bottom:"Node_670"
  layer_param {
    idx:671
    in_0 {name:"Node_670:0",dtype:float32,shape:[1, 96, 35, 35]}
    out_0 {name:"Node_671:0",dtype:float32,shape:[1, 96, 35, 35]}
    out_1 {name:"Node_671:1",dtype:float32,shape:[96]}
    out_2 {name:"Node_671:2",dtype:float32,shape:[96]}
    attrs {'compiler': 'tensorrt'}
  }
}
layer {
  name:"Node_672"
  type:"annotation_compiler_begin"
  top:"Node_672"
  bottom:"Node_671"
  layer_param {
    idx:672
    in_0 {name:"Node_671:0",dtype:float32,shape:[1, 96, 35, 35]}
    out_0 {name:"Node_672:0",dtype:float32,shape:[1, 96, 35, 35]}
    out_1 {name:"Node_672:1",dtype:float32,shape:[96]}
    out_2 {name:"Node_672:2",dtype:float32,shape:[96]}
    attrs {'compiler': 'tensorrt'}
  }
}
layer {
  name:"Node_674"
  type:"annotation_compiler_end"
  top:"Node_674"
  bottom:"Node_672"
  layer_param {
    idx:674
    in_0 {name:"Node_672:0",dtype:float32,shape:[1, 96, 35, 35]}
    out_0 {name:"Node_674:0",dtype:float32,shape:[1, 96, 35, 35]}
    attrs {'compiler': 'tensorrt'}
  }
}
layer {
  name:"Node_675"
  type:"annotation_compiler_begin"
  top:"Node_675"
  bottom:"Node_674"
  layer_param {
    idx:675
    in_0 {name:"Node_674:0",dtype:float32,shape:[1, 96, 35, 35]}
    out_0 {name:"Node_675:0",dtype:float32,shape:[1, 96, 35, 35]}
    attrs {'compiler': 'tensorrt'}
  }
}
layer {
  name:"Node_676"
  type:"nn_relu"
  top:"Node_676"
  bottom:"Node_675"
  layer_param {
    idx:676
    in_0 {name:"Node_675:0",dtype:float32,shape:[1, 96, 35, 35]}
    out_0 {name:"Node_676:0",dtype:float32,shape:[1, 96, 35, 35]}
  }
}
layer {
  name:"Node_677"
  type:"annotation_compiler_end"
  top:"Node_677"
  bottom:"Node_676"
  layer_param {
    idx:677
    in_0 {name:"Node_676:0",dtype:float32,shape:[1, 96, 35, 35]}
    out_0 {name:"Node_677:0",dtype:float32,shape:[1, 96, 35, 35]}
    attrs {'compiler': 'tensorrt'}
  }
}
layer {
  name:"Node_678"
  type:"annotation_compiler_begin"
  top:"Node_678"
  bottom:"Node_677"
  layer_param {
    idx:678
    in_0 {name:"Node_677:0",dtype:float32,shape:[1, 96, 35, 35]}
    out_0 {name:"Node_678:0",dtype:float32,shape:[1, 96, 35, 35]}
    attrs {'compiler': 'tensorrt'}
  }
}
layer {
  name:"Node_696"
  type:"annotation_compiler_end"
  top:"Node_696"
  bottom:"Node_449"
  layer_param {
    idx:696
    in_0 {name:"Node_449:0",dtype:float32,shape:[1, 192, 35, 35]}
    out_0 {name:"Node_696:0",dtype:float32,shape:[1, 192, 35, 35]}
    attrs {'compiler': 'tensorrt'}
  }
}
layer {
  name:"Node_697"
  type:"annotation_compiler_begin"
  top:"Node_697"
  bottom:"Node_696"
  layer_param {
    idx:697
    in_0 {name:"Node_696:0",dtype:float32,shape:[1, 192, 35, 35]}
    out_0 {name:"Node_697:0",dtype:float32,shape:[1, 192, 35, 35]}
    attrs {'compiler': 'tensorrt'}
  }
}
layer {
  name:"Node_698"
  type:"nn_avg_pool2d"
  top:"Node_698"
  bottom:"Node_697"
  layer_param {
    idx:698
    in_0 {name:"Node_697:0",dtype:float32,shape:[1, 192, 35, 35]}
    out_0 {name:"Node_698:0",dtype:float32,shape:[1, 192, 35, 35]}
    attrs {'pool_size': [3, 3], 'strides': [1, 1], 'dilation': [1, 1], 'padding': [1, 1, 1, 1], 'layout': 'NCHW', 'ceil_mode': 0, 'count_include_pad': 0}
  }
}
layer {
  name:"Node_699"
  type:"annotation_compiler_end"
  top:"Node_699"
  bottom:"Node_698"
  layer_param {
    idx:699
    in_0 {name:"Node_698:0",dtype:float32,shape:[1, 192, 35, 35]}
    out_0 {name:"Node_699:0",dtype:float32,shape:[1, 192, 35, 35]}
    attrs {'compiler': 'tensorrt'}
  }
}
layer {
  name:"Node_700"
  type:"annotation_compiler_begin"
  top:"Node_700"
  bottom:"Node_699"
  layer_param {
    idx:700
    in_0 {name:"Node_699:0",dtype:float32,shape:[1, 192, 35, 35]}
    out_0 {name:"Node_700:0",dtype:float32,shape:[1, 192, 35, 35]}
    attrs {'compiler': 'tensorrt'}
  }
}
layer {
  name:"Node_702"
  type:"const"
  top:"Node_702"
  layer_param {
    idx:702
    out_0 {name:"Node_702:0",dtype:float32,shape:[32, 192, 1, 1]}
  }
}
layer {
  name:"Node_703"
  type:"annotation_compiler_begin"
  top:"Node_703"
  bottom:"Node_702"
  layer_param {
    idx:703
    in_0 {name:"Node_702:0",dtype:float32,shape:[32, 192, 1, 1]}
    out_0 {name:"Node_703:0",dtype:float32,shape:[32, 192, 1, 1]}
    attrs {'compiler': 'tensorrt'}
  }
}
layer {
  name:"Node_704"
  type:"nn_conv2d"
  top:"Node_704"
  bottom:"Node_700"
  bottom:"Node_703"
  layer_param {
    idx:704
    in_0 {name:"Node_700:0",dtype:float32,shape:[1, 192, 35, 35]}
    in_1 {name:"Node_703:0",dtype:float32,shape:[32, 192, 1, 1]}
    out_0 {name:"Node_704:0",dtype:float32,shape:[1, 32, 35, 35]}
    attrs {'strides': [1, 1], 'padding': [0, 0, 0, 0], 'dilation': [1, 1], 'groups': 1, 'channels': 32, 'kernel_size': [1, 1], 'data_layout': 'NCHW', 'kernel_layout': 'OIHW', 'out_layout': '', 'out_dtype': ''}
  }
}
layer {
  name:"Node_705"
  type:"annotation_compiler_end"
  top:"Node_705"
  bottom:"Node_704"
  layer_param {
    idx:705
    in_0 {name:"Node_704:0",dtype:float32,shape:[1, 32, 35, 35]}
    out_0 {name:"Node_705:0",dtype:float32,shape:[1, 32, 35, 35]}
    attrs {'compiler': 'tensorrt'}
  }
}
layer {
  name:"Node_706"
  type:"annotation_compiler_begin"
  top:"Node_706"
  bottom:"Node_705"
  layer_param {
    idx:706
    in_0 {name:"Node_705:0",dtype:float32,shape:[1, 32, 35, 35]}
    out_0 {name:"Node_706:0",dtype:float32,shape:[1, 32, 35, 35]}
    attrs {'compiler': 'tensorrt'}
  }
}
layer {
  name:"Node_708"
  type:"const"
  top:"Node_708"
  layer_param {
    idx:708
    out_0 {name:"Node_708:0",dtype:float32,shape:[32]}
  }
}
layer {
  name:"Node_709"
  type:"annotation_compiler_begin"
  top:"Node_709"
  bottom:"Node_708"
  layer_param {
    idx:709
    in_0 {name:"Node_708:0",dtype:float32,shape:[32]}
    out_0 {name:"Node_709:0",dtype:float32,shape:[32]}
    attrs {'compiler': 'tensorrt'}
  }
}
layer {
  name:"Node_711"
  type:"const"
  top:"Node_711"
  layer_param {
    idx:711
    out_0 {name:"Node_711:0",dtype:float32,shape:[32]}
  }
}
layer {
  name:"Node_712"
  type:"annotation_compiler_begin"
  top:"Node_712"
  bottom:"Node_711"
  layer_param {
    idx:712
    in_0 {name:"Node_711:0",dtype:float32,shape:[32]}
    out_0 {name:"Node_712:0",dtype:float32,shape:[32]}
    attrs {'compiler': 'tensorrt'}
  }
}
layer {
  name:"Node_714"
  type:"const"
  top:"Node_714"
  layer_param {
    idx:714
    out_0 {name:"Node_714:0",dtype:float32,shape:[32]}
  }
}
layer {
  name:"Node_715"
  type:"annotation_compiler_begin"
  top:"Node_715"
  bottom:"Node_714"
  layer_param {
    idx:715
    in_0 {name:"Node_714:0",dtype:float32,shape:[32]}
    out_0 {name:"Node_715:0",dtype:float32,shape:[32]}
    attrs {'compiler': 'tensorrt'}
  }
}
layer {
  name:"Node_717"
  type:"const"
  top:"Node_717"
  layer_param {
    idx:717
    out_0 {name:"Node_717:0",dtype:float32,shape:[32]}
  }
}
layer {
  name:"Node_718"
  type:"annotation_compiler_begin"
  top:"Node_718"
  bottom:"Node_717"
  layer_param {
    idx:718
    in_0 {name:"Node_717:0",dtype:float32,shape:[32]}
    out_0 {name:"Node_718:0",dtype:float32,shape:[32]}
    attrs {'compiler': 'tensorrt'}
  }
}
layer {
  name:"Node_719"
  type:"nn_batch_norm"
  top:"Node_719"
  bottom:"Node_706"
  bottom:"Node_709"
  bottom:"Node_712"
  bottom:"Node_715"
  bottom:"Node_718"
  layer_param {
    idx:719
    in_0 {name:"Node_706:0",dtype:float32,shape:[1, 32, 35, 35]}
    in_1 {name:"Node_709:0",dtype:float32,shape:[32]}
    in_2 {name:"Node_712:0",dtype:float32,shape:[32]}
    in_3 {name:"Node_715:0",dtype:float32,shape:[32]}
    in_4 {name:"Node_718:0",dtype:float32,shape:[32]}
    out_0 {name:"Node_719:0",dtype:float32,shape:[1, 32, 35, 35]}
    out_1 {name:"Node_719:1",dtype:float32,shape:[32]}
    out_2 {name:"Node_719:2",dtype:float32,shape:[32]}
    attrs {'axis': 1, 'epsilon': 0.0010000000474974513, 'center': 1, 'scale': 0}
  }
}
layer {
  name:"Node_720"
  type:"annotation_compiler_end"
  top:"Node_720"
  bottom:"Node_719"
  layer_param {
    idx:720
    in_0 {name:"Node_719:0",dtype:float32,shape:[1, 32, 35, 35]}
    out_0 {name:"Node_720:0",dtype:float32,shape:[1, 32, 35, 35]}
    out_1 {name:"Node_720:1",dtype:float32,shape:[32]}
    out_2 {name:"Node_720:2",dtype:float32,shape:[32]}
    attrs {'compiler': 'tensorrt'}
  }
}
layer {
  name:"Node_721"
  type:"annotation_compiler_begin"
  top:"Node_721"
  bottom:"Node_720"
  layer_param {
    idx:721
    in_0 {name:"Node_720:0",dtype:float32,shape:[1, 32, 35, 35]}
    out_0 {name:"Node_721:0",dtype:float32,shape:[1, 32, 35, 35]}
    out_1 {name:"Node_721:1",dtype:float32,shape:[32]}
    out_2 {name:"Node_721:2",dtype:float32,shape:[32]}
    attrs {'compiler': 'tensorrt'}
  }
}
layer {
  name:"Node_723"
  type:"annotation_compiler_end"
  top:"Node_723"
  bottom:"Node_721"
  layer_param {
    idx:723
    in_0 {name:"Node_721:0",dtype:float32,shape:[1, 32, 35, 35]}
    out_0 {name:"Node_723:0",dtype:float32,shape:[1, 32, 35, 35]}
    attrs {'compiler': 'tensorrt'}
  }
}
layer {
  name:"Node_724"
  type:"annotation_compiler_begin"
  top:"Node_724"
  bottom:"Node_723"
  layer_param {
    idx:724
    in_0 {name:"Node_723:0",dtype:float32,shape:[1, 32, 35, 35]}
    out_0 {name:"Node_724:0",dtype:float32,shape:[1, 32, 35, 35]}
    attrs {'compiler': 'tensorrt'}
  }
}
layer {
  name:"Node_725"
  type:"nn_relu"
  top:"Node_725"
  bottom:"Node_724"
  layer_param {
    idx:725
    in_0 {name:"Node_724:0",dtype:float32,shape:[1, 32, 35, 35]}
    out_0 {name:"Node_725:0",dtype:float32,shape:[1, 32, 35, 35]}
  }
}
layer {
  name:"Node_726"
  type:"annotation_compiler_end"
  top:"Node_726"
  bottom:"Node_725"
  layer_param {
    idx:726
    in_0 {name:"Node_725:0",dtype:float32,shape:[1, 32, 35, 35]}
    out_0 {name:"Node_726:0",dtype:float32,shape:[1, 32, 35, 35]}
    attrs {'compiler': 'tensorrt'}
  }
}
layer {
  name:"Node_727"
  type:"annotation_compiler_begin"
  top:"Node_727"
  bottom:"Node_726"
  layer_param {
    idx:727
    in_0 {name:"Node_726:0",dtype:float32,shape:[1, 32, 35, 35]}
    out_0 {name:"Node_727:0",dtype:float32,shape:[1, 32, 35, 35]}
    attrs {'compiler': 'tensorrt'}
  }
}
layer {
  name:"Node_729"
  type:"annotation_compiler_end"
  top:"Node_729"
  bottom:"Node_478"
  bottom:"Node_559"
  bottom:"Node_678"
  bottom:"Node_727"
  layer_param {
    idx:729
    in_0 {name:"Node_478:0",dtype:float32,shape:[1, 64, 35, 35]}
    in_1 {name:"Node_559:0",dtype:float32,shape:[1, 64, 35, 35]}
    in_2 {name:"Node_678:0",dtype:float32,shape:[1, 96, 35, 35]}
    in_3 {name:"Node_727:0",dtype:float32,shape:[1, 32, 35, 35]}
    out_0 {name:"Node_729:0",dtype:float32,shape:[1, 64, 35, 35]}
    out_1 {name:"Node_729:1",dtype:float32,shape:[1, 64, 35, 35]}
    out_2 {name:"Node_729:2",dtype:float32,shape:[1, 96, 35, 35]}
    out_3 {name:"Node_729:3",dtype:float32,shape:[1, 32, 35, 35]}
    attrs {'compiler': 'tensorrt'}
  }
}
layer {
  name:"Node_730"
  type:"annotation_compiler_begin"
  top:"Node_730"
  bottom:"Node_729"
  layer_param {
    idx:730
    in_0 {name:"Node_729:0",dtype:float32,shape:[1, 64, 35, 35]}
    out_0 {name:"Node_730:0",dtype:float32,shape:[1, 64, 35, 35]}
    out_1 {name:"Node_730:1",dtype:float32,shape:[1, 64, 35, 35]}
    out_2 {name:"Node_730:2",dtype:float32,shape:[1, 96, 35, 35]}
    out_3 {name:"Node_730:3",dtype:float32,shape:[1, 32, 35, 35]}
    attrs {'compiler': 'tensorrt'}
  }
}
layer {
  name:"Node_731"
  type:"concatenate"
  top:"Node_731"
  bottom:"Node_730"
  layer_param {
    idx:731
    in_0 {name:"Node_730:0",dtype:float32,shape:[1, 64, 35, 35]}
    out_0 {name:"Node_731:0",dtype:float32,shape:[1, 256, 35, 35]}
    attrs {'axis': 1}
  }
}
layer {
  name:"Node_732"
  type:"annotation_compiler_end"
  top:"Node_732"
  bottom:"Node_731"
  layer_param {
    idx:732
    in_0 {name:"Node_731:0",dtype:float32,shape:[1, 256, 35, 35]}
    out_0 {name:"Node_732:0",dtype:float32,shape:[1, 256, 35, 35]}
    attrs {'compiler': 'tensorrt'}
  }
}
layer {
  name:"Node_733"
  type:"annotation_compiler_begin"
  top:"Node_733"
  bottom:"Node_732"
  layer_param {
    idx:733
    in_0 {name:"Node_732:0",dtype:float32,shape:[1, 256, 35, 35]}
    out_0 {name:"Node_733:0",dtype:float32,shape:[1, 256, 35, 35]}
    attrs {'compiler': 'tensorrt'}
  }
}
layer {
  name:"Node_735"
  type:"const"
  top:"Node_735"
  layer_param {
    idx:735
    out_0 {name:"Node_735:0",dtype:float32,shape:[64, 256, 1, 1]}
  }
}
layer {
  name:"Node_736"
  type:"annotation_compiler_begin"
  top:"Node_736"
  bottom:"Node_735"
  layer_param {
    idx:736
    in_0 {name:"Node_735:0",dtype:float32,shape:[64, 256, 1, 1]}
    out_0 {name:"Node_736:0",dtype:float32,shape:[64, 256, 1, 1]}
    attrs {'compiler': 'tensorrt'}
  }
}
layer {
  name:"Node_737"
  type:"nn_conv2d"
  top:"Node_737"
  bottom:"Node_733"
  bottom:"Node_736"
  layer_param {
    idx:737
    in_0 {name:"Node_733:0",dtype:float32,shape:[1, 256, 35, 35]}
    in_1 {name:"Node_736:0",dtype:float32,shape:[64, 256, 1, 1]}
    out_0 {name:"Node_737:0",dtype:float32,shape:[1, 64, 35, 35]}
    attrs {'strides': [1, 1], 'padding': [0, 0, 0, 0], 'dilation': [1, 1], 'groups': 1, 'channels': 64, 'kernel_size': [1, 1], 'data_layout': 'NCHW', 'kernel_layout': 'OIHW', 'out_layout': '', 'out_dtype': ''}
  }
}
layer {
  name:"Node_738"
  type:"annotation_compiler_end"
  top:"Node_738"
  bottom:"Node_737"
  layer_param {
    idx:738
    in_0 {name:"Node_737:0",dtype:float32,shape:[1, 64, 35, 35]}
    out_0 {name:"Node_738:0",dtype:float32,shape:[1, 64, 35, 35]}
    attrs {'compiler': 'tensorrt'}
  }
}
layer {
  name:"Node_739"
  type:"annotation_compiler_begin"
  top:"Node_739"
  bottom:"Node_738"
  layer_param {
    idx:739
    in_0 {name:"Node_738:0",dtype:float32,shape:[1, 64, 35, 35]}
    out_0 {name:"Node_739:0",dtype:float32,shape:[1, 64, 35, 35]}
    attrs {'compiler': 'tensorrt'}
  }
}
layer {
  name:"Node_741"
  type:"const"
  top:"Node_741"
  layer_param {
    idx:741
    out_0 {name:"Node_741:0",dtype:float32,shape:[64]}
  }
}
layer {
  name:"Node_742"
  type:"annotation_compiler_begin"
  top:"Node_742"
  bottom:"Node_741"
  layer_param {
    idx:742
    in_0 {name:"Node_741:0",dtype:float32,shape:[64]}
    out_0 {name:"Node_742:0",dtype:float32,shape:[64]}
    attrs {'compiler': 'tensorrt'}
  }
}
layer {
  name:"Node_744"
  type:"const"
  top:"Node_744"
  layer_param {
    idx:744
    out_0 {name:"Node_744:0",dtype:float32,shape:[64]}
  }
}
layer {
  name:"Node_745"
  type:"annotation_compiler_begin"
  top:"Node_745"
  bottom:"Node_744"
  layer_param {
    idx:745
    in_0 {name:"Node_744:0",dtype:float32,shape:[64]}
    out_0 {name:"Node_745:0",dtype:float32,shape:[64]}
    attrs {'compiler': 'tensorrt'}
  }
}
layer {
  name:"Node_747"
  type:"const"
  top:"Node_747"
  layer_param {
    idx:747
    out_0 {name:"Node_747:0",dtype:float32,shape:[64]}
  }
}
layer {
  name:"Node_748"
  type:"annotation_compiler_begin"
  top:"Node_748"
  bottom:"Node_747"
  layer_param {
    idx:748
    in_0 {name:"Node_747:0",dtype:float32,shape:[64]}
    out_0 {name:"Node_748:0",dtype:float32,shape:[64]}
    attrs {'compiler': 'tensorrt'}
  }
}
layer {
  name:"Node_750"
  type:"const"
  top:"Node_750"
  layer_param {
    idx:750
    out_0 {name:"Node_750:0",dtype:float32,shape:[64]}
  }
}
layer {
  name:"Node_751"
  type:"annotation_compiler_begin"
  top:"Node_751"
  bottom:"Node_750"
  layer_param {
    idx:751
    in_0 {name:"Node_750:0",dtype:float32,shape:[64]}
    out_0 {name:"Node_751:0",dtype:float32,shape:[64]}
    attrs {'compiler': 'tensorrt'}
  }
}
layer {
  name:"Node_752"
  type:"nn_batch_norm"
  top:"Node_752"
  bottom:"Node_739"
  bottom:"Node_742"
  bottom:"Node_745"
  bottom:"Node_748"
  bottom:"Node_751"
  layer_param {
    idx:752
    in_0 {name:"Node_739:0",dtype:float32,shape:[1, 64, 35, 35]}
    in_1 {name:"Node_742:0",dtype:float32,shape:[64]}
    in_2 {name:"Node_745:0",dtype:float32,shape:[64]}
    in_3 {name:"Node_748:0",dtype:float32,shape:[64]}
    in_4 {name:"Node_751:0",dtype:float32,shape:[64]}
    out_0 {name:"Node_752:0",dtype:float32,shape:[1, 64, 35, 35]}
    out_1 {name:"Node_752:1",dtype:float32,shape:[64]}
    out_2 {name:"Node_752:2",dtype:float32,shape:[64]}
    attrs {'axis': 1, 'epsilon': 0.0010000000474974513, 'center': 1, 'scale': 0}
  }
}
layer {
  name:"Node_753"
  type:"annotation_compiler_end"
  top:"Node_753"
  bottom:"Node_752"
  layer_param {
    idx:753
    in_0 {name:"Node_752:0",dtype:float32,shape:[1, 64, 35, 35]}
    out_0 {name:"Node_753:0",dtype:float32,shape:[1, 64, 35, 35]}
    out_1 {name:"Node_753:1",dtype:float32,shape:[64]}
    out_2 {name:"Node_753:2",dtype:float32,shape:[64]}
    attrs {'compiler': 'tensorrt'}
  }
}
layer {
  name:"Node_754"
  type:"annotation_compiler_begin"
  top:"Node_754"
  bottom:"Node_753"
  layer_param {
    idx:754
    in_0 {name:"Node_753:0",dtype:float32,shape:[1, 64, 35, 35]}
    out_0 {name:"Node_754:0",dtype:float32,shape:[1, 64, 35, 35]}
    out_1 {name:"Node_754:1",dtype:float32,shape:[64]}
    out_2 {name:"Node_754:2",dtype:float32,shape:[64]}
    attrs {'compiler': 'tensorrt'}
  }
}
layer {
  name:"Node_756"
  type:"annotation_compiler_end"
  top:"Node_756"
  bottom:"Node_754"
  layer_param {
    idx:756
    in_0 {name:"Node_754:0",dtype:float32,shape:[1, 64, 35, 35]}
    out_0 {name:"Node_756:0",dtype:float32,shape:[1, 64, 35, 35]}
    attrs {'compiler': 'tensorrt'}
  }
}
layer {
  name:"Node_757"
  type:"annotation_compiler_begin"
  top:"Node_757"
  bottom:"Node_756"
  layer_param {
    idx:757
    in_0 {name:"Node_756:0",dtype:float32,shape:[1, 64, 35, 35]}
    out_0 {name:"Node_757:0",dtype:float32,shape:[1, 64, 35, 35]}
    attrs {'compiler': 'tensorrt'}
  }
}
layer {
  name:"Node_758"
  type:"nn_relu"
  top:"Node_758"
  bottom:"Node_757"
  layer_param {
    idx:758
    in_0 {name:"Node_757:0",dtype:float32,shape:[1, 64, 35, 35]}
    out_0 {name:"Node_758:0",dtype:float32,shape:[1, 64, 35, 35]}
  }
}
layer {
  name:"Node_759"
  type:"annotation_compiler_end"
  top:"Node_759"
  bottom:"Node_758"
  layer_param {
    idx:759
    in_0 {name:"Node_758:0",dtype:float32,shape:[1, 64, 35, 35]}
    out_0 {name:"Node_759:0",dtype:float32,shape:[1, 64, 35, 35]}
    attrs {'compiler': 'tensorrt'}
  }
}
layer {
  name:"Node_760"
  type:"annotation_compiler_begin"
  top:"Node_760"
  bottom:"Node_759"
  layer_param {
    idx:760
    in_0 {name:"Node_759:0",dtype:float32,shape:[1, 64, 35, 35]}
    out_0 {name:"Node_760:0",dtype:float32,shape:[1, 64, 35, 35]}
    attrs {'compiler': 'tensorrt'}
  }
}
layer {
  name:"Node_786"
  type:"annotation_compiler_end"
  top:"Node_786"
  bottom:"Node_731"
  layer_param {
    idx:786
    in_0 {name:"Node_731:0",dtype:float32,shape:[1, 256, 35, 35]}
    out_0 {name:"Node_786:0",dtype:float32,shape:[1, 256, 35, 35]}
    attrs {'compiler': 'tensorrt'}
  }
}
layer {
  name:"Node_787"
  type:"annotation_compiler_begin"
  top:"Node_787"
  bottom:"Node_786"
  layer_param {
    idx:787
    in_0 {name:"Node_786:0",dtype:float32,shape:[1, 256, 35, 35]}
    out_0 {name:"Node_787:0",dtype:float32,shape:[1, 256, 35, 35]}
    attrs {'compiler': 'tensorrt'}
  }
}
layer {
  name:"Node_789"
  type:"const"
  top:"Node_789"
  layer_param {
    idx:789
    out_0 {name:"Node_789:0",dtype:float32,shape:[48, 256, 1, 1]}
  }
}
layer {
  name:"Node_790"
  type:"annotation_compiler_begin"
  top:"Node_790"
  bottom:"Node_789"
  layer_param {
    idx:790
    in_0 {name:"Node_789:0",dtype:float32,shape:[48, 256, 1, 1]}
    out_0 {name:"Node_790:0",dtype:float32,shape:[48, 256, 1, 1]}
    attrs {'compiler': 'tensorrt'}
  }
}
layer {
  name:"Node_791"
  type:"nn_conv2d"
  top:"Node_791"
  bottom:"Node_787"
  bottom:"Node_790"
  layer_param {
    idx:791
    in_0 {name:"Node_787:0",dtype:float32,shape:[1, 256, 35, 35]}
    in_1 {name:"Node_790:0",dtype:float32,shape:[48, 256, 1, 1]}
    out_0 {name:"Node_791:0",dtype:float32,shape:[1, 48, 35, 35]}
    attrs {'strides': [1, 1], 'padding': [0, 0, 0, 0], 'dilation': [1, 1], 'groups': 1, 'channels': 48, 'kernel_size': [1, 1], 'data_layout': 'NCHW', 'kernel_layout': 'OIHW', 'out_layout': '', 'out_dtype': ''}
  }
}
layer {
  name:"Node_792"
  type:"annotation_compiler_end"
  top:"Node_792"
  bottom:"Node_791"
  layer_param {
    idx:792
    in_0 {name:"Node_791:0",dtype:float32,shape:[1, 48, 35, 35]}
    out_0 {name:"Node_792:0",dtype:float32,shape:[1, 48, 35, 35]}
    attrs {'compiler': 'tensorrt'}
  }
}
layer {
  name:"Node_793"
  type:"annotation_compiler_begin"
  top:"Node_793"
  bottom:"Node_792"
  layer_param {
    idx:793
    in_0 {name:"Node_792:0",dtype:float32,shape:[1, 48, 35, 35]}
    out_0 {name:"Node_793:0",dtype:float32,shape:[1, 48, 35, 35]}
    attrs {'compiler': 'tensorrt'}
  }
}
layer {
  name:"Node_795"
  type:"const"
  top:"Node_795"
  layer_param {
    idx:795
    out_0 {name:"Node_795:0",dtype:float32,shape:[48]}
  }
}
layer {
  name:"Node_796"
  type:"annotation_compiler_begin"
  top:"Node_796"
  bottom:"Node_795"
  layer_param {
    idx:796
    in_0 {name:"Node_795:0",dtype:float32,shape:[48]}
    out_0 {name:"Node_796:0",dtype:float32,shape:[48]}
    attrs {'compiler': 'tensorrt'}
  }
}
layer {
  name:"Node_798"
  type:"const"
  top:"Node_798"
  layer_param {
    idx:798
    out_0 {name:"Node_798:0",dtype:float32,shape:[48]}
  }
}
layer {
  name:"Node_799"
  type:"annotation_compiler_begin"
  top:"Node_799"
  bottom:"Node_798"
  layer_param {
    idx:799
    in_0 {name:"Node_798:0",dtype:float32,shape:[48]}
    out_0 {name:"Node_799:0",dtype:float32,shape:[48]}
    attrs {'compiler': 'tensorrt'}
  }
}
layer {
  name:"Node_801"
  type:"const"
  top:"Node_801"
  layer_param {
    idx:801
    out_0 {name:"Node_801:0",dtype:float32,shape:[48]}
  }
}
layer {
  name:"Node_802"
  type:"annotation_compiler_begin"
  top:"Node_802"
  bottom:"Node_801"
  layer_param {
    idx:802
    in_0 {name:"Node_801:0",dtype:float32,shape:[48]}
    out_0 {name:"Node_802:0",dtype:float32,shape:[48]}
    attrs {'compiler': 'tensorrt'}
  }
}
layer {
  name:"Node_804"
  type:"const"
  top:"Node_804"
  layer_param {
    idx:804
    out_0 {name:"Node_804:0",dtype:float32,shape:[48]}
  }
}
layer {
  name:"Node_805"
  type:"annotation_compiler_begin"
  top:"Node_805"
  bottom:"Node_804"
  layer_param {
    idx:805
    in_0 {name:"Node_804:0",dtype:float32,shape:[48]}
    out_0 {name:"Node_805:0",dtype:float32,shape:[48]}
    attrs {'compiler': 'tensorrt'}
  }
}
layer {
  name:"Node_806"
  type:"nn_batch_norm"
  top:"Node_806"
  bottom:"Node_793"
  bottom:"Node_796"
  bottom:"Node_799"
  bottom:"Node_802"
  bottom:"Node_805"
  layer_param {
    idx:806
    in_0 {name:"Node_793:0",dtype:float32,shape:[1, 48, 35, 35]}
    in_1 {name:"Node_796:0",dtype:float32,shape:[48]}
    in_2 {name:"Node_799:0",dtype:float32,shape:[48]}
    in_3 {name:"Node_802:0",dtype:float32,shape:[48]}
    in_4 {name:"Node_805:0",dtype:float32,shape:[48]}
    out_0 {name:"Node_806:0",dtype:float32,shape:[1, 48, 35, 35]}
    out_1 {name:"Node_806:1",dtype:float32,shape:[48]}
    out_2 {name:"Node_806:2",dtype:float32,shape:[48]}
    attrs {'axis': 1, 'epsilon': 0.0010000000474974513, 'center': 1, 'scale': 0}
  }
}
layer {
  name:"Node_807"
  type:"annotation_compiler_end"
  top:"Node_807"
  bottom:"Node_806"
  layer_param {
    idx:807
    in_0 {name:"Node_806:0",dtype:float32,shape:[1, 48, 35, 35]}
    out_0 {name:"Node_807:0",dtype:float32,shape:[1, 48, 35, 35]}
    out_1 {name:"Node_807:1",dtype:float32,shape:[48]}
    out_2 {name:"Node_807:2",dtype:float32,shape:[48]}
    attrs {'compiler': 'tensorrt'}
  }
}
layer {
  name:"Node_808"
  type:"annotation_compiler_begin"
  top:"Node_808"
  bottom:"Node_807"
  layer_param {
    idx:808
    in_0 {name:"Node_807:0",dtype:float32,shape:[1, 48, 35, 35]}
    out_0 {name:"Node_808:0",dtype:float32,shape:[1, 48, 35, 35]}
    out_1 {name:"Node_808:1",dtype:float32,shape:[48]}
    out_2 {name:"Node_808:2",dtype:float32,shape:[48]}
    attrs {'compiler': 'tensorrt'}
  }
}
layer {
  name:"Node_810"
  type:"annotation_compiler_end"
  top:"Node_810"
  bottom:"Node_808"
  layer_param {
    idx:810
    in_0 {name:"Node_808:0",dtype:float32,shape:[1, 48, 35, 35]}
    out_0 {name:"Node_810:0",dtype:float32,shape:[1, 48, 35, 35]}
    attrs {'compiler': 'tensorrt'}
  }
}
layer {
  name:"Node_811"
  type:"annotation_compiler_begin"
  top:"Node_811"
  bottom:"Node_810"
  layer_param {
    idx:811
    in_0 {name:"Node_810:0",dtype:float32,shape:[1, 48, 35, 35]}
    out_0 {name:"Node_811:0",dtype:float32,shape:[1, 48, 35, 35]}
    attrs {'compiler': 'tensorrt'}
  }
}
layer {
  name:"Node_812"
  type:"nn_relu"
  top:"Node_812"
  bottom:"Node_811"
  layer_param {
    idx:812
    in_0 {name:"Node_811:0",dtype:float32,shape:[1, 48, 35, 35]}
    out_0 {name:"Node_812:0",dtype:float32,shape:[1, 48, 35, 35]}
  }
}
layer {
  name:"Node_813"
  type:"annotation_compiler_end"
  top:"Node_813"
  bottom:"Node_812"
  layer_param {
    idx:813
    in_0 {name:"Node_812:0",dtype:float32,shape:[1, 48, 35, 35]}
    out_0 {name:"Node_813:0",dtype:float32,shape:[1, 48, 35, 35]}
    attrs {'compiler': 'tensorrt'}
  }
}
layer {
  name:"Node_814"
  type:"annotation_compiler_begin"
  top:"Node_814"
  bottom:"Node_813"
  layer_param {
    idx:814
    in_0 {name:"Node_813:0",dtype:float32,shape:[1, 48, 35, 35]}
    out_0 {name:"Node_814:0",dtype:float32,shape:[1, 48, 35, 35]}
    attrs {'compiler': 'tensorrt'}
  }
}
layer {
  name:"Node_816"
  type:"const"
  top:"Node_816"
  layer_param {
    idx:816
    out_0 {name:"Node_816:0",dtype:float32,shape:[64, 48, 5, 5]}
  }
}
layer {
  name:"Node_817"
  type:"annotation_compiler_begin"
  top:"Node_817"
  bottom:"Node_816"
  layer_param {
    idx:817
    in_0 {name:"Node_816:0",dtype:float32,shape:[64, 48, 5, 5]}
    out_0 {name:"Node_817:0",dtype:float32,shape:[64, 48, 5, 5]}
    attrs {'compiler': 'tensorrt'}
  }
}
layer {
  name:"Node_818"
  type:"nn_conv2d"
  top:"Node_818"
  bottom:"Node_814"
  bottom:"Node_817"
  layer_param {
    idx:818
    in_0 {name:"Node_814:0",dtype:float32,shape:[1, 48, 35, 35]}
    in_1 {name:"Node_817:0",dtype:float32,shape:[64, 48, 5, 5]}
    out_0 {name:"Node_818:0",dtype:float32,shape:[1, 64, 35, 35]}
    attrs {'strides': [1, 1], 'padding': [2, 2, 2, 2], 'dilation': [1, 1], 'groups': 1, 'channels': 64, 'kernel_size': [5, 5], 'data_layout': 'NCHW', 'kernel_layout': 'OIHW', 'out_layout': '', 'out_dtype': ''}
  }
}
layer {
  name:"Node_819"
  type:"annotation_compiler_end"
  top:"Node_819"
  bottom:"Node_818"
  layer_param {
    idx:819
    in_0 {name:"Node_818:0",dtype:float32,shape:[1, 64, 35, 35]}
    out_0 {name:"Node_819:0",dtype:float32,shape:[1, 64, 35, 35]}
    attrs {'compiler': 'tensorrt'}
  }
}
layer {
  name:"Node_820"
  type:"annotation_compiler_begin"
  top:"Node_820"
  bottom:"Node_819"
  layer_param {
    idx:820
    in_0 {name:"Node_819:0",dtype:float32,shape:[1, 64, 35, 35]}
    out_0 {name:"Node_820:0",dtype:float32,shape:[1, 64, 35, 35]}
    attrs {'compiler': 'tensorrt'}
  }
}
layer {
  name:"Node_822"
  type:"const"
  top:"Node_822"
  layer_param {
    idx:822
    out_0 {name:"Node_822:0",dtype:float32,shape:[64]}
  }
}
layer {
  name:"Node_823"
  type:"annotation_compiler_begin"
  top:"Node_823"
  bottom:"Node_822"
  layer_param {
    idx:823
    in_0 {name:"Node_822:0",dtype:float32,shape:[64]}
    out_0 {name:"Node_823:0",dtype:float32,shape:[64]}
    attrs {'compiler': 'tensorrt'}
  }
}
layer {
  name:"Node_825"
  type:"const"
  top:"Node_825"
  layer_param {
    idx:825
    out_0 {name:"Node_825:0",dtype:float32,shape:[64]}
  }
}
layer {
  name:"Node_826"
  type:"annotation_compiler_begin"
  top:"Node_826"
  bottom:"Node_825"
  layer_param {
    idx:826
    in_0 {name:"Node_825:0",dtype:float32,shape:[64]}
    out_0 {name:"Node_826:0",dtype:float32,shape:[64]}
    attrs {'compiler': 'tensorrt'}
  }
}
layer {
  name:"Node_828"
  type:"const"
  top:"Node_828"
  layer_param {
    idx:828
    out_0 {name:"Node_828:0",dtype:float32,shape:[64]}
  }
}
layer {
  name:"Node_829"
  type:"annotation_compiler_begin"
  top:"Node_829"
  bottom:"Node_828"
  layer_param {
    idx:829
    in_0 {name:"Node_828:0",dtype:float32,shape:[64]}
    out_0 {name:"Node_829:0",dtype:float32,shape:[64]}
    attrs {'compiler': 'tensorrt'}
  }
}
layer {
  name:"Node_831"
  type:"const"
  top:"Node_831"
  layer_param {
    idx:831
    out_0 {name:"Node_831:0",dtype:float32,shape:[64]}
  }
}
layer {
  name:"Node_832"
  type:"annotation_compiler_begin"
  top:"Node_832"
  bottom:"Node_831"
  layer_param {
    idx:832
    in_0 {name:"Node_831:0",dtype:float32,shape:[64]}
    out_0 {name:"Node_832:0",dtype:float32,shape:[64]}
    attrs {'compiler': 'tensorrt'}
  }
}
layer {
  name:"Node_833"
  type:"nn_batch_norm"
  top:"Node_833"
  bottom:"Node_820"
  bottom:"Node_823"
  bottom:"Node_826"
  bottom:"Node_829"
  bottom:"Node_832"
  layer_param {
    idx:833
    in_0 {name:"Node_820:0",dtype:float32,shape:[1, 64, 35, 35]}
    in_1 {name:"Node_823:0",dtype:float32,shape:[64]}
    in_2 {name:"Node_826:0",dtype:float32,shape:[64]}
    in_3 {name:"Node_829:0",dtype:float32,shape:[64]}
    in_4 {name:"Node_832:0",dtype:float32,shape:[64]}
    out_0 {name:"Node_833:0",dtype:float32,shape:[1, 64, 35, 35]}
    out_1 {name:"Node_833:1",dtype:float32,shape:[64]}
    out_2 {name:"Node_833:2",dtype:float32,shape:[64]}
    attrs {'axis': 1, 'epsilon': 0.0010000000474974513, 'center': 1, 'scale': 0}
  }
}
layer {
  name:"Node_834"
  type:"annotation_compiler_end"
  top:"Node_834"
  bottom:"Node_833"
  layer_param {
    idx:834
    in_0 {name:"Node_833:0",dtype:float32,shape:[1, 64, 35, 35]}
    out_0 {name:"Node_834:0",dtype:float32,shape:[1, 64, 35, 35]}
    out_1 {name:"Node_834:1",dtype:float32,shape:[64]}
    out_2 {name:"Node_834:2",dtype:float32,shape:[64]}
    attrs {'compiler': 'tensorrt'}
  }
}
layer {
  name:"Node_835"
  type:"annotation_compiler_begin"
  top:"Node_835"
  bottom:"Node_834"
  layer_param {
    idx:835
    in_0 {name:"Node_834:0",dtype:float32,shape:[1, 64, 35, 35]}
    out_0 {name:"Node_835:0",dtype:float32,shape:[1, 64, 35, 35]}
    out_1 {name:"Node_835:1",dtype:float32,shape:[64]}
    out_2 {name:"Node_835:2",dtype:float32,shape:[64]}
    attrs {'compiler': 'tensorrt'}
  }
}
layer {
  name:"Node_837"
  type:"annotation_compiler_end"
  top:"Node_837"
  bottom:"Node_835"
  layer_param {
    idx:837
    in_0 {name:"Node_835:0",dtype:float32,shape:[1, 64, 35, 35]}
    out_0 {name:"Node_837:0",dtype:float32,shape:[1, 64, 35, 35]}
    attrs {'compiler': 'tensorrt'}
  }
}
layer {
  name:"Node_838"
  type:"annotation_compiler_begin"
  top:"Node_838"
  bottom:"Node_837"
  layer_param {
    idx:838
    in_0 {name:"Node_837:0",dtype:float32,shape:[1, 64, 35, 35]}
    out_0 {name:"Node_838:0",dtype:float32,shape:[1, 64, 35, 35]}
    attrs {'compiler': 'tensorrt'}
  }
}
layer {
  name:"Node_839"
  type:"nn_relu"
  top:"Node_839"
  bottom:"Node_838"
  layer_param {
    idx:839
    in_0 {name:"Node_838:0",dtype:float32,shape:[1, 64, 35, 35]}
    out_0 {name:"Node_839:0",dtype:float32,shape:[1, 64, 35, 35]}
  }
}
layer {
  name:"Node_840"
  type:"annotation_compiler_end"
  top:"Node_840"
  bottom:"Node_839"
  layer_param {
    idx:840
    in_0 {name:"Node_839:0",dtype:float32,shape:[1, 64, 35, 35]}
    out_0 {name:"Node_840:0",dtype:float32,shape:[1, 64, 35, 35]}
    attrs {'compiler': 'tensorrt'}
  }
}
layer {
  name:"Node_841"
  type:"annotation_compiler_begin"
  top:"Node_841"
  bottom:"Node_840"
  layer_param {
    idx:841
    in_0 {name:"Node_840:0",dtype:float32,shape:[1, 64, 35, 35]}
    out_0 {name:"Node_841:0",dtype:float32,shape:[1, 64, 35, 35]}
    attrs {'compiler': 'tensorrt'}
  }
}
layer {
  name:"Node_878"
  type:"annotation_compiler_end"
  top:"Node_878"
  bottom:"Node_731"
  layer_param {
    idx:878
    in_0 {name:"Node_731:0",dtype:float32,shape:[1, 256, 35, 35]}
    out_0 {name:"Node_878:0",dtype:float32,shape:[1, 256, 35, 35]}
    attrs {'compiler': 'tensorrt'}
  }
}
layer {
  name:"Node_879"
  type:"annotation_compiler_begin"
  top:"Node_879"
  bottom:"Node_878"
  layer_param {
    idx:879
    in_0 {name:"Node_878:0",dtype:float32,shape:[1, 256, 35, 35]}
    out_0 {name:"Node_879:0",dtype:float32,shape:[1, 256, 35, 35]}
    attrs {'compiler': 'tensorrt'}
  }
}
layer {
  name:"Node_881"
  type:"const"
  top:"Node_881"
  layer_param {
    idx:881
    out_0 {name:"Node_881:0",dtype:float32,shape:[64, 256, 1, 1]}
  }
}
layer {
  name:"Node_882"
  type:"annotation_compiler_begin"
  top:"Node_882"
  bottom:"Node_881"
  layer_param {
    idx:882
    in_0 {name:"Node_881:0",dtype:float32,shape:[64, 256, 1, 1]}
    out_0 {name:"Node_882:0",dtype:float32,shape:[64, 256, 1, 1]}
    attrs {'compiler': 'tensorrt'}
  }
}
layer {
  name:"Node_883"
  type:"nn_conv2d"
  top:"Node_883"
  bottom:"Node_879"
  bottom:"Node_882"
  layer_param {
    idx:883
    in_0 {name:"Node_879:0",dtype:float32,shape:[1, 256, 35, 35]}
    in_1 {name:"Node_882:0",dtype:float32,shape:[64, 256, 1, 1]}
    out_0 {name:"Node_883:0",dtype:float32,shape:[1, 64, 35, 35]}
    attrs {'strides': [1, 1], 'padding': [0, 0, 0, 0], 'dilation': [1, 1], 'groups': 1, 'channels': 64, 'kernel_size': [1, 1], 'data_layout': 'NCHW', 'kernel_layout': 'OIHW', 'out_layout': '', 'out_dtype': ''}
  }
}
layer {
  name:"Node_884"
  type:"annotation_compiler_end"
  top:"Node_884"
  bottom:"Node_883"
  layer_param {
    idx:884
    in_0 {name:"Node_883:0",dtype:float32,shape:[1, 64, 35, 35]}
    out_0 {name:"Node_884:0",dtype:float32,shape:[1, 64, 35, 35]}
    attrs {'compiler': 'tensorrt'}
  }
}
layer {
  name:"Node_885"
  type:"annotation_compiler_begin"
  top:"Node_885"
  bottom:"Node_884"
  layer_param {
    idx:885
    in_0 {name:"Node_884:0",dtype:float32,shape:[1, 64, 35, 35]}
    out_0 {name:"Node_885:0",dtype:float32,shape:[1, 64, 35, 35]}
    attrs {'compiler': 'tensorrt'}
  }
}
layer {
  name:"Node_887"
  type:"const"
  top:"Node_887"
  layer_param {
    idx:887
    out_0 {name:"Node_887:0",dtype:float32,shape:[64]}
  }
}
layer {
  name:"Node_888"
  type:"annotation_compiler_begin"
  top:"Node_888"
  bottom:"Node_887"
  layer_param {
    idx:888
    in_0 {name:"Node_887:0",dtype:float32,shape:[64]}
    out_0 {name:"Node_888:0",dtype:float32,shape:[64]}
    attrs {'compiler': 'tensorrt'}
  }
}
layer {
  name:"Node_890"
  type:"const"
  top:"Node_890"
  layer_param {
    idx:890
    out_0 {name:"Node_890:0",dtype:float32,shape:[64]}
  }
}
layer {
  name:"Node_891"
  type:"annotation_compiler_begin"
  top:"Node_891"
  bottom:"Node_890"
  layer_param {
    idx:891
    in_0 {name:"Node_890:0",dtype:float32,shape:[64]}
    out_0 {name:"Node_891:0",dtype:float32,shape:[64]}
    attrs {'compiler': 'tensorrt'}
  }
}
layer {
  name:"Node_893"
  type:"const"
  top:"Node_893"
  layer_param {
    idx:893
    out_0 {name:"Node_893:0",dtype:float32,shape:[64]}
  }
}
layer {
  name:"Node_894"
  type:"annotation_compiler_begin"
  top:"Node_894"
  bottom:"Node_893"
  layer_param {
    idx:894
    in_0 {name:"Node_893:0",dtype:float32,shape:[64]}
    out_0 {name:"Node_894:0",dtype:float32,shape:[64]}
    attrs {'compiler': 'tensorrt'}
  }
}
layer {
  name:"Node_896"
  type:"const"
  top:"Node_896"
  layer_param {
    idx:896
    out_0 {name:"Node_896:0",dtype:float32,shape:[64]}
  }
}
layer {
  name:"Node_897"
  type:"annotation_compiler_begin"
  top:"Node_897"
  bottom:"Node_896"
  layer_param {
    idx:897
    in_0 {name:"Node_896:0",dtype:float32,shape:[64]}
    out_0 {name:"Node_897:0",dtype:float32,shape:[64]}
    attrs {'compiler': 'tensorrt'}
  }
}
layer {
  name:"Node_898"
  type:"nn_batch_norm"
  top:"Node_898"
  bottom:"Node_885"
  bottom:"Node_888"
  bottom:"Node_891"
  bottom:"Node_894"
  bottom:"Node_897"
  layer_param {
    idx:898
    in_0 {name:"Node_885:0",dtype:float32,shape:[1, 64, 35, 35]}
    in_1 {name:"Node_888:0",dtype:float32,shape:[64]}
    in_2 {name:"Node_891:0",dtype:float32,shape:[64]}
    in_3 {name:"Node_894:0",dtype:float32,shape:[64]}
    in_4 {name:"Node_897:0",dtype:float32,shape:[64]}
    out_0 {name:"Node_898:0",dtype:float32,shape:[1, 64, 35, 35]}
    out_1 {name:"Node_898:1",dtype:float32,shape:[64]}
    out_2 {name:"Node_898:2",dtype:float32,shape:[64]}
    attrs {'axis': 1, 'epsilon': 0.0010000000474974513, 'center': 1, 'scale': 0}
  }
}
layer {
  name:"Node_899"
  type:"annotation_compiler_end"
  top:"Node_899"
  bottom:"Node_898"
  layer_param {
    idx:899
    in_0 {name:"Node_898:0",dtype:float32,shape:[1, 64, 35, 35]}
    out_0 {name:"Node_899:0",dtype:float32,shape:[1, 64, 35, 35]}
    out_1 {name:"Node_899:1",dtype:float32,shape:[64]}
    out_2 {name:"Node_899:2",dtype:float32,shape:[64]}
    attrs {'compiler': 'tensorrt'}
  }
}
layer {
  name:"Node_900"
  type:"annotation_compiler_begin"
  top:"Node_900"
  bottom:"Node_899"
  layer_param {
    idx:900
    in_0 {name:"Node_899:0",dtype:float32,shape:[1, 64, 35, 35]}
    out_0 {name:"Node_900:0",dtype:float32,shape:[1, 64, 35, 35]}
    out_1 {name:"Node_900:1",dtype:float32,shape:[64]}
    out_2 {name:"Node_900:2",dtype:float32,shape:[64]}
    attrs {'compiler': 'tensorrt'}
  }
}
layer {
  name:"Node_902"
  type:"annotation_compiler_end"
  top:"Node_902"
  bottom:"Node_900"
  layer_param {
    idx:902
    in_0 {name:"Node_900:0",dtype:float32,shape:[1, 64, 35, 35]}
    out_0 {name:"Node_902:0",dtype:float32,shape:[1, 64, 35, 35]}
    attrs {'compiler': 'tensorrt'}
  }
}
layer {
  name:"Node_903"
  type:"annotation_compiler_begin"
  top:"Node_903"
  bottom:"Node_902"
  layer_param {
    idx:903
    in_0 {name:"Node_902:0",dtype:float32,shape:[1, 64, 35, 35]}
    out_0 {name:"Node_903:0",dtype:float32,shape:[1, 64, 35, 35]}
    attrs {'compiler': 'tensorrt'}
  }
}
layer {
  name:"Node_904"
  type:"nn_relu"
  top:"Node_904"
  bottom:"Node_903"
  layer_param {
    idx:904
    in_0 {name:"Node_903:0",dtype:float32,shape:[1, 64, 35, 35]}
    out_0 {name:"Node_904:0",dtype:float32,shape:[1, 64, 35, 35]}
  }
}
layer {
  name:"Node_905"
  type:"annotation_compiler_end"
  top:"Node_905"
  bottom:"Node_904"
  layer_param {
    idx:905
    in_0 {name:"Node_904:0",dtype:float32,shape:[1, 64, 35, 35]}
    out_0 {name:"Node_905:0",dtype:float32,shape:[1, 64, 35, 35]}
    attrs {'compiler': 'tensorrt'}
  }
}
layer {
  name:"Node_906"
  type:"annotation_compiler_begin"
  top:"Node_906"
  bottom:"Node_905"
  layer_param {
    idx:906
    in_0 {name:"Node_905:0",dtype:float32,shape:[1, 64, 35, 35]}
    out_0 {name:"Node_906:0",dtype:float32,shape:[1, 64, 35, 35]}
    attrs {'compiler': 'tensorrt'}
  }
}
layer {
  name:"Node_908"
  type:"const"
  top:"Node_908"
  layer_param {
    idx:908
    out_0 {name:"Node_908:0",dtype:float32,shape:[96, 64, 3, 3]}
  }
}
layer {
  name:"Node_909"
  type:"annotation_compiler_begin"
  top:"Node_909"
  bottom:"Node_908"
  layer_param {
    idx:909
    in_0 {name:"Node_908:0",dtype:float32,shape:[96, 64, 3, 3]}
    out_0 {name:"Node_909:0",dtype:float32,shape:[96, 64, 3, 3]}
    attrs {'compiler': 'tensorrt'}
  }
}
layer {
  name:"Node_910"
  type:"nn_conv2d"
  top:"Node_910"
  bottom:"Node_906"
  bottom:"Node_909"
  layer_param {
    idx:910
    in_0 {name:"Node_906:0",dtype:float32,shape:[1, 64, 35, 35]}
    in_1 {name:"Node_909:0",dtype:float32,shape:[96, 64, 3, 3]}
    out_0 {name:"Node_910:0",dtype:float32,shape:[1, 96, 35, 35]}
    attrs {'strides': [1, 1], 'padding': [1, 1, 1, 1], 'dilation': [1, 1], 'groups': 1, 'channels': 96, 'kernel_size': [3, 3], 'data_layout': 'NCHW', 'kernel_layout': 'OIHW', 'out_layout': '', 'out_dtype': ''}
  }
}
layer {
  name:"Node_911"
  type:"annotation_compiler_end"
  top:"Node_911"
  bottom:"Node_910"
  layer_param {
    idx:911
    in_0 {name:"Node_910:0",dtype:float32,shape:[1, 96, 35, 35]}
    out_0 {name:"Node_911:0",dtype:float32,shape:[1, 96, 35, 35]}
    attrs {'compiler': 'tensorrt'}
  }
}
layer {
  name:"Node_912"
  type:"annotation_compiler_begin"
  top:"Node_912"
  bottom:"Node_911"
  layer_param {
    idx:912
    in_0 {name:"Node_911:0",dtype:float32,shape:[1, 96, 35, 35]}
    out_0 {name:"Node_912:0",dtype:float32,shape:[1, 96, 35, 35]}
    attrs {'compiler': 'tensorrt'}
  }
}
layer {
  name:"Node_914"
  type:"const"
  top:"Node_914"
  layer_param {
    idx:914
    out_0 {name:"Node_914:0",dtype:float32,shape:[96]}
  }
}
layer {
  name:"Node_915"
  type:"annotation_compiler_begin"
  top:"Node_915"
  bottom:"Node_914"
  layer_param {
    idx:915
    in_0 {name:"Node_914:0",dtype:float32,shape:[96]}
    out_0 {name:"Node_915:0",dtype:float32,shape:[96]}
    attrs {'compiler': 'tensorrt'}
  }
}
layer {
  name:"Node_917"
  type:"const"
  top:"Node_917"
  layer_param {
    idx:917
    out_0 {name:"Node_917:0",dtype:float32,shape:[96]}
  }
}
layer {
  name:"Node_918"
  type:"annotation_compiler_begin"
  top:"Node_918"
  bottom:"Node_917"
  layer_param {
    idx:918
    in_0 {name:"Node_917:0",dtype:float32,shape:[96]}
    out_0 {name:"Node_918:0",dtype:float32,shape:[96]}
    attrs {'compiler': 'tensorrt'}
  }
}
layer {
  name:"Node_920"
  type:"const"
  top:"Node_920"
  layer_param {
    idx:920
    out_0 {name:"Node_920:0",dtype:float32,shape:[96]}
  }
}
layer {
  name:"Node_921"
  type:"annotation_compiler_begin"
  top:"Node_921"
  bottom:"Node_920"
  layer_param {
    idx:921
    in_0 {name:"Node_920:0",dtype:float32,shape:[96]}
    out_0 {name:"Node_921:0",dtype:float32,shape:[96]}
    attrs {'compiler': 'tensorrt'}
  }
}
layer {
  name:"Node_923"
  type:"const"
  top:"Node_923"
  layer_param {
    idx:923
    out_0 {name:"Node_923:0",dtype:float32,shape:[96]}
  }
}
layer {
  name:"Node_924"
  type:"annotation_compiler_begin"
  top:"Node_924"
  bottom:"Node_923"
  layer_param {
    idx:924
    in_0 {name:"Node_923:0",dtype:float32,shape:[96]}
    out_0 {name:"Node_924:0",dtype:float32,shape:[96]}
    attrs {'compiler': 'tensorrt'}
  }
}
layer {
  name:"Node_925"
  type:"nn_batch_norm"
  top:"Node_925"
  bottom:"Node_912"
  bottom:"Node_915"
  bottom:"Node_918"
  bottom:"Node_921"
  bottom:"Node_924"
  layer_param {
    idx:925
    in_0 {name:"Node_912:0",dtype:float32,shape:[1, 96, 35, 35]}
    in_1 {name:"Node_915:0",dtype:float32,shape:[96]}
    in_2 {name:"Node_918:0",dtype:float32,shape:[96]}
    in_3 {name:"Node_921:0",dtype:float32,shape:[96]}
    in_4 {name:"Node_924:0",dtype:float32,shape:[96]}
    out_0 {name:"Node_925:0",dtype:float32,shape:[1, 96, 35, 35]}
    out_1 {name:"Node_925:1",dtype:float32,shape:[96]}
    out_2 {name:"Node_925:2",dtype:float32,shape:[96]}
    attrs {'axis': 1, 'epsilon': 0.0010000000474974513, 'center': 1, 'scale': 0}
  }
}
layer {
  name:"Node_926"
  type:"annotation_compiler_end"
  top:"Node_926"
  bottom:"Node_925"
  layer_param {
    idx:926
    in_0 {name:"Node_925:0",dtype:float32,shape:[1, 96, 35, 35]}
    out_0 {name:"Node_926:0",dtype:float32,shape:[1, 96, 35, 35]}
    out_1 {name:"Node_926:1",dtype:float32,shape:[96]}
    out_2 {name:"Node_926:2",dtype:float32,shape:[96]}
    attrs {'compiler': 'tensorrt'}
  }
}
layer {
  name:"Node_927"
  type:"annotation_compiler_begin"
  top:"Node_927"
  bottom:"Node_926"
  layer_param {
    idx:927
    in_0 {name:"Node_926:0",dtype:float32,shape:[1, 96, 35, 35]}
    out_0 {name:"Node_927:0",dtype:float32,shape:[1, 96, 35, 35]}
    out_1 {name:"Node_927:1",dtype:float32,shape:[96]}
    out_2 {name:"Node_927:2",dtype:float32,shape:[96]}
    attrs {'compiler': 'tensorrt'}
  }
}
layer {
  name:"Node_929"
  type:"annotation_compiler_end"
  top:"Node_929"
  bottom:"Node_927"
  layer_param {
    idx:929
    in_0 {name:"Node_927:0",dtype:float32,shape:[1, 96, 35, 35]}
    out_0 {name:"Node_929:0",dtype:float32,shape:[1, 96, 35, 35]}
    attrs {'compiler': 'tensorrt'}
  }
}
layer {
  name:"Node_930"
  type:"annotation_compiler_begin"
  top:"Node_930"
  bottom:"Node_929"
  layer_param {
    idx:930
    in_0 {name:"Node_929:0",dtype:float32,shape:[1, 96, 35, 35]}
    out_0 {name:"Node_930:0",dtype:float32,shape:[1, 96, 35, 35]}
    attrs {'compiler': 'tensorrt'}
  }
}
layer {
  name:"Node_931"
  type:"nn_relu"
  top:"Node_931"
  bottom:"Node_930"
  layer_param {
    idx:931
    in_0 {name:"Node_930:0",dtype:float32,shape:[1, 96, 35, 35]}
    out_0 {name:"Node_931:0",dtype:float32,shape:[1, 96, 35, 35]}
  }
}
layer {
  name:"Node_932"
  type:"annotation_compiler_end"
  top:"Node_932"
  bottom:"Node_931"
  layer_param {
    idx:932
    in_0 {name:"Node_931:0",dtype:float32,shape:[1, 96, 35, 35]}
    out_0 {name:"Node_932:0",dtype:float32,shape:[1, 96, 35, 35]}
    attrs {'compiler': 'tensorrt'}
  }
}
layer {
  name:"Node_933"
  type:"annotation_compiler_begin"
  top:"Node_933"
  bottom:"Node_932"
  layer_param {
    idx:933
    in_0 {name:"Node_932:0",dtype:float32,shape:[1, 96, 35, 35]}
    out_0 {name:"Node_933:0",dtype:float32,shape:[1, 96, 35, 35]}
    attrs {'compiler': 'tensorrt'}
  }
}
layer {
  name:"Node_935"
  type:"const"
  top:"Node_935"
  layer_param {
    idx:935
    out_0 {name:"Node_935:0",dtype:float32,shape:[96, 96, 3, 3]}
  }
}
layer {
  name:"Node_936"
  type:"annotation_compiler_begin"
  top:"Node_936"
  bottom:"Node_935"
  layer_param {
    idx:936
    in_0 {name:"Node_935:0",dtype:float32,shape:[96, 96, 3, 3]}
    out_0 {name:"Node_936:0",dtype:float32,shape:[96, 96, 3, 3]}
    attrs {'compiler': 'tensorrt'}
  }
}
layer {
  name:"Node_937"
  type:"nn_conv2d"
  top:"Node_937"
  bottom:"Node_933"
  bottom:"Node_936"
  layer_param {
    idx:937
    in_0 {name:"Node_933:0",dtype:float32,shape:[1, 96, 35, 35]}
    in_1 {name:"Node_936:0",dtype:float32,shape:[96, 96, 3, 3]}
    out_0 {name:"Node_937:0",dtype:float32,shape:[1, 96, 35, 35]}
    attrs {'strides': [1, 1], 'padding': [1, 1, 1, 1], 'dilation': [1, 1], 'groups': 1, 'channels': 96, 'kernel_size': [3, 3], 'data_layout': 'NCHW', 'kernel_layout': 'OIHW', 'out_layout': '', 'out_dtype': ''}
  }
}
layer {
  name:"Node_938"
  type:"annotation_compiler_end"
  top:"Node_938"
  bottom:"Node_937"
  layer_param {
    idx:938
    in_0 {name:"Node_937:0",dtype:float32,shape:[1, 96, 35, 35]}
    out_0 {name:"Node_938:0",dtype:float32,shape:[1, 96, 35, 35]}
    attrs {'compiler': 'tensorrt'}
  }
}
layer {
  name:"Node_939"
  type:"annotation_compiler_begin"
  top:"Node_939"
  bottom:"Node_938"
  layer_param {
    idx:939
    in_0 {name:"Node_938:0",dtype:float32,shape:[1, 96, 35, 35]}
    out_0 {name:"Node_939:0",dtype:float32,shape:[1, 96, 35, 35]}
    attrs {'compiler': 'tensorrt'}
  }
}
layer {
  name:"Node_941"
  type:"const"
  top:"Node_941"
  layer_param {
    idx:941
    out_0 {name:"Node_941:0",dtype:float32,shape:[96]}
  }
}
layer {
  name:"Node_942"
  type:"annotation_compiler_begin"
  top:"Node_942"
  bottom:"Node_941"
  layer_param {
    idx:942
    in_0 {name:"Node_941:0",dtype:float32,shape:[96]}
    out_0 {name:"Node_942:0",dtype:float32,shape:[96]}
    attrs {'compiler': 'tensorrt'}
  }
}
layer {
  name:"Node_944"
  type:"const"
  top:"Node_944"
  layer_param {
    idx:944
    out_0 {name:"Node_944:0",dtype:float32,shape:[96]}
  }
}
layer {
  name:"Node_945"
  type:"annotation_compiler_begin"
  top:"Node_945"
  bottom:"Node_944"
  layer_param {
    idx:945
    in_0 {name:"Node_944:0",dtype:float32,shape:[96]}
    out_0 {name:"Node_945:0",dtype:float32,shape:[96]}
    attrs {'compiler': 'tensorrt'}
  }
}
layer {
  name:"Node_947"
  type:"const"
  top:"Node_947"
  layer_param {
    idx:947
    out_0 {name:"Node_947:0",dtype:float32,shape:[96]}
  }
}
layer {
  name:"Node_948"
  type:"annotation_compiler_begin"
  top:"Node_948"
  bottom:"Node_947"
  layer_param {
    idx:948
    in_0 {name:"Node_947:0",dtype:float32,shape:[96]}
    out_0 {name:"Node_948:0",dtype:float32,shape:[96]}
    attrs {'compiler': 'tensorrt'}
  }
}
layer {
  name:"Node_950"
  type:"const"
  top:"Node_950"
  layer_param {
    idx:950
    out_0 {name:"Node_950:0",dtype:float32,shape:[96]}
  }
}
layer {
  name:"Node_951"
  type:"annotation_compiler_begin"
  top:"Node_951"
  bottom:"Node_950"
  layer_param {
    idx:951
    in_0 {name:"Node_950:0",dtype:float32,shape:[96]}
    out_0 {name:"Node_951:0",dtype:float32,shape:[96]}
    attrs {'compiler': 'tensorrt'}
  }
}
layer {
  name:"Node_952"
  type:"nn_batch_norm"
  top:"Node_952"
  bottom:"Node_939"
  bottom:"Node_942"
  bottom:"Node_945"
  bottom:"Node_948"
  bottom:"Node_951"
  layer_param {
    idx:952
    in_0 {name:"Node_939:0",dtype:float32,shape:[1, 96, 35, 35]}
    in_1 {name:"Node_942:0",dtype:float32,shape:[96]}
    in_2 {name:"Node_945:0",dtype:float32,shape:[96]}
    in_3 {name:"Node_948:0",dtype:float32,shape:[96]}
    in_4 {name:"Node_951:0",dtype:float32,shape:[96]}
    out_0 {name:"Node_952:0",dtype:float32,shape:[1, 96, 35, 35]}
    out_1 {name:"Node_952:1",dtype:float32,shape:[96]}
    out_2 {name:"Node_952:2",dtype:float32,shape:[96]}
    attrs {'axis': 1, 'epsilon': 0.0010000000474974513, 'center': 1, 'scale': 0}
  }
}
layer {
  name:"Node_953"
  type:"annotation_compiler_end"
  top:"Node_953"
  bottom:"Node_952"
  layer_param {
    idx:953
    in_0 {name:"Node_952:0",dtype:float32,shape:[1, 96, 35, 35]}
    out_0 {name:"Node_953:0",dtype:float32,shape:[1, 96, 35, 35]}
    out_1 {name:"Node_953:1",dtype:float32,shape:[96]}
    out_2 {name:"Node_953:2",dtype:float32,shape:[96]}
    attrs {'compiler': 'tensorrt'}
  }
}
layer {
  name:"Node_954"
  type:"annotation_compiler_begin"
  top:"Node_954"
  bottom:"Node_953"
  layer_param {
    idx:954
    in_0 {name:"Node_953:0",dtype:float32,shape:[1, 96, 35, 35]}
    out_0 {name:"Node_954:0",dtype:float32,shape:[1, 96, 35, 35]}
    out_1 {name:"Node_954:1",dtype:float32,shape:[96]}
    out_2 {name:"Node_954:2",dtype:float32,shape:[96]}
    attrs {'compiler': 'tensorrt'}
  }
}
layer {
  name:"Node_956"
  type:"annotation_compiler_end"
  top:"Node_956"
  bottom:"Node_954"
  layer_param {
    idx:956
    in_0 {name:"Node_954:0",dtype:float32,shape:[1, 96, 35, 35]}
    out_0 {name:"Node_956:0",dtype:float32,shape:[1, 96, 35, 35]}
    attrs {'compiler': 'tensorrt'}
  }
}
layer {
  name:"Node_957"
  type:"annotation_compiler_begin"
  top:"Node_957"
  bottom:"Node_956"
  layer_param {
    idx:957
    in_0 {name:"Node_956:0",dtype:float32,shape:[1, 96, 35, 35]}
    out_0 {name:"Node_957:0",dtype:float32,shape:[1, 96, 35, 35]}
    attrs {'compiler': 'tensorrt'}
  }
}
layer {
  name:"Node_958"
  type:"nn_relu"
  top:"Node_958"
  bottom:"Node_957"
  layer_param {
    idx:958
    in_0 {name:"Node_957:0",dtype:float32,shape:[1, 96, 35, 35]}
    out_0 {name:"Node_958:0",dtype:float32,shape:[1, 96, 35, 35]}
  }
}
layer {
  name:"Node_959"
  type:"annotation_compiler_end"
  top:"Node_959"
  bottom:"Node_958"
  layer_param {
    idx:959
    in_0 {name:"Node_958:0",dtype:float32,shape:[1, 96, 35, 35]}
    out_0 {name:"Node_959:0",dtype:float32,shape:[1, 96, 35, 35]}
    attrs {'compiler': 'tensorrt'}
  }
}
layer {
  name:"Node_960"
  type:"annotation_compiler_begin"
  top:"Node_960"
  bottom:"Node_959"
  layer_param {
    idx:960
    in_0 {name:"Node_959:0",dtype:float32,shape:[1, 96, 35, 35]}
    out_0 {name:"Node_960:0",dtype:float32,shape:[1, 96, 35, 35]}
    attrs {'compiler': 'tensorrt'}
  }
}
layer {
  name:"Node_978"
  type:"annotation_compiler_end"
  top:"Node_978"
  bottom:"Node_731"
  layer_param {
    idx:978
    in_0 {name:"Node_731:0",dtype:float32,shape:[1, 256, 35, 35]}
    out_0 {name:"Node_978:0",dtype:float32,shape:[1, 256, 35, 35]}
    attrs {'compiler': 'tensorrt'}
  }
}
layer {
  name:"Node_979"
  type:"annotation_compiler_begin"
  top:"Node_979"
  bottom:"Node_978"
  layer_param {
    idx:979
    in_0 {name:"Node_978:0",dtype:float32,shape:[1, 256, 35, 35]}
    out_0 {name:"Node_979:0",dtype:float32,shape:[1, 256, 35, 35]}
    attrs {'compiler': 'tensorrt'}
  }
}
layer {
  name:"Node_980"
  type:"nn_avg_pool2d"
  top:"Node_980"
  bottom:"Node_979"
  layer_param {
    idx:980
    in_0 {name:"Node_979:0",dtype:float32,shape:[1, 256, 35, 35]}
    out_0 {name:"Node_980:0",dtype:float32,shape:[1, 256, 35, 35]}
    attrs {'pool_size': [3, 3], 'strides': [1, 1], 'dilation': [1, 1], 'padding': [1, 1, 1, 1], 'layout': 'NCHW', 'ceil_mode': 0, 'count_include_pad': 0}
  }
}
layer {
  name:"Node_981"
  type:"annotation_compiler_end"
  top:"Node_981"
  bottom:"Node_980"
  layer_param {
    idx:981
    in_0 {name:"Node_980:0",dtype:float32,shape:[1, 256, 35, 35]}
    out_0 {name:"Node_981:0",dtype:float32,shape:[1, 256, 35, 35]}
    attrs {'compiler': 'tensorrt'}
  }
}
layer {
  name:"Node_982"
  type:"annotation_compiler_begin"
  top:"Node_982"
  bottom:"Node_981"
  layer_param {
    idx:982
    in_0 {name:"Node_981:0",dtype:float32,shape:[1, 256, 35, 35]}
    out_0 {name:"Node_982:0",dtype:float32,shape:[1, 256, 35, 35]}
    attrs {'compiler': 'tensorrt'}
  }
}
layer {
  name:"Node_984"
  type:"const"
  top:"Node_984"
  layer_param {
    idx:984
    out_0 {name:"Node_984:0",dtype:float32,shape:[64, 256, 1, 1]}
  }
}
layer {
  name:"Node_985"
  type:"annotation_compiler_begin"
  top:"Node_985"
  bottom:"Node_984"
  layer_param {
    idx:985
    in_0 {name:"Node_984:0",dtype:float32,shape:[64, 256, 1, 1]}
    out_0 {name:"Node_985:0",dtype:float32,shape:[64, 256, 1, 1]}
    attrs {'compiler': 'tensorrt'}
  }
}
layer {
  name:"Node_986"
  type:"nn_conv2d"
  top:"Node_986"
  bottom:"Node_982"
  bottom:"Node_985"
  layer_param {
    idx:986
    in_0 {name:"Node_982:0",dtype:float32,shape:[1, 256, 35, 35]}
    in_1 {name:"Node_985:0",dtype:float32,shape:[64, 256, 1, 1]}
    out_0 {name:"Node_986:0",dtype:float32,shape:[1, 64, 35, 35]}
    attrs {'strides': [1, 1], 'padding': [0, 0, 0, 0], 'dilation': [1, 1], 'groups': 1, 'channels': 64, 'kernel_size': [1, 1], 'data_layout': 'NCHW', 'kernel_layout': 'OIHW', 'out_layout': '', 'out_dtype': ''}
  }
}
layer {
  name:"Node_987"
  type:"annotation_compiler_end"
  top:"Node_987"
  bottom:"Node_986"
  layer_param {
    idx:987
    in_0 {name:"Node_986:0",dtype:float32,shape:[1, 64, 35, 35]}
    out_0 {name:"Node_987:0",dtype:float32,shape:[1, 64, 35, 35]}
    attrs {'compiler': 'tensorrt'}
  }
}
layer {
  name:"Node_988"
  type:"annotation_compiler_begin"
  top:"Node_988"
  bottom:"Node_987"
  layer_param {
    idx:988
    in_0 {name:"Node_987:0",dtype:float32,shape:[1, 64, 35, 35]}
    out_0 {name:"Node_988:0",dtype:float32,shape:[1, 64, 35, 35]}
    attrs {'compiler': 'tensorrt'}
  }
}
layer {
  name:"Node_990"
  type:"const"
  top:"Node_990"
  layer_param {
    idx:990
    out_0 {name:"Node_990:0",dtype:float32,shape:[64]}
  }
}
layer {
  name:"Node_991"
  type:"annotation_compiler_begin"
  top:"Node_991"
  bottom:"Node_990"
  layer_param {
    idx:991
    in_0 {name:"Node_990:0",dtype:float32,shape:[64]}
    out_0 {name:"Node_991:0",dtype:float32,shape:[64]}
    attrs {'compiler': 'tensorrt'}
  }
}
layer {
  name:"Node_993"
  type:"const"
  top:"Node_993"
  layer_param {
    idx:993
    out_0 {name:"Node_993:0",dtype:float32,shape:[64]}
  }
}
layer {
  name:"Node_994"
  type:"annotation_compiler_begin"
  top:"Node_994"
  bottom:"Node_993"
  layer_param {
    idx:994
    in_0 {name:"Node_993:0",dtype:float32,shape:[64]}
    out_0 {name:"Node_994:0",dtype:float32,shape:[64]}
    attrs {'compiler': 'tensorrt'}
  }
}
layer {
  name:"Node_996"
  type:"const"
  top:"Node_996"
  layer_param {
    idx:996
    out_0 {name:"Node_996:0",dtype:float32,shape:[64]}
  }
}
layer {
  name:"Node_997"
  type:"annotation_compiler_begin"
  top:"Node_997"
  bottom:"Node_996"
  layer_param {
    idx:997
    in_0 {name:"Node_996:0",dtype:float32,shape:[64]}
    out_0 {name:"Node_997:0",dtype:float32,shape:[64]}
    attrs {'compiler': 'tensorrt'}
  }
}
layer {
  name:"Node_999"
  type:"const"
  top:"Node_999"
  layer_param {
    idx:999
    out_0 {name:"Node_999:0",dtype:float32,shape:[64]}
  }
}
layer {
  name:"Node_1000"
  type:"annotation_compiler_begin"
  top:"Node_1000"
  bottom:"Node_999"
  layer_param {
    idx:1000
    in_0 {name:"Node_999:0",dtype:float32,shape:[64]}
    out_0 {name:"Node_1000:0",dtype:float32,shape:[64]}
    attrs {'compiler': 'tensorrt'}
  }
}
layer {
  name:"Node_1001"
  type:"nn_batch_norm"
  top:"Node_1001"
  bottom:"Node_988"
  bottom:"Node_991"
  bottom:"Node_994"
  bottom:"Node_997"
  bottom:"Node_1000"
  layer_param {
    idx:1001
    in_0 {name:"Node_988:0",dtype:float32,shape:[1, 64, 35, 35]}
    in_1 {name:"Node_991:0",dtype:float32,shape:[64]}
    in_2 {name:"Node_994:0",dtype:float32,shape:[64]}
    in_3 {name:"Node_997:0",dtype:float32,shape:[64]}
    in_4 {name:"Node_1000:0",dtype:float32,shape:[64]}
    out_0 {name:"Node_1001:0",dtype:float32,shape:[1, 64, 35, 35]}
    out_1 {name:"Node_1001:1",dtype:float32,shape:[64]}
    out_2 {name:"Node_1001:2",dtype:float32,shape:[64]}
    attrs {'axis': 1, 'epsilon': 0.0010000000474974513, 'center': 1, 'scale': 0}
  }
}
layer {
  name:"Node_1002"
  type:"annotation_compiler_end"
  top:"Node_1002"
  bottom:"Node_1001"
  layer_param {
    idx:1002
    in_0 {name:"Node_1001:0",dtype:float32,shape:[1, 64, 35, 35]}
    out_0 {name:"Node_1002:0",dtype:float32,shape:[1, 64, 35, 35]}
    out_1 {name:"Node_1002:1",dtype:float32,shape:[64]}
    out_2 {name:"Node_1002:2",dtype:float32,shape:[64]}
    attrs {'compiler': 'tensorrt'}
  }
}
layer {
  name:"Node_1003"
  type:"annotation_compiler_begin"
  top:"Node_1003"
  bottom:"Node_1002"
  layer_param {
    idx:1003
    in_0 {name:"Node_1002:0",dtype:float32,shape:[1, 64, 35, 35]}
    out_0 {name:"Node_1003:0",dtype:float32,shape:[1, 64, 35, 35]}
    out_1 {name:"Node_1003:1",dtype:float32,shape:[64]}
    out_2 {name:"Node_1003:2",dtype:float32,shape:[64]}
    attrs {'compiler': 'tensorrt'}
  }
}
layer {
  name:"Node_1005"
  type:"annotation_compiler_end"
  top:"Node_1005"
  bottom:"Node_1003"
  layer_param {
    idx:1005
    in_0 {name:"Node_1003:0",dtype:float32,shape:[1, 64, 35, 35]}
    out_0 {name:"Node_1005:0",dtype:float32,shape:[1, 64, 35, 35]}
    attrs {'compiler': 'tensorrt'}
  }
}
layer {
  name:"Node_1006"
  type:"annotation_compiler_begin"
  top:"Node_1006"
  bottom:"Node_1005"
  layer_param {
    idx:1006
    in_0 {name:"Node_1005:0",dtype:float32,shape:[1, 64, 35, 35]}
    out_0 {name:"Node_1006:0",dtype:float32,shape:[1, 64, 35, 35]}
    attrs {'compiler': 'tensorrt'}
  }
}
layer {
  name:"Node_1007"
  type:"nn_relu"
  top:"Node_1007"
  bottom:"Node_1006"
  layer_param {
    idx:1007
    in_0 {name:"Node_1006:0",dtype:float32,shape:[1, 64, 35, 35]}
    out_0 {name:"Node_1007:0",dtype:float32,shape:[1, 64, 35, 35]}
  }
}
layer {
  name:"Node_1008"
  type:"annotation_compiler_end"
  top:"Node_1008"
  bottom:"Node_1007"
  layer_param {
    idx:1008
    in_0 {name:"Node_1007:0",dtype:float32,shape:[1, 64, 35, 35]}
    out_0 {name:"Node_1008:0",dtype:float32,shape:[1, 64, 35, 35]}
    attrs {'compiler': 'tensorrt'}
  }
}
layer {
  name:"Node_1009"
  type:"annotation_compiler_begin"
  top:"Node_1009"
  bottom:"Node_1008"
  layer_param {
    idx:1009
    in_0 {name:"Node_1008:0",dtype:float32,shape:[1, 64, 35, 35]}
    out_0 {name:"Node_1009:0",dtype:float32,shape:[1, 64, 35, 35]}
    attrs {'compiler': 'tensorrt'}
  }
}
layer {
  name:"Node_1011"
  type:"annotation_compiler_end"
  top:"Node_1011"
  bottom:"Node_760"
  bottom:"Node_841"
  bottom:"Node_960"
  bottom:"Node_1009"
  layer_param {
    idx:1011
    in_0 {name:"Node_760:0",dtype:float32,shape:[1, 64, 35, 35]}
    in_1 {name:"Node_841:0",dtype:float32,shape:[1, 64, 35, 35]}
    in_2 {name:"Node_960:0",dtype:float32,shape:[1, 96, 35, 35]}
    in_3 {name:"Node_1009:0",dtype:float32,shape:[1, 64, 35, 35]}
    out_0 {name:"Node_1011:0",dtype:float32,shape:[1, 64, 35, 35]}
    out_1 {name:"Node_1011:1",dtype:float32,shape:[1, 64, 35, 35]}
    out_2 {name:"Node_1011:2",dtype:float32,shape:[1, 96, 35, 35]}
    out_3 {name:"Node_1011:3",dtype:float32,shape:[1, 64, 35, 35]}
    attrs {'compiler': 'tensorrt'}
  }
}
layer {
  name:"Node_1012"
  type:"annotation_compiler_begin"
  top:"Node_1012"
  bottom:"Node_1011"
  layer_param {
    idx:1012
    in_0 {name:"Node_1011:0",dtype:float32,shape:[1, 64, 35, 35]}
    out_0 {name:"Node_1012:0",dtype:float32,shape:[1, 64, 35, 35]}
    out_1 {name:"Node_1012:1",dtype:float32,shape:[1, 64, 35, 35]}
    out_2 {name:"Node_1012:2",dtype:float32,shape:[1, 96, 35, 35]}
    out_3 {name:"Node_1012:3",dtype:float32,shape:[1, 64, 35, 35]}
    attrs {'compiler': 'tensorrt'}
  }
}
layer {
  name:"Node_1013"
  type:"concatenate"
  top:"Node_1013"
  bottom:"Node_1012"
  layer_param {
    idx:1013
    in_0 {name:"Node_1012:0",dtype:float32,shape:[1, 64, 35, 35]}
    out_0 {name:"Node_1013:0",dtype:float32,shape:[1, 288, 35, 35]}
    attrs {'axis': 1}
  }
}
layer {
  name:"Node_1014"
  type:"annotation_compiler_end"
  top:"Node_1014"
  bottom:"Node_1013"
  layer_param {
    idx:1014
    in_0 {name:"Node_1013:0",dtype:float32,shape:[1, 288, 35, 35]}
    out_0 {name:"Node_1014:0",dtype:float32,shape:[1, 288, 35, 35]}
    attrs {'compiler': 'tensorrt'}
  }
}
layer {
  name:"Node_1015"
  type:"annotation_compiler_begin"
  top:"Node_1015"
  bottom:"Node_1014"
  layer_param {
    idx:1015
    in_0 {name:"Node_1014:0",dtype:float32,shape:[1, 288, 35, 35]}
    out_0 {name:"Node_1015:0",dtype:float32,shape:[1, 288, 35, 35]}
    attrs {'compiler': 'tensorrt'}
  }
}
layer {
  name:"Node_1017"
  type:"const"
  top:"Node_1017"
  layer_param {
    idx:1017
    out_0 {name:"Node_1017:0",dtype:float32,shape:[64, 288, 1, 1]}
  }
}
layer {
  name:"Node_1018"
  type:"annotation_compiler_begin"
  top:"Node_1018"
  bottom:"Node_1017"
  layer_param {
    idx:1018
    in_0 {name:"Node_1017:0",dtype:float32,shape:[64, 288, 1, 1]}
    out_0 {name:"Node_1018:0",dtype:float32,shape:[64, 288, 1, 1]}
    attrs {'compiler': 'tensorrt'}
  }
}
layer {
  name:"Node_1019"
  type:"nn_conv2d"
  top:"Node_1019"
  bottom:"Node_1015"
  bottom:"Node_1018"
  layer_param {
    idx:1019
    in_0 {name:"Node_1015:0",dtype:float32,shape:[1, 288, 35, 35]}
    in_1 {name:"Node_1018:0",dtype:float32,shape:[64, 288, 1, 1]}
    out_0 {name:"Node_1019:0",dtype:float32,shape:[1, 64, 35, 35]}
    attrs {'strides': [1, 1], 'padding': [0, 0, 0, 0], 'dilation': [1, 1], 'groups': 1, 'channels': 64, 'kernel_size': [1, 1], 'data_layout': 'NCHW', 'kernel_layout': 'OIHW', 'out_layout': '', 'out_dtype': ''}
  }
}
layer {
  name:"Node_1020"
  type:"annotation_compiler_end"
  top:"Node_1020"
  bottom:"Node_1019"
  layer_param {
    idx:1020
    in_0 {name:"Node_1019:0",dtype:float32,shape:[1, 64, 35, 35]}
    out_0 {name:"Node_1020:0",dtype:float32,shape:[1, 64, 35, 35]}
    attrs {'compiler': 'tensorrt'}
  }
}
layer {
  name:"Node_1021"
  type:"annotation_compiler_begin"
  top:"Node_1021"
  bottom:"Node_1020"
  layer_param {
    idx:1021
    in_0 {name:"Node_1020:0",dtype:float32,shape:[1, 64, 35, 35]}
    out_0 {name:"Node_1021:0",dtype:float32,shape:[1, 64, 35, 35]}
    attrs {'compiler': 'tensorrt'}
  }
}
layer {
  name:"Node_1023"
  type:"const"
  top:"Node_1023"
  layer_param {
    idx:1023
    out_0 {name:"Node_1023:0",dtype:float32,shape:[64]}
  }
}
layer {
  name:"Node_1024"
  type:"annotation_compiler_begin"
  top:"Node_1024"
  bottom:"Node_1023"
  layer_param {
    idx:1024
    in_0 {name:"Node_1023:0",dtype:float32,shape:[64]}
    out_0 {name:"Node_1024:0",dtype:float32,shape:[64]}
    attrs {'compiler': 'tensorrt'}
  }
}
layer {
  name:"Node_1026"
  type:"const"
  top:"Node_1026"
  layer_param {
    idx:1026
    out_0 {name:"Node_1026:0",dtype:float32,shape:[64]}
  }
}
layer {
  name:"Node_1027"
  type:"annotation_compiler_begin"
  top:"Node_1027"
  bottom:"Node_1026"
  layer_param {
    idx:1027
    in_0 {name:"Node_1026:0",dtype:float32,shape:[64]}
    out_0 {name:"Node_1027:0",dtype:float32,shape:[64]}
    attrs {'compiler': 'tensorrt'}
  }
}
layer {
  name:"Node_1029"
  type:"const"
  top:"Node_1029"
  layer_param {
    idx:1029
    out_0 {name:"Node_1029:0",dtype:float32,shape:[64]}
  }
}
layer {
  name:"Node_1030"
  type:"annotation_compiler_begin"
  top:"Node_1030"
  bottom:"Node_1029"
  layer_param {
    idx:1030
    in_0 {name:"Node_1029:0",dtype:float32,shape:[64]}
    out_0 {name:"Node_1030:0",dtype:float32,shape:[64]}
    attrs {'compiler': 'tensorrt'}
  }
}
layer {
  name:"Node_1032"
  type:"const"
  top:"Node_1032"
  layer_param {
    idx:1032
    out_0 {name:"Node_1032:0",dtype:float32,shape:[64]}
  }
}
layer {
  name:"Node_1033"
  type:"annotation_compiler_begin"
  top:"Node_1033"
  bottom:"Node_1032"
  layer_param {
    idx:1033
    in_0 {name:"Node_1032:0",dtype:float32,shape:[64]}
    out_0 {name:"Node_1033:0",dtype:float32,shape:[64]}
    attrs {'compiler': 'tensorrt'}
  }
}
layer {
  name:"Node_1034"
  type:"nn_batch_norm"
  top:"Node_1034"
  bottom:"Node_1021"
  bottom:"Node_1024"
  bottom:"Node_1027"
  bottom:"Node_1030"
  bottom:"Node_1033"
  layer_param {
    idx:1034
    in_0 {name:"Node_1021:0",dtype:float32,shape:[1, 64, 35, 35]}
    in_1 {name:"Node_1024:0",dtype:float32,shape:[64]}
    in_2 {name:"Node_1027:0",dtype:float32,shape:[64]}
    in_3 {name:"Node_1030:0",dtype:float32,shape:[64]}
    in_4 {name:"Node_1033:0",dtype:float32,shape:[64]}
    out_0 {name:"Node_1034:0",dtype:float32,shape:[1, 64, 35, 35]}
    out_1 {name:"Node_1034:1",dtype:float32,shape:[64]}
    out_2 {name:"Node_1034:2",dtype:float32,shape:[64]}
    attrs {'axis': 1, 'epsilon': 0.0010000000474974513, 'center': 1, 'scale': 0}
  }
}
layer {
  name:"Node_1035"
  type:"annotation_compiler_end"
  top:"Node_1035"
  bottom:"Node_1034"
  layer_param {
    idx:1035
    in_0 {name:"Node_1034:0",dtype:float32,shape:[1, 64, 35, 35]}
    out_0 {name:"Node_1035:0",dtype:float32,shape:[1, 64, 35, 35]}
    out_1 {name:"Node_1035:1",dtype:float32,shape:[64]}
    out_2 {name:"Node_1035:2",dtype:float32,shape:[64]}
    attrs {'compiler': 'tensorrt'}
  }
}
layer {
  name:"Node_1036"
  type:"annotation_compiler_begin"
  top:"Node_1036"
  bottom:"Node_1035"
  layer_param {
    idx:1036
    in_0 {name:"Node_1035:0",dtype:float32,shape:[1, 64, 35, 35]}
    out_0 {name:"Node_1036:0",dtype:float32,shape:[1, 64, 35, 35]}
    out_1 {name:"Node_1036:1",dtype:float32,shape:[64]}
    out_2 {name:"Node_1036:2",dtype:float32,shape:[64]}
    attrs {'compiler': 'tensorrt'}
  }
}
layer {
  name:"Node_1038"
  type:"annotation_compiler_end"
  top:"Node_1038"
  bottom:"Node_1036"
  layer_param {
    idx:1038
    in_0 {name:"Node_1036:0",dtype:float32,shape:[1, 64, 35, 35]}
    out_0 {name:"Node_1038:0",dtype:float32,shape:[1, 64, 35, 35]}
    attrs {'compiler': 'tensorrt'}
  }
}
layer {
  name:"Node_1039"
  type:"annotation_compiler_begin"
  top:"Node_1039"
  bottom:"Node_1038"
  layer_param {
    idx:1039
    in_0 {name:"Node_1038:0",dtype:float32,shape:[1, 64, 35, 35]}
    out_0 {name:"Node_1039:0",dtype:float32,shape:[1, 64, 35, 35]}
    attrs {'compiler': 'tensorrt'}
  }
}
layer {
  name:"Node_1040"
  type:"nn_relu"
  top:"Node_1040"
  bottom:"Node_1039"
  layer_param {
    idx:1040
    in_0 {name:"Node_1039:0",dtype:float32,shape:[1, 64, 35, 35]}
    out_0 {name:"Node_1040:0",dtype:float32,shape:[1, 64, 35, 35]}
  }
}
layer {
  name:"Node_1041"
  type:"annotation_compiler_end"
  top:"Node_1041"
  bottom:"Node_1040"
  layer_param {
    idx:1041
    in_0 {name:"Node_1040:0",dtype:float32,shape:[1, 64, 35, 35]}
    out_0 {name:"Node_1041:0",dtype:float32,shape:[1, 64, 35, 35]}
    attrs {'compiler': 'tensorrt'}
  }
}
layer {
  name:"Node_1042"
  type:"annotation_compiler_begin"
  top:"Node_1042"
  bottom:"Node_1041"
  layer_param {
    idx:1042
    in_0 {name:"Node_1041:0",dtype:float32,shape:[1, 64, 35, 35]}
    out_0 {name:"Node_1042:0",dtype:float32,shape:[1, 64, 35, 35]}
    attrs {'compiler': 'tensorrt'}
  }
}
layer {
  name:"Node_1068"
  type:"annotation_compiler_end"
  top:"Node_1068"
  bottom:"Node_1013"
  layer_param {
    idx:1068
    in_0 {name:"Node_1013:0",dtype:float32,shape:[1, 288, 35, 35]}
    out_0 {name:"Node_1068:0",dtype:float32,shape:[1, 288, 35, 35]}
    attrs {'compiler': 'tensorrt'}
  }
}
layer {
  name:"Node_1069"
  type:"annotation_compiler_begin"
  top:"Node_1069"
  bottom:"Node_1068"
  layer_param {
    idx:1069
    in_0 {name:"Node_1068:0",dtype:float32,shape:[1, 288, 35, 35]}
    out_0 {name:"Node_1069:0",dtype:float32,shape:[1, 288, 35, 35]}
    attrs {'compiler': 'tensorrt'}
  }
}
layer {
  name:"Node_1071"
  type:"const"
  top:"Node_1071"
  layer_param {
    idx:1071
    out_0 {name:"Node_1071:0",dtype:float32,shape:[48, 288, 1, 1]}
  }
}
layer {
  name:"Node_1072"
  type:"annotation_compiler_begin"
  top:"Node_1072"
  bottom:"Node_1071"
  layer_param {
    idx:1072
    in_0 {name:"Node_1071:0",dtype:float32,shape:[48, 288, 1, 1]}
    out_0 {name:"Node_1072:0",dtype:float32,shape:[48, 288, 1, 1]}
    attrs {'compiler': 'tensorrt'}
  }
}
layer {
  name:"Node_1073"
  type:"nn_conv2d"
  top:"Node_1073"
  bottom:"Node_1069"
  bottom:"Node_1072"
  layer_param {
    idx:1073
    in_0 {name:"Node_1069:0",dtype:float32,shape:[1, 288, 35, 35]}
    in_1 {name:"Node_1072:0",dtype:float32,shape:[48, 288, 1, 1]}
    out_0 {name:"Node_1073:0",dtype:float32,shape:[1, 48, 35, 35]}
    attrs {'strides': [1, 1], 'padding': [0, 0, 0, 0], 'dilation': [1, 1], 'groups': 1, 'channels': 48, 'kernel_size': [1, 1], 'data_layout': 'NCHW', 'kernel_layout': 'OIHW', 'out_layout': '', 'out_dtype': ''}
  }
}
layer {
  name:"Node_1074"
  type:"annotation_compiler_end"
  top:"Node_1074"
  bottom:"Node_1073"
  layer_param {
    idx:1074
    in_0 {name:"Node_1073:0",dtype:float32,shape:[1, 48, 35, 35]}
    out_0 {name:"Node_1074:0",dtype:float32,shape:[1, 48, 35, 35]}
    attrs {'compiler': 'tensorrt'}
  }
}
layer {
  name:"Node_1075"
  type:"annotation_compiler_begin"
  top:"Node_1075"
  bottom:"Node_1074"
  layer_param {
    idx:1075
    in_0 {name:"Node_1074:0",dtype:float32,shape:[1, 48, 35, 35]}
    out_0 {name:"Node_1075:0",dtype:float32,shape:[1, 48, 35, 35]}
    attrs {'compiler': 'tensorrt'}
  }
}
layer {
  name:"Node_1077"
  type:"const"
  top:"Node_1077"
  layer_param {
    idx:1077
    out_0 {name:"Node_1077:0",dtype:float32,shape:[48]}
  }
}
layer {
  name:"Node_1078"
  type:"annotation_compiler_begin"
  top:"Node_1078"
  bottom:"Node_1077"
  layer_param {
    idx:1078
    in_0 {name:"Node_1077:0",dtype:float32,shape:[48]}
    out_0 {name:"Node_1078:0",dtype:float32,shape:[48]}
    attrs {'compiler': 'tensorrt'}
  }
}
layer {
  name:"Node_1080"
  type:"const"
  top:"Node_1080"
  layer_param {
    idx:1080
    out_0 {name:"Node_1080:0",dtype:float32,shape:[48]}
  }
}
layer {
  name:"Node_1081"
  type:"annotation_compiler_begin"
  top:"Node_1081"
  bottom:"Node_1080"
  layer_param {
    idx:1081
    in_0 {name:"Node_1080:0",dtype:float32,shape:[48]}
    out_0 {name:"Node_1081:0",dtype:float32,shape:[48]}
    attrs {'compiler': 'tensorrt'}
  }
}
layer {
  name:"Node_1083"
  type:"const"
  top:"Node_1083"
  layer_param {
    idx:1083
    out_0 {name:"Node_1083:0",dtype:float32,shape:[48]}
  }
}
layer {
  name:"Node_1084"
  type:"annotation_compiler_begin"
  top:"Node_1084"
  bottom:"Node_1083"
  layer_param {
    idx:1084
    in_0 {name:"Node_1083:0",dtype:float32,shape:[48]}
    out_0 {name:"Node_1084:0",dtype:float32,shape:[48]}
    attrs {'compiler': 'tensorrt'}
  }
}
layer {
  name:"Node_1086"
  type:"const"
  top:"Node_1086"
  layer_param {
    idx:1086
    out_0 {name:"Node_1086:0",dtype:float32,shape:[48]}
  }
}
layer {
  name:"Node_1087"
  type:"annotation_compiler_begin"
  top:"Node_1087"
  bottom:"Node_1086"
  layer_param {
    idx:1087
    in_0 {name:"Node_1086:0",dtype:float32,shape:[48]}
    out_0 {name:"Node_1087:0",dtype:float32,shape:[48]}
    attrs {'compiler': 'tensorrt'}
  }
}
layer {
  name:"Node_1088"
  type:"nn_batch_norm"
  top:"Node_1088"
  bottom:"Node_1075"
  bottom:"Node_1078"
  bottom:"Node_1081"
  bottom:"Node_1084"
  bottom:"Node_1087"
  layer_param {
    idx:1088
    in_0 {name:"Node_1075:0",dtype:float32,shape:[1, 48, 35, 35]}
    in_1 {name:"Node_1078:0",dtype:float32,shape:[48]}
    in_2 {name:"Node_1081:0",dtype:float32,shape:[48]}
    in_3 {name:"Node_1084:0",dtype:float32,shape:[48]}
    in_4 {name:"Node_1087:0",dtype:float32,shape:[48]}
    out_0 {name:"Node_1088:0",dtype:float32,shape:[1, 48, 35, 35]}
    out_1 {name:"Node_1088:1",dtype:float32,shape:[48]}
    out_2 {name:"Node_1088:2",dtype:float32,shape:[48]}
    attrs {'axis': 1, 'epsilon': 0.0010000000474974513, 'center': 1, 'scale': 0}
  }
}
layer {
  name:"Node_1089"
  type:"annotation_compiler_end"
  top:"Node_1089"
  bottom:"Node_1088"
  layer_param {
    idx:1089
    in_0 {name:"Node_1088:0",dtype:float32,shape:[1, 48, 35, 35]}
    out_0 {name:"Node_1089:0",dtype:float32,shape:[1, 48, 35, 35]}
    out_1 {name:"Node_1089:1",dtype:float32,shape:[48]}
    out_2 {name:"Node_1089:2",dtype:float32,shape:[48]}
    attrs {'compiler': 'tensorrt'}
  }
}
layer {
  name:"Node_1090"
  type:"annotation_compiler_begin"
  top:"Node_1090"
  bottom:"Node_1089"
  layer_param {
    idx:1090
    in_0 {name:"Node_1089:0",dtype:float32,shape:[1, 48, 35, 35]}
    out_0 {name:"Node_1090:0",dtype:float32,shape:[1, 48, 35, 35]}
    out_1 {name:"Node_1090:1",dtype:float32,shape:[48]}
    out_2 {name:"Node_1090:2",dtype:float32,shape:[48]}
    attrs {'compiler': 'tensorrt'}
  }
}
layer {
  name:"Node_1092"
…
  layer_param {
    idx:3767
    in_0 {name:"Node_3766:0",dtype:float32,shape:[384, 384, 3, 1]}
    out_0 {name:"Node_3767:0",dtype:float32,shape:[384, 384, 3, 1]}
    attrs {'compiler': 'tensorrt'}
  }
}
layer {
  name:"Node_3768"
  type:"nn_conv2d"
  top:"Node_3768"
  bottom:"Node_3764"
  bottom:"Node_3767"
  layer_param {
    idx:3768
    in_0 {name:"Node_3764:0",dtype:float32,shape:[1, 384, 8, 8]}
    in_1 {name:"Node_3767:0",dtype:float32,shape:[384, 384, 3, 1]}
    out_0 {name:"Node_3768:0",dtype:float32,shape:[1, 384, 8, 8]}
    attrs {'strides': [1, 1], 'padding': [1, 0, 1, 0], 'dilation': [1, 1], 'groups': 1, 'channels': 384, 'kernel_size': [3, 1], 'data_layout': 'NCHW', 'kernel_layout': 'OIHW', 'out_layout': '', 'out_dtype': ''}
  }
}
layer {
  name:"Node_3769"
  type:"annotation_compiler_end"
  top:"Node_3769"
  bottom:"Node_3768"
  layer_param {
    idx:3769
    in_0 {name:"Node_3768:0",dtype:float32,shape:[1, 384, 8, 8]}
    out_0 {name:"Node_3769:0",dtype:float32,shape:[1, 384, 8, 8]}
    attrs {'compiler': 'tensorrt'}
  }
}
layer {
  name:"Node_3770"
  type:"annotation_compiler_begin"
  top:"Node_3770"
  bottom:"Node_3769"
  layer_param {
    idx:3770
    in_0 {name:"Node_3769:0",dtype:float32,shape:[1, 384, 8, 8]}
    out_0 {name:"Node_3770:0",dtype:float32,shape:[1, 384, 8, 8]}
    attrs {'compiler': 'tensorrt'}
  }
}
layer {
  name:"Node_3772"
  type:"const"
  top:"Node_3772"
  layer_param {
    idx:3772
    out_0 {name:"Node_3772:0",dtype:float32,shape:[384]}
  }
}
layer {
  name:"Node_3773"
  type:"annotation_compiler_begin"
  top:"Node_3773"
  bottom:"Node_3772"
  layer_param {
    idx:3773
    in_0 {name:"Node_3772:0",dtype:float32,shape:[384]}
    out_0 {name:"Node_3773:0",dtype:float32,shape:[384]}
    attrs {'compiler': 'tensorrt'}
  }
}
layer {
  name:"Node_3775"
  type:"const"
  top:"Node_3775"
  layer_param {
    idx:3775
    out_0 {name:"Node_3775:0",dtype:float32,shape:[384]}
  }
}
layer {
  name:"Node_3776"
  type:"annotation_compiler_begin"
  top:"Node_3776"
  bottom:"Node_3775"
  layer_param {
    idx:3776
    in_0 {name:"Node_3775:0",dtype:float32,shape:[384]}
    out_0 {name:"Node_3776:0",dtype:float32,shape:[384]}
    attrs {'compiler': 'tensorrt'}
  }
}
layer {
  name:"Node_3778"
  type:"const"
  top:"Node_3778"
  layer_param {
    idx:3778
    out_0 {name:"Node_3778:0",dtype:float32,shape:[384]}
  }
}
layer {
  name:"Node_3779"
  type:"annotation_compiler_begin"
  top:"Node_3779"
  bottom:"Node_3778"
  layer_param {
    idx:3779
    in_0 {name:"Node_3778:0",dtype:float32,shape:[384]}
    out_0 {name:"Node_3779:0",dtype:float32,shape:[384]}
    attrs {'compiler': 'tensorrt'}
  }
}
layer {
  name:"Node_3781"
  type:"const"
  top:"Node_3781"
  layer_param {
    idx:3781
    out_0 {name:"Node_3781:0",dtype:float32,shape:[384]}
  }
}
layer {
  name:"Node_3782"
  type:"annotation_compiler_begin"
  top:"Node_3782"
  bottom:"Node_3781"
  layer_param {
    idx:3782
    in_0 {name:"Node_3781:0",dtype:float32,shape:[384]}
    out_0 {name:"Node_3782:0",dtype:float32,shape:[384]}
    attrs {'compiler': 'tensorrt'}
  }
}
layer {
  name:"Node_3783"
  type:"nn_batch_norm"
  top:"Node_3783"
  bottom:"Node_3770"
  bottom:"Node_3773"
  bottom:"Node_3776"
  bottom:"Node_3779"
  bottom:"Node_3782"
  layer_param {
    idx:3783
    in_0 {name:"Node_3770:0",dtype:float32,shape:[1, 384, 8, 8]}
    in_1 {name:"Node_3773:0",dtype:float32,shape:[384]}
    in_2 {name:"Node_3776:0",dtype:float32,shape:[384]}
    in_3 {name:"Node_3779:0",dtype:float32,shape:[384]}
    in_4 {name:"Node_3782:0",dtype:float32,shape:[384]}
    out_0 {name:"Node_3783:0",dtype:float32,shape:[1, 384, 8, 8]}
    out_1 {name:"Node_3783:1",dtype:float32,shape:[384]}
    out_2 {name:"Node_3783:2",dtype:float32,shape:[384]}
    attrs {'axis': 1, 'epsilon': 0.0010000000474974513, 'center': 1, 'scale': 0}
  }
}
layer {
  name:"Node_3784"
  type:"annotation_compiler_end"
  top:"Node_3784"
  bottom:"Node_3783"
  layer_param {
    idx:3784
    in_0 {name:"Node_3783:0",dtype:float32,shape:[1, 384, 8, 8]}
    out_0 {name:"Node_3784:0",dtype:float32,shape:[1, 384, 8, 8]}
    out_1 {name:"Node_3784:1",dtype:float32,shape:[384]}
    out_2 {name:"Node_3784:2",dtype:float32,shape:[384]}
    attrs {'compiler': 'tensorrt'}
  }
}
layer {
  name:"Node_3785"
  type:"annotation_compiler_begin"
  top:"Node_3785"
  bottom:"Node_3784"
  layer_param {
    idx:3785
    in_0 {name:"Node_3784:0",dtype:float32,shape:[1, 384, 8, 8]}
    out_0 {name:"Node_3785:0",dtype:float32,shape:[1, 384, 8, 8]}
    out_1 {name:"Node_3785:1",dtype:float32,shape:[384]}
    out_2 {name:"Node_3785:2",dtype:float32,shape:[384]}
    attrs {'compiler': 'tensorrt'}
  }
}
layer {
  name:"Node_3787"
  type:"annotation_compiler_end"
  top:"Node_3787"
  bottom:"Node_3785"
  layer_param {
    idx:3787
    in_0 {name:"Node_3785:0",dtype:float32,shape:[1, 384, 8, 8]}
    out_0 {name:"Node_3787:0",dtype:float32,shape:[1, 384, 8, 8]}
    attrs {'compiler': 'tensorrt'}
  }
}
layer {
  name:"Node_3788"
  type:"annotation_compiler_begin"
  top:"Node_3788"
  bottom:"Node_3787"
  layer_param {
    idx:3788
    in_0 {name:"Node_3787:0",dtype:float32,shape:[1, 384, 8, 8]}
    out_0 {name:"Node_3788:0",dtype:float32,shape:[1, 384, 8, 8]}
    attrs {'compiler': 'tensorrt'}
  }
}
layer {
  name:"Node_3789"
  type:"nn_relu"
  top:"Node_3789"
  bottom:"Node_3788"
  layer_param {
    idx:3789
    in_0 {name:"Node_3788:0",dtype:float32,shape:[1, 384, 8, 8]}
    out_0 {name:"Node_3789:0",dtype:float32,shape:[1, 384, 8, 8]}
  }
}
layer {
  name:"Node_3790"
  type:"annotation_compiler_end"
  top:"Node_3790"
  bottom:"Node_3789"
  layer_param {
    idx:3790
    in_0 {name:"Node_3789:0",dtype:float32,shape:[1, 384, 8, 8]}
    out_0 {name:"Node_3790:0",dtype:float32,shape:[1, 384, 8, 8]}
    attrs {'compiler': 'tensorrt'}
  }
}
layer {
  name:"Node_3791"
  type:"annotation_compiler_begin"
  top:"Node_3791"
  bottom:"Node_3790"
  layer_param {
    idx:3791
    in_0 {name:"Node_3790:0",dtype:float32,shape:[1, 384, 8, 8]}
    out_0 {name:"Node_3791:0",dtype:float32,shape:[1, 384, 8, 8]}
    attrs {'compiler': 'tensorrt'}
  }
}
layer {
  name:"Node_3828"
  type:"annotation_compiler_end"
  top:"Node_3828"
  bottom:"Node_3638"
  layer_param {
    idx:3828
    in_0 {name:"Node_3638:0",dtype:float32,shape:[1, 2048, 8, 8]}
    out_0 {name:"Node_3828:0",dtype:float32,shape:[1, 2048, 8, 8]}
    attrs {'compiler': 'tensorrt'}
  }
}
layer {
  name:"Node_3829"
  type:"annotation_compiler_begin"
  top:"Node_3829"
  bottom:"Node_3828"
  layer_param {
    idx:3829
    in_0 {name:"Node_3828:0",dtype:float32,shape:[1, 2048, 8, 8]}
    out_0 {name:"Node_3829:0",dtype:float32,shape:[1, 2048, 8, 8]}
    attrs {'compiler': 'tensorrt'}
  }
}
layer {
  name:"Node_3831"
  type:"const"
  top:"Node_3831"
  layer_param {
    idx:3831
    out_0 {name:"Node_3831:0",dtype:float32,shape:[448, 2048, 1, 1]}
  }
}
layer {
  name:"Node_3832"
  type:"annotation_compiler_begin"
  top:"Node_3832"
  bottom:"Node_3831"
  layer_param {
    idx:3832
    in_0 {name:"Node_3831:0",dtype:float32,shape:[448, 2048, 1, 1]}
    out_0 {name:"Node_3832:0",dtype:float32,shape:[448, 2048, 1, 1]}
    attrs {'compiler': 'tensorrt'}
  }
}
layer {
  name:"Node_3833"
  type:"nn_conv2d"
  top:"Node_3833"
  bottom:"Node_3829"
  bottom:"Node_3832"
  layer_param {
    idx:3833
    in_0 {name:"Node_3829:0",dtype:float32,shape:[1, 2048, 8, 8]}
    in_1 {name:"Node_3832:0",dtype:float32,shape:[448, 2048, 1, 1]}
    out_0 {name:"Node_3833:0",dtype:float32,shape:[1, 448, 8, 8]}
    attrs {'strides': [1, 1], 'padding': [0, 0, 0, 0], 'dilation': [1, 1], 'groups': 1, 'channels': 448, 'kernel_size': [1, 1], 'data_layout': 'NCHW', 'kernel_layout': 'OIHW', 'out_layout': '', 'out_dtype': ''}
  }
}
layer {
  name:"Node_3834"
  type:"annotation_compiler_end"
  top:"Node_3834"
  bottom:"Node_3833"
  layer_param {
    idx:3834
    in_0 {name:"Node_3833:0",dtype:float32,shape:[1, 448, 8, 8]}
    out_0 {name:"Node_3834:0",dtype:float32,shape:[1, 448, 8, 8]}
    attrs {'compiler': 'tensorrt'}
  }
}
layer {
  name:"Node_3835"
  type:"annotation_compiler_begin"
  top:"Node_3835"
  bottom:"Node_3834"
  layer_param {
    idx:3835
    in_0 {name:"Node_3834:0",dtype:float32,shape:[1, 448, 8, 8]}
    out_0 {name:"Node_3835:0",dtype:float32,shape:[1, 448, 8, 8]}
    attrs {'compiler': 'tensorrt'}
  }
}
layer {
  name:"Node_3837"
  type:"const"
  top:"Node_3837"
  layer_param {
    idx:3837
    out_0 {name:"Node_3837:0",dtype:float32,shape:[448]}
  }
}
layer {
  name:"Node_3838"
  type:"annotation_compiler_begin"
  top:"Node_3838"
  bottom:"Node_3837"
  layer_param {
    idx:3838
    in_0 {name:"Node_3837:0",dtype:float32,shape:[448]}
    out_0 {name:"Node_3838:0",dtype:float32,shape:[448]}
    attrs {'compiler': 'tensorrt'}
  }
}
layer {
  name:"Node_3840"
  type:"const"
  top:"Node_3840"
  layer_param {
    idx:3840
    out_0 {name:"Node_3840:0",dtype:float32,shape:[448]}
  }
}
layer {
  name:"Node_3841"
  type:"annotation_compiler_begin"
  top:"Node_3841"
  bottom:"Node_3840"
  layer_param {
    idx:3841
    in_0 {name:"Node_3840:0",dtype:float32,shape:[448]}
    out_0 {name:"Node_3841:0",dtype:float32,shape:[448]}
    attrs {'compiler': 'tensorrt'}
  }
}
layer {
  name:"Node_3843"
  type:"const"
  top:"Node_3843"
  layer_param {
    idx:3843
    out_0 {name:"Node_3843:0",dtype:float32,shape:[448]}
  }
}
layer {
  name:"Node_3844"
  type:"annotation_compiler_begin"
  top:"Node_3844"
  bottom:"Node_3843"
  layer_param {
    idx:3844
    in_0 {name:"Node_3843:0",dtype:float32,shape:[448]}
    out_0 {name:"Node_3844:0",dtype:float32,shape:[448]}
    attrs {'compiler': 'tensorrt'}
  }
}
layer {
  name:"Node_3846"
  type:"const"
  top:"Node_3846"
  layer_param {
    idx:3846
    out_0 {name:"Node_3846:0",dtype:float32,shape:[448]}
  }
}
layer {
  name:"Node_3847"
  type:"annotation_compiler_begin"
  top:"Node_3847"
  bottom:"Node_3846"
  layer_param {
    idx:3847
    in_0 {name:"Node_3846:0",dtype:float32,shape:[448]}
    out_0 {name:"Node_3847:0",dtype:float32,shape:[448]}
    attrs {'compiler': 'tensorrt'}
  }
}
layer {
  name:"Node_3848"
  type:"nn_batch_norm"
  top:"Node_3848"
  bottom:"Node_3835"
  bottom:"Node_3838"
  bottom:"Node_3841"
  bottom:"Node_3844"
  bottom:"Node_3847"
  layer_param {
    idx:3848
    in_0 {name:"Node_3835:0",dtype:float32,shape:[1, 448, 8, 8]}
    in_1 {name:"Node_3838:0",dtype:float32,shape:[448]}
    in_2 {name:"Node_3841:0",dtype:float32,shape:[448]}
    in_3 {name:"Node_3844:0",dtype:float32,shape:[448]}
    in_4 {name:"Node_3847:0",dtype:float32,shape:[448]}
    out_0 {name:"Node_3848:0",dtype:float32,shape:[1, 448, 8, 8]}
    out_1 {name:"Node_3848:1",dtype:float32,shape:[448]}
    out_2 {name:"Node_3848:2",dtype:float32,shape:[448]}
    attrs {'axis': 1, 'epsilon': 0.0010000000474974513, 'center': 1, 'scale': 0}
  }
}
layer {
  name:"Node_3849"
  type:"annotation_compiler_end"
  top:"Node_3849"
  bottom:"Node_3848"
  layer_param {
    idx:3849
    in_0 {name:"Node_3848:0",dtype:float32,shape:[1, 448, 8, 8]}
    out_0 {name:"Node_3849:0",dtype:float32,shape:[1, 448, 8, 8]}
    out_1 {name:"Node_3849:1",dtype:float32,shape:[448]}
    out_2 {name:"Node_3849:2",dtype:float32,shape:[448]}
    attrs {'compiler': 'tensorrt'}
  }
}
layer {
  name:"Node_3850"
  type:"annotation_compiler_begin"
  top:"Node_3850"
  bottom:"Node_3849"
  layer_param {
    idx:3850
    in_0 {name:"Node_3849:0",dtype:float32,shape:[1, 448, 8, 8]}
    out_0 {name:"Node_3850:0",dtype:float32,shape:[1, 448, 8, 8]}
    out_1 {name:"Node_3850:1",dtype:float32,shape:[448]}
    out_2 {name:"Node_3850:2",dtype:float32,shape:[448]}
    attrs {'compiler': 'tensorrt'}
  }
}
layer {
  name:"Node_3852"
  type:"annotation_compiler_end"
  top:"Node_3852"
  bottom:"Node_3850"
  layer_param {
    idx:3852
    in_0 {name:"Node_3850:0",dtype:float32,shape:[1, 448, 8, 8]}
    out_0 {name:"Node_3852:0",dtype:float32,shape:[1, 448, 8, 8]}
    attrs {'compiler': 'tensorrt'}
  }
}
layer {
  name:"Node_3853"
  type:"annotation_compiler_begin"
  top:"Node_3853"
  bottom:"Node_3852"
  layer_param {
    idx:3853
    in_0 {name:"Node_3852:0",dtype:float32,shape:[1, 448, 8, 8]}
    out_0 {name:"Node_3853:0",dtype:float32,shape:[1, 448, 8, 8]}
    attrs {'compiler': 'tensorrt'}
  }
}
layer {
  name:"Node_3854"
  type:"nn_relu"
  top:"Node_3854"
  bottom:"Node_3853"
  layer_param {
    idx:3854
    in_0 {name:"Node_3853:0",dtype:float32,shape:[1, 448, 8, 8]}
    out_0 {name:"Node_3854:0",dtype:float32,shape:[1, 448, 8, 8]}
  }
}
layer {
  name:"Node_3855"
  type:"annotation_compiler_end"
  top:"Node_3855"
  bottom:"Node_3854"
  layer_param {
    idx:3855
    in_0 {name:"Node_3854:0",dtype:float32,shape:[1, 448, 8, 8]}
    out_0 {name:"Node_3855:0",dtype:float32,shape:[1, 448, 8, 8]}
    attrs {'compiler': 'tensorrt'}
  }
}
layer {
  name:"Node_3856"
  type:"annotation_compiler_begin"
  top:"Node_3856"
  bottom:"Node_3855"
  layer_param {
    idx:3856
    in_0 {name:"Node_3855:0",dtype:float32,shape:[1, 448, 8, 8]}
    out_0 {name:"Node_3856:0",dtype:float32,shape:[1, 448, 8, 8]}
    attrs {'compiler': 'tensorrt'}
  }
}
layer {
  name:"Node_3858"
  type:"const"
  top:"Node_3858"
  layer_param {
    idx:3858
    out_0 {name:"Node_3858:0",dtype:float32,shape:[384, 448, 3, 3]}
  }
}
layer {
  name:"Node_3859"
  type:"annotation_compiler_begin"
  top:"Node_3859"
  bottom:"Node_3858"
  layer_param {
    idx:3859
    in_0 {name:"Node_3858:0",dtype:float32,shape:[384, 448, 3, 3]}
    out_0 {name:"Node_3859:0",dtype:float32,shape:[384, 448, 3, 3]}
    attrs {'compiler': 'tensorrt'}
  }
}
layer {
  name:"Node_3860"
  type:"nn_conv2d"
  top:"Node_3860"
  bottom:"Node_3856"
  bottom:"Node_3859"
  layer_param {
    idx:3860
    in_0 {name:"Node_3856:0",dtype:float32,shape:[1, 448, 8, 8]}
    in_1 {name:"Node_3859:0",dtype:float32,shape:[384, 448, 3, 3]}
    out_0 {name:"Node_3860:0",dtype:float32,shape:[1, 384, 8, 8]}
    attrs {'strides': [1, 1], 'padding': [1, 1, 1, 1], 'dilation': [1, 1], 'groups': 1, 'channels': 384, 'kernel_size': [3, 3], 'data_layout': 'NCHW', 'kernel_layout': 'OIHW', 'out_layout': '', 'out_dtype': ''}
  }
}
layer {
  name:"Node_3861"
  type:"annotation_compiler_end"
  top:"Node_3861"
  bottom:"Node_3860"
  layer_param {
    idx:3861
    in_0 {name:"Node_3860:0",dtype:float32,shape:[1, 384, 8, 8]}
    out_0 {name:"Node_3861:0",dtype:float32,shape:[1, 384, 8, 8]}
    attrs {'compiler': 'tensorrt'}
  }
}
layer {
  name:"Node_3862"
  type:"annotation_compiler_begin"
  top:"Node_3862"
  bottom:"Node_3861"
  layer_param {
    idx:3862
    in_0 {name:"Node_3861:0",dtype:float32,shape:[1, 384, 8, 8]}
    out_0 {name:"Node_3862:0",dtype:float32,shape:[1, 384, 8, 8]}
    attrs {'compiler': 'tensorrt'}
  }
}
layer {
  name:"Node_3864"
  type:"const"
  top:"Node_3864"
  layer_param {
    idx:3864
    out_0 {name:"Node_3864:0",dtype:float32,shape:[384]}
  }
}
layer {
  name:"Node_3865"
  type:"annotation_compiler_begin"
  top:"Node_3865"
  bottom:"Node_3864"
  layer_param {
    idx:3865
    in_0 {name:"Node_3864:0",dtype:float32,shape:[384]}
    out_0 {name:"Node_3865:0",dtype:float32,shape:[384]}
    attrs {'compiler': 'tensorrt'}
  }
}
layer {
  name:"Node_3867"
  type:"const"
  top:"Node_3867"
  layer_param {
    idx:3867
    out_0 {name:"Node_3867:0",dtype:float32,shape:[384]}
  }
}
layer {
  name:"Node_3868"
  type:"annotation_compiler_begin"
  top:"Node_3868"
  bottom:"Node_3867"
  layer_param {
    idx:3868
    in_0 {name:"Node_3867:0",dtype:float32,shape:[384]}
    out_0 {name:"Node_3868:0",dtype:float32,shape:[384]}
    attrs {'compiler': 'tensorrt'}
  }
}
layer {
  name:"Node_3870"
  type:"const"
  top:"Node_3870"
  layer_param {
    idx:3870
    out_0 {name:"Node_3870:0",dtype:float32,shape:[384]}
  }
}
layer {
  name:"Node_3871"
  type:"annotation_compiler_begin"
  top:"Node_3871"
  bottom:"Node_3870"
  layer_param {
    idx:3871
    in_0 {name:"Node_3870:0",dtype:float32,shape:[384]}
    out_0 {name:"Node_3871:0",dtype:float32,shape:[384]}
    attrs {'compiler': 'tensorrt'}
  }
}
layer {
  name:"Node_3873"
  type:"const"
  top:"Node_3873"
  layer_param {
    idx:3873
    out_0 {name:"Node_3873:0",dtype:float32,shape:[384]}
  }
}
layer {
  name:"Node_3874"
  type:"annotation_compiler_begin"
  top:"Node_3874"
  bottom:"Node_3873"
  layer_param {
    idx:3874
    in_0 {name:"Node_3873:0",dtype:float32,shape:[384]}
    out_0 {name:"Node_3874:0",dtype:float32,shape:[384]}
    attrs {'compiler': 'tensorrt'}
  }
}
layer {
  name:"Node_3875"
  type:"nn_batch_norm"
  top:"Node_3875"
  bottom:"Node_3862"
  bottom:"Node_3865"
  bottom:"Node_3868"
  bottom:"Node_3871"
  bottom:"Node_3874"
  layer_param {
    idx:3875
    in_0 {name:"Node_3862:0",dtype:float32,shape:[1, 384, 8, 8]}
    in_1 {name:"Node_3865:0",dtype:float32,shape:[384]}
    in_2 {name:"Node_3868:0",dtype:float32,shape:[384]}
    in_3 {name:"Node_3871:0",dtype:float32,shape:[384]}
    in_4 {name:"Node_3874:0",dtype:float32,shape:[384]}
    out_0 {name:"Node_3875:0",dtype:float32,shape:[1, 384, 8, 8]}
    out_1 {name:"Node_3875:1",dtype:float32,shape:[384]}
    out_2 {name:"Node_3875:2",dtype:float32,shape:[384]}
    attrs {'axis': 1, 'epsilon': 0.0010000000474974513, 'center': 1, 'scale': 0}
  }
}
layer {
  name:"Node_3876"
  type:"annotation_compiler_end"
  top:"Node_3876"
  bottom:"Node_3875"
  layer_param {
    idx:3876
    in_0 {name:"Node_3875:0",dtype:float32,shape:[1, 384, 8, 8]}
    out_0 {name:"Node_3876:0",dtype:float32,shape:[1, 384, 8, 8]}
    out_1 {name:"Node_3876:1",dtype:float32,shape:[384]}
    out_2 {name:"Node_3876:2",dtype:float32,shape:[384]}
    attrs {'compiler': 'tensorrt'}
  }
}
layer {
  name:"Node_3877"
  type:"annotation_compiler_begin"
  top:"Node_3877"
  bottom:"Node_3876"
  layer_param {
    idx:3877
    in_0 {name:"Node_3876:0",dtype:float32,shape:[1, 384, 8, 8]}
    out_0 {name:"Node_3877:0",dtype:float32,shape:[1, 384, 8, 8]}
    out_1 {name:"Node_3877:1",dtype:float32,shape:[384]}
    out_2 {name:"Node_3877:2",dtype:float32,shape:[384]}
    attrs {'compiler': 'tensorrt'}
  }
}
layer {
  name:"Node_3879"
  type:"annotation_compiler_end"
  top:"Node_3879"
  bottom:"Node_3877"
  layer_param {
    idx:3879
    in_0 {name:"Node_3877:0",dtype:float32,shape:[1, 384, 8, 8]}
    out_0 {name:"Node_3879:0",dtype:float32,shape:[1, 384, 8, 8]}
    attrs {'compiler': 'tensorrt'}
  }
}
layer {
  name:"Node_3880"
  type:"annotation_compiler_begin"
  top:"Node_3880"
  bottom:"Node_3879"
  layer_param {
    idx:3880
    in_0 {name:"Node_3879:0",dtype:float32,shape:[1, 384, 8, 8]}
    out_0 {name:"Node_3880:0",dtype:float32,shape:[1, 384, 8, 8]}
    attrs {'compiler': 'tensorrt'}
  }
}
layer {
  name:"Node_3881"
  type:"nn_relu"
  top:"Node_3881"
  bottom:"Node_3880"
  layer_param {
    idx:3881
    in_0 {name:"Node_3880:0",dtype:float32,shape:[1, 384, 8, 8]}
    out_0 {name:"Node_3881:0",dtype:float32,shape:[1, 384, 8, 8]}
  }
}
layer {
  name:"Node_3882"
  type:"annotation_compiler_end"
  top:"Node_3882"
  bottom:"Node_3881"
  layer_param {
    idx:3882
    in_0 {name:"Node_3881:0",dtype:float32,shape:[1, 384, 8, 8]}
    out_0 {name:"Node_3882:0",dtype:float32,shape:[1, 384, 8, 8]}
    attrs {'compiler': 'tensorrt'}
  }
}
layer {
  name:"Node_3883"
  type:"annotation_compiler_begin"
  top:"Node_3883"
  bottom:"Node_3882"
  layer_param {
    idx:3883
    in_0 {name:"Node_3882:0",dtype:float32,shape:[1, 384, 8, 8]}
    out_0 {name:"Node_3883:0",dtype:float32,shape:[1, 384, 8, 8]}
    attrs {'compiler': 'tensorrt'}
  }
}
layer {
  name:"Node_3885"
  type:"const"
  top:"Node_3885"
  layer_param {
    idx:3885
    out_0 {name:"Node_3885:0",dtype:float32,shape:[384, 384, 1, 3]}
  }
}
layer {
  name:"Node_3886"
  type:"annotation_compiler_begin"
  top:"Node_3886"
  bottom:"Node_3885"
  layer_param {
    idx:3886
    in_0 {name:"Node_3885:0",dtype:float32,shape:[384, 384, 1, 3]}
    out_0 {name:"Node_3886:0",dtype:float32,shape:[384, 384, 1, 3]}
    attrs {'compiler': 'tensorrt'}
  }
}
layer {
  name:"Node_3887"
  type:"nn_conv2d"
  top:"Node_3887"
  bottom:"Node_3883"
  bottom:"Node_3886"
  layer_param {
    idx:3887
    in_0 {name:"Node_3883:0",dtype:float32,shape:[1, 384, 8, 8]}
    in_1 {name:"Node_3886:0",dtype:float32,shape:[384, 384, 1, 3]}
    out_0 {name:"Node_3887:0",dtype:float32,shape:[1, 384, 8, 8]}
    attrs {'strides': [1, 1], 'padding': [0, 1, 0, 1], 'dilation': [1, 1], 'groups': 1, 'channels': 384, 'kernel_size': [1, 3], 'data_layout': 'NCHW', 'kernel_layout': 'OIHW', 'out_layout': '', 'out_dtype': ''}
  }
}
layer {
  name:"Node_3888"
  type:"annotation_compiler_end"
  top:"Node_3888"
  bottom:"Node_3887"
  layer_param {
    idx:3888
    in_0 {name:"Node_3887:0",dtype:float32,shape:[1, 384, 8, 8]}
    out_0 {name:"Node_3888:0",dtype:float32,shape:[1, 384, 8, 8]}
    attrs {'compiler': 'tensorrt'}
  }
}
layer {
  name:"Node_3889"
  type:"annotation_compiler_begin"
  top:"Node_3889"
  bottom:"Node_3888"
  layer_param {
    idx:3889
    in_0 {name:"Node_3888:0",dtype:float32,shape:[1, 384, 8, 8]}
    out_0 {name:"Node_3889:0",dtype:float32,shape:[1, 384, 8, 8]}
    attrs {'compiler': 'tensorrt'}
  }
}
layer {
  name:"Node_3891"
  type:"const"
  top:"Node_3891"
  layer_param {
    idx:3891
    out_0 {name:"Node_3891:0",dtype:float32,shape:[384]}
  }
}
layer {
  name:"Node_3892"
  type:"annotation_compiler_begin"
  top:"Node_3892"
  bottom:"Node_3891"
  layer_param {
    idx:3892
    in_0 {name:"Node_3891:0",dtype:float32,shape:[384]}
    out_0 {name:"Node_3892:0",dtype:float32,shape:[384]}
    attrs {'compiler': 'tensorrt'}
  }
}
layer {
  name:"Node_3894"
  type:"const"
  top:"Node_3894"
  layer_param {
    idx:3894
    out_0 {name:"Node_3894:0",dtype:float32,shape:[384]}
  }
}
layer {
  name:"Node_3895"
  type:"annotation_compiler_begin"
  top:"Node_3895"
  bottom:"Node_3894"
  layer_param {
    idx:3895
    in_0 {name:"Node_3894:0",dtype:float32,shape:[384]}
    out_0 {name:"Node_3895:0",dtype:float32,shape:[384]}
    attrs {'compiler': 'tensorrt'}
  }
}
layer {
  name:"Node_3897"
  type:"const"
  top:"Node_3897"
  layer_param {
    idx:3897
    out_0 {name:"Node_3897:0",dtype:float32,shape:[384]}
  }
}
layer {
  name:"Node_3898"
  type:"annotation_compiler_begin"
  top:"Node_3898"
  bottom:"Node_3897"
  layer_param {
    idx:3898
    in_0 {name:"Node_3897:0",dtype:float32,shape:[384]}
    out_0 {name:"Node_3898:0",dtype:float32,shape:[384]}
    attrs {'compiler': 'tensorrt'}
  }
}
layer {
  name:"Node_3900"
  type:"const"
  top:"Node_3900"
  layer_param {
    idx:3900
    out_0 {name:"Node_3900:0",dtype:float32,shape:[384]}
  }
}
layer {
  name:"Node_3901"
  type:"annotation_compiler_begin"
  top:"Node_3901"
  bottom:"Node_3900"
  layer_param {
    idx:3901
    in_0 {name:"Node_3900:0",dtype:float32,shape:[384]}
    out_0 {name:"Node_3901:0",dtype:float32,shape:[384]}
    attrs {'compiler': 'tensorrt'}
  }
}
layer {
  name:"Node_3902"
  type:"nn_batch_norm"
  top:"Node_3902"
  bottom:"Node_3889"
  bottom:"Node_3892"
  bottom:"Node_3895"
  bottom:"Node_3898"
  bottom:"Node_3901"
  layer_param {
    idx:3902
    in_0 {name:"Node_3889:0",dtype:float32,shape:[1, 384, 8, 8]}
    in_1 {name:"Node_3892:0",dtype:float32,shape:[384]}
    in_2 {name:"Node_3895:0",dtype:float32,shape:[384]}
    in_3 {name:"Node_3898:0",dtype:float32,shape:[384]}
    in_4 {name:"Node_3901:0",dtype:float32,shape:[384]}
    out_0 {name:"Node_3902:0",dtype:float32,shape:[1, 384, 8, 8]}
    out_1 {name:"Node_3902:1",dtype:float32,shape:[384]}
    out_2 {name:"Node_3902:2",dtype:float32,shape:[384]}
    attrs {'axis': 1, 'epsilon': 0.0010000000474974513, 'center': 1, 'scale': 0}
  }
}
layer {
  name:"Node_3903"
  type:"annotation_compiler_end"
  top:"Node_3903"
  bottom:"Node_3902"
  layer_param {
    idx:3903
    in_0 {name:"Node_3902:0",dtype:float32,shape:[1, 384, 8, 8]}
    out_0 {name:"Node_3903:0",dtype:float32,shape:[1, 384, 8, 8]}
    out_1 {name:"Node_3903:1",dtype:float32,shape:[384]}
    out_2 {name:"Node_3903:2",dtype:float32,shape:[384]}
    attrs {'compiler': 'tensorrt'}
  }
}
layer {
  name:"Node_3904"
  type:"annotation_compiler_begin"
  top:"Node_3904"
  bottom:"Node_3903"
  layer_param {
    idx:3904
    in_0 {name:"Node_3903:0",dtype:float32,shape:[1, 384, 8, 8]}
    out_0 {name:"Node_3904:0",dtype:float32,shape:[1, 384, 8, 8]}
    out_1 {name:"Node_3904:1",dtype:float32,shape:[384]}
    out_2 {name:"Node_3904:2",dtype:float32,shape:[384]}
    attrs {'compiler': 'tensorrt'}
  }
}
layer {
  name:"Node_3906"
  type:"annotation_compiler_end"
  top:"Node_3906"
  bottom:"Node_3904"
  layer_param {
    idx:3906
    in_0 {name:"Node_3904:0",dtype:float32,shape:[1, 384, 8, 8]}
    out_0 {name:"Node_3906:0",dtype:float32,shape:[1, 384, 8, 8]}
    attrs {'compiler': 'tensorrt'}
  }
}
layer {
  name:"Node_3907"
  type:"annotation_compiler_begin"
  top:"Node_3907"
  bottom:"Node_3906"
  layer_param {
    idx:3907
    in_0 {name:"Node_3906:0",dtype:float32,shape:[1, 384, 8, 8]}
    out_0 {name:"Node_3907:0",dtype:float32,shape:[1, 384, 8, 8]}
    attrs {'compiler': 'tensorrt'}
  }
}
layer {
  name:"Node_3908"
  type:"nn_relu"
  top:"Node_3908"
  bottom:"Node_3907"
  layer_param {
    idx:3908
    in_0 {name:"Node_3907:0",dtype:float32,shape:[1, 384, 8, 8]}
    out_0 {name:"Node_3908:0",dtype:float32,shape:[1, 384, 8, 8]}
  }
}
layer {
  name:"Node_3909"
  type:"annotation_compiler_end"
  top:"Node_3909"
  bottom:"Node_3908"
  layer_param {
    idx:3909
    in_0 {name:"Node_3908:0",dtype:float32,shape:[1, 384, 8, 8]}
    out_0 {name:"Node_3909:0",dtype:float32,shape:[1, 384, 8, 8]}
    attrs {'compiler': 'tensorrt'}
  }
}
layer {
  name:"Node_3910"
  type:"annotation_compiler_begin"
  top:"Node_3910"
  bottom:"Node_3909"
  layer_param {
    idx:3910
    in_0 {name:"Node_3909:0",dtype:float32,shape:[1, 384, 8, 8]}
    out_0 {name:"Node_3910:0",dtype:float32,shape:[1, 384, 8, 8]}
    attrs {'compiler': 'tensorrt'}
  }
}
layer {
  name:"Node_3925"
  type:"annotation_compiler_end"
  top:"Node_3925"
  bottom:"Node_3881"
  layer_param {
    idx:3925
    in_0 {name:"Node_3881:0",dtype:float32,shape:[1, 384, 8, 8]}
    out_0 {name:"Node_3925:0",dtype:float32,shape:[1, 384, 8, 8]}
    attrs {'compiler': 'tensorrt'}
  }
}
layer {
  name:"Node_3926"
  type:"annotation_compiler_begin"
  top:"Node_3926"
  bottom:"Node_3925"
  layer_param {
    idx:3926
    in_0 {name:"Node_3925:0",dtype:float32,shape:[1, 384, 8, 8]}
    out_0 {name:"Node_3926:0",dtype:float32,shape:[1, 384, 8, 8]}
    attrs {'compiler': 'tensorrt'}
  }
}
layer {
  name:"Node_3928"
  type:"const"
  top:"Node_3928"
  layer_param {
    idx:3928
    out_0 {name:"Node_3928:0",dtype:float32,shape:[384, 384, 3, 1]}
  }
}
layer {
  name:"Node_3929"
  type:"annotation_compiler_begin"
  top:"Node_3929"
  bottom:"Node_3928"
  layer_param {
    idx:3929
    in_0 {name:"Node_3928:0",dtype:float32,shape:[384, 384, 3, 1]}
    out_0 {name:"Node_3929:0",dtype:float32,shape:[384, 384, 3, 1]}
    attrs {'compiler': 'tensorrt'}
  }
}
layer {
  name:"Node_3930"
  type:"nn_conv2d"
  top:"Node_3930"
  bottom:"Node_3926"
  bottom:"Node_3929"
  layer_param {
    idx:3930
    in_0 {name:"Node_3926:0",dtype:float32,shape:[1, 384, 8, 8]}
    in_1 {name:"Node_3929:0",dtype:float32,shape:[384, 384, 3, 1]}
    out_0 {name:"Node_3930:0",dtype:float32,shape:[1, 384, 8, 8]}
    attrs {'strides': [1, 1], 'padding': [1, 0, 1, 0], 'dilation': [1, 1], 'groups': 1, 'channels': 384, 'kernel_size': [3, 1], 'data_layout': 'NCHW', 'kernel_layout': 'OIHW', 'out_layout': '', 'out_dtype': ''}
  }
}
layer {
  name:"Node_3931"
  type:"annotation_compiler_end"
  top:"Node_3931"
  bottom:"Node_3930"
  layer_param {
    idx:3931
    in_0 {name:"Node_3930:0",dtype:float32,shape:[1, 384, 8, 8]}
    out_0 {name:"Node_3931:0",dtype:float32,shape:[1, 384, 8, 8]}
    attrs {'compiler': 'tensorrt'}
  }
}
layer {
  name:"Node_3932"
  type:"annotation_compiler_begin"
  top:"Node_3932"
  bottom:"Node_3931"
  layer_param {
    idx:3932
    in_0 {name:"Node_3931:0",dtype:float32,shape:[1, 384, 8, 8]}
    out_0 {name:"Node_3932:0",dtype:float32,shape:[1, 384, 8, 8]}
    attrs {'compiler': 'tensorrt'}
  }
}
layer {
  name:"Node_3934"
  type:"const"
  top:"Node_3934"
  layer_param {
    idx:3934
    out_0 {name:"Node_3934:0",dtype:float32,shape:[384]}
  }
}
layer {
  name:"Node_3935"
  type:"annotation_compiler_begin"
  top:"Node_3935"
  bottom:"Node_3934"
  layer_param {
    idx:3935
    in_0 {name:"Node_3934:0",dtype:float32,shape:[384]}
    out_0 {name:"Node_3935:0",dtype:float32,shape:[384]}
    attrs {'compiler': 'tensorrt'}
  }
}
layer {
  name:"Node_3937"
  type:"const"
  top:"Node_3937"
  layer_param {
    idx:3937
    out_0 {name:"Node_3937:0",dtype:float32,shape:[384]}
  }
}
layer {
  name:"Node_3938"
  type:"annotation_compiler_begin"
  top:"Node_3938"
  bottom:"Node_3937"
  layer_param {
    idx:3938
    in_0 {name:"Node_3937:0",dtype:float32,shape:[384]}
    out_0 {name:"Node_3938:0",dtype:float32,shape:[384]}
    attrs {'compiler': 'tensorrt'}
  }
}
layer {
  name:"Node_3940"
  type:"const"
  top:"Node_3940"
  layer_param {
    idx:3940
    out_0 {name:"Node_3940:0",dtype:float32,shape:[384]}
  }
}
layer {
  name:"Node_3941"
  type:"annotation_compiler_begin"
  top:"Node_3941"
  bottom:"Node_3940"
  layer_param {
    idx:3941
    in_0 {name:"Node_3940:0",dtype:float32,shape:[384]}
    out_0 {name:"Node_3941:0",dtype:float32,shape:[384]}
    attrs {'compiler': 'tensorrt'}
  }
}
layer {
  name:"Node_3943"
  type:"const"
  top:"Node_3943"
  layer_param {
    idx:3943
    out_0 {name:"Node_3943:0",dtype:float32,shape:[384]}
  }
}
layer {
  name:"Node_3944"
  type:"annotation_compiler_begin"
  top:"Node_3944"
  bottom:"Node_3943"
  layer_param {
    idx:3944
    in_0 {name:"Node_3943:0",dtype:float32,shape:[384]}
    out_0 {name:"Node_3944:0",dtype:float32,shape:[384]}
    attrs {'compiler': 'tensorrt'}
  }
}
layer {
  name:"Node_3945"
  type:"nn_batch_norm"
  top:"Node_3945"
  bottom:"Node_3932"
  bottom:"Node_3935"
  bottom:"Node_3938"
  bottom:"Node_3941"
  bottom:"Node_3944"
  layer_param {
    idx:3945
    in_0 {name:"Node_3932:0",dtype:float32,shape:[1, 384, 8, 8]}
    in_1 {name:"Node_3935:0",dtype:float32,shape:[384]}
    in_2 {name:"Node_3938:0",dtype:float32,shape:[384]}
    in_3 {name:"Node_3941:0",dtype:float32,shape:[384]}
    in_4 {name:"Node_3944:0",dtype:float32,shape:[384]}
    out_0 {name:"Node_3945:0",dtype:float32,shape:[1, 384, 8, 8]}
    out_1 {name:"Node_3945:1",dtype:float32,shape:[384]}
    out_2 {name:"Node_3945:2",dtype:float32,shape:[384]}
    attrs {'axis': 1, 'epsilon': 0.0010000000474974513, 'center': 1, 'scale': 0}
  }
}
layer {
  name:"Node_3946"
  type:"annotation_compiler_end"
  top:"Node_3946"
  bottom:"Node_3945"
  layer_param {
    idx:3946
    in_0 {name:"Node_3945:0",dtype:float32,shape:[1, 384, 8, 8]}
    out_0 {name:"Node_3946:0",dtype:float32,shape:[1, 384, 8, 8]}
    out_1 {name:"Node_3946:1",dtype:float32,shape:[384]}
    out_2 {name:"Node_3946:2",dtype:float32,shape:[384]}
    attrs {'compiler': 'tensorrt'}
  }
}
layer {
  name:"Node_3947"
  type:"annotation_compiler_begin"
  top:"Node_3947"
  bottom:"Node_3946"
  layer_param {
    idx:3947
    in_0 {name:"Node_3946:0",dtype:float32,shape:[1, 384, 8, 8]}
    out_0 {name:"Node_3947:0",dtype:float32,shape:[1, 384, 8, 8]}
    out_1 {name:"Node_3947:1",dtype:float32,shape:[384]}
    out_2 {name:"Node_3947:2",dtype:float32,shape:[384]}
    attrs {'compiler': 'tensorrt'}
  }
}
layer {
  name:"Node_3949"
  type:"annotation_compiler_end"
  top:"Node_3949"
  bottom:"Node_3947"
  layer_param {
    idx:3949
    in_0 {name:"Node_3947:0",dtype:float32,shape:[1, 384, 8, 8]}
    out_0 {name:"Node_3949:0",dtype:float32,shape:[1, 384, 8, 8]}
    attrs {'compiler': 'tensorrt'}
  }
}
layer {
  name:"Node_3950"
  type:"annotation_compiler_begin"
  top:"Node_3950"
  bottom:"Node_3949"
  layer_param {
    idx:3950
    in_0 {name:"Node_3949:0",dtype:float32,shape:[1, 384, 8, 8]}
    out_0 {name:"Node_3950:0",dtype:float32,shape:[1, 384, 8, 8]}
    attrs {'compiler': 'tensorrt'}
  }
}
layer {
  name:"Node_3951"
  type:"nn_relu"
  top:"Node_3951"
  bottom:"Node_3950"
  layer_param {
    idx:3951
    in_0 {name:"Node_3950:0",dtype:float32,shape:[1, 384, 8, 8]}
    out_0 {name:"Node_3951:0",dtype:float32,shape:[1, 384, 8, 8]}
  }
}
layer {
  name:"Node_3952"
  type:"annotation_compiler_end"
  top:"Node_3952"
  bottom:"Node_3951"
  layer_param {
    idx:3952
    in_0 {name:"Node_3951:0",dtype:float32,shape:[1, 384, 8, 8]}
    out_0 {name:"Node_3952:0",dtype:float32,shape:[1, 384, 8, 8]}
    attrs {'compiler': 'tensorrt'}
  }
}
layer {
  name:"Node_3953"
  type:"annotation_compiler_begin"
  top:"Node_3953"
  bottom:"Node_3952"
  layer_param {
    idx:3953
    in_0 {name:"Node_3952:0",dtype:float32,shape:[1, 384, 8, 8]}
    out_0 {name:"Node_3953:0",dtype:float32,shape:[1, 384, 8, 8]}
    attrs {'compiler': 'tensorrt'}
  }
}
layer {
  name:"Node_3971"
  type:"annotation_compiler_end"
  top:"Node_3971"
  bottom:"Node_3638"
  layer_param {
    idx:3971
    in_0 {name:"Node_3638:0",dtype:float32,shape:[1, 2048, 8, 8]}
    out_0 {name:"Node_3971:0",dtype:float32,shape:[1, 2048, 8, 8]}
    attrs {'compiler': 'tensorrt'}
  }
}
layer {
  name:"Node_3972"
  type:"annotation_compiler_begin"
  top:"Node_3972"
  bottom:"Node_3971"
  layer_param {
    idx:3972
    in_0 {name:"Node_3971:0",dtype:float32,shape:[1, 2048, 8, 8]}
    out_0 {name:"Node_3972:0",dtype:float32,shape:[1, 2048, 8, 8]}
    attrs {'compiler': 'tensorrt'}
  }
}
layer {
  name:"Node_3973"
  type:"nn_max_pool2d"
  top:"Node_3973"
  bottom:"Node_3972"
  layer_param {
    idx:3973
    in_0 {name:"Node_3972:0",dtype:float32,shape:[1, 2048, 8, 8]}
    out_0 {name:"Node_3973:0",dtype:float32,shape:[1, 2048, 8, 8]}
    attrs {'pool_size': [3, 3], 'strides': [1, 1], 'dilation': [1, 1], 'padding': [1, 1, 1, 1], 'layout': 'NCHW', 'ceil_mode': 0}
  }
}
layer {
  name:"Node_3974"
  type:"annotation_compiler_end"
  top:"Node_3974"
  bottom:"Node_3973"
  layer_param {
    idx:3974
    in_0 {name:"Node_3973:0",dtype:float32,shape:[1, 2048, 8, 8]}
    out_0 {name:"Node_3974:0",dtype:float32,shape:[1, 2048, 8, 8]}
    attrs {'compiler': 'tensorrt'}
  }
}
layer {
  name:"Node_3975"
  type:"annotation_compiler_begin"
  top:"Node_3975"
  bottom:"Node_3974"
  layer_param {
    idx:3975
    in_0 {name:"Node_3974:0",dtype:float32,shape:[1, 2048, 8, 8]}
    out_0 {name:"Node_3975:0",dtype:float32,shape:[1, 2048, 8, 8]}
    attrs {'compiler': 'tensorrt'}
  }
}
layer {
  name:"Node_3977"
  type:"const"
  top:"Node_3977"
  layer_param {
    idx:3977
    out_0 {name:"Node_3977:0",dtype:float32,shape:[192, 2048, 1, 1]}
  }
}
layer {
  name:"Node_3978"
  type:"annotation_compiler_begin"
  top:"Node_3978"
  bottom:"Node_3977"
  layer_param {
    idx:3978
    in_0 {name:"Node_3977:0",dtype:float32,shape:[192, 2048, 1, 1]}
    out_0 {name:"Node_3978:0",dtype:float32,shape:[192, 2048, 1, 1]}
    attrs {'compiler': 'tensorrt'}
  }
}
layer {
  name:"Node_3979"
  type:"nn_conv2d"
  top:"Node_3979"
  bottom:"Node_3975"
  bottom:"Node_3978"
  layer_param {
    idx:3979
    in_0 {name:"Node_3975:0",dtype:float32,shape:[1, 2048, 8, 8]}
    in_1 {name:"Node_3978:0",dtype:float32,shape:[192, 2048, 1, 1]}
    out_0 {name:"Node_3979:0",dtype:float32,shape:[1, 192, 8, 8]}
    attrs {'strides': [1, 1], 'padding': [0, 0, 0, 0], 'dilation': [1, 1], 'groups': 1, 'channels': 192, 'kernel_size': [1, 1], 'data_layout': 'NCHW', 'kernel_layout': 'OIHW', 'out_layout': '', 'out_dtype': ''}
  }
}
layer {
  name:"Node_3980"
  type:"annotation_compiler_end"
  top:"Node_3980"
  bottom:"Node_3979"
  layer_param {
    idx:3980
    in_0 {name:"Node_3979:0",dtype:float32,shape:[1, 192, 8, 8]}
    out_0 {name:"Node_3980:0",dtype:float32,shape:[1, 192, 8, 8]}
    attrs {'compiler': 'tensorrt'}
  }
}
layer {
  name:"Node_3981"
  type:"annotation_compiler_begin"
  top:"Node_3981"
  bottom:"Node_3980"
  layer_param {
    idx:3981
    in_0 {name:"Node_3980:0",dtype:float32,shape:[1, 192, 8, 8]}
    out_0 {name:"Node_3981:0",dtype:float32,shape:[1, 192, 8, 8]}
    attrs {'compiler': 'tensorrt'}
  }
}
layer {
  name:"Node_3983"
  type:"const"
  top:"Node_3983"
  layer_param {
    idx:3983
    out_0 {name:"Node_3983:0",dtype:float32,shape:[192]}
  }
}
layer {
  name:"Node_3984"
  type:"annotation_compiler_begin"
  top:"Node_3984"
  bottom:"Node_3983"
  layer_param {
    idx:3984
    in_0 {name:"Node_3983:0",dtype:float32,shape:[192]}
    out_0 {name:"Node_3984:0",dtype:float32,shape:[192]}
    attrs {'compiler': 'tensorrt'}
  }
}
layer {
  name:"Node_3986"
  type:"const"
  top:"Node_3986"
  layer_param {
    idx:3986
    out_0 {name:"Node_3986:0",dtype:float32,shape:[192]}
  }
}
layer {
  name:"Node_3987"
  type:"annotation_compiler_begin"
  top:"Node_3987"
  bottom:"Node_3986"
  layer_param {
    idx:3987
    in_0 {name:"Node_3986:0",dtype:float32,shape:[192]}
    out_0 {name:"Node_3987:0",dtype:float32,shape:[192]}
    attrs {'compiler': 'tensorrt'}
  }
}
layer {
  name:"Node_3989"
  type:"const"
  top:"Node_3989"
  layer_param {
    idx:3989
    out_0 {name:"Node_3989:0",dtype:float32,shape:[192]}
  }
}
layer {
  name:"Node_3990"
  type:"annotation_compiler_begin"
  top:"Node_3990"
  bottom:"Node_3989"
  layer_param {
    idx:3990
    in_0 {name:"Node_3989:0",dtype:float32,shape:[192]}
    out_0 {name:"Node_3990:0",dtype:float32,shape:[192]}
    attrs {'compiler': 'tensorrt'}
  }
}
layer {
  name:"Node_3992"
  type:"const"
  top:"Node_3992"
  layer_param {
    idx:3992
    out_0 {name:"Node_3992:0",dtype:float32,shape:[192]}
  }
}
layer {
  name:"Node_3993"
  type:"annotation_compiler_begin"
  top:"Node_3993"
  bottom:"Node_3992"
  layer_param {
    idx:3993
    in_0 {name:"Node_3992:0",dtype:float32,shape:[192]}
    out_0 {name:"Node_3993:0",dtype:float32,shape:[192]}
    attrs {'compiler': 'tensorrt'}
  }
}
layer {
  name:"Node_3994"
  type:"nn_batch_norm"
  top:"Node_3994"
  bottom:"Node_3981"
  bottom:"Node_3984"
  bottom:"Node_3987"
  bottom:"Node_3990"
  bottom:"Node_3993"
  layer_param {
    idx:3994
    in_0 {name:"Node_3981:0",dtype:float32,shape:[1, 192, 8, 8]}
    in_1 {name:"Node_3984:0",dtype:float32,shape:[192]}
    in_2 {name:"Node_3987:0",dtype:float32,shape:[192]}
    in_3 {name:"Node_3990:0",dtype:float32,shape:[192]}
    in_4 {name:"Node_3993:0",dtype:float32,shape:[192]}
    out_0 {name:"Node_3994:0",dtype:float32,shape:[1, 192, 8, 8]}
    out_1 {name:"Node_3994:1",dtype:float32,shape:[192]}
    out_2 {name:"Node_3994:2",dtype:float32,shape:[192]}
    attrs {'axis': 1, 'epsilon': 0.0010000000474974513, 'center': 1, 'scale': 0}
  }
}
layer {
  name:"Node_3995"
  type:"annotation_compiler_end"
  top:"Node_3995"
  bottom:"Node_3994"
  layer_param {
    idx:3995
    in_0 {name:"Node_3994:0",dtype:float32,shape:[1, 192, 8, 8]}
    out_0 {name:"Node_3995:0",dtype:float32,shape:[1, 192, 8, 8]}
    out_1 {name:"Node_3995:1",dtype:float32,shape:[192]}
    out_2 {name:"Node_3995:2",dtype:float32,shape:[192]}
    attrs {'compiler': 'tensorrt'}
  }
}
layer {
  name:"Node_3996"
  type:"annotation_compiler_begin"
  top:"Node_3996"
  bottom:"Node_3995"
  layer_param {
    idx:3996
    in_0 {name:"Node_3995:0",dtype:float32,shape:[1, 192, 8, 8]}
    out_0 {name:"Node_3996:0",dtype:float32,shape:[1, 192, 8, 8]}
    out_1 {name:"Node_3996:1",dtype:float32,shape:[192]}
    out_2 {name:"Node_3996:2",dtype:float32,shape:[192]}
    attrs {'compiler': 'tensorrt'}
  }
}
layer {
  name:"Node_3998"
  type:"annotation_compiler_end"
  top:"Node_3998"
  bottom:"Node_3996"
  layer_param {
    idx:3998
    in_0 {name:"Node_3996:0",dtype:float32,shape:[1, 192, 8, 8]}
    out_0 {name:"Node_3998:0",dtype:float32,shape:[1, 192, 8, 8]}
    attrs {'compiler': 'tensorrt'}
  }
}
layer {
  name:"Node_3999"
  type:"annotation_compiler_begin"
  top:"Node_3999"
  bottom:"Node_3998"
  layer_param {
    idx:3999
    in_0 {name:"Node_3998:0",dtype:float32,shape:[1, 192, 8, 8]}
    out_0 {name:"Node_3999:0",dtype:float32,shape:[1, 192, 8, 8]}
    attrs {'compiler': 'tensorrt'}
  }
}
layer {
  name:"Node_4000"
  type:"nn_relu"
  top:"Node_4000"
  bottom:"Node_3999"
  layer_param {
    idx:4000
    in_0 {name:"Node_3999:0",dtype:float32,shape:[1, 192, 8, 8]}
    out_0 {name:"Node_4000:0",dtype:float32,shape:[1, 192, 8, 8]}
  }
}
layer {
  name:"Node_4001"
  type:"annotation_compiler_end"
  top:"Node_4001"
  bottom:"Node_4000"
  layer_param {
    idx:4001
    in_0 {name:"Node_4000:0",dtype:float32,shape:[1, 192, 8, 8]}
    out_0 {name:"Node_4001:0",dtype:float32,shape:[1, 192, 8, 8]}
    attrs {'compiler': 'tensorrt'}
  }
}
layer {
  name:"Node_4002"
  type:"annotation_compiler_begin"
  top:"Node_4002"
  bottom:"Node_4001"
  layer_param {
    idx:4002
    in_0 {name:"Node_4001:0",dtype:float32,shape:[1, 192, 8, 8]}
    out_0 {name:"Node_4002:0",dtype:float32,shape:[1, 192, 8, 8]}
    attrs {'compiler': 'tensorrt'}
  }
}
layer {
  name:"Node_4004"
  type:"annotation_compiler_end"
  top:"Node_4004"
  bottom:"Node_3667"
  bottom:"Node_3748"
  bottom:"Node_3791"
  bottom:"Node_3910"
  bottom:"Node_3953"
  bottom:"Node_4002"
  layer_param {
    idx:4004
    in_0 {name:"Node_3667:0",dtype:float32,shape:[1, 320, 8, 8]}
    in_1 {name:"Node_3748:0",dtype:float32,shape:[1, 384, 8, 8]}
    in_2 {name:"Node_3791:0",dtype:float32,shape:[1, 384, 8, 8]}
    in_3 {name:"Node_3910:0",dtype:float32,shape:[1, 384, 8, 8]}
    in_4 {name:"Node_3953:0",dtype:float32,shape:[1, 384, 8, 8]}
    in_5 {name:"Node_4002:0",dtype:float32,shape:[1, 192, 8, 8]}
    out_0 {name:"Node_4004:0",dtype:float32,shape:[1, 320, 8, 8]}
    out_1 {name:"Node_4004:1",dtype:float32,shape:[1, 384, 8, 8]}
    out_2 {name:"Node_4004:2",dtype:float32,shape:[1, 384, 8, 8]}
    out_3 {name:"Node_4004:3",dtype:float32,shape:[1, 384, 8, 8]}
    out_4 {name:"Node_4004:4",dtype:float32,shape:[1, 384, 8, 8]}
    out_5 {name:"Node_4004:5",dtype:float32,shape:[1, 192, 8, 8]}
    attrs {'compiler': 'tensorrt'}
  }
}
layer {
  name:"Node_4005"
  type:"annotation_compiler_begin"
  top:"Node_4005"
  bottom:"Node_4004"
  layer_param {
    idx:4005
    in_0 {name:"Node_4004:0",dtype:float32,shape:[1, 320, 8, 8]}
    out_0 {name:"Node_4005:0",dtype:float32,shape:[1, 320, 8, 8]}
    out_1 {name:"Node_4005:1",dtype:float32,shape:[1, 384, 8, 8]}
    out_2 {name:"Node_4005:2",dtype:float32,shape:[1, 384, 8, 8]}
    out_3 {name:"Node_4005:3",dtype:float32,shape:[1, 384, 8, 8]}
    out_4 {name:"Node_4005:4",dtype:float32,shape:[1, 384, 8, 8]}
    out_5 {name:"Node_4005:5",dtype:float32,shape:[1, 192, 8, 8]}
    attrs {'compiler': 'tensorrt'}
  }
}
layer {
  name:"Node_4006"
  type:"concatenate"
  top:"Node_4006"
  bottom:"Node_4005"
  layer_param {
    idx:4006
    in_0 {name:"Node_4005:0",dtype:float32,shape:[1, 320, 8, 8]}
    out_0 {name:"Node_4006:0",dtype:float32,shape:[1, 2048, 8, 8]}
    attrs {'axis': 1}
  }
}
layer {
  name:"Node_4007"
  type:"annotation_compiler_end"
  top:"Node_4007"
  bottom:"Node_4006"
  layer_param {
    idx:4007
    in_0 {name:"Node_4006:0",dtype:float32,shape:[1, 2048, 8, 8]}
    out_0 {name:"Node_4007:0",dtype:float32,shape:[1, 2048, 8, 8]}
    attrs {'compiler': 'tensorrt'}
  }
}
layer {
  name:"Node_4008"
  type:"annotation_compiler_begin"
  top:"Node_4008"
  bottom:"Node_4007"
  layer_param {
    idx:4008
    in_0 {name:"Node_4007:0",dtype:float32,shape:[1, 2048, 8, 8]}
    out_0 {name:"Node_4008:0",dtype:float32,shape:[1, 2048, 8, 8]}
    attrs {'compiler': 'tensorrt'}
  }
}
layer {
  name:"Node_4009"
  type:"nn_avg_pool2d"
  top:"Node_4009"
  bottom:"Node_4008"
  layer_param {
    idx:4009
    in_0 {name:"Node_4008:0",dtype:float32,shape:[1, 2048, 8, 8]}
    out_0 {name:"Node_4009:0",dtype:float32,shape:[1, 2048, 1, 1]}
    attrs {'pool_size': [8, 8], 'strides': [1, 1], 'dilation': [1, 1], 'padding': [0, 0, 0, 0], 'layout': 'NCHW', 'ceil_mode': 0, 'count_include_pad': 0}
  }
}
layer {
  name:"Node_4010"
  type:"annotation_compiler_end"
  top:"Node_4010"
  bottom:"Node_4009"
  layer_param {
    idx:4010
    in_0 {name:"Node_4009:0",dtype:float32,shape:[1, 2048, 1, 1]}
    out_0 {name:"Node_4010:0",dtype:float32,shape:[1, 2048, 1, 1]}
    attrs {'compiler': 'tensorrt'}
  }
}
layer {
  name:"Node_4011"
  type:"annotation_compiler_begin"
  top:"Node_4011"
  bottom:"Node_4010"
  layer_param {
    idx:4011
    in_0 {name:"Node_4010:0",dtype:float32,shape:[1, 2048, 1, 1]}
    out_0 {name:"Node_4011:0",dtype:float32,shape:[1, 2048, 1, 1]}
    attrs {'compiler': 'tensorrt'}
  }
}
layer {
  name:"Node_4012"
  type:"layout_transform"
  top:"Node_4012"
  bottom:"Node_4011"
  layer_param {
    idx:4012
    in_0 {name:"Node_4011:0",dtype:float32,shape:[1, 2048, 1, 1]}
    out_0 {name:"Node_4012:0",dtype:float32,shape:[1, 1, 1, 2048]}
    attrs {'src_layout': 'NCHW', 'dst_layout': 'NHWC'}
  }
}
layer {
  name:"Node_4013"
  type:"annotation_compiler_end"
  top:"Node_4013"
  bottom:"Node_4012"
  layer_param {
    idx:4013
    in_0 {name:"Node_4012:0",dtype:float32,shape:[1, 1, 1, 2048]}
    out_0 {name:"Node_4013:0",dtype:float32,shape:[1, 1, 1, 2048]}
    attrs {'compiler': 'tensorrt'}
  }
}
layer {
  name:"Node_4014"
  type:"annotation_compiler_begin"
  top:"Node_4014"
  bottom:"Node_4013"
  layer_param {
    idx:4014
    in_0 {name:"Node_4013:0",dtype:float32,shape:[1, 1, 1, 2048]}
    out_0 {name:"Node_4014:0",dtype:float32,shape:[1, 1, 1, 2048]}
    attrs {'compiler': 'tensorrt'}
  }
}
layer {
  name:"Node_4015"
  type:"reshape"
  top:"Node_4015"
  bottom:"Node_4014"
  layer_param {
    idx:4015
    in_0 {name:"Node_4014:0",dtype:float32,shape:[1, 1, 1, 2048]}
    out_0 {name:"Node_4015:0",dtype:float32,shape:[1, 2048]}
    attrs {'newshape': [1, 2048]}
  }
}
layer {
  name:"Node_4016"
  type:"annotation_compiler_end"
  top:"Node_4016"
  bottom:"Node_4015"
  layer_param {
    idx:4016
    in_0 {name:"Node_4015:0",dtype:float32,shape:[1, 2048]}
    out_0 {name:"Node_4016:0",dtype:float32,shape:[1, 2048]}
    attrs {'compiler': 'tensorrt'}
  }
}
layer {
  name:"Node_4017"
  type:"annotation_compiler_begin"
  top:"Node_4017"
  bottom:"Node_4016"
  layer_param {
    idx:4017
    in_0 {name:"Node_4016:0",dtype:float32,shape:[1, 2048]}
    out_0 {name:"Node_4017:0",dtype:float32,shape:[1, 2048]}
    attrs {'compiler': 'tensorrt'}
  }
}
layer {
  name:"Node_4019"
  type:"const"
  top:"Node_4019"
  layer_param {
    idx:4019
    out_0 {name:"Node_4019:0",dtype:float32,shape:[1008, 2048]}
  }
}
layer {
  name:"Node_4020"
  type:"annotation_compiler_begin"
  top:"Node_4020"
  bottom:"Node_4019"
  layer_param {
    idx:4020
    in_0 {name:"Node_4019:0",dtype:float32,shape:[1008, 2048]}
    out_0 {name:"Node_4020:0",dtype:float32,shape:[1008, 2048]}
    attrs {'compiler': 'tensorrt'}
  }
}
layer {
  name:"Node_4021"
  type:"nn_dense"
  top:"Node_4021"
  bottom:"Node_4017"
  bottom:"Node_4020"
  layer_param {
    idx:4021
    in_0 {name:"Node_4017:0",dtype:float32,shape:[1, 2048]}
    in_1 {name:"Node_4020:0",dtype:float32,shape:[1008, 2048]}
    out_0 {name:"Node_4021:0",dtype:float32,shape:[1, 1008]}
    attrs {'units': 1008, 'out_dtype': ''}
  }
}
layer {
  name:"Node_4022"
  type:"annotation_compiler_end"
  top:"Node_4022"
  bottom:"Node_4021"
  layer_param {
    idx:4022
    in_0 {name:"Node_4021:0",dtype:float32,shape:[1, 1008]}
    out_0 {name:"Node_4022:0",dtype:float32,shape:[1, 1008]}
    attrs {'compiler': 'tensorrt'}
  }
}
layer {
  name:"Node_4023"
  type:"annotation_compiler_begin"
  top:"Node_4023"
  bottom:"Node_4022"
  layer_param {
    idx:4023
    in_0 {name:"Node_4022:0",dtype:float32,shape:[1, 1008]}
    out_0 {name:"Node_4023:0",dtype:float32,shape:[1, 1008]}
    attrs {'compiler': 'tensorrt'}
  }
}
layer {
  name:"Node_4025"
  type:"const"
  top:"Node_4025"
  layer_param {
    idx:4025
    out_0 {name:"Node_4025:0",dtype:float32,shape:[1008]}
  }
}
layer {
  name:"Node_4026"
  type:"annotation_compiler_begin"
  top:"Node_4026"
  bottom:"Node_4025"
  layer_param {
    idx:4026
    in_0 {name:"Node_4025:0",dtype:float32,shape:[1008]}
    out_0 {name:"Node_4026:0",dtype:float32,shape:[1008]}
    attrs {'compiler': 'tensorrt'}
  }
}
layer {
  name:"Node_4027"
  type:"add"
  top:"Node_4027"
  bottom:"Node_4023"
  bottom:"Node_4026"
  layer_param {
    idx:4027
    in_0 {name:"Node_4023:0",dtype:float32,shape:[1, 1008]}
    in_1 {name:"Node_4026:0",dtype:float32,shape:[1008]}
    out_0 {name:"Node_4027:0",dtype:float32,shape:[1, 1008]}
  }
}
layer {
  name:"Node_4028"
  type:"annotation_compiler_end"
  top:"Node_4028"
  bottom:"Node_4027"
  layer_param {
    idx:4028
    in_0 {name:"Node_4027:0",dtype:float32,shape:[1, 1008]}
    out_0 {name:"Node_4028:0",dtype:float32,shape:[1, 1008]}
    attrs {'compiler': 'tensorrt'}
  }
}
layer {
  name:"Node_4029"
  type:"annotation_compiler_begin"
  top:"Node_4029"
  bottom:"Node_4028"
  layer_param {
    idx:4029
    in_0 {name:"Node_4028:0",dtype:float32,shape:[1, 1008]}
    out_0 {name:"Node_4029:0",dtype:float32,shape:[1, 1008]}
    attrs {'compiler': 'tensorrt'}
  }
}
layer {
  name:"Node_4030"
  type:"nn_softmax"
  top:"Node_4030"
  bottom:"Node_4029"
  layer_param {
    idx:4030
    in_0 {name:"Node_4029:0",dtype:float32,shape:[1, 1008]}
    out_0 {name:"Node_4030:0",dtype:float32,shape:[1, 1008]}
    attrs {'axis': -1}
  }
}
layer {
  name:"Node_4031"
  type:"annotation_compiler_end"
  top:"Node_4031"
  bottom:"Node_4030"
  layer_param {
    idx:4031
    in_0 {name:"Node_4030:0",dtype:float32,shape:[1, 1008]}
    out_0 {name:"Node_4031:0",dtype:float32,shape:[1, 1008]}
    attrs {'compiler': 'tensorrt'}
  }
}
layer {
  name:"Node_4032"
  type:"function"
  top:"Node_4032"
  bottom:"DecodeJpeg/contents"
  bottom:"Node_4031"
  layer_param {
    idx:4032
    in_0 {name:"DecodeJpeg/contents:0",dtype:uint8,shape:[299, 299, 3]}
    in_1 {name:"Node_4031:0",dtype:float32,shape:[1, 1008]}
    out_0 {name:"Node_4032:0",dtype:float32,shape:[1, 1008]}
  }
}
