name : "relay_ir"
layer {
  name:"input0"
  type:"input"
  top:"input0"
  layer_param {
    idx:0
    out_0 {name:"input0:0",dtype:float32,shape:[1, 3, 224, 224]}
  }
}
layer {
  name:"Node_206"
  type:"const"
  top:"Node_206"
  layer_param {
    idx:206
    out_0 {name:"Node_206:0",dtype:float32,shape:[64, 3, 7, 7]}
  }
}
layer {
  name:"Node_207"
  type:"nn_conv2d"
  top:"Node_207"
  bottom:"input0"
  bottom:"Node_206"
  layer_param {
    idx:207
    in_0 {name:"input0:0",dtype:float32,shape:[1, 3, 224, 224]}
    in_1 {name:"Node_206:0",dtype:float32,shape:[64, 3, 7, 7]}
    out_0 {name:"Node_207:0",dtype:float32,shape:[1, 64, 112, 112]}
    attrs {'strides': [2, 2], 'padding': [3, 3, 3, 3], 'dilation': [1, 1], 'groups': 1, 'channels': 64, 'kernel_size': [7, 7], 'data_layout': 'NCHW', 'kernel_layout': 'OIHW', 'out_layout': '', 'out_dtype': ''}
  }
}
layer {
  name:"Node_208"
  type:"annotation_stop_fusion"
  top:"Node_208"
  bottom:"Node_207"
  layer_param {
    idx:208
    in_0 {name:"Node_207:0",dtype:float32,shape:[1, 64, 112, 112]}
    out_0 {name:"Node_208:0",dtype:float32,shape:[1, 64, 112, 112]}
  }
}
layer {
  name:"Node_209"
  type:"const"
  top:"Node_209"
  layer_param {
    idx:209
    out_0 {name:"Node_209:0",dtype:float32,shape:[64, 1, 1]}
  }
}
layer {
  name:"Node_210"
  type:"multiply"
  top:"Node_210"
  bottom:"Node_208"
  bottom:"Node_209"
  layer_param {
    idx:210
    in_0 {name:"Node_208:0",dtype:float32,shape:[1, 64, 112, 112]}
    in_1 {name:"Node_209:0",dtype:float32,shape:[64, 1, 1]}
    out_0 {name:"Node_210:0",dtype:float32,shape:[1, 64, 112, 112]}
  }
}
layer {
  name:"Node_211"
  type:"const"
  top:"Node_211"
  layer_param {
    idx:211
    out_0 {name:"Node_211:0",dtype:float32,shape:[64, 1, 1]}
  }
}
layer {
  name:"Node_212"
  type:"add"
  top:"Node_212"
  bottom:"Node_210"
  bottom:"Node_211"
  layer_param {
    idx:212
    in_0 {name:"Node_210:0",dtype:float32,shape:[1, 64, 112, 112]}
    in_1 {name:"Node_211:0",dtype:float32,shape:[64, 1, 1]}
    out_0 {name:"Node_212:0",dtype:float32,shape:[1, 64, 112, 112]}
  }
}
layer {
  name:"Node_213"
  type:"nn_relu"
  top:"Node_213"
  bottom:"Node_212"
  layer_param {
    idx:213
    in_0 {name:"Node_212:0",dtype:float32,shape:[1, 64, 112, 112]}
    out_0 {name:"Node_213:0",dtype:float32,shape:[1, 64, 112, 112]}
  }
}
layer {
  name:"Node_214"
  type:"nn_max_pool2d"
  top:"Node_214"
  bottom:"Node_213"
  layer_param {
    idx:214
    in_0 {name:"Node_213:0",dtype:float32,shape:[1, 64, 112, 112]}
    out_0 {name:"Node_214:0",dtype:float32,shape:[1, 64, 56, 56]}
    attrs {'pool_size': [3, 3], 'strides': [2, 2], 'padding': [1, 1, 1, 1], 'layout': 'NCHW32c', 'ceil_mode': 0}
  }
}
layer {
  name:"Node_215"
  type:"annotation_stop_fusion"
  top:"Node_215"
  bottom:"Node_214"
  layer_param {
    idx:215
    in_0 {name:"Node_214:0",dtype:float32,shape:[1, 64, 56, 56]}
    out_0 {name:"Node_215:0",dtype:float32,shape:[1, 64, 56, 56]}
  }
}
layer {
  name:"Node_219"
  type:"relay_op_annotation_simulated_quantize"
  top:"Node_219"
  bottom:"Node_215"
  layer_param {
    idx:219
    in_0 {name:"Node_215:0",dtype:float32,shape:[1, 64, 56, 56]}
    out_0 {name:"Node_219:0",dtype:float32,shape:[1, 64, 56, 56]}
    attrs {'kind': 1, 'sign': 1, 'rounding': 'round', 'scale': 'Node_216:0', 'min': 'Node_217:0', 'max': 'Node_218:0'}
  }
}
layer {
  name:"Node_221"
  type:"const"
  top:"Node_221"
  layer_param {
    idx:221
    out_0 {name:"Node_221:0",dtype:float32,shape:[64, 64, 3, 3]}
  }
}
layer {
  name:"Node_225"
  type:"relay_op_annotation_simulated_quantize"
  top:"Node_225"
  bottom:"Node_221"
  layer_param {
    idx:225
    in_0 {name:"Node_221:0",dtype:float32,shape:[64, 64, 3, 3]}
    out_0 {name:"Node_225:0",dtype:float32,shape:[64, 64, 3, 3]}
    attrs {'kind': 2, 'sign': 1, 'rounding': 'round', 'scale': 'Node_222:0', 'min': 'Node_223:0', 'max': 'Node_224:0'}
  }
}
layer {
  name:"Node_226"
  type:"nn_conv2d"
  top:"Node_226"
  bottom:"Node_219"
  bottom:"Node_225"
  layer_param {
    idx:226
    in_0 {name:"Node_219:0",dtype:float32,shape:[1, 64, 56, 56]}
    in_1 {name:"Node_225:0",dtype:float32,shape:[64, 64, 3, 3]}
    out_0 {name:"Node_226:0",dtype:float32,shape:[1, 64, 56, 56]}
    attrs {'strides': [1, 1], 'padding': [1, 1, 1, 1], 'dilation': [1, 1], 'groups': 1, 'channels': 64, 'kernel_size': [3, 3], 'data_layout': 'NCHW', 'kernel_layout': 'OIHW', 'out_layout': '', 'out_dtype': ''}
  }
}
layer {
  name:"Node_230"
  type:"relay_op_annotation_simulated_quantize"
  top:"Node_230"
  bottom:"Node_226"
  layer_param {
    idx:230
    in_0 {name:"Node_226:0",dtype:float32,shape:[1, 64, 56, 56]}
    out_0 {name:"Node_230:0",dtype:float32,shape:[1, 64, 56, 56]}
    attrs {'kind': 1, 'sign': 1, 'rounding': 'round', 'scale': 'Node_227:0', 'min': 'Node_228:0', 'max': 'Node_229:0'}
  }
}
layer {
  name:"Node_231"
  type:"annotation_cast_hint"
  top:"Node_231"
  bottom:"Node_230"
  layer_param {
    idx:231
    in_0 {name:"Node_230:0",dtype:float32,shape:[1, 64, 56, 56]}
    out_0 {name:"Node_231:0",dtype:float32,shape:[1, 64, 56, 56]}
    attrs {'dtype': 'int8'}
  }
}
layer {
  name:"Node_232"
  type:"annotation_stop_fusion"
  top:"Node_232"
  bottom:"Node_231"
  layer_param {
    idx:232
    in_0 {name:"Node_231:0",dtype:float32,shape:[1, 64, 56, 56]}
    out_0 {name:"Node_232:0",dtype:float32,shape:[1, 64, 56, 56]}
  }
}
layer {
  name:"Node_234"
  type:"const"
  top:"Node_234"
  layer_param {
    idx:234
    out_0 {name:"Node_234:0",dtype:float32,shape:[64, 1, 1]}
  }
}
layer {
  name:"Node_238"
  type:"relay_op_annotation_simulated_quantize"
  top:"Node_238"
  bottom:"Node_234"
  layer_param {
    idx:238
    in_0 {name:"Node_234:0",dtype:float32,shape:[64, 1, 1]}
    out_0 {name:"Node_238:0",dtype:float32,shape:[64, 1, 1]}
    attrs {'kind': 2, 'sign': 1, 'rounding': 'round', 'scale': 'Node_235:0', 'min': 'Node_236:0', 'max': 'Node_237:0'}
  }
}
layer {
  name:"Node_239"
  type:"multiply"
  top:"Node_239"
  bottom:"Node_232"
  bottom:"Node_238"
  layer_param {
    idx:239
    in_0 {name:"Node_232:0",dtype:float32,shape:[1, 64, 56, 56]}
    in_1 {name:"Node_238:0",dtype:float32,shape:[64, 1, 1]}
    out_0 {name:"Node_239:0",dtype:float32,shape:[1, 64, 56, 56]}
  }
}
layer {
  name:"Node_241"
  type:"const"
  top:"Node_241"
  layer_param {
    idx:241
    out_0 {name:"Node_241:0",dtype:float32,shape:[64, 1, 1]}
  }
}
layer {
  name:"Node_245"
  type:"relay_op_annotation_simulated_quantize"
  top:"Node_245"
  bottom:"Node_241"
  layer_param {
    idx:245
    in_0 {name:"Node_241:0",dtype:float32,shape:[64, 1, 1]}
    out_0 {name:"Node_245:0",dtype:float32,shape:[64, 1, 1]}
    attrs {'kind': 2, 'sign': 1, 'rounding': 'round', 'scale': 'Node_242:0', 'min': 'Node_243:0', 'max': 'Node_244:0'}
  }
}
layer {
  name:"Node_246"
  type:"add"
  top:"Node_246"
  bottom:"Node_239"
  bottom:"Node_245"
  layer_param {
    idx:246
    in_0 {name:"Node_239:0",dtype:float32,shape:[1, 64, 56, 56]}
    in_1 {name:"Node_245:0",dtype:float32,shape:[64, 1, 1]}
    out_0 {name:"Node_246:0",dtype:float32,shape:[1, 64, 56, 56]}
  }
}
layer {
  name:"Node_247"
  type:"nn_relu"
  top:"Node_247"
  bottom:"Node_246"
  layer_param {
    idx:247
    in_0 {name:"Node_246:0",dtype:float32,shape:[1, 64, 56, 56]}
    out_0 {name:"Node_247:0",dtype:float32,shape:[1, 64, 56, 56]}
  }
}
layer {
  name:"Node_251"
  type:"relay_op_annotation_simulated_quantize"
  top:"Node_251"
  bottom:"Node_247"
  layer_param {
    idx:251
    in_0 {name:"Node_247:0",dtype:float32,shape:[1, 64, 56, 56]}
    out_0 {name:"Node_251:0",dtype:float32,shape:[1, 64, 56, 56]}
    attrs {'kind': 1, 'sign': 1, 'rounding': 'round', 'scale': 'Node_248:0', 'min': 'Node_249:0', 'max': 'Node_250:0'}
  }
}
layer {
  name:"Node_252"
  type:"annotation_cast_hint"
  top:"Node_252"
  bottom:"Node_251"
  layer_param {
    idx:252
    in_0 {name:"Node_251:0",dtype:float32,shape:[1, 64, 56, 56]}
    out_0 {name:"Node_252:0",dtype:float32,shape:[1, 64, 56, 56]}
    attrs {'dtype': 'int8'}
  }
}
layer {
  name:"Node_253"
  type:"annotation_stop_fusion"
  top:"Node_253"
  bottom:"Node_252"
  layer_param {
    idx:253
    in_0 {name:"Node_252:0",dtype:float32,shape:[1, 64, 56, 56]}
    out_0 {name:"Node_253:0",dtype:float32,shape:[1, 64, 56, 56]}
  }
}
layer {
  name:"Node_255"
  type:"const"
  top:"Node_255"
  layer_param {
    idx:255
    out_0 {name:"Node_255:0",dtype:float32,shape:[64, 64, 3, 3]}
  }
}
layer {
  name:"Node_259"
  type:"relay_op_annotation_simulated_quantize"
  top:"Node_259"
  bottom:"Node_255"
  layer_param {
    idx:259
    in_0 {name:"Node_255:0",dtype:float32,shape:[64, 64, 3, 3]}
    out_0 {name:"Node_259:0",dtype:float32,shape:[64, 64, 3, 3]}
    attrs {'kind': 2, 'sign': 1, 'rounding': 'round', 'scale': 'Node_256:0', 'min': 'Node_257:0', 'max': 'Node_258:0'}
  }
}
layer {
  name:"Node_260"
  type:"nn_conv2d"
  top:"Node_260"
  bottom:"Node_253"
  bottom:"Node_259"
  layer_param {
    idx:260
    in_0 {name:"Node_253:0",dtype:float32,shape:[1, 64, 56, 56]}
    in_1 {name:"Node_259:0",dtype:float32,shape:[64, 64, 3, 3]}
    out_0 {name:"Node_260:0",dtype:float32,shape:[1, 64, 56, 56]}
    attrs {'strides': [1, 1], 'padding': [1, 1, 1, 1], 'dilation': [1, 1], 'groups': 1, 'channels': 64, 'kernel_size': [3, 3], 'data_layout': 'NCHW', 'kernel_layout': 'OIHW', 'out_layout': '', 'out_dtype': ''}
  }
}
layer {
  name:"Node_264"
  type:"relay_op_annotation_simulated_quantize"
  top:"Node_264"
  bottom:"Node_260"
  layer_param {
    idx:264
    in_0 {name:"Node_260:0",dtype:float32,shape:[1, 64, 56, 56]}
    out_0 {name:"Node_264:0",dtype:float32,shape:[1, 64, 56, 56]}
    attrs {'kind': 1, 'sign': 1, 'rounding': 'round', 'scale': 'Node_261:0', 'min': 'Node_262:0', 'max': 'Node_263:0'}
  }
}
layer {
  name:"Node_265"
  type:"annotation_cast_hint"
  top:"Node_265"
  bottom:"Node_264"
  layer_param {
    idx:265
    in_0 {name:"Node_264:0",dtype:float32,shape:[1, 64, 56, 56]}
    out_0 {name:"Node_265:0",dtype:float32,shape:[1, 64, 56, 56]}
    attrs {'dtype': 'int8'}
  }
}
layer {
  name:"Node_266"
  type:"annotation_stop_fusion"
  top:"Node_266"
  bottom:"Node_265"
  layer_param {
    idx:266
    in_0 {name:"Node_265:0",dtype:float32,shape:[1, 64, 56, 56]}
    out_0 {name:"Node_266:0",dtype:float32,shape:[1, 64, 56, 56]}
  }
}
layer {
  name:"Node_268"
  type:"const"
  top:"Node_268"
  layer_param {
    idx:268
    out_0 {name:"Node_268:0",dtype:float32,shape:[64, 1, 1]}
  }
}
layer {
  name:"Node_272"
  type:"relay_op_annotation_simulated_quantize"
  top:"Node_272"
  bottom:"Node_268"
  layer_param {
    idx:272
    in_0 {name:"Node_268:0",dtype:float32,shape:[64, 1, 1]}
    out_0 {name:"Node_272:0",dtype:float32,shape:[64, 1, 1]}
    attrs {'kind': 2, 'sign': 1, 'rounding': 'round', 'scale': 'Node_269:0', 'min': 'Node_270:0', 'max': 'Node_271:0'}
  }
}
layer {
  name:"Node_273"
  type:"multiply"
  top:"Node_273"
  bottom:"Node_266"
  bottom:"Node_272"
  layer_param {
    idx:273
    in_0 {name:"Node_266:0",dtype:float32,shape:[1, 64, 56, 56]}
    in_1 {name:"Node_272:0",dtype:float32,shape:[64, 1, 1]}
    out_0 {name:"Node_273:0",dtype:float32,shape:[1, 64, 56, 56]}
  }
}
layer {
  name:"Node_275"
  type:"const"
  top:"Node_275"
  layer_param {
    idx:275
    out_0 {name:"Node_275:0",dtype:float32,shape:[64, 1, 1]}
  }
}
layer {
  name:"Node_279"
  type:"relay_op_annotation_simulated_quantize"
  top:"Node_279"
  bottom:"Node_275"
  layer_param {
    idx:279
    in_0 {name:"Node_275:0",dtype:float32,shape:[64, 1, 1]}
    out_0 {name:"Node_279:0",dtype:float32,shape:[64, 1, 1]}
    attrs {'kind': 2, 'sign': 1, 'rounding': 'round', 'scale': 'Node_276:0', 'min': 'Node_277:0', 'max': 'Node_278:0'}
  }
}
layer {
  name:"Node_280"
  type:"add"
  top:"Node_280"
  bottom:"Node_273"
  bottom:"Node_279"
  layer_param {
    idx:280
    in_0 {name:"Node_273:0",dtype:float32,shape:[1, 64, 56, 56]}
    in_1 {name:"Node_279:0",dtype:float32,shape:[64, 1, 1]}
    out_0 {name:"Node_280:0",dtype:float32,shape:[1, 64, 56, 56]}
  }
}
layer {
  name:"Node_284"
  type:"relay_op_annotation_simulated_quantize"
  top:"Node_284"
  bottom:"Node_280"
  layer_param {
    idx:284
    in_0 {name:"Node_280:0",dtype:float32,shape:[1, 64, 56, 56]}
    out_0 {name:"Node_284:0",dtype:float32,shape:[1, 64, 56, 56]}
    attrs {'kind': 1, 'sign': 1, 'rounding': 'round', 'scale': 'Node_281:0', 'min': 'Node_282:0', 'max': 'Node_283:0'}
  }
}
layer {
  name:"Node_285"
  type:"annotation_cast_hint"
  top:"Node_285"
  bottom:"Node_284"
  layer_param {
    idx:285
    in_0 {name:"Node_284:0",dtype:float32,shape:[1, 64, 56, 56]}
    out_0 {name:"Node_285:0",dtype:float32,shape:[1, 64, 56, 56]}
    attrs {'dtype': 'int8'}
  }
}
layer {
  name:"Node_286"
  type:"annotation_stop_fusion"
  top:"Node_286"
  bottom:"Node_285"
  layer_param {
    idx:286
    in_0 {name:"Node_285:0",dtype:float32,shape:[1, 64, 56, 56]}
    out_0 {name:"Node_286:0",dtype:float32,shape:[1, 64, 56, 56]}
  }
}
layer {
  name:"Node_290"
  type:"annotation_stop_fusion"
  top:"Node_290"
  bottom:"Node_214"
  layer_param {
    idx:290
    in_0 {name:"Node_214:0",dtype:float32,shape:[1, 64, 56, 56]}
    out_0 {name:"Node_290:0",dtype:float32,shape:[1, 64, 56, 56]}
  }
}
layer {
  name:"Node_294"
  type:"relay_op_annotation_simulated_quantize"
  top:"Node_294"
  bottom:"Node_290"
  layer_param {
    idx:294
    in_0 {name:"Node_290:0",dtype:float32,shape:[1, 64, 56, 56]}
    out_0 {name:"Node_294:0",dtype:float32,shape:[1, 64, 56, 56]}
    attrs {'kind': 1, 'sign': 1, 'rounding': 'round', 'scale': 'Node_291:0', 'min': 'Node_292:0', 'max': 'Node_293:0'}
  }
}
layer {
  name:"Node_295"
  type:"add"
  top:"Node_295"
  bottom:"Node_286"
  bottom:"Node_294"
  layer_param {
    idx:295
    in_0 {name:"Node_286:0",dtype:float32,shape:[1, 64, 56, 56]}
    in_1 {name:"Node_294:0",dtype:float32,shape:[1, 64, 56, 56]}
    out_0 {name:"Node_295:0",dtype:float32,shape:[1, 64, 56, 56]}
  }
}
layer {
  name:"Node_296"
  type:"nn_relu"
  top:"Node_296"
  bottom:"Node_295"
  layer_param {
    idx:296
    in_0 {name:"Node_295:0",dtype:float32,shape:[1, 64, 56, 56]}
    out_0 {name:"Node_296:0",dtype:float32,shape:[1, 64, 56, 56]}
  }
}
layer {
  name:"Node_300"
  type:"relay_op_annotation_simulated_quantize"
  top:"Node_300"
  bottom:"Node_296"
  layer_param {
    idx:300
    in_0 {name:"Node_296:0",dtype:float32,shape:[1, 64, 56, 56]}
    out_0 {name:"Node_300:0",dtype:float32,shape:[1, 64, 56, 56]}
    attrs {'kind': 1, 'sign': 1, 'rounding': 'round', 'scale': 'Node_297:0', 'min': 'Node_298:0', 'max': 'Node_299:0'}
  }
}
layer {
  name:"Node_301"
  type:"annotation_cast_hint"
  top:"Node_301"
  bottom:"Node_300"
  layer_param {
    idx:301
    in_0 {name:"Node_300:0",dtype:float32,shape:[1, 64, 56, 56]}
    out_0 {name:"Node_301:0",dtype:float32,shape:[1, 64, 56, 56]}
    attrs {'dtype': 'int8'}
  }
}
layer {
  name:"Node_302"
  type:"annotation_stop_fusion"
  top:"Node_302"
  bottom:"Node_301"
  layer_param {
    idx:302
    in_0 {name:"Node_301:0",dtype:float32,shape:[1, 64, 56, 56]}
    out_0 {name:"Node_302:0",dtype:float32,shape:[1, 64, 56, 56]}
  }
}
layer {
  name:"Node_304"
  type:"const"
  top:"Node_304"
  layer_param {
    idx:304
    out_0 {name:"Node_304:0",dtype:float32,shape:[64, 64, 3, 3]}
  }
}
layer {
  name:"Node_308"
  type:"relay_op_annotation_simulated_quantize"
  top:"Node_308"
  bottom:"Node_304"
  layer_param {
    idx:308
    in_0 {name:"Node_304:0",dtype:float32,shape:[64, 64, 3, 3]}
    out_0 {name:"Node_308:0",dtype:float32,shape:[64, 64, 3, 3]}
    attrs {'kind': 2, 'sign': 1, 'rounding': 'round', 'scale': 'Node_305:0', 'min': 'Node_306:0', 'max': 'Node_307:0'}
  }
}
layer {
  name:"Node_309"
  type:"nn_conv2d"
  top:"Node_309"
  bottom:"Node_302"
  bottom:"Node_308"
  layer_param {
    idx:309
    in_0 {name:"Node_302:0",dtype:float32,shape:[1, 64, 56, 56]}
    in_1 {name:"Node_308:0",dtype:float32,shape:[64, 64, 3, 3]}
    out_0 {name:"Node_309:0",dtype:float32,shape:[1, 64, 56, 56]}
    attrs {'strides': [1, 1], 'padding': [1, 1, 1, 1], 'dilation': [1, 1], 'groups': 1, 'channels': 64, 'kernel_size': [3, 3], 'data_layout': 'NCHW', 'kernel_layout': 'OIHW', 'out_layout': '', 'out_dtype': ''}
  }
}
layer {
  name:"Node_313"
  type:"relay_op_annotation_simulated_quantize"
  top:"Node_313"
  bottom:"Node_309"
  layer_param {
    idx:313
    in_0 {name:"Node_309:0",dtype:float32,shape:[1, 64, 56, 56]}
    out_0 {name:"Node_313:0",dtype:float32,shape:[1, 64, 56, 56]}
    attrs {'kind': 1, 'sign': 1, 'rounding': 'round', 'scale': 'Node_310:0', 'min': 'Node_311:0', 'max': 'Node_312:0'}
  }
}
layer {
  name:"Node_314"
  type:"annotation_cast_hint"
  top:"Node_314"
  bottom:"Node_313"
  layer_param {
    idx:314
    in_0 {name:"Node_313:0",dtype:float32,shape:[1, 64, 56, 56]}
    out_0 {name:"Node_314:0",dtype:float32,shape:[1, 64, 56, 56]}
    attrs {'dtype': 'int8'}
  }
}
layer {
  name:"Node_315"
  type:"annotation_stop_fusion"
  top:"Node_315"
  bottom:"Node_314"
  layer_param {
    idx:315
    in_0 {name:"Node_314:0",dtype:float32,shape:[1, 64, 56, 56]}
    out_0 {name:"Node_315:0",dtype:float32,shape:[1, 64, 56, 56]}
  }
}
layer {
  name:"Node_317"
  type:"const"
  top:"Node_317"
  layer_param {
    idx:317
    out_0 {name:"Node_317:0",dtype:float32,shape:[64, 1, 1]}
  }
}
layer {
  name:"Node_321"
  type:"relay_op_annotation_simulated_quantize"
  top:"Node_321"
  bottom:"Node_317"
  layer_param {
    idx:321
    in_0 {name:"Node_317:0",dtype:float32,shape:[64, 1, 1]}
    out_0 {name:"Node_321:0",dtype:float32,shape:[64, 1, 1]}
    attrs {'kind': 2, 'sign': 1, 'rounding': 'round', 'scale': 'Node_318:0', 'min': 'Node_319:0', 'max': 'Node_320:0'}
  }
}
layer {
  name:"Node_322"
  type:"multiply"
  top:"Node_322"
  bottom:"Node_315"
  bottom:"Node_321"
  layer_param {
    idx:322
    in_0 {name:"Node_315:0",dtype:float32,shape:[1, 64, 56, 56]}
    in_1 {name:"Node_321:0",dtype:float32,shape:[64, 1, 1]}
    out_0 {name:"Node_322:0",dtype:float32,shape:[1, 64, 56, 56]}
  }
}
layer {
  name:"Node_324"
  type:"const"
  top:"Node_324"
  layer_param {
    idx:324
    out_0 {name:"Node_324:0",dtype:float32,shape:[64, 1, 1]}
  }
}
layer {
  name:"Node_328"
  type:"relay_op_annotation_simulated_quantize"
  top:"Node_328"
  bottom:"Node_324"
  layer_param {
    idx:328
    in_0 {name:"Node_324:0",dtype:float32,shape:[64, 1, 1]}
    out_0 {name:"Node_328:0",dtype:float32,shape:[64, 1, 1]}
    attrs {'kind': 2, 'sign': 1, 'rounding': 'round', 'scale': 'Node_325:0', 'min': 'Node_326:0', 'max': 'Node_327:0'}
  }
}
layer {
  name:"Node_329"
  type:"add"
  top:"Node_329"
  bottom:"Node_322"
  bottom:"Node_328"
  layer_param {
    idx:329
    in_0 {name:"Node_322:0",dtype:float32,shape:[1, 64, 56, 56]}
    in_1 {name:"Node_328:0",dtype:float32,shape:[64, 1, 1]}
    out_0 {name:"Node_329:0",dtype:float32,shape:[1, 64, 56, 56]}
  }
}
layer {
  name:"Node_330"
  type:"nn_relu"
  top:"Node_330"
  bottom:"Node_329"
  layer_param {
    idx:330
    in_0 {name:"Node_329:0",dtype:float32,shape:[1, 64, 56, 56]}
    out_0 {name:"Node_330:0",dtype:float32,shape:[1, 64, 56, 56]}
  }
}
layer {
  name:"Node_334"
  type:"relay_op_annotation_simulated_quantize"
  top:"Node_334"
  bottom:"Node_330"
  layer_param {
    idx:334
    in_0 {name:"Node_330:0",dtype:float32,shape:[1, 64, 56, 56]}
    out_0 {name:"Node_334:0",dtype:float32,shape:[1, 64, 56, 56]}
    attrs {'kind': 1, 'sign': 1, 'rounding': 'round', 'scale': 'Node_331:0', 'min': 'Node_332:0', 'max': 'Node_333:0'}
  }
}
layer {
  name:"Node_335"
  type:"annotation_cast_hint"
  top:"Node_335"
  bottom:"Node_334"
  layer_param {
    idx:335
    in_0 {name:"Node_334:0",dtype:float32,shape:[1, 64, 56, 56]}
    out_0 {name:"Node_335:0",dtype:float32,shape:[1, 64, 56, 56]}
    attrs {'dtype': 'int8'}
  }
}
layer {
  name:"Node_336"
  type:"annotation_stop_fusion"
  top:"Node_336"
  bottom:"Node_335"
  layer_param {
    idx:336
    in_0 {name:"Node_335:0",dtype:float32,shape:[1, 64, 56, 56]}
    out_0 {name:"Node_336:0",dtype:float32,shape:[1, 64, 56, 56]}
  }
}
layer {
  name:"Node_338"
  type:"const"
  top:"Node_338"
  layer_param {
    idx:338
    out_0 {name:"Node_338:0",dtype:float32,shape:[64, 64, 3, 3]}
  }
}
layer {
  name:"Node_342"
  type:"relay_op_annotation_simulated_quantize"
  top:"Node_342"
  bottom:"Node_338"
  layer_param {
    idx:342
    in_0 {name:"Node_338:0",dtype:float32,shape:[64, 64, 3, 3]}
    out_0 {name:"Node_342:0",dtype:float32,shape:[64, 64, 3, 3]}
    attrs {'kind': 2, 'sign': 1, 'rounding': 'round', 'scale': 'Node_339:0', 'min': 'Node_340:0', 'max': 'Node_341:0'}
  }
}
layer {
  name:"Node_343"
  type:"nn_conv2d"
  top:"Node_343"
  bottom:"Node_336"
  bottom:"Node_342"
  layer_param {
    idx:343
    in_0 {name:"Node_336:0",dtype:float32,shape:[1, 64, 56, 56]}
    in_1 {name:"Node_342:0",dtype:float32,shape:[64, 64, 3, 3]}
    out_0 {name:"Node_343:0",dtype:float32,shape:[1, 64, 56, 56]}
    attrs {'strides': [1, 1], 'padding': [1, 1, 1, 1], 'dilation': [1, 1], 'groups': 1, 'channels': 64, 'kernel_size': [3, 3], 'data_layout': 'NCHW', 'kernel_layout': 'OIHW', 'out_layout': '', 'out_dtype': ''}
  }
}
layer {
  name:"Node_347"
  type:"relay_op_annotation_simulated_quantize"
  top:"Node_347"
  bottom:"Node_343"
  layer_param {
    idx:347
    in_0 {name:"Node_343:0",dtype:float32,shape:[1, 64, 56, 56]}
    out_0 {name:"Node_347:0",dtype:float32,shape:[1, 64, 56, 56]}
    attrs {'kind': 1, 'sign': 1, 'rounding': 'round', 'scale': 'Node_344:0', 'min': 'Node_345:0', 'max': 'Node_346:0'}
  }
}
layer {
  name:"Node_348"
  type:"annotation_cast_hint"
  top:"Node_348"
  bottom:"Node_347"
  layer_param {
    idx:348
    in_0 {name:"Node_347:0",dtype:float32,shape:[1, 64, 56, 56]}
    out_0 {name:"Node_348:0",dtype:float32,shape:[1, 64, 56, 56]}
    attrs {'dtype': 'int8'}
  }
}
layer {
  name:"Node_349"
  type:"annotation_stop_fusion"
  top:"Node_349"
  bottom:"Node_348"
  layer_param {
    idx:349
    in_0 {name:"Node_348:0",dtype:float32,shape:[1, 64, 56, 56]}
    out_0 {name:"Node_349:0",dtype:float32,shape:[1, 64, 56, 56]}
  }
}
layer {
  name:"Node_351"
  type:"const"
  top:"Node_351"
  layer_param {
    idx:351
    out_0 {name:"Node_351:0",dtype:float32,shape:[64, 1, 1]}
  }
}
layer {
  name:"Node_355"
  type:"relay_op_annotation_simulated_quantize"
  top:"Node_355"
  bottom:"Node_351"
  layer_param {
    idx:355
    in_0 {name:"Node_351:0",dtype:float32,shape:[64, 1, 1]}
    out_0 {name:"Node_355:0",dtype:float32,shape:[64, 1, 1]}
    attrs {'kind': 2, 'sign': 1, 'rounding': 'round', 'scale': 'Node_352:0', 'min': 'Node_353:0', 'max': 'Node_354:0'}
  }
}
layer {
  name:"Node_356"
  type:"multiply"
  top:"Node_356"
  bottom:"Node_349"
  bottom:"Node_355"
  layer_param {
    idx:356
    in_0 {name:"Node_349:0",dtype:float32,shape:[1, 64, 56, 56]}
    in_1 {name:"Node_355:0",dtype:float32,shape:[64, 1, 1]}
    out_0 {name:"Node_356:0",dtype:float32,shape:[1, 64, 56, 56]}
  }
}
layer {
  name:"Node_358"
  type:"const"
  top:"Node_358"
  layer_param {
    idx:358
    out_0 {name:"Node_358:0",dtype:float32,shape:[64, 1, 1]}
  }
}
layer {
  name:"Node_362"
  type:"relay_op_annotation_simulated_quantize"
  top:"Node_362"
  bottom:"Node_358"
  layer_param {
    idx:362
    in_0 {name:"Node_358:0",dtype:float32,shape:[64, 1, 1]}
    out_0 {name:"Node_362:0",dtype:float32,shape:[64, 1, 1]}
    attrs {'kind': 2, 'sign': 1, 'rounding': 'round', 'scale': 'Node_359:0', 'min': 'Node_360:0', 'max': 'Node_361:0'}
  }
}
layer {
  name:"Node_363"
  type:"add"
  top:"Node_363"
  bottom:"Node_356"
  bottom:"Node_362"
  layer_param {
    idx:363
    in_0 {name:"Node_356:0",dtype:float32,shape:[1, 64, 56, 56]}
    in_1 {name:"Node_362:0",dtype:float32,shape:[64, 1, 1]}
    out_0 {name:"Node_363:0",dtype:float32,shape:[1, 64, 56, 56]}
  }
}
layer {
  name:"Node_367"
  type:"relay_op_annotation_simulated_quantize"
  top:"Node_367"
  bottom:"Node_363"
  layer_param {
    idx:367
    in_0 {name:"Node_363:0",dtype:float32,shape:[1, 64, 56, 56]}
    out_0 {name:"Node_367:0",dtype:float32,shape:[1, 64, 56, 56]}
    attrs {'kind': 1, 'sign': 1, 'rounding': 'round', 'scale': 'Node_364:0', 'min': 'Node_365:0', 'max': 'Node_366:0'}
  }
}
layer {
  name:"Node_368"
  type:"annotation_cast_hint"
  top:"Node_368"
  bottom:"Node_367"
  layer_param {
    idx:368
    in_0 {name:"Node_367:0",dtype:float32,shape:[1, 64, 56, 56]}
    out_0 {name:"Node_368:0",dtype:float32,shape:[1, 64, 56, 56]}
    attrs {'dtype': 'int8'}
  }
}
layer {
  name:"Node_369"
  type:"annotation_stop_fusion"
  top:"Node_369"
  bottom:"Node_368"
  layer_param {
    idx:369
    in_0 {name:"Node_368:0",dtype:float32,shape:[1, 64, 56, 56]}
    out_0 {name:"Node_369:0",dtype:float32,shape:[1, 64, 56, 56]}
  }
}
layer {
  name:"Node_373"
  type:"annotation_cast_hint"
  top:"Node_373"
  bottom:"Node_300"
  layer_param {
    idx:373
    in_0 {name:"Node_300:0",dtype:float32,shape:[1, 64, 56, 56]}
    out_0 {name:"Node_373:0",dtype:float32,shape:[1, 64, 56, 56]}
    attrs {'dtype': 'int8'}
  }
}
layer {
  name:"Node_374"
  type:"annotation_stop_fusion"
  top:"Node_374"
  bottom:"Node_373"
  layer_param {
    idx:374
    in_0 {name:"Node_373:0",dtype:float32,shape:[1, 64, 56, 56]}
    out_0 {name:"Node_374:0",dtype:float32,shape:[1, 64, 56, 56]}
  }
}
layer {
  name:"Node_375"
  type:"add"
  top:"Node_375"
  bottom:"Node_369"
  bottom:"Node_374"
  layer_param {
    idx:375
    in_0 {name:"Node_369:0",dtype:float32,shape:[1, 64, 56, 56]}
    in_1 {name:"Node_374:0",dtype:float32,shape:[1, 64, 56, 56]}
    out_0 {name:"Node_375:0",dtype:float32,shape:[1, 64, 56, 56]}
  }
}
layer {
  name:"Node_376"
  type:"nn_relu"
  top:"Node_376"
  bottom:"Node_375"
  layer_param {
    idx:376
    in_0 {name:"Node_375:0",dtype:float32,shape:[1, 64, 56, 56]}
    out_0 {name:"Node_376:0",dtype:float32,shape:[1, 64, 56, 56]}
  }
}
layer {
  name:"Node_380"
  type:"relay_op_annotation_simulated_quantize"
  top:"Node_380"
  bottom:"Node_376"
  layer_param {
    idx:380
    in_0 {name:"Node_376:0",dtype:float32,shape:[1, 64, 56, 56]}
    out_0 {name:"Node_380:0",dtype:float32,shape:[1, 64, 56, 56]}
    attrs {'kind': 1, 'sign': 1, 'rounding': 'round', 'scale': 'Node_377:0', 'min': 'Node_378:0', 'max': 'Node_379:0'}
  }
}
layer {
  name:"Node_381"
  type:"annotation_cast_hint"
  top:"Node_381"
  bottom:"Node_380"
  layer_param {
    idx:381
    in_0 {name:"Node_380:0",dtype:float32,shape:[1, 64, 56, 56]}
    out_0 {name:"Node_381:0",dtype:float32,shape:[1, 64, 56, 56]}
    attrs {'dtype': 'int8'}
  }
}
layer {
  name:"Node_382"
  type:"annotation_stop_fusion"
  top:"Node_382"
  bottom:"Node_381"
  layer_param {
    idx:382
    in_0 {name:"Node_381:0",dtype:float32,shape:[1, 64, 56, 56]}
    out_0 {name:"Node_382:0",dtype:float32,shape:[1, 64, 56, 56]}
  }
}
layer {
  name:"Node_384"
  type:"const"
  top:"Node_384"
  layer_param {
    idx:384
    out_0 {name:"Node_384:0",dtype:float32,shape:[128, 64, 3, 3]}
  }
}
layer {
  name:"Node_388"
  type:"relay_op_annotation_simulated_quantize"
  top:"Node_388"
  bottom:"Node_384"
  layer_param {
    idx:388
    in_0 {name:"Node_384:0",dtype:float32,shape:[128, 64, 3, 3]}
    out_0 {name:"Node_388:0",dtype:float32,shape:[128, 64, 3, 3]}
    attrs {'kind': 2, 'sign': 1, 'rounding': 'round', 'scale': 'Node_385:0', 'min': 'Node_386:0', 'max': 'Node_387:0'}
  }
}
layer {
  name:"Node_389"
  type:"nn_conv2d"
  top:"Node_389"
  bottom:"Node_382"
  bottom:"Node_388"
  layer_param {
    idx:389
    in_0 {name:"Node_382:0",dtype:float32,shape:[1, 64, 56, 56]}
    in_1 {name:"Node_388:0",dtype:float32,shape:[128, 64, 3, 3]}
    out_0 {name:"Node_389:0",dtype:float32,shape:[1, 128, 28, 28]}
    attrs {'strides': [2, 2], 'padding': [1, 1, 1, 1], 'dilation': [1, 1], 'groups': 1, 'channels': 128, 'kernel_size': [3, 3], 'data_layout': 'NCHW', 'kernel_layout': 'OIHW', 'out_layout': '', 'out_dtype': ''}
  }
}
layer {
  name:"Node_393"
  type:"relay_op_annotation_simulated_quantize"
  top:"Node_393"
  bottom:"Node_389"
  layer_param {
    idx:393
    in_0 {name:"Node_389:0",dtype:float32,shape:[1, 128, 28, 28]}
    out_0 {name:"Node_393:0",dtype:float32,shape:[1, 128, 28, 28]}
    attrs {'kind': 1, 'sign': 1, 'rounding': 'round', 'scale': 'Node_390:0', 'min': 'Node_391:0', 'max': 'Node_392:0'}
  }
}
layer {
  name:"Node_394"
  type:"annotation_cast_hint"
  top:"Node_394"
  bottom:"Node_393"
  layer_param {
    idx:394
    in_0 {name:"Node_393:0",dtype:float32,shape:[1, 128, 28, 28]}
    out_0 {name:"Node_394:0",dtype:float32,shape:[1, 128, 28, 28]}
    attrs {'dtype': 'int8'}
  }
}
layer {
  name:"Node_395"
  type:"annotation_stop_fusion"
  top:"Node_395"
  bottom:"Node_394"
  layer_param {
    idx:395
    in_0 {name:"Node_394:0",dtype:float32,shape:[1, 128, 28, 28]}
    out_0 {name:"Node_395:0",dtype:float32,shape:[1, 128, 28, 28]}
  }
}
layer {
  name:"Node_397"
  type:"const"
  top:"Node_397"
  layer_param {
    idx:397
    out_0 {name:"Node_397:0",dtype:float32,shape:[128, 1, 1]}
  }
}
layer {
  name:"Node_401"
  type:"relay_op_annotation_simulated_quantize"
  top:"Node_401"
  bottom:"Node_397"
  layer_param {
    idx:401
    in_0 {name:"Node_397:0",dtype:float32,shape:[128, 1, 1]}
    out_0 {name:"Node_401:0",dtype:float32,shape:[128, 1, 1]}
    attrs {'kind': 2, 'sign': 1, 'rounding': 'round', 'scale': 'Node_398:0', 'min': 'Node_399:0', 'max': 'Node_400:0'}
  }
}
layer {
  name:"Node_402"
  type:"multiply"
  top:"Node_402"
  bottom:"Node_395"
  bottom:"Node_401"
  layer_param {
    idx:402
    in_0 {name:"Node_395:0",dtype:float32,shape:[1, 128, 28, 28]}
    in_1 {name:"Node_401:0",dtype:float32,shape:[128, 1, 1]}
    out_0 {name:"Node_402:0",dtype:float32,shape:[1, 128, 28, 28]}
  }
}
layer {
  name:"Node_404"
  type:"const"
  top:"Node_404"
  layer_param {
    idx:404
    out_0 {name:"Node_404:0",dtype:float32,shape:[128, 1, 1]}
  }
}
layer {
  name:"Node_408"
  type:"relay_op_annotation_simulated_quantize"
  top:"Node_408"
  bottom:"Node_404"
  layer_param {
    idx:408
    in_0 {name:"Node_404:0",dtype:float32,shape:[128, 1, 1]}
    out_0 {name:"Node_408:0",dtype:float32,shape:[128, 1, 1]}
    attrs {'kind': 2, 'sign': 1, 'rounding': 'round', 'scale': 'Node_405:0', 'min': 'Node_406:0', 'max': 'Node_407:0'}
  }
}
layer {
  name:"Node_409"
  type:"add"
  top:"Node_409"
  bottom:"Node_402"
  bottom:"Node_408"
  layer_param {
    idx:409
    in_0 {name:"Node_402:0",dtype:float32,shape:[1, 128, 28, 28]}
    in_1 {name:"Node_408:0",dtype:float32,shape:[128, 1, 1]}
    out_0 {name:"Node_409:0",dtype:float32,shape:[1, 128, 28, 28]}
  }
}
layer {
  name:"Node_410"
  type:"nn_relu"
  top:"Node_410"
  bottom:"Node_409"
  layer_param {
    idx:410
    in_0 {name:"Node_409:0",dtype:float32,shape:[1, 128, 28, 28]}
    out_0 {name:"Node_410:0",dtype:float32,shape:[1, 128, 28, 28]}
  }
}
layer {
  name:"Node_414"
  type:"relay_op_annotation_simulated_quantize"
  top:"Node_414"
  bottom:"Node_410"
  layer_param {
    idx:414
    in_0 {name:"Node_410:0",dtype:float32,shape:[1, 128, 28, 28]}
    out_0 {name:"Node_414:0",dtype:float32,shape:[1, 128, 28, 28]}
    attrs {'kind': 1, 'sign': 1, 'rounding': 'round', 'scale': 'Node_411:0', 'min': 'Node_412:0', 'max': 'Node_413:0'}
  }
}
layer {
  name:"Node_415"
  type:"annotation_cast_hint"
  top:"Node_415"
  bottom:"Node_414"
  layer_param {
    idx:415
    in_0 {name:"Node_414:0",dtype:float32,shape:[1, 128, 28, 28]}
    out_0 {name:"Node_415:0",dtype:float32,shape:[1, 128, 28, 28]}
    attrs {'dtype': 'int8'}
  }
}
layer {
  name:"Node_416"
  type:"annotation_stop_fusion"
  top:"Node_416"
  bottom:"Node_415"
  layer_param {
    idx:416
    in_0 {name:"Node_415:0",dtype:float32,shape:[1, 128, 28, 28]}
    out_0 {name:"Node_416:0",dtype:float32,shape:[1, 128, 28, 28]}
  }
}
layer {
  name:"Node_418"
  type:"const"
  top:"Node_418"
  layer_param {
    idx:418
    out_0 {name:"Node_418:0",dtype:float32,shape:[128, 128, 3, 3]}
  }
}
layer {
  name:"Node_422"
  type:"relay_op_annotation_simulated_quantize"
  top:"Node_422"
  bottom:"Node_418"
  layer_param {
    idx:422
    in_0 {name:"Node_418:0",dtype:float32,shape:[128, 128, 3, 3]}
    out_0 {name:"Node_422:0",dtype:float32,shape:[128, 128, 3, 3]}
    attrs {'kind': 2, 'sign': 1, 'rounding': 'round', 'scale': 'Node_419:0', 'min': 'Node_420:0', 'max': 'Node_421:0'}
  }
}
layer {
  name:"Node_423"
  type:"nn_conv2d"
  top:"Node_423"
  bottom:"Node_416"
  bottom:"Node_422"
  layer_param {
    idx:423
    in_0 {name:"Node_416:0",dtype:float32,shape:[1, 128, 28, 28]}
    in_1 {name:"Node_422:0",dtype:float32,shape:[128, 128, 3, 3]}
    out_0 {name:"Node_423:0",dtype:float32,shape:[1, 128, 28, 28]}
    attrs {'strides': [1, 1], 'padding': [1, 1, 1, 1], 'dilation': [1, 1], 'groups': 1, 'channels': 128, 'kernel_size': [3, 3], 'data_layout': 'NCHW', 'kernel_layout': 'OIHW', 'out_layout': '', 'out_dtype': ''}
  }
}
layer {
  name:"Node_427"
  type:"relay_op_annotation_simulated_quantize"
  top:"Node_427"
  bottom:"Node_423"
  layer_param {
    idx:427
    in_0 {name:"Node_423:0",dtype:float32,shape:[1, 128, 28, 28]}
    out_0 {name:"Node_427:0",dtype:float32,shape:[1, 128, 28, 28]}
    attrs {'kind': 1, 'sign': 1, 'rounding': 'round', 'scale': 'Node_424:0', 'min': 'Node_425:0', 'max': 'Node_426:0'}
  }
}
layer {
  name:"Node_428"
  type:"annotation_cast_hint"
  top:"Node_428"
  bottom:"Node_427"
  layer_param {
    idx:428
    in_0 {name:"Node_427:0",dtype:float32,shape:[1, 128, 28, 28]}
    out_0 {name:"Node_428:0",dtype:float32,shape:[1, 128, 28, 28]}
    attrs {'dtype': 'int8'}
  }
}
layer {
  name:"Node_429"
  type:"annotation_stop_fusion"
  top:"Node_429"
  bottom:"Node_428"
  layer_param {
    idx:429
    in_0 {name:"Node_428:0",dtype:float32,shape:[1, 128, 28, 28]}
    out_0 {name:"Node_429:0",dtype:float32,shape:[1, 128, 28, 28]}
  }
}
layer {
  name:"Node_431"
  type:"const"
  top:"Node_431"
  layer_param {
    idx:431
    out_0 {name:"Node_431:0",dtype:float32,shape:[128, 1, 1]}
  }
}
layer {
  name:"Node_435"
  type:"relay_op_annotation_simulated_quantize"
  top:"Node_435"
  bottom:"Node_431"
  layer_param {
    idx:435
    in_0 {name:"Node_431:0",dtype:float32,shape:[128, 1, 1]}
    out_0 {name:"Node_435:0",dtype:float32,shape:[128, 1, 1]}
    attrs {'kind': 2, 'sign': 1, 'rounding': 'round', 'scale': 'Node_432:0', 'min': 'Node_433:0', 'max': 'Node_434:0'}
  }
}
layer {
  name:"Node_436"
  type:"multiply"
  top:"Node_436"
  bottom:"Node_429"
  bottom:"Node_435"
  layer_param {
    idx:436
    in_0 {name:"Node_429:0",dtype:float32,shape:[1, 128, 28, 28]}
    in_1 {name:"Node_435:0",dtype:float32,shape:[128, 1, 1]}
    out_0 {name:"Node_436:0",dtype:float32,shape:[1, 128, 28, 28]}
  }
}
layer {
  name:"Node_438"
  type:"const"
  top:"Node_438"
  layer_param {
    idx:438
    out_0 {name:"Node_438:0",dtype:float32,shape:[128, 1, 1]}
  }
}
layer {
  name:"Node_442"
  type:"relay_op_annotation_simulated_quantize"
  top:"Node_442"
  bottom:"Node_438"
  layer_param {
    idx:442
    in_0 {name:"Node_438:0",dtype:float32,shape:[128, 1, 1]}
    out_0 {name:"Node_442:0",dtype:float32,shape:[128, 1, 1]}
    attrs {'kind': 2, 'sign': 1, 'rounding': 'round', 'scale': 'Node_439:0', 'min': 'Node_440:0', 'max': 'Node_441:0'}
  }
}
layer {
  name:"Node_443"
  type:"add"
  top:"Node_443"
  bottom:"Node_436"
  bottom:"Node_442"
  layer_param {
    idx:443
    in_0 {name:"Node_436:0",dtype:float32,shape:[1, 128, 28, 28]}
    in_1 {name:"Node_442:0",dtype:float32,shape:[128, 1, 1]}
    out_0 {name:"Node_443:0",dtype:float32,shape:[1, 128, 28, 28]}
  }
}
layer {
  name:"Node_447"
  type:"relay_op_annotation_simulated_quantize"
  top:"Node_447"
  bottom:"Node_443"
  layer_param {
    idx:447
    in_0 {name:"Node_443:0",dtype:float32,shape:[1, 128, 28, 28]}
    out_0 {name:"Node_447:0",dtype:float32,shape:[1, 128, 28, 28]}
    attrs {'kind': 1, 'sign': 1, 'rounding': 'round', 'scale': 'Node_444:0', 'min': 'Node_445:0', 'max': 'Node_446:0'}
  }
}
layer {
  name:"Node_448"
  type:"annotation_cast_hint"
  top:"Node_448"
  bottom:"Node_447"
  layer_param {
    idx:448
    in_0 {name:"Node_447:0",dtype:float32,shape:[1, 128, 28, 28]}
    out_0 {name:"Node_448:0",dtype:float32,shape:[1, 128, 28, 28]}
    attrs {'dtype': 'int8'}
  }
}
layer {
  name:"Node_449"
  type:"annotation_stop_fusion"
  top:"Node_449"
  bottom:"Node_448"
  layer_param {
    idx:449
    in_0 {name:"Node_448:0",dtype:float32,shape:[1, 128, 28, 28]}
    out_0 {name:"Node_449:0",dtype:float32,shape:[1, 128, 28, 28]}
  }
}
layer {
  name:"Node_462"
  type:"annotation_cast_hint"
  top:"Node_462"
  bottom:"Node_380"
  layer_param {
    idx:462
    in_0 {name:"Node_380:0",dtype:float32,shape:[1, 64, 56, 56]}
    out_0 {name:"Node_462:0",dtype:float32,shape:[1, 64, 56, 56]}
    attrs {'dtype': 'int8'}
  }
}
layer {
  name:"Node_463"
  type:"annotation_stop_fusion"
  top:"Node_463"
  bottom:"Node_462"
  layer_param {
    idx:463
    in_0 {name:"Node_462:0",dtype:float32,shape:[1, 64, 56, 56]}
    out_0 {name:"Node_463:0",dtype:float32,shape:[1, 64, 56, 56]}
  }
}
layer {
  name:"Node_465"
  type:"const"
  top:"Node_465"
  layer_param {
    idx:465
    out_0 {name:"Node_465:0",dtype:float32,shape:[128, 64, 1, 1]}
  }
}
layer {
  name:"Node_469"
  type:"relay_op_annotation_simulated_quantize"
  top:"Node_469"
  bottom:"Node_465"
  layer_param {
    idx:469
    in_0 {name:"Node_465:0",dtype:float32,shape:[128, 64, 1, 1]}
    out_0 {name:"Node_469:0",dtype:float32,shape:[128, 64, 1, 1]}
    attrs {'kind': 2, 'sign': 1, 'rounding': 'round', 'scale': 'Node_466:0', 'min': 'Node_467:0', 'max': 'Node_468:0'}
  }
}
layer {
  name:"Node_470"
  type:"nn_conv2d"
  top:"Node_470"
  bottom:"Node_463"
  bottom:"Node_469"
  layer_param {
    idx:470
    in_0 {name:"Node_463:0",dtype:float32,shape:[1, 64, 56, 56]}
    in_1 {name:"Node_469:0",dtype:float32,shape:[128, 64, 1, 1]}
    out_0 {name:"Node_470:0",dtype:float32,shape:[1, 128, 28, 28]}
    attrs {'strides': [2, 2], 'padding': [0, 0, 0, 0], 'dilation': [1, 1], 'groups': 1, 'channels': 128, 'kernel_size': [1, 1], 'data_layout': 'NCHW', 'kernel_layout': 'OIHW', 'out_layout': '', 'out_dtype': ''}
  }
}
layer {
  name:"Node_474"
  type:"relay_op_annotation_simulated_quantize"
  top:"Node_474"
  bottom:"Node_470"
  layer_param {
    idx:474
    in_0 {name:"Node_470:0",dtype:float32,shape:[1, 128, 28, 28]}
    out_0 {name:"Node_474:0",dtype:float32,shape:[1, 128, 28, 28]}
    attrs {'kind': 1, 'sign': 1, 'rounding': 'round', 'scale': 'Node_471:0', 'min': 'Node_472:0', 'max': 'Node_473:0'}
  }
}
layer {
  name:"Node_475"
  type:"annotation_cast_hint"
  top:"Node_475"
  bottom:"Node_474"
  layer_param {
    idx:475
    in_0 {name:"Node_474:0",dtype:float32,shape:[1, 128, 28, 28]}
    out_0 {name:"Node_475:0",dtype:float32,shape:[1, 128, 28, 28]}
    attrs {'dtype': 'int8'}
  }
}
layer {
  name:"Node_476"
  type:"annotation_stop_fusion"
  top:"Node_476"
  bottom:"Node_475"
  layer_param {
    idx:476
    in_0 {name:"Node_475:0",dtype:float32,shape:[1, 128, 28, 28]}
    out_0 {name:"Node_476:0",dtype:float32,shape:[1, 128, 28, 28]}
  }
}
layer {
  name:"Node_478"
  type:"const"
  top:"Node_478"
  layer_param {
    idx:478
    out_0 {name:"Node_478:0",dtype:float32,shape:[128, 1, 1]}
  }
}
layer {
  name:"Node_482"
  type:"relay_op_annotation_simulated_quantize"
  top:"Node_482"
  bottom:"Node_478"
  layer_param {
    idx:482
    in_0 {name:"Node_478:0",dtype:float32,shape:[128, 1, 1]}
    out_0 {name:"Node_482:0",dtype:float32,shape:[128, 1, 1]}
    attrs {'kind': 2, 'sign': 1, 'rounding': 'round', 'scale': 'Node_479:0', 'min': 'Node_480:0', 'max': 'Node_481:0'}
  }
}
layer {
  name:"Node_483"
  type:"multiply"
  top:"Node_483"
  bottom:"Node_476"
  bottom:"Node_482"
  layer_param {
    idx:483
    in_0 {name:"Node_476:0",dtype:float32,shape:[1, 128, 28, 28]}
    in_1 {name:"Node_482:0",dtype:float32,shape:[128, 1, 1]}
    out_0 {name:"Node_483:0",dtype:float32,shape:[1, 128, 28, 28]}
  }
}
layer {
  name:"Node_485"
  type:"const"
  top:"Node_485"
  layer_param {
    idx:485
    out_0 {name:"Node_485:0",dtype:float32,shape:[128, 1, 1]}
  }
}
layer {
  name:"Node_489"
  type:"relay_op_annotation_simulated_quantize"
  top:"Node_489"
  bottom:"Node_485"
  layer_param {
    idx:489
    in_0 {name:"Node_485:0",dtype:float32,shape:[128, 1, 1]}
    out_0 {name:"Node_489:0",dtype:float32,shape:[128, 1, 1]}
    attrs {'kind': 2, 'sign': 1, 'rounding': 'round', 'scale': 'Node_486:0', 'min': 'Node_487:0', 'max': 'Node_488:0'}
  }
}
layer {
  name:"Node_490"
  type:"add"
  top:"Node_490"
  bottom:"Node_483"
  bottom:"Node_489"
  layer_param {
    idx:490
    in_0 {name:"Node_483:0",dtype:float32,shape:[1, 128, 28, 28]}
    in_1 {name:"Node_489:0",dtype:float32,shape:[128, 1, 1]}
    out_0 {name:"Node_490:0",dtype:float32,shape:[1, 128, 28, 28]}
  }
}
layer {
  name:"Node_494"
  type:"relay_op_annotation_simulated_quantize"
  top:"Node_494"
  bottom:"Node_490"
  layer_param {
    idx:494
    in_0 {name:"Node_490:0",dtype:float32,shape:[1, 128, 28, 28]}
    out_0 {name:"Node_494:0",dtype:float32,shape:[1, 128, 28, 28]}
    attrs {'kind': 1, 'sign': 1, 'rounding': 'round', 'scale': 'Node_491:0', 'min': 'Node_492:0', 'max': 'Node_493:0'}
  }
}
layer {
  name:"Node_495"
  type:"annotation_cast_hint"
  top:"Node_495"
  bottom:"Node_494"
  layer_param {
    idx:495
    in_0 {name:"Node_494:0",dtype:float32,shape:[1, 128, 28, 28]}
    out_0 {name:"Node_495:0",dtype:float32,shape:[1, 128, 28, 28]}
    attrs {'dtype': 'int8'}
  }
}
layer {
  name:"Node_496"
  type:"annotation_stop_fusion"
  top:"Node_496"
  bottom:"Node_495"
  layer_param {
    idx:496
    in_0 {name:"Node_495:0",dtype:float32,shape:[1, 128, 28, 28]}
    out_0 {name:"Node_496:0",dtype:float32,shape:[1, 128, 28, 28]}
  }
}
layer {
  name:"Node_497"
  type:"add"
  top:"Node_497"
  bottom:"Node_449"
  bottom:"Node_496"
  layer_param {
    idx:497
    in_0 {name:"Node_449:0",dtype:float32,shape:[1, 128, 28, 28]}
    in_1 {name:"Node_496:0",dtype:float32,shape:[1, 128, 28, 28]}
    out_0 {name:"Node_497:0",dtype:float32,shape:[1, 128, 28, 28]}
  }
}
layer {
  name:"Node_498"
  type:"nn_relu"
  top:"Node_498"
  bottom:"Node_497"
  layer_param {
    idx:498
    in_0 {name:"Node_497:0",dtype:float32,shape:[1, 128, 28, 28]}
    out_0 {name:"Node_498:0",dtype:float32,shape:[1, 128, 28, 28]}
  }
}
layer {
  name:"Node_502"
  type:"relay_op_annotation_simulated_quantize"
  top:"Node_502"
  bottom:"Node_498"
  layer_param {
    idx:502
    in_0 {name:"Node_498:0",dtype:float32,shape:[1, 128, 28, 28]}
    out_0 {name:"Node_502:0",dtype:float32,shape:[1, 128, 28, 28]}
    attrs {'kind': 1, 'sign': 1, 'rounding': 'round', 'scale': 'Node_499:0', 'min': 'Node_500:0', 'max': 'Node_501:0'}
  }
}
layer {
  name:"Node_503"
  type:"annotation_cast_hint"
  top:"Node_503"
  bottom:"Node_502"
  layer_param {
    idx:503
    in_0 {name:"Node_502:0",dtype:float32,shape:[1, 128, 28, 28]}
    out_0 {name:"Node_503:0",dtype:float32,shape:[1, 128, 28, 28]}
    attrs {'dtype': 'int8'}
  }
}
layer {
  name:"Node_504"
  type:"annotation_stop_fusion"
  top:"Node_504"
  bottom:"Node_503"
  layer_param {
    idx:504
    in_0 {name:"Node_503:0",dtype:float32,shape:[1, 128, 28, 28]}
    out_0 {name:"Node_504:0",dtype:float32,shape:[1, 128, 28, 28]}
  }
}
layer {
  name:"Node_506"
  type:"const"
  top:"Node_506"
  layer_param {
    idx:506
    out_0 {name:"Node_506:0",dtype:float32,shape:[128, 128, 3, 3]}
  }
}
layer {
  name:"Node_510"
  type:"relay_op_annotation_simulated_quantize"
  top:"Node_510"
  bottom:"Node_506"
  layer_param {
    idx:510
    in_0 {name:"Node_506:0",dtype:float32,shape:[128, 128, 3, 3]}
    out_0 {name:"Node_510:0",dtype:float32,shape:[128, 128, 3, 3]}
    attrs {'kind': 2, 'sign': 1, 'rounding': 'round', 'scale': 'Node_507:0', 'min': 'Node_508:0', 'max': 'Node_509:0'}
  }
}
layer {
  name:"Node_511"
  type:"nn_conv2d"
  top:"Node_511"
  bottom:"Node_504"
  bottom:"Node_510"
  layer_param {
    idx:511
    in_0 {name:"Node_504:0",dtype:float32,shape:[1, 128, 28, 28]}
    in_1 {name:"Node_510:0",dtype:float32,shape:[128, 128, 3, 3]}
    out_0 {name:"Node_511:0",dtype:float32,shape:[1, 128, 28, 28]}
    attrs {'strides': [1, 1], 'padding': [1, 1, 1, 1], 'dilation': [1, 1], 'groups': 1, 'channels': 128, 'kernel_size': [3, 3], 'data_layout': 'NCHW', 'kernel_layout': 'OIHW', 'out_layout': '', 'out_dtype': ''}
  }
}
layer {
  name:"Node_515"
  type:"relay_op_annotation_simulated_quantize"
  top:"Node_515"
  bottom:"Node_511"
  layer_param {
    idx:515
    in_0 {name:"Node_511:0",dtype:float32,shape:[1, 128, 28, 28]}
    out_0 {name:"Node_515:0",dtype:float32,shape:[1, 128, 28, 28]}
    attrs {'kind': 1, 'sign': 1, 'rounding': 'round', 'scale': 'Node_512:0', 'min': 'Node_513:0', 'max': 'Node_514:0'}
  }
}
layer {
  name:"Node_516"
  type:"annotation_cast_hint"
  top:"Node_516"
  bottom:"Node_515"
  layer_param {
    idx:516
    in_0 {name:"Node_515:0",dtype:float32,shape:[1, 128, 28, 28]}
    out_0 {name:"Node_516:0",dtype:float32,shape:[1, 128, 28, 28]}
    attrs {'dtype': 'int8'}
  }
}
layer {
  name:"Node_517"
  type:"annotation_stop_fusion"
  top:"Node_517"
  bottom:"Node_516"
  layer_param {
    idx:517
    in_0 {name:"Node_516:0",dtype:float32,shape:[1, 128, 28, 28]}
    out_0 {name:"Node_517:0",dtype:float32,shape:[1, 128, 28, 28]}
  }
}
layer {
  name:"Node_519"
  type:"const"
  top:"Node_519"
  layer_param {
    idx:519
    out_0 {name:"Node_519:0",dtype:float32,shape:[128, 1, 1]}
  }
}
layer {
  name:"Node_523"
  type:"relay_op_annotation_simulated_quantize"
  top:"Node_523"
  bottom:"Node_519"
  layer_param {
    idx:523
    in_0 {name:"Node_519:0",dtype:float32,shape:[128, 1, 1]}
    out_0 {name:"Node_523:0",dtype:float32,shape:[128, 1, 1]}
    attrs {'kind': 2, 'sign': 1, 'rounding': 'round', 'scale': 'Node_520:0', 'min': 'Node_521:0', 'max': 'Node_522:0'}
  }
}
layer {
  name:"Node_524"
  type:"multiply"
  top:"Node_524"
  bottom:"Node_517"
  bottom:"Node_523"
  layer_param {
    idx:524
    in_0 {name:"Node_517:0",dtype:float32,shape:[1, 128, 28, 28]}
    in_1 {name:"Node_523:0",dtype:float32,shape:[128, 1, 1]}
    out_0 {name:"Node_524:0",dtype:float32,shape:[1, 128, 28, 28]}
  }
}
layer {
  name:"Node_526"
  type:"const"
  top:"Node_526"
  layer_param {
    idx:526
    out_0 {name:"Node_526:0",dtype:float32,shape:[128, 1, 1]}
  }
}
layer {
  name:"Node_530"
  type:"relay_op_annotation_simulated_quantize"
  top:"Node_530"
  bottom:"Node_526"
  layer_param {
    idx:530
    in_0 {name:"Node_526:0",dtype:float32,shape:[128, 1, 1]}
    out_0 {name:"Node_530:0",dtype:float32,shape:[128, 1, 1]}
    attrs {'kind': 2, 'sign': 1, 'rounding': 'round', 'scale': 'Node_527:0', 'min': 'Node_528:0', 'max': 'Node_529:0'}
  }
}
layer {
  name:"Node_531"
  type:"add"
  top:"Node_531"
  bottom:"Node_524"
  bottom:"Node_530"
  layer_param {
    idx:531
    in_0 {name:"Node_524:0",dtype:float32,shape:[1, 128, 28, 28]}
    in_1 {name:"Node_530:0",dtype:float32,shape:[128, 1, 1]}
    out_0 {name:"Node_531:0",dtype:float32,shape:[1, 128, 28, 28]}
  }
}
layer {
  name:"Node_532"
  type:"nn_relu"
  top:"Node_532"
  bottom:"Node_531"
  layer_param {
    idx:532
    in_0 {name:"Node_531:0",dtype:float32,shape:[1, 128, 28, 28]}
    out_0 {name:"Node_532:0",dtype:float32,shape:[1, 128, 28, 28]}
  }
}
layer {
  name:"Node_536"
  type:"relay_op_annotation_simulated_quantize"
  top:"Node_536"
  bottom:"Node_532"
  layer_param {
    idx:536
    in_0 {name:"Node_532:0",dtype:float32,shape:[1, 128, 28, 28]}
    out_0 {name:"Node_536:0",dtype:float32,shape:[1, 128, 28, 28]}
    attrs {'kind': 1, 'sign': 1, 'rounding': 'round', 'scale': 'Node_533:0', 'min': 'Node_534:0', 'max': 'Node_535:0'}
  }
}
layer {
  name:"Node_537"
  type:"annotation_cast_hint"
  top:"Node_537"
  bottom:"Node_536"
  layer_param {
    idx:537
    in_0 {name:"Node_536:0",dtype:float32,shape:[1, 128, 28, 28]}
    out_0 {name:"Node_537:0",dtype:float32,shape:[1, 128, 28, 28]}
    attrs {'dtype': 'int8'}
  }
}
layer {
  name:"Node_538"
  type:"annotation_stop_fusion"
  top:"Node_538"
  bottom:"Node_537"
  layer_param {
    idx:538
    in_0 {name:"Node_537:0",dtype:float32,shape:[1, 128, 28, 28]}
    out_0 {name:"Node_538:0",dtype:float32,shape:[1, 128, 28, 28]}
  }
}
layer {
  name:"Node_540"
  type:"const"
  top:"Node_540"
  layer_param {
    idx:540
    out_0 {name:"Node_540:0",dtype:float32,shape:[128, 128, 3, 3]}
  }
}
layer {
  name:"Node_544"
  type:"relay_op_annotation_simulated_quantize"
  top:"Node_544"
  bottom:"Node_540"
  layer_param {
    idx:544
    in_0 {name:"Node_540:0",dtype:float32,shape:[128, 128, 3, 3]}
    out_0 {name:"Node_544:0",dtype:float32,shape:[128, 128, 3, 3]}
    attrs {'kind': 2, 'sign': 1, 'rounding': 'round', 'scale': 'Node_541:0', 'min': 'Node_542:0', 'max': 'Node_543:0'}
  }
}
layer {
  name:"Node_545"
  type:"nn_conv2d"
  top:"Node_545"
  bottom:"Node_538"
  bottom:"Node_544"
  layer_param {
    idx:545
    in_0 {name:"Node_538:0",dtype:float32,shape:[1, 128, 28, 28]}
    in_1 {name:"Node_544:0",dtype:float32,shape:[128, 128, 3, 3]}
    out_0 {name:"Node_545:0",dtype:float32,shape:[1, 128, 28, 28]}
    attrs {'strides': [1, 1], 'padding': [1, 1, 1, 1], 'dilation': [1, 1], 'groups': 1, 'channels': 128, 'kernel_size': [3, 3], 'data_layout': 'NCHW', 'kernel_layout': 'OIHW', 'out_layout': '', 'out_dtype': ''}
  }
}
layer {
  name:"Node_549"
  type:"relay_op_annotation_simulated_quantize"
  top:"Node_549"
  bottom:"Node_545"
  layer_param {
    idx:549
    in_0 {name:"Node_545:0",dtype:float32,shape:[1, 128, 28, 28]}
    out_0 {name:"Node_549:0",dtype:float32,shape:[1, 128, 28, 28]}
    attrs {'kind': 1, 'sign': 1, 'rounding': 'round', 'scale': 'Node_546:0', 'min': 'Node_547:0', 'max': 'Node_548:0'}
  }
}
layer {
  name:"Node_550"
  type:"annotation_cast_hint"
  top:"Node_550"
  bottom:"Node_549"
  layer_param {
    idx:550
    in_0 {name:"Node_549:0",dtype:float32,shape:[1, 128, 28, 28]}
    out_0 {name:"Node_550:0",dtype:float32,shape:[1, 128, 28, 28]}
    attrs {'dtype': 'int8'}
  }
}
layer {
  name:"Node_551"
  type:"annotation_stop_fusion"
  top:"Node_551"
  bottom:"Node_550"
  layer_param {
    idx:551
    in_0 {name:"Node_550:0",dtype:float32,shape:[1, 128, 28, 28]}
    out_0 {name:"Node_551:0",dtype:float32,shape:[1, 128, 28, 28]}
  }
}
layer {
  name:"Node_553"
  type:"const"
  top:"Node_553"
  layer_param {
    idx:553
    out_0 {name:"Node_553:0",dtype:float32,shape:[128, 1, 1]}
  }
}
layer {
  name:"Node_557"
  type:"relay_op_annotation_simulated_quantize"
  top:"Node_557"
  bottom:"Node_553"
  layer_param {
    idx:557
    in_0 {name:"Node_553:0",dtype:float32,shape:[128, 1, 1]}
    out_0 {name:"Node_557:0",dtype:float32,shape:[128, 1, 1]}
    attrs {'kind': 2, 'sign': 1, 'rounding': 'round', 'scale': 'Node_554:0', 'min': 'Node_555:0', 'max': 'Node_556:0'}
  }
}
layer {
  name:"Node_558"
  type:"multiply"
  top:"Node_558"
  bottom:"Node_551"
  bottom:"Node_557"
  layer_param {
    idx:558
    in_0 {name:"Node_551:0",dtype:float32,shape:[1, 128, 28, 28]}
    in_1 {name:"Node_557:0",dtype:float32,shape:[128, 1, 1]}
    out_0 {name:"Node_558:0",dtype:float32,shape:[1, 128, 28, 28]}
  }
}
layer {
  name:"Node_560"
  type:"const"
  top:"Node_560"
  layer_param {
    idx:560
    out_0 {name:"Node_560:0",dtype:float32,shape:[128, 1, 1]}
  }
}
layer {
  name:"Node_564"
  type:"relay_op_annotation_simulated_quantize"
  top:"Node_564"
  bottom:"Node_560"
  layer_param {
    idx:564
    in_0 {name:"Node_560:0",dtype:float32,shape:[128, 1, 1]}
    out_0 {name:"Node_564:0",dtype:float32,shape:[128, 1, 1]}
    attrs {'kind': 2, 'sign': 1, 'rounding': 'round', 'scale': 'Node_561:0', 'min': 'Node_562:0', 'max': 'Node_563:0'}
  }
}
layer {
  name:"Node_565"
  type:"add"
  top:"Node_565"
  bottom:"Node_558"
  bottom:"Node_564"
  layer_param {
    idx:565
    in_0 {name:"Node_558:0",dtype:float32,shape:[1, 128, 28, 28]}
    in_1 {name:"Node_564:0",dtype:float32,shape:[128, 1, 1]}
    out_0 {name:"Node_565:0",dtype:float32,shape:[1, 128, 28, 28]}
  }
}
layer {
  name:"Node_569"
  type:"relay_op_annotation_simulated_quantize"
  top:"Node_569"
  bottom:"Node_565"
  layer_param {
    idx:569
    in_0 {name:"Node_565:0",dtype:float32,shape:[1, 128, 28, 28]}
    out_0 {name:"Node_569:0",dtype:float32,shape:[1, 128, 28, 28]}
    attrs {'kind': 1, 'sign': 1, 'rounding': 'round', 'scale': 'Node_566:0', 'min': 'Node_567:0', 'max': 'Node_568:0'}
  }
}
layer {
  name:"Node_570"
  type:"annotation_cast_hint"
  top:"Node_570"
  bottom:"Node_569"
  layer_param {
    idx:570
    in_0 {name:"Node_569:0",dtype:float32,shape:[1, 128, 28, 28]}
    out_0 {name:"Node_570:0",dtype:float32,shape:[1, 128, 28, 28]}
    attrs {'dtype': 'int8'}
  }
}
layer {
  name:"Node_571"
  type:"annotation_stop_fusion"
  top:"Node_571"
  bottom:"Node_570"
  layer_param {
    idx:571
    in_0 {name:"Node_570:0",dtype:float32,shape:[1, 128, 28, 28]}
    out_0 {name:"Node_571:0",dtype:float32,shape:[1, 128, 28, 28]}
  }
}
layer {
  name:"Node_575"
  type:"annotation_cast_hint"
  top:"Node_575"
  bottom:"Node_502"
  layer_param {
    idx:575
    in_0 {name:"Node_502:0",dtype:float32,shape:[1, 128, 28, 28]}
    out_0 {name:"Node_575:0",dtype:float32,shape:[1, 128, 28, 28]}
    attrs {'dtype': 'int8'}
  }
}
layer {
  name:"Node_576"
  type:"annotation_stop_fusion"
  top:"Node_576"
  bottom:"Node_575"
  layer_param {
    idx:576
    in_0 {name:"Node_575:0",dtype:float32,shape:[1, 128, 28, 28]}
    out_0 {name:"Node_576:0",dtype:float32,shape:[1, 128, 28, 28]}
  }
}
layer {
  name:"Node_577"
  type:"add"
  top:"Node_577"
  bottom:"Node_571"
  bottom:"Node_576"
  layer_param {
    idx:577
    in_0 {name:"Node_571:0",dtype:float32,shape:[1, 128, 28, 28]}
    in_1 {name:"Node_576:0",dtype:float32,shape:[1, 128, 28, 28]}
    out_0 {name:"Node_577:0",dtype:float32,shape:[1, 128, 28, 28]}
  }
}
layer {
  name:"Node_578"
  type:"nn_relu"
  top:"Node_578"
  bottom:"Node_577"
  layer_param {
    idx:578
    in_0 {name:"Node_577:0",dtype:float32,shape:[1, 128, 28, 28]}
    out_0 {name:"Node_578:0",dtype:float32,shape:[1, 128, 28, 28]}
  }
}
layer {
  name:"Node_582"
  type:"relay_op_annotation_simulated_quantize"
  top:"Node_582"
  bottom:"Node_578"
  layer_param {
    idx:582
    in_0 {name:"Node_578:0",dtype:float32,shape:[1, 128, 28, 28]}
    out_0 {name:"Node_582:0",dtype:float32,shape:[1, 128, 28, 28]}
    attrs {'kind': 1, 'sign': 1, 'rounding': 'round', 'scale': 'Node_579:0', 'min': 'Node_580:0', 'max': 'Node_581:0'}
  }
}
layer {
  name:"Node_583"
  type:"annotation_cast_hint"
  top:"Node_583"
  bottom:"Node_582"
  layer_param {
    idx:583
    in_0 {name:"Node_582:0",dtype:float32,shape:[1, 128, 28, 28]}
    out_0 {name:"Node_583:0",dtype:float32,shape:[1, 128, 28, 28]}
    attrs {'dtype': 'int8'}
  }
}
layer {
  name:"Node_584"
  type:"annotation_stop_fusion"
  top:"Node_584"
  bottom:"Node_583"
  layer_param {
    idx:584
    in_0 {name:"Node_583:0",dtype:float32,shape:[1, 128, 28, 28]}
    out_0 {name:"Node_584:0",dtype:float32,shape:[1, 128, 28, 28]}
  }
}
layer {
  name:"Node_586"
  type:"const"
  top:"Node_586"
  layer_param {
    idx:586
    out_0 {name:"Node_586:0",dtype:float32,shape:[256, 128, 3, 3]}
  }
}
layer {
  name:"Node_590"
  type:"relay_op_annotation_simulated_quantize"
  top:"Node_590"
  bottom:"Node_586"
  layer_param {
    idx:590
    in_0 {name:"Node_586:0",dtype:float32,shape:[256, 128, 3, 3]}
    out_0 {name:"Node_590:0",dtype:float32,shape:[256, 128, 3, 3]}
    attrs {'kind': 2, 'sign': 1, 'rounding': 'round', 'scale': 'Node_587:0', 'min': 'Node_588:0', 'max': 'Node_589:0'}
  }
}
layer {
  name:"Node_591"
  type:"nn_conv2d"
  top:"Node_591"
  bottom:"Node_584"
  bottom:"Node_590"
  layer_param {
    idx:591
    in_0 {name:"Node_584:0",dtype:float32,shape:[1, 128, 28, 28]}
    in_1 {name:"Node_590:0",dtype:float32,shape:[256, 128, 3, 3]}
    out_0 {name:"Node_591:0",dtype:float32,shape:[1, 256, 14, 14]}
    attrs {'strides': [2, 2], 'padding': [1, 1, 1, 1], 'dilation': [1, 1], 'groups': 1, 'channels': 256, 'kernel_size': [3, 3], 'data_layout': 'NCHW', 'kernel_layout': 'OIHW', 'out_layout': '', 'out_dtype': ''}
  }
}
layer {
  name:"Node_595"
  type:"relay_op_annotation_simulated_quantize"
  top:"Node_595"
  bottom:"Node_591"
  layer_param {
    idx:595
    in_0 {name:"Node_591:0",dtype:float32,shape:[1, 256, 14, 14]}
    out_0 {name:"Node_595:0",dtype:float32,shape:[1, 256, 14, 14]}
    attrs {'kind': 1, 'sign': 1, 'rounding': 'round', 'scale': 'Node_592:0', 'min': 'Node_593:0', 'max': 'Node_594:0'}
  }
}
layer {
  name:"Node_596"
  type:"annotation_cast_hint"
  top:"Node_596"
  bottom:"Node_595"
  layer_param {
    idx:596
    in_0 {name:"Node_595:0",dtype:float32,shape:[1, 256, 14, 14]}
    out_0 {name:"Node_596:0",dtype:float32,shape:[1, 256, 14, 14]}
    attrs {'dtype': 'int8'}
  }
}
layer {
  name:"Node_597"
  type:"annotation_stop_fusion"
  top:"Node_597"
  bottom:"Node_596"
  layer_param {
    idx:597
    in_0 {name:"Node_596:0",dtype:float32,shape:[1, 256, 14, 14]}
    out_0 {name:"Node_597:0",dtype:float32,shape:[1, 256, 14, 14]}
  }
}
layer {
  name:"Node_599"
  type:"const"
  top:"Node_599"
  layer_param {
    idx:599
    out_0 {name:"Node_599:0",dtype:float32,shape:[256, 1, 1]}
  }
}
layer {
  name:"Node_603"
  type:"relay_op_annotation_simulated_quantize"
  top:"Node_603"
  bottom:"Node_599"
  layer_param {
    idx:603
    in_0 {name:"Node_599:0",dtype:float32,shape:[256, 1, 1]}
    out_0 {name:"Node_603:0",dtype:float32,shape:[256, 1, 1]}
    attrs {'kind': 2, 'sign': 1, 'rounding': 'round', 'scale': 'Node_600:0', 'min': 'Node_601:0', 'max': 'Node_602:0'}
  }
}
layer {
  name:"Node_604"
  type:"multiply"
  top:"Node_604"
  bottom:"Node_597"
  bottom:"Node_603"
  layer_param {
    idx:604
    in_0 {name:"Node_597:0",dtype:float32,shape:[1, 256, 14, 14]}
    in_1 {name:"Node_603:0",dtype:float32,shape:[256, 1, 1]}
    out_0 {name:"Node_604:0",dtype:float32,shape:[1, 256, 14, 14]}
  }
}
layer {
  name:"Node_606"
  type:"const"
  top:"Node_606"
  layer_param {
    idx:606
    out_0 {name:"Node_606:0",dtype:float32,shape:[256, 1, 1]}
  }
}
layer {
  name:"Node_610"
  type:"relay_op_annotation_simulated_quantize"
  top:"Node_610"
  bottom:"Node_606"
  layer_param {
    idx:610
    in_0 {name:"Node_606:0",dtype:float32,shape:[256, 1, 1]}
    out_0 {name:"Node_610:0",dtype:float32,shape:[256, 1, 1]}
    attrs {'kind': 2, 'sign': 1, 'rounding': 'round', 'scale': 'Node_607:0', 'min': 'Node_608:0', 'max': 'Node_609:0'}
  }
}
layer {
  name:"Node_611"
  type:"add"
  top:"Node_611"
  bottom:"Node_604"
  bottom:"Node_610"
  layer_param {
    idx:611
    in_0 {name:"Node_604:0",dtype:float32,shape:[1, 256, 14, 14]}
    in_1 {name:"Node_610:0",dtype:float32,shape:[256, 1, 1]}
    out_0 {name:"Node_611:0",dtype:float32,shape:[1, 256, 14, 14]}
  }
}
layer {
  name:"Node_612"
  type:"nn_relu"
  top:"Node_612"
  bottom:"Node_611"
  layer_param {
    idx:612
    in_0 {name:"Node_611:0",dtype:float32,shape:[1, 256, 14, 14]}
    out_0 {name:"Node_612:0",dtype:float32,shape:[1, 256, 14, 14]}
  }
}
layer {
  name:"Node_616"
  type:"relay_op_annotation_simulated_quantize"
  top:"Node_616"
  bottom:"Node_612"
  layer_param {
    idx:616
    in_0 {name:"Node_612:0",dtype:float32,shape:[1, 256, 14, 14]}
    out_0 {name:"Node_616:0",dtype:float32,shape:[1, 256, 14, 14]}
    attrs {'kind': 1, 'sign': 1, 'rounding': 'round', 'scale': 'Node_613:0', 'min': 'Node_614:0', 'max': 'Node_615:0'}
  }
}
layer {
  name:"Node_617"
  type:"annotation_cast_hint"
  top:"Node_617"
  bottom:"Node_616"
  layer_param {
    idx:617
    in_0 {name:"Node_616:0",dtype:float32,shape:[1, 256, 14, 14]}
    out_0 {name:"Node_617:0",dtype:float32,shape:[1, 256, 14, 14]}
    attrs {'dtype': 'int8'}
  }
}
layer {
  name:"Node_618"
  type:"annotation_stop_fusion"
  top:"Node_618"
  bottom:"Node_617"
  layer_param {
    idx:618
    in_0 {name:"Node_617:0",dtype:float32,shape:[1, 256, 14, 14]}
    out_0 {name:"Node_618:0",dtype:float32,shape:[1, 256, 14, 14]}
  }
}
layer {
  name:"Node_620"
  type:"const"
  top:"Node_620"
  layer_param {
    idx:620
    out_0 {name:"Node_620:0",dtype:float32,shape:[256, 256, 3, 3]}
  }
}
layer {
  name:"Node_624"
  type:"relay_op_annotation_simulated_quantize"
  top:"Node_624"
  bottom:"Node_620"
  layer_param {
    idx:624
    in_0 {name:"Node_620:0",dtype:float32,shape:[256, 256, 3, 3]}
    out_0 {name:"Node_624:0",dtype:float32,shape:[256, 256, 3, 3]}
    attrs {'kind': 2, 'sign': 1, 'rounding': 'round', 'scale': 'Node_621:0', 'min': 'Node_622:0', 'max': 'Node_623:0'}
  }
}
layer {
  name:"Node_625"
  type:"nn_conv2d"
  top:"Node_625"
  bottom:"Node_618"
  bottom:"Node_624"
  layer_param {
    idx:625
    in_0 {name:"Node_618:0",dtype:float32,shape:[1, 256, 14, 14]}
    in_1 {name:"Node_624:0",dtype:float32,shape:[256, 256, 3, 3]}
    out_0 {name:"Node_625:0",dtype:float32,shape:[1, 256, 14, 14]}
    attrs {'strides': [1, 1], 'padding': [1, 1, 1, 1], 'dilation': [1, 1], 'groups': 1, 'channels': 256, 'kernel_size': [3, 3], 'data_layout': 'NCHW', 'kernel_layout': 'OIHW', 'out_layout': '', 'out_dtype': ''}
  }
}
layer {
  name:"Node_629"
  type:"relay_op_annotation_simulated_quantize"
  top:"Node_629"
  bottom:"Node_625"
  layer_param {
    idx:629
    in_0 {name:"Node_625:0",dtype:float32,shape:[1, 256, 14, 14]}
    out_0 {name:"Node_629:0",dtype:float32,shape:[1, 256, 14, 14]}
    attrs {'kind': 1, 'sign': 1, 'rounding': 'round', 'scale': 'Node_626:0', 'min': 'Node_627:0', 'max': 'Node_628:0'}
  }
}
layer {
  name:"Node_630"
  type:"annotation_cast_hint"
  top:"Node_630"
  bottom:"Node_629"
  layer_param {
    idx:630
    in_0 {name:"Node_629:0",dtype:float32,shape:[1, 256, 14, 14]}
    out_0 {name:"Node_630:0",dtype:float32,shape:[1, 256, 14, 14]}
    attrs {'dtype': 'int8'}
  }
}
layer {
  name:"Node_631"
  type:"annotation_stop_fusion"
  top:"Node_631"
  bottom:"Node_630"
  layer_param {
    idx:631
    in_0 {name:"Node_630:0",dtype:float32,shape:[1, 256, 14, 14]}
    out_0 {name:"Node_631:0",dtype:float32,shape:[1, 256, 14, 14]}
  }
}
layer {
  name:"Node_633"
  type:"const"
  top:"Node_633"
  layer_param {
    idx:633
    out_0 {name:"Node_633:0",dtype:float32,shape:[256, 1, 1]}
  }
}
layer {
  name:"Node_637"
  type:"relay_op_annotation_simulated_quantize"
  top:"Node_637"
  bottom:"Node_633"
  layer_param {
    idx:637
    in_0 {name:"Node_633:0",dtype:float32,shape:[256, 1, 1]}
    out_0 {name:"Node_637:0",dtype:float32,shape:[256, 1, 1]}
    attrs {'kind': 2, 'sign': 1, 'rounding': 'round', 'scale': 'Node_634:0', 'min': 'Node_635:0', 'max': 'Node_636:0'}
  }
}
layer {
  name:"Node_638"
  type:"multiply"
  top:"Node_638"
  bottom:"Node_631"
  bottom:"Node_637"
  layer_param {
    idx:638
    in_0 {name:"Node_631:0",dtype:float32,shape:[1, 256, 14, 14]}
    in_1 {name:"Node_637:0",dtype:float32,shape:[256, 1, 1]}
    out_0 {name:"Node_638:0",dtype:float32,shape:[1, 256, 14, 14]}
  }
}
layer {
  name:"Node_640"
  type:"const"
  top:"Node_640"
  layer_param {
    idx:640
    out_0 {name:"Node_640:0",dtype:float32,shape:[256, 1, 1]}
  }
}
layer {
  name:"Node_644"
  type:"relay_op_annotation_simulated_quantize"
  top:"Node_644"
  bottom:"Node_640"
  layer_param {
    idx:644
    in_0 {name:"Node_640:0",dtype:float32,shape:[256, 1, 1]}
    out_0 {name:"Node_644:0",dtype:float32,shape:[256, 1, 1]}
    attrs {'kind': 2, 'sign': 1, 'rounding': 'round', 'scale': 'Node_641:0', 'min': 'Node_642:0', 'max': 'Node_643:0'}
  }
}
layer {
  name:"Node_645"
  type:"add"
  top:"Node_645"
  bottom:"Node_638"
  bottom:"Node_644"
  layer_param {
    idx:645
    in_0 {name:"Node_638:0",dtype:float32,shape:[1, 256, 14, 14]}
    in_1 {name:"Node_644:0",dtype:float32,shape:[256, 1, 1]}
    out_0 {name:"Node_645:0",dtype:float32,shape:[1, 256, 14, 14]}
  }
}
layer {
  name:"Node_649"
  type:"relay_op_annotation_simulated_quantize"
  top:"Node_649"
  bottom:"Node_645"
  layer_param {
    idx:649
    in_0 {name:"Node_645:0",dtype:float32,shape:[1, 256, 14, 14]}
    out_0 {name:"Node_649:0",dtype:float32,shape:[1, 256, 14, 14]}
    attrs {'kind': 1, 'sign': 1, 'rounding': 'round', 'scale': 'Node_646:0', 'min': 'Node_647:0', 'max': 'Node_648:0'}
  }
}
layer {
  name:"Node_650"
  type:"annotation_cast_hint"
  top:"Node_650"
  bottom:"Node_649"
  layer_param {
    idx:650
    in_0 {name:"Node_649:0",dtype:float32,shape:[1, 256, 14, 14]}
    out_0 {name:"Node_650:0",dtype:float32,shape:[1, 256, 14, 14]}
    attrs {'dtype': 'int8'}
  }
}
layer {
  name:"Node_651"
  type:"annotation_stop_fusion"
  top:"Node_651"
  bottom:"Node_650"
  layer_param {
    idx:651
    in_0 {name:"Node_650:0",dtype:float32,shape:[1, 256, 14, 14]}
    out_0 {name:"Node_651:0",dtype:float32,shape:[1, 256, 14, 14]}
  }
}
layer {
  name:"Node_664"
  type:"annotation_cast_hint"
  top:"Node_664"
  bottom:"Node_582"
  layer_param {
    idx:664
    in_0 {name:"Node_582:0",dtype:float32,shape:[1, 128, 28, 28]}
    out_0 {name:"Node_664:0",dtype:float32,shape:[1, 128, 28, 28]}
    attrs {'dtype': 'int8'}
  }
}
layer {
  name:"Node_665"
  type:"annotation_stop_fusion"
  top:"Node_665"
  bottom:"Node_664"
  layer_param {
    idx:665
    in_0 {name:"Node_664:0",dtype:float32,shape:[1, 128, 28, 28]}
    out_0 {name:"Node_665:0",dtype:float32,shape:[1, 128, 28, 28]}
  }
}
layer {
  name:"Node_667"
  type:"const"
  top:"Node_667"
  layer_param {
    idx:667
    out_0 {name:"Node_667:0",dtype:float32,shape:[256, 128, 1, 1]}
  }
}
layer {
  name:"Node_671"
  type:"relay_op_annotation_simulated_quantize"
  top:"Node_671"
  bottom:"Node_667"
  layer_param {
    idx:671
    in_0 {name:"Node_667:0",dtype:float32,shape:[256, 128, 1, 1]}
    out_0 {name:"Node_671:0",dtype:float32,shape:[256, 128, 1, 1]}
    attrs {'kind': 2, 'sign': 1, 'rounding': 'round', 'scale': 'Node_668:0', 'min': 'Node_669:0', 'max': 'Node_670:0'}
  }
}
layer {
  name:"Node_672"
  type:"nn_conv2d"
  top:"Node_672"
  bottom:"Node_665"
  bottom:"Node_671"
  layer_param {
    idx:672
    in_0 {name:"Node_665:0",dtype:float32,shape:[1, 128, 28, 28]}
    in_1 {name:"Node_671:0",dtype:float32,shape:[256, 128, 1, 1]}
    out_0 {name:"Node_672:0",dtype:float32,shape:[1, 256, 14, 14]}
    attrs {'strides': [2, 2], 'padding': [0, 0, 0, 0], 'dilation': [1, 1], 'groups': 1, 'channels': 256, 'kernel_size': [1, 1], 'data_layout': 'NCHW', 'kernel_layout': 'OIHW', 'out_layout': '', 'out_dtype': ''}
  }
}
layer {
  name:"Node_676"
  type:"relay_op_annotation_simulated_quantize"
  top:"Node_676"
  bottom:"Node_672"
  layer_param {
    idx:676
    in_0 {name:"Node_672:0",dtype:float32,shape:[1, 256, 14, 14]}
    out_0 {name:"Node_676:0",dtype:float32,shape:[1, 256, 14, 14]}
    attrs {'kind': 1, 'sign': 1, 'rounding': 'round', 'scale': 'Node_673:0', 'min': 'Node_674:0', 'max': 'Node_675:0'}
  }
}
layer {
  name:"Node_677"
  type:"annotation_cast_hint"
  top:"Node_677"
  bottom:"Node_676"
  layer_param {
    idx:677
    in_0 {name:"Node_676:0",dtype:float32,shape:[1, 256, 14, 14]}
    out_0 {name:"Node_677:0",dtype:float32,shape:[1, 256, 14, 14]}
    attrs {'dtype': 'int8'}
  }
}
layer {
  name:"Node_678"
  type:"annotation_stop_fusion"
  top:"Node_678"
  bottom:"Node_677"
  layer_param {
    idx:678
    in_0 {name:"Node_677:0",dtype:float32,shape:[1, 256, 14, 14]}
    out_0 {name:"Node_678:0",dtype:float32,shape:[1, 256, 14, 14]}
  }
}
layer {
  name:"Node_680"
  type:"const"
  top:"Node_680"
  layer_param {
    idx:680
    out_0 {name:"Node_680:0",dtype:float32,shape:[256, 1, 1]}
  }
}
layer {
  name:"Node_684"
  type:"relay_op_annotation_simulated_quantize"
  top:"Node_684"
  bottom:"Node_680"
  layer_param {
    idx:684
    in_0 {name:"Node_680:0",dtype:float32,shape:[256, 1, 1]}
    out_0 {name:"Node_684:0",dtype:float32,shape:[256, 1, 1]}
    attrs {'kind': 2, 'sign': 1, 'rounding': 'round', 'scale': 'Node_681:0', 'min': 'Node_682:0', 'max': 'Node_683:0'}
  }
}
layer {
  name:"Node_685"
  type:"multiply"
  top:"Node_685"
  bottom:"Node_678"
  bottom:"Node_684"
  layer_param {
    idx:685
    in_0 {name:"Node_678:0",dtype:float32,shape:[1, 256, 14, 14]}
    in_1 {name:"Node_684:0",dtype:float32,shape:[256, 1, 1]}
    out_0 {name:"Node_685:0",dtype:float32,shape:[1, 256, 14, 14]}
  }
}
layer {
  name:"Node_687"
  type:"const"
  top:"Node_687"
  layer_param {
    idx:687
    out_0 {name:"Node_687:0",dtype:float32,shape:[256, 1, 1]}
  }
}
layer {
  name:"Node_691"
  type:"relay_op_annotation_simulated_quantize"
  top:"Node_691"
  bottom:"Node_687"
  layer_param {
    idx:691
    in_0 {name:"Node_687:0",dtype:float32,shape:[256, 1, 1]}
    out_0 {name:"Node_691:0",dtype:float32,shape:[256, 1, 1]}
    attrs {'kind': 2, 'sign': 1, 'rounding': 'round', 'scale': 'Node_688:0', 'min': 'Node_689:0', 'max': 'Node_690:0'}
  }
}
layer {
  name:"Node_692"
  type:"add"
  top:"Node_692"
  bottom:"Node_685"
  bottom:"Node_691"
  layer_param {
    idx:692
    in_0 {name:"Node_685:0",dtype:float32,shape:[1, 256, 14, 14]}
    in_1 {name:"Node_691:0",dtype:float32,shape:[256, 1, 1]}
    out_0 {name:"Node_692:0",dtype:float32,shape:[1, 256, 14, 14]}
  }
}
layer {
  name:"Node_696"
  type:"relay_op_annotation_simulated_quantize"
  top:"Node_696"
  bottom:"Node_692"
  layer_param {
    idx:696
    in_0 {name:"Node_692:0",dtype:float32,shape:[1, 256, 14, 14]}
    out_0 {name:"Node_696:0",dtype:float32,shape:[1, 256, 14, 14]}
    attrs {'kind': 1, 'sign': 1, 'rounding': 'round', 'scale': 'Node_693:0', 'min': 'Node_694:0', 'max': 'Node_695:0'}
  }
}
layer {
  name:"Node_697"
  type:"annotation_cast_hint"
  top:"Node_697"
  bottom:"Node_696"
  layer_param {
    idx:697
    in_0 {name:"Node_696:0",dtype:float32,shape:[1, 256, 14, 14]}
    out_0 {name:"Node_697:0",dtype:float32,shape:[1, 256, 14, 14]}
    attrs {'dtype': 'int8'}
  }
}
layer {
  name:"Node_698"
  type:"annotation_stop_fusion"
  top:"Node_698"
  bottom:"Node_697"
  layer_param {
    idx:698
    in_0 {name:"Node_697:0",dtype:float32,shape:[1, 256, 14, 14]}
    out_0 {name:"Node_698:0",dtype:float32,shape:[1, 256, 14, 14]}
  }
}
layer {
  name:"Node_699"
  type:"add"
  top:"Node_699"
  bottom:"Node_651"
  bottom:"Node_698"
  layer_param {
    idx:699
    in_0 {name:"Node_651:0",dtype:float32,shape:[1, 256, 14, 14]}
    in_1 {name:"Node_698:0",dtype:float32,shape:[1, 256, 14, 14]}
    out_0 {name:"Node_699:0",dtype:float32,shape:[1, 256, 14, 14]}
  }
}
layer {
  name:"Node_700"
  type:"nn_relu"
  top:"Node_700"
  bottom:"Node_699"
  layer_param {
    idx:700
    in_0 {name:"Node_699:0",dtype:float32,shape:[1, 256, 14, 14]}
    out_0 {name:"Node_700:0",dtype:float32,shape:[1, 256, 14, 14]}
  }
}
layer {
  name:"Node_704"
  type:"relay_op_annotation_simulated_quantize"
  top:"Node_704"
  bottom:"Node_700"
  layer_param {
    idx:704
    in_0 {name:"Node_700:0",dtype:float32,shape:[1, 256, 14, 14]}
    out_0 {name:"Node_704:0",dtype:float32,shape:[1, 256, 14, 14]}
    attrs {'kind': 1, 'sign': 1, 'rounding': 'round', 'scale': 'Node_701:0', 'min': 'Node_702:0', 'max': 'Node_703:0'}
  }
}
layer {
  name:"Node_705"
  type:"annotation_cast_hint"
  top:"Node_705"
  bottom:"Node_704"
  layer_param {
    idx:705
    in_0 {name:"Node_704:0",dtype:float32,shape:[1, 256, 14, 14]}
    out_0 {name:"Node_705:0",dtype:float32,shape:[1, 256, 14, 14]}
    attrs {'dtype': 'int8'}
  }
}
layer {
  name:"Node_706"
  type:"annotation_stop_fusion"
  top:"Node_706"
  bottom:"Node_705"
  layer_param {
    idx:706
    in_0 {name:"Node_705:0",dtype:float32,shape:[1, 256, 14, 14]}
    out_0 {name:"Node_706:0",dtype:float32,shape:[1, 256, 14, 14]}
  }
}
layer {
  name:"Node_708"
  type:"const"
  top:"Node_708"
  layer_param {
    idx:708
    out_0 {name:"Node_708:0",dtype:float32,shape:[256, 256, 3, 3]}
  }
}
layer {
  name:"Node_712"
  type:"relay_op_annotation_simulated_quantize"
  top:"Node_712"
  bottom:"Node_708"
  layer_param {
    idx:712
    in_0 {name:"Node_708:0",dtype:float32,shape:[256, 256, 3, 3]}
    out_0 {name:"Node_712:0",dtype:float32,shape:[256, 256, 3, 3]}
    attrs {'kind': 2, 'sign': 1, 'rounding': 'round', 'scale': 'Node_709:0', 'min': 'Node_710:0', 'max': 'Node_711:0'}
  }
}
layer {
  name:"Node_713"
  type:"nn_conv2d"
  top:"Node_713"
  bottom:"Node_706"
  bottom:"Node_712"
  layer_param {
    idx:713
    in_0 {name:"Node_706:0",dtype:float32,shape:[1, 256, 14, 14]}
    in_1 {name:"Node_712:0",dtype:float32,shape:[256, 256, 3, 3]}
    out_0 {name:"Node_713:0",dtype:float32,shape:[1, 256, 14, 14]}
    attrs {'strides': [1, 1], 'padding': [1, 1, 1, 1], 'dilation': [1, 1], 'groups': 1, 'channels': 256, 'kernel_size': [3, 3], 'data_layout': 'NCHW', 'kernel_layout': 'OIHW', 'out_layout': '', 'out_dtype': ''}
  }
}
layer {
  name:"Node_717"
  type:"relay_op_annotation_simulated_quantize"
  top:"Node_717"
  bottom:"Node_713"
  layer_param {
    idx:717
    in_0 {name:"Node_713:0",dtype:float32,shape:[1, 256, 14, 14]}
    out_0 {name:"Node_717:0",dtype:float32,shape:[1, 256, 14, 14]}
    attrs {'kind': 1, 'sign': 1, 'rounding': 'round', 'scale': 'Node_714:0', 'min': 'Node_715:0', 'max': 'Node_716:0'}
  }
}
layer {
  name:"Node_718"
  type:"annotation_cast_hint"
  top:"Node_718"
  bottom:"Node_717"
  layer_param {
    idx:718
    in_0 {name:"Node_717:0",dtype:float32,shape:[1, 256, 14, 14]}
    out_0 {name:"Node_718:0",dtype:float32,shape:[1, 256, 14, 14]}
    attrs {'dtype': 'int8'}
  }
}
layer {
  name:"Node_719"
  type:"annotation_stop_fusion"
  top:"Node_719"
  bottom:"Node_718"
  layer_param {
    idx:719
    in_0 {name:"Node_718:0",dtype:float32,shape:[1, 256, 14, 14]}
    out_0 {name:"Node_719:0",dtype:float32,shape:[1, 256, 14, 14]}
  }
}
layer {
  name:"Node_721"
  type:"const"
  top:"Node_721"
  layer_param {
    idx:721
    out_0 {name:"Node_721:0",dtype:float32,shape:[256, 1, 1]}
  }
}
layer {
  name:"Node_725"
  type:"relay_op_annotation_simulated_quantize"
  top:"Node_725"
  bottom:"Node_721"
  layer_param {
    idx:725
    in_0 {name:"Node_721:0",dtype:float32,shape:[256, 1, 1]}
    out_0 {name:"Node_725:0",dtype:float32,shape:[256, 1, 1]}
    attrs {'kind': 2, 'sign': 1, 'rounding': 'round', 'scale': 'Node_722:0', 'min': 'Node_723:0', 'max': 'Node_724:0'}
  }
}
layer {
  name:"Node_726"
  type:"multiply"
  top:"Node_726"
  bottom:"Node_719"
  bottom:"Node_725"
  layer_param {
    idx:726
    in_0 {name:"Node_719:0",dtype:float32,shape:[1, 256, 14, 14]}
    in_1 {name:"Node_725:0",dtype:float32,shape:[256, 1, 1]}
    out_0 {name:"Node_726:0",dtype:float32,shape:[1, 256, 14, 14]}
  }
}
layer {
  name:"Node_728"
  type:"const"
  top:"Node_728"
  layer_param {
    idx:728
    out_0 {name:"Node_728:0",dtype:float32,shape:[256, 1, 1]}
  }
}
layer {
  name:"Node_732"
  type:"relay_op_annotation_simulated_quantize"
  top:"Node_732"
  bottom:"Node_728"
  layer_param {
    idx:732
    in_0 {name:"Node_728:0",dtype:float32,shape:[256, 1, 1]}
    out_0 {name:"Node_732:0",dtype:float32,shape:[256, 1, 1]}
    attrs {'kind': 2, 'sign': 1, 'rounding': 'round', 'scale': 'Node_729:0', 'min': 'Node_730:0', 'max': 'Node_731:0'}
  }
}
layer {
  name:"Node_733"
  type:"add"
  top:"Node_733"
  bottom:"Node_726"
  bottom:"Node_732"
  layer_param {
    idx:733
    in_0 {name:"Node_726:0",dtype:float32,shape:[1, 256, 14, 14]}
    in_1 {name:"Node_732:0",dtype:float32,shape:[256, 1, 1]}
    out_0 {name:"Node_733:0",dtype:float32,shape:[1, 256, 14, 14]}
  }
}
layer {
  name:"Node_734"
  type:"nn_relu"
  top:"Node_734"
  bottom:"Node_733"
  layer_param {
    idx:734
    in_0 {name:"Node_733:0",dtype:float32,shape:[1, 256, 14, 14]}
    out_0 {name:"Node_734:0",dtype:float32,shape:[1, 256, 14, 14]}
  }
}
layer {
  name:"Node_738"
  type:"relay_op_annotation_simulated_quantize"
  top:"Node_738"
  bottom:"Node_734"
  layer_param {
    idx:738
    in_0 {name:"Node_734:0",dtype:float32,shape:[1, 256, 14, 14]}
    out_0 {name:"Node_738:0",dtype:float32,shape:[1, 256, 14, 14]}
    attrs {'kind': 1, 'sign': 1, 'rounding': 'round', 'scale': 'Node_735:0', 'min': 'Node_736:0', 'max': 'Node_737:0'}
  }
}
layer {
  name:"Node_739"
  type:"annotation_cast_hint"
  top:"Node_739"
  bottom:"Node_738"
  layer_param {
    idx:739
    in_0 {name:"Node_738:0",dtype:float32,shape:[1, 256, 14, 14]}
    out_0 {name:"Node_739:0",dtype:float32,shape:[1, 256, 14, 14]}
    attrs {'dtype': 'int8'}
  }
}
layer {
  name:"Node_740"
  type:"annotation_stop_fusion"
  top:"Node_740"
  bottom:"Node_739"
  layer_param {
    idx:740
    in_0 {name:"Node_739:0",dtype:float32,shape:[1, 256, 14, 14]}
    out_0 {name:"Node_740:0",dtype:float32,shape:[1, 256, 14, 14]}
  }
}
layer {
  name:"Node_742"
  type:"const"
  top:"Node_742"
  layer_param {
    idx:742
    out_0 {name:"Node_742:0",dtype:float32,shape:[256, 256, 3, 3]}
  }
}
layer {
  name:"Node_746"
  type:"relay_op_annotation_simulated_quantize"
  top:"Node_746"
  bottom:"Node_742"
  layer_param {
    idx:746
    in_0 {name:"Node_742:0",dtype:float32,shape:[256, 256, 3, 3]}
    out_0 {name:"Node_746:0",dtype:float32,shape:[256, 256, 3, 3]}
    attrs {'kind': 2, 'sign': 1, 'rounding': 'round', 'scale': 'Node_743:0', 'min': 'Node_744:0', 'max': 'Node_745:0'}
  }
}
layer {
  name:"Node_747"
  type:"nn_conv2d"
  top:"Node_747"
  bottom:"Node_740"
  bottom:"Node_746"
  layer_param {
    idx:747
    in_0 {name:"Node_740:0",dtype:float32,shape:[1, 256, 14, 14]}
    in_1 {name:"Node_746:0",dtype:float32,shape:[256, 256, 3, 3]}
    out_0 {name:"Node_747:0",dtype:float32,shape:[1, 256, 14, 14]}
    attrs {'strides': [1, 1], 'padding': [1, 1, 1, 1], 'dilation': [1, 1], 'groups': 1, 'channels': 256, 'kernel_size': [3, 3], 'data_layout': 'NCHW', 'kernel_layout': 'OIHW', 'out_layout': '', 'out_dtype': ''}
  }
}
layer {
  name:"Node_751"
  type:"relay_op_annotation_simulated_quantize"
  top:"Node_751"
  bottom:"Node_747"
  layer_param {
    idx:751
    in_0 {name:"Node_747:0",dtype:float32,shape:[1, 256, 14, 14]}
    out_0 {name:"Node_751:0",dtype:float32,shape:[1, 256, 14, 14]}
    attrs {'kind': 1, 'sign': 1, 'rounding': 'round', 'scale': 'Node_748:0', 'min': 'Node_749:0', 'max': 'Node_750:0'}
  }
}
layer {
  name:"Node_752"
  type:"annotation_cast_hint"
  top:"Node_752"
  bottom:"Node_751"
  layer_param {
    idx:752
    in_0 {name:"Node_751:0",dtype:float32,shape:[1, 256, 14, 14]}
    out_0 {name:"Node_752:0",dtype:float32,shape:[1, 256, 14, 14]}
    attrs {'dtype': 'int8'}
  }
}
layer {
  name:"Node_753"
  type:"annotation_stop_fusion"
  top:"Node_753"
  bottom:"Node_752"
  layer_param {
    idx:753
    in_0 {name:"Node_752:0",dtype:float32,shape:[1, 256, 14, 14]}
    out_0 {name:"Node_753:0",dtype:float32,shape:[1, 256, 14, 14]}
  }
}
layer {
  name:"Node_755"
  type:"const"
  top:"Node_755"
  layer_param {
    idx:755
    out_0 {name:"Node_755:0",dtype:float32,shape:[256, 1, 1]}
  }
}
layer {
  name:"Node_759"
  type:"relay_op_annotation_simulated_quantize"
  top:"Node_759"
  bottom:"Node_755"
  layer_param {
    idx:759
    in_0 {name:"Node_755:0",dtype:float32,shape:[256, 1, 1]}
    out_0 {name:"Node_759:0",dtype:float32,shape:[256, 1, 1]}
    attrs {'kind': 2, 'sign': 1, 'rounding': 'round', 'scale': 'Node_756:0', 'min': 'Node_757:0', 'max': 'Node_758:0'}
  }
}
layer {
  name:"Node_760"
  type:"multiply"
  top:"Node_760"
  bottom:"Node_753"
  bottom:"Node_759"
  layer_param {
    idx:760
    in_0 {name:"Node_753:0",dtype:float32,shape:[1, 256, 14, 14]}
    in_1 {name:"Node_759:0",dtype:float32,shape:[256, 1, 1]}
    out_0 {name:"Node_760:0",dtype:float32,shape:[1, 256, 14, 14]}
  }
}
layer {
  name:"Node_762"
  type:"const"
  top:"Node_762"
  layer_param {
    idx:762
    out_0 {name:"Node_762:0",dtype:float32,shape:[256, 1, 1]}
  }
}
layer {
  name:"Node_766"
  type:"relay_op_annotation_simulated_quantize"
  top:"Node_766"
  bottom:"Node_762"
  layer_param {
    idx:766
    in_0 {name:"Node_762:0",dtype:float32,shape:[256, 1, 1]}
    out_0 {name:"Node_766:0",dtype:float32,shape:[256, 1, 1]}
    attrs {'kind': 2, 'sign': 1, 'rounding': 'round', 'scale': 'Node_763:0', 'min': 'Node_764:0', 'max': 'Node_765:0'}
  }
}
layer {
  name:"Node_767"
  type:"add"
  top:"Node_767"
  bottom:"Node_760"
  bottom:"Node_766"
  layer_param {
    idx:767
    in_0 {name:"Node_760:0",dtype:float32,shape:[1, 256, 14, 14]}
    in_1 {name:"Node_766:0",dtype:float32,shape:[256, 1, 1]}
    out_0 {name:"Node_767:0",dtype:float32,shape:[1, 256, 14, 14]}
  }
}
layer {
  name:"Node_771"
  type:"relay_op_annotation_simulated_quantize"
  top:"Node_771"
  bottom:"Node_767"
  layer_param {
    idx:771
    in_0 {name:"Node_767:0",dtype:float32,shape:[1, 256, 14, 14]}
    out_0 {name:"Node_771:0",dtype:float32,shape:[1, 256, 14, 14]}
    attrs {'kind': 1, 'sign': 1, 'rounding': 'round', 'scale': 'Node_768:0', 'min': 'Node_769:0', 'max': 'Node_770:0'}
  }
}
layer {
  name:"Node_772"
  type:"annotation_cast_hint"
  top:"Node_772"
  bottom:"Node_771"
  layer_param {
    idx:772
    in_0 {name:"Node_771:0",dtype:float32,shape:[1, 256, 14, 14]}
    out_0 {name:"Node_772:0",dtype:float32,shape:[1, 256, 14, 14]}
    attrs {'dtype': 'int8'}
  }
}
layer {
  name:"Node_773"
  type:"annotation_stop_fusion"
  top:"Node_773"
  bottom:"Node_772"
  layer_param {
    idx:773
    in_0 {name:"Node_772:0",dtype:float32,shape:[1, 256, 14, 14]}
    out_0 {name:"Node_773:0",dtype:float32,shape:[1, 256, 14, 14]}
  }
}
layer {
  name:"Node_777"
  type:"annotation_cast_hint"
  top:"Node_777"
  bottom:"Node_704"
  layer_param {
    idx:777
    in_0 {name:"Node_704:0",dtype:float32,shape:[1, 256, 14, 14]}
    out_0 {name:"Node_777:0",dtype:float32,shape:[1, 256, 14, 14]}
    attrs {'dtype': 'int8'}
  }
}
layer {
  name:"Node_778"
  type:"annotation_stop_fusion"
  top:"Node_778"
  bottom:"Node_777"
  layer_param {
    idx:778
    in_0 {name:"Node_777:0",dtype:float32,shape:[1, 256, 14, 14]}
    out_0 {name:"Node_778:0",dtype:float32,shape:[1, 256, 14, 14]}
  }
}
layer {
  name:"Node_779"
  type:"add"
  top:"Node_779"
  bottom:"Node_773"
  bottom:"Node_778"
  layer_param {
    idx:779
    in_0 {name:"Node_773:0",dtype:float32,shape:[1, 256, 14, 14]}
    in_1 {name:"Node_778:0",dtype:float32,shape:[1, 256, 14, 14]}
    out_0 {name:"Node_779:0",dtype:float32,shape:[1, 256, 14, 14]}
  }
}
layer {
  name:"Node_780"
  type:"nn_relu"
  top:"Node_780"
  bottom:"Node_779"
  layer_param {
    idx:780
    in_0 {name:"Node_779:0",dtype:float32,shape:[1, 256, 14, 14]}
    out_0 {name:"Node_780:0",dtype:float32,shape:[1, 256, 14, 14]}
  }
}
layer {
  name:"Node_784"
  type:"relay_op_annotation_simulated_quantize"
  top:"Node_784"
  bottom:"Node_780"
  layer_param {
    idx:784
    in_0 {name:"Node_780:0",dtype:float32,shape:[1, 256, 14, 14]}
    out_0 {name:"Node_784:0",dtype:float32,shape:[1, 256, 14, 14]}
    attrs {'kind': 1, 'sign': 1, 'rounding': 'round', 'scale': 'Node_781:0', 'min': 'Node_782:0', 'max': 'Node_783:0'}
  }
}
layer {
  name:"Node_785"
  type:"annotation_cast_hint"
  top:"Node_785"
  bottom:"Node_784"
  layer_param {
    idx:785
    in_0 {name:"Node_784:0",dtype:float32,shape:[1, 256, 14, 14]}
    out_0 {name:"Node_785:0",dtype:float32,shape:[1, 256, 14, 14]}
    attrs {'dtype': 'int8'}
  }
}
layer {
  name:"Node_786"
  type:"annotation_stop_fusion"
  top:"Node_786"
  bottom:"Node_785"
  layer_param {
    idx:786
    in_0 {name:"Node_785:0",dtype:float32,shape:[1, 256, 14, 14]}
    out_0 {name:"Node_786:0",dtype:float32,shape:[1, 256, 14, 14]}
  }
}
layer {
  name:"Node_788"
  type:"const"
  top:"Node_788"
  layer_param {
    idx:788
    out_0 {name:"Node_788:0",dtype:float32,shape:[512, 256, 3, 3]}
  }
}
layer {
  name:"Node_792"
  type:"relay_op_annotation_simulated_quantize"
  top:"Node_792"
  bottom:"Node_788"
  layer_param {
    idx:792
    in_0 {name:"Node_788:0",dtype:float32,shape:[512, 256, 3, 3]}
    out_0 {name:"Node_792:0",dtype:float32,shape:[512, 256, 3, 3]}
    attrs {'kind': 2, 'sign': 1, 'rounding': 'round', 'scale': 'Node_789:0', 'min': 'Node_790:0', 'max': 'Node_791:0'}
  }
}
layer {
  name:"Node_793"
  type:"nn_conv2d"
  top:"Node_793"
  bottom:"Node_786"
  bottom:"Node_792"
  layer_param {
    idx:793
    in_0 {name:"Node_786:0",dtype:float32,shape:[1, 256, 14, 14]}
    in_1 {name:"Node_792:0",dtype:float32,shape:[512, 256, 3, 3]}
    out_0 {name:"Node_793:0",dtype:float32,shape:[1, 512, 7, 7]}
    attrs {'strides': [2, 2], 'padding': [1, 1, 1, 1], 'dilation': [1, 1], 'groups': 1, 'channels': 512, 'kernel_size': [3, 3], 'data_layout': 'NCHW', 'kernel_layout': 'OIHW', 'out_layout': '', 'out_dtype': ''}
  }
}
layer {
  name:"Node_797"
  type:"relay_op_annotation_simulated_quantize"
  top:"Node_797"
  bottom:"Node_793"
  layer_param {
    idx:797
    in_0 {name:"Node_793:0",dtype:float32,shape:[1, 512, 7, 7]}
    out_0 {name:"Node_797:0",dtype:float32,shape:[1, 512, 7, 7]}
    attrs {'kind': 1, 'sign': 1, 'rounding': 'round', 'scale': 'Node_794:0', 'min': 'Node_795:0', 'max': 'Node_796:0'}
  }
}
layer {
  name:"Node_798"
  type:"annotation_cast_hint"
  top:"Node_798"
  bottom:"Node_797"
  layer_param {
    idx:798
    in_0 {name:"Node_797:0",dtype:float32,shape:[1, 512, 7, 7]}
    out_0 {name:"Node_798:0",dtype:float32,shape:[1, 512, 7, 7]}
    attrs {'dtype': 'int8'}
  }
}
layer {
  name:"Node_799"
  type:"annotation_stop_fusion"
  top:"Node_799"
  bottom:"Node_798"
  layer_param {
    idx:799
    in_0 {name:"Node_798:0",dtype:float32,shape:[1, 512, 7, 7]}
    out_0 {name:"Node_799:0",dtype:float32,shape:[1, 512, 7, 7]}
  }
}
layer {
  name:"Node_801"
  type:"const"
  top:"Node_801"
  layer_param {
    idx:801
    out_0 {name:"Node_801:0",dtype:float32,shape:[512, 1, 1]}
  }
}
layer {
  name:"Node_805"
  type:"relay_op_annotation_simulated_quantize"
  top:"Node_805"
  bottom:"Node_801"
  layer_param {
    idx:805
    in_0 {name:"Node_801:0",dtype:float32,shape:[512, 1, 1]}
    out_0 {name:"Node_805:0",dtype:float32,shape:[512, 1, 1]}
    attrs {'kind': 2, 'sign': 1, 'rounding': 'round', 'scale': 'Node_802:0', 'min': 'Node_803:0', 'max': 'Node_804:0'}
  }
}
layer {
  name:"Node_806"
  type:"multiply"
  top:"Node_806"
  bottom:"Node_799"
  bottom:"Node_805"
  layer_param {
    idx:806
    in_0 {name:"Node_799:0",dtype:float32,shape:[1, 512, 7, 7]}
    in_1 {name:"Node_805:0",dtype:float32,shape:[512, 1, 1]}
    out_0 {name:"Node_806:0",dtype:float32,shape:[1, 512, 7, 7]}
  }
}
layer {
  name:"Node_808"
  type:"const"
  top:"Node_808"
  layer_param {
    idx:808
    out_0 {name:"Node_808:0",dtype:float32,shape:[512, 1, 1]}
  }
}
layer {
  name:"Node_812"
  type:"relay_op_annotation_simulated_quantize"
  top:"Node_812"
  bottom:"Node_808"
  layer_param {
    idx:812
    in_0 {name:"Node_808:0",dtype:float32,shape:[512, 1, 1]}
    out_0 {name:"Node_812:0",dtype:float32,shape:[512, 1, 1]}
    attrs {'kind': 2, 'sign': 1, 'rounding': 'round', 'scale': 'Node_809:0', 'min': 'Node_810:0', 'max': 'Node_811:0'}
  }
}
layer {
  name:"Node_813"
  type:"add"
  top:"Node_813"
  bottom:"Node_806"
  bottom:"Node_812"
  layer_param {
    idx:813
    in_0 {name:"Node_806:0",dtype:float32,shape:[1, 512, 7, 7]}
    in_1 {name:"Node_812:0",dtype:float32,shape:[512, 1, 1]}
    out_0 {name:"Node_813:0",dtype:float32,shape:[1, 512, 7, 7]}
  }
}
layer {
  name:"Node_814"
  type:"nn_relu"
  top:"Node_814"
  bottom:"Node_813"
  layer_param {
    idx:814
    in_0 {name:"Node_813:0",dtype:float32,shape:[1, 512, 7, 7]}
    out_0 {name:"Node_814:0",dtype:float32,shape:[1, 512, 7, 7]}
  }
}
layer {
  name:"Node_818"
  type:"relay_op_annotation_simulated_quantize"
  top:"Node_818"
  bottom:"Node_814"
  layer_param {
    idx:818
    in_0 {name:"Node_814:0",dtype:float32,shape:[1, 512, 7, 7]}
    out_0 {name:"Node_818:0",dtype:float32,shape:[1, 512, 7, 7]}
    attrs {'kind': 1, 'sign': 1, 'rounding': 'round', 'scale': 'Node_815:0', 'min': 'Node_816:0', 'max': 'Node_817:0'}
  }
}
layer {
  name:"Node_819"
  type:"annotation_cast_hint"
  top:"Node_819"
  bottom:"Node_818"
  layer_param {
    idx:819
    in_0 {name:"Node_818:0",dtype:float32,shape:[1, 512, 7, 7]}
    out_0 {name:"Node_819:0",dtype:float32,shape:[1, 512, 7, 7]}
    attrs {'dtype': 'int8'}
  }
}
layer {
  name:"Node_820"
  type:"annotation_stop_fusion"
  top:"Node_820"
  bottom:"Node_819"
  layer_param {
    idx:820
    in_0 {name:"Node_819:0",dtype:float32,shape:[1, 512, 7, 7]}
    out_0 {name:"Node_820:0",dtype:float32,shape:[1, 512, 7, 7]}
  }
}
layer {
  name:"Node_822"
  type:"const"
  top:"Node_822"
  layer_param {
    idx:822
    out_0 {name:"Node_822:0",dtype:float32,shape:[512, 512, 3, 3]}
  }
}
layer {
  name:"Node_826"
  type:"relay_op_annotation_simulated_quantize"
  top:"Node_826"
  bottom:"Node_822"
  layer_param {
    idx:826
    in_0 {name:"Node_822:0",dtype:float32,shape:[512, 512, 3, 3]}
    out_0 {name:"Node_826:0",dtype:float32,shape:[512, 512, 3, 3]}
    attrs {'kind': 2, 'sign': 1, 'rounding': 'round', 'scale': 'Node_823:0', 'min': 'Node_824:0', 'max': 'Node_825:0'}
  }
}
layer {
  name:"Node_827"
  type:"nn_conv2d"
  top:"Node_827"
  bottom:"Node_820"
  bottom:"Node_826"
  layer_param {
    idx:827
    in_0 {name:"Node_820:0",dtype:float32,shape:[1, 512, 7, 7]}
    in_1 {name:"Node_826:0",dtype:float32,shape:[512, 512, 3, 3]}
    out_0 {name:"Node_827:0",dtype:float32,shape:[1, 512, 7, 7]}
    attrs {'strides': [1, 1], 'padding': [1, 1, 1, 1], 'dilation': [1, 1], 'groups': 1, 'channels': 512, 'kernel_size': [3, 3], 'data_layout': 'NCHW', 'kernel_layout': 'OIHW', 'out_layout': '', 'out_dtype': ''}
  }
}
layer {
  name:"Node_831"
  type:"relay_op_annotation_simulated_quantize"
  top:"Node_831"
  bottom:"Node_827"
  layer_param {
    idx:831
    in_0 {name:"Node_827:0",dtype:float32,shape:[1, 512, 7, 7]}
    out_0 {name:"Node_831:0",dtype:float32,shape:[1, 512, 7, 7]}
    attrs {'kind': 1, 'sign': 1, 'rounding': 'round', 'scale': 'Node_828:0', 'min': 'Node_829:0', 'max': 'Node_830:0'}
  }
}
layer {
  name:"Node_832"
  type:"annotation_cast_hint"
  top:"Node_832"
  bottom:"Node_831"
  layer_param {
    idx:832
    in_0 {name:"Node_831:0",dtype:float32,shape:[1, 512, 7, 7]}
    out_0 {name:"Node_832:0",dtype:float32,shape:[1, 512, 7, 7]}
    attrs {'dtype': 'int8'}
  }
}
layer {
  name:"Node_833"
  type:"annotation_stop_fusion"
  top:"Node_833"
  bottom:"Node_832"
  layer_param {
    idx:833
    in_0 {name:"Node_832:0",dtype:float32,shape:[1, 512, 7, 7]}
    out_0 {name:"Node_833:0",dtype:float32,shape:[1, 512, 7, 7]}
  }
}
layer {
  name:"Node_835"
  type:"const"
  top:"Node_835"
  layer_param {
    idx:835
    out_0 {name:"Node_835:0",dtype:float32,shape:[512, 1, 1]}
  }
}
layer {
  name:"Node_839"
  type:"relay_op_annotation_simulated_quantize"
  top:"Node_839"
  bottom:"Node_835"
  layer_param {
    idx:839
    in_0 {name:"Node_835:0",dtype:float32,shape:[512, 1, 1]}
    out_0 {name:"Node_839:0",dtype:float32,shape:[512, 1, 1]}
    attrs {'kind': 2, 'sign': 1, 'rounding': 'round', 'scale': 'Node_836:0', 'min': 'Node_837:0', 'max': 'Node_838:0'}
  }
}
layer {
  name:"Node_840"
  type:"multiply"
  top:"Node_840"
  bottom:"Node_833"
  bottom:"Node_839"
  layer_param {
    idx:840
    in_0 {name:"Node_833:0",dtype:float32,shape:[1, 512, 7, 7]}
    in_1 {name:"Node_839:0",dtype:float32,shape:[512, 1, 1]}
    out_0 {name:"Node_840:0",dtype:float32,shape:[1, 512, 7, 7]}
  }
}
layer {
  name:"Node_842"
  type:"const"
  top:"Node_842"
  layer_param {
    idx:842
    out_0 {name:"Node_842:0",dtype:float32,shape:[512, 1, 1]}
  }
}
layer {
  name:"Node_846"
  type:"relay_op_annotation_simulated_quantize"
  top:"Node_846"
  bottom:"Node_842"
  layer_param {
    idx:846
    in_0 {name:"Node_842:0",dtype:float32,shape:[512, 1, 1]}
    out_0 {name:"Node_846:0",dtype:float32,shape:[512, 1, 1]}
    attrs {'kind': 2, 'sign': 1, 'rounding': 'round', 'scale': 'Node_843:0', 'min': 'Node_844:0', 'max': 'Node_845:0'}
  }
}
layer {
  name:"Node_847"
  type:"add"
  top:"Node_847"
  bottom:"Node_840"
  bottom:"Node_846"
  layer_param {
    idx:847
    in_0 {name:"Node_840:0",dtype:float32,shape:[1, 512, 7, 7]}
    in_1 {name:"Node_846:0",dtype:float32,shape:[512, 1, 1]}
    out_0 {name:"Node_847:0",dtype:float32,shape:[1, 512, 7, 7]}
  }
}
layer {
  name:"Node_851"
  type:"relay_op_annotation_simulated_quantize"
  top:"Node_851"
  bottom:"Node_847"
  layer_param {
    idx:851
    in_0 {name:"Node_847:0",dtype:float32,shape:[1, 512, 7, 7]}
    out_0 {name:"Node_851:0",dtype:float32,shape:[1, 512, 7, 7]}
    attrs {'kind': 1, 'sign': 1, 'rounding': 'round', 'scale': 'Node_848:0', 'min': 'Node_849:0', 'max': 'Node_850:0'}
  }
}
layer {
  name:"Node_852"
  type:"annotation_cast_hint"
  top:"Node_852"
  bottom:"Node_851"
  layer_param {
    idx:852
    in_0 {name:"Node_851:0",dtype:float32,shape:[1, 512, 7, 7]}
    out_0 {name:"Node_852:0",dtype:float32,shape:[1, 512, 7, 7]}
    attrs {'dtype': 'int8'}
  }
}
layer {
  name:"Node_853"
  type:"annotation_stop_fusion"
  top:"Node_853"
  bottom:"Node_852"
  layer_param {
    idx:853
    in_0 {name:"Node_852:0",dtype:float32,shape:[1, 512, 7, 7]}
    out_0 {name:"Node_853:0",dtype:float32,shape:[1, 512, 7, 7]}
  }
}
layer {
  name:"Node_866"
  type:"annotation_cast_hint"
  top:"Node_866"
  bottom:"Node_784"
  layer_param {
    idx:866
    in_0 {name:"Node_784:0",dtype:float32,shape:[1, 256, 14, 14]}
    out_0 {name:"Node_866:0",dtype:float32,shape:[1, 256, 14, 14]}
    attrs {'dtype': 'int8'}
  }
}
layer {
  name:"Node_867"
  type:"annotation_stop_fusion"
  top:"Node_867"
  bottom:"Node_866"
  layer_param {
    idx:867
    in_0 {name:"Node_866:0",dtype:float32,shape:[1, 256, 14, 14]}
    out_0 {name:"Node_867:0",dtype:float32,shape:[1, 256, 14, 14]}
  }
}
layer {
  name:"Node_869"
  type:"const"
  top:"Node_869"
  layer_param {
    idx:869
    out_0 {name:"Node_869:0",dtype:float32,shape:[512, 256, 1, 1]}
  }
}
layer {
  name:"Node_873"
  type:"relay_op_annotation_simulated_quantize"
  top:"Node_873"
  bottom:"Node_869"
  layer_param {
    idx:873
    in_0 {name:"Node_869:0",dtype:float32,shape:[512, 256, 1, 1]}
    out_0 {name:"Node_873:0",dtype:float32,shape:[512, 256, 1, 1]}
    attrs {'kind': 2, 'sign': 1, 'rounding': 'round', 'scale': 'Node_870:0', 'min': 'Node_871:0', 'max': 'Node_872:0'}
  }
}
layer {
  name:"Node_874"
  type:"nn_conv2d"
  top:"Node_874"
  bottom:"Node_867"
  bottom:"Node_873"
  layer_param {
    idx:874
    in_0 {name:"Node_867:0",dtype:float32,shape:[1, 256, 14, 14]}
    in_1 {name:"Node_873:0",dtype:float32,shape:[512, 256, 1, 1]}
    out_0 {name:"Node_874:0",dtype:float32,shape:[1, 512, 7, 7]}
    attrs {'strides': [2, 2], 'padding': [0, 0, 0, 0], 'dilation': [1, 1], 'groups': 1, 'channels': 512, 'kernel_size': [1, 1], 'data_layout': 'NCHW', 'kernel_layout': 'OIHW', 'out_layout': '', 'out_dtype': ''}
  }
}
layer {
  name:"Node_878"
  type:"relay_op_annotation_simulated_quantize"
  top:"Node_878"
  bottom:"Node_874"
  layer_param {
    idx:878
    in_0 {name:"Node_874:0",dtype:float32,shape:[1, 512, 7, 7]}
    out_0 {name:"Node_878:0",dtype:float32,shape:[1, 512, 7, 7]}
    attrs {'kind': 1, 'sign': 1, 'rounding': 'round', 'scale': 'Node_875:0', 'min': 'Node_876:0', 'max': 'Node_877:0'}
  }
}
layer {
  name:"Node_879"
  type:"annotation_cast_hint"
  top:"Node_879"
  bottom:"Node_878"
  layer_param {
    idx:879
    in_0 {name:"Node_878:0",dtype:float32,shape:[1, 512, 7, 7]}
    out_0 {name:"Node_879:0",dtype:float32,shape:[1, 512, 7, 7]}
    attrs {'dtype': 'int8'}
  }
}
layer {
  name:"Node_880"
  type:"annotation_stop_fusion"
  top:"Node_880"
  bottom:"Node_879"
  layer_param {
    idx:880
    in_0 {name:"Node_879:0",dtype:float32,shape:[1, 512, 7, 7]}
    out_0 {name:"Node_880:0",dtype:float32,shape:[1, 512, 7, 7]}
  }
}
layer {
  name:"Node_882"
  type:"const"
  top:"Node_882"
  layer_param {
    idx:882
    out_0 {name:"Node_882:0",dtype:float32,shape:[512, 1, 1]}
  }
}
layer {
  name:"Node_886"
  type:"relay_op_annotation_simulated_quantize"
  top:"Node_886"
  bottom:"Node_882"
  layer_param {
    idx:886
    in_0 {name:"Node_882:0",dtype:float32,shape:[512, 1, 1]}
    out_0 {name:"Node_886:0",dtype:float32,shape:[512, 1, 1]}
    attrs {'kind': 2, 'sign': 1, 'rounding': 'round', 'scale': 'Node_883:0', 'min': 'Node_884:0', 'max': 'Node_885:0'}
  }
}
layer {
  name:"Node_887"
  type:"multiply"
  top:"Node_887"
  bottom:"Node_880"
  bottom:"Node_886"
  layer_param {
    idx:887
    in_0 {name:"Node_880:0",dtype:float32,shape:[1, 512, 7, 7]}
    in_1 {name:"Node_886:0",dtype:float32,shape:[512, 1, 1]}
    out_0 {name:"Node_887:0",dtype:float32,shape:[1, 512, 7, 7]}
  }
}
layer {
  name:"Node_889"
  type:"const"
  top:"Node_889"
  layer_param {
    idx:889
    out_0 {name:"Node_889:0",dtype:float32,shape:[512, 1, 1]}
  }
}
layer {
  name:"Node_893"
  type:"relay_op_annotation_simulated_quantize"
  top:"Node_893"
  bottom:"Node_889"
  layer_param {
    idx:893
    in_0 {name:"Node_889:0",dtype:float32,shape:[512, 1, 1]}
    out_0 {name:"Node_893:0",dtype:float32,shape:[512, 1, 1]}
    attrs {'kind': 2, 'sign': 1, 'rounding': 'round', 'scale': 'Node_890:0', 'min': 'Node_891:0', 'max': 'Node_892:0'}
  }
}
layer {
  name:"Node_894"
  type:"add"
  top:"Node_894"
  bottom:"Node_887"
  bottom:"Node_893"
  layer_param {
    idx:894
    in_0 {name:"Node_887:0",dtype:float32,shape:[1, 512, 7, 7]}
    in_1 {name:"Node_893:0",dtype:float32,shape:[512, 1, 1]}
    out_0 {name:"Node_894:0",dtype:float32,shape:[1, 512, 7, 7]}
  }
}
layer {
  name:"Node_898"
  type:"relay_op_annotation_simulated_quantize"
  top:"Node_898"
  bottom:"Node_894"
  layer_param {
    idx:898
    in_0 {name:"Node_894:0",dtype:float32,shape:[1, 512, 7, 7]}
    out_0 {name:"Node_898:0",dtype:float32,shape:[1, 512, 7, 7]}
    attrs {'kind': 1, 'sign': 1, 'rounding': 'round', 'scale': 'Node_895:0', 'min': 'Node_896:0', 'max': 'Node_897:0'}
  }
}
layer {
  name:"Node_899"
  type:"annotation_cast_hint"
  top:"Node_899"
  bottom:"Node_898"
  layer_param {
    idx:899
    in_0 {name:"Node_898:0",dtype:float32,shape:[1, 512, 7, 7]}
    out_0 {name:"Node_899:0",dtype:float32,shape:[1, 512, 7, 7]}
    attrs {'dtype': 'int8'}
  }
}
layer {
  name:"Node_900"
  type:"annotation_stop_fusion"
  top:"Node_900"
  bottom:"Node_899"
  layer_param {
    idx:900
    in_0 {name:"Node_899:0",dtype:float32,shape:[1, 512, 7, 7]}
    out_0 {name:"Node_900:0",dtype:float32,shape:[1, 512, 7, 7]}
  }
}
layer {
  name:"Node_901"
  type:"add"
  top:"Node_901"
  bottom:"Node_853"
  bottom:"Node_900"
  layer_param {
    idx:901
    in_0 {name:"Node_853:0",dtype:float32,shape:[1, 512, 7, 7]}
    in_1 {name:"Node_900:0",dtype:float32,shape:[1, 512, 7, 7]}
    out_0 {name:"Node_901:0",dtype:float32,shape:[1, 512, 7, 7]}
  }
}
layer {
  name:"Node_902"
  type:"nn_relu"
  top:"Node_902"
  bottom:"Node_901"
  layer_param {
    idx:902
    in_0 {name:"Node_901:0",dtype:float32,shape:[1, 512, 7, 7]}
    out_0 {name:"Node_902:0",dtype:float32,shape:[1, 512, 7, 7]}
  }
}
layer {
  name:"Node_906"
  type:"relay_op_annotation_simulated_quantize"
  top:"Node_906"
  bottom:"Node_902"
  layer_param {
    idx:906
    in_0 {name:"Node_902:0",dtype:float32,shape:[1, 512, 7, 7]}
    out_0 {name:"Node_906:0",dtype:float32,shape:[1, 512, 7, 7]}
    attrs {'kind': 1, 'sign': 1, 'rounding': 'round', 'scale': 'Node_903:0', 'min': 'Node_904:0', 'max': 'Node_905:0'}
  }
}
layer {
  name:"Node_907"
  type:"annotation_cast_hint"
  top:"Node_907"
  bottom:"Node_906"
  layer_param {
    idx:907
    in_0 {name:"Node_906:0",dtype:float32,shape:[1, 512, 7, 7]}
    out_0 {name:"Node_907:0",dtype:float32,shape:[1, 512, 7, 7]}
    attrs {'dtype': 'int8'}
  }
}
layer {
  name:"Node_908"
  type:"annotation_stop_fusion"
  top:"Node_908"
  bottom:"Node_907"
  layer_param {
    idx:908
    in_0 {name:"Node_907:0",dtype:float32,shape:[1, 512, 7, 7]}
    out_0 {name:"Node_908:0",dtype:float32,shape:[1, 512, 7, 7]}
  }
}
layer {
  name:"Node_910"
  type:"const"
  top:"Node_910"
  layer_param {
    idx:910
    out_0 {name:"Node_910:0",dtype:float32,shape:[512, 512, 3, 3]}
  }
}
layer {
  name:"Node_914"
  type:"relay_op_annotation_simulated_quantize"
  top:"Node_914"
  bottom:"Node_910"
  layer_param {
    idx:914
    in_0 {name:"Node_910:0",dtype:float32,shape:[512, 512, 3, 3]}
    out_0 {name:"Node_914:0",dtype:float32,shape:[512, 512, 3, 3]}
    attrs {'kind': 2, 'sign': 1, 'rounding': 'round', 'scale': 'Node_911:0', 'min': 'Node_912:0', 'max': 'Node_913:0'}
  }
}
layer {
  name:"Node_915"
  type:"nn_conv2d"
  top:"Node_915"
  bottom:"Node_908"
  bottom:"Node_914"
  layer_param {
    idx:915
    in_0 {name:"Node_908:0",dtype:float32,shape:[1, 512, 7, 7]}
    in_1 {name:"Node_914:0",dtype:float32,shape:[512, 512, 3, 3]}
    out_0 {name:"Node_915:0",dtype:float32,shape:[1, 512, 7, 7]}
    attrs {'strides': [1, 1], 'padding': [1, 1, 1, 1], 'dilation': [1, 1], 'groups': 1, 'channels': 512, 'kernel_size': [3, 3], 'data_layout': 'NCHW', 'kernel_layout': 'OIHW', 'out_layout': '', 'out_dtype': ''}
  }
}
layer {
  name:"Node_919"
  type:"relay_op_annotation_simulated_quantize"
  top:"Node_919"
  bottom:"Node_915"
  layer_param {
    idx:919
    in_0 {name:"Node_915:0",dtype:float32,shape:[1, 512, 7, 7]}
    out_0 {name:"Node_919:0",dtype:float32,shape:[1, 512, 7, 7]}
    attrs {'kind': 1, 'sign': 1, 'rounding': 'round', 'scale': 'Node_916:0', 'min': 'Node_917:0', 'max': 'Node_918:0'}
  }
}
layer {
  name:"Node_920"
  type:"annotation_cast_hint"
  top:"Node_920"
  bottom:"Node_919"
  layer_param {
    idx:920
    in_0 {name:"Node_919:0",dtype:float32,shape:[1, 512, 7, 7]}
    out_0 {name:"Node_920:0",dtype:float32,shape:[1, 512, 7, 7]}
    attrs {'dtype': 'int8'}
  }
}
layer {
  name:"Node_921"
  type:"annotation_stop_fusion"
  top:"Node_921"
  bottom:"Node_920"
  layer_param {
    idx:921
    in_0 {name:"Node_920:0",dtype:float32,shape:[1, 512, 7, 7]}
    out_0 {name:"Node_921:0",dtype:float32,shape:[1, 512, 7, 7]}
  }
}
layer {
  name:"Node_923"
  type:"const"
  top:"Node_923"
  layer_param {
    idx:923
    out_0 {name:"Node_923:0",dtype:float32,shape:[512, 1, 1]}
  }
}
layer {
  name:"Node_927"
  type:"relay_op_annotation_simulated_quantize"
  top:"Node_927"
  bottom:"Node_923"
  layer_param {
    idx:927
    in_0 {name:"Node_923:0",dtype:float32,shape:[512, 1, 1]}
    out_0 {name:"Node_927:0",dtype:float32,shape:[512, 1, 1]}
    attrs {'kind': 2, 'sign': 1, 'rounding': 'round', 'scale': 'Node_924:0', 'min': 'Node_925:0', 'max': 'Node_926:0'}
  }
}
layer {
  name:"Node_928"
  type:"multiply"
  top:"Node_928"
  bottom:"Node_921"
  bottom:"Node_927"
  layer_param {
    idx:928
    in_0 {name:"Node_921:0",dtype:float32,shape:[1, 512, 7, 7]}
    in_1 {name:"Node_927:0",dtype:float32,shape:[512, 1, 1]}
    out_0 {name:"Node_928:0",dtype:float32,shape:[1, 512, 7, 7]}
  }
}
layer {
  name:"Node_930"
  type:"const"
  top:"Node_930"
  layer_param {
    idx:930
    out_0 {name:"Node_930:0",dtype:float32,shape:[512, 1, 1]}
  }
}
layer {
  name:"Node_934"
  type:"relay_op_annotation_simulated_quantize"
  top:"Node_934"
  bottom:"Node_930"
  layer_param {
    idx:934
    in_0 {name:"Node_930:0",dtype:float32,shape:[512, 1, 1]}
    out_0 {name:"Node_934:0",dtype:float32,shape:[512, 1, 1]}
    attrs {'kind': 2, 'sign': 1, 'rounding': 'round', 'scale': 'Node_931:0', 'min': 'Node_932:0', 'max': 'Node_933:0'}
  }
}
layer {
  name:"Node_935"
  type:"add"
  top:"Node_935"
  bottom:"Node_928"
  bottom:"Node_934"
  layer_param {
    idx:935
    in_0 {name:"Node_928:0",dtype:float32,shape:[1, 512, 7, 7]}
    in_1 {name:"Node_934:0",dtype:float32,shape:[512, 1, 1]}
    out_0 {name:"Node_935:0",dtype:float32,shape:[1, 512, 7, 7]}
  }
}
layer {
  name:"Node_936"
  type:"nn_relu"
  top:"Node_936"
  bottom:"Node_935"
  layer_param {
    idx:936
    in_0 {name:"Node_935:0",dtype:float32,shape:[1, 512, 7, 7]}
    out_0 {name:"Node_936:0",dtype:float32,shape:[1, 512, 7, 7]}
  }
}
layer {
  name:"Node_940"
  type:"relay_op_annotation_simulated_quantize"
  top:"Node_940"
  bottom:"Node_936"
  layer_param {
    idx:940
    in_0 {name:"Node_936:0",dtype:float32,shape:[1, 512, 7, 7]}
    out_0 {name:"Node_940:0",dtype:float32,shape:[1, 512, 7, 7]}
    attrs {'kind': 1, 'sign': 1, 'rounding': 'round', 'scale': 'Node_937:0', 'min': 'Node_938:0', 'max': 'Node_939:0'}
  }
}
layer {
  name:"Node_941"
  type:"annotation_cast_hint"
  top:"Node_941"
  bottom:"Node_940"
  layer_param {
    idx:941
    in_0 {name:"Node_940:0",dtype:float32,shape:[1, 512, 7, 7]}
    out_0 {name:"Node_941:0",dtype:float32,shape:[1, 512, 7, 7]}
    attrs {'dtype': 'int8'}
  }
}
layer {
  name:"Node_942"
  type:"annotation_stop_fusion"
  top:"Node_942"
  bottom:"Node_941"
  layer_param {
    idx:942
    in_0 {name:"Node_941:0",dtype:float32,shape:[1, 512, 7, 7]}
    out_0 {name:"Node_942:0",dtype:float32,shape:[1, 512, 7, 7]}
  }
}
layer {
  name:"Node_944"
  type:"const"
  top:"Node_944"
  layer_param {
    idx:944
    out_0 {name:"Node_944:0",dtype:float32,shape:[512, 512, 3, 3]}
  }
}
layer {
  name:"Node_948"
  type:"relay_op_annotation_simulated_quantize"
  top:"Node_948"
  bottom:"Node_944"
  layer_param {
    idx:948
    in_0 {name:"Node_944:0",dtype:float32,shape:[512, 512, 3, 3]}
    out_0 {name:"Node_948:0",dtype:float32,shape:[512, 512, 3, 3]}
    attrs {'kind': 2, 'sign': 1, 'rounding': 'round', 'scale': 'Node_945:0', 'min': 'Node_946:0', 'max': 'Node_947:0'}
  }
}
layer {
  name:"Node_949"
  type:"nn_conv2d"
  top:"Node_949"
  bottom:"Node_942"
  bottom:"Node_948"
  layer_param {
    idx:949
    in_0 {name:"Node_942:0",dtype:float32,shape:[1, 512, 7, 7]}
    in_1 {name:"Node_948:0",dtype:float32,shape:[512, 512, 3, 3]}
    out_0 {name:"Node_949:0",dtype:float32,shape:[1, 512, 7, 7]}
    attrs {'strides': [1, 1], 'padding': [1, 1, 1, 1], 'dilation': [1, 1], 'groups': 1, 'channels': 512, 'kernel_size': [3, 3], 'data_layout': 'NCHW', 'kernel_layout': 'OIHW', 'out_layout': '', 'out_dtype': ''}
  }
}
layer {
  name:"Node_953"
  type:"relay_op_annotation_simulated_quantize"
  top:"Node_953"
  bottom:"Node_949"
  layer_param {
    idx:953
    in_0 {name:"Node_949:0",dtype:float32,shape:[1, 512, 7, 7]}
    out_0 {name:"Node_953:0",dtype:float32,shape:[1, 512, 7, 7]}
    attrs {'kind': 1, 'sign': 1, 'rounding': 'round', 'scale': 'Node_950:0', 'min': 'Node_951:0', 'max': 'Node_952:0'}
  }
}
layer {
  name:"Node_954"
  type:"annotation_cast_hint"
  top:"Node_954"
  bottom:"Node_953"
  layer_param {
    idx:954
    in_0 {name:"Node_953:0",dtype:float32,shape:[1, 512, 7, 7]}
    out_0 {name:"Node_954:0",dtype:float32,shape:[1, 512, 7, 7]}
    attrs {'dtype': 'int8'}
  }
}
layer {
  name:"Node_955"
  type:"annotation_stop_fusion"
  top:"Node_955"
  bottom:"Node_954"
  layer_param {
    idx:955
    in_0 {name:"Node_954:0",dtype:float32,shape:[1, 512, 7, 7]}
    out_0 {name:"Node_955:0",dtype:float32,shape:[1, 512, 7, 7]}
  }
}
layer {
  name:"Node_957"
  type:"const"
  top:"Node_957"
  layer_param {
    idx:957
    out_0 {name:"Node_957:0",dtype:float32,shape:[512, 1, 1]}
  }
}
layer {
  name:"Node_961"
  type:"relay_op_annotation_simulated_quantize"
  top:"Node_961"
  bottom:"Node_957"
  layer_param {
    idx:961
    in_0 {name:"Node_957:0",dtype:float32,shape:[512, 1, 1]}
    out_0 {name:"Node_961:0",dtype:float32,shape:[512, 1, 1]}
    attrs {'kind': 2, 'sign': 1, 'rounding': 'round', 'scale': 'Node_958:0', 'min': 'Node_959:0', 'max': 'Node_960:0'}
  }
}
layer {
  name:"Node_962"
  type:"multiply"
  top:"Node_962"
  bottom:"Node_955"
  bottom:"Node_961"
  layer_param {
    idx:962
    in_0 {name:"Node_955:0",dtype:float32,shape:[1, 512, 7, 7]}
    in_1 {name:"Node_961:0",dtype:float32,shape:[512, 1, 1]}
    out_0 {name:"Node_962:0",dtype:float32,shape:[1, 512, 7, 7]}
  }
}
layer {
  name:"Node_964"
  type:"const"
  top:"Node_964"
  layer_param {
    idx:964
    out_0 {name:"Node_964:0",dtype:float32,shape:[512, 1, 1]}
  }
}
layer {
  name:"Node_968"
  type:"relay_op_annotation_simulated_quantize"
  top:"Node_968"
  bottom:"Node_964"
  layer_param {
    idx:968
    in_0 {name:"Node_964:0",dtype:float32,shape:[512, 1, 1]}
    out_0 {name:"Node_968:0",dtype:float32,shape:[512, 1, 1]}
    attrs {'kind': 2, 'sign': 1, 'rounding': 'round', 'scale': 'Node_965:0', 'min': 'Node_966:0', 'max': 'Node_967:0'}
  }
}
layer {
  name:"Node_969"
  type:"add"
  top:"Node_969"
  bottom:"Node_962"
  bottom:"Node_968"
  layer_param {
    idx:969
    in_0 {name:"Node_962:0",dtype:float32,shape:[1, 512, 7, 7]}
    in_1 {name:"Node_968:0",dtype:float32,shape:[512, 1, 1]}
    out_0 {name:"Node_969:0",dtype:float32,shape:[1, 512, 7, 7]}
  }
}
layer {
  name:"Node_973"
  type:"relay_op_annotation_simulated_quantize"
  top:"Node_973"
  bottom:"Node_969"
  layer_param {
    idx:973
    in_0 {name:"Node_969:0",dtype:float32,shape:[1, 512, 7, 7]}
    out_0 {name:"Node_973:0",dtype:float32,shape:[1, 512, 7, 7]}
    attrs {'kind': 1, 'sign': 1, 'rounding': 'round', 'scale': 'Node_970:0', 'min': 'Node_971:0', 'max': 'Node_972:0'}
  }
}
layer {
  name:"Node_974"
  type:"annotation_cast_hint"
  top:"Node_974"
  bottom:"Node_973"
  layer_param {
    idx:974
    in_0 {name:"Node_973:0",dtype:float32,shape:[1, 512, 7, 7]}
    out_0 {name:"Node_974:0",dtype:float32,shape:[1, 512, 7, 7]}
    attrs {'dtype': 'int8'}
  }
}
layer {
  name:"Node_975"
  type:"annotation_stop_fusion"
  top:"Node_975"
  bottom:"Node_974"
  layer_param {
    idx:975
    in_0 {name:"Node_974:0",dtype:float32,shape:[1, 512, 7, 7]}
    out_0 {name:"Node_975:0",dtype:float32,shape:[1, 512, 7, 7]}
  }
}
layer {
  name:"Node_979"
  type:"annotation_cast_hint"
  top:"Node_979"
  bottom:"Node_906"
  layer_param {
    idx:979
    in_0 {name:"Node_906:0",dtype:float32,shape:[1, 512, 7, 7]}
    out_0 {name:"Node_979:0",dtype:float32,shape:[1, 512, 7, 7]}
    attrs {'dtype': 'int8'}
  }
}
layer {
  name:"Node_980"
  type:"annotation_stop_fusion"
  top:"Node_980"
  bottom:"Node_979"
  layer_param {
    idx:980
    in_0 {name:"Node_979:0",dtype:float32,shape:[1, 512, 7, 7]}
    out_0 {name:"Node_980:0",dtype:float32,shape:[1, 512, 7, 7]}
  }
}
layer {
  name:"Node_981"
  type:"add"
  top:"Node_981"
  bottom:"Node_975"
  bottom:"Node_980"
  layer_param {
    idx:981
    in_0 {name:"Node_975:0",dtype:float32,shape:[1, 512, 7, 7]}
    in_1 {name:"Node_980:0",dtype:float32,shape:[1, 512, 7, 7]}
    out_0 {name:"Node_981:0",dtype:float32,shape:[1, 512, 7, 7]}
  }
}
layer {
  name:"Node_982"
  type:"nn_relu"
  top:"Node_982"
  bottom:"Node_981"
  layer_param {
    idx:982
    in_0 {name:"Node_981:0",dtype:float32,shape:[1, 512, 7, 7]}
    out_0 {name:"Node_982:0",dtype:float32,shape:[1, 512, 7, 7]}
  }
}
layer {
  name:"Node_983"
  type:"annotation_cast_hint"
  top:"Node_983"
  bottom:"Node_982"
  layer_param {
    idx:983
    in_0 {name:"Node_982:0",dtype:float32,shape:[1, 512, 7, 7]}
    out_0 {name:"Node_983:0",dtype:float32,shape:[1, 512, 7, 7]}
    attrs {'dtype': 'int8'}
  }
}
layer {
  name:"Node_984"
  type:"annotation_stop_fusion"
  top:"Node_984"
  bottom:"Node_983"
  layer_param {
    idx:984
    in_0 {name:"Node_983:0",dtype:float32,shape:[1, 512, 7, 7]}
    out_0 {name:"Node_984:0",dtype:float32,shape:[1, 512, 7, 7]}
  }
}
layer {
  name:"Node_985"
  type:"nn_adaptive_avg_pool2d"
  top:"Node_985"
  bottom:"Node_984"
  layer_param {
    idx:985
    in_0 {name:"Node_984:0",dtype:float32,shape:[1, 512, 7, 7]}
    out_0 {name:"Node_985:0",dtype:float32,shape:[1, 512, 1, 1]}
    attrs {'output_size': [1, 1], 'layout': 'NCHW'}
  }
}
layer {
  name:"Node_986"
  type:"reshape"
  top:"Node_986"
  bottom:"Node_985"
  layer_param {
    idx:986
    in_0 {name:"Node_985:0",dtype:float32,shape:[1, 512, 1, 1]}
    out_0 {name:"Node_986:0",dtype:float32,shape:[1, 512, 1, 1]}
    attrs {'newshape': [0, -1, 1, 1]}
  }
}
layer {
  name:"Node_987"
  type:"squeeze"
  top:"Node_987"
  bottom:"Node_986"
  layer_param {
    idx:987
    in_0 {name:"Node_986:0",dtype:float32,shape:[1, 512, 1, 1]}
    out_0 {name:"Node_987:0",dtype:float32,shape:[1, 512]}
    attrs {'axis': [2, 3]}
  }
}
layer {
  name:"Node_988"
  type:"const"
  top:"Node_988"
  layer_param {
    idx:988
    out_0 {name:"Node_988:0",dtype:float32,shape:[1000, 512]}
  }
}
layer {
  name:"Node_989"
  type:"nn_dense"
  top:"Node_989"
  bottom:"Node_987"
  bottom:"Node_988"
  layer_param {
    idx:989
    in_0 {name:"Node_987:0",dtype:float32,shape:[1, 512]}
    in_1 {name:"Node_988:0",dtype:float32,shape:[1000, 512]}
    out_0 {name:"Node_989:0",dtype:float32,shape:[1, 1000]}
    attrs {'units': 1000, 'out_dtype': ''}
  }
}
layer {
  name:"Node_990"
  type:"const"
  top:"Node_990"
  layer_param {
    idx:990
    out_0 {name:"Node_990:0",dtype:float32,shape:[1000]}
  }
}
layer {
  name:"Node_991"
  type:"add"
  top:"Node_991"
  bottom:"Node_989"
  bottom:"Node_990"
  layer_param {
    idx:991
    in_0 {name:"Node_989:0",dtype:float32,shape:[1, 1000]}
    in_1 {name:"Node_990:0",dtype:float32,shape:[1000]}
    out_0 {name:"Node_991:0",dtype:float32,shape:[1, 1000]}
  }
}
layer {
  name:"Node_992"
  type:"function"
  top:"Node_992"
  bottom:"input0"
  bottom:"Node_991"
  layer_param {
    idx:992
    in_0 {name:"input0:0",dtype:float32,shape:[1, 3, 224, 224]}
    in_1 {name:"Node_991:0",dtype:float32,shape:[1, 1000]}
    out_0 {name:"Node_992:0",dtype:float32,shape:[1, 1000]}
  }
}
