name : "relay_ir"
layer {
  name:"input0"
  type:"input"
  top:"input0"
  layer_param {
    idx:65
    out_0 {name:"input0:0",dtype:float32,shape:[1, 3, 224, 224]}
  }
}
layer {
  name:"Node_67"
  type:"const"
  top:"Node_67"
  layer_param {
    idx:67
    out_0 {name:"Node_67:0",dtype:float32,shape:[64, 3, 7, 7]}
  }
}
layer {
  name:"Node_73"
  type:"const"
  top:"Node_73"
  layer_param {
    idx:73
    out_0 {name:"Node_73:0",dtype:float32,shape:[]}
  }
}
layer {
  name:"Node_76"
  type:"const"
  top:"Node_76"
  layer_param {
    idx:76
    out_0 {name:"Node_76:0",dtype:float32,shape:[64]}
  }
}
layer {
  name:"Node_77"
  type:"const"
  top:"Node_77"
  layer_param {
    idx:77
    out_0 {name:"Node_77:0",dtype:float32,shape:[]}
  }
}
layer {
  name:"Node_78"
  type:"add"
  top:"Node_78"
  bottom:"Node_76"
  bottom:"Node_77"
  layer_param {
    idx:78
    in_0 {name:"Node_76:0",dtype:float32,shape:[64]}
    in_1 {name:"Node_77:0",dtype:float32,shape:[]}
    out_0 {name:"Node_78:0",dtype:float32,shape:[64]}
  }
}
layer {
  name:"Node_79"
  type:"sqrt"
  top:"Node_79"
  bottom:"Node_78"
  layer_param {
    idx:79
    in_0 {name:"Node_78:0",dtype:float32,shape:[64]}
    out_0 {name:"Node_79:0",dtype:float32,shape:[64]}
  }
}
layer {
  name:"Node_80"
  type:"divide"
  top:"Node_80"
  bottom:"Node_73"
  bottom:"Node_79"
  layer_param {
    idx:80
    in_0 {name:"Node_73:0",dtype:float32,shape:[]}
    in_1 {name:"Node_79:0",dtype:float32,shape:[64]}
    out_0 {name:"Node_80:0",dtype:float32,shape:[64]}
  }
}
layer {
  name:"Node_81"
  type:"const"
  top:"Node_81"
  layer_param {
    idx:81
    out_0 {name:"Node_81:0",dtype:float32,shape:[64]}
  }
}
layer {
  name:"Node_82"
  type:"multiply"
  top:"Node_82"
  bottom:"Node_80"
  bottom:"Node_81"
  layer_param {
    idx:82
    in_0 {name:"Node_80:0",dtype:float32,shape:[64]}
    in_1 {name:"Node_81:0",dtype:float32,shape:[64]}
    out_0 {name:"Node_82:0",dtype:float32,shape:[64]}
  }
}
layer {
  name:"Node_83"
  type:"expand_dims"
  top:"Node_83"
  bottom:"Node_82"
  layer_param {
    idx:83
    in_0 {name:"Node_82:0",dtype:float32,shape:[64]}
    out_0 {name:"Node_83:0",dtype:float32,shape:[64, 1, 1]}
    attrs {'axis': 1, 'num_newaxis': 2}
  }
}
layer {
  name:"Node_84"
  type:"squeeze"
  top:"Node_84"
  bottom:"Node_83"
  layer_param {
    idx:84
    in_0 {name:"Node_83:0",dtype:float32,shape:[64, 1, 1]}
    out_0 {name:"Node_84:0",dtype:float32,shape:[64]}
    attrs {'axis': [1, 2]}
  }
}
layer {
  name:"Node_85"
  type:"expand_dims"
  top:"Node_85"
  bottom:"Node_84"
  layer_param {
    idx:85
    in_0 {name:"Node_84:0",dtype:float32,shape:[64]}
    out_0 {name:"Node_85:0",dtype:float32,shape:[64, 1, 1, 1]}
    attrs {'axis': 1, 'num_newaxis': 3}
  }
}
layer {
  name:"Node_86"
  type:"multiply"
  top:"Node_86"
  bottom:"Node_67"
  bottom:"Node_85"
  layer_param {
    idx:86
    in_0 {name:"Node_67:0",dtype:float32,shape:[64, 3, 7, 7]}
    in_1 {name:"Node_85:0",dtype:float32,shape:[64, 1, 1, 1]}
    out_0 {name:"Node_86:0",dtype:float32,shape:[64, 3, 7, 7]}
  }
}
layer {
  name:"Node_87"
  type:"nn.conv2d"
  top:"Node_87"
  bottom:"input0"
  bottom:"Node_86"
  layer_param {
    idx:87
    in_0 {name:"input0:0",dtype:float32,shape:[1, 3, 224, 224]}
    in_1 {name:"Node_86:0",dtype:float32,shape:[64, 3, 7, 7]}
    out_0 {name:"Node_87:0",dtype:float32,shape:[1, 64, 112, 112]}
    attrs {'strides': [2, 2], 'padding': [3, 3, 3, 3], 'dilation': [1, 1], 'groups': 1, 'channels': 64, 'kernel_size': [7, 7], 'data_layout': 'NCHW', 'kernel_layout': 'OIHW', 'out_layout': '', 'out_dtype': ''}
  }
}
layer {
  name:"Node_92"
  type:"const"
  top:"Node_92"
  layer_param {
    idx:92
    out_0 {name:"Node_92:0",dtype:float32,shape:[64]}
  }
}
layer {
  name:"Node_93"
  type:"negative"
  top:"Node_93"
  bottom:"Node_92"
  layer_param {
    idx:93
    in_0 {name:"Node_92:0",dtype:float32,shape:[64]}
    out_0 {name:"Node_93:0",dtype:float32,shape:[64]}
  }
}
layer {
  name:"Node_95"
  type:"multiply"
  top:"Node_95"
  bottom:"Node_93"
  bottom:"Node_82"
  layer_param {
    idx:95
    in_0 {name:"Node_93:0",dtype:float32,shape:[64]}
    in_1 {name:"Node_82:0",dtype:float32,shape:[64]}
    out_0 {name:"Node_95:0",dtype:float32,shape:[64]}
  }
}
layer {
  name:"Node_96"
  type:"const"
  top:"Node_96"
  layer_param {
    idx:96
    out_0 {name:"Node_96:0",dtype:float32,shape:[64]}
  }
}
layer {
  name:"Node_97"
  type:"add"
  top:"Node_97"
  bottom:"Node_95"
  bottom:"Node_96"
  layer_param {
    idx:97
    in_0 {name:"Node_95:0",dtype:float32,shape:[64]}
    in_1 {name:"Node_96:0",dtype:float32,shape:[64]}
    out_0 {name:"Node_97:0",dtype:float32,shape:[64]}
  }
}
layer {
  name:"Node_98"
  type:"expand_dims"
  top:"Node_98"
  bottom:"Node_97"
  layer_param {
    idx:98
    in_0 {name:"Node_97:0",dtype:float32,shape:[64]}
    out_0 {name:"Node_98:0",dtype:float32,shape:[64, 1, 1]}
    attrs {'axis': 1, 'num_newaxis': 2}
  }
}
layer {
  name:"Node_99"
  type:"add"
  top:"Node_99"
  bottom:"Node_87"
  bottom:"Node_98"
  layer_param {
    idx:99
    in_0 {name:"Node_87:0",dtype:float32,shape:[1, 64, 112, 112]}
    in_1 {name:"Node_98:0",dtype:float32,shape:[64, 1, 1]}
    out_0 {name:"Node_99:0",dtype:float32,shape:[1, 64, 112, 112]}
  }
}
layer {
  name:"Node_100"
  type:"nn.relu"
  top:"Node_100"
  bottom:"Node_99"
  layer_param {
    idx:100
    in_0 {name:"Node_99:0",dtype:float32,shape:[1, 64, 112, 112]}
    out_0 {name:"Node_100:0",dtype:float32,shape:[1, 64, 112, 112]}
  }
}
layer {
  name:"Node_101"
  type:"nn.max_pool2d"
  top:"Node_101"
  bottom:"Node_100"
  layer_param {
    idx:101
    in_0 {name:"Node_100:0",dtype:float32,shape:[1, 64, 112, 112]}
    out_0 {name:"Node_101:0",dtype:float32,shape:[1, 64, 56, 56]}
    attrs {'pool_size': [3, 3], 'strides': [2, 2], 'padding': [1, 1, 1, 1], 'layout': 'NCHW', 'ceil_mode': 0}
  }
}
layer {
  name:"Node_103"
  type:"const"
  top:"Node_103"
  layer_param {
    idx:103
    out_0 {name:"Node_103:0",dtype:float32,shape:[64, 64, 3, 3]}
  }
}
layer {
  name:"Node_109"
  type:"const"
  top:"Node_109"
  layer_param {
    idx:109
    out_0 {name:"Node_109:0",dtype:float32,shape:[]}
  }
}
layer {
  name:"Node_112"
  type:"const"
  top:"Node_112"
  layer_param {
    idx:112
    out_0 {name:"Node_112:0",dtype:float32,shape:[64]}
  }
}
layer {
  name:"Node_113"
  type:"const"
  top:"Node_113"
  layer_param {
    idx:113
    out_0 {name:"Node_113:0",dtype:float32,shape:[]}
  }
}
layer {
  name:"Node_114"
  type:"add"
  top:"Node_114"
  bottom:"Node_112"
  bottom:"Node_113"
  layer_param {
    idx:114
    in_0 {name:"Node_112:0",dtype:float32,shape:[64]}
    in_1 {name:"Node_113:0",dtype:float32,shape:[]}
    out_0 {name:"Node_114:0",dtype:float32,shape:[64]}
  }
}
layer {
  name:"Node_115"
  type:"sqrt"
  top:"Node_115"
  bottom:"Node_114"
  layer_param {
    idx:115
    in_0 {name:"Node_114:0",dtype:float32,shape:[64]}
    out_0 {name:"Node_115:0",dtype:float32,shape:[64]}
  }
}
layer {
  name:"Node_116"
  type:"divide"
  top:"Node_116"
  bottom:"Node_109"
  bottom:"Node_115"
  layer_param {
    idx:116
    in_0 {name:"Node_109:0",dtype:float32,shape:[]}
    in_1 {name:"Node_115:0",dtype:float32,shape:[64]}
    out_0 {name:"Node_116:0",dtype:float32,shape:[64]}
  }
}
layer {
  name:"Node_117"
  type:"const"
  top:"Node_117"
  layer_param {
    idx:117
    out_0 {name:"Node_117:0",dtype:float32,shape:[64]}
  }
}
layer {
  name:"Node_118"
  type:"multiply"
  top:"Node_118"
  bottom:"Node_116"
  bottom:"Node_117"
  layer_param {
    idx:118
    in_0 {name:"Node_116:0",dtype:float32,shape:[64]}
    in_1 {name:"Node_117:0",dtype:float32,shape:[64]}
    out_0 {name:"Node_118:0",dtype:float32,shape:[64]}
  }
}
layer {
  name:"Node_119"
  type:"expand_dims"
  top:"Node_119"
  bottom:"Node_118"
  layer_param {
    idx:119
    in_0 {name:"Node_118:0",dtype:float32,shape:[64]}
    out_0 {name:"Node_119:0",dtype:float32,shape:[64, 1, 1]}
    attrs {'axis': 1, 'num_newaxis': 2}
  }
}
layer {
  name:"Node_120"
  type:"squeeze"
  top:"Node_120"
  bottom:"Node_119"
  layer_param {
    idx:120
    in_0 {name:"Node_119:0",dtype:float32,shape:[64, 1, 1]}
    out_0 {name:"Node_120:0",dtype:float32,shape:[64]}
    attrs {'axis': [1, 2]}
  }
}
layer {
  name:"Node_121"
  type:"expand_dims"
  top:"Node_121"
  bottom:"Node_120"
  layer_param {
    idx:121
    in_0 {name:"Node_120:0",dtype:float32,shape:[64]}
    out_0 {name:"Node_121:0",dtype:float32,shape:[64, 1, 1, 1]}
    attrs {'axis': 1, 'num_newaxis': 3}
  }
}
layer {
  name:"Node_122"
  type:"multiply"
  top:"Node_122"
  bottom:"Node_103"
  bottom:"Node_121"
  layer_param {
    idx:122
    in_0 {name:"Node_103:0",dtype:float32,shape:[64, 64, 3, 3]}
    in_1 {name:"Node_121:0",dtype:float32,shape:[64, 1, 1, 1]}
    out_0 {name:"Node_122:0",dtype:float32,shape:[64, 64, 3, 3]}
  }
}
layer {
  name:"Node_123"
  type:"nn.conv2d"
  top:"Node_123"
  bottom:"Node_101"
  bottom:"Node_122"
  layer_param {
    idx:123
    in_0 {name:"Node_101:0",dtype:float32,shape:[1, 64, 56, 56]}
    in_1 {name:"Node_122:0",dtype:float32,shape:[64, 64, 3, 3]}
    out_0 {name:"Node_123:0",dtype:float32,shape:[1, 64, 56, 56]}
    attrs {'strides': [1, 1], 'padding': [1, 1, 1, 1], 'dilation': [1, 1], 'groups': 1, 'channels': 64, 'kernel_size': [3, 3], 'data_layout': 'NCHW', 'kernel_layout': 'OIHW', 'out_layout': '', 'out_dtype': ''}
  }
}
layer {
  name:"Node_128"
  type:"const"
  top:"Node_128"
  layer_param {
    idx:128
    out_0 {name:"Node_128:0",dtype:float32,shape:[64]}
  }
}
layer {
  name:"Node_129"
  type:"negative"
  top:"Node_129"
  bottom:"Node_128"
  layer_param {
    idx:129
    in_0 {name:"Node_128:0",dtype:float32,shape:[64]}
    out_0 {name:"Node_129:0",dtype:float32,shape:[64]}
  }
}
layer {
  name:"Node_131"
  type:"multiply"
  top:"Node_131"
  bottom:"Node_129"
  bottom:"Node_118"
  layer_param {
    idx:131
    in_0 {name:"Node_129:0",dtype:float32,shape:[64]}
    in_1 {name:"Node_118:0",dtype:float32,shape:[64]}
    out_0 {name:"Node_131:0",dtype:float32,shape:[64]}
  }
}
layer {
  name:"Node_132"
  type:"const"
  top:"Node_132"
  layer_param {
    idx:132
    out_0 {name:"Node_132:0",dtype:float32,shape:[64]}
  }
}
layer {
  name:"Node_133"
  type:"add"
  top:"Node_133"
  bottom:"Node_131"
  bottom:"Node_132"
  layer_param {
    idx:133
    in_0 {name:"Node_131:0",dtype:float32,shape:[64]}
    in_1 {name:"Node_132:0",dtype:float32,shape:[64]}
    out_0 {name:"Node_133:0",dtype:float32,shape:[64]}
  }
}
layer {
  name:"Node_134"
  type:"expand_dims"
  top:"Node_134"
  bottom:"Node_133"
  layer_param {
    idx:134
    in_0 {name:"Node_133:0",dtype:float32,shape:[64]}
    out_0 {name:"Node_134:0",dtype:float32,shape:[64, 1, 1]}
    attrs {'axis': 1, 'num_newaxis': 2}
  }
}
layer {
  name:"Node_135"
  type:"add"
  top:"Node_135"
  bottom:"Node_123"
  bottom:"Node_134"
  layer_param {
    idx:135
    in_0 {name:"Node_123:0",dtype:float32,shape:[1, 64, 56, 56]}
    in_1 {name:"Node_134:0",dtype:float32,shape:[64, 1, 1]}
    out_0 {name:"Node_135:0",dtype:float32,shape:[1, 64, 56, 56]}
  }
}
layer {
  name:"Node_136"
  type:"nn.relu"
  top:"Node_136"
  bottom:"Node_135"
  layer_param {
    idx:136
    in_0 {name:"Node_135:0",dtype:float32,shape:[1, 64, 56, 56]}
    out_0 {name:"Node_136:0",dtype:float32,shape:[1, 64, 56, 56]}
  }
}
layer {
  name:"Node_138"
  type:"const"
  top:"Node_138"
  layer_param {
    idx:138
    out_0 {name:"Node_138:0",dtype:float32,shape:[64, 64, 3, 3]}
  }
}
layer {
  name:"Node_144"
  type:"const"
  top:"Node_144"
  layer_param {
    idx:144
    out_0 {name:"Node_144:0",dtype:float32,shape:[]}
  }
}
layer {
  name:"Node_147"
  type:"const"
  top:"Node_147"
  layer_param {
    idx:147
    out_0 {name:"Node_147:0",dtype:float32,shape:[64]}
  }
}
layer {
  name:"Node_148"
  type:"const"
  top:"Node_148"
  layer_param {
    idx:148
    out_0 {name:"Node_148:0",dtype:float32,shape:[]}
  }
}
layer {
  name:"Node_149"
  type:"add"
  top:"Node_149"
  bottom:"Node_147"
  bottom:"Node_148"
  layer_param {
    idx:149
    in_0 {name:"Node_147:0",dtype:float32,shape:[64]}
    in_1 {name:"Node_148:0",dtype:float32,shape:[]}
    out_0 {name:"Node_149:0",dtype:float32,shape:[64]}
  }
}
layer {
  name:"Node_150"
  type:"sqrt"
  top:"Node_150"
  bottom:"Node_149"
  layer_param {
    idx:150
    in_0 {name:"Node_149:0",dtype:float32,shape:[64]}
    out_0 {name:"Node_150:0",dtype:float32,shape:[64]}
  }
}
layer {
  name:"Node_151"
  type:"divide"
  top:"Node_151"
  bottom:"Node_144"
  bottom:"Node_150"
  layer_param {
    idx:151
    in_0 {name:"Node_144:0",dtype:float32,shape:[]}
    in_1 {name:"Node_150:0",dtype:float32,shape:[64]}
    out_0 {name:"Node_151:0",dtype:float32,shape:[64]}
  }
}
layer {
  name:"Node_152"
  type:"const"
  top:"Node_152"
  layer_param {
    idx:152
    out_0 {name:"Node_152:0",dtype:float32,shape:[64]}
  }
}
layer {
  name:"Node_153"
  type:"multiply"
  top:"Node_153"
  bottom:"Node_151"
  bottom:"Node_152"
  layer_param {
    idx:153
    in_0 {name:"Node_151:0",dtype:float32,shape:[64]}
    in_1 {name:"Node_152:0",dtype:float32,shape:[64]}
    out_0 {name:"Node_153:0",dtype:float32,shape:[64]}
  }
}
layer {
  name:"Node_154"
  type:"expand_dims"
  top:"Node_154"
  bottom:"Node_153"
  layer_param {
    idx:154
    in_0 {name:"Node_153:0",dtype:float32,shape:[64]}
    out_0 {name:"Node_154:0",dtype:float32,shape:[64, 1, 1]}
    attrs {'axis': 1, 'num_newaxis': 2}
  }
}
layer {
  name:"Node_155"
  type:"squeeze"
  top:"Node_155"
  bottom:"Node_154"
  layer_param {
    idx:155
    in_0 {name:"Node_154:0",dtype:float32,shape:[64, 1, 1]}
    out_0 {name:"Node_155:0",dtype:float32,shape:[64]}
    attrs {'axis': [1, 2]}
  }
}
layer {
  name:"Node_156"
  type:"expand_dims"
  top:"Node_156"
  bottom:"Node_155"
  layer_param {
    idx:156
    in_0 {name:"Node_155:0",dtype:float32,shape:[64]}
    out_0 {name:"Node_156:0",dtype:float32,shape:[64, 1, 1, 1]}
    attrs {'axis': 1, 'num_newaxis': 3}
  }
}
layer {
  name:"Node_157"
  type:"multiply"
  top:"Node_157"
  bottom:"Node_138"
  bottom:"Node_156"
  layer_param {
    idx:157
    in_0 {name:"Node_138:0",dtype:float32,shape:[64, 64, 3, 3]}
    in_1 {name:"Node_156:0",dtype:float32,shape:[64, 1, 1, 1]}
    out_0 {name:"Node_157:0",dtype:float32,shape:[64, 64, 3, 3]}
  }
}
layer {
  name:"Node_158"
  type:"nn.conv2d"
  top:"Node_158"
  bottom:"Node_136"
  bottom:"Node_157"
  layer_param {
    idx:158
    in_0 {name:"Node_136:0",dtype:float32,shape:[1, 64, 56, 56]}
    in_1 {name:"Node_157:0",dtype:float32,shape:[64, 64, 3, 3]}
    out_0 {name:"Node_158:0",dtype:float32,shape:[1, 64, 56, 56]}
    attrs {'strides': [1, 1], 'padding': [1, 1, 1, 1], 'dilation': [1, 1], 'groups': 1, 'channels': 64, 'kernel_size': [3, 3], 'data_layout': 'NCHW', 'kernel_layout': 'OIHW', 'out_layout': '', 'out_dtype': ''}
  }
}
layer {
  name:"Node_163"
  type:"const"
  top:"Node_163"
  layer_param {
    idx:163
    out_0 {name:"Node_163:0",dtype:float32,shape:[64]}
  }
}
layer {
  name:"Node_164"
  type:"negative"
  top:"Node_164"
  bottom:"Node_163"
  layer_param {
    idx:164
    in_0 {name:"Node_163:0",dtype:float32,shape:[64]}
    out_0 {name:"Node_164:0",dtype:float32,shape:[64]}
  }
}
layer {
  name:"Node_166"
  type:"multiply"
  top:"Node_166"
  bottom:"Node_164"
  bottom:"Node_153"
  layer_param {
    idx:166
    in_0 {name:"Node_164:0",dtype:float32,shape:[64]}
    in_1 {name:"Node_153:0",dtype:float32,shape:[64]}
    out_0 {name:"Node_166:0",dtype:float32,shape:[64]}
  }
}
layer {
  name:"Node_167"
  type:"const"
  top:"Node_167"
  layer_param {
    idx:167
    out_0 {name:"Node_167:0",dtype:float32,shape:[64]}
  }
}
layer {
  name:"Node_168"
  type:"add"
  top:"Node_168"
  bottom:"Node_166"
  bottom:"Node_167"
  layer_param {
    idx:168
    in_0 {name:"Node_166:0",dtype:float32,shape:[64]}
    in_1 {name:"Node_167:0",dtype:float32,shape:[64]}
    out_0 {name:"Node_168:0",dtype:float32,shape:[64]}
  }
}
layer {
  name:"Node_169"
  type:"expand_dims"
  top:"Node_169"
  bottom:"Node_168"
  layer_param {
    idx:169
    in_0 {name:"Node_168:0",dtype:float32,shape:[64]}
    out_0 {name:"Node_169:0",dtype:float32,shape:[64, 1, 1]}
    attrs {'axis': 1, 'num_newaxis': 2}
  }
}
layer {
  name:"Node_170"
  type:"add"
  top:"Node_170"
  bottom:"Node_158"
  bottom:"Node_169"
  layer_param {
    idx:170
    in_0 {name:"Node_158:0",dtype:float32,shape:[1, 64, 56, 56]}
    in_1 {name:"Node_169:0",dtype:float32,shape:[64, 1, 1]}
    out_0 {name:"Node_170:0",dtype:float32,shape:[1, 64, 56, 56]}
  }
}
layer {
  name:"Node_172"
  type:"add"
  top:"Node_172"
  bottom:"Node_170"
  bottom:"Node_101"
  layer_param {
    idx:172
    in_0 {name:"Node_170:0",dtype:float32,shape:[1, 64, 56, 56]}
    in_1 {name:"Node_101:0",dtype:float32,shape:[1, 64, 56, 56]}
    out_0 {name:"Node_172:0",dtype:float32,shape:[1, 64, 56, 56]}
  }
}
layer {
  name:"Node_173"
  type:"nn.relu"
  top:"Node_173"
  bottom:"Node_172"
  layer_param {
    idx:173
    in_0 {name:"Node_172:0",dtype:float32,shape:[1, 64, 56, 56]}
    out_0 {name:"Node_173:0",dtype:float32,shape:[1, 64, 56, 56]}
  }
}
layer {
  name:"Node_175"
  type:"const"
  top:"Node_175"
  layer_param {
    idx:175
    out_0 {name:"Node_175:0",dtype:float32,shape:[64, 64, 3, 3]}
  }
}
layer {
  name:"Node_181"
  type:"const"
  top:"Node_181"
  layer_param {
    idx:181
    out_0 {name:"Node_181:0",dtype:float32,shape:[]}
  }
}
layer {
  name:"Node_184"
  type:"const"
  top:"Node_184"
  layer_param {
    idx:184
    out_0 {name:"Node_184:0",dtype:float32,shape:[64]}
  }
}
layer {
  name:"Node_185"
  type:"const"
  top:"Node_185"
  layer_param {
    idx:185
    out_0 {name:"Node_185:0",dtype:float32,shape:[]}
  }
}
layer {
  name:"Node_186"
  type:"add"
  top:"Node_186"
  bottom:"Node_184"
  bottom:"Node_185"
  layer_param {
    idx:186
    in_0 {name:"Node_184:0",dtype:float32,shape:[64]}
    in_1 {name:"Node_185:0",dtype:float32,shape:[]}
    out_0 {name:"Node_186:0",dtype:float32,shape:[64]}
  }
}
layer {
  name:"Node_187"
  type:"sqrt"
  top:"Node_187"
  bottom:"Node_186"
  layer_param {
    idx:187
    in_0 {name:"Node_186:0",dtype:float32,shape:[64]}
    out_0 {name:"Node_187:0",dtype:float32,shape:[64]}
  }
}
layer {
  name:"Node_188"
  type:"divide"
  top:"Node_188"
  bottom:"Node_181"
  bottom:"Node_187"
  layer_param {
    idx:188
    in_0 {name:"Node_181:0",dtype:float32,shape:[]}
    in_1 {name:"Node_187:0",dtype:float32,shape:[64]}
    out_0 {name:"Node_188:0",dtype:float32,shape:[64]}
  }
}
layer {
  name:"Node_189"
  type:"const"
  top:"Node_189"
  layer_param {
    idx:189
    out_0 {name:"Node_189:0",dtype:float32,shape:[64]}
  }
}
layer {
  name:"Node_190"
  type:"multiply"
  top:"Node_190"
  bottom:"Node_188"
  bottom:"Node_189"
  layer_param {
    idx:190
    in_0 {name:"Node_188:0",dtype:float32,shape:[64]}
    in_1 {name:"Node_189:0",dtype:float32,shape:[64]}
    out_0 {name:"Node_190:0",dtype:float32,shape:[64]}
  }
}
layer {
  name:"Node_191"
  type:"expand_dims"
  top:"Node_191"
  bottom:"Node_190"
  layer_param {
    idx:191
    in_0 {name:"Node_190:0",dtype:float32,shape:[64]}
    out_0 {name:"Node_191:0",dtype:float32,shape:[64, 1, 1]}
    attrs {'axis': 1, 'num_newaxis': 2}
  }
}
layer {
  name:"Node_192"
  type:"squeeze"
  top:"Node_192"
  bottom:"Node_191"
  layer_param {
    idx:192
    in_0 {name:"Node_191:0",dtype:float32,shape:[64, 1, 1]}
    out_0 {name:"Node_192:0",dtype:float32,shape:[64]}
    attrs {'axis': [1, 2]}
  }
}
layer {
  name:"Node_193"
  type:"expand_dims"
  top:"Node_193"
  bottom:"Node_192"
  layer_param {
    idx:193
    in_0 {name:"Node_192:0",dtype:float32,shape:[64]}
    out_0 {name:"Node_193:0",dtype:float32,shape:[64, 1, 1, 1]}
    attrs {'axis': 1, 'num_newaxis': 3}
  }
}
layer {
  name:"Node_194"
  type:"multiply"
  top:"Node_194"
  bottom:"Node_175"
  bottom:"Node_193"
  layer_param {
    idx:194
    in_0 {name:"Node_175:0",dtype:float32,shape:[64, 64, 3, 3]}
    in_1 {name:"Node_193:0",dtype:float32,shape:[64, 1, 1, 1]}
    out_0 {name:"Node_194:0",dtype:float32,shape:[64, 64, 3, 3]}
  }
}
layer {
  name:"Node_195"
  type:"nn.conv2d"
  top:"Node_195"
  bottom:"Node_173"
  bottom:"Node_194"
  layer_param {
    idx:195
    in_0 {name:"Node_173:0",dtype:float32,shape:[1, 64, 56, 56]}
    in_1 {name:"Node_194:0",dtype:float32,shape:[64, 64, 3, 3]}
    out_0 {name:"Node_195:0",dtype:float32,shape:[1, 64, 56, 56]}
    attrs {'strides': [1, 1], 'padding': [1, 1, 1, 1], 'dilation': [1, 1], 'groups': 1, 'channels': 64, 'kernel_size': [3, 3], 'data_layout': 'NCHW', 'kernel_layout': 'OIHW', 'out_layout': '', 'out_dtype': ''}
  }
}
layer {
  name:"Node_200"
  type:"const"
  top:"Node_200"
  layer_param {
    idx:200
    out_0 {name:"Node_200:0",dtype:float32,shape:[64]}
  }
}
layer {
  name:"Node_201"
  type:"negative"
  top:"Node_201"
  bottom:"Node_200"
  layer_param {
    idx:201
    in_0 {name:"Node_200:0",dtype:float32,shape:[64]}
    out_0 {name:"Node_201:0",dtype:float32,shape:[64]}
  }
}
layer {
  name:"Node_203"
  type:"multiply"
  top:"Node_203"
  bottom:"Node_201"
  bottom:"Node_190"
  layer_param {
    idx:203
    in_0 {name:"Node_201:0",dtype:float32,shape:[64]}
    in_1 {name:"Node_190:0",dtype:float32,shape:[64]}
    out_0 {name:"Node_203:0",dtype:float32,shape:[64]}
  }
}
layer {
  name:"Node_204"
  type:"const"
  top:"Node_204"
  layer_param {
    idx:204
    out_0 {name:"Node_204:0",dtype:float32,shape:[64]}
  }
}
layer {
  name:"Node_205"
  type:"add"
  top:"Node_205"
  bottom:"Node_203"
  bottom:"Node_204"
  layer_param {
    idx:205
    in_0 {name:"Node_203:0",dtype:float32,shape:[64]}
    in_1 {name:"Node_204:0",dtype:float32,shape:[64]}
    out_0 {name:"Node_205:0",dtype:float32,shape:[64]}
  }
}
layer {
  name:"Node_206"
  type:"expand_dims"
  top:"Node_206"
  bottom:"Node_205"
  layer_param {
    idx:206
    in_0 {name:"Node_205:0",dtype:float32,shape:[64]}
    out_0 {name:"Node_206:0",dtype:float32,shape:[64, 1, 1]}
    attrs {'axis': 1, 'num_newaxis': 2}
  }
}
layer {
  name:"Node_207"
  type:"add"
  top:"Node_207"
  bottom:"Node_195"
  bottom:"Node_206"
  layer_param {
    idx:207
    in_0 {name:"Node_195:0",dtype:float32,shape:[1, 64, 56, 56]}
    in_1 {name:"Node_206:0",dtype:float32,shape:[64, 1, 1]}
    out_0 {name:"Node_207:0",dtype:float32,shape:[1, 64, 56, 56]}
  }
}
layer {
  name:"Node_208"
  type:"nn.relu"
  top:"Node_208"
  bottom:"Node_207"
  layer_param {
    idx:208
    in_0 {name:"Node_207:0",dtype:float32,shape:[1, 64, 56, 56]}
    out_0 {name:"Node_208:0",dtype:float32,shape:[1, 64, 56, 56]}
  }
}
layer {
  name:"Node_210"
  type:"const"
  top:"Node_210"
  layer_param {
    idx:210
    out_0 {name:"Node_210:0",dtype:float32,shape:[64, 64, 3, 3]}
  }
}
layer {
  name:"Node_216"
  type:"const"
  top:"Node_216"
  layer_param {
    idx:216
    out_0 {name:"Node_216:0",dtype:float32,shape:[]}
  }
}
layer {
  name:"Node_219"
  type:"const"
  top:"Node_219"
  layer_param {
    idx:219
    out_0 {name:"Node_219:0",dtype:float32,shape:[64]}
  }
}
layer {
  name:"Node_220"
  type:"const"
  top:"Node_220"
  layer_param {
    idx:220
    out_0 {name:"Node_220:0",dtype:float32,shape:[]}
  }
}
layer {
  name:"Node_221"
  type:"add"
  top:"Node_221"
  bottom:"Node_219"
  bottom:"Node_220"
  layer_param {
    idx:221
    in_0 {name:"Node_219:0",dtype:float32,shape:[64]}
    in_1 {name:"Node_220:0",dtype:float32,shape:[]}
    out_0 {name:"Node_221:0",dtype:float32,shape:[64]}
  }
}
layer {
  name:"Node_222"
  type:"sqrt"
  top:"Node_222"
  bottom:"Node_221"
  layer_param {
    idx:222
    in_0 {name:"Node_221:0",dtype:float32,shape:[64]}
    out_0 {name:"Node_222:0",dtype:float32,shape:[64]}
  }
}
layer {
  name:"Node_223"
  type:"divide"
  top:"Node_223"
  bottom:"Node_216"
  bottom:"Node_222"
  layer_param {
    idx:223
    in_0 {name:"Node_216:0",dtype:float32,shape:[]}
    in_1 {name:"Node_222:0",dtype:float32,shape:[64]}
    out_0 {name:"Node_223:0",dtype:float32,shape:[64]}
  }
}
layer {
  name:"Node_224"
  type:"const"
  top:"Node_224"
  layer_param {
    idx:224
    out_0 {name:"Node_224:0",dtype:float32,shape:[64]}
  }
}
layer {
  name:"Node_225"
  type:"multiply"
  top:"Node_225"
  bottom:"Node_223"
  bottom:"Node_224"
  layer_param {
    idx:225
    in_0 {name:"Node_223:0",dtype:float32,shape:[64]}
    in_1 {name:"Node_224:0",dtype:float32,shape:[64]}
    out_0 {name:"Node_225:0",dtype:float32,shape:[64]}
  }
}
layer {
  name:"Node_226"
  type:"expand_dims"
  top:"Node_226"
  bottom:"Node_225"
  layer_param {
    idx:226
    in_0 {name:"Node_225:0",dtype:float32,shape:[64]}
    out_0 {name:"Node_226:0",dtype:float32,shape:[64, 1, 1]}
    attrs {'axis': 1, 'num_newaxis': 2}
  }
}
layer {
  name:"Node_227"
  type:"squeeze"
  top:"Node_227"
  bottom:"Node_226"
  layer_param {
    idx:227
    in_0 {name:"Node_226:0",dtype:float32,shape:[64, 1, 1]}
    out_0 {name:"Node_227:0",dtype:float32,shape:[64]}
    attrs {'axis': [1, 2]}
  }
}
layer {
  name:"Node_228"
  type:"expand_dims"
  top:"Node_228"
  bottom:"Node_227"
  layer_param {
    idx:228
    in_0 {name:"Node_227:0",dtype:float32,shape:[64]}
    out_0 {name:"Node_228:0",dtype:float32,shape:[64, 1, 1, 1]}
    attrs {'axis': 1, 'num_newaxis': 3}
  }
}
layer {
  name:"Node_229"
  type:"multiply"
  top:"Node_229"
  bottom:"Node_210"
  bottom:"Node_228"
  layer_param {
    idx:229
    in_0 {name:"Node_210:0",dtype:float32,shape:[64, 64, 3, 3]}
    in_1 {name:"Node_228:0",dtype:float32,shape:[64, 1, 1, 1]}
    out_0 {name:"Node_229:0",dtype:float32,shape:[64, 64, 3, 3]}
  }
}
layer {
  name:"Node_230"
  type:"nn.conv2d"
  top:"Node_230"
  bottom:"Node_208"
  bottom:"Node_229"
  layer_param {
    idx:230
    in_0 {name:"Node_208:0",dtype:float32,shape:[1, 64, 56, 56]}
    in_1 {name:"Node_229:0",dtype:float32,shape:[64, 64, 3, 3]}
    out_0 {name:"Node_230:0",dtype:float32,shape:[1, 64, 56, 56]}
    attrs {'strides': [1, 1], 'padding': [1, 1, 1, 1], 'dilation': [1, 1], 'groups': 1, 'channels': 64, 'kernel_size': [3, 3], 'data_layout': 'NCHW', 'kernel_layout': 'OIHW', 'out_layout': '', 'out_dtype': ''}
  }
}
layer {
  name:"Node_235"
  type:"const"
  top:"Node_235"
  layer_param {
    idx:235
    out_0 {name:"Node_235:0",dtype:float32,shape:[64]}
  }
}
layer {
  name:"Node_236"
  type:"negative"
  top:"Node_236"
  bottom:"Node_235"
  layer_param {
    idx:236
    in_0 {name:"Node_235:0",dtype:float32,shape:[64]}
    out_0 {name:"Node_236:0",dtype:float32,shape:[64]}
  }
}
layer {
  name:"Node_238"
  type:"multiply"
  top:"Node_238"
  bottom:"Node_236"
  bottom:"Node_225"
  layer_param {
    idx:238
    in_0 {name:"Node_236:0",dtype:float32,shape:[64]}
    in_1 {name:"Node_225:0",dtype:float32,shape:[64]}
    out_0 {name:"Node_238:0",dtype:float32,shape:[64]}
  }
}
layer {
  name:"Node_239"
  type:"const"
  top:"Node_239"
  layer_param {
    idx:239
    out_0 {name:"Node_239:0",dtype:float32,shape:[64]}
  }
}
layer {
  name:"Node_240"
  type:"add"
  top:"Node_240"
  bottom:"Node_238"
  bottom:"Node_239"
  layer_param {
    idx:240
    in_0 {name:"Node_238:0",dtype:float32,shape:[64]}
    in_1 {name:"Node_239:0",dtype:float32,shape:[64]}
    out_0 {name:"Node_240:0",dtype:float32,shape:[64]}
  }
}
layer {
  name:"Node_241"
  type:"expand_dims"
  top:"Node_241"
  bottom:"Node_240"
  layer_param {
    idx:241
    in_0 {name:"Node_240:0",dtype:float32,shape:[64]}
    out_0 {name:"Node_241:0",dtype:float32,shape:[64, 1, 1]}
    attrs {'axis': 1, 'num_newaxis': 2}
  }
}
layer {
  name:"Node_242"
  type:"add"
  top:"Node_242"
  bottom:"Node_230"
  bottom:"Node_241"
  layer_param {
    idx:242
    in_0 {name:"Node_230:0",dtype:float32,shape:[1, 64, 56, 56]}
    in_1 {name:"Node_241:0",dtype:float32,shape:[64, 1, 1]}
    out_0 {name:"Node_242:0",dtype:float32,shape:[1, 64, 56, 56]}
  }
}
layer {
  name:"Node_244"
  type:"add"
  top:"Node_244"
  bottom:"Node_242"
  bottom:"Node_173"
  layer_param {
    idx:244
    in_0 {name:"Node_242:0",dtype:float32,shape:[1, 64, 56, 56]}
    in_1 {name:"Node_173:0",dtype:float32,shape:[1, 64, 56, 56]}
    out_0 {name:"Node_244:0",dtype:float32,shape:[1, 64, 56, 56]}
  }
}
layer {
  name:"Node_245"
  type:"nn.relu"
  top:"Node_245"
  bottom:"Node_244"
  layer_param {
    idx:245
    in_0 {name:"Node_244:0",dtype:float32,shape:[1, 64, 56, 56]}
    out_0 {name:"Node_245:0",dtype:float32,shape:[1, 64, 56, 56]}
  }
}
layer {
  name:"Node_247"
  type:"const"
  top:"Node_247"
  layer_param {
    idx:247
    out_0 {name:"Node_247:0",dtype:float32,shape:[128, 64, 3, 3]}
  }
}
layer {
  name:"Node_253"
  type:"const"
  top:"Node_253"
  layer_param {
    idx:253
    out_0 {name:"Node_253:0",dtype:float32,shape:[]}
  }
}
layer {
  name:"Node_256"
  type:"const"
  top:"Node_256"
  layer_param {
    idx:256
    out_0 {name:"Node_256:0",dtype:float32,shape:[128]}
  }
}
layer {
  name:"Node_257"
  type:"const"
  top:"Node_257"
  layer_param {
    idx:257
    out_0 {name:"Node_257:0",dtype:float32,shape:[]}
  }
}
layer {
  name:"Node_258"
  type:"add"
  top:"Node_258"
  bottom:"Node_256"
  bottom:"Node_257"
  layer_param {
    idx:258
    in_0 {name:"Node_256:0",dtype:float32,shape:[128]}
    in_1 {name:"Node_257:0",dtype:float32,shape:[]}
    out_0 {name:"Node_258:0",dtype:float32,shape:[128]}
  }
}
layer {
  name:"Node_259"
  type:"sqrt"
  top:"Node_259"
  bottom:"Node_258"
  layer_param {
    idx:259
    in_0 {name:"Node_258:0",dtype:float32,shape:[128]}
    out_0 {name:"Node_259:0",dtype:float32,shape:[128]}
  }
}
layer {
  name:"Node_260"
  type:"divide"
  top:"Node_260"
  bottom:"Node_253"
  bottom:"Node_259"
  layer_param {
    idx:260
    in_0 {name:"Node_253:0",dtype:float32,shape:[]}
    in_1 {name:"Node_259:0",dtype:float32,shape:[128]}
    out_0 {name:"Node_260:0",dtype:float32,shape:[128]}
  }
}
layer {
  name:"Node_261"
  type:"const"
  top:"Node_261"
  layer_param {
    idx:261
    out_0 {name:"Node_261:0",dtype:float32,shape:[128]}
  }
}
layer {
  name:"Node_262"
  type:"multiply"
  top:"Node_262"
  bottom:"Node_260"
  bottom:"Node_261"
  layer_param {
    idx:262
    in_0 {name:"Node_260:0",dtype:float32,shape:[128]}
    in_1 {name:"Node_261:0",dtype:float32,shape:[128]}
    out_0 {name:"Node_262:0",dtype:float32,shape:[128]}
  }
}
layer {
  name:"Node_263"
  type:"expand_dims"
  top:"Node_263"
  bottom:"Node_262"
  layer_param {
    idx:263
    in_0 {name:"Node_262:0",dtype:float32,shape:[128]}
    out_0 {name:"Node_263:0",dtype:float32,shape:[128, 1, 1]}
    attrs {'axis': 1, 'num_newaxis': 2}
  }
}
layer {
  name:"Node_264"
  type:"squeeze"
  top:"Node_264"
  bottom:"Node_263"
  layer_param {
    idx:264
    in_0 {name:"Node_263:0",dtype:float32,shape:[128, 1, 1]}
    out_0 {name:"Node_264:0",dtype:float32,shape:[128]}
    attrs {'axis': [1, 2]}
  }
}
layer {
  name:"Node_265"
  type:"expand_dims"
  top:"Node_265"
  bottom:"Node_264"
  layer_param {
    idx:265
    in_0 {name:"Node_264:0",dtype:float32,shape:[128]}
    out_0 {name:"Node_265:0",dtype:float32,shape:[128, 1, 1, 1]}
    attrs {'axis': 1, 'num_newaxis': 3}
  }
}
layer {
  name:"Node_266"
  type:"multiply"
  top:"Node_266"
  bottom:"Node_247"
  bottom:"Node_265"
  layer_param {
    idx:266
    in_0 {name:"Node_247:0",dtype:float32,shape:[128, 64, 3, 3]}
    in_1 {name:"Node_265:0",dtype:float32,shape:[128, 1, 1, 1]}
    out_0 {name:"Node_266:0",dtype:float32,shape:[128, 64, 3, 3]}
  }
}
layer {
  name:"Node_267"
  type:"nn.conv2d"
  top:"Node_267"
  bottom:"Node_245"
  bottom:"Node_266"
  layer_param {
    idx:267
    in_0 {name:"Node_245:0",dtype:float32,shape:[1, 64, 56, 56]}
    in_1 {name:"Node_266:0",dtype:float32,shape:[128, 64, 3, 3]}
    out_0 {name:"Node_267:0",dtype:float32,shape:[1, 128, 28, 28]}
    attrs {'strides': [2, 2], 'padding': [1, 1, 1, 1], 'dilation': [1, 1], 'groups': 1, 'channels': 128, 'kernel_size': [3, 3], 'data_layout': 'NCHW', 'kernel_layout': 'OIHW', 'out_layout': '', 'out_dtype': ''}
  }
}
layer {
  name:"Node_272"
  type:"const"
  top:"Node_272"
  layer_param {
    idx:272
    out_0 {name:"Node_272:0",dtype:float32,shape:[128]}
  }
}
layer {
  name:"Node_273"
  type:"negative"
  top:"Node_273"
  bottom:"Node_272"
  layer_param {
    idx:273
    in_0 {name:"Node_272:0",dtype:float32,shape:[128]}
    out_0 {name:"Node_273:0",dtype:float32,shape:[128]}
  }
}
layer {
  name:"Node_275"
  type:"multiply"
  top:"Node_275"
  bottom:"Node_273"
  bottom:"Node_262"
  layer_param {
    idx:275
    in_0 {name:"Node_273:0",dtype:float32,shape:[128]}
    in_1 {name:"Node_262:0",dtype:float32,shape:[128]}
    out_0 {name:"Node_275:0",dtype:float32,shape:[128]}
  }
}
layer {
  name:"Node_276"
  type:"const"
  top:"Node_276"
  layer_param {
    idx:276
    out_0 {name:"Node_276:0",dtype:float32,shape:[128]}
  }
}
layer {
  name:"Node_277"
  type:"add"
  top:"Node_277"
  bottom:"Node_275"
  bottom:"Node_276"
  layer_param {
    idx:277
    in_0 {name:"Node_275:0",dtype:float32,shape:[128]}
    in_1 {name:"Node_276:0",dtype:float32,shape:[128]}
    out_0 {name:"Node_277:0",dtype:float32,shape:[128]}
  }
}
layer {
  name:"Node_278"
  type:"expand_dims"
  top:"Node_278"
  bottom:"Node_277"
  layer_param {
    idx:278
    in_0 {name:"Node_277:0",dtype:float32,shape:[128]}
    out_0 {name:"Node_278:0",dtype:float32,shape:[128, 1, 1]}
    attrs {'axis': 1, 'num_newaxis': 2}
  }
}
layer {
  name:"Node_279"
  type:"add"
  top:"Node_279"
  bottom:"Node_267"
  bottom:"Node_278"
  layer_param {
    idx:279
    in_0 {name:"Node_267:0",dtype:float32,shape:[1, 128, 28, 28]}
    in_1 {name:"Node_278:0",dtype:float32,shape:[128, 1, 1]}
    out_0 {name:"Node_279:0",dtype:float32,shape:[1, 128, 28, 28]}
  }
}
layer {
  name:"Node_280"
  type:"nn.relu"
  top:"Node_280"
  bottom:"Node_279"
  layer_param {
    idx:280
    in_0 {name:"Node_279:0",dtype:float32,shape:[1, 128, 28, 28]}
    out_0 {name:"Node_280:0",dtype:float32,shape:[1, 128, 28, 28]}
  }
}
layer {
  name:"Node_282"
  type:"const"
  top:"Node_282"
  layer_param {
    idx:282
    out_0 {name:"Node_282:0",dtype:float32,shape:[128, 128, 3, 3]}
  }
}
layer {
  name:"Node_288"
  type:"const"
  top:"Node_288"
  layer_param {
    idx:288
    out_0 {name:"Node_288:0",dtype:float32,shape:[]}
  }
}
layer {
  name:"Node_291"
  type:"const"
  top:"Node_291"
  layer_param {
    idx:291
    out_0 {name:"Node_291:0",dtype:float32,shape:[128]}
  }
}
layer {
  name:"Node_292"
  type:"const"
  top:"Node_292"
  layer_param {
    idx:292
    out_0 {name:"Node_292:0",dtype:float32,shape:[]}
  }
}
layer {
  name:"Node_293"
  type:"add"
  top:"Node_293"
  bottom:"Node_291"
  bottom:"Node_292"
  layer_param {
    idx:293
    in_0 {name:"Node_291:0",dtype:float32,shape:[128]}
    in_1 {name:"Node_292:0",dtype:float32,shape:[]}
    out_0 {name:"Node_293:0",dtype:float32,shape:[128]}
  }
}
layer {
  name:"Node_294"
  type:"sqrt"
  top:"Node_294"
  bottom:"Node_293"
  layer_param {
    idx:294
    in_0 {name:"Node_293:0",dtype:float32,shape:[128]}
    out_0 {name:"Node_294:0",dtype:float32,shape:[128]}
  }
}
layer {
  name:"Node_295"
  type:"divide"
  top:"Node_295"
  bottom:"Node_288"
  bottom:"Node_294"
  layer_param {
    idx:295
    in_0 {name:"Node_288:0",dtype:float32,shape:[]}
    in_1 {name:"Node_294:0",dtype:float32,shape:[128]}
    out_0 {name:"Node_295:0",dtype:float32,shape:[128]}
  }
}
layer {
  name:"Node_296"
  type:"const"
  top:"Node_296"
  layer_param {
    idx:296
    out_0 {name:"Node_296:0",dtype:float32,shape:[128]}
  }
}
layer {
  name:"Node_297"
  type:"multiply"
  top:"Node_297"
  bottom:"Node_295"
  bottom:"Node_296"
  layer_param {
    idx:297
    in_0 {name:"Node_295:0",dtype:float32,shape:[128]}
    in_1 {name:"Node_296:0",dtype:float32,shape:[128]}
    out_0 {name:"Node_297:0",dtype:float32,shape:[128]}
  }
}
layer {
  name:"Node_298"
  type:"expand_dims"
  top:"Node_298"
  bottom:"Node_297"
  layer_param {
    idx:298
    in_0 {name:"Node_297:0",dtype:float32,shape:[128]}
    out_0 {name:"Node_298:0",dtype:float32,shape:[128, 1, 1]}
    attrs {'axis': 1, 'num_newaxis': 2}
  }
}
layer {
  name:"Node_299"
  type:"squeeze"
  top:"Node_299"
  bottom:"Node_298"
  layer_param {
    idx:299
    in_0 {name:"Node_298:0",dtype:float32,shape:[128, 1, 1]}
    out_0 {name:"Node_299:0",dtype:float32,shape:[128]}
    attrs {'axis': [1, 2]}
  }
}
layer {
  name:"Node_300"
  type:"expand_dims"
  top:"Node_300"
  bottom:"Node_299"
  layer_param {
    idx:300
    in_0 {name:"Node_299:0",dtype:float32,shape:[128]}
    out_0 {name:"Node_300:0",dtype:float32,shape:[128, 1, 1, 1]}
    attrs {'axis': 1, 'num_newaxis': 3}
  }
}
layer {
  name:"Node_301"
  type:"multiply"
  top:"Node_301"
  bottom:"Node_282"
  bottom:"Node_300"
  layer_param {
    idx:301
    in_0 {name:"Node_282:0",dtype:float32,shape:[128, 128, 3, 3]}
    in_1 {name:"Node_300:0",dtype:float32,shape:[128, 1, 1, 1]}
    out_0 {name:"Node_301:0",dtype:float32,shape:[128, 128, 3, 3]}
  }
}
layer {
  name:"Node_302"
  type:"nn.conv2d"
  top:"Node_302"
  bottom:"Node_280"
  bottom:"Node_301"
  layer_param {
    idx:302
    in_0 {name:"Node_280:0",dtype:float32,shape:[1, 128, 28, 28]}
    in_1 {name:"Node_301:0",dtype:float32,shape:[128, 128, 3, 3]}
    out_0 {name:"Node_302:0",dtype:float32,shape:[1, 128, 28, 28]}
    attrs {'strides': [1, 1], 'padding': [1, 1, 1, 1], 'dilation': [1, 1], 'groups': 1, 'channels': 128, 'kernel_size': [3, 3], 'data_layout': 'NCHW', 'kernel_layout': 'OIHW', 'out_layout': '', 'out_dtype': ''}
  }
}
layer {
  name:"Node_307"
  type:"const"
  top:"Node_307"
  layer_param {
    idx:307
    out_0 {name:"Node_307:0",dtype:float32,shape:[128]}
  }
}
layer {
  name:"Node_308"
  type:"negative"
  top:"Node_308"
  bottom:"Node_307"
  layer_param {
    idx:308
    in_0 {name:"Node_307:0",dtype:float32,shape:[128]}
    out_0 {name:"Node_308:0",dtype:float32,shape:[128]}
  }
}
layer {
  name:"Node_310"
  type:"multiply"
  top:"Node_310"
  bottom:"Node_308"
  bottom:"Node_297"
  layer_param {
    idx:310
    in_0 {name:"Node_308:0",dtype:float32,shape:[128]}
    in_1 {name:"Node_297:0",dtype:float32,shape:[128]}
    out_0 {name:"Node_310:0",dtype:float32,shape:[128]}
  }
}
layer {
  name:"Node_311"
  type:"const"
  top:"Node_311"
  layer_param {
    idx:311
    out_0 {name:"Node_311:0",dtype:float32,shape:[128]}
  }
}
layer {
  name:"Node_312"
  type:"add"
  top:"Node_312"
  bottom:"Node_310"
  bottom:"Node_311"
  layer_param {
    idx:312
    in_0 {name:"Node_310:0",dtype:float32,shape:[128]}
    in_1 {name:"Node_311:0",dtype:float32,shape:[128]}
    out_0 {name:"Node_312:0",dtype:float32,shape:[128]}
  }
}
layer {
  name:"Node_313"
  type:"expand_dims"
  top:"Node_313"
  bottom:"Node_312"
  layer_param {
    idx:313
    in_0 {name:"Node_312:0",dtype:float32,shape:[128]}
    out_0 {name:"Node_313:0",dtype:float32,shape:[128, 1, 1]}
    attrs {'axis': 1, 'num_newaxis': 2}
  }
}
layer {
  name:"Node_314"
  type:"add"
  top:"Node_314"
  bottom:"Node_302"
  bottom:"Node_313"
  layer_param {
    idx:314
    in_0 {name:"Node_302:0",dtype:float32,shape:[1, 128, 28, 28]}
    in_1 {name:"Node_313:0",dtype:float32,shape:[128, 1, 1]}
    out_0 {name:"Node_314:0",dtype:float32,shape:[1, 128, 28, 28]}
  }
}
layer {
  name:"Node_319"
  type:"const"
  top:"Node_319"
  layer_param {
    idx:319
    out_0 {name:"Node_319:0",dtype:float32,shape:[128, 64, 1, 1]}
  }
}
layer {
  name:"Node_325"
  type:"const"
  top:"Node_325"
  layer_param {
    idx:325
    out_0 {name:"Node_325:0",dtype:float32,shape:[]}
  }
}
layer {
  name:"Node_328"
  type:"const"
  top:"Node_328"
  layer_param {
    idx:328
    out_0 {name:"Node_328:0",dtype:float32,shape:[128]}
  }
}
layer {
  name:"Node_329"
  type:"const"
  top:"Node_329"
  layer_param {
    idx:329
    out_0 {name:"Node_329:0",dtype:float32,shape:[]}
  }
}
layer {
  name:"Node_330"
  type:"add"
  top:"Node_330"
  bottom:"Node_328"
  bottom:"Node_329"
  layer_param {
    idx:330
    in_0 {name:"Node_328:0",dtype:float32,shape:[128]}
    in_1 {name:"Node_329:0",dtype:float32,shape:[]}
    out_0 {name:"Node_330:0",dtype:float32,shape:[128]}
  }
}
layer {
  name:"Node_331"
  type:"sqrt"
  top:"Node_331"
  bottom:"Node_330"
  layer_param {
    idx:331
    in_0 {name:"Node_330:0",dtype:float32,shape:[128]}
    out_0 {name:"Node_331:0",dtype:float32,shape:[128]}
  }
}
layer {
  name:"Node_332"
  type:"divide"
  top:"Node_332"
  bottom:"Node_325"
  bottom:"Node_331"
  layer_param {
    idx:332
    in_0 {name:"Node_325:0",dtype:float32,shape:[]}
    in_1 {name:"Node_331:0",dtype:float32,shape:[128]}
    out_0 {name:"Node_332:0",dtype:float32,shape:[128]}
  }
}
layer {
  name:"Node_333"
  type:"const"
  top:"Node_333"
  layer_param {
    idx:333
    out_0 {name:"Node_333:0",dtype:float32,shape:[128]}
  }
}
layer {
  name:"Node_334"
  type:"multiply"
  top:"Node_334"
  bottom:"Node_332"
  bottom:"Node_333"
  layer_param {
    idx:334
    in_0 {name:"Node_332:0",dtype:float32,shape:[128]}
    in_1 {name:"Node_333:0",dtype:float32,shape:[128]}
    out_0 {name:"Node_334:0",dtype:float32,shape:[128]}
  }
}
layer {
  name:"Node_335"
  type:"expand_dims"
  top:"Node_335"
  bottom:"Node_334"
  layer_param {
    idx:335
    in_0 {name:"Node_334:0",dtype:float32,shape:[128]}
    out_0 {name:"Node_335:0",dtype:float32,shape:[128, 1, 1]}
    attrs {'axis': 1, 'num_newaxis': 2}
  }
}
layer {
  name:"Node_336"
  type:"squeeze"
  top:"Node_336"
  bottom:"Node_335"
  layer_param {
    idx:336
    in_0 {name:"Node_335:0",dtype:float32,shape:[128, 1, 1]}
    out_0 {name:"Node_336:0",dtype:float32,shape:[128]}
    attrs {'axis': [1, 2]}
  }
}
layer {
  name:"Node_337"
  type:"expand_dims"
  top:"Node_337"
  bottom:"Node_336"
  layer_param {
    idx:337
    in_0 {name:"Node_336:0",dtype:float32,shape:[128]}
    out_0 {name:"Node_337:0",dtype:float32,shape:[128, 1, 1, 1]}
    attrs {'axis': 1, 'num_newaxis': 3}
  }
}
layer {
  name:"Node_338"
  type:"multiply"
  top:"Node_338"
  bottom:"Node_319"
  bottom:"Node_337"
  layer_param {
    idx:338
    in_0 {name:"Node_319:0",dtype:float32,shape:[128, 64, 1, 1]}
    in_1 {name:"Node_337:0",dtype:float32,shape:[128, 1, 1, 1]}
    out_0 {name:"Node_338:0",dtype:float32,shape:[128, 64, 1, 1]}
  }
}
layer {
  name:"Node_339"
  type:"nn.conv2d"
  top:"Node_339"
  bottom:"Node_245"
  bottom:"Node_338"
  layer_param {
    idx:339
    in_0 {name:"Node_245:0",dtype:float32,shape:[1, 64, 56, 56]}
    in_1 {name:"Node_338:0",dtype:float32,shape:[128, 64, 1, 1]}
    out_0 {name:"Node_339:0",dtype:float32,shape:[1, 128, 28, 28]}
    attrs {'strides': [2, 2], 'padding': [0, 0, 0, 0], 'dilation': [1, 1], 'groups': 1, 'channels': 128, 'kernel_size': [1, 1], 'data_layout': 'NCHW', 'kernel_layout': 'OIHW', 'out_layout': '', 'out_dtype': ''}
  }
}
layer {
  name:"Node_344"
  type:"const"
  top:"Node_344"
  layer_param {
    idx:344
    out_0 {name:"Node_344:0",dtype:float32,shape:[128]}
  }
}
layer {
  name:"Node_345"
  type:"negative"
  top:"Node_345"
  bottom:"Node_344"
  layer_param {
    idx:345
    in_0 {name:"Node_344:0",dtype:float32,shape:[128]}
    out_0 {name:"Node_345:0",dtype:float32,shape:[128]}
  }
}
layer {
  name:"Node_347"
  type:"multiply"
  top:"Node_347"
  bottom:"Node_345"
  bottom:"Node_334"
  layer_param {
    idx:347
    in_0 {name:"Node_345:0",dtype:float32,shape:[128]}
    in_1 {name:"Node_334:0",dtype:float32,shape:[128]}
    out_0 {name:"Node_347:0",dtype:float32,shape:[128]}
  }
}
layer {
  name:"Node_348"
  type:"const"
  top:"Node_348"
  layer_param {
    idx:348
    out_0 {name:"Node_348:0",dtype:float32,shape:[128]}
  }
}
layer {
  name:"Node_349"
  type:"add"
  top:"Node_349"
  bottom:"Node_347"
  bottom:"Node_348"
  layer_param {
    idx:349
    in_0 {name:"Node_347:0",dtype:float32,shape:[128]}
    in_1 {name:"Node_348:0",dtype:float32,shape:[128]}
    out_0 {name:"Node_349:0",dtype:float32,shape:[128]}
  }
}
layer {
  name:"Node_350"
  type:"expand_dims"
  top:"Node_350"
  bottom:"Node_349"
  layer_param {
    idx:350
    in_0 {name:"Node_349:0",dtype:float32,shape:[128]}
    out_0 {name:"Node_350:0",dtype:float32,shape:[128, 1, 1]}
    attrs {'axis': 1, 'num_newaxis': 2}
  }
}
layer {
  name:"Node_351"
  type:"add"
  top:"Node_351"
  bottom:"Node_339"
  bottom:"Node_350"
  layer_param {
    idx:351
    in_0 {name:"Node_339:0",dtype:float32,shape:[1, 128, 28, 28]}
    in_1 {name:"Node_350:0",dtype:float32,shape:[128, 1, 1]}
    out_0 {name:"Node_351:0",dtype:float32,shape:[1, 128, 28, 28]}
  }
}
layer {
  name:"Node_352"
  type:"add"
  top:"Node_352"
  bottom:"Node_314"
  bottom:"Node_351"
  layer_param {
    idx:352
    in_0 {name:"Node_314:0",dtype:float32,shape:[1, 128, 28, 28]}
    in_1 {name:"Node_351:0",dtype:float32,shape:[1, 128, 28, 28]}
    out_0 {name:"Node_352:0",dtype:float32,shape:[1, 128, 28, 28]}
  }
}
layer {
  name:"Node_353"
  type:"nn.relu"
  top:"Node_353"
  bottom:"Node_352"
  layer_param {
    idx:353
    in_0 {name:"Node_352:0",dtype:float32,shape:[1, 128, 28, 28]}
    out_0 {name:"Node_353:0",dtype:float32,shape:[1, 128, 28, 28]}
  }
}
layer {
  name:"Node_355"
  type:"const"
  top:"Node_355"
  layer_param {
    idx:355
    out_0 {name:"Node_355:0",dtype:float32,shape:[128, 128, 3, 3]}
  }
}
layer {
  name:"Node_361"
  type:"const"
  top:"Node_361"
  layer_param {
    idx:361
    out_0 {name:"Node_361:0",dtype:float32,shape:[]}
  }
}
layer {
  name:"Node_364"
  type:"const"
  top:"Node_364"
  layer_param {
    idx:364
    out_0 {name:"Node_364:0",dtype:float32,shape:[128]}
  }
}
layer {
  name:"Node_365"
  type:"const"
  top:"Node_365"
  layer_param {
    idx:365
    out_0 {name:"Node_365:0",dtype:float32,shape:[]}
  }
}
layer {
  name:"Node_366"
  type:"add"
  top:"Node_366"
  bottom:"Node_364"
  bottom:"Node_365"
  layer_param {
    idx:366
    in_0 {name:"Node_364:0",dtype:float32,shape:[128]}
    in_1 {name:"Node_365:0",dtype:float32,shape:[]}
    out_0 {name:"Node_366:0",dtype:float32,shape:[128]}
  }
}
layer {
  name:"Node_367"
  type:"sqrt"
  top:"Node_367"
  bottom:"Node_366"
  layer_param {
    idx:367
    in_0 {name:"Node_366:0",dtype:float32,shape:[128]}
    out_0 {name:"Node_367:0",dtype:float32,shape:[128]}
  }
}
layer {
  name:"Node_368"
  type:"divide"
  top:"Node_368"
  bottom:"Node_361"
  bottom:"Node_367"
  layer_param {
    idx:368
    in_0 {name:"Node_361:0",dtype:float32,shape:[]}
    in_1 {name:"Node_367:0",dtype:float32,shape:[128]}
    out_0 {name:"Node_368:0",dtype:float32,shape:[128]}
  }
}
layer {
  name:"Node_369"
  type:"const"
  top:"Node_369"
  layer_param {
    idx:369
    out_0 {name:"Node_369:0",dtype:float32,shape:[128]}
  }
}
layer {
  name:"Node_370"
  type:"multiply"
  top:"Node_370"
  bottom:"Node_368"
  bottom:"Node_369"
  layer_param {
    idx:370
    in_0 {name:"Node_368:0",dtype:float32,shape:[128]}
    in_1 {name:"Node_369:0",dtype:float32,shape:[128]}
    out_0 {name:"Node_370:0",dtype:float32,shape:[128]}
  }
}
layer {
  name:"Node_371"
  type:"expand_dims"
  top:"Node_371"
  bottom:"Node_370"
  layer_param {
    idx:371
    in_0 {name:"Node_370:0",dtype:float32,shape:[128]}
    out_0 {name:"Node_371:0",dtype:float32,shape:[128, 1, 1]}
    attrs {'axis': 1, 'num_newaxis': 2}
  }
}
layer {
  name:"Node_372"
  type:"squeeze"
  top:"Node_372"
  bottom:"Node_371"
  layer_param {
    idx:372
    in_0 {name:"Node_371:0",dtype:float32,shape:[128, 1, 1]}
    out_0 {name:"Node_372:0",dtype:float32,shape:[128]}
    attrs {'axis': [1, 2]}
  }
}
layer {
  name:"Node_373"
  type:"expand_dims"
  top:"Node_373"
  bottom:"Node_372"
  layer_param {
    idx:373
    in_0 {name:"Node_372:0",dtype:float32,shape:[128]}
    out_0 {name:"Node_373:0",dtype:float32,shape:[128, 1, 1, 1]}
    attrs {'axis': 1, 'num_newaxis': 3}
  }
}
layer {
  name:"Node_374"
  type:"multiply"
  top:"Node_374"
  bottom:"Node_355"
  bottom:"Node_373"
  layer_param {
    idx:374
    in_0 {name:"Node_355:0",dtype:float32,shape:[128, 128, 3, 3]}
    in_1 {name:"Node_373:0",dtype:float32,shape:[128, 1, 1, 1]}
    out_0 {name:"Node_374:0",dtype:float32,shape:[128, 128, 3, 3]}
  }
}
layer {
  name:"Node_375"
  type:"nn.conv2d"
  top:"Node_375"
  bottom:"Node_353"
  bottom:"Node_374"
  layer_param {
    idx:375
    in_0 {name:"Node_353:0",dtype:float32,shape:[1, 128, 28, 28]}
    in_1 {name:"Node_374:0",dtype:float32,shape:[128, 128, 3, 3]}
    out_0 {name:"Node_375:0",dtype:float32,shape:[1, 128, 28, 28]}
    attrs {'strides': [1, 1], 'padding': [1, 1, 1, 1], 'dilation': [1, 1], 'groups': 1, 'channels': 128, 'kernel_size': [3, 3], 'data_layout': 'NCHW', 'kernel_layout': 'OIHW', 'out_layout': '', 'out_dtype': ''}
  }
}
layer {
  name:"Node_380"
  type:"const"
  top:"Node_380"
  layer_param {
    idx:380
    out_0 {name:"Node_380:0",dtype:float32,shape:[128]}
  }
}
layer {
  name:"Node_381"
  type:"negative"
  top:"Node_381"
  bottom:"Node_380"
  layer_param {
    idx:381
    in_0 {name:"Node_380:0",dtype:float32,shape:[128]}
    out_0 {name:"Node_381:0",dtype:float32,shape:[128]}
  }
}
layer {
  name:"Node_383"
  type:"multiply"
  top:"Node_383"
  bottom:"Node_381"
  bottom:"Node_370"
  layer_param {
    idx:383
    in_0 {name:"Node_381:0",dtype:float32,shape:[128]}
    in_1 {name:"Node_370:0",dtype:float32,shape:[128]}
    out_0 {name:"Node_383:0",dtype:float32,shape:[128]}
  }
}
layer {
  name:"Node_384"
  type:"const"
  top:"Node_384"
  layer_param {
    idx:384
    out_0 {name:"Node_384:0",dtype:float32,shape:[128]}
  }
}
layer {
  name:"Node_385"
  type:"add"
  top:"Node_385"
  bottom:"Node_383"
  bottom:"Node_384"
  layer_param {
    idx:385
    in_0 {name:"Node_383:0",dtype:float32,shape:[128]}
    in_1 {name:"Node_384:0",dtype:float32,shape:[128]}
    out_0 {name:"Node_385:0",dtype:float32,shape:[128]}
  }
}
layer {
  name:"Node_386"
  type:"expand_dims"
  top:"Node_386"
  bottom:"Node_385"
  layer_param {
    idx:386
    in_0 {name:"Node_385:0",dtype:float32,shape:[128]}
    out_0 {name:"Node_386:0",dtype:float32,shape:[128, 1, 1]}
    attrs {'axis': 1, 'num_newaxis': 2}
  }
}
layer {
  name:"Node_387"
  type:"add"
  top:"Node_387"
  bottom:"Node_375"
  bottom:"Node_386"
  layer_param {
    idx:387
    in_0 {name:"Node_375:0",dtype:float32,shape:[1, 128, 28, 28]}
    in_1 {name:"Node_386:0",dtype:float32,shape:[128, 1, 1]}
    out_0 {name:"Node_387:0",dtype:float32,shape:[1, 128, 28, 28]}
  }
}
layer {
  name:"Node_388"
  type:"nn.relu"
  top:"Node_388"
  bottom:"Node_387"
  layer_param {
    idx:388
    in_0 {name:"Node_387:0",dtype:float32,shape:[1, 128, 28, 28]}
    out_0 {name:"Node_388:0",dtype:float32,shape:[1, 128, 28, 28]}
  }
}
layer {
  name:"Node_390"
  type:"const"
  top:"Node_390"
  layer_param {
    idx:390
    out_0 {name:"Node_390:0",dtype:float32,shape:[128, 128, 3, 3]}
  }
}
layer {
  name:"Node_396"
  type:"const"
  top:"Node_396"
  layer_param {
    idx:396
    out_0 {name:"Node_396:0",dtype:float32,shape:[]}
  }
}
layer {
  name:"Node_399"
  type:"const"
  top:"Node_399"
  layer_param {
    idx:399
    out_0 {name:"Node_399:0",dtype:float32,shape:[128]}
  }
}
layer {
  name:"Node_400"
  type:"const"
  top:"Node_400"
  layer_param {
    idx:400
    out_0 {name:"Node_400:0",dtype:float32,shape:[]}
  }
}
layer {
  name:"Node_401"
  type:"add"
  top:"Node_401"
  bottom:"Node_399"
  bottom:"Node_400"
  layer_param {
    idx:401
    in_0 {name:"Node_399:0",dtype:float32,shape:[128]}
    in_1 {name:"Node_400:0",dtype:float32,shape:[]}
    out_0 {name:"Node_401:0",dtype:float32,shape:[128]}
  }
}
layer {
  name:"Node_402"
  type:"sqrt"
  top:"Node_402"
  bottom:"Node_401"
  layer_param {
    idx:402
    in_0 {name:"Node_401:0",dtype:float32,shape:[128]}
    out_0 {name:"Node_402:0",dtype:float32,shape:[128]}
  }
}
layer {
  name:"Node_403"
  type:"divide"
  top:"Node_403"
  bottom:"Node_396"
  bottom:"Node_402"
  layer_param {
    idx:403
    in_0 {name:"Node_396:0",dtype:float32,shape:[]}
    in_1 {name:"Node_402:0",dtype:float32,shape:[128]}
    out_0 {name:"Node_403:0",dtype:float32,shape:[128]}
  }
}
layer {
  name:"Node_404"
  type:"const"
  top:"Node_404"
  layer_param {
    idx:404
    out_0 {name:"Node_404:0",dtype:float32,shape:[128]}
  }
}
layer {
  name:"Node_405"
  type:"multiply"
  top:"Node_405"
  bottom:"Node_403"
  bottom:"Node_404"
  layer_param {
    idx:405
    in_0 {name:"Node_403:0",dtype:float32,shape:[128]}
    in_1 {name:"Node_404:0",dtype:float32,shape:[128]}
    out_0 {name:"Node_405:0",dtype:float32,shape:[128]}
  }
}
layer {
  name:"Node_406"
  type:"expand_dims"
  top:"Node_406"
  bottom:"Node_405"
  layer_param {
    idx:406
    in_0 {name:"Node_405:0",dtype:float32,shape:[128]}
    out_0 {name:"Node_406:0",dtype:float32,shape:[128, 1, 1]}
    attrs {'axis': 1, 'num_newaxis': 2}
  }
}
layer {
  name:"Node_407"
  type:"squeeze"
  top:"Node_407"
  bottom:"Node_406"
  layer_param {
    idx:407
    in_0 {name:"Node_406:0",dtype:float32,shape:[128, 1, 1]}
    out_0 {name:"Node_407:0",dtype:float32,shape:[128]}
    attrs {'axis': [1, 2]}
  }
}
layer {
  name:"Node_408"
  type:"expand_dims"
  top:"Node_408"
  bottom:"Node_407"
  layer_param {
    idx:408
    in_0 {name:"Node_407:0",dtype:float32,shape:[128]}
    out_0 {name:"Node_408:0",dtype:float32,shape:[128, 1, 1, 1]}
    attrs {'axis': 1, 'num_newaxis': 3}
  }
}
layer {
  name:"Node_409"
  type:"multiply"
  top:"Node_409"
  bottom:"Node_390"
  bottom:"Node_408"
  layer_param {
    idx:409
    in_0 {name:"Node_390:0",dtype:float32,shape:[128, 128, 3, 3]}
    in_1 {name:"Node_408:0",dtype:float32,shape:[128, 1, 1, 1]}
    out_0 {name:"Node_409:0",dtype:float32,shape:[128, 128, 3, 3]}
  }
}
layer {
  name:"Node_410"
  type:"nn.conv2d"
  top:"Node_410"
  bottom:"Node_388"
  bottom:"Node_409"
  layer_param {
    idx:410
    in_0 {name:"Node_388:0",dtype:float32,shape:[1, 128, 28, 28]}
    in_1 {name:"Node_409:0",dtype:float32,shape:[128, 128, 3, 3]}
    out_0 {name:"Node_410:0",dtype:float32,shape:[1, 128, 28, 28]}
    attrs {'strides': [1, 1], 'padding': [1, 1, 1, 1], 'dilation': [1, 1], 'groups': 1, 'channels': 128, 'kernel_size': [3, 3], 'data_layout': 'NCHW', 'kernel_layout': 'OIHW', 'out_layout': '', 'out_dtype': ''}
  }
}
layer {
  name:"Node_415"
  type:"const"
  top:"Node_415"
  layer_param {
    idx:415
    out_0 {name:"Node_415:0",dtype:float32,shape:[128]}
  }
}
layer {
  name:"Node_416"
  type:"negative"
  top:"Node_416"
  bottom:"Node_415"
  layer_param {
    idx:416
    in_0 {name:"Node_415:0",dtype:float32,shape:[128]}
    out_0 {name:"Node_416:0",dtype:float32,shape:[128]}
  }
}
layer {
  name:"Node_418"
  type:"multiply"
  top:"Node_418"
  bottom:"Node_416"
  bottom:"Node_405"
  layer_param {
    idx:418
    in_0 {name:"Node_416:0",dtype:float32,shape:[128]}
    in_1 {name:"Node_405:0",dtype:float32,shape:[128]}
    out_0 {name:"Node_418:0",dtype:float32,shape:[128]}
  }
}
layer {
  name:"Node_419"
  type:"const"
  top:"Node_419"
  layer_param {
    idx:419
    out_0 {name:"Node_419:0",dtype:float32,shape:[128]}
  }
}
layer {
  name:"Node_420"
  type:"add"
  top:"Node_420"
  bottom:"Node_418"
  bottom:"Node_419"
  layer_param {
    idx:420
    in_0 {name:"Node_418:0",dtype:float32,shape:[128]}
    in_1 {name:"Node_419:0",dtype:float32,shape:[128]}
    out_0 {name:"Node_420:0",dtype:float32,shape:[128]}
  }
}
layer {
  name:"Node_421"
  type:"expand_dims"
  top:"Node_421"
  bottom:"Node_420"
  layer_param {
    idx:421
    in_0 {name:"Node_420:0",dtype:float32,shape:[128]}
    out_0 {name:"Node_421:0",dtype:float32,shape:[128, 1, 1]}
    attrs {'axis': 1, 'num_newaxis': 2}
  }
}
layer {
  name:"Node_422"
  type:"add"
  top:"Node_422"
  bottom:"Node_410"
  bottom:"Node_421"
  layer_param {
    idx:422
    in_0 {name:"Node_410:0",dtype:float32,shape:[1, 128, 28, 28]}
    in_1 {name:"Node_421:0",dtype:float32,shape:[128, 1, 1]}
    out_0 {name:"Node_422:0",dtype:float32,shape:[1, 128, 28, 28]}
  }
}
layer {
  name:"Node_424"
  type:"add"
  top:"Node_424"
  bottom:"Node_422"
  bottom:"Node_353"
  layer_param {
    idx:424
    in_0 {name:"Node_422:0",dtype:float32,shape:[1, 128, 28, 28]}
    in_1 {name:"Node_353:0",dtype:float32,shape:[1, 128, 28, 28]}
    out_0 {name:"Node_424:0",dtype:float32,shape:[1, 128, 28, 28]}
  }
}
layer {
  name:"Node_425"
  type:"nn.relu"
  top:"Node_425"
  bottom:"Node_424"
  layer_param {
    idx:425
    in_0 {name:"Node_424:0",dtype:float32,shape:[1, 128, 28, 28]}
    out_0 {name:"Node_425:0",dtype:float32,shape:[1, 128, 28, 28]}
  }
}
layer {
  name:"Node_427"
  type:"const"
  top:"Node_427"
  layer_param {
    idx:427
    out_0 {name:"Node_427:0",dtype:float32,shape:[256, 128, 3, 3]}
  }
}
layer {
  name:"Node_433"
  type:"const"
  top:"Node_433"
  layer_param {
    idx:433
    out_0 {name:"Node_433:0",dtype:float32,shape:[]}
  }
}
layer {
  name:"Node_436"
  type:"const"
  top:"Node_436"
  layer_param {
    idx:436
    out_0 {name:"Node_436:0",dtype:float32,shape:[256]}
  }
}
layer {
  name:"Node_437"
  type:"const"
  top:"Node_437"
  layer_param {
    idx:437
    out_0 {name:"Node_437:0",dtype:float32,shape:[]}
  }
}
layer {
  name:"Node_438"
  type:"add"
  top:"Node_438"
  bottom:"Node_436"
  bottom:"Node_437"
  layer_param {
    idx:438
    in_0 {name:"Node_436:0",dtype:float32,shape:[256]}
    in_1 {name:"Node_437:0",dtype:float32,shape:[]}
    out_0 {name:"Node_438:0",dtype:float32,shape:[256]}
  }
}
layer {
  name:"Node_439"
  type:"sqrt"
  top:"Node_439"
  bottom:"Node_438"
  layer_param {
    idx:439
    in_0 {name:"Node_438:0",dtype:float32,shape:[256]}
    out_0 {name:"Node_439:0",dtype:float32,shape:[256]}
  }
}
layer {
  name:"Node_440"
  type:"divide"
  top:"Node_440"
  bottom:"Node_433"
  bottom:"Node_439"
  layer_param {
    idx:440
    in_0 {name:"Node_433:0",dtype:float32,shape:[]}
    in_1 {name:"Node_439:0",dtype:float32,shape:[256]}
    out_0 {name:"Node_440:0",dtype:float32,shape:[256]}
  }
}
layer {
  name:"Node_441"
  type:"const"
  top:"Node_441"
  layer_param {
    idx:441
    out_0 {name:"Node_441:0",dtype:float32,shape:[256]}
  }
}
layer {
  name:"Node_442"
  type:"multiply"
  top:"Node_442"
  bottom:"Node_440"
  bottom:"Node_441"
  layer_param {
    idx:442
    in_0 {name:"Node_440:0",dtype:float32,shape:[256]}
    in_1 {name:"Node_441:0",dtype:float32,shape:[256]}
    out_0 {name:"Node_442:0",dtype:float32,shape:[256]}
  }
}
layer {
  name:"Node_443"
  type:"expand_dims"
  top:"Node_443"
  bottom:"Node_442"
  layer_param {
    idx:443
    in_0 {name:"Node_442:0",dtype:float32,shape:[256]}
    out_0 {name:"Node_443:0",dtype:float32,shape:[256, 1, 1]}
    attrs {'axis': 1, 'num_newaxis': 2}
  }
}
layer {
  name:"Node_444"
  type:"squeeze"
  top:"Node_444"
  bottom:"Node_443"
  layer_param {
    idx:444
    in_0 {name:"Node_443:0",dtype:float32,shape:[256, 1, 1]}
    out_0 {name:"Node_444:0",dtype:float32,shape:[256]}
    attrs {'axis': [1, 2]}
  }
}
layer {
  name:"Node_445"
  type:"expand_dims"
  top:"Node_445"
  bottom:"Node_444"
  layer_param {
    idx:445
    in_0 {name:"Node_444:0",dtype:float32,shape:[256]}
    out_0 {name:"Node_445:0",dtype:float32,shape:[256, 1, 1, 1]}
    attrs {'axis': 1, 'num_newaxis': 3}
  }
}
layer {
  name:"Node_446"
  type:"multiply"
  top:"Node_446"
  bottom:"Node_427"
  bottom:"Node_445"
  layer_param {
    idx:446
    in_0 {name:"Node_427:0",dtype:float32,shape:[256, 128, 3, 3]}
    in_1 {name:"Node_445:0",dtype:float32,shape:[256, 1, 1, 1]}
    out_0 {name:"Node_446:0",dtype:float32,shape:[256, 128, 3, 3]}
  }
}
layer {
  name:"Node_447"
  type:"nn.conv2d"
  top:"Node_447"
  bottom:"Node_425"
  bottom:"Node_446"
  layer_param {
    idx:447
    in_0 {name:"Node_425:0",dtype:float32,shape:[1, 128, 28, 28]}
    in_1 {name:"Node_446:0",dtype:float32,shape:[256, 128, 3, 3]}
    out_0 {name:"Node_447:0",dtype:float32,shape:[1, 256, 14, 14]}
    attrs {'strides': [2, 2], 'padding': [1, 1, 1, 1], 'dilation': [1, 1], 'groups': 1, 'channels': 256, 'kernel_size': [3, 3], 'data_layout': 'NCHW', 'kernel_layout': 'OIHW', 'out_layout': '', 'out_dtype': ''}
  }
}
layer {
  name:"Node_452"
  type:"const"
  top:"Node_452"
  layer_param {
    idx:452
    out_0 {name:"Node_452:0",dtype:float32,shape:[256]}
  }
}
layer {
  name:"Node_453"
  type:"negative"
  top:"Node_453"
  bottom:"Node_452"
  layer_param {
    idx:453
    in_0 {name:"Node_452:0",dtype:float32,shape:[256]}
    out_0 {name:"Node_453:0",dtype:float32,shape:[256]}
  }
}
layer {
  name:"Node_455"
  type:"multiply"
  top:"Node_455"
  bottom:"Node_453"
  bottom:"Node_442"
  layer_param {
    idx:455
    in_0 {name:"Node_453:0",dtype:float32,shape:[256]}
    in_1 {name:"Node_442:0",dtype:float32,shape:[256]}
    out_0 {name:"Node_455:0",dtype:float32,shape:[256]}
  }
}
layer {
  name:"Node_456"
  type:"const"
  top:"Node_456"
  layer_param {
    idx:456
    out_0 {name:"Node_456:0",dtype:float32,shape:[256]}
  }
}
layer {
  name:"Node_457"
  type:"add"
  top:"Node_457"
  bottom:"Node_455"
  bottom:"Node_456"
  layer_param {
    idx:457
    in_0 {name:"Node_455:0",dtype:float32,shape:[256]}
    in_1 {name:"Node_456:0",dtype:float32,shape:[256]}
    out_0 {name:"Node_457:0",dtype:float32,shape:[256]}
  }
}
layer {
  name:"Node_458"
  type:"expand_dims"
  top:"Node_458"
  bottom:"Node_457"
  layer_param {
    idx:458
    in_0 {name:"Node_457:0",dtype:float32,shape:[256]}
    out_0 {name:"Node_458:0",dtype:float32,shape:[256, 1, 1]}
    attrs {'axis': 1, 'num_newaxis': 2}
  }
}
layer {
  name:"Node_459"
  type:"add"
  top:"Node_459"
  bottom:"Node_447"
  bottom:"Node_458"
  layer_param {
    idx:459
    in_0 {name:"Node_447:0",dtype:float32,shape:[1, 256, 14, 14]}
    in_1 {name:"Node_458:0",dtype:float32,shape:[256, 1, 1]}
    out_0 {name:"Node_459:0",dtype:float32,shape:[1, 256, 14, 14]}
  }
}
layer {
  name:"Node_460"
  type:"nn.relu"
  top:"Node_460"
  bottom:"Node_459"
  layer_param {
    idx:460
    in_0 {name:"Node_459:0",dtype:float32,shape:[1, 256, 14, 14]}
    out_0 {name:"Node_460:0",dtype:float32,shape:[1, 256, 14, 14]}
  }
}
layer {
  name:"Node_462"
  type:"const"
  top:"Node_462"
  layer_param {
    idx:462
    out_0 {name:"Node_462:0",dtype:float32,shape:[256, 256, 3, 3]}
  }
}
layer {
  name:"Node_468"
  type:"const"
  top:"Node_468"
  layer_param {
    idx:468
    out_0 {name:"Node_468:0",dtype:float32,shape:[]}
  }
}
layer {
  name:"Node_471"
  type:"const"
  top:"Node_471"
  layer_param {
    idx:471
    out_0 {name:"Node_471:0",dtype:float32,shape:[256]}
  }
}
layer {
  name:"Node_472"
  type:"const"
  top:"Node_472"
  layer_param {
    idx:472
    out_0 {name:"Node_472:0",dtype:float32,shape:[]}
  }
}
layer {
  name:"Node_473"
  type:"add"
  top:"Node_473"
  bottom:"Node_471"
  bottom:"Node_472"
  layer_param {
    idx:473
    in_0 {name:"Node_471:0",dtype:float32,shape:[256]}
    in_1 {name:"Node_472:0",dtype:float32,shape:[]}
    out_0 {name:"Node_473:0",dtype:float32,shape:[256]}
  }
}
layer {
  name:"Node_474"
  type:"sqrt"
  top:"Node_474"
  bottom:"Node_473"
  layer_param {
    idx:474
    in_0 {name:"Node_473:0",dtype:float32,shape:[256]}
    out_0 {name:"Node_474:0",dtype:float32,shape:[256]}
  }
}
layer {
  name:"Node_475"
  type:"divide"
  top:"Node_475"
  bottom:"Node_468"
  bottom:"Node_474"
  layer_param {
    idx:475
    in_0 {name:"Node_468:0",dtype:float32,shape:[]}
    in_1 {name:"Node_474:0",dtype:float32,shape:[256]}
    out_0 {name:"Node_475:0",dtype:float32,shape:[256]}
  }
}
layer {
  name:"Node_476"
  type:"const"
  top:"Node_476"
  layer_param {
    idx:476
    out_0 {name:"Node_476:0",dtype:float32,shape:[256]}
  }
}
layer {
  name:"Node_477"
  type:"multiply"
  top:"Node_477"
  bottom:"Node_475"
  bottom:"Node_476"
  layer_param {
    idx:477
    in_0 {name:"Node_475:0",dtype:float32,shape:[256]}
    in_1 {name:"Node_476:0",dtype:float32,shape:[256]}
    out_0 {name:"Node_477:0",dtype:float32,shape:[256]}
  }
}
layer {
  name:"Node_478"
  type:"expand_dims"
  top:"Node_478"
  bottom:"Node_477"
  layer_param {
    idx:478
    in_0 {name:"Node_477:0",dtype:float32,shape:[256]}
    out_0 {name:"Node_478:0",dtype:float32,shape:[256, 1, 1]}
    attrs {'axis': 1, 'num_newaxis': 2}
  }
}
layer {
  name:"Node_479"
  type:"squeeze"
  top:"Node_479"
  bottom:"Node_478"
  layer_param {
    idx:479
    in_0 {name:"Node_478:0",dtype:float32,shape:[256, 1, 1]}
    out_0 {name:"Node_479:0",dtype:float32,shape:[256]}
    attrs {'axis': [1, 2]}
  }
}
layer {
  name:"Node_480"
  type:"expand_dims"
  top:"Node_480"
  bottom:"Node_479"
  layer_param {
    idx:480
    in_0 {name:"Node_479:0",dtype:float32,shape:[256]}
    out_0 {name:"Node_480:0",dtype:float32,shape:[256, 1, 1, 1]}
    attrs {'axis': 1, 'num_newaxis': 3}
  }
}
layer {
  name:"Node_481"
  type:"multiply"
  top:"Node_481"
  bottom:"Node_462"
  bottom:"Node_480"
  layer_param {
    idx:481
    in_0 {name:"Node_462:0",dtype:float32,shape:[256, 256, 3, 3]}
    in_1 {name:"Node_480:0",dtype:float32,shape:[256, 1, 1, 1]}
    out_0 {name:"Node_481:0",dtype:float32,shape:[256, 256, 3, 3]}
  }
}
layer {
  name:"Node_482"
  type:"nn.conv2d"
  top:"Node_482"
  bottom:"Node_460"
  bottom:"Node_481"
  layer_param {
    idx:482
    in_0 {name:"Node_460:0",dtype:float32,shape:[1, 256, 14, 14]}
    in_1 {name:"Node_481:0",dtype:float32,shape:[256, 256, 3, 3]}
    out_0 {name:"Node_482:0",dtype:float32,shape:[1, 256, 14, 14]}
    attrs {'strides': [1, 1], 'padding': [1, 1, 1, 1], 'dilation': [1, 1], 'groups': 1, 'channels': 256, 'kernel_size': [3, 3], 'data_layout': 'NCHW', 'kernel_layout': 'OIHW', 'out_layout': '', 'out_dtype': ''}
  }
}
layer {
  name:"Node_487"
  type:"const"
  top:"Node_487"
  layer_param {
    idx:487
    out_0 {name:"Node_487:0",dtype:float32,shape:[256]}
  }
}
layer {
  name:"Node_488"
  type:"negative"
  top:"Node_488"
  bottom:"Node_487"
  layer_param {
    idx:488
    in_0 {name:"Node_487:0",dtype:float32,shape:[256]}
    out_0 {name:"Node_488:0",dtype:float32,shape:[256]}
  }
}
layer {
  name:"Node_490"
  type:"multiply"
  top:"Node_490"
  bottom:"Node_488"
  bottom:"Node_477"
  layer_param {
    idx:490
    in_0 {name:"Node_488:0",dtype:float32,shape:[256]}
    in_1 {name:"Node_477:0",dtype:float32,shape:[256]}
    out_0 {name:"Node_490:0",dtype:float32,shape:[256]}
  }
}
layer {
  name:"Node_491"
  type:"const"
  top:"Node_491"
  layer_param {
    idx:491
    out_0 {name:"Node_491:0",dtype:float32,shape:[256]}
  }
}
layer {
  name:"Node_492"
  type:"add"
  top:"Node_492"
  bottom:"Node_490"
  bottom:"Node_491"
  layer_param {
    idx:492
    in_0 {name:"Node_490:0",dtype:float32,shape:[256]}
    in_1 {name:"Node_491:0",dtype:float32,shape:[256]}
    out_0 {name:"Node_492:0",dtype:float32,shape:[256]}
  }
}
layer {
  name:"Node_493"
  type:"expand_dims"
  top:"Node_493"
  bottom:"Node_492"
  layer_param {
    idx:493
    in_0 {name:"Node_492:0",dtype:float32,shape:[256]}
    out_0 {name:"Node_493:0",dtype:float32,shape:[256, 1, 1]}
    attrs {'axis': 1, 'num_newaxis': 2}
  }
}
layer {
  name:"Node_494"
  type:"add"
  top:"Node_494"
  bottom:"Node_482"
  bottom:"Node_493"
  layer_param {
    idx:494
    in_0 {name:"Node_482:0",dtype:float32,shape:[1, 256, 14, 14]}
    in_1 {name:"Node_493:0",dtype:float32,shape:[256, 1, 1]}
    out_0 {name:"Node_494:0",dtype:float32,shape:[1, 256, 14, 14]}
  }
}
layer {
  name:"Node_499"
  type:"const"
  top:"Node_499"
  layer_param {
    idx:499
    out_0 {name:"Node_499:0",dtype:float32,shape:[256, 128, 1, 1]}
  }
}
layer {
  name:"Node_505"
  type:"const"
  top:"Node_505"
  layer_param {
    idx:505
    out_0 {name:"Node_505:0",dtype:float32,shape:[]}
  }
}
layer {
  name:"Node_508"
  type:"const"
  top:"Node_508"
  layer_param {
    idx:508
    out_0 {name:"Node_508:0",dtype:float32,shape:[256]}
  }
}
layer {
  name:"Node_509"
  type:"const"
  top:"Node_509"
  layer_param {
    idx:509
    out_0 {name:"Node_509:0",dtype:float32,shape:[]}
  }
}
layer {
  name:"Node_510"
  type:"add"
  top:"Node_510"
  bottom:"Node_508"
  bottom:"Node_509"
  layer_param {
    idx:510
    in_0 {name:"Node_508:0",dtype:float32,shape:[256]}
    in_1 {name:"Node_509:0",dtype:float32,shape:[]}
    out_0 {name:"Node_510:0",dtype:float32,shape:[256]}
  }
}
layer {
  name:"Node_511"
  type:"sqrt"
  top:"Node_511"
  bottom:"Node_510"
  layer_param {
    idx:511
    in_0 {name:"Node_510:0",dtype:float32,shape:[256]}
    out_0 {name:"Node_511:0",dtype:float32,shape:[256]}
  }
}
layer {
  name:"Node_512"
  type:"divide"
  top:"Node_512"
  bottom:"Node_505"
  bottom:"Node_511"
  layer_param {
    idx:512
    in_0 {name:"Node_505:0",dtype:float32,shape:[]}
    in_1 {name:"Node_511:0",dtype:float32,shape:[256]}
    out_0 {name:"Node_512:0",dtype:float32,shape:[256]}
  }
}
layer {
  name:"Node_513"
  type:"const"
  top:"Node_513"
  layer_param {
    idx:513
    out_0 {name:"Node_513:0",dtype:float32,shape:[256]}
  }
}
layer {
  name:"Node_514"
  type:"multiply"
  top:"Node_514"
  bottom:"Node_512"
  bottom:"Node_513"
  layer_param {
    idx:514
    in_0 {name:"Node_512:0",dtype:float32,shape:[256]}
    in_1 {name:"Node_513:0",dtype:float32,shape:[256]}
    out_0 {name:"Node_514:0",dtype:float32,shape:[256]}
  }
}
layer {
  name:"Node_515"
  type:"expand_dims"
  top:"Node_515"
  bottom:"Node_514"
  layer_param {
    idx:515
    in_0 {name:"Node_514:0",dtype:float32,shape:[256]}
    out_0 {name:"Node_515:0",dtype:float32,shape:[256, 1, 1]}
    attrs {'axis': 1, 'num_newaxis': 2}
  }
}
layer {
  name:"Node_516"
  type:"squeeze"
  top:"Node_516"
  bottom:"Node_515"
  layer_param {
    idx:516
    in_0 {name:"Node_515:0",dtype:float32,shape:[256, 1, 1]}
    out_0 {name:"Node_516:0",dtype:float32,shape:[256]}
    attrs {'axis': [1, 2]}
  }
}
layer {
  name:"Node_517"
  type:"expand_dims"
  top:"Node_517"
  bottom:"Node_516"
  layer_param {
    idx:517
    in_0 {name:"Node_516:0",dtype:float32,shape:[256]}
    out_0 {name:"Node_517:0",dtype:float32,shape:[256, 1, 1, 1]}
    attrs {'axis': 1, 'num_newaxis': 3}
  }
}
layer {
  name:"Node_518"
  type:"multiply"
  top:"Node_518"
  bottom:"Node_499"
  bottom:"Node_517"
  layer_param {
    idx:518
    in_0 {name:"Node_499:0",dtype:float32,shape:[256, 128, 1, 1]}
    in_1 {name:"Node_517:0",dtype:float32,shape:[256, 1, 1, 1]}
    out_0 {name:"Node_518:0",dtype:float32,shape:[256, 128, 1, 1]}
  }
}
layer {
  name:"Node_519"
  type:"nn.conv2d"
  top:"Node_519"
  bottom:"Node_425"
  bottom:"Node_518"
  layer_param {
    idx:519
    in_0 {name:"Node_425:0",dtype:float32,shape:[1, 128, 28, 28]}
    in_1 {name:"Node_518:0",dtype:float32,shape:[256, 128, 1, 1]}
    out_0 {name:"Node_519:0",dtype:float32,shape:[1, 256, 14, 14]}
    attrs {'strides': [2, 2], 'padding': [0, 0, 0, 0], 'dilation': [1, 1], 'groups': 1, 'channels': 256, 'kernel_size': [1, 1], 'data_layout': 'NCHW', 'kernel_layout': 'OIHW', 'out_layout': '', 'out_dtype': ''}
  }
}
layer {
  name:"Node_524"
  type:"const"
  top:"Node_524"
  layer_param {
    idx:524
    out_0 {name:"Node_524:0",dtype:float32,shape:[256]}
  }
}
layer {
  name:"Node_525"
  type:"negative"
  top:"Node_525"
  bottom:"Node_524"
  layer_param {
    idx:525
    in_0 {name:"Node_524:0",dtype:float32,shape:[256]}
    out_0 {name:"Node_525:0",dtype:float32,shape:[256]}
  }
}
layer {
  name:"Node_527"
  type:"multiply"
  top:"Node_527"
  bottom:"Node_525"
  bottom:"Node_514"
  layer_param {
    idx:527
    in_0 {name:"Node_525:0",dtype:float32,shape:[256]}
    in_1 {name:"Node_514:0",dtype:float32,shape:[256]}
    out_0 {name:"Node_527:0",dtype:float32,shape:[256]}
  }
}
layer {
  name:"Node_528"
  type:"const"
  top:"Node_528"
  layer_param {
    idx:528
    out_0 {name:"Node_528:0",dtype:float32,shape:[256]}
  }
}
layer {
  name:"Node_529"
  type:"add"
  top:"Node_529"
  bottom:"Node_527"
  bottom:"Node_528"
  layer_param {
    idx:529
    in_0 {name:"Node_527:0",dtype:float32,shape:[256]}
    in_1 {name:"Node_528:0",dtype:float32,shape:[256]}
    out_0 {name:"Node_529:0",dtype:float32,shape:[256]}
  }
}
layer {
  name:"Node_530"
  type:"expand_dims"
  top:"Node_530"
  bottom:"Node_529"
  layer_param {
    idx:530
    in_0 {name:"Node_529:0",dtype:float32,shape:[256]}
    out_0 {name:"Node_530:0",dtype:float32,shape:[256, 1, 1]}
    attrs {'axis': 1, 'num_newaxis': 2}
  }
}
layer {
  name:"Node_531"
  type:"add"
  top:"Node_531"
  bottom:"Node_519"
  bottom:"Node_530"
  layer_param {
    idx:531
    in_0 {name:"Node_519:0",dtype:float32,shape:[1, 256, 14, 14]}
    in_1 {name:"Node_530:0",dtype:float32,shape:[256, 1, 1]}
    out_0 {name:"Node_531:0",dtype:float32,shape:[1, 256, 14, 14]}
  }
}
layer {
  name:"Node_532"
  type:"add"
  top:"Node_532"
  bottom:"Node_494"
  bottom:"Node_531"
  layer_param {
    idx:532
    in_0 {name:"Node_494:0",dtype:float32,shape:[1, 256, 14, 14]}
    in_1 {name:"Node_531:0",dtype:float32,shape:[1, 256, 14, 14]}
    out_0 {name:"Node_532:0",dtype:float32,shape:[1, 256, 14, 14]}
  }
}
layer {
  name:"Node_533"
  type:"nn.relu"
  top:"Node_533"
  bottom:"Node_532"
  layer_param {
    idx:533
    in_0 {name:"Node_532:0",dtype:float32,shape:[1, 256, 14, 14]}
    out_0 {name:"Node_533:0",dtype:float32,shape:[1, 256, 14, 14]}
  }
}
layer {
  name:"Node_535"
  type:"const"
  top:"Node_535"
  layer_param {
    idx:535
    out_0 {name:"Node_535:0",dtype:float32,shape:[256, 256, 3, 3]}
  }
}
layer {
  name:"Node_541"
  type:"const"
  top:"Node_541"
  layer_param {
    idx:541
    out_0 {name:"Node_541:0",dtype:float32,shape:[]}
  }
}
layer {
  name:"Node_544"
  type:"const"
  top:"Node_544"
  layer_param {
    idx:544
    out_0 {name:"Node_544:0",dtype:float32,shape:[256]}
  }
}
layer {
  name:"Node_545"
  type:"const"
  top:"Node_545"
  layer_param {
    idx:545
    out_0 {name:"Node_545:0",dtype:float32,shape:[]}
  }
}
layer {
  name:"Node_546"
  type:"add"
  top:"Node_546"
  bottom:"Node_544"
  bottom:"Node_545"
  layer_param {
    idx:546
    in_0 {name:"Node_544:0",dtype:float32,shape:[256]}
    in_1 {name:"Node_545:0",dtype:float32,shape:[]}
    out_0 {name:"Node_546:0",dtype:float32,shape:[256]}
  }
}
layer {
  name:"Node_547"
  type:"sqrt"
  top:"Node_547"
  bottom:"Node_546"
  layer_param {
    idx:547
    in_0 {name:"Node_546:0",dtype:float32,shape:[256]}
    out_0 {name:"Node_547:0",dtype:float32,shape:[256]}
  }
}
layer {
  name:"Node_548"
  type:"divide"
  top:"Node_548"
  bottom:"Node_541"
  bottom:"Node_547"
  layer_param {
    idx:548
    in_0 {name:"Node_541:0",dtype:float32,shape:[]}
    in_1 {name:"Node_547:0",dtype:float32,shape:[256]}
    out_0 {name:"Node_548:0",dtype:float32,shape:[256]}
  }
}
layer {
  name:"Node_549"
  type:"const"
  top:"Node_549"
  layer_param {
    idx:549
    out_0 {name:"Node_549:0",dtype:float32,shape:[256]}
  }
}
layer {
  name:"Node_550"
  type:"multiply"
  top:"Node_550"
  bottom:"Node_548"
  bottom:"Node_549"
  layer_param {
    idx:550
    in_0 {name:"Node_548:0",dtype:float32,shape:[256]}
    in_1 {name:"Node_549:0",dtype:float32,shape:[256]}
    out_0 {name:"Node_550:0",dtype:float32,shape:[256]}
  }
}
layer {
  name:"Node_551"
  type:"expand_dims"
  top:"Node_551"
  bottom:"Node_550"
  layer_param {
    idx:551
    in_0 {name:"Node_550:0",dtype:float32,shape:[256]}
    out_0 {name:"Node_551:0",dtype:float32,shape:[256, 1, 1]}
    attrs {'axis': 1, 'num_newaxis': 2}
  }
}
layer {
  name:"Node_552"
  type:"squeeze"
  top:"Node_552"
  bottom:"Node_551"
  layer_param {
    idx:552
    in_0 {name:"Node_551:0",dtype:float32,shape:[256, 1, 1]}
    out_0 {name:"Node_552:0",dtype:float32,shape:[256]}
    attrs {'axis': [1, 2]}
  }
}
layer {
  name:"Node_553"
  type:"expand_dims"
  top:"Node_553"
  bottom:"Node_552"
  layer_param {
    idx:553
    in_0 {name:"Node_552:0",dtype:float32,shape:[256]}
    out_0 {name:"Node_553:0",dtype:float32,shape:[256, 1, 1, 1]}
    attrs {'axis': 1, 'num_newaxis': 3}
  }
}
layer {
  name:"Node_554"
  type:"multiply"
  top:"Node_554"
  bottom:"Node_535"
  bottom:"Node_553"
  layer_param {
    idx:554
    in_0 {name:"Node_535:0",dtype:float32,shape:[256, 256, 3, 3]}
    in_1 {name:"Node_553:0",dtype:float32,shape:[256, 1, 1, 1]}
    out_0 {name:"Node_554:0",dtype:float32,shape:[256, 256, 3, 3]}
  }
}
layer {
  name:"Node_555"
  type:"nn.conv2d"
  top:"Node_555"
  bottom:"Node_533"
  bottom:"Node_554"
  layer_param {
    idx:555
    in_0 {name:"Node_533:0",dtype:float32,shape:[1, 256, 14, 14]}
    in_1 {name:"Node_554:0",dtype:float32,shape:[256, 256, 3, 3]}
    out_0 {name:"Node_555:0",dtype:float32,shape:[1, 256, 14, 14]}
    attrs {'strides': [1, 1], 'padding': [1, 1, 1, 1], 'dilation': [1, 1], 'groups': 1, 'channels': 256, 'kernel_size': [3, 3], 'data_layout': 'NCHW', 'kernel_layout': 'OIHW', 'out_layout': '', 'out_dtype': ''}
  }
}
layer {
  name:"Node_560"
  type:"const"
  top:"Node_560"
  layer_param {
    idx:560
    out_0 {name:"Node_560:0",dtype:float32,shape:[256]}
  }
}
layer {
  name:"Node_561"
  type:"negative"
  top:"Node_561"
  bottom:"Node_560"
  layer_param {
    idx:561
    in_0 {name:"Node_560:0",dtype:float32,shape:[256]}
    out_0 {name:"Node_561:0",dtype:float32,shape:[256]}
  }
}
layer {
  name:"Node_563"
  type:"multiply"
  top:"Node_563"
  bottom:"Node_561"
  bottom:"Node_550"
  layer_param {
    idx:563
    in_0 {name:"Node_561:0",dtype:float32,shape:[256]}
    in_1 {name:"Node_550:0",dtype:float32,shape:[256]}
    out_0 {name:"Node_563:0",dtype:float32,shape:[256]}
  }
}
layer {
  name:"Node_564"
  type:"const"
  top:"Node_564"
  layer_param {
    idx:564
    out_0 {name:"Node_564:0",dtype:float32,shape:[256]}
  }
}
layer {
  name:"Node_565"
  type:"add"
  top:"Node_565"
  bottom:"Node_563"
  bottom:"Node_564"
  layer_param {
    idx:565
    in_0 {name:"Node_563:0",dtype:float32,shape:[256]}
    in_1 {name:"Node_564:0",dtype:float32,shape:[256]}
    out_0 {name:"Node_565:0",dtype:float32,shape:[256]}
  }
}
layer {
  name:"Node_566"
  type:"expand_dims"
  top:"Node_566"
  bottom:"Node_565"
  layer_param {
    idx:566
    in_0 {name:"Node_565:0",dtype:float32,shape:[256]}
    out_0 {name:"Node_566:0",dtype:float32,shape:[256, 1, 1]}
    attrs {'axis': 1, 'num_newaxis': 2}
  }
}
layer {
  name:"Node_567"
  type:"add"
  top:"Node_567"
  bottom:"Node_555"
  bottom:"Node_566"
  layer_param {
    idx:567
    in_0 {name:"Node_555:0",dtype:float32,shape:[1, 256, 14, 14]}
    in_1 {name:"Node_566:0",dtype:float32,shape:[256, 1, 1]}
    out_0 {name:"Node_567:0",dtype:float32,shape:[1, 256, 14, 14]}
  }
}
layer {
  name:"Node_568"
  type:"nn.relu"
  top:"Node_568"
  bottom:"Node_567"
  layer_param {
    idx:568
    in_0 {name:"Node_567:0",dtype:float32,shape:[1, 256, 14, 14]}
    out_0 {name:"Node_568:0",dtype:float32,shape:[1, 256, 14, 14]}
  }
}
layer {
  name:"Node_570"
  type:"const"
  top:"Node_570"
  layer_param {
    idx:570
    out_0 {name:"Node_570:0",dtype:float32,shape:[256, 256, 3, 3]}
  }
}
layer {
  name:"Node_576"
  type:"const"
  top:"Node_576"
  layer_param {
    idx:576
    out_0 {name:"Node_576:0",dtype:float32,shape:[]}
  }
}
layer {
  name:"Node_579"
  type:"const"
  top:"Node_579"
  layer_param {
    idx:579
    out_0 {name:"Node_579:0",dtype:float32,shape:[256]}
  }
}
layer {
  name:"Node_580"
  type:"const"
  top:"Node_580"
  layer_param {
    idx:580
    out_0 {name:"Node_580:0",dtype:float32,shape:[]}
  }
}
layer {
  name:"Node_581"
  type:"add"
  top:"Node_581"
  bottom:"Node_579"
  bottom:"Node_580"
  layer_param {
    idx:581
    in_0 {name:"Node_579:0",dtype:float32,shape:[256]}
    in_1 {name:"Node_580:0",dtype:float32,shape:[]}
    out_0 {name:"Node_581:0",dtype:float32,shape:[256]}
  }
}
layer {
  name:"Node_582"
  type:"sqrt"
  top:"Node_582"
  bottom:"Node_581"
  layer_param {
    idx:582
    in_0 {name:"Node_581:0",dtype:float32,shape:[256]}
    out_0 {name:"Node_582:0",dtype:float32,shape:[256]}
  }
}
layer {
  name:"Node_583"
  type:"divide"
  top:"Node_583"
  bottom:"Node_576"
  bottom:"Node_582"
  layer_param {
    idx:583
    in_0 {name:"Node_576:0",dtype:float32,shape:[]}
    in_1 {name:"Node_582:0",dtype:float32,shape:[256]}
    out_0 {name:"Node_583:0",dtype:float32,shape:[256]}
  }
}
layer {
  name:"Node_584"
  type:"const"
  top:"Node_584"
  layer_param {
    idx:584
    out_0 {name:"Node_584:0",dtype:float32,shape:[256]}
  }
}
layer {
  name:"Node_585"
  type:"multiply"
  top:"Node_585"
  bottom:"Node_583"
  bottom:"Node_584"
  layer_param {
    idx:585
    in_0 {name:"Node_583:0",dtype:float32,shape:[256]}
    in_1 {name:"Node_584:0",dtype:float32,shape:[256]}
    out_0 {name:"Node_585:0",dtype:float32,shape:[256]}
  }
}
layer {
  name:"Node_586"
  type:"expand_dims"
  top:"Node_586"
  bottom:"Node_585"
  layer_param {
    idx:586
    in_0 {name:"Node_585:0",dtype:float32,shape:[256]}
    out_0 {name:"Node_586:0",dtype:float32,shape:[256, 1, 1]}
    attrs {'axis': 1, 'num_newaxis': 2}
  }
}
layer {
  name:"Node_587"
  type:"squeeze"
  top:"Node_587"
  bottom:"Node_586"
  layer_param {
    idx:587
    in_0 {name:"Node_586:0",dtype:float32,shape:[256, 1, 1]}
    out_0 {name:"Node_587:0",dtype:float32,shape:[256]}
    attrs {'axis': [1, 2]}
  }
}
layer {
  name:"Node_588"
  type:"expand_dims"
  top:"Node_588"
  bottom:"Node_587"
  layer_param {
    idx:588
    in_0 {name:"Node_587:0",dtype:float32,shape:[256]}
    out_0 {name:"Node_588:0",dtype:float32,shape:[256, 1, 1, 1]}
    attrs {'axis': 1, 'num_newaxis': 3}
  }
}
layer {
  name:"Node_589"
  type:"multiply"
  top:"Node_589"
  bottom:"Node_570"
  bottom:"Node_588"
  layer_param {
    idx:589
    in_0 {name:"Node_570:0",dtype:float32,shape:[256, 256, 3, 3]}
    in_1 {name:"Node_588:0",dtype:float32,shape:[256, 1, 1, 1]}
    out_0 {name:"Node_589:0",dtype:float32,shape:[256, 256, 3, 3]}
  }
}
layer {
  name:"Node_590"
  type:"nn.conv2d"
  top:"Node_590"
  bottom:"Node_568"
  bottom:"Node_589"
  layer_param {
    idx:590
    in_0 {name:"Node_568:0",dtype:float32,shape:[1, 256, 14, 14]}
    in_1 {name:"Node_589:0",dtype:float32,shape:[256, 256, 3, 3]}
    out_0 {name:"Node_590:0",dtype:float32,shape:[1, 256, 14, 14]}
    attrs {'strides': [1, 1], 'padding': [1, 1, 1, 1], 'dilation': [1, 1], 'groups': 1, 'channels': 256, 'kernel_size': [3, 3], 'data_layout': 'NCHW', 'kernel_layout': 'OIHW', 'out_layout': '', 'out_dtype': ''}
  }
}
layer {
  name:"Node_595"
  type:"const"
  top:"Node_595"
  layer_param {
    idx:595
    out_0 {name:"Node_595:0",dtype:float32,shape:[256]}
  }
}
layer {
  name:"Node_596"
  type:"negative"
  top:"Node_596"
  bottom:"Node_595"
  layer_param {
    idx:596
    in_0 {name:"Node_595:0",dtype:float32,shape:[256]}
    out_0 {name:"Node_596:0",dtype:float32,shape:[256]}
  }
}
layer {
  name:"Node_598"
  type:"multiply"
  top:"Node_598"
  bottom:"Node_596"
  bottom:"Node_585"
  layer_param {
    idx:598
    in_0 {name:"Node_596:0",dtype:float32,shape:[256]}
    in_1 {name:"Node_585:0",dtype:float32,shape:[256]}
    out_0 {name:"Node_598:0",dtype:float32,shape:[256]}
  }
}
layer {
  name:"Node_599"
  type:"const"
  top:"Node_599"
  layer_param {
    idx:599
    out_0 {name:"Node_599:0",dtype:float32,shape:[256]}
  }
}
layer {
  name:"Node_600"
  type:"add"
  top:"Node_600"
  bottom:"Node_598"
  bottom:"Node_599"
  layer_param {
    idx:600
    in_0 {name:"Node_598:0",dtype:float32,shape:[256]}
    in_1 {name:"Node_599:0",dtype:float32,shape:[256]}
    out_0 {name:"Node_600:0",dtype:float32,shape:[256]}
  }
}
layer {
  name:"Node_601"
  type:"expand_dims"
  top:"Node_601"
  bottom:"Node_600"
  layer_param {
    idx:601
    in_0 {name:"Node_600:0",dtype:float32,shape:[256]}
    out_0 {name:"Node_601:0",dtype:float32,shape:[256, 1, 1]}
    attrs {'axis': 1, 'num_newaxis': 2}
  }
}
layer {
  name:"Node_602"
  type:"add"
  top:"Node_602"
  bottom:"Node_590"
  bottom:"Node_601"
  layer_param {
    idx:602
    in_0 {name:"Node_590:0",dtype:float32,shape:[1, 256, 14, 14]}
    in_1 {name:"Node_601:0",dtype:float32,shape:[256, 1, 1]}
    out_0 {name:"Node_602:0",dtype:float32,shape:[1, 256, 14, 14]}
  }
}
layer {
  name:"Node_604"
  type:"add"
  top:"Node_604"
  bottom:"Node_602"
  bottom:"Node_533"
  layer_param {
    idx:604
    in_0 {name:"Node_602:0",dtype:float32,shape:[1, 256, 14, 14]}
    in_1 {name:"Node_533:0",dtype:float32,shape:[1, 256, 14, 14]}
    out_0 {name:"Node_604:0",dtype:float32,shape:[1, 256, 14, 14]}
  }
}
layer {
  name:"Node_605"
  type:"nn.relu"
  top:"Node_605"
  bottom:"Node_604"
  layer_param {
    idx:605
    in_0 {name:"Node_604:0",dtype:float32,shape:[1, 256, 14, 14]}
    out_0 {name:"Node_605:0",dtype:float32,shape:[1, 256, 14, 14]}
  }
}
layer {
  name:"Node_607"
  type:"const"
  top:"Node_607"
  layer_param {
    idx:607
    out_0 {name:"Node_607:0",dtype:float32,shape:[512, 256, 3, 3]}
  }
}
layer {
  name:"Node_613"
  type:"const"
  top:"Node_613"
  layer_param {
    idx:613
    out_0 {name:"Node_613:0",dtype:float32,shape:[]}
  }
}
layer {
  name:"Node_616"
  type:"const"
  top:"Node_616"
  layer_param {
    idx:616
    out_0 {name:"Node_616:0",dtype:float32,shape:[512]}
  }
}
layer {
  name:"Node_617"
  type:"const"
  top:"Node_617"
  layer_param {
    idx:617
    out_0 {name:"Node_617:0",dtype:float32,shape:[]}
  }
}
layer {
  name:"Node_618"
  type:"add"
  top:"Node_618"
  bottom:"Node_616"
  bottom:"Node_617"
  layer_param {
    idx:618
    in_0 {name:"Node_616:0",dtype:float32,shape:[512]}
    in_1 {name:"Node_617:0",dtype:float32,shape:[]}
    out_0 {name:"Node_618:0",dtype:float32,shape:[512]}
  }
}
layer {
  name:"Node_619"
  type:"sqrt"
  top:"Node_619"
  bottom:"Node_618"
  layer_param {
    idx:619
    in_0 {name:"Node_618:0",dtype:float32,shape:[512]}
    out_0 {name:"Node_619:0",dtype:float32,shape:[512]}
  }
}
layer {
  name:"Node_620"
  type:"divide"
  top:"Node_620"
  bottom:"Node_613"
  bottom:"Node_619"
  layer_param {
    idx:620
    in_0 {name:"Node_613:0",dtype:float32,shape:[]}
    in_1 {name:"Node_619:0",dtype:float32,shape:[512]}
    out_0 {name:"Node_620:0",dtype:float32,shape:[512]}
  }
}
layer {
  name:"Node_621"
  type:"const"
  top:"Node_621"
  layer_param {
    idx:621
    out_0 {name:"Node_621:0",dtype:float32,shape:[512]}
  }
}
layer {
  name:"Node_622"
  type:"multiply"
  top:"Node_622"
  bottom:"Node_620"
  bottom:"Node_621"
  layer_param {
    idx:622
    in_0 {name:"Node_620:0",dtype:float32,shape:[512]}
    in_1 {name:"Node_621:0",dtype:float32,shape:[512]}
    out_0 {name:"Node_622:0",dtype:float32,shape:[512]}
  }
}
layer {
  name:"Node_623"
  type:"expand_dims"
  top:"Node_623"
  bottom:"Node_622"
  layer_param {
    idx:623
    in_0 {name:"Node_622:0",dtype:float32,shape:[512]}
    out_0 {name:"Node_623:0",dtype:float32,shape:[512, 1, 1]}
    attrs {'axis': 1, 'num_newaxis': 2}
  }
}
layer {
  name:"Node_624"
  type:"squeeze"
  top:"Node_624"
  bottom:"Node_623"
  layer_param {
    idx:624
    in_0 {name:"Node_623:0",dtype:float32,shape:[512, 1, 1]}
    out_0 {name:"Node_624:0",dtype:float32,shape:[512]}
    attrs {'axis': [1, 2]}
  }
}
layer {
  name:"Node_625"
  type:"expand_dims"
  top:"Node_625"
  bottom:"Node_624"
  layer_param {
    idx:625
    in_0 {name:"Node_624:0",dtype:float32,shape:[512]}
    out_0 {name:"Node_625:0",dtype:float32,shape:[512, 1, 1, 1]}
    attrs {'axis': 1, 'num_newaxis': 3}
  }
}
layer {
  name:"Node_626"
  type:"multiply"
  top:"Node_626"
  bottom:"Node_607"
  bottom:"Node_625"
  layer_param {
    idx:626
    in_0 {name:"Node_607:0",dtype:float32,shape:[512, 256, 3, 3]}
    in_1 {name:"Node_625:0",dtype:float32,shape:[512, 1, 1, 1]}
    out_0 {name:"Node_626:0",dtype:float32,shape:[512, 256, 3, 3]}
  }
}
layer {
  name:"Node_627"
  type:"nn.conv2d"
  top:"Node_627"
  bottom:"Node_605"
  bottom:"Node_626"
  layer_param {
    idx:627
    in_0 {name:"Node_605:0",dtype:float32,shape:[1, 256, 14, 14]}
    in_1 {name:"Node_626:0",dtype:float32,shape:[512, 256, 3, 3]}
    out_0 {name:"Node_627:0",dtype:float32,shape:[1, 512, 7, 7]}
    attrs {'strides': [2, 2], 'padding': [1, 1, 1, 1], 'dilation': [1, 1], 'groups': 1, 'channels': 512, 'kernel_size': [3, 3], 'data_layout': 'NCHW', 'kernel_layout': 'OIHW', 'out_layout': '', 'out_dtype': ''}
  }
}
layer {
  name:"Node_632"
  type:"const"
  top:"Node_632"
  layer_param {
    idx:632
    out_0 {name:"Node_632:0",dtype:float32,shape:[512]}
  }
}
layer {
  name:"Node_633"
  type:"negative"
  top:"Node_633"
  bottom:"Node_632"
  layer_param {
    idx:633
    in_0 {name:"Node_632:0",dtype:float32,shape:[512]}
    out_0 {name:"Node_633:0",dtype:float32,shape:[512]}
  }
}
layer {
  name:"Node_635"
  type:"multiply"
  top:"Node_635"
  bottom:"Node_633"
  bottom:"Node_622"
  layer_param {
    idx:635
    in_0 {name:"Node_633:0",dtype:float32,shape:[512]}
    in_1 {name:"Node_622:0",dtype:float32,shape:[512]}
    out_0 {name:"Node_635:0",dtype:float32,shape:[512]}
  }
}
layer {
  name:"Node_636"
  type:"const"
  top:"Node_636"
  layer_param {
    idx:636
    out_0 {name:"Node_636:0",dtype:float32,shape:[512]}
  }
}
layer {
  name:"Node_637"
  type:"add"
  top:"Node_637"
  bottom:"Node_635"
  bottom:"Node_636"
  layer_param {
    idx:637
    in_0 {name:"Node_635:0",dtype:float32,shape:[512]}
    in_1 {name:"Node_636:0",dtype:float32,shape:[512]}
    out_0 {name:"Node_637:0",dtype:float32,shape:[512]}
  }
}
layer {
  name:"Node_638"
  type:"expand_dims"
  top:"Node_638"
  bottom:"Node_637"
  layer_param {
    idx:638
    in_0 {name:"Node_637:0",dtype:float32,shape:[512]}
    out_0 {name:"Node_638:0",dtype:float32,shape:[512, 1, 1]}
    attrs {'axis': 1, 'num_newaxis': 2}
  }
}
layer {
  name:"Node_639"
  type:"add"
  top:"Node_639"
  bottom:"Node_627"
  bottom:"Node_638"
  layer_param {
    idx:639
    in_0 {name:"Node_627:0",dtype:float32,shape:[1, 512, 7, 7]}
    in_1 {name:"Node_638:0",dtype:float32,shape:[512, 1, 1]}
    out_0 {name:"Node_639:0",dtype:float32,shape:[1, 512, 7, 7]}
  }
}
layer {
  name:"Node_640"
  type:"nn.relu"
  top:"Node_640"
  bottom:"Node_639"
  layer_param {
    idx:640
    in_0 {name:"Node_639:0",dtype:float32,shape:[1, 512, 7, 7]}
    out_0 {name:"Node_640:0",dtype:float32,shape:[1, 512, 7, 7]}
  }
}
layer {
  name:"Node_642"
  type:"const"
  top:"Node_642"
  layer_param {
    idx:642
    out_0 {name:"Node_642:0",dtype:float32,shape:[512, 512, 3, 3]}
  }
}
layer {
  name:"Node_648"
  type:"const"
  top:"Node_648"
  layer_param {
    idx:648
    out_0 {name:"Node_648:0",dtype:float32,shape:[]}
  }
}
layer {
  name:"Node_651"
  type:"const"
  top:"Node_651"
  layer_param {
    idx:651
    out_0 {name:"Node_651:0",dtype:float32,shape:[512]}
  }
}
layer {
  name:"Node_652"
  type:"const"
  top:"Node_652"
  layer_param {
    idx:652
    out_0 {name:"Node_652:0",dtype:float32,shape:[]}
  }
}
layer {
  name:"Node_653"
  type:"add"
  top:"Node_653"
  bottom:"Node_651"
  bottom:"Node_652"
  layer_param {
    idx:653
    in_0 {name:"Node_651:0",dtype:float32,shape:[512]}
    in_1 {name:"Node_652:0",dtype:float32,shape:[]}
    out_0 {name:"Node_653:0",dtype:float32,shape:[512]}
  }
}
layer {
  name:"Node_654"
  type:"sqrt"
  top:"Node_654"
  bottom:"Node_653"
  layer_param {
    idx:654
    in_0 {name:"Node_653:0",dtype:float32,shape:[512]}
    out_0 {name:"Node_654:0",dtype:float32,shape:[512]}
  }
}
layer {
  name:"Node_655"
  type:"divide"
  top:"Node_655"
  bottom:"Node_648"
  bottom:"Node_654"
  layer_param {
    idx:655
    in_0 {name:"Node_648:0",dtype:float32,shape:[]}
    in_1 {name:"Node_654:0",dtype:float32,shape:[512]}
    out_0 {name:"Node_655:0",dtype:float32,shape:[512]}
  }
}
layer {
  name:"Node_656"
  type:"const"
  top:"Node_656"
  layer_param {
    idx:656
    out_0 {name:"Node_656:0",dtype:float32,shape:[512]}
  }
}
layer {
  name:"Node_657"
  type:"multiply"
  top:"Node_657"
  bottom:"Node_655"
  bottom:"Node_656"
  layer_param {
    idx:657
    in_0 {name:"Node_655:0",dtype:float32,shape:[512]}
    in_1 {name:"Node_656:0",dtype:float32,shape:[512]}
    out_0 {name:"Node_657:0",dtype:float32,shape:[512]}
  }
}
layer {
  name:"Node_658"
  type:"expand_dims"
  top:"Node_658"
  bottom:"Node_657"
  layer_param {
    idx:658
    in_0 {name:"Node_657:0",dtype:float32,shape:[512]}
    out_0 {name:"Node_658:0",dtype:float32,shape:[512, 1, 1]}
    attrs {'axis': 1, 'num_newaxis': 2}
  }
}
layer {
  name:"Node_659"
  type:"squeeze"
  top:"Node_659"
  bottom:"Node_658"
  layer_param {
    idx:659
    in_0 {name:"Node_658:0",dtype:float32,shape:[512, 1, 1]}
    out_0 {name:"Node_659:0",dtype:float32,shape:[512]}
    attrs {'axis': [1, 2]}
  }
}
layer {
  name:"Node_660"
  type:"expand_dims"
  top:"Node_660"
  bottom:"Node_659"
  layer_param {
    idx:660
    in_0 {name:"Node_659:0",dtype:float32,shape:[512]}
    out_0 {name:"Node_660:0",dtype:float32,shape:[512, 1, 1, 1]}
    attrs {'axis': 1, 'num_newaxis': 3}
  }
}
layer {
  name:"Node_661"
  type:"multiply"
  top:"Node_661"
  bottom:"Node_642"
  bottom:"Node_660"
  layer_param {
    idx:661
    in_0 {name:"Node_642:0",dtype:float32,shape:[512, 512, 3, 3]}
    in_1 {name:"Node_660:0",dtype:float32,shape:[512, 1, 1, 1]}
    out_0 {name:"Node_661:0",dtype:float32,shape:[512, 512, 3, 3]}
  }
}
layer {
  name:"Node_662"
  type:"nn.conv2d"
  top:"Node_662"
  bottom:"Node_640"
  bottom:"Node_661"
  layer_param {
    idx:662
    in_0 {name:"Node_640:0",dtype:float32,shape:[1, 512, 7, 7]}
    in_1 {name:"Node_661:0",dtype:float32,shape:[512, 512, 3, 3]}
    out_0 {name:"Node_662:0",dtype:float32,shape:[1, 512, 7, 7]}
    attrs {'strides': [1, 1], 'padding': [1, 1, 1, 1], 'dilation': [1, 1], 'groups': 1, 'channels': 512, 'kernel_size': [3, 3], 'data_layout': 'NCHW', 'kernel_layout': 'OIHW', 'out_layout': '', 'out_dtype': ''}
  }
}
layer {
  name:"Node_667"
  type:"const"
  top:"Node_667"
  layer_param {
    idx:667
    out_0 {name:"Node_667:0",dtype:float32,shape:[512]}
  }
}
layer {
  name:"Node_668"
  type:"negative"
  top:"Node_668"
  bottom:"Node_667"
  layer_param {
    idx:668
    in_0 {name:"Node_667:0",dtype:float32,shape:[512]}
    out_0 {name:"Node_668:0",dtype:float32,shape:[512]}
  }
}
layer {
  name:"Node_670"
  type:"multiply"
  top:"Node_670"
  bottom:"Node_668"
  bottom:"Node_657"
  layer_param {
    idx:670
    in_0 {name:"Node_668:0",dtype:float32,shape:[512]}
    in_1 {name:"Node_657:0",dtype:float32,shape:[512]}
    out_0 {name:"Node_670:0",dtype:float32,shape:[512]}
  }
}
layer {
  name:"Node_671"
  type:"const"
  top:"Node_671"
  layer_param {
    idx:671
    out_0 {name:"Node_671:0",dtype:float32,shape:[512]}
  }
}
layer {
  name:"Node_672"
  type:"add"
  top:"Node_672"
  bottom:"Node_670"
  bottom:"Node_671"
  layer_param {
    idx:672
    in_0 {name:"Node_670:0",dtype:float32,shape:[512]}
    in_1 {name:"Node_671:0",dtype:float32,shape:[512]}
    out_0 {name:"Node_672:0",dtype:float32,shape:[512]}
  }
}
layer {
  name:"Node_673"
  type:"expand_dims"
  top:"Node_673"
  bottom:"Node_672"
  layer_param {
    idx:673
    in_0 {name:"Node_672:0",dtype:float32,shape:[512]}
    out_0 {name:"Node_673:0",dtype:float32,shape:[512, 1, 1]}
    attrs {'axis': 1, 'num_newaxis': 2}
  }
}
layer {
  name:"Node_674"
  type:"add"
  top:"Node_674"
  bottom:"Node_662"
  bottom:"Node_673"
  layer_param {
    idx:674
    in_0 {name:"Node_662:0",dtype:float32,shape:[1, 512, 7, 7]}
    in_1 {name:"Node_673:0",dtype:float32,shape:[512, 1, 1]}
    out_0 {name:"Node_674:0",dtype:float32,shape:[1, 512, 7, 7]}
  }
}
layer {
  name:"Node_679"
  type:"const"
  top:"Node_679"
  layer_param {
    idx:679
    out_0 {name:"Node_679:0",dtype:float32,shape:[512, 256, 1, 1]}
  }
}
layer {
  name:"Node_685"
  type:"const"
  top:"Node_685"
  layer_param {
    idx:685
    out_0 {name:"Node_685:0",dtype:float32,shape:[]}
  }
}
layer {
  name:"Node_688"
  type:"const"
  top:"Node_688"
  layer_param {
    idx:688
    out_0 {name:"Node_688:0",dtype:float32,shape:[512]}
  }
}
layer {
  name:"Node_689"
  type:"const"
  top:"Node_689"
  layer_param {
    idx:689
    out_0 {name:"Node_689:0",dtype:float32,shape:[]}
  }
}
layer {
  name:"Node_690"
  type:"add"
  top:"Node_690"
  bottom:"Node_688"
  bottom:"Node_689"
  layer_param {
    idx:690
    in_0 {name:"Node_688:0",dtype:float32,shape:[512]}
    in_1 {name:"Node_689:0",dtype:float32,shape:[]}
    out_0 {name:"Node_690:0",dtype:float32,shape:[512]}
  }
}
layer {
  name:"Node_691"
  type:"sqrt"
  top:"Node_691"
  bottom:"Node_690"
  layer_param {
    idx:691
    in_0 {name:"Node_690:0",dtype:float32,shape:[512]}
    out_0 {name:"Node_691:0",dtype:float32,shape:[512]}
  }
}
layer {
  name:"Node_692"
  type:"divide"
  top:"Node_692"
  bottom:"Node_685"
  bottom:"Node_691"
  layer_param {
    idx:692
    in_0 {name:"Node_685:0",dtype:float32,shape:[]}
    in_1 {name:"Node_691:0",dtype:float32,shape:[512]}
    out_0 {name:"Node_692:0",dtype:float32,shape:[512]}
  }
}
layer {
  name:"Node_693"
  type:"const"
  top:"Node_693"
  layer_param {
    idx:693
    out_0 {name:"Node_693:0",dtype:float32,shape:[512]}
  }
}
layer {
  name:"Node_694"
  type:"multiply"
  top:"Node_694"
  bottom:"Node_692"
  bottom:"Node_693"
  layer_param {
    idx:694
    in_0 {name:"Node_692:0",dtype:float32,shape:[512]}
    in_1 {name:"Node_693:0",dtype:float32,shape:[512]}
    out_0 {name:"Node_694:0",dtype:float32,shape:[512]}
  }
}
layer {
  name:"Node_695"
  type:"expand_dims"
  top:"Node_695"
  bottom:"Node_694"
  layer_param {
    idx:695
    in_0 {name:"Node_694:0",dtype:float32,shape:[512]}
    out_0 {name:"Node_695:0",dtype:float32,shape:[512, 1, 1]}
    attrs {'axis': 1, 'num_newaxis': 2}
  }
}
layer {
  name:"Node_696"
  type:"squeeze"
  top:"Node_696"
  bottom:"Node_695"
  layer_param {
    idx:696
    in_0 {name:"Node_695:0",dtype:float32,shape:[512, 1, 1]}
    out_0 {name:"Node_696:0",dtype:float32,shape:[512]}
    attrs {'axis': [1, 2]}
  }
}
layer {
  name:"Node_697"
  type:"expand_dims"
  top:"Node_697"
  bottom:"Node_696"
  layer_param {
    idx:697
    in_0 {name:"Node_696:0",dtype:float32,shape:[512]}
    out_0 {name:"Node_697:0",dtype:float32,shape:[512, 1, 1, 1]}
    attrs {'axis': 1, 'num_newaxis': 3}
  }
}
layer {
  name:"Node_698"
  type:"multiply"
  top:"Node_698"
  bottom:"Node_679"
  bottom:"Node_697"
  layer_param {
    idx:698
    in_0 {name:"Node_679:0",dtype:float32,shape:[512, 256, 1, 1]}
    in_1 {name:"Node_697:0",dtype:float32,shape:[512, 1, 1, 1]}
    out_0 {name:"Node_698:0",dtype:float32,shape:[512, 256, 1, 1]}
  }
}
layer {
  name:"Node_699"
  type:"nn.conv2d"
  top:"Node_699"
  bottom:"Node_605"
  bottom:"Node_698"
  layer_param {
    idx:699
    in_0 {name:"Node_605:0",dtype:float32,shape:[1, 256, 14, 14]}
    in_1 {name:"Node_698:0",dtype:float32,shape:[512, 256, 1, 1]}
    out_0 {name:"Node_699:0",dtype:float32,shape:[1, 512, 7, 7]}
    attrs {'strides': [2, 2], 'padding': [0, 0, 0, 0], 'dilation': [1, 1], 'groups': 1, 'channels': 512, 'kernel_size': [1, 1], 'data_layout': 'NCHW', 'kernel_layout': 'OIHW', 'out_layout': '', 'out_dtype': ''}
  }
}
layer {
  name:"Node_704"
  type:"const"
  top:"Node_704"
  layer_param {
    idx:704
    out_0 {name:"Node_704:0",dtype:float32,shape:[512]}
  }
}
layer {
  name:"Node_705"
  type:"negative"
  top:"Node_705"
  bottom:"Node_704"
  layer_param {
    idx:705
    in_0 {name:"Node_704:0",dtype:float32,shape:[512]}
    out_0 {name:"Node_705:0",dtype:float32,shape:[512]}
  }
}
layer {
  name:"Node_707"
  type:"multiply"
  top:"Node_707"
  bottom:"Node_705"
  bottom:"Node_694"
  layer_param {
    idx:707
    in_0 {name:"Node_705:0",dtype:float32,shape:[512]}
    in_1 {name:"Node_694:0",dtype:float32,shape:[512]}
    out_0 {name:"Node_707:0",dtype:float32,shape:[512]}
  }
}
layer {
  name:"Node_708"
  type:"const"
  top:"Node_708"
  layer_param {
    idx:708
    out_0 {name:"Node_708:0",dtype:float32,shape:[512]}
  }
}
layer {
  name:"Node_709"
  type:"add"
  top:"Node_709"
  bottom:"Node_707"
  bottom:"Node_708"
  layer_param {
    idx:709
    in_0 {name:"Node_707:0",dtype:float32,shape:[512]}
    in_1 {name:"Node_708:0",dtype:float32,shape:[512]}
    out_0 {name:"Node_709:0",dtype:float32,shape:[512]}
  }
}
layer {
  name:"Node_710"
  type:"expand_dims"
  top:"Node_710"
  bottom:"Node_709"
  layer_param {
    idx:710
    in_0 {name:"Node_709:0",dtype:float32,shape:[512]}
    out_0 {name:"Node_710:0",dtype:float32,shape:[512, 1, 1]}
    attrs {'axis': 1, 'num_newaxis': 2}
  }
}
layer {
  name:"Node_711"
  type:"add"
  top:"Node_711"
  bottom:"Node_699"
  bottom:"Node_710"
  layer_param {
    idx:711
    in_0 {name:"Node_699:0",dtype:float32,shape:[1, 512, 7, 7]}
    in_1 {name:"Node_710:0",dtype:float32,shape:[512, 1, 1]}
    out_0 {name:"Node_711:0",dtype:float32,shape:[1, 512, 7, 7]}
  }
}
layer {
  name:"Node_712"
  type:"add"
  top:"Node_712"
  bottom:"Node_674"
  bottom:"Node_711"
  layer_param {
    idx:712
    in_0 {name:"Node_674:0",dtype:float32,shape:[1, 512, 7, 7]}
    in_1 {name:"Node_711:0",dtype:float32,shape:[1, 512, 7, 7]}
    out_0 {name:"Node_712:0",dtype:float32,shape:[1, 512, 7, 7]}
  }
}
layer {
  name:"Node_713"
  type:"nn.relu"
  top:"Node_713"
  bottom:"Node_712"
  layer_param {
    idx:713
    in_0 {name:"Node_712:0",dtype:float32,shape:[1, 512, 7, 7]}
    out_0 {name:"Node_713:0",dtype:float32,shape:[1, 512, 7, 7]}
  }
}
layer {
  name:"Node_715"
  type:"const"
  top:"Node_715"
  layer_param {
    idx:715
    out_0 {name:"Node_715:0",dtype:float32,shape:[512, 512, 3, 3]}
  }
}
layer {
  name:"Node_721"
  type:"const"
  top:"Node_721"
  layer_param {
    idx:721
    out_0 {name:"Node_721:0",dtype:float32,shape:[]}
  }
}
layer {
  name:"Node_724"
  type:"const"
  top:"Node_724"
  layer_param {
    idx:724
    out_0 {name:"Node_724:0",dtype:float32,shape:[512]}
  }
}
layer {
  name:"Node_725"
  type:"const"
  top:"Node_725"
  layer_param {
    idx:725
    out_0 {name:"Node_725:0",dtype:float32,shape:[]}
  }
}
layer {
  name:"Node_726"
  type:"add"
  top:"Node_726"
  bottom:"Node_724"
  bottom:"Node_725"
  layer_param {
    idx:726
    in_0 {name:"Node_724:0",dtype:float32,shape:[512]}
    in_1 {name:"Node_725:0",dtype:float32,shape:[]}
    out_0 {name:"Node_726:0",dtype:float32,shape:[512]}
  }
}
layer {
  name:"Node_727"
  type:"sqrt"
  top:"Node_727"
  bottom:"Node_726"
  layer_param {
    idx:727
    in_0 {name:"Node_726:0",dtype:float32,shape:[512]}
    out_0 {name:"Node_727:0",dtype:float32,shape:[512]}
  }
}
layer {
  name:"Node_728"
  type:"divide"
  top:"Node_728"
  bottom:"Node_721"
  bottom:"Node_727"
  layer_param {
    idx:728
    in_0 {name:"Node_721:0",dtype:float32,shape:[]}
    in_1 {name:"Node_727:0",dtype:float32,shape:[512]}
    out_0 {name:"Node_728:0",dtype:float32,shape:[512]}
  }
}
layer {
  name:"Node_729"
  type:"const"
  top:"Node_729"
  layer_param {
    idx:729
    out_0 {name:"Node_729:0",dtype:float32,shape:[512]}
  }
}
layer {
  name:"Node_730"
  type:"multiply"
  top:"Node_730"
  bottom:"Node_728"
  bottom:"Node_729"
  layer_param {
    idx:730
    in_0 {name:"Node_728:0",dtype:float32,shape:[512]}
    in_1 {name:"Node_729:0",dtype:float32,shape:[512]}
    out_0 {name:"Node_730:0",dtype:float32,shape:[512]}
  }
}
layer {
  name:"Node_731"
  type:"expand_dims"
  top:"Node_731"
  bottom:"Node_730"
  layer_param {
    idx:731
    in_0 {name:"Node_730:0",dtype:float32,shape:[512]}
    out_0 {name:"Node_731:0",dtype:float32,shape:[512, 1, 1]}
    attrs {'axis': 1, 'num_newaxis': 2}
  }
}
layer {
  name:"Node_732"
  type:"squeeze"
  top:"Node_732"
  bottom:"Node_731"
  layer_param {
    idx:732
    in_0 {name:"Node_731:0",dtype:float32,shape:[512, 1, 1]}
    out_0 {name:"Node_732:0",dtype:float32,shape:[512]}
    attrs {'axis': [1, 2]}
  }
}
layer {
  name:"Node_733"
  type:"expand_dims"
  top:"Node_733"
  bottom:"Node_732"
  layer_param {
    idx:733
    in_0 {name:"Node_732:0",dtype:float32,shape:[512]}
    out_0 {name:"Node_733:0",dtype:float32,shape:[512, 1, 1, 1]}
    attrs {'axis': 1, 'num_newaxis': 3}
  }
}
layer {
  name:"Node_734"
  type:"multiply"
  top:"Node_734"
  bottom:"Node_715"
  bottom:"Node_733"
  layer_param {
    idx:734
    in_0 {name:"Node_715:0",dtype:float32,shape:[512, 512, 3, 3]}
    in_1 {name:"Node_733:0",dtype:float32,shape:[512, 1, 1, 1]}
    out_0 {name:"Node_734:0",dtype:float32,shape:[512, 512, 3, 3]}
  }
}
layer {
  name:"Node_735"
  type:"nn.conv2d"
  top:"Node_735"
  bottom:"Node_713"
  bottom:"Node_734"
  layer_param {
    idx:735
    in_0 {name:"Node_713:0",dtype:float32,shape:[1, 512, 7, 7]}
    in_1 {name:"Node_734:0",dtype:float32,shape:[512, 512, 3, 3]}
    out_0 {name:"Node_735:0",dtype:float32,shape:[1, 512, 7, 7]}
    attrs {'strides': [1, 1], 'padding': [1, 1, 1, 1], 'dilation': [1, 1], 'groups': 1, 'channels': 512, 'kernel_size': [3, 3], 'data_layout': 'NCHW', 'kernel_layout': 'OIHW', 'out_layout': '', 'out_dtype': ''}
  }
}
layer {
  name:"Node_740"
  type:"const"
  top:"Node_740"
  layer_param {
    idx:740
    out_0 {name:"Node_740:0",dtype:float32,shape:[512]}
  }
}
layer {
  name:"Node_741"
  type:"negative"
  top:"Node_741"
  bottom:"Node_740"
  layer_param {
    idx:741
    in_0 {name:"Node_740:0",dtype:float32,shape:[512]}
    out_0 {name:"Node_741:0",dtype:float32,shape:[512]}
  }
}
layer {
  name:"Node_743"
  type:"multiply"
  top:"Node_743"
  bottom:"Node_741"
  bottom:"Node_730"
  layer_param {
    idx:743
    in_0 {name:"Node_741:0",dtype:float32,shape:[512]}
    in_1 {name:"Node_730:0",dtype:float32,shape:[512]}
    out_0 {name:"Node_743:0",dtype:float32,shape:[512]}
  }
}
layer {
  name:"Node_744"
  type:"const"
  top:"Node_744"
  layer_param {
    idx:744
    out_0 {name:"Node_744:0",dtype:float32,shape:[512]}
  }
}
layer {
  name:"Node_745"
  type:"add"
  top:"Node_745"
  bottom:"Node_743"
  bottom:"Node_744"
  layer_param {
    idx:745
    in_0 {name:"Node_743:0",dtype:float32,shape:[512]}
    in_1 {name:"Node_744:0",dtype:float32,shape:[512]}
    out_0 {name:"Node_745:0",dtype:float32,shape:[512]}
  }
}
layer {
  name:"Node_746"
  type:"expand_dims"
  top:"Node_746"
  bottom:"Node_745"
  layer_param {
    idx:746
    in_0 {name:"Node_745:0",dtype:float32,shape:[512]}
    out_0 {name:"Node_746:0",dtype:float32,shape:[512, 1, 1]}
    attrs {'axis': 1, 'num_newaxis': 2}
  }
}
layer {
  name:"Node_747"
  type:"add"
  top:"Node_747"
  bottom:"Node_735"
  bottom:"Node_746"
  layer_param {
    idx:747
    in_0 {name:"Node_735:0",dtype:float32,shape:[1, 512, 7, 7]}
    in_1 {name:"Node_746:0",dtype:float32,shape:[512, 1, 1]}
    out_0 {name:"Node_747:0",dtype:float32,shape:[1, 512, 7, 7]}
  }
}
layer {
  name:"Node_748"
  type:"nn.relu"
  top:"Node_748"
  bottom:"Node_747"
  layer_param {
    idx:748
    in_0 {name:"Node_747:0",dtype:float32,shape:[1, 512, 7, 7]}
    out_0 {name:"Node_748:0",dtype:float32,shape:[1, 512, 7, 7]}
  }
}
layer {
  name:"Node_750"
  type:"const"
  top:"Node_750"
  layer_param {
    idx:750
    out_0 {name:"Node_750:0",dtype:float32,shape:[512, 512, 3, 3]}
  }
}
layer {
  name:"Node_756"
  type:"const"
  top:"Node_756"
  layer_param {
    idx:756
    out_0 {name:"Node_756:0",dtype:float32,shape:[]}
  }
}
layer {
  name:"Node_759"
  type:"const"
  top:"Node_759"
  layer_param {
    idx:759
    out_0 {name:"Node_759:0",dtype:float32,shape:[512]}
  }
}
layer {
  name:"Node_760"
  type:"const"
  top:"Node_760"
  layer_param {
    idx:760
    out_0 {name:"Node_760:0",dtype:float32,shape:[]}
  }
}
layer {
  name:"Node_761"
  type:"add"
  top:"Node_761"
  bottom:"Node_759"
  bottom:"Node_760"
  layer_param {
    idx:761
    in_0 {name:"Node_759:0",dtype:float32,shape:[512]}
    in_1 {name:"Node_760:0",dtype:float32,shape:[]}
    out_0 {name:"Node_761:0",dtype:float32,shape:[512]}
  }
}
layer {
  name:"Node_762"
  type:"sqrt"
  top:"Node_762"
  bottom:"Node_761"
  layer_param {
    idx:762
    in_0 {name:"Node_761:0",dtype:float32,shape:[512]}
    out_0 {name:"Node_762:0",dtype:float32,shape:[512]}
  }
}
layer {
  name:"Node_763"
  type:"divide"
  top:"Node_763"
  bottom:"Node_756"
  bottom:"Node_762"
  layer_param {
    idx:763
    in_0 {name:"Node_756:0",dtype:float32,shape:[]}
    in_1 {name:"Node_762:0",dtype:float32,shape:[512]}
    out_0 {name:"Node_763:0",dtype:float32,shape:[512]}
  }
}
layer {
  name:"Node_764"
  type:"const"
  top:"Node_764"
  layer_param {
    idx:764
    out_0 {name:"Node_764:0",dtype:float32,shape:[512]}
  }
}
layer {
  name:"Node_765"
  type:"multiply"
  top:"Node_765"
  bottom:"Node_763"
  bottom:"Node_764"
  layer_param {
    idx:765
    in_0 {name:"Node_763:0",dtype:float32,shape:[512]}
    in_1 {name:"Node_764:0",dtype:float32,shape:[512]}
    out_0 {name:"Node_765:0",dtype:float32,shape:[512]}
  }
}
layer {
  name:"Node_766"
  type:"expand_dims"
  top:"Node_766"
  bottom:"Node_765"
  layer_param {
    idx:766
    in_0 {name:"Node_765:0",dtype:float32,shape:[512]}
    out_0 {name:"Node_766:0",dtype:float32,shape:[512, 1, 1]}
    attrs {'axis': 1, 'num_newaxis': 2}
  }
}
layer {
  name:"Node_767"
  type:"squeeze"
  top:"Node_767"
  bottom:"Node_766"
  layer_param {
    idx:767
    in_0 {name:"Node_766:0",dtype:float32,shape:[512, 1, 1]}
    out_0 {name:"Node_767:0",dtype:float32,shape:[512]}
    attrs {'axis': [1, 2]}
  }
}
layer {
  name:"Node_768"
  type:"expand_dims"
  top:"Node_768"
  bottom:"Node_767"
  layer_param {
    idx:768
    in_0 {name:"Node_767:0",dtype:float32,shape:[512]}
    out_0 {name:"Node_768:0",dtype:float32,shape:[512, 1, 1, 1]}
    attrs {'axis': 1, 'num_newaxis': 3}
  }
}
layer {
  name:"Node_769"
  type:"multiply"
  top:"Node_769"
  bottom:"Node_750"
  bottom:"Node_768"
  layer_param {
    idx:769
    in_0 {name:"Node_750:0",dtype:float32,shape:[512, 512, 3, 3]}
    in_1 {name:"Node_768:0",dtype:float32,shape:[512, 1, 1, 1]}
    out_0 {name:"Node_769:0",dtype:float32,shape:[512, 512, 3, 3]}
  }
}
layer {
  name:"Node_770"
  type:"nn.conv2d"
  top:"Node_770"
  bottom:"Node_748"
  bottom:"Node_769"
  layer_param {
    idx:770
    in_0 {name:"Node_748:0",dtype:float32,shape:[1, 512, 7, 7]}
    in_1 {name:"Node_769:0",dtype:float32,shape:[512, 512, 3, 3]}
    out_0 {name:"Node_770:0",dtype:float32,shape:[1, 512, 7, 7]}
    attrs {'strides': [1, 1], 'padding': [1, 1, 1, 1], 'dilation': [1, 1], 'groups': 1, 'channels': 512, 'kernel_size': [3, 3], 'data_layout': 'NCHW', 'kernel_layout': 'OIHW', 'out_layout': '', 'out_dtype': ''}
  }
}
layer {
  name:"Node_775"
  type:"const"
  top:"Node_775"
  layer_param {
    idx:775
    out_0 {name:"Node_775:0",dtype:float32,shape:[512]}
  }
}
layer {
  name:"Node_776"
  type:"negative"
  top:"Node_776"
  bottom:"Node_775"
  layer_param {
    idx:776
    in_0 {name:"Node_775:0",dtype:float32,shape:[512]}
    out_0 {name:"Node_776:0",dtype:float32,shape:[512]}
  }
}
layer {
  name:"Node_778"
  type:"multiply"
  top:"Node_778"
  bottom:"Node_776"
  bottom:"Node_765"
  layer_param {
    idx:778
    in_0 {name:"Node_776:0",dtype:float32,shape:[512]}
    in_1 {name:"Node_765:0",dtype:float32,shape:[512]}
    out_0 {name:"Node_778:0",dtype:float32,shape:[512]}
  }
}
layer {
  name:"Node_779"
  type:"const"
  top:"Node_779"
  layer_param {
    idx:779
    out_0 {name:"Node_779:0",dtype:float32,shape:[512]}
  }
}
layer {
  name:"Node_780"
  type:"add"
  top:"Node_780"
  bottom:"Node_778"
  bottom:"Node_779"
  layer_param {
    idx:780
    in_0 {name:"Node_778:0",dtype:float32,shape:[512]}
    in_1 {name:"Node_779:0",dtype:float32,shape:[512]}
    out_0 {name:"Node_780:0",dtype:float32,shape:[512]}
  }
}
layer {
  name:"Node_781"
  type:"expand_dims"
  top:"Node_781"
  bottom:"Node_780"
  layer_param {
    idx:781
    in_0 {name:"Node_780:0",dtype:float32,shape:[512]}
    out_0 {name:"Node_781:0",dtype:float32,shape:[512, 1, 1]}
    attrs {'axis': 1, 'num_newaxis': 2}
  }
}
layer {
  name:"Node_782"
  type:"add"
  top:"Node_782"
  bottom:"Node_770"
  bottom:"Node_781"
  layer_param {
    idx:782
    in_0 {name:"Node_770:0",dtype:float32,shape:[1, 512, 7, 7]}
    in_1 {name:"Node_781:0",dtype:float32,shape:[512, 1, 1]}
    out_0 {name:"Node_782:0",dtype:float32,shape:[1, 512, 7, 7]}
  }
}
layer {
  name:"Node_784"
  type:"add"
  top:"Node_784"
  bottom:"Node_782"
  bottom:"Node_713"
  layer_param {
    idx:784
    in_0 {name:"Node_782:0",dtype:float32,shape:[1, 512, 7, 7]}
    in_1 {name:"Node_713:0",dtype:float32,shape:[1, 512, 7, 7]}
    out_0 {name:"Node_784:0",dtype:float32,shape:[1, 512, 7, 7]}
  }
}
layer {
  name:"Node_785"
  type:"nn.relu"
  top:"Node_785"
  bottom:"Node_784"
  layer_param {
    idx:785
    in_0 {name:"Node_784:0",dtype:float32,shape:[1, 512, 7, 7]}
    out_0 {name:"Node_785:0",dtype:float32,shape:[1, 512, 7, 7]}
  }
}
layer {
  name:"Node_786"
  type:"nn.adaptive_avg_pool2d"
  top:"Node_786"
  bottom:"Node_785"
  layer_param {
    idx:786
    in_0 {name:"Node_785:0",dtype:float32,shape:[1, 512, 7, 7]}
    out_0 {name:"Node_786:0",dtype:float32,shape:[1, 512, 1, 1]}
    attrs {'output_size': [1, 1], 'layout': 'NCHW'}
  }
}
layer {
  name:"Node_787"
  type:"reshape"
  top:"Node_787"
  bottom:"Node_786"
  layer_param {
    idx:787
    in_0 {name:"Node_786:0",dtype:float32,shape:[1, 512, 1, 1]}
    out_0 {name:"Node_787:0",dtype:float32,shape:[1, 512, 1, 1]}
    attrs {'newshape': [0, -1, 1, 1]}
  }
}
layer {
  name:"Node_788"
  type:"squeeze"
  top:"Node_788"
  bottom:"Node_787"
  layer_param {
    idx:788
    in_0 {name:"Node_787:0",dtype:float32,shape:[1, 512, 1, 1]}
    out_0 {name:"Node_788:0",dtype:float32,shape:[1, 512]}
    attrs {'axis': [2, 3]}
  }
}
layer {
  name:"Node_791"
  type:"const"
  top:"Node_791"
  layer_param {
    idx:791
    out_0 {name:"Node_791:0",dtype:float32,shape:[1000, 512]}
  }
}
layer {
  name:"Node_792"
  type:"transpose"
  top:"Node_792"
  bottom:"Node_791"
  layer_param {
    idx:792
    in_0 {name:"Node_791:0",dtype:float32,shape:[1000, 512]}
    out_0 {name:"Node_792:0",dtype:float32,shape:[512, 1000]}
    attrs {'axes': [1, 0]}
  }
}
layer {
  name:"Node_793"
  type:"transpose"
  top:"Node_793"
  bottom:"Node_792"
  layer_param {
    idx:793
    in_0 {name:"Node_792:0",dtype:float32,shape:[512, 1000]}
    out_0 {name:"Node_793:0",dtype:float32,shape:[1000, 512]}
    attrs {'axes': [1, 0]}
  }
}
layer {
  name:"Node_794"
  type:"nn.dense"
  top:"Node_794"
  bottom:"Node_788"
  bottom:"Node_793"
  layer_param {
    idx:794
    in_0 {name:"Node_788:0",dtype:float32,shape:[1, 512]}
    in_1 {name:"Node_793:0",dtype:float32,shape:[1000, 512]}
    out_0 {name:"Node_794:0",dtype:float32,shape:[1, 1000]}
    attrs {'units': 1000, 'out_dtype': ''}
  }
}
layer {
  name:"Node_795"
  type:"const"
  top:"Node_795"
  layer_param {
    idx:795
    out_0 {name:"Node_795:0",dtype:float32,shape:[1000]}
  }
}
layer {
  name:"Node_796"
  type:"add"
  top:"Node_796"
  bottom:"Node_794"
  bottom:"Node_795"
  layer_param {
    idx:796
    in_0 {name:"Node_794:0",dtype:float32,shape:[1, 1000]}
    in_1 {name:"Node_795:0",dtype:float32,shape:[1000]}
    out_0 {name:"Node_796:0",dtype:float32,shape:[1, 1000]}
  }
}
