name : "relay_ir"
layer {
  name:"input0"
  type:"input"
  top:"input0"
  layer_param {
    idx:0
    out_0 {name:"input0:0",dtype:float32,shape:[1, 3, 224, 224]}
  }
}
layer {
  name:"Node_364"
  type:"const"
  top:"Node_364"
  layer_param {
    idx:364
    out_0 {name:"Node_364:0",dtype:float32,shape:[64, 3, 7, 7]}
  }
}
layer {
  name:"Node_365"
  type:"nn_conv2d"
  top:"Node_365"
  bottom:"input0"
  bottom:"Node_364"
  layer_param {
    idx:365
    in_0 {name:"input0:0",dtype:float32,shape:[1, 3, 224, 224]}
    in_1 {name:"Node_364:0",dtype:float32,shape:[64, 3, 7, 7]}
    out_0 {name:"Node_365:0",dtype:float32,shape:[1, 64, 112, 112]}
    attrs {'strides': [2, 2], 'padding': [3, 3, 3, 3], 'dilation': [1, 1], 'groups': 1, 'channels': 64, 'kernel_size': [7, 7], 'data_layout': 'NCHW', 'kernel_layout': 'OIHW', 'out_layout': '', 'out_dtype': ''}
  }
}
layer {
  name:"Node_366"
  type:"annotation_stop_fusion"
  top:"Node_366"
  bottom:"Node_365"
  layer_param {
    idx:366
    in_0 {name:"Node_365:0",dtype:float32,shape:[1, 64, 112, 112]}
    out_0 {name:"Node_366:0",dtype:float32,shape:[1, 64, 112, 112]}
  }
}
layer {
  name:"Node_367"
  type:"const"
  top:"Node_367"
  layer_param {
    idx:367
    out_0 {name:"Node_367:0",dtype:float32,shape:[64, 1, 1]}
  }
}
layer {
  name:"Node_368"
  type:"multiply"
  top:"Node_368"
  bottom:"Node_366"
  bottom:"Node_367"
  layer_param {
    idx:368
    in_0 {name:"Node_366:0",dtype:float32,shape:[1, 64, 112, 112]}
    in_1 {name:"Node_367:0",dtype:float32,shape:[64, 1, 1]}
    out_0 {name:"Node_368:0",dtype:float32,shape:[1, 64, 112, 112]}
  }
}
layer {
  name:"Node_369"
  type:"const"
  top:"Node_369"
  layer_param {
    idx:369
    out_0 {name:"Node_369:0",dtype:float32,shape:[64, 1, 1]}
  }
}
layer {
  name:"Node_370"
  type:"add"
  top:"Node_370"
  bottom:"Node_368"
  bottom:"Node_369"
  layer_param {
    idx:370
    in_0 {name:"Node_368:0",dtype:float32,shape:[1, 64, 112, 112]}
    in_1 {name:"Node_369:0",dtype:float32,shape:[64, 1, 1]}
    out_0 {name:"Node_370:0",dtype:float32,shape:[1, 64, 112, 112]}
  }
}
layer {
  name:"Node_371"
  type:"nn_relu"
  top:"Node_371"
  bottom:"Node_370"
  layer_param {
    idx:371
    in_0 {name:"Node_370:0",dtype:float32,shape:[1, 64, 112, 112]}
    out_0 {name:"Node_371:0",dtype:float32,shape:[1, 64, 112, 112]}
  }
}
layer {
  name:"Node_372"
  type:"nn_max_pool2d"
  top:"Node_372"
  bottom:"Node_371"
  layer_param {
    idx:372
    in_0 {name:"Node_371:0",dtype:float32,shape:[1, 64, 112, 112]}
    out_0 {name:"Node_372:0",dtype:float32,shape:[1, 64, 56, 56]}
    attrs {'pool_size': [3, 3], 'strides': [2, 2], 'padding': [1, 1, 1, 1], 'layout': 'NCHW32c', 'ceil_mode': 0}
  }
}
layer {
  name:"Node_373"
  type:"annotation_stop_fusion"
  top:"Node_373"
  bottom:"Node_372"
  layer_param {
    idx:373
    in_0 {name:"Node_372:0",dtype:float32,shape:[1, 64, 56, 56]}
    out_0 {name:"Node_373:0",dtype:float32,shape:[1, 64, 56, 56]}
  }
}
layer {
  name:"Node_374"
  type:"const"
  top:"Node_374"
  layer_param {
    idx:374
    out_0 {name:"Node_374:0",dtype:float32,shape:[]}
  }
}
layer {
  name:"Node_375"
  type:"multiply"
  top:"Node_375"
  bottom:"Node_373"
  bottom:"Node_374"
  layer_param {
    idx:375
    in_0 {name:"Node_373:0",dtype:float32,shape:[1, 64, 56, 56]}
    in_1 {name:"Node_374:0",dtype:float32,shape:[]}
    out_0 {name:"Node_375:0",dtype:float32,shape:[1, 64, 56, 56]}
  }
}
layer {
  name:"Node_376"
  type:"round"
  top:"Node_376"
  bottom:"Node_375"
  layer_param {
    idx:376
    in_0 {name:"Node_375:0",dtype:float32,shape:[1, 64, 56, 56]}
    out_0 {name:"Node_376:0",dtype:float32,shape:[1, 64, 56, 56]}
  }
}
layer {
  name:"Node_377"
  type:"clip"
  top:"Node_377"
  bottom:"Node_376"
  layer_param {
    idx:377
    in_0 {name:"Node_376:0",dtype:float32,shape:[1, 64, 56, 56]}
    out_0 {name:"Node_377:0",dtype:float32,shape:[1, 64, 56, 56]}
    attrs {'a_min': -127.0, 'a_max': 127.0}
  }
}
layer {
  name:"Node_378"
  type:"cast"
  top:"Node_378"
  bottom:"Node_377"
  layer_param {
    idx:378
    in_0 {name:"Node_377:0",dtype:float32,shape:[1, 64, 56, 56]}
    out_0 {name:"Node_378:0",dtype:int8,shape:[1, 64, 56, 56]}
    attrs {'dtype': 'int8'}
  }
}
layer {
  name:"Node_383"
  type:"const"
  top:"Node_383"
  layer_param {
    idx:383
    out_0 {name:"Node_383:0",dtype:float32,shape:[64, 64, 3, 3]}
  }
}
layer {
  name:"Node_384"
  type:"const"
  top:"Node_384"
  layer_param {
    idx:384
    out_0 {name:"Node_384:0",dtype:float32,shape:[]}
  }
}
layer {
  name:"Node_385"
  type:"multiply"
  top:"Node_385"
  bottom:"Node_383"
  bottom:"Node_384"
  layer_param {
    idx:385
    in_0 {name:"Node_383:0",dtype:float32,shape:[64, 64, 3, 3]}
    in_1 {name:"Node_384:0",dtype:float32,shape:[]}
    out_0 {name:"Node_385:0",dtype:float32,shape:[64, 64, 3, 3]}
  }
}
layer {
  name:"Node_386"
  type:"round"
  top:"Node_386"
  bottom:"Node_385"
  layer_param {
    idx:386
    in_0 {name:"Node_385:0",dtype:float32,shape:[64, 64, 3, 3]}
    out_0 {name:"Node_386:0",dtype:float32,shape:[64, 64, 3, 3]}
  }
}
layer {
  name:"Node_387"
  type:"clip"
  top:"Node_387"
  bottom:"Node_386"
  layer_param {
    idx:387
    in_0 {name:"Node_386:0",dtype:float32,shape:[64, 64, 3, 3]}
    out_0 {name:"Node_387:0",dtype:float32,shape:[64, 64, 3, 3]}
    attrs {'a_min': -127.0, 'a_max': 127.0}
  }
}
layer {
  name:"Node_388"
  type:"cast"
  top:"Node_388"
  bottom:"Node_387"
  layer_param {
    idx:388
    in_0 {name:"Node_387:0",dtype:float32,shape:[64, 64, 3, 3]}
    out_0 {name:"Node_388:0",dtype:int8,shape:[64, 64, 3, 3]}
    attrs {'dtype': 'int8'}
  }
}
layer {
  name:"Node_389"
  type:"nn_conv2d"
  top:"Node_389"
  bottom:"Node_378"
  bottom:"Node_388"
  layer_param {
    idx:389
    in_0 {name:"Node_378:0",dtype:int8,shape:[1, 64, 56, 56]}
    in_1 {name:"Node_388:0",dtype:int8,shape:[64, 64, 3, 3]}
    out_0 {name:"Node_389:0",dtype:int32,shape:[1, 64, 56, 56]}
    attrs {'strides': [1, 1], 'padding': [1, 1, 1, 1], 'dilation': [1, 1], 'groups': 1, 'channels': 64, 'kernel_size': [3, 3], 'data_layout': 'NCHW', 'kernel_layout': 'OIHW', 'out_layout': '', 'out_dtype': 'int32'}
  }
}
layer {
  name:"Node_390"
  type:"cast"
  top:"Node_390"
  bottom:"Node_389"
  layer_param {
    idx:390
    in_0 {name:"Node_389:0",dtype:int32,shape:[1, 64, 56, 56]}
    out_0 {name:"Node_390:0",dtype:int64,shape:[1, 64, 56, 56]}
    attrs {'dtype': 'int64'}
  }
}
layer {
  name:"Node_391"
  type:"fixed_point_multiply"
  top:"Node_391"
  bottom:"Node_390"
  layer_param {
    idx:391
    in_0 {name:"Node_390:0",dtype:int64,shape:[1, 64, 56, 56]}
    out_0 {name:"Node_391:0",dtype:int64,shape:[1, 64, 56, 56]}
  }
}
layer {
  name:"Node_392"
  type:"clip"
  top:"Node_392"
  bottom:"Node_391"
  layer_param {
    idx:392
    in_0 {name:"Node_391:0",dtype:int64,shape:[1, 64, 56, 56]}
    out_0 {name:"Node_392:0",dtype:int64,shape:[1, 64, 56, 56]}
    attrs {'a_min': -127.0, 'a_max': 127.0}
  }
}
layer {
  name:"Node_393"
  type:"cast"
  top:"Node_393"
  bottom:"Node_392"
  layer_param {
    idx:393
    in_0 {name:"Node_392:0",dtype:int64,shape:[1, 64, 56, 56]}
    out_0 {name:"Node_393:0",dtype:int32,shape:[1, 64, 56, 56]}
    attrs {'dtype': 'int32'}
  }
}
layer {
  name:"Node_394"
  type:"cast"
  top:"Node_394"
  bottom:"Node_393"
  layer_param {
    idx:394
    in_0 {name:"Node_393:0",dtype:int32,shape:[1, 64, 56, 56]}
    out_0 {name:"Node_394:0",dtype:int8,shape:[1, 64, 56, 56]}
    attrs {'dtype': 'int8'}
  }
}
layer {
  name:"Node_395"
  type:"annotation_stop_fusion"
  top:"Node_395"
  bottom:"Node_394"
  layer_param {
    idx:395
    in_0 {name:"Node_394:0",dtype:int8,shape:[1, 64, 56, 56]}
    out_0 {name:"Node_395:0",dtype:int8,shape:[1, 64, 56, 56]}
  }
}
layer {
  name:"Node_396"
  type:"cast"
  top:"Node_396"
  bottom:"Node_395"
  layer_param {
    idx:396
    in_0 {name:"Node_395:0",dtype:int8,shape:[1, 64, 56, 56]}
    out_0 {name:"Node_396:0",dtype:int32,shape:[1, 64, 56, 56]}
    attrs {'dtype': 'int32'}
  }
}
layer {
  name:"Node_401"
  type:"const"
  top:"Node_401"
  layer_param {
    idx:401
    out_0 {name:"Node_401:0",dtype:float32,shape:[64, 1, 1]}
  }
}
layer {
  name:"Node_402"
  type:"const"
  top:"Node_402"
  layer_param {
    idx:402
    out_0 {name:"Node_402:0",dtype:float32,shape:[]}
  }
}
layer {
  name:"Node_403"
  type:"multiply"
  top:"Node_403"
  bottom:"Node_401"
  bottom:"Node_402"
  layer_param {
    idx:403
    in_0 {name:"Node_401:0",dtype:float32,shape:[64, 1, 1]}
    in_1 {name:"Node_402:0",dtype:float32,shape:[]}
    out_0 {name:"Node_403:0",dtype:float32,shape:[64, 1, 1]}
  }
}
layer {
  name:"Node_404"
  type:"round"
  top:"Node_404"
  bottom:"Node_403"
  layer_param {
    idx:404
    in_0 {name:"Node_403:0",dtype:float32,shape:[64, 1, 1]}
    out_0 {name:"Node_404:0",dtype:float32,shape:[64, 1, 1]}
  }
}
layer {
  name:"Node_405"
  type:"clip"
  top:"Node_405"
  bottom:"Node_404"
  layer_param {
    idx:405
    in_0 {name:"Node_404:0",dtype:float32,shape:[64, 1, 1]}
    out_0 {name:"Node_405:0",dtype:float32,shape:[64, 1, 1]}
    attrs {'a_min': -127.0, 'a_max': 127.0}
  }
}
layer {
  name:"Node_406"
  type:"cast"
  top:"Node_406"
  bottom:"Node_405"
  layer_param {
    idx:406
    in_0 {name:"Node_405:0",dtype:float32,shape:[64, 1, 1]}
    out_0 {name:"Node_406:0",dtype:int32,shape:[64, 1, 1]}
    attrs {'dtype': 'int32'}
  }
}
layer {
  name:"Node_407"
  type:"multiply"
  top:"Node_407"
  bottom:"Node_396"
  bottom:"Node_406"
  layer_param {
    idx:407
    in_0 {name:"Node_396:0",dtype:int32,shape:[1, 64, 56, 56]}
    in_1 {name:"Node_406:0",dtype:int32,shape:[64, 1, 1]}
    out_0 {name:"Node_407:0",dtype:int32,shape:[1, 64, 56, 56]}
  }
}
layer {
  name:"Node_415"
  type:"const"
  top:"Node_415"
  layer_param {
    idx:415
    out_0 {name:"Node_415:0",dtype:float32,shape:[64, 1, 1]}
  }
}
layer {
  name:"Node_416"
  type:"const"
  top:"Node_416"
  layer_param {
    idx:416
    out_0 {name:"Node_416:0",dtype:float32,shape:[]}
  }
}
layer {
  name:"Node_417"
  type:"multiply"
  top:"Node_417"
  bottom:"Node_415"
  bottom:"Node_416"
  layer_param {
    idx:417
    in_0 {name:"Node_415:0",dtype:float32,shape:[64, 1, 1]}
    in_1 {name:"Node_416:0",dtype:float32,shape:[]}
    out_0 {name:"Node_417:0",dtype:float32,shape:[64, 1, 1]}
  }
}
layer {
  name:"Node_418"
  type:"round"
  top:"Node_418"
  bottom:"Node_417"
  layer_param {
    idx:418
    in_0 {name:"Node_417:0",dtype:float32,shape:[64, 1, 1]}
    out_0 {name:"Node_418:0",dtype:float32,shape:[64, 1, 1]}
  }
}
layer {
  name:"Node_419"
  type:"clip"
  top:"Node_419"
  bottom:"Node_418"
  layer_param {
    idx:419
    in_0 {name:"Node_418:0",dtype:float32,shape:[64, 1, 1]}
    out_0 {name:"Node_419:0",dtype:float32,shape:[64, 1, 1]}
    attrs {'a_min': -127.0, 'a_max': 127.0}
  }
}
layer {
  name:"Node_420"
  type:"cast"
  top:"Node_420"
  bottom:"Node_419"
  layer_param {
    idx:420
    in_0 {name:"Node_419:0",dtype:float32,shape:[64, 1, 1]}
    out_0 {name:"Node_420:0",dtype:int32,shape:[64, 1, 1]}
    attrs {'dtype': 'int32'}
  }
}
layer {
  name:"Node_421"
  type:"fixed_point_multiply"
  top:"Node_421"
  bottom:"Node_420"
  layer_param {
    idx:421
    in_0 {name:"Node_420:0",dtype:int32,shape:[64, 1, 1]}
    out_0 {name:"Node_421:0",dtype:int32,shape:[64, 1, 1]}
  }
}
layer {
  name:"Node_422"
  type:"cast"
  top:"Node_422"
  bottom:"Node_421"
  layer_param {
    idx:422
    in_0 {name:"Node_421:0",dtype:int32,shape:[64, 1, 1]}
    out_0 {name:"Node_422:0",dtype:int32,shape:[64, 1, 1]}
    attrs {'dtype': 'int32'}
  }
}
layer {
  name:"Node_423"
  type:"annotation_stop_fusion"
  top:"Node_423"
  bottom:"Node_422"
  layer_param {
    idx:423
    in_0 {name:"Node_422:0",dtype:int32,shape:[64, 1, 1]}
    out_0 {name:"Node_423:0",dtype:int32,shape:[64, 1, 1]}
  }
}
layer {
  name:"Node_424"
  type:"add"
  top:"Node_424"
  bottom:"Node_407"
  bottom:"Node_423"
  layer_param {
    idx:424
    in_0 {name:"Node_407:0",dtype:int32,shape:[1, 64, 56, 56]}
    in_1 {name:"Node_423:0",dtype:int32,shape:[64, 1, 1]}
    out_0 {name:"Node_424:0",dtype:int32,shape:[1, 64, 56, 56]}
  }
}
layer {
  name:"Node_425"
  type:"nn_relu"
  top:"Node_425"
  bottom:"Node_424"
  layer_param {
    idx:425
    in_0 {name:"Node_424:0",dtype:int32,shape:[1, 64, 56, 56]}
    out_0 {name:"Node_425:0",dtype:int32,shape:[1, 64, 56, 56]}
  }
}
layer {
  name:"Node_426"
  type:"cast"
  top:"Node_426"
  bottom:"Node_425"
  layer_param {
    idx:426
    in_0 {name:"Node_425:0",dtype:int32,shape:[1, 64, 56, 56]}
    out_0 {name:"Node_426:0",dtype:int64,shape:[1, 64, 56, 56]}
    attrs {'dtype': 'int64'}
  }
}
layer {
  name:"Node_427"
  type:"fixed_point_multiply"
  top:"Node_427"
  bottom:"Node_426"
  layer_param {
    idx:427
    in_0 {name:"Node_426:0",dtype:int64,shape:[1, 64, 56, 56]}
    out_0 {name:"Node_427:0",dtype:int64,shape:[1, 64, 56, 56]}
  }
}
layer {
  name:"Node_428"
  type:"clip"
  top:"Node_428"
  bottom:"Node_427"
  layer_param {
    idx:428
    in_0 {name:"Node_427:0",dtype:int64,shape:[1, 64, 56, 56]}
    out_0 {name:"Node_428:0",dtype:int64,shape:[1, 64, 56, 56]}
    attrs {'a_min': -127.0, 'a_max': 127.0}
  }
}
layer {
  name:"Node_429"
  type:"cast"
  top:"Node_429"
  bottom:"Node_428"
  layer_param {
    idx:429
    in_0 {name:"Node_428:0",dtype:int64,shape:[1, 64, 56, 56]}
    out_0 {name:"Node_429:0",dtype:int32,shape:[1, 64, 56, 56]}
    attrs {'dtype': 'int32'}
  }
}
layer {
  name:"Node_430"
  type:"cast"
  top:"Node_430"
  bottom:"Node_429"
  layer_param {
    idx:430
    in_0 {name:"Node_429:0",dtype:int32,shape:[1, 64, 56, 56]}
    out_0 {name:"Node_430:0",dtype:int8,shape:[1, 64, 56, 56]}
    attrs {'dtype': 'int8'}
  }
}
layer {
  name:"Node_431"
  type:"annotation_stop_fusion"
  top:"Node_431"
  bottom:"Node_430"
  layer_param {
    idx:431
    in_0 {name:"Node_430:0",dtype:int8,shape:[1, 64, 56, 56]}
    out_0 {name:"Node_431:0",dtype:int8,shape:[1, 64, 56, 56]}
  }
}
layer {
  name:"Node_436"
  type:"const"
  top:"Node_436"
  layer_param {
    idx:436
    out_0 {name:"Node_436:0",dtype:float32,shape:[64, 64, 3, 3]}
  }
}
layer {
  name:"Node_437"
  type:"const"
  top:"Node_437"
  layer_param {
    idx:437
    out_0 {name:"Node_437:0",dtype:float32,shape:[]}
  }
}
layer {
  name:"Node_438"
  type:"multiply"
  top:"Node_438"
  bottom:"Node_436"
  bottom:"Node_437"
  layer_param {
    idx:438
    in_0 {name:"Node_436:0",dtype:float32,shape:[64, 64, 3, 3]}
    in_1 {name:"Node_437:0",dtype:float32,shape:[]}
    out_0 {name:"Node_438:0",dtype:float32,shape:[64, 64, 3, 3]}
  }
}
layer {
  name:"Node_439"
  type:"round"
  top:"Node_439"
  bottom:"Node_438"
  layer_param {
    idx:439
    in_0 {name:"Node_438:0",dtype:float32,shape:[64, 64, 3, 3]}
    out_0 {name:"Node_439:0",dtype:float32,shape:[64, 64, 3, 3]}
  }
}
layer {
  name:"Node_440"
  type:"clip"
  top:"Node_440"
  bottom:"Node_439"
  layer_param {
    idx:440
    in_0 {name:"Node_439:0",dtype:float32,shape:[64, 64, 3, 3]}
    out_0 {name:"Node_440:0",dtype:float32,shape:[64, 64, 3, 3]}
    attrs {'a_min': -127.0, 'a_max': 127.0}
  }
}
layer {
  name:"Node_441"
  type:"cast"
  top:"Node_441"
  bottom:"Node_440"
  layer_param {
    idx:441
    in_0 {name:"Node_440:0",dtype:float32,shape:[64, 64, 3, 3]}
    out_0 {name:"Node_441:0",dtype:int8,shape:[64, 64, 3, 3]}
    attrs {'dtype': 'int8'}
  }
}
layer {
  name:"Node_442"
  type:"nn_conv2d"
  top:"Node_442"
  bottom:"Node_431"
  bottom:"Node_441"
  layer_param {
    idx:442
    in_0 {name:"Node_431:0",dtype:int8,shape:[1, 64, 56, 56]}
    in_1 {name:"Node_441:0",dtype:int8,shape:[64, 64, 3, 3]}
    out_0 {name:"Node_442:0",dtype:int32,shape:[1, 64, 56, 56]}
    attrs {'strides': [1, 1], 'padding': [1, 1, 1, 1], 'dilation': [1, 1], 'groups': 1, 'channels': 64, 'kernel_size': [3, 3], 'data_layout': 'NCHW', 'kernel_layout': 'OIHW', 'out_layout': '', 'out_dtype': 'int32'}
  }
}
layer {
  name:"Node_443"
  type:"cast"
  top:"Node_443"
  bottom:"Node_442"
  layer_param {
    idx:443
    in_0 {name:"Node_442:0",dtype:int32,shape:[1, 64, 56, 56]}
    out_0 {name:"Node_443:0",dtype:int64,shape:[1, 64, 56, 56]}
    attrs {'dtype': 'int64'}
  }
}
layer {
  name:"Node_444"
  type:"fixed_point_multiply"
  top:"Node_444"
  bottom:"Node_443"
  layer_param {
    idx:444
    in_0 {name:"Node_443:0",dtype:int64,shape:[1, 64, 56, 56]}
    out_0 {name:"Node_444:0",dtype:int64,shape:[1, 64, 56, 56]}
  }
}
layer {
  name:"Node_445"
  type:"clip"
  top:"Node_445"
  bottom:"Node_444"
  layer_param {
    idx:445
    in_0 {name:"Node_444:0",dtype:int64,shape:[1, 64, 56, 56]}
    out_0 {name:"Node_445:0",dtype:int64,shape:[1, 64, 56, 56]}
    attrs {'a_min': -127.0, 'a_max': 127.0}
  }
}
layer {
  name:"Node_446"
  type:"cast"
  top:"Node_446"
  bottom:"Node_445"
  layer_param {
    idx:446
    in_0 {name:"Node_445:0",dtype:int64,shape:[1, 64, 56, 56]}
    out_0 {name:"Node_446:0",dtype:int32,shape:[1, 64, 56, 56]}
    attrs {'dtype': 'int32'}
  }
}
layer {
  name:"Node_447"
  type:"cast"
  top:"Node_447"
  bottom:"Node_446"
  layer_param {
    idx:447
    in_0 {name:"Node_446:0",dtype:int32,shape:[1, 64, 56, 56]}
    out_0 {name:"Node_447:0",dtype:int8,shape:[1, 64, 56, 56]}
    attrs {'dtype': 'int8'}
  }
}
layer {
  name:"Node_448"
  type:"annotation_stop_fusion"
  top:"Node_448"
  bottom:"Node_447"
  layer_param {
    idx:448
    in_0 {name:"Node_447:0",dtype:int8,shape:[1, 64, 56, 56]}
    out_0 {name:"Node_448:0",dtype:int8,shape:[1, 64, 56, 56]}
  }
}
layer {
  name:"Node_449"
  type:"cast"
  top:"Node_449"
  bottom:"Node_448"
  layer_param {
    idx:449
    in_0 {name:"Node_448:0",dtype:int8,shape:[1, 64, 56, 56]}
    out_0 {name:"Node_449:0",dtype:int32,shape:[1, 64, 56, 56]}
    attrs {'dtype': 'int32'}
  }
}
layer {
  name:"Node_454"
  type:"const"
  top:"Node_454"
  layer_param {
    idx:454
    out_0 {name:"Node_454:0",dtype:float32,shape:[64, 1, 1]}
  }
}
layer {
  name:"Node_455"
  type:"const"
  top:"Node_455"
  layer_param {
    idx:455
    out_0 {name:"Node_455:0",dtype:float32,shape:[]}
  }
}
layer {
  name:"Node_456"
  type:"multiply"
  top:"Node_456"
  bottom:"Node_454"
  bottom:"Node_455"
  layer_param {
    idx:456
    in_0 {name:"Node_454:0",dtype:float32,shape:[64, 1, 1]}
    in_1 {name:"Node_455:0",dtype:float32,shape:[]}
    out_0 {name:"Node_456:0",dtype:float32,shape:[64, 1, 1]}
  }
}
layer {
  name:"Node_457"
  type:"round"
  top:"Node_457"
  bottom:"Node_456"
  layer_param {
    idx:457
    in_0 {name:"Node_456:0",dtype:float32,shape:[64, 1, 1]}
    out_0 {name:"Node_457:0",dtype:float32,shape:[64, 1, 1]}
  }
}
layer {
  name:"Node_458"
  type:"clip"
  top:"Node_458"
  bottom:"Node_457"
  layer_param {
    idx:458
    in_0 {name:"Node_457:0",dtype:float32,shape:[64, 1, 1]}
    out_0 {name:"Node_458:0",dtype:float32,shape:[64, 1, 1]}
    attrs {'a_min': -127.0, 'a_max': 127.0}
  }
}
layer {
  name:"Node_459"
  type:"cast"
  top:"Node_459"
  bottom:"Node_458"
  layer_param {
    idx:459
    in_0 {name:"Node_458:0",dtype:float32,shape:[64, 1, 1]}
    out_0 {name:"Node_459:0",dtype:int32,shape:[64, 1, 1]}
    attrs {'dtype': 'int32'}
  }
}
layer {
  name:"Node_460"
  type:"multiply"
  top:"Node_460"
  bottom:"Node_449"
  bottom:"Node_459"
  layer_param {
    idx:460
    in_0 {name:"Node_449:0",dtype:int32,shape:[1, 64, 56, 56]}
    in_1 {name:"Node_459:0",dtype:int32,shape:[64, 1, 1]}
    out_0 {name:"Node_460:0",dtype:int32,shape:[1, 64, 56, 56]}
  }
}
layer {
  name:"Node_468"
  type:"const"
  top:"Node_468"
  layer_param {
    idx:468
    out_0 {name:"Node_468:0",dtype:float32,shape:[64, 1, 1]}
  }
}
layer {
  name:"Node_469"
  type:"const"
  top:"Node_469"
  layer_param {
    idx:469
    out_0 {name:"Node_469:0",dtype:float32,shape:[]}
  }
}
layer {
  name:"Node_470"
  type:"multiply"
  top:"Node_470"
  bottom:"Node_468"
  bottom:"Node_469"
  layer_param {
    idx:470
    in_0 {name:"Node_468:0",dtype:float32,shape:[64, 1, 1]}
    in_1 {name:"Node_469:0",dtype:float32,shape:[]}
    out_0 {name:"Node_470:0",dtype:float32,shape:[64, 1, 1]}
  }
}
layer {
  name:"Node_471"
  type:"round"
  top:"Node_471"
  bottom:"Node_470"
  layer_param {
    idx:471
    in_0 {name:"Node_470:0",dtype:float32,shape:[64, 1, 1]}
    out_0 {name:"Node_471:0",dtype:float32,shape:[64, 1, 1]}
  }
}
layer {
  name:"Node_472"
  type:"clip"
  top:"Node_472"
  bottom:"Node_471"
  layer_param {
    idx:472
    in_0 {name:"Node_471:0",dtype:float32,shape:[64, 1, 1]}
    out_0 {name:"Node_472:0",dtype:float32,shape:[64, 1, 1]}
    attrs {'a_min': -127.0, 'a_max': 127.0}
  }
}
layer {
  name:"Node_473"
  type:"cast"
  top:"Node_473"
  bottom:"Node_472"
  layer_param {
    idx:473
    in_0 {name:"Node_472:0",dtype:float32,shape:[64, 1, 1]}
    out_0 {name:"Node_473:0",dtype:int32,shape:[64, 1, 1]}
    attrs {'dtype': 'int32'}
  }
}
layer {
  name:"Node_474"
  type:"fixed_point_multiply"
  top:"Node_474"
  bottom:"Node_473"
  layer_param {
    idx:474
    in_0 {name:"Node_473:0",dtype:int32,shape:[64, 1, 1]}
    out_0 {name:"Node_474:0",dtype:int32,shape:[64, 1, 1]}
  }
}
layer {
  name:"Node_475"
  type:"cast"
  top:"Node_475"
  bottom:"Node_474"
  layer_param {
    idx:475
    in_0 {name:"Node_474:0",dtype:int32,shape:[64, 1, 1]}
    out_0 {name:"Node_475:0",dtype:int32,shape:[64, 1, 1]}
    attrs {'dtype': 'int32'}
  }
}
layer {
  name:"Node_476"
  type:"annotation_stop_fusion"
  top:"Node_476"
  bottom:"Node_475"
  layer_param {
    idx:476
    in_0 {name:"Node_475:0",dtype:int32,shape:[64, 1, 1]}
    out_0 {name:"Node_476:0",dtype:int32,shape:[64, 1, 1]}
  }
}
layer {
  name:"Node_477"
  type:"add"
  top:"Node_477"
  bottom:"Node_460"
  bottom:"Node_476"
  layer_param {
    idx:477
    in_0 {name:"Node_460:0",dtype:int32,shape:[1, 64, 56, 56]}
    in_1 {name:"Node_476:0",dtype:int32,shape:[64, 1, 1]}
    out_0 {name:"Node_477:0",dtype:int32,shape:[1, 64, 56, 56]}
  }
}
layer {
  name:"Node_478"
  type:"cast"
  top:"Node_478"
  bottom:"Node_477"
  layer_param {
    idx:478
    in_0 {name:"Node_477:0",dtype:int32,shape:[1, 64, 56, 56]}
    out_0 {name:"Node_478:0",dtype:int64,shape:[1, 64, 56, 56]}
    attrs {'dtype': 'int64'}
  }
}
layer {
  name:"Node_479"
  type:"fixed_point_multiply"
  top:"Node_479"
  bottom:"Node_478"
  layer_param {
    idx:479
    in_0 {name:"Node_478:0",dtype:int64,shape:[1, 64, 56, 56]}
    out_0 {name:"Node_479:0",dtype:int64,shape:[1, 64, 56, 56]}
  }
}
layer {
  name:"Node_480"
  type:"clip"
  top:"Node_480"
  bottom:"Node_479"
  layer_param {
    idx:480
    in_0 {name:"Node_479:0",dtype:int64,shape:[1, 64, 56, 56]}
    out_0 {name:"Node_480:0",dtype:int64,shape:[1, 64, 56, 56]}
    attrs {'a_min': -127.0, 'a_max': 127.0}
  }
}
layer {
  name:"Node_481"
  type:"cast"
  top:"Node_481"
  bottom:"Node_480"
  layer_param {
    idx:481
    in_0 {name:"Node_480:0",dtype:int64,shape:[1, 64, 56, 56]}
    out_0 {name:"Node_481:0",dtype:int32,shape:[1, 64, 56, 56]}
    attrs {'dtype': 'int32'}
  }
}
layer {
  name:"Node_482"
  type:"cast"
  top:"Node_482"
  bottom:"Node_481"
  layer_param {
    idx:482
    in_0 {name:"Node_481:0",dtype:int32,shape:[1, 64, 56, 56]}
    out_0 {name:"Node_482:0",dtype:int8,shape:[1, 64, 56, 56]}
    attrs {'dtype': 'int8'}
  }
}
layer {
  name:"Node_483"
  type:"annotation_stop_fusion"
  top:"Node_483"
  bottom:"Node_482"
  layer_param {
    idx:483
    in_0 {name:"Node_482:0",dtype:int8,shape:[1, 64, 56, 56]}
    out_0 {name:"Node_483:0",dtype:int8,shape:[1, 64, 56, 56]}
  }
}
layer {
  name:"Node_484"
  type:"cast"
  top:"Node_484"
  bottom:"Node_483"
  layer_param {
    idx:484
    in_0 {name:"Node_483:0",dtype:int8,shape:[1, 64, 56, 56]}
    out_0 {name:"Node_484:0",dtype:int32,shape:[1, 64, 56, 56]}
    attrs {'dtype': 'int32'}
  }
}
layer {
  name:"Node_485"
  type:"fixed_point_multiply"
  top:"Node_485"
  bottom:"Node_484"
  layer_param {
    idx:485
    in_0 {name:"Node_484:0",dtype:int32,shape:[1, 64, 56, 56]}
    out_0 {name:"Node_485:0",dtype:int32,shape:[1, 64, 56, 56]}
  }
}
layer {
  name:"Node_486"
  type:"cast"
  top:"Node_486"
  bottom:"Node_485"
  layer_param {
    idx:486
    in_0 {name:"Node_485:0",dtype:int32,shape:[1, 64, 56, 56]}
    out_0 {name:"Node_486:0",dtype:int32,shape:[1, 64, 56, 56]}
    attrs {'dtype': 'int32'}
  }
}
layer {
  name:"Node_494"
  type:"annotation_stop_fusion"
  top:"Node_494"
  bottom:"Node_372"
  layer_param {
    idx:494
    in_0 {name:"Node_372:0",dtype:float32,shape:[1, 64, 56, 56]}
    out_0 {name:"Node_494:0",dtype:float32,shape:[1, 64, 56, 56]}
  }
}
layer {
  name:"Node_495"
  type:"const"
  top:"Node_495"
  layer_param {
    idx:495
    out_0 {name:"Node_495:0",dtype:float32,shape:[]}
  }
}
layer {
  name:"Node_496"
  type:"multiply"
  top:"Node_496"
  bottom:"Node_494"
  bottom:"Node_495"
  layer_param {
    idx:496
    in_0 {name:"Node_494:0",dtype:float32,shape:[1, 64, 56, 56]}
    in_1 {name:"Node_495:0",dtype:float32,shape:[]}
    out_0 {name:"Node_496:0",dtype:float32,shape:[1, 64, 56, 56]}
  }
}
layer {
  name:"Node_497"
  type:"round"
  top:"Node_497"
  bottom:"Node_496"
  layer_param {
    idx:497
    in_0 {name:"Node_496:0",dtype:float32,shape:[1, 64, 56, 56]}
    out_0 {name:"Node_497:0",dtype:float32,shape:[1, 64, 56, 56]}
  }
}
layer {
  name:"Node_498"
  type:"clip"
  top:"Node_498"
  bottom:"Node_497"
  layer_param {
    idx:498
    in_0 {name:"Node_497:0",dtype:float32,shape:[1, 64, 56, 56]}
    out_0 {name:"Node_498:0",dtype:float32,shape:[1, 64, 56, 56]}
    attrs {'a_min': -127.0, 'a_max': 127.0}
  }
}
layer {
  name:"Node_499"
  type:"cast"
  top:"Node_499"
  bottom:"Node_498"
  layer_param {
    idx:499
    in_0 {name:"Node_498:0",dtype:float32,shape:[1, 64, 56, 56]}
    out_0 {name:"Node_499:0",dtype:int32,shape:[1, 64, 56, 56]}
    attrs {'dtype': 'int32'}
  }
}
layer {
  name:"Node_500"
  type:"annotation_stop_fusion"
  top:"Node_500"
  bottom:"Node_499"
  layer_param {
    idx:500
    in_0 {name:"Node_499:0",dtype:int32,shape:[1, 64, 56, 56]}
    out_0 {name:"Node_500:0",dtype:int32,shape:[1, 64, 56, 56]}
  }
}
layer {
  name:"Node_501"
  type:"add"
  top:"Node_501"
  bottom:"Node_486"
  bottom:"Node_500"
  layer_param {
    idx:501
    in_0 {name:"Node_486:0",dtype:int32,shape:[1, 64, 56, 56]}
    in_1 {name:"Node_500:0",dtype:int32,shape:[1, 64, 56, 56]}
    out_0 {name:"Node_501:0",dtype:int32,shape:[1, 64, 56, 56]}
  }
}
layer {
  name:"Node_502"
  type:"nn_relu"
  top:"Node_502"
  bottom:"Node_501"
  layer_param {
    idx:502
    in_0 {name:"Node_501:0",dtype:int32,shape:[1, 64, 56, 56]}
    out_0 {name:"Node_502:0",dtype:int32,shape:[1, 64, 56, 56]}
  }
}
layer {
  name:"Node_503"
  type:"cast"
  top:"Node_503"
  bottom:"Node_502"
  layer_param {
    idx:503
    in_0 {name:"Node_502:0",dtype:int32,shape:[1, 64, 56, 56]}
    out_0 {name:"Node_503:0",dtype:int64,shape:[1, 64, 56, 56]}
    attrs {'dtype': 'int64'}
  }
}
layer {
  name:"Node_504"
  type:"fixed_point_multiply"
  top:"Node_504"
  bottom:"Node_503"
  layer_param {
    idx:504
    in_0 {name:"Node_503:0",dtype:int64,shape:[1, 64, 56, 56]}
    out_0 {name:"Node_504:0",dtype:int64,shape:[1, 64, 56, 56]}
  }
}
layer {
  name:"Node_505"
  type:"clip"
  top:"Node_505"
  bottom:"Node_504"
  layer_param {
    idx:505
    in_0 {name:"Node_504:0",dtype:int64,shape:[1, 64, 56, 56]}
    out_0 {name:"Node_505:0",dtype:int64,shape:[1, 64, 56, 56]}
    attrs {'a_min': -127.0, 'a_max': 127.0}
  }
}
layer {
  name:"Node_506"
  type:"cast"
  top:"Node_506"
  bottom:"Node_505"
  layer_param {
    idx:506
    in_0 {name:"Node_505:0",dtype:int64,shape:[1, 64, 56, 56]}
    out_0 {name:"Node_506:0",dtype:int32,shape:[1, 64, 56, 56]}
    attrs {'dtype': 'int32'}
  }
}
layer {
  name:"Node_507"
  type:"cast"
  top:"Node_507"
  bottom:"Node_506"
  layer_param {
    idx:507
    in_0 {name:"Node_506:0",dtype:int32,shape:[1, 64, 56, 56]}
    out_0 {name:"Node_507:0",dtype:int8,shape:[1, 64, 56, 56]}
    attrs {'dtype': 'int8'}
  }
}
layer {
  name:"Node_508"
  type:"annotation_stop_fusion"
  top:"Node_508"
  bottom:"Node_507"
  layer_param {
    idx:508
    in_0 {name:"Node_507:0",dtype:int8,shape:[1, 64, 56, 56]}
    out_0 {name:"Node_508:0",dtype:int8,shape:[1, 64, 56, 56]}
  }
}
layer {
  name:"Node_513"
  type:"const"
  top:"Node_513"
  layer_param {
    idx:513
    out_0 {name:"Node_513:0",dtype:float32,shape:[64, 64, 3, 3]}
  }
}
layer {
  name:"Node_514"
  type:"const"
  top:"Node_514"
  layer_param {
    idx:514
    out_0 {name:"Node_514:0",dtype:float32,shape:[]}
  }
}
layer {
  name:"Node_515"
  type:"multiply"
  top:"Node_515"
  bottom:"Node_513"
  bottom:"Node_514"
  layer_param {
    idx:515
    in_0 {name:"Node_513:0",dtype:float32,shape:[64, 64, 3, 3]}
    in_1 {name:"Node_514:0",dtype:float32,shape:[]}
    out_0 {name:"Node_515:0",dtype:float32,shape:[64, 64, 3, 3]}
  }
}
layer {
  name:"Node_516"
  type:"round"
  top:"Node_516"
  bottom:"Node_515"
  layer_param {
    idx:516
    in_0 {name:"Node_515:0",dtype:float32,shape:[64, 64, 3, 3]}
    out_0 {name:"Node_516:0",dtype:float32,shape:[64, 64, 3, 3]}
  }
}
layer {
  name:"Node_517"
  type:"clip"
  top:"Node_517"
  bottom:"Node_516"
  layer_param {
    idx:517
    in_0 {name:"Node_516:0",dtype:float32,shape:[64, 64, 3, 3]}
    out_0 {name:"Node_517:0",dtype:float32,shape:[64, 64, 3, 3]}
    attrs {'a_min': -127.0, 'a_max': 127.0}
  }
}
layer {
  name:"Node_518"
  type:"cast"
  top:"Node_518"
  bottom:"Node_517"
  layer_param {
    idx:518
    in_0 {name:"Node_517:0",dtype:float32,shape:[64, 64, 3, 3]}
    out_0 {name:"Node_518:0",dtype:int8,shape:[64, 64, 3, 3]}
    attrs {'dtype': 'int8'}
  }
}
layer {
  name:"Node_519"
  type:"nn_conv2d"
  top:"Node_519"
  bottom:"Node_508"
  bottom:"Node_518"
  layer_param {
    idx:519
    in_0 {name:"Node_508:0",dtype:int8,shape:[1, 64, 56, 56]}
    in_1 {name:"Node_518:0",dtype:int8,shape:[64, 64, 3, 3]}
    out_0 {name:"Node_519:0",dtype:int32,shape:[1, 64, 56, 56]}
    attrs {'strides': [1, 1], 'padding': [1, 1, 1, 1], 'dilation': [1, 1], 'groups': 1, 'channels': 64, 'kernel_size': [3, 3], 'data_layout': 'NCHW', 'kernel_layout': 'OIHW', 'out_layout': '', 'out_dtype': 'int32'}
  }
}
layer {
  name:"Node_520"
  type:"cast"
  top:"Node_520"
  bottom:"Node_519"
  layer_param {
    idx:520
    in_0 {name:"Node_519:0",dtype:int32,shape:[1, 64, 56, 56]}
    out_0 {name:"Node_520:0",dtype:int64,shape:[1, 64, 56, 56]}
    attrs {'dtype': 'int64'}
  }
}
layer {
  name:"Node_521"
  type:"fixed_point_multiply"
  top:"Node_521"
  bottom:"Node_520"
  layer_param {
    idx:521
    in_0 {name:"Node_520:0",dtype:int64,shape:[1, 64, 56, 56]}
    out_0 {name:"Node_521:0",dtype:int64,shape:[1, 64, 56, 56]}
  }
}
layer {
  name:"Node_522"
  type:"clip"
  top:"Node_522"
  bottom:"Node_521"
  layer_param {
    idx:522
    in_0 {name:"Node_521:0",dtype:int64,shape:[1, 64, 56, 56]}
    out_0 {name:"Node_522:0",dtype:int64,shape:[1, 64, 56, 56]}
    attrs {'a_min': -127.0, 'a_max': 127.0}
  }
}
layer {
  name:"Node_523"
  type:"cast"
  top:"Node_523"
  bottom:"Node_522"
  layer_param {
    idx:523
    in_0 {name:"Node_522:0",dtype:int64,shape:[1, 64, 56, 56]}
    out_0 {name:"Node_523:0",dtype:int32,shape:[1, 64, 56, 56]}
    attrs {'dtype': 'int32'}
  }
}
layer {
  name:"Node_524"
  type:"cast"
  top:"Node_524"
  bottom:"Node_523"
  layer_param {
    idx:524
    in_0 {name:"Node_523:0",dtype:int32,shape:[1, 64, 56, 56]}
    out_0 {name:"Node_524:0",dtype:int8,shape:[1, 64, 56, 56]}
    attrs {'dtype': 'int8'}
  }
}
layer {
  name:"Node_525"
  type:"annotation_stop_fusion"
  top:"Node_525"
  bottom:"Node_524"
  layer_param {
    idx:525
    in_0 {name:"Node_524:0",dtype:int8,shape:[1, 64, 56, 56]}
    out_0 {name:"Node_525:0",dtype:int8,shape:[1, 64, 56, 56]}
  }
}
layer {
  name:"Node_526"
  type:"cast"
  top:"Node_526"
  bottom:"Node_525"
  layer_param {
    idx:526
    in_0 {name:"Node_525:0",dtype:int8,shape:[1, 64, 56, 56]}
    out_0 {name:"Node_526:0",dtype:int32,shape:[1, 64, 56, 56]}
    attrs {'dtype': 'int32'}
  }
}
layer {
  name:"Node_531"
  type:"const"
  top:"Node_531"
  layer_param {
    idx:531
    out_0 {name:"Node_531:0",dtype:float32,shape:[64, 1, 1]}
  }
}
layer {
  name:"Node_532"
  type:"const"
  top:"Node_532"
  layer_param {
    idx:532
    out_0 {name:"Node_532:0",dtype:float32,shape:[]}
  }
}
layer {
  name:"Node_533"
  type:"multiply"
  top:"Node_533"
  bottom:"Node_531"
  bottom:"Node_532"
  layer_param {
    idx:533
    in_0 {name:"Node_531:0",dtype:float32,shape:[64, 1, 1]}
    in_1 {name:"Node_532:0",dtype:float32,shape:[]}
    out_0 {name:"Node_533:0",dtype:float32,shape:[64, 1, 1]}
  }
}
layer {
  name:"Node_534"
  type:"round"
  top:"Node_534"
  bottom:"Node_533"
  layer_param {
    idx:534
    in_0 {name:"Node_533:0",dtype:float32,shape:[64, 1, 1]}
    out_0 {name:"Node_534:0",dtype:float32,shape:[64, 1, 1]}
  }
}
layer {
  name:"Node_535"
  type:"clip"
  top:"Node_535"
  bottom:"Node_534"
  layer_param {
    idx:535
    in_0 {name:"Node_534:0",dtype:float32,shape:[64, 1, 1]}
    out_0 {name:"Node_535:0",dtype:float32,shape:[64, 1, 1]}
    attrs {'a_min': -127.0, 'a_max': 127.0}
  }
}
layer {
  name:"Node_536"
  type:"cast"
  top:"Node_536"
  bottom:"Node_535"
  layer_param {
    idx:536
    in_0 {name:"Node_535:0",dtype:float32,shape:[64, 1, 1]}
    out_0 {name:"Node_536:0",dtype:int32,shape:[64, 1, 1]}
    attrs {'dtype': 'int32'}
  }
}
layer {
  name:"Node_537"
  type:"multiply"
  top:"Node_537"
  bottom:"Node_526"
  bottom:"Node_536"
  layer_param {
    idx:537
    in_0 {name:"Node_526:0",dtype:int32,shape:[1, 64, 56, 56]}
    in_1 {name:"Node_536:0",dtype:int32,shape:[64, 1, 1]}
    out_0 {name:"Node_537:0",dtype:int32,shape:[1, 64, 56, 56]}
  }
}
layer {
  name:"Node_545"
  type:"const"
  top:"Node_545"
  layer_param {
    idx:545
    out_0 {name:"Node_545:0",dtype:float32,shape:[64, 1, 1]}
  }
}
layer {
  name:"Node_546"
  type:"const"
  top:"Node_546"
  layer_param {
    idx:546
    out_0 {name:"Node_546:0",dtype:float32,shape:[]}
  }
}
layer {
  name:"Node_547"
  type:"multiply"
  top:"Node_547"
  bottom:"Node_545"
  bottom:"Node_546"
  layer_param {
    idx:547
    in_0 {name:"Node_545:0",dtype:float32,shape:[64, 1, 1]}
    in_1 {name:"Node_546:0",dtype:float32,shape:[]}
    out_0 {name:"Node_547:0",dtype:float32,shape:[64, 1, 1]}
  }
}
layer {
  name:"Node_548"
  type:"round"
  top:"Node_548"
  bottom:"Node_547"
  layer_param {
    idx:548
    in_0 {name:"Node_547:0",dtype:float32,shape:[64, 1, 1]}
    out_0 {name:"Node_548:0",dtype:float32,shape:[64, 1, 1]}
  }
}
layer {
  name:"Node_549"
  type:"clip"
  top:"Node_549"
  bottom:"Node_548"
  layer_param {
    idx:549
    in_0 {name:"Node_548:0",dtype:float32,shape:[64, 1, 1]}
    out_0 {name:"Node_549:0",dtype:float32,shape:[64, 1, 1]}
    attrs {'a_min': -127.0, 'a_max': 127.0}
  }
}
layer {
  name:"Node_550"
  type:"cast"
  top:"Node_550"
  bottom:"Node_549"
  layer_param {
    idx:550
    in_0 {name:"Node_549:0",dtype:float32,shape:[64, 1, 1]}
    out_0 {name:"Node_550:0",dtype:int32,shape:[64, 1, 1]}
    attrs {'dtype': 'int32'}
  }
}
layer {
  name:"Node_551"
  type:"fixed_point_multiply"
  top:"Node_551"
  bottom:"Node_550"
  layer_param {
    idx:551
    in_0 {name:"Node_550:0",dtype:int32,shape:[64, 1, 1]}
    out_0 {name:"Node_551:0",dtype:int32,shape:[64, 1, 1]}
  }
}
layer {
  name:"Node_552"
  type:"cast"
  top:"Node_552"
  bottom:"Node_551"
  layer_param {
    idx:552
    in_0 {name:"Node_551:0",dtype:int32,shape:[64, 1, 1]}
    out_0 {name:"Node_552:0",dtype:int32,shape:[64, 1, 1]}
    attrs {'dtype': 'int32'}
  }
}
layer {
  name:"Node_553"
  type:"annotation_stop_fusion"
  top:"Node_553"
  bottom:"Node_552"
  layer_param {
    idx:553
    in_0 {name:"Node_552:0",dtype:int32,shape:[64, 1, 1]}
    out_0 {name:"Node_553:0",dtype:int32,shape:[64, 1, 1]}
  }
}
layer {
  name:"Node_554"
  type:"add"
  top:"Node_554"
  bottom:"Node_537"
  bottom:"Node_553"
  layer_param {
    idx:554
    in_0 {name:"Node_537:0",dtype:int32,shape:[1, 64, 56, 56]}
    in_1 {name:"Node_553:0",dtype:int32,shape:[64, 1, 1]}
    out_0 {name:"Node_554:0",dtype:int32,shape:[1, 64, 56, 56]}
  }
}
layer {
  name:"Node_555"
  type:"nn_relu"
  top:"Node_555"
  bottom:"Node_554"
  layer_param {
    idx:555
    in_0 {name:"Node_554:0",dtype:int32,shape:[1, 64, 56, 56]}
    out_0 {name:"Node_555:0",dtype:int32,shape:[1, 64, 56, 56]}
  }
}
layer {
  name:"Node_556"
  type:"cast"
  top:"Node_556"
  bottom:"Node_555"
  layer_param {
    idx:556
    in_0 {name:"Node_555:0",dtype:int32,shape:[1, 64, 56, 56]}
    out_0 {name:"Node_556:0",dtype:int64,shape:[1, 64, 56, 56]}
    attrs {'dtype': 'int64'}
  }
}
layer {
  name:"Node_557"
  type:"fixed_point_multiply"
  top:"Node_557"
  bottom:"Node_556"
  layer_param {
    idx:557
    in_0 {name:"Node_556:0",dtype:int64,shape:[1, 64, 56, 56]}
    out_0 {name:"Node_557:0",dtype:int64,shape:[1, 64, 56, 56]}
  }
}
layer {
  name:"Node_558"
  type:"clip"
  top:"Node_558"
  bottom:"Node_557"
  layer_param {
    idx:558
    in_0 {name:"Node_557:0",dtype:int64,shape:[1, 64, 56, 56]}
    out_0 {name:"Node_558:0",dtype:int64,shape:[1, 64, 56, 56]}
    attrs {'a_min': -127.0, 'a_max': 127.0}
  }
}
layer {
  name:"Node_559"
  type:"cast"
  top:"Node_559"
  bottom:"Node_558"
  layer_param {
    idx:559
    in_0 {name:"Node_558:0",dtype:int64,shape:[1, 64, 56, 56]}
    out_0 {name:"Node_559:0",dtype:int32,shape:[1, 64, 56, 56]}
    attrs {'dtype': 'int32'}
  }
}
layer {
  name:"Node_560"
  type:"cast"
  top:"Node_560"
  bottom:"Node_559"
  layer_param {
    idx:560
    in_0 {name:"Node_559:0",dtype:int32,shape:[1, 64, 56, 56]}
    out_0 {name:"Node_560:0",dtype:int8,shape:[1, 64, 56, 56]}
    attrs {'dtype': 'int8'}
  }
}
layer {
  name:"Node_561"
  type:"annotation_stop_fusion"
  top:"Node_561"
  bottom:"Node_560"
  layer_param {
    idx:561
    in_0 {name:"Node_560:0",dtype:int8,shape:[1, 64, 56, 56]}
    out_0 {name:"Node_561:0",dtype:int8,shape:[1, 64, 56, 56]}
  }
}
layer {
  name:"Node_566"
  type:"const"
  top:"Node_566"
  layer_param {
    idx:566
    out_0 {name:"Node_566:0",dtype:float32,shape:[64, 64, 3, 3]}
  }
}
layer {
  name:"Node_567"
  type:"const"
  top:"Node_567"
  layer_param {
    idx:567
    out_0 {name:"Node_567:0",dtype:float32,shape:[]}
  }
}
layer {
  name:"Node_568"
  type:"multiply"
  top:"Node_568"
  bottom:"Node_566"
  bottom:"Node_567"
  layer_param {
    idx:568
    in_0 {name:"Node_566:0",dtype:float32,shape:[64, 64, 3, 3]}
    in_1 {name:"Node_567:0",dtype:float32,shape:[]}
    out_0 {name:"Node_568:0",dtype:float32,shape:[64, 64, 3, 3]}
  }
}
layer {
  name:"Node_569"
  type:"round"
  top:"Node_569"
  bottom:"Node_568"
  layer_param {
    idx:569
    in_0 {name:"Node_568:0",dtype:float32,shape:[64, 64, 3, 3]}
    out_0 {name:"Node_569:0",dtype:float32,shape:[64, 64, 3, 3]}
  }
}
layer {
  name:"Node_570"
  type:"clip"
  top:"Node_570"
  bottom:"Node_569"
  layer_param {
    idx:570
    in_0 {name:"Node_569:0",dtype:float32,shape:[64, 64, 3, 3]}
    out_0 {name:"Node_570:0",dtype:float32,shape:[64, 64, 3, 3]}
    attrs {'a_min': -127.0, 'a_max': 127.0}
  }
}
layer {
  name:"Node_571"
  type:"cast"
  top:"Node_571"
  bottom:"Node_570"
  layer_param {
    idx:571
    in_0 {name:"Node_570:0",dtype:float32,shape:[64, 64, 3, 3]}
    out_0 {name:"Node_571:0",dtype:int8,shape:[64, 64, 3, 3]}
    attrs {'dtype': 'int8'}
  }
}
layer {
  name:"Node_572"
  type:"nn_conv2d"
  top:"Node_572"
  bottom:"Node_561"
  bottom:"Node_571"
  layer_param {
    idx:572
    in_0 {name:"Node_561:0",dtype:int8,shape:[1, 64, 56, 56]}
    in_1 {name:"Node_571:0",dtype:int8,shape:[64, 64, 3, 3]}
    out_0 {name:"Node_572:0",dtype:int32,shape:[1, 64, 56, 56]}
    attrs {'strides': [1, 1], 'padding': [1, 1, 1, 1], 'dilation': [1, 1], 'groups': 1, 'channels': 64, 'kernel_size': [3, 3], 'data_layout': 'NCHW', 'kernel_layout': 'OIHW', 'out_layout': '', 'out_dtype': 'int32'}
  }
}
layer {
  name:"Node_573"
  type:"cast"
  top:"Node_573"
  bottom:"Node_572"
  layer_param {
    idx:573
    in_0 {name:"Node_572:0",dtype:int32,shape:[1, 64, 56, 56]}
    out_0 {name:"Node_573:0",dtype:int64,shape:[1, 64, 56, 56]}
    attrs {'dtype': 'int64'}
  }
}
layer {
  name:"Node_574"
  type:"fixed_point_multiply"
  top:"Node_574"
  bottom:"Node_573"
  layer_param {
    idx:574
    in_0 {name:"Node_573:0",dtype:int64,shape:[1, 64, 56, 56]}
    out_0 {name:"Node_574:0",dtype:int64,shape:[1, 64, 56, 56]}
  }
}
layer {
  name:"Node_575"
  type:"clip"
  top:"Node_575"
  bottom:"Node_574"
  layer_param {
    idx:575
    in_0 {name:"Node_574:0",dtype:int64,shape:[1, 64, 56, 56]}
    out_0 {name:"Node_575:0",dtype:int64,shape:[1, 64, 56, 56]}
    attrs {'a_min': -127.0, 'a_max': 127.0}
  }
}
layer {
  name:"Node_576"
  type:"cast"
  top:"Node_576"
  bottom:"Node_575"
  layer_param {
    idx:576
    in_0 {name:"Node_575:0",dtype:int64,shape:[1, 64, 56, 56]}
    out_0 {name:"Node_576:0",dtype:int32,shape:[1, 64, 56, 56]}
    attrs {'dtype': 'int32'}
  }
}
layer {
  name:"Node_577"
  type:"cast"
  top:"Node_577"
  bottom:"Node_576"
  layer_param {
    idx:577
    in_0 {name:"Node_576:0",dtype:int32,shape:[1, 64, 56, 56]}
    out_0 {name:"Node_577:0",dtype:int8,shape:[1, 64, 56, 56]}
    attrs {'dtype': 'int8'}
  }
}
layer {
  name:"Node_578"
  type:"annotation_stop_fusion"
  top:"Node_578"
  bottom:"Node_577"
  layer_param {
    idx:578
    in_0 {name:"Node_577:0",dtype:int8,shape:[1, 64, 56, 56]}
    out_0 {name:"Node_578:0",dtype:int8,shape:[1, 64, 56, 56]}
  }
}
layer {
  name:"Node_579"
  type:"cast"
  top:"Node_579"
  bottom:"Node_578"
  layer_param {
    idx:579
    in_0 {name:"Node_578:0",dtype:int8,shape:[1, 64, 56, 56]}
    out_0 {name:"Node_579:0",dtype:int32,shape:[1, 64, 56, 56]}
    attrs {'dtype': 'int32'}
  }
}
layer {
  name:"Node_584"
  type:"const"
  top:"Node_584"
  layer_param {
    idx:584
    out_0 {name:"Node_584:0",dtype:float32,shape:[64, 1, 1]}
  }
}
layer {
  name:"Node_585"
  type:"const"
  top:"Node_585"
  layer_param {
    idx:585
    out_0 {name:"Node_585:0",dtype:float32,shape:[]}
  }
}
layer {
  name:"Node_586"
  type:"multiply"
  top:"Node_586"
  bottom:"Node_584"
  bottom:"Node_585"
  layer_param {
    idx:586
    in_0 {name:"Node_584:0",dtype:float32,shape:[64, 1, 1]}
    in_1 {name:"Node_585:0",dtype:float32,shape:[]}
    out_0 {name:"Node_586:0",dtype:float32,shape:[64, 1, 1]}
  }
}
layer {
  name:"Node_587"
  type:"round"
  top:"Node_587"
  bottom:"Node_586"
  layer_param {
    idx:587
    in_0 {name:"Node_586:0",dtype:float32,shape:[64, 1, 1]}
    out_0 {name:"Node_587:0",dtype:float32,shape:[64, 1, 1]}
  }
}
layer {
  name:"Node_588"
  type:"clip"
  top:"Node_588"
  bottom:"Node_587"
  layer_param {
    idx:588
    in_0 {name:"Node_587:0",dtype:float32,shape:[64, 1, 1]}
    out_0 {name:"Node_588:0",dtype:float32,shape:[64, 1, 1]}
    attrs {'a_min': -127.0, 'a_max': 127.0}
  }
}
layer {
  name:"Node_589"
  type:"cast"
  top:"Node_589"
  bottom:"Node_588"
  layer_param {
    idx:589
    in_0 {name:"Node_588:0",dtype:float32,shape:[64, 1, 1]}
    out_0 {name:"Node_589:0",dtype:int32,shape:[64, 1, 1]}
    attrs {'dtype': 'int32'}
  }
}
layer {
  name:"Node_590"
  type:"multiply"
  top:"Node_590"
  bottom:"Node_579"
  bottom:"Node_589"
  layer_param {
    idx:590
    in_0 {name:"Node_579:0",dtype:int32,shape:[1, 64, 56, 56]}
    in_1 {name:"Node_589:0",dtype:int32,shape:[64, 1, 1]}
    out_0 {name:"Node_590:0",dtype:int32,shape:[1, 64, 56, 56]}
  }
}
layer {
  name:"Node_598"
  type:"const"
  top:"Node_598"
  layer_param {
    idx:598
    out_0 {name:"Node_598:0",dtype:float32,shape:[64, 1, 1]}
  }
}
layer {
  name:"Node_599"
  type:"const"
  top:"Node_599"
  layer_param {
    idx:599
    out_0 {name:"Node_599:0",dtype:float32,shape:[]}
  }
}
layer {
  name:"Node_600"
  type:"multiply"
  top:"Node_600"
  bottom:"Node_598"
  bottom:"Node_599"
  layer_param {
    idx:600
    in_0 {name:"Node_598:0",dtype:float32,shape:[64, 1, 1]}
    in_1 {name:"Node_599:0",dtype:float32,shape:[]}
    out_0 {name:"Node_600:0",dtype:float32,shape:[64, 1, 1]}
  }
}
layer {
  name:"Node_601"
  type:"round"
  top:"Node_601"
  bottom:"Node_600"
  layer_param {
    idx:601
    in_0 {name:"Node_600:0",dtype:float32,shape:[64, 1, 1]}
    out_0 {name:"Node_601:0",dtype:float32,shape:[64, 1, 1]}
  }
}
layer {
  name:"Node_602"
  type:"clip"
  top:"Node_602"
  bottom:"Node_601"
  layer_param {
    idx:602
    in_0 {name:"Node_601:0",dtype:float32,shape:[64, 1, 1]}
    out_0 {name:"Node_602:0",dtype:float32,shape:[64, 1, 1]}
    attrs {'a_min': -127.0, 'a_max': 127.0}
  }
}
layer {
  name:"Node_603"
  type:"cast"
  top:"Node_603"
  bottom:"Node_602"
  layer_param {
    idx:603
    in_0 {name:"Node_602:0",dtype:float32,shape:[64, 1, 1]}
    out_0 {name:"Node_603:0",dtype:int32,shape:[64, 1, 1]}
    attrs {'dtype': 'int32'}
  }
}
layer {
  name:"Node_604"
  type:"fixed_point_multiply"
  top:"Node_604"
  bottom:"Node_603"
  layer_param {
    idx:604
    in_0 {name:"Node_603:0",dtype:int32,shape:[64, 1, 1]}
    out_0 {name:"Node_604:0",dtype:int32,shape:[64, 1, 1]}
  }
}
layer {
  name:"Node_605"
  type:"cast"
  top:"Node_605"
  bottom:"Node_604"
  layer_param {
    idx:605
    in_0 {name:"Node_604:0",dtype:int32,shape:[64, 1, 1]}
    out_0 {name:"Node_605:0",dtype:int32,shape:[64, 1, 1]}
    attrs {'dtype': 'int32'}
  }
}
layer {
  name:"Node_606"
  type:"annotation_stop_fusion"
  top:"Node_606"
  bottom:"Node_605"
  layer_param {
    idx:606
    in_0 {name:"Node_605:0",dtype:int32,shape:[64, 1, 1]}
    out_0 {name:"Node_606:0",dtype:int32,shape:[64, 1, 1]}
  }
}
layer {
  name:"Node_607"
  type:"add"
  top:"Node_607"
  bottom:"Node_590"
  bottom:"Node_606"
  layer_param {
    idx:607
    in_0 {name:"Node_590:0",dtype:int32,shape:[1, 64, 56, 56]}
    in_1 {name:"Node_606:0",dtype:int32,shape:[64, 1, 1]}
    out_0 {name:"Node_607:0",dtype:int32,shape:[1, 64, 56, 56]}
  }
}
layer {
  name:"Node_608"
  type:"cast"
  top:"Node_608"
  bottom:"Node_607"
  layer_param {
    idx:608
    in_0 {name:"Node_607:0",dtype:int32,shape:[1, 64, 56, 56]}
    out_0 {name:"Node_608:0",dtype:int64,shape:[1, 64, 56, 56]}
    attrs {'dtype': 'int64'}
  }
}
layer {
  name:"Node_609"
  type:"fixed_point_multiply"
  top:"Node_609"
  bottom:"Node_608"
  layer_param {
    idx:609
    in_0 {name:"Node_608:0",dtype:int64,shape:[1, 64, 56, 56]}
    out_0 {name:"Node_609:0",dtype:int64,shape:[1, 64, 56, 56]}
  }
}
layer {
  name:"Node_610"
  type:"clip"
  top:"Node_610"
  bottom:"Node_609"
  layer_param {
    idx:610
    in_0 {name:"Node_609:0",dtype:int64,shape:[1, 64, 56, 56]}
    out_0 {name:"Node_610:0",dtype:int64,shape:[1, 64, 56, 56]}
    attrs {'a_min': -127.0, 'a_max': 127.0}
  }
}
layer {
  name:"Node_611"
  type:"cast"
  top:"Node_611"
  bottom:"Node_610"
  layer_param {
    idx:611
    in_0 {name:"Node_610:0",dtype:int64,shape:[1, 64, 56, 56]}
    out_0 {name:"Node_611:0",dtype:int32,shape:[1, 64, 56, 56]}
    attrs {'dtype': 'int32'}
  }
}
layer {
  name:"Node_612"
  type:"cast"
  top:"Node_612"
  bottom:"Node_611"
  layer_param {
    idx:612
    in_0 {name:"Node_611:0",dtype:int32,shape:[1, 64, 56, 56]}
    out_0 {name:"Node_612:0",dtype:int8,shape:[1, 64, 56, 56]}
    attrs {'dtype': 'int8'}
  }
}
layer {
  name:"Node_613"
  type:"annotation_stop_fusion"
  top:"Node_613"
  bottom:"Node_612"
  layer_param {
    idx:613
    in_0 {name:"Node_612:0",dtype:int8,shape:[1, 64, 56, 56]}
    out_0 {name:"Node_613:0",dtype:int8,shape:[1, 64, 56, 56]}
  }
}
layer {
  name:"Node_614"
  type:"cast"
  top:"Node_614"
  bottom:"Node_613"
  layer_param {
    idx:614
    in_0 {name:"Node_613:0",dtype:int8,shape:[1, 64, 56, 56]}
    out_0 {name:"Node_614:0",dtype:int32,shape:[1, 64, 56, 56]}
    attrs {'dtype': 'int32'}
  }
}
layer {
  name:"Node_621"
  type:"cast"
  top:"Node_621"
  bottom:"Node_506"
  layer_param {
    idx:621
    in_0 {name:"Node_506:0",dtype:int32,shape:[1, 64, 56, 56]}
    out_0 {name:"Node_621:0",dtype:int8,shape:[1, 64, 56, 56]}
    attrs {'dtype': 'int8'}
  }
}
layer {
  name:"Node_622"
  type:"annotation_stop_fusion"
  top:"Node_622"
  bottom:"Node_621"
  layer_param {
    idx:622
    in_0 {name:"Node_621:0",dtype:int8,shape:[1, 64, 56, 56]}
    out_0 {name:"Node_622:0",dtype:int8,shape:[1, 64, 56, 56]}
  }
}
layer {
  name:"Node_623"
  type:"cast"
  top:"Node_623"
  bottom:"Node_622"
  layer_param {
    idx:623
    in_0 {name:"Node_622:0",dtype:int8,shape:[1, 64, 56, 56]}
    out_0 {name:"Node_623:0",dtype:int32,shape:[1, 64, 56, 56]}
    attrs {'dtype': 'int32'}
  }
}
layer {
  name:"Node_624"
  type:"fixed_point_multiply"
  top:"Node_624"
  bottom:"Node_623"
  layer_param {
    idx:624
    in_0 {name:"Node_623:0",dtype:int32,shape:[1, 64, 56, 56]}
    out_0 {name:"Node_624:0",dtype:int32,shape:[1, 64, 56, 56]}
  }
}
layer {
  name:"Node_625"
  type:"cast"
  top:"Node_625"
  bottom:"Node_624"
  layer_param {
    idx:625
    in_0 {name:"Node_624:0",dtype:int32,shape:[1, 64, 56, 56]}
    out_0 {name:"Node_625:0",dtype:int32,shape:[1, 64, 56, 56]}
    attrs {'dtype': 'int32'}
  }
}
layer {
  name:"Node_626"
  type:"add"
  top:"Node_626"
  bottom:"Node_614"
  bottom:"Node_625"
  layer_param {
    idx:626
    in_0 {name:"Node_614:0",dtype:int32,shape:[1, 64, 56, 56]}
    in_1 {name:"Node_625:0",dtype:int32,shape:[1, 64, 56, 56]}
    out_0 {name:"Node_626:0",dtype:int32,shape:[1, 64, 56, 56]}
  }
}
layer {
  name:"Node_627"
  type:"nn_relu"
  top:"Node_627"
  bottom:"Node_626"
  layer_param {
    idx:627
    in_0 {name:"Node_626:0",dtype:int32,shape:[1, 64, 56, 56]}
    out_0 {name:"Node_627:0",dtype:int32,shape:[1, 64, 56, 56]}
  }
}
layer {
  name:"Node_628"
  type:"cast"
  top:"Node_628"
  bottom:"Node_627"
  layer_param {
    idx:628
    in_0 {name:"Node_627:0",dtype:int32,shape:[1, 64, 56, 56]}
    out_0 {name:"Node_628:0",dtype:int64,shape:[1, 64, 56, 56]}
    attrs {'dtype': 'int64'}
  }
}
layer {
  name:"Node_629"
  type:"fixed_point_multiply"
  top:"Node_629"
  bottom:"Node_628"
  layer_param {
    idx:629
    in_0 {name:"Node_628:0",dtype:int64,shape:[1, 64, 56, 56]}
    out_0 {name:"Node_629:0",dtype:int64,shape:[1, 64, 56, 56]}
  }
}
layer {
  name:"Node_630"
  type:"clip"
  top:"Node_630"
  bottom:"Node_629"
  layer_param {
    idx:630
    in_0 {name:"Node_629:0",dtype:int64,shape:[1, 64, 56, 56]}
    out_0 {name:"Node_630:0",dtype:int64,shape:[1, 64, 56, 56]}
    attrs {'a_min': -127.0, 'a_max': 127.0}
  }
}
layer {
  name:"Node_631"
  type:"cast"
  top:"Node_631"
  bottom:"Node_630"
  layer_param {
    idx:631
    in_0 {name:"Node_630:0",dtype:int64,shape:[1, 64, 56, 56]}
    out_0 {name:"Node_631:0",dtype:int32,shape:[1, 64, 56, 56]}
    attrs {'dtype': 'int32'}
  }
}
layer {
  name:"Node_632"
  type:"cast"
  top:"Node_632"
  bottom:"Node_631"
  layer_param {
    idx:632
    in_0 {name:"Node_631:0",dtype:int32,shape:[1, 64, 56, 56]}
    out_0 {name:"Node_632:0",dtype:int8,shape:[1, 64, 56, 56]}
    attrs {'dtype': 'int8'}
  }
}
layer {
  name:"Node_633"
  type:"annotation_stop_fusion"
  top:"Node_633"
  bottom:"Node_632"
  layer_param {
    idx:633
    in_0 {name:"Node_632:0",dtype:int8,shape:[1, 64, 56, 56]}
    out_0 {name:"Node_633:0",dtype:int8,shape:[1, 64, 56, 56]}
  }
}
layer {
  name:"Node_638"
  type:"const"
  top:"Node_638"
  layer_param {
    idx:638
    out_0 {name:"Node_638:0",dtype:float32,shape:[128, 64, 3, 3]}
  }
}
layer {
  name:"Node_639"
  type:"const"
  top:"Node_639"
  layer_param {
    idx:639
    out_0 {name:"Node_639:0",dtype:float32,shape:[]}
  }
}
layer {
  name:"Node_640"
  type:"multiply"
  top:"Node_640"
  bottom:"Node_638"
  bottom:"Node_639"
  layer_param {
    idx:640
    in_0 {name:"Node_638:0",dtype:float32,shape:[128, 64, 3, 3]}
    in_1 {name:"Node_639:0",dtype:float32,shape:[]}
    out_0 {name:"Node_640:0",dtype:float32,shape:[128, 64, 3, 3]}
  }
}
layer {
  name:"Node_641"
  type:"round"
  top:"Node_641"
  bottom:"Node_640"
  layer_param {
    idx:641
    in_0 {name:"Node_640:0",dtype:float32,shape:[128, 64, 3, 3]}
    out_0 {name:"Node_641:0",dtype:float32,shape:[128, 64, 3, 3]}
  }
}
layer {
  name:"Node_642"
  type:"clip"
  top:"Node_642"
  bottom:"Node_641"
  layer_param {
    idx:642
    in_0 {name:"Node_641:0",dtype:float32,shape:[128, 64, 3, 3]}
    out_0 {name:"Node_642:0",dtype:float32,shape:[128, 64, 3, 3]}
    attrs {'a_min': -127.0, 'a_max': 127.0}
  }
}
layer {
  name:"Node_643"
  type:"cast"
  top:"Node_643"
  bottom:"Node_642"
  layer_param {
    idx:643
    in_0 {name:"Node_642:0",dtype:float32,shape:[128, 64, 3, 3]}
    out_0 {name:"Node_643:0",dtype:int8,shape:[128, 64, 3, 3]}
    attrs {'dtype': 'int8'}
  }
}
layer {
  name:"Node_644"
  type:"nn_conv2d"
  top:"Node_644"
  bottom:"Node_633"
  bottom:"Node_643"
  layer_param {
    idx:644
    in_0 {name:"Node_633:0",dtype:int8,shape:[1, 64, 56, 56]}
    in_1 {name:"Node_643:0",dtype:int8,shape:[128, 64, 3, 3]}
    out_0 {name:"Node_644:0",dtype:int32,shape:[1, 128, 28, 28]}
    attrs {'strides': [2, 2], 'padding': [1, 1, 1, 1], 'dilation': [1, 1], 'groups': 1, 'channels': 128, 'kernel_size': [3, 3], 'data_layout': 'NCHW', 'kernel_layout': 'OIHW', 'out_layout': '', 'out_dtype': 'int32'}
  }
}
layer {
  name:"Node_645"
  type:"cast"
  top:"Node_645"
  bottom:"Node_644"
  layer_param {
    idx:645
    in_0 {name:"Node_644:0",dtype:int32,shape:[1, 128, 28, 28]}
    out_0 {name:"Node_645:0",dtype:int64,shape:[1, 128, 28, 28]}
    attrs {'dtype': 'int64'}
  }
}
layer {
  name:"Node_646"
  type:"fixed_point_multiply"
  top:"Node_646"
  bottom:"Node_645"
  layer_param {
    idx:646
    in_0 {name:"Node_645:0",dtype:int64,shape:[1, 128, 28, 28]}
    out_0 {name:"Node_646:0",dtype:int64,shape:[1, 128, 28, 28]}
  }
}
layer {
  name:"Node_647"
  type:"clip"
  top:"Node_647"
  bottom:"Node_646"
  layer_param {
    idx:647
    in_0 {name:"Node_646:0",dtype:int64,shape:[1, 128, 28, 28]}
    out_0 {name:"Node_647:0",dtype:int64,shape:[1, 128, 28, 28]}
    attrs {'a_min': -127.0, 'a_max': 127.0}
  }
}
layer {
  name:"Node_648"
  type:"cast"
  top:"Node_648"
  bottom:"Node_647"
  layer_param {
    idx:648
    in_0 {name:"Node_647:0",dtype:int64,shape:[1, 128, 28, 28]}
    out_0 {name:"Node_648:0",dtype:int32,shape:[1, 128, 28, 28]}
    attrs {'dtype': 'int32'}
  }
}
layer {
  name:"Node_649"
  type:"cast"
  top:"Node_649"
  bottom:"Node_648"
  layer_param {
    idx:649
    in_0 {name:"Node_648:0",dtype:int32,shape:[1, 128, 28, 28]}
    out_0 {name:"Node_649:0",dtype:int8,shape:[1, 128, 28, 28]}
    attrs {'dtype': 'int8'}
  }
}
layer {
  name:"Node_650"
  type:"annotation_stop_fusion"
  top:"Node_650"
  bottom:"Node_649"
  layer_param {
    idx:650
    in_0 {name:"Node_649:0",dtype:int8,shape:[1, 128, 28, 28]}
    out_0 {name:"Node_650:0",dtype:int8,shape:[1, 128, 28, 28]}
  }
}
layer {
  name:"Node_651"
  type:"cast"
  top:"Node_651"
  bottom:"Node_650"
  layer_param {
    idx:651
    in_0 {name:"Node_650:0",dtype:int8,shape:[1, 128, 28, 28]}
    out_0 {name:"Node_651:0",dtype:int32,shape:[1, 128, 28, 28]}
    attrs {'dtype': 'int32'}
  }
}
layer {
  name:"Node_656"
  type:"const"
  top:"Node_656"
  layer_param {
    idx:656
    out_0 {name:"Node_656:0",dtype:float32,shape:[128, 1, 1]}
  }
}
layer {
  name:"Node_657"
  type:"const"
  top:"Node_657"
  layer_param {
    idx:657
    out_0 {name:"Node_657:0",dtype:float32,shape:[]}
  }
}
layer {
  name:"Node_658"
  type:"multiply"
  top:"Node_658"
  bottom:"Node_656"
  bottom:"Node_657"
  layer_param {
    idx:658
    in_0 {name:"Node_656:0",dtype:float32,shape:[128, 1, 1]}
    in_1 {name:"Node_657:0",dtype:float32,shape:[]}
    out_0 {name:"Node_658:0",dtype:float32,shape:[128, 1, 1]}
  }
}
layer {
  name:"Node_659"
  type:"round"
  top:"Node_659"
  bottom:"Node_658"
  layer_param {
    idx:659
    in_0 {name:"Node_658:0",dtype:float32,shape:[128, 1, 1]}
    out_0 {name:"Node_659:0",dtype:float32,shape:[128, 1, 1]}
  }
}
layer {
  name:"Node_660"
  type:"clip"
  top:"Node_660"
  bottom:"Node_659"
  layer_param {
    idx:660
    in_0 {name:"Node_659:0",dtype:float32,shape:[128, 1, 1]}
    out_0 {name:"Node_660:0",dtype:float32,shape:[128, 1, 1]}
    attrs {'a_min': -127.0, 'a_max': 127.0}
  }
}
layer {
  name:"Node_661"
  type:"cast"
  top:"Node_661"
  bottom:"Node_660"
  layer_param {
    idx:661
    in_0 {name:"Node_660:0",dtype:float32,shape:[128, 1, 1]}
    out_0 {name:"Node_661:0",dtype:int32,shape:[128, 1, 1]}
    attrs {'dtype': 'int32'}
  }
}
layer {
  name:"Node_662"
  type:"multiply"
  top:"Node_662"
  bottom:"Node_651"
  bottom:"Node_661"
  layer_param {
    idx:662
    in_0 {name:"Node_651:0",dtype:int32,shape:[1, 128, 28, 28]}
    in_1 {name:"Node_661:0",dtype:int32,shape:[128, 1, 1]}
    out_0 {name:"Node_662:0",dtype:int32,shape:[1, 128, 28, 28]}
  }
}
layer {
  name:"Node_670"
  type:"const"
  top:"Node_670"
  layer_param {
    idx:670
    out_0 {name:"Node_670:0",dtype:float32,shape:[128, 1, 1]}
  }
}
layer {
  name:"Node_671"
  type:"const"
  top:"Node_671"
  layer_param {
    idx:671
    out_0 {name:"Node_671:0",dtype:float32,shape:[]}
  }
}
layer {
  name:"Node_672"
  type:"multiply"
  top:"Node_672"
  bottom:"Node_670"
  bottom:"Node_671"
  layer_param {
    idx:672
    in_0 {name:"Node_670:0",dtype:float32,shape:[128, 1, 1]}
    in_1 {name:"Node_671:0",dtype:float32,shape:[]}
    out_0 {name:"Node_672:0",dtype:float32,shape:[128, 1, 1]}
  }
}
layer {
  name:"Node_673"
  type:"round"
  top:"Node_673"
  bottom:"Node_672"
  layer_param {
    idx:673
    in_0 {name:"Node_672:0",dtype:float32,shape:[128, 1, 1]}
    out_0 {name:"Node_673:0",dtype:float32,shape:[128, 1, 1]}
  }
}
layer {
  name:"Node_674"
  type:"clip"
  top:"Node_674"
  bottom:"Node_673"
  layer_param {
    idx:674
    in_0 {name:"Node_673:0",dtype:float32,shape:[128, 1, 1]}
    out_0 {name:"Node_674:0",dtype:float32,shape:[128, 1, 1]}
    attrs {'a_min': -127.0, 'a_max': 127.0}
  }
}
layer {
  name:"Node_675"
  type:"cast"
  top:"Node_675"
  bottom:"Node_674"
  layer_param {
    idx:675
    in_0 {name:"Node_674:0",dtype:float32,shape:[128, 1, 1]}
    out_0 {name:"Node_675:0",dtype:int32,shape:[128, 1, 1]}
    attrs {'dtype': 'int32'}
  }
}
layer {
  name:"Node_676"
  type:"fixed_point_multiply"
  top:"Node_676"
  bottom:"Node_675"
  layer_param {
    idx:676
    in_0 {name:"Node_675:0",dtype:int32,shape:[128, 1, 1]}
    out_0 {name:"Node_676:0",dtype:int32,shape:[128, 1, 1]}
  }
}
layer {
  name:"Node_677"
  type:"cast"
  top:"Node_677"
  bottom:"Node_676"
  layer_param {
    idx:677
    in_0 {name:"Node_676:0",dtype:int32,shape:[128, 1, 1]}
    out_0 {name:"Node_677:0",dtype:int32,shape:[128, 1, 1]}
    attrs {'dtype': 'int32'}
  }
}
layer {
  name:"Node_678"
  type:"annotation_stop_fusion"
  top:"Node_678"
  bottom:"Node_677"
  layer_param {
    idx:678
    in_0 {name:"Node_677:0",dtype:int32,shape:[128, 1, 1]}
    out_0 {name:"Node_678:0",dtype:int32,shape:[128, 1, 1]}
  }
}
layer {
  name:"Node_679"
  type:"add"
  top:"Node_679"
  bottom:"Node_662"
  bottom:"Node_678"
  layer_param {
    idx:679
    in_0 {name:"Node_662:0",dtype:int32,shape:[1, 128, 28, 28]}
    in_1 {name:"Node_678:0",dtype:int32,shape:[128, 1, 1]}
    out_0 {name:"Node_679:0",dtype:int32,shape:[1, 128, 28, 28]}
  }
}
layer {
  name:"Node_680"
  type:"nn_relu"
  top:"Node_680"
  bottom:"Node_679"
  layer_param {
    idx:680
    in_0 {name:"Node_679:0",dtype:int32,shape:[1, 128, 28, 28]}
    out_0 {name:"Node_680:0",dtype:int32,shape:[1, 128, 28, 28]}
  }
}
layer {
  name:"Node_681"
  type:"cast"
  top:"Node_681"
  bottom:"Node_680"
  layer_param {
    idx:681
    in_0 {name:"Node_680:0",dtype:int32,shape:[1, 128, 28, 28]}
    out_0 {name:"Node_681:0",dtype:int64,shape:[1, 128, 28, 28]}
    attrs {'dtype': 'int64'}
  }
}
layer {
  name:"Node_682"
  type:"fixed_point_multiply"
  top:"Node_682"
  bottom:"Node_681"
  layer_param {
    idx:682
    in_0 {name:"Node_681:0",dtype:int64,shape:[1, 128, 28, 28]}
    out_0 {name:"Node_682:0",dtype:int64,shape:[1, 128, 28, 28]}
  }
}
layer {
  name:"Node_683"
  type:"clip"
  top:"Node_683"
  bottom:"Node_682"
  layer_param {
    idx:683
    in_0 {name:"Node_682:0",dtype:int64,shape:[1, 128, 28, 28]}
    out_0 {name:"Node_683:0",dtype:int64,shape:[1, 128, 28, 28]}
    attrs {'a_min': -127.0, 'a_max': 127.0}
  }
}
layer {
  name:"Node_684"
  type:"cast"
  top:"Node_684"
  bottom:"Node_683"
  layer_param {
    idx:684
    in_0 {name:"Node_683:0",dtype:int64,shape:[1, 128, 28, 28]}
    out_0 {name:"Node_684:0",dtype:int32,shape:[1, 128, 28, 28]}
    attrs {'dtype': 'int32'}
  }
}
layer {
  name:"Node_685"
  type:"cast"
  top:"Node_685"
  bottom:"Node_684"
  layer_param {
    idx:685
    in_0 {name:"Node_684:0",dtype:int32,shape:[1, 128, 28, 28]}
    out_0 {name:"Node_685:0",dtype:int8,shape:[1, 128, 28, 28]}
    attrs {'dtype': 'int8'}
  }
}
layer {
  name:"Node_686"
  type:"annotation_stop_fusion"
  top:"Node_686"
  bottom:"Node_685"
  layer_param {
    idx:686
    in_0 {name:"Node_685:0",dtype:int8,shape:[1, 128, 28, 28]}
    out_0 {name:"Node_686:0",dtype:int8,shape:[1, 128, 28, 28]}
  }
}
layer {
  name:"Node_691"
  type:"const"
  top:"Node_691"
  layer_param {
    idx:691
    out_0 {name:"Node_691:0",dtype:float32,shape:[128, 128, 3, 3]}
  }
}
layer {
  name:"Node_692"
  type:"const"
  top:"Node_692"
  layer_param {
    idx:692
    out_0 {name:"Node_692:0",dtype:float32,shape:[]}
  }
}
layer {
  name:"Node_693"
  type:"multiply"
  top:"Node_693"
  bottom:"Node_691"
  bottom:"Node_692"
  layer_param {
    idx:693
    in_0 {name:"Node_691:0",dtype:float32,shape:[128, 128, 3, 3]}
    in_1 {name:"Node_692:0",dtype:float32,shape:[]}
    out_0 {name:"Node_693:0",dtype:float32,shape:[128, 128, 3, 3]}
  }
}
layer {
  name:"Node_694"
  type:"round"
  top:"Node_694"
  bottom:"Node_693"
  layer_param {
    idx:694
    in_0 {name:"Node_693:0",dtype:float32,shape:[128, 128, 3, 3]}
    out_0 {name:"Node_694:0",dtype:float32,shape:[128, 128, 3, 3]}
  }
}
layer {
  name:"Node_695"
  type:"clip"
  top:"Node_695"
  bottom:"Node_694"
  layer_param {
    idx:695
    in_0 {name:"Node_694:0",dtype:float32,shape:[128, 128, 3, 3]}
    out_0 {name:"Node_695:0",dtype:float32,shape:[128, 128, 3, 3]}
    attrs {'a_min': -127.0, 'a_max': 127.0}
  }
}
layer {
  name:"Node_696"
  type:"cast"
  top:"Node_696"
  bottom:"Node_695"
  layer_param {
    idx:696
    in_0 {name:"Node_695:0",dtype:float32,shape:[128, 128, 3, 3]}
    out_0 {name:"Node_696:0",dtype:int8,shape:[128, 128, 3, 3]}
    attrs {'dtype': 'int8'}
  }
}
layer {
  name:"Node_697"
  type:"nn_conv2d"
  top:"Node_697"
  bottom:"Node_686"
  bottom:"Node_696"
  layer_param {
    idx:697
    in_0 {name:"Node_686:0",dtype:int8,shape:[1, 128, 28, 28]}
    in_1 {name:"Node_696:0",dtype:int8,shape:[128, 128, 3, 3]}
    out_0 {name:"Node_697:0",dtype:int32,shape:[1, 128, 28, 28]}
    attrs {'strides': [1, 1], 'padding': [1, 1, 1, 1], 'dilation': [1, 1], 'groups': 1, 'channels': 128, 'kernel_size': [3, 3], 'data_layout': 'NCHW', 'kernel_layout': 'OIHW', 'out_layout': '', 'out_dtype': 'int32'}
  }
}
layer {
  name:"Node_698"
  type:"cast"
  top:"Node_698"
  bottom:"Node_697"
  layer_param {
    idx:698
    in_0 {name:"Node_697:0",dtype:int32,shape:[1, 128, 28, 28]}
    out_0 {name:"Node_698:0",dtype:int64,shape:[1, 128, 28, 28]}
    attrs {'dtype': 'int64'}
  }
}
layer {
  name:"Node_699"
  type:"fixed_point_multiply"
  top:"Node_699"
  bottom:"Node_698"
  layer_param {
    idx:699
    in_0 {name:"Node_698:0",dtype:int64,shape:[1, 128, 28, 28]}
    out_0 {name:"Node_699:0",dtype:int64,shape:[1, 128, 28, 28]}
  }
}
layer {
  name:"Node_700"
  type:"clip"
  top:"Node_700"
  bottom:"Node_699"
  layer_param {
    idx:700
    in_0 {name:"Node_699:0",dtype:int64,shape:[1, 128, 28, 28]}
    out_0 {name:"Node_700:0",dtype:int64,shape:[1, 128, 28, 28]}
    attrs {'a_min': -127.0, 'a_max': 127.0}
  }
}
layer {
  name:"Node_701"
  type:"cast"
  top:"Node_701"
  bottom:"Node_700"
  layer_param {
    idx:701
    in_0 {name:"Node_700:0",dtype:int64,shape:[1, 128, 28, 28]}
    out_0 {name:"Node_701:0",dtype:int32,shape:[1, 128, 28, 28]}
    attrs {'dtype': 'int32'}
  }
}
layer {
  name:"Node_702"
  type:"cast"
  top:"Node_702"
  bottom:"Node_701"
  layer_param {
    idx:702
    in_0 {name:"Node_701:0",dtype:int32,shape:[1, 128, 28, 28]}
    out_0 {name:"Node_702:0",dtype:int8,shape:[1, 128, 28, 28]}
    attrs {'dtype': 'int8'}
  }
}
layer {
  name:"Node_703"
  type:"annotation_stop_fusion"
  top:"Node_703"
  bottom:"Node_702"
  layer_param {
    idx:703
    in_0 {name:"Node_702:0",dtype:int8,shape:[1, 128, 28, 28]}
    out_0 {name:"Node_703:0",dtype:int8,shape:[1, 128, 28, 28]}
  }
}
layer {
  name:"Node_704"
  type:"cast"
  top:"Node_704"
  bottom:"Node_703"
  layer_param {
    idx:704
    in_0 {name:"Node_703:0",dtype:int8,shape:[1, 128, 28, 28]}
    out_0 {name:"Node_704:0",dtype:int32,shape:[1, 128, 28, 28]}
    attrs {'dtype': 'int32'}
  }
}
layer {
  name:"Node_709"
  type:"const"
  top:"Node_709"
  layer_param {
    idx:709
    out_0 {name:"Node_709:0",dtype:float32,shape:[128, 1, 1]}
  }
}
layer {
  name:"Node_710"
  type:"const"
  top:"Node_710"
  layer_param {
    idx:710
    out_0 {name:"Node_710:0",dtype:float32,shape:[]}
  }
}
layer {
  name:"Node_711"
  type:"multiply"
  top:"Node_711"
  bottom:"Node_709"
  bottom:"Node_710"
  layer_param {
    idx:711
    in_0 {name:"Node_709:0",dtype:float32,shape:[128, 1, 1]}
    in_1 {name:"Node_710:0",dtype:float32,shape:[]}
    out_0 {name:"Node_711:0",dtype:float32,shape:[128, 1, 1]}
  }
}
layer {
  name:"Node_712"
  type:"round"
  top:"Node_712"
  bottom:"Node_711"
  layer_param {
    idx:712
    in_0 {name:"Node_711:0",dtype:float32,shape:[128, 1, 1]}
    out_0 {name:"Node_712:0",dtype:float32,shape:[128, 1, 1]}
  }
}
layer {
  name:"Node_713"
  type:"clip"
  top:"Node_713"
  bottom:"Node_712"
  layer_param {
    idx:713
    in_0 {name:"Node_712:0",dtype:float32,shape:[128, 1, 1]}
    out_0 {name:"Node_713:0",dtype:float32,shape:[128, 1, 1]}
    attrs {'a_min': -127.0, 'a_max': 127.0}
  }
}
layer {
  name:"Node_714"
  type:"cast"
  top:"Node_714"
  bottom:"Node_713"
  layer_param {
    idx:714
    in_0 {name:"Node_713:0",dtype:float32,shape:[128, 1, 1]}
    out_0 {name:"Node_714:0",dtype:int32,shape:[128, 1, 1]}
    attrs {'dtype': 'int32'}
  }
}
layer {
  name:"Node_715"
  type:"multiply"
  top:"Node_715"
  bottom:"Node_704"
  bottom:"Node_714"
  layer_param {
    idx:715
    in_0 {name:"Node_704:0",dtype:int32,shape:[1, 128, 28, 28]}
    in_1 {name:"Node_714:0",dtype:int32,shape:[128, 1, 1]}
    out_0 {name:"Node_715:0",dtype:int32,shape:[1, 128, 28, 28]}
  }
}
layer {
  name:"Node_723"
  type:"const"
  top:"Node_723"
  layer_param {
    idx:723
    out_0 {name:"Node_723:0",dtype:float32,shape:[128, 1, 1]}
  }
}
layer {
  name:"Node_724"
  type:"const"
  top:"Node_724"
  layer_param {
    idx:724
    out_0 {name:"Node_724:0",dtype:float32,shape:[]}
  }
}
layer {
  name:"Node_725"
  type:"multiply"
  top:"Node_725"
  bottom:"Node_723"
  bottom:"Node_724"
  layer_param {
    idx:725
    in_0 {name:"Node_723:0",dtype:float32,shape:[128, 1, 1]}
    in_1 {name:"Node_724:0",dtype:float32,shape:[]}
    out_0 {name:"Node_725:0",dtype:float32,shape:[128, 1, 1]}
  }
}
layer {
  name:"Node_726"
  type:"round"
  top:"Node_726"
  bottom:"Node_725"
  layer_param {
    idx:726
    in_0 {name:"Node_725:0",dtype:float32,shape:[128, 1, 1]}
    out_0 {name:"Node_726:0",dtype:float32,shape:[128, 1, 1]}
  }
}
layer {
  name:"Node_727"
  type:"clip"
  top:"Node_727"
  bottom:"Node_726"
  layer_param {
    idx:727
    in_0 {name:"Node_726:0",dtype:float32,shape:[128, 1, 1]}
    out_0 {name:"Node_727:0",dtype:float32,shape:[128, 1, 1]}
    attrs {'a_min': -127.0, 'a_max': 127.0}
  }
}
layer {
  name:"Node_728"
  type:"cast"
  top:"Node_728"
  bottom:"Node_727"
  layer_param {
    idx:728
    in_0 {name:"Node_727:0",dtype:float32,shape:[128, 1, 1]}
    out_0 {name:"Node_728:0",dtype:int32,shape:[128, 1, 1]}
    attrs {'dtype': 'int32'}
  }
}
layer {
  name:"Node_729"
  type:"fixed_point_multiply"
  top:"Node_729"
  bottom:"Node_728"
  layer_param {
    idx:729
    in_0 {name:"Node_728:0",dtype:int32,shape:[128, 1, 1]}
    out_0 {name:"Node_729:0",dtype:int32,shape:[128, 1, 1]}
  }
}
layer {
  name:"Node_730"
  type:"cast"
  top:"Node_730"
  bottom:"Node_729"
  layer_param {
    idx:730
    in_0 {name:"Node_729:0",dtype:int32,shape:[128, 1, 1]}
    out_0 {name:"Node_730:0",dtype:int32,shape:[128, 1, 1]}
    attrs {'dtype': 'int32'}
  }
}
layer {
  name:"Node_731"
  type:"annotation_stop_fusion"
  top:"Node_731"
  bottom:"Node_730"
  layer_param {
    idx:731
    in_0 {name:"Node_730:0",dtype:int32,shape:[128, 1, 1]}
    out_0 {name:"Node_731:0",dtype:int32,shape:[128, 1, 1]}
  }
}
layer {
  name:"Node_732"
  type:"add"
  top:"Node_732"
  bottom:"Node_715"
  bottom:"Node_731"
  layer_param {
    idx:732
    in_0 {name:"Node_715:0",dtype:int32,shape:[1, 128, 28, 28]}
    in_1 {name:"Node_731:0",dtype:int32,shape:[128, 1, 1]}
    out_0 {name:"Node_732:0",dtype:int32,shape:[1, 128, 28, 28]}
  }
}
layer {
  name:"Node_733"
  type:"cast"
  top:"Node_733"
  bottom:"Node_732"
  layer_param {
    idx:733
    in_0 {name:"Node_732:0",dtype:int32,shape:[1, 128, 28, 28]}
    out_0 {name:"Node_733:0",dtype:int64,shape:[1, 128, 28, 28]}
    attrs {'dtype': 'int64'}
  }
}
layer {
  name:"Node_734"
  type:"fixed_point_multiply"
  top:"Node_734"
  bottom:"Node_733"
  layer_param {
    idx:734
    in_0 {name:"Node_733:0",dtype:int64,shape:[1, 128, 28, 28]}
    out_0 {name:"Node_734:0",dtype:int64,shape:[1, 128, 28, 28]}
  }
}
layer {
  name:"Node_735"
  type:"clip"
  top:"Node_735"
  bottom:"Node_734"
  layer_param {
    idx:735
    in_0 {name:"Node_734:0",dtype:int64,shape:[1, 128, 28, 28]}
    out_0 {name:"Node_735:0",dtype:int64,shape:[1, 128, 28, 28]}
    attrs {'a_min': -127.0, 'a_max': 127.0}
  }
}
layer {
  name:"Node_736"
  type:"cast"
  top:"Node_736"
  bottom:"Node_735"
  layer_param {
    idx:736
    in_0 {name:"Node_735:0",dtype:int64,shape:[1, 128, 28, 28]}
    out_0 {name:"Node_736:0",dtype:int32,shape:[1, 128, 28, 28]}
    attrs {'dtype': 'int32'}
  }
}
layer {
  name:"Node_737"
  type:"cast"
  top:"Node_737"
  bottom:"Node_736"
  layer_param {
    idx:737
    in_0 {name:"Node_736:0",dtype:int32,shape:[1, 128, 28, 28]}
    out_0 {name:"Node_737:0",dtype:int8,shape:[1, 128, 28, 28]}
    attrs {'dtype': 'int8'}
  }
}
layer {
  name:"Node_738"
  type:"annotation_stop_fusion"
  top:"Node_738"
  bottom:"Node_737"
  layer_param {
    idx:738
    in_0 {name:"Node_737:0",dtype:int8,shape:[1, 128, 28, 28]}
    out_0 {name:"Node_738:0",dtype:int8,shape:[1, 128, 28, 28]}
  }
}
layer {
  name:"Node_739"
  type:"cast"
  top:"Node_739"
  bottom:"Node_738"
  layer_param {
    idx:739
    in_0 {name:"Node_738:0",dtype:int8,shape:[1, 128, 28, 28]}
    out_0 {name:"Node_739:0",dtype:int32,shape:[1, 128, 28, 28]}
    attrs {'dtype': 'int32'}
  }
}
layer {
  name:"Node_740"
  type:"fixed_point_multiply"
  top:"Node_740"
  bottom:"Node_739"
  layer_param {
    idx:740
    in_0 {name:"Node_739:0",dtype:int32,shape:[1, 128, 28, 28]}
    out_0 {name:"Node_740:0",dtype:int32,shape:[1, 128, 28, 28]}
  }
}
layer {
  name:"Node_741"
  type:"cast"
  top:"Node_741"
  bottom:"Node_740"
  layer_param {
    idx:741
    in_0 {name:"Node_740:0",dtype:int32,shape:[1, 128, 28, 28]}
    out_0 {name:"Node_741:0",dtype:int32,shape:[1, 128, 28, 28]}
    attrs {'dtype': 'int32'}
  }
}
layer {
  name:"Node_762"
  type:"cast"
  top:"Node_762"
  bottom:"Node_631"
  layer_param {
    idx:762
    in_0 {name:"Node_631:0",dtype:int32,shape:[1, 64, 56, 56]}
    out_0 {name:"Node_762:0",dtype:int8,shape:[1, 64, 56, 56]}
    attrs {'dtype': 'int8'}
  }
}
layer {
  name:"Node_763"
  type:"annotation_stop_fusion"
  top:"Node_763"
  bottom:"Node_762"
  layer_param {
    idx:763
    in_0 {name:"Node_762:0",dtype:int8,shape:[1, 64, 56, 56]}
    out_0 {name:"Node_763:0",dtype:int8,shape:[1, 64, 56, 56]}
  }
}
layer {
  name:"Node_768"
  type:"const"
  top:"Node_768"
  layer_param {
    idx:768
    out_0 {name:"Node_768:0",dtype:float32,shape:[128, 64, 1, 1]}
  }
}
layer {
  name:"Node_769"
  type:"const"
  top:"Node_769"
  layer_param {
    idx:769
    out_0 {name:"Node_769:0",dtype:float32,shape:[]}
  }
}
layer {
  name:"Node_770"
  type:"multiply"
  top:"Node_770"
  bottom:"Node_768"
  bottom:"Node_769"
  layer_param {
    idx:770
    in_0 {name:"Node_768:0",dtype:float32,shape:[128, 64, 1, 1]}
    in_1 {name:"Node_769:0",dtype:float32,shape:[]}
    out_0 {name:"Node_770:0",dtype:float32,shape:[128, 64, 1, 1]}
  }
}
layer {
  name:"Node_771"
  type:"round"
  top:"Node_771"
  bottom:"Node_770"
  layer_param {
    idx:771
    in_0 {name:"Node_770:0",dtype:float32,shape:[128, 64, 1, 1]}
    out_0 {name:"Node_771:0",dtype:float32,shape:[128, 64, 1, 1]}
  }
}
layer {
  name:"Node_772"
  type:"clip"
  top:"Node_772"
  bottom:"Node_771"
  layer_param {
    idx:772
    in_0 {name:"Node_771:0",dtype:float32,shape:[128, 64, 1, 1]}
    out_0 {name:"Node_772:0",dtype:float32,shape:[128, 64, 1, 1]}
    attrs {'a_min': -127.0, 'a_max': 127.0}
  }
}
layer {
  name:"Node_773"
  type:"cast"
  top:"Node_773"
  bottom:"Node_772"
  layer_param {
    idx:773
    in_0 {name:"Node_772:0",dtype:float32,shape:[128, 64, 1, 1]}
    out_0 {name:"Node_773:0",dtype:int8,shape:[128, 64, 1, 1]}
    attrs {'dtype': 'int8'}
  }
}
layer {
  name:"Node_774"
  type:"nn_conv2d"
  top:"Node_774"
  bottom:"Node_763"
  bottom:"Node_773"
  layer_param {
    idx:774
    in_0 {name:"Node_763:0",dtype:int8,shape:[1, 64, 56, 56]}
    in_1 {name:"Node_773:0",dtype:int8,shape:[128, 64, 1, 1]}
    out_0 {name:"Node_774:0",dtype:int32,shape:[1, 128, 28, 28]}
    attrs {'strides': [2, 2], 'padding': [0, 0, 0, 0], 'dilation': [1, 1], 'groups': 1, 'channels': 128, 'kernel_size': [1, 1], 'data_layout': 'NCHW', 'kernel_layout': 'OIHW', 'out_layout': '', 'out_dtype': 'int32'}
  }
}
layer {
  name:"Node_775"
  type:"cast"
  top:"Node_775"
  bottom:"Node_774"
  layer_param {
    idx:775
    in_0 {name:"Node_774:0",dtype:int32,shape:[1, 128, 28, 28]}
    out_0 {name:"Node_775:0",dtype:int64,shape:[1, 128, 28, 28]}
    attrs {'dtype': 'int64'}
  }
}
layer {
  name:"Node_776"
  type:"fixed_point_multiply"
  top:"Node_776"
  bottom:"Node_775"
  layer_param {
    idx:776
    in_0 {name:"Node_775:0",dtype:int64,shape:[1, 128, 28, 28]}
    out_0 {name:"Node_776:0",dtype:int64,shape:[1, 128, 28, 28]}
  }
}
layer {
  name:"Node_777"
  type:"clip"
  top:"Node_777"
  bottom:"Node_776"
  layer_param {
    idx:777
    in_0 {name:"Node_776:0",dtype:int64,shape:[1, 128, 28, 28]}
    out_0 {name:"Node_777:0",dtype:int64,shape:[1, 128, 28, 28]}
    attrs {'a_min': -127.0, 'a_max': 127.0}
  }
}
layer {
  name:"Node_778"
  type:"cast"
  top:"Node_778"
  bottom:"Node_777"
  layer_param {
    idx:778
    in_0 {name:"Node_777:0",dtype:int64,shape:[1, 128, 28, 28]}
    out_0 {name:"Node_778:0",dtype:int32,shape:[1, 128, 28, 28]}
    attrs {'dtype': 'int32'}
  }
}
layer {
  name:"Node_779"
  type:"cast"
  top:"Node_779"
  bottom:"Node_778"
  layer_param {
    idx:779
    in_0 {name:"Node_778:0",dtype:int32,shape:[1, 128, 28, 28]}
    out_0 {name:"Node_779:0",dtype:int8,shape:[1, 128, 28, 28]}
    attrs {'dtype': 'int8'}
  }
}
layer {
  name:"Node_780"
  type:"annotation_stop_fusion"
  top:"Node_780"
  bottom:"Node_779"
  layer_param {
    idx:780
    in_0 {name:"Node_779:0",dtype:int8,shape:[1, 128, 28, 28]}
    out_0 {name:"Node_780:0",dtype:int8,shape:[1, 128, 28, 28]}
  }
}
layer {
  name:"Node_781"
  type:"cast"
  top:"Node_781"
  bottom:"Node_780"
  layer_param {
    idx:781
    in_0 {name:"Node_780:0",dtype:int8,shape:[1, 128, 28, 28]}
    out_0 {name:"Node_781:0",dtype:int32,shape:[1, 128, 28, 28]}
    attrs {'dtype': 'int32'}
  }
}
layer {
  name:"Node_786"
  type:"const"
  top:"Node_786"
  layer_param {
    idx:786
    out_0 {name:"Node_786:0",dtype:float32,shape:[128, 1, 1]}
  }
}
layer {
  name:"Node_787"
  type:"const"
  top:"Node_787"
  layer_param {
    idx:787
    out_0 {name:"Node_787:0",dtype:float32,shape:[]}
  }
}
layer {
  name:"Node_788"
  type:"multiply"
  top:"Node_788"
  bottom:"Node_786"
  bottom:"Node_787"
  layer_param {
    idx:788
    in_0 {name:"Node_786:0",dtype:float32,shape:[128, 1, 1]}
    in_1 {name:"Node_787:0",dtype:float32,shape:[]}
    out_0 {name:"Node_788:0",dtype:float32,shape:[128, 1, 1]}
  }
}
layer {
  name:"Node_789"
  type:"round"
  top:"Node_789"
  bottom:"Node_788"
  layer_param {
    idx:789
    in_0 {name:"Node_788:0",dtype:float32,shape:[128, 1, 1]}
    out_0 {name:"Node_789:0",dtype:float32,shape:[128, 1, 1]}
  }
}
layer {
  name:"Node_790"
  type:"clip"
  top:"Node_790"
  bottom:"Node_789"
  layer_param {
    idx:790
    in_0 {name:"Node_789:0",dtype:float32,shape:[128, 1, 1]}
    out_0 {name:"Node_790:0",dtype:float32,shape:[128, 1, 1]}
    attrs {'a_min': -127.0, 'a_max': 127.0}
  }
}
layer {
  name:"Node_791"
  type:"cast"
  top:"Node_791"
  bottom:"Node_790"
  layer_param {
    idx:791
    in_0 {name:"Node_790:0",dtype:float32,shape:[128, 1, 1]}
    out_0 {name:"Node_791:0",dtype:int32,shape:[128, 1, 1]}
    attrs {'dtype': 'int32'}
  }
}
layer {
  name:"Node_792"
  type:"multiply"
  top:"Node_792"
  bottom:"Node_781"
  bottom:"Node_791"
  layer_param {
    idx:792
    in_0 {name:"Node_781:0",dtype:int32,shape:[1, 128, 28, 28]}
    in_1 {name:"Node_791:0",dtype:int32,shape:[128, 1, 1]}
    out_0 {name:"Node_792:0",dtype:int32,shape:[1, 128, 28, 28]}
  }
}
layer {
  name:"Node_800"
  type:"const"
  top:"Node_800"
  layer_param {
    idx:800
    out_0 {name:"Node_800:0",dtype:float32,shape:[128, 1, 1]}
  }
}
layer {
  name:"Node_801"
  type:"const"
  top:"Node_801"
  layer_param {
    idx:801
    out_0 {name:"Node_801:0",dtype:float32,shape:[]}
  }
}
layer {
  name:"Node_802"
  type:"multiply"
  top:"Node_802"
  bottom:"Node_800"
  bottom:"Node_801"
  layer_param {
    idx:802
    in_0 {name:"Node_800:0",dtype:float32,shape:[128, 1, 1]}
    in_1 {name:"Node_801:0",dtype:float32,shape:[]}
    out_0 {name:"Node_802:0",dtype:float32,shape:[128, 1, 1]}
  }
}
layer {
  name:"Node_803"
  type:"round"
  top:"Node_803"
  bottom:"Node_802"
  layer_param {
    idx:803
    in_0 {name:"Node_802:0",dtype:float32,shape:[128, 1, 1]}
    out_0 {name:"Node_803:0",dtype:float32,shape:[128, 1, 1]}
  }
}
layer {
  name:"Node_804"
  type:"clip"
  top:"Node_804"
  bottom:"Node_803"
  layer_param {
    idx:804
    in_0 {name:"Node_803:0",dtype:float32,shape:[128, 1, 1]}
    out_0 {name:"Node_804:0",dtype:float32,shape:[128, 1, 1]}
    attrs {'a_min': -127.0, 'a_max': 127.0}
  }
}
layer {
  name:"Node_805"
  type:"cast"
  top:"Node_805"
  bottom:"Node_804"
  layer_param {
    idx:805
    in_0 {name:"Node_804:0",dtype:float32,shape:[128, 1, 1]}
    out_0 {name:"Node_805:0",dtype:int32,shape:[128, 1, 1]}
    attrs {'dtype': 'int32'}
  }
}
layer {
  name:"Node_806"
  type:"fixed_point_multiply"
  top:"Node_806"
  bottom:"Node_805"
  layer_param {
    idx:806
    in_0 {name:"Node_805:0",dtype:int32,shape:[128, 1, 1]}
    out_0 {name:"Node_806:0",dtype:int32,shape:[128, 1, 1]}
  }
}
layer {
  name:"Node_807"
  type:"cast"
  top:"Node_807"
  bottom:"Node_806"
  layer_param {
    idx:807
    in_0 {name:"Node_806:0",dtype:int32,shape:[128, 1, 1]}
    out_0 {name:"Node_807:0",dtype:int32,shape:[128, 1, 1]}
    attrs {'dtype': 'int32'}
  }
}
layer {
  name:"Node_808"
  type:"annotation_stop_fusion"
  top:"Node_808"
  bottom:"Node_807"
  layer_param {
    idx:808
    in_0 {name:"Node_807:0",dtype:int32,shape:[128, 1, 1]}
    out_0 {name:"Node_808:0",dtype:int32,shape:[128, 1, 1]}
  }
}
layer {
  name:"Node_809"
  type:"add"
  top:"Node_809"
  bottom:"Node_792"
  bottom:"Node_808"
  layer_param {
    idx:809
    in_0 {name:"Node_792:0",dtype:int32,shape:[1, 128, 28, 28]}
    in_1 {name:"Node_808:0",dtype:int32,shape:[128, 1, 1]}
    out_0 {name:"Node_809:0",dtype:int32,shape:[1, 128, 28, 28]}
  }
}
layer {
  name:"Node_810"
  type:"cast"
  top:"Node_810"
  bottom:"Node_809"
  layer_param {
    idx:810
    in_0 {name:"Node_809:0",dtype:int32,shape:[1, 128, 28, 28]}
    out_0 {name:"Node_810:0",dtype:int64,shape:[1, 128, 28, 28]}
    attrs {'dtype': 'int64'}
  }
}
layer {
  name:"Node_811"
  type:"fixed_point_multiply"
  top:"Node_811"
  bottom:"Node_810"
  layer_param {
    idx:811
    in_0 {name:"Node_810:0",dtype:int64,shape:[1, 128, 28, 28]}
    out_0 {name:"Node_811:0",dtype:int64,shape:[1, 128, 28, 28]}
  }
}
layer {
  name:"Node_812"
  type:"clip"
  top:"Node_812"
  bottom:"Node_811"
  layer_param {
    idx:812
    in_0 {name:"Node_811:0",dtype:int64,shape:[1, 128, 28, 28]}
    out_0 {name:"Node_812:0",dtype:int64,shape:[1, 128, 28, 28]}
    attrs {'a_min': -127.0, 'a_max': 127.0}
  }
}
layer {
  name:"Node_813"
  type:"cast"
  top:"Node_813"
  bottom:"Node_812"
  layer_param {
    idx:813
    in_0 {name:"Node_812:0",dtype:int64,shape:[1, 128, 28, 28]}
    out_0 {name:"Node_813:0",dtype:int32,shape:[1, 128, 28, 28]}
    attrs {'dtype': 'int32'}
  }
}
layer {
  name:"Node_814"
  type:"cast"
  top:"Node_814"
  bottom:"Node_813"
  layer_param {
    idx:814
    in_0 {name:"Node_813:0",dtype:int32,shape:[1, 128, 28, 28]}
    out_0 {name:"Node_814:0",dtype:int8,shape:[1, 128, 28, 28]}
    attrs {'dtype': 'int8'}
  }
}
layer {
  name:"Node_815"
  type:"annotation_stop_fusion"
  top:"Node_815"
  bottom:"Node_814"
  layer_param {
    idx:815
    in_0 {name:"Node_814:0",dtype:int8,shape:[1, 128, 28, 28]}
    out_0 {name:"Node_815:0",dtype:int8,shape:[1, 128, 28, 28]}
  }
}
layer {
  name:"Node_816"
  type:"cast"
  top:"Node_816"
  bottom:"Node_815"
  layer_param {
    idx:816
    in_0 {name:"Node_815:0",dtype:int8,shape:[1, 128, 28, 28]}
    out_0 {name:"Node_816:0",dtype:int32,shape:[1, 128, 28, 28]}
    attrs {'dtype': 'int32'}
  }
}
layer {
  name:"Node_817"
  type:"add"
  top:"Node_817"
  bottom:"Node_741"
  bottom:"Node_816"
  layer_param {
    idx:817
    in_0 {name:"Node_741:0",dtype:int32,shape:[1, 128, 28, 28]}
    in_1 {name:"Node_816:0",dtype:int32,shape:[1, 128, 28, 28]}
    out_0 {name:"Node_817:0",dtype:int32,shape:[1, 128, 28, 28]}
  }
}
layer {
  name:"Node_818"
  type:"nn_relu"
  top:"Node_818"
  bottom:"Node_817"
  layer_param {
    idx:818
    in_0 {name:"Node_817:0",dtype:int32,shape:[1, 128, 28, 28]}
    out_0 {name:"Node_818:0",dtype:int32,shape:[1, 128, 28, 28]}
  }
}
layer {
  name:"Node_819"
  type:"cast"
  top:"Node_819"
  bottom:"Node_818"
  layer_param {
    idx:819
    in_0 {name:"Node_818:0",dtype:int32,shape:[1, 128, 28, 28]}
    out_0 {name:"Node_819:0",dtype:int64,shape:[1, 128, 28, 28]}
    attrs {'dtype': 'int64'}
  }
}
layer {
  name:"Node_820"
  type:"fixed_point_multiply"
  top:"Node_820"
  bottom:"Node_819"
  layer_param {
    idx:820
    in_0 {name:"Node_819:0",dtype:int64,shape:[1, 128, 28, 28]}
    out_0 {name:"Node_820:0",dtype:int64,shape:[1, 128, 28, 28]}
  }
}
layer {
  name:"Node_821"
  type:"clip"
  top:"Node_821"
  bottom:"Node_820"
  layer_param {
    idx:821
    in_0 {name:"Node_820:0",dtype:int64,shape:[1, 128, 28, 28]}
    out_0 {name:"Node_821:0",dtype:int64,shape:[1, 128, 28, 28]}
    attrs {'a_min': -127.0, 'a_max': 127.0}
  }
}
layer {
  name:"Node_822"
  type:"cast"
  top:"Node_822"
  bottom:"Node_821"
  layer_param {
    idx:822
    in_0 {name:"Node_821:0",dtype:int64,shape:[1, 128, 28, 28]}
    out_0 {name:"Node_822:0",dtype:int32,shape:[1, 128, 28, 28]}
    attrs {'dtype': 'int32'}
  }
}
layer {
  name:"Node_823"
  type:"cast"
  top:"Node_823"
  bottom:"Node_822"
  layer_param {
    idx:823
    in_0 {name:"Node_822:0",dtype:int32,shape:[1, 128, 28, 28]}
    out_0 {name:"Node_823:0",dtype:int8,shape:[1, 128, 28, 28]}
    attrs {'dtype': 'int8'}
  }
}
layer {
  name:"Node_824"
  type:"annotation_stop_fusion"
  top:"Node_824"
  bottom:"Node_823"
  layer_param {
    idx:824
    in_0 {name:"Node_823:0",dtype:int8,shape:[1, 128, 28, 28]}
    out_0 {name:"Node_824:0",dtype:int8,shape:[1, 128, 28, 28]}
  }
}
layer {
  name:"Node_829"
  type:"const"
  top:"Node_829"
  layer_param {
    idx:829
    out_0 {name:"Node_829:0",dtype:float32,shape:[128, 128, 3, 3]}
  }
}
layer {
  name:"Node_830"
  type:"const"
  top:"Node_830"
  layer_param {
    idx:830
    out_0 {name:"Node_830:0",dtype:float32,shape:[]}
  }
}
layer {
  name:"Node_831"
  type:"multiply"
  top:"Node_831"
  bottom:"Node_829"
  bottom:"Node_830"
  layer_param {
    idx:831
    in_0 {name:"Node_829:0",dtype:float32,shape:[128, 128, 3, 3]}
    in_1 {name:"Node_830:0",dtype:float32,shape:[]}
    out_0 {name:"Node_831:0",dtype:float32,shape:[128, 128, 3, 3]}
  }
}
layer {
  name:"Node_832"
  type:"round"
  top:"Node_832"
  bottom:"Node_831"
  layer_param {
    idx:832
    in_0 {name:"Node_831:0",dtype:float32,shape:[128, 128, 3, 3]}
    out_0 {name:"Node_832:0",dtype:float32,shape:[128, 128, 3, 3]}
  }
}
layer {
  name:"Node_833"
  type:"clip"
  top:"Node_833"
  bottom:"Node_832"
  layer_param {
    idx:833
    in_0 {name:"Node_832:0",dtype:float32,shape:[128, 128, 3, 3]}
    out_0 {name:"Node_833:0",dtype:float32,shape:[128, 128, 3, 3]}
    attrs {'a_min': -127.0, 'a_max': 127.0}
  }
}
layer {
  name:"Node_834"
  type:"cast"
  top:"Node_834"
  bottom:"Node_833"
  layer_param {
    idx:834
    in_0 {name:"Node_833:0",dtype:float32,shape:[128, 128, 3, 3]}
    out_0 {name:"Node_834:0",dtype:int8,shape:[128, 128, 3, 3]}
    attrs {'dtype': 'int8'}
  }
}
layer {
  name:"Node_835"
  type:"nn_conv2d"
  top:"Node_835"
  bottom:"Node_824"
  bottom:"Node_834"
  layer_param {
    idx:835
    in_0 {name:"Node_824:0",dtype:int8,shape:[1, 128, 28, 28]}
    in_1 {name:"Node_834:0",dtype:int8,shape:[128, 128, 3, 3]}
    out_0 {name:"Node_835:0",dtype:int32,shape:[1, 128, 28, 28]}
    attrs {'strides': [1, 1], 'padding': [1, 1, 1, 1], 'dilation': [1, 1], 'groups': 1, 'channels': 128, 'kernel_size': [3, 3], 'data_layout': 'NCHW', 'kernel_layout': 'OIHW', 'out_layout': '', 'out_dtype': 'int32'}
  }
}
layer {
  name:"Node_836"
  type:"cast"
  top:"Node_836"
  bottom:"Node_835"
  layer_param {
    idx:836
    in_0 {name:"Node_835:0",dtype:int32,shape:[1, 128, 28, 28]}
    out_0 {name:"Node_836:0",dtype:int64,shape:[1, 128, 28, 28]}
    attrs {'dtype': 'int64'}
  }
}
layer {
  name:"Node_837"
  type:"fixed_point_multiply"
  top:"Node_837"
  bottom:"Node_836"
  layer_param {
    idx:837
    in_0 {name:"Node_836:0",dtype:int64,shape:[1, 128, 28, 28]}
    out_0 {name:"Node_837:0",dtype:int64,shape:[1, 128, 28, 28]}
  }
}
layer {
  name:"Node_838"
  type:"clip"
  top:"Node_838"
  bottom:"Node_837"
  layer_param {
    idx:838
    in_0 {name:"Node_837:0",dtype:int64,shape:[1, 128, 28, 28]}
    out_0 {name:"Node_838:0",dtype:int64,shape:[1, 128, 28, 28]}
    attrs {'a_min': -127.0, 'a_max': 127.0}
  }
}
layer {
  name:"Node_839"
  type:"cast"
  top:"Node_839"
  bottom:"Node_838"
  layer_param {
    idx:839
    in_0 {name:"Node_838:0",dtype:int64,shape:[1, 128, 28, 28]}
    out_0 {name:"Node_839:0",dtype:int32,shape:[1, 128, 28, 28]}
    attrs {'dtype': 'int32'}
  }
}
layer {
  name:"Node_840"
  type:"cast"
  top:"Node_840"
  bottom:"Node_839"
  layer_param {
    idx:840
    in_0 {name:"Node_839:0",dtype:int32,shape:[1, 128, 28, 28]}
    out_0 {name:"Node_840:0",dtype:int8,shape:[1, 128, 28, 28]}
    attrs {'dtype': 'int8'}
  }
}
layer {
  name:"Node_841"
  type:"annotation_stop_fusion"
  top:"Node_841"
  bottom:"Node_840"
  layer_param {
    idx:841
    in_0 {name:"Node_840:0",dtype:int8,shape:[1, 128, 28, 28]}
    out_0 {name:"Node_841:0",dtype:int8,shape:[1, 128, 28, 28]}
  }
}
layer {
  name:"Node_842"
  type:"cast"
  top:"Node_842"
  bottom:"Node_841"
  layer_param {
    idx:842
    in_0 {name:"Node_841:0",dtype:int8,shape:[1, 128, 28, 28]}
    out_0 {name:"Node_842:0",dtype:int32,shape:[1, 128, 28, 28]}
    attrs {'dtype': 'int32'}
  }
}
layer {
  name:"Node_847"
  type:"const"
  top:"Node_847"
  layer_param {
    idx:847
    out_0 {name:"Node_847:0",dtype:float32,shape:[128, 1, 1]}
  }
}
layer {
  name:"Node_848"
  type:"const"
  top:"Node_848"
  layer_param {
    idx:848
    out_0 {name:"Node_848:0",dtype:float32,shape:[]}
  }
}
layer {
  name:"Node_849"
  type:"multiply"
  top:"Node_849"
  bottom:"Node_847"
  bottom:"Node_848"
  layer_param {
    idx:849
    in_0 {name:"Node_847:0",dtype:float32,shape:[128, 1, 1]}
    in_1 {name:"Node_848:0",dtype:float32,shape:[]}
    out_0 {name:"Node_849:0",dtype:float32,shape:[128, 1, 1]}
  }
}
layer {
  name:"Node_850"
  type:"round"
  top:"Node_850"
  bottom:"Node_849"
  layer_param {
    idx:850
    in_0 {name:"Node_849:0",dtype:float32,shape:[128, 1, 1]}
    out_0 {name:"Node_850:0",dtype:float32,shape:[128, 1, 1]}
  }
}
layer {
  name:"Node_851"
  type:"clip"
  top:"Node_851"
  bottom:"Node_850"
  layer_param {
    idx:851
    in_0 {name:"Node_850:0",dtype:float32,shape:[128, 1, 1]}
    out_0 {name:"Node_851:0",dtype:float32,shape:[128, 1, 1]}
    attrs {'a_min': -127.0, 'a_max': 127.0}
  }
}
layer {
  name:"Node_852"
  type:"cast"
  top:"Node_852"
  bottom:"Node_851"
  layer_param {
    idx:852
    in_0 {name:"Node_851:0",dtype:float32,shape:[128, 1, 1]}
    out_0 {name:"Node_852:0",dtype:int32,shape:[128, 1, 1]}
    attrs {'dtype': 'int32'}
  }
}
layer {
  name:"Node_853"
  type:"multiply"
  top:"Node_853"
  bottom:"Node_842"
  bottom:"Node_852"
  layer_param {
    idx:853
    in_0 {name:"Node_842:0",dtype:int32,shape:[1, 128, 28, 28]}
    in_1 {name:"Node_852:0",dtype:int32,shape:[128, 1, 1]}
    out_0 {name:"Node_853:0",dtype:int32,shape:[1, 128, 28, 28]}
  }
}
layer {
  name:"Node_861"
  type:"const"
  top:"Node_861"
  layer_param {
    idx:861
    out_0 {name:"Node_861:0",dtype:float32,shape:[128, 1, 1]}
  }
}
layer {
  name:"Node_862"
  type:"const"
  top:"Node_862"
  layer_param {
    idx:862
    out_0 {name:"Node_862:0",dtype:float32,shape:[]}
  }
}
layer {
  name:"Node_863"
  type:"multiply"
  top:"Node_863"
  bottom:"Node_861"
  bottom:"Node_862"
  layer_param {
    idx:863
    in_0 {name:"Node_861:0",dtype:float32,shape:[128, 1, 1]}
    in_1 {name:"Node_862:0",dtype:float32,shape:[]}
    out_0 {name:"Node_863:0",dtype:float32,shape:[128, 1, 1]}
  }
}
layer {
  name:"Node_864"
  type:"round"
  top:"Node_864"
  bottom:"Node_863"
  layer_param {
    idx:864
    in_0 {name:"Node_863:0",dtype:float32,shape:[128, 1, 1]}
    out_0 {name:"Node_864:0",dtype:float32,shape:[128, 1, 1]}
  }
}
layer {
  name:"Node_865"
  type:"clip"
  top:"Node_865"
  bottom:"Node_864"
  layer_param {
    idx:865
    in_0 {name:"Node_864:0",dtype:float32,shape:[128, 1, 1]}
    out_0 {name:"Node_865:0",dtype:float32,shape:[128, 1, 1]}
    attrs {'a_min': -127.0, 'a_max': 127.0}
  }
}
layer {
  name:"Node_866"
  type:"cast"
  top:"Node_866"
  bottom:"Node_865"
  layer_param {
    idx:866
    in_0 {name:"Node_865:0",dtype:float32,shape:[128, 1, 1]}
    out_0 {name:"Node_866:0",dtype:int32,shape:[128, 1, 1]}
    attrs {'dtype': 'int32'}
  }
}
layer {
  name:"Node_867"
  type:"fixed_point_multiply"
  top:"Node_867"
  bottom:"Node_866"
  layer_param {
    idx:867
    in_0 {name:"Node_866:0",dtype:int32,shape:[128, 1, 1]}
    out_0 {name:"Node_867:0",dtype:int32,shape:[128, 1, 1]}
  }
}
layer {
  name:"Node_868"
  type:"cast"
  top:"Node_868"
  bottom:"Node_867"
  layer_param {
    idx:868
    in_0 {name:"Node_867:0",dtype:int32,shape:[128, 1, 1]}
    out_0 {name:"Node_868:0",dtype:int32,shape:[128, 1, 1]}
    attrs {'dtype': 'int32'}
  }
}
layer {
  name:"Node_869"
  type:"annotation_stop_fusion"
  top:"Node_869"
  bottom:"Node_868"
  layer_param {
    idx:869
    in_0 {name:"Node_868:0",dtype:int32,shape:[128, 1, 1]}
    out_0 {name:"Node_869:0",dtype:int32,shape:[128, 1, 1]}
  }
}
layer {
  name:"Node_870"
  type:"add"
  top:"Node_870"
  bottom:"Node_853"
  bottom:"Node_869"
  layer_param {
    idx:870
    in_0 {name:"Node_853:0",dtype:int32,shape:[1, 128, 28, 28]}
    in_1 {name:"Node_869:0",dtype:int32,shape:[128, 1, 1]}
    out_0 {name:"Node_870:0",dtype:int32,shape:[1, 128, 28, 28]}
  }
}
layer {
  name:"Node_871"
  type:"nn_relu"
  top:"Node_871"
  bottom:"Node_870"
  layer_param {
    idx:871
    in_0 {name:"Node_870:0",dtype:int32,shape:[1, 128, 28, 28]}
    out_0 {name:"Node_871:0",dtype:int32,shape:[1, 128, 28, 28]}
  }
}
layer {
  name:"Node_872"
  type:"cast"
  top:"Node_872"
  bottom:"Node_871"
  layer_param {
    idx:872
    in_0 {name:"Node_871:0",dtype:int32,shape:[1, 128, 28, 28]}
    out_0 {name:"Node_872:0",dtype:int64,shape:[1, 128, 28, 28]}
    attrs {'dtype': 'int64'}
  }
}
layer {
  name:"Node_873"
  type:"fixed_point_multiply"
  top:"Node_873"
  bottom:"Node_872"
  layer_param {
    idx:873
    in_0 {name:"Node_872:0",dtype:int64,shape:[1, 128, 28, 28]}
    out_0 {name:"Node_873:0",dtype:int64,shape:[1, 128, 28, 28]}
  }
}
layer {
  name:"Node_874"
  type:"clip"
  top:"Node_874"
  bottom:"Node_873"
  layer_param {
    idx:874
    in_0 {name:"Node_873:0",dtype:int64,shape:[1, 128, 28, 28]}
    out_0 {name:"Node_874:0",dtype:int64,shape:[1, 128, 28, 28]}
    attrs {'a_min': -127.0, 'a_max': 127.0}
  }
}
layer {
  name:"Node_875"
  type:"cast"
  top:"Node_875"
  bottom:"Node_874"
  layer_param {
    idx:875
    in_0 {name:"Node_874:0",dtype:int64,shape:[1, 128, 28, 28]}
    out_0 {name:"Node_875:0",dtype:int32,shape:[1, 128, 28, 28]}
    attrs {'dtype': 'int32'}
  }
}
layer {
  name:"Node_876"
  type:"cast"
  top:"Node_876"
  bottom:"Node_875"
  layer_param {
    idx:876
    in_0 {name:"Node_875:0",dtype:int32,shape:[1, 128, 28, 28]}
    out_0 {name:"Node_876:0",dtype:int8,shape:[1, 128, 28, 28]}
    attrs {'dtype': 'int8'}
  }
}
layer {
  name:"Node_877"
  type:"annotation_stop_fusion"
  top:"Node_877"
  bottom:"Node_876"
  layer_param {
    idx:877
    in_0 {name:"Node_876:0",dtype:int8,shape:[1, 128, 28, 28]}
    out_0 {name:"Node_877:0",dtype:int8,shape:[1, 128, 28, 28]}
  }
}
layer {
  name:"Node_882"
  type:"const"
  top:"Node_882"
  layer_param {
    idx:882
    out_0 {name:"Node_882:0",dtype:float32,shape:[128, 128, 3, 3]}
  }
}
layer {
  name:"Node_883"
  type:"const"
  top:"Node_883"
  layer_param {
    idx:883
    out_0 {name:"Node_883:0",dtype:float32,shape:[]}
  }
}
layer {
  name:"Node_884"
  type:"multiply"
  top:"Node_884"
  bottom:"Node_882"
  bottom:"Node_883"
  layer_param {
    idx:884
    in_0 {name:"Node_882:0",dtype:float32,shape:[128, 128, 3, 3]}
    in_1 {name:"Node_883:0",dtype:float32,shape:[]}
    out_0 {name:"Node_884:0",dtype:float32,shape:[128, 128, 3, 3]}
  }
}
layer {
  name:"Node_885"
  type:"round"
  top:"Node_885"
  bottom:"Node_884"
  layer_param {
    idx:885
    in_0 {name:"Node_884:0",dtype:float32,shape:[128, 128, 3, 3]}
    out_0 {name:"Node_885:0",dtype:float32,shape:[128, 128, 3, 3]}
  }
}
layer {
  name:"Node_886"
  type:"clip"
  top:"Node_886"
  bottom:"Node_885"
  layer_param {
    idx:886
    in_0 {name:"Node_885:0",dtype:float32,shape:[128, 128, 3, 3]}
    out_0 {name:"Node_886:0",dtype:float32,shape:[128, 128, 3, 3]}
    attrs {'a_min': -127.0, 'a_max': 127.0}
  }
}
layer {
  name:"Node_887"
  type:"cast"
  top:"Node_887"
  bottom:"Node_886"
  layer_param {
    idx:887
    in_0 {name:"Node_886:0",dtype:float32,shape:[128, 128, 3, 3]}
    out_0 {name:"Node_887:0",dtype:int8,shape:[128, 128, 3, 3]}
    attrs {'dtype': 'int8'}
  }
}
layer {
  name:"Node_888"
  type:"nn_conv2d"
  top:"Node_888"
  bottom:"Node_877"
  bottom:"Node_887"
  layer_param {
    idx:888
    in_0 {name:"Node_877:0",dtype:int8,shape:[1, 128, 28, 28]}
    in_1 {name:"Node_887:0",dtype:int8,shape:[128, 128, 3, 3]}
    out_0 {name:"Node_888:0",dtype:int32,shape:[1, 128, 28, 28]}
    attrs {'strides': [1, 1], 'padding': [1, 1, 1, 1], 'dilation': [1, 1], 'groups': 1, 'channels': 128, 'kernel_size': [3, 3], 'data_layout': 'NCHW', 'kernel_layout': 'OIHW', 'out_layout': '', 'out_dtype': 'int32'}
  }
}
layer {
  name:"Node_889"
  type:"cast"
  top:"Node_889"
  bottom:"Node_888"
  layer_param {
    idx:889
    in_0 {name:"Node_888:0",dtype:int32,shape:[1, 128, 28, 28]}
    out_0 {name:"Node_889:0",dtype:int64,shape:[1, 128, 28, 28]}
    attrs {'dtype': 'int64'}
  }
}
layer {
  name:"Node_890"
  type:"fixed_point_multiply"
  top:"Node_890"
  bottom:"Node_889"
  layer_param {
    idx:890
    in_0 {name:"Node_889:0",dtype:int64,shape:[1, 128, 28, 28]}
    out_0 {name:"Node_890:0",dtype:int64,shape:[1, 128, 28, 28]}
  }
}
layer {
  name:"Node_891"
  type:"clip"
  top:"Node_891"
  bottom:"Node_890"
  layer_param {
    idx:891
    in_0 {name:"Node_890:0",dtype:int64,shape:[1, 128, 28, 28]}
    out_0 {name:"Node_891:0",dtype:int64,shape:[1, 128, 28, 28]}
    attrs {'a_min': -127.0, 'a_max': 127.0}
  }
}
layer {
  name:"Node_892"
  type:"cast"
  top:"Node_892"
  bottom:"Node_891"
  layer_param {
    idx:892
    in_0 {name:"Node_891:0",dtype:int64,shape:[1, 128, 28, 28]}
    out_0 {name:"Node_892:0",dtype:int32,shape:[1, 128, 28, 28]}
    attrs {'dtype': 'int32'}
  }
}
layer {
  name:"Node_893"
  type:"cast"
  top:"Node_893"
  bottom:"Node_892"
  layer_param {
    idx:893
    in_0 {name:"Node_892:0",dtype:int32,shape:[1, 128, 28, 28]}
    out_0 {name:"Node_893:0",dtype:int8,shape:[1, 128, 28, 28]}
    attrs {'dtype': 'int8'}
  }
}
layer {
  name:"Node_894"
  type:"annotation_stop_fusion"
  top:"Node_894"
  bottom:"Node_893"
  layer_param {
    idx:894
    in_0 {name:"Node_893:0",dtype:int8,shape:[1, 128, 28, 28]}
    out_0 {name:"Node_894:0",dtype:int8,shape:[1, 128, 28, 28]}
  }
}
layer {
  name:"Node_895"
  type:"cast"
  top:"Node_895"
  bottom:"Node_894"
  layer_param {
    idx:895
    in_0 {name:"Node_894:0",dtype:int8,shape:[1, 128, 28, 28]}
    out_0 {name:"Node_895:0",dtype:int32,shape:[1, 128, 28, 28]}
    attrs {'dtype': 'int32'}
  }
}
layer {
  name:"Node_900"
  type:"const"
  top:"Node_900"
  layer_param {
    idx:900
    out_0 {name:"Node_900:0",dtype:float32,shape:[128, 1, 1]}
  }
}
layer {
  name:"Node_901"
  type:"const"
  top:"Node_901"
  layer_param {
    idx:901
    out_0 {name:"Node_901:0",dtype:float32,shape:[]}
  }
}
layer {
  name:"Node_902"
  type:"multiply"
  top:"Node_902"
  bottom:"Node_900"
  bottom:"Node_901"
  layer_param {
    idx:902
    in_0 {name:"Node_900:0",dtype:float32,shape:[128, 1, 1]}
    in_1 {name:"Node_901:0",dtype:float32,shape:[]}
    out_0 {name:"Node_902:0",dtype:float32,shape:[128, 1, 1]}
  }
}
layer {
  name:"Node_903"
  type:"round"
  top:"Node_903"
  bottom:"Node_902"
  layer_param {
    idx:903
    in_0 {name:"Node_902:0",dtype:float32,shape:[128, 1, 1]}
    out_0 {name:"Node_903:0",dtype:float32,shape:[128, 1, 1]}
  }
}
layer {
  name:"Node_904"
  type:"clip"
  top:"Node_904"
  bottom:"Node_903"
  layer_param {
    idx:904
    in_0 {name:"Node_903:0",dtype:float32,shape:[128, 1, 1]}
    out_0 {name:"Node_904:0",dtype:float32,shape:[128, 1, 1]}
    attrs {'a_min': -127.0, 'a_max': 127.0}
  }
}
layer {
  name:"Node_905"
  type:"cast"
  top:"Node_905"
  bottom:"Node_904"
  layer_param {
    idx:905
    in_0 {name:"Node_904:0",dtype:float32,shape:[128, 1, 1]}
    out_0 {name:"Node_905:0",dtype:int32,shape:[128, 1, 1]}
    attrs {'dtype': 'int32'}
  }
}
layer {
  name:"Node_906"
  type:"multiply"
  top:"Node_906"
  bottom:"Node_895"
  bottom:"Node_905"
  layer_param {
    idx:906
    in_0 {name:"Node_895:0",dtype:int32,shape:[1, 128, 28, 28]}
    in_1 {name:"Node_905:0",dtype:int32,shape:[128, 1, 1]}
    out_0 {name:"Node_906:0",dtype:int32,shape:[1, 128, 28, 28]}
  }
}
layer {
  name:"Node_914"
  type:"const"
  top:"Node_914"
  layer_param {
    idx:914
    out_0 {name:"Node_914:0",dtype:float32,shape:[128, 1, 1]}
  }
}
layer {
  name:"Node_915"
  type:"const"
  top:"Node_915"
  layer_param {
    idx:915
    out_0 {name:"Node_915:0",dtype:float32,shape:[]}
  }
}
layer {
  name:"Node_916"
  type:"multiply"
  top:"Node_916"
  bottom:"Node_914"
  bottom:"Node_915"
  layer_param {
    idx:916
    in_0 {name:"Node_914:0",dtype:float32,shape:[128, 1, 1]}
    in_1 {name:"Node_915:0",dtype:float32,shape:[]}
    out_0 {name:"Node_916:0",dtype:float32,shape:[128, 1, 1]}
  }
}
layer {
  name:"Node_917"
  type:"round"
  top:"Node_917"
  bottom:"Node_916"
  layer_param {
    idx:917
    in_0 {name:"Node_916:0",dtype:float32,shape:[128, 1, 1]}
    out_0 {name:"Node_917:0",dtype:float32,shape:[128, 1, 1]}
  }
}
layer {
  name:"Node_918"
  type:"clip"
  top:"Node_918"
  bottom:"Node_917"
  layer_param {
    idx:918
    in_0 {name:"Node_917:0",dtype:float32,shape:[128, 1, 1]}
    out_0 {name:"Node_918:0",dtype:float32,shape:[128, 1, 1]}
    attrs {'a_min': -127.0, 'a_max': 127.0}
  }
}
layer {
  name:"Node_919"
  type:"cast"
  top:"Node_919"
  bottom:"Node_918"
  layer_param {
    idx:919
    in_0 {name:"Node_918:0",dtype:float32,shape:[128, 1, 1]}
    out_0 {name:"Node_919:0",dtype:int32,shape:[128, 1, 1]}
    attrs {'dtype': 'int32'}
  }
}
layer {
  name:"Node_920"
  type:"fixed_point_multiply"
  top:"Node_920"
  bottom:"Node_919"
  layer_param {
    idx:920
    in_0 {name:"Node_919:0",dtype:int32,shape:[128, 1, 1]}
    out_0 {name:"Node_920:0",dtype:int32,shape:[128, 1, 1]}
  }
}
layer {
  name:"Node_921"
  type:"cast"
  top:"Node_921"
  bottom:"Node_920"
  layer_param {
    idx:921
    in_0 {name:"Node_920:0",dtype:int32,shape:[128, 1, 1]}
    out_0 {name:"Node_921:0",dtype:int32,shape:[128, 1, 1]}
    attrs {'dtype': 'int32'}
  }
}
layer {
  name:"Node_922"
  type:"annotation_stop_fusion"
  top:"Node_922"
  bottom:"Node_921"
  layer_param {
    idx:922
    in_0 {name:"Node_921:0",dtype:int32,shape:[128, 1, 1]}
    out_0 {name:"Node_922:0",dtype:int32,shape:[128, 1, 1]}
  }
}
layer {
  name:"Node_923"
  type:"add"
  top:"Node_923"
  bottom:"Node_906"
  bottom:"Node_922"
  layer_param {
    idx:923
    in_0 {name:"Node_906:0",dtype:int32,shape:[1, 128, 28, 28]}
    in_1 {name:"Node_922:0",dtype:int32,shape:[128, 1, 1]}
    out_0 {name:"Node_923:0",dtype:int32,shape:[1, 128, 28, 28]}
  }
}
layer {
  name:"Node_924"
  type:"cast"
  top:"Node_924"
  bottom:"Node_923"
  layer_param {
    idx:924
    in_0 {name:"Node_923:0",dtype:int32,shape:[1, 128, 28, 28]}
    out_0 {name:"Node_924:0",dtype:int64,shape:[1, 128, 28, 28]}
    attrs {'dtype': 'int64'}
  }
}
layer {
  name:"Node_925"
  type:"fixed_point_multiply"
  top:"Node_925"
  bottom:"Node_924"
  layer_param {
    idx:925
    in_0 {name:"Node_924:0",dtype:int64,shape:[1, 128, 28, 28]}
    out_0 {name:"Node_925:0",dtype:int64,shape:[1, 128, 28, 28]}
  }
}
layer {
  name:"Node_926"
  type:"clip"
  top:"Node_926"
  bottom:"Node_925"
  layer_param {
    idx:926
    in_0 {name:"Node_925:0",dtype:int64,shape:[1, 128, 28, 28]}
    out_0 {name:"Node_926:0",dtype:int64,shape:[1, 128, 28, 28]}
    attrs {'a_min': -127.0, 'a_max': 127.0}
  }
}
layer {
  name:"Node_927"
  type:"cast"
  top:"Node_927"
  bottom:"Node_926"
  layer_param {
    idx:927
    in_0 {name:"Node_926:0",dtype:int64,shape:[1, 128, 28, 28]}
    out_0 {name:"Node_927:0",dtype:int32,shape:[1, 128, 28, 28]}
    attrs {'dtype': 'int32'}
  }
}
layer {
  name:"Node_928"
  type:"cast"
  top:"Node_928"
  bottom:"Node_927"
  layer_param {
    idx:928
    in_0 {name:"Node_927:0",dtype:int32,shape:[1, 128, 28, 28]}
    out_0 {name:"Node_928:0",dtype:int8,shape:[1, 128, 28, 28]}
    attrs {'dtype': 'int8'}
  }
}
layer {
  name:"Node_929"
  type:"annotation_stop_fusion"
  top:"Node_929"
  bottom:"Node_928"
  layer_param {
    idx:929
    in_0 {name:"Node_928:0",dtype:int8,shape:[1, 128, 28, 28]}
    out_0 {name:"Node_929:0",dtype:int8,shape:[1, 128, 28, 28]}
  }
}
layer {
  name:"Node_930"
  type:"cast"
  top:"Node_930"
  bottom:"Node_929"
  layer_param {
    idx:930
    in_0 {name:"Node_929:0",dtype:int8,shape:[1, 128, 28, 28]}
    out_0 {name:"Node_930:0",dtype:int32,shape:[1, 128, 28, 28]}
    attrs {'dtype': 'int32'}
  }
}
layer {
  name:"Node_937"
  type:"cast"
  top:"Node_937"
  bottom:"Node_822"
  layer_param {
    idx:937
    in_0 {name:"Node_822:0",dtype:int32,shape:[1, 128, 28, 28]}
    out_0 {name:"Node_937:0",dtype:int8,shape:[1, 128, 28, 28]}
    attrs {'dtype': 'int8'}
  }
}
layer {
  name:"Node_938"
  type:"annotation_stop_fusion"
  top:"Node_938"
  bottom:"Node_937"
  layer_param {
    idx:938
    in_0 {name:"Node_937:0",dtype:int8,shape:[1, 128, 28, 28]}
    out_0 {name:"Node_938:0",dtype:int8,shape:[1, 128, 28, 28]}
  }
}
layer {
  name:"Node_939"
  type:"cast"
  top:"Node_939"
  bottom:"Node_938"
  layer_param {
    idx:939
    in_0 {name:"Node_938:0",dtype:int8,shape:[1, 128, 28, 28]}
    out_0 {name:"Node_939:0",dtype:int32,shape:[1, 128, 28, 28]}
    attrs {'dtype': 'int32'}
  }
}
layer {
  name:"Node_940"
  type:"fixed_point_multiply"
  top:"Node_940"
  bottom:"Node_939"
  layer_param {
    idx:940
    in_0 {name:"Node_939:0",dtype:int32,shape:[1, 128, 28, 28]}
    out_0 {name:"Node_940:0",dtype:int32,shape:[1, 128, 28, 28]}
  }
}
layer {
  name:"Node_941"
  type:"cast"
  top:"Node_941"
  bottom:"Node_940"
  layer_param {
    idx:941
    in_0 {name:"Node_940:0",dtype:int32,shape:[1, 128, 28, 28]}
    out_0 {name:"Node_941:0",dtype:int32,shape:[1, 128, 28, 28]}
    attrs {'dtype': 'int32'}
  }
}
layer {
  name:"Node_942"
  type:"add"
  top:"Node_942"
  bottom:"Node_930"
  bottom:"Node_941"
  layer_param {
    idx:942
    in_0 {name:"Node_930:0",dtype:int32,shape:[1, 128, 28, 28]}
    in_1 {name:"Node_941:0",dtype:int32,shape:[1, 128, 28, 28]}
    out_0 {name:"Node_942:0",dtype:int32,shape:[1, 128, 28, 28]}
  }
}
layer {
  name:"Node_943"
  type:"nn_relu"
  top:"Node_943"
  bottom:"Node_942"
  layer_param {
    idx:943
    in_0 {name:"Node_942:0",dtype:int32,shape:[1, 128, 28, 28]}
    out_0 {name:"Node_943:0",dtype:int32,shape:[1, 128, 28, 28]}
  }
}
layer {
  name:"Node_944"
  type:"cast"
  top:"Node_944"
  bottom:"Node_943"
  layer_param {
    idx:944
    in_0 {name:"Node_943:0",dtype:int32,shape:[1, 128, 28, 28]}
    out_0 {name:"Node_944:0",dtype:int64,shape:[1, 128, 28, 28]}
    attrs {'dtype': 'int64'}
  }
}
layer {
  name:"Node_945"
  type:"fixed_point_multiply"
  top:"Node_945"
  bottom:"Node_944"
  layer_param {
    idx:945
    in_0 {name:"Node_944:0",dtype:int64,shape:[1, 128, 28, 28]}
    out_0 {name:"Node_945:0",dtype:int64,shape:[1, 128, 28, 28]}
  }
}
layer {
  name:"Node_946"
  type:"clip"
  top:"Node_946"
  bottom:"Node_945"
  layer_param {
    idx:946
    in_0 {name:"Node_945:0",dtype:int64,shape:[1, 128, 28, 28]}
    out_0 {name:"Node_946:0",dtype:int64,shape:[1, 128, 28, 28]}
    attrs {'a_min': -127.0, 'a_max': 127.0}
  }
}
layer {
  name:"Node_947"
  type:"cast"
  top:"Node_947"
  bottom:"Node_946"
  layer_param {
    idx:947
    in_0 {name:"Node_946:0",dtype:int64,shape:[1, 128, 28, 28]}
    out_0 {name:"Node_947:0",dtype:int32,shape:[1, 128, 28, 28]}
    attrs {'dtype': 'int32'}
  }
}
layer {
  name:"Node_948"
  type:"cast"
  top:"Node_948"
  bottom:"Node_947"
  layer_param {
    idx:948
    in_0 {name:"Node_947:0",dtype:int32,shape:[1, 128, 28, 28]}
    out_0 {name:"Node_948:0",dtype:int8,shape:[1, 128, 28, 28]}
    attrs {'dtype': 'int8'}
  }
}
layer {
  name:"Node_949"
  type:"annotation_stop_fusion"
  top:"Node_949"
  bottom:"Node_948"
  layer_param {
    idx:949
    in_0 {name:"Node_948:0",dtype:int8,shape:[1, 128, 28, 28]}
    out_0 {name:"Node_949:0",dtype:int8,shape:[1, 128, 28, 28]}
  }
}
layer {
  name:"Node_954"
  type:"const"
  top:"Node_954"
  layer_param {
    idx:954
    out_0 {name:"Node_954:0",dtype:float32,shape:[256, 128, 3, 3]}
  }
}
layer {
  name:"Node_955"
  type:"const"
  top:"Node_955"
  layer_param {
    idx:955
    out_0 {name:"Node_955:0",dtype:float32,shape:[]}
  }
}
layer {
  name:"Node_956"
  type:"multiply"
  top:"Node_956"
  bottom:"Node_954"
  bottom:"Node_955"
  layer_param {
    idx:956
    in_0 {name:"Node_954:0",dtype:float32,shape:[256, 128, 3, 3]}
    in_1 {name:"Node_955:0",dtype:float32,shape:[]}
    out_0 {name:"Node_956:0",dtype:float32,shape:[256, 128, 3, 3]}
  }
}
layer {
  name:"Node_957"
  type:"round"
  top:"Node_957"
  bottom:"Node_956"
  layer_param {
    idx:957
    in_0 {name:"Node_956:0",dtype:float32,shape:[256, 128, 3, 3]}
    out_0 {name:"Node_957:0",dtype:float32,shape:[256, 128, 3, 3]}
  }
}
layer {
  name:"Node_958"
  type:"clip"
  top:"Node_958"
  bottom:"Node_957"
  layer_param {
    idx:958
    in_0 {name:"Node_957:0",dtype:float32,shape:[256, 128, 3, 3]}
    out_0 {name:"Node_958:0",dtype:float32,shape:[256, 128, 3, 3]}
    attrs {'a_min': -127.0, 'a_max': 127.0}
  }
}
layer {
  name:"Node_959"
  type:"cast"
  top:"Node_959"
  bottom:"Node_958"
  layer_param {
    idx:959
    in_0 {name:"Node_958:0",dtype:float32,shape:[256, 128, 3, 3]}
    out_0 {name:"Node_959:0",dtype:int8,shape:[256, 128, 3, 3]}
    attrs {'dtype': 'int8'}
  }
}
layer {
  name:"Node_960"
  type:"nn_conv2d"
  top:"Node_960"
  bottom:"Node_949"
  bottom:"Node_959"
  layer_param {
    idx:960
    in_0 {name:"Node_949:0",dtype:int8,shape:[1, 128, 28, 28]}
    in_1 {name:"Node_959:0",dtype:int8,shape:[256, 128, 3, 3]}
    out_0 {name:"Node_960:0",dtype:int32,shape:[1, 256, 14, 14]}
    attrs {'strides': [2, 2], 'padding': [1, 1, 1, 1], 'dilation': [1, 1], 'groups': 1, 'channels': 256, 'kernel_size': [3, 3], 'data_layout': 'NCHW', 'kernel_layout': 'OIHW', 'out_layout': '', 'out_dtype': 'int32'}
  }
}
layer {
  name:"Node_961"
  type:"cast"
  top:"Node_961"
  bottom:"Node_960"
  layer_param {
    idx:961
    in_0 {name:"Node_960:0",dtype:int32,shape:[1, 256, 14, 14]}
    out_0 {name:"Node_961:0",dtype:int64,shape:[1, 256, 14, 14]}
    attrs {'dtype': 'int64'}
  }
}
layer {
  name:"Node_962"
  type:"fixed_point_multiply"
  top:"Node_962"
  bottom:"Node_961"
  layer_param {
    idx:962
    in_0 {name:"Node_961:0",dtype:int64,shape:[1, 256, 14, 14]}
    out_0 {name:"Node_962:0",dtype:int64,shape:[1, 256, 14, 14]}
  }
}
layer {
  name:"Node_963"
  type:"clip"
  top:"Node_963"
  bottom:"Node_962"
  layer_param {
    idx:963
    in_0 {name:"Node_962:0",dtype:int64,shape:[1, 256, 14, 14]}
    out_0 {name:"Node_963:0",dtype:int64,shape:[1, 256, 14, 14]}
    attrs {'a_min': -127.0, 'a_max': 127.0}
  }
}
layer {
  name:"Node_964"
  type:"cast"
  top:"Node_964"
  bottom:"Node_963"
  layer_param {
    idx:964
    in_0 {name:"Node_963:0",dtype:int64,shape:[1, 256, 14, 14]}
    out_0 {name:"Node_964:0",dtype:int32,shape:[1, 256, 14, 14]}
    attrs {'dtype': 'int32'}
  }
}
layer {
  name:"Node_965"
  type:"cast"
  top:"Node_965"
  bottom:"Node_964"
  layer_param {
    idx:965
    in_0 {name:"Node_964:0",dtype:int32,shape:[1, 256, 14, 14]}
    out_0 {name:"Node_965:0",dtype:int8,shape:[1, 256, 14, 14]}
    attrs {'dtype': 'int8'}
  }
}
layer {
  name:"Node_966"
  type:"annotation_stop_fusion"
  top:"Node_966"
  bottom:"Node_965"
  layer_param {
    idx:966
    in_0 {name:"Node_965:0",dtype:int8,shape:[1, 256, 14, 14]}
    out_0 {name:"Node_966:0",dtype:int8,shape:[1, 256, 14, 14]}
  }
}
layer {
  name:"Node_967"
  type:"cast"
  top:"Node_967"
  bottom:"Node_966"
  layer_param {
    idx:967
    in_0 {name:"Node_966:0",dtype:int8,shape:[1, 256, 14, 14]}
    out_0 {name:"Node_967:0",dtype:int32,shape:[1, 256, 14, 14]}
    attrs {'dtype': 'int32'}
  }
}
layer {
  name:"Node_972"
  type:"const"
  top:"Node_972"
  layer_param {
    idx:972
    out_0 {name:"Node_972:0",dtype:float32,shape:[256, 1, 1]}
  }
}
layer {
  name:"Node_973"
  type:"const"
  top:"Node_973"
  layer_param {
    idx:973
    out_0 {name:"Node_973:0",dtype:float32,shape:[]}
  }
}
layer {
  name:"Node_974"
  type:"multiply"
  top:"Node_974"
  bottom:"Node_972"
  bottom:"Node_973"
  layer_param {
    idx:974
    in_0 {name:"Node_972:0",dtype:float32,shape:[256, 1, 1]}
    in_1 {name:"Node_973:0",dtype:float32,shape:[]}
    out_0 {name:"Node_974:0",dtype:float32,shape:[256, 1, 1]}
  }
}
layer {
  name:"Node_975"
  type:"round"
  top:"Node_975"
  bottom:"Node_974"
  layer_param {
    idx:975
    in_0 {name:"Node_974:0",dtype:float32,shape:[256, 1, 1]}
    out_0 {name:"Node_975:0",dtype:float32,shape:[256, 1, 1]}
  }
}
layer {
  name:"Node_976"
  type:"clip"
  top:"Node_976"
  bottom:"Node_975"
  layer_param {
    idx:976
    in_0 {name:"Node_975:0",dtype:float32,shape:[256, 1, 1]}
    out_0 {name:"Node_976:0",dtype:float32,shape:[256, 1, 1]}
    attrs {'a_min': -127.0, 'a_max': 127.0}
  }
}
layer {
  name:"Node_977"
  type:"cast"
  top:"Node_977"
  bottom:"Node_976"
  layer_param {
    idx:977
    in_0 {name:"Node_976:0",dtype:float32,shape:[256, 1, 1]}
    out_0 {name:"Node_977:0",dtype:int32,shape:[256, 1, 1]}
    attrs {'dtype': 'int32'}
  }
}
layer {
  name:"Node_978"
  type:"multiply"
  top:"Node_978"
  bottom:"Node_967"
  bottom:"Node_977"
  layer_param {
    idx:978
    in_0 {name:"Node_967:0",dtype:int32,shape:[1, 256, 14, 14]}
    in_1 {name:"Node_977:0",dtype:int32,shape:[256, 1, 1]}
    out_0 {name:"Node_978:0",dtype:int32,shape:[1, 256, 14, 14]}
  }
}
layer {
  name:"Node_986"
  type:"const"
  top:"Node_986"
  layer_param {
    idx:986
    out_0 {name:"Node_986:0",dtype:float32,shape:[256, 1, 1]}
  }
}
layer {
  name:"Node_987"
  type:"const"
  top:"Node_987"
  layer_param {
    idx:987
    out_0 {name:"Node_987:0",dtype:float32,shape:[]}
  }
}
layer {
  name:"Node_988"
  type:"multiply"
  top:"Node_988"
  bottom:"Node_986"
  bottom:"Node_987"
  layer_param {
    idx:988
    in_0 {name:"Node_986:0",dtype:float32,shape:[256, 1, 1]}
    in_1 {name:"Node_987:0",dtype:float32,shape:[]}
    out_0 {name:"Node_988:0",dtype:float32,shape:[256, 1, 1]}
  }
}
layer {
  name:"Node_989"
  type:"round"
  top:"Node_989"
  bottom:"Node_988"
  layer_param {
    idx:989
    in_0 {name:"Node_988:0",dtype:float32,shape:[256, 1, 1]}
    out_0 {name:"Node_989:0",dtype:float32,shape:[256, 1, 1]}
  }
}
layer {
  name:"Node_990"
  type:"clip"
  top:"Node_990"
  bottom:"Node_989"
  layer_param {
    idx:990
    in_0 {name:"Node_989:0",dtype:float32,shape:[256, 1, 1]}
    out_0 {name:"Node_990:0",dtype:float32,shape:[256, 1, 1]}
    attrs {'a_min': -127.0, 'a_max': 127.0}
  }
}
layer {
  name:"Node_991"
  type:"cast"
  top:"Node_991"
  bottom:"Node_990"
  layer_param {
    idx:991
    in_0 {name:"Node_990:0",dtype:float32,shape:[256, 1, 1]}
    out_0 {name:"Node_991:0",dtype:int32,shape:[256, 1, 1]}
    attrs {'dtype': 'int32'}
  }
}
layer {
  name:"Node_992"
  type:"fixed_point_multiply"
  top:"Node_992"
  bottom:"Node_991"
  layer_param {
    idx:992
    in_0 {name:"Node_991:0",dtype:int32,shape:[256, 1, 1]}
    out_0 {name:"Node_992:0",dtype:int32,shape:[256, 1, 1]}
  }
}
layer {
  name:"Node_993"
  type:"cast"
  top:"Node_993"
  bottom:"Node_992"
  layer_param {
    idx:993
    in_0 {name:"Node_992:0",dtype:int32,shape:[256, 1, 1]}
    out_0 {name:"Node_993:0",dtype:int32,shape:[256, 1, 1]}
    attrs {'dtype': 'int32'}
  }
}
layer {
  name:"Node_994"
  type:"annotation_stop_fusion"
  top:"Node_994"
  bottom:"Node_993"
  layer_param {
    idx:994
    in_0 {name:"Node_993:0",dtype:int32,shape:[256, 1, 1]}
    out_0 {name:"Node_994:0",dtype:int32,shape:[256, 1, 1]}
  }
}
layer {
  name:"Node_995"
  type:"add"
  top:"Node_995"
  bottom:"Node_978"
  bottom:"Node_994"
  layer_param {
    idx:995
    in_0 {name:"Node_978:0",dtype:int32,shape:[1, 256, 14, 14]}
    in_1 {name:"Node_994:0",dtype:int32,shape:[256, 1, 1]}
    out_0 {name:"Node_995:0",dtype:int32,shape:[1, 256, 14, 14]}
  }
}
layer {
  name:"Node_996"
  type:"nn_relu"
  top:"Node_996"
  bottom:"Node_995"
  layer_param {
    idx:996
    in_0 {name:"Node_995:0",dtype:int32,shape:[1, 256, 14, 14]}
    out_0 {name:"Node_996:0",dtype:int32,shape:[1, 256, 14, 14]}
  }
}
layer {
  name:"Node_997"
  type:"cast"
  top:"Node_997"
  bottom:"Node_996"
  layer_param {
    idx:997
    in_0 {name:"Node_996:0",dtype:int32,shape:[1, 256, 14, 14]}
    out_0 {name:"Node_997:0",dtype:int64,shape:[1, 256, 14, 14]}
    attrs {'dtype': 'int64'}
  }
}
layer {
  name:"Node_998"
  type:"fixed_point_multiply"
  top:"Node_998"
  bottom:"Node_997"
  layer_param {
    idx:998
    in_0 {name:"Node_997:0",dtype:int64,shape:[1, 256, 14, 14]}
    out_0 {name:"Node_998:0",dtype:int64,shape:[1, 256, 14, 14]}
  }
}
layer {
  name:"Node_999"
  type:"clip"
  top:"Node_999"
  bottom:"Node_998"
  layer_param {
    idx:999
    in_0 {name:"Node_998:0",dtype:int64,shape:[1, 256, 14, 14]}
    out_0 {name:"Node_999:0",dtype:int64,shape:[1, 256, 14, 14]}
    attrs {'a_min': -127.0, 'a_max': 127.0}
  }
}
layer {
  name:"Node_1000"
  type:"cast"
  top:"Node_1000"
  bottom:"Node_999"
  layer_param {
    idx:1000
    in_0 {name:"Node_999:0",dtype:int64,shape:[1, 256, 14, 14]}
    out_0 {name:"Node_1000:0",dtype:int32,shape:[1, 256, 14, 14]}
    attrs {'dtype': 'int32'}
  }
}
layer {
  name:"Node_1001"
  type:"cast"
  top:"Node_1001"
  bottom:"Node_1000"
  layer_param {
    idx:1001
    in_0 {name:"Node_1000:0",dtype:int32,shape:[1, 256, 14, 14]}
    out_0 {name:"Node_1001:0",dtype:int8,shape:[1, 256, 14, 14]}
    attrs {'dtype': 'int8'}
  }
}
layer {
  name:"Node_1002"
  type:"annotation_stop_fusion"
  top:"Node_1002"
  bottom:"Node_1001"
  layer_param {
    idx:1002
    in_0 {name:"Node_1001:0",dtype:int8,shape:[1, 256, 14, 14]}
    out_0 {name:"Node_1002:0",dtype:int8,shape:[1, 256, 14, 14]}
  }
}
layer {
  name:"Node_1007"
  type:"const"
  top:"Node_1007"
  layer_param {
    idx:1007
    out_0 {name:"Node_1007:0",dtype:float32,shape:[256, 256, 3, 3]}
  }
}
layer {
  name:"Node_1008"
  type:"const"
  top:"Node_1008"
  layer_param {
    idx:1008
    out_0 {name:"Node_1008:0",dtype:float32,shape:[]}
  }
}
layer {
  name:"Node_1009"
  type:"multiply"
  top:"Node_1009"
  bottom:"Node_1007"
  bottom:"Node_1008"
  layer_param {
    idx:1009
    in_0 {name:"Node_1007:0",dtype:float32,shape:[256, 256, 3, 3]}
    in_1 {name:"Node_1008:0",dtype:float32,shape:[]}
    out_0 {name:"Node_1009:0",dtype:float32,shape:[256, 256, 3, 3]}
  }
}
layer {
  name:"Node_1010"
  type:"round"
  top:"Node_1010"
  bottom:"Node_1009"
  layer_param {
    idx:1010
    in_0 {name:"Node_1009:0",dtype:float32,shape:[256, 256, 3, 3]}
    out_0 {name:"Node_1010:0",dtype:float32,shape:[256, 256, 3, 3]}
  }
}
layer {
  name:"Node_1011"
  type:"clip"
  top:"Node_1011"
  bottom:"Node_1010"
  layer_param {
    idx:1011
    in_0 {name:"Node_1010:0",dtype:float32,shape:[256, 256, 3, 3]}
    out_0 {name:"Node_1011:0",dtype:float32,shape:[256, 256, 3, 3]}
    attrs {'a_min': -127.0, 'a_max': 127.0}
  }
}
layer {
  name:"Node_1012"
  type:"cast"
  top:"Node_1012"
  bottom:"Node_1011"
  layer_param {
    idx:1012
    in_0 {name:"Node_1011:0",dtype:float32,shape:[256, 256, 3, 3]}
    out_0 {name:"Node_1012:0",dtype:int8,shape:[256, 256, 3, 3]}
    attrs {'dtype': 'int8'}
  }
}
layer {
  name:"Node_1013"
  type:"nn_conv2d"
  top:"Node_1013"
  bottom:"Node_1002"
  bottom:"Node_1012"
  layer_param {
    idx:1013
    in_0 {name:"Node_1002:0",dtype:int8,shape:[1, 256, 14, 14]}
    in_1 {name:"Node_1012:0",dtype:int8,shape:[256, 256, 3, 3]}
    out_0 {name:"Node_1013:0",dtype:int32,shape:[1, 256, 14, 14]}
    attrs {'strides': [1, 1], 'padding': [1, 1, 1, 1], 'dilation': [1, 1], 'groups': 1, 'channels': 256, 'kernel_size': [3, 3], 'data_layout': 'NCHW', 'kernel_layout': 'OIHW', 'out_layout': '', 'out_dtype': 'int32'}
  }
}
layer {
  name:"Node_1014"
  type:"cast"
  top:"Node_1014"
  bottom:"Node_1013"
  layer_param {
    idx:1014
    in_0 {name:"Node_1013:0",dtype:int32,shape:[1, 256, 14, 14]}
    out_0 {name:"Node_1014:0",dtype:int64,shape:[1, 256, 14, 14]}
    attrs {'dtype': 'int64'}
  }
}
layer {
  name:"Node_1015"
  type:"fixed_point_multiply"
  top:"Node_1015"
  bottom:"Node_1014"
  layer_param {
    idx:1015
    in_0 {name:"Node_1014:0",dtype:int64,shape:[1, 256, 14, 14]}
    out_0 {name:"Node_1015:0",dtype:int64,shape:[1, 256, 14, 14]}
  }
}
layer {
  name:"Node_1016"
  type:"clip"
  top:"Node_1016"
  bottom:"Node_1015"
  layer_param {
    idx:1016
    in_0 {name:"Node_1015:0",dtype:int64,shape:[1, 256, 14, 14]}
    out_0 {name:"Node_1016:0",dtype:int64,shape:[1, 256, 14, 14]}
    attrs {'a_min': -127.0, 'a_max': 127.0}
  }
}
layer {
  name:"Node_1017"
  type:"cast"
  top:"Node_1017"
  bottom:"Node_1016"
  layer_param {
    idx:1017
    in_0 {name:"Node_1016:0",dtype:int64,shape:[1, 256, 14, 14]}
    out_0 {name:"Node_1017:0",dtype:int32,shape:[1, 256, 14, 14]}
    attrs {'dtype': 'int32'}
  }
}
layer {
  name:"Node_1018"
  type:"cast"
  top:"Node_1018"
  bottom:"Node_1017"
  layer_param {
    idx:1018
    in_0 {name:"Node_1017:0",dtype:int32,shape:[1, 256, 14, 14]}
    out_0 {name:"Node_1018:0",dtype:int8,shape:[1, 256, 14, 14]}
    attrs {'dtype': 'int8'}
  }
}
layer {
  name:"Node_1019"
  type:"annotation_stop_fusion"
  top:"Node_1019"
  bottom:"Node_1018"
  layer_param {
    idx:1019
    in_0 {name:"Node_1018:0",dtype:int8,shape:[1, 256, 14, 14]}
    out_0 {name:"Node_1019:0",dtype:int8,shape:[1, 256, 14, 14]}
  }
}
layer {
  name:"Node_1020"
  type:"cast"
  top:"Node_1020"
  bottom:"Node_1019"
  layer_param {
    idx:1020
    in_0 {name:"Node_1019:0",dtype:int8,shape:[1, 256, 14, 14]}
    out_0 {name:"Node_1020:0",dtype:int32,shape:[1, 256, 14, 14]}
    attrs {'dtype': 'int32'}
  }
}
layer {
  name:"Node_1025"
  type:"const"
  top:"Node_1025"
  layer_param {
    idx:1025
    out_0 {name:"Node_1025:0",dtype:float32,shape:[256, 1, 1]}
  }
}
layer {
  name:"Node_1026"
  type:"const"
  top:"Node_1026"
  layer_param {
    idx:1026
    out_0 {name:"Node_1026:0",dtype:float32,shape:[]}
  }
}
layer {
  name:"Node_1027"
  type:"multiply"
  top:"Node_1027"
  bottom:"Node_1025"
  bottom:"Node_1026"
  layer_param {
    idx:1027
    in_0 {name:"Node_1025:0",dtype:float32,shape:[256, 1, 1]}
    in_1 {name:"Node_1026:0",dtype:float32,shape:[]}
    out_0 {name:"Node_1027:0",dtype:float32,shape:[256, 1, 1]}
  }
}
layer {
  name:"Node_1028"
  type:"round"
  top:"Node_1028"
  bottom:"Node_1027"
  layer_param {
    idx:1028
    in_0 {name:"Node_1027:0",dtype:float32,shape:[256, 1, 1]}
    out_0 {name:"Node_1028:0",dtype:float32,shape:[256, 1, 1]}
  }
}
layer {
  name:"Node_1029"
  type:"clip"
  top:"Node_1029"
  bottom:"Node_1028"
  layer_param {
    idx:1029
    in_0 {name:"Node_1028:0",dtype:float32,shape:[256, 1, 1]}
    out_0 {name:"Node_1029:0",dtype:float32,shape:[256, 1, 1]}
    attrs {'a_min': -127.0, 'a_max': 127.0}
  }
}
layer {
  name:"Node_1030"
  type:"cast"
  top:"Node_1030"
  bottom:"Node_1029"
  layer_param {
    idx:1030
    in_0 {name:"Node_1029:0",dtype:float32,shape:[256, 1, 1]}
    out_0 {name:"Node_1030:0",dtype:int32,shape:[256, 1, 1]}
    attrs {'dtype': 'int32'}
  }
}
layer {
  name:"Node_1031"
  type:"multiply"
  top:"Node_1031"
  bottom:"Node_1020"
  bottom:"Node_1030"
  layer_param {
    idx:1031
    in_0 {name:"Node_1020:0",dtype:int32,shape:[1, 256, 14, 14]}
    in_1 {name:"Node_1030:0",dtype:int32,shape:[256, 1, 1]}
    out_0 {name:"Node_1031:0",dtype:int32,shape:[1, 256, 14, 14]}
  }
}
layer {
  name:"Node_1039"
  type:"const"
  top:"Node_1039"
  layer_param {
    idx:1039
    out_0 {name:"Node_1039:0",dtype:float32,shape:[256, 1, 1]}
  }
}
layer {
  name:"Node_1040"
  type:"const"
  top:"Node_1040"
  layer_param {
    idx:1040
    out_0 {name:"Node_1040:0",dtype:float32,shape:[]}
  }
}
layer {
  name:"Node_1041"
  type:"multiply"
  top:"Node_1041"
  bottom:"Node_1039"
  bottom:"Node_1040"
  layer_param {
    idx:1041
    in_0 {name:"Node_1039:0",dtype:float32,shape:[256, 1, 1]}
    in_1 {name:"Node_1040:0",dtype:float32,shape:[]}
    out_0 {name:"Node_1041:0",dtype:float32,shape:[256, 1, 1]}
  }
}
layer {
  name:"Node_1042"
  type:"round"
  top:"Node_1042"
  bottom:"Node_1041"
  layer_param {
    idx:1042
    in_0 {name:"Node_1041:0",dtype:float32,shape:[256, 1, 1]}
    out_0 {name:"Node_1042:0",dtype:float32,shape:[256, 1, 1]}
  }
}
layer {
  name:"Node_1043"
  type:"clip"
  top:"Node_1043"
  bottom:"Node_1042"
  layer_param {
    idx:1043
    in_0 {name:"Node_1042:0",dtype:float32,shape:[256, 1, 1]}
    out_0 {name:"Node_1043:0",dtype:float32,shape:[256, 1, 1]}
    attrs {'a_min': -127.0, 'a_max': 127.0}
  }
}
layer {
  name:"Node_1044"
  type:"cast"
  top:"Node_1044"
  bottom:"Node_1043"
  layer_param {
    idx:1044
    in_0 {name:"Node_1043:0",dtype:float32,shape:[256, 1, 1]}
    out_0 {name:"Node_1044:0",dtype:int32,shape:[256, 1, 1]}
    attrs {'dtype': 'int32'}
  }
}
layer {
  name:"Node_1045"
  type:"fixed_point_multiply"
  top:"Node_1045"
  bottom:"Node_1044"
  layer_param {
    idx:1045
    in_0 {name:"Node_1044:0",dtype:int32,shape:[256, 1, 1]}
    out_0 {name:"Node_1045:0",dtype:int32,shape:[256, 1, 1]}
  }
}
layer {
  name:"Node_1046"
  type:"cast"
  top:"Node_1046"
  bottom:"Node_1045"
  layer_param {
    idx:1046
    in_0 {name:"Node_1045:0",dtype:int32,shape:[256, 1, 1]}
    out_0 {name:"Node_1046:0",dtype:int32,shape:[256, 1, 1]}
    attrs {'dtype': 'int32'}
  }
}
layer {
  name:"Node_1047"
  type:"annotation_stop_fusion"
  top:"Node_1047"
  bottom:"Node_1046"
  layer_param {
    idx:1047
    in_0 {name:"Node_1046:0",dtype:int32,shape:[256, 1, 1]}
    out_0 {name:"Node_1047:0",dtype:int32,shape:[256, 1, 1]}
  }
}
layer {
  name:"Node_1048"
  type:"add"
  top:"Node_1048"
  bottom:"Node_1031"
  bottom:"Node_1047"
  layer_param {
    idx:1048
    in_0 {name:"Node_1031:0",dtype:int32,shape:[1, 256, 14, 14]}
    in_1 {name:"Node_1047:0",dtype:int32,shape:[256, 1, 1]}
    out_0 {name:"Node_1048:0",dtype:int32,shape:[1, 256, 14, 14]}
  }
}
layer {
  name:"Node_1049"
  type:"cast"
  top:"Node_1049"
  bottom:"Node_1048"
  layer_param {
    idx:1049
    in_0 {name:"Node_1048:0",dtype:int32,shape:[1, 256, 14, 14]}
    out_0 {name:"Node_1049:0",dtype:int64,shape:[1, 256, 14, 14]}
    attrs {'dtype': 'int64'}
  }
}
layer {
  name:"Node_1050"
  type:"fixed_point_multiply"
  top:"Node_1050"
  bottom:"Node_1049"
  layer_param {
    idx:1050
    in_0 {name:"Node_1049:0",dtype:int64,shape:[1, 256, 14, 14]}
    out_0 {name:"Node_1050:0",dtype:int64,shape:[1, 256, 14, 14]}
  }
}
layer {
  name:"Node_1051"
  type:"clip"
  top:"Node_1051"
  bottom:"Node_1050"
  layer_param {
    idx:1051
    in_0 {name:"Node_1050:0",dtype:int64,shape:[1, 256, 14, 14]}
    out_0 {name:"Node_1051:0",dtype:int64,shape:[1, 256, 14, 14]}
    attrs {'a_min': -127.0, 'a_max': 127.0}
  }
}
layer {
  name:"Node_1052"
  type:"cast"
  top:"Node_1052"
  bottom:"Node_1051"
  layer_param {
    idx:1052
    in_0 {name:"Node_1051:0",dtype:int64,shape:[1, 256, 14, 14]}
    out_0 {name:"Node_1052:0",dtype:int32,shape:[1, 256, 14, 14]}
    attrs {'dtype': 'int32'}
  }
}
layer {
  name:"Node_1053"
  type:"cast"
  top:"Node_1053"
  bottom:"Node_1052"
  layer_param {
    idx:1053
    in_0 {name:"Node_1052:0",dtype:int32,shape:[1, 256, 14, 14]}
    out_0 {name:"Node_1053:0",dtype:int8,shape:[1, 256, 14, 14]}
    attrs {'dtype': 'int8'}
  }
}
layer {
  name:"Node_1054"
  type:"annotation_stop_fusion"
  top:"Node_1054"
  bottom:"Node_1053"
  layer_param {
    idx:1054
    in_0 {name:"Node_1053:0",dtype:int8,shape:[1, 256, 14, 14]}
    out_0 {name:"Node_1054:0",dtype:int8,shape:[1, 256, 14, 14]}
  }
}
layer {
  name:"Node_1055"
  type:"cast"
  top:"Node_1055"
  bottom:"Node_1054"
  layer_param {
    idx:1055
    in_0 {name:"Node_1054:0",dtype:int8,shape:[1, 256, 14, 14]}
    out_0 {name:"Node_1055:0",dtype:int32,shape:[1, 256, 14, 14]}
    attrs {'dtype': 'int32'}
  }
}
layer {
  name:"Node_1056"
  type:"fixed_point_multiply"
  top:"Node_1056"
  bottom:"Node_1055"
  layer_param {
    idx:1056
    in_0 {name:"Node_1055:0",dtype:int32,shape:[1, 256, 14, 14]}
    out_0 {name:"Node_1056:0",dtype:int32,shape:[1, 256, 14, 14]}
  }
}
layer {
  name:"Node_1057"
  type:"cast"
  top:"Node_1057"
  bottom:"Node_1056"
  layer_param {
    idx:1057
    in_0 {name:"Node_1056:0",dtype:int32,shape:[1, 256, 14, 14]}
    out_0 {name:"Node_1057:0",dtype:int32,shape:[1, 256, 14, 14]}
    attrs {'dtype': 'int32'}
  }
}
layer {
  name:"Node_1078"
  type:"cast"
  top:"Node_1078"
  bottom:"Node_947"
  layer_param {
    idx:1078
    in_0 {name:"Node_947:0",dtype:int32,shape:[1, 128, 28, 28]}
    out_0 {name:"Node_1078:0",dtype:int8,shape:[1, 128, 28, 28]}
    attrs {'dtype': 'int8'}
  }
}
layer {
  name:"Node_1079"
  type:"annotation_stop_fusion"
  top:"Node_1079"
  bottom:"Node_1078"
  layer_param {
    idx:1079
    in_0 {name:"Node_1078:0",dtype:int8,shape:[1, 128, 28, 28]}
    out_0 {name:"Node_1079:0",dtype:int8,shape:[1, 128, 28, 28]}
  }
}
layer {
  name:"Node_1084"
  type:"const"
  top:"Node_1084"
  layer_param {
    idx:1084
    out_0 {name:"Node_1084:0",dtype:float32,shape:[256, 128, 1, 1]}
  }
}
layer {
  name:"Node_1085"
  type:"const"
  top:"Node_1085"
  layer_param {
    idx:1085
    out_0 {name:"Node_1085:0",dtype:float32,shape:[]}
  }
}
layer {
  name:"Node_1086"
  type:"multiply"
  top:"Node_1086"
  bottom:"Node_1084"
  bottom:"Node_1085"
  layer_param {
    idx:1086
    in_0 {name:"Node_1084:0",dtype:float32,shape:[256, 128, 1, 1]}
    in_1 {name:"Node_1085:0",dtype:float32,shape:[]}
    out_0 {name:"Node_1086:0",dtype:float32,shape:[256, 128, 1, 1]}
  }
}
layer {
  name:"Node_1087"
  type:"round"
  top:"Node_1087"
  bottom:"Node_1086"
  layer_param {
    idx:1087
    in_0 {name:"Node_1086:0",dtype:float32,shape:[256, 128, 1, 1]}
    out_0 {name:"Node_1087:0",dtype:float32,shape:[256, 128, 1, 1]}
  }
}
layer {
  name:"Node_1088"
  type:"clip"
  top:"Node_1088"
  bottom:"Node_1087"
  layer_param {
    idx:1088
    in_0 {name:"Node_1087:0",dtype:float32,shape:[256, 128, 1, 1]}
    out_0 {name:"Node_1088:0",dtype:float32,shape:[256, 128, 1, 1]}
    attrs {'a_min': -127.0, 'a_max': 127.0}
  }
}
layer {
  name:"Node_1089"
  type:"cast"
  top:"Node_1089"
  bottom:"Node_1088"
  layer_param {
    idx:1089
    in_0 {name:"Node_1088:0",dtype:float32,shape:[256, 128, 1, 1]}
    out_0 {name:"Node_1089:0",dtype:int8,shape:[256, 128, 1, 1]}
    attrs {'dtype': 'int8'}
  }
}
layer {
  name:"Node_1090"
  type:"nn_conv2d"
  top:"Node_1090"
  bottom:"Node_1079"
  bottom:"Node_1089"
  layer_param {
    idx:1090
    in_0 {name:"Node_1079:0",dtype:int8,shape:[1, 128, 28, 28]}
    in_1 {name:"Node_1089:0",dtype:int8,shape:[256, 128, 1, 1]}
    out_0 {name:"Node_1090:0",dtype:int32,shape:[1, 256, 14, 14]}
    attrs {'strides': [2, 2], 'padding': [0, 0, 0, 0], 'dilation': [1, 1], 'groups': 1, 'channels': 256, 'kernel_size': [1, 1], 'data_layout': 'NCHW', 'kernel_layout': 'OIHW', 'out_layout': '', 'out_dtype': 'int32'}
  }
}
layer {
  name:"Node_1091"
  type:"cast"
  top:"Node_1091"
  bottom:"Node_1090"
  layer_param {
    idx:1091
    in_0 {name:"Node_1090:0",dtype:int32,shape:[1, 256, 14, 14]}
    out_0 {name:"Node_1091:0",dtype:int64,shape:[1, 256, 14, 14]}
    attrs {'dtype': 'int64'}
  }
}
layer {
  name:"Node_1092"
  type:"fixed_point_multiply"
  top:"Node_1092"
  bottom:"Node_1091"
  layer_param {
    idx:1092
    in_0 {name:"Node_1091:0",dtype:int64,shape:[1, 256, 14, 14]}
    out_0 {name:"Node_1092:0",dtype:int64,shape:[1, 256, 14, 14]}
  }
}
layer {
  name:"Node_1093"
  type:"clip"
  top:"Node_1093"
  bottom:"Node_1092"
  layer_param {
    idx:1093
    in_0 {name:"Node_1092:0",dtype:int64,shape:[1, 256, 14, 14]}
    out_0 {name:"Node_1093:0",dtype:int64,shape:[1, 256, 14, 14]}
    attrs {'a_min': -127.0, 'a_max': 127.0}
  }
}
layer {
  name:"Node_1094"
  type:"cast"
  top:"Node_1094"
  bottom:"Node_1093"
  layer_param {
    idx:1094
    in_0 {name:"Node_1093:0",dtype:int64,shape:[1, 256, 14, 14]}
    out_0 {name:"Node_1094:0",dtype:int32,shape:[1, 256, 14, 14]}
    attrs {'dtype': 'int32'}
  }
}
layer {
  name:"Node_1095"
  type:"cast"
  top:"Node_1095"
  bottom:"Node_1094"
  layer_param {
    idx:1095
    in_0 {name:"Node_1094:0",dtype:int32,shape:[1, 256, 14, 14]}
    out_0 {name:"Node_1095:0",dtype:int8,shape:[1, 256, 14, 14]}
    attrs {'dtype': 'int8'}
  }
}
layer {
  name:"Node_1096"
  type:"annotation_stop_fusion"
  top:"Node_1096"
  bottom:"Node_1095"
  layer_param {
    idx:1096
    in_0 {name:"Node_1095:0",dtype:int8,shape:[1, 256, 14, 14]}
    out_0 {name:"Node_1096:0",dtype:int8,shape:[1, 256, 14, 14]}
  }
}
layer {
  name:"Node_1097"
  type:"cast"
  top:"Node_1097"
  bottom:"Node_1096"
  layer_param {
    idx:1097
    in_0 {name:"Node_1096:0",dtype:int8,shape:[1, 256, 14, 14]}
    out_0 {name:"Node_1097:0",dtype:int32,shape:[1, 256, 14, 14]}
    attrs {'dtype': 'int32'}
  }
}
layer {
  name:"Node_1102"
  type:"const"
  top:"Node_1102"
  layer_param {
    idx:1102
    out_0 {name:"Node_1102:0",dtype:float32,shape:[256, 1, 1]}
  }
}
layer {
  name:"Node_1103"
  type:"const"
  top:"Node_1103"
  layer_param {
    idx:1103
    out_0 {name:"Node_1103:0",dtype:float32,shape:[]}
  }
}
layer {
  name:"Node_1104"
  type:"multiply"
  top:"Node_1104"
  bottom:"Node_1102"
  bottom:"Node_1103"
  layer_param {
    idx:1104
    in_0 {name:"Node_1102:0",dtype:float32,shape:[256, 1, 1]}
    in_1 {name:"Node_1103:0",dtype:float32,shape:[]}
    out_0 {name:"Node_1104:0",dtype:float32,shape:[256, 1, 1]}
  }
}
layer {
  name:"Node_1105"
  type:"round"
  top:"Node_1105"
  bottom:"Node_1104"
  layer_param {
    idx:1105
    in_0 {name:"Node_1104:0",dtype:float32,shape:[256, 1, 1]}
    out_0 {name:"Node_1105:0",dtype:float32,shape:[256, 1, 1]}
  }
}
layer {
  name:"Node_1106"
  type:"clip"
  top:"Node_1106"
  bottom:"Node_1105"
  layer_param {
    idx:1106
    in_0 {name:"Node_1105:0",dtype:float32,shape:[256, 1, 1]}
    out_0 {name:"Node_1106:0",dtype:float32,shape:[256, 1, 1]}
    attrs {'a_min': -127.0, 'a_max': 127.0}
  }
}
layer {
  name:"Node_1107"
  type:"cast"
  top:"Node_1107"
  bottom:"Node_1106"
  layer_param {
    idx:1107
    in_0 {name:"Node_1106:0",dtype:float32,shape:[256, 1, 1]}
    out_0 {name:"Node_1107:0",dtype:int32,shape:[256, 1, 1]}
    attrs {'dtype': 'int32'}
  }
}
layer {
  name:"Node_1108"
  type:"multiply"
  top:"Node_1108"
  bottom:"Node_1097"
  bottom:"Node_1107"
  layer_param {
    idx:1108
    in_0 {name:"Node_1097:0",dtype:int32,shape:[1, 256, 14, 14]}
    in_1 {name:"Node_1107:0",dtype:int32,shape:[256, 1, 1]}
    out_0 {name:"Node_1108:0",dtype:int32,shape:[1, 256, 14, 14]}
  }
}
layer {
  name:"Node_1116"
  type:"const"
  top:"Node_1116"
  layer_param {
    idx:1116
    out_0 {name:"Node_1116:0",dtype:float32,shape:[256, 1, 1]}
  }
}
layer {
  name:"Node_1117"
  type:"const"
  top:"Node_1117"
  layer_param {
    idx:1117
    out_0 {name:"Node_1117:0",dtype:float32,shape:[]}
  }
}
layer {
  name:"Node_1118"
  type:"multiply"
  top:"Node_1118"
  bottom:"Node_1116"
  bottom:"Node_1117"
  layer_param {
    idx:1118
    in_0 {name:"Node_1116:0",dtype:float32,shape:[256, 1, 1]}
    in_1 {name:"Node_1117:0",dtype:float32,shape:[]}
    out_0 {name:"Node_1118:0",dtype:float32,shape:[256, 1, 1]}
  }
}
layer {
  name:"Node_1119"
  type:"round"
  top:"Node_1119"
  bottom:"Node_1118"
  layer_param {
    idx:1119
    in_0 {name:"Node_1118:0",dtype:float32,shape:[256, 1, 1]}
    out_0 {name:"Node_1119:0",dtype:float32,shape:[256, 1, 1]}
  }
}
layer {
  name:"Node_1120"
  type:"clip"
  top:"Node_1120"
  bottom:"Node_1119"
  layer_param {
    idx:1120
    in_0 {name:"Node_1119:0",dtype:float32,shape:[256, 1, 1]}
    out_0 {name:"Node_1120:0",dtype:float32,shape:[256, 1, 1]}
    attrs {'a_min': -127.0, 'a_max': 127.0}
  }
}
layer {
  name:"Node_1121"
  type:"cast"
  top:"Node_1121"
  bottom:"Node_1120"
  layer_param {
    idx:1121
    in_0 {name:"Node_1120:0",dtype:float32,shape:[256, 1, 1]}
    out_0 {name:"Node_1121:0",dtype:int32,shape:[256, 1, 1]}
    attrs {'dtype': 'int32'}
  }
}
layer {
  name:"Node_1122"
  type:"fixed_point_multiply"
  top:"Node_1122"
  bottom:"Node_1121"
  layer_param {
    idx:1122
    in_0 {name:"Node_1121:0",dtype:int32,shape:[256, 1, 1]}
    out_0 {name:"Node_1122:0",dtype:int32,shape:[256, 1, 1]}
  }
}
layer {
  name:"Node_1123"
  type:"cast"
  top:"Node_1123"
  bottom:"Node_1122"
  layer_param {
    idx:1123
    in_0 {name:"Node_1122:0",dtype:int32,shape:[256, 1, 1]}
    out_0 {name:"Node_1123:0",dtype:int32,shape:[256, 1, 1]}
    attrs {'dtype': 'int32'}
  }
}
layer {
  name:"Node_1124"
  type:"annotation_stop_fusion"
  top:"Node_1124"
  bottom:"Node_1123"
  layer_param {
    idx:1124
    in_0 {name:"Node_1123:0",dtype:int32,shape:[256, 1, 1]}
    out_0 {name:"Node_1124:0",dtype:int32,shape:[256, 1, 1]}
  }
}
layer {
  name:"Node_1125"
  type:"add"
  top:"Node_1125"
  bottom:"Node_1108"
  bottom:"Node_1124"
  layer_param {
    idx:1125
    in_0 {name:"Node_1108:0",dtype:int32,shape:[1, 256, 14, 14]}
    in_1 {name:"Node_1124:0",dtype:int32,shape:[256, 1, 1]}
    out_0 {name:"Node_1125:0",dtype:int32,shape:[1, 256, 14, 14]}
  }
}
layer {
  name:"Node_1126"
  type:"cast"
  top:"Node_1126"
  bottom:"Node_1125"
  layer_param {
    idx:1126
    in_0 {name:"Node_1125:0",dtype:int32,shape:[1, 256, 14, 14]}
    out_0 {name:"Node_1126:0",dtype:int64,shape:[1, 256, 14, 14]}
    attrs {'dtype': 'int64'}
  }
}
layer {
  name:"Node_1127"
  type:"fixed_point_multiply"
  top:"Node_1127"
  bottom:"Node_1126"
  layer_param {
    idx:1127
    in_0 {name:"Node_1126:0",dtype:int64,shape:[1, 256, 14, 14]}
    out_0 {name:"Node_1127:0",dtype:int64,shape:[1, 256, 14, 14]}
  }
}
layer {
  name:"Node_1128"
  type:"clip"
  top:"Node_1128"
  bottom:"Node_1127"
  layer_param {
    idx:1128
    in_0 {name:"Node_1127:0",dtype:int64,shape:[1, 256, 14, 14]}
    out_0 {name:"Node_1128:0",dtype:int64,shape:[1, 256, 14, 14]}
    attrs {'a_min': -127.0, 'a_max': 127.0}
  }
}
layer {
  name:"Node_1129"
  type:"cast"
  top:"Node_1129"
  bottom:"Node_1128"
  layer_param {
    idx:1129
    in_0 {name:"Node_1128:0",dtype:int64,shape:[1, 256, 14, 14]}
    out_0 {name:"Node_1129:0",dtype:int32,shape:[1, 256, 14, 14]}
    attrs {'dtype': 'int32'}
  }
}
layer {
  name:"Node_1130"
  type:"cast"
  top:"Node_1130"
  bottom:"Node_1129"
  layer_param {
    idx:1130
    in_0 {name:"Node_1129:0",dtype:int32,shape:[1, 256, 14, 14]}
    out_0 {name:"Node_1130:0",dtype:int8,shape:[1, 256, 14, 14]}
    attrs {'dtype': 'int8'}
  }
}
layer {
  name:"Node_1131"
  type:"annotation_stop_fusion"
  top:"Node_1131"
  bottom:"Node_1130"
  layer_param {
    idx:1131
    in_0 {name:"Node_1130:0",dtype:int8,shape:[1, 256, 14, 14]}
    out_0 {name:"Node_1131:0",dtype:int8,shape:[1, 256, 14, 14]}
  }
}
layer {
  name:"Node_1132"
  type:"cast"
  top:"Node_1132"
  bottom:"Node_1131"
  layer_param {
    idx:1132
    in_0 {name:"Node_1131:0",dtype:int8,shape:[1, 256, 14, 14]}
    out_0 {name:"Node_1132:0",dtype:int32,shape:[1, 256, 14, 14]}
    attrs {'dtype': 'int32'}
  }
}
layer {
  name:"Node_1133"
  type:"add"
  top:"Node_1133"
  bottom:"Node_1057"
  bottom:"Node_1132"
  layer_param {
    idx:1133
    in_0 {name:"Node_1057:0",dtype:int32,shape:[1, 256, 14, 14]}
    in_1 {name:"Node_1132:0",dtype:int32,shape:[1, 256, 14, 14]}
    out_0 {name:"Node_1133:0",dtype:int32,shape:[1, 256, 14, 14]}
  }
}
layer {
  name:"Node_1134"
  type:"nn_relu"
  top:"Node_1134"
  bottom:"Node_1133"
  layer_param {
    idx:1134
    in_0 {name:"Node_1133:0",dtype:int32,shape:[1, 256, 14, 14]}
    out_0 {name:"Node_1134:0",dtype:int32,shape:[1, 256, 14, 14]}
  }
}
layer {
  name:"Node_1135"
  type:"cast"
  top:"Node_1135"
  bottom:"Node_1134"
  layer_param {
    idx:1135
    in_0 {name:"Node_1134:0",dtype:int32,shape:[1, 256, 14, 14]}
    out_0 {name:"Node_1135:0",dtype:int64,shape:[1, 256, 14, 14]}
    attrs {'dtype': 'int64'}
  }
}
layer {
  name:"Node_1136"
  type:"fixed_point_multiply"
  top:"Node_1136"
  bottom:"Node_1135"
  layer_param {
    idx:1136
    in_0 {name:"Node_1135:0",dtype:int64,shape:[1, 256, 14, 14]}
    out_0 {name:"Node_1136:0",dtype:int64,shape:[1, 256, 14, 14]}
  }
}
layer {
  name:"Node_1137"
  type:"clip"
  top:"Node_1137"
  bottom:"Node_1136"
  layer_param {
    idx:1137
    in_0 {name:"Node_1136:0",dtype:int64,shape:[1, 256, 14, 14]}
    out_0 {name:"Node_1137:0",dtype:int64,shape:[1, 256, 14, 14]}
    attrs {'a_min': -127.0, 'a_max': 127.0}
  }
}
layer {
  name:"Node_1138"
  type:"cast"
  top:"Node_1138"
  bottom:"Node_1137"
  layer_param {
    idx:1138
    in_0 {name:"Node_1137:0",dtype:int64,shape:[1, 256, 14, 14]}
    out_0 {name:"Node_1138:0",dtype:int32,shape:[1, 256, 14, 14]}
    attrs {'dtype': 'int32'}
  }
}
layer {
  name:"Node_1139"
  type:"cast"
  top:"Node_1139"
  bottom:"Node_1138"
  layer_param {
    idx:1139
    in_0 {name:"Node_1138:0",dtype:int32,shape:[1, 256, 14, 14]}
    out_0 {name:"Node_1139:0",dtype:int8,shape:[1, 256, 14, 14]}
    attrs {'dtype': 'int8'}
  }
}
layer {
  name:"Node_1140"
  type:"annotation_stop_fusion"
  top:"Node_1140"
  bottom:"Node_1139"
  layer_param {
    idx:1140
    in_0 {name:"Node_1139:0",dtype:int8,shape:[1, 256, 14, 14]}
    out_0 {name:"Node_1140:0",dtype:int8,shape:[1, 256, 14, 14]}
  }
}
layer {
  name:"Node_1145"
  type:"const"
  top:"Node_1145"
  layer_param {
    idx:1145
    out_0 {name:"Node_1145:0",dtype:float32,shape:[256, 256, 3, 3]}
  }
}
layer {
  name:"Node_1146"
  type:"const"
  top:"Node_1146"
  layer_param {
    idx:1146
    out_0 {name:"Node_1146:0",dtype:float32,shape:[]}
  }
}
layer {
  name:"Node_1147"
  type:"multiply"
  top:"Node_1147"
  bottom:"Node_1145"
  bottom:"Node_1146"
  layer_param {
    idx:1147
    in_0 {name:"Node_1145:0",dtype:float32,shape:[256, 256, 3, 3]}
    in_1 {name:"Node_1146:0",dtype:float32,shape:[]}
    out_0 {name:"Node_1147:0",dtype:float32,shape:[256, 256, 3, 3]}
  }
}
layer {
  name:"Node_1148"
  type:"round"
  top:"Node_1148"
  bottom:"Node_1147"
  layer_param {
    idx:1148
    in_0 {name:"Node_1147:0",dtype:float32,shape:[256, 256, 3, 3]}
    out_0 {name:"Node_1148:0",dtype:float32,shape:[256, 256, 3, 3]}
  }
}
layer {
  name:"Node_1149"
  type:"clip"
  top:"Node_1149"
  bottom:"Node_1148"
  layer_param {
    idx:1149
    in_0 {name:"Node_1148:0",dtype:float32,shape:[256, 256, 3, 3]}
    out_0 {name:"Node_1149:0",dtype:float32,shape:[256, 256, 3, 3]}
    attrs {'a_min': -127.0, 'a_max': 127.0}
  }
}
layer {
  name:"Node_1150"
  type:"cast"
  top:"Node_1150"
  bottom:"Node_1149"
  layer_param {
    idx:1150
    in_0 {name:"Node_1149:0",dtype:float32,shape:[256, 256, 3, 3]}
    out_0 {name:"Node_1150:0",dtype:int8,shape:[256, 256, 3, 3]}
    attrs {'dtype': 'int8'}
  }
}
layer {
  name:"Node_1151"
  type:"nn_conv2d"
  top:"Node_1151"
  bottom:"Node_1140"
  bottom:"Node_1150"
  layer_param {
    idx:1151
    in_0 {name:"Node_1140:0",dtype:int8,shape:[1, 256, 14, 14]}
    in_1 {name:"Node_1150:0",dtype:int8,shape:[256, 256, 3, 3]}
    out_0 {name:"Node_1151:0",dtype:int32,shape:[1, 256, 14, 14]}
    attrs {'strides': [1, 1], 'padding': [1, 1, 1, 1], 'dilation': [1, 1], 'groups': 1, 'channels': 256, 'kernel_size': [3, 3], 'data_layout': 'NCHW', 'kernel_layout': 'OIHW', 'out_layout': '', 'out_dtype': 'int32'}
  }
}
layer {
  name:"Node_1152"
  type:"cast"
  top:"Node_1152"
  bottom:"Node_1151"
  layer_param {
    idx:1152
    in_0 {name:"Node_1151:0",dtype:int32,shape:[1, 256, 14, 14]}
    out_0 {name:"Node_1152:0",dtype:int64,shape:[1, 256, 14, 14]}
    attrs {'dtype': 'int64'}
  }
}
layer {
  name:"Node_1153"
  type:"fixed_point_multiply"
  top:"Node_1153"
  bottom:"Node_1152"
  layer_param {
    idx:1153
    in_0 {name:"Node_1152:0",dtype:int64,shape:[1, 256, 14, 14]}
    out_0 {name:"Node_1153:0",dtype:int64,shape:[1, 256, 14, 14]}
  }
}
layer {
  name:"Node_1154"
  type:"clip"
  top:"Node_1154"
  bottom:"Node_1153"
  layer_param {
    idx:1154
    in_0 {name:"Node_1153:0",dtype:int64,shape:[1, 256, 14, 14]}
    out_0 {name:"Node_1154:0",dtype:int64,shape:[1, 256, 14, 14]}
    attrs {'a_min': -127.0, 'a_max': 127.0}
  }
}
layer {
  name:"Node_1155"
  type:"cast"
  top:"Node_1155"
  bottom:"Node_1154"
  layer_param {
    idx:1155
    in_0 {name:"Node_1154:0",dtype:int64,shape:[1, 256, 14, 14]}
    out_0 {name:"Node_1155:0",dtype:int32,shape:[1, 256, 14, 14]}
    attrs {'dtype': 'int32'}
  }
}
layer {
  name:"Node_1156"
  type:"cast"
  top:"Node_1156"
  bottom:"Node_1155"
  layer_param {
    idx:1156
    in_0 {name:"Node_1155:0",dtype:int32,shape:[1, 256, 14, 14]}
    out_0 {name:"Node_1156:0",dtype:int8,shape:[1, 256, 14, 14]}
    attrs {'dtype': 'int8'}
  }
}
layer {
  name:"Node_1157"
  type:"annotation_stop_fusion"
  top:"Node_1157"
  bottom:"Node_1156"
  layer_param {
    idx:1157
    in_0 {name:"Node_1156:0",dtype:int8,shape:[1, 256, 14, 14]}
    out_0 {name:"Node_1157:0",dtype:int8,shape:[1, 256, 14, 14]}
  }
}
layer {
  name:"Node_1158"
  type:"cast"
  top:"Node_1158"
  bottom:"Node_1157"
  layer_param {
    idx:1158
    in_0 {name:"Node_1157:0",dtype:int8,shape:[1, 256, 14, 14]}
    out_0 {name:"Node_1158:0",dtype:int32,shape:[1, 256, 14, 14]}
    attrs {'dtype': 'int32'}
  }
}
layer {
  name:"Node_1163"
  type:"const"
  top:"Node_1163"
  layer_param {
    idx:1163
    out_0 {name:"Node_1163:0",dtype:float32,shape:[256, 1, 1]}
  }
}
layer {
  name:"Node_1164"
  type:"const"
  top:"Node_1164"
  layer_param {
    idx:1164
    out_0 {name:"Node_1164:0",dtype:float32,shape:[]}
  }
}
layer {
  name:"Node_1165"
  type:"multiply"
  top:"Node_1165"
  bottom:"Node_1163"
  bottom:"Node_1164"
  layer_param {
    idx:1165
    in_0 {name:"Node_1163:0",dtype:float32,shape:[256, 1, 1]}
    in_1 {name:"Node_1164:0",dtype:float32,shape:[]}
    out_0 {name:"Node_1165:0",dtype:float32,shape:[256, 1, 1]}
  }
}
layer {
  name:"Node_1166"
  type:"round"
  top:"Node_1166"
  bottom:"Node_1165"
  layer_param {
    idx:1166
    in_0 {name:"Node_1165:0",dtype:float32,shape:[256, 1, 1]}
    out_0 {name:"Node_1166:0",dtype:float32,shape:[256, 1, 1]}
  }
}
layer {
  name:"Node_1167"
  type:"clip"
  top:"Node_1167"
  bottom:"Node_1166"
  layer_param {
    idx:1167
    in_0 {name:"Node_1166:0",dtype:float32,shape:[256, 1, 1]}
    out_0 {name:"Node_1167:0",dtype:float32,shape:[256, 1, 1]}
    attrs {'a_min': -127.0, 'a_max': 127.0}
  }
}
layer {
  name:"Node_1168"
  type:"cast"
  top:"Node_1168"
  bottom:"Node_1167"
  layer_param {
    idx:1168
    in_0 {name:"Node_1167:0",dtype:float32,shape:[256, 1, 1]}
    out_0 {name:"Node_1168:0",dtype:int32,shape:[256, 1, 1]}
    attrs {'dtype': 'int32'}
  }
}
layer {
  name:"Node_1169"
  type:"multiply"
  top:"Node_1169"
  bottom:"Node_1158"
  bottom:"Node_1168"
  layer_param {
    idx:1169
    in_0 {name:"Node_1158:0",dtype:int32,shape:[1, 256, 14, 14]}
    in_1 {name:"Node_1168:0",dtype:int32,shape:[256, 1, 1]}
    out_0 {name:"Node_1169:0",dtype:int32,shape:[1, 256, 14, 14]}
  }
}
layer {
  name:"Node_1177"
  type:"const"
  top:"Node_1177"
  layer_param {
    idx:1177
    out_0 {name:"Node_1177:0",dtype:float32,shape:[256, 1, 1]}
  }
}
layer {
  name:"Node_1178"
  type:"const"
  top:"Node_1178"
  layer_param {
    idx:1178
    out_0 {name:"Node_1178:0",dtype:float32,shape:[]}
  }
}
layer {
  name:"Node_1179"
  type:"multiply"
  top:"Node_1179"
  bottom:"Node_1177"
  bottom:"Node_1178"
  layer_param {
    idx:1179
    in_0 {name:"Node_1177:0",dtype:float32,shape:[256, 1, 1]}
    in_1 {name:"Node_1178:0",dtype:float32,shape:[]}
    out_0 {name:"Node_1179:0",dtype:float32,shape:[256, 1, 1]}
  }
}
layer {
  name:"Node_1180"
  type:"round"
  top:"Node_1180"
  bottom:"Node_1179"
  layer_param {
    idx:1180
    in_0 {name:"Node_1179:0",dtype:float32,shape:[256, 1, 1]}
    out_0 {name:"Node_1180:0",dtype:float32,shape:[256, 1, 1]}
  }
}
layer {
  name:"Node_1181"
  type:"clip"
  top:"Node_1181"
  bottom:"Node_1180"
  layer_param {
    idx:1181
    in_0 {name:"Node_1180:0",dtype:float32,shape:[256, 1, 1]}
    out_0 {name:"Node_1181:0",dtype:float32,shape:[256, 1, 1]}
    attrs {'a_min': -127.0, 'a_max': 127.0}
  }
}
layer {
  name:"Node_1182"
  type:"cast"
  top:"Node_1182"
  bottom:"Node_1181"
  layer_param {
    idx:1182
    in_0 {name:"Node_1181:0",dtype:float32,shape:[256, 1, 1]}
    out_0 {name:"Node_1182:0",dtype:int32,shape:[256, 1, 1]}
    attrs {'dtype': 'int32'}
  }
}
layer {
  name:"Node_1183"
  type:"fixed_point_multiply"
  top:"Node_1183"
  bottom:"Node_1182"
  layer_param {
    idx:1183
    in_0 {name:"Node_1182:0",dtype:int32,shape:[256, 1, 1]}
    out_0 {name:"Node_1183:0",dtype:int32,shape:[256, 1, 1]}
  }
}
layer {
  name:"Node_1184"
  type:"cast"
  top:"Node_1184"
  bottom:"Node_1183"
  layer_param {
    idx:1184
    in_0 {name:"Node_1183:0",dtype:int32,shape:[256, 1, 1]}
    out_0 {name:"Node_1184:0",dtype:int32,shape:[256, 1, 1]}
    attrs {'dtype': 'int32'}
  }
}
layer {
  name:"Node_1185"
  type:"annotation_stop_fusion"
  top:"Node_1185"
  bottom:"Node_1184"
  layer_param {
    idx:1185
    in_0 {name:"Node_1184:0",dtype:int32,shape:[256, 1, 1]}
    out_0 {name:"Node_1185:0",dtype:int32,shape:[256, 1, 1]}
  }
}
layer {
  name:"Node_1186"
  type:"add"
  top:"Node_1186"
  bottom:"Node_1169"
  bottom:"Node_1185"
  layer_param {
    idx:1186
    in_0 {name:"Node_1169:0",dtype:int32,shape:[1, 256, 14, 14]}
    in_1 {name:"Node_1185:0",dtype:int32,shape:[256, 1, 1]}
    out_0 {name:"Node_1186:0",dtype:int32,shape:[1, 256, 14, 14]}
  }
}
layer {
  name:"Node_1187"
  type:"nn_relu"
  top:"Node_1187"
  bottom:"Node_1186"
  layer_param {
    idx:1187
    in_0 {name:"Node_1186:0",dtype:int32,shape:[1, 256, 14, 14]}
    out_0 {name:"Node_1187:0",dtype:int32,shape:[1, 256, 14, 14]}
  }
}
layer {
  name:"Node_1188"
  type:"cast"
  top:"Node_1188"
  bottom:"Node_1187"
  layer_param {
    idx:1188
    in_0 {name:"Node_1187:0",dtype:int32,shape:[1, 256, 14, 14]}
    out_0 {name:"Node_1188:0",dtype:int64,shape:[1, 256, 14, 14]}
    attrs {'dtype': 'int64'}
  }
}
layer {
  name:"Node_1189"
  type:"fixed_point_multiply"
  top:"Node_1189"
  bottom:"Node_1188"
  layer_param {
    idx:1189
    in_0 {name:"Node_1188:0",dtype:int64,shape:[1, 256, 14, 14]}
    out_0 {name:"Node_1189:0",dtype:int64,shape:[1, 256, 14, 14]}
  }
}
layer {
  name:"Node_1190"
  type:"clip"
  top:"Node_1190"
  bottom:"Node_1189"
  layer_param {
    idx:1190
    in_0 {name:"Node_1189:0",dtype:int64,shape:[1, 256, 14, 14]}
    out_0 {name:"Node_1190:0",dtype:int64,shape:[1, 256, 14, 14]}
    attrs {'a_min': -127.0, 'a_max': 127.0}
  }
}
layer {
  name:"Node_1191"
  type:"cast"
  top:"Node_1191"
  bottom:"Node_1190"
  layer_param {
    idx:1191
    in_0 {name:"Node_1190:0",dtype:int64,shape:[1, 256, 14, 14]}
…
  type:"fixed_point_multiply"
  top:"Node_1312"
  bottom:"Node_1311"
  layer_param {
    idx:1312
    in_0 {name:"Node_1311:0",dtype:int64,shape:[1, 512, 7, 7]}
    out_0 {name:"Node_1312:0",dtype:int64,shape:[1, 512, 7, 7]}
  }
}
layer {
  name:"Node_1313"
  type:"clip"
  top:"Node_1313"
  bottom:"Node_1312"
  layer_param {
    idx:1313
    in_0 {name:"Node_1312:0",dtype:int64,shape:[1, 512, 7, 7]}
    out_0 {name:"Node_1313:0",dtype:int64,shape:[1, 512, 7, 7]}
    attrs {'a_min': -127.0, 'a_max': 127.0}
  }
}
layer {
  name:"Node_1314"
  type:"cast"
  top:"Node_1314"
  bottom:"Node_1313"
  layer_param {
    idx:1314
    in_0 {name:"Node_1313:0",dtype:int64,shape:[1, 512, 7, 7]}
    out_0 {name:"Node_1314:0",dtype:int32,shape:[1, 512, 7, 7]}
    attrs {'dtype': 'int32'}
  }
}
layer {
  name:"Node_1315"
  type:"cast"
  top:"Node_1315"
  bottom:"Node_1314"
  layer_param {
    idx:1315
    in_0 {name:"Node_1314:0",dtype:int32,shape:[1, 512, 7, 7]}
    out_0 {name:"Node_1315:0",dtype:int8,shape:[1, 512, 7, 7]}
    attrs {'dtype': 'int8'}
  }
}
layer {
  name:"Node_1316"
  type:"annotation_stop_fusion"
  top:"Node_1316"
  bottom:"Node_1315"
  layer_param {
    idx:1316
    in_0 {name:"Node_1315:0",dtype:int8,shape:[1, 512, 7, 7]}
    out_0 {name:"Node_1316:0",dtype:int8,shape:[1, 512, 7, 7]}
  }
}
layer {
  name:"Node_1321"
  type:"const"
  top:"Node_1321"
  layer_param {
    idx:1321
    out_0 {name:"Node_1321:0",dtype:float32,shape:[512, 512, 3, 3]}
  }
}
layer {
  name:"Node_1322"
  type:"const"
  top:"Node_1322"
  layer_param {
    idx:1322
    out_0 {name:"Node_1322:0",dtype:float32,shape:[]}
  }
}
layer {
  name:"Node_1323"
  type:"multiply"
  top:"Node_1323"
  bottom:"Node_1321"
  bottom:"Node_1322"
  layer_param {
    idx:1323
    in_0 {name:"Node_1321:0",dtype:float32,shape:[512, 512, 3, 3]}
    in_1 {name:"Node_1322:0",dtype:float32,shape:[]}
    out_0 {name:"Node_1323:0",dtype:float32,shape:[512, 512, 3, 3]}
  }
}
layer {
  name:"Node_1324"
  type:"round"
  top:"Node_1324"
  bottom:"Node_1323"
  layer_param {
    idx:1324
    in_0 {name:"Node_1323:0",dtype:float32,shape:[512, 512, 3, 3]}
    out_0 {name:"Node_1324:0",dtype:float32,shape:[512, 512, 3, 3]}
  }
}
layer {
  name:"Node_1325"
  type:"clip"
  top:"Node_1325"
  bottom:"Node_1324"
  layer_param {
    idx:1325
    in_0 {name:"Node_1324:0",dtype:float32,shape:[512, 512, 3, 3]}
    out_0 {name:"Node_1325:0",dtype:float32,shape:[512, 512, 3, 3]}
    attrs {'a_min': -127.0, 'a_max': 127.0}
  }
}
layer {
  name:"Node_1326"
  type:"cast"
  top:"Node_1326"
  bottom:"Node_1325"
  layer_param {
    idx:1326
    in_0 {name:"Node_1325:0",dtype:float32,shape:[512, 512, 3, 3]}
    out_0 {name:"Node_1326:0",dtype:int8,shape:[512, 512, 3, 3]}
    attrs {'dtype': 'int8'}
  }
}
layer {
  name:"Node_1327"
  type:"nn_conv2d"
  top:"Node_1327"
  bottom:"Node_1316"
  bottom:"Node_1326"
  layer_param {
    idx:1327
    in_0 {name:"Node_1316:0",dtype:int8,shape:[1, 512, 7, 7]}
    in_1 {name:"Node_1326:0",dtype:int8,shape:[512, 512, 3, 3]}
    out_0 {name:"Node_1327:0",dtype:int32,shape:[1, 512, 7, 7]}
    attrs {'strides': [1, 1], 'padding': [1, 1, 1, 1], 'dilation': [1, 1], 'groups': 1, 'channels': 512, 'kernel_size': [3, 3], 'data_layout': 'NCHW', 'kernel_layout': 'OIHW', 'out_layout': '', 'out_dtype': 'int32'}
  }
}
layer {
  name:"Node_1328"
  type:"cast"
  top:"Node_1328"
  bottom:"Node_1327"
  layer_param {
    idx:1328
    in_0 {name:"Node_1327:0",dtype:int32,shape:[1, 512, 7, 7]}
    out_0 {name:"Node_1328:0",dtype:int64,shape:[1, 512, 7, 7]}
    attrs {'dtype': 'int64'}
  }
}
layer {
  name:"Node_1329"
  type:"fixed_point_multiply"
  top:"Node_1329"
  bottom:"Node_1328"
  layer_param {
    idx:1329
    in_0 {name:"Node_1328:0",dtype:int64,shape:[1, 512, 7, 7]}
    out_0 {name:"Node_1329:0",dtype:int64,shape:[1, 512, 7, 7]}
  }
}
layer {
  name:"Node_1330"
  type:"clip"
  top:"Node_1330"
  bottom:"Node_1329"
  layer_param {
    idx:1330
    in_0 {name:"Node_1329:0",dtype:int64,shape:[1, 512, 7, 7]}
    out_0 {name:"Node_1330:0",dtype:int64,shape:[1, 512, 7, 7]}
    attrs {'a_min': -127.0, 'a_max': 127.0}
  }
}
layer {
  name:"Node_1331"
  type:"cast"
  top:"Node_1331"
  bottom:"Node_1330"
  layer_param {
    idx:1331
    in_0 {name:"Node_1330:0",dtype:int64,shape:[1, 512, 7, 7]}
    out_0 {name:"Node_1331:0",dtype:int32,shape:[1, 512, 7, 7]}
    attrs {'dtype': 'int32'}
  }
}
layer {
  name:"Node_1332"
  type:"cast"
  top:"Node_1332"
  bottom:"Node_1331"
  layer_param {
    idx:1332
    in_0 {name:"Node_1331:0",dtype:int32,shape:[1, 512, 7, 7]}
    out_0 {name:"Node_1332:0",dtype:int8,shape:[1, 512, 7, 7]}
    attrs {'dtype': 'int8'}
  }
}
layer {
  name:"Node_1333"
  type:"annotation_stop_fusion"
  top:"Node_1333"
  bottom:"Node_1332"
  layer_param {
    idx:1333
    in_0 {name:"Node_1332:0",dtype:int8,shape:[1, 512, 7, 7]}
    out_0 {name:"Node_1333:0",dtype:int8,shape:[1, 512, 7, 7]}
  }
}
layer {
  name:"Node_1334"
  type:"cast"
  top:"Node_1334"
  bottom:"Node_1333"
  layer_param {
    idx:1334
    in_0 {name:"Node_1333:0",dtype:int8,shape:[1, 512, 7, 7]}
    out_0 {name:"Node_1334:0",dtype:int32,shape:[1, 512, 7, 7]}
    attrs {'dtype': 'int32'}
  }
}
layer {
  name:"Node_1339"
  type:"const"
  top:"Node_1339"
  layer_param {
    idx:1339
    out_0 {name:"Node_1339:0",dtype:float32,shape:[512, 1, 1]}
  }
}
layer {
  name:"Node_1340"
  type:"const"
  top:"Node_1340"
  layer_param {
    idx:1340
    out_0 {name:"Node_1340:0",dtype:float32,shape:[]}
  }
}
layer {
  name:"Node_1341"
  type:"multiply"
  top:"Node_1341"
  bottom:"Node_1339"
  bottom:"Node_1340"
  layer_param {
    idx:1341
    in_0 {name:"Node_1339:0",dtype:float32,shape:[512, 1, 1]}
    in_1 {name:"Node_1340:0",dtype:float32,shape:[]}
    out_0 {name:"Node_1341:0",dtype:float32,shape:[512, 1, 1]}
  }
}
layer {
  name:"Node_1342"
  type:"round"
  top:"Node_1342"
  bottom:"Node_1341"
  layer_param {
    idx:1342
    in_0 {name:"Node_1341:0",dtype:float32,shape:[512, 1, 1]}
    out_0 {name:"Node_1342:0",dtype:float32,shape:[512, 1, 1]}
  }
}
layer {
  name:"Node_1343"
  type:"clip"
  top:"Node_1343"
  bottom:"Node_1342"
  layer_param {
    idx:1343
    in_0 {name:"Node_1342:0",dtype:float32,shape:[512, 1, 1]}
    out_0 {name:"Node_1343:0",dtype:float32,shape:[512, 1, 1]}
    attrs {'a_min': -127.0, 'a_max': 127.0}
  }
}
layer {
  name:"Node_1344"
  type:"cast"
  top:"Node_1344"
  bottom:"Node_1343"
  layer_param {
    idx:1344
    in_0 {name:"Node_1343:0",dtype:float32,shape:[512, 1, 1]}
    out_0 {name:"Node_1344:0",dtype:int32,shape:[512, 1, 1]}
    attrs {'dtype': 'int32'}
  }
}
layer {
  name:"Node_1345"
  type:"multiply"
  top:"Node_1345"
  bottom:"Node_1334"
  bottom:"Node_1344"
  layer_param {
    idx:1345
    in_0 {name:"Node_1334:0",dtype:int32,shape:[1, 512, 7, 7]}
    in_1 {name:"Node_1344:0",dtype:int32,shape:[512, 1, 1]}
    out_0 {name:"Node_1345:0",dtype:int32,shape:[1, 512, 7, 7]}
  }
}
layer {
  name:"Node_1353"
  type:"const"
  top:"Node_1353"
  layer_param {
    idx:1353
    out_0 {name:"Node_1353:0",dtype:float32,shape:[512, 1, 1]}
  }
}
layer {
  name:"Node_1354"
  type:"const"
  top:"Node_1354"
  layer_param {
    idx:1354
    out_0 {name:"Node_1354:0",dtype:float32,shape:[]}
  }
}
layer {
  name:"Node_1355"
  type:"multiply"
  top:"Node_1355"
  bottom:"Node_1353"
  bottom:"Node_1354"
  layer_param {
    idx:1355
    in_0 {name:"Node_1353:0",dtype:float32,shape:[512, 1, 1]}
    in_1 {name:"Node_1354:0",dtype:float32,shape:[]}
    out_0 {name:"Node_1355:0",dtype:float32,shape:[512, 1, 1]}
  }
}
layer {
  name:"Node_1356"
  type:"round"
  top:"Node_1356"
  bottom:"Node_1355"
  layer_param {
    idx:1356
    in_0 {name:"Node_1355:0",dtype:float32,shape:[512, 1, 1]}
    out_0 {name:"Node_1356:0",dtype:float32,shape:[512, 1, 1]}
  }
}
layer {
  name:"Node_1357"
  type:"clip"
  top:"Node_1357"
  bottom:"Node_1356"
  layer_param {
    idx:1357
    in_0 {name:"Node_1356:0",dtype:float32,shape:[512, 1, 1]}
    out_0 {name:"Node_1357:0",dtype:float32,shape:[512, 1, 1]}
    attrs {'a_min': -127.0, 'a_max': 127.0}
  }
}
layer {
  name:"Node_1358"
  type:"cast"
  top:"Node_1358"
  bottom:"Node_1357"
  layer_param {
    idx:1358
    in_0 {name:"Node_1357:0",dtype:float32,shape:[512, 1, 1]}
    out_0 {name:"Node_1358:0",dtype:int32,shape:[512, 1, 1]}
    attrs {'dtype': 'int32'}
  }
}
layer {
  name:"Node_1359"
  type:"fixed_point_multiply"
  top:"Node_1359"
  bottom:"Node_1358"
  layer_param {
    idx:1359
    in_0 {name:"Node_1358:0",dtype:int32,shape:[512, 1, 1]}
    out_0 {name:"Node_1359:0",dtype:int32,shape:[512, 1, 1]}
  }
}
layer {
  name:"Node_1360"
  type:"cast"
  top:"Node_1360"
  bottom:"Node_1359"
  layer_param {
    idx:1360
    in_0 {name:"Node_1359:0",dtype:int32,shape:[512, 1, 1]}
    out_0 {name:"Node_1360:0",dtype:int32,shape:[512, 1, 1]}
    attrs {'dtype': 'int32'}
  }
}
layer {
  name:"Node_1361"
  type:"annotation_stop_fusion"
  top:"Node_1361"
  bottom:"Node_1360"
  layer_param {
    idx:1361
    in_0 {name:"Node_1360:0",dtype:int32,shape:[512, 1, 1]}
    out_0 {name:"Node_1361:0",dtype:int32,shape:[512, 1, 1]}
  }
}
layer {
  name:"Node_1362"
  type:"add"
  top:"Node_1362"
  bottom:"Node_1345"
  bottom:"Node_1361"
  layer_param {
    idx:1362
    in_0 {name:"Node_1345:0",dtype:int32,shape:[1, 512, 7, 7]}
    in_1 {name:"Node_1361:0",dtype:int32,shape:[512, 1, 1]}
    out_0 {name:"Node_1362:0",dtype:int32,shape:[1, 512, 7, 7]}
  }
}
layer {
  name:"Node_1363"
  type:"cast"
  top:"Node_1363"
  bottom:"Node_1362"
  layer_param {
    idx:1363
    in_0 {name:"Node_1362:0",dtype:int32,shape:[1, 512, 7, 7]}
    out_0 {name:"Node_1363:0",dtype:int64,shape:[1, 512, 7, 7]}
    attrs {'dtype': 'int64'}
  }
}
layer {
  name:"Node_1364"
  type:"fixed_point_multiply"
  top:"Node_1364"
  bottom:"Node_1363"
  layer_param {
    idx:1364
    in_0 {name:"Node_1363:0",dtype:int64,shape:[1, 512, 7, 7]}
    out_0 {name:"Node_1364:0",dtype:int64,shape:[1, 512, 7, 7]}
  }
}
layer {
  name:"Node_1365"
  type:"clip"
  top:"Node_1365"
  bottom:"Node_1364"
  layer_param {
    idx:1365
    in_0 {name:"Node_1364:0",dtype:int64,shape:[1, 512, 7, 7]}
    out_0 {name:"Node_1365:0",dtype:int64,shape:[1, 512, 7, 7]}
    attrs {'a_min': -127.0, 'a_max': 127.0}
  }
}
layer {
  name:"Node_1366"
  type:"cast"
  top:"Node_1366"
  bottom:"Node_1365"
  layer_param {
    idx:1366
    in_0 {name:"Node_1365:0",dtype:int64,shape:[1, 512, 7, 7]}
    out_0 {name:"Node_1366:0",dtype:int32,shape:[1, 512, 7, 7]}
    attrs {'dtype': 'int32'}
  }
}
layer {
  name:"Node_1367"
  type:"cast"
  top:"Node_1367"
  bottom:"Node_1366"
  layer_param {
    idx:1367
    in_0 {name:"Node_1366:0",dtype:int32,shape:[1, 512, 7, 7]}
    out_0 {name:"Node_1367:0",dtype:int8,shape:[1, 512, 7, 7]}
    attrs {'dtype': 'int8'}
  }
}
layer {
  name:"Node_1368"
  type:"annotation_stop_fusion"
  top:"Node_1368"
  bottom:"Node_1367"
  layer_param {
    idx:1368
    in_0 {name:"Node_1367:0",dtype:int8,shape:[1, 512, 7, 7]}
    out_0 {name:"Node_1368:0",dtype:int8,shape:[1, 512, 7, 7]}
  }
}
layer {
  name:"Node_1369"
  type:"cast"
  top:"Node_1369"
  bottom:"Node_1368"
  layer_param {
    idx:1369
    in_0 {name:"Node_1368:0",dtype:int8,shape:[1, 512, 7, 7]}
    out_0 {name:"Node_1369:0",dtype:int32,shape:[1, 512, 7, 7]}
    attrs {'dtype': 'int32'}
  }
}
layer {
  name:"Node_1370"
  type:"fixed_point_multiply"
  top:"Node_1370"
  bottom:"Node_1369"
  layer_param {
    idx:1370
    in_0 {name:"Node_1369:0",dtype:int32,shape:[1, 512, 7, 7]}
    out_0 {name:"Node_1370:0",dtype:int32,shape:[1, 512, 7, 7]}
  }
}
layer {
  name:"Node_1371"
  type:"cast"
  top:"Node_1371"
  bottom:"Node_1370"
  layer_param {
    idx:1371
    in_0 {name:"Node_1370:0",dtype:int32,shape:[1, 512, 7, 7]}
    out_0 {name:"Node_1371:0",dtype:int32,shape:[1, 512, 7, 7]}
    attrs {'dtype': 'int32'}
  }
}
layer {
  name:"Node_1392"
  type:"cast"
  top:"Node_1392"
  bottom:"Node_1261"
  layer_param {
    idx:1392
    in_0 {name:"Node_1261:0",dtype:int32,shape:[1, 256, 14, 14]}
    out_0 {name:"Node_1392:0",dtype:int8,shape:[1, 256, 14, 14]}
    attrs {'dtype': 'int8'}
  }
}
layer {
  name:"Node_1393"
  type:"annotation_stop_fusion"
  top:"Node_1393"
  bottom:"Node_1392"
  layer_param {
    idx:1393
    in_0 {name:"Node_1392:0",dtype:int8,shape:[1, 256, 14, 14]}
    out_0 {name:"Node_1393:0",dtype:int8,shape:[1, 256, 14, 14]}
  }
}
layer {
  name:"Node_1398"
  type:"const"
  top:"Node_1398"
  layer_param {
    idx:1398
    out_0 {name:"Node_1398:0",dtype:float32,shape:[512, 256, 1, 1]}
  }
}
layer {
  name:"Node_1399"
  type:"const"
  top:"Node_1399"
  layer_param {
    idx:1399
    out_0 {name:"Node_1399:0",dtype:float32,shape:[]}
  }
}
layer {
  name:"Node_1400"
  type:"multiply"
  top:"Node_1400"
  bottom:"Node_1398"
  bottom:"Node_1399"
  layer_param {
    idx:1400
    in_0 {name:"Node_1398:0",dtype:float32,shape:[512, 256, 1, 1]}
    in_1 {name:"Node_1399:0",dtype:float32,shape:[]}
    out_0 {name:"Node_1400:0",dtype:float32,shape:[512, 256, 1, 1]}
  }
}
layer {
  name:"Node_1401"
  type:"round"
  top:"Node_1401"
  bottom:"Node_1400"
  layer_param {
    idx:1401
    in_0 {name:"Node_1400:0",dtype:float32,shape:[512, 256, 1, 1]}
    out_0 {name:"Node_1401:0",dtype:float32,shape:[512, 256, 1, 1]}
  }
}
layer {
  name:"Node_1402"
  type:"clip"
  top:"Node_1402"
  bottom:"Node_1401"
  layer_param {
    idx:1402
    in_0 {name:"Node_1401:0",dtype:float32,shape:[512, 256, 1, 1]}
    out_0 {name:"Node_1402:0",dtype:float32,shape:[512, 256, 1, 1]}
    attrs {'a_min': -127.0, 'a_max': 127.0}
  }
}
layer {
  name:"Node_1403"
  type:"cast"
  top:"Node_1403"
  bottom:"Node_1402"
  layer_param {
    idx:1403
    in_0 {name:"Node_1402:0",dtype:float32,shape:[512, 256, 1, 1]}
    out_0 {name:"Node_1403:0",dtype:int8,shape:[512, 256, 1, 1]}
    attrs {'dtype': 'int8'}
  }
}
layer {
  name:"Node_1404"
  type:"nn_conv2d"
  top:"Node_1404"
  bottom:"Node_1393"
  bottom:"Node_1403"
  layer_param {
    idx:1404
    in_0 {name:"Node_1393:0",dtype:int8,shape:[1, 256, 14, 14]}
    in_1 {name:"Node_1403:0",dtype:int8,shape:[512, 256, 1, 1]}
    out_0 {name:"Node_1404:0",dtype:int32,shape:[1, 512, 7, 7]}
    attrs {'strides': [2, 2], 'padding': [0, 0, 0, 0], 'dilation': [1, 1], 'groups': 1, 'channels': 512, 'kernel_size': [1, 1], 'data_layout': 'NCHW', 'kernel_layout': 'OIHW', 'out_layout': '', 'out_dtype': 'int32'}
  }
}
layer {
  name:"Node_1405"
  type:"cast"
  top:"Node_1405"
  bottom:"Node_1404"
  layer_param {
    idx:1405
    in_0 {name:"Node_1404:0",dtype:int32,shape:[1, 512, 7, 7]}
    out_0 {name:"Node_1405:0",dtype:int64,shape:[1, 512, 7, 7]}
    attrs {'dtype': 'int64'}
  }
}
layer {
  name:"Node_1406"
  type:"fixed_point_multiply"
  top:"Node_1406"
  bottom:"Node_1405"
  layer_param {
    idx:1406
    in_0 {name:"Node_1405:0",dtype:int64,shape:[1, 512, 7, 7]}
    out_0 {name:"Node_1406:0",dtype:int64,shape:[1, 512, 7, 7]}
  }
}
layer {
  name:"Node_1407"
  type:"clip"
  top:"Node_1407"
  bottom:"Node_1406"
  layer_param {
    idx:1407
    in_0 {name:"Node_1406:0",dtype:int64,shape:[1, 512, 7, 7]}
    out_0 {name:"Node_1407:0",dtype:int64,shape:[1, 512, 7, 7]}
    attrs {'a_min': -127.0, 'a_max': 127.0}
  }
}
layer {
  name:"Node_1408"
  type:"cast"
  top:"Node_1408"
  bottom:"Node_1407"
  layer_param {
    idx:1408
    in_0 {name:"Node_1407:0",dtype:int64,shape:[1, 512, 7, 7]}
    out_0 {name:"Node_1408:0",dtype:int32,shape:[1, 512, 7, 7]}
    attrs {'dtype': 'int32'}
  }
}
layer {
  name:"Node_1409"
  type:"cast"
  top:"Node_1409"
  bottom:"Node_1408"
  layer_param {
    idx:1409
    in_0 {name:"Node_1408:0",dtype:int32,shape:[1, 512, 7, 7]}
    out_0 {name:"Node_1409:0",dtype:int8,shape:[1, 512, 7, 7]}
    attrs {'dtype': 'int8'}
  }
}
layer {
  name:"Node_1410"
  type:"annotation_stop_fusion"
  top:"Node_1410"
  bottom:"Node_1409"
  layer_param {
    idx:1410
    in_0 {name:"Node_1409:0",dtype:int8,shape:[1, 512, 7, 7]}
    out_0 {name:"Node_1410:0",dtype:int8,shape:[1, 512, 7, 7]}
  }
}
layer {
  name:"Node_1411"
  type:"cast"
  top:"Node_1411"
  bottom:"Node_1410"
  layer_param {
    idx:1411
    in_0 {name:"Node_1410:0",dtype:int8,shape:[1, 512, 7, 7]}
    out_0 {name:"Node_1411:0",dtype:int32,shape:[1, 512, 7, 7]}
    attrs {'dtype': 'int32'}
  }
}
layer {
  name:"Node_1416"
  type:"const"
  top:"Node_1416"
  layer_param {
    idx:1416
    out_0 {name:"Node_1416:0",dtype:float32,shape:[512, 1, 1]}
  }
}
layer {
  name:"Node_1417"
  type:"const"
  top:"Node_1417"
  layer_param {
    idx:1417
    out_0 {name:"Node_1417:0",dtype:float32,shape:[]}
  }
}
layer {
  name:"Node_1418"
  type:"multiply"
  top:"Node_1418"
  bottom:"Node_1416"
  bottom:"Node_1417"
  layer_param {
    idx:1418
    in_0 {name:"Node_1416:0",dtype:float32,shape:[512, 1, 1]}
    in_1 {name:"Node_1417:0",dtype:float32,shape:[]}
    out_0 {name:"Node_1418:0",dtype:float32,shape:[512, 1, 1]}
  }
}
layer {
  name:"Node_1419"
  type:"round"
  top:"Node_1419"
  bottom:"Node_1418"
  layer_param {
    idx:1419
    in_0 {name:"Node_1418:0",dtype:float32,shape:[512, 1, 1]}
    out_0 {name:"Node_1419:0",dtype:float32,shape:[512, 1, 1]}
  }
}
layer {
  name:"Node_1420"
  type:"clip"
  top:"Node_1420"
  bottom:"Node_1419"
  layer_param {
    idx:1420
    in_0 {name:"Node_1419:0",dtype:float32,shape:[512, 1, 1]}
    out_0 {name:"Node_1420:0",dtype:float32,shape:[512, 1, 1]}
    attrs {'a_min': -127.0, 'a_max': 127.0}
  }
}
layer {
  name:"Node_1421"
  type:"cast"
  top:"Node_1421"
  bottom:"Node_1420"
  layer_param {
    idx:1421
    in_0 {name:"Node_1420:0",dtype:float32,shape:[512, 1, 1]}
    out_0 {name:"Node_1421:0",dtype:int32,shape:[512, 1, 1]}
    attrs {'dtype': 'int32'}
  }
}
layer {
  name:"Node_1422"
  type:"multiply"
  top:"Node_1422"
  bottom:"Node_1411"
  bottom:"Node_1421"
  layer_param {
    idx:1422
    in_0 {name:"Node_1411:0",dtype:int32,shape:[1, 512, 7, 7]}
    in_1 {name:"Node_1421:0",dtype:int32,shape:[512, 1, 1]}
    out_0 {name:"Node_1422:0",dtype:int32,shape:[1, 512, 7, 7]}
  }
}
layer {
  name:"Node_1430"
  type:"const"
  top:"Node_1430"
  layer_param {
    idx:1430
    out_0 {name:"Node_1430:0",dtype:float32,shape:[512, 1, 1]}
  }
}
layer {
  name:"Node_1431"
  type:"const"
  top:"Node_1431"
  layer_param {
    idx:1431
    out_0 {name:"Node_1431:0",dtype:float32,shape:[]}
  }
}
layer {
  name:"Node_1432"
  type:"multiply"
  top:"Node_1432"
  bottom:"Node_1430"
  bottom:"Node_1431"
  layer_param {
    idx:1432
    in_0 {name:"Node_1430:0",dtype:float32,shape:[512, 1, 1]}
    in_1 {name:"Node_1431:0",dtype:float32,shape:[]}
    out_0 {name:"Node_1432:0",dtype:float32,shape:[512, 1, 1]}
  }
}
layer {
  name:"Node_1433"
  type:"round"
  top:"Node_1433"
  bottom:"Node_1432"
  layer_param {
    idx:1433
    in_0 {name:"Node_1432:0",dtype:float32,shape:[512, 1, 1]}
    out_0 {name:"Node_1433:0",dtype:float32,shape:[512, 1, 1]}
  }
}
layer {
  name:"Node_1434"
  type:"clip"
  top:"Node_1434"
  bottom:"Node_1433"
  layer_param {
    idx:1434
    in_0 {name:"Node_1433:0",dtype:float32,shape:[512, 1, 1]}
    out_0 {name:"Node_1434:0",dtype:float32,shape:[512, 1, 1]}
    attrs {'a_min': -127.0, 'a_max': 127.0}
  }
}
layer {
  name:"Node_1435"
  type:"cast"
  top:"Node_1435"
  bottom:"Node_1434"
  layer_param {
    idx:1435
    in_0 {name:"Node_1434:0",dtype:float32,shape:[512, 1, 1]}
    out_0 {name:"Node_1435:0",dtype:int32,shape:[512, 1, 1]}
    attrs {'dtype': 'int32'}
  }
}
layer {
  name:"Node_1436"
  type:"fixed_point_multiply"
  top:"Node_1436"
  bottom:"Node_1435"
  layer_param {
    idx:1436
    in_0 {name:"Node_1435:0",dtype:int32,shape:[512, 1, 1]}
    out_0 {name:"Node_1436:0",dtype:int32,shape:[512, 1, 1]}
  }
}
layer {
  name:"Node_1437"
  type:"cast"
  top:"Node_1437"
  bottom:"Node_1436"
  layer_param {
    idx:1437
    in_0 {name:"Node_1436:0",dtype:int32,shape:[512, 1, 1]}
    out_0 {name:"Node_1437:0",dtype:int32,shape:[512, 1, 1]}
    attrs {'dtype': 'int32'}
  }
}
layer {
  name:"Node_1438"
  type:"annotation_stop_fusion"
  top:"Node_1438"
  bottom:"Node_1437"
  layer_param {
    idx:1438
    in_0 {name:"Node_1437:0",dtype:int32,shape:[512, 1, 1]}
    out_0 {name:"Node_1438:0",dtype:int32,shape:[512, 1, 1]}
  }
}
layer {
  name:"Node_1439"
  type:"add"
  top:"Node_1439"
  bottom:"Node_1422"
  bottom:"Node_1438"
  layer_param {
    idx:1439
    in_0 {name:"Node_1422:0",dtype:int32,shape:[1, 512, 7, 7]}
    in_1 {name:"Node_1438:0",dtype:int32,shape:[512, 1, 1]}
    out_0 {name:"Node_1439:0",dtype:int32,shape:[1, 512, 7, 7]}
  }
}
layer {
  name:"Node_1440"
  type:"cast"
  top:"Node_1440"
  bottom:"Node_1439"
  layer_param {
    idx:1440
    in_0 {name:"Node_1439:0",dtype:int32,shape:[1, 512, 7, 7]}
    out_0 {name:"Node_1440:0",dtype:int64,shape:[1, 512, 7, 7]}
    attrs {'dtype': 'int64'}
  }
}
layer {
  name:"Node_1441"
  type:"fixed_point_multiply"
  top:"Node_1441"
  bottom:"Node_1440"
  layer_param {
    idx:1441
    in_0 {name:"Node_1440:0",dtype:int64,shape:[1, 512, 7, 7]}
    out_0 {name:"Node_1441:0",dtype:int64,shape:[1, 512, 7, 7]}
  }
}
layer {
  name:"Node_1442"
  type:"clip"
  top:"Node_1442"
  bottom:"Node_1441"
  layer_param {
    idx:1442
    in_0 {name:"Node_1441:0",dtype:int64,shape:[1, 512, 7, 7]}
    out_0 {name:"Node_1442:0",dtype:int64,shape:[1, 512, 7, 7]}
    attrs {'a_min': -127.0, 'a_max': 127.0}
  }
}
layer {
  name:"Node_1443"
  type:"cast"
  top:"Node_1443"
  bottom:"Node_1442"
  layer_param {
    idx:1443
    in_0 {name:"Node_1442:0",dtype:int64,shape:[1, 512, 7, 7]}
    out_0 {name:"Node_1443:0",dtype:int32,shape:[1, 512, 7, 7]}
    attrs {'dtype': 'int32'}
  }
}
layer {
  name:"Node_1444"
  type:"cast"
  top:"Node_1444"
  bottom:"Node_1443"
  layer_param {
    idx:1444
    in_0 {name:"Node_1443:0",dtype:int32,shape:[1, 512, 7, 7]}
    out_0 {name:"Node_1444:0",dtype:int8,shape:[1, 512, 7, 7]}
    attrs {'dtype': 'int8'}
  }
}
layer {
  name:"Node_1445"
  type:"annotation_stop_fusion"
  top:"Node_1445"
  bottom:"Node_1444"
  layer_param {
    idx:1445
    in_0 {name:"Node_1444:0",dtype:int8,shape:[1, 512, 7, 7]}
    out_0 {name:"Node_1445:0",dtype:int8,shape:[1, 512, 7, 7]}
  }
}
layer {
  name:"Node_1446"
  type:"cast"
  top:"Node_1446"
  bottom:"Node_1445"
  layer_param {
    idx:1446
    in_0 {name:"Node_1445:0",dtype:int8,shape:[1, 512, 7, 7]}
    out_0 {name:"Node_1446:0",dtype:int32,shape:[1, 512, 7, 7]}
    attrs {'dtype': 'int32'}
  }
}
layer {
  name:"Node_1447"
  type:"add"
  top:"Node_1447"
  bottom:"Node_1371"
  bottom:"Node_1446"
  layer_param {
    idx:1447
    in_0 {name:"Node_1371:0",dtype:int32,shape:[1, 512, 7, 7]}
    in_1 {name:"Node_1446:0",dtype:int32,shape:[1, 512, 7, 7]}
    out_0 {name:"Node_1447:0",dtype:int32,shape:[1, 512, 7, 7]}
  }
}
layer {
  name:"Node_1448"
  type:"nn_relu"
  top:"Node_1448"
  bottom:"Node_1447"
  layer_param {
    idx:1448
    in_0 {name:"Node_1447:0",dtype:int32,shape:[1, 512, 7, 7]}
    out_0 {name:"Node_1448:0",dtype:int32,shape:[1, 512, 7, 7]}
  }
}
layer {
  name:"Node_1449"
  type:"cast"
  top:"Node_1449"
  bottom:"Node_1448"
  layer_param {
    idx:1449
    in_0 {name:"Node_1448:0",dtype:int32,shape:[1, 512, 7, 7]}
    out_0 {name:"Node_1449:0",dtype:int64,shape:[1, 512, 7, 7]}
    attrs {'dtype': 'int64'}
  }
}
layer {
  name:"Node_1450"
  type:"fixed_point_multiply"
  top:"Node_1450"
  bottom:"Node_1449"
  layer_param {
    idx:1450
    in_0 {name:"Node_1449:0",dtype:int64,shape:[1, 512, 7, 7]}
    out_0 {name:"Node_1450:0",dtype:int64,shape:[1, 512, 7, 7]}
  }
}
layer {
  name:"Node_1451"
  type:"clip"
  top:"Node_1451"
  bottom:"Node_1450"
  layer_param {
    idx:1451
    in_0 {name:"Node_1450:0",dtype:int64,shape:[1, 512, 7, 7]}
    out_0 {name:"Node_1451:0",dtype:int64,shape:[1, 512, 7, 7]}
    attrs {'a_min': -127.0, 'a_max': 127.0}
  }
}
layer {
  name:"Node_1452"
  type:"cast"
  top:"Node_1452"
  bottom:"Node_1451"
  layer_param {
    idx:1452
    in_0 {name:"Node_1451:0",dtype:int64,shape:[1, 512, 7, 7]}
    out_0 {name:"Node_1452:0",dtype:int32,shape:[1, 512, 7, 7]}
    attrs {'dtype': 'int32'}
  }
}
layer {
  name:"Node_1453"
  type:"cast"
  top:"Node_1453"
  bottom:"Node_1452"
  layer_param {
    idx:1453
    in_0 {name:"Node_1452:0",dtype:int32,shape:[1, 512, 7, 7]}
    out_0 {name:"Node_1453:0",dtype:int8,shape:[1, 512, 7, 7]}
    attrs {'dtype': 'int8'}
  }
}
layer {
  name:"Node_1454"
  type:"annotation_stop_fusion"
  top:"Node_1454"
  bottom:"Node_1453"
  layer_param {
    idx:1454
    in_0 {name:"Node_1453:0",dtype:int8,shape:[1, 512, 7, 7]}
    out_0 {name:"Node_1454:0",dtype:int8,shape:[1, 512, 7, 7]}
  }
}
layer {
  name:"Node_1459"
  type:"const"
  top:"Node_1459"
  layer_param {
    idx:1459
    out_0 {name:"Node_1459:0",dtype:float32,shape:[512, 512, 3, 3]}
  }
}
layer {
  name:"Node_1460"
  type:"const"
  top:"Node_1460"
  layer_param {
    idx:1460
    out_0 {name:"Node_1460:0",dtype:float32,shape:[]}
  }
}
layer {
  name:"Node_1461"
  type:"multiply"
  top:"Node_1461"
  bottom:"Node_1459"
  bottom:"Node_1460"
  layer_param {
    idx:1461
    in_0 {name:"Node_1459:0",dtype:float32,shape:[512, 512, 3, 3]}
    in_1 {name:"Node_1460:0",dtype:float32,shape:[]}
    out_0 {name:"Node_1461:0",dtype:float32,shape:[512, 512, 3, 3]}
  }
}
layer {
  name:"Node_1462"
  type:"round"
  top:"Node_1462"
  bottom:"Node_1461"
  layer_param {
    idx:1462
    in_0 {name:"Node_1461:0",dtype:float32,shape:[512, 512, 3, 3]}
    out_0 {name:"Node_1462:0",dtype:float32,shape:[512, 512, 3, 3]}
  }
}
layer {
  name:"Node_1463"
  type:"clip"
  top:"Node_1463"
  bottom:"Node_1462"
  layer_param {
    idx:1463
    in_0 {name:"Node_1462:0",dtype:float32,shape:[512, 512, 3, 3]}
    out_0 {name:"Node_1463:0",dtype:float32,shape:[512, 512, 3, 3]}
    attrs {'a_min': -127.0, 'a_max': 127.0}
  }
}
layer {
  name:"Node_1464"
  type:"cast"
  top:"Node_1464"
  bottom:"Node_1463"
  layer_param {
    idx:1464
    in_0 {name:"Node_1463:0",dtype:float32,shape:[512, 512, 3, 3]}
    out_0 {name:"Node_1464:0",dtype:int8,shape:[512, 512, 3, 3]}
    attrs {'dtype': 'int8'}
  }
}
layer {
  name:"Node_1465"
  type:"nn_conv2d"
  top:"Node_1465"
  bottom:"Node_1454"
  bottom:"Node_1464"
  layer_param {
    idx:1465
    in_0 {name:"Node_1454:0",dtype:int8,shape:[1, 512, 7, 7]}
    in_1 {name:"Node_1464:0",dtype:int8,shape:[512, 512, 3, 3]}
    out_0 {name:"Node_1465:0",dtype:int32,shape:[1, 512, 7, 7]}
    attrs {'strides': [1, 1], 'padding': [1, 1, 1, 1], 'dilation': [1, 1], 'groups': 1, 'channels': 512, 'kernel_size': [3, 3], 'data_layout': 'NCHW', 'kernel_layout': 'OIHW', 'out_layout': '', 'out_dtype': 'int32'}
  }
}
layer {
  name:"Node_1466"
  type:"cast"
  top:"Node_1466"
  bottom:"Node_1465"
  layer_param {
    idx:1466
    in_0 {name:"Node_1465:0",dtype:int32,shape:[1, 512, 7, 7]}
    out_0 {name:"Node_1466:0",dtype:int64,shape:[1, 512, 7, 7]}
    attrs {'dtype': 'int64'}
  }
}
layer {
  name:"Node_1467"
  type:"fixed_point_multiply"
  top:"Node_1467"
  bottom:"Node_1466"
  layer_param {
    idx:1467
    in_0 {name:"Node_1466:0",dtype:int64,shape:[1, 512, 7, 7]}
    out_0 {name:"Node_1467:0",dtype:int64,shape:[1, 512, 7, 7]}
  }
}
layer {
  name:"Node_1468"
  type:"clip"
  top:"Node_1468"
  bottom:"Node_1467"
  layer_param {
    idx:1468
    in_0 {name:"Node_1467:0",dtype:int64,shape:[1, 512, 7, 7]}
    out_0 {name:"Node_1468:0",dtype:int64,shape:[1, 512, 7, 7]}
    attrs {'a_min': -127.0, 'a_max': 127.0}
  }
}
layer {
  name:"Node_1469"
  type:"cast"
  top:"Node_1469"
  bottom:"Node_1468"
  layer_param {
    idx:1469
    in_0 {name:"Node_1468:0",dtype:int64,shape:[1, 512, 7, 7]}
    out_0 {name:"Node_1469:0",dtype:int32,shape:[1, 512, 7, 7]}
    attrs {'dtype': 'int32'}
  }
}
layer {
  name:"Node_1470"
  type:"cast"
  top:"Node_1470"
  bottom:"Node_1469"
  layer_param {
    idx:1470
    in_0 {name:"Node_1469:0",dtype:int32,shape:[1, 512, 7, 7]}
    out_0 {name:"Node_1470:0",dtype:int8,shape:[1, 512, 7, 7]}
    attrs {'dtype': 'int8'}
  }
}
layer {
  name:"Node_1471"
  type:"annotation_stop_fusion"
  top:"Node_1471"
  bottom:"Node_1470"
  layer_param {
    idx:1471
    in_0 {name:"Node_1470:0",dtype:int8,shape:[1, 512, 7, 7]}
    out_0 {name:"Node_1471:0",dtype:int8,shape:[1, 512, 7, 7]}
  }
}
layer {
  name:"Node_1472"
  type:"cast"
  top:"Node_1472"
  bottom:"Node_1471"
  layer_param {
    idx:1472
    in_0 {name:"Node_1471:0",dtype:int8,shape:[1, 512, 7, 7]}
    out_0 {name:"Node_1472:0",dtype:int32,shape:[1, 512, 7, 7]}
    attrs {'dtype': 'int32'}
  }
}
layer {
  name:"Node_1477"
  type:"const"
  top:"Node_1477"
  layer_param {
    idx:1477
    out_0 {name:"Node_1477:0",dtype:float32,shape:[512, 1, 1]}
  }
}
layer {
  name:"Node_1478"
  type:"const"
  top:"Node_1478"
  layer_param {
    idx:1478
    out_0 {name:"Node_1478:0",dtype:float32,shape:[]}
  }
}
layer {
  name:"Node_1479"
  type:"multiply"
  top:"Node_1479"
  bottom:"Node_1477"
  bottom:"Node_1478"
  layer_param {
    idx:1479
    in_0 {name:"Node_1477:0",dtype:float32,shape:[512, 1, 1]}
    in_1 {name:"Node_1478:0",dtype:float32,shape:[]}
    out_0 {name:"Node_1479:0",dtype:float32,shape:[512, 1, 1]}
  }
}
layer {
  name:"Node_1480"
  type:"round"
  top:"Node_1480"
  bottom:"Node_1479"
  layer_param {
    idx:1480
    in_0 {name:"Node_1479:0",dtype:float32,shape:[512, 1, 1]}
    out_0 {name:"Node_1480:0",dtype:float32,shape:[512, 1, 1]}
  }
}
layer {
  name:"Node_1481"
  type:"clip"
  top:"Node_1481"
  bottom:"Node_1480"
  layer_param {
    idx:1481
    in_0 {name:"Node_1480:0",dtype:float32,shape:[512, 1, 1]}
    out_0 {name:"Node_1481:0",dtype:float32,shape:[512, 1, 1]}
    attrs {'a_min': -127.0, 'a_max': 127.0}
  }
}
layer {
  name:"Node_1482"
  type:"cast"
  top:"Node_1482"
  bottom:"Node_1481"
  layer_param {
    idx:1482
    in_0 {name:"Node_1481:0",dtype:float32,shape:[512, 1, 1]}
    out_0 {name:"Node_1482:0",dtype:int32,shape:[512, 1, 1]}
    attrs {'dtype': 'int32'}
  }
}
layer {
  name:"Node_1483"
  type:"multiply"
  top:"Node_1483"
  bottom:"Node_1472"
  bottom:"Node_1482"
  layer_param {
    idx:1483
    in_0 {name:"Node_1472:0",dtype:int32,shape:[1, 512, 7, 7]}
    in_1 {name:"Node_1482:0",dtype:int32,shape:[512, 1, 1]}
    out_0 {name:"Node_1483:0",dtype:int32,shape:[1, 512, 7, 7]}
  }
}
layer {
  name:"Node_1491"
  type:"const"
  top:"Node_1491"
  layer_param {
    idx:1491
    out_0 {name:"Node_1491:0",dtype:float32,shape:[512, 1, 1]}
  }
}
layer {
  name:"Node_1492"
  type:"const"
  top:"Node_1492"
  layer_param {
    idx:1492
    out_0 {name:"Node_1492:0",dtype:float32,shape:[]}
  }
}
layer {
  name:"Node_1493"
  type:"multiply"
  top:"Node_1493"
  bottom:"Node_1491"
  bottom:"Node_1492"
  layer_param {
    idx:1493
    in_0 {name:"Node_1491:0",dtype:float32,shape:[512, 1, 1]}
    in_1 {name:"Node_1492:0",dtype:float32,shape:[]}
    out_0 {name:"Node_1493:0",dtype:float32,shape:[512, 1, 1]}
  }
}
layer {
  name:"Node_1494"
  type:"round"
  top:"Node_1494"
  bottom:"Node_1493"
  layer_param {
    idx:1494
    in_0 {name:"Node_1493:0",dtype:float32,shape:[512, 1, 1]}
    out_0 {name:"Node_1494:0",dtype:float32,shape:[512, 1, 1]}
  }
}
layer {
  name:"Node_1495"
  type:"clip"
  top:"Node_1495"
  bottom:"Node_1494"
  layer_param {
    idx:1495
    in_0 {name:"Node_1494:0",dtype:float32,shape:[512, 1, 1]}
    out_0 {name:"Node_1495:0",dtype:float32,shape:[512, 1, 1]}
    attrs {'a_min': -127.0, 'a_max': 127.0}
  }
}
layer {
  name:"Node_1496"
  type:"cast"
  top:"Node_1496"
  bottom:"Node_1495"
  layer_param {
    idx:1496
    in_0 {name:"Node_1495:0",dtype:float32,shape:[512, 1, 1]}
    out_0 {name:"Node_1496:0",dtype:int32,shape:[512, 1, 1]}
    attrs {'dtype': 'int32'}
  }
}
layer {
  name:"Node_1497"
  type:"fixed_point_multiply"
  top:"Node_1497"
  bottom:"Node_1496"
  layer_param {
    idx:1497
    in_0 {name:"Node_1496:0",dtype:int32,shape:[512, 1, 1]}
    out_0 {name:"Node_1497:0",dtype:int32,shape:[512, 1, 1]}
  }
}
layer {
  name:"Node_1498"
  type:"cast"
  top:"Node_1498"
  bottom:"Node_1497"
  layer_param {
    idx:1498
    in_0 {name:"Node_1497:0",dtype:int32,shape:[512, 1, 1]}
    out_0 {name:"Node_1498:0",dtype:int32,shape:[512, 1, 1]}
    attrs {'dtype': 'int32'}
  }
}
layer {
  name:"Node_1499"
  type:"annotation_stop_fusion"
  top:"Node_1499"
  bottom:"Node_1498"
  layer_param {
    idx:1499
    in_0 {name:"Node_1498:0",dtype:int32,shape:[512, 1, 1]}
    out_0 {name:"Node_1499:0",dtype:int32,shape:[512, 1, 1]}
  }
}
layer {
  name:"Node_1500"
  type:"add"
  top:"Node_1500"
  bottom:"Node_1483"
  bottom:"Node_1499"
  layer_param {
    idx:1500
    in_0 {name:"Node_1483:0",dtype:int32,shape:[1, 512, 7, 7]}
    in_1 {name:"Node_1499:0",dtype:int32,shape:[512, 1, 1]}
    out_0 {name:"Node_1500:0",dtype:int32,shape:[1, 512, 7, 7]}
  }
}
layer {
  name:"Node_1501"
  type:"nn_relu"
  top:"Node_1501"
  bottom:"Node_1500"
  layer_param {
    idx:1501
    in_0 {name:"Node_1500:0",dtype:int32,shape:[1, 512, 7, 7]}
    out_0 {name:"Node_1501:0",dtype:int32,shape:[1, 512, 7, 7]}
  }
}
layer {
  name:"Node_1502"
  type:"cast"
  top:"Node_1502"
  bottom:"Node_1501"
  layer_param {
    idx:1502
    in_0 {name:"Node_1501:0",dtype:int32,shape:[1, 512, 7, 7]}
    out_0 {name:"Node_1502:0",dtype:int64,shape:[1, 512, 7, 7]}
    attrs {'dtype': 'int64'}
  }
}
layer {
  name:"Node_1503"
  type:"fixed_point_multiply"
  top:"Node_1503"
  bottom:"Node_1502"
  layer_param {
    idx:1503
    in_0 {name:"Node_1502:0",dtype:int64,shape:[1, 512, 7, 7]}
    out_0 {name:"Node_1503:0",dtype:int64,shape:[1, 512, 7, 7]}
  }
}
layer {
  name:"Node_1504"
  type:"clip"
  top:"Node_1504"
  bottom:"Node_1503"
  layer_param {
    idx:1504
    in_0 {name:"Node_1503:0",dtype:int64,shape:[1, 512, 7, 7]}
    out_0 {name:"Node_1504:0",dtype:int64,shape:[1, 512, 7, 7]}
    attrs {'a_min': -127.0, 'a_max': 127.0}
  }
}
layer {
  name:"Node_1505"
  type:"cast"
  top:"Node_1505"
  bottom:"Node_1504"
  layer_param {
    idx:1505
    in_0 {name:"Node_1504:0",dtype:int64,shape:[1, 512, 7, 7]}
    out_0 {name:"Node_1505:0",dtype:int32,shape:[1, 512, 7, 7]}
    attrs {'dtype': 'int32'}
  }
}
layer {
  name:"Node_1506"
  type:"cast"
  top:"Node_1506"
  bottom:"Node_1505"
  layer_param {
    idx:1506
    in_0 {name:"Node_1505:0",dtype:int32,shape:[1, 512, 7, 7]}
    out_0 {name:"Node_1506:0",dtype:int8,shape:[1, 512, 7, 7]}
    attrs {'dtype': 'int8'}
  }
}
layer {
  name:"Node_1507"
  type:"annotation_stop_fusion"
  top:"Node_1507"
  bottom:"Node_1506"
  layer_param {
    idx:1507
    in_0 {name:"Node_1506:0",dtype:int8,shape:[1, 512, 7, 7]}
    out_0 {name:"Node_1507:0",dtype:int8,shape:[1, 512, 7, 7]}
  }
}
layer {
  name:"Node_1512"
  type:"const"
  top:"Node_1512"
  layer_param {
    idx:1512
    out_0 {name:"Node_1512:0",dtype:float32,shape:[512, 512, 3, 3]}
  }
}
layer {
  name:"Node_1513"
  type:"const"
  top:"Node_1513"
  layer_param {
    idx:1513
    out_0 {name:"Node_1513:0",dtype:float32,shape:[]}
  }
}
layer {
  name:"Node_1514"
  type:"multiply"
  top:"Node_1514"
  bottom:"Node_1512"
  bottom:"Node_1513"
  layer_param {
    idx:1514
    in_0 {name:"Node_1512:0",dtype:float32,shape:[512, 512, 3, 3]}
    in_1 {name:"Node_1513:0",dtype:float32,shape:[]}
    out_0 {name:"Node_1514:0",dtype:float32,shape:[512, 512, 3, 3]}
  }
}
layer {
  name:"Node_1515"
  type:"round"
  top:"Node_1515"
  bottom:"Node_1514"
  layer_param {
    idx:1515
    in_0 {name:"Node_1514:0",dtype:float32,shape:[512, 512, 3, 3]}
    out_0 {name:"Node_1515:0",dtype:float32,shape:[512, 512, 3, 3]}
  }
}
layer {
  name:"Node_1516"
  type:"clip"
  top:"Node_1516"
  bottom:"Node_1515"
  layer_param {
    idx:1516
    in_0 {name:"Node_1515:0",dtype:float32,shape:[512, 512, 3, 3]}
    out_0 {name:"Node_1516:0",dtype:float32,shape:[512, 512, 3, 3]}
    attrs {'a_min': -127.0, 'a_max': 127.0}
  }
}
layer {
  name:"Node_1517"
  type:"cast"
  top:"Node_1517"
  bottom:"Node_1516"
  layer_param {
    idx:1517
    in_0 {name:"Node_1516:0",dtype:float32,shape:[512, 512, 3, 3]}
    out_0 {name:"Node_1517:0",dtype:int8,shape:[512, 512, 3, 3]}
    attrs {'dtype': 'int8'}
  }
}
layer {
  name:"Node_1518"
  type:"nn_conv2d"
  top:"Node_1518"
  bottom:"Node_1507"
  bottom:"Node_1517"
  layer_param {
    idx:1518
    in_0 {name:"Node_1507:0",dtype:int8,shape:[1, 512, 7, 7]}
    in_1 {name:"Node_1517:0",dtype:int8,shape:[512, 512, 3, 3]}
    out_0 {name:"Node_1518:0",dtype:int32,shape:[1, 512, 7, 7]}
    attrs {'strides': [1, 1], 'padding': [1, 1, 1, 1], 'dilation': [1, 1], 'groups': 1, 'channels': 512, 'kernel_size': [3, 3], 'data_layout': 'NCHW', 'kernel_layout': 'OIHW', 'out_layout': '', 'out_dtype': 'int32'}
  }
}
layer {
  name:"Node_1519"
  type:"cast"
  top:"Node_1519"
  bottom:"Node_1518"
  layer_param {
    idx:1519
    in_0 {name:"Node_1518:0",dtype:int32,shape:[1, 512, 7, 7]}
    out_0 {name:"Node_1519:0",dtype:int64,shape:[1, 512, 7, 7]}
    attrs {'dtype': 'int64'}
  }
}
layer {
  name:"Node_1520"
  type:"fixed_point_multiply"
  top:"Node_1520"
  bottom:"Node_1519"
  layer_param {
    idx:1520
    in_0 {name:"Node_1519:0",dtype:int64,shape:[1, 512, 7, 7]}
    out_0 {name:"Node_1520:0",dtype:int64,shape:[1, 512, 7, 7]}
  }
}
layer {
  name:"Node_1521"
  type:"clip"
  top:"Node_1521"
  bottom:"Node_1520"
  layer_param {
    idx:1521
    in_0 {name:"Node_1520:0",dtype:int64,shape:[1, 512, 7, 7]}
    out_0 {name:"Node_1521:0",dtype:int64,shape:[1, 512, 7, 7]}
    attrs {'a_min': -127.0, 'a_max': 127.0}
  }
}
layer {
  name:"Node_1522"
  type:"cast"
  top:"Node_1522"
  bottom:"Node_1521"
  layer_param {
    idx:1522
    in_0 {name:"Node_1521:0",dtype:int64,shape:[1, 512, 7, 7]}
    out_0 {name:"Node_1522:0",dtype:int32,shape:[1, 512, 7, 7]}
    attrs {'dtype': 'int32'}
  }
}
layer {
  name:"Node_1523"
  type:"cast"
  top:"Node_1523"
  bottom:"Node_1522"
  layer_param {
    idx:1523
    in_0 {name:"Node_1522:0",dtype:int32,shape:[1, 512, 7, 7]}
    out_0 {name:"Node_1523:0",dtype:int8,shape:[1, 512, 7, 7]}
    attrs {'dtype': 'int8'}
  }
}
layer {
  name:"Node_1524"
  type:"annotation_stop_fusion"
  top:"Node_1524"
  bottom:"Node_1523"
  layer_param {
    idx:1524
    in_0 {name:"Node_1523:0",dtype:int8,shape:[1, 512, 7, 7]}
    out_0 {name:"Node_1524:0",dtype:int8,shape:[1, 512, 7, 7]}
  }
}
layer {
  name:"Node_1525"
  type:"cast"
  top:"Node_1525"
  bottom:"Node_1524"
  layer_param {
    idx:1525
    in_0 {name:"Node_1524:0",dtype:int8,shape:[1, 512, 7, 7]}
    out_0 {name:"Node_1525:0",dtype:int32,shape:[1, 512, 7, 7]}
    attrs {'dtype': 'int32'}
  }
}
layer {
  name:"Node_1530"
  type:"const"
  top:"Node_1530"
  layer_param {
    idx:1530
    out_0 {name:"Node_1530:0",dtype:float32,shape:[512, 1, 1]}
  }
}
layer {
  name:"Node_1531"
  type:"const"
  top:"Node_1531"
  layer_param {
    idx:1531
    out_0 {name:"Node_1531:0",dtype:float32,shape:[]}
  }
}
layer {
  name:"Node_1532"
  type:"multiply"
  top:"Node_1532"
  bottom:"Node_1530"
  bottom:"Node_1531"
  layer_param {
    idx:1532
    in_0 {name:"Node_1530:0",dtype:float32,shape:[512, 1, 1]}
    in_1 {name:"Node_1531:0",dtype:float32,shape:[]}
    out_0 {name:"Node_1532:0",dtype:float32,shape:[512, 1, 1]}
  }
}
layer {
  name:"Node_1533"
  type:"round"
  top:"Node_1533"
  bottom:"Node_1532"
  layer_param {
    idx:1533
    in_0 {name:"Node_1532:0",dtype:float32,shape:[512, 1, 1]}
    out_0 {name:"Node_1533:0",dtype:float32,shape:[512, 1, 1]}
  }
}
layer {
  name:"Node_1534"
  type:"clip"
  top:"Node_1534"
  bottom:"Node_1533"
  layer_param {
    idx:1534
    in_0 {name:"Node_1533:0",dtype:float32,shape:[512, 1, 1]}
    out_0 {name:"Node_1534:0",dtype:float32,shape:[512, 1, 1]}
    attrs {'a_min': -127.0, 'a_max': 127.0}
  }
}
layer {
  name:"Node_1535"
  type:"cast"
  top:"Node_1535"
  bottom:"Node_1534"
  layer_param {
    idx:1535
    in_0 {name:"Node_1534:0",dtype:float32,shape:[512, 1, 1]}
    out_0 {name:"Node_1535:0",dtype:int32,shape:[512, 1, 1]}
    attrs {'dtype': 'int32'}
  }
}
layer {
  name:"Node_1536"
  type:"multiply"
  top:"Node_1536"
  bottom:"Node_1525"
  bottom:"Node_1535"
  layer_param {
    idx:1536
    in_0 {name:"Node_1525:0",dtype:int32,shape:[1, 512, 7, 7]}
    in_1 {name:"Node_1535:0",dtype:int32,shape:[512, 1, 1]}
    out_0 {name:"Node_1536:0",dtype:int32,shape:[1, 512, 7, 7]}
  }
}
layer {
  name:"Node_1544"
  type:"const"
  top:"Node_1544"
  layer_param {
    idx:1544
    out_0 {name:"Node_1544:0",dtype:float32,shape:[512, 1, 1]}
  }
}
layer {
  name:"Node_1545"
  type:"const"
  top:"Node_1545"
  layer_param {
    idx:1545
    out_0 {name:"Node_1545:0",dtype:float32,shape:[]}
  }
}
layer {
  name:"Node_1546"
  type:"multiply"
  top:"Node_1546"
  bottom:"Node_1544"
  bottom:"Node_1545"
  layer_param {
    idx:1546
    in_0 {name:"Node_1544:0",dtype:float32,shape:[512, 1, 1]}
    in_1 {name:"Node_1545:0",dtype:float32,shape:[]}
    out_0 {name:"Node_1546:0",dtype:float32,shape:[512, 1, 1]}
  }
}
layer {
  name:"Node_1547"
  type:"round"
  top:"Node_1547"
  bottom:"Node_1546"
  layer_param {
    idx:1547
    in_0 {name:"Node_1546:0",dtype:float32,shape:[512, 1, 1]}
    out_0 {name:"Node_1547:0",dtype:float32,shape:[512, 1, 1]}
  }
}
layer {
  name:"Node_1548"
  type:"clip"
  top:"Node_1548"
  bottom:"Node_1547"
  layer_param {
    idx:1548
    in_0 {name:"Node_1547:0",dtype:float32,shape:[512, 1, 1]}
    out_0 {name:"Node_1548:0",dtype:float32,shape:[512, 1, 1]}
    attrs {'a_min': -127.0, 'a_max': 127.0}
  }
}
layer {
  name:"Node_1549"
  type:"cast"
  top:"Node_1549"
  bottom:"Node_1548"
  layer_param {
    idx:1549
    in_0 {name:"Node_1548:0",dtype:float32,shape:[512, 1, 1]}
    out_0 {name:"Node_1549:0",dtype:int32,shape:[512, 1, 1]}
    attrs {'dtype': 'int32'}
  }
}
layer {
  name:"Node_1550"
  type:"fixed_point_multiply"
  top:"Node_1550"
  bottom:"Node_1549"
  layer_param {
    idx:1550
    in_0 {name:"Node_1549:0",dtype:int32,shape:[512, 1, 1]}
    out_0 {name:"Node_1550:0",dtype:int32,shape:[512, 1, 1]}
  }
}
layer {
  name:"Node_1551"
  type:"cast"
  top:"Node_1551"
  bottom:"Node_1550"
  layer_param {
    idx:1551
    in_0 {name:"Node_1550:0",dtype:int32,shape:[512, 1, 1]}
    out_0 {name:"Node_1551:0",dtype:int32,shape:[512, 1, 1]}
    attrs {'dtype': 'int32'}
  }
}
layer {
  name:"Node_1552"
  type:"annotation_stop_fusion"
  top:"Node_1552"
  bottom:"Node_1551"
  layer_param {
    idx:1552
    in_0 {name:"Node_1551:0",dtype:int32,shape:[512, 1, 1]}
    out_0 {name:"Node_1552:0",dtype:int32,shape:[512, 1, 1]}
  }
}
layer {
  name:"Node_1553"
  type:"add"
  top:"Node_1553"
  bottom:"Node_1536"
  bottom:"Node_1552"
  layer_param {
    idx:1553
    in_0 {name:"Node_1536:0",dtype:int32,shape:[1, 512, 7, 7]}
    in_1 {name:"Node_1552:0",dtype:int32,shape:[512, 1, 1]}
    out_0 {name:"Node_1553:0",dtype:int32,shape:[1, 512, 7, 7]}
  }
}
layer {
  name:"Node_1554"
  type:"cast"
  top:"Node_1554"
  bottom:"Node_1553"
  layer_param {
    idx:1554
    in_0 {name:"Node_1553:0",dtype:int32,shape:[1, 512, 7, 7]}
    out_0 {name:"Node_1554:0",dtype:int64,shape:[1, 512, 7, 7]}
    attrs {'dtype': 'int64'}
  }
}
layer {
  name:"Node_1555"
  type:"fixed_point_multiply"
  top:"Node_1555"
  bottom:"Node_1554"
  layer_param {
    idx:1555
    in_0 {name:"Node_1554:0",dtype:int64,shape:[1, 512, 7, 7]}
    out_0 {name:"Node_1555:0",dtype:int64,shape:[1, 512, 7, 7]}
  }
}
layer {
  name:"Node_1556"
  type:"clip"
  top:"Node_1556"
  bottom:"Node_1555"
  layer_param {
    idx:1556
    in_0 {name:"Node_1555:0",dtype:int64,shape:[1, 512, 7, 7]}
    out_0 {name:"Node_1556:0",dtype:int64,shape:[1, 512, 7, 7]}
    attrs {'a_min': -127.0, 'a_max': 127.0}
  }
}
layer {
  name:"Node_1557"
  type:"cast"
  top:"Node_1557"
  bottom:"Node_1556"
  layer_param {
    idx:1557
    in_0 {name:"Node_1556:0",dtype:int64,shape:[1, 512, 7, 7]}
    out_0 {name:"Node_1557:0",dtype:int32,shape:[1, 512, 7, 7]}
    attrs {'dtype': 'int32'}
  }
}
layer {
  name:"Node_1558"
  type:"cast"
  top:"Node_1558"
  bottom:"Node_1557"
  layer_param {
    idx:1558
    in_0 {name:"Node_1557:0",dtype:int32,shape:[1, 512, 7, 7]}
    out_0 {name:"Node_1558:0",dtype:int8,shape:[1, 512, 7, 7]}
    attrs {'dtype': 'int8'}
  }
}
layer {
  name:"Node_1559"
  type:"annotation_stop_fusion"
  top:"Node_1559"
  bottom:"Node_1558"
  layer_param {
    idx:1559
    in_0 {name:"Node_1558:0",dtype:int8,shape:[1, 512, 7, 7]}
    out_0 {name:"Node_1559:0",dtype:int8,shape:[1, 512, 7, 7]}
  }
}
layer {
  name:"Node_1560"
  type:"cast"
  top:"Node_1560"
  bottom:"Node_1559"
  layer_param {
    idx:1560
    in_0 {name:"Node_1559:0",dtype:int8,shape:[1, 512, 7, 7]}
    out_0 {name:"Node_1560:0",dtype:int32,shape:[1, 512, 7, 7]}
    attrs {'dtype': 'int32'}
  }
}
layer {
  name:"Node_1561"
  type:"fixed_point_multiply"
  top:"Node_1561"
  bottom:"Node_1560"
  layer_param {
    idx:1561
    in_0 {name:"Node_1560:0",dtype:int32,shape:[1, 512, 7, 7]}
    out_0 {name:"Node_1561:0",dtype:int32,shape:[1, 512, 7, 7]}
  }
}
layer {
  name:"Node_1562"
  type:"cast"
  top:"Node_1562"
  bottom:"Node_1561"
  layer_param {
    idx:1562
    in_0 {name:"Node_1561:0",dtype:int32,shape:[1, 512, 7, 7]}
    out_0 {name:"Node_1562:0",dtype:int32,shape:[1, 512, 7, 7]}
    attrs {'dtype': 'int32'}
  }
}
layer {
  name:"Node_1567"
  type:"cast"
  top:"Node_1567"
  bottom:"Node_1452"
  layer_param {
    idx:1567
    in_0 {name:"Node_1452:0",dtype:int32,shape:[1, 512, 7, 7]}
    out_0 {name:"Node_1567:0",dtype:int8,shape:[1, 512, 7, 7]}
    attrs {'dtype': 'int8'}
  }
}
layer {
  name:"Node_1568"
  type:"annotation_stop_fusion"
  top:"Node_1568"
  bottom:"Node_1567"
  layer_param {
    idx:1568
    in_0 {name:"Node_1567:0",dtype:int8,shape:[1, 512, 7, 7]}
    out_0 {name:"Node_1568:0",dtype:int8,shape:[1, 512, 7, 7]}
  }
}
layer {
  name:"Node_1569"
  type:"cast"
  top:"Node_1569"
  bottom:"Node_1568"
  layer_param {
    idx:1569
    in_0 {name:"Node_1568:0",dtype:int8,shape:[1, 512, 7, 7]}
    out_0 {name:"Node_1569:0",dtype:int32,shape:[1, 512, 7, 7]}
    attrs {'dtype': 'int32'}
  }
}
layer {
  name:"Node_1570"
  type:"add"
  top:"Node_1570"
  bottom:"Node_1562"
  bottom:"Node_1569"
  layer_param {
    idx:1570
    in_0 {name:"Node_1562:0",dtype:int32,shape:[1, 512, 7, 7]}
    in_1 {name:"Node_1569:0",dtype:int32,shape:[1, 512, 7, 7]}
    out_0 {name:"Node_1570:0",dtype:int32,shape:[1, 512, 7, 7]}
  }
}
layer {
  name:"Node_1571"
  type:"nn_relu"
  top:"Node_1571"
  bottom:"Node_1570"
  layer_param {
    idx:1571
    in_0 {name:"Node_1570:0",dtype:int32,shape:[1, 512, 7, 7]}
    out_0 {name:"Node_1571:0",dtype:int32,shape:[1, 512, 7, 7]}
  }
}
layer {
  name:"Node_1572"
  type:"cast"
  top:"Node_1572"
  bottom:"Node_1571"
  layer_param {
    idx:1572
    in_0 {name:"Node_1571:0",dtype:int32,shape:[1, 512, 7, 7]}
    out_0 {name:"Node_1572:0",dtype:int8,shape:[1, 512, 7, 7]}
    attrs {'dtype': 'int8'}
  }
}
layer {
  name:"Node_1573"
  type:"annotation_stop_fusion"
  top:"Node_1573"
  bottom:"Node_1572"
  layer_param {
    idx:1573
    in_0 {name:"Node_1572:0",dtype:int8,shape:[1, 512, 7, 7]}
    out_0 {name:"Node_1573:0",dtype:int8,shape:[1, 512, 7, 7]}
  }
}
layer {
  name:"Node_1574"
  type:"cast"
  top:"Node_1574"
  bottom:"Node_1573"
  layer_param {
    idx:1574
    in_0 {name:"Node_1573:0",dtype:int8,shape:[1, 512, 7, 7]}
    out_0 {name:"Node_1574:0",dtype:float32,shape:[1, 512, 7, 7]}
    attrs {'dtype': 'float32'}
  }
}
layer {
  name:"Node_1575"
  type:"const"
  top:"Node_1575"
  layer_param {
    idx:1575
    out_0 {name:"Node_1575:0",dtype:float32,shape:[]}
  }
}
layer {
  name:"Node_1576"
  type:"multiply"
  top:"Node_1576"
  bottom:"Node_1574"
  bottom:"Node_1575"
  layer_param {
    idx:1576
    in_0 {name:"Node_1574:0",dtype:float32,shape:[1, 512, 7, 7]}
    in_1 {name:"Node_1575:0",dtype:float32,shape:[]}
    out_0 {name:"Node_1576:0",dtype:float32,shape:[1, 512, 7, 7]}
  }
}
layer {
  name:"Node_1577"
  type:"nn_adaptive_avg_pool2d"
  top:"Node_1577"
  bottom:"Node_1576"
  layer_param {
    idx:1577
    in_0 {name:"Node_1576:0",dtype:float32,shape:[1, 512, 7, 7]}
    out_0 {name:"Node_1577:0",dtype:float32,shape:[1, 512, 1, 1]}
    attrs {'output_size': [1, 1], 'layout': 'NCHW'}
  }
}
layer {
  name:"Node_1578"
  type:"reshape"
  top:"Node_1578"
  bottom:"Node_1577"
  layer_param {
    idx:1578
    in_0 {name:"Node_1577:0",dtype:float32,shape:[1, 512, 1, 1]}
    out_0 {name:"Node_1578:0",dtype:float32,shape:[1, 512, 1, 1]}
    attrs {'newshape': [0, -1, 1, 1]}
  }
}
layer {
  name:"Node_1579"
  type:"squeeze"
  top:"Node_1579"
  bottom:"Node_1578"
  layer_param {
    idx:1579
    in_0 {name:"Node_1578:0",dtype:float32,shape:[1, 512, 1, 1]}
    out_0 {name:"Node_1579:0",dtype:float32,shape:[1, 512]}
    attrs {'axis': [2, 3]}
  }
}
layer {
  name:"Node_1580"
  type:"const"
  top:"Node_1580"
  layer_param {
    idx:1580
    out_0 {name:"Node_1580:0",dtype:float32,shape:[1000, 512]}
  }
}
layer {
  name:"Node_1581"
  type:"nn_dense"
  top:"Node_1581"
  bottom:"Node_1579"
  bottom:"Node_1580"
  layer_param {
    idx:1581
    in_0 {name:"Node_1579:0",dtype:float32,shape:[1, 512]}
    in_1 {name:"Node_1580:0",dtype:float32,shape:[1000, 512]}
    out_0 {name:"Node_1581:0",dtype:float32,shape:[1, 1000]}
    attrs {'units': 1000, 'out_dtype': ''}
  }
}
layer {
  name:"Node_1582"
  type:"const"
  top:"Node_1582"
  layer_param {
    idx:1582
    out_0 {name:"Node_1582:0",dtype:float32,shape:[1000]}
  }
}
layer {
  name:"Node_1583"
  type:"add"
  top:"Node_1583"
  bottom:"Node_1581"
  bottom:"Node_1582"
  layer_param {
    idx:1583
    in_0 {name:"Node_1581:0",dtype:float32,shape:[1, 1000]}
    in_1 {name:"Node_1582:0",dtype:float32,shape:[1000]}
    out_0 {name:"Node_1583:0",dtype:float32,shape:[1, 1000]}
  }
}
layer {
  name:"Node_1584"
  type:"function"
  top:"Node_1584"
  bottom:"input0"
  bottom:"Node_1583"
  layer_param {
    idx:1584
    in_0 {name:"input0:0",dtype:float32,shape:[1, 3, 224, 224]}
    in_1 {name:"Node_1583:0",dtype:float32,shape:[1, 1000]}
    out_0 {name:"Node_1584:0",dtype:float32,shape:[1, 1000]}
  }
}
