name : "relay_ir"
layer {
  name:"input0"
  type:"input"
  top:"input0"
  layer_param {
    idx:0
    out_0 {name:"input0:0",dtype:float32,shape:[1, 3, 224, 224]}
  }
}
layer {
  name:"x"
  type:"var"
  top:"x"
  bottom:"Node_6"
  layer_param {
    idx:1
    in_0 {name:"Node_6:0",dtype:float32,shape:[1, 1, 224, 224, 3]}
    out_0 {name:"x:0",dtype:float32,shape:[1, 1, 224, 224, 3]}
  }
}
layer {
  name:"p0"
  type:"input"
  top:"p0"
  layer_param {
    idx:2
    out_0 {name:"p0:0",dtype:float32,shape:[1, 3, 224, 224]}
  }
}
layer {
  name:"Node_5"
  type:"layout_transform"
  top:"Node_5"
  bottom:"p0"
  layer_param {
    idx:5
    in_0 {name:"p0:0",dtype:float32,shape:[1, 3, 224, 224]}
    out_0 {name:"Node_5:0",dtype:float32,shape:[1, 1, 224, 224, 3]}
    attrs {'src_layout': 'NCHW', 'dst_layout': 'NCHW3c'}
  }
}
layer {
  name:"Node_6"
  type:"function"
  top:"Node_6"
  bottom:"p0"
  bottom:"Node_5"
  layer_param {
    idx:6
    in_0 {name:"p0:0",dtype:float32,shape:[1, 3, 224, 224]}
    in_1 {name:"Node_5:0",dtype:float32,shape:[1, 1, 224, 224, 3]}
    out_0 {name:"Node_6:0",dtype:float32,shape:[1, 1, 224, 224, 3]}
  }
}
layer {
  name:"x_1"
  type:"var"
  top:"x_1"
  bottom:"Node_10"
  layer_param {
    idx:7
    in_0 {name:"Node_10:0",dtype:float32,shape:[1, 1, 224, 224, 3]}
    out_0 {name:"x:0",dtype:float32,shape:[1, 1, 224, 224, 3]}
  }
}
layer {
  name:"Node_10"
  type:"var_call"
  top:"Node_10"
  bottom:"x"
  bottom:"input0"
  layer_param {
    idx:10
    in_0 {name:"x:0",dtype:float32,shape:[1, 1, 224, 224, 3]}
    in_1 {name:"input0:0",dtype:float32,shape:[1, 3, 224, 224]}
    out_0 {name:"Node_10:0",dtype:float32,shape:[1, 1, 224, 224, 3]}
  }
}
layer {
  name:"x_2"
  type:"var"
  top:"x_2"
  bottom:"Node_12"
  layer_param {
    idx:11
    in_0 {name:"Node_12:0",dtype:float32,shape:[2, 1, 7, 7, 3, 32]}
    out_0 {name:"x:0",dtype:float32,shape:[2, 1, 7, 7, 3, 32]}
  }
}
layer {
  name:"Node_12"
  type:"const"
  top:"Node_12"
  layer_param {
    idx:12
    out_0 {name:"Node_12:0",dtype:float32,shape:[2, 1, 7, 7, 3, 32]}
  }
}
layer {
  name:"x_3"
  type:"var"
  top:"x_3"
  bottom:"Node_14"
  layer_param {
    idx:13
    in_0 {name:"Node_14:0",dtype:float32,shape:[1, 2, 1, 1, 32]}
    out_0 {name:"x:0",dtype:float32,shape:[1, 2, 1, 1, 32]}
  }
}
layer {
  name:"Node_14"
  type:"const"
  top:"Node_14"
  layer_param {
    idx:14
    out_0 {name:"Node_14:0",dtype:float32,shape:[1, 2, 1, 1, 32]}
  }
}
layer {
  name:"x_4"
  type:"var"
  top:"x_4"
  bottom:"Node_28"
  layer_param {
    idx:15
    in_0 {name:"Node_28:0",dtype:float32,shape:[1, 2, 112, 112, 32]}
    out_0 {name:"x:0",dtype:float32,shape:[1, 2, 112, 112, 32]}
  }
}
layer {
  name:"p0_1"
  type:"input"
  top:"p0_1"
  layer_param {
    idx:16
    out_0 {name:"p0:0",dtype:float32,shape:[1, 1, 224, 224, 3]}
  }
}
layer {
  name:"p1"
  type:"input"
  top:"p1"
  layer_param {
    idx:17
    out_0 {name:"p1:0",dtype:float32,shape:[2, 1, 7, 7, 3, 32]}
  }
}
layer {
  name:"p2"
  type:"input"
  top:"p2"
  layer_param {
    idx:18
    out_0 {name:"p2:0",dtype:float32,shape:[1, 2, 1, 1, 32]}
  }
}
layer {
  name:"Node_24"
  type:"nn_contrib_conv2d_NCHWc"
  top:"Node_24"
  bottom:"p0_1"
  bottom:"p1"
  layer_param {
    idx:24
    in_0 {name:"p0:0",dtype:float32,shape:[1, 1, 224, 224, 3]}
    in_1 {name:"p1:0",dtype:float32,shape:[2, 1, 7, 7, 3, 32]}
    out_0 {name:"Node_24:0",dtype:float32,shape:[1, 2, 112, 112, 32]}
    attrs {'strides': [2, 2], 'padding': [3, 3, 3, 3], 'dilation': [1, 1], 'groups': 1, 'channels': 64, 'kernel_size': [7, 7], 'data_layout': 'NCHW3c', 'kernel_layout': 'OIHW3i32o', 'out_layout': 'NCHW32c', 'out_dtype': ''}
  }
}
layer {
  name:"Node_26"
  type:"add"
  top:"Node_26"
  bottom:"Node_24"
  bottom:"p2"
  layer_param {
    idx:26
    in_0 {name:"Node_24:0",dtype:float32,shape:[1, 2, 112, 112, 32]}
    in_1 {name:"p2:0",dtype:float32,shape:[1, 2, 1, 1, 32]}
    out_0 {name:"Node_26:0",dtype:float32,shape:[1, 2, 112, 112, 32]}
  }
}
layer {
  name:"Node_27"
  type:"nn_relu"
  top:"Node_27"
  bottom:"Node_26"
  layer_param {
    idx:27
    in_0 {name:"Node_26:0",dtype:float32,shape:[1, 2, 112, 112, 32]}
    out_0 {name:"Node_27:0",dtype:float32,shape:[1, 2, 112, 112, 32]}
  }
}
layer {
  name:"Node_28"
  type:"function"
  top:"Node_28"
  bottom:"p0_1"
  bottom:"p1"
  bottom:"p2"
  bottom:"Node_27"
  layer_param {
    idx:28
    in_0 {name:"p0:0",dtype:float32,shape:[1, 1, 224, 224, 3]}
    in_1 {name:"p1:0",dtype:float32,shape:[2, 1, 7, 7, 3, 32]}
    in_2 {name:"p2:0",dtype:float32,shape:[1, 2, 1, 1, 32]}
    in_3 {name:"Node_27:0",dtype:float32,shape:[1, 2, 112, 112, 32]}
    out_0 {name:"Node_28:0",dtype:float32,shape:[1, 2, 112, 112, 32]}
  }
}
layer {
  name:"x_5"
  type:"var"
  top:"x_5"
  bottom:"Node_34"
  layer_param {
    idx:29
    in_0 {name:"Node_34:0",dtype:float32,shape:[1, 2, 112, 112, 32]}
    out_0 {name:"x:0",dtype:float32,shape:[1, 2, 112, 112, 32]}
  }
}
layer {
  name:"Node_34"
  type:"var_call"
  top:"Node_34"
  bottom:"x_4"
  bottom:"x_1"
  bottom:"x_2"
  bottom:"x_3"
  layer_param {
    idx:34
    in_0 {name:"x:0",dtype:float32,shape:[1, 2, 112, 112, 32]}
    in_1 {name:"x:0",dtype:float32,shape:[1, 1, 224, 224, 3]}
    in_2 {name:"x:0",dtype:float32,shape:[2, 1, 7, 7, 3, 32]}
    in_3 {name:"x:0",dtype:float32,shape:[1, 2, 1, 1, 32]}
    out_0 {name:"Node_34:0",dtype:float32,shape:[1, 2, 112, 112, 32]}
  }
}
layer {
  name:"x_6"
  type:"var"
  top:"x_6"
  bottom:"Node_40"
  layer_param {
    idx:35
    in_0 {name:"Node_40:0",dtype:float32,shape:[1, 2, 56, 56, 32]}
    out_0 {name:"x:0",dtype:float32,shape:[1, 2, 56, 56, 32]}
  }
}
layer {
  name:"p0_2"
  type:"input"
  top:"p0_2"
  layer_param {
    idx:36
    out_0 {name:"p0:0",dtype:float32,shape:[1, 2, 112, 112, 32]}
  }
}
layer {
  name:"Node_39"
  type:"nn_max_pool2d"
  top:"Node_39"
  bottom:"p0_2"
  layer_param {
    idx:39
    in_0 {name:"p0:0",dtype:float32,shape:[1, 2, 112, 112, 32]}
    out_0 {name:"Node_39:0",dtype:float32,shape:[1, 2, 56, 56, 32]}
    attrs {'pool_size': [3, 3], 'strides': [2, 2], 'padding': [1, 1, 1, 1], 'layout': 'NCHW32c', 'ceil_mode': 0}
  }
}
layer {
  name:"Node_40"
  type:"function"
  top:"Node_40"
  bottom:"p0_2"
  bottom:"Node_39"
  layer_param {
    idx:40
    in_0 {name:"p0:0",dtype:float32,shape:[1, 2, 112, 112, 32]}
    in_1 {name:"Node_39:0",dtype:float32,shape:[1, 2, 56, 56, 32]}
    out_0 {name:"Node_40:0",dtype:float32,shape:[1, 2, 56, 56, 32]}
  }
}
layer {
  name:"x_7"
  type:"var"
  top:"x_7"
  bottom:"Node_44"
  layer_param {
    idx:41
    in_0 {name:"Node_44:0",dtype:float32,shape:[1, 2, 56, 56, 32]}
    out_0 {name:"x:0",dtype:float32,shape:[1, 2, 56, 56, 32]}
  }
}
layer {
  name:"Node_44"
  type:"var_call"
  top:"Node_44"
  bottom:"x_6"
  bottom:"x_5"
  layer_param {
    idx:44
    in_0 {name:"x:0",dtype:float32,shape:[1, 2, 56, 56, 32]}
    in_1 {name:"x:0",dtype:float32,shape:[1, 2, 112, 112, 32]}
    out_0 {name:"Node_44:0",dtype:float32,shape:[1, 2, 56, 56, 32]}
  }
}
layer {
  name:"x_8"
  type:"var"
  top:"x_8"
  bottom:"Node_50"
  layer_param {
    idx:45
    in_0 {name:"Node_50:0",dtype:float32,shape:[1, 1, 56, 56, 64]}
    out_0 {name:"x:0",dtype:float32,shape:[1, 1, 56, 56, 64]}
  }
}
layer {
  name:"p0_3"
  type:"input"
  top:"p0_3"
  layer_param {
    idx:46
    out_0 {name:"p0:0",dtype:float32,shape:[1, 2, 56, 56, 32]}
  }
}
layer {
  name:"Node_49"
  type:"layout_transform"
  top:"Node_49"
  bottom:"p0_3"
  layer_param {
    idx:49
    in_0 {name:"p0:0",dtype:float32,shape:[1, 2, 56, 56, 32]}
    out_0 {name:"Node_49:0",dtype:float32,shape:[1, 1, 56, 56, 64]}
    attrs {'src_layout': 'NCHW32c', 'dst_layout': 'NCHW64c'}
  }
}
layer {
  name:"Node_50"
  type:"function"
  top:"Node_50"
  bottom:"p0_3"
  bottom:"Node_49"
  layer_param {
    idx:50
    in_0 {name:"p0:0",dtype:float32,shape:[1, 2, 56, 56, 32]}
    in_1 {name:"Node_49:0",dtype:float32,shape:[1, 1, 56, 56, 64]}
    out_0 {name:"Node_50:0",dtype:float32,shape:[1, 1, 56, 56, 64]}
  }
}
layer {
  name:"x_9"
  type:"var"
  top:"x_9"
  bottom:"Node_54"
  layer_param {
    idx:51
    in_0 {name:"Node_54:0",dtype:float32,shape:[1, 1, 56, 56, 64]}
    out_0 {name:"x:0",dtype:float32,shape:[1, 1, 56, 56, 64]}
  }
}
layer {
  name:"Node_54"
  type:"var_call"
  top:"Node_54"
  bottom:"x_8"
  bottom:"x_7"
  layer_param {
    idx:54
    in_0 {name:"x:0",dtype:float32,shape:[1, 1, 56, 56, 64]}
    in_1 {name:"x:0",dtype:float32,shape:[1, 2, 56, 56, 32]}
    out_0 {name:"Node_54:0",dtype:float32,shape:[1, 1, 56, 56, 64]}
  }
}
layer {
  name:"x_10"
  type:"var"
  top:"x_10"
  bottom:"Node_56"
  layer_param {
    idx:55
    in_0 {name:"Node_56:0",dtype:float32,shape:[2, 1, 3, 3, 64, 32]}
    out_0 {name:"x:0",dtype:float32,shape:[2, 1, 3, 3, 64, 32]}
  }
}
layer {
  name:"Node_56"
  type:"const"
  top:"Node_56"
  layer_param {
    idx:56
    out_0 {name:"Node_56:0",dtype:float32,shape:[2, 1, 3, 3, 64, 32]}
  }
}
layer {
  name:"x_11"
  type:"var"
  top:"x_11"
  bottom:"Node_58"
  layer_param {
    idx:57
    in_0 {name:"Node_58:0",dtype:float32,shape:[1, 2, 1, 1, 32]}
    out_0 {name:"x:0",dtype:float32,shape:[1, 2, 1, 1, 32]}
  }
}
layer {
  name:"Node_58"
  type:"const"
  top:"Node_58"
  layer_param {
    idx:58
    out_0 {name:"Node_58:0",dtype:float32,shape:[1, 2, 1, 1, 32]}
  }
}
layer {
  name:"x_12"
  type:"var"
  top:"x_12"
  bottom:"Node_72"
  layer_param {
    idx:59
    in_0 {name:"Node_72:0",dtype:float32,shape:[1, 2, 56, 56, 32]}
    out_0 {name:"x:0",dtype:float32,shape:[1, 2, 56, 56, 32]}
  }
}
layer {
  name:"p0_4"
  type:"input"
  top:"p0_4"
  layer_param {
    idx:60
    out_0 {name:"p0:0",dtype:float32,shape:[1, 1, 56, 56, 64]}
  }
}
layer {
  name:"p1_1"
  type:"input"
  top:"p1_1"
  layer_param {
    idx:61
    out_0 {name:"p1:0",dtype:float32,shape:[2, 1, 3, 3, 64, 32]}
  }
}
layer {
  name:"p2_1"
  type:"input"
  top:"p2_1"
  layer_param {
    idx:62
    out_0 {name:"p2:0",dtype:float32,shape:[1, 2, 1, 1, 32]}
  }
}
layer {
  name:"Node_68"
  type:"nn_contrib_conv2d_NCHWc"
  top:"Node_68"
  bottom:"p0_4"
  bottom:"p1_1"
  layer_param {
    idx:68
    in_0 {name:"p0:0",dtype:float32,shape:[1, 1, 56, 56, 64]}
    in_1 {name:"p1:0",dtype:float32,shape:[2, 1, 3, 3, 64, 32]}
    out_0 {name:"Node_68:0",dtype:float32,shape:[1, 2, 56, 56, 32]}
    attrs {'strides': [1, 1], 'padding': [1, 1, 1, 1], 'dilation': [1, 1], 'groups': 1, 'channels': 64, 'kernel_size': [3, 3], 'data_layout': 'NCHW64c', 'kernel_layout': 'OIHW64i32o', 'out_layout': 'NCHW32c', 'out_dtype': ''}
  }
}
layer {
  name:"Node_70"
  type:"add"
  top:"Node_70"
  bottom:"Node_68"
  bottom:"p2_1"
  layer_param {
    idx:70
    in_0 {name:"Node_68:0",dtype:float32,shape:[1, 2, 56, 56, 32]}
    in_1 {name:"p2:0",dtype:float32,shape:[1, 2, 1, 1, 32]}
    out_0 {name:"Node_70:0",dtype:float32,shape:[1, 2, 56, 56, 32]}
  }
}
layer {
  name:"Node_71"
  type:"nn_relu"
  top:"Node_71"
  bottom:"Node_70"
  layer_param {
    idx:71
    in_0 {name:"Node_70:0",dtype:float32,shape:[1, 2, 56, 56, 32]}
    out_0 {name:"Node_71:0",dtype:float32,shape:[1, 2, 56, 56, 32]}
  }
}
layer {
  name:"Node_72"
  type:"function"
  top:"Node_72"
  bottom:"p0_4"
  bottom:"p1_1"
  bottom:"p2_1"
  bottom:"Node_71"
  layer_param {
    idx:72
    in_0 {name:"p0:0",dtype:float32,shape:[1, 1, 56, 56, 64]}
    in_1 {name:"p1:0",dtype:float32,shape:[2, 1, 3, 3, 64, 32]}
    in_2 {name:"p2:0",dtype:float32,shape:[1, 2, 1, 1, 32]}
    in_3 {name:"Node_71:0",dtype:float32,shape:[1, 2, 56, 56, 32]}
    out_0 {name:"Node_72:0",dtype:float32,shape:[1, 2, 56, 56, 32]}
  }
}
layer {
  name:"x_13"
  type:"var"
  top:"x_13"
  bottom:"Node_78"
  layer_param {
    idx:73
    in_0 {name:"Node_78:0",dtype:float32,shape:[1, 2, 56, 56, 32]}
    out_0 {name:"x:0",dtype:float32,shape:[1, 2, 56, 56, 32]}
  }
}
layer {
  name:"Node_78"
  type:"var_call"
  top:"Node_78"
  bottom:"x_12"
  bottom:"x_9"
  bottom:"x_10"
  bottom:"x_11"
  layer_param {
    idx:78
    in_0 {name:"x:0",dtype:float32,shape:[1, 2, 56, 56, 32]}
    in_1 {name:"x:0",dtype:float32,shape:[1, 1, 56, 56, 64]}
    in_2 {name:"x:0",dtype:float32,shape:[2, 1, 3, 3, 64, 32]}
    in_3 {name:"x:0",dtype:float32,shape:[1, 2, 1, 1, 32]}
    out_0 {name:"Node_78:0",dtype:float32,shape:[1, 2, 56, 56, 32]}
  }
}
layer {
  name:"x_14"
  type:"var"
  top:"x_14"
  bottom:"Node_84"
  layer_param {
    idx:79
    in_0 {name:"Node_84:0",dtype:float32,shape:[1, 1, 56, 56, 64]}
    out_0 {name:"x:0",dtype:float32,shape:[1, 1, 56, 56, 64]}
  }
}
layer {
  name:"p0_5"
  type:"input"
  top:"p0_5"
  layer_param {
    idx:80
    out_0 {name:"p0:0",dtype:float32,shape:[1, 2, 56, 56, 32]}
  }
}
layer {
  name:"Node_83"
  type:"layout_transform"
  top:"Node_83"
  bottom:"p0_5"
  layer_param {
    idx:83
    in_0 {name:"p0:0",dtype:float32,shape:[1, 2, 56, 56, 32]}
    out_0 {name:"Node_83:0",dtype:float32,shape:[1, 1, 56, 56, 64]}
    attrs {'src_layout': 'NCHW32c', 'dst_layout': 'NCHW64c'}
  }
}
layer {
  name:"Node_84"
  type:"function"
  top:"Node_84"
  bottom:"p0_5"
  bottom:"Node_83"
  layer_param {
    idx:84
    in_0 {name:"p0:0",dtype:float32,shape:[1, 2, 56, 56, 32]}
    in_1 {name:"Node_83:0",dtype:float32,shape:[1, 1, 56, 56, 64]}
    out_0 {name:"Node_84:0",dtype:float32,shape:[1, 1, 56, 56, 64]}
  }
}
layer {
  name:"x_15"
  type:"var"
  top:"x_15"
  bottom:"Node_88"
  layer_param {
    idx:85
    in_0 {name:"Node_88:0",dtype:float32,shape:[1, 1, 56, 56, 64]}
    out_0 {name:"x:0",dtype:float32,shape:[1, 1, 56, 56, 64]}
  }
}
layer {
  name:"Node_88"
  type:"var_call"
  top:"Node_88"
  bottom:"x_14"
  bottom:"x_13"
  layer_param {
    idx:88
    in_0 {name:"x:0",dtype:float32,shape:[1, 1, 56, 56, 64]}
    in_1 {name:"x:0",dtype:float32,shape:[1, 2, 56, 56, 32]}
    out_0 {name:"Node_88:0",dtype:float32,shape:[1, 1, 56, 56, 64]}
  }
}
layer {
  name:"x_16"
  type:"var"
  top:"x_16"
  bottom:"Node_90"
  layer_param {
    idx:89
    in_0 {name:"Node_90:0",dtype:float32,shape:[2, 1, 3, 3, 64, 32]}
    out_0 {name:"x:0",dtype:float32,shape:[2, 1, 3, 3, 64, 32]}
  }
}
layer {
  name:"Node_90"
  type:"const"
  top:"Node_90"
  layer_param {
    idx:90
    out_0 {name:"Node_90:0",dtype:float32,shape:[2, 1, 3, 3, 64, 32]}
  }
}
layer {
  name:"x_17"
  type:"var"
  top:"x_17"
  bottom:"Node_92"
  layer_param {
    idx:91
    in_0 {name:"Node_92:0",dtype:float32,shape:[1, 2, 1, 1, 32]}
    out_0 {name:"x:0",dtype:float32,shape:[1, 2, 1, 1, 32]}
  }
}
layer {
  name:"Node_92"
  type:"const"
  top:"Node_92"
  layer_param {
    idx:92
    out_0 {name:"Node_92:0",dtype:float32,shape:[1, 2, 1, 1, 32]}
  }
}
layer {
  name:"x_18"
  type:"var"
  top:"x_18"
  bottom:"Node_110"
  layer_param {
    idx:93
    in_0 {name:"Node_110:0",dtype:float32,shape:[1, 2, 56, 56, 32]}
    out_0 {name:"x:0",dtype:float32,shape:[1, 2, 56, 56, 32]}
  }
}
layer {
  name:"p0_6"
  type:"input"
  top:"p0_6"
  layer_param {
    idx:94
    out_0 {name:"p0:0",dtype:float32,shape:[1, 1, 56, 56, 64]}
  }
}
layer {
  name:"p1_2"
  type:"input"
  top:"p1_2"
  layer_param {
    idx:95
    out_0 {name:"p1:0",dtype:float32,shape:[2, 1, 3, 3, 64, 32]}
  }
}
layer {
  name:"p2_2"
  type:"input"
  top:"p2_2"
  layer_param {
    idx:96
    out_0 {name:"p2:0",dtype:float32,shape:[1, 2, 1, 1, 32]}
  }
}
layer {
  name:"p3"
  type:"input"
  top:"p3"
  layer_param {
    idx:97
    out_0 {name:"p3:0",dtype:float32,shape:[1, 2, 56, 56, 32]}
  }
}
layer {
  name:"Node_104"
  type:"nn_contrib_conv2d_NCHWc"
  top:"Node_104"
  bottom:"p0_6"
  bottom:"p1_2"
  layer_param {
    idx:104
    in_0 {name:"p0:0",dtype:float32,shape:[1, 1, 56, 56, 64]}
    in_1 {name:"p1:0",dtype:float32,shape:[2, 1, 3, 3, 64, 32]}
    out_0 {name:"Node_104:0",dtype:float32,shape:[1, 2, 56, 56, 32]}
    attrs {'strides': [1, 1], 'padding': [1, 1, 1, 1], 'dilation': [1, 1], 'groups': 1, 'channels': 64, 'kernel_size': [3, 3], 'data_layout': 'NCHW64c', 'kernel_layout': 'OIHW64i32o', 'out_layout': 'NCHW32c', 'out_dtype': ''}
  }
}
layer {
  name:"Node_106"
  type:"add"
  top:"Node_106"
  bottom:"Node_104"
  bottom:"p2_2"
  layer_param {
    idx:106
    in_0 {name:"Node_104:0",dtype:float32,shape:[1, 2, 56, 56, 32]}
    in_1 {name:"p2:0",dtype:float32,shape:[1, 2, 1, 1, 32]}
    out_0 {name:"Node_106:0",dtype:float32,shape:[1, 2, 56, 56, 32]}
  }
}
layer {
  name:"Node_108"
  type:"add"
  top:"Node_108"
  bottom:"Node_106"
  bottom:"p3"
  layer_param {
    idx:108
    in_0 {name:"Node_106:0",dtype:float32,shape:[1, 2, 56, 56, 32]}
    in_1 {name:"p3:0",dtype:float32,shape:[1, 2, 56, 56, 32]}
    out_0 {name:"Node_108:0",dtype:float32,shape:[1, 2, 56, 56, 32]}
  }
}
layer {
  name:"Node_109"
  type:"nn_relu"
  top:"Node_109"
  bottom:"Node_108"
  layer_param {
    idx:109
    in_0 {name:"Node_108:0",dtype:float32,shape:[1, 2, 56, 56, 32]}
    out_0 {name:"Node_109:0",dtype:float32,shape:[1, 2, 56, 56, 32]}
  }
}
layer {
  name:"Node_110"
  type:"function"
  top:"Node_110"
  bottom:"p0_6"
  bottom:"p1_2"
  bottom:"p2_2"
  bottom:"p3"
  bottom:"Node_109"
  layer_param {
    idx:110
    in_0 {name:"p0:0",dtype:float32,shape:[1, 1, 56, 56, 64]}
    in_1 {name:"p1:0",dtype:float32,shape:[2, 1, 3, 3, 64, 32]}
    in_2 {name:"p2:0",dtype:float32,shape:[1, 2, 1, 1, 32]}
    in_3 {name:"p3:0",dtype:float32,shape:[1, 2, 56, 56, 32]}
    in_4 {name:"Node_109:0",dtype:float32,shape:[1, 2, 56, 56, 32]}
    out_0 {name:"Node_110:0",dtype:float32,shape:[1, 2, 56, 56, 32]}
  }
}
layer {
  name:"x_19"
  type:"var"
  top:"x_19"
  bottom:"Node_117"
  layer_param {
    idx:111
    in_0 {name:"Node_117:0",dtype:float32,shape:[1, 2, 56, 56, 32]}
    out_0 {name:"x:0",dtype:float32,shape:[1, 2, 56, 56, 32]}
  }
}
layer {
  name:"Node_117"
  type:"var_call"
  top:"Node_117"
  bottom:"x_18"
  bottom:"x_15"
  bottom:"x_16"
  bottom:"x_17"
  bottom:"x_7"
  layer_param {
    idx:117
    in_0 {name:"x:0",dtype:float32,shape:[1, 2, 56, 56, 32]}
    in_1 {name:"x:0",dtype:float32,shape:[1, 1, 56, 56, 64]}
    in_2 {name:"x:0",dtype:float32,shape:[2, 1, 3, 3, 64, 32]}
    in_3 {name:"x:0",dtype:float32,shape:[1, 2, 1, 1, 32]}
    in_4 {name:"x:0",dtype:float32,shape:[1, 2, 56, 56, 32]}
    out_0 {name:"Node_117:0",dtype:float32,shape:[1, 2, 56, 56, 32]}
  }
}
layer {
  name:"x_20"
  type:"var"
  top:"x_20"
  bottom:"Node_123"
  layer_param {
    idx:118
    in_0 {name:"Node_123:0",dtype:float32,shape:[1, 1, 56, 56, 64]}
    out_0 {name:"x:0",dtype:float32,shape:[1, 1, 56, 56, 64]}
  }
}
layer {
  name:"p0_7"
  type:"input"
  top:"p0_7"
  layer_param {
    idx:119
    out_0 {name:"p0:0",dtype:float32,shape:[1, 2, 56, 56, 32]}
  }
}
layer {
  name:"Node_122"
  type:"layout_transform"
  top:"Node_122"
  bottom:"p0_7"
  layer_param {
    idx:122
    in_0 {name:"p0:0",dtype:float32,shape:[1, 2, 56, 56, 32]}
    out_0 {name:"Node_122:0",dtype:float32,shape:[1, 1, 56, 56, 64]}
    attrs {'src_layout': 'NCHW32c', 'dst_layout': 'NCHW64c'}
  }
}
layer {
  name:"Node_123"
  type:"function"
  top:"Node_123"
  bottom:"p0_7"
  bottom:"Node_122"
  layer_param {
    idx:123
    in_0 {name:"p0:0",dtype:float32,shape:[1, 2, 56, 56, 32]}
    in_1 {name:"Node_122:0",dtype:float32,shape:[1, 1, 56, 56, 64]}
    out_0 {name:"Node_123:0",dtype:float32,shape:[1, 1, 56, 56, 64]}
  }
}
layer {
  name:"x_21"
  type:"var"
  top:"x_21"
  bottom:"Node_127"
  layer_param {
    idx:124
    in_0 {name:"Node_127:0",dtype:float32,shape:[1, 1, 56, 56, 64]}
    out_0 {name:"x:0",dtype:float32,shape:[1, 1, 56, 56, 64]}
  }
}
layer {
  name:"Node_127"
  type:"var_call"
  top:"Node_127"
  bottom:"x_20"
  bottom:"x_19"
  layer_param {
    idx:127
    in_0 {name:"x:0",dtype:float32,shape:[1, 1, 56, 56, 64]}
    in_1 {name:"x:0",dtype:float32,shape:[1, 2, 56, 56, 32]}
    out_0 {name:"Node_127:0",dtype:float32,shape:[1, 1, 56, 56, 64]}
  }
}
layer {
  name:"x_22"
  type:"var"
  top:"x_22"
  bottom:"Node_129"
  layer_param {
    idx:128
    in_0 {name:"Node_129:0",dtype:float32,shape:[2, 1, 3, 3, 64, 32]}
    out_0 {name:"x:0",dtype:float32,shape:[2, 1, 3, 3, 64, 32]}
  }
}
layer {
  name:"Node_129"
  type:"const"
  top:"Node_129"
  layer_param {
    idx:129
    out_0 {name:"Node_129:0",dtype:float32,shape:[2, 1, 3, 3, 64, 32]}
  }
}
layer {
  name:"x_23"
  type:"var"
  top:"x_23"
  bottom:"Node_131"
  layer_param {
    idx:130
    in_0 {name:"Node_131:0",dtype:float32,shape:[1, 2, 1, 1, 32]}
    out_0 {name:"x:0",dtype:float32,shape:[1, 2, 1, 1, 32]}
  }
}
layer {
  name:"Node_131"
  type:"const"
  top:"Node_131"
  layer_param {
    idx:131
    out_0 {name:"Node_131:0",dtype:float32,shape:[1, 2, 1, 1, 32]}
  }
}
layer {
  name:"x_24"
  type:"var"
  top:"x_24"
  bottom:"Node_145"
  layer_param {
    idx:132
    in_0 {name:"Node_145:0",dtype:float32,shape:[1, 2, 56, 56, 32]}
    out_0 {name:"x:0",dtype:float32,shape:[1, 2, 56, 56, 32]}
  }
}
layer {
  name:"p0_8"
  type:"input"
  top:"p0_8"
  layer_param {
    idx:133
    out_0 {name:"p0:0",dtype:float32,shape:[1, 1, 56, 56, 64]}
  }
}
layer {
  name:"p1_3"
  type:"input"
  top:"p1_3"
  layer_param {
    idx:134
    out_0 {name:"p1:0",dtype:float32,shape:[2, 1, 3, 3, 64, 32]}
  }
}
layer {
  name:"p2_3"
  type:"input"
  top:"p2_3"
  layer_param {
    idx:135
    out_0 {name:"p2:0",dtype:float32,shape:[1, 2, 1, 1, 32]}
  }
}
layer {
  name:"Node_141"
  type:"nn_contrib_conv2d_NCHWc"
  top:"Node_141"
  bottom:"p0_8"
  bottom:"p1_3"
  layer_param {
    idx:141
    in_0 {name:"p0:0",dtype:float32,shape:[1, 1, 56, 56, 64]}
    in_1 {name:"p1:0",dtype:float32,shape:[2, 1, 3, 3, 64, 32]}
    out_0 {name:"Node_141:0",dtype:float32,shape:[1, 2, 56, 56, 32]}
    attrs {'strides': [1, 1], 'padding': [1, 1, 1, 1], 'dilation': [1, 1], 'groups': 1, 'channels': 64, 'kernel_size': [3, 3], 'data_layout': 'NCHW64c', 'kernel_layout': 'OIHW64i32o', 'out_layout': 'NCHW32c', 'out_dtype': ''}
  }
}
layer {
  name:"Node_143"
  type:"add"
  top:"Node_143"
  bottom:"Node_141"
  bottom:"p2_3"
  layer_param {
    idx:143
    in_0 {name:"Node_141:0",dtype:float32,shape:[1, 2, 56, 56, 32]}
    in_1 {name:"p2:0",dtype:float32,shape:[1, 2, 1, 1, 32]}
    out_0 {name:"Node_143:0",dtype:float32,shape:[1, 2, 56, 56, 32]}
  }
}
layer {
  name:"Node_144"
  type:"nn_relu"
  top:"Node_144"
  bottom:"Node_143"
  layer_param {
    idx:144
    in_0 {name:"Node_143:0",dtype:float32,shape:[1, 2, 56, 56, 32]}
    out_0 {name:"Node_144:0",dtype:float32,shape:[1, 2, 56, 56, 32]}
  }
}
layer {
  name:"Node_145"
  type:"function"
  top:"Node_145"
  bottom:"p0_8"
  bottom:"p1_3"
  bottom:"p2_3"
  bottom:"Node_144"
  layer_param {
    idx:145
    in_0 {name:"p0:0",dtype:float32,shape:[1, 1, 56, 56, 64]}
    in_1 {name:"p1:0",dtype:float32,shape:[2, 1, 3, 3, 64, 32]}
    in_2 {name:"p2:0",dtype:float32,shape:[1, 2, 1, 1, 32]}
    in_3 {name:"Node_144:0",dtype:float32,shape:[1, 2, 56, 56, 32]}
    out_0 {name:"Node_145:0",dtype:float32,shape:[1, 2, 56, 56, 32]}
  }
}
layer {
  name:"x_25"
  type:"var"
  top:"x_25"
  bottom:"Node_151"
  layer_param {
    idx:146
    in_0 {name:"Node_151:0",dtype:float32,shape:[1, 2, 56, 56, 32]}
    out_0 {name:"x:0",dtype:float32,shape:[1, 2, 56, 56, 32]}
  }
}
layer {
  name:"Node_151"
  type:"var_call"
  top:"Node_151"
  bottom:"x_24"
  bottom:"x_21"
  bottom:"x_22"
  bottom:"x_23"
  layer_param {
    idx:151
    in_0 {name:"x:0",dtype:float32,shape:[1, 2, 56, 56, 32]}
    in_1 {name:"x:0",dtype:float32,shape:[1, 1, 56, 56, 64]}
    in_2 {name:"x:0",dtype:float32,shape:[2, 1, 3, 3, 64, 32]}
    in_3 {name:"x:0",dtype:float32,shape:[1, 2, 1, 1, 32]}
    out_0 {name:"Node_151:0",dtype:float32,shape:[1, 2, 56, 56, 32]}
  }
}
layer {
  name:"x_26"
  type:"var"
  top:"x_26"
  bottom:"Node_157"
  layer_param {
    idx:152
    in_0 {name:"Node_157:0",dtype:float32,shape:[1, 1, 56, 56, 64]}
    out_0 {name:"x:0",dtype:float32,shape:[1, 1, 56, 56, 64]}
  }
}
layer {
  name:"p0_9"
  type:"input"
  top:"p0_9"
  layer_param {
    idx:153
    out_0 {name:"p0:0",dtype:float32,shape:[1, 2, 56, 56, 32]}
  }
}
layer {
  name:"Node_156"
  type:"layout_transform"
  top:"Node_156"
  bottom:"p0_9"
  layer_param {
    idx:156
    in_0 {name:"p0:0",dtype:float32,shape:[1, 2, 56, 56, 32]}
    out_0 {name:"Node_156:0",dtype:float32,shape:[1, 1, 56, 56, 64]}
    attrs {'src_layout': 'NCHW32c', 'dst_layout': 'NCHW64c'}
  }
}
layer {
  name:"Node_157"
  type:"function"
  top:"Node_157"
  bottom:"p0_9"
  bottom:"Node_156"
  layer_param {
    idx:157
    in_0 {name:"p0:0",dtype:float32,shape:[1, 2, 56, 56, 32]}
    in_1 {name:"Node_156:0",dtype:float32,shape:[1, 1, 56, 56, 64]}
    out_0 {name:"Node_157:0",dtype:float32,shape:[1, 1, 56, 56, 64]}
  }
}
layer {
  name:"x_27"
  type:"var"
  top:"x_27"
  bottom:"Node_161"
  layer_param {
    idx:158
    in_0 {name:"Node_161:0",dtype:float32,shape:[1, 1, 56, 56, 64]}
    out_0 {name:"x:0",dtype:float32,shape:[1, 1, 56, 56, 64]}
  }
}
layer {
  name:"Node_161"
  type:"var_call"
  top:"Node_161"
  bottom:"x_26"
  bottom:"x_25"
  layer_param {
    idx:161
    in_0 {name:"x:0",dtype:float32,shape:[1, 1, 56, 56, 64]}
    in_1 {name:"x:0",dtype:float32,shape:[1, 2, 56, 56, 32]}
    out_0 {name:"Node_161:0",dtype:float32,shape:[1, 1, 56, 56, 64]}
  }
}
layer {
  name:"x_28"
  type:"var"
  top:"x_28"
  bottom:"Node_163"
  layer_param {
    idx:162
    in_0 {name:"Node_163:0",dtype:float32,shape:[2, 1, 3, 3, 64, 32]}
    out_0 {name:"x:0",dtype:float32,shape:[2, 1, 3, 3, 64, 32]}
  }
}
layer {
  name:"Node_163"
  type:"const"
  top:"Node_163"
  layer_param {
    idx:163
    out_0 {name:"Node_163:0",dtype:float32,shape:[2, 1, 3, 3, 64, 32]}
  }
}
layer {
  name:"x_29"
  type:"var"
  top:"x_29"
  bottom:"Node_165"
  layer_param {
    idx:164
    in_0 {name:"Node_165:0",dtype:float32,shape:[1, 2, 1, 1, 32]}
    out_0 {name:"x:0",dtype:float32,shape:[1, 2, 1, 1, 32]}
  }
}
layer {
  name:"Node_165"
  type:"const"
  top:"Node_165"
  layer_param {
    idx:165
    out_0 {name:"Node_165:0",dtype:float32,shape:[1, 2, 1, 1, 32]}
  }
}
layer {
  name:"x_30"
  type:"var"
  top:"x_30"
  bottom:"Node_183"
  layer_param {
    idx:166
    in_0 {name:"Node_183:0",dtype:float32,shape:[1, 2, 56, 56, 32]}
    out_0 {name:"x:0",dtype:float32,shape:[1, 2, 56, 56, 32]}
  }
}
layer {
  name:"p0_10"
  type:"input"
  top:"p0_10"
  layer_param {
    idx:167
    out_0 {name:"p0:0",dtype:float32,shape:[1, 1, 56, 56, 64]}
  }
}
layer {
  name:"p1_4"
  type:"input"
  top:"p1_4"
  layer_param {
    idx:168
    out_0 {name:"p1:0",dtype:float32,shape:[2, 1, 3, 3, 64, 32]}
  }
}
layer {
  name:"p2_4"
  type:"input"
  top:"p2_4"
  layer_param {
    idx:169
    out_0 {name:"p2:0",dtype:float32,shape:[1, 2, 1, 1, 32]}
  }
}
layer {
  name:"p3_1"
  type:"input"
  top:"p3_1"
  layer_param {
    idx:170
    out_0 {name:"p3:0",dtype:float32,shape:[1, 2, 56, 56, 32]}
  }
}
layer {
  name:"Node_177"
  type:"nn_contrib_conv2d_NCHWc"
  top:"Node_177"
  bottom:"p0_10"
  bottom:"p1_4"
  layer_param {
    idx:177
    in_0 {name:"p0:0",dtype:float32,shape:[1, 1, 56, 56, 64]}
    in_1 {name:"p1:0",dtype:float32,shape:[2, 1, 3, 3, 64, 32]}
    out_0 {name:"Node_177:0",dtype:float32,shape:[1, 2, 56, 56, 32]}
    attrs {'strides': [1, 1], 'padding': [1, 1, 1, 1], 'dilation': [1, 1], 'groups': 1, 'channels': 64, 'kernel_size': [3, 3], 'data_layout': 'NCHW64c', 'kernel_layout': 'OIHW64i32o', 'out_layout': 'NCHW32c', 'out_dtype': ''}
  }
}
layer {
  name:"Node_179"
  type:"add"
  top:"Node_179"
  bottom:"Node_177"
  bottom:"p2_4"
  layer_param {
    idx:179
    in_0 {name:"Node_177:0",dtype:float32,shape:[1, 2, 56, 56, 32]}
    in_1 {name:"p2:0",dtype:float32,shape:[1, 2, 1, 1, 32]}
    out_0 {name:"Node_179:0",dtype:float32,shape:[1, 2, 56, 56, 32]}
  }
}
layer {
  name:"Node_181"
  type:"add"
  top:"Node_181"
  bottom:"Node_179"
  bottom:"p3_1"
  layer_param {
    idx:181
    in_0 {name:"Node_179:0",dtype:float32,shape:[1, 2, 56, 56, 32]}
    in_1 {name:"p3:0",dtype:float32,shape:[1, 2, 56, 56, 32]}
    out_0 {name:"Node_181:0",dtype:float32,shape:[1, 2, 56, 56, 32]}
  }
}
layer {
  name:"Node_182"
  type:"nn_relu"
  top:"Node_182"
  bottom:"Node_181"
  layer_param {
    idx:182
    in_0 {name:"Node_181:0",dtype:float32,shape:[1, 2, 56, 56, 32]}
    out_0 {name:"Node_182:0",dtype:float32,shape:[1, 2, 56, 56, 32]}
  }
}
layer {
  name:"Node_183"
  type:"function"
  top:"Node_183"
  bottom:"p0_10"
  bottom:"p1_4"
  bottom:"p2_4"
  bottom:"p3_1"
  bottom:"Node_182"
  layer_param {
    idx:183
    in_0 {name:"p0:0",dtype:float32,shape:[1, 1, 56, 56, 64]}
    in_1 {name:"p1:0",dtype:float32,shape:[2, 1, 3, 3, 64, 32]}
    in_2 {name:"p2:0",dtype:float32,shape:[1, 2, 1, 1, 32]}
    in_3 {name:"p3:0",dtype:float32,shape:[1, 2, 56, 56, 32]}
    in_4 {name:"Node_182:0",dtype:float32,shape:[1, 2, 56, 56, 32]}
    out_0 {name:"Node_183:0",dtype:float32,shape:[1, 2, 56, 56, 32]}
  }
}
layer {
  name:"x_31"
  type:"var"
  top:"x_31"
  bottom:"Node_190"
  layer_param {
    idx:184
    in_0 {name:"Node_190:0",dtype:float32,shape:[1, 2, 56, 56, 32]}
    out_0 {name:"x:0",dtype:float32,shape:[1, 2, 56, 56, 32]}
  }
}
layer {
  name:"Node_190"
  type:"var_call"
  top:"Node_190"
  bottom:"x_30"
  bottom:"x_27"
  bottom:"x_28"
  bottom:"x_29"
  bottom:"x_19"
  layer_param {
    idx:190
    in_0 {name:"x:0",dtype:float32,shape:[1, 2, 56, 56, 32]}
    in_1 {name:"x:0",dtype:float32,shape:[1, 1, 56, 56, 64]}
    in_2 {name:"x:0",dtype:float32,shape:[2, 1, 3, 3, 64, 32]}
    in_3 {name:"x:0",dtype:float32,shape:[1, 2, 1, 1, 32]}
    in_4 {name:"x:0",dtype:float32,shape:[1, 2, 56, 56, 32]}
    out_0 {name:"Node_190:0",dtype:float32,shape:[1, 2, 56, 56, 32]}
  }
}
layer {
  name:"x_32"
  type:"var"
  top:"x_32"
  bottom:"Node_192"
  layer_param {
    idx:191
    in_0 {name:"Node_192:0",dtype:float32,shape:[2, 2, 3, 3, 32, 64]}
    out_0 {name:"x:0",dtype:float32,shape:[2, 2, 3, 3, 32, 64]}
  }
}
layer {
  name:"Node_192"
  type:"const"
  top:"Node_192"
  layer_param {
    idx:192
    out_0 {name:"Node_192:0",dtype:float32,shape:[2, 2, 3, 3, 32, 64]}
  }
}
layer {
  name:"x_33"
  type:"var"
  top:"x_33"
  bottom:"Node_194"
  layer_param {
    idx:193
    in_0 {name:"Node_194:0",dtype:float32,shape:[1, 2, 1, 1, 64]}
    out_0 {name:"x:0",dtype:float32,shape:[1, 2, 1, 1, 64]}
  }
}
layer {
  name:"Node_194"
  type:"const"
  top:"Node_194"
  layer_param {
    idx:194
    out_0 {name:"Node_194:0",dtype:float32,shape:[1, 2, 1, 1, 64]}
  }
}
layer {
  name:"x_34"
  type:"var"
  top:"x_34"
  bottom:"Node_208"
  layer_param {
    idx:195
    in_0 {name:"Node_208:0",dtype:float32,shape:[1, 2, 28, 28, 64]}
    out_0 {name:"x:0",dtype:float32,shape:[1, 2, 28, 28, 64]}
  }
}
layer {
  name:"p0_11"
  type:"input"
  top:"p0_11"
  layer_param {
    idx:196
    out_0 {name:"p0:0",dtype:float32,shape:[1, 2, 56, 56, 32]}
  }
}
layer {
  name:"p1_5"
  type:"input"
  top:"p1_5"
  layer_param {
    idx:197
    out_0 {name:"p1:0",dtype:float32,shape:[2, 2, 3, 3, 32, 64]}
  }
}
layer {
  name:"p2_5"
  type:"input"
  top:"p2_5"
  layer_param {
    idx:198
    out_0 {name:"p2:0",dtype:float32,shape:[1, 2, 1, 1, 64]}
  }
}
layer {
  name:"Node_204"
  type:"nn_contrib_conv2d_NCHWc"
  top:"Node_204"
  bottom:"p0_11"
  bottom:"p1_5"
  layer_param {
    idx:204
    in_0 {name:"p0:0",dtype:float32,shape:[1, 2, 56, 56, 32]}
    in_1 {name:"p1:0",dtype:float32,shape:[2, 2, 3, 3, 32, 64]}
    out_0 {name:"Node_204:0",dtype:float32,shape:[1, 2, 28, 28, 64]}
    attrs {'strides': [2, 2], 'padding': [1, 1, 1, 1], 'dilation': [1, 1], 'groups': 1, 'channels': 128, 'kernel_size': [3, 3], 'data_layout': 'NCHW32c', 'kernel_layout': 'OIHW32i64o', 'out_layout': 'NCHW64c', 'out_dtype': ''}
  }
}
layer {
  name:"Node_206"
  type:"add"
  top:"Node_206"
  bottom:"Node_204"
  bottom:"p2_5"
  layer_param {
    idx:206
    in_0 {name:"Node_204:0",dtype:float32,shape:[1, 2, 28, 28, 64]}
    in_1 {name:"p2:0",dtype:float32,shape:[1, 2, 1, 1, 64]}
    out_0 {name:"Node_206:0",dtype:float32,shape:[1, 2, 28, 28, 64]}
  }
}
layer {
  name:"Node_207"
  type:"nn_relu"
  top:"Node_207"
  bottom:"Node_206"
  layer_param {
    idx:207
    in_0 {name:"Node_206:0",dtype:float32,shape:[1, 2, 28, 28, 64]}
    out_0 {name:"Node_207:0",dtype:float32,shape:[1, 2, 28, 28, 64]}
  }
}
layer {
  name:"Node_208"
  type:"function"
  top:"Node_208"
  bottom:"p0_11"
  bottom:"p1_5"
  bottom:"p2_5"
  bottom:"Node_207"
  layer_param {
    idx:208
    in_0 {name:"p0:0",dtype:float32,shape:[1, 2, 56, 56, 32]}
    in_1 {name:"p1:0",dtype:float32,shape:[2, 2, 3, 3, 32, 64]}
    in_2 {name:"p2:0",dtype:float32,shape:[1, 2, 1, 1, 64]}
    in_3 {name:"Node_207:0",dtype:float32,shape:[1, 2, 28, 28, 64]}
    out_0 {name:"Node_208:0",dtype:float32,shape:[1, 2, 28, 28, 64]}
  }
}
layer {
  name:"x_35"
  type:"var"
  top:"x_35"
  bottom:"Node_214"
  layer_param {
    idx:209
    in_0 {name:"Node_214:0",dtype:float32,shape:[1, 2, 28, 28, 64]}
    out_0 {name:"x:0",dtype:float32,shape:[1, 2, 28, 28, 64]}
  }
}
layer {
  name:"Node_214"
  type:"var_call"
  top:"Node_214"
  bottom:"x_34"
  bottom:"x_31"
  bottom:"x_32"
  bottom:"x_33"
  layer_param {
    idx:214
    in_0 {name:"x:0",dtype:float32,shape:[1, 2, 28, 28, 64]}
    in_1 {name:"x:0",dtype:float32,shape:[1, 2, 56, 56, 32]}
    in_2 {name:"x:0",dtype:float32,shape:[2, 2, 3, 3, 32, 64]}
    in_3 {name:"x:0",dtype:float32,shape:[1, 2, 1, 1, 64]}
    out_0 {name:"Node_214:0",dtype:float32,shape:[1, 2, 28, 28, 64]}
  }
}
layer {
  name:"x_36"
  type:"var"
  top:"x_36"
  bottom:"Node_220"
  layer_param {
    idx:215
    in_0 {name:"Node_220:0",dtype:float32,shape:[1, 1, 28, 28, 128]}
    out_0 {name:"x:0",dtype:float32,shape:[1, 1, 28, 28, 128]}
  }
}
layer {
  name:"p0_12"
  type:"input"
  top:"p0_12"
  layer_param {
    idx:216
    out_0 {name:"p0:0",dtype:float32,shape:[1, 2, 28, 28, 64]}
  }
}
layer {
  name:"Node_219"
  type:"layout_transform"
  top:"Node_219"
  bottom:"p0_12"
  layer_param {
    idx:219
    in_0 {name:"p0:0",dtype:float32,shape:[1, 2, 28, 28, 64]}
    out_0 {name:"Node_219:0",dtype:float32,shape:[1, 1, 28, 28, 128]}
    attrs {'src_layout': 'NCHW64c', 'dst_layout': 'NCHW128c'}
  }
}
layer {
  name:"Node_220"
  type:"function"
  top:"Node_220"
  bottom:"p0_12"
  bottom:"Node_219"
  layer_param {
    idx:220
    in_0 {name:"p0:0",dtype:float32,shape:[1, 2, 28, 28, 64]}
    in_1 {name:"Node_219:0",dtype:float32,shape:[1, 1, 28, 28, 128]}
    out_0 {name:"Node_220:0",dtype:float32,shape:[1, 1, 28, 28, 128]}
  }
}
layer {
  name:"x_37"
  type:"var"
  top:"x_37"
  bottom:"Node_224"
  layer_param {
    idx:221
    in_0 {name:"Node_224:0",dtype:float32,shape:[1, 1, 28, 28, 128]}
    out_0 {name:"x:0",dtype:float32,shape:[1, 1, 28, 28, 128]}
  }
}
layer {
  name:"Node_224"
  type:"var_call"
  top:"Node_224"
  bottom:"x_36"
  bottom:"x_35"
  layer_param {
    idx:224
    in_0 {name:"x:0",dtype:float32,shape:[1, 1, 28, 28, 128]}
    in_1 {name:"x:0",dtype:float32,shape:[1, 2, 28, 28, 64]}
    out_0 {name:"Node_224:0",dtype:float32,shape:[1, 1, 28, 28, 128]}
  }
}
layer {
  name:"x_38"
  type:"var"
  top:"x_38"
  bottom:"Node_226"
  layer_param {
    idx:225
    in_0 {name:"Node_226:0",dtype:float32,shape:[4, 1, 3, 3, 128, 32]}
    out_0 {name:"x:0",dtype:float32,shape:[4, 1, 3, 3, 128, 32]}
  }
}
layer {
  name:"Node_226"
  type:"const"
  top:"Node_226"
  layer_param {
    idx:226
    out_0 {name:"Node_226:0",dtype:float32,shape:[4, 1, 3, 3, 128, 32]}
  }
}
layer {
  name:"x_39"
  type:"var"
  top:"x_39"
  bottom:"Node_228"
  layer_param {
    idx:227
    in_0 {name:"Node_228:0",dtype:float32,shape:[1, 4, 1, 1, 32]}
    out_0 {name:"x:0",dtype:float32,shape:[1, 4, 1, 1, 32]}
  }
}
layer {
  name:"Node_228"
  type:"const"
  top:"Node_228"
  layer_param {
    idx:228
    out_0 {name:"Node_228:0",dtype:float32,shape:[1, 4, 1, 1, 32]}
  }
}
layer {
  name:"x_40"
  type:"var"
  top:"x_40"
  bottom:"Node_234"
  layer_param {
    idx:229
    in_0 {name:"Node_234:0",dtype:float32,shape:[1, 8, 56, 56, 8]}
    out_0 {name:"x:0",dtype:float32,shape:[1, 8, 56, 56, 8]}
  }
}
layer {
  name:"p0_13"
  type:"input"
  top:"p0_13"
  layer_param {
    idx:230
    out_0 {name:"p0:0",dtype:float32,shape:[1, 2, 56, 56, 32]}
  }
}
layer {
  name:"Node_233"
  type:"layout_transform"
  top:"Node_233"
  bottom:"p0_13"
  layer_param {
    idx:233
    in_0 {name:"p0:0",dtype:float32,shape:[1, 2, 56, 56, 32]}
    out_0 {name:"Node_233:0",dtype:float32,shape:[1, 8, 56, 56, 8]}
    attrs {'src_layout': 'NCHW32c', 'dst_layout': 'NCHW8c'}
  }
}
layer {
  name:"Node_234"
  type:"function"
  top:"Node_234"
  bottom:"p0_13"
  bottom:"Node_233"
  layer_param {
    idx:234
    in_0 {name:"p0:0",dtype:float32,shape:[1, 2, 56, 56, 32]}
    in_1 {name:"Node_233:0",dtype:float32,shape:[1, 8, 56, 56, 8]}
    out_0 {name:"Node_234:0",dtype:float32,shape:[1, 8, 56, 56, 8]}
  }
}
layer {
  name:"x_41"
  type:"var"
  top:"x_41"
  bottom:"Node_238"
  layer_param {
    idx:235
    in_0 {name:"Node_238:0",dtype:float32,shape:[1, 8, 56, 56, 8]}
    out_0 {name:"x:0",dtype:float32,shape:[1, 8, 56, 56, 8]}
  }
}
layer {
  name:"Node_238"
  type:"var_call"
  top:"Node_238"
  bottom:"x_40"
  bottom:"x_31"
  layer_param {
    idx:238
    in_0 {name:"x:0",dtype:float32,shape:[1, 8, 56, 56, 8]}
    in_1 {name:"x:0",dtype:float32,shape:[1, 2, 56, 56, 32]}
    out_0 {name:"Node_238:0",dtype:float32,shape:[1, 8, 56, 56, 8]}
  }
}
layer {
  name:"x_42"
  type:"var"
  top:"x_42"
  bottom:"Node_240"
  layer_param {
    idx:239
    in_0 {name:"Node_240:0",dtype:float32,shape:[4, 8, 1, 1, 8, 32]}
    out_0 {name:"x:0",dtype:float32,shape:[4, 8, 1, 1, 8, 32]}
  }
}
layer {
  name:"Node_240"
  type:"const"
  top:"Node_240"
  layer_param {
    idx:240
    out_0 {name:"Node_240:0",dtype:float32,shape:[4, 8, 1, 1, 8, 32]}
  }
}
layer {
  name:"x_43"
  type:"var"
  top:"x_43"
  bottom:"Node_242"
  layer_param {
    idx:241
    in_0 {name:"Node_242:0",dtype:float32,shape:[1, 4, 1, 1, 32]}
    out_0 {name:"x:0",dtype:float32,shape:[1, 4, 1, 1, 32]}
  }
}
layer {
  name:"Node_242"
  type:"const"
  top:"Node_242"
  layer_param {
    idx:242
    out_0 {name:"Node_242:0",dtype:float32,shape:[1, 4, 1, 1, 32]}
  }
}
layer {
  name:"x_44"
  type:"var"
  top:"x_44"
  bottom:"Node_254"
  layer_param {
    idx:243
    in_0 {name:"Node_254:0",dtype:float32,shape:[1, 4, 28, 28, 32]}
    out_0 {name:"x:0",dtype:float32,shape:[1, 4, 28, 28, 32]}
  }
}
layer {
  name:"p0_14"
  type:"input"
  top:"p0_14"
  layer_param {
    idx:244
    out_0 {name:"p0:0",dtype:float32,shape:[1, 8, 56, 56, 8]}
  }
}
layer {
  name:"p1_6"
  type:"input"
  top:"p1_6"
  layer_param {
    idx:245
    out_0 {name:"p1:0",dtype:float32,shape:[4, 8, 1, 1, 8, 32]}
  }
}
layer {
  name:"p2_6"
  type:"input"
  top:"p2_6"
  layer_param {
    idx:246
    out_0 {name:"p2:0",dtype:float32,shape:[1, 4, 1, 1, 32]}
  }
}
layer {
  name:"Node_251"
  type:"nn_contrib_conv2d_NCHWc"
  top:"Node_251"
  bottom:"p0_14"
  bottom:"p1_6"
  layer_param {
    idx:251
    in_0 {name:"p0:0",dtype:float32,shape:[1, 8, 56, 56, 8]}
    in_1 {name:"p1:0",dtype:float32,shape:[4, 8, 1, 1, 8, 32]}
    out_0 {name:"Node_251:0",dtype:float32,shape:[1, 4, 28, 28, 32]}
    attrs {'strides': [2, 2], 'padding': [0, 0, 0, 0], 'dilation': [1, 1], 'groups': 1, 'channels': 128, 'kernel_size': [1, 1], 'data_layout': 'NCHW8c', 'kernel_layout': 'OIHW8i32o', 'out_layout': 'NCHW32c', 'out_dtype': ''}
  }
}
layer {
  name:"Node_253"
  type:"add"
  top:"Node_253"
  bottom:"Node_251"
  bottom:"p2_6"
  layer_param {
    idx:253
    in_0 {name:"Node_251:0",dtype:float32,shape:[1, 4, 28, 28, 32]}
    in_1 {name:"p2:0",dtype:float32,shape:[1, 4, 1, 1, 32]}
    out_0 {name:"Node_253:0",dtype:float32,shape:[1, 4, 28, 28, 32]}
  }
}
layer {
  name:"Node_254"
  type:"function"
  top:"Node_254"
  bottom:"p0_14"
  bottom:"p1_6"
  bottom:"p2_6"
  bottom:"Node_253"
  layer_param {
    idx:254
    in_0 {name:"p0:0",dtype:float32,shape:[1, 8, 56, 56, 8]}
    in_1 {name:"p1:0",dtype:float32,shape:[4, 8, 1, 1, 8, 32]}
    in_2 {name:"p2:0",dtype:float32,shape:[1, 4, 1, 1, 32]}
    in_3 {name:"Node_253:0",dtype:float32,shape:[1, 4, 28, 28, 32]}
    out_0 {name:"Node_254:0",dtype:float32,shape:[1, 4, 28, 28, 32]}
  }
}
layer {
  name:"x_45"
  type:"var"
  top:"x_45"
  bottom:"Node_260"
  layer_param {
    idx:255
    in_0 {name:"Node_260:0",dtype:float32,shape:[1, 4, 28, 28, 32]}
    out_0 {name:"x:0",dtype:float32,shape:[1, 4, 28, 28, 32]}
  }
}
layer {
  name:"Node_260"
  type:"var_call"
  top:"Node_260"
  bottom:"x_44"
  bottom:"x_41"
  bottom:"x_42"
  bottom:"x_43"
  layer_param {
    idx:260
    in_0 {name:"x:0",dtype:float32,shape:[1, 4, 28, 28, 32]}
    in_1 {name:"x:0",dtype:float32,shape:[1, 8, 56, 56, 8]}
    in_2 {name:"x:0",dtype:float32,shape:[4, 8, 1, 1, 8, 32]}
    in_3 {name:"x:0",dtype:float32,shape:[1, 4, 1, 1, 32]}
    out_0 {name:"Node_260:0",dtype:float32,shape:[1, 4, 28, 28, 32]}
  }
}
layer {
  name:"x_46"
  type:"var"
  top:"x_46"
  bottom:"Node_278"
  layer_param {
    idx:261
    in_0 {name:"Node_278:0",dtype:float32,shape:[1, 4, 28, 28, 32]}
    out_0 {name:"x:0",dtype:float32,shape:[1, 4, 28, 28, 32]}
  }
}
layer {
  name:"p0_15"
  type:"input"
  top:"p0_15"
  layer_param {
    idx:262
    out_0 {name:"p0:0",dtype:float32,shape:[1, 1, 28, 28, 128]}
  }
}
layer {
  name:"p1_7"
  type:"input"
  top:"p1_7"
  layer_param {
    idx:263
    out_0 {name:"p1:0",dtype:float32,shape:[4, 1, 3, 3, 128, 32]}
  }
}
layer {
  name:"p2_7"
  type:"input"
  top:"p2_7"
  layer_param {
    idx:264
    out_0 {name:"p2:0",dtype:float32,shape:[1, 4, 1, 1, 32]}
  }
}
layer {
  name:"p3_2"
  type:"input"
  top:"p3_2"
  layer_param {
    idx:265
    out_0 {name:"p3:0",dtype:float32,shape:[1, 4, 28, 28, 32]}
  }
}
layer {
  name:"Node_272"
  type:"nn_contrib_conv2d_NCHWc"
  top:"Node_272"
  bottom:"p0_15"
  bottom:"p1_7"
  layer_param {
    idx:272
    in_0 {name:"p0:0",dtype:float32,shape:[1, 1, 28, 28, 128]}
    in_1 {name:"p1:0",dtype:float32,shape:[4, 1, 3, 3, 128, 32]}
    out_0 {name:"Node_272:0",dtype:float32,shape:[1, 4, 28, 28, 32]}
    attrs {'strides': [1, 1], 'padding': [1, 1, 1, 1], 'dilation': [1, 1], 'groups': 1, 'channels': 128, 'kernel_size': [3, 3], 'data_layout': 'NCHW128c', 'kernel_layout': 'OIHW128i32o', 'out_layout': 'NCHW32c', 'out_dtype': ''}
  }
}
layer {
  name:"Node_274"
  type:"add"
  top:"Node_274"
  bottom:"Node_272"
  bottom:"p2_7"
  layer_param {
    idx:274
    in_0 {name:"Node_272:0",dtype:float32,shape:[1, 4, 28, 28, 32]}
    in_1 {name:"p2:0",dtype:float32,shape:[1, 4, 1, 1, 32]}
    out_0 {name:"Node_274:0",dtype:float32,shape:[1, 4, 28, 28, 32]}
  }
}
layer {
  name:"Node_276"
  type:"add"
  top:"Node_276"
  bottom:"Node_274"
  bottom:"p3_2"
  layer_param {
    idx:276
    in_0 {name:"Node_274:0",dtype:float32,shape:[1, 4, 28, 28, 32]}
    in_1 {name:"p3:0",dtype:float32,shape:[1, 4, 28, 28, 32]}
    out_0 {name:"Node_276:0",dtype:float32,shape:[1, 4, 28, 28, 32]}
  }
}
layer {
  name:"Node_277"
  type:"nn_relu"
  top:"Node_277"
  bottom:"Node_276"
  layer_param {
    idx:277
    in_0 {name:"Node_276:0",dtype:float32,shape:[1, 4, 28, 28, 32]}
    out_0 {name:"Node_277:0",dtype:float32,shape:[1, 4, 28, 28, 32]}
  }
}
layer {
  name:"Node_278"
  type:"function"
  top:"Node_278"
  bottom:"p0_15"
  bottom:"p1_7"
  bottom:"p2_7"
  bottom:"p3_2"
  bottom:"Node_277"
  layer_param {
    idx:278
    in_0 {name:"p0:0",dtype:float32,shape:[1, 1, 28, 28, 128]}
    in_1 {name:"p1:0",dtype:float32,shape:[4, 1, 3, 3, 128, 32]}
    in_2 {name:"p2:0",dtype:float32,shape:[1, 4, 1, 1, 32]}
    in_3 {name:"p3:0",dtype:float32,shape:[1, 4, 28, 28, 32]}
    in_4 {name:"Node_277:0",dtype:float32,shape:[1, 4, 28, 28, 32]}
    out_0 {name:"Node_278:0",dtype:float32,shape:[1, 4, 28, 28, 32]}
  }
}
layer {
  name:"x_47"
  type:"var"
  top:"x_47"
  bottom:"Node_285"
  layer_param {
    idx:279
    in_0 {name:"Node_285:0",dtype:float32,shape:[1, 4, 28, 28, 32]}
    out_0 {name:"x:0",dtype:float32,shape:[1, 4, 28, 28, 32]}
  }
}
layer {
  name:"Node_285"
  type:"var_call"
  top:"Node_285"
  bottom:"x_46"
  bottom:"x_37"
  bottom:"x_38"
  bottom:"x_39"
  bottom:"x_45"
  layer_param {
    idx:285
    in_0 {name:"x:0",dtype:float32,shape:[1, 4, 28, 28, 32]}
    in_1 {name:"x:0",dtype:float32,shape:[1, 1, 28, 28, 128]}
    in_2 {name:"x:0",dtype:float32,shape:[4, 1, 3, 3, 128, 32]}
    in_3 {name:"x:0",dtype:float32,shape:[1, 4, 1, 1, 32]}
    in_4 {name:"x:0",dtype:float32,shape:[1, 4, 28, 28, 32]}
    out_0 {name:"Node_285:0",dtype:float32,shape:[1, 4, 28, 28, 32]}
  }
}
layer {
  name:"x_48"
  type:"var"
  top:"x_48"
  bottom:"Node_291"
  layer_param {
    idx:286
    in_0 {name:"Node_291:0",dtype:float32,shape:[1, 1, 28, 28, 128]}
    out_0 {name:"x:0",dtype:float32,shape:[1, 1, 28, 28, 128]}
  }
}
layer {
  name:"p0_16"
  type:"input"
  top:"p0_16"
  layer_param {
    idx:287
    out_0 {name:"p0:0",dtype:float32,shape:[1, 4, 28, 28, 32]}
  }
}
layer {
  name:"Node_290"
  type:"layout_transform"
  top:"Node_290"
  bottom:"p0_16"
  layer_param {
    idx:290
    in_0 {name:"p0:0",dtype:float32,shape:[1, 4, 28, 28, 32]}
    out_0 {name:"Node_290:0",dtype:float32,shape:[1, 1, 28, 28, 128]}
    attrs {'src_layout': 'NCHW32c', 'dst_layout': 'NCHW128c'}
  }
}
layer {
  name:"Node_291"
  type:"function"
  top:"Node_291"
  bottom:"p0_16"
  bottom:"Node_290"
  layer_param {
    idx:291
    in_0 {name:"p0:0",dtype:float32,shape:[1, 4, 28, 28, 32]}
    in_1 {name:"Node_290:0",dtype:float32,shape:[1, 1, 28, 28, 128]}
    out_0 {name:"Node_291:0",dtype:float32,shape:[1, 1, 28, 28, 128]}
  }
}
layer {
  name:"x_49"
  type:"var"
  top:"x_49"
  bottom:"Node_295"
  layer_param {
    idx:292
    in_0 {name:"Node_295:0",dtype:float32,shape:[1, 1, 28, 28, 128]}
    out_0 {name:"x:0",dtype:float32,shape:[1, 1, 28, 28, 128]}
  }
}
layer {
  name:"Node_295"
  type:"var_call"
  top:"Node_295"
  bottom:"x_48"
  bottom:"x_47"
  layer_param {
    idx:295
    in_0 {name:"x:0",dtype:float32,shape:[1, 1, 28, 28, 128]}
    in_1 {name:"x:0",dtype:float32,shape:[1, 4, 28, 28, 32]}
    out_0 {name:"Node_295:0",dtype:float32,shape:[1, 1, 28, 28, 128]}
  }
}
layer {
  name:"x_50"
  type:"var"
  top:"x_50"
  bottom:"Node_297"
  layer_param {
    idx:296
    in_0 {name:"Node_297:0",dtype:float32,shape:[4, 1, 3, 3, 128, 32]}
    out_0 {name:"x:0",dtype:float32,shape:[4, 1, 3, 3, 128, 32]}
  }
}
layer {
  name:"Node_297"
  type:"const"
  top:"Node_297"
  layer_param {
    idx:297
    out_0 {name:"Node_297:0",dtype:float32,shape:[4, 1, 3, 3, 128, 32]}
  }
}
layer {
  name:"x_51"
  type:"var"
  top:"x_51"
  bottom:"Node_299"
  layer_param {
    idx:298
    in_0 {name:"Node_299:0",dtype:float32,shape:[1, 4, 1, 1, 32]}
    out_0 {name:"x:0",dtype:float32,shape:[1, 4, 1, 1, 32]}
  }
}
layer {
  name:"Node_299"
  type:"const"
  top:"Node_299"
  layer_param {
    idx:299
    out_0 {name:"Node_299:0",dtype:float32,shape:[1, 4, 1, 1, 32]}
  }
}
layer {
  name:"x_52"
  type:"var"
  top:"x_52"
  bottom:"Node_313"
  layer_param {
    idx:300
    in_0 {name:"Node_313:0",dtype:float32,shape:[1, 4, 28, 28, 32]}
    out_0 {name:"x:0",dtype:float32,shape:[1, 4, 28, 28, 32]}
  }
}
layer {
  name:"p0_17"
  type:"input"
  top:"p0_17"
  layer_param {
    idx:301
    out_0 {name:"p0:0",dtype:float32,shape:[1, 1, 28, 28, 128]}
  }
}
layer {
  name:"p1_8"
  type:"input"
  top:"p1_8"
  layer_param {
    idx:302
    out_0 {name:"p1:0",dtype:float32,shape:[4, 1, 3, 3, 128, 32]}
  }
}
layer {
  name:"p2_8"
  type:"input"
  top:"p2_8"
  layer_param {
    idx:303
    out_0 {name:"p2:0",dtype:float32,shape:[1, 4, 1, 1, 32]}
  }
}
layer {
  name:"Node_309"
  type:"nn_contrib_conv2d_NCHWc"
  top:"Node_309"
  bottom:"p0_17"
  bottom:"p1_8"
  layer_param {
    idx:309
    in_0 {name:"p0:0",dtype:float32,shape:[1, 1, 28, 28, 128]}
    in_1 {name:"p1:0",dtype:float32,shape:[4, 1, 3, 3, 128, 32]}
    out_0 {name:"Node_309:0",dtype:float32,shape:[1, 4, 28, 28, 32]}
    attrs {'strides': [1, 1], 'padding': [1, 1, 1, 1], 'dilation': [1, 1], 'groups': 1, 'channels': 128, 'kernel_size': [3, 3], 'data_layout': 'NCHW128c', 'kernel_layout': 'OIHW128i32o', 'out_layout': 'NCHW32c', 'out_dtype': ''}
  }
}
layer {
  name:"Node_311"
  type:"add"
  top:"Node_311"
  bottom:"Node_309"
  bottom:"p2_8"
  layer_param {
    idx:311
    in_0 {name:"Node_309:0",dtype:float32,shape:[1, 4, 28, 28, 32]}
    in_1 {name:"p2:0",dtype:float32,shape:[1, 4, 1, 1, 32]}
    out_0 {name:"Node_311:0",dtype:float32,shape:[1, 4, 28, 28, 32]}
  }
}
layer {
  name:"Node_312"
  type:"nn_relu"
  top:"Node_312"
  bottom:"Node_311"
  layer_param {
    idx:312
    in_0 {name:"Node_311:0",dtype:float32,shape:[1, 4, 28, 28, 32]}
    out_0 {name:"Node_312:0",dtype:float32,shape:[1, 4, 28, 28, 32]}
  }
}
layer {
  name:"Node_313"
  type:"function"
  top:"Node_313"
  bottom:"p0_17"
  bottom:"p1_8"
  bottom:"p2_8"
  bottom:"Node_312"
  layer_param {
    idx:313
    in_0 {name:"p0:0",dtype:float32,shape:[1, 1, 28, 28, 128]}
    in_1 {name:"p1:0",dtype:float32,shape:[4, 1, 3, 3, 128, 32]}
    in_2 {name:"p2:0",dtype:float32,shape:[1, 4, 1, 1, 32]}
    in_3 {name:"Node_312:0",dtype:float32,shape:[1, 4, 28, 28, 32]}
    out_0 {name:"Node_313:0",dtype:float32,shape:[1, 4, 28, 28, 32]}
  }
}
layer {
  name:"x_53"
  type:"var"
  top:"x_53"
  bottom:"Node_319"
  layer_param {
    idx:314
    in_0 {name:"Node_319:0",dtype:float32,shape:[1, 4, 28, 28, 32]}
    out_0 {name:"x:0",dtype:float32,shape:[1, 4, 28, 28, 32]}
  }
}
layer {
  name:"Node_319"
  type:"var_call"
  top:"Node_319"
  bottom:"x_52"
  bottom:"x_49"
  bottom:"x_50"
  bottom:"x_51"
  layer_param {
    idx:319
    in_0 {name:"x:0",dtype:float32,shape:[1, 4, 28, 28, 32]}
    in_1 {name:"x:0",dtype:float32,shape:[1, 1, 28, 28, 128]}
    in_2 {name:"x:0",dtype:float32,shape:[4, 1, 3, 3, 128, 32]}
    in_3 {name:"x:0",dtype:float32,shape:[1, 4, 1, 1, 32]}
    out_0 {name:"Node_319:0",dtype:float32,shape:[1, 4, 28, 28, 32]}
  }
}
layer {
  name:"x_54"
  type:"var"
  top:"x_54"
  bottom:"Node_325"
  layer_param {
    idx:320
    in_0 {name:"Node_325:0",dtype:float32,shape:[1, 1, 28, 28, 128]}
    out_0 {name:"x:0",dtype:float32,shape:[1, 1, 28, 28, 128]}
  }
}
layer {
  name:"p0_18"
  type:"input"
  top:"p0_18"
  layer_param {
    idx:321
    out_0 {name:"p0:0",dtype:float32,shape:[1, 4, 28, 28, 32]}
  }
}
layer {
  name:"Node_324"
  type:"layout_transform"
  top:"Node_324"
  bottom:"p0_18"
  layer_param {
    idx:324
    in_0 {name:"p0:0",dtype:float32,shape:[1, 4, 28, 28, 32]}
    out_0 {name:"Node_324:0",dtype:float32,shape:[1, 1, 28, 28, 128]}
    attrs {'src_layout': 'NCHW32c', 'dst_layout': 'NCHW128c'}
  }
}
layer {
  name:"Node_325"
  type:"function"
  top:"Node_325"
  bottom:"p0_18"
  bottom:"Node_324"
  layer_param {
    idx:325
    in_0 {name:"p0:0",dtype:float32,shape:[1, 4, 28, 28, 32]}
    in_1 {name:"Node_324:0",dtype:float32,shape:[1, 1, 28, 28, 128]}
    out_0 {name:"Node_325:0",dtype:float32,shape:[1, 1, 28, 28, 128]}
  }
}
layer {
  name:"x_55"
  type:"var"
  top:"x_55"
  bottom:"Node_329"
  layer_param {
    idx:326
    in_0 {name:"Node_329:0",dtype:float32,shape:[1, 1, 28, 28, 128]}
    out_0 {name:"x:0",dtype:float32,shape:[1, 1, 28, 28, 128]}
  }
}
layer {
  name:"Node_329"
  type:"var_call"
  top:"Node_329"
  bottom:"x_54"
  bottom:"x_53"
  layer_param {
    idx:329
    in_0 {name:"x:0",dtype:float32,shape:[1, 1, 28, 28, 128]}
    in_1 {name:"x:0",dtype:float32,shape:[1, 4, 28, 28, 32]}
    out_0 {name:"Node_329:0",dtype:float32,shape:[1, 1, 28, 28, 128]}
  }
}
layer {
  name:"x_56"
  type:"var"
  top:"x_56"
  bottom:"Node_331"
  layer_param {
    idx:330
    in_0 {name:"Node_331:0",dtype:float32,shape:[4, 1, 3, 3, 128, 32]}
    out_0 {name:"x:0",dtype:float32,shape:[4, 1, 3, 3, 128, 32]}
  }
}
layer {
  name:"Node_331"
  type:"const"
  top:"Node_331"
  layer_param {
    idx:331
    out_0 {name:"Node_331:0",dtype:float32,shape:[4, 1, 3, 3, 128, 32]}
  }
}
layer {
  name:"x_57"
  type:"var"
  top:"x_57"
  bottom:"Node_333"
  layer_param {
    idx:332
    in_0 {name:"Node_333:0",dtype:float32,shape:[1, 4, 1, 1, 32]}
    out_0 {name:"x:0",dtype:float32,shape:[1, 4, 1, 1, 32]}
  }
}
layer {
  name:"Node_333"
  type:"const"
  top:"Node_333"
  layer_param {
    idx:333
    out_0 {name:"Node_333:0",dtype:float32,shape:[1, 4, 1, 1, 32]}
  }
}
layer {
  name:"x_58"
  type:"var"
  top:"x_58"
  bottom:"Node_351"
  layer_param {
    idx:334
    in_0 {name:"Node_351:0",dtype:float32,shape:[1, 4, 28, 28, 32]}
    out_0 {name:"x:0",dtype:float32,shape:[1, 4, 28, 28, 32]}
  }
}
layer {
  name:"p0_19"
  type:"input"
  top:"p0_19"
  layer_param {
    idx:335
    out_0 {name:"p0:0",dtype:float32,shape:[1, 1, 28, 28, 128]}
  }
}
layer {
  name:"p1_9"
  type:"input"
  top:"p1_9"
  layer_param {
    idx:336
    out_0 {name:"p1:0",dtype:float32,shape:[4, 1, 3, 3, 128, 32]}
  }
}
layer {
  name:"p2_9"
  type:"input"
  top:"p2_9"
  layer_param {
    idx:337
    out_0 {name:"p2:0",dtype:float32,shape:[1, 4, 1, 1, 32]}
  }
}
layer {
  name:"p3_3"
  type:"input"
  top:"p3_3"
  layer_param {
    idx:338
    out_0 {name:"p3:0",dtype:float32,shape:[1, 4, 28, 28, 32]}
  }
}
layer {
  name:"Node_345"
  type:"nn_contrib_conv2d_NCHWc"
  top:"Node_345"
  bottom:"p0_19"
  bottom:"p1_9"
  layer_param {
    idx:345
    in_0 {name:"p0:0",dtype:float32,shape:[1, 1, 28, 28, 128]}
    in_1 {name:"p1:0",dtype:float32,shape:[4, 1, 3, 3, 128, 32]}
    out_0 {name:"Node_345:0",dtype:float32,shape:[1, 4, 28, 28, 32]}
    attrs {'strides': [1, 1], 'padding': [1, 1, 1, 1], 'dilation': [1, 1], 'groups': 1, 'channels': 128, 'kernel_size': [3, 3], 'data_layout': 'NCHW128c', 'kernel_layout': 'OIHW128i32o', 'out_layout': 'NCHW32c', 'out_dtype': ''}
  }
}
layer {
  name:"Node_347"
  type:"add"
  top:"Node_347"
  bottom:"Node_345"
  bottom:"p2_9"
  layer_param {
    idx:347
    in_0 {name:"Node_345:0",dtype:float32,shape:[1, 4, 28, 28, 32]}
    in_1 {name:"p2:0",dtype:float32,shape:[1, 4, 1, 1, 32]}
    out_0 {name:"Node_347:0",dtype:float32,shape:[1, 4, 28, 28, 32]}
  }
}
layer {
  name:"Node_349"
  type:"add"
  top:"Node_349"
  bottom:"Node_347"
  bottom:"p3_3"
  layer_param {
    idx:349
    in_0 {name:"Node_347:0",dtype:float32,shape:[1, 4, 28, 28, 32]}
    in_1 {name:"p3:0",dtype:float32,shape:[1, 4, 28, 28, 32]}
    out_0 {name:"Node_349:0",dtype:float32,shape:[1, 4, 28, 28, 32]}
  }
}
layer {
  name:"Node_350"
  type:"nn_relu"
  top:"Node_350"
  bottom:"Node_349"
  layer_param {
    idx:350
    in_0 {name:"Node_349:0",dtype:float32,shape:[1, 4, 28, 28, 32]}
    out_0 {name:"Node_350:0",dtype:float32,shape:[1, 4, 28, 28, 32]}
  }
}
layer {
  name:"Node_351"
  type:"function"
  top:"Node_351"
  bottom:"p0_19"
  bottom:"p1_9"
  bottom:"p2_9"
  bottom:"p3_3"
  bottom:"Node_350"
  layer_param {
    idx:351
    in_0 {name:"p0:0",dtype:float32,shape:[1, 1, 28, 28, 128]}
    in_1 {name:"p1:0",dtype:float32,shape:[4, 1, 3, 3, 128, 32]}
    in_2 {name:"p2:0",dtype:float32,shape:[1, 4, 1, 1, 32]}
    in_3 {name:"p3:0",dtype:float32,shape:[1, 4, 28, 28, 32]}
    in_4 {name:"Node_350:0",dtype:float32,shape:[1, 4, 28, 28, 32]}
    out_0 {name:"Node_351:0",dtype:float32,shape:[1, 4, 28, 28, 32]}
  }
}
layer {
  name:"x_59"
  type:"var"
  top:"x_59"
  bottom:"Node_358"
  layer_param {
    idx:352
    in_0 {name:"Node_358:0",dtype:float32,shape:[1, 4, 28, 28, 32]}
    out_0 {name:"x:0",dtype:float32,shape:[1, 4, 28, 28, 32]}
  }
}
layer {
  name:"Node_358"
  type:"var_call"
  top:"Node_358"
  bottom:"x_58"
  bottom:"x_55"
  bottom:"x_56"
  bottom:"x_57"
  bottom:"x_47"
  layer_param {
    idx:358
    in_0 {name:"x:0",dtype:float32,shape:[1, 4, 28, 28, 32]}
    in_1 {name:"x:0",dtype:float32,shape:[1, 1, 28, 28, 128]}
    in_2 {name:"x:0",dtype:float32,shape:[4, 1, 3, 3, 128, 32]}
    in_3 {name:"x:0",dtype:float32,shape:[1, 4, 1, 1, 32]}
    in_4 {name:"x:0",dtype:float32,shape:[1, 4, 28, 28, 32]}
    out_0 {name:"Node_358:0",dtype:float32,shape:[1, 4, 28, 28, 32]}
  }
}
layer {
  name:"x_60"
  type:"var"
  top:"x_60"
  bottom:"Node_364"
  layer_param {
    idx:359
    in_0 {name:"Node_364:0",dtype:float32,shape:[1, 16, 28, 28, 8]}
    out_0 {name:"x:0",dtype:float32,shape:[1, 16, 28, 28, 8]}
  }
}
layer {
  name:"p0_20"
  type:"input"
  top:"p0_20"
  layer_param {
    idx:360
    out_0 {name:"p0:0",dtype:float32,shape:[1, 4, 28, 28, 32]}
  }
}
layer {
  name:"Node_363"
  type:"layout_transform"
  top:"Node_363"
  bottom:"p0_20"
  layer_param {
    idx:363
    in_0 {name:"p0:0",dtype:float32,shape:[1, 4, 28, 28, 32]}
    out_0 {name:"Node_363:0",dtype:float32,shape:[1, 16, 28, 28, 8]}
    attrs {'src_layout': 'NCHW32c', 'dst_layout': 'NCHW8c'}
  }
}
layer {
  name:"Node_364"
  type:"function"
  top:"Node_364"
  bottom:"p0_20"
  bottom:"Node_363"
  layer_param {
    idx:364
    in_0 {name:"p0:0",dtype:float32,shape:[1, 4, 28, 28, 32]}
    in_1 {name:"Node_363:0",dtype:float32,shape:[1, 16, 28, 28, 8]}
    out_0 {name:"Node_364:0",dtype:float32,shape:[1, 16, 28, 28, 8]}
  }
}
layer {
  name:"x_61"
  type:"var"
  top:"x_61"
  bottom:"Node_368"
  layer_param {
    idx:365
    in_0 {name:"Node_368:0",dtype:float32,shape:[1, 16, 28, 28, 8]}
    out_0 {name:"x:0",dtype:float32,shape:[1, 16, 28, 28, 8]}
  }
}
layer {
  name:"Node_368"
  type:"var_call"
  top:"Node_368"
  bottom:"x_60"
  bottom:"x_59"
  layer_param {
    idx:368
    in_0 {name:"x:0",dtype:float32,shape:[1, 16, 28, 28, 8]}
    in_1 {name:"x:0",dtype:float32,shape:[1, 4, 28, 28, 32]}
    out_0 {name:"Node_368:0",dtype:float32,shape:[1, 16, 28, 28, 8]}
  }
}
layer {
  name:"x_62"
  type:"var"
  top:"x_62"
  bottom:"Node_370"
  layer_param {
    idx:369
    in_0 {name:"Node_370:0",dtype:float32,shape:[8, 16, 3, 3, 8, 32]}
    out_0 {name:"x:0",dtype:float32,shape:[8, 16, 3, 3, 8, 32]}
  }
}
layer {
  name:"Node_370"
  type:"const"
  top:"Node_370"
  layer_param {
    idx:370
    out_0 {name:"Node_370:0",dtype:float32,shape:[8, 16, 3, 3, 8, 32]}
  }
}
layer {
  name:"x_63"
  type:"var"
  top:"x_63"
  bottom:"Node_372"
  layer_param {
    idx:371
    in_0 {name:"Node_372:0",dtype:float32,shape:[1, 8, 1, 1, 32]}
    out_0 {name:"x:0",dtype:float32,shape:[1, 8, 1, 1, 32]}
  }
}
layer {
  name:"Node_372"
  type:"const"
  top:"Node_372"
  layer_param {
    idx:372
    out_0 {name:"Node_372:0",dtype:float32,shape:[1, 8, 1, 1, 32]}
  }
}
layer {
  name:"x_64"
  type:"var"
  top:"x_64"
  bottom:"Node_386"
  layer_param {
    idx:373
    in_0 {name:"Node_386:0",dtype:float32,shape:[1, 8, 14, 14, 32]}
    out_0 {name:"x:0",dtype:float32,shape:[1, 8, 14, 14, 32]}
  }
}
layer {
  name:"p0_21"
  type:"input"
  top:"p0_21"
  layer_param {
    idx:374
    out_0 {name:"p0:0",dtype:float32,shape:[1, 16, 28, 28, 8]}
  }
}
layer {
  name:"p1_10"
  type:"input"
  top:"p1_10"
  layer_param {
    idx:375
    out_0 {name:"p1:0",dtype:float32,shape:[8, 16, 3, 3, 8, 32]}
  }
}
layer {
  name:"p2_10"
  type:"input"
  top:"p2_10"
  layer_param {
    idx:376
    out_0 {name:"p2:0",dtype:float32,shape:[1, 8, 1, 1, 32]}
  }
}
layer {
  name:"Node_382"
  type:"nn_contrib_conv2d_NCHWc"
  top:"Node_382"
  bottom:"p0_21"
  bottom:"p1_10"
  layer_param {
    idx:382
    in_0 {name:"p0:0",dtype:float32,shape:[1, 16, 28, 28, 8]}
    in_1 {name:"p1:0",dtype:float32,shape:[8, 16, 3, 3, 8, 32]}
    out_0 {name:"Node_382:0",dtype:float32,shape:[1, 8, 14, 14, 32]}
    attrs {'strides': [2, 2], 'padding': [1, 1, 1, 1], 'dilation': [1, 1], 'groups': 1, 'channels': 256, 'kernel_size': [3, 3], 'data_layout': 'NCHW8c', 'kernel_layout': 'OIHW8i32o', 'out_layout': 'NCHW32c', 'out_dtype': ''}
  }
}
layer {
  name:"Node_384"
  type:"add"
  top:"Node_384"
  bottom:"Node_382"
  bottom:"p2_10"
  layer_param {
    idx:384
    in_0 {name:"Node_382:0",dtype:float32,shape:[1, 8, 14, 14, 32]}
    in_1 {name:"p2:0",dtype:float32,shape:[1, 8, 1, 1, 32]}
    out_0 {name:"Node_384:0",dtype:float32,shape:[1, 8, 14, 14, 32]}
  }
}
layer {
  name:"Node_385"
  type:"nn_relu"
  top:"Node_385"
  bottom:"Node_384"
  layer_param {
    idx:385
    in_0 {name:"Node_384:0",dtype:float32,shape:[1, 8, 14, 14, 32]}
    out_0 {name:"Node_385:0",dtype:float32,shape:[1, 8, 14, 14, 32]}
  }
}
layer {
  name:"Node_386"
  type:"function"
  top:"Node_386"
  bottom:"p0_21"
  bottom:"p1_10"
  bottom:"p2_10"
  bottom:"Node_385"
  layer_param {
    idx:386
    in_0 {name:"p0:0",dtype:float32,shape:[1, 16, 28, 28, 8]}
    in_1 {name:"p1:0",dtype:float32,shape:[8, 16, 3, 3, 8, 32]}
    in_2 {name:"p2:0",dtype:float32,shape:[1, 8, 1, 1, 32]}
    in_3 {name:"Node_385:0",dtype:float32,shape:[1, 8, 14, 14, 32]}
    out_0 {name:"Node_386:0",dtype:float32,shape:[1, 8, 14, 14, 32]}
  }
}
layer {
  name:"x_65"
  type:"var"
  top:"x_65"
  bottom:"Node_392"
  layer_param {
    idx:387
    in_0 {name:"Node_392:0",dtype:float32,shape:[1, 8, 14, 14, 32]}
    out_0 {name:"x:0",dtype:float32,shape:[1, 8, 14, 14, 32]}
  }
}
layer {
  name:"Node_392"
  type:"var_call"
  top:"Node_392"
  bottom:"x_64"
  bottom:"x_61"
  bottom:"x_62"
  bottom:"x_63"
  layer_param {
    idx:392
    in_0 {name:"x:0",dtype:float32,shape:[1, 8, 14, 14, 32]}
    in_1 {name:"x:0",dtype:float32,shape:[1, 16, 28, 28, 8]}
    in_2 {name:"x:0",dtype:float32,shape:[8, 16, 3, 3, 8, 32]}
    in_3 {name:"x:0",dtype:float32,shape:[1, 8, 1, 1, 32]}
    out_0 {name:"Node_392:0",dtype:float32,shape:[1, 8, 14, 14, 32]}
  }
}
layer {
  name:"x_66"
  type:"var"
  top:"x_66"
  bottom:"Node_398"
  layer_param {
    idx:393
    in_0 {name:"Node_398:0",dtype:float32,shape:[1, 2, 14, 14, 128]}
    out_0 {name:"x:0",dtype:float32,shape:[1, 2, 14, 14, 128]}
  }
}
layer {
  name:"p0_22"
  type:"input"
  top:"p0_22"
  layer_param {
    idx:394
    out_0 {name:"p0:0",dtype:float32,shape:[1, 8, 14, 14, 32]}
  }
}
layer {
  name:"Node_397"
  type:"layout_transform"
  top:"Node_397"
  bottom:"p0_22"
  layer_param {
    idx:397
    in_0 {name:"p0:0",dtype:float32,shape:[1, 8, 14, 14, 32]}
    out_0 {name:"Node_397:0",dtype:float32,shape:[1, 2, 14, 14, 128]}
    attrs {'src_layout': 'NCHW32c', 'dst_layout': 'NCHW128c'}
  }
}
layer {
  name:"Node_398"
  type:"function"
  top:"Node_398"
  bottom:"p0_22"
  bottom:"Node_397"
  layer_param {
    idx:398
    in_0 {name:"p0:0",dtype:float32,shape:[1, 8, 14, 14, 32]}
    in_1 {name:"Node_397:0",dtype:float32,shape:[1, 2, 14, 14, 128]}
    out_0 {name:"Node_398:0",dtype:float32,shape:[1, 2, 14, 14, 128]}
  }
}
layer {
  name:"x_67"
  type:"var"
  top:"x_67"
  bottom:"Node_402"
  layer_param {
    idx:399
    in_0 {name:"Node_402:0",dtype:float32,shape:[1, 2, 14, 14, 128]}
    out_0 {name:"x:0",dtype:float32,shape:[1, 2, 14, 14, 128]}
  }
}
layer {
  name:"Node_402"
  type:"var_call"
  top:"Node_402"
  bottom:"x_66"
  bottom:"x_65"
  layer_param {
    idx:402
    in_0 {name:"x:0",dtype:float32,shape:[1, 2, 14, 14, 128]}
    in_1 {name:"x:0",dtype:float32,shape:[1, 8, 14, 14, 32]}
    out_0 {name:"Node_402:0",dtype:float32,shape:[1, 2, 14, 14, 128]}
  }
}
layer {
  name:"x_68"
  type:"var"
  top:"x_68"
  bottom:"Node_404"
  layer_param {
    idx:403
    in_0 {name:"Node_404:0",dtype:float32,shape:[16, 2, 3, 3, 128, 16]}
    out_0 {name:"x:0",dtype:float32,shape:[16, 2, 3, 3, 128, 16]}
  }
}
layer {
  name:"Node_404"
  type:"const"
  top:"Node_404"
  layer_param {
    idx:404
    out_0 {name:"Node_404:0",dtype:float32,shape:[16, 2, 3, 3, 128, 16]}
  }
}
layer {
  name:"x_69"
  type:"var"
  top:"x_69"
  bottom:"Node_406"
  layer_param {
    idx:405
    in_0 {name:"Node_406:0",dtype:float32,shape:[1, 16, 1, 1, 16]}
    out_0 {name:"x:0",dtype:float32,shape:[1, 16, 1, 1, 16]}
  }
}
layer {
  name:"Node_406"
  type:"const"
  top:"Node_406"
  layer_param {
    idx:406
    out_0 {name:"Node_406:0",dtype:float32,shape:[1, 16, 1, 1, 16]}
  }
}
layer {
  name:"x_70"
  type:"var"
  top:"x_70"
  bottom:"Node_412"
  layer_param {
    idx:407
    in_0 {name:"Node_412:0",dtype:float32,shape:[1, 2, 28, 28, 64]}
    out_0 {name:"x:0",dtype:float32,shape:[1, 2, 28, 28, 64]}
  }
}
layer {
  name:"p0_23"
  type:"input"
  top:"p0_23"
  layer_param {
    idx:408
    out_0 {name:"p0:0",dtype:float32,shape:[1, 4, 28, 28, 32]}
  }
}
layer {
  name:"Node_411"
  type:"layout_transform"
  top:"Node_411"
  bottom:"p0_23"
  layer_param {
    idx:411
    in_0 {name:"p0:0",dtype:float32,shape:[1, 4, 28, 28, 32]}
    out_0 {name:"Node_411:0",dtype:float32,shape:[1, 2, 28, 28, 64]}
    attrs {'src_layout': 'NCHW32c', 'dst_layout': 'NCHW64c'}
  }
}
layer {
  name:"Node_412"
  type:"function"
  top:"Node_412"
  bottom:"p0_23"
  bottom:"Node_411"
  layer_param {
    idx:412
    in_0 {name:"p0:0",dtype:float32,shape:[1, 4, 28, 28, 32]}
    in_1 {name:"Node_411:0",dtype:float32,shape:[1, 2, 28, 28, 64]}
    out_0 {name:"Node_412:0",dtype:float32,shape:[1, 2, 28, 28, 64]}
  }
}
layer {
  name:"x_71"
  type:"var"
  top:"x_71"
  bottom:"Node_416"
  layer_param {
    idx:413
    in_0 {name:"Node_416:0",dtype:float32,shape:[1, 2, 28, 28, 64]}
    out_0 {name:"x:0",dtype:float32,shape:[1, 2, 28, 28, 64]}
  }
}
layer {
  name:"Node_416"
  type:"var_call"
  top:"Node_416"
  bottom:"x_70"
  bottom:"x_59"
  layer_param {
    idx:416
    in_0 {name:"x:0",dtype:float32,shape:[1, 2, 28, 28, 64]}
    in_1 {name:"x:0",dtype:float32,shape:[1, 4, 28, 28, 32]}
    out_0 {name:"Node_416:0",dtype:float32,shape:[1, 2, 28, 28, 64]}
  }
}
layer {
  name:"x_72"
  type:"var"
  top:"x_72"
  bottom:"Node_418"
  layer_param {
    idx:417
    in_0 {name:"Node_418:0",dtype:float32,shape:[16, 2, 1, 1, 64, 16]}
    out_0 {name:"x:0",dtype:float32,shape:[16, 2, 1, 1, 64, 16]}
  }
}
layer {
  name:"Node_418"
  type:"const"
  top:"Node_418"
  layer_param {
    idx:418
    out_0 {name:"Node_418:0",dtype:float32,shape:[16, 2, 1, 1, 64, 16]}
  }
}
layer {
  name:"x_73"
  type:"var"
  top:"x_73"
  bottom:"Node_420"
  layer_param {
    idx:419
    in_0 {name:"Node_420:0",dtype:float32,shape:[1, 16, 1, 1, 16]}
    out_0 {name:"x:0",dtype:float32,shape:[1, 16, 1, 1, 16]}
  }
}
layer {
  name:"Node_420"
  type:"const"
  top:"Node_420"
  layer_param {
    idx:420
    out_0 {name:"Node_420:0",dtype:float32,shape:[1, 16, 1, 1, 16]}
  }
}
layer {
  name:"x_74"
  type:"var"
  top:"x_74"
  bottom:"Node_432"
  layer_param {
    idx:421
    in_0 {name:"Node_432:0",dtype:float32,shape:[1, 16, 14, 14, 16]}
    out_0 {name:"x:0",dtype:float32,shape:[1, 16, 14, 14, 16]}
  }
}
layer {
  name:"p0_24"
  type:"input"
  top:"p0_24"
  layer_param {
    idx:422
    out_0 {name:"p0:0",dtype:float32,shape:[1, 2, 28, 28, 64]}
  }
}
layer {
  name:"p1_11"
  type:"input"
  top:"p1_11"
  layer_param {
    idx:423
    out_0 {name:"p1:0",dtype:float32,shape:[16, 2, 1, 1, 64, 16]}
  }
}
layer {
  name:"p2_11"
  type:"input"
  top:"p2_11"
  layer_param {
    idx:424
    out_0 {name:"p2:0",dtype:float32,shape:[1, 16, 1, 1, 16]}
  }
}
layer {
  name:"Node_429"
  type:"nn_contrib_conv2d_NCHWc"
  top:"Node_429"
  bottom:"p0_24"
  bottom:"p1_11"
  layer_param {
    idx:429
    in_0 {name:"p0:0",dtype:float32,shape:[1, 2, 28, 28, 64]}
    in_1 {name:"p1:0",dtype:float32,shape:[16, 2, 1, 1, 64, 16]}
    out_0 {name:"Node_429:0",dtype:float32,shape:[1, 16, 14, 14, 16]}
    attrs {'strides': [2, 2], 'padding': [0, 0, 0, 0], 'dilation': [1, 1], 'groups': 1, 'channels': 256, 'kernel_size': [1, 1], 'data_layout': 'NCHW64c', 'kernel_layout': 'OIHW64i16o', 'out_layout': 'NCHW16c', 'out_dtype': ''}
  }
}
layer {
  name:"Node_431"
  type:"add"
  top:"Node_431"
  bottom:"Node_429"
  bottom:"p2_11"
  layer_param {
    idx:431
    in_0 {name:"Node_429:0",dtype:float32,shape:[1, 16, 14, 14, 16]}
    in_1 {name:"p2:0",dtype:float32,shape:[1, 16, 1, 1, 16]}
    out_0 {name:"Node_431:0",dtype:float32,shape:[1, 16, 14, 14, 16]}
  }
}
layer {
  name:"Node_432"
  type:"function"
  top:"Node_432"
  bottom:"p0_24"
  bottom:"p1_11"
  bottom:"p2_11"
  bottom:"Node_431"
  layer_param {
    idx:432
    in_0 {name:"p0:0",dtype:float32,shape:[1, 2, 28, 28, 64]}
    in_1 {name:"p1:0",dtype:float32,shape:[16, 2, 1, 1, 64, 16]}
    in_2 {name:"p2:0",dtype:float32,shape:[1, 16, 1, 1, 16]}
    in_3 {name:"Node_431:0",dtype:float32,shape:[1, 16, 14, 14, 16]}
    out_0 {name:"Node_432:0",dtype:float32,shape:[1, 16, 14, 14, 16]}
  }
}
layer {
  name:"x_75"
  type:"var"
  top:"x_75"
  bottom:"Node_438"
  layer_param {
    idx:433
    in_0 {name:"Node_438:0",dtype:float32,shape:[1, 16, 14, 14, 16]}
    out_0 {name:"x:0",dtype:float32,shape:[1, 16, 14, 14, 16]}
  }
}
layer {
  name:"Node_438"
  type:"var_call"
  top:"Node_438"
  bottom:"x_74"
  bottom:"x_71"
  bottom:"x_72"
  bottom:"x_73"
  layer_param {
    idx:438
    in_0 {name:"x:0",dtype:float32,shape:[1, 16, 14, 14, 16]}
    in_1 {name:"x:0",dtype:float32,shape:[1, 2, 28, 28, 64]}
    in_2 {name:"x:0",dtype:float32,shape:[16, 2, 1, 1, 64, 16]}
    in_3 {name:"x:0",dtype:float32,shape:[1, 16, 1, 1, 16]}
    out_0 {name:"Node_438:0",dtype:float32,shape:[1, 16, 14, 14, 16]}
  }
}
layer {
  name:"x_76"
  type:"var"
  top:"x_76"
  bottom:"Node_456"
  layer_param {
    idx:439
    in_0 {name:"Node_456:0",dtype:float32,shape:[1, 16, 14, 14, 16]}
    out_0 {name:"x:0",dtype:float32,shape:[1, 16, 14, 14, 16]}
  }
}
layer {
  name:"p0_25"
  type:"input"
  top:"p0_25"
  layer_param {
    idx:440
    out_0 {name:"p0:0",dtype:float32,shape:[1, 2, 14, 14, 128]}
  }
}
layer {
  name:"p1_12"
  type:"input"
  top:"p1_12"
  layer_param {
    idx:441
    out_0 {name:"p1:0",dtype:float32,shape:[16, 2, 3, 3, 128, 16]}
  }
}
layer {
  name:"p2_12"
  type:"input"
  top:"p2_12"
  layer_param {
    idx:442
    out_0 {name:"p2:0",dtype:float32,shape:[1, 16, 1, 1, 16]}
  }
}
layer {
  name:"p3_4"
  type:"input"
  top:"p3_4"
  layer_param {
    idx:443
    out_0 {name:"p3:0",dtype:float32,shape:[1, 16, 14, 14, 16]}
  }
}
layer {
  name:"Node_450"
  type:"nn_contrib_conv2d_NCHWc"
  top:"Node_450"
  bottom:"p0_25"
  bottom:"p1_12"
  layer_param {
    idx:450
    in_0 {name:"p0:0",dtype:float32,shape:[1, 2, 14, 14, 128]}
    in_1 {name:"p1:0",dtype:float32,shape:[16, 2, 3, 3, 128, 16]}
    out_0 {name:"Node_450:0",dtype:float32,shape:[1, 16, 14, 14, 16]}
    attrs {'strides': [1, 1], 'padding': [1, 1, 1, 1], 'dilation': [1, 1], 'groups': 1, 'channels': 256, 'kernel_size': [3, 3], 'data_layout': 'NCHW128c', 'kernel_layout': 'OIHW128i16o', 'out_layout': 'NCHW16c', 'out_dtype': ''}
  }
}
layer {
  name:"Node_452"
  type:"add"
  top:"Node_452"
  bottom:"Node_450"
  bottom:"p2_12"
  layer_param {
    idx:452
    in_0 {name:"Node_450:0",dtype:float32,shape:[1, 16, 14, 14, 16]}
    in_1 {name:"p2:0",dtype:float32,shape:[1, 16, 1, 1, 16]}
    out_0 {name:"Node_452:0",dtype:float32,shape:[1, 16, 14, 14, 16]}
  }
}
layer {
  name:"Node_454"
  type:"add"
  top:"Node_454"
  bottom:"Node_452"
  bottom:"p3_4"
  layer_param {
    idx:454
    in_0 {name:"Node_452:0",dtype:float32,shape:[1, 16, 14, 14, 16]}
    in_1 {name:"p3:0",dtype:float32,shape:[1, 16, 14, 14, 16]}
    out_0 {name:"Node_454:0",dtype:float32,shape:[1, 16, 14, 14, 16]}
  }
}
layer {
  name:"Node_455"
  type:"nn_relu"
  top:"Node_455"
  bottom:"Node_454"
  layer_param {
    idx:455
    in_0 {name:"Node_454:0",dtype:float32,shape:[1, 16, 14, 14, 16]}
    out_0 {name:"Node_455:0",dtype:float32,shape:[1, 16, 14, 14, 16]}
  }
}
layer {
  name:"Node_456"
  type:"function"
  top:"Node_456"
  bottom:"p0_25"
  bottom:"p1_12"
  bottom:"p2_12"
  bottom:"p3_4"
  bottom:"Node_455"
  layer_param {
    idx:456
    in_0 {name:"p0:0",dtype:float32,shape:[1, 2, 14, 14, 128]}
    in_1 {name:"p1:0",dtype:float32,shape:[16, 2, 3, 3, 128, 16]}
    in_2 {name:"p2:0",dtype:float32,shape:[1, 16, 1, 1, 16]}
    in_3 {name:"p3:0",dtype:float32,shape:[1, 16, 14, 14, 16]}
    in_4 {name:"Node_455:0",dtype:float32,shape:[1, 16, 14, 14, 16]}
    out_0 {name:"Node_456:0",dtype:float32,shape:[1, 16, 14, 14, 16]}
  }
}
layer {
  name:"x_77"
  type:"var"
  top:"x_77"
  bottom:"Node_463"
  layer_param {
    idx:457
    in_0 {name:"Node_463:0",dtype:float32,shape:[1, 16, 14, 14, 16]}
    out_0 {name:"x:0",dtype:float32,shape:[1, 16, 14, 14, 16]}
  }
}
layer {
  name:"Node_463"
  type:"var_call"
  top:"Node_463"
  bottom:"x_76"
  bottom:"x_67"
  bottom:"x_68"
  bottom:"x_69"
  bottom:"x_75"
  layer_param {
    idx:463
    in_0 {name:"x:0",dtype:float32,shape:[1, 16, 14, 14, 16]}
    in_1 {name:"x:0",dtype:float32,shape:[1, 2, 14, 14, 128]}
    in_2 {name:"x:0",dtype:float32,shape:[16, 2, 3, 3, 128, 16]}
    in_3 {name:"x:0",dtype:float32,shape:[1, 16, 1, 1, 16]}
    in_4 {name:"x:0",dtype:float32,shape:[1, 16, 14, 14, 16]}
    out_0 {name:"Node_463:0",dtype:float32,shape:[1, 16, 14, 14, 16]}
  }
}
layer {
  name:"x_78"
  type:"var"
  top:"x_78"
  bottom:"Node_469"
  layer_param {
    idx:464
    in_0 {name:"Node_469:0",dtype:float32,shape:[1, 2, 14, 14, 128]}
    out_0 {name:"x:0",dtype:float32,shape:[1, 2, 14, 14, 128]}
  }
}
layer {
  name:"p0_26"
  type:"input"
  top:"p0_26"
  layer_param {
    idx:465
    out_0 {name:"p0:0",dtype:float32,shape:[1, 16, 14, 14, 16]}
  }
}
layer {
  name:"Node_468"
  type:"layout_transform"
  top:"Node_468"
  bottom:"p0_26"
  layer_param {
    idx:468
    in_0 {name:"p0:0",dtype:float32,shape:[1, 16, 14, 14, 16]}
    out_0 {name:"Node_468:0",dtype:float32,shape:[1, 2, 14, 14, 128]}
    attrs {'src_layout': 'NCHW16c', 'dst_layout': 'NCHW128c'}
  }
}
layer {
  name:"Node_469"
  type:"function"
  top:"Node_469"
  bottom:"p0_26"
  bottom:"Node_468"
  layer_param {
    idx:469
    in_0 {name:"p0:0",dtype:float32,shape:[1, 16, 14, 14, 16]}
    in_1 {name:"Node_468:0",dtype:float32,shape:[1, 2, 14, 14, 128]}
    out_0 {name:"Node_469:0",dtype:float32,shape:[1, 2, 14, 14, 128]}
  }
}
layer {
  name:"x_79"
  type:"var"
  top:"x_79"
  bottom:"Node_473"
  layer_param {
    idx:470
    in_0 {name:"Node_473:0",dtype:float32,shape:[1, 2, 14, 14, 128]}
    out_0 {name:"x:0",dtype:float32,shape:[1, 2, 14, 14, 128]}
  }
}
layer {
  name:"Node_473"
  type:"var_call"
  top:"Node_473"
  bottom:"x_78"
  bottom:"x_77"
  layer_param {
    idx:473
    in_0 {name:"x:0",dtype:float32,shape:[1, 2, 14, 14, 128]}
    in_1 {name:"x:0",dtype:float32,shape:[1, 16, 14, 14, 16]}
    out_0 {name:"Node_473:0",dtype:float32,shape:[1, 2, 14, 14, 128]}
  }
}
layer {
  name:"x_80"
  type:"var"
  top:"x_80"
  bottom:"Node_475"
  layer_param {
    idx:474
    in_0 {name:"Node_475:0",dtype:float32,shape:[16, 2, 3, 3, 128, 16]}
    out_0 {name:"x:0",dtype:float32,shape:[16, 2, 3, 3, 128, 16]}
  }
}
layer {
  name:"Node_475"
  type:"const"
  top:"Node_475"
  layer_param {
    idx:475
    out_0 {name:"Node_475:0",dtype:float32,shape:[16, 2, 3, 3, 128, 16]}
  }
}
layer {
  name:"x_81"
  type:"var"
  top:"x_81"
  bottom:"Node_477"
  layer_param {
    idx:476
    in_0 {name:"Node_477:0",dtype:float32,shape:[1, 16, 1, 1, 16]}
    out_0 {name:"x:0",dtype:float32,shape:[1, 16, 1, 1, 16]}
  }
}
layer {
  name:"Node_477"
  type:"const"
  top:"Node_477"
  layer_param {
    idx:477
    out_0 {name:"Node_477:0",dtype:float32,shape:[1, 16, 1, 1, 16]}
  }
}
layer {
  name:"x_82"
  type:"var"
  top:"x_82"
  bottom:"Node_491"
  layer_param {
    idx:478
    in_0 {name:"Node_491:0",dtype:float32,shape:[1, 16, 14, 14, 16]}
    out_0 {name:"x:0",dtype:float32,shape:[1, 16, 14, 14, 16]}
  }
}
layer {
  name:"p0_27"
  type:"input"
  top:"p0_27"
  layer_param {
    idx:479
    out_0 {name:"p0:0",dtype:float32,shape:[1, 2, 14, 14, 128]}
  }
}
layer {
  name:"p1_13"
  type:"input"
  top:"p1_13"
  layer_param {
    idx:480
    out_0 {name:"p1:0",dtype:float32,shape:[16, 2, 3, 3, 128, 16]}
  }
}
layer {
  name:"p2_13"
  type:"input"
  top:"p2_13"
  layer_param {
    idx:481
    out_0 {name:"p2:0",dtype:float32,shape:[1, 16, 1, 1, 16]}
  }
}
layer {
  name:"Node_487"
  type:"nn_contrib_conv2d_NCHWc"
  top:"Node_487"
  bottom:"p0_27"
  bottom:"p1_13"
  layer_param {
    idx:487
    in_0 {name:"p0:0",dtype:float32,shape:[1, 2, 14, 14, 128]}
    in_1 {name:"p1:0",dtype:float32,shape:[16, 2, 3, 3, 128, 16]}
    out_0 {name:"Node_487:0",dtype:float32,shape:[1, 16, 14, 14, 16]}
    attrs {'strides': [1, 1], 'padding': [1, 1, 1, 1], 'dilation': [1, 1], 'groups': 1, 'channels': 256, 'kernel_size': [3, 3], 'data_layout': 'NCHW128c', 'kernel_layout': 'OIHW128i16o', 'out_layout': 'NCHW16c', 'out_dtype': ''}
  }
}
layer {
  name:"Node_489"
  type:"add"
  top:"Node_489"
  bottom:"Node_487"
  bottom:"p2_13"
  layer_param {
    idx:489
    in_0 {name:"Node_487:0",dtype:float32,shape:[1, 16, 14, 14, 16]}
    in_1 {name:"p2:0",dtype:float32,shape:[1, 16, 1, 1, 16]}
    out_0 {name:"Node_489:0",dtype:float32,shape:[1, 16, 14, 14, 16]}
  }
}
layer {
  name:"Node_490"
  type:"nn_relu"
  top:"Node_490"
  bottom:"Node_489"
  layer_param {
    idx:490
    in_0 {name:"Node_489:0",dtype:float32,shape:[1, 16, 14, 14, 16]}
    out_0 {name:"Node_490:0",dtype:float32,shape:[1, 16, 14, 14, 16]}
  }
}
layer {
  name:"Node_491"
  type:"function"
  top:"Node_491"
  bottom:"p0_27"
  bottom:"p1_13"
  bottom:"p2_13"
  bottom:"Node_490"
  layer_param {
    idx:491
    in_0 {name:"p0:0",dtype:float32,shape:[1, 2, 14, 14, 128]}
    in_1 {name:"p1:0",dtype:float32,shape:[16, 2, 3, 3, 128, 16]}
    in_2 {name:"p2:0",dtype:float32,shape:[1, 16, 1, 1, 16]}
    in_3 {name:"Node_490:0",dtype:float32,shape:[1, 16, 14, 14, 16]}
    out_0 {name:"Node_491:0",dtype:float32,shape:[1, 16, 14, 14, 16]}
  }
}
layer {
  name:"x_83"
  type:"var"
  top:"x_83"
  bottom:"Node_497"
  layer_param {
    idx:492
    in_0 {name:"Node_497:0",dtype:float32,shape:[1, 16, 14, 14, 16]}
    out_0 {name:"x:0",dtype:float32,shape:[1, 16, 14, 14, 16]}
  }
}
layer {
  name:"Node_497"
  type:"var_call"
  top:"Node_497"
  bottom:"x_82"
  bottom:"x_79"
  bottom:"x_80"
  bottom:"x_81"
  layer_param {
    idx:497
    in_0 {name:"x:0",dtype:float32,shape:[1, 16, 14, 14, 16]}
    in_1 {name:"x:0",dtype:float32,shape:[1, 2, 14, 14, 128]}
    in_2 {name:"x:0",dtype:float32,shape:[16, 2, 3, 3, 128, 16]}
    in_3 {name:"x:0",dtype:float32,shape:[1, 16, 1, 1, 16]}
    out_0 {name:"Node_497:0",dtype:float32,shape:[1, 16, 14, 14, 16]}
  }
}
layer {
  name:"x_84"
  type:"var"
  top:"x_84"
  bottom:"Node_503"
  layer_param {
    idx:498
    in_0 {name:"Node_503:0",dtype:float32,shape:[1, 2, 14, 14, 128]}
    out_0 {name:"x:0",dtype:float32,shape:[1, 2, 14, 14, 128]}
  }
}
layer {
  name:"p0_28"
  type:"input"
  top:"p0_28"
  layer_param {
    idx:499
    out_0 {name:"p0:0",dtype:float32,shape:[1, 16, 14, 14, 16]}
  }
}
layer {
  name:"Node_502"
  type:"layout_transform"
  top:"Node_502"
  bottom:"p0_28"
  layer_param {
    idx:502
    in_0 {name:"p0:0",dtype:float32,shape:[1, 16, 14, 14, 16]}
    out_0 {name:"Node_502:0",dtype:float32,shape:[1, 2, 14, 14, 128]}
    attrs {'src_layout': 'NCHW16c', 'dst_layout': 'NCHW128c'}
  }
}
layer {
  name:"Node_503"
  type:"function"
  top:"Node_503"
  bottom:"p0_28"
  bottom:"Node_502"
  layer_param {
    idx:503
    in_0 {name:"p0:0",dtype:float32,shape:[1, 16, 14, 14, 16]}
    in_1 {name:"Node_502:0",dtype:float32,shape:[1, 2, 14, 14, 128]}
    out_0 {name:"Node_503:0",dtype:float32,shape:[1, 2, 14, 14, 128]}
  }
}
layer {
  name:"x_85"
  type:"var"
  top:"x_85"
  bottom:"Node_507"
  layer_param {
    idx:504
    in_0 {name:"Node_507:0",dtype:float32,shape:[1, 2, 14, 14, 128]}
    out_0 {name:"x:0",dtype:float32,shape:[1, 2, 14, 14, 128]}
  }
}
layer {
  name:"Node_507"
  type:"var_call"
  top:"Node_507"
  bottom:"x_84"
  bottom:"x_83"
  layer_param {
    idx:507
    in_0 {name:"x:0",dtype:float32,shape:[1, 2, 14, 14, 128]}
    in_1 {name:"x:0",dtype:float32,shape:[1, 16, 14, 14, 16]}
    out_0 {name:"Node_507:0",dtype:float32,shape:[1, 2, 14, 14, 128]}
  }
}
layer {
  name:"x_86"
  type:"var"
  top:"x_86"
  bottom:"Node_509"
  layer_param {
    idx:508
    in_0 {name:"Node_509:0",dtype:float32,shape:[16, 2, 3, 3, 128, 16]}
    out_0 {name:"x:0",dtype:float32,shape:[16, 2, 3, 3, 128, 16]}
  }
}
layer {
  name:"Node_509"
  type:"const"
  top:"Node_509"
  layer_param {
    idx:509
    out_0 {name:"Node_509:0",dtype:float32,shape:[16, 2, 3, 3, 128, 16]}
  }
}
layer {
  name:"x_87"
  type:"var"
  top:"x_87"
  bottom:"Node_511"
  layer_param {
    idx:510
    in_0 {name:"Node_511:0",dtype:float32,shape:[1, 16, 1, 1, 16]}
    out_0 {name:"x:0",dtype:float32,shape:[1, 16, 1, 1, 16]}
  }
}
layer {
  name:"Node_511"
  type:"const"
  top:"Node_511"
  layer_param {
    idx:511
    out_0 {name:"Node_511:0",dtype:float32,shape:[1, 16, 1, 1, 16]}
  }
}
layer {
  name:"x_88"
  type:"var"
  top:"x_88"
  bottom:"Node_529"
  layer_param {
    idx:512
    in_0 {name:"Node_529:0",dtype:float32,shape:[1, 16, 14, 14, 16]}
    out_0 {name:"x:0",dtype:float32,shape:[1, 16, 14, 14, 16]}
  }
}
layer {
  name:"p0_29"
  type:"input"
  top:"p0_29"
  layer_param {
    idx:513
    out_0 {name:"p0:0",dtype:float32,shape:[1, 2, 14, 14, 128]}
  }
}
layer {
  name:"p1_14"
  type:"input"
  top:"p1_14"
  layer_param {
    idx:514
    out_0 {name:"p1:0",dtype:float32,shape:[16, 2, 3, 3, 128, 16]}
  }
}
layer {
  name:"p2_14"
  type:"input"
  top:"p2_14"
  layer_param {
    idx:515
    out_0 {name:"p2:0",dtype:float32,shape:[1, 16, 1, 1, 16]}
  }
}
layer {
  name:"p3_5"
  type:"input"
  top:"p3_5"
  layer_param {
    idx:516
    out_0 {name:"p3:0",dtype:float32,shape:[1, 16, 14, 14, 16]}
  }
}
layer {
  name:"Node_523"
  type:"nn_contrib_conv2d_NCHWc"
  top:"Node_523"
  bottom:"p0_29"
  bottom:"p1_14"
  layer_param {
    idx:523
    in_0 {name:"p0:0",dtype:float32,shape:[1, 2, 14, 14, 128]}
    in_1 {name:"p1:0",dtype:float32,shape:[16, 2, 3, 3, 128, 16]}
    out_0 {name:"Node_523:0",dtype:float32,shape:[1, 16, 14, 14, 16]}
    attrs {'strides': [1, 1], 'padding': [1, 1, 1, 1], 'dilation': [1, 1], 'groups': 1, 'channels': 256, 'kernel_size': [3, 3], 'data_layout': 'NCHW128c', 'kernel_layout': 'OIHW128i16o', 'out_layout': 'NCHW16c', 'out_dtype': ''}
  }
}
layer {
  name:"Node_525"
  type:"add"
  top:"Node_525"
  bottom:"Node_523"
  bottom:"p2_14"
  layer_param {
    idx:525
    in_0 {name:"Node_523:0",dtype:float32,shape:[1, 16, 14, 14, 16]}
    in_1 {name:"p2:0",dtype:float32,shape:[1, 16, 1, 1, 16]}
    out_0 {name:"Node_525:0",dtype:float32,shape:[1, 16, 14, 14, 16]}
  }
}
layer {
  name:"Node_527"
  type:"add"
  top:"Node_527"
  bottom:"Node_525"
  bottom:"p3_5"
  layer_param {
    idx:527
    in_0 {name:"Node_525:0",dtype:float32,shape:[1, 16, 14, 14, 16]}
    in_1 {name:"p3:0",dtype:float32,shape:[1, 16, 14, 14, 16]}
    out_0 {name:"Node_527:0",dtype:float32,shape:[1, 16, 14, 14, 16]}
  }
}
layer {
  name:"Node_528"
  type:"nn_relu"
  top:"Node_528"
  bottom:"Node_527"
  layer_param {
    idx:528
    in_0 {name:"Node_527:0",dtype:float32,shape:[1, 16, 14, 14, 16]}
    out_0 {name:"Node_528:0",dtype:float32,shape:[1, 16, 14, 14, 16]}
  }
}
layer {
  name:"Node_529"
  type:"function"
  top:"Node_529"
  bottom:"p0_29"
  bottom:"p1_14"
  bottom:"p2_14"
  bottom:"p3_5"
  bottom:"Node_528"
  layer_param {
    idx:529
    in_0 {name:"p0:0",dtype:float32,shape:[1, 2, 14, 14, 128]}
    in_1 {name:"p1:0",dtype:float32,shape:[16, 2, 3, 3, 128, 16]}
    in_2 {name:"p2:0",dtype:float32,shape:[1, 16, 1, 1, 16]}
    in_3 {name:"p3:0",dtype:float32,shape:[1, 16, 14, 14, 16]}
    in_4 {name:"Node_528:0",dtype:float32,shape:[1, 16, 14, 14, 16]}
    out_0 {name:"Node_529:0",dtype:float32,shape:[1, 16, 14, 14, 16]}
  }
}
layer {
  name:"x_89"
  type:"var"
  top:"x_89"
  bottom:"Node_536"
  layer_param {
    idx:530
    in_0 {name:"Node_536:0",dtype:float32,shape:[1, 16, 14, 14, 16]}
    out_0 {name:"x:0",dtype:float32,shape:[1, 16, 14, 14, 16]}
  }
}
layer {
  name:"Node_536"
  type:"var_call"
  top:"Node_536"
  bottom:"x_88"
  bottom:"x_85"
  bottom:"x_86"
  bottom:"x_87"
  bottom:"x_77"
  layer_param {
    idx:536
    in_0 {name:"x:0",dtype:float32,shape:[1, 16, 14, 14, 16]}
    in_1 {name:"x:0",dtype:float32,shape:[1, 2, 14, 14, 128]}
    in_2 {name:"x:0",dtype:float32,shape:[16, 2, 3, 3, 128, 16]}
    in_3 {name:"x:0",dtype:float32,shape:[1, 16, 1, 1, 16]}
    in_4 {name:"x:0",dtype:float32,shape:[1, 16, 14, 14, 16]}
    out_0 {name:"Node_536:0",dtype:float32,shape:[1, 16, 14, 14, 16]}
  }
}
layer {
  name:"x_90"
  type:"var"
  top:"x_90"
  bottom:"Node_542"
  layer_param {
    idx:537
    in_0 {name:"Node_542:0",dtype:float32,shape:[1, 32, 14, 14, 8]}
    out_0 {name:"x:0",dtype:float32,shape:[1, 32, 14, 14, 8]}
  }
}
layer {
  name:"p0_30"
  type:"input"
  top:"p0_30"
  layer_param {
    idx:538
    out_0 {name:"p0:0",dtype:float32,shape:[1, 16, 14, 14, 16]}
  }
}
layer {
  name:"Node_541"
  type:"layout_transform"
  top:"Node_541"
  bottom:"p0_30"
  layer_param {
    idx:541
    in_0 {name:"p0:0",dtype:float32,shape:[1, 16, 14, 14, 16]}
    out_0 {name:"Node_541:0",dtype:float32,shape:[1, 32, 14, 14, 8]}
    attrs {'src_layout': 'NCHW16c', 'dst_layout': 'NCHW8c'}
  }
}
layer {
  name:"Node_542"
  type:"function"
  top:"Node_542"
  bottom:"p0_30"
  bottom:"Node_541"
  layer_param {
    idx:542
    in_0 {name:"p0:0",dtype:float32,shape:[1, 16, 14, 14, 16]}
    in_1 {name:"Node_541:0",dtype:float32,shape:[1, 32, 14, 14, 8]}
    out_0 {name:"Node_542:0",dtype:float32,shape:[1, 32, 14, 14, 8]}
  }
}
layer {
  name:"x_91"
  type:"var"
  top:"x_91"
  bottom:"Node_546"
  layer_param {
    idx:543
    in_0 {name:"Node_546:0",dtype:float32,shape:[1, 32, 14, 14, 8]}
    out_0 {name:"x:0",dtype:float32,shape:[1, 32, 14, 14, 8]}
  }
}
layer {
  name:"Node_546"
  type:"var_call"
  top:"Node_546"
  bottom:"x_90"
  bottom:"x_89"
  layer_param {
    idx:546
    in_0 {name:"x:0",dtype:float32,shape:[1, 32, 14, 14, 8]}
    in_1 {name:"x:0",dtype:float32,shape:[1, 16, 14, 14, 16]}
    out_0 {name:"Node_546:0",dtype:float32,shape:[1, 32, 14, 14, 8]}
  }
}
layer {
  name:"x_92"
  type:"var"
  top:"x_92"
  bottom:"Node_548"
  layer_param {
    idx:547
    in_0 {name:"Node_548:0",dtype:float32,shape:[16, 32, 3, 3, 8, 32]}
    out_0 {name:"x:0",dtype:float32,shape:[16, 32, 3, 3, 8, 32]}
  }
}
layer {
  name:"Node_548"
  type:"const"
  top:"Node_548"
  layer_param {
    idx:548
    out_0 {name:"Node_548:0",dtype:float32,shape:[16, 32, 3, 3, 8, 32]}
  }
}
layer {
  name:"x_93"
  type:"var"
  top:"x_93"
  bottom:"Node_550"
  layer_param {
    idx:549
    in_0 {name:"Node_550:0",dtype:float32,shape:[1, 16, 1, 1, 32]}
    out_0 {name:"x:0",dtype:float32,shape:[1, 16, 1, 1, 32]}
  }
}
layer {
  name:"Node_550"
  type:"const"
  top:"Node_550"
  layer_param {
    idx:550
    out_0 {name:"Node_550:0",dtype:float32,shape:[1, 16, 1, 1, 32]}
  }
}
layer {
  name:"x_94"
  type:"var"
  top:"x_94"
  bottom:"Node_564"
  layer_param {
    idx:551
    in_0 {name:"Node_564:0",dtype:float32,shape:[1, 16, 7, 7, 32]}
    out_0 {name:"x:0",dtype:float32,shape:[1, 16, 7, 7, 32]}
  }
}
layer {
  name:"p0_31"
  type:"input"
  top:"p0_31"
  layer_param {
    idx:552
    out_0 {name:"p0:0",dtype:float32,shape:[1, 32, 14, 14, 8]}
  }
}
layer {
  name:"p1_15"
  type:"input"
  top:"p1_15"
  layer_param {
    idx:553
    out_0 {name:"p1:0",dtype:float32,shape:[16, 32, 3, 3, 8, 32]}
  }
}
layer {
  name:"p2_15"
  type:"input"
  top:"p2_15"
  layer_param {
    idx:554
    out_0 {name:"p2:0",dtype:float32,shape:[1, 16, 1, 1, 32]}
  }
}
layer {
  name:"Node_560"
  type:"nn_contrib_conv2d_NCHWc"
  top:"Node_560"
  bottom:"p0_31"
  bottom:"p1_15"
  layer_param {
    idx:560
    in_0 {name:"p0:0",dtype:float32,shape:[1, 32, 14, 14, 8]}
    in_1 {name:"p1:0",dtype:float32,shape:[16, 32, 3, 3, 8, 32]}
    out_0 {name:"Node_560:0",dtype:float32,shape:[1, 16, 7, 7, 32]}
    attrs {'strides': [2, 2], 'padding': [1, 1, 1, 1], 'dilation': [1, 1], 'groups': 1, 'channels': 512, 'kernel_size': [3, 3], 'data_layout': 'NCHW8c', 'kernel_layout': 'OIHW8i32o', 'out_layout': 'NCHW32c', 'out_dtype': ''}
  }
}
layer {
  name:"Node_562"
  type:"add"
  top:"Node_562"
  bottom:"Node_560"
  bottom:"p2_15"
  layer_param {
    idx:562
    in_0 {name:"Node_560:0",dtype:float32,shape:[1, 16, 7, 7, 32]}
    in_1 {name:"p2:0",dtype:float32,shape:[1, 16, 1, 1, 32]}
    out_0 {name:"Node_562:0",dtype:float32,shape:[1, 16, 7, 7, 32]}
  }
}
layer {
  name:"Node_563"
  type:"nn_relu"
  top:"Node_563"
  bottom:"Node_562"
  layer_param {
    idx:563
    in_0 {name:"Node_562:0",dtype:float32,shape:[1, 16, 7, 7, 32]}
    out_0 {name:"Node_563:0",dtype:float32,shape:[1, 16, 7, 7, 32]}
  }
}
layer {
  name:"Node_564"
  type:"function"
  top:"Node_564"
  bottom:"p0_31"
  bottom:"p1_15"
  bottom:"p2_15"
  bottom:"Node_563"
  layer_param {
    idx:564
    in_0 {name:"p0:0",dtype:float32,shape:[1, 32, 14, 14, 8]}
    in_1 {name:"p1:0",dtype:float32,shape:[16, 32, 3, 3, 8, 32]}
    in_2 {name:"p2:0",dtype:float32,shape:[1, 16, 1, 1, 32]}
    in_3 {name:"Node_563:0",dtype:float32,shape:[1, 16, 7, 7, 32]}
    out_0 {name:"Node_564:0",dtype:float32,shape:[1, 16, 7, 7, 32]}
  }
}
layer {
  name:"x_95"
  type:"var"
  top:"x_95"
  bottom:"Node_570"
  layer_param {
    idx:565
    in_0 {name:"Node_570:0",dtype:float32,shape:[1, 16, 7, 7, 32]}
    out_0 {name:"x:0",dtype:float32,shape:[1, 16, 7, 7, 32]}
  }
}
layer {
  name:"Node_570"
  type:"var_call"
  top:"Node_570"
  bottom:"x_94"
  bottom:"x_91"
  bottom:"x_92"
  bottom:"x_93"
  layer_param {
    idx:570
    in_0 {name:"x:0",dtype:float32,shape:[1, 16, 7, 7, 32]}
    in_1 {name:"x:0",dtype:float32,shape:[1, 32, 14, 14, 8]}
    in_2 {name:"x:0",dtype:float32,shape:[16, 32, 3, 3, 8, 32]}
    in_3 {name:"x:0",dtype:float32,shape:[1, 16, 1, 1, 32]}
    out_0 {name:"Node_570:0",dtype:float32,shape:[1, 16, 7, 7, 32]}
  }
}
layer {
  name:"x_96"
  type:"var"
  top:"x_96"
  bottom:"Node_576"
  layer_param {
    idx:571
    in_0 {name:"Node_576:0",dtype:float32,shape:[1, 1, 7, 7, 512]}
    out_0 {name:"x:0",dtype:float32,shape:[1, 1, 7, 7, 512]}
  }
}
layer {
  name:"p0_32"
  type:"input"
  top:"p0_32"
  layer_param {
    idx:572
    out_0 {name:"p0:0",dtype:float32,shape:[1, 16, 7, 7, 32]}
  }
}
layer {
  name:"Node_575"
  type:"layout_transform"
  top:"Node_575"
  bottom:"p0_32"
  layer_param {
    idx:575
    in_0 {name:"p0:0",dtype:float32,shape:[1, 16, 7, 7, 32]}
    out_0 {name:"Node_575:0",dtype:float32,shape:[1, 1, 7, 7, 512]}
    attrs {'src_layout': 'NCHW32c', 'dst_layout': 'NCHW512c'}
  }
}
layer {
  name:"Node_576"
  type:"function"
  top:"Node_576"
  bottom:"p0_32"
  bottom:"Node_575"
  layer_param {
    idx:576
    in_0 {name:"p0:0",dtype:float32,shape:[1, 16, 7, 7, 32]}
    in_1 {name:"Node_575:0",dtype:float32,shape:[1, 1, 7, 7, 512]}
    out_0 {name:"Node_576:0",dtype:float32,shape:[1, 1, 7, 7, 512]}
  }
}
layer {
  name:"x_97"
  type:"var"
  top:"x_97"
  bottom:"Node_580"
  layer_param {
    idx:577
    in_0 {name:"Node_580:0",dtype:float32,shape:[1, 1, 7, 7, 512]}
    out_0 {name:"x:0",dtype:float32,shape:[1, 1, 7, 7, 512]}
  }
}
layer {
  name:"Node_580"
  type:"var_call"
  top:"Node_580"
  bottom:"x_96"
  bottom:"x_95"
  layer_param {
    idx:580
    in_0 {name:"x:0",dtype:float32,shape:[1, 1, 7, 7, 512]}
    in_1 {name:"x:0",dtype:float32,shape:[1, 16, 7, 7, 32]}
    out_0 {name:"Node_580:0",dtype:float32,shape:[1, 1, 7, 7, 512]}
  }
}
layer {
  name:"x_98"
  type:"var"
  top:"x_98"
  bottom:"Node_582"
  layer_param {
    idx:581
    in_0 {name:"Node_582:0",dtype:float32,shape:[16, 1, 3, 3, 512, 32]}
    out_0 {name:"x:0",dtype:float32,shape:[16, 1, 3, 3, 512, 32]}
  }
}
layer {
  name:"Node_582"
  type:"const"
  top:"Node_582"
  layer_param {
    idx:582
    out_0 {name:"Node_582:0",dtype:float32,shape:[16, 1, 3, 3, 512, 32]}
  }
}
layer {
  name:"x_99"
  type:"var"
  top:"x_99"
  bottom:"Node_584"
  layer_param {
    idx:583
    in_0 {name:"Node_584:0",dtype:float32,shape:[1, 16, 1, 1, 32]}
    out_0 {name:"x:0",dtype:float32,shape:[1, 16, 1, 1, 32]}
  }
}
layer {
  name:"Node_584"
  type:"const"
  top:"Node_584"
  layer_param {
    idx:584
    out_0 {name:"Node_584:0",dtype:float32,shape:[1, 16, 1, 1, 32]}
  }
}
layer {
  name:"x_100"
  type:"var"
  top:"x_100"
  bottom:"Node_590"
  layer_param {
    idx:585
    in_0 {name:"Node_590:0",dtype:float32,shape:[1, 2, 14, 14, 128]}
    out_0 {name:"x:0",dtype:float32,shape:[1, 2, 14, 14, 128]}
  }
}
layer {
  name:"p0_33"
  type:"input"
  top:"p0_33"
  layer_param {
    idx:586
    out_0 {name:"p0:0",dtype:float32,shape:[1, 16, 14, 14, 16]}
  }
}
layer {
  name:"Node_589"
  type:"layout_transform"
  top:"Node_589"
  bottom:"p0_33"
  layer_param {
    idx:589
    in_0 {name:"p0:0",dtype:float32,shape:[1, 16, 14, 14, 16]}
    out_0 {name:"Node_589:0",dtype:float32,shape:[1, 2, 14, 14, 128]}
    attrs {'src_layout': 'NCHW16c', 'dst_layout': 'NCHW128c'}
  }
}
layer {
  name:"Node_590"
  type:"function"
  top:"Node_590"
  bottom:"p0_33"
  bottom:"Node_589"
  layer_param {
    idx:590
    in_0 {name:"p0:0",dtype:float32,shape:[1, 16, 14, 14, 16]}
    in_1 {name:"Node_589:0",dtype:float32,shape:[1, 2, 14, 14, 128]}
    out_0 {name:"Node_590:0",dtype:float32,shape:[1, 2, 14, 14, 128]}
  }
}
layer {
  name:"x_101"
  type:"var"
  top:"x_101"
  bottom:"Node_594"
  layer_param {
    idx:591
    in_0 {name:"Node_594:0",dtype:float32,shape:[1, 2, 14, 14, 128]}
    out_0 {name:"x:0",dtype:float32,shape:[1, 2, 14, 14, 128]}
  }
}
layer {
  name:"Node_594"
  type:"var_call"
  top:"Node_594"
  bottom:"x_100"
  bottom:"x_89"
  layer_param {
    idx:594
    in_0 {name:"x:0",dtype:float32,shape:[1, 2, 14, 14, 128]}
    in_1 {name:"x:0",dtype:float32,shape:[1, 16, 14, 14, 16]}
    out_0 {name:"Node_594:0",dtype:float32,shape:[1, 2, 14, 14, 128]}
  }
}
layer {
  name:"x_102"
  type:"var"
  top:"x_102"
  bottom:"Node_596"
  layer_param {
    idx:595
    in_0 {name:"Node_596:0",dtype:float32,shape:[16, 2, 1, 1, 128, 32]}
    out_0 {name:"x:0",dtype:float32,shape:[16, 2, 1, 1, 128, 32]}
  }
}
layer {
  name:"Node_596"
  type:"const"
  top:"Node_596"
  layer_param {
    idx:596
    out_0 {name:"Node_596:0",dtype:float32,shape:[16, 2, 1, 1, 128, 32]}
  }
}
layer {
  name:"x_103"
  type:"var"
  top:"x_103"
  bottom:"Node_598"
  layer_param {
    idx:597
    in_0 {name:"Node_598:0",dtype:float32,shape:[1, 16, 1, 1, 32]}
    out_0 {name:"x:0",dtype:float32,shape:[1, 16, 1, 1, 32]}
  }
}
layer {
  name:"Node_598"
  type:"const"
  top:"Node_598"
  layer_param {
    idx:598
    out_0 {name:"Node_598:0",dtype:float32,shape:[1, 16, 1, 1, 32]}
  }
}
layer {
  name:"x_104"
  type:"var"
  top:"x_104"
  bottom:"Node_610"
  layer_param {
    idx:599
    in_0 {name:"Node_610:0",dtype:float32,shape:[1, 16, 7, 7, 32]}
    out_0 {name:"x:0",dtype:float32,shape:[1, 16, 7, 7, 32]}
  }
}
layer {
  name:"p0_34"
  type:"input"
  top:"p0_34"
  layer_param {
    idx:600
    out_0 {name:"p0:0",dtype:float32,shape:[1, 2, 14, 14, 128]}
  }
}
layer {
  name:"p1_16"
  type:"input"
  top:"p1_16"
  layer_param {
    idx:601
    out_0 {name:"p1:0",dtype:float32,shape:[16, 2, 1, 1, 128, 32]}
  }
}
layer {
  name:"p2_16"
  type:"input"
  top:"p2_16"
  layer_param {
    idx:602
    out_0 {name:"p2:0",dtype:float32,shape:[1, 16, 1, 1, 32]}
  }
}
layer {
  name:"Node_607"
  type:"nn_contrib_conv2d_NCHWc"
  top:"Node_607"
  bottom:"p0_34"
  bottom:"p1_16"
  layer_param {
    idx:607
    in_0 {name:"p0:0",dtype:float32,shape:[1, 2, 14, 14, 128]}
    in_1 {name:"p1:0",dtype:float32,shape:[16, 2, 1, 1, 128, 32]}
    out_0 {name:"Node_607:0",dtype:float32,shape:[1, 16, 7, 7, 32]}
    attrs {'strides': [2, 2], 'padding': [0, 0, 0, 0], 'dilation': [1, 1], 'groups': 1, 'channels': 512, 'kernel_size': [1, 1], 'data_layout': 'NCHW128c', 'kernel_layout': 'OIHW128i32o', 'out_layout': 'NCHW32c', 'out_dtype': ''}
  }
}
layer {
  name:"Node_609"
  type:"add"
  top:"Node_609"
  bottom:"Node_607"
  bottom:"p2_16"
  layer_param {
    idx:609
    in_0 {name:"Node_607:0",dtype:float32,shape:[1, 16, 7, 7, 32]}
    in_1 {name:"p2:0",dtype:float32,shape:[1, 16, 1, 1, 32]}
    out_0 {name:"Node_609:0",dtype:float32,shape:[1, 16, 7, 7, 32]}
  }
}
layer {
  name:"Node_610"
  type:"function"
  top:"Node_610"
  bottom:"p0_34"
  bottom:"p1_16"
  bottom:"p2_16"
  bottom:"Node_609"
  layer_param {
    idx:610
    in_0 {name:"p0:0",dtype:float32,shape:[1, 2, 14, 14, 128]}
    in_1 {name:"p1:0",dtype:float32,shape:[16, 2, 1, 1, 128, 32]}
    in_2 {name:"p2:0",dtype:float32,shape:[1, 16, 1, 1, 32]}
    in_3 {name:"Node_609:0",dtype:float32,shape:[1, 16, 7, 7, 32]}
    out_0 {name:"Node_610:0",dtype:float32,shape:[1, 16, 7, 7, 32]}
  }
}
layer {
  name:"x_105"
  type:"var"
  top:"x_105"
  bottom:"Node_616"
  layer_param {
    idx:611
    in_0 {name:"Node_616:0",dtype:float32,shape:[1, 16, 7, 7, 32]}
    out_0 {name:"x:0",dtype:float32,shape:[1, 16, 7, 7, 32]}
  }
}
layer {
  name:"Node_616"
  type:"var_call"
  top:"Node_616"
  bottom:"x_104"
  bottom:"x_101"
  bottom:"x_102"
  bottom:"x_103"
  layer_param {
    idx:616
    in_0 {name:"x:0",dtype:float32,shape:[1, 16, 7, 7, 32]}
    in_1 {name:"x:0",dtype:float32,shape:[1, 2, 14, 14, 128]}
    in_2 {name:"x:0",dtype:float32,shape:[16, 2, 1, 1, 128, 32]}
    in_3 {name:"x:0",dtype:float32,shape:[1, 16, 1, 1, 32]}
    out_0 {name:"Node_616:0",dtype:float32,shape:[1, 16, 7, 7, 32]}
  }
}
layer {
  name:"x_106"
  type:"var"
  top:"x_106"
  bottom:"Node_634"
  layer_param {
    idx:617
    in_0 {name:"Node_634:0",dtype:float32,shape:[1, 16, 7, 7, 32]}
    out_0 {name:"x:0",dtype:float32,shape:[1, 16, 7, 7, 32]}
  }
}
layer {
  name:"p0_35"
  type:"input"
  top:"p0_35"
  layer_param {
    idx:618
    out_0 {name:"p0:0",dtype:float32,shape:[1, 1, 7, 7, 512]}
  }
}
layer {
  name:"p1_17"
  type:"input"
  top:"p1_17"
  layer_param {
    idx:619
    out_0 {name:"p1:0",dtype:float32,shape:[16, 1, 3, 3, 512, 32]}
  }
}
layer {
  name:"p2_17"
  type:"input"
  top:"p2_17"
  layer_param {
    idx:620
    out_0 {name:"p2:0",dtype:float32,shape:[1, 16, 1, 1, 32]}
  }
}
layer {
  name:"p3_6"
  type:"input"
  top:"p3_6"
  layer_param {
    idx:621
    out_0 {name:"p3:0",dtype:float32,shape:[1, 16, 7, 7, 32]}
  }
}
layer {
  name:"Node_628"
  type:"nn_contrib_conv2d_NCHWc"
  top:"Node_628"
  bottom:"p0_35"
  bottom:"p1_17"
  layer_param {
    idx:628
    in_0 {name:"p0:0",dtype:float32,shape:[1, 1, 7, 7, 512]}
    in_1 {name:"p1:0",dtype:float32,shape:[16, 1, 3, 3, 512, 32]}
    out_0 {name:"Node_628:0",dtype:float32,shape:[1, 16, 7, 7, 32]}
    attrs {'strides': [1, 1], 'padding': [1, 1, 1, 1], 'dilation': [1, 1], 'groups': 1, 'channels': 512, 'kernel_size': [3, 3], 'data_layout': 'NCHW512c', 'kernel_layout': 'OIHW512i32o', 'out_layout': 'NCHW32c', 'out_dtype': ''}
  }
}
layer {
  name:"Node_630"
  type:"add"
  top:"Node_630"
  bottom:"Node_628"
  bottom:"p2_17"
  layer_param {
    idx:630
    in_0 {name:"Node_628:0",dtype:float32,shape:[1, 16, 7, 7, 32]}
    in_1 {name:"p2:0",dtype:float32,shape:[1, 16, 1, 1, 32]}
    out_0 {name:"Node_630:0",dtype:float32,shape:[1, 16, 7, 7, 32]}
  }
}
layer {
  name:"Node_632"
  type:"add"
  top:"Node_632"
  bottom:"Node_630"
  bottom:"p3_6"
  layer_param {
    idx:632
    in_0 {name:"Node_630:0",dtype:float32,shape:[1, 16, 7, 7, 32]}
    in_1 {name:"p3:0",dtype:float32,shape:[1, 16, 7, 7, 32]}
    out_0 {name:"Node_632:0",dtype:float32,shape:[1, 16, 7, 7, 32]}
  }
}
layer {
  name:"Node_633"
  type:"nn_relu"
  top:"Node_633"
  bottom:"Node_632"
  layer_param {
    idx:633
    in_0 {name:"Node_632:0",dtype:float32,shape:[1, 16, 7, 7, 32]}
    out_0 {name:"Node_633:0",dtype:float32,shape:[1, 16, 7, 7, 32]}
  }
}
layer {
  name:"Node_634"
  type:"function"
  top:"Node_634"
  bottom:"p0_35"
  bottom:"p1_17"
  bottom:"p2_17"
  bottom:"p3_6"
  bottom:"Node_633"
  layer_param {
    idx:634
    in_0 {name:"p0:0",dtype:float32,shape:[1, 1, 7, 7, 512]}
    in_1 {name:"p1:0",dtype:float32,shape:[16, 1, 3, 3, 512, 32]}
    in_2 {name:"p2:0",dtype:float32,shape:[1, 16, 1, 1, 32]}
    in_3 {name:"p3:0",dtype:float32,shape:[1, 16, 7, 7, 32]}
    in_4 {name:"Node_633:0",dtype:float32,shape:[1, 16, 7, 7, 32]}
    out_0 {name:"Node_634:0",dtype:float32,shape:[1, 16, 7, 7, 32]}
  }
}
layer {
  name:"x_107"
  type:"var"
  top:"x_107"
  bottom:"Node_641"
  layer_param {
    idx:635
    in_0 {name:"Node_641:0",dtype:float32,shape:[1, 16, 7, 7, 32]}
    out_0 {name:"x:0",dtype:float32,shape:[1, 16, 7, 7, 32]}
  }
}
layer {
  name:"Node_641"
  type:"var_call"
  top:"Node_641"
  bottom:"x_106"
  bottom:"x_97"
  bottom:"x_98"
  bottom:"x_99"
  bottom:"x_105"
  layer_param {
    idx:641
    in_0 {name:"x:0",dtype:float32,shape:[1, 16, 7, 7, 32]}
    in_1 {name:"x:0",dtype:float32,shape:[1, 1, 7, 7, 512]}
    in_2 {name:"x:0",dtype:float32,shape:[16, 1, 3, 3, 512, 32]}
    in_3 {name:"x:0",dtype:float32,shape:[1, 16, 1, 1, 32]}
    in_4 {name:"x:0",dtype:float32,shape:[1, 16, 7, 7, 32]}
    out_0 {name:"Node_641:0",dtype:float32,shape:[1, 16, 7, 7, 32]}
  }
}
layer {
  name:"x_108"
  type:"var"
  top:"x_108"
  bottom:"Node_647"
  layer_param {
    idx:642
    in_0 {name:"Node_647:0",dtype:float32,shape:[1, 1, 7, 7, 512]}
    out_0 {name:"x:0",dtype:float32,shape:[1, 1, 7, 7, 512]}
  }
}
layer {
  name:"p0_36"
  type:"input"
  top:"p0_36"
  layer_param {
    idx:643
    out_0 {name:"p0:0",dtype:float32,shape:[1, 16, 7, 7, 32]}
  }
}
layer {
  name:"Node_646"
  type:"layout_transform"
  top:"Node_646"
  bottom:"p0_36"
  layer_param {
    idx:646
    in_0 {name:"p0:0",dtype:float32,shape:[1, 16, 7, 7, 32]}
    out_0 {name:"Node_646:0",dtype:float32,shape:[1, 1, 7, 7, 512]}
    attrs {'src_layout': 'NCHW32c', 'dst_layout': 'NCHW512c'}
  }
}
layer {
  name:"Node_647"
  type:"function"
  top:"Node_647"
  bottom:"p0_36"
  bottom:"Node_646"
  layer_param {
    idx:647
    in_0 {name:"p0:0",dtype:float32,shape:[1, 16, 7, 7, 32]}
    in_1 {name:"Node_646:0",dtype:float32,shape:[1, 1, 7, 7, 512]}
    out_0 {name:"Node_647:0",dtype:float32,shape:[1, 1, 7, 7, 512]}
  }
}
layer {
  name:"x_109"
  type:"var"
  top:"x_109"
  bottom:"Node_651"
  layer_param {
    idx:648
    in_0 {name:"Node_651:0",dtype:float32,shape:[1, 1, 7, 7, 512]}
    out_0 {name:"x:0",dtype:float32,shape:[1, 1, 7, 7, 512]}
  }
}
layer {
  name:"Node_651"
  type:"var_call"
  top:"Node_651"
  bottom:"x_108"
  bottom:"x_107"
  layer_param {
    idx:651
    in_0 {name:"x:0",dtype:float32,shape:[1, 1, 7, 7, 512]}
    in_1 {name:"x:0",dtype:float32,shape:[1, 16, 7, 7, 32]}
    out_0 {name:"Node_651:0",dtype:float32,shape:[1, 1, 7, 7, 512]}
  }
}
layer {
  name:"x_110"
  type:"var"
  top:"x_110"
  bottom:"Node_653"
  layer_param {
    idx:652
    in_0 {name:"Node_653:0",dtype:float32,shape:[16, 1, 3, 3, 512, 32]}
    out_0 {name:"x:0",dtype:float32,shape:[16, 1, 3, 3, 512, 32]}
  }
}
layer {
  name:"Node_653"
  type:"const"
  top:"Node_653"
  layer_param {
    idx:653
    out_0 {name:"Node_653:0",dtype:float32,shape:[16, 1, 3, 3, 512, 32]}
  }
}
layer {
  name:"x_111"
  type:"var"
  top:"x_111"
  bottom:"Node_655"
  layer_param {
    idx:654
    in_0 {name:"Node_655:0",dtype:float32,shape:[1, 16, 1, 1, 32]}
    out_0 {name:"x:0",dtype:float32,shape:[1, 16, 1, 1, 32]}
  }
}
layer {
  name:"Node_655"
  type:"const"
  top:"Node_655"
  layer_param {
    idx:655
    out_0 {name:"Node_655:0",dtype:float32,shape:[1, 16, 1, 1, 32]}
  }
}
layer {
  name:"x_112"
  type:"var"
  top:"x_112"
  bottom:"Node_669"
  layer_param {
    idx:656
    in_0 {name:"Node_669:0",dtype:float32,shape:[1, 16, 7, 7, 32]}
    out_0 {name:"x:0",dtype:float32,shape:[1, 16, 7, 7, 32]}
  }
}
layer {
  name:"p0_37"
  type:"input"
  top:"p0_37"
  layer_param {
    idx:657
    out_0 {name:"p0:0",dtype:float32,shape:[1, 1, 7, 7, 512]}
  }
}
layer {
  name:"p1_18"
  type:"input"
  top:"p1_18"
  layer_param {
    idx:658
    out_0 {name:"p1:0",dtype:float32,shape:[16, 1, 3, 3, 512, 32]}
  }
}
layer {
  name:"p2_18"
  type:"input"
  top:"p2_18"
  layer_param {
    idx:659
    out_0 {name:"p2:0",dtype:float32,shape:[1, 16, 1, 1, 32]}
  }
}
layer {
  name:"Node_665"
  type:"nn_contrib_conv2d_NCHWc"
  top:"Node_665"
  bottom:"p0_37"
  bottom:"p1_18"
  layer_param {
    idx:665
    in_0 {name:"p0:0",dtype:float32,shape:[1, 1, 7, 7, 512]}
    in_1 {name:"p1:0",dtype:float32,shape:[16, 1, 3, 3, 512, 32]}
    out_0 {name:"Node_665:0",dtype:float32,shape:[1, 16, 7, 7, 32]}
    attrs {'strides': [1, 1], 'padding': [1, 1, 1, 1], 'dilation': [1, 1], 'groups': 1, 'channels': 512, 'kernel_size': [3, 3], 'data_layout': 'NCHW512c', 'kernel_layout': 'OIHW512i32o', 'out_layout': 'NCHW32c', 'out_dtype': ''}
  }
}
layer {
  name:"Node_667"
  type:"add"
  top:"Node_667"
  bottom:"Node_665"
  bottom:"p2_18"
  layer_param {
    idx:667
    in_0 {name:"Node_665:0",dtype:float32,shape:[1, 16, 7, 7, 32]}
    in_1 {name:"p2:0",dtype:float32,shape:[1, 16, 1, 1, 32]}
    out_0 {name:"Node_667:0",dtype:float32,shape:[1, 16, 7, 7, 32]}
  }
}
layer {
  name:"Node_668"
  type:"nn_relu"
  top:"Node_668"
  bottom:"Node_667"
  layer_param {
    idx:668
    in_0 {name:"Node_667:0",dtype:float32,shape:[1, 16, 7, 7, 32]}
    out_0 {name:"Node_668:0",dtype:float32,shape:[1, 16, 7, 7, 32]}
  }
}
layer {
  name:"Node_669"
  type:"function"
  top:"Node_669"
  bottom:"p0_37"
  bottom:"p1_18"
  bottom:"p2_18"
  bottom:"Node_668"
  layer_param {
    idx:669
    in_0 {name:"p0:0",dtype:float32,shape:[1, 1, 7, 7, 512]}
    in_1 {name:"p1:0",dtype:float32,shape:[16, 1, 3, 3, 512, 32]}
    in_2 {name:"p2:0",dtype:float32,shape:[1, 16, 1, 1, 32]}
    in_3 {name:"Node_668:0",dtype:float32,shape:[1, 16, 7, 7, 32]}
    out_0 {name:"Node_669:0",dtype:float32,shape:[1, 16, 7, 7, 32]}
  }
}
layer {
  name:"x_113"
  type:"var"
  top:"x_113"
  bottom:"Node_675"
  layer_param {
    idx:670
    in_0 {name:"Node_675:0",dtype:float32,shape:[1, 16, 7, 7, 32]}
    out_0 {name:"x:0",dtype:float32,shape:[1, 16, 7, 7, 32]}
  }
}
layer {
  name:"Node_675"
  type:"var_call"
  top:"Node_675"
  bottom:"x_112"
  bottom:"x_109"
  bottom:"x_110"
  bottom:"x_111"
  layer_param {
    idx:675
    in_0 {name:"x:0",dtype:float32,shape:[1, 16, 7, 7, 32]}
    in_1 {name:"x:0",dtype:float32,shape:[1, 1, 7, 7, 512]}
    in_2 {name:"x:0",dtype:float32,shape:[16, 1, 3, 3, 512, 32]}
    in_3 {name:"x:0",dtype:float32,shape:[1, 16, 1, 1, 32]}
    out_0 {name:"Node_675:0",dtype:float32,shape:[1, 16, 7, 7, 32]}
  }
}
layer {
  name:"x_114"
  type:"var"
  top:"x_114"
  bottom:"Node_681"
  layer_param {
    idx:676
    in_0 {name:"Node_681:0",dtype:float32,shape:[1, 1, 7, 7, 512]}
    out_0 {name:"x:0",dtype:float32,shape:[1, 1, 7, 7, 512]}
  }
}
layer {
  name:"p0_38"
  type:"input"
  top:"p0_38"
  layer_param {
    idx:677
    out_0 {name:"p0:0",dtype:float32,shape:[1, 16, 7, 7, 32]}
  }
}
layer {
  name:"Node_680"
  type:"layout_transform"
  top:"Node_680"
  bottom:"p0_38"
  layer_param {
    idx:680
    in_0 {name:"p0:0",dtype:float32,shape:[1, 16, 7, 7, 32]}
    out_0 {name:"Node_680:0",dtype:float32,shape:[1, 1, 7, 7, 512]}
    attrs {'src_layout': 'NCHW32c', 'dst_layout': 'NCHW512c'}
  }
}
layer {
  name:"Node_681"
  type:"function"
  top:"Node_681"
  bottom:"p0_38"
  bottom:"Node_680"
  layer_param {
    idx:681
    in_0 {name:"p0:0",dtype:float32,shape:[1, 16, 7, 7, 32]}
    in_1 {name:"Node_680:0",dtype:float32,shape:[1, 1, 7, 7, 512]}
    out_0 {name:"Node_681:0",dtype:float32,shape:[1, 1, 7, 7, 512]}
  }
}
layer {
  name:"x_115"
  type:"var"
  top:"x_115"
  bottom:"Node_685"
  layer_param {
    idx:682
    in_0 {name:"Node_685:0",dtype:float32,shape:[1, 1, 7, 7, 512]}
    out_0 {name:"x:0",dtype:float32,shape:[1, 1, 7, 7, 512]}
  }
}
layer {
  name:"Node_685"
  type:"var_call"
  top:"Node_685"
  bottom:"x_114"
  bottom:"x_113"
  layer_param {
    idx:685
    in_0 {name:"x:0",dtype:float32,shape:[1, 1, 7, 7, 512]}
    in_1 {name:"x:0",dtype:float32,shape:[1, 16, 7, 7, 32]}
    out_0 {name:"Node_685:0",dtype:float32,shape:[1, 1, 7, 7, 512]}
  }
}
layer {
  name:"x_116"
  type:"var"
  top:"x_116"
  bottom:"Node_687"
  layer_param {
    idx:686
    in_0 {name:"Node_687:0",dtype:float32,shape:[16, 1, 3, 3, 512, 32]}
    out_0 {name:"x:0",dtype:float32,shape:[16, 1, 3, 3, 512, 32]}
  }
}
layer {
  name:"Node_687"
  type:"const"
  top:"Node_687"
  layer_param {
    idx:687
    out_0 {name:"Node_687:0",dtype:float32,shape:[16, 1, 3, 3, 512, 32]}
  }
}
layer {
  name:"x_117"
  type:"var"
  top:"x_117"
  bottom:"Node_689"
  layer_param {
    idx:688
    in_0 {name:"Node_689:0",dtype:float32,shape:[1, 16, 1, 1, 32]}
    out_0 {name:"x:0",dtype:float32,shape:[1, 16, 1, 1, 32]}
  }
}
layer {
  name:"Node_689"
  type:"const"
  top:"Node_689"
  layer_param {
    idx:689
    out_0 {name:"Node_689:0",dtype:float32,shape:[1, 16, 1, 1, 32]}
  }
}
layer {
  name:"x_118"
  type:"var"
  top:"x_118"
  bottom:"Node_707"
  layer_param {
    idx:690
    in_0 {name:"Node_707:0",dtype:float32,shape:[1, 16, 7, 7, 32]}
    out_0 {name:"x:0",dtype:float32,shape:[1, 16, 7, 7, 32]}
  }
}
layer {
  name:"p0_39"
  type:"input"
  top:"p0_39"
  layer_param {
    idx:691
    out_0 {name:"p0:0",dtype:float32,shape:[1, 1, 7, 7, 512]}
  }
}
layer {
  name:"p1_19"
  type:"input"
  top:"p1_19"
  layer_param {
    idx:692
    out_0 {name:"p1:0",dtype:float32,shape:[16, 1, 3, 3, 512, 32]}
  }
}
layer {
  name:"p2_19"
  type:"input"
  top:"p2_19"
  layer_param {
    idx:693
    out_0 {name:"p2:0",dtype:float32,shape:[1, 16, 1, 1, 32]}
  }
}
layer {
  name:"p3_7"
  type:"input"
  top:"p3_7"
  layer_param {
    idx:694
    out_0 {name:"p3:0",dtype:float32,shape:[1, 16, 7, 7, 32]}
  }
}
layer {
  name:"Node_701"
  type:"nn_contrib_conv2d_NCHWc"
  top:"Node_701"
  bottom:"p0_39"
  bottom:"p1_19"
  layer_param {
    idx:701
    in_0 {name:"p0:0",dtype:float32,shape:[1, 1, 7, 7, 512]}
    in_1 {name:"p1:0",dtype:float32,shape:[16, 1, 3, 3, 512, 32]}
    out_0 {name:"Node_701:0",dtype:float32,shape:[1, 16, 7, 7, 32]}
    attrs {'strides': [1, 1], 'padding': [1, 1, 1, 1], 'dilation': [1, 1], 'groups': 1, 'channels': 512, 'kernel_size': [3, 3], 'data_layout': 'NCHW512c', 'kernel_layout': 'OIHW512i32o', 'out_layout': 'NCHW32c', 'out_dtype': ''}
  }
}
layer {
  name:"Node_703"
  type:"add"
  top:"Node_703"
  bottom:"Node_701"
  bottom:"p2_19"
  layer_param {
    idx:703
    in_0 {name:"Node_701:0",dtype:float32,shape:[1, 16, 7, 7, 32]}
    in_1 {name:"p2:0",dtype:float32,shape:[1, 16, 1, 1, 32]}
    out_0 {name:"Node_703:0",dtype:float32,shape:[1, 16, 7, 7, 32]}
  }
}
layer {
  name:"Node_705"
  type:"add"
  top:"Node_705"
  bottom:"Node_703"
  bottom:"p3_7"
  layer_param {
    idx:705
    in_0 {name:"Node_703:0",dtype:float32,shape:[1, 16, 7, 7, 32]}
    in_1 {name:"p3:0",dtype:float32,shape:[1, 16, 7, 7, 32]}
    out_0 {name:"Node_705:0",dtype:float32,shape:[1, 16, 7, 7, 32]}
  }
}
layer {
  name:"Node_706"
  type:"nn_relu"
  top:"Node_706"
  bottom:"Node_705"
  layer_param {
    idx:706
    in_0 {name:"Node_705:0",dtype:float32,shape:[1, 16, 7, 7, 32]}
    out_0 {name:"Node_706:0",dtype:float32,shape:[1, 16, 7, 7, 32]}
  }
}
layer {
  name:"Node_707"
  type:"function"
  top:"Node_707"
  bottom:"p0_39"
  bottom:"p1_19"
  bottom:"p2_19"
  bottom:"p3_7"
  bottom:"Node_706"
  layer_param {
    idx:707
    in_0 {name:"p0:0",dtype:float32,shape:[1, 1, 7, 7, 512]}
    in_1 {name:"p1:0",dtype:float32,shape:[16, 1, 3, 3, 512, 32]}
    in_2 {name:"p2:0",dtype:float32,shape:[1, 16, 1, 1, 32]}
    in_3 {name:"p3:0",dtype:float32,shape:[1, 16, 7, 7, 32]}
    in_4 {name:"Node_706:0",dtype:float32,shape:[1, 16, 7, 7, 32]}
    out_0 {name:"Node_707:0",dtype:float32,shape:[1, 16, 7, 7, 32]}
  }
}
layer {
  name:"x_119"
  type:"var"
  top:"x_119"
  bottom:"Node_714"
  layer_param {
    idx:708
    in_0 {name:"Node_714:0",dtype:float32,shape:[1, 16, 7, 7, 32]}
    out_0 {name:"x:0",dtype:float32,shape:[1, 16, 7, 7, 32]}
  }
}
layer {
  name:"Node_714"
  type:"var_call"
  top:"Node_714"
  bottom:"x_118"
  bottom:"x_115"
  bottom:"x_116"
  bottom:"x_117"
  bottom:"x_107"
  layer_param {
    idx:714
    in_0 {name:"x:0",dtype:float32,shape:[1, 16, 7, 7, 32]}
    in_1 {name:"x:0",dtype:float32,shape:[1, 1, 7, 7, 512]}
    in_2 {name:"x:0",dtype:float32,shape:[16, 1, 3, 3, 512, 32]}
    in_3 {name:"x:0",dtype:float32,shape:[1, 16, 1, 1, 32]}
    in_4 {name:"x:0",dtype:float32,shape:[1, 16, 7, 7, 32]}
    out_0 {name:"Node_714:0",dtype:float32,shape:[1, 16, 7, 7, 32]}
  }
}
layer {
  name:"x_120"
  type:"var"
  top:"x_120"
  bottom:"Node_720"
  layer_param {
    idx:715
    in_0 {name:"Node_720:0",dtype:float32,shape:[1, 16, 1, 1, 32]}
    out_0 {name:"x:0",dtype:float32,shape:[1, 16, 1, 1, 32]}
  }
}
layer {
  name:"p0_40"
  type:"input"
  top:"p0_40"
  layer_param {
    idx:716
    out_0 {name:"p0:0",dtype:float32,shape:[1, 16, 7, 7, 32]}
  }
}
layer {
  name:"Node_719"
  type:"nn_adaptive_avg_pool2d"
  top:"Node_719"
  bottom:"p0_40"
  layer_param {
    idx:719
    in_0 {name:"p0:0",dtype:float32,shape:[1, 16, 7, 7, 32]}
    out_0 {name:"Node_719:0",dtype:float32,shape:[1, 16, 1, 1, 32]}
    attrs {'output_size': [1, 1], 'layout': 'NCHW32c'}
  }
}
layer {
  name:"Node_720"
  type:"function"
  top:"Node_720"
  bottom:"p0_40"
  bottom:"Node_719"
  layer_param {
    idx:720
    in_0 {name:"p0:0",dtype:float32,shape:[1, 16, 7, 7, 32]}
    in_1 {name:"Node_719:0",dtype:float32,shape:[1, 16, 1, 1, 32]}
    out_0 {name:"Node_720:0",dtype:float32,shape:[1, 16, 1, 1, 32]}
  }
}
layer {
  name:"x_121"
  type:"var"
  top:"x_121"
  bottom:"Node_724"
  layer_param {
    idx:721
    in_0 {name:"Node_724:0",dtype:float32,shape:[1, 16, 1, 1, 32]}
    out_0 {name:"x:0",dtype:float32,shape:[1, 16, 1, 1, 32]}
  }
}
layer {
  name:"Node_724"
  type:"var_call"
  top:"Node_724"
  bottom:"x_120"
  bottom:"x_119"
  layer_param {
    idx:724
    in_0 {name:"x:0",dtype:float32,shape:[1, 16, 1, 1, 32]}
    in_1 {name:"x:0",dtype:float32,shape:[1, 16, 7, 7, 32]}
    out_0 {name:"Node_724:0",dtype:float32,shape:[1, 16, 1, 1, 32]}
  }
}
layer {
  name:"x_122"
  type:"var"
  top:"x_122"
  bottom:"Node_734"
  layer_param {
    idx:725
    in_0 {name:"Node_734:0",dtype:float32,shape:[1, 512]}
    out_0 {name:"x:0",dtype:float32,shape:[1, 512]}
  }
}
layer {
  name:"p0_41"
  type:"input"
  top:"p0_41"
  layer_param {
    idx:726
    out_0 {name:"p0:0",dtype:float32,shape:[1, 16, 1, 1, 32]}
  }
}
layer {
  name:"Node_731"
  type:"layout_transform"
  top:"Node_731"
  bottom:"p0_41"
  layer_param {
    idx:731
    in_0 {name:"p0:0",dtype:float32,shape:[1, 16, 1, 1, 32]}
    out_0 {name:"Node_731:0",dtype:float32,shape:[1, 512, 1, 1]}
    attrs {'src_layout': 'NCHW32c', 'dst_layout': 'NCHW'}
  }
}
layer {
  name:"Node_732"
  type:"reshape"
  top:"Node_732"
  bottom:"Node_731"
  layer_param {
    idx:732
    in_0 {name:"Node_731:0",dtype:float32,shape:[1, 512, 1, 1]}
    out_0 {name:"Node_732:0",dtype:float32,shape:[1, 512, 1, 1]}
    attrs {'newshape': [0, -1, 1, 1]}
  }
}
layer {
  name:"Node_733"
  type:"squeeze"
  top:"Node_733"
  bottom:"Node_732"
  layer_param {
    idx:733
    in_0 {name:"Node_732:0",dtype:float32,shape:[1, 512, 1, 1]}
    out_0 {name:"Node_733:0",dtype:float32,shape:[1, 512]}
    attrs {'axis': [2, 3]}
  }
}
layer {
  name:"Node_734"
  type:"function"
  top:"Node_734"
  bottom:"p0_41"
  bottom:"Node_733"
  layer_param {
    idx:734
    in_0 {name:"p0:0",dtype:float32,shape:[1, 16, 1, 1, 32]}
    in_1 {name:"Node_733:0",dtype:float32,shape:[1, 512]}
    out_0 {name:"Node_734:0",dtype:float32,shape:[1, 512]}
  }
}
layer {
  name:"x_123"
  type:"var"
  top:"x_123"
  bottom:"Node_738"
  layer_param {
    idx:735
    in_0 {name:"Node_738:0",dtype:float32,shape:[1, 512]}
    out_0 {name:"x:0",dtype:float32,shape:[1, 512]}
  }
}
layer {
  name:"Node_738"
  type:"var_call"
  top:"Node_738"
  bottom:"x_122"
  bottom:"x_121"
  layer_param {
    idx:738
    in_0 {name:"x:0",dtype:float32,shape:[1, 512]}
    in_1 {name:"x:0",dtype:float32,shape:[1, 16, 1, 1, 32]}
    out_0 {name:"Node_738:0",dtype:float32,shape:[1, 512]}
  }
}
layer {
  name:"x_124"
  type:"var"
  top:"x_124"
  bottom:"Node_740"
  layer_param {
    idx:739
    in_0 {name:"Node_740:0",dtype:float32,shape:[100, 512, 10]}
    out_0 {name:"x:0",dtype:float32,shape:[100, 512, 10]}
  }
}
layer {
  name:"Node_740"
  type:"const"
  top:"Node_740"
  layer_param {
    idx:740
    out_0 {name:"Node_740:0",dtype:float32,shape:[100, 512, 10]}
  }
}
layer {
  name:"x_125"
  type:"var"
  top:"x_125"
  bottom:"Node_742"
  layer_param {
    idx:741
    in_0 {name:"Node_742:0",dtype:float32,shape:[1000]}
    out_0 {name:"x:0",dtype:float32,shape:[1000]}
  }
}
layer {
  name:"Node_742"
  type:"const"
  top:"Node_742"
  layer_param {
    idx:742
    out_0 {name:"Node_742:0",dtype:float32,shape:[1000]}
  }
}
layer {
  name:"x_126"
  type:"var"
  top:"x_126"
  bottom:"Node_754"
  layer_param {
    idx:743
    in_0 {name:"Node_754:0",dtype:float32,shape:[1, 1000]}
    out_0 {name:"x:0",dtype:float32,shape:[1, 1000]}
  }
}
layer {
  name:"p0_42"
  type:"input"
  top:"p0_42"
  layer_param {
    idx:744
    out_0 {name:"p0:0",dtype:float32,shape:[1, 512]}
  }
}
layer {
  name:"p1_20"
  type:"input"
  top:"p1_20"
  layer_param {
    idx:745
    out_0 {name:"p1:0",dtype:float32,shape:[100, 512, 10]}
  }
}
layer {
  name:"p2_20"
  type:"input"
  top:"p2_20"
  layer_param {
    idx:746
    out_0 {name:"p2:0",dtype:float32,shape:[1000]}
  }
}
layer {
  name:"Node_751"
  type:"nn_contrib_dense_pack"
  top:"Node_751"
  bottom:"p0_42"
  bottom:"p1_20"
  layer_param {
    idx:751
    in_0 {name:"p0:0",dtype:float32,shape:[1, 512]}
    in_1 {name:"p1:0",dtype:float32,shape:[100, 512, 10]}
    out_0 {name:"Node_751:0",dtype:float32,shape:[1, 1000]}
    attrs {'units': None, 'out_dtype': 'float32'}
  }
}
layer {
  name:"Node_753"
  type:"add"
  top:"Node_753"
  bottom:"Node_751"
  bottom:"p2_20"
  layer_param {
    idx:753
    in_0 {name:"Node_751:0",dtype:float32,shape:[1, 1000]}
    in_1 {name:"p2:0",dtype:float32,shape:[1000]}
    out_0 {name:"Node_753:0",dtype:float32,shape:[1, 1000]}
  }
}
layer {
  name:"Node_754"
  type:"function"
  top:"Node_754"
  bottom:"p0_42"
  bottom:"p1_20"
  bottom:"p2_20"
  bottom:"Node_753"
  layer_param {
    idx:754
    in_0 {name:"p0:0",dtype:float32,shape:[1, 512]}
    in_1 {name:"p1:0",dtype:float32,shape:[100, 512, 10]}
    in_2 {name:"p2:0",dtype:float32,shape:[1000]}
    in_3 {name:"Node_753:0",dtype:float32,shape:[1, 1000]}
    out_0 {name:"Node_754:0",dtype:float32,shape:[1, 1000]}
  }
}
layer {
  name:"x_127"
  type:"var"
  top:"x_127"
  bottom:"Node_760"
  layer_param {
    idx:755
    in_0 {name:"Node_760:0",dtype:float32,shape:[1, 1000]}
    out_0 {name:"x:0",dtype:float32,shape:[1, 1000]}
  }
}
layer {
  name:"Node_760"
  type:"var_call"
  top:"Node_760"
  bottom:"x_126"
  bottom:"x_123"
  bottom:"x_124"
  bottom:"x_125"
  layer_param {
    idx:760
    in_0 {name:"x:0",dtype:float32,shape:[1, 1000]}
    in_1 {name:"x:0",dtype:float32,shape:[1, 512]}
    in_2 {name:"x:0",dtype:float32,shape:[100, 512, 10]}
    in_3 {name:"x:0",dtype:float32,shape:[1000]}
    out_0 {name:"Node_760:0",dtype:float32,shape:[1, 1000]}
  }
}
layer {
  name:"Node_762"
  type:"let"
  top:"Node_762"
  bottom:"x_127"
  layer_param {
    idx:762
    in_0 {name:"x:0",dtype:float32,shape:[1, 1000]}
    in_1 {name:"x:0",dtype:float32,shape:[1, 1000]}
    out_0 {name:"Node_762:0",dtype:float32,shape:[1, 1000]}
  }
}
layer {
  name:"Node_763"
  type:"let"
  top:"Node_763"
  bottom:"x_126"
  bottom:"Node_762"
  layer_param {
    idx:763
    in_0 {name:"x:0",dtype:float32,shape:[1, 1000]}
    in_1 {name:"Node_762:0",dtype:float32,shape:[1, 1000]}
    out_0 {name:"Node_763:0",dtype:float32,shape:[1, 1000]}
  }
}
layer {
  name:"Node_764"
  type:"let"
  top:"Node_764"
  bottom:"x_125"
  bottom:"Node_763"
  layer_param {
    idx:764
    in_0 {name:"x:0",dtype:float32,shape:[1000]}
    in_1 {name:"Node_763:0",dtype:float32,shape:[1, 1000]}
    out_0 {name:"Node_764:0",dtype:float32,shape:[1000]}
  }
}
layer {
  name:"Node_765"
  type:"let"
  top:"Node_765"
  bottom:"x_124"
  bottom:"Node_764"
  layer_param {
    idx:765
    in_0 {name:"x:0",dtype:float32,shape:[100, 512, 10]}
    in_1 {name:"Node_764:0",dtype:float32,shape:[1000]}
    out_0 {name:"Node_765:0",dtype:float32,shape:[100, 512, 10]}
  }
}
layer {
  name:"Node_766"
  type:"let"
  top:"Node_766"
  bottom:"x_123"
  bottom:"Node_765"
  layer_param {
    idx:766
    in_0 {name:"x:0",dtype:float32,shape:[1, 512]}
    in_1 {name:"Node_765:0",dtype:float32,shape:[100, 512, 10]}
    out_0 {name:"Node_766:0",dtype:float32,shape:[1, 512]}
  }
}
layer {
  name:"Node_767"
  type:"let"
  top:"Node_767"
  bottom:"x_122"
  bottom:"Node_766"
  layer_param {
    idx:767
    in_0 {name:"x:0",dtype:float32,shape:[1, 512]}
    in_1 {name:"Node_766:0",dtype:float32,shape:[1, 512]}
    out_0 {name:"Node_767:0",dtype:float32,shape:[1, 512]}
  }
}
layer {
  name:"Node_768"
  type:"let"
  top:"Node_768"
  bottom:"x_121"
  bottom:"Node_767"
  layer_param {
    idx:768
    in_0 {name:"x:0",dtype:float32,shape:[1, 16, 1, 1, 32]}
    in_1 {name:"Node_767:0",dtype:float32,shape:[1, 512]}
    out_0 {name:"Node_768:0",dtype:float32,shape:[1, 16, 1, 1, 32]}
  }
}
layer {
  name:"Node_769"
  type:"let"
  top:"Node_769"
  bottom:"x_120"
  bottom:"Node_768"
  layer_param {
    idx:769
    in_0 {name:"x:0",dtype:float32,shape:[1, 16, 1, 1, 32]}
    in_1 {name:"Node_768:0",dtype:float32,shape:[1, 16, 1, 1, 32]}
    out_0 {name:"Node_769:0",dtype:float32,shape:[1, 16, 1, 1, 32]}
  }
}
layer {
  name:"Node_770"
  type:"let"
  top:"Node_770"
  bottom:"x_119"
  bottom:"Node_769"
  layer_param {
    idx:770
    in_0 {name:"x:0",dtype:float32,shape:[1, 16, 7, 7, 32]}
    in_1 {name:"Node_769:0",dtype:float32,shape:[1, 16, 1, 1, 32]}
    out_0 {name:"Node_770:0",dtype:float32,shape:[1, 16, 7, 7, 32]}
  }
}
layer {
  name:"Node_771"
  type:"let"
  top:"Node_771"
  bottom:"x_118"
  bottom:"Node_770"
  layer_param {
    idx:771
    in_0 {name:"x:0",dtype:float32,shape:[1, 16, 7, 7, 32]}
    in_1 {name:"Node_770:0",dtype:float32,shape:[1, 16, 7, 7, 32]}
    out_0 {name:"Node_771:0",dtype:float32,shape:[1, 16, 7, 7, 32]}
  }
}
layer {
  name:"Node_772"
  type:"let"
  top:"Node_772"
  bottom:"x_117"
  bottom:"Node_771"
  layer_param {
    idx:772
    in_0 {name:"x:0",dtype:float32,shape:[1, 16, 1, 1, 32]}
    in_1 {name:"Node_771:0",dtype:float32,shape:[1, 16, 7, 7, 32]}
    out_0 {name:"Node_772:0",dtype:float32,shape:[1, 16, 1, 1, 32]}
  }
}
layer {
  name:"Node_773"
  type:"let"
  top:"Node_773"
  bottom:"x_116"
  bottom:"Node_772"
  layer_param {
    idx:773
    in_0 {name:"x:0",dtype:float32,shape:[16, 1, 3, 3, 512, 32]}
    in_1 {name:"Node_772:0",dtype:float32,shape:[1, 16, 1, 1, 32]}
    out_0 {name:"Node_773:0",dtype:float32,shape:[16, 1, 3, 3, 512, 32]}
  }
}
layer {
  name:"Node_774"
  type:"let"
  top:"Node_774"
  bottom:"x_115"
  bottom:"Node_773"
  layer_param {
    idx:774
    in_0 {name:"x:0",dtype:float32,shape:[1, 1, 7, 7, 512]}
    in_1 {name:"Node_773:0",dtype:float32,shape:[16, 1, 3, 3, 512, 32]}
    out_0 {name:"Node_774:0",dtype:float32,shape:[1, 1, 7, 7, 512]}
  }
}
layer {
  name:"Node_775"
  type:"let"
  top:"Node_775"
  bottom:"x_114"
  bottom:"Node_774"
  layer_param {
    idx:775
    in_0 {name:"x:0",dtype:float32,shape:[1, 1, 7, 7, 512]}
    in_1 {name:"Node_774:0",dtype:float32,shape:[1, 1, 7, 7, 512]}
    out_0 {name:"Node_775:0",dtype:float32,shape:[1, 1, 7, 7, 512]}
  }
}
layer {
  name:"Node_776"
  type:"let"
  top:"Node_776"
  bottom:"x_113"
  bottom:"Node_775"
  layer_param {
    idx:776
    in_0 {name:"x:0",dtype:float32,shape:[1, 16, 7, 7, 32]}
    in_1 {name:"Node_775:0",dtype:float32,shape:[1, 1, 7, 7, 512]}
    out_0 {name:"Node_776:0",dtype:float32,shape:[1, 16, 7, 7, 32]}
  }
}
layer {
  name:"Node_777"
  type:"let"
  top:"Node_777"
  bottom:"x_112"
  bottom:"Node_776"
  layer_param {
    idx:777
    in_0 {name:"x:0",dtype:float32,shape:[1, 16, 7, 7, 32]}
    in_1 {name:"Node_776:0",dtype:float32,shape:[1, 16, 7, 7, 32]}
    out_0 {name:"Node_777:0",dtype:float32,shape:[1, 16, 7, 7, 32]}
  }
}
layer {
  name:"Node_778"
  type:"let"
  top:"Node_778"
  bottom:"x_111"
  bottom:"Node_777"
  layer_param {
    idx:778
    in_0 {name:"x:0",dtype:float32,shape:[1, 16, 1, 1, 32]}
    in_1 {name:"Node_777:0",dtype:float32,shape:[1, 16, 7, 7, 32]}
    out_0 {name:"Node_778:0",dtype:float32,shape:[1, 16, 1, 1, 32]}
  }
}
layer {
  name:"Node_779"
  type:"let"
  top:"Node_779"
  bottom:"x_110"
  bottom:"Node_778"
  layer_param {
    idx:779
    in_0 {name:"x:0",dtype:float32,shape:[16, 1, 3, 3, 512, 32]}
    in_1 {name:"Node_778:0",dtype:float32,shape:[1, 16, 1, 1, 32]}
    out_0 {name:"Node_779:0",dtype:float32,shape:[16, 1, 3, 3, 512, 32]}
  }
}
layer {
  name:"Node_780"
  type:"let"
  top:"Node_780"
  bottom:"x_109"
  bottom:"Node_779"
  layer_param {
    idx:780
    in_0 {name:"x:0",dtype:float32,shape:[1, 1, 7, 7, 512]}
    in_1 {name:"Node_779:0",dtype:float32,shape:[16, 1, 3, 3, 512, 32]}
    out_0 {name:"Node_780:0",dtype:float32,shape:[1, 1, 7, 7, 512]}
  }
}
layer {
  name:"Node_781"
  type:"let"
  top:"Node_781"
  bottom:"x_108"
  bottom:"Node_780"
  layer_param {
    idx:781
    in_0 {name:"x:0",dtype:float32,shape:[1, 1, 7, 7, 512]}
    in_1 {name:"Node_780:0",dtype:float32,shape:[1, 1, 7, 7, 512]}
    out_0 {name:"Node_781:0",dtype:float32,shape:[1, 1, 7, 7, 512]}
  }
}
layer {
  name:"Node_782"
  type:"let"
  top:"Node_782"
  bottom:"x_107"
  bottom:"Node_781"
  layer_param {
    idx:782
    in_0 {name:"x:0",dtype:float32,shape:[1, 16, 7, 7, 32]}
    in_1 {name:"Node_781:0",dtype:float32,shape:[1, 1, 7, 7, 512]}
    out_0 {name:"Node_782:0",dtype:float32,shape:[1, 16, 7, 7, 32]}
  }
}
layer {
  name:"Node_783"
  type:"let"
  top:"Node_783"
  bottom:"x_106"
  bottom:"Node_782"
  layer_param {
    idx:783
    in_0 {name:"x:0",dtype:float32,shape:[1, 16, 7, 7, 32]}
    in_1 {name:"Node_782:0",dtype:float32,shape:[1, 16, 7, 7, 32]}
    out_0 {name:"Node_783:0",dtype:float32,shape:[1, 16, 7, 7, 32]}
  }
}
layer {
  name:"Node_784"
  type:"let"
  top:"Node_784"
  bottom:"x_105"
  bottom:"Node_783"
  layer_param {
    idx:784
    in_0 {name:"x:0",dtype:float32,shape:[1, 16, 7, 7, 32]}
    in_1 {name:"Node_783:0",dtype:float32,shape:[1, 16, 7, 7, 32]}
    out_0 {name:"Node_784:0",dtype:float32,shape:[1, 16, 7, 7, 32]}
  }
}
layer {
  name:"Node_785"
  type:"let"
  top:"Node_785"
  bottom:"x_104"
  bottom:"Node_784"
  layer_param {
    idx:785
    in_0 {name:"x:0",dtype:float32,shape:[1, 16, 7, 7, 32]}
    in_1 {name:"Node_784:0",dtype:float32,shape:[1, 16, 7, 7, 32]}
    out_0 {name:"Node_785:0",dtype:float32,shape:[1, 16, 7, 7, 32]}
  }
}
layer {
  name:"Node_786"
  type:"let"
  top:"Node_786"
  bottom:"x_103"
  bottom:"Node_785"
  layer_param {
    idx:786
    in_0 {name:"x:0",dtype:float32,shape:[1, 16, 1, 1, 32]}
    in_1 {name:"Node_785:0",dtype:float32,shape:[1, 16, 7, 7, 32]}
    out_0 {name:"Node_786:0",dtype:float32,shape:[1, 16, 1, 1, 32]}
  }
}
layer {
  name:"Node_787"
  type:"let"
  top:"Node_787"
  bottom:"x_102"
  bottom:"Node_786"
  layer_param {
    idx:787
    in_0 {name:"x:0",dtype:float32,shape:[16, 2, 1, 1, 128, 32]}
    in_1 {name:"Node_786:0",dtype:float32,shape:[1, 16, 1, 1, 32]}
    out_0 {name:"Node_787:0",dtype:float32,shape:[16, 2, 1, 1, 128, 32]}
  }
}
layer {
  name:"Node_788"
  type:"let"
  top:"Node_788"
  bottom:"x_101"
  bottom:"Node_787"
  layer_param {
    idx:788
    in_0 {name:"x:0",dtype:float32,shape:[1, 2, 14, 14, 128]}
    in_1 {name:"Node_787:0",dtype:float32,shape:[16, 2, 1, 1, 128, 32]}
    out_0 {name:"Node_788:0",dtype:float32,shape:[1, 2, 14, 14, 128]}
  }
}
layer {
  name:"Node_789"
  type:"let"
  top:"Node_789"
  bottom:"x_100"
  bottom:"Node_788"
  layer_param {
    idx:789
    in_0 {name:"x:0",dtype:float32,shape:[1, 2, 14, 14, 128]}
    in_1 {name:"Node_788:0",dtype:float32,shape:[1, 2, 14, 14, 128]}
    out_0 {name:"Node_789:0",dtype:float32,shape:[1, 2, 14, 14, 128]}
  }
}
layer {
  name:"Node_790"
  type:"let"
  top:"Node_790"
  bottom:"x_99"
  bottom:"Node_789"
  layer_param {
    idx:790
    in_0 {name:"x:0",dtype:float32,shape:[1, 16, 1, 1, 32]}
    in_1 {name:"Node_789:0",dtype:float32,shape:[1, 2, 14, 14, 128]}
    out_0 {name:"Node_790:0",dtype:float32,shape:[1, 16, 1, 1, 32]}
  }
}
layer {
  name:"Node_791"
  type:"let"
  top:"Node_791"
  bottom:"x_98"
  bottom:"Node_790"
  layer_param {
    idx:791
    in_0 {name:"x:0",dtype:float32,shape:[16, 1, 3, 3, 512, 32]}
    in_1 {name:"Node_790:0",dtype:float32,shape:[1, 16, 1, 1, 32]}
    out_0 {name:"Node_791:0",dtype:float32,shape:[16, 1, 3, 3, 512, 32]}
  }
}
layer {
  name:"Node_792"
  type:"let"
  top:"Node_792"
  bottom:"x_97"
  bottom:"Node_791"
  layer_param {
    idx:792
    in_0 {name:"x:0",dtype:float32,shape:[1, 1, 7, 7, 512]}
    in_1 {name:"Node_791:0",dtype:float32,shape:[16, 1, 3, 3, 512, 32]}
    out_0 {name:"Node_792:0",dtype:float32,shape:[1, 1, 7, 7, 512]}
  }
}
layer {
  name:"Node_793"
  type:"let"
  top:"Node_793"
  bottom:"x_96"
  bottom:"Node_792"
  layer_param {
    idx:793
    in_0 {name:"x:0",dtype:float32,shape:[1, 1, 7, 7, 512]}
    in_1 {name:"Node_792:0",dtype:float32,shape:[1, 1, 7, 7, 512]}
    out_0 {name:"Node_793:0",dtype:float32,shape:[1, 1, 7, 7, 512]}
  }
}
layer {
  name:"Node_794"
  type:"let"
  top:"Node_794"
  bottom:"x_95"
  bottom:"Node_793"
  layer_param {
    idx:794
    in_0 {name:"x:0",dtype:float32,shape:[1, 16, 7, 7, 32]}
    in_1 {name:"Node_793:0",dtype:float32,shape:[1, 1, 7, 7, 512]}
    out_0 {name:"Node_794:0",dtype:float32,shape:[1, 16, 7, 7, 32]}
  }
}
layer {
  name:"Node_795"
  type:"let"
  top:"Node_795"
  bottom:"x_94"
  bottom:"Node_794"
  layer_param {
    idx:795
    in_0 {name:"x:0",dtype:float32,shape:[1, 16, 7, 7, 32]}
    in_1 {name:"Node_794:0",dtype:float32,shape:[1, 16, 7, 7, 32]}
    out_0 {name:"Node_795:0",dtype:float32,shape:[1, 16, 7, 7, 32]}
  }
}
layer {
  name:"Node_796"
  type:"let"
  top:"Node_796"
  bottom:"x_93"
  bottom:"Node_795"
  layer_param {
    idx:796
    in_0 {name:"x:0",dtype:float32,shape:[1, 16, 1, 1, 32]}
    in_1 {name:"Node_795:0",dtype:float32,shape:[1, 16, 7, 7, 32]}
    out_0 {name:"Node_796:0",dtype:float32,shape:[1, 16, 1, 1, 32]}
  }
}
layer {
  name:"Node_797"
  type:"let"
  top:"Node_797"
  bottom:"x_92"
  bottom:"Node_796"
  layer_param {
    idx:797
    in_0 {name:"x:0",dtype:float32,shape:[16, 32, 3, 3, 8, 32]}
    in_1 {name:"Node_796:0",dtype:float32,shape:[1, 16, 1, 1, 32]}
    out_0 {name:"Node_797:0",dtype:float32,shape:[16, 32, 3, 3, 8, 32]}
  }
}
layer {
  name:"Node_798"
  type:"let"
  top:"Node_798"
  bottom:"x_91"
  bottom:"Node_797"
  layer_param {
    idx:798
    in_0 {name:"x:0",dtype:float32,shape:[1, 32, 14, 14, 8]}
    in_1 {name:"Node_797:0",dtype:float32,shape:[16, 32, 3, 3, 8, 32]}
    out_0 {name:"Node_798:0",dtype:float32,shape:[1, 32, 14, 14, 8]}
  }
}
layer {
  name:"Node_799"
  type:"let"
  top:"Node_799"
  bottom:"x_90"
  bottom:"Node_798"
  layer_param {
    idx:799
    in_0 {name:"x:0",dtype:float32,shape:[1, 32, 14, 14, 8]}
    in_1 {name:"Node_798:0",dtype:float32,shape:[1, 32, 14, 14, 8]}
    out_0 {name:"Node_799:0",dtype:float32,shape:[1, 32, 14, 14, 8]}
  }
}
layer {
  name:"Node_800"
  type:"let"
  top:"Node_800"
  bottom:"x_89"
  bottom:"Node_799"
  layer_param {
    idx:800
    in_0 {name:"x:0",dtype:float32,shape:[1, 16, 14, 14, 16]}
    in_1 {name:"Node_799:0",dtype:float32,shape:[1, 32, 14, 14, 8]}
    out_0 {name:"Node_800:0",dtype:float32,shape:[1, 16, 14, 14, 16]}
  }
}
layer {
  name:"Node_801"
  type:"let"
  top:"Node_801"
  bottom:"x_88"
  bottom:"Node_800"
  layer_param {
    idx:801
    in_0 {name:"x:0",dtype:float32,shape:[1, 16, 14, 14, 16]}
    in_1 {name:"Node_800:0",dtype:float32,shape:[1, 16, 14, 14, 16]}
    out_0 {name:"Node_801:0",dtype:float32,shape:[1, 16, 14, 14, 16]}
  }
}
layer {
  name:"Node_802"
  type:"let"
  top:"Node_802"
  bottom:"x_87"
  bottom:"Node_801"
  layer_param {
    idx:802
    in_0 {name:"x:0",dtype:float32,shape:[1, 16, 1, 1, 16]}
    in_1 {name:"Node_801:0",dtype:float32,shape:[1, 16, 14, 14, 16]}
    out_0 {name:"Node_802:0",dtype:float32,shape:[1, 16, 1, 1, 16]}
  }
}
layer {
  name:"Node_803"
  type:"let"
  top:"Node_803"
  bottom:"x_86"
  bottom:"Node_802"
  layer_param {
    idx:803
    in_0 {name:"x:0",dtype:float32,shape:[16, 2, 3, 3, 128, 16]}
    in_1 {name:"Node_802:0",dtype:float32,shape:[1, 16, 1, 1, 16]}
    out_0 {name:"Node_803:0",dtype:float32,shape:[16, 2, 3, 3, 128, 16]}
  }
}
layer {
  name:"Node_804"
  type:"let"
  top:"Node_804"
  bottom:"x_85"
  bottom:"Node_803"
  layer_param {
    idx:804
    in_0 {name:"x:0",dtype:float32,shape:[1, 2, 14, 14, 128]}
    in_1 {name:"Node_803:0",dtype:float32,shape:[16, 2, 3, 3, 128, 16]}
    out_0 {name:"Node_804:0",dtype:float32,shape:[1, 2, 14, 14, 128]}
  }
}
layer {
  name:"Node_805"
  type:"let"
  top:"Node_805"
  bottom:"x_84"
  bottom:"Node_804"
  layer_param {
    idx:805
    in_0 {name:"x:0",dtype:float32,shape:[1, 2, 14, 14, 128]}
    in_1 {name:"Node_804:0",dtype:float32,shape:[1, 2, 14, 14, 128]}
    out_0 {name:"Node_805:0",dtype:float32,shape:[1, 2, 14, 14, 128]}
  }
}
layer {
  name:"Node_806"
  type:"let"
  top:"Node_806"
  bottom:"x_83"
  bottom:"Node_805"
  layer_param {
    idx:806
    in_0 {name:"x:0",dtype:float32,shape:[1, 16, 14, 14, 16]}
    in_1 {name:"Node_805:0",dtype:float32,shape:[1, 2, 14, 14, 128]}
    out_0 {name:"Node_806:0",dtype:float32,shape:[1, 16, 14, 14, 16]}
  }
}
layer {
  name:"Node_807"
  type:"let"
  top:"Node_807"
  bottom:"x_82"
  bottom:"Node_806"
  layer_param {
    idx:807
    in_0 {name:"x:0",dtype:float32,shape:[1, 16, 14, 14, 16]}
    in_1 {name:"Node_806:0",dtype:float32,shape:[1, 16, 14, 14, 16]}
    out_0 {name:"Node_807:0",dtype:float32,shape:[1, 16, 14, 14, 16]}
  }
}
layer {
  name:"Node_808"
  type:"let"
  top:"Node_808"
  bottom:"x_81"
  bottom:"Node_807"
  layer_param {
    idx:808
    in_0 {name:"x:0",dtype:float32,shape:[1, 16, 1, 1, 16]}
    in_1 {name:"Node_807:0",dtype:float32,shape:[1, 16, 14, 14, 16]}
    out_0 {name:"Node_808:0",dtype:float32,shape:[1, 16, 1, 1, 16]}
  }
}
layer {
  name:"Node_809"
  type:"let"
  top:"Node_809"
  bottom:"x_80"
  bottom:"Node_808"
  layer_param {
    idx:809
    in_0 {name:"x:0",dtype:float32,shape:[16, 2, 3, 3, 128, 16]}
    in_1 {name:"Node_808:0",dtype:float32,shape:[1, 16, 1, 1, 16]}
    out_0 {name:"Node_809:0",dtype:float32,shape:[16, 2, 3, 3, 128, 16]}
  }
}
layer {
  name:"Node_810"
  type:"let"
  top:"Node_810"
  bottom:"x_79"
  bottom:"Node_809"
  layer_param {
    idx:810
    in_0 {name:"x:0",dtype:float32,shape:[1, 2, 14, 14, 128]}
    in_1 {name:"Node_809:0",dtype:float32,shape:[16, 2, 3, 3, 128, 16]}
    out_0 {name:"Node_810:0",dtype:float32,shape:[1, 2, 14, 14, 128]}
  }
}
layer {
  name:"Node_811"
  type:"let"
  top:"Node_811"
  bottom:"x_78"
  bottom:"Node_810"
  layer_param {
    idx:811
    in_0 {name:"x:0",dtype:float32,shape:[1, 2, 14, 14, 128]}
    in_1 {name:"Node_810:0",dtype:float32,shape:[1, 2, 14, 14, 128]}
    out_0 {name:"Node_811:0",dtype:float32,shape:[1, 2, 14, 14, 128]}
  }
}
layer {
  name:"Node_812"
  type:"let"
  top:"Node_812"
  bottom:"x_77"
  bottom:"Node_811"
  layer_param {
    idx:812
    in_0 {name:"x:0",dtype:float32,shape:[1, 16, 14, 14, 16]}
    in_1 {name:"Node_811:0",dtype:float32,shape:[1, 2, 14, 14, 128]}
    out_0 {name:"Node_812:0",dtype:float32,shape:[1, 16, 14, 14, 16]}
  }
}
layer {
  name:"Node_813"
  type:"let"
  top:"Node_813"
  bottom:"x_76"
  bottom:"Node_812"
  layer_param {
    idx:813
    in_0 {name:"x:0",dtype:float32,shape:[1, 16, 14, 14, 16]}
    in_1 {name:"Node_812:0",dtype:float32,shape:[1, 16, 14, 14, 16]}
    out_0 {name:"Node_813:0",dtype:float32,shape:[1, 16, 14, 14, 16]}
  }
}
layer {
  name:"Node_814"
  type:"let"
  top:"Node_814"
  bottom:"x_75"
  bottom:"Node_813"
  layer_param {
    idx:814
    in_0 {name:"x:0",dtype:float32,shape:[1, 16, 14, 14, 16]}
    in_1 {name:"Node_813:0",dtype:float32,shape:[1, 16, 14, 14, 16]}
    out_0 {name:"Node_814:0",dtype:float32,shape:[1, 16, 14, 14, 16]}
  }
}
layer {
  name:"Node_815"
  type:"let"
  top:"Node_815"
  bottom:"x_74"
  bottom:"Node_814"
  layer_param {
    idx:815
    in_0 {name:"x:0",dtype:float32,shape:[1, 16, 14, 14, 16]}
    in_1 {name:"Node_814:0",dtype:float32,shape:[1, 16, 14, 14, 16]}
    out_0 {name:"Node_815:0",dtype:float32,shape:[1, 16, 14, 14, 16]}
  }
}
layer {
  name:"Node_816"
  type:"let"
  top:"Node_816"
  bottom:"x_73"
  bottom:"Node_815"
  layer_param {
    idx:816
    in_0 {name:"x:0",dtype:float32,shape:[1, 16, 1, 1, 16]}
    in_1 {name:"Node_815:0",dtype:float32,shape:[1, 16, 14, 14, 16]}
    out_0 {name:"Node_816:0",dtype:float32,shape:[1, 16, 1, 1, 16]}
  }
}
layer {
  name:"Node_817"
  type:"let"
  top:"Node_817"
  bottom:"x_72"
  bottom:"Node_816"
  layer_param {
    idx:817
    in_0 {name:"x:0",dtype:float32,shape:[16, 2, 1, 1, 64, 16]}
    in_1 {name:"Node_816:0",dtype:float32,shape:[1, 16, 1, 1, 16]}
    out_0 {name:"Node_817:0",dtype:float32,shape:[16, 2, 1, 1, 64, 16]}
  }
}
layer {
  name:"Node_818"
  type:"let"
  top:"Node_818"
  bottom:"x_71"
  bottom:"Node_817"
  layer_param {
    idx:818
    in_0 {name:"x:0",dtype:float32,shape:[1, 2, 28, 28, 64]}
    in_1 {name:"Node_817:0",dtype:float32,shape:[16, 2, 1, 1, 64, 16]}
    out_0 {name:"Node_818:0",dtype:float32,shape:[1, 2, 28, 28, 64]}
  }
}
layer {
  name:"Node_819"
  type:"let"
  top:"Node_819"
  bottom:"x_70"
  bottom:"Node_818"
  layer_param {
    idx:819
    in_0 {name:"x:0",dtype:float32,shape:[1, 2, 28, 28, 64]}
    in_1 {name:"Node_818:0",dtype:float32,shape:[1, 2, 28, 28, 64]}
    out_0 {name:"Node_819:0",dtype:float32,shape:[1, 2, 28, 28, 64]}
  }
}
layer {
  name:"Node_820"
  type:"let"
  top:"Node_820"
  bottom:"x_69"
  bottom:"Node_819"
  layer_param {
    idx:820
    in_0 {name:"x:0",dtype:float32,shape:[1, 16, 1, 1, 16]}
    in_1 {name:"Node_819:0",dtype:float32,shape:[1, 2, 28, 28, 64]}
    out_0 {name:"Node_820:0",dtype:float32,shape:[1, 16, 1, 1, 16]}
  }
}
layer {
  name:"Node_821"
  type:"let"
  top:"Node_821"
  bottom:"x_68"
  bottom:"Node_820"
  layer_param {
    idx:821
    in_0 {name:"x:0",dtype:float32,shape:[16, 2, 3, 3, 128, 16]}
    in_1 {name:"Node_820:0",dtype:float32,shape:[1, 16, 1, 1, 16]}
    out_0 {name:"Node_821:0",dtype:float32,shape:[16, 2, 3, 3, 128, 16]}
  }
}
layer {
  name:"Node_822"
  type:"let"
  top:"Node_822"
  bottom:"x_67"
  bottom:"Node_821"
  layer_param {
    idx:822
    in_0 {name:"x:0",dtype:float32,shape:[1, 2, 14, 14, 128]}
    in_1 {name:"Node_821:0",dtype:float32,shape:[16, 2, 3, 3, 128, 16]}
    out_0 {name:"Node_822:0",dtype:float32,shape:[1, 2, 14, 14, 128]}
  }
}
layer {
  name:"Node_823"
  type:"let"
  top:"Node_823"
  bottom:"x_66"
  bottom:"Node_822"
  layer_param {
    idx:823
    in_0 {name:"x:0",dtype:float32,shape:[1, 2, 14, 14, 128]}
    in_1 {name:"Node_822:0",dtype:float32,shape:[1, 2, 14, 14, 128]}
    out_0 {name:"Node_823:0",dtype:float32,shape:[1, 2, 14, 14, 128]}
  }
}
layer {
  name:"Node_824"
  type:"let"
  top:"Node_824"
  bottom:"x_65"
  bottom:"Node_823"
  layer_param {
    idx:824
    in_0 {name:"x:0",dtype:float32,shape:[1, 8, 14, 14, 32]}
    in_1 {name:"Node_823:0",dtype:float32,shape:[1, 2, 14, 14, 128]}
    out_0 {name:"Node_824:0",dtype:float32,shape:[1, 8, 14, 14, 32]}
  }
}
layer {
  name:"Node_825"
  type:"let"
  top:"Node_825"
  bottom:"x_64"
  bottom:"Node_824"
  layer_param {
    idx:825
    in_0 {name:"x:0",dtype:float32,shape:[1, 8, 14, 14, 32]}
    in_1 {name:"Node_824:0",dtype:float32,shape:[1, 8, 14, 14, 32]}
    out_0 {name:"Node_825:0",dtype:float32,shape:[1, 8, 14, 14, 32]}
  }
}
layer {
  name:"Node_826"
  type:"let"
  top:"Node_826"
  bottom:"x_63"
  bottom:"Node_825"
  layer_param {
    idx:826
    in_0 {name:"x:0",dtype:float32,shape:[1, 8, 1, 1, 32]}
    in_1 {name:"Node_825:0",dtype:float32,shape:[1, 8, 14, 14, 32]}
    out_0 {name:"Node_826:0",dtype:float32,shape:[1, 8, 1, 1, 32]}
  }
}
layer {
  name:"Node_827"
  type:"let"
  top:"Node_827"
  bottom:"x_62"
  bottom:"Node_826"
  layer_param {
    idx:827
    in_0 {name:"x:0",dtype:float32,shape:[8, 16, 3, 3, 8, 32]}
    in_1 {name:"Node_826:0",dtype:float32,shape:[1, 8, 1, 1, 32]}
    out_0 {name:"Node_827:0",dtype:float32,shape:[8, 16, 3, 3, 8, 32]}
  }
}
layer {
  name:"Node_828"
  type:"let"
  top:"Node_828"
  bottom:"x_61"
  bottom:"Node_827"
  layer_param {
    idx:828
    in_0 {name:"x:0",dtype:float32,shape:[1, 16, 28, 28, 8]}
    in_1 {name:"Node_827:0",dtype:float32,shape:[8, 16, 3, 3, 8, 32]}
    out_0 {name:"Node_828:0",dtype:float32,shape:[1, 16, 28, 28, 8]}
  }
}
layer {
  name:"Node_829"
  type:"let"
  top:"Node_829"
  bottom:"x_60"
  bottom:"Node_828"
  layer_param {
    idx:829
    in_0 {name:"x:0",dtype:float32,shape:[1, 16, 28, 28, 8]}
    in_1 {name:"Node_828:0",dtype:float32,shape:[1, 16, 28, 28, 8]}
    out_0 {name:"Node_829:0",dtype:float32,shape:[1, 16, 28, 28, 8]}
  }
}
layer {
  name:"Node_830"
  type:"let"
  top:"Node_830"
  bottom:"x_59"
  bottom:"Node_829"
  layer_param {
    idx:830
    in_0 {name:"x:0",dtype:float32,shape:[1, 4, 28, 28, 32]}
    in_1 {name:"Node_829:0",dtype:float32,shape:[1, 16, 28, 28, 8]}
    out_0 {name:"Node_830:0",dtype:float32,shape:[1, 4, 28, 28, 32]}
  }
}
layer {
  name:"Node_831"
  type:"let"
  top:"Node_831"
  bottom:"x_58"
  bottom:"Node_830"
  layer_param {
    idx:831
    in_0 {name:"x:0",dtype:float32,shape:[1, 4, 28, 28, 32]}
    in_1 {name:"Node_830:0",dtype:float32,shape:[1, 4, 28, 28, 32]}
    out_0 {name:"Node_831:0",dtype:float32,shape:[1, 4, 28, 28, 32]}
  }
}
layer {
  name:"Node_832"
  type:"let"
  top:"Node_832"
  bottom:"x_57"
  bottom:"Node_831"
  layer_param {
    idx:832
    in_0 {name:"x:0",dtype:float32,shape:[1, 4, 1, 1, 32]}
    in_1 {name:"Node_831:0",dtype:float32,shape:[1, 4, 28, 28, 32]}
    out_0 {name:"Node_832:0",dtype:float32,shape:[1, 4, 1, 1, 32]}
  }
}
layer {
  name:"Node_833"
  type:"let"
  top:"Node_833"
  bottom:"x_56"
  bottom:"Node_832"
  layer_param {
    idx:833
    in_0 {name:"x:0",dtype:float32,shape:[4, 1, 3, 3, 128, 32]}
    in_1 {name:"Node_832:0",dtype:float32,shape:[1, 4, 1, 1, 32]}
    out_0 {name:"Node_833:0",dtype:float32,shape:[4, 1, 3, 3, 128, 32]}
  }
}
layer {
  name:"Node_834"
  type:"let"
  top:"Node_834"
  bottom:"x_55"
  bottom:"Node_833"
  layer_param {
    idx:834
    in_0 {name:"x:0",dtype:float32,shape:[1, 1, 28, 28, 128]}
    in_1 {name:"Node_833:0",dtype:float32,shape:[4, 1, 3, 3, 128, 32]}
    out_0 {name:"Node_834:0",dtype:float32,shape:[1, 1, 28, 28, 128]}
  }
}
layer {
  name:"Node_835"
  type:"let"
  top:"Node_835"
  bottom:"x_54"
  bottom:"Node_834"
  layer_param {
    idx:835
    in_0 {name:"x:0",dtype:float32,shape:[1, 1, 28, 28, 128]}
    in_1 {name:"Node_834:0",dtype:float32,shape:[1, 1, 28, 28, 128]}
    out_0 {name:"Node_835:0",dtype:float32,shape:[1, 1, 28, 28, 128]}
  }
}
layer {
  name:"Node_836"
  type:"let"
  top:"Node_836"
  bottom:"x_53"
  bottom:"Node_835"
  layer_param {
    idx:836
    in_0 {name:"x:0",dtype:float32,shape:[1, 4, 28, 28, 32]}
    in_1 {name:"Node_835:0",dtype:float32,shape:[1, 1, 28, 28, 128]}
    out_0 {name:"Node_836:0",dtype:float32,shape:[1, 4, 28, 28, 32]}
  }
}
layer {
  name:"Node_837"
  type:"let"
  top:"Node_837"
  bottom:"x_52"
  bottom:"Node_836"
  layer_param {
    idx:837
    in_0 {name:"x:0",dtype:float32,shape:[1, 4, 28, 28, 32]}
    in_1 {name:"Node_836:0",dtype:float32,shape:[1, 4, 28, 28, 32]}
    out_0 {name:"Node_837:0",dtype:float32,shape:[1, 4, 28, 28, 32]}
  }
}
layer {
  name:"Node_838"
  type:"let"
  top:"Node_838"
  bottom:"x_51"
  bottom:"Node_837"
  layer_param {
    idx:838
    in_0 {name:"x:0",dtype:float32,shape:[1, 4, 1, 1, 32]}
    in_1 {name:"Node_837:0",dtype:float32,shape:[1, 4, 28, 28, 32]}
    out_0 {name:"Node_838:0",dtype:float32,shape:[1, 4, 1, 1, 32]}
  }
}
layer {
  name:"Node_839"
  type:"let"
  top:"Node_839"
  bottom:"x_50"
  bottom:"Node_838"
  layer_param {
    idx:839
    in_0 {name:"x:0",dtype:float32,shape:[4, 1, 3, 3, 128, 32]}
    in_1 {name:"Node_838:0",dtype:float32,shape:[1, 4, 1, 1, 32]}
    out_0 {name:"Node_839:0",dtype:float32,shape:[4, 1, 3, 3, 128, 32]}
  }
}
layer {
  name:"Node_840"
  type:"let"
  top:"Node_840"
  bottom:"x_49"
  bottom:"Node_839"
  layer_param {
    idx:840
    in_0 {name:"x:0",dtype:float32,shape:[1, 1, 28, 28, 128]}
    in_1 {name:"Node_839:0",dtype:float32,shape:[4, 1, 3, 3, 128, 32]}
    out_0 {name:"Node_840:0",dtype:float32,shape:[1, 1, 28, 28, 128]}
  }
}
layer {
  name:"Node_841"
  type:"let"
  top:"Node_841"
  bottom:"x_48"
  bottom:"Node_840"
  layer_param {
    idx:841
    in_0 {name:"x:0",dtype:float32,shape:[1, 1, 28, 28, 128]}
    in_1 {name:"Node_840:0",dtype:float32,shape:[1, 1, 28, 28, 128]}
    out_0 {name:"Node_841:0",dtype:float32,shape:[1, 1, 28, 28, 128]}
  }
}
layer {
  name:"Node_842"
  type:"let"
  top:"Node_842"
  bottom:"x_47"
  bottom:"Node_841"
  layer_param {
    idx:842
    in_0 {name:"x:0",dtype:float32,shape:[1, 4, 28, 28, 32]}
    in_1 {name:"Node_841:0",dtype:float32,shape:[1, 1, 28, 28, 128]}
    out_0 {name:"Node_842:0",dtype:float32,shape:[1, 4, 28, 28, 32]}
  }
}
layer {
  name:"Node_843"
  type:"let"
  top:"Node_843"
  bottom:"x_46"
  bottom:"Node_842"
  layer_param {
    idx:843
    in_0 {name:"x:0",dtype:float32,shape:[1, 4, 28, 28, 32]}
    in_1 {name:"Node_842:0",dtype:float32,shape:[1, 4, 28, 28, 32]}
    out_0 {name:"Node_843:0",dtype:float32,shape:[1, 4, 28, 28, 32]}
  }
}
layer {
  name:"Node_844"
  type:"let"
  top:"Node_844"
  bottom:"x_45"
  bottom:"Node_843"
  layer_param {
    idx:844
    in_0 {name:"x:0",dtype:float32,shape:[1, 4, 28, 28, 32]}
    in_1 {name:"Node_843:0",dtype:float32,shape:[1, 4, 28, 28, 32]}
    out_0 {name:"Node_844:0",dtype:float32,shape:[1, 4, 28, 28, 32]}
  }
}
layer {
  name:"Node_845"
  type:"let"
  top:"Node_845"
  bottom:"x_44"
  bottom:"Node_844"
  layer_param {
    idx:845
    in_0 {name:"x:0",dtype:float32,shape:[1, 4, 28, 28, 32]}
    in_1 {name:"Node_844:0",dtype:float32,shape:[1, 4, 28, 28, 32]}
    out_0 {name:"Node_845:0",dtype:float32,shape:[1, 4, 28, 28, 32]}
  }
}
layer {
  name:"Node_846"
  type:"let"
  top:"Node_846"
  bottom:"x_43"
  bottom:"Node_845"
  layer_param {
    idx:846
    in_0 {name:"x:0",dtype:float32,shape:[1, 4, 1, 1, 32]}
    in_1 {name:"Node_845:0",dtype:float32,shape:[1, 4, 28, 28, 32]}
    out_0 {name:"Node_846:0",dtype:float32,shape:[1, 4, 1, 1, 32]}
  }
}
layer {
  name:"Node_847"
  type:"let"
  top:"Node_847"
  bottom:"x_42"
  bottom:"Node_846"
  layer_param {
    idx:847
    in_0 {name:"x:0",dtype:float32,shape:[4, 8, 1, 1, 8, 32]}
    in_1 {name:"Node_846:0",dtype:float32,shape:[1, 4, 1, 1, 32]}
    out_0 {name:"Node_847:0",dtype:float32,shape:[4, 8, 1, 1, 8, 32]}
  }
}
layer {
  name:"Node_848"
  type:"let"
  top:"Node_848"
  bottom:"x_41"
  bottom:"Node_847"
  layer_param {
    idx:848
    in_0 {name:"x:0",dtype:float32,shape:[1, 8, 56, 56, 8]}
    in_1 {name:"Node_847:0",dtype:float32,shape:[4, 8, 1, 1, 8, 32]}
    out_0 {name:"Node_848:0",dtype:float32,shape:[1, 8, 56, 56, 8]}
  }
}
layer {
  name:"Node_849"
  type:"let"
  top:"Node_849"
  bottom:"x_40"
  bottom:"Node_848"
  layer_param {
    idx:849
    in_0 {name:"x:0",dtype:float32,shape:[1, 8, 56, 56, 8]}
    in_1 {name:"Node_848:0",dtype:float32,shape:[1, 8, 56, 56, 8]}
    out_0 {name:"Node_849:0",dtype:float32,shape:[1, 8, 56, 56, 8]}
  }
}
layer {
  name:"Node_850"
  type:"let"
  top:"Node_850"
  bottom:"x_39"
  bottom:"Node_849"
  layer_param {
    idx:850
    in_0 {name:"x:0",dtype:float32,shape:[1, 4, 1, 1, 32]}
    in_1 {name:"Node_849:0",dtype:float32,shape:[1, 8, 56, 56, 8]}
    out_0 {name:"Node_850:0",dtype:float32,shape:[1, 4, 1, 1, 32]}
  }
}
layer {
  name:"Node_851"
  type:"let"
  top:"Node_851"
  bottom:"x_38"
  bottom:"Node_850"
  layer_param {
    idx:851
    in_0 {name:"x:0",dtype:float32,shape:[4, 1, 3, 3, 128, 32]}
    in_1 {name:"Node_850:0",dtype:float32,shape:[1, 4, 1, 1, 32]}
    out_0 {name:"Node_851:0",dtype:float32,shape:[4, 1, 3, 3, 128, 32]}
  }
}
layer {
  name:"Node_852"
  type:"let"
  top:"Node_852"
  bottom:"x_37"
  bottom:"Node_851"
  layer_param {
    idx:852
    in_0 {name:"x:0",dtype:float32,shape:[1, 1, 28, 28, 128]}
    in_1 {name:"Node_851:0",dtype:float32,shape:[4, 1, 3, 3, 128, 32]}
    out_0 {name:"Node_852:0",dtype:float32,shape:[1, 1, 28, 28, 128]}
  }
}
layer {
  name:"Node_853"
  type:"let"
  top:"Node_853"
  bottom:"x_36"
  bottom:"Node_852"
  layer_param {
    idx:853
    in_0 {name:"x:0",dtype:float32,shape:[1, 1, 28, 28, 128]}
    in_1 {name:"Node_852:0",dtype:float32,shape:[1, 1, 28, 28, 128]}
    out_0 {name:"Node_853:0",dtype:float32,shape:[1, 1, 28, 28, 128]}
  }
}
layer {
  name:"Node_854"
  type:"let"
  top:"Node_854"
  bottom:"x_35"
  bottom:"Node_853"
  layer_param {
    idx:854
    in_0 {name:"x:0",dtype:float32,shape:[1, 2, 28, 28, 64]}
    in_1 {name:"Node_853:0",dtype:float32,shape:[1, 1, 28, 28, 128]}
    out_0 {name:"Node_854:0",dtype:float32,shape:[1, 2, 28, 28, 64]}
  }
}
layer {
  name:"Node_855"
  type:"let"
  top:"Node_855"
  bottom:"x_34"
  bottom:"Node_854"
  layer_param {
    idx:855
    in_0 {name:"x:0",dtype:float32,shape:[1, 2, 28, 28, 64]}
    in_1 {name:"Node_854:0",dtype:float32,shape:[1, 2, 28, 28, 64]}
    out_0 {name:"Node_855:0",dtype:float32,shape:[1, 2, 28, 28, 64]}
  }
}
layer {
  name:"Node_856"
  type:"let"
  top:"Node_856"
  bottom:"x_33"
  bottom:"Node_855"
  layer_param {
    idx:856
    in_0 {name:"x:0",dtype:float32,shape:[1, 2, 1, 1, 64]}
    in_1 {name:"Node_855:0",dtype:float32,shape:[1, 2, 28, 28, 64]}
    out_0 {name:"Node_856:0",dtype:float32,shape:[1, 2, 1, 1, 64]}
  }
}
layer {
  name:"Node_857"
  type:"let"
  top:"Node_857"
  bottom:"x_32"
  bottom:"Node_856"
  layer_param {
    idx:857
    in_0 {name:"x:0",dtype:float32,shape:[2, 2, 3, 3, 32, 64]}
    in_1 {name:"Node_856:0",dtype:float32,shape:[1, 2, 1, 1, 64]}
    out_0 {name:"Node_857:0",dtype:float32,shape:[2, 2, 3, 3, 32, 64]}
  }
}
layer {
  name:"Node_858"
  type:"let"
  top:"Node_858"
  bottom:"x_31"
  bottom:"Node_857"
  layer_param {
    idx:858
    in_0 {name:"x:0",dtype:float32,shape:[1, 2, 56, 56, 32]}
    in_1 {name:"Node_857:0",dtype:float32,shape:[2, 2, 3, 3, 32, 64]}
    out_0 {name:"Node_858:0",dtype:float32,shape:[1, 2, 56, 56, 32]}
  }
}
layer {
  name:"Node_859"
  type:"let"
  top:"Node_859"
  bottom:"x_30"
  bottom:"Node_858"
  layer_param {
    idx:859
    in_0 {name:"x:0",dtype:float32,shape:[1, 2, 56, 56, 32]}
    in_1 {name:"Node_858:0",dtype:float32,shape:[1, 2, 56, 56, 32]}
    out_0 {name:"Node_859:0",dtype:float32,shape:[1, 2, 56, 56, 32]}
  }
}
layer {
  name:"Node_860"
  type:"let"
  top:"Node_860"
  bottom:"x_29"
  bottom:"Node_859"
  layer_param {
    idx:860
    in_0 {name:"x:0",dtype:float32,shape:[1, 2, 1, 1, 32]}
    in_1 {name:"Node_859:0",dtype:float32,shape:[1, 2, 56, 56, 32]}
    out_0 {name:"Node_860:0",dtype:float32,shape:[1, 2, 1, 1, 32]}
  }
}
layer {
  name:"Node_861"
  type:"let"
  top:"Node_861"
  bottom:"x_28"
  bottom:"Node_860"
  layer_param {
    idx:861
    in_0 {name:"x:0",dtype:float32,shape:[2, 1, 3, 3, 64, 32]}
    in_1 {name:"Node_860:0",dtype:float32,shape:[1, 2, 1, 1, 32]}
    out_0 {name:"Node_861:0",dtype:float32,shape:[2, 1, 3, 3, 64, 32]}
  }
}
layer {
  name:"Node_862"
  type:"let"
  top:"Node_862"
  bottom:"x_27"
  bottom:"Node_861"
  layer_param {
    idx:862
    in_0 {name:"x:0",dtype:float32,shape:[1, 1, 56, 56, 64]}
    in_1 {name:"Node_861:0",dtype:float32,shape:[2, 1, 3, 3, 64, 32]}
    out_0 {name:"Node_862:0",dtype:float32,shape:[1, 1, 56, 56, 64]}
  }
}
layer {
  name:"Node_863"
  type:"let"
  top:"Node_863"
  bottom:"x_26"
  bottom:"Node_862"
  layer_param {
    idx:863
    in_0 {name:"x:0",dtype:float32,shape:[1, 1, 56, 56, 64]}
    in_1 {name:"Node_862:0",dtype:float32,shape:[1, 1, 56, 56, 64]}
    out_0 {name:"Node_863:0",dtype:float32,shape:[1, 1, 56, 56, 64]}
  }
}
layer {
  name:"Node_864"
  type:"let"
  top:"Node_864"
  bottom:"x_25"
  bottom:"Node_863"
  layer_param {
    idx:864
    in_0 {name:"x:0",dtype:float32,shape:[1, 2, 56, 56, 32]}
    in_1 {name:"Node_863:0",dtype:float32,shape:[1, 1, 56, 56, 64]}
    out_0 {name:"Node_864:0",dtype:float32,shape:[1, 2, 56, 56, 32]}
  }
}
layer {
  name:"Node_865"
  type:"let"
  top:"Node_865"
  bottom:"x_24"
  bottom:"Node_864"
  layer_param {
    idx:865
    in_0 {name:"x:0",dtype:float32,shape:[1, 2, 56, 56, 32]}
    in_1 {name:"Node_864:0",dtype:float32,shape:[1, 2, 56, 56, 32]}
    out_0 {name:"Node_865:0",dtype:float32,shape:[1, 2, 56, 56, 32]}
  }
}
layer {
  name:"Node_866"
  type:"let"
  top:"Node_866"
  bottom:"x_23"
  bottom:"Node_865"
  layer_param {
    idx:866
    in_0 {name:"x:0",dtype:float32,shape:[1, 2, 1, 1, 32]}
    in_1 {name:"Node_865:0",dtype:float32,shape:[1, 2, 56, 56, 32]}
    out_0 {name:"Node_866:0",dtype:float32,shape:[1, 2, 1, 1, 32]}
  }
}
layer {
  name:"Node_867"
  type:"let"
  top:"Node_867"
  bottom:"x_22"
  bottom:"Node_866"
  layer_param {
    idx:867
    in_0 {name:"x:0",dtype:float32,shape:[2, 1, 3, 3, 64, 32]}
    in_1 {name:"Node_866:0",dtype:float32,shape:[1, 2, 1, 1, 32]}
    out_0 {name:"Node_867:0",dtype:float32,shape:[2, 1, 3, 3, 64, 32]}
  }
}
layer {
  name:"Node_868"
  type:"let"
  top:"Node_868"
  bottom:"x_21"
  bottom:"Node_867"
  layer_param {
    idx:868
    in_0 {name:"x:0",dtype:float32,shape:[1, 1, 56, 56, 64]}
    in_1 {name:"Node_867:0",dtype:float32,shape:[2, 1, 3, 3, 64, 32]}
    out_0 {name:"Node_868:0",dtype:float32,shape:[1, 1, 56, 56, 64]}
  }
}
layer {
  name:"Node_869"
  type:"let"
  top:"Node_869"
  bottom:"x_20"
  bottom:"Node_868"
  layer_param {
    idx:869
    in_0 {name:"x:0",dtype:float32,shape:[1, 1, 56, 56, 64]}
    in_1 {name:"Node_868:0",dtype:float32,shape:[1, 1, 56, 56, 64]}
    out_0 {name:"Node_869:0",dtype:float32,shape:[1, 1, 56, 56, 64]}
  }
}
layer {
  name:"Node_870"
  type:"let"
  top:"Node_870"
  bottom:"x_19"
  bottom:"Node_869"
  layer_param {
    idx:870
    in_0 {name:"x:0",dtype:float32,shape:[1, 2, 56, 56, 32]}
    in_1 {name:"Node_869:0",dtype:float32,shape:[1, 1, 56, 56, 64]}
    out_0 {name:"Node_870:0",dtype:float32,shape:[1, 2, 56, 56, 32]}
  }
}
layer {
  name:"Node_871"
  type:"let"
  top:"Node_871"
  bottom:"x_18"
  bottom:"Node_870"
  layer_param {
    idx:871
    in_0 {name:"x:0",dtype:float32,shape:[1, 2, 56, 56, 32]}
    in_1 {name:"Node_870:0",dtype:float32,shape:[1, 2, 56, 56, 32]}
    out_0 {name:"Node_871:0",dtype:float32,shape:[1, 2, 56, 56, 32]}
  }
}
layer {
  name:"Node_872"
  type:"let"
  top:"Node_872"
  bottom:"x_17"
  bottom:"Node_871"
  layer_param {
    idx:872
    in_0 {name:"x:0",dtype:float32,shape:[1, 2, 1, 1, 32]}
    in_1 {name:"Node_871:0",dtype:float32,shape:[1, 2, 56, 56, 32]}
    out_0 {name:"Node_872:0",dtype:float32,shape:[1, 2, 1, 1, 32]}
  }
}
layer {
  name:"Node_873"
  type:"let"
  top:"Node_873"
  bottom:"x_16"
  bottom:"Node_872"
  layer_param {
    idx:873
    in_0 {name:"x:0",dtype:float32,shape:[2, 1, 3, 3, 64, 32]}
    in_1 {name:"Node_872:0",dtype:float32,shape:[1, 2, 1, 1, 32]}
    out_0 {name:"Node_873:0",dtype:float32,shape:[2, 1, 3, 3, 64, 32]}
  }
}
layer {
  name:"Node_874"
  type:"let"
  top:"Node_874"
  bottom:"x_15"
  bottom:"Node_873"
  layer_param {
    idx:874
    in_0 {name:"x:0",dtype:float32,shape:[1, 1, 56, 56, 64]}
    in_1 {name:"Node_873:0",dtype:float32,shape:[2, 1, 3, 3, 64, 32]}
    out_0 {name:"Node_874:0",dtype:float32,shape:[1, 1, 56, 56, 64]}
  }
}
layer {
  name:"Node_875"
  type:"let"
  top:"Node_875"
  bottom:"x_14"
  bottom:"Node_874"
  layer_param {
    idx:875
    in_0 {name:"x:0",dtype:float32,shape:[1, 1, 56, 56, 64]}
    in_1 {name:"Node_874:0",dtype:float32,shape:[1, 1, 56, 56, 64]}
    out_0 {name:"Node_875:0",dtype:float32,shape:[1, 1, 56, 56, 64]}
  }
}
layer {
  name:"Node_876"
  type:"let"
  top:"Node_876"
  bottom:"x_13"
  bottom:"Node_875"
  layer_param {
    idx:876
    in_0 {name:"x:0",dtype:float32,shape:[1, 2, 56, 56, 32]}
    in_1 {name:"Node_875:0",dtype:float32,shape:[1, 1, 56, 56, 64]}
    out_0 {name:"Node_876:0",dtype:float32,shape:[1, 2, 56, 56, 32]}
  }
}
layer {
  name:"Node_877"
  type:"let"
  top:"Node_877"
  bottom:"x_12"
  bottom:"Node_876"
  layer_param {
    idx:877
    in_0 {name:"x:0",dtype:float32,shape:[1, 2, 56, 56, 32]}
    in_1 {name:"Node_876:0",dtype:float32,shape:[1, 2, 56, 56, 32]}
    out_0 {name:"Node_877:0",dtype:float32,shape:[1, 2, 56, 56, 32]}
  }
}
layer {
  name:"Node_878"
  type:"let"
  top:"Node_878"
  bottom:"x_11"
  bottom:"Node_877"
  layer_param {
    idx:878
    in_0 {name:"x:0",dtype:float32,shape:[1, 2, 1, 1, 32]}
    in_1 {name:"Node_877:0",dtype:float32,shape:[1, 2, 56, 56, 32]}
    out_0 {name:"Node_878:0",dtype:float32,shape:[1, 2, 1, 1, 32]}
  }
}
layer {
  name:"Node_879"
  type:"let"
  top:"Node_879"
  bottom:"x_10"
  bottom:"Node_878"
  layer_param {
    idx:879
    in_0 {name:"x:0",dtype:float32,shape:[2, 1, 3, 3, 64, 32]}
    in_1 {name:"Node_878:0",dtype:float32,shape:[1, 2, 1, 1, 32]}
    out_0 {name:"Node_879:0",dtype:float32,shape:[2, 1, 3, 3, 64, 32]}
  }
}
layer {
  name:"Node_880"
  type:"let"
  top:"Node_880"
  bottom:"x_9"
  bottom:"Node_879"
  layer_param {
    idx:880
    in_0 {name:"x:0",dtype:float32,shape:[1, 1, 56, 56, 64]}
    in_1 {name:"Node_879:0",dtype:float32,shape:[2, 1, 3, 3, 64, 32]}
    out_0 {name:"Node_880:0",dtype:float32,shape:[1, 1, 56, 56, 64]}
  }
}
layer {
  name:"Node_881"
  type:"let"
  top:"Node_881"
  bottom:"x_8"
  bottom:"Node_880"
  layer_param {
    idx:881
    in_0 {name:"x:0",dtype:float32,shape:[1, 1, 56, 56, 64]}
    in_1 {name:"Node_880:0",dtype:float32,shape:[1, 1, 56, 56, 64]}
    out_0 {name:"Node_881:0",dtype:float32,shape:[1, 1, 56, 56, 64]}
  }
}
layer {
  name:"Node_882"
  type:"let"
  top:"Node_882"
  bottom:"x_7"
  bottom:"Node_881"
  layer_param {
    idx:882
    in_0 {name:"x:0",dtype:float32,shape:[1, 2, 56, 56, 32]}
    in_1 {name:"Node_881:0",dtype:float32,shape:[1, 1, 56, 56, 64]}
    out_0 {name:"Node_882:0",dtype:float32,shape:[1, 2, 56, 56, 32]}
  }
}
layer {
  name:"Node_883"
  type:"let"
  top:"Node_883"
  bottom:"x_6"
  bottom:"Node_882"
  layer_param {
    idx:883
    in_0 {name:"x:0",dtype:float32,shape:[1, 2, 56, 56, 32]}
    in_1 {name:"Node_882:0",dtype:float32,shape:[1, 2, 56, 56, 32]}
    out_0 {name:"Node_883:0",dtype:float32,shape:[1, 2, 56, 56, 32]}
  }
}
layer {
  name:"Node_884"
  type:"let"
  top:"Node_884"
  bottom:"x_5"
  bottom:"Node_883"
  layer_param {
    idx:884
    in_0 {name:"x:0",dtype:float32,shape:[1, 2, 112, 112, 32]}
    in_1 {name:"Node_883:0",dtype:float32,shape:[1, 2, 56, 56, 32]}
    out_0 {name:"Node_884:0",dtype:float32,shape:[1, 2, 112, 112, 32]}
  }
}
layer {
  name:"Node_885"
  type:"let"
  top:"Node_885"
  bottom:"x_4"
  bottom:"Node_884"
  layer_param {
    idx:885
    in_0 {name:"x:0",dtype:float32,shape:[1, 2, 112, 112, 32]}
    in_1 {name:"Node_884:0",dtype:float32,shape:[1, 2, 112, 112, 32]}
    out_0 {name:"Node_885:0",dtype:float32,shape:[1, 2, 112, 112, 32]}
  }
}
layer {
  name:"Node_886"
  type:"let"
  top:"Node_886"
  bottom:"x_3"
  bottom:"Node_885"
  layer_param {
    idx:886
    in_0 {name:"x:0",dtype:float32,shape:[1, 2, 1, 1, 32]}
    in_1 {name:"Node_885:0",dtype:float32,shape:[1, 2, 112, 112, 32]}
    out_0 {name:"Node_886:0",dtype:float32,shape:[1, 2, 1, 1, 32]}
  }
}
layer {
  name:"Node_887"
  type:"let"
  top:"Node_887"
  bottom:"x_2"
  bottom:"Node_886"
  layer_param {
    idx:887
    in_0 {name:"x:0",dtype:float32,shape:[2, 1, 7, 7, 3, 32]}
    in_1 {name:"Node_886:0",dtype:float32,shape:[1, 2, 1, 1, 32]}
    out_0 {name:"Node_887:0",dtype:float32,shape:[2, 1, 7, 7, 3, 32]}
  }
}
layer {
  name:"Node_888"
  type:"let"
  top:"Node_888"
  bottom:"x_1"
  bottom:"Node_887"
  layer_param {
    idx:888
    in_0 {name:"x:0",dtype:float32,shape:[1, 1, 224, 224, 3]}
    in_1 {name:"Node_887:0",dtype:float32,shape:[2, 1, 7, 7, 3, 32]}
    out_0 {name:"Node_888:0",dtype:float32,shape:[1, 1, 224, 224, 3]}
  }
}
layer {
  name:"Node_889"
  type:"let"
  top:"Node_889"
  bottom:"x"
  bottom:"Node_888"
  layer_param {
    idx:889
    in_0 {name:"x:0",dtype:float32,shape:[1, 1, 224, 224, 3]}
    in_1 {name:"Node_888:0",dtype:float32,shape:[1, 1, 224, 224, 3]}
    out_0 {name:"Node_889:0",dtype:float32,shape:[1, 1, 224, 224, 3]}
  }
}
layer {
  name:"Node_890"
  type:"function"
  top:"Node_890"
  bottom:"input0"
  bottom:"Node_889"
  layer_param {
    idx:890
    in_0 {name:"input0:0",dtype:float32,shape:[1, 3, 224, 224]}
    in_1 {name:"Node_889:0",dtype:float32,shape:[1, 1, 224, 224, 3]}
    out_0 {name:"Node_890:0",dtype:float32,shape:[1, 1000]}
  }
}
