name : "relay_ir"
layer {
  name:"DecodeJpeg/contents"
  type:"input"
  top:"DecodeJpeg/contents"
  layer_param {
    idx:0
    out_0 {name:"DecodeJpeg/contents:0",dtype:uint8,shape:[299, 299, 3]}
  }
}
layer {
  name:"Node_78"
  type:"cast"
  top:"Node_78"
  bottom:"DecodeJpeg/contents"
  layer_param {
    idx:78
    in_0 {name:"DecodeJpeg/contents:0",dtype:uint8,shape:[299, 299, 3]}
    out_0 {name:"Node_78:0",dtype:float32,shape:[299, 299, 3]}
    attrs {'dtype': 'float32'}
  }
}
layer {
  name:"Node_79"
  type:"expand_dims"
  top:"Node_79"
  bottom:"Node_78"
  layer_param {
    idx:79
    in_0 {name:"Node_78:0",dtype:float32,shape:[299, 299, 3]}
    out_0 {name:"Node_79:0",dtype:float32,shape:[1, 299, 299, 3]}
    attrs {'axis': 0, 'num_newaxis': 1}
  }
}
layer {
  name:"Node_80"
  type:"image_resize"
  top:"Node_80"
  bottom:"Node_79"
  layer_param {
    idx:80
    in_0 {name:"Node_79:0",dtype:float32,shape:[1, 299, 299, 3]}
    out_0 {name:"Node_80:0",dtype:float32,shape:[1, 299, 299, 3]}
    attrs {'size': [299, 299], 'layout': 'NHWC', 'method': 'bilinear', 'coordinate_transformation_mode': 'asymmetric', 'rounding_method': '', 'bicubic_alpha': -0.5, 'bicubic_exclude': 0, 'out_dtype': ''}
  }
}
layer {
  name:"Node_81"
  type:"const"
  top:"Node_81"
  layer_param {
    idx:81
    out_0 {name:"Node_81:0",dtype:float32,shape:[]}
  }
}
layer {
  name:"Node_82"
  type:"subtract"
  top:"Node_82"
  bottom:"Node_80"
  bottom:"Node_81"
  layer_param {
    idx:82
    in_0 {name:"Node_80:0",dtype:float32,shape:[1, 299, 299, 3]}
    in_1 {name:"Node_81:0",dtype:float32,shape:[]}
    out_0 {name:"Node_82:0",dtype:float32,shape:[1, 299, 299, 3]}
  }
}
layer {
  name:"Node_83"
  type:"const"
  top:"Node_83"
  layer_param {
    idx:83
    out_0 {name:"Node_83:0",dtype:float32,shape:[]}
  }
}
layer {
  name:"Node_84"
  type:"multiply"
  top:"Node_84"
  bottom:"Node_82"
  bottom:"Node_83"
  layer_param {
    idx:84
    in_0 {name:"Node_82:0",dtype:float32,shape:[1, 299, 299, 3]}
    in_1 {name:"Node_83:0",dtype:float32,shape:[]}
    out_0 {name:"Node_84:0",dtype:float32,shape:[1, 299, 299, 3]}
  }
}
layer {
  name:"Node_85"
  type:"layout_transform"
  top:"Node_85"
  bottom:"Node_84"
  layer_param {
    idx:85
    in_0 {name:"Node_84:0",dtype:float32,shape:[1, 299, 299, 3]}
    out_0 {name:"Node_85:0",dtype:float32,shape:[1, 3, 299, 299]}
    attrs {'src_layout': 'NHWC', 'dst_layout': 'NCHW'}
  }
}
layer {
  name:"Node_87"
  type:"const"
  top:"Node_87"
  layer_param {
    idx:87
    out_0 {name:"Node_87:0",dtype:float32,shape:[3, 3, 3, 32]}
  }
}
layer {
  name:"Node_88"
  type:"layout_transform"
  top:"Node_88"
  bottom:"Node_87"
  layer_param {
    idx:88
    in_0 {name:"Node_87:0",dtype:float32,shape:[3, 3, 3, 32]}
    out_0 {name:"Node_88:0",dtype:float32,shape:[32, 3, 3, 3]}
    attrs {'src_layout': 'HWIO', 'dst_layout': 'OIHW'}
  }
}
layer {
  name:"Node_89"
  type:"nn_conv2d"
  top:"Node_89"
  bottom:"Node_85"
  bottom:"Node_88"
  layer_param {
    idx:89
    in_0 {name:"Node_85:0",dtype:float32,shape:[1, 3, 299, 299]}
    in_1 {name:"Node_88:0",dtype:float32,shape:[32, 3, 3, 3]}
    out_0 {name:"Node_89:0",dtype:float32,shape:[1, 32, 149, 149]}
    attrs {'strides': [2, 2], 'padding': [0, 0, 0, 0], 'dilation': [1, 1], 'groups': 1, 'channels': 32, 'kernel_size': [3, 3], 'data_layout': 'NCHW', 'kernel_layout': 'OIHW', 'out_layout': '', 'out_dtype': ''}
  }
}
layer {
  name:"Node_90"
  type:"const"
  top:"Node_90"
  layer_param {
    idx:90
    out_0 {name:"Node_90:0",dtype:float32,shape:[32]}
  }
}
layer {
  name:"Node_91"
  type:"const"
  top:"Node_91"
  layer_param {
    idx:91
    out_0 {name:"Node_91:0",dtype:float32,shape:[32]}
  }
}
layer {
  name:"Node_92"
  type:"const"
  top:"Node_92"
  layer_param {
    idx:92
    out_0 {name:"Node_92:0",dtype:float32,shape:[32]}
  }
}
layer {
  name:"Node_93"
  type:"const"
  top:"Node_93"
  layer_param {
    idx:93
    out_0 {name:"Node_93:0",dtype:float32,shape:[32]}
  }
}
layer {
  name:"Node_94"
  type:"nn_batch_norm"
  top:"Node_94"
  bottom:"Node_89"
  bottom:"Node_90"
  bottom:"Node_91"
  bottom:"Node_92"
  bottom:"Node_93"
  layer_param {
    idx:94
    in_0 {name:"Node_89:0",dtype:float32,shape:[1, 32, 149, 149]}
    in_1 {name:"Node_90:0",dtype:float32,shape:[32]}
    in_2 {name:"Node_91:0",dtype:float32,shape:[32]}
    in_3 {name:"Node_92:0",dtype:float32,shape:[32]}
    in_4 {name:"Node_93:0",dtype:float32,shape:[32]}
    out_0 {name:"Node_94:0",dtype:float32,shape:[1, 32, 149, 149]}
    out_1 {name:"Node_94:1",dtype:float32,shape:[32]}
    out_2 {name:"Node_94:2",dtype:float32,shape:[32]}
    attrs {'axis': 1, 'epsilon': 0.0010000000474974513, 'center': 1, 'scale': 0}
  }
}
layer {
  name:"Node_96"
  type:"nn_relu"
  top:"Node_96"
  bottom:"Node_94"
  layer_param {
    idx:96
    in_0 {name:"Node_94:0",dtype:float32,shape:[1, 32, 149, 149]}
    out_0 {name:"Node_96:0",dtype:float32,shape:[1, 32, 149, 149]}
  }
}
layer {
  name:"Node_98"
  type:"const"
  top:"Node_98"
  layer_param {
    idx:98
    out_0 {name:"Node_98:0",dtype:float32,shape:[3, 3, 32, 32]}
  }
}
layer {
  name:"Node_99"
  type:"layout_transform"
  top:"Node_99"
  bottom:"Node_98"
  layer_param {
    idx:99
    in_0 {name:"Node_98:0",dtype:float32,shape:[3, 3, 32, 32]}
    out_0 {name:"Node_99:0",dtype:float32,shape:[32, 32, 3, 3]}
    attrs {'src_layout': 'HWIO', 'dst_layout': 'OIHW'}
  }
}
layer {
  name:"Node_100"
  type:"nn_conv2d"
  top:"Node_100"
  bottom:"Node_96"
  bottom:"Node_99"
  layer_param {
    idx:100
    in_0 {name:"Node_96:0",dtype:float32,shape:[1, 32, 149, 149]}
    in_1 {name:"Node_99:0",dtype:float32,shape:[32, 32, 3, 3]}
    out_0 {name:"Node_100:0",dtype:float32,shape:[1, 32, 147, 147]}
    attrs {'strides': [1, 1], 'padding': [0, 0, 0, 0], 'dilation': [1, 1], 'groups': 1, 'channels': 32, 'kernel_size': [3, 3], 'data_layout': 'NCHW', 'kernel_layout': 'OIHW', 'out_layout': '', 'out_dtype': ''}
  }
}
layer {
  name:"Node_101"
  type:"const"
  top:"Node_101"
  layer_param {
    idx:101
    out_0 {name:"Node_101:0",dtype:float32,shape:[32]}
  }
}
layer {
  name:"Node_102"
  type:"const"
  top:"Node_102"
  layer_param {
    idx:102
    out_0 {name:"Node_102:0",dtype:float32,shape:[32]}
  }
}
layer {
  name:"Node_103"
  type:"const"
  top:"Node_103"
  layer_param {
    idx:103
    out_0 {name:"Node_103:0",dtype:float32,shape:[32]}
  }
}
layer {
  name:"Node_104"
  type:"const"
  top:"Node_104"
  layer_param {
    idx:104
    out_0 {name:"Node_104:0",dtype:float32,shape:[32]}
  }
}
layer {
  name:"Node_105"
  type:"nn_batch_norm"
  top:"Node_105"
  bottom:"Node_100"
  bottom:"Node_101"
  bottom:"Node_102"
  bottom:"Node_103"
  bottom:"Node_104"
  layer_param {
    idx:105
    in_0 {name:"Node_100:0",dtype:float32,shape:[1, 32, 147, 147]}
    in_1 {name:"Node_101:0",dtype:float32,shape:[32]}
    in_2 {name:"Node_102:0",dtype:float32,shape:[32]}
    in_3 {name:"Node_103:0",dtype:float32,shape:[32]}
    in_4 {name:"Node_104:0",dtype:float32,shape:[32]}
    out_0 {name:"Node_105:0",dtype:float32,shape:[1, 32, 147, 147]}
    out_1 {name:"Node_105:1",dtype:float32,shape:[32]}
    out_2 {name:"Node_105:2",dtype:float32,shape:[32]}
    attrs {'axis': 1, 'epsilon': 0.0010000000474974513, 'center': 1, 'scale': 0}
  }
}
layer {
  name:"Node_107"
  type:"nn_relu"
  top:"Node_107"
  bottom:"Node_105"
  layer_param {
    idx:107
    in_0 {name:"Node_105:0",dtype:float32,shape:[1, 32, 147, 147]}
    out_0 {name:"Node_107:0",dtype:float32,shape:[1, 32, 147, 147]}
  }
}
layer {
  name:"Node_109"
  type:"const"
  top:"Node_109"
  layer_param {
    idx:109
    out_0 {name:"Node_109:0",dtype:float32,shape:[3, 3, 32, 64]}
  }
}
layer {
  name:"Node_110"
  type:"layout_transform"
  top:"Node_110"
  bottom:"Node_109"
  layer_param {
    idx:110
    in_0 {name:"Node_109:0",dtype:float32,shape:[3, 3, 32, 64]}
    out_0 {name:"Node_110:0",dtype:float32,shape:[64, 32, 3, 3]}
    attrs {'src_layout': 'HWIO', 'dst_layout': 'OIHW'}
  }
}
layer {
  name:"Node_111"
  type:"nn_conv2d"
  top:"Node_111"
  bottom:"Node_107"
  bottom:"Node_110"
  layer_param {
    idx:111
    in_0 {name:"Node_107:0",dtype:float32,shape:[1, 32, 147, 147]}
    in_1 {name:"Node_110:0",dtype:float32,shape:[64, 32, 3, 3]}
    out_0 {name:"Node_111:0",dtype:float32,shape:[1, 64, 147, 147]}
    attrs {'strides': [1, 1], 'padding': [1, 1, 1, 1], 'dilation': [1, 1], 'groups': 1, 'channels': 64, 'kernel_size': [3, 3], 'data_layout': 'NCHW', 'kernel_layout': 'OIHW', 'out_layout': '', 'out_dtype': ''}
  }
}
layer {
  name:"Node_112"
  type:"const"
  top:"Node_112"
  layer_param {
    idx:112
    out_0 {name:"Node_112:0",dtype:float32,shape:[64]}
  }
}
layer {
  name:"Node_113"
  type:"const"
  top:"Node_113"
  layer_param {
    idx:113
    out_0 {name:"Node_113:0",dtype:float32,shape:[64]}
  }
}
layer {
  name:"Node_114"
  type:"const"
  top:"Node_114"
  layer_param {
    idx:114
    out_0 {name:"Node_114:0",dtype:float32,shape:[64]}
  }
}
layer {
  name:"Node_115"
  type:"const"
  top:"Node_115"
  layer_param {
    idx:115
    out_0 {name:"Node_115:0",dtype:float32,shape:[64]}
  }
}
layer {
  name:"Node_116"
  type:"nn_batch_norm"
  top:"Node_116"
  bottom:"Node_111"
  bottom:"Node_112"
  bottom:"Node_113"
  bottom:"Node_114"
  bottom:"Node_115"
  layer_param {
    idx:116
    in_0 {name:"Node_111:0",dtype:float32,shape:[1, 64, 147, 147]}
    in_1 {name:"Node_112:0",dtype:float32,shape:[64]}
    in_2 {name:"Node_113:0",dtype:float32,shape:[64]}
    in_3 {name:"Node_114:0",dtype:float32,shape:[64]}
    in_4 {name:"Node_115:0",dtype:float32,shape:[64]}
    out_0 {name:"Node_116:0",dtype:float32,shape:[1, 64, 147, 147]}
    out_1 {name:"Node_116:1",dtype:float32,shape:[64]}
    out_2 {name:"Node_116:2",dtype:float32,shape:[64]}
    attrs {'axis': 1, 'epsilon': 0.0010000000474974513, 'center': 1, 'scale': 0}
  }
}
layer {
  name:"Node_118"
  type:"nn_relu"
  top:"Node_118"
  bottom:"Node_116"
  layer_param {
    idx:118
    in_0 {name:"Node_116:0",dtype:float32,shape:[1, 64, 147, 147]}
    out_0 {name:"Node_118:0",dtype:float32,shape:[1, 64, 147, 147]}
  }
}
layer {
  name:"Node_119"
  type:"nn_max_pool2d"
  top:"Node_119"
  bottom:"Node_118"
  layer_param {
    idx:119
    in_0 {name:"Node_118:0",dtype:float32,shape:[1, 64, 147, 147]}
    out_0 {name:"Node_119:0",dtype:float32,shape:[1, 64, 73, 73]}
    attrs {'pool_size': [3, 3], 'strides': [2, 2], 'dilation': [1, 1], 'padding': [0, 0, 0, 0], 'layout': 'NCHW', 'ceil_mode': 0}
  }
}
layer {
  name:"Node_121"
  type:"const"
  top:"Node_121"
  layer_param {
    idx:121
    out_0 {name:"Node_121:0",dtype:float32,shape:[1, 1, 64, 80]}
  }
}
layer {
  name:"Node_122"
  type:"layout_transform"
  top:"Node_122"
  bottom:"Node_121"
  layer_param {
    idx:122
    in_0 {name:"Node_121:0",dtype:float32,shape:[1, 1, 64, 80]}
    out_0 {name:"Node_122:0",dtype:float32,shape:[80, 64, 1, 1]}
    attrs {'src_layout': 'HWIO', 'dst_layout': 'OIHW'}
  }
}
layer {
  name:"Node_123"
  type:"nn_conv2d"
  top:"Node_123"
  bottom:"Node_119"
  bottom:"Node_122"
  layer_param {
    idx:123
    in_0 {name:"Node_119:0",dtype:float32,shape:[1, 64, 73, 73]}
    in_1 {name:"Node_122:0",dtype:float32,shape:[80, 64, 1, 1]}
    out_0 {name:"Node_123:0",dtype:float32,shape:[1, 80, 73, 73]}
    attrs {'strides': [1, 1], 'padding': [0, 0, 0, 0], 'dilation': [1, 1], 'groups': 1, 'channels': 80, 'kernel_size': [1, 1], 'data_layout': 'NCHW', 'kernel_layout': 'OIHW', 'out_layout': '', 'out_dtype': ''}
  }
}
layer {
  name:"Node_124"
  type:"const"
  top:"Node_124"
  layer_param {
    idx:124
    out_0 {name:"Node_124:0",dtype:float32,shape:[80]}
  }
}
layer {
  name:"Node_125"
  type:"const"
  top:"Node_125"
  layer_param {
    idx:125
    out_0 {name:"Node_125:0",dtype:float32,shape:[80]}
  }
}
layer {
  name:"Node_126"
  type:"const"
  top:"Node_126"
  layer_param {
    idx:126
    out_0 {name:"Node_126:0",dtype:float32,shape:[80]}
  }
}
layer {
  name:"Node_127"
  type:"const"
  top:"Node_127"
  layer_param {
    idx:127
    out_0 {name:"Node_127:0",dtype:float32,shape:[80]}
  }
}
layer {
  name:"Node_128"
  type:"nn_batch_norm"
  top:"Node_128"
  bottom:"Node_123"
  bottom:"Node_124"
  bottom:"Node_125"
  bottom:"Node_126"
  bottom:"Node_127"
  layer_param {
    idx:128
    in_0 {name:"Node_123:0",dtype:float32,shape:[1, 80, 73, 73]}
    in_1 {name:"Node_124:0",dtype:float32,shape:[80]}
    in_2 {name:"Node_125:0",dtype:float32,shape:[80]}
    in_3 {name:"Node_126:0",dtype:float32,shape:[80]}
    in_4 {name:"Node_127:0",dtype:float32,shape:[80]}
    out_0 {name:"Node_128:0",dtype:float32,shape:[1, 80, 73, 73]}
    out_1 {name:"Node_128:1",dtype:float32,shape:[80]}
    out_2 {name:"Node_128:2",dtype:float32,shape:[80]}
    attrs {'axis': 1, 'epsilon': 0.0010000000474974513, 'center': 1, 'scale': 0}
  }
}
layer {
  name:"Node_130"
  type:"nn_relu"
  top:"Node_130"
  bottom:"Node_128"
  layer_param {
    idx:130
    in_0 {name:"Node_128:0",dtype:float32,shape:[1, 80, 73, 73]}
    out_0 {name:"Node_130:0",dtype:float32,shape:[1, 80, 73, 73]}
  }
}
layer {
  name:"Node_132"
  type:"const"
  top:"Node_132"
  layer_param {
    idx:132
    out_0 {name:"Node_132:0",dtype:float32,shape:[3, 3, 80, 192]}
  }
}
layer {
  name:"Node_133"
  type:"layout_transform"
  top:"Node_133"
  bottom:"Node_132"
  layer_param {
    idx:133
    in_0 {name:"Node_132:0",dtype:float32,shape:[3, 3, 80, 192]}
    out_0 {name:"Node_133:0",dtype:float32,shape:[192, 80, 3, 3]}
    attrs {'src_layout': 'HWIO', 'dst_layout': 'OIHW'}
  }
}
layer {
  name:"Node_134"
  type:"nn_conv2d"
  top:"Node_134"
  bottom:"Node_130"
  bottom:"Node_133"
  layer_param {
    idx:134
    in_0 {name:"Node_130:0",dtype:float32,shape:[1, 80, 73, 73]}
    in_1 {name:"Node_133:0",dtype:float32,shape:[192, 80, 3, 3]}
    out_0 {name:"Node_134:0",dtype:float32,shape:[1, 192, 71, 71]}
    attrs {'strides': [1, 1], 'padding': [0, 0, 0, 0], 'dilation': [1, 1], 'groups': 1, 'channels': 192, 'kernel_size': [3, 3], 'data_layout': 'NCHW', 'kernel_layout': 'OIHW', 'out_layout': '', 'out_dtype': ''}
  }
}
layer {
  name:"Node_135"
  type:"const"
  top:"Node_135"
  layer_param {
    idx:135
    out_0 {name:"Node_135:0",dtype:float32,shape:[192]}
  }
}
layer {
  name:"Node_136"
  type:"const"
  top:"Node_136"
  layer_param {
    idx:136
    out_0 {name:"Node_136:0",dtype:float32,shape:[192]}
  }
}
layer {
  name:"Node_137"
  type:"const"
  top:"Node_137"
  layer_param {
    idx:137
    out_0 {name:"Node_137:0",dtype:float32,shape:[192]}
  }
}
layer {
  name:"Node_138"
  type:"const"
  top:"Node_138"
  layer_param {
    idx:138
    out_0 {name:"Node_138:0",dtype:float32,shape:[192]}
  }
}
layer {
  name:"Node_139"
  type:"nn_batch_norm"
  top:"Node_139"
  bottom:"Node_134"
  bottom:"Node_135"
  bottom:"Node_136"
  bottom:"Node_137"
  bottom:"Node_138"
  layer_param {
    idx:139
    in_0 {name:"Node_134:0",dtype:float32,shape:[1, 192, 71, 71]}
    in_1 {name:"Node_135:0",dtype:float32,shape:[192]}
    in_2 {name:"Node_136:0",dtype:float32,shape:[192]}
    in_3 {name:"Node_137:0",dtype:float32,shape:[192]}
    in_4 {name:"Node_138:0",dtype:float32,shape:[192]}
    out_0 {name:"Node_139:0",dtype:float32,shape:[1, 192, 71, 71]}
    out_1 {name:"Node_139:1",dtype:float32,shape:[192]}
    out_2 {name:"Node_139:2",dtype:float32,shape:[192]}
    attrs {'axis': 1, 'epsilon': 0.0010000000474974513, 'center': 1, 'scale': 0}
  }
}
layer {
  name:"Node_141"
  type:"nn_relu"
  top:"Node_141"
  bottom:"Node_139"
  layer_param {
    idx:141
    in_0 {name:"Node_139:0",dtype:float32,shape:[1, 192, 71, 71]}
    out_0 {name:"Node_141:0",dtype:float32,shape:[1, 192, 71, 71]}
  }
}
layer {
  name:"Node_142"
  type:"nn_max_pool2d"
  top:"Node_142"
  bottom:"Node_141"
  layer_param {
    idx:142
    in_0 {name:"Node_141:0",dtype:float32,shape:[1, 192, 71, 71]}
    out_0 {name:"Node_142:0",dtype:float32,shape:[1, 192, 35, 35]}
    attrs {'pool_size': [3, 3], 'strides': [2, 2], 'dilation': [1, 1], 'padding': [0, 0, 0, 0], 'layout': 'NCHW', 'ceil_mode': 0}
  }
}
layer {
  name:"Node_144"
  type:"const"
  top:"Node_144"
  layer_param {
    idx:144
    out_0 {name:"Node_144:0",dtype:float32,shape:[1, 1, 192, 64]}
  }
}
layer {
  name:"Node_145"
  type:"layout_transform"
  top:"Node_145"
  bottom:"Node_144"
  layer_param {
    idx:145
    in_0 {name:"Node_144:0",dtype:float32,shape:[1, 1, 192, 64]}
    out_0 {name:"Node_145:0",dtype:float32,shape:[64, 192, 1, 1]}
    attrs {'src_layout': 'HWIO', 'dst_layout': 'OIHW'}
  }
}
layer {
  name:"Node_146"
  type:"nn_conv2d"
  top:"Node_146"
  bottom:"Node_142"
  bottom:"Node_145"
  layer_param {
    idx:146
    in_0 {name:"Node_142:0",dtype:float32,shape:[1, 192, 35, 35]}
    in_1 {name:"Node_145:0",dtype:float32,shape:[64, 192, 1, 1]}
    out_0 {name:"Node_146:0",dtype:float32,shape:[1, 64, 35, 35]}
    attrs {'strides': [1, 1], 'padding': [0, 0, 0, 0], 'dilation': [1, 1], 'groups': 1, 'channels': 64, 'kernel_size': [1, 1], 'data_layout': 'NCHW', 'kernel_layout': 'OIHW', 'out_layout': '', 'out_dtype': ''}
  }
}
layer {
  name:"Node_147"
  type:"const"
  top:"Node_147"
  layer_param {
    idx:147
    out_0 {name:"Node_147:0",dtype:float32,shape:[64]}
  }
}
layer {
  name:"Node_148"
  type:"const"
  top:"Node_148"
  layer_param {
    idx:148
    out_0 {name:"Node_148:0",dtype:float32,shape:[64]}
  }
}
layer {
  name:"Node_149"
  type:"const"
  top:"Node_149"
  layer_param {
    idx:149
    out_0 {name:"Node_149:0",dtype:float32,shape:[64]}
  }
}
layer {
  name:"Node_150"
  type:"const"
  top:"Node_150"
  layer_param {
    idx:150
    out_0 {name:"Node_150:0",dtype:float32,shape:[64]}
  }
}
layer {
  name:"Node_151"
  type:"nn_batch_norm"
  top:"Node_151"
  bottom:"Node_146"
  bottom:"Node_147"
  bottom:"Node_148"
  bottom:"Node_149"
  bottom:"Node_150"
  layer_param {
    idx:151
    in_0 {name:"Node_146:0",dtype:float32,shape:[1, 64, 35, 35]}
    in_1 {name:"Node_147:0",dtype:float32,shape:[64]}
    in_2 {name:"Node_148:0",dtype:float32,shape:[64]}
    in_3 {name:"Node_149:0",dtype:float32,shape:[64]}
    in_4 {name:"Node_150:0",dtype:float32,shape:[64]}
    out_0 {name:"Node_151:0",dtype:float32,shape:[1, 64, 35, 35]}
    out_1 {name:"Node_151:1",dtype:float32,shape:[64]}
    out_2 {name:"Node_151:2",dtype:float32,shape:[64]}
    attrs {'axis': 1, 'epsilon': 0.0010000000474974513, 'center': 1, 'scale': 0}
  }
}
layer {
  name:"Node_153"
  type:"nn_relu"
  top:"Node_153"
  bottom:"Node_151"
  layer_param {
    idx:153
    in_0 {name:"Node_151:0",dtype:float32,shape:[1, 64, 35, 35]}
    out_0 {name:"Node_153:0",dtype:float32,shape:[1, 64, 35, 35]}
  }
}
layer {
  name:"Node_162"
  type:"const"
  top:"Node_162"
  layer_param {
    idx:162
    out_0 {name:"Node_162:0",dtype:float32,shape:[1, 1, 192, 48]}
  }
}
layer {
  name:"Node_163"
  type:"layout_transform"
  top:"Node_163"
  bottom:"Node_162"
  layer_param {
    idx:163
    in_0 {name:"Node_162:0",dtype:float32,shape:[1, 1, 192, 48]}
    out_0 {name:"Node_163:0",dtype:float32,shape:[48, 192, 1, 1]}
    attrs {'src_layout': 'HWIO', 'dst_layout': 'OIHW'}
  }
}
layer {
  name:"Node_164"
  type:"nn_conv2d"
  top:"Node_164"
  bottom:"Node_142"
  bottom:"Node_163"
  layer_param {
    idx:164
    in_0 {name:"Node_142:0",dtype:float32,shape:[1, 192, 35, 35]}
    in_1 {name:"Node_163:0",dtype:float32,shape:[48, 192, 1, 1]}
    out_0 {name:"Node_164:0",dtype:float32,shape:[1, 48, 35, 35]}
    attrs {'strides': [1, 1], 'padding': [0, 0, 0, 0], 'dilation': [1, 1], 'groups': 1, 'channels': 48, 'kernel_size': [1, 1], 'data_layout': 'NCHW', 'kernel_layout': 'OIHW', 'out_layout': '', 'out_dtype': ''}
  }
}
layer {
  name:"Node_165"
  type:"const"
  top:"Node_165"
  layer_param {
    idx:165
    out_0 {name:"Node_165:0",dtype:float32,shape:[48]}
  }
}
layer {
  name:"Node_166"
  type:"const"
  top:"Node_166"
  layer_param {
    idx:166
    out_0 {name:"Node_166:0",dtype:float32,shape:[48]}
  }
}
layer {
  name:"Node_167"
  type:"const"
  top:"Node_167"
  layer_param {
    idx:167
    out_0 {name:"Node_167:0",dtype:float32,shape:[48]}
  }
}
layer {
  name:"Node_168"
  type:"const"
  top:"Node_168"
  layer_param {
    idx:168
    out_0 {name:"Node_168:0",dtype:float32,shape:[48]}
  }
}
layer {
  name:"Node_169"
  type:"nn_batch_norm"
  top:"Node_169"
  bottom:"Node_164"
  bottom:"Node_165"
  bottom:"Node_166"
  bottom:"Node_167"
  bottom:"Node_168"
  layer_param {
    idx:169
    in_0 {name:"Node_164:0",dtype:float32,shape:[1, 48, 35, 35]}
    in_1 {name:"Node_165:0",dtype:float32,shape:[48]}
    in_2 {name:"Node_166:0",dtype:float32,shape:[48]}
    in_3 {name:"Node_167:0",dtype:float32,shape:[48]}
    in_4 {name:"Node_168:0",dtype:float32,shape:[48]}
    out_0 {name:"Node_169:0",dtype:float32,shape:[1, 48, 35, 35]}
    out_1 {name:"Node_169:1",dtype:float32,shape:[48]}
    out_2 {name:"Node_169:2",dtype:float32,shape:[48]}
    attrs {'axis': 1, 'epsilon': 0.0010000000474974513, 'center': 1, 'scale': 0}
  }
}
layer {
  name:"Node_171"
  type:"nn_relu"
  top:"Node_171"
  bottom:"Node_169"
  layer_param {
    idx:171
    in_0 {name:"Node_169:0",dtype:float32,shape:[1, 48, 35, 35]}
    out_0 {name:"Node_171:0",dtype:float32,shape:[1, 48, 35, 35]}
  }
}
layer {
  name:"Node_173"
  type:"const"
  top:"Node_173"
  layer_param {
    idx:173
    out_0 {name:"Node_173:0",dtype:float32,shape:[5, 5, 48, 64]}
  }
}
layer {
  name:"Node_174"
  type:"layout_transform"
  top:"Node_174"
  bottom:"Node_173"
  layer_param {
    idx:174
    in_0 {name:"Node_173:0",dtype:float32,shape:[5, 5, 48, 64]}
    out_0 {name:"Node_174:0",dtype:float32,shape:[64, 48, 5, 5]}
    attrs {'src_layout': 'HWIO', 'dst_layout': 'OIHW'}
  }
}
layer {
  name:"Node_175"
  type:"nn_conv2d"
  top:"Node_175"
  bottom:"Node_171"
  bottom:"Node_174"
  layer_param {
    idx:175
    in_0 {name:"Node_171:0",dtype:float32,shape:[1, 48, 35, 35]}
    in_1 {name:"Node_174:0",dtype:float32,shape:[64, 48, 5, 5]}
    out_0 {name:"Node_175:0",dtype:float32,shape:[1, 64, 35, 35]}
    attrs {'strides': [1, 1], 'padding': [2, 2, 2, 2], 'dilation': [1, 1], 'groups': 1, 'channels': 64, 'kernel_size': [5, 5], 'data_layout': 'NCHW', 'kernel_layout': 'OIHW', 'out_layout': '', 'out_dtype': ''}
  }
}
layer {
  name:"Node_176"
  type:"const"
  top:"Node_176"
  layer_param {
    idx:176
    out_0 {name:"Node_176:0",dtype:float32,shape:[64]}
  }
}
layer {
  name:"Node_177"
  type:"const"
  top:"Node_177"
  layer_param {
    idx:177
    out_0 {name:"Node_177:0",dtype:float32,shape:[64]}
  }
}
layer {
  name:"Node_178"
  type:"const"
  top:"Node_178"
  layer_param {
    idx:178
    out_0 {name:"Node_178:0",dtype:float32,shape:[64]}
  }
}
layer {
  name:"Node_179"
  type:"const"
  top:"Node_179"
  layer_param {
    idx:179
    out_0 {name:"Node_179:0",dtype:float32,shape:[64]}
  }
}
layer {
  name:"Node_180"
  type:"nn_batch_norm"
  top:"Node_180"
  bottom:"Node_175"
  bottom:"Node_176"
  bottom:"Node_177"
  bottom:"Node_178"
  bottom:"Node_179"
  layer_param {
    idx:180
    in_0 {name:"Node_175:0",dtype:float32,shape:[1, 64, 35, 35]}
    in_1 {name:"Node_176:0",dtype:float32,shape:[64]}
    in_2 {name:"Node_177:0",dtype:float32,shape:[64]}
    in_3 {name:"Node_178:0",dtype:float32,shape:[64]}
    in_4 {name:"Node_179:0",dtype:float32,shape:[64]}
    out_0 {name:"Node_180:0",dtype:float32,shape:[1, 64, 35, 35]}
    out_1 {name:"Node_180:1",dtype:float32,shape:[64]}
    out_2 {name:"Node_180:2",dtype:float32,shape:[64]}
    attrs {'axis': 1, 'epsilon': 0.0010000000474974513, 'center': 1, 'scale': 0}
  }
}
layer {
  name:"Node_182"
  type:"nn_relu"
  top:"Node_182"
  bottom:"Node_180"
  layer_param {
    idx:182
    in_0 {name:"Node_180:0",dtype:float32,shape:[1, 64, 35, 35]}
    out_0 {name:"Node_182:0",dtype:float32,shape:[1, 64, 35, 35]}
  }
}
layer {
  name:"Node_194"
  type:"const"
  top:"Node_194"
  layer_param {
    idx:194
    out_0 {name:"Node_194:0",dtype:float32,shape:[1, 1, 192, 64]}
  }
}
layer {
  name:"Node_195"
  type:"layout_transform"
  top:"Node_195"
  bottom:"Node_194"
  layer_param {
    idx:195
    in_0 {name:"Node_194:0",dtype:float32,shape:[1, 1, 192, 64]}
    out_0 {name:"Node_195:0",dtype:float32,shape:[64, 192, 1, 1]}
    attrs {'src_layout': 'HWIO', 'dst_layout': 'OIHW'}
  }
}
layer {
  name:"Node_196"
  type:"nn_conv2d"
  top:"Node_196"
  bottom:"Node_142"
  bottom:"Node_195"
  layer_param {
    idx:196
    in_0 {name:"Node_142:0",dtype:float32,shape:[1, 192, 35, 35]}
    in_1 {name:"Node_195:0",dtype:float32,shape:[64, 192, 1, 1]}
    out_0 {name:"Node_196:0",dtype:float32,shape:[1, 64, 35, 35]}
    attrs {'strides': [1, 1], 'padding': [0, 0, 0, 0], 'dilation': [1, 1], 'groups': 1, 'channels': 64, 'kernel_size': [1, 1], 'data_layout': 'NCHW', 'kernel_layout': 'OIHW', 'out_layout': '', 'out_dtype': ''}
  }
}
layer {
  name:"Node_197"
  type:"const"
  top:"Node_197"
  layer_param {
    idx:197
    out_0 {name:"Node_197:0",dtype:float32,shape:[64]}
  }
}
layer {
  name:"Node_198"
  type:"const"
  top:"Node_198"
  layer_param {
    idx:198
    out_0 {name:"Node_198:0",dtype:float32,shape:[64]}
  }
}
layer {
  name:"Node_199"
  type:"const"
  top:"Node_199"
  layer_param {
    idx:199
    out_0 {name:"Node_199:0",dtype:float32,shape:[64]}
  }
}
layer {
  name:"Node_200"
  type:"const"
  top:"Node_200"
  layer_param {
    idx:200
    out_0 {name:"Node_200:0",dtype:float32,shape:[64]}
  }
}
layer {
  name:"Node_201"
  type:"nn_batch_norm"
  top:"Node_201"
  bottom:"Node_196"
  bottom:"Node_197"
  bottom:"Node_198"
  bottom:"Node_199"
  bottom:"Node_200"
  layer_param {
    idx:201
    in_0 {name:"Node_196:0",dtype:float32,shape:[1, 64, 35, 35]}
    in_1 {name:"Node_197:0",dtype:float32,shape:[64]}
    in_2 {name:"Node_198:0",dtype:float32,shape:[64]}
    in_3 {name:"Node_199:0",dtype:float32,shape:[64]}
    in_4 {name:"Node_200:0",dtype:float32,shape:[64]}
    out_0 {name:"Node_201:0",dtype:float32,shape:[1, 64, 35, 35]}
    out_1 {name:"Node_201:1",dtype:float32,shape:[64]}
    out_2 {name:"Node_201:2",dtype:float32,shape:[64]}
    attrs {'axis': 1, 'epsilon': 0.0010000000474974513, 'center': 1, 'scale': 0}
  }
}
layer {
  name:"Node_203"
  type:"nn_relu"
  top:"Node_203"
  bottom:"Node_201"
  layer_param {
    idx:203
    in_0 {name:"Node_201:0",dtype:float32,shape:[1, 64, 35, 35]}
    out_0 {name:"Node_203:0",dtype:float32,shape:[1, 64, 35, 35]}
  }
}
layer {
  name:"Node_205"
  type:"const"
  top:"Node_205"
  layer_param {
    idx:205
    out_0 {name:"Node_205:0",dtype:float32,shape:[3, 3, 64, 96]}
  }
}
layer {
  name:"Node_206"
  type:"layout_transform"
  top:"Node_206"
  bottom:"Node_205"
  layer_param {
    idx:206
    in_0 {name:"Node_205:0",dtype:float32,shape:[3, 3, 64, 96]}
    out_0 {name:"Node_206:0",dtype:float32,shape:[96, 64, 3, 3]}
    attrs {'src_layout': 'HWIO', 'dst_layout': 'OIHW'}
  }
}
layer {
  name:"Node_207"
  type:"nn_conv2d"
  top:"Node_207"
  bottom:"Node_203"
  bottom:"Node_206"
  layer_param {
    idx:207
    in_0 {name:"Node_203:0",dtype:float32,shape:[1, 64, 35, 35]}
    in_1 {name:"Node_206:0",dtype:float32,shape:[96, 64, 3, 3]}
    out_0 {name:"Node_207:0",dtype:float32,shape:[1, 96, 35, 35]}
    attrs {'strides': [1, 1], 'padding': [1, 1, 1, 1], 'dilation': [1, 1], 'groups': 1, 'channels': 96, 'kernel_size': [3, 3], 'data_layout': 'NCHW', 'kernel_layout': 'OIHW', 'out_layout': '', 'out_dtype': ''}
  }
}
layer {
  name:"Node_208"
  type:"const"
  top:"Node_208"
  layer_param {
    idx:208
    out_0 {name:"Node_208:0",dtype:float32,shape:[96]}
  }
}
layer {
  name:"Node_209"
  type:"const"
  top:"Node_209"
  layer_param {
    idx:209
    out_0 {name:"Node_209:0",dtype:float32,shape:[96]}
  }
}
layer {
  name:"Node_210"
  type:"const"
  top:"Node_210"
  layer_param {
    idx:210
    out_0 {name:"Node_210:0",dtype:float32,shape:[96]}
  }
}
layer {
  name:"Node_211"
  type:"const"
  top:"Node_211"
  layer_param {
    idx:211
    out_0 {name:"Node_211:0",dtype:float32,shape:[96]}
  }
}
layer {
  name:"Node_212"
  type:"nn_batch_norm"
  top:"Node_212"
  bottom:"Node_207"
  bottom:"Node_208"
  bottom:"Node_209"
  bottom:"Node_210"
  bottom:"Node_211"
  layer_param {
    idx:212
    in_0 {name:"Node_207:0",dtype:float32,shape:[1, 96, 35, 35]}
    in_1 {name:"Node_208:0",dtype:float32,shape:[96]}
    in_2 {name:"Node_209:0",dtype:float32,shape:[96]}
    in_3 {name:"Node_210:0",dtype:float32,shape:[96]}
    in_4 {name:"Node_211:0",dtype:float32,shape:[96]}
    out_0 {name:"Node_212:0",dtype:float32,shape:[1, 96, 35, 35]}
    out_1 {name:"Node_212:1",dtype:float32,shape:[96]}
    out_2 {name:"Node_212:2",dtype:float32,shape:[96]}
    attrs {'axis': 1, 'epsilon': 0.0010000000474974513, 'center': 1, 'scale': 0}
  }
}
layer {
  name:"Node_214"
  type:"nn_relu"
  top:"Node_214"
  bottom:"Node_212"
  layer_param {
    idx:214
    in_0 {name:"Node_212:0",dtype:float32,shape:[1, 96, 35, 35]}
    out_0 {name:"Node_214:0",dtype:float32,shape:[1, 96, 35, 35]}
  }
}
layer {
  name:"Node_216"
  type:"const"
  top:"Node_216"
  layer_param {
    idx:216
    out_0 {name:"Node_216:0",dtype:float32,shape:[3, 3, 96, 96]}
  }
}
layer {
  name:"Node_217"
  type:"layout_transform"
  top:"Node_217"
  bottom:"Node_216"
  layer_param {
    idx:217
    in_0 {name:"Node_216:0",dtype:float32,shape:[3, 3, 96, 96]}
    out_0 {name:"Node_217:0",dtype:float32,shape:[96, 96, 3, 3]}
    attrs {'src_layout': 'HWIO', 'dst_layout': 'OIHW'}
  }
}
layer {
  name:"Node_218"
  type:"nn_conv2d"
  top:"Node_218"
  bottom:"Node_214"
  bottom:"Node_217"
  layer_param {
    idx:218
    in_0 {name:"Node_214:0",dtype:float32,shape:[1, 96, 35, 35]}
    in_1 {name:"Node_217:0",dtype:float32,shape:[96, 96, 3, 3]}
    out_0 {name:"Node_218:0",dtype:float32,shape:[1, 96, 35, 35]}
    attrs {'strides': [1, 1], 'padding': [1, 1, 1, 1], 'dilation': [1, 1], 'groups': 1, 'channels': 96, 'kernel_size': [3, 3], 'data_layout': 'NCHW', 'kernel_layout': 'OIHW', 'out_layout': '', 'out_dtype': ''}
  }
}
layer {
  name:"Node_219"
  type:"const"
  top:"Node_219"
  layer_param {
    idx:219
    out_0 {name:"Node_219:0",dtype:float32,shape:[96]}
  }
}
layer {
  name:"Node_220"
  type:"const"
  top:"Node_220"
  layer_param {
    idx:220
    out_0 {name:"Node_220:0",dtype:float32,shape:[96]}
  }
}
layer {
  name:"Node_221"
  type:"const"
  top:"Node_221"
  layer_param {
    idx:221
    out_0 {name:"Node_221:0",dtype:float32,shape:[96]}
  }
}
layer {
  name:"Node_222"
  type:"const"
  top:"Node_222"
  layer_param {
    idx:222
    out_0 {name:"Node_222:0",dtype:float32,shape:[96]}
  }
}
layer {
  name:"Node_223"
  type:"nn_batch_norm"
  top:"Node_223"
  bottom:"Node_218"
  bottom:"Node_219"
  bottom:"Node_220"
  bottom:"Node_221"
  bottom:"Node_222"
  layer_param {
    idx:223
    in_0 {name:"Node_218:0",dtype:float32,shape:[1, 96, 35, 35]}
    in_1 {name:"Node_219:0",dtype:float32,shape:[96]}
    in_2 {name:"Node_220:0",dtype:float32,shape:[96]}
    in_3 {name:"Node_221:0",dtype:float32,shape:[96]}
    in_4 {name:"Node_222:0",dtype:float32,shape:[96]}
    out_0 {name:"Node_223:0",dtype:float32,shape:[1, 96, 35, 35]}
    out_1 {name:"Node_223:1",dtype:float32,shape:[96]}
    out_2 {name:"Node_223:2",dtype:float32,shape:[96]}
    attrs {'axis': 1, 'epsilon': 0.0010000000474974513, 'center': 1, 'scale': 0}
  }
}
layer {
  name:"Node_225"
  type:"nn_relu"
  top:"Node_225"
  bottom:"Node_223"
  layer_param {
    idx:225
    in_0 {name:"Node_223:0",dtype:float32,shape:[1, 96, 35, 35]}
    out_0 {name:"Node_225:0",dtype:float32,shape:[1, 96, 35, 35]}
  }
}
layer {
  name:"Node_231"
  type:"nn_avg_pool2d"
  top:"Node_231"
  bottom:"Node_142"
  layer_param {
    idx:231
    in_0 {name:"Node_142:0",dtype:float32,shape:[1, 192, 35, 35]}
    out_0 {name:"Node_231:0",dtype:float32,shape:[1, 192, 35, 35]}
    attrs {'pool_size': [3, 3], 'strides': [1, 1], 'dilation': [1, 1], 'padding': [1, 1, 1, 1], 'layout': 'NCHW', 'ceil_mode': 0, 'count_include_pad': 0}
  }
}
layer {
  name:"Node_233"
  type:"const"
  top:"Node_233"
  layer_param {
    idx:233
    out_0 {name:"Node_233:0",dtype:float32,shape:[1, 1, 192, 32]}
  }
}
layer {
  name:"Node_234"
  type:"layout_transform"
  top:"Node_234"
  bottom:"Node_233"
  layer_param {
    idx:234
    in_0 {name:"Node_233:0",dtype:float32,shape:[1, 1, 192, 32]}
    out_0 {name:"Node_234:0",dtype:float32,shape:[32, 192, 1, 1]}
    attrs {'src_layout': 'HWIO', 'dst_layout': 'OIHW'}
  }
}
layer {
  name:"Node_235"
  type:"nn_conv2d"
  top:"Node_235"
  bottom:"Node_231"
  bottom:"Node_234"
  layer_param {
    idx:235
    in_0 {name:"Node_231:0",dtype:float32,shape:[1, 192, 35, 35]}
    in_1 {name:"Node_234:0",dtype:float32,shape:[32, 192, 1, 1]}
    out_0 {name:"Node_235:0",dtype:float32,shape:[1, 32, 35, 35]}
    attrs {'strides': [1, 1], 'padding': [0, 0, 0, 0], 'dilation': [1, 1], 'groups': 1, 'channels': 32, 'kernel_size': [1, 1], 'data_layout': 'NCHW', 'kernel_layout': 'OIHW', 'out_layout': '', 'out_dtype': ''}
  }
}
layer {
  name:"Node_236"
  type:"const"
  top:"Node_236"
  layer_param {
    idx:236
    out_0 {name:"Node_236:0",dtype:float32,shape:[32]}
  }
}
layer {
  name:"Node_237"
  type:"const"
  top:"Node_237"
  layer_param {
    idx:237
    out_0 {name:"Node_237:0",dtype:float32,shape:[32]}
  }
}
layer {
  name:"Node_238"
  type:"const"
  top:"Node_238"
  layer_param {
    idx:238
    out_0 {name:"Node_238:0",dtype:float32,shape:[32]}
  }
}
layer {
  name:"Node_239"
  type:"const"
  top:"Node_239"
  layer_param {
    idx:239
    out_0 {name:"Node_239:0",dtype:float32,shape:[32]}
  }
}
layer {
  name:"Node_240"
  type:"nn_batch_norm"
  top:"Node_240"
  bottom:"Node_235"
  bottom:"Node_236"
  bottom:"Node_237"
  bottom:"Node_238"
  bottom:"Node_239"
  layer_param {
    idx:240
    in_0 {name:"Node_235:0",dtype:float32,shape:[1, 32, 35, 35]}
    in_1 {name:"Node_236:0",dtype:float32,shape:[32]}
    in_2 {name:"Node_237:0",dtype:float32,shape:[32]}
    in_3 {name:"Node_238:0",dtype:float32,shape:[32]}
    in_4 {name:"Node_239:0",dtype:float32,shape:[32]}
    out_0 {name:"Node_240:0",dtype:float32,shape:[1, 32, 35, 35]}
    out_1 {name:"Node_240:1",dtype:float32,shape:[32]}
    out_2 {name:"Node_240:2",dtype:float32,shape:[32]}
    attrs {'axis': 1, 'epsilon': 0.0010000000474974513, 'center': 1, 'scale': 0}
  }
}
layer {
  name:"Node_242"
  type:"nn_relu"
  top:"Node_242"
  bottom:"Node_240"
  layer_param {
    idx:242
    in_0 {name:"Node_240:0",dtype:float32,shape:[1, 32, 35, 35]}
    out_0 {name:"Node_242:0",dtype:float32,shape:[1, 32, 35, 35]}
  }
}
layer {
  name:"Node_244"
  type:"concatenate"
  top:"Node_244"
  bottom:"Node_153"
  bottom:"Node_182"
  bottom:"Node_225"
  bottom:"Node_242"
  layer_param {
    idx:244
    in_0 {name:"Node_153:0",dtype:float32,shape:[1, 64, 35, 35]}
    in_1 {name:"Node_182:0",dtype:float32,shape:[1, 64, 35, 35]}
    in_2 {name:"Node_225:0",dtype:float32,shape:[1, 96, 35, 35]}
    in_3 {name:"Node_242:0",dtype:float32,shape:[1, 32, 35, 35]}
    out_0 {name:"Node_244:0",dtype:float32,shape:[1, 256, 35, 35]}
    attrs {'axis': 1}
  }
}
layer {
  name:"Node_246"
  type:"const"
  top:"Node_246"
  layer_param {
    idx:246
    out_0 {name:"Node_246:0",dtype:float32,shape:[1, 1, 256, 64]}
  }
}
layer {
  name:"Node_247"
  type:"layout_transform"
  top:"Node_247"
  bottom:"Node_246"
  layer_param {
    idx:247
    in_0 {name:"Node_246:0",dtype:float32,shape:[1, 1, 256, 64]}
    out_0 {name:"Node_247:0",dtype:float32,shape:[64, 256, 1, 1]}
    attrs {'src_layout': 'HWIO', 'dst_layout': 'OIHW'}
  }
}
layer {
  name:"Node_248"
  type:"nn_conv2d"
  top:"Node_248"
  bottom:"Node_244"
  bottom:"Node_247"
  layer_param {
    idx:248
    in_0 {name:"Node_244:0",dtype:float32,shape:[1, 256, 35, 35]}
    in_1 {name:"Node_247:0",dtype:float32,shape:[64, 256, 1, 1]}
    out_0 {name:"Node_248:0",dtype:float32,shape:[1, 64, 35, 35]}
    attrs {'strides': [1, 1], 'padding': [0, 0, 0, 0], 'dilation': [1, 1], 'groups': 1, 'channels': 64, 'kernel_size': [1, 1], 'data_layout': 'NCHW', 'kernel_layout': 'OIHW', 'out_layout': '', 'out_dtype': ''}
  }
}
layer {
  name:"Node_249"
  type:"const"
  top:"Node_249"
  layer_param {
    idx:249
    out_0 {name:"Node_249:0",dtype:float32,shape:[64]}
  }
}
layer {
  name:"Node_250"
  type:"const"
  top:"Node_250"
  layer_param {
    idx:250
    out_0 {name:"Node_250:0",dtype:float32,shape:[64]}
  }
}
layer {
  name:"Node_251"
  type:"const"
  top:"Node_251"
  layer_param {
    idx:251
    out_0 {name:"Node_251:0",dtype:float32,shape:[64]}
  }
}
layer {
  name:"Node_252"
  type:"const"
  top:"Node_252"
  layer_param {
    idx:252
    out_0 {name:"Node_252:0",dtype:float32,shape:[64]}
  }
}
layer {
  name:"Node_253"
  type:"nn_batch_norm"
  top:"Node_253"
  bottom:"Node_248"
  bottom:"Node_249"
  bottom:"Node_250"
  bottom:"Node_251"
  bottom:"Node_252"
  layer_param {
    idx:253
    in_0 {name:"Node_248:0",dtype:float32,shape:[1, 64, 35, 35]}
    in_1 {name:"Node_249:0",dtype:float32,shape:[64]}
    in_2 {name:"Node_250:0",dtype:float32,shape:[64]}
    in_3 {name:"Node_251:0",dtype:float32,shape:[64]}
    in_4 {name:"Node_252:0",dtype:float32,shape:[64]}
    out_0 {name:"Node_253:0",dtype:float32,shape:[1, 64, 35, 35]}
    out_1 {name:"Node_253:1",dtype:float32,shape:[64]}
    out_2 {name:"Node_253:2",dtype:float32,shape:[64]}
    attrs {'axis': 1, 'epsilon': 0.0010000000474974513, 'center': 1, 'scale': 0}
  }
}
layer {
  name:"Node_255"
  type:"nn_relu"
  top:"Node_255"
  bottom:"Node_253"
  layer_param {
    idx:255
    in_0 {name:"Node_253:0",dtype:float32,shape:[1, 64, 35, 35]}
    out_0 {name:"Node_255:0",dtype:float32,shape:[1, 64, 35, 35]}
  }
}
layer {
  name:"Node_264"
  type:"const"
  top:"Node_264"
  layer_param {
    idx:264
    out_0 {name:"Node_264:0",dtype:float32,shape:[1, 1, 256, 48]}
  }
}
layer {
  name:"Node_265"
  type:"layout_transform"
  top:"Node_265"
  bottom:"Node_264"
  layer_param {
    idx:265
    in_0 {name:"Node_264:0",dtype:float32,shape:[1, 1, 256, 48]}
    out_0 {name:"Node_265:0",dtype:float32,shape:[48, 256, 1, 1]}
    attrs {'src_layout': 'HWIO', 'dst_layout': 'OIHW'}
  }
}
layer {
  name:"Node_266"
  type:"nn_conv2d"
  top:"Node_266"
  bottom:"Node_244"
  bottom:"Node_265"
  layer_param {
    idx:266
    in_0 {name:"Node_244:0",dtype:float32,shape:[1, 256, 35, 35]}
    in_1 {name:"Node_265:0",dtype:float32,shape:[48, 256, 1, 1]}
    out_0 {name:"Node_266:0",dtype:float32,shape:[1, 48, 35, 35]}
    attrs {'strides': [1, 1], 'padding': [0, 0, 0, 0], 'dilation': [1, 1], 'groups': 1, 'channels': 48, 'kernel_size': [1, 1], 'data_layout': 'NCHW', 'kernel_layout': 'OIHW', 'out_layout': '', 'out_dtype': ''}
  }
}
layer {
  name:"Node_267"
  type:"const"
  top:"Node_267"
  layer_param {
    idx:267
    out_0 {name:"Node_267:0",dtype:float32,shape:[48]}
  }
}
layer {
  name:"Node_268"
  type:"const"
  top:"Node_268"
  layer_param {
    idx:268
    out_0 {name:"Node_268:0",dtype:float32,shape:[48]}
  }
}
layer {
  name:"Node_269"
  type:"const"
  top:"Node_269"
  layer_param {
    idx:269
    out_0 {name:"Node_269:0",dtype:float32,shape:[48]}
  }
}
layer {
  name:"Node_270"
  type:"const"
  top:"Node_270"
  layer_param {
    idx:270
    out_0 {name:"Node_270:0",dtype:float32,shape:[48]}
  }
}
layer {
  name:"Node_271"
  type:"nn_batch_norm"
  top:"Node_271"
  bottom:"Node_266"
  bottom:"Node_267"
  bottom:"Node_268"
  bottom:"Node_269"
  bottom:"Node_270"
  layer_param {
    idx:271
    in_0 {name:"Node_266:0",dtype:float32,shape:[1, 48, 35, 35]}
    in_1 {name:"Node_267:0",dtype:float32,shape:[48]}
    in_2 {name:"Node_268:0",dtype:float32,shape:[48]}
    in_3 {name:"Node_269:0",dtype:float32,shape:[48]}
    in_4 {name:"Node_270:0",dtype:float32,shape:[48]}
    out_0 {name:"Node_271:0",dtype:float32,shape:[1, 48, 35, 35]}
    out_1 {name:"Node_271:1",dtype:float32,shape:[48]}
    out_2 {name:"Node_271:2",dtype:float32,shape:[48]}
    attrs {'axis': 1, 'epsilon': 0.0010000000474974513, 'center': 1, 'scale': 0}
  }
}
layer {
  name:"Node_273"
  type:"nn_relu"
  top:"Node_273"
  bottom:"Node_271"
  layer_param {
    idx:273
    in_0 {name:"Node_271:0",dtype:float32,shape:[1, 48, 35, 35]}
    out_0 {name:"Node_273:0",dtype:float32,shape:[1, 48, 35, 35]}
  }
}
layer {
  name:"Node_275"
  type:"const"
  top:"Node_275"
  layer_param {
    idx:275
    out_0 {name:"Node_275:0",dtype:float32,shape:[5, 5, 48, 64]}
  }
}
layer {
  name:"Node_276"
  type:"layout_transform"
  top:"Node_276"
  bottom:"Node_275"
  layer_param {
    idx:276
    in_0 {name:"Node_275:0",dtype:float32,shape:[5, 5, 48, 64]}
    out_0 {name:"Node_276:0",dtype:float32,shape:[64, 48, 5, 5]}
    attrs {'src_layout': 'HWIO', 'dst_layout': 'OIHW'}
  }
}
layer {
  name:"Node_277"
  type:"nn_conv2d"
  top:"Node_277"
  bottom:"Node_273"
  bottom:"Node_276"
  layer_param {
    idx:277
    in_0 {name:"Node_273:0",dtype:float32,shape:[1, 48, 35, 35]}
    in_1 {name:"Node_276:0",dtype:float32,shape:[64, 48, 5, 5]}
    out_0 {name:"Node_277:0",dtype:float32,shape:[1, 64, 35, 35]}
    attrs {'strides': [1, 1], 'padding': [2, 2, 2, 2], 'dilation': [1, 1], 'groups': 1, 'channels': 64, 'kernel_size': [5, 5], 'data_layout': 'NCHW', 'kernel_layout': 'OIHW', 'out_layout': '', 'out_dtype': ''}
  }
}
layer {
  name:"Node_278"
  type:"const"
  top:"Node_278"
  layer_param {
    idx:278
    out_0 {name:"Node_278:0",dtype:float32,shape:[64]}
  }
}
layer {
  name:"Node_279"
  type:"const"
  top:"Node_279"
  layer_param {
    idx:279
    out_0 {name:"Node_279:0",dtype:float32,shape:[64]}
  }
}
layer {
  name:"Node_280"
  type:"const"
  top:"Node_280"
  layer_param {
    idx:280
    out_0 {name:"Node_280:0",dtype:float32,shape:[64]}
  }
}
layer {
  name:"Node_281"
  type:"const"
  top:"Node_281"
  layer_param {
    idx:281
    out_0 {name:"Node_281:0",dtype:float32,shape:[64]}
  }
}
layer {
  name:"Node_282"
  type:"nn_batch_norm"
  top:"Node_282"
  bottom:"Node_277"
  bottom:"Node_278"
  bottom:"Node_279"
  bottom:"Node_280"
  bottom:"Node_281"
  layer_param {
    idx:282
    in_0 {name:"Node_277:0",dtype:float32,shape:[1, 64, 35, 35]}
    in_1 {name:"Node_278:0",dtype:float32,shape:[64]}
    in_2 {name:"Node_279:0",dtype:float32,shape:[64]}
    in_3 {name:"Node_280:0",dtype:float32,shape:[64]}
    in_4 {name:"Node_281:0",dtype:float32,shape:[64]}
    out_0 {name:"Node_282:0",dtype:float32,shape:[1, 64, 35, 35]}
    out_1 {name:"Node_282:1",dtype:float32,shape:[64]}
    out_2 {name:"Node_282:2",dtype:float32,shape:[64]}
    attrs {'axis': 1, 'epsilon': 0.0010000000474974513, 'center': 1, 'scale': 0}
  }
}
layer {
  name:"Node_284"
  type:"nn_relu"
  top:"Node_284"
  bottom:"Node_282"
  layer_param {
    idx:284
    in_0 {name:"Node_282:0",dtype:float32,shape:[1, 64, 35, 35]}
    out_0 {name:"Node_284:0",dtype:float32,shape:[1, 64, 35, 35]}
  }
}
layer {
  name:"Node_296"
  type:"const"
  top:"Node_296"
  layer_param {
    idx:296
    out_0 {name:"Node_296:0",dtype:float32,shape:[1, 1, 256, 64]}
  }
}
layer {
  name:"Node_297"
  type:"layout_transform"
  top:"Node_297"
  bottom:"Node_296"
  layer_param {
    idx:297
    in_0 {name:"Node_296:0",dtype:float32,shape:[1, 1, 256, 64]}
    out_0 {name:"Node_297:0",dtype:float32,shape:[64, 256, 1, 1]}
    attrs {'src_layout': 'HWIO', 'dst_layout': 'OIHW'}
  }
}
layer {
  name:"Node_298"
  type:"nn_conv2d"
  top:"Node_298"
  bottom:"Node_244"
  bottom:"Node_297"
  layer_param {
    idx:298
    in_0 {name:"Node_244:0",dtype:float32,shape:[1, 256, 35, 35]}
    in_1 {name:"Node_297:0",dtype:float32,shape:[64, 256, 1, 1]}
    out_0 {name:"Node_298:0",dtype:float32,shape:[1, 64, 35, 35]}
    attrs {'strides': [1, 1], 'padding': [0, 0, 0, 0], 'dilation': [1, 1], 'groups': 1, 'channels': 64, 'kernel_size': [1, 1], 'data_layout': 'NCHW', 'kernel_layout': 'OIHW', 'out_layout': '', 'out_dtype': ''}
  }
}
layer {
  name:"Node_299"
  type:"const"
  top:"Node_299"
  layer_param {
    idx:299
    out_0 {name:"Node_299:0",dtype:float32,shape:[64]}
  }
}
layer {
  name:"Node_300"
  type:"const"
  top:"Node_300"
  layer_param {
    idx:300
    out_0 {name:"Node_300:0",dtype:float32,shape:[64]}
  }
}
layer {
  name:"Node_301"
  type:"const"
  top:"Node_301"
  layer_param {
    idx:301
    out_0 {name:"Node_301:0",dtype:float32,shape:[64]}
  }
}
layer {
  name:"Node_302"
  type:"const"
  top:"Node_302"
  layer_param {
    idx:302
    out_0 {name:"Node_302:0",dtype:float32,shape:[64]}
  }
}
layer {
  name:"Node_303"
  type:"nn_batch_norm"
  top:"Node_303"
  bottom:"Node_298"
  bottom:"Node_299"
  bottom:"Node_300"
  bottom:"Node_301"
  bottom:"Node_302"
  layer_param {
    idx:303
    in_0 {name:"Node_298:0",dtype:float32,shape:[1, 64, 35, 35]}
    in_1 {name:"Node_299:0",dtype:float32,shape:[64]}
    in_2 {name:"Node_300:0",dtype:float32,shape:[64]}
    in_3 {name:"Node_301:0",dtype:float32,shape:[64]}
    in_4 {name:"Node_302:0",dtype:float32,shape:[64]}
    out_0 {name:"Node_303:0",dtype:float32,shape:[1, 64, 35, 35]}
    out_1 {name:"Node_303:1",dtype:float32,shape:[64]}
    out_2 {name:"Node_303:2",dtype:float32,shape:[64]}
    attrs {'axis': 1, 'epsilon': 0.0010000000474974513, 'center': 1, 'scale': 0}
  }
}
layer {
  name:"Node_305"
  type:"nn_relu"
  top:"Node_305"
  bottom:"Node_303"
  layer_param {
    idx:305
    in_0 {name:"Node_303:0",dtype:float32,shape:[1, 64, 35, 35]}
    out_0 {name:"Node_305:0",dtype:float32,shape:[1, 64, 35, 35]}
  }
}
layer {
  name:"Node_307"
  type:"const"
  top:"Node_307"
  layer_param {
    idx:307
    out_0 {name:"Node_307:0",dtype:float32,shape:[3, 3, 64, 96]}
  }
}
layer {
  name:"Node_308"
  type:"layout_transform"
  top:"Node_308"
  bottom:"Node_307"
  layer_param {
    idx:308
    in_0 {name:"Node_307:0",dtype:float32,shape:[3, 3, 64, 96]}
    out_0 {name:"Node_308:0",dtype:float32,shape:[96, 64, 3, 3]}
    attrs {'src_layout': 'HWIO', 'dst_layout': 'OIHW'}
  }
}
layer {
  name:"Node_309"
  type:"nn_conv2d"
  top:"Node_309"
  bottom:"Node_305"
  bottom:"Node_308"
  layer_param {
    idx:309
    in_0 {name:"Node_305:0",dtype:float32,shape:[1, 64, 35, 35]}
    in_1 {name:"Node_308:0",dtype:float32,shape:[96, 64, 3, 3]}
    out_0 {name:"Node_309:0",dtype:float32,shape:[1, 96, 35, 35]}
    attrs {'strides': [1, 1], 'padding': [1, 1, 1, 1], 'dilation': [1, 1], 'groups': 1, 'channels': 96, 'kernel_size': [3, 3], 'data_layout': 'NCHW', 'kernel_layout': 'OIHW', 'out_layout': '', 'out_dtype': ''}
  }
}
layer {
  name:"Node_310"
  type:"const"
  top:"Node_310"
  layer_param {
    idx:310
    out_0 {name:"Node_310:0",dtype:float32,shape:[96]}
  }
}
layer {
  name:"Node_311"
  type:"const"
  top:"Node_311"
  layer_param {
    idx:311
    out_0 {name:"Node_311:0",dtype:float32,shape:[96]}
  }
}
layer {
  name:"Node_312"
  type:"const"
  top:"Node_312"
  layer_param {
    idx:312
    out_0 {name:"Node_312:0",dtype:float32,shape:[96]}
  }
}
layer {
  name:"Node_313"
  type:"const"
  top:"Node_313"
  layer_param {
    idx:313
    out_0 {name:"Node_313:0",dtype:float32,shape:[96]}
  }
}
layer {
  name:"Node_314"
  type:"nn_batch_norm"
  top:"Node_314"
  bottom:"Node_309"
  bottom:"Node_310"
  bottom:"Node_311"
  bottom:"Node_312"
  bottom:"Node_313"
  layer_param {
    idx:314
    in_0 {name:"Node_309:0",dtype:float32,shape:[1, 96, 35, 35]}
    in_1 {name:"Node_310:0",dtype:float32,shape:[96]}
    in_2 {name:"Node_311:0",dtype:float32,shape:[96]}
    in_3 {name:"Node_312:0",dtype:float32,shape:[96]}
    in_4 {name:"Node_313:0",dtype:float32,shape:[96]}
    out_0 {name:"Node_314:0",dtype:float32,shape:[1, 96, 35, 35]}
    out_1 {name:"Node_314:1",dtype:float32,shape:[96]}
    out_2 {name:"Node_314:2",dtype:float32,shape:[96]}
    attrs {'axis': 1, 'epsilon': 0.0010000000474974513, 'center': 1, 'scale': 0}
  }
}
layer {
  name:"Node_316"
  type:"nn_relu"
  top:"Node_316"
  bottom:"Node_314"
  layer_param {
    idx:316
    in_0 {name:"Node_314:0",dtype:float32,shape:[1, 96, 35, 35]}
    out_0 {name:"Node_316:0",dtype:float32,shape:[1, 96, 35, 35]}
  }
}
layer {
  name:"Node_318"
  type:"const"
  top:"Node_318"
  layer_param {
    idx:318
    out_0 {name:"Node_318:0",dtype:float32,shape:[3, 3, 96, 96]}
  }
}
layer {
  name:"Node_319"
  type:"layout_transform"
  top:"Node_319"
  bottom:"Node_318"
  layer_param {
    idx:319
    in_0 {name:"Node_318:0",dtype:float32,shape:[3, 3, 96, 96]}
    out_0 {name:"Node_319:0",dtype:float32,shape:[96, 96, 3, 3]}
    attrs {'src_layout': 'HWIO', 'dst_layout': 'OIHW'}
  }
}
layer {
  name:"Node_320"
  type:"nn_conv2d"
  top:"Node_320"
  bottom:"Node_316"
  bottom:"Node_319"
  layer_param {
    idx:320
    in_0 {name:"Node_316:0",dtype:float32,shape:[1, 96, 35, 35]}
    in_1 {name:"Node_319:0",dtype:float32,shape:[96, 96, 3, 3]}
    out_0 {name:"Node_320:0",dtype:float32,shape:[1, 96, 35, 35]}
    attrs {'strides': [1, 1], 'padding': [1, 1, 1, 1], 'dilation': [1, 1], 'groups': 1, 'channels': 96, 'kernel_size': [3, 3], 'data_layout': 'NCHW', 'kernel_layout': 'OIHW', 'out_layout': '', 'out_dtype': ''}
  }
}
layer {
  name:"Node_321"
  type:"const"
  top:"Node_321"
  layer_param {
    idx:321
    out_0 {name:"Node_321:0",dtype:float32,shape:[96]}
  }
}
layer {
  name:"Node_322"
  type:"const"
  top:"Node_322"
  layer_param {
    idx:322
    out_0 {name:"Node_322:0",dtype:float32,shape:[96]}
  }
}
layer {
  name:"Node_323"
  type:"const"
  top:"Node_323"
  layer_param {
    idx:323
    out_0 {name:"Node_323:0",dtype:float32,shape:[96]}
  }
}
layer {
  name:"Node_324"
  type:"const"
  top:"Node_324"
  layer_param {
    idx:324
    out_0 {name:"Node_324:0",dtype:float32,shape:[96]}
  }
}
layer {
  name:"Node_325"
  type:"nn_batch_norm"
  top:"Node_325"
  bottom:"Node_320"
  bottom:"Node_321"
  bottom:"Node_322"
  bottom:"Node_323"
  bottom:"Node_324"
  layer_param {
    idx:325
    in_0 {name:"Node_320:0",dtype:float32,shape:[1, 96, 35, 35]}
    in_1 {name:"Node_321:0",dtype:float32,shape:[96]}
    in_2 {name:"Node_322:0",dtype:float32,shape:[96]}
    in_3 {name:"Node_323:0",dtype:float32,shape:[96]}
    in_4 {name:"Node_324:0",dtype:float32,shape:[96]}
    out_0 {name:"Node_325:0",dtype:float32,shape:[1, 96, 35, 35]}
    out_1 {name:"Node_325:1",dtype:float32,shape:[96]}
    out_2 {name:"Node_325:2",dtype:float32,shape:[96]}
    attrs {'axis': 1, 'epsilon': 0.0010000000474974513, 'center': 1, 'scale': 0}
  }
}
layer {
  name:"Node_327"
  type:"nn_relu"
  top:"Node_327"
  bottom:"Node_325"
  layer_param {
    idx:327
    in_0 {name:"Node_325:0",dtype:float32,shape:[1, 96, 35, 35]}
    out_0 {name:"Node_327:0",dtype:float32,shape:[1, 96, 35, 35]}
  }
}
layer {
  name:"Node_333"
  type:"nn_avg_pool2d"
  top:"Node_333"
  bottom:"Node_244"
  layer_param {
    idx:333
    in_0 {name:"Node_244:0",dtype:float32,shape:[1, 256, 35, 35]}
    out_0 {name:"Node_333:0",dtype:float32,shape:[1, 256, 35, 35]}
    attrs {'pool_size': [3, 3], 'strides': [1, 1], 'dilation': [1, 1], 'padding': [1, 1, 1, 1], 'layout': 'NCHW', 'ceil_mode': 0, 'count_include_pad': 0}
  }
}
layer {
  name:"Node_335"
  type:"const"
  top:"Node_335"
  layer_param {
    idx:335
    out_0 {name:"Node_335:0",dtype:float32,shape:[1, 1, 256, 64]}
  }
}
layer {
  name:"Node_336"
  type:"layout_transform"
  top:"Node_336"
  bottom:"Node_335"
  layer_param {
    idx:336
    in_0 {name:"Node_335:0",dtype:float32,shape:[1, 1, 256, 64]}
    out_0 {name:"Node_336:0",dtype:float32,shape:[64, 256, 1, 1]}
    attrs {'src_layout': 'HWIO', 'dst_layout': 'OIHW'}
  }
}
layer {
  name:"Node_337"
  type:"nn_conv2d"
  top:"Node_337"
  bottom:"Node_333"
  bottom:"Node_336"
  layer_param {
    idx:337
    in_0 {name:"Node_333:0",dtype:float32,shape:[1, 256, 35, 35]}
    in_1 {name:"Node_336:0",dtype:float32,shape:[64, 256, 1, 1]}
    out_0 {name:"Node_337:0",dtype:float32,shape:[1, 64, 35, 35]}
    attrs {'strides': [1, 1], 'padding': [0, 0, 0, 0], 'dilation': [1, 1], 'groups': 1, 'channels': 64, 'kernel_size': [1, 1], 'data_layout': 'NCHW', 'kernel_layout': 'OIHW', 'out_layout': '', 'out_dtype': ''}
  }
}
layer {
  name:"Node_338"
  type:"const"
  top:"Node_338"
  layer_param {
    idx:338
    out_0 {name:"Node_338:0",dtype:float32,shape:[64]}
  }
}
layer {
  name:"Node_339"
  type:"const"
  top:"Node_339"
  layer_param {
    idx:339
    out_0 {name:"Node_339:0",dtype:float32,shape:[64]}
  }
}
layer {
  name:"Node_340"
  type:"const"
  top:"Node_340"
  layer_param {
    idx:340
    out_0 {name:"Node_340:0",dtype:float32,shape:[64]}
  }
}
layer {
  name:"Node_341"
  type:"const"
  top:"Node_341"
  layer_param {
    idx:341
    out_0 {name:"Node_341:0",dtype:float32,shape:[64]}
  }
}
layer {
  name:"Node_342"
  type:"nn_batch_norm"
  top:"Node_342"
  bottom:"Node_337"
  bottom:"Node_338"
  bottom:"Node_339"
  bottom:"Node_340"
  bottom:"Node_341"
  layer_param {
    idx:342
    in_0 {name:"Node_337:0",dtype:float32,shape:[1, 64, 35, 35]}
    in_1 {name:"Node_338:0",dtype:float32,shape:[64]}
    in_2 {name:"Node_339:0",dtype:float32,shape:[64]}
    in_3 {name:"Node_340:0",dtype:float32,shape:[64]}
    in_4 {name:"Node_341:0",dtype:float32,shape:[64]}
    out_0 {name:"Node_342:0",dtype:float32,shape:[1, 64, 35, 35]}
    out_1 {name:"Node_342:1",dtype:float32,shape:[64]}
    out_2 {name:"Node_342:2",dtype:float32,shape:[64]}
    attrs {'axis': 1, 'epsilon': 0.0010000000474974513, 'center': 1, 'scale': 0}
  }
}
layer {
  name:"Node_344"
  type:"nn_relu"
  top:"Node_344"
  bottom:"Node_342"
  layer_param {
    idx:344
    in_0 {name:"Node_342:0",dtype:float32,shape:[1, 64, 35, 35]}
    out_0 {name:"Node_344:0",dtype:float32,shape:[1, 64, 35, 35]}
  }
}
layer {
  name:"Node_346"
  type:"concatenate"
  top:"Node_346"
  bottom:"Node_255"
  bottom:"Node_284"
  bottom:"Node_327"
  bottom:"Node_344"
  layer_param {
    idx:346
    in_0 {name:"Node_255:0",dtype:float32,shape:[1, 64, 35, 35]}
    in_1 {name:"Node_284:0",dtype:float32,shape:[1, 64, 35, 35]}
    in_2 {name:"Node_327:0",dtype:float32,shape:[1, 96, 35, 35]}
    in_3 {name:"Node_344:0",dtype:float32,shape:[1, 64, 35, 35]}
    out_0 {name:"Node_346:0",dtype:float32,shape:[1, 288, 35, 35]}
    attrs {'axis': 1}
  }
}
layer {
  name:"Node_348"
  type:"const"
  top:"Node_348"
  layer_param {
    idx:348
    out_0 {name:"Node_348:0",dtype:float32,shape:[1, 1, 288, 64]}
  }
}
layer {
  name:"Node_349"
  type:"layout_transform"
  top:"Node_349"
  bottom:"Node_348"
  layer_param {
    idx:349
    in_0 {name:"Node_348:0",dtype:float32,shape:[1, 1, 288, 64]}
    out_0 {name:"Node_349:0",dtype:float32,shape:[64, 288, 1, 1]}
    attrs {'src_layout': 'HWIO', 'dst_layout': 'OIHW'}
  }
}
layer {
  name:"Node_350"
  type:"nn_conv2d"
  top:"Node_350"
  bottom:"Node_346"
  bottom:"Node_349"
  layer_param {
    idx:350
    in_0 {name:"Node_346:0",dtype:float32,shape:[1, 288, 35, 35]}
    in_1 {name:"Node_349:0",dtype:float32,shape:[64, 288, 1, 1]}
    out_0 {name:"Node_350:0",dtype:float32,shape:[1, 64, 35, 35]}
    attrs {'strides': [1, 1], 'padding': [0, 0, 0, 0], 'dilation': [1, 1], 'groups': 1, 'channels': 64, 'kernel_size': [1, 1], 'data_layout': 'NCHW', 'kernel_layout': 'OIHW', 'out_layout': '', 'out_dtype': ''}
  }
}
layer {
  name:"Node_351"
  type:"const"
  top:"Node_351"
  layer_param {
    idx:351
    out_0 {name:"Node_351:0",dtype:float32,shape:[64]}
  }
}
layer {
  name:"Node_352"
  type:"const"
  top:"Node_352"
  layer_param {
    idx:352
    out_0 {name:"Node_352:0",dtype:float32,shape:[64]}
  }
}
layer {
  name:"Node_353"
  type:"const"
  top:"Node_353"
  layer_param {
    idx:353
    out_0 {name:"Node_353:0",dtype:float32,shape:[64]}
  }
}
layer {
  name:"Node_354"
  type:"const"
  top:"Node_354"
  layer_param {
    idx:354
    out_0 {name:"Node_354:0",dtype:float32,shape:[64]}
  }
}
layer {
  name:"Node_355"
  type:"nn_batch_norm"
  top:"Node_355"
  bottom:"Node_350"
  bottom:"Node_351"
  bottom:"Node_352"
  bottom:"Node_353"
  bottom:"Node_354"
  layer_param {
    idx:355
    in_0 {name:"Node_350:0",dtype:float32,shape:[1, 64, 35, 35]}
    in_1 {name:"Node_351:0",dtype:float32,shape:[64]}
    in_2 {name:"Node_352:0",dtype:float32,shape:[64]}
    in_3 {name:"Node_353:0",dtype:float32,shape:[64]}
    in_4 {name:"Node_354:0",dtype:float32,shape:[64]}
    out_0 {name:"Node_355:0",dtype:float32,shape:[1, 64, 35, 35]}
    out_1 {name:"Node_355:1",dtype:float32,shape:[64]}
    out_2 {name:"Node_355:2",dtype:float32,shape:[64]}
    attrs {'axis': 1, 'epsilon': 0.0010000000474974513, 'center': 1, 'scale': 0}
  }
}
layer {
  name:"Node_357"
  type:"nn_relu"
  top:"Node_357"
  bottom:"Node_355"
  layer_param {
    idx:357
    in_0 {name:"Node_355:0",dtype:float32,shape:[1, 64, 35, 35]}
    out_0 {name:"Node_357:0",dtype:float32,shape:[1, 64, 35, 35]}
  }
}
layer {
  name:"Node_366"
  type:"const"
  top:"Node_366"
  layer_param {
    idx:366
    out_0 {name:"Node_366:0",dtype:float32,shape:[1, 1, 288, 48]}
  }
}
layer {
  name:"Node_367"
  type:"layout_transform"
  top:"Node_367"
  bottom:"Node_366"
  layer_param {
    idx:367
    in_0 {name:"Node_366:0",dtype:float32,shape:[1, 1, 288, 48]}
    out_0 {name:"Node_367:0",dtype:float32,shape:[48, 288, 1, 1]}
    attrs {'src_layout': 'HWIO', 'dst_layout': 'OIHW'}
  }
}
layer {
  name:"Node_368"
  type:"nn_conv2d"
  top:"Node_368"
  bottom:"Node_346"
  bottom:"Node_367"
  layer_param {
    idx:368
    in_0 {name:"Node_346:0",dtype:float32,shape:[1, 288, 35, 35]}
    in_1 {name:"Node_367:0",dtype:float32,shape:[48, 288, 1, 1]}
    out_0 {name:"Node_368:0",dtype:float32,shape:[1, 48, 35, 35]}
    attrs {'strides': [1, 1], 'padding': [0, 0, 0, 0], 'dilation': [1, 1], 'groups': 1, 'channels': 48, 'kernel_size': [1, 1], 'data_layout': 'NCHW', 'kernel_layout': 'OIHW', 'out_layout': '', 'out_dtype': ''}
  }
}
layer {
  name:"Node_369"
  type:"const"
  top:"Node_369"
  layer_param {
    idx:369
    out_0 {name:"Node_369:0",dtype:float32,shape:[48]}
  }
}
layer {
  name:"Node_370"
  type:"const"
  top:"Node_370"
  layer_param {
    idx:370
    out_0 {name:"Node_370:0",dtype:float32,shape:[48]}
  }
}
layer {
  name:"Node_371"
  type:"const"
  top:"Node_371"
  layer_param {
    idx:371
    out_0 {name:"Node_371:0",dtype:float32,shape:[48]}
  }
}
layer {
  name:"Node_372"
  type:"const"
  top:"Node_372"
  layer_param {
    idx:372
    out_0 {name:"Node_372:0",dtype:float32,shape:[48]}
  }
}
layer {
  name:"Node_373"
  type:"nn_batch_norm"
  top:"Node_373"
  bottom:"Node_368"
  bottom:"Node_369"
  bottom:"Node_370"
  bottom:"Node_371"
  bottom:"Node_372"
  layer_param {
    idx:373
    in_0 {name:"Node_368:0",dtype:float32,shape:[1, 48, 35, 35]}
    in_1 {name:"Node_369:0",dtype:float32,shape:[48]}
    in_2 {name:"Node_370:0",dtype:float32,shape:[48]}
    in_3 {name:"Node_371:0",dtype:float32,shape:[48]}
    in_4 {name:"Node_372:0",dtype:float32,shape:[48]}
    out_0 {name:"Node_373:0",dtype:float32,shape:[1, 48, 35, 35]}
    out_1 {name:"Node_373:1",dtype:float32,shape:[48]}
    out_2 {name:"Node_373:2",dtype:float32,shape:[48]}
    attrs {'axis': 1, 'epsilon': 0.0010000000474974513, 'center': 1, 'scale': 0}
  }
}
layer {
  name:"Node_375"
  type:"nn_relu"
  top:"Node_375"
  bottom:"Node_373"
  layer_param {
    idx:375
    in_0 {name:"Node_373:0",dtype:float32,shape:[1, 48, 35, 35]}
    out_0 {name:"Node_375:0",dtype:float32,shape:[1, 48, 35, 35]}
  }
}
layer {
  name:"Node_377"
  type:"const"
  top:"Node_377"
  layer_param {
    idx:377
    out_0 {name:"Node_377:0",dtype:float32,shape:[5, 5, 48, 64]}
  }
}
layer {
  name:"Node_378"
  type:"layout_transform"
  top:"Node_378"
  bottom:"Node_377"
  layer_param {
    idx:378
    in_0 {name:"Node_377:0",dtype:float32,shape:[5, 5, 48, 64]}
    out_0 {name:"Node_378:0",dtype:float32,shape:[64, 48, 5, 5]}
    attrs {'src_layout': 'HWIO', 'dst_layout': 'OIHW'}
  }
}
layer {
  name:"Node_379"
  type:"nn_conv2d"
  top:"Node_379"
  bottom:"Node_375"
  bottom:"Node_378"
  layer_param {
    idx:379
    in_0 {name:"Node_375:0",dtype:float32,shape:[1, 48, 35, 35]}
    in_1 {name:"Node_378:0",dtype:float32,shape:[64, 48, 5, 5]}
    out_0 {name:"Node_379:0",dtype:float32,shape:[1, 64, 35, 35]}
    attrs {'strides': [1, 1], 'padding': [2, 2, 2, 2], 'dilation': [1, 1], 'groups': 1, 'channels': 64, 'kernel_size': [5, 5], 'data_layout': 'NCHW', 'kernel_layout': 'OIHW', 'out_layout': '', 'out_dtype': ''}
  }
}
layer {
  name:"Node_380"
  type:"const"
  top:"Node_380"
  layer_param {
    idx:380
    out_0 {name:"Node_380:0",dtype:float32,shape:[64]}
  }
}
layer {
  name:"Node_381"
  type:"const"
  top:"Node_381"
  layer_param {
    idx:381
    out_0 {name:"Node_381:0",dtype:float32,shape:[64]}
  }
}
layer {
  name:"Node_382"
  type:"const"
  top:"Node_382"
  layer_param {
    idx:382
    out_0 {name:"Node_382:0",dtype:float32,shape:[64]}
  }
}
layer {
  name:"Node_383"
  type:"const"
  top:"Node_383"
  layer_param {
    idx:383
    out_0 {name:"Node_383:0",dtype:float32,shape:[64]}
  }
}
layer {
  name:"Node_384"
  type:"nn_batch_norm"
  top:"Node_384"
  bottom:"Node_379"
  bottom:"Node_380"
  bottom:"Node_381"
  bottom:"Node_382"
  bottom:"Node_383"
  layer_param {
    idx:384
    in_0 {name:"Node_379:0",dtype:float32,shape:[1, 64, 35, 35]}
    in_1 {name:"Node_380:0",dtype:float32,shape:[64]}
    in_2 {name:"Node_381:0",dtype:float32,shape:[64]}
    in_3 {name:"Node_382:0",dtype:float32,shape:[64]}
    in_4 {name:"Node_383:0",dtype:float32,shape:[64]}
    out_0 {name:"Node_384:0",dtype:float32,shape:[1, 64, 35, 35]}
    out_1 {name:"Node_384:1",dtype:float32,shape:[64]}
    out_2 {name:"Node_384:2",dtype:float32,shape:[64]}
    attrs {'axis': 1, 'epsilon': 0.0010000000474974513, 'center': 1, 'scale': 0}
  }
}
layer {
  name:"Node_386"
  type:"nn_relu"
  top:"Node_386"
  bottom:"Node_384"
  layer_param {
    idx:386
    in_0 {name:"Node_384:0",dtype:float32,shape:[1, 64, 35, 35]}
    out_0 {name:"Node_386:0",dtype:float32,shape:[1, 64, 35, 35]}
  }
}
layer {
  name:"Node_398"
  type:"const"
  top:"Node_398"
  layer_param {
    idx:398
    out_0 {name:"Node_398:0",dtype:float32,shape:[1, 1, 288, 64]}
  }
}
layer {
  name:"Node_399"
  type:"layout_transform"
  top:"Node_399"
  bottom:"Node_398"
  layer_param {
    idx:399
    in_0 {name:"Node_398:0",dtype:float32,shape:[1, 1, 288, 64]}
    out_0 {name:"Node_399:0",dtype:float32,shape:[64, 288, 1, 1]}
    attrs {'src_layout': 'HWIO', 'dst_layout': 'OIHW'}
  }
}
layer {
  name:"Node_400"
  type:"nn_conv2d"
  top:"Node_400"
  bottom:"Node_346"
  bottom:"Node_399"
  layer_param {
    idx:400
    in_0 {name:"Node_346:0",dtype:float32,shape:[1, 288, 35, 35]}
    in_1 {name:"Node_399:0",dtype:float32,shape:[64, 288, 1, 1]}
    out_0 {name:"Node_400:0",dtype:float32,shape:[1, 64, 35, 35]}
    attrs {'strides': [1, 1], 'padding': [0, 0, 0, 0], 'dilation': [1, 1], 'groups': 1, 'channels': 64, 'kernel_size': [1, 1], 'data_layout': 'NCHW', 'kernel_layout': 'OIHW', 'out_layout': '', 'out_dtype': ''}
  }
}
layer {
  name:"Node_401"
  type:"const"
  top:"Node_401"
  layer_param {
    idx:401
    out_0 {name:"Node_401:0",dtype:float32,shape:[64]}
  }
}
layer {
  name:"Node_402"
  type:"const"
  top:"Node_402"
  layer_param {
    idx:402
    out_0 {name:"Node_402:0",dtype:float32,shape:[64]}
  }
}
layer {
  name:"Node_403"
  type:"const"
  top:"Node_403"
  layer_param {
    idx:403
    out_0 {name:"Node_403:0",dtype:float32,shape:[64]}
  }
}
layer {
  name:"Node_404"
  type:"const"
  top:"Node_404"
  layer_param {
    idx:404
    out_0 {name:"Node_404:0",dtype:float32,shape:[64]}
  }
}
layer {
  name:"Node_405"
  type:"nn_batch_norm"
  top:"Node_405"
  bottom:"Node_400"
  bottom:"Node_401"
  bottom:"Node_402"
  bottom:"Node_403"
  bottom:"Node_404"
  layer_param {
    idx:405
    in_0 {name:"Node_400:0",dtype:float32,shape:[1, 64, 35, 35]}
    in_1 {name:"Node_401:0",dtype:float32,shape:[64]}
    in_2 {name:"Node_402:0",dtype:float32,shape:[64]}
    in_3 {name:"Node_403:0",dtype:float32,shape:[64]}
    in_4 {name:"Node_404:0",dtype:float32,shape:[64]}
    out_0 {name:"Node_405:0",dtype:float32,shape:[1, 64, 35, 35]}
    out_1 {name:"Node_405:1",dtype:float32,shape:[64]}
    out_2 {name:"Node_405:2",dtype:float32,shape:[64]}
    attrs {'axis': 1, 'epsilon': 0.0010000000474974513, 'center': 1, 'scale': 0}
  }
}
layer {
  name:"Node_407"
  type:"nn_relu"
  top:"Node_407"
  bottom:"Node_405"
  layer_param {
    idx:407
    in_0 {name:"Node_405:0",dtype:float32,shape:[1, 64, 35, 35]}
    out_0 {name:"Node_407:0",dtype:float32,shape:[1, 64, 35, 35]}
  }
}
layer {
  name:"Node_409"
  type:"const"
  top:"Node_409"
  layer_param {
    idx:409
    out_0 {name:"Node_409:0",dtype:float32,shape:[3, 3, 64, 96]}
  }
}
layer {
  name:"Node_410"
  type:"layout_transform"
  top:"Node_410"
  bottom:"Node_409"
  layer_param {
    idx:410
    in_0 {name:"Node_409:0",dtype:float32,shape:[3, 3, 64, 96]}
    out_0 {name:"Node_410:0",dtype:float32,shape:[96, 64, 3, 3]}
    attrs {'src_layout': 'HWIO', 'dst_layout': 'OIHW'}
  }
}
layer {
  name:"Node_411"
  type:"nn_conv2d"
  top:"Node_411"
  bottom:"Node_407"
  bottom:"Node_410"
  layer_param {
    idx:411
    in_0 {name:"Node_407:0",dtype:float32,shape:[1, 64, 35, 35]}
    in_1 {name:"Node_410:0",dtype:float32,shape:[96, 64, 3, 3]}
    out_0 {name:"Node_411:0",dtype:float32,shape:[1, 96, 35, 35]}
    attrs {'strides': [1, 1], 'padding': [1, 1, 1, 1], 'dilation': [1, 1], 'groups': 1, 'channels': 96, 'kernel_size': [3, 3], 'data_layout': 'NCHW', 'kernel_layout': 'OIHW', 'out_layout': '', 'out_dtype': ''}
  }
}
layer {
  name:"Node_412"
  type:"const"
  top:"Node_412"
  layer_param {
    idx:412
    out_0 {name:"Node_412:0",dtype:float32,shape:[96]}
  }
}
layer {
  name:"Node_413"
  type:"const"
  top:"Node_413"
  layer_param {
    idx:413
    out_0 {name:"Node_413:0",dtype:float32,shape:[96]}
  }
}
layer {
  name:"Node_414"
  type:"const"
  top:"Node_414"
  layer_param {
    idx:414
    out_0 {name:"Node_414:0",dtype:float32,shape:[96]}
  }
}
layer {
  name:"Node_415"
  type:"const"
  top:"Node_415"
  layer_param {
    idx:415
    out_0 {name:"Node_415:0",dtype:float32,shape:[96]}
  }
}
layer {
  name:"Node_416"
  type:"nn_batch_norm"
  top:"Node_416"
  bottom:"Node_411"
  bottom:"Node_412"
  bottom:"Node_413"
  bottom:"Node_414"
  bottom:"Node_415"
  layer_param {
    idx:416
    in_0 {name:"Node_411:0",dtype:float32,shape:[1, 96, 35, 35]}
    in_1 {name:"Node_412:0",dtype:float32,shape:[96]}
    in_2 {name:"Node_413:0",dtype:float32,shape:[96]}
    in_3 {name:"Node_414:0",dtype:float32,shape:[96]}
    in_4 {name:"Node_415:0",dtype:float32,shape:[96]}
    out_0 {name:"Node_416:0",dtype:float32,shape:[1, 96, 35, 35]}
    out_1 {name:"Node_416:1",dtype:float32,shape:[96]}
    out_2 {name:"Node_416:2",dtype:float32,shape:[96]}
    attrs {'axis': 1, 'epsilon': 0.0010000000474974513, 'center': 1, 'scale': 0}
  }
}
layer {
  name:"Node_418"
  type:"nn_relu"
  top:"Node_418"
  bottom:"Node_416"
  layer_param {
    idx:418
    in_0 {name:"Node_416:0",dtype:float32,shape:[1, 96, 35, 35]}
    out_0 {name:"Node_418:0",dtype:float32,shape:[1, 96, 35, 35]}
  }
}
layer {
  name:"Node_420"
  type:"const"
  top:"Node_420"
  layer_param {
    idx:420
    out_0 {name:"Node_420:0",dtype:float32,shape:[3, 3, 96, 96]}
  }
}
layer {
  name:"Node_421"
  type:"layout_transform"
  top:"Node_421"
  bottom:"Node_420"
  layer_param {
    idx:421
    in_0 {name:"Node_420:0",dtype:float32,shape:[3, 3, 96, 96]}
    out_0 {name:"Node_421:0",dtype:float32,shape:[96, 96, 3, 3]}
    attrs {'src_layout': 'HWIO', 'dst_layout': 'OIHW'}
  }
}
layer {
  name:"Node_422"
  type:"nn_conv2d"
  top:"Node_422"
  bottom:"Node_418"
  bottom:"Node_421"
  layer_param {
    idx:422
    in_0 {name:"Node_418:0",dtype:float32,shape:[1, 96, 35, 35]}
    in_1 {name:"Node_421:0",dtype:float32,shape:[96, 96, 3, 3]}
    out_0 {name:"Node_422:0",dtype:float32,shape:[1, 96, 35, 35]}
    attrs {'strides': [1, 1], 'padding': [1, 1, 1, 1], 'dilation': [1, 1], 'groups': 1, 'channels': 96, 'kernel_size': [3, 3], 'data_layout': 'NCHW', 'kernel_layout': 'OIHW', 'out_layout': '', 'out_dtype': ''}
  }
}
layer {
  name:"Node_423"
  type:"const"
  top:"Node_423"
  layer_param {
    idx:423
    out_0 {name:"Node_423:0",dtype:float32,shape:[96]}
  }
}
layer {
  name:"Node_424"
  type:"const"
  top:"Node_424"
  layer_param {
    idx:424
    out_0 {name:"Node_424:0",dtype:float32,shape:[96]}
  }
}
layer {
  name:"Node_425"
  type:"const"
  top:"Node_425"
  layer_param {
    idx:425
    out_0 {name:"Node_425:0",dtype:float32,shape:[96]}
  }
}
layer {
  name:"Node_426"
  type:"const"
  top:"Node_426"
  layer_param {
    idx:426
    out_0 {name:"Node_426:0",dtype:float32,shape:[96]}
  }
}
layer {
  name:"Node_427"
  type:"nn_batch_norm"
  top:"Node_427"
  bottom:"Node_422"
  bottom:"Node_423"
  bottom:"Node_424"
  bottom:"Node_425"
  bottom:"Node_426"
  layer_param {
    idx:427
    in_0 {name:"Node_422:0",dtype:float32,shape:[1, 96, 35, 35]}
    in_1 {name:"Node_423:0",dtype:float32,shape:[96]}
    in_2 {name:"Node_424:0",dtype:float32,shape:[96]}
    in_3 {name:"Node_425:0",dtype:float32,shape:[96]}
    in_4 {name:"Node_426:0",dtype:float32,shape:[96]}
    out_0 {name:"Node_427:0",dtype:float32,shape:[1, 96, 35, 35]}
    out_1 {name:"Node_427:1",dtype:float32,shape:[96]}
    out_2 {name:"Node_427:2",dtype:float32,shape:[96]}
    attrs {'axis': 1, 'epsilon': 0.0010000000474974513, 'center': 1, 'scale': 0}
  }
}
layer {
  name:"Node_429"
  type:"nn_relu"
  top:"Node_429"
  bottom:"Node_427"
  layer_param {
    idx:429
    in_0 {name:"Node_427:0",dtype:float32,shape:[1, 96, 35, 35]}
    out_0 {name:"Node_429:0",dtype:float32,shape:[1, 96, 35, 35]}
  }
}
layer {
  name:"Node_435"
  type:"nn_avg_pool2d"
  top:"Node_435"
  bottom:"Node_346"
  layer_param {
    idx:435
    in_0 {name:"Node_346:0",dtype:float32,shape:[1, 288, 35, 35]}
    out_0 {name:"Node_435:0",dtype:float32,shape:[1, 288, 35, 35]}
    attrs {'pool_size': [3, 3], 'strides': [1, 1], 'dilation': [1, 1], 'padding': [1, 1, 1, 1], 'layout': 'NCHW', 'ceil_mode': 0, 'count_include_pad': 0}
  }
}
layer {
  name:"Node_437"
  type:"const"
  top:"Node_437"
  layer_param {
    idx:437
    out_0 {name:"Node_437:0",dtype:float32,shape:[1, 1, 288, 64]}
  }
}
layer {
  name:"Node_438"
  type:"layout_transform"
  top:"Node_438"
  bottom:"Node_437"
  layer_param {
    idx:438
    in_0 {name:"Node_437:0",dtype:float32,shape:[1, 1, 288, 64]}
    out_0 {name:"Node_438:0",dtype:float32,shape:[64, 288, 1, 1]}
    attrs {'src_layout': 'HWIO', 'dst_layout': 'OIHW'}
  }
}
layer {
  name:"Node_439"
  type:"nn_conv2d"
  top:"Node_439"
  bottom:"Node_435"
  bottom:"Node_438"
  layer_param {
    idx:439
    in_0 {name:"Node_435:0",dtype:float32,shape:[1, 288, 35, 35]}
    in_1 {name:"Node_438:0",dtype:float32,shape:[64, 288, 1, 1]}
    out_0 {name:"Node_439:0",dtype:float32,shape:[1, 64, 35, 35]}
    attrs {'strides': [1, 1], 'padding': [0, 0, 0, 0], 'dilation': [1, 1], 'groups': 1, 'channels': 64, 'kernel_size': [1, 1], 'data_layout': 'NCHW', 'kernel_layout': 'OIHW', 'out_layout': '', 'out_dtype': ''}
  }
}
layer {
  name:"Node_440"
  type:"const"
  top:"Node_440"
  layer_param {
    idx:440
    out_0 {name:"Node_440:0",dtype:float32,shape:[64]}
  }
}
layer {
  name:"Node_441"
  type:"const"
  top:"Node_441"
  layer_param {
    idx:441
    out_0 {name:"Node_441:0",dtype:float32,shape:[64]}
  }
}
layer {
  name:"Node_442"
  type:"const"
  top:"Node_442"
  layer_param {
    idx:442
    out_0 {name:"Node_442:0",dtype:float32,shape:[64]}
  }
}
layer {
  name:"Node_443"
  type:"const"
  top:"Node_443"
  layer_param {
    idx:443
    out_0 {name:"Node_443:0",dtype:float32,shape:[64]}
  }
}
layer {
  name:"Node_444"
  type:"nn_batch_norm"
  top:"Node_444"
  bottom:"Node_439"
  bottom:"Node_440"
  bottom:"Node_441"
  bottom:"Node_442"
  bottom:"Node_443"
  layer_param {
    idx:444
    in_0 {name:"Node_439:0",dtype:float32,shape:[1, 64, 35, 35]}
    in_1 {name:"Node_440:0",dtype:float32,shape:[64]}
    in_2 {name:"Node_441:0",dtype:float32,shape:[64]}
    in_3 {name:"Node_442:0",dtype:float32,shape:[64]}
    in_4 {name:"Node_443:0",dtype:float32,shape:[64]}
    out_0 {name:"Node_444:0",dtype:float32,shape:[1, 64, 35, 35]}
    out_1 {name:"Node_444:1",dtype:float32,shape:[64]}
    out_2 {name:"Node_444:2",dtype:float32,shape:[64]}
    attrs {'axis': 1, 'epsilon': 0.0010000000474974513, 'center': 1, 'scale': 0}
  }
}
layer {
  name:"Node_446"
  type:"nn_relu"
  top:"Node_446"
  bottom:"Node_444"
  layer_param {
    idx:446
    in_0 {name:"Node_444:0",dtype:float32,shape:[1, 64, 35, 35]}
    out_0 {name:"Node_446:0",dtype:float32,shape:[1, 64, 35, 35]}
  }
}
layer {
  name:"Node_448"
  type:"concatenate"
  top:"Node_448"
  bottom:"Node_357"
  bottom:"Node_386"
  bottom:"Node_429"
  bottom:"Node_446"
  layer_param {
    idx:448
    in_0 {name:"Node_357:0",dtype:float32,shape:[1, 64, 35, 35]}
    in_1 {name:"Node_386:0",dtype:float32,shape:[1, 64, 35, 35]}
    in_2 {name:"Node_429:0",dtype:float32,shape:[1, 96, 35, 35]}
    in_3 {name:"Node_446:0",dtype:float32,shape:[1, 64, 35, 35]}
    out_0 {name:"Node_448:0",dtype:float32,shape:[1, 288, 35, 35]}
    attrs {'axis': 1}
  }
}
layer {
  name:"Node_450"
  type:"const"
  top:"Node_450"
  layer_param {
    idx:450
    out_0 {name:"Node_450:0",dtype:float32,shape:[3, 3, 288, 384]}
  }
}
layer {
  name:"Node_451"
  type:"layout_transform"
  top:"Node_451"
  bottom:"Node_450"
  layer_param {
    idx:451
    in_0 {name:"Node_450:0",dtype:float32,shape:[3, 3, 288, 384]}
    out_0 {name:"Node_451:0",dtype:float32,shape:[384, 288, 3, 3]}
    attrs {'src_layout': 'HWIO', 'dst_layout': 'OIHW'}
  }
}
layer {
  name:"Node_452"
  type:"nn_conv2d"
  top:"Node_452"
  bottom:"Node_448"
  bottom:"Node_451"
  layer_param {
    idx:452
    in_0 {name:"Node_448:0",dtype:float32,shape:[1, 288, 35, 35]}
    in_1 {name:"Node_451:0",dtype:float32,shape:[384, 288, 3, 3]}
    out_0 {name:"Node_452:0",dtype:float32,shape:[1, 384, 17, 17]}
    attrs {'strides': [2, 2], 'padding': [0, 0, 0, 0], 'dilation': [1, 1], 'groups': 1, 'channels': 384, 'kernel_size': [3, 3], 'data_layout': 'NCHW', 'kernel_layout': 'OIHW', 'out_layout': '', 'out_dtype': ''}
  }
}
layer {
  name:"Node_453"
  type:"const"
  top:"Node_453"
  layer_param {
    idx:453
    out_0 {name:"Node_453:0",dtype:float32,shape:[384]}
  }
}
layer {
  name:"Node_454"
  type:"const"
  top:"Node_454"
  layer_param {
    idx:454
    out_0 {name:"Node_454:0",dtype:float32,shape:[384]}
  }
}
layer {
  name:"Node_455"
  type:"const"
  top:"Node_455"
  layer_param {
    idx:455
    out_0 {name:"Node_455:0",dtype:float32,shape:[384]}
  }
}
layer {
  name:"Node_456"
  type:"const"
  top:"Node_456"
  layer_param {
    idx:456
    out_0 {name:"Node_456:0",dtype:float32,shape:[384]}
  }
}
layer {
  name:"Node_457"
  type:"nn_batch_norm"
  top:"Node_457"
  bottom:"Node_452"
  bottom:"Node_453"
  bottom:"Node_454"
  bottom:"Node_455"
  bottom:"Node_456"
  layer_param {
    idx:457
    in_0 {name:"Node_452:0",dtype:float32,shape:[1, 384, 17, 17]}
    in_1 {name:"Node_453:0",dtype:float32,shape:[384]}
    in_2 {name:"Node_454:0",dtype:float32,shape:[384]}
    in_3 {name:"Node_455:0",dtype:float32,shape:[384]}
    in_4 {name:"Node_456:0",dtype:float32,shape:[384]}
    out_0 {name:"Node_457:0",dtype:float32,shape:[1, 384, 17, 17]}
    out_1 {name:"Node_457:1",dtype:float32,shape:[384]}
    out_2 {name:"Node_457:2",dtype:float32,shape:[384]}
    attrs {'axis': 1, 'epsilon': 0.0010000000474974513, 'center': 1, 'scale': 0}
  }
}
layer {
  name:"Node_459"
  type:"nn_relu"
  top:"Node_459"
  bottom:"Node_457"
  layer_param {
    idx:459
    in_0 {name:"Node_457:0",dtype:float32,shape:[1, 384, 17, 17]}
    out_0 {name:"Node_459:0",dtype:float32,shape:[1, 384, 17, 17]}
  }
}
layer {
  name:"Node_471"
  type:"const"
  top:"Node_471"
  layer_param {
    idx:471
    out_0 {name:"Node_471:0",dtype:float32,shape:[1, 1, 288, 64]}
  }
}
layer {
  name:"Node_472"
  type:"layout_transform"
  top:"Node_472"
  bottom:"Node_471"
  layer_param {
    idx:472
    in_0 {name:"Node_471:0",dtype:float32,shape:[1, 1, 288, 64]}
    out_0 {name:"Node_472:0",dtype:float32,shape:[64, 288, 1, 1]}
    attrs {'src_layout': 'HWIO', 'dst_layout': 'OIHW'}
  }
}
layer {
  name:"Node_473"
  type:"nn_conv2d"
  top:"Node_473"
  bottom:"Node_448"
  bottom:"Node_472"
  layer_param {
    idx:473
    in_0 {name:"Node_448:0",dtype:float32,shape:[1, 288, 35, 35]}
    in_1 {name:"Node_472:0",dtype:float32,shape:[64, 288, 1, 1]}
    out_0 {name:"Node_473:0",dtype:float32,shape:[1, 64, 35, 35]}
    attrs {'strides': [1, 1], 'padding': [0, 0, 0, 0], 'dilation': [1, 1], 'groups': 1, 'channels': 64, 'kernel_size': [1, 1], 'data_layout': 'NCHW', 'kernel_layout': 'OIHW', 'out_layout': '', 'out_dtype': ''}
  }
}
layer {
  name:"Node_474"
  type:"const"
  top:"Node_474"
  layer_param {
    idx:474
    out_0 {name:"Node_474:0",dtype:float32,shape:[64]}
  }
}
layer {
  name:"Node_475"
  type:"const"
  top:"Node_475"
  layer_param {
    idx:475
    out_0 {name:"Node_475:0",dtype:float32,shape:[64]}
  }
}
layer {
  name:"Node_476"
  type:"const"
  top:"Node_476"
  layer_param {
    idx:476
    out_0 {name:"Node_476:0",dtype:float32,shape:[64]}
  }
}
layer {
  name:"Node_477"
  type:"const"
  top:"Node_477"
  layer_param {
    idx:477
    out_0 {name:"Node_477:0",dtype:float32,shape:[64]}
  }
}
layer {
  name:"Node_478"
  type:"nn_batch_norm"
  top:"Node_478"
  bottom:"Node_473"
  bottom:"Node_474"
  bottom:"Node_475"
  bottom:"Node_476"
  bottom:"Node_477"
  layer_param {
    idx:478
    in_0 {name:"Node_473:0",dtype:float32,shape:[1, 64, 35, 35]}
    in_1 {name:"Node_474:0",dtype:float32,shape:[64]}
    in_2 {name:"Node_475:0",dtype:float32,shape:[64]}
    in_3 {name:"Node_476:0",dtype:float32,shape:[64]}
    in_4 {name:"Node_477:0",dtype:float32,shape:[64]}
    out_0 {name:"Node_478:0",dtype:float32,shape:[1, 64, 35, 35]}
    out_1 {name:"Node_478:1",dtype:float32,shape:[64]}
    out_2 {name:"Node_478:2",dtype:float32,shape:[64]}
    attrs {'axis': 1, 'epsilon': 0.0010000000474974513, 'center': 1, 'scale': 0}
  }
}
layer {
  name:"Node_480"
  type:"nn_relu"
  top:"Node_480"
  bottom:"Node_478"
  layer_param {
    idx:480
    in_0 {name:"Node_478:0",dtype:float32,shape:[1, 64, 35, 35]}
    out_0 {name:"Node_480:0",dtype:float32,shape:[1, 64, 35, 35]}
  }
}
layer {
  name:"Node_482"
  type:"const"
  top:"Node_482"
  layer_param {
    idx:482
    out_0 {name:"Node_482:0",dtype:float32,shape:[3, 3, 64, 96]}
  }
}
layer {
  name:"Node_483"
  type:"layout_transform"
  top:"Node_483"
  bottom:"Node_482"
  layer_param {
    idx:483
    in_0 {name:"Node_482:0",dtype:float32,shape:[3, 3, 64, 96]}
    out_0 {name:"Node_483:0",dtype:float32,shape:[96, 64, 3, 3]}
    attrs {'src_layout': 'HWIO', 'dst_layout': 'OIHW'}
  }
}
layer {
  name:"Node_484"
  type:"nn_conv2d"
  top:"Node_484"
  bottom:"Node_480"
  bottom:"Node_483"
  layer_param {
    idx:484
    in_0 {name:"Node_480:0",dtype:float32,shape:[1, 64, 35, 35]}
    in_1 {name:"Node_483:0",dtype:float32,shape:[96, 64, 3, 3]}
    out_0 {name:"Node_484:0",dtype:float32,shape:[1, 96, 35, 35]}
    attrs {'strides': [1, 1], 'padding': [1, 1, 1, 1], 'dilation': [1, 1], 'groups': 1, 'channels': 96, 'kernel_size': [3, 3], 'data_layout': 'NCHW', 'kernel_layout': 'OIHW', 'out_layout': '', 'out_dtype': ''}
  }
}
layer {
  name:"Node_485"
  type:"const"
  top:"Node_485"
  layer_param {
    idx:485
    out_0 {name:"Node_485:0",dtype:float32,shape:[96]}
  }
}
layer {
  name:"Node_486"
  type:"const"
  top:"Node_486"
  layer_param {
    idx:486
    out_0 {name:"Node_486:0",dtype:float32,shape:[96]}
  }
}
layer {
  name:"Node_487"
  type:"const"
  top:"Node_487"
  layer_param {
    idx:487
    out_0 {name:"Node_487:0",dtype:float32,shape:[96]}
  }
}
layer {
  name:"Node_488"
  type:"const"
  top:"Node_488"
  layer_param {
    idx:488
    out_0 {name:"Node_488:0",dtype:float32,shape:[96]}
  }
}
layer {
  name:"Node_489"
  type:"nn_batch_norm"
  top:"Node_489"
  bottom:"Node_484"
  bottom:"Node_485"
  bottom:"Node_486"
  bottom:"Node_487"
  bottom:"Node_488"
  layer_param {
    idx:489
    in_0 {name:"Node_484:0",dtype:float32,shape:[1, 96, 35, 35]}
    in_1 {name:"Node_485:0",dtype:float32,shape:[96]}
    in_2 {name:"Node_486:0",dtype:float32,shape:[96]}
    in_3 {name:"Node_487:0",dtype:float32,shape:[96]}
    in_4 {name:"Node_488:0",dtype:float32,shape:[96]}
    out_0 {name:"Node_489:0",dtype:float32,shape:[1, 96, 35, 35]}
    out_1 {name:"Node_489:1",dtype:float32,shape:[96]}
    out_2 {name:"Node_489:2",dtype:float32,shape:[96]}
    attrs {'axis': 1, 'epsilon': 0.0010000000474974513, 'center': 1, 'scale': 0}
  }
}
layer {
  name:"Node_491"
  type:"nn_relu"
  top:"Node_491"
  bottom:"Node_489"
  layer_param {
    idx:491
    in_0 {name:"Node_489:0",dtype:float32,shape:[1, 96, 35, 35]}
    out_0 {name:"Node_491:0",dtype:float32,shape:[1, 96, 35, 35]}
  }
}
layer {
  name:"Node_493"
  type:"const"
  top:"Node_493"
  layer_param {
    idx:493
    out_0 {name:"Node_493:0",dtype:float32,shape:[3, 3, 96, 96]}
  }
}
layer {
  name:"Node_494"
  type:"layout_transform"
  top:"Node_494"
  bottom:"Node_493"
  layer_param {
    idx:494
    in_0 {name:"Node_493:0",dtype:float32,shape:[3, 3, 96, 96]}
    out_0 {name:"Node_494:0",dtype:float32,shape:[96, 96, 3, 3]}
    attrs {'src_layout': 'HWIO', 'dst_layout': 'OIHW'}
  }
}
layer {
  name:"Node_495"
  type:"nn_conv2d"
  top:"Node_495"
  bottom:"Node_491"
  bottom:"Node_494"
  layer_param {
    idx:495
    in_0 {name:"Node_491:0",dtype:float32,shape:[1, 96, 35, 35]}
    in_1 {name:"Node_494:0",dtype:float32,shape:[96, 96, 3, 3]}
    out_0 {name:"Node_495:0",dtype:float32,shape:[1, 96, 17, 17]}
    attrs {'strides': [2, 2], 'padding': [0, 0, 0, 0], 'dilation': [1, 1], 'groups': 1, 'channels': 96, 'kernel_size': [3, 3], 'data_layout': 'NCHW', 'kernel_layout': 'OIHW', 'out_layout': '', 'out_dtype': ''}
  }
}
layer {
  name:"Node_496"
  type:"const"
  top:"Node_496"
  layer_param {
    idx:496
    out_0 {name:"Node_496:0",dtype:float32,shape:[96]}
  }
}
layer {
  name:"Node_497"
  type:"const"
  top:"Node_497"
  layer_param {
    idx:497
    out_0 {name:"Node_497:0",dtype:float32,shape:[96]}
  }
}
layer {
  name:"Node_498"
  type:"const"
  top:"Node_498"
  layer_param {
    idx:498
    out_0 {name:"Node_498:0",dtype:float32,shape:[96]}
  }
}
layer {
  name:"Node_499"
  type:"const"
  top:"Node_499"
  layer_param {
    idx:499
    out_0 {name:"Node_499:0",dtype:float32,shape:[96]}
  }
}
layer {
  name:"Node_500"
  type:"nn_batch_norm"
  top:"Node_500"
  bottom:"Node_495"
  bottom:"Node_496"
  bottom:"Node_497"
  bottom:"Node_498"
  bottom:"Node_499"
  layer_param {
    idx:500
    in_0 {name:"Node_495:0",dtype:float32,shape:[1, 96, 17, 17]}
    in_1 {name:"Node_496:0",dtype:float32,shape:[96]}
    in_2 {name:"Node_497:0",dtype:float32,shape:[96]}
    in_3 {name:"Node_498:0",dtype:float32,shape:[96]}
    in_4 {name:"Node_499:0",dtype:float32,shape:[96]}
    out_0 {name:"Node_500:0",dtype:float32,shape:[1, 96, 17, 17]}
    out_1 {name:"Node_500:1",dtype:float32,shape:[96]}
    out_2 {name:"Node_500:2",dtype:float32,shape:[96]}
    attrs {'axis': 1, 'epsilon': 0.0010000000474974513, 'center': 1, 'scale': 0}
  }
}
layer {
  name:"Node_502"
  type:"nn_relu"
  top:"Node_502"
  bottom:"Node_500"
  layer_param {
    idx:502
    in_0 {name:"Node_500:0",dtype:float32,shape:[1, 96, 17, 17]}
    out_0 {name:"Node_502:0",dtype:float32,shape:[1, 96, 17, 17]}
  }
}
layer {
  name:"Node_505"
  type:"nn_max_pool2d"
  top:"Node_505"
  bottom:"Node_448"
  layer_param {
    idx:505
    in_0 {name:"Node_448:0",dtype:float32,shape:[1, 288, 35, 35]}
    out_0 {name:"Node_505:0",dtype:float32,shape:[1, 288, 17, 17]}
    attrs {'pool_size': [3, 3], 'strides': [2, 2], 'dilation': [1, 1], 'padding': [0, 0, 0, 0], 'layout': 'NCHW', 'ceil_mode': 0}
  }
}
layer {
  name:"Node_507"
  type:"concatenate"
  top:"Node_507"
  bottom:"Node_459"
  bottom:"Node_502"
  bottom:"Node_505"
  layer_param {
    idx:507
    in_0 {name:"Node_459:0",dtype:float32,shape:[1, 384, 17, 17]}
    in_1 {name:"Node_502:0",dtype:float32,shape:[1, 96, 17, 17]}
    in_2 {name:"Node_505:0",dtype:float32,shape:[1, 288, 17, 17]}
    out_0 {name:"Node_507:0",dtype:float32,shape:[1, 768, 17, 17]}
    attrs {'axis': 1}
  }
}
layer {
  name:"Node_509"
  type:"const"
  top:"Node_509"
  layer_param {
    idx:509
    out_0 {name:"Node_509:0",dtype:float32,shape:[1, 1, 768, 192]}
  }
}
layer {
  name:"Node_510"
  type:"layout_transform"
  top:"Node_510"
  bottom:"Node_509"
  layer_param {
    idx:510
    in_0 {name:"Node_509:0",dtype:float32,shape:[1, 1, 768, 192]}
    out_0 {name:"Node_510:0",dtype:float32,shape:[192, 768, 1, 1]}
    attrs {'src_layout': 'HWIO', 'dst_layout': 'OIHW'}
  }
}
layer {
  name:"Node_511"
  type:"nn_conv2d"
  top:"Node_511"
  bottom:"Node_507"
  bottom:"Node_510"
  layer_param {
    idx:511
    in_0 {name:"Node_507:0",dtype:float32,shape:[1, 768, 17, 17]}
    in_1 {name:"Node_510:0",dtype:float32,shape:[192, 768, 1, 1]}
    out_0 {name:"Node_511:0",dtype:float32,shape:[1, 192, 17, 17]}
    attrs {'strides': [1, 1], 'padding': [0, 0, 0, 0], 'dilation': [1, 1], 'groups': 1, 'channels': 192, 'kernel_size': [1, 1], 'data_layout': 'NCHW', 'kernel_layout': 'OIHW', 'out_layout': '', 'out_dtype': ''}
  }
}
layer {
  name:"Node_512"
  type:"const"
  top:"Node_512"
  layer_param {
    idx:512
    out_0 {name:"Node_512:0",dtype:float32,shape:[192]}
  }
}
layer {
  name:"Node_513"
  type:"const"
  top:"Node_513"
  layer_param {
    idx:513
    out_0 {name:"Node_513:0",dtype:float32,shape:[192]}
  }
}
layer {
  name:"Node_514"
  type:"const"
  top:"Node_514"
  layer_param {
    idx:514
    out_0 {name:"Node_514:0",dtype:float32,shape:[192]}
  }
}
layer {
  name:"Node_515"
  type:"const"
  top:"Node_515"
  layer_param {
    idx:515
    out_0 {name:"Node_515:0",dtype:float32,shape:[192]}
  }
}
layer {
  name:"Node_516"
  type:"nn_batch_norm"
  top:"Node_516"
  bottom:"Node_511"
  bottom:"Node_512"
  bottom:"Node_513"
  bottom:"Node_514"
  bottom:"Node_515"
  layer_param {
    idx:516
    in_0 {name:"Node_511:0",dtype:float32,shape:[1, 192, 17, 17]}
    in_1 {name:"Node_512:0",dtype:float32,shape:[192]}
    in_2 {name:"Node_513:0",dtype:float32,shape:[192]}
    in_3 {name:"Node_514:0",dtype:float32,shape:[192]}
    in_4 {name:"Node_515:0",dtype:float32,shape:[192]}
    out_0 {name:"Node_516:0",dtype:float32,shape:[1, 192, 17, 17]}
    out_1 {name:"Node_516:1",dtype:float32,shape:[192]}
    out_2 {name:"Node_516:2",dtype:float32,shape:[192]}
    attrs {'axis': 1, 'epsilon': 0.0010000000474974513, 'center': 1, 'scale': 0}
  }
}
layer {
  name:"Node_518"
  type:"nn_relu"
  top:"Node_518"
  bottom:"Node_516"
  layer_param {
    idx:518
    in_0 {name:"Node_516:0",dtype:float32,shape:[1, 192, 17, 17]}
    out_0 {name:"Node_518:0",dtype:float32,shape:[1, 192, 17, 17]}
  }
}
layer {
  name:"Node_530"
  type:"const"
  top:"Node_530"
  layer_param {
    idx:530
    out_0 {name:"Node_530:0",dtype:float32,shape:[1, 1, 768, 128]}
  }
}
layer {
  name:"Node_531"
  type:"layout_transform"
  top:"Node_531"
  bottom:"Node_530"
  layer_param {
    idx:531
    in_0 {name:"Node_530:0",dtype:float32,shape:[1, 1, 768, 128]}
    out_0 {name:"Node_531:0",dtype:float32,shape:[128, 768, 1, 1]}
    attrs {'src_layout': 'HWIO', 'dst_layout': 'OIHW'}
  }
}
layer {
  name:"Node_532"
  type:"nn_conv2d"
  top:"Node_532"
  bottom:"Node_507"
  bottom:"Node_531"
  layer_param {
    idx:532
    in_0 {name:"Node_507:0",dtype:float32,shape:[1, 768, 17, 17]}
    in_1 {name:"Node_531:0",dtype:float32,shape:[128, 768, 1, 1]}
    out_0 {name:"Node_532:0",dtype:float32,shape:[1, 128, 17, 17]}
    attrs {'strides': [1, 1], 'padding': [0, 0, 0, 0], 'dilation': [1, 1], 'groups': 1, 'channels': 128, 'kernel_size': [1, 1], 'data_layout': 'NCHW', 'kernel_layout': 'OIHW', 'out_layout': '', 'out_dtype': ''}
  }
}
layer {
  name:"Node_533"
  type:"const"
  top:"Node_533"
  layer_param {
    idx:533
    out_0 {name:"Node_533:0",dtype:float32,shape:[128]}
  }
}
layer {
  name:"Node_534"
  type:"const"
  top:"Node_534"
  layer_param {
    idx:534
    out_0 {name:"Node_534:0",dtype:float32,shape:[128]}
  }
}
layer {
  name:"Node_535"
  type:"const"
  top:"Node_535"
  layer_param {
    idx:535
    out_0 {name:"Node_535:0",dtype:float32,shape:[128]}
  }
}
layer {
  name:"Node_536"
  type:"const"
  top:"Node_536"
  layer_param {
    idx:536
    out_0 {name:"Node_536:0",dtype:float32,shape:[128]}
  }
}
layer {
  name:"Node_537"
  type:"nn_batch_norm"
  top:"Node_537"
  bottom:"Node_532"
  bottom:"Node_533"
  bottom:"Node_534"
  bottom:"Node_535"
  bottom:"Node_536"
  layer_param {
    idx:537
    in_0 {name:"Node_532:0",dtype:float32,shape:[1, 128, 17, 17]}
    in_1 {name:"Node_533:0",dtype:float32,shape:[128]}
    in_2 {name:"Node_534:0",dtype:float32,shape:[128]}
    in_3 {name:"Node_535:0",dtype:float32,shape:[128]}
    in_4 {name:"Node_536:0",dtype:float32,shape:[128]}
    out_0 {name:"Node_537:0",dtype:float32,shape:[1, 128, 17, 17]}
    out_1 {name:"Node_537:1",dtype:float32,shape:[128]}
    out_2 {name:"Node_537:2",dtype:float32,shape:[128]}
    attrs {'axis': 1, 'epsilon': 0.0010000000474974513, 'center': 1, 'scale': 0}
  }
}
layer {
  name:"Node_539"
  type:"nn_relu"
  top:"Node_539"
  bottom:"Node_537"
  layer_param {
    idx:539
    in_0 {name:"Node_537:0",dtype:float32,shape:[1, 128, 17, 17]}
    out_0 {name:"Node_539:0",dtype:float32,shape:[1, 128, 17, 17]}
  }
}
layer {
  name:"Node_541"
  type:"const"
  top:"Node_541"
  layer_param {
    idx:541
    out_0 {name:"Node_541:0",dtype:float32,shape:[1, 7, 128, 128]}
  }
}
layer {
  name:"Node_542"
  type:"layout_transform"
  top:"Node_542"
  bottom:"Node_541"
  layer_param {
    idx:542
    in_0 {name:"Node_541:0",dtype:float32,shape:[1, 7, 128, 128]}
    out_0 {name:"Node_542:0",dtype:float32,shape:[128, 128, 1, 7]}
    attrs {'src_layout': 'HWIO', 'dst_layout': 'OIHW'}
  }
}
layer {
  name:"Node_543"
  type:"nn_conv2d"
  top:"Node_543"
  bottom:"Node_539"
  bottom:"Node_542"
  layer_param {
    idx:543
    in_0 {name:"Node_539:0",dtype:float32,shape:[1, 128, 17, 17]}
    in_1 {name:"Node_542:0",dtype:float32,shape:[128, 128, 1, 7]}
    out_0 {name:"Node_543:0",dtype:float32,shape:[1, 128, 17, 17]}
    attrs {'strides': [1, 1], 'padding': [0, 3, 0, 3], 'dilation': [1, 1], 'groups': 1, 'channels': 128, 'kernel_size': [1, 7], 'data_layout': 'NCHW', 'kernel_layout': 'OIHW', 'out_layout': '', 'out_dtype': ''}
  }
}
layer {
  name:"Node_544"
  type:"const"
  top:"Node_544"
  layer_param {
    idx:544
    out_0 {name:"Node_544:0",dtype:float32,shape:[128]}
  }
}
layer {
  name:"Node_545"
  type:"const"
  top:"Node_545"
  layer_param {
    idx:545
    out_0 {name:"Node_545:0",dtype:float32,shape:[128]}
  }
}
layer {
  name:"Node_546"
  type:"const"
  top:"Node_546"
  layer_param {
    idx:546
    out_0 {name:"Node_546:0",dtype:float32,shape:[128]}
  }
}
layer {
  name:"Node_547"
  type:"const"
  top:"Node_547"
  layer_param {
    idx:547
    out_0 {name:"Node_547:0",dtype:float32,shape:[128]}
  }
}
layer {
  name:"Node_548"
  type:"nn_batch_norm"
  top:"Node_548"
  bottom:"Node_543"
  bottom:"Node_544"
  bottom:"Node_545"
  bottom:"Node_546"
  bottom:"Node_547"
  layer_param {
    idx:548
    in_0 {name:"Node_543:0",dtype:float32,shape:[1, 128, 17, 17]}
    in_1 {name:"Node_544:0",dtype:float32,shape:[128]}
    in_2 {name:"Node_545:0",dtype:float32,shape:[128]}
    in_3 {name:"Node_546:0",dtype:float32,shape:[128]}
    in_4 {name:"Node_547:0",dtype:float32,shape:[128]}
    out_0 {name:"Node_548:0",dtype:float32,shape:[1, 128, 17, 17]}
    out_1 {name:"Node_548:1",dtype:float32,shape:[128]}
    out_2 {name:"Node_548:2",dtype:float32,shape:[128]}
    attrs {'axis': 1, 'epsilon': 0.0010000000474974513, 'center': 1, 'scale': 0}
  }
}
layer {
  name:"Node_550"
  type:"nn_relu"
  top:"Node_550"
  bottom:"Node_548"
  layer_param {
    idx:550
    in_0 {name:"Node_548:0",dtype:float32,shape:[1, 128, 17, 17]}
    out_0 {name:"Node_550:0",dtype:float32,shape:[1, 128, 17, 17]}
  }
}
layer {
  name:"Node_552"
  type:"const"
  top:"Node_552"
  layer_param {
    idx:552
    out_0 {name:"Node_552:0",dtype:float32,shape:[7, 1, 128, 192]}
  }
}
layer {
  name:"Node_553"
  type:"layout_transform"
  top:"Node_553"
  bottom:"Node_552"
  layer_param {
    idx:553
    in_0 {name:"Node_552:0",dtype:float32,shape:[7, 1, 128, 192]}
    out_0 {name:"Node_553:0",dtype:float32,shape:[192, 128, 7, 1]}
    attrs {'src_layout': 'HWIO', 'dst_layout': 'OIHW'}
  }
}
layer {
  name:"Node_554"
  type:"nn_conv2d"
  top:"Node_554"
  bottom:"Node_550"
  bottom:"Node_553"
  layer_param {
    idx:554
    in_0 {name:"Node_550:0",dtype:float32,shape:[1, 128, 17, 17]}
    in_1 {name:"Node_553:0",dtype:float32,shape:[192, 128, 7, 1]}
    out_0 {name:"Node_554:0",dtype:float32,shape:[1, 192, 17, 17]}
    attrs {'strides': [1, 1], 'padding': [3, 0, 3, 0], 'dilation': [1, 1], 'groups': 1, 'channels': 192, 'kernel_size': [7, 1], 'data_layout': 'NCHW', 'kernel_layout': 'OIHW', 'out_layout': '', 'out_dtype': ''}
  }
}
layer {
  name:"Node_555"
  type:"const"
  top:"Node_555"
  layer_param {
    idx:555
    out_0 {name:"Node_555:0",dtype:float32,shape:[192]}
  }
}
layer {
  name:"Node_556"
  type:"const"
  top:"Node_556"
  layer_param {
    idx:556
    out_0 {name:"Node_556:0",dtype:float32,shape:[192]}
  }
}
layer {
  name:"Node_557"
  type:"const"
  top:"Node_557"
  layer_param {
    idx:557
    out_0 {name:"Node_557:0",dtype:float32,shape:[192]}
  }
}
layer {
  name:"Node_558"
  type:"const"
  top:"Node_558"
  layer_param {
    idx:558
    out_0 {name:"Node_558:0",dtype:float32,shape:[192]}
  }
}
layer {
  name:"Node_559"
  type:"nn_batch_norm"
  top:"Node_559"
  bottom:"Node_554"
  bottom:"Node_555"
  bottom:"Node_556"
  bottom:"Node_557"
  bottom:"Node_558"
  layer_param {
    idx:559
    in_0 {name:"Node_554:0",dtype:float32,shape:[1, 192, 17, 17]}
    in_1 {name:"Node_555:0",dtype:float32,shape:[192]}
    in_2 {name:"Node_556:0",dtype:float32,shape:[192]}
    in_3 {name:"Node_557:0",dtype:float32,shape:[192]}
    in_4 {name:"Node_558:0",dtype:float32,shape:[192]}
    out_0 {name:"Node_559:0",dtype:float32,shape:[1, 192, 17, 17]}
    out_1 {name:"Node_559:1",dtype:float32,shape:[192]}
    out_2 {name:"Node_559:2",dtype:float32,shape:[192]}
    attrs {'axis': 1, 'epsilon': 0.0010000000474974513, 'center': 1, 'scale': 0}
  }
}
layer {
  name:"Node_561"
  type:"nn_relu"
  top:"Node_561"
  bottom:"Node_559"
  layer_param {
    idx:561
    in_0 {name:"Node_559:0",dtype:float32,shape:[1, 192, 17, 17]}
    out_0 {name:"Node_561:0",dtype:float32,shape:[1, 192, 17, 17]}
  }
}
layer {
  name:"Node_579"
  type:"const"
  top:"Node_579"
  layer_param {
    idx:579
    out_0 {name:"Node_579:0",dtype:float32,shape:[1, 1, 768, 128]}
  }
}
layer {
  name:"Node_580"
  type:"layout_transform"
  top:"Node_580"
  bottom:"Node_579"
  layer_param {
    idx:580
    in_0 {name:"Node_579:0",dtype:float32,shape:[1, 1, 768, 128]}
    out_0 {name:"Node_580:0",dtype:float32,shape:[128, 768, 1, 1]}
    attrs {'src_layout': 'HWIO', 'dst_layout': 'OIHW'}
  }
}
layer {
  name:"Node_581"
  type:"nn_conv2d"
  top:"Node_581"
  bottom:"Node_507"
  bottom:"Node_580"
  layer_param {
    idx:581
    in_0 {name:"Node_507:0",dtype:float32,shape:[1, 768, 17, 17]}
    in_1 {name:"Node_580:0",dtype:float32,shape:[128, 768, 1, 1]}
    out_0 {name:"Node_581:0",dtype:float32,shape:[1, 128, 17, 17]}
    attrs {'strides': [1, 1], 'padding': [0, 0, 0, 0], 'dilation': [1, 1], 'groups': 1, 'channels': 128, 'kernel_size': [1, 1], 'data_layout': 'NCHW', 'kernel_layout': 'OIHW', 'out_layout': '', 'out_dtype': ''}
  }
}
layer {
  name:"Node_582"
  type:"const"
  top:"Node_582"
  layer_param {
    idx:582
    out_0 {name:"Node_582:0",dtype:float32,shape:[128]}
  }
}
layer {
  name:"Node_583"
  type:"const"
  top:"Node_583"
  layer_param {
    idx:583
    out_0 {name:"Node_583:0",dtype:float32,shape:[128]}
  }
}
layer {
  name:"Node_584"
  type:"const"
  top:"Node_584"
  layer_param {
    idx:584
    out_0 {name:"Node_584:0",dtype:float32,shape:[128]}
  }
}
layer {
  name:"Node_585"
  type:"const"
  top:"Node_585"
  layer_param {
    idx:585
    out_0 {name:"Node_585:0",dtype:float32,shape:[128]}
  }
}
layer {
  name:"Node_586"
  type:"nn_batch_norm"
  top:"Node_586"
  bottom:"Node_581"
  bottom:"Node_582"
  bottom:"Node_583"
  bottom:"Node_584"
  bottom:"Node_585"
  layer_param {
    idx:586
    in_0 {name:"Node_581:0",dtype:float32,shape:[1, 128, 17, 17]}
    in_1 {name:"Node_582:0",dtype:float32,shape:[128]}
    in_2 {name:"Node_583:0",dtype:float32,shape:[128]}
    in_3 {name:"Node_584:0",dtype:float32,shape:[128]}
    in_4 {name:"Node_585:0",dtype:float32,shape:[128]}
    out_0 {name:"Node_586:0",dtype:float32,shape:[1, 128, 17, 17]}
    out_1 {name:"Node_586:1",dtype:float32,shape:[128]}
    out_2 {name:"Node_586:2",dtype:float32,shape:[128]}
    attrs {'axis': 1, 'epsilon': 0.0010000000474974513, 'center': 1, 'scale': 0}
  }
}
layer {
  name:"Node_588"
  type:"nn_relu"
  top:"Node_588"
  bottom:"Node_586"
  layer_param {
    idx:588
    in_0 {name:"Node_586:0",dtype:float32,shape:[1, 128, 17, 17]}
    out_0 {name:"Node_588:0",dtype:float32,shape:[1, 128, 17, 17]}
  }
}
layer {
  name:"Node_590"
  type:"const"
  top:"Node_590"
  layer_param {
    idx:590
    out_0 {name:"Node_590:0",dtype:float32,shape:[7, 1, 128, 128]}
  }
}
layer {
  name:"Node_591"
  type:"layout_transform"
  top:"Node_591"
  bottom:"Node_590"
  layer_param {
    idx:591
    in_0 {name:"Node_590:0",dtype:float32,shape:[7, 1, 128, 128]}
    out_0 {name:"Node_591:0",dtype:float32,shape:[128, 128, 7, 1]}
    attrs {'src_layout': 'HWIO', 'dst_layout': 'OIHW'}
  }
}
layer {
  name:"Node_592"
  type:"nn_conv2d"
  top:"Node_592"
  bottom:"Node_588"
  bottom:"Node_591"
  layer_param {
    idx:592
    in_0 {name:"Node_588:0",dtype:float32,shape:[1, 128, 17, 17]}
    in_1 {name:"Node_591:0",dtype:float32,shape:[128, 128, 7, 1]}
    out_0 {name:"Node_592:0",dtype:float32,shape:[1, 128, 17, 17]}
    attrs {'strides': [1, 1], 'padding': [3, 0, 3, 0], 'dilation': [1, 1], 'groups': 1, 'channels': 128, 'kernel_size': [7, 1], 'data_layout': 'NCHW', 'kernel_layout': 'OIHW', 'out_layout': '', 'out_dtype': ''}
  }
}
layer {
  name:"Node_593"
  type:"const"
  top:"Node_593"
  layer_param {
    idx:593
    out_0 {name:"Node_593:0",dtype:float32,shape:[128]}
  }
}
layer {
  name:"Node_594"
  type:"const"
  top:"Node_594"
  layer_param {
    idx:594
    out_0 {name:"Node_594:0",dtype:float32,shape:[128]}
  }
}
layer {
  name:"Node_595"
  type:"const"
  top:"Node_595"
  layer_param {
    idx:595
    out_0 {name:"Node_595:0",dtype:float32,shape:[128]}
  }
}
layer {
  name:"Node_596"
  type:"const"
  top:"Node_596"
  layer_param {
    idx:596
    out_0 {name:"Node_596:0",dtype:float32,shape:[128]}
  }
}
layer {
  name:"Node_597"
  type:"nn_batch_norm"
  top:"Node_597"
  bottom:"Node_592"
  bottom:"Node_593"
  bottom:"Node_594"
  bottom:"Node_595"
  bottom:"Node_596"
  layer_param {
    idx:597
    in_0 {name:"Node_592:0",dtype:float32,shape:[1, 128, 17, 17]}
    in_1 {name:"Node_593:0",dtype:float32,shape:[128]}
    in_2 {name:"Node_594:0",dtype:float32,shape:[128]}
    in_3 {name:"Node_595:0",dtype:float32,shape:[128]}
    in_4 {name:"Node_596:0",dtype:float32,shape:[128]}
    out_0 {name:"Node_597:0",dtype:float32,shape:[1, 128, 17, 17]}
    out_1 {name:"Node_597:1",dtype:float32,shape:[128]}
    out_2 {name:"Node_597:2",dtype:float32,shape:[128]}
    attrs {'axis': 1, 'epsilon': 0.0010000000474974513, 'center': 1, 'scale': 0}
  }
}
layer {
  name:"Node_599"
  type:"nn_relu"
  top:"Node_599"
  bottom:"Node_597"
  layer_param {
    idx:599
    in_0 {name:"Node_597:0",dtype:float32,shape:[1, 128, 17, 17]}
    out_0 {name:"Node_599:0",dtype:float32,shape:[1, 128, 17, 17]}
  }
}
layer {
  name:"Node_601"
  type:"const"
  top:"Node_601"
  layer_param {
    idx:601
    out_0 {name:"Node_601:0",dtype:float32,shape:[1, 7, 128, 128]}
  }
}
layer {
  name:"Node_602"
  type:"layout_transform"
  top:"Node_602"
  bottom:"Node_601"
  layer_param {
    idx:602
    in_0 {name:"Node_601:0",dtype:float32,shape:[1, 7, 128, 128]}
    out_0 {name:"Node_602:0",dtype:float32,shape:[128, 128, 1, 7]}
    attrs {'src_layout': 'HWIO', 'dst_layout': 'OIHW'}
  }
}
layer {
  name:"Node_603"
  type:"nn_conv2d"
  top:"Node_603"
  bottom:"Node_599"
  bottom:"Node_602"
  layer_param {
    idx:603
    in_0 {name:"Node_599:0",dtype:float32,shape:[1, 128, 17, 17]}
    in_1 {name:"Node_602:0",dtype:float32,shape:[128, 128, 1, 7]}
    out_0 {name:"Node_603:0",dtype:float32,shape:[1, 128, 17, 17]}
    attrs {'strides': [1, 1], 'padding': [0, 3, 0, 3], 'dilation': [1, 1], 'groups': 1, 'channels': 128, 'kernel_size': [1, 7], 'data_layout': 'NCHW', 'kernel_layout': 'OIHW', 'out_layout': '', 'out_dtype': ''}
  }
}
layer {
  name:"Node_604"
  type:"const"
  top:"Node_604"
  layer_param {
    idx:604
    out_0 {name:"Node_604:0",dtype:float32,shape:[128]}
  }
}
layer {
  name:"Node_605"
  type:"const"
  top:"Node_605"
  layer_param {
    idx:605
    out_0 {name:"Node_605:0",dtype:float32,shape:[128]}
  }
}
layer {
  name:"Node_606"
  type:"const"
  top:"Node_606"
  layer_param {
    idx:606
    out_0 {name:"Node_606:0",dtype:float32,shape:[128]}
  }
}
layer {
  name:"Node_607"
  type:"const"
  top:"Node_607"
  layer_param {
    idx:607
    out_0 {name:"Node_607:0",dtype:float32,shape:[128]}
  }
}
layer {
  name:"Node_608"
  type:"nn_batch_norm"
  top:"Node_608"
  bottom:"Node_603"
  bottom:"Node_604"
  bottom:"Node_605"
  bottom:"Node_606"
  bottom:"Node_607"
  layer_param {
    idx:608
    in_0 {name:"Node_603:0",dtype:float32,shape:[1, 128, 17, 17]}
    in_1 {name:"Node_604:0",dtype:float32,shape:[128]}
    in_2 {name:"Node_605:0",dtype:float32,shape:[128]}
    in_3 {name:"Node_606:0",dtype:float32,shape:[128]}
    in_4 {name:"Node_607:0",dtype:float32,shape:[128]}
    out_0 {name:"Node_608:0",dtype:float32,shape:[1, 128, 17, 17]}
    out_1 {name:"Node_608:1",dtype:float32,shape:[128]}
    out_2 {name:"Node_608:2",dtype:float32,shape:[128]}
    attrs {'axis': 1, 'epsilon': 0.0010000000474974513, 'center': 1, 'scale': 0}
  }
}
layer {
  name:"Node_610"
  type:"nn_relu"
  top:"Node_610"
  bottom:"Node_608"
  layer_param {
    idx:610
    in_0 {name:"Node_608:0",dtype:float32,shape:[1, 128, 17, 17]}
    out_0 {name:"Node_610:0",dtype:float32,shape:[1, 128, 17, 17]}
  }
}
layer {
  name:"Node_612"
  type:"const"
  top:"Node_612"
  layer_param {
    idx:612
    out_0 {name:"Node_612:0",dtype:float32,shape:[7, 1, 128, 128]}
  }
}
layer {
  name:"Node_613"
  type:"layout_transform"
  top:"Node_613"
  bottom:"Node_612"
  layer_param {
    idx:613
    in_0 {name:"Node_612:0",dtype:float32,shape:[7, 1, 128, 128]}
    out_0 {name:"Node_613:0",dtype:float32,shape:[128, 128, 7, 1]}
    attrs {'src_layout': 'HWIO', 'dst_layout': 'OIHW'}
  }
}
layer {
  name:"Node_614"
  type:"nn_conv2d"
  top:"Node_614"
  bottom:"Node_610"
  bottom:"Node_613"
  layer_param {
    idx:614
    in_0 {name:"Node_610:0",dtype:float32,shape:[1, 128, 17, 17]}
    in_1 {name:"Node_613:0",dtype:float32,shape:[128, 128, 7, 1]}
    out_0 {name:"Node_614:0",dtype:float32,shape:[1, 128, 17, 17]}
    attrs {'strides': [1, 1], 'padding': [3, 0, 3, 0], 'dilation': [1, 1], 'groups': 1, 'channels': 128, 'kernel_size': [7, 1], 'data_layout': 'NCHW', 'kernel_layout': 'OIHW', 'out_layout': '', 'out_dtype': ''}
  }
}
layer {
  name:"Node_615"
  type:"const"
  top:"Node_615"
  layer_param {
    idx:615
    out_0 {name:"Node_615:0",dtype:float32,shape:[128]}
  }
}
layer {
  name:"Node_616"
  type:"const"
  top:"Node_616"
  layer_param {
    idx:616
    out_0 {name:"Node_616:0",dtype:float32,shape:[128]}
  }
}
layer {
  name:"Node_617"
  type:"const"
  top:"Node_617"
  layer_param {
    idx:617
    out_0 {name:"Node_617:0",dtype:float32,shape:[128]}
  }
}
layer {
  name:"Node_618"
  type:"const"
  top:"Node_618"
  layer_param {
    idx:618
    out_0 {name:"Node_618:0",dtype:float32,shape:[128]}
  }
}
layer {
  name:"Node_619"
  type:"nn_batch_norm"
  top:"Node_619"
  bottom:"Node_614"
  bottom:"Node_615"
  bottom:"Node_616"
  bottom:"Node_617"
  bottom:"Node_618"
  layer_param {
    idx:619
    in_0 {name:"Node_614:0",dtype:float32,shape:[1, 128, 17, 17]}
    in_1 {name:"Node_615:0",dtype:float32,shape:[128]}
    in_2 {name:"Node_616:0",dtype:float32,shape:[128]}
    in_3 {name:"Node_617:0",dtype:float32,shape:[128]}
    in_4 {name:"Node_618:0",dtype:float32,shape:[128]}
    out_0 {name:"Node_619:0",dtype:float32,shape:[1, 128, 17, 17]}
    out_1 {name:"Node_619:1",dtype:float32,shape:[128]}
    out_2 {name:"Node_619:2",dtype:float32,shape:[128]}
    attrs {'axis': 1, 'epsilon': 0.0010000000474974513, 'center': 1, 'scale': 0}
  }
}
layer {
  name:"Node_621"
  type:"nn_relu"
  top:"Node_621"
  bottom:"Node_619"
  layer_param {
    idx:621
    in_0 {name:"Node_619:0",dtype:float32,shape:[1, 128, 17, 17]}
    out_0 {name:"Node_621:0",dtype:float32,shape:[1, 128, 17, 17]}
  }
}
layer {
  name:"Node_623"
  type:"const"
  top:"Node_623"
  layer_param {
    idx:623
    out_0 {name:"Node_623:0",dtype:float32,shape:[1, 7, 128, 192]}
  }
}
layer {
  name:"Node_624"
  type:"layout_transform"
  top:"Node_624"
  bottom:"Node_623"
  layer_param {
    idx:624
    in_0 {name:"Node_623:0",dtype:float32,shape:[1, 7, 128, 192]}
    out_0 {name:"Node_624:0",dtype:float32,shape:[192, 128, 1, 7]}
    attrs {'src_layout': 'HWIO', 'dst_layout': 'OIHW'}
  }
}
layer {
  name:"Node_625"
  type:"nn_conv2d"
  top:"Node_625"
  bottom:"Node_621"
  bottom:"Node_624"
  layer_param {
    idx:625
    in_0 {name:"Node_621:0",dtype:float32,shape:[1, 128, 17, 17]}
    in_1 {name:"Node_624:0",dtype:float32,shape:[192, 128, 1, 7]}
    out_0 {name:"Node_625:0",dtype:float32,shape:[1, 192, 17, 17]}
    attrs {'strides': [1, 1], 'padding': [0, 3, 0, 3], 'dilation': [1, 1], 'groups': 1, 'channels': 192, 'kernel_size': [1, 7], 'data_layout': 'NCHW', 'kernel_layout': 'OIHW', 'out_layout': '', 'out_dtype': ''}
  }
}
layer {
  name:"Node_626"
  type:"const"
  top:"Node_626"
  layer_param {
    idx:626
    out_0 {name:"Node_626:0",dtype:float32,shape:[192]}
  }
}
layer {
  name:"Node_627"
  type:"const"
  top:"Node_627"
  layer_param {
    idx:627
    out_0 {name:"Node_627:0",dtype:float32,shape:[192]}
  }
}
layer {
  name:"Node_628"
  type:"const"
  top:"Node_628"
  layer_param {
    idx:628
    out_0 {name:"Node_628:0",dtype:float32,shape:[192]}
  }
}
layer {
  name:"Node_629"
  type:"const"
  top:"Node_629"
  layer_param {
    idx:629
    out_0 {name:"Node_629:0",dtype:float32,shape:[192]}
  }
}
layer {
  name:"Node_630"
  type:"nn_batch_norm"
  top:"Node_630"
  bottom:"Node_625"
  bottom:"Node_626"
  bottom:"Node_627"
  bottom:"Node_628"
  bottom:"Node_629"
  layer_param {
    idx:630
    in_0 {name:"Node_625:0",dtype:float32,shape:[1, 192, 17, 17]}
    in_1 {name:"Node_626:0",dtype:float32,shape:[192]}
    in_2 {name:"Node_627:0",dtype:float32,shape:[192]}
    in_3 {name:"Node_628:0",dtype:float32,shape:[192]}
    in_4 {name:"Node_629:0",dtype:float32,shape:[192]}
    out_0 {name:"Node_630:0",dtype:float32,shape:[1, 192, 17, 17]}
    out_1 {name:"Node_630:1",dtype:float32,shape:[192]}
    out_2 {name:"Node_630:2",dtype:float32,shape:[192]}
    attrs {'axis': 1, 'epsilon': 0.0010000000474974513, 'center': 1, 'scale': 0}
  }
}
layer {
  name:"Node_632"
  type:"nn_relu"
  top:"Node_632"
  bottom:"Node_630"
  layer_param {
    idx:632
    in_0 {name:"Node_630:0",dtype:float32,shape:[1, 192, 17, 17]}
    out_0 {name:"Node_632:0",dtype:float32,shape:[1, 192, 17, 17]}
  }
}
layer {
  name:"Node_638"
  type:"nn_avg_pool2d"
  top:"Node_638"
  bottom:"Node_507"
  layer_param {
    idx:638
    in_0 {name:"Node_507:0",dtype:float32,shape:[1, 768, 17, 17]}
    out_0 {name:"Node_638:0",dtype:float32,shape:[1, 768, 17, 17]}
    attrs {'pool_size': [3, 3], 'strides': [1, 1], 'dilation': [1, 1], 'padding': [1, 1, 1, 1], 'layout': 'NCHW', 'ceil_mode': 0, 'count_include_pad': 0}
  }
}
layer {
  name:"Node_640"
  type:"const"
  top:"Node_640"
  layer_param {
    idx:640
    out_0 {name:"Node_640:0",dtype:float32,shape:[1, 1, 768, 192]}
  }
}
layer {
  name:"Node_641"
  type:"layout_transform"
  top:"Node_641"
  bottom:"Node_640"
  layer_param {
    idx:641
    in_0 {name:"Node_640:0",dtype:float32,shape:[1, 1, 768, 192]}
    out_0 {name:"Node_641:0",dtype:float32,shape:[192, 768, 1, 1]}
    attrs {'src_layout': 'HWIO', 'dst_layout': 'OIHW'}
  }
}
layer {
  name:"Node_642"
  type:"nn_conv2d"
  top:"Node_642"
  bottom:"Node_638"
  bottom:"Node_641"
  layer_param {
    idx:642
    in_0 {name:"Node_638:0",dtype:float32,shape:[1, 768, 17, 17]}
    in_1 {name:"Node_641:0",dtype:float32,shape:[192, 768, 1, 1]}
    out_0 {name:"Node_642:0",dtype:float32,shape:[1, 192, 17, 17]}
    attrs {'strides': [1, 1], 'padding': [0, 0, 0, 0], 'dilation': [1, 1], 'groups': 1, 'channels': 192, 'kernel_size': [1, 1], 'data_layout': 'NCHW', 'kernel_layout': 'OIHW', 'out_layout': '', 'out_dtype': ''}
  }
}
layer {
  name:"Node_643"
  type:"const"
  top:"Node_643"
  layer_param {
    idx:643
    out_0 {name:"Node_643:0",dtype:float32,shape:[192]}
  }
}
layer {
  name:"Node_644"
  type:"const"
  top:"Node_644"
  layer_param {
    idx:644
    out_0 {name:"Node_644:0",dtype:float32,shape:[192]}
  }
}
layer {
  name:"Node_645"
  type:"const"
  top:"Node_645"
  layer_param {
    idx:645
    out_0 {name:"Node_645:0",dtype:float32,shape:[192]}
  }
}
layer {
  name:"Node_646"
  type:"const"
  top:"Node_646"
  layer_param {
    idx:646
    out_0 {name:"Node_646:0",dtype:float32,shape:[192]}
  }
}
layer {
  name:"Node_647"
  type:"nn_batch_norm"
  top:"Node_647"
  bottom:"Node_642"
  bottom:"Node_643"
  bottom:"Node_644"
  bottom:"Node_645"
  bottom:"Node_646"
  layer_param {
    idx:647
    in_0 {name:"Node_642:0",dtype:float32,shape:[1, 192, 17, 17]}
    in_1 {name:"Node_643:0",dtype:float32,shape:[192]}
    in_2 {name:"Node_644:0",dtype:float32,shape:[192]}
    in_3 {name:"Node_645:0",dtype:float32,shape:[192]}
    in_4 {name:"Node_646:0",dtype:float32,shape:[192]}
    out_0 {name:"Node_647:0",dtype:float32,shape:[1, 192, 17, 17]}
    out_1 {name:"Node_647:1",dtype:float32,shape:[192]}
    out_2 {name:"Node_647:2",dtype:float32,shape:[192]}
    attrs {'axis': 1, 'epsilon': 0.0010000000474974513, 'center': 1, 'scale': 0}
  }
}
layer {
  name:"Node_649"
  type:"nn_relu"
  top:"Node_649"
  bottom:"Node_647"
  layer_param {
    idx:649
    in_0 {name:"Node_647:0",dtype:float32,shape:[1, 192, 17, 17]}
    out_0 {name:"Node_649:0",dtype:float32,shape:[1, 192, 17, 17]}
  }
}
layer {
  name:"Node_651"
  type:"concatenate"
  top:"Node_651"
  bottom:"Node_518"
  bottom:"Node_561"
  bottom:"Node_632"
  bottom:"Node_649"
  layer_param {
    idx:651
    in_0 {name:"Node_518:0",dtype:float32,shape:[1, 192, 17, 17]}
    in_1 {name:"Node_561:0",dtype:float32,shape:[1, 192, 17, 17]}
    in_2 {name:"Node_632:0",dtype:float32,shape:[1, 192, 17, 17]}
    in_3 {name:"Node_649:0",dtype:float32,shape:[1, 192, 17, 17]}
    out_0 {name:"Node_651:0",dtype:float32,shape:[1, 768, 17, 17]}
    attrs {'axis': 1}
  }
}
layer {
  name:"Node_653"
  type:"const"
  top:"Node_653"
  layer_param {
    idx:653
    out_0 {name:"Node_653:0",dtype:float32,shape:[1, 1, 768, 192]}
  }
}
layer {
  name:"Node_654"
  type:"layout_transform"
  top:"Node_654"
  bottom:"Node_653"
  layer_param {
    idx:654
    in_0 {name:"Node_653:0",dtype:float32,shape:[1, 1, 768, 192]}
    out_0 {name:"Node_654:0",dtype:float32,shape:[192, 768, 1, 1]}
    attrs {'src_layout': 'HWIO', 'dst_layout': 'OIHW'}
  }
}
layer {
  name:"Node_655"
  type:"nn_conv2d"
  top:"Node_655"
  bottom:"Node_651"
  bottom:"Node_654"
  layer_param {
    idx:655
    in_0 {name:"Node_651:0",dtype:float32,shape:[1, 768, 17, 17]}
    in_1 {name:"Node_654:0",dtype:float32,shape:[192, 768, 1, 1]}
    out_0 {name:"Node_655:0",dtype:float32,shape:[1, 192, 17, 17]}
    attrs {'strides': [1, 1], 'padding': [0, 0, 0, 0], 'dilation': [1, 1], 'groups': 1, 'channels': 192, 'kernel_size': [1, 1], 'data_layout': 'NCHW', 'kernel_layout': 'OIHW', 'out_layout': '', 'out_dtype': ''}
  }
}
layer {
  name:"Node_656"
  type:"const"
  top:"Node_656"
  layer_param {
    idx:656
    out_0 {name:"Node_656:0",dtype:float32,shape:[192]}
  }
}
layer {
  name:"Node_657"
  type:"const"
  top:"Node_657"
  layer_param {
    idx:657
    out_0 {name:"Node_657:0",dtype:float32,shape:[192]}
  }
}
layer {
  name:"Node_658"
  type:"const"
  top:"Node_658"
  layer_param {
    idx:658
    out_0 {name:"Node_658:0",dtype:float32,shape:[192]}
  }
}
layer {
  name:"Node_659"
  type:"const"
  top:"Node_659"
  layer_param {
    idx:659
    out_0 {name:"Node_659:0",dtype:float32,shape:[192]}
  }
}
layer {
  name:"Node_660"
  type:"nn_batch_norm"
  top:"Node_660"
  bottom:"Node_655"
  bottom:"Node_656"
  bottom:"Node_657"
  bottom:"Node_658"
  bottom:"Node_659"
  layer_param {
    idx:660
    in_0 {name:"Node_655:0",dtype:float32,shape:[1, 192, 17, 17]}
    in_1 {name:"Node_656:0",dtype:float32,shape:[192]}
    in_2 {name:"Node_657:0",dtype:float32,shape:[192]}
    in_3 {name:"Node_658:0",dtype:float32,shape:[192]}
    in_4 {name:"Node_659:0",dtype:float32,shape:[192]}
    out_0 {name:"Node_660:0",dtype:float32,shape:[1, 192, 17, 17]}
    out_1 {name:"Node_660:1",dtype:float32,shape:[192]}
    out_2 {name:"Node_660:2",dtype:float32,shape:[192]}
    attrs {'axis': 1, 'epsilon': 0.0010000000474974513, 'center': 1, 'scale': 0}
  }
}
layer {
  name:"Node_662"
  type:"nn_relu"
  top:"Node_662"
  bottom:"Node_660"
  layer_param {
    idx:662
    in_0 {name:"Node_660:0",dtype:float32,shape:[1, 192, 17, 17]}
    out_0 {name:"Node_662:0",dtype:float32,shape:[1, 192, 17, 17]}
  }
}
layer {
  name:"Node_674"
  type:"const"
  top:"Node_674"
  layer_param {
    idx:674
    out_0 {name:"Node_674:0",dtype:float32,shape:[1, 1, 768, 160]}
  }
}
layer {
  name:"Node_675"
  type:"layout_transform"
  top:"Node_675"
  bottom:"Node_674"
  layer_param {
    idx:675
    in_0 {name:"Node_674:0",dtype:float32,shape:[1, 1, 768, 160]}
    out_0 {name:"Node_675:0",dtype:float32,shape:[160, 768, 1, 1]}
    attrs {'src_layout': 'HWIO', 'dst_layout': 'OIHW'}
  }
}
layer {
  name:"Node_676"
  type:"nn_conv2d"
  top:"Node_676"
  bottom:"Node_651"
  bottom:"Node_675"
  layer_param {
    idx:676
    in_0 {name:"Node_651:0",dtype:float32,shape:[1, 768, 17, 17]}
    in_1 {name:"Node_675:0",dtype:float32,shape:[160, 768, 1, 1]}
    out_0 {name:"Node_676:0",dtype:float32,shape:[1, 160, 17, 17]}
    attrs {'strides': [1, 1], 'padding': [0, 0, 0, 0], 'dilation': [1, 1], 'groups': 1, 'channels': 160, 'kernel_size': [1, 1], 'data_layout': 'NCHW', 'kernel_layout': 'OIHW', 'out_layout': '', 'out_dtype': ''}
  }
}
layer {
  name:"Node_677"
  type:"const"
  top:"Node_677"
  layer_param {
    idx:677
    out_0 {name:"Node_677:0",dtype:float32,shape:[160]}
  }
}
layer {
  name:"Node_678"
  type:"const"
  top:"Node_678"
  layer_param {
    idx:678
    out_0 {name:"Node_678:0",dtype:float32,shape:[160]}
  }
}
layer {
  name:"Node_679"
  type:"const"
  top:"Node_679"
  layer_param {
    idx:679
    out_0 {name:"Node_679:0",dtype:float32,shape:[160]}
  }
}
layer {
  name:"Node_680"
  type:"const"
  top:"Node_680"
  layer_param {
    idx:680
    out_0 {name:"Node_680:0",dtype:float32,shape:[160]}
  }
}
layer {
  name:"Node_681"
  type:"nn_batch_norm"
  top:"Node_681"
  bottom:"Node_676"
  bottom:"Node_677"
  bottom:"Node_678"
  bottom:"Node_679"
  bottom:"Node_680"
  layer_param {
    idx:681
    in_0 {name:"Node_676:0",dtype:float32,shape:[1, 160, 17, 17]}
    in_1 {name:"Node_677:0",dtype:float32,shape:[160]}
    in_2 {name:"Node_678:0",dtype:float32,shape:[160]}
    in_3 {name:"Node_679:0",dtype:float32,shape:[160]}
    in_4 {name:"Node_680:0",dtype:float32,shape:[160]}
    out_0 {name:"Node_681:0",dtype:float32,shape:[1, 160, 17, 17]}
    out_1 {name:"Node_681:1",dtype:float32,shape:[160]}
    out_2 {name:"Node_681:2",dtype:float32,shape:[160]}
    attrs {'axis': 1, 'epsilon': 0.0010000000474974513, 'center': 1, 'scale': 0}
  }
}
layer {
  name:"Node_683"
  type:"nn_relu"
  top:"Node_683"
  bottom:"Node_681"
  layer_param {
    idx:683
    in_0 {name:"Node_681:0",dtype:float32,shape:[1, 160, 17, 17]}
    out_0 {name:"Node_683:0",dtype:float32,shape:[1, 160, 17, 17]}
  }
}
layer {
  name:"Node_685"
  type:"const"
  top:"Node_685"
  layer_param {
    idx:685
    out_0 {name:"Node_685:0",dtype:float32,shape:[1, 7, 160, 160]}
  }
}
layer {
  name:"Node_686"
  type:"layout_transform"
  top:"Node_686"
  bottom:"Node_685"
  layer_param {
    idx:686
    in_0 {name:"Node_685:0",dtype:float32,shape:[1, 7, 160, 160]}
    out_0 {name:"Node_686:0",dtype:float32,shape:[160, 160, 1, 7]}
    attrs {'src_layout': 'HWIO', 'dst_layout': 'OIHW'}
  }
}
layer {
  name:"Node_687"
  type:"nn_conv2d"
  top:"Node_687"
  bottom:"Node_683"
  bottom:"Node_686"
  layer_param {
    idx:687
    in_0 {name:"Node_683:0",dtype:float32,shape:[1, 160, 17, 17]}
    in_1 {name:"Node_686:0",dtype:float32,shape:[160, 160, 1, 7]}
    out_0 {name:"Node_687:0",dtype:float32,shape:[1, 160, 17, 17]}
    attrs {'strides': [1, 1], 'padding': [0, 3, 0, 3], 'dilation': [1, 1], 'groups': 1, 'channels': 160, 'kernel_size': [1, 7], 'data_layout': 'NCHW', 'kernel_layout': 'OIHW', 'out_layout': '', 'out_dtype': ''}
  }
}
layer {
  name:"Node_688"
  type:"const"
  top:"Node_688"
  layer_param {
    idx:688
    out_0 {name:"Node_688:0",dtype:float32,shape:[160]}
  }
}
layer {
  name:"Node_689"
  type:"const"
  top:"Node_689"
  layer_param {
    idx:689
    out_0 {name:"Node_689:0",dtype:float32,shape:[160]}
  }
}
layer {
  name:"Node_690"
  type:"const"
  top:"Node_690"
  layer_param {
    idx:690
    out_0 {name:"Node_690:0",dtype:float32,shape:[160]}
  }
}
layer {
  name:"Node_691"
  type:"const"
  top:"Node_691"
  layer_param {
    idx:691
    out_0 {name:"Node_691:0",dtype:float32,shape:[160]}
  }
}
layer {
  name:"Node_692"
  type:"nn_batch_norm"
  top:"Node_692"
  bottom:"Node_687"
  bottom:"Node_688"
  bottom:"Node_689"
  bottom:"Node_690"
  bottom:"Node_691"
  layer_param {
    idx:692
    in_0 {name:"Node_687:0",dtype:float32,shape:[1, 160, 17, 17]}
    in_1 {name:"Node_688:0",dtype:float32,shape:[160]}
    in_2 {name:"Node_689:0",dtype:float32,shape:[160]}
    in_3 {name:"Node_690:0",dtype:float32,shape:[160]}
    in_4 {name:"Node_691:0",dtype:float32,shape:[160]}
    out_0 {name:"Node_692:0",dtype:float32,shape:[1, 160, 17, 17]}
    out_1 {name:"Node_692:1",dtype:float32,shape:[160]}
    out_2 {name:"Node_692:2",dtype:float32,shape:[160]}
    attrs {'axis': 1, 'epsilon': 0.0010000000474974513, 'center': 1, 'scale': 0}
  }
}
layer {
  name:"Node_694"
  type:"nn_relu"
  top:"Node_694"
  bottom:"Node_692"
  layer_param {
    idx:694
    in_0 {name:"Node_692:0",dtype:float32,shape:[1, 160, 17, 17]}
    out_0 {name:"Node_694:0",dtype:float32,shape:[1, 160, 17, 17]}
  }
}
layer {
  name:"Node_696"
  type:"const"
  top:"Node_696"
  layer_param {
    idx:696
    out_0 {name:"Node_696:0",dtype:float32,shape:[7, 1, 160, 192]}
  }
}
layer {
  name:"Node_697"
  type:"layout_transform"
  top:"Node_697"
  bottom:"Node_696"
  layer_param {
    idx:697
    in_0 {name:"Node_696:0",dtype:float32,shape:[7, 1, 160, 192]}
    out_0 {name:"Node_697:0",dtype:float32,shape:[192, 160, 7, 1]}
    attrs {'src_layout': 'HWIO', 'dst_layout': 'OIHW'}
  }
}
layer {
  name:"Node_698"
  type:"nn_conv2d"
  top:"Node_698"
  bottom:"Node_694"
  bottom:"Node_697"
  layer_param {
    idx:698
    in_0 {name:"Node_694:0",dtype:float32,shape:[1, 160, 17, 17]}
    in_1 {name:"Node_697:0",dtype:float32,shape:[192, 160, 7, 1]}
    out_0 {name:"Node_698:0",dtype:float32,shape:[1, 192, 17, 17]}
    attrs {'strides': [1, 1], 'padding': [3, 0, 3, 0], 'dilation': [1, 1], 'groups': 1, 'channels': 192, 'kernel_size': [7, 1], 'data_layout': 'NCHW', 'kernel_layout': 'OIHW', 'out_layout': '', 'out_dtype': ''}
  }
}
layer {
  name:"Node_699"
  type:"const"
  top:"Node_699"
  layer_param {
    idx:699
    out_0 {name:"Node_699:0",dtype:float32,shape:[192]}
  }
}
layer {
  name:"Node_700"
  type:"const"
  top:"Node_700"
  layer_param {
    idx:700
    out_0 {name:"Node_700:0",dtype:float32,shape:[192]}
  }
}
layer {
  name:"Node_701"
  type:"const"
  top:"Node_701"
  layer_param {
    idx:701
    out_0 {name:"Node_701:0",dtype:float32,shape:[192]}
  }
}
layer {
  name:"Node_702"
  type:"const"
  top:"Node_702"
  layer_param {
    idx:702
    out_0 {name:"Node_702:0",dtype:float32,shape:[192]}
  }
}
layer {
  name:"Node_703"
  type:"nn_batch_norm"
  top:"Node_703"
  bottom:"Node_698"
  bottom:"Node_699"
  bottom:"Node_700"
  bottom:"Node_701"
  bottom:"Node_702"
  layer_param {
    idx:703
    in_0 {name:"Node_698:0",dtype:float32,shape:[1, 192, 17, 17]}
    in_1 {name:"Node_699:0",dtype:float32,shape:[192]}
    in_2 {name:"Node_700:0",dtype:float32,shape:[192]}
    in_3 {name:"Node_701:0",dtype:float32,shape:[192]}
    in_4 {name:"Node_702:0",dtype:float32,shape:[192]}
    out_0 {name:"Node_703:0",dtype:float32,shape:[1, 192, 17, 17]}
    out_1 {name:"Node_703:1",dtype:float32,shape:[192]}
    out_2 {name:"Node_703:2",dtype:float32,shape:[192]}
    attrs {'axis': 1, 'epsilon': 0.0010000000474974513, 'center': 1, 'scale': 0}
  }
}
layer {
  name:"Node_705"
  type:"nn_relu"
  top:"Node_705"
  bottom:"Node_703"
  layer_param {
    idx:705
    in_0 {name:"Node_703:0",dtype:float32,shape:[1, 192, 17, 17]}
    out_0 {name:"Node_705:0",dtype:float32,shape:[1, 192, 17, 17]}
  }
}
layer {
  name:"Node_723"
  type:"const"
  top:"Node_723"
  layer_param {
    idx:723
    out_0 {name:"Node_723:0",dtype:float32,shape:[1, 1, 768, 160]}
  }
}
layer {
  name:"Node_724"
  type:"layout_transform"
  top:"Node_724"
  bottom:"Node_723"
  layer_param {
    idx:724
    in_0 {name:"Node_723:0",dtype:float32,shape:[1, 1, 768, 160]}
    out_0 {name:"Node_724:0",dtype:float32,shape:[160, 768, 1, 1]}
    attrs {'src_layout': 'HWIO', 'dst_layout': 'OIHW'}
  }
}
layer {
  name:"Node_725"
  type:"nn_conv2d"
  top:"Node_725"
  bottom:"Node_651"
  bottom:"Node_724"
  layer_param {
    idx:725
    in_0 {name:"Node_651:0",dtype:float32,shape:[1, 768, 17, 17]}
    in_1 {name:"Node_724:0",dtype:float32,shape:[160, 768, 1, 1]}
    out_0 {name:"Node_725:0",dtype:float32,shape:[1, 160, 17, 17]}
    attrs {'strides': [1, 1], 'padding': [0, 0, 0, 0], 'dilation': [1, 1], 'groups': 1, 'channels': 160, 'kernel_size': [1, 1], 'data_layout': 'NCHW', 'kernel_layout': 'OIHW', 'out_layout': '', 'out_dtype': ''}
  }
}
layer {
  name:"Node_726"
  type:"const"
  top:"Node_726"
  layer_param {
    idx:726
    out_0 {name:"Node_726:0",dtype:float32,shape:[160]}
  }
}
layer {
  name:"Node_727"
  type:"const"
  top:"Node_727"
  layer_param {
    idx:727
    out_0 {name:"Node_727:0",dtype:float32,shape:[160]}
  }
}
layer {
  name:"Node_728"
  type:"const"
  top:"Node_728"
  layer_param {
    idx:728
    out_0 {name:"Node_728:0",dtype:float32,shape:[160]}
  }
}
layer {
  name:"Node_729"
  type:"const"
  top:"Node_729"
  layer_param {
    idx:729
    out_0 {name:"Node_729:0",dtype:float32,shape:[160]}
  }
}
layer {
  name:"Node_730"
  type:"nn_batch_norm"
  top:"Node_730"
  bottom:"Node_725"
  bottom:"Node_726"
  bottom:"Node_727"
  bottom:"Node_728"
  bottom:"Node_729"
  layer_param {
    idx:730
    in_0 {name:"Node_725:0",dtype:float32,shape:[1, 160, 17, 17]}
    in_1 {name:"Node_726:0",dtype:float32,shape:[160]}
    in_2 {name:"Node_727:0",dtype:float32,shape:[160]}
    in_3 {name:"Node_728:0",dtype:float32,shape:[160]}
    in_4 {name:"Node_729:0",dtype:float32,shape:[160]}
    out_0 {name:"Node_730:0",dtype:float32,shape:[1, 160, 17, 17]}
    out_1 {name:"Node_730:1",dtype:float32,shape:[160]}
    out_2 {name:"Node_730:2",dtype:float32,shape:[160]}
    attrs {'axis': 1, 'epsilon': 0.0010000000474974513, 'center': 1, 'scale': 0}
  }
}
layer {
  name:"Node_732"
  type:"nn_relu"
  top:"Node_732"
  bottom:"Node_730"
  layer_param {
    idx:732
    in_0 {name:"Node_730:0",dtype:float32,shape:[1, 160, 17, 17]}
    out_0 {name:"Node_732:0",dtype:float32,shape:[1, 160, 17, 17]}
  }
}
layer {
  name:"Node_734"
  type:"const"
  top:"Node_734"
  layer_param {
    idx:734
    out_0 {name:"Node_734:0",dtype:float32,shape:[7, 1, 160, 160]}
  }
}
layer {
  name:"Node_735"
  type:"layout_transform"
  top:"Node_735"
  bottom:"Node_734"
  layer_param {
    idx:735
    in_0 {name:"Node_734:0",dtype:float32,shape:[7, 1, 160, 160]}
    out_0 {name:"Node_735:0",dtype:float32,shape:[160, 160, 7, 1]}
    attrs {'src_layout': 'HWIO', 'dst_layout': 'OIHW'}
  }
}
layer {
  name:"Node_736"
  type:"nn_conv2d"
  top:"Node_736"
  bottom:"Node_732"
  bottom:"Node_735"
  layer_param {
    idx:736
    in_0 {name:"Node_732:0",dtype:float32,shape:[1, 160, 17, 17]}
    in_1 {name:"Node_735:0",dtype:float32,shape:[160, 160, 7, 1]}
    out_0 {name:"Node_736:0",dtype:float32,shape:[1, 160, 17, 17]}
    attrs {'strides': [1, 1], 'padding': [3, 0, 3, 0], 'dilation': [1, 1], 'groups': 1, 'channels': 160, 'kernel_size': [7, 1], 'data_layout': 'NCHW', 'kernel_layout': 'OIHW', 'out_layout': '', 'out_dtype': ''}
  }
}
layer {
  name:"Node_737"
  type:"const"
  top:"Node_737"
  layer_param {
    idx:737
    out_0 {name:"Node_737:0",dtype:float32,shape:[160]}
  }
}
layer {
  name:"Node_738"
  type:"const"
  top:"Node_738"
  layer_param {
    idx:738
    out_0 {name:"Node_738:0",dtype:float32,shape:[160]}
  }
}
layer {
  name:"Node_739"
  type:"const"
  top:"Node_739"
  layer_param {
    idx:739
    out_0 {name:"Node_739:0",dtype:float32,shape:[160]}
  }
}
layer {
  name:"Node_740"
  type:"const"
  top:"Node_740"
  layer_param {
    idx:740
    out_0 {name:"Node_740:0",dtype:float32,shape:[160]}
  }
}
layer {
  name:"Node_741"
  type:"nn_batch_norm"
  top:"Node_741"
  bottom:"Node_736"
  bottom:"Node_737"
  bottom:"Node_738"
  bottom:"Node_739"
  bottom:"Node_740"
  layer_param {
    idx:741
    in_0 {name:"Node_736:0",dtype:float32,shape:[1, 160, 17, 17]}
    in_1 {name:"Node_737:0",dtype:float32,shape:[160]}
    in_2 {name:"Node_738:0",dtype:float32,shape:[160]}
    in_3 {name:"Node_739:0",dtype:float32,shape:[160]}
    in_4 {name:"Node_740:0",dtype:float32,shape:[160]}
    out_0 {name:"Node_741:0",dtype:float32,shape:[1, 160, 17, 17]}
    out_1 {name:"Node_741:1",dtype:float32,shape:[160]}
    out_2 {name:"Node_741:2",dtype:float32,shape:[160]}
    attrs {'axis': 1, 'epsilon': 0.0010000000474974513, 'center': 1, 'scale': 0}
  }
}
layer {
  name:"Node_743"
  type:"nn_relu"
  top:"Node_743"
  bottom:"Node_741"
  layer_param {
    idx:743
    in_0 {name:"Node_741:0",dtype:float32,shape:[1, 160, 17, 17]}
    out_0 {name:"Node_743:0",dtype:float32,shape:[1, 160, 17, 17]}
  }
}
layer {
  name:"Node_745"
  type:"const"
  top:"Node_745"
  layer_param {
    idx:745
    out_0 {name:"Node_745:0",dtype:float32,shape:[1, 7, 160, 160]}
  }
}
layer {
  name:"Node_746"
  type:"layout_transform"
  top:"Node_746"
  bottom:"Node_745"
  layer_param {
    idx:746
    in_0 {name:"Node_745:0",dtype:float32,shape:[1, 7, 160, 160]}
    out_0 {name:"Node_746:0",dtype:float32,shape:[160, 160, 1, 7]}
    attrs {'src_layout': 'HWIO', 'dst_layout': 'OIHW'}
  }
}
layer {
  name:"Node_747"
  type:"nn_conv2d"
  top:"Node_747"
  bottom:"Node_743"
  bottom:"Node_746"
  layer_param {
    idx:747
    in_0 {name:"Node_743:0",dtype:float32,shape:[1, 160, 17, 17]}
    in_1 {name:"Node_746:0",dtype:float32,shape:[160, 160, 1, 7]}
    out_0 {name:"Node_747:0",dtype:float32,shape:[1, 160, 17, 17]}
    attrs {'strides': [1, 1], 'padding': [0, 3, 0, 3], 'dilation': [1, 1], 'groups': 1, 'channels': 160, 'kernel_size': [1, 7], 'data_layout': 'NCHW', 'kernel_layout': 'OIHW', 'out_layout': '', 'out_dtype': ''}
  }
}
layer {
  name:"Node_748"
  type:"const"
  top:"Node_748"
  layer_param {
    idx:748
    out_0 {name:"Node_748:0",dtype:float32,shape:[160]}
  }
}
layer {
  name:"Node_749"
  type:"const"
  top:"Node_749"
  layer_param {
    idx:749
    out_0 {name:"Node_749:0",dtype:float32,shape:[160]}
  }
}
layer {
  name:"Node_750"
  type:"const"
  top:"Node_750"
  layer_param {
    idx:750
    out_0 {name:"Node_750:0",dtype:float32,shape:[160]}
  }
}
layer {
  name:"Node_751"
  type:"const"
  top:"Node_751"
  layer_param {
    idx:751
    out_0 {name:"Node_751:0",dtype:float32,shape:[160]}
  }
}
layer {
  name:"Node_752"
  type:"nn_batch_norm"
  top:"Node_752"
  bottom:"Node_747"
  bottom:"Node_748"
  bottom:"Node_749"
  bottom:"Node_750"
  bottom:"Node_751"
  layer_param {
    idx:752
    in_0 {name:"Node_747:0",dtype:float32,shape:[1, 160, 17, 17]}
    in_1 {name:"Node_748:0",dtype:float32,shape:[160]}
    in_2 {name:"Node_749:0",dtype:float32,shape:[160]}
    in_3 {name:"Node_750:0",dtype:float32,shape:[160]}
    in_4 {name:"Node_751:0",dtype:float32,shape:[160]}
    out_0 {name:"Node_752:0",dtype:float32,shape:[1, 160, 17, 17]}
    out_1 {name:"Node_752:1",dtype:float32,shape:[160]}
    out_2 {name:"Node_752:2",dtype:float32,shape:[160]}
    attrs {'axis': 1, 'epsilon': 0.0010000000474974513, 'center': 1, 'scale': 0}
  }
}
layer {
  name:"Node_754"
  type:"nn_relu"
  top:"Node_754"
  bottom:"Node_752"
  layer_param {
    idx:754
    in_0 {name:"Node_752:0",dtype:float32,shape:[1, 160, 17, 17]}
    out_0 {name:"Node_754:0",dtype:float32,shape:[1, 160, 17, 17]}
  }
}
layer {
  name:"Node_756"
  type:"const"
  top:"Node_756"
  layer_param {
    idx:756
    out_0 {name:"Node_756:0",dtype:float32,shape:[7, 1, 160, 160]}
  }
}
layer {
  name:"Node_757"
  type:"layout_transform"
  top:"Node_757"
  bottom:"Node_756"
  layer_param {
    idx:757
    in_0 {name:"Node_756:0",dtype:float32,shape:[7, 1, 160, 160]}
    out_0 {name:"Node_757:0",dtype:float32,shape:[160, 160, 7, 1]}
    attrs {'src_layout': 'HWIO', 'dst_layout': 'OIHW'}
  }
}
layer {
  name:"Node_758"
  type:"nn_conv2d"
  top:"Node_758"
  bottom:"Node_754"
  bottom:"Node_757"
  layer_param {
    idx:758
    in_0 {name:"Node_754:0",dtype:float32,shape:[1, 160, 17, 17]}
    in_1 {name:"Node_757:0",dtype:float32,shape:[160, 160, 7, 1]}
    out_0 {name:"Node_758:0",dtype:float32,shape:[1, 160, 17, 17]}
    attrs {'strides': [1, 1], 'padding': [3, 0, 3, 0], 'dilation': [1, 1], 'groups': 1, 'channels': 160, 'kernel_size': [7, 1], 'data_layout': 'NCHW', 'kernel_layout': 'OIHW', 'out_layout': '', 'out_dtype': ''}
  }
}
layer {
  name:"Node_759"
  type:"const"
  top:"Node_759"
  layer_param {
    idx:759
    out_0 {name:"Node_759:0",dtype:float32,shape:[160]}
  }
}
layer {
  name:"Node_760"
  type:"const"
  top:"Node_760"
  layer_param {
    idx:760
    out_0 {name:"Node_760:0",dtype:float32,shape:[160]}
  }
}
layer {
  name:"Node_761"
  type:"const"
  top:"Node_761"
  layer_param {
    idx:761
    out_0 {name:"Node_761:0",dtype:float32,shape:[160]}
  }
}
layer {
  name:"Node_762"
  type:"const"
  top:"Node_762"
  layer_param {
    idx:762
    out_0 {name:"Node_762:0",dtype:float32,shape:[160]}
  }
}
layer {
  name:"Node_763"
  type:"nn_batch_norm"
  top:"Node_763"
  bottom:"Node_758"
  bottom:"Node_759"
  bottom:"Node_760"
  bottom:"Node_761"
  bottom:"Node_762"
  layer_param {
    idx:763
    in_0 {name:"Node_758:0",dtype:float32,shape:[1, 160, 17, 17]}
    in_1 {name:"Node_759:0",dtype:float32,shape:[160]}
    in_2 {name:"Node_760:0",dtype:float32,shape:[160]}
    in_3 {name:"Node_761:0",dtype:float32,shape:[160]}
    in_4 {name:"Node_762:0",dtype:float32,shape:[160]}
    out_0 {name:"Node_763:0",dtype:float32,shape:[1, 160, 17, 17]}
    out_1 {name:"Node_763:1",dtype:float32,shape:[160]}
    out_2 {name:"Node_763:2",dtype:float32,shape:[160]}
    attrs {'axis': 1, 'epsilon': 0.0010000000474974513, 'center': 1, 'scale': 0}
  }
}
layer {
  name:"Node_765"
  type:"nn_relu"
  top:"Node_765"
  bottom:"Node_763"
  layer_param {
    idx:765
    in_0 {name:"Node_763:0",dtype:float32,shape:[1, 160, 17, 17]}
    out_0 {name:"Node_765:0",dtype:float32,shape:[1, 160, 17, 17]}
  }
}
layer {
  name:"Node_767"
  type:"const"
  top:"Node_767"
  layer_param {
    idx:767
    out_0 {name:"Node_767:0",dtype:float32,shape:[1, 7, 160, 192]}
  }
}
layer {
  name:"Node_768"
  type:"layout_transform"
  top:"Node_768"
  bottom:"Node_767"
  layer_param {
    idx:768
    in_0 {name:"Node_767:0",dtype:float32,shape:[1, 7, 160, 192]}
    out_0 {name:"Node_768:0",dtype:float32,shape:[192, 160, 1, 7]}
    attrs {'src_layout': 'HWIO', 'dst_layout': 'OIHW'}
  }
}
layer {
  name:"Node_769"
  type:"nn_conv2d"
  top:"Node_769"
  bottom:"Node_765"
  bottom:"Node_768"
  layer_param {
    idx:769
    in_0 {name:"Node_765:0",dtype:float32,shape:[1, 160, 17, 17]}
    in_1 {name:"Node_768:0",dtype:float32,shape:[192, 160, 1, 7]}
    out_0 {name:"Node_769:0",dtype:float32,shape:[1, 192, 17, 17]}
    attrs {'strides': [1, 1], 'padding': [0, 3, 0, 3], 'dilation': [1, 1], 'groups': 1, 'channels': 192, 'kernel_size': [1, 7], 'data_layout': 'NCHW', 'kernel_layout': 'OIHW', 'out_layout': '', 'out_dtype': ''}
  }
}
layer {
  name:"Node_770"
  type:"const"
  top:"Node_770"
  layer_param {
    idx:770
    out_0 {name:"Node_770:0",dtype:float32,shape:[192]}
  }
}
layer {
  name:"Node_771"
  type:"const"
  top:"Node_771"
  layer_param {
    idx:771
    out_0 {name:"Node_771:0",dtype:float32,shape:[192]}
  }
}
layer {
  name:"Node_772"
  type:"const"
  top:"Node_772"
  layer_param {
    idx:772
    out_0 {name:"Node_772:0",dtype:float32,shape:[192]}
  }
}
layer {
  name:"Node_773"
  type:"const"
  top:"Node_773"
  layer_param {
    idx:773
    out_0 {name:"Node_773:0",dtype:float32,shape:[192]}
  }
}
layer {
  name:"Node_774"
  type:"nn_batch_norm"
  top:"Node_774"
  bottom:"Node_769"
  bottom:"Node_770"
  bottom:"Node_771"
  bottom:"Node_772"
  bottom:"Node_773"
  layer_param {
    idx:774
    in_0 {name:"Node_769:0",dtype:float32,shape:[1, 192, 17, 17]}
    in_1 {name:"Node_770:0",dtype:float32,shape:[192]}
    in_2 {name:"Node_771:0",dtype:float32,shape:[192]}
    in_3 {name:"Node_772:0",dtype:float32,shape:[192]}
    in_4 {name:"Node_773:0",dtype:float32,shape:[192]}
    out_0 {name:"Node_774:0",dtype:float32,shape:[1, 192, 17, 17]}
    out_1 {name:"Node_774:1",dtype:float32,shape:[192]}
    out_2 {name:"Node_774:2",dtype:float32,shape:[192]}
    attrs {'axis': 1, 'epsilon': 0.0010000000474974513, 'center': 1, 'scale': 0}
  }
}
layer {
  name:"Node_776"
  type:"nn_relu"
  top:"Node_776"
  bottom:"Node_774"
  layer_param {
    idx:776
    in_0 {name:"Node_774:0",dtype:float32,shape:[1, 192, 17, 17]}
    out_0 {name:"Node_776:0",dtype:float32,shape:[1, 192, 17, 17]}
  }
}
layer {
  name:"Node_782"
  type:"nn_avg_pool2d"
  top:"Node_782"
  bottom:"Node_651"
  layer_param {
    idx:782
    in_0 {name:"Node_651:0",dtype:float32,shape:[1, 768, 17, 17]}
    out_0 {name:"Node_782:0",dtype:float32,shape:[1, 768, 17, 17]}
    attrs {'pool_size': [3, 3], 'strides': [1, 1], 'dilation': [1, 1], 'padding': [1, 1, 1, 1], 'layout': 'NCHW', 'ceil_mode': 0, 'count_include_pad': 0}
  }
}
layer {
  name:"Node_784"
  type:"const"
  top:"Node_784"
  layer_param {
    idx:784
    out_0 {name:"Node_784:0",dtype:float32,shape:[1, 1, 768, 192]}
  }
}
layer {
  name:"Node_785"
  type:"layout_transform"
  top:"Node_785"
  bottom:"Node_784"
  layer_param {
    idx:785
    in_0 {name:"Node_784:0",dtype:float32,shape:[1, 1, 768, 192]}
    out_0 {name:"Node_785:0",dtype:float32,shape:[192, 768, 1, 1]}
    attrs {'src_layout': 'HWIO', 'dst_layout': 'OIHW'}
  }
}
layer {
  name:"Node_786"
  type:"nn_conv2d"
  top:"Node_786"
  bottom:"Node_782"
  bottom:"Node_785"
  layer_param {
    idx:786
    in_0 {name:"Node_782:0",dtype:float32,shape:[1, 768, 17, 17]}
    in_1 {name:"Node_785:0",dtype:float32,shape:[192, 768, 1, 1]}
    out_0 {name:"Node_786:0",dtype:float32,shape:[1, 192, 17, 17]}
    attrs {'strides': [1, 1], 'padding': [0, 0, 0, 0], 'dilation': [1, 1], 'groups': 1, 'channels': 192, 'kernel_size': [1, 1], 'data_layout': 'NCHW', 'kernel_layout': 'OIHW', 'out_layout': '', 'out_dtype': ''}
  }
}
layer {
  name:"Node_787"
  type:"const"
  top:"Node_787"
  layer_param {
    idx:787
    out_0 {name:"Node_787:0",dtype:float32,shape:[192]}
  }
}
layer {
  name:"Node_788"
  type:"const"
  top:"Node_788"
  layer_param {
    idx:788
    out_0 {name:"Node_788:0",dtype:float32,shape:[192]}
  }
}
layer {
  name:"Node_789"
  type:"const"
  top:"Node_789"
  layer_param {
    idx:789
    out_0 {name:"Node_789:0",dtype:float32,shape:[192]}
  }
}
layer {
  name:"Node_790"
  type:"const"
  top:"Node_790"
  layer_param {
    idx:790
    out_0 {name:"Node_790:0",dtype:float32,shape:[192]}
  }
}
layer {
  name:"Node_791"
  type:"nn_batch_norm"
  top:"Node_791"
  bottom:"Node_786"
  bottom:"Node_787"
  bottom:"Node_788"
  bottom:"Node_789"
  bottom:"Node_790"
  layer_param {
    idx:791
    in_0 {name:"Node_786:0",dtype:float32,shape:[1, 192, 17, 17]}
    in_1 {name:"Node_787:0",dtype:float32,shape:[192]}
    in_2 {name:"Node_788:0",dtype:float32,shape:[192]}
    in_3 {name:"Node_789:0",dtype:float32,shape:[192]}
    in_4 {name:"Node_790:0",dtype:float32,shape:[192]}
    out_0 {name:"Node_791:0",dtype:float32,shape:[1, 192, 17, 17]}
    out_1 {name:"Node_791:1",dtype:float32,shape:[192]}
    out_2 {name:"Node_791:2",dtype:float32,shape:[192]}
    attrs {'axis': 1, 'epsilon': 0.0010000000474974513, 'center': 1, 'scale': 0}
  }
}
layer {
  name:"Node_793"
  type:"nn_relu"
  top:"Node_793"
  bottom:"Node_791"
  layer_param {
    idx:793
    in_0 {name:"Node_791:0",dtype:float32,shape:[1, 192, 17, 17]}
    out_0 {name:"Node_793:0",dtype:float32,shape:[1, 192, 17, 17]}
  }
}
layer {
  name:"Node_795"
  type:"concatenate"
  top:"Node_795"
  bottom:"Node_662"
  bottom:"Node_705"
  bottom:"Node_776"
  bottom:"Node_793"
  layer_param {
    idx:795
    in_0 {name:"Node_662:0",dtype:float32,shape:[1, 192, 17, 17]}
    in_1 {name:"Node_705:0",dtype:float32,shape:[1, 192, 17, 17]}
    in_2 {name:"Node_776:0",dtype:float32,shape:[1, 192, 17, 17]}
    in_3 {name:"Node_793:0",dtype:float32,shape:[1, 192, 17, 17]}
    out_0 {name:"Node_795:0",dtype:float32,shape:[1, 768, 17, 17]}
    attrs {'axis': 1}
  }
}
layer {
  name:"Node_797"
  type:"const"
  top:"Node_797"
  layer_param {
    idx:797
    out_0 {name:"Node_797:0",dtype:float32,shape:[1, 1, 768, 192]}
  }
}
layer {
  name:"Node_798"
  type:"layout_transform"
  top:"Node_798"
  bottom:"Node_797"
  layer_param {
    idx:798
    in_0 {name:"Node_797:0",dtype:float32,shape:[1, 1, 768, 192]}
    out_0 {name:"Node_798:0",dtype:float32,shape:[192, 768, 1, 1]}
    attrs {'src_layout': 'HWIO', 'dst_layout': 'OIHW'}
  }
}
layer {
  name:"Node_799"
  type:"nn_conv2d"
  top:"Node_799"
  bottom:"Node_795"
  bottom:"Node_798"
  layer_param {
    idx:799
    in_0 {name:"Node_795:0",dtype:float32,shape:[1, 768, 17, 17]}
    in_1 {name:"Node_798:0",dtype:float32,shape:[192, 768, 1, 1]}
    out_0 {name:"Node_799:0",dtype:float32,shape:[1, 192, 17, 17]}
    attrs {'strides': [1, 1], 'padding': [0, 0, 0, 0], 'dilation': [1, 1], 'groups': 1, 'channels': 192, 'kernel_size': [1, 1], 'data_layout': 'NCHW', 'kernel_layout': 'OIHW', 'out_layout': '', 'out_dtype': ''}
  }
}
layer {
  name:"Node_800"
  type:"const"
  top:"Node_800"
  layer_param {
    idx:800
    out_0 {name:"Node_800:0",dtype:float32,shape:[192]}
  }
}
layer {
  name:"Node_801"
  type:"const"
  top:"Node_801"
  layer_param {
    idx:801
    out_0 {name:"Node_801:0",dtype:float32,shape:[192]}
  }
}
layer {
  name:"Node_802"
  type:"const"
  top:"Node_802"
  layer_param {
    idx:802
    out_0 {name:"Node_802:0",dtype:float32,shape:[192]}
  }
}
layer {
  name:"Node_803"
  type:"const"
  top:"Node_803"
  layer_param {
    idx:803
    out_0 {name:"Node_803:0",dtype:float32,shape:[192]}
  }
}
layer {
  name:"Node_804"
  type:"nn_batch_norm"
  top:"Node_804"
  bottom:"Node_799"
  bottom:"Node_800"
  bottom:"Node_801"
  bottom:"Node_802"
  bottom:"Node_803"
  layer_param {
    idx:804
    in_0 {name:"Node_799:0",dtype:float32,shape:[1, 192, 17, 17]}
    in_1 {name:"Node_800:0",dtype:float32,shape:[192]}
    in_2 {name:"Node_801:0",dtype:float32,shape:[192]}
    in_3 {name:"Node_802:0",dtype:float32,shape:[192]}
    in_4 {name:"Node_803:0",dtype:float32,shape:[192]}
    out_0 {name:"Node_804:0",dtype:float32,shape:[1, 192, 17, 17]}
    out_1 {name:"Node_804:1",dtype:float32,shape:[192]}
    out_2 {name:"Node_804:2",dtype:float32,shape:[192]}
    attrs {'axis': 1, 'epsilon': 0.0010000000474974513, 'center': 1, 'scale': 0}
  }
}
layer {
  name:"Node_806"
  type:"nn_relu"
  top:"Node_806"
  bottom:"Node_804"
  layer_param {
    idx:806
    in_0 {name:"Node_804:0",dtype:float32,shape:[1, 192, 17, 17]}
    out_0 {name:"Node_806:0",dtype:float32,shape:[1, 192, 17, 17]}
  }
}
layer {
  name:"Node_818"
  type:"const"
  top:"Node_818"
  layer_param {
    idx:818
    out_0 {name:"Node_818:0",dtype:float32,shape:[1, 1, 768, 160]}
  }
}
layer {
  name:"Node_819"
  type:"layout_transform"
  top:"Node_819"
  bottom:"Node_818"
  layer_param {
    idx:819
    in_0 {name:"Node_818:0",dtype:float32,shape:[1, 1, 768, 160]}
    out_0 {name:"Node_819:0",dtype:float32,shape:[160, 768, 1, 1]}
    attrs {'src_layout': 'HWIO', 'dst_layout': 'OIHW'}
  }
}
layer {
  name:"Node_820"
  type:"nn_conv2d"
  top:"Node_820"
  bottom:"Node_795"
  bottom:"Node_819"
  layer_param {
    idx:820
    in_0 {name:"Node_795:0",dtype:float32,shape:[1, 768, 17, 17]}
    in_1 {name:"Node_819:0",dtype:float32,shape:[160, 768, 1, 1]}
    out_0 {name:"Node_820:0",dtype:float32,shape:[1, 160, 17, 17]}
    attrs {'strides': [1, 1], 'padding': [0, 0, 0, 0], 'dilation': [1, 1], 'groups': 1, 'channels': 160, 'kernel_size': [1, 1], 'data_layout': 'NCHW', 'kernel_layout': 'OIHW', 'out_layout': '', 'out_dtype': ''}
  }
}
layer {
  name:"Node_821"
  type:"const"
  top:"Node_821"
  layer_param {
    idx:821
    out_0 {name:"Node_821:0",dtype:float32,shape:[160]}
  }
}
layer {
  name:"Node_822"
  type:"const"
  top:"Node_822"
  layer_param {
    idx:822
    out_0 {name:"Node_822:0",dtype:float32,shape:[160]}
  }
}
layer {
  name:"Node_823"
  type:"const"
  top:"Node_823"
  layer_param {
    idx:823
    out_0 {name:"Node_823:0",dtype:float32,shape:[160]}
  }
}
layer {
  name:"Node_824"
  type:"const"
  top:"Node_824"
  layer_param {
    idx:824
    out_0 {name:"Node_824:0",dtype:float32,shape:[160]}
  }
}
layer {
  name:"Node_825"
  type:"nn_batch_norm"
  top:"Node_825"
  bottom:"Node_820"
  bottom:"Node_821"
  bottom:"Node_822"
  bottom:"Node_823"
  bottom:"Node_824"
  layer_param {
    idx:825
    in_0 {name:"Node_820:0",dtype:float32,shape:[1, 160, 17, 17]}
    in_1 {name:"Node_821:0",dtype:float32,shape:[160]}
    in_2 {name:"Node_822:0",dtype:float32,shape:[160]}
    in_3 {name:"Node_823:0",dtype:float32,shape:[160]}
    in_4 {name:"Node_824:0",dtype:float32,shape:[160]}
    out_0 {name:"Node_825:0",dtype:float32,shape:[1, 160, 17, 17]}
    out_1 {name:"Node_825:1",dtype:float32,shape:[160]}
    out_2 {name:"Node_825:2",dtype:float32,shape:[160]}
    attrs {'axis': 1, 'epsilon': 0.0010000000474974513, 'center': 1, 'scale': 0}
  }
}
layer {
  name:"Node_827"
  type:"nn_relu"
  top:"Node_827"
  bottom:"Node_825"
  layer_param {
    idx:827
    in_0 {name:"Node_825:0",dtype:float32,shape:[1, 160, 17, 17]}
    out_0 {name:"Node_827:0",dtype:float32,shape:[1, 160, 17, 17]}
  }
}
layer {
  name:"Node_829"
  type:"const"
  top:"Node_829"
  layer_param {
    idx:829
    out_0 {name:"Node_829:0",dtype:float32,shape:[1, 7, 160, 160]}
  }
}
layer {
  name:"Node_830"
  type:"layout_transform"
  top:"Node_830"
  bottom:"Node_829"
  layer_param {
    idx:830
    in_0 {name:"Node_829:0",dtype:float32,shape:[1, 7, 160, 160]}
    out_0 {name:"Node_830:0",dtype:float32,shape:[160, 160, 1, 7]}
    attrs {'src_layout': 'HWIO', 'dst_layout': 'OIHW'}
  }
}
layer {
  name:"Node_831"
  type:"nn_conv2d"
  top:"Node_831"
  bottom:"Node_827"
  bottom:"Node_830"
  layer_param {
    idx:831
    in_0 {name:"Node_827:0",dtype:float32,shape:[1, 160, 17, 17]}
    in_1 {name:"Node_830:0",dtype:float32,shape:[160, 160, 1, 7]}
    out_0 {name:"Node_831:0",dtype:float32,shape:[1, 160, 17, 17]}
    attrs {'strides': [1, 1], 'padding': [0, 3, 0, 3], 'dilation': [1, 1], 'groups': 1, 'channels': 160, 'kernel_size': [1, 7], 'data_layout': 'NCHW', 'kernel_layout': 'OIHW', 'out_layout': '', 'out_dtype': ''}
  }
}
layer {
  name:"Node_832"
  type:"const"
  top:"Node_832"
  layer_param {
    idx:832
    out_0 {name:"Node_832:0",dtype:float32,shape:[160]}
  }
}
layer {
  name:"Node_833"
  type:"const"
  top:"Node_833"
  layer_param {
    idx:833
    out_0 {name:"Node_833:0",dtype:float32,shape:[160]}
  }
}
layer {
  name:"Node_834"
  type:"const"
  top:"Node_834"
  layer_param {
    idx:834
    out_0 {name:"Node_834:0",dtype:float32,shape:[160]}
  }
}
layer {
  name:"Node_835"
  type:"const"
  top:"Node_835"
  layer_param {
    idx:835
    out_0 {name:"Node_835:0",dtype:float32,shape:[160]}
  }
}
layer {
  name:"Node_836"
  type:"nn_batch_norm"
  top:"Node_836"
  bottom:"Node_831"
  bottom:"Node_832"
  bottom:"Node_833"
  bottom:"Node_834"
  bottom:"Node_835"
  layer_param {
    idx:836
    in_0 {name:"Node_831:0",dtype:float32,shape:[1, 160, 17, 17]}
    in_1 {name:"Node_832:0",dtype:float32,shape:[160]}
    in_2 {name:"Node_833:0",dtype:float32,shape:[160]}
    in_3 {name:"Node_834:0",dtype:float32,shape:[160]}
    in_4 {name:"Node_835:0",dtype:float32,shape:[160]}
    out_0 {name:"Node_836:0",dtype:float32,shape:[1, 160, 17, 17]}
    out_1 {name:"Node_836:1",dtype:float32,shape:[160]}
    out_2 {name:"Node_836:2",dtype:float32,shape:[160]}
    attrs {'axis': 1, 'epsilon': 0.0010000000474974513, 'center': 1, 'scale': 0}
  }
}
layer {
  name:"Node_838"
  type:"nn_relu"
  top:"Node_838"
  bottom:"Node_836"
  layer_param {
    idx:838
    in_0 {name:"Node_836:0",dtype:float32,shape:[1, 160, 17, 17]}
    out_0 {name:"Node_838:0",dtype:float32,shape:[1, 160, 17, 17]}
  }
}
layer {
  name:"Node_840"
  type:"const"
  top:"Node_840"
  layer_param {
    idx:840
    out_0 {name:"Node_840:0",dtype:float32,shape:[7, 1, 160, 192]}
  }
}
layer {
  name:"Node_841"
  type:"layout_transform"
  top:"Node_841"
  bottom:"Node_840"
  layer_param {
    idx:841
    in_0 {name:"Node_840:0",dtype:float32,shape:[7, 1, 160, 192]}
    out_0 {name:"Node_841:0",dtype:float32,shape:[192, 160, 7, 1]}
    attrs {'src_layout': 'HWIO', 'dst_layout': 'OIHW'}
  }
}
layer {
  name:"Node_842"
  type:"nn_conv2d"
  top:"Node_842"
  bottom:"Node_838"
  bottom:"Node_841"
  layer_param {
    idx:842
    in_0 {name:"Node_838:0",dtype:float32,shape:[1, 160, 17, 17]}
    in_1 {name:"Node_841:0",dtype:float32,shape:[192, 160, 7, 1]}
    out_0 {name:"Node_842:0",dtype:float32,shape:[1, 192, 17, 17]}
    attrs {'strides': [1, 1], 'padding': [3, 0, 3, 0], 'dilation': [1, 1], 'groups': 1, 'channels': 192, 'kernel_size': [7, 1], 'data_layout': 'NCHW', 'kernel_layout': 'OIHW', 'out_layout': '', 'out_dtype': ''}
  }
}
layer {
  name:"Node_843"
  type:"const"
  top:"Node_843"
  layer_param {
    idx:843
    out_0 {name:"Node_843:0",dtype:float32,shape:[192]}
  }
}
layer {
  name:"Node_844"
  type:"const"
  top:"Node_844"
  layer_param {
    idx:844
    out_0 {name:"Node_844:0",dtype:float32,shape:[192]}
  }
}
layer {
  name:"Node_845"
  type:"const"
  top:"Node_845"
  layer_param {
    idx:845
    out_0 {name:"Node_845:0",dtype:float32,shape:[192]}
  }
}
layer {
  name:"Node_846"
  type:"const"
  top:"Node_846"
  layer_param {
    idx:846
    out_0 {name:"Node_846:0",dtype:float32,shape:[192]}
  }
}
layer {
  name:"Node_847"
  type:"nn_batch_norm"
  top:"Node_847"
  bottom:"Node_842"
  bottom:"Node_843"
  bottom:"Node_844"
  bottom:"Node_845"
  bottom:"Node_846"
  layer_param {
    idx:847
    in_0 {name:"Node_842:0",dtype:float32,shape:[1, 192, 17, 17]}
    in_1 {name:"Node_843:0",dtype:float32,shape:[192]}
    in_2 {name:"Node_844:0",dtype:float32,shape:[192]}
    in_3 {name:"Node_845:0",dtype:float32,shape:[192]}
    in_4 {name:"Node_846:0",dtype:float32,shape:[192]}
    out_0 {name:"Node_847:0",dtype:float32,shape:[1, 192, 17, 17]}
    out_1 {name:"Node_847:1",dtype:float32,shape:[192]}
    out_2 {name:"Node_847:2",dtype:float32,shape:[192]}
    attrs {'axis': 1, 'epsilon': 0.0010000000474974513, 'center': 1, 'scale': 0}
  }
}
layer {
  name:"Node_849"
  type:"nn_relu"
  top:"Node_849"
  bottom:"Node_847"
  layer_param {
    idx:849
    in_0 {name:"Node_847:0",dtype:float32,shape:[1, 192, 17, 17]}
    out_0 {name:"Node_849:0",dtype:float32,shape:[1, 192, 17, 17]}
  }
}
layer {
  name:"Node_867"
  type:"const"
  top:"Node_867"
  layer_param {
    idx:867
    out_0 {name:"Node_867:0",dtype:float32,shape:[1, 1, 768, 160]}
  }
}
layer {
  name:"Node_868"
  type:"layout_transform"
  top:"Node_868"
  bottom:"Node_867"
  layer_param {
    idx:868
    in_0 {name:"Node_867:0",dtype:float32,shape:[1, 1, 768, 160]}
    out_0 {name:"Node_868:0",dtype:float32,shape:[160, 768, 1, 1]}
    attrs {'src_layout': 'HWIO', 'dst_layout': 'OIHW'}
  }
}
layer {
  name:"Node_869"
  type:"nn_conv2d"
  top:"Node_869"
  bottom:"Node_795"
  bottom:"Node_868"
  layer_param {
    idx:869
    in_0 {name:"Node_795:0",dtype:float32,shape:[1, 768, 17, 17]}
    in_1 {name:"Node_868:0",dtype:float32,shape:[160, 768, 1, 1]}
    out_0 {name:"Node_869:0",dtype:float32,shape:[1, 160, 17, 17]}
    attrs {'strides': [1, 1], 'padding': [0, 0, 0, 0], 'dilation': [1, 1], 'groups': 1, 'channels': 160, 'kernel_size': [1, 1], 'data_layout': 'NCHW', 'kernel_layout': 'OIHW', 'out_layout': '', 'out_dtype': ''}
  }
}
layer {
  name:"Node_870"
  type:"const"
  top:"Node_870"
  layer_param {
    idx:870
    out_0 {name:"Node_870:0",dtype:float32,shape:[160]}
  }
}
layer {
  name:"Node_871"
  type:"const"
  top:"Node_871"
  layer_param {
    idx:871
    out_0 {name:"Node_871:0",dtype:float32,shape:[160]}
  }
}
layer {
  name:"Node_872"
  type:"const"
  top:"Node_872"
  layer_param {
    idx:872
    out_0 {name:"Node_872:0",dtype:float32,shape:[160]}
  }
}
layer {
  name:"Node_873"
  type:"const"
  top:"Node_873"
…
    out_0 {name:"Node_1187:0",dtype:float32,shape:[1, 1, 1280, 384]}
  }
}
layer {
  name:"Node_1188"
  type:"layout_transform"
  top:"Node_1188"
  bottom:"Node_1187"
  layer_param {
    idx:1188
    in_0 {name:"Node_1187:0",dtype:float32,shape:[1, 1, 1280, 384]}
    out_0 {name:"Node_1188:0",dtype:float32,shape:[384, 1280, 1, 1]}
    attrs {'src_layout': 'HWIO', 'dst_layout': 'OIHW'}
  }
}
layer {
  name:"Node_1189"
  type:"nn_conv2d"
  top:"Node_1189"
  bottom:"Node_1167"
  bottom:"Node_1188"
  layer_param {
    idx:1189
    in_0 {name:"Node_1167:0",dtype:float32,shape:[1, 1280, 8, 8]}
    in_1 {name:"Node_1188:0",dtype:float32,shape:[384, 1280, 1, 1]}
    out_0 {name:"Node_1189:0",dtype:float32,shape:[1, 384, 8, 8]}
    attrs {'strides': [1, 1], 'padding': [0, 0, 0, 0], 'dilation': [1, 1], 'groups': 1, 'channels': 384, 'kernel_size': [1, 1], 'data_layout': 'NCHW', 'kernel_layout': 'OIHW', 'out_layout': '', 'out_dtype': ''}
  }
}
layer {
  name:"Node_1190"
  type:"const"
  top:"Node_1190"
  layer_param {
    idx:1190
    out_0 {name:"Node_1190:0",dtype:float32,shape:[384]}
  }
}
layer {
  name:"Node_1191"
  type:"const"
  top:"Node_1191"
  layer_param {
    idx:1191
    out_0 {name:"Node_1191:0",dtype:float32,shape:[384]}
  }
}
layer {
  name:"Node_1192"
  type:"const"
  top:"Node_1192"
  layer_param {
    idx:1192
    out_0 {name:"Node_1192:0",dtype:float32,shape:[384]}
  }
}
layer {
  name:"Node_1193"
  type:"const"
  top:"Node_1193"
  layer_param {
    idx:1193
    out_0 {name:"Node_1193:0",dtype:float32,shape:[384]}
  }
}
layer {
  name:"Node_1194"
  type:"nn_batch_norm"
  top:"Node_1194"
  bottom:"Node_1189"
  bottom:"Node_1190"
  bottom:"Node_1191"
  bottom:"Node_1192"
  bottom:"Node_1193"
  layer_param {
    idx:1194
    in_0 {name:"Node_1189:0",dtype:float32,shape:[1, 384, 8, 8]}
    in_1 {name:"Node_1190:0",dtype:float32,shape:[384]}
    in_2 {name:"Node_1191:0",dtype:float32,shape:[384]}
    in_3 {name:"Node_1192:0",dtype:float32,shape:[384]}
    in_4 {name:"Node_1193:0",dtype:float32,shape:[384]}
    out_0 {name:"Node_1194:0",dtype:float32,shape:[1, 384, 8, 8]}
    out_1 {name:"Node_1194:1",dtype:float32,shape:[384]}
    out_2 {name:"Node_1194:2",dtype:float32,shape:[384]}
    attrs {'axis': 1, 'epsilon': 0.0010000000474974513, 'center': 1, 'scale': 0}
  }
}
layer {
  name:"Node_1196"
  type:"nn_relu"
  top:"Node_1196"
  bottom:"Node_1194"
  layer_param {
    idx:1196
    in_0 {name:"Node_1194:0",dtype:float32,shape:[1, 384, 8, 8]}
    out_0 {name:"Node_1196:0",dtype:float32,shape:[1, 384, 8, 8]}
  }
}
layer {
  name:"Node_1198"
  type:"const"
  top:"Node_1198"
  layer_param {
    idx:1198
    out_0 {name:"Node_1198:0",dtype:float32,shape:[1, 3, 384, 384]}
  }
}
layer {
  name:"Node_1199"
  type:"layout_transform"
  top:"Node_1199"
  bottom:"Node_1198"
  layer_param {
    idx:1199
    in_0 {name:"Node_1198:0",dtype:float32,shape:[1, 3, 384, 384]}
    out_0 {name:"Node_1199:0",dtype:float32,shape:[384, 384, 1, 3]}
    attrs {'src_layout': 'HWIO', 'dst_layout': 'OIHW'}
  }
}
layer {
  name:"Node_1200"
  type:"nn_conv2d"
  top:"Node_1200"
  bottom:"Node_1196"
  bottom:"Node_1199"
  layer_param {
    idx:1200
    in_0 {name:"Node_1196:0",dtype:float32,shape:[1, 384, 8, 8]}
    in_1 {name:"Node_1199:0",dtype:float32,shape:[384, 384, 1, 3]}
    out_0 {name:"Node_1200:0",dtype:float32,shape:[1, 384, 8, 8]}
    attrs {'strides': [1, 1], 'padding': [0, 1, 0, 1], 'dilation': [1, 1], 'groups': 1, 'channels': 384, 'kernel_size': [1, 3], 'data_layout': 'NCHW', 'kernel_layout': 'OIHW', 'out_layout': '', 'out_dtype': ''}
  }
}
layer {
  name:"Node_1201"
  type:"const"
  top:"Node_1201"
  layer_param {
    idx:1201
    out_0 {name:"Node_1201:0",dtype:float32,shape:[384]}
  }
}
layer {
  name:"Node_1202"
  type:"const"
  top:"Node_1202"
  layer_param {
    idx:1202
    out_0 {name:"Node_1202:0",dtype:float32,shape:[384]}
  }
}
layer {
  name:"Node_1203"
  type:"const"
  top:"Node_1203"
  layer_param {
    idx:1203
    out_0 {name:"Node_1203:0",dtype:float32,shape:[384]}
  }
}
layer {
  name:"Node_1204"
  type:"const"
  top:"Node_1204"
  layer_param {
    idx:1204
    out_0 {name:"Node_1204:0",dtype:float32,shape:[384]}
  }
}
layer {
  name:"Node_1205"
  type:"nn_batch_norm"
  top:"Node_1205"
  bottom:"Node_1200"
  bottom:"Node_1201"
  bottom:"Node_1202"
  bottom:"Node_1203"
  bottom:"Node_1204"
  layer_param {
    idx:1205
    in_0 {name:"Node_1200:0",dtype:float32,shape:[1, 384, 8, 8]}
    in_1 {name:"Node_1201:0",dtype:float32,shape:[384]}
    in_2 {name:"Node_1202:0",dtype:float32,shape:[384]}
    in_3 {name:"Node_1203:0",dtype:float32,shape:[384]}
    in_4 {name:"Node_1204:0",dtype:float32,shape:[384]}
    out_0 {name:"Node_1205:0",dtype:float32,shape:[1, 384, 8, 8]}
    out_1 {name:"Node_1205:1",dtype:float32,shape:[384]}
    out_2 {name:"Node_1205:2",dtype:float32,shape:[384]}
    attrs {'axis': 1, 'epsilon': 0.0010000000474974513, 'center': 1, 'scale': 0}
  }
}
layer {
  name:"Node_1207"
  type:"nn_relu"
  top:"Node_1207"
  bottom:"Node_1205"
  layer_param {
    idx:1207
    in_0 {name:"Node_1205:0",dtype:float32,shape:[1, 384, 8, 8]}
    out_0 {name:"Node_1207:0",dtype:float32,shape:[1, 384, 8, 8]}
  }
}
layer {
  name:"Node_1213"
  type:"const"
  top:"Node_1213"
  layer_param {
    idx:1213
    out_0 {name:"Node_1213:0",dtype:float32,shape:[3, 1, 384, 384]}
  }
}
layer {
  name:"Node_1214"
  type:"layout_transform"
  top:"Node_1214"
  bottom:"Node_1213"
  layer_param {
    idx:1214
    in_0 {name:"Node_1213:0",dtype:float32,shape:[3, 1, 384, 384]}
    out_0 {name:"Node_1214:0",dtype:float32,shape:[384, 384, 3, 1]}
    attrs {'src_layout': 'HWIO', 'dst_layout': 'OIHW'}
  }
}
layer {
  name:"Node_1215"
  type:"nn_conv2d"
  top:"Node_1215"
  bottom:"Node_1196"
  bottom:"Node_1214"
  layer_param {
    idx:1215
    in_0 {name:"Node_1196:0",dtype:float32,shape:[1, 384, 8, 8]}
    in_1 {name:"Node_1214:0",dtype:float32,shape:[384, 384, 3, 1]}
    out_0 {name:"Node_1215:0",dtype:float32,shape:[1, 384, 8, 8]}
    attrs {'strides': [1, 1], 'padding': [1, 0, 1, 0], 'dilation': [1, 1], 'groups': 1, 'channels': 384, 'kernel_size': [3, 1], 'data_layout': 'NCHW', 'kernel_layout': 'OIHW', 'out_layout': '', 'out_dtype': ''}
  }
}
layer {
  name:"Node_1216"
  type:"const"
  top:"Node_1216"
  layer_param {
    idx:1216
    out_0 {name:"Node_1216:0",dtype:float32,shape:[384]}
  }
}
layer {
  name:"Node_1217"
  type:"const"
  top:"Node_1217"
  layer_param {
    idx:1217
    out_0 {name:"Node_1217:0",dtype:float32,shape:[384]}
  }
}
layer {
  name:"Node_1218"
  type:"const"
  top:"Node_1218"
  layer_param {
    idx:1218
    out_0 {name:"Node_1218:0",dtype:float32,shape:[384]}
  }
}
layer {
  name:"Node_1219"
  type:"const"
  top:"Node_1219"
  layer_param {
    idx:1219
    out_0 {name:"Node_1219:0",dtype:float32,shape:[384]}
  }
}
layer {
  name:"Node_1220"
  type:"nn_batch_norm"
  top:"Node_1220"
  bottom:"Node_1215"
  bottom:"Node_1216"
  bottom:"Node_1217"
  bottom:"Node_1218"
  bottom:"Node_1219"
  layer_param {
    idx:1220
    in_0 {name:"Node_1215:0",dtype:float32,shape:[1, 384, 8, 8]}
    in_1 {name:"Node_1216:0",dtype:float32,shape:[384]}
    in_2 {name:"Node_1217:0",dtype:float32,shape:[384]}
    in_3 {name:"Node_1218:0",dtype:float32,shape:[384]}
    in_4 {name:"Node_1219:0",dtype:float32,shape:[384]}
    out_0 {name:"Node_1220:0",dtype:float32,shape:[1, 384, 8, 8]}
    out_1 {name:"Node_1220:1",dtype:float32,shape:[384]}
    out_2 {name:"Node_1220:2",dtype:float32,shape:[384]}
    attrs {'axis': 1, 'epsilon': 0.0010000000474974513, 'center': 1, 'scale': 0}
  }
}
layer {
  name:"Node_1222"
  type:"nn_relu"
  top:"Node_1222"
  bottom:"Node_1220"
  layer_param {
    idx:1222
    in_0 {name:"Node_1220:0",dtype:float32,shape:[1, 384, 8, 8]}
    out_0 {name:"Node_1222:0",dtype:float32,shape:[1, 384, 8, 8]}
  }
}
layer {
  name:"Node_1234"
  type:"const"
  top:"Node_1234"
  layer_param {
    idx:1234
    out_0 {name:"Node_1234:0",dtype:float32,shape:[1, 1, 1280, 448]}
  }
}
layer {
  name:"Node_1235"
  type:"layout_transform"
  top:"Node_1235"
  bottom:"Node_1234"
  layer_param {
    idx:1235
    in_0 {name:"Node_1234:0",dtype:float32,shape:[1, 1, 1280, 448]}
    out_0 {name:"Node_1235:0",dtype:float32,shape:[448, 1280, 1, 1]}
    attrs {'src_layout': 'HWIO', 'dst_layout': 'OIHW'}
  }
}
layer {
  name:"Node_1236"
  type:"nn_conv2d"
  top:"Node_1236"
  bottom:"Node_1167"
  bottom:"Node_1235"
  layer_param {
    idx:1236
    in_0 {name:"Node_1167:0",dtype:float32,shape:[1, 1280, 8, 8]}
    in_1 {name:"Node_1235:0",dtype:float32,shape:[448, 1280, 1, 1]}
    out_0 {name:"Node_1236:0",dtype:float32,shape:[1, 448, 8, 8]}
    attrs {'strides': [1, 1], 'padding': [0, 0, 0, 0], 'dilation': [1, 1], 'groups': 1, 'channels': 448, 'kernel_size': [1, 1], 'data_layout': 'NCHW', 'kernel_layout': 'OIHW', 'out_layout': '', 'out_dtype': ''}
  }
}
layer {
  name:"Node_1237"
  type:"const"
  top:"Node_1237"
  layer_param {
    idx:1237
    out_0 {name:"Node_1237:0",dtype:float32,shape:[448]}
  }
}
layer {
  name:"Node_1238"
  type:"const"
  top:"Node_1238"
  layer_param {
    idx:1238
    out_0 {name:"Node_1238:0",dtype:float32,shape:[448]}
  }
}
layer {
  name:"Node_1239"
  type:"const"
  top:"Node_1239"
  layer_param {
    idx:1239
    out_0 {name:"Node_1239:0",dtype:float32,shape:[448]}
  }
}
layer {
  name:"Node_1240"
  type:"const"
  top:"Node_1240"
  layer_param {
    idx:1240
    out_0 {name:"Node_1240:0",dtype:float32,shape:[448]}
  }
}
layer {
  name:"Node_1241"
  type:"nn_batch_norm"
  top:"Node_1241"
  bottom:"Node_1236"
  bottom:"Node_1237"
  bottom:"Node_1238"
  bottom:"Node_1239"
  bottom:"Node_1240"
  layer_param {
    idx:1241
    in_0 {name:"Node_1236:0",dtype:float32,shape:[1, 448, 8, 8]}
    in_1 {name:"Node_1237:0",dtype:float32,shape:[448]}
    in_2 {name:"Node_1238:0",dtype:float32,shape:[448]}
    in_3 {name:"Node_1239:0",dtype:float32,shape:[448]}
    in_4 {name:"Node_1240:0",dtype:float32,shape:[448]}
    out_0 {name:"Node_1241:0",dtype:float32,shape:[1, 448, 8, 8]}
    out_1 {name:"Node_1241:1",dtype:float32,shape:[448]}
    out_2 {name:"Node_1241:2",dtype:float32,shape:[448]}
    attrs {'axis': 1, 'epsilon': 0.0010000000474974513, 'center': 1, 'scale': 0}
  }
}
layer {
  name:"Node_1243"
  type:"nn_relu"
  top:"Node_1243"
  bottom:"Node_1241"
  layer_param {
    idx:1243
    in_0 {name:"Node_1241:0",dtype:float32,shape:[1, 448, 8, 8]}
    out_0 {name:"Node_1243:0",dtype:float32,shape:[1, 448, 8, 8]}
  }
}
layer {
  name:"Node_1245"
  type:"const"
  top:"Node_1245"
  layer_param {
    idx:1245
    out_0 {name:"Node_1245:0",dtype:float32,shape:[3, 3, 448, 384]}
  }
}
layer {
  name:"Node_1246"
  type:"layout_transform"
  top:"Node_1246"
  bottom:"Node_1245"
  layer_param {
    idx:1246
    in_0 {name:"Node_1245:0",dtype:float32,shape:[3, 3, 448, 384]}
    out_0 {name:"Node_1246:0",dtype:float32,shape:[384, 448, 3, 3]}
    attrs {'src_layout': 'HWIO', 'dst_layout': 'OIHW'}
  }
}
layer {
  name:"Node_1247"
  type:"nn_conv2d"
  top:"Node_1247"
  bottom:"Node_1243"
  bottom:"Node_1246"
  layer_param {
    idx:1247
    in_0 {name:"Node_1243:0",dtype:float32,shape:[1, 448, 8, 8]}
    in_1 {name:"Node_1246:0",dtype:float32,shape:[384, 448, 3, 3]}
    out_0 {name:"Node_1247:0",dtype:float32,shape:[1, 384, 8, 8]}
    attrs {'strides': [1, 1], 'padding': [1, 1, 1, 1], 'dilation': [1, 1], 'groups': 1, 'channels': 384, 'kernel_size': [3, 3], 'data_layout': 'NCHW', 'kernel_layout': 'OIHW', 'out_layout': '', 'out_dtype': ''}
  }
}
layer {
  name:"Node_1248"
  type:"const"
  top:"Node_1248"
  layer_param {
    idx:1248
    out_0 {name:"Node_1248:0",dtype:float32,shape:[384]}
  }
}
layer {
  name:"Node_1249"
  type:"const"
  top:"Node_1249"
  layer_param {
    idx:1249
    out_0 {name:"Node_1249:0",dtype:float32,shape:[384]}
  }
}
layer {
  name:"Node_1250"
  type:"const"
  top:"Node_1250"
  layer_param {
    idx:1250
    out_0 {name:"Node_1250:0",dtype:float32,shape:[384]}
  }
}
layer {
  name:"Node_1251"
  type:"const"
  top:"Node_1251"
  layer_param {
    idx:1251
    out_0 {name:"Node_1251:0",dtype:float32,shape:[384]}
  }
}
layer {
  name:"Node_1252"
  type:"nn_batch_norm"
  top:"Node_1252"
  bottom:"Node_1247"
  bottom:"Node_1248"
  bottom:"Node_1249"
  bottom:"Node_1250"
  bottom:"Node_1251"
  layer_param {
    idx:1252
    in_0 {name:"Node_1247:0",dtype:float32,shape:[1, 384, 8, 8]}
    in_1 {name:"Node_1248:0",dtype:float32,shape:[384]}
    in_2 {name:"Node_1249:0",dtype:float32,shape:[384]}
    in_3 {name:"Node_1250:0",dtype:float32,shape:[384]}
    in_4 {name:"Node_1251:0",dtype:float32,shape:[384]}
    out_0 {name:"Node_1252:0",dtype:float32,shape:[1, 384, 8, 8]}
    out_1 {name:"Node_1252:1",dtype:float32,shape:[384]}
    out_2 {name:"Node_1252:2",dtype:float32,shape:[384]}
    attrs {'axis': 1, 'epsilon': 0.0010000000474974513, 'center': 1, 'scale': 0}
  }
}
layer {
  name:"Node_1254"
  type:"nn_relu"
  top:"Node_1254"
  bottom:"Node_1252"
  layer_param {
    idx:1254
    in_0 {name:"Node_1252:0",dtype:float32,shape:[1, 384, 8, 8]}
    out_0 {name:"Node_1254:0",dtype:float32,shape:[1, 384, 8, 8]}
  }
}
layer {
  name:"Node_1256"
  type:"const"
  top:"Node_1256"
  layer_param {
    idx:1256
    out_0 {name:"Node_1256:0",dtype:float32,shape:[1, 3, 384, 384]}
  }
}
layer {
  name:"Node_1257"
  type:"layout_transform"
  top:"Node_1257"
  bottom:"Node_1256"
  layer_param {
    idx:1257
    in_0 {name:"Node_1256:0",dtype:float32,shape:[1, 3, 384, 384]}
    out_0 {name:"Node_1257:0",dtype:float32,shape:[384, 384, 1, 3]}
    attrs {'src_layout': 'HWIO', 'dst_layout': 'OIHW'}
  }
}
layer {
  name:"Node_1258"
  type:"nn_conv2d"
  top:"Node_1258"
  bottom:"Node_1254"
  bottom:"Node_1257"
  layer_param {
    idx:1258
    in_0 {name:"Node_1254:0",dtype:float32,shape:[1, 384, 8, 8]}
    in_1 {name:"Node_1257:0",dtype:float32,shape:[384, 384, 1, 3]}
    out_0 {name:"Node_1258:0",dtype:float32,shape:[1, 384, 8, 8]}
    attrs {'strides': [1, 1], 'padding': [0, 1, 0, 1], 'dilation': [1, 1], 'groups': 1, 'channels': 384, 'kernel_size': [1, 3], 'data_layout': 'NCHW', 'kernel_layout': 'OIHW', 'out_layout': '', 'out_dtype': ''}
  }
}
layer {
  name:"Node_1259"
  type:"const"
  top:"Node_1259"
  layer_param {
    idx:1259
    out_0 {name:"Node_1259:0",dtype:float32,shape:[384]}
  }
}
layer {
  name:"Node_1260"
  type:"const"
  top:"Node_1260"
  layer_param {
    idx:1260
    out_0 {name:"Node_1260:0",dtype:float32,shape:[384]}
  }
}
layer {
  name:"Node_1261"
  type:"const"
  top:"Node_1261"
  layer_param {
    idx:1261
    out_0 {name:"Node_1261:0",dtype:float32,shape:[384]}
  }
}
layer {
  name:"Node_1262"
  type:"const"
  top:"Node_1262"
  layer_param {
    idx:1262
    out_0 {name:"Node_1262:0",dtype:float32,shape:[384]}
  }
}
layer {
  name:"Node_1263"
  type:"nn_batch_norm"
  top:"Node_1263"
  bottom:"Node_1258"
  bottom:"Node_1259"
  bottom:"Node_1260"
  bottom:"Node_1261"
  bottom:"Node_1262"
  layer_param {
    idx:1263
    in_0 {name:"Node_1258:0",dtype:float32,shape:[1, 384, 8, 8]}
    in_1 {name:"Node_1259:0",dtype:float32,shape:[384]}
    in_2 {name:"Node_1260:0",dtype:float32,shape:[384]}
    in_3 {name:"Node_1261:0",dtype:float32,shape:[384]}
    in_4 {name:"Node_1262:0",dtype:float32,shape:[384]}
    out_0 {name:"Node_1263:0",dtype:float32,shape:[1, 384, 8, 8]}
    out_1 {name:"Node_1263:1",dtype:float32,shape:[384]}
    out_2 {name:"Node_1263:2",dtype:float32,shape:[384]}
    attrs {'axis': 1, 'epsilon': 0.0010000000474974513, 'center': 1, 'scale': 0}
  }
}
layer {
  name:"Node_1265"
  type:"nn_relu"
  top:"Node_1265"
  bottom:"Node_1263"
  layer_param {
    idx:1265
    in_0 {name:"Node_1263:0",dtype:float32,shape:[1, 384, 8, 8]}
    out_0 {name:"Node_1265:0",dtype:float32,shape:[1, 384, 8, 8]}
  }
}
layer {
  name:"Node_1271"
  type:"const"
  top:"Node_1271"
  layer_param {
    idx:1271
    out_0 {name:"Node_1271:0",dtype:float32,shape:[3, 1, 384, 384]}
  }
}
layer {
  name:"Node_1272"
  type:"layout_transform"
  top:"Node_1272"
  bottom:"Node_1271"
  layer_param {
    idx:1272
    in_0 {name:"Node_1271:0",dtype:float32,shape:[3, 1, 384, 384]}
    out_0 {name:"Node_1272:0",dtype:float32,shape:[384, 384, 3, 1]}
    attrs {'src_layout': 'HWIO', 'dst_layout': 'OIHW'}
  }
}
layer {
  name:"Node_1273"
  type:"nn_conv2d"
  top:"Node_1273"
  bottom:"Node_1254"
  bottom:"Node_1272"
  layer_param {
    idx:1273
    in_0 {name:"Node_1254:0",dtype:float32,shape:[1, 384, 8, 8]}
    in_1 {name:"Node_1272:0",dtype:float32,shape:[384, 384, 3, 1]}
    out_0 {name:"Node_1273:0",dtype:float32,shape:[1, 384, 8, 8]}
    attrs {'strides': [1, 1], 'padding': [1, 0, 1, 0], 'dilation': [1, 1], 'groups': 1, 'channels': 384, 'kernel_size': [3, 1], 'data_layout': 'NCHW', 'kernel_layout': 'OIHW', 'out_layout': '', 'out_dtype': ''}
  }
}
layer {
  name:"Node_1274"
  type:"const"
  top:"Node_1274"
  layer_param {
    idx:1274
    out_0 {name:"Node_1274:0",dtype:float32,shape:[384]}
  }
}
layer {
  name:"Node_1275"
  type:"const"
  top:"Node_1275"
  layer_param {
    idx:1275
    out_0 {name:"Node_1275:0",dtype:float32,shape:[384]}
  }
}
layer {
  name:"Node_1276"
  type:"const"
  top:"Node_1276"
  layer_param {
    idx:1276
    out_0 {name:"Node_1276:0",dtype:float32,shape:[384]}
  }
}
layer {
  name:"Node_1277"
  type:"const"
  top:"Node_1277"
  layer_param {
    idx:1277
    out_0 {name:"Node_1277:0",dtype:float32,shape:[384]}
  }
}
layer {
  name:"Node_1278"
  type:"nn_batch_norm"
  top:"Node_1278"
  bottom:"Node_1273"
  bottom:"Node_1274"
  bottom:"Node_1275"
  bottom:"Node_1276"
  bottom:"Node_1277"
  layer_param {
    idx:1278
    in_0 {name:"Node_1273:0",dtype:float32,shape:[1, 384, 8, 8]}
    in_1 {name:"Node_1274:0",dtype:float32,shape:[384]}
    in_2 {name:"Node_1275:0",dtype:float32,shape:[384]}
    in_3 {name:"Node_1276:0",dtype:float32,shape:[384]}
    in_4 {name:"Node_1277:0",dtype:float32,shape:[384]}
    out_0 {name:"Node_1278:0",dtype:float32,shape:[1, 384, 8, 8]}
    out_1 {name:"Node_1278:1",dtype:float32,shape:[384]}
    out_2 {name:"Node_1278:2",dtype:float32,shape:[384]}
    attrs {'axis': 1, 'epsilon': 0.0010000000474974513, 'center': 1, 'scale': 0}
  }
}
layer {
  name:"Node_1280"
  type:"nn_relu"
  top:"Node_1280"
  bottom:"Node_1278"
  layer_param {
    idx:1280
    in_0 {name:"Node_1278:0",dtype:float32,shape:[1, 384, 8, 8]}
    out_0 {name:"Node_1280:0",dtype:float32,shape:[1, 384, 8, 8]}
  }
}
layer {
  name:"Node_1286"
  type:"nn_avg_pool2d"
  top:"Node_1286"
  bottom:"Node_1167"
  layer_param {
    idx:1286
    in_0 {name:"Node_1167:0",dtype:float32,shape:[1, 1280, 8, 8]}
    out_0 {name:"Node_1286:0",dtype:float32,shape:[1, 1280, 8, 8]}
    attrs {'pool_size': [3, 3], 'strides': [1, 1], 'dilation': [1, 1], 'padding': [1, 1, 1, 1], 'layout': 'NCHW', 'ceil_mode': 0, 'count_include_pad': 0}
  }
}
layer {
  name:"Node_1288"
  type:"const"
  top:"Node_1288"
  layer_param {
    idx:1288
    out_0 {name:"Node_1288:0",dtype:float32,shape:[1, 1, 1280, 192]}
  }
}
layer {
  name:"Node_1289"
  type:"layout_transform"
  top:"Node_1289"
  bottom:"Node_1288"
  layer_param {
    idx:1289
    in_0 {name:"Node_1288:0",dtype:float32,shape:[1, 1, 1280, 192]}
    out_0 {name:"Node_1289:0",dtype:float32,shape:[192, 1280, 1, 1]}
    attrs {'src_layout': 'HWIO', 'dst_layout': 'OIHW'}
  }
}
layer {
  name:"Node_1290"
  type:"nn_conv2d"
  top:"Node_1290"
  bottom:"Node_1286"
  bottom:"Node_1289"
  layer_param {
    idx:1290
    in_0 {name:"Node_1286:0",dtype:float32,shape:[1, 1280, 8, 8]}
    in_1 {name:"Node_1289:0",dtype:float32,shape:[192, 1280, 1, 1]}
    out_0 {name:"Node_1290:0",dtype:float32,shape:[1, 192, 8, 8]}
    attrs {'strides': [1, 1], 'padding': [0, 0, 0, 0], 'dilation': [1, 1], 'groups': 1, 'channels': 192, 'kernel_size': [1, 1], 'data_layout': 'NCHW', 'kernel_layout': 'OIHW', 'out_layout': '', 'out_dtype': ''}
  }
}
layer {
  name:"Node_1291"
  type:"const"
  top:"Node_1291"
  layer_param {
    idx:1291
    out_0 {name:"Node_1291:0",dtype:float32,shape:[192]}
  }
}
layer {
  name:"Node_1292"
  type:"const"
  top:"Node_1292"
  layer_param {
    idx:1292
    out_0 {name:"Node_1292:0",dtype:float32,shape:[192]}
  }
}
layer {
  name:"Node_1293"
  type:"const"
  top:"Node_1293"
  layer_param {
    idx:1293
    out_0 {name:"Node_1293:0",dtype:float32,shape:[192]}
  }
}
layer {
  name:"Node_1294"
  type:"const"
  top:"Node_1294"
  layer_param {
    idx:1294
    out_0 {name:"Node_1294:0",dtype:float32,shape:[192]}
  }
}
layer {
  name:"Node_1295"
  type:"nn_batch_norm"
  top:"Node_1295"
  bottom:"Node_1290"
  bottom:"Node_1291"
  bottom:"Node_1292"
  bottom:"Node_1293"
  bottom:"Node_1294"
  layer_param {
    idx:1295
    in_0 {name:"Node_1290:0",dtype:float32,shape:[1, 192, 8, 8]}
    in_1 {name:"Node_1291:0",dtype:float32,shape:[192]}
    in_2 {name:"Node_1292:0",dtype:float32,shape:[192]}
    in_3 {name:"Node_1293:0",dtype:float32,shape:[192]}
    in_4 {name:"Node_1294:0",dtype:float32,shape:[192]}
    out_0 {name:"Node_1295:0",dtype:float32,shape:[1, 192, 8, 8]}
    out_1 {name:"Node_1295:1",dtype:float32,shape:[192]}
    out_2 {name:"Node_1295:2",dtype:float32,shape:[192]}
    attrs {'axis': 1, 'epsilon': 0.0010000000474974513, 'center': 1, 'scale': 0}
  }
}
layer {
  name:"Node_1297"
  type:"nn_relu"
  top:"Node_1297"
  bottom:"Node_1295"
  layer_param {
    idx:1297
    in_0 {name:"Node_1295:0",dtype:float32,shape:[1, 192, 8, 8]}
    out_0 {name:"Node_1297:0",dtype:float32,shape:[1, 192, 8, 8]}
  }
}
layer {
  name:"Node_1299"
  type:"concatenate"
  top:"Node_1299"
  bottom:"Node_1178"
  bottom:"Node_1207"
  bottom:"Node_1222"
  bottom:"Node_1265"
  bottom:"Node_1280"
  bottom:"Node_1297"
  layer_param {
    idx:1299
    in_0 {name:"Node_1178:0",dtype:float32,shape:[1, 320, 8, 8]}
    in_1 {name:"Node_1207:0",dtype:float32,shape:[1, 384, 8, 8]}
    in_2 {name:"Node_1222:0",dtype:float32,shape:[1, 384, 8, 8]}
    in_3 {name:"Node_1265:0",dtype:float32,shape:[1, 384, 8, 8]}
    in_4 {name:"Node_1280:0",dtype:float32,shape:[1, 384, 8, 8]}
    in_5 {name:"Node_1297:0",dtype:float32,shape:[1, 192, 8, 8]}
    out_0 {name:"Node_1299:0",dtype:float32,shape:[1, 2048, 8, 8]}
    attrs {'axis': 1}
  }
}
layer {
  name:"Node_1301"
  type:"const"
  top:"Node_1301"
  layer_param {
    idx:1301
    out_0 {name:"Node_1301:0",dtype:float32,shape:[1, 1, 2048, 320]}
  }
}
layer {
  name:"Node_1302"
  type:"layout_transform"
  top:"Node_1302"
  bottom:"Node_1301"
  layer_param {
    idx:1302
    in_0 {name:"Node_1301:0",dtype:float32,shape:[1, 1, 2048, 320]}
    out_0 {name:"Node_1302:0",dtype:float32,shape:[320, 2048, 1, 1]}
    attrs {'src_layout': 'HWIO', 'dst_layout': 'OIHW'}
  }
}
layer {
  name:"Node_1303"
  type:"nn_conv2d"
  top:"Node_1303"
  bottom:"Node_1299"
  bottom:"Node_1302"
  layer_param {
    idx:1303
    in_0 {name:"Node_1299:0",dtype:float32,shape:[1, 2048, 8, 8]}
    in_1 {name:"Node_1302:0",dtype:float32,shape:[320, 2048, 1, 1]}
    out_0 {name:"Node_1303:0",dtype:float32,shape:[1, 320, 8, 8]}
    attrs {'strides': [1, 1], 'padding': [0, 0, 0, 0], 'dilation': [1, 1], 'groups': 1, 'channels': 320, 'kernel_size': [1, 1], 'data_layout': 'NCHW', 'kernel_layout': 'OIHW', 'out_layout': '', 'out_dtype': ''}
  }
}
layer {
  name:"Node_1304"
  type:"const"
  top:"Node_1304"
  layer_param {
    idx:1304
    out_0 {name:"Node_1304:0",dtype:float32,shape:[320]}
  }
}
layer {
  name:"Node_1305"
  type:"const"
  top:"Node_1305"
  layer_param {
    idx:1305
    out_0 {name:"Node_1305:0",dtype:float32,shape:[320]}
  }
}
layer {
  name:"Node_1306"
  type:"const"
  top:"Node_1306"
  layer_param {
    idx:1306
    out_0 {name:"Node_1306:0",dtype:float32,shape:[320]}
  }
}
layer {
  name:"Node_1307"
  type:"const"
  top:"Node_1307"
  layer_param {
    idx:1307
    out_0 {name:"Node_1307:0",dtype:float32,shape:[320]}
  }
}
layer {
  name:"Node_1308"
  type:"nn_batch_norm"
  top:"Node_1308"
  bottom:"Node_1303"
  bottom:"Node_1304"
  bottom:"Node_1305"
  bottom:"Node_1306"
  bottom:"Node_1307"
  layer_param {
    idx:1308
    in_0 {name:"Node_1303:0",dtype:float32,shape:[1, 320, 8, 8]}
    in_1 {name:"Node_1304:0",dtype:float32,shape:[320]}
    in_2 {name:"Node_1305:0",dtype:float32,shape:[320]}
    in_3 {name:"Node_1306:0",dtype:float32,shape:[320]}
    in_4 {name:"Node_1307:0",dtype:float32,shape:[320]}
    out_0 {name:"Node_1308:0",dtype:float32,shape:[1, 320, 8, 8]}
    out_1 {name:"Node_1308:1",dtype:float32,shape:[320]}
    out_2 {name:"Node_1308:2",dtype:float32,shape:[320]}
    attrs {'axis': 1, 'epsilon': 0.0010000000474974513, 'center': 1, 'scale': 0}
  }
}
layer {
  name:"Node_1310"
  type:"nn_relu"
  top:"Node_1310"
  bottom:"Node_1308"
  layer_param {
    idx:1310
    in_0 {name:"Node_1308:0",dtype:float32,shape:[1, 320, 8, 8]}
    out_0 {name:"Node_1310:0",dtype:float32,shape:[1, 320, 8, 8]}
  }
}
layer {
  name:"Node_1319"
  type:"const"
  top:"Node_1319"
  layer_param {
    idx:1319
    out_0 {name:"Node_1319:0",dtype:float32,shape:[1, 1, 2048, 384]}
  }
}
layer {
  name:"Node_1320"
  type:"layout_transform"
  top:"Node_1320"
  bottom:"Node_1319"
  layer_param {
    idx:1320
    in_0 {name:"Node_1319:0",dtype:float32,shape:[1, 1, 2048, 384]}
    out_0 {name:"Node_1320:0",dtype:float32,shape:[384, 2048, 1, 1]}
    attrs {'src_layout': 'HWIO', 'dst_layout': 'OIHW'}
  }
}
layer {
  name:"Node_1321"
  type:"nn_conv2d"
  top:"Node_1321"
  bottom:"Node_1299"
  bottom:"Node_1320"
  layer_param {
    idx:1321
    in_0 {name:"Node_1299:0",dtype:float32,shape:[1, 2048, 8, 8]}
    in_1 {name:"Node_1320:0",dtype:float32,shape:[384, 2048, 1, 1]}
    out_0 {name:"Node_1321:0",dtype:float32,shape:[1, 384, 8, 8]}
    attrs {'strides': [1, 1], 'padding': [0, 0, 0, 0], 'dilation': [1, 1], 'groups': 1, 'channels': 384, 'kernel_size': [1, 1], 'data_layout': 'NCHW', 'kernel_layout': 'OIHW', 'out_layout': '', 'out_dtype': ''}
  }
}
layer {
  name:"Node_1322"
  type:"const"
  top:"Node_1322"
  layer_param {
    idx:1322
    out_0 {name:"Node_1322:0",dtype:float32,shape:[384]}
  }
}
layer {
  name:"Node_1323"
  type:"const"
  top:"Node_1323"
  layer_param {
    idx:1323
    out_0 {name:"Node_1323:0",dtype:float32,shape:[384]}
  }
}
layer {
  name:"Node_1324"
  type:"const"
  top:"Node_1324"
  layer_param {
    idx:1324
    out_0 {name:"Node_1324:0",dtype:float32,shape:[384]}
  }
}
layer {
  name:"Node_1325"
  type:"const"
  top:"Node_1325"
  layer_param {
    idx:1325
    out_0 {name:"Node_1325:0",dtype:float32,shape:[384]}
  }
}
layer {
  name:"Node_1326"
  type:"nn_batch_norm"
  top:"Node_1326"
  bottom:"Node_1321"
  bottom:"Node_1322"
  bottom:"Node_1323"
  bottom:"Node_1324"
  bottom:"Node_1325"
  layer_param {
    idx:1326
    in_0 {name:"Node_1321:0",dtype:float32,shape:[1, 384, 8, 8]}
    in_1 {name:"Node_1322:0",dtype:float32,shape:[384]}
    in_2 {name:"Node_1323:0",dtype:float32,shape:[384]}
    in_3 {name:"Node_1324:0",dtype:float32,shape:[384]}
    in_4 {name:"Node_1325:0",dtype:float32,shape:[384]}
    out_0 {name:"Node_1326:0",dtype:float32,shape:[1, 384, 8, 8]}
    out_1 {name:"Node_1326:1",dtype:float32,shape:[384]}
    out_2 {name:"Node_1326:2",dtype:float32,shape:[384]}
    attrs {'axis': 1, 'epsilon': 0.0010000000474974513, 'center': 1, 'scale': 0}
  }
}
layer {
  name:"Node_1328"
  type:"nn_relu"
  top:"Node_1328"
  bottom:"Node_1326"
  layer_param {
    idx:1328
    in_0 {name:"Node_1326:0",dtype:float32,shape:[1, 384, 8, 8]}
    out_0 {name:"Node_1328:0",dtype:float32,shape:[1, 384, 8, 8]}
  }
}
layer {
  name:"Node_1330"
  type:"const"
  top:"Node_1330"
  layer_param {
    idx:1330
    out_0 {name:"Node_1330:0",dtype:float32,shape:[1, 3, 384, 384]}
  }
}
layer {
  name:"Node_1331"
  type:"layout_transform"
  top:"Node_1331"
  bottom:"Node_1330"
  layer_param {
    idx:1331
    in_0 {name:"Node_1330:0",dtype:float32,shape:[1, 3, 384, 384]}
    out_0 {name:"Node_1331:0",dtype:float32,shape:[384, 384, 1, 3]}
    attrs {'src_layout': 'HWIO', 'dst_layout': 'OIHW'}
  }
}
layer {
  name:"Node_1332"
  type:"nn_conv2d"
  top:"Node_1332"
  bottom:"Node_1328"
  bottom:"Node_1331"
  layer_param {
    idx:1332
    in_0 {name:"Node_1328:0",dtype:float32,shape:[1, 384, 8, 8]}
    in_1 {name:"Node_1331:0",dtype:float32,shape:[384, 384, 1, 3]}
    out_0 {name:"Node_1332:0",dtype:float32,shape:[1, 384, 8, 8]}
    attrs {'strides': [1, 1], 'padding': [0, 1, 0, 1], 'dilation': [1, 1], 'groups': 1, 'channels': 384, 'kernel_size': [1, 3], 'data_layout': 'NCHW', 'kernel_layout': 'OIHW', 'out_layout': '', 'out_dtype': ''}
  }
}
layer {
  name:"Node_1333"
  type:"const"
  top:"Node_1333"
  layer_param {
    idx:1333
    out_0 {name:"Node_1333:0",dtype:float32,shape:[384]}
  }
}
layer {
  name:"Node_1334"
  type:"const"
  top:"Node_1334"
  layer_param {
    idx:1334
    out_0 {name:"Node_1334:0",dtype:float32,shape:[384]}
  }
}
layer {
  name:"Node_1335"
  type:"const"
  top:"Node_1335"
  layer_param {
    idx:1335
    out_0 {name:"Node_1335:0",dtype:float32,shape:[384]}
  }
}
layer {
  name:"Node_1336"
  type:"const"
  top:"Node_1336"
  layer_param {
    idx:1336
    out_0 {name:"Node_1336:0",dtype:float32,shape:[384]}
  }
}
layer {
  name:"Node_1337"
  type:"nn_batch_norm"
  top:"Node_1337"
  bottom:"Node_1332"
  bottom:"Node_1333"
  bottom:"Node_1334"
  bottom:"Node_1335"
  bottom:"Node_1336"
  layer_param {
    idx:1337
    in_0 {name:"Node_1332:0",dtype:float32,shape:[1, 384, 8, 8]}
    in_1 {name:"Node_1333:0",dtype:float32,shape:[384]}
    in_2 {name:"Node_1334:0",dtype:float32,shape:[384]}
    in_3 {name:"Node_1335:0",dtype:float32,shape:[384]}
    in_4 {name:"Node_1336:0",dtype:float32,shape:[384]}
    out_0 {name:"Node_1337:0",dtype:float32,shape:[1, 384, 8, 8]}
    out_1 {name:"Node_1337:1",dtype:float32,shape:[384]}
    out_2 {name:"Node_1337:2",dtype:float32,shape:[384]}
    attrs {'axis': 1, 'epsilon': 0.0010000000474974513, 'center': 1, 'scale': 0}
  }
}
layer {
  name:"Node_1339"
  type:"nn_relu"
  top:"Node_1339"
  bottom:"Node_1337"
  layer_param {
    idx:1339
    in_0 {name:"Node_1337:0",dtype:float32,shape:[1, 384, 8, 8]}
    out_0 {name:"Node_1339:0",dtype:float32,shape:[1, 384, 8, 8]}
  }
}
layer {
  name:"Node_1345"
  type:"const"
  top:"Node_1345"
  layer_param {
    idx:1345
    out_0 {name:"Node_1345:0",dtype:float32,shape:[3, 1, 384, 384]}
  }
}
layer {
  name:"Node_1346"
  type:"layout_transform"
  top:"Node_1346"
  bottom:"Node_1345"
  layer_param {
    idx:1346
    in_0 {name:"Node_1345:0",dtype:float32,shape:[3, 1, 384, 384]}
    out_0 {name:"Node_1346:0",dtype:float32,shape:[384, 384, 3, 1]}
    attrs {'src_layout': 'HWIO', 'dst_layout': 'OIHW'}
  }
}
layer {
  name:"Node_1347"
  type:"nn_conv2d"
  top:"Node_1347"
  bottom:"Node_1328"
  bottom:"Node_1346"
  layer_param {
    idx:1347
    in_0 {name:"Node_1328:0",dtype:float32,shape:[1, 384, 8, 8]}
    in_1 {name:"Node_1346:0",dtype:float32,shape:[384, 384, 3, 1]}
    out_0 {name:"Node_1347:0",dtype:float32,shape:[1, 384, 8, 8]}
    attrs {'strides': [1, 1], 'padding': [1, 0, 1, 0], 'dilation': [1, 1], 'groups': 1, 'channels': 384, 'kernel_size': [3, 1], 'data_layout': 'NCHW', 'kernel_layout': 'OIHW', 'out_layout': '', 'out_dtype': ''}
  }
}
layer {
  name:"Node_1348"
  type:"const"
  top:"Node_1348"
  layer_param {
    idx:1348
    out_0 {name:"Node_1348:0",dtype:float32,shape:[384]}
  }
}
layer {
  name:"Node_1349"
  type:"const"
  top:"Node_1349"
  layer_param {
    idx:1349
    out_0 {name:"Node_1349:0",dtype:float32,shape:[384]}
  }
}
layer {
  name:"Node_1350"
  type:"const"
  top:"Node_1350"
  layer_param {
    idx:1350
    out_0 {name:"Node_1350:0",dtype:float32,shape:[384]}
  }
}
layer {
  name:"Node_1351"
  type:"const"
  top:"Node_1351"
  layer_param {
    idx:1351
    out_0 {name:"Node_1351:0",dtype:float32,shape:[384]}
  }
}
layer {
  name:"Node_1352"
  type:"nn_batch_norm"
  top:"Node_1352"
  bottom:"Node_1347"
  bottom:"Node_1348"
  bottom:"Node_1349"
  bottom:"Node_1350"
  bottom:"Node_1351"
  layer_param {
    idx:1352
    in_0 {name:"Node_1347:0",dtype:float32,shape:[1, 384, 8, 8]}
    in_1 {name:"Node_1348:0",dtype:float32,shape:[384]}
    in_2 {name:"Node_1349:0",dtype:float32,shape:[384]}
    in_3 {name:"Node_1350:0",dtype:float32,shape:[384]}
    in_4 {name:"Node_1351:0",dtype:float32,shape:[384]}
    out_0 {name:"Node_1352:0",dtype:float32,shape:[1, 384, 8, 8]}
    out_1 {name:"Node_1352:1",dtype:float32,shape:[384]}
    out_2 {name:"Node_1352:2",dtype:float32,shape:[384]}
    attrs {'axis': 1, 'epsilon': 0.0010000000474974513, 'center': 1, 'scale': 0}
  }
}
layer {
  name:"Node_1354"
  type:"nn_relu"
  top:"Node_1354"
  bottom:"Node_1352"
  layer_param {
    idx:1354
    in_0 {name:"Node_1352:0",dtype:float32,shape:[1, 384, 8, 8]}
    out_0 {name:"Node_1354:0",dtype:float32,shape:[1, 384, 8, 8]}
  }
}
layer {
  name:"Node_1366"
  type:"const"
  top:"Node_1366"
  layer_param {
    idx:1366
    out_0 {name:"Node_1366:0",dtype:float32,shape:[1, 1, 2048, 448]}
  }
}
layer {
  name:"Node_1367"
  type:"layout_transform"
  top:"Node_1367"
  bottom:"Node_1366"
  layer_param {
    idx:1367
    in_0 {name:"Node_1366:0",dtype:float32,shape:[1, 1, 2048, 448]}
    out_0 {name:"Node_1367:0",dtype:float32,shape:[448, 2048, 1, 1]}
    attrs {'src_layout': 'HWIO', 'dst_layout': 'OIHW'}
  }
}
layer {
  name:"Node_1368"
  type:"nn_conv2d"
  top:"Node_1368"
  bottom:"Node_1299"
  bottom:"Node_1367"
  layer_param {
    idx:1368
    in_0 {name:"Node_1299:0",dtype:float32,shape:[1, 2048, 8, 8]}
    in_1 {name:"Node_1367:0",dtype:float32,shape:[448, 2048, 1, 1]}
    out_0 {name:"Node_1368:0",dtype:float32,shape:[1, 448, 8, 8]}
    attrs {'strides': [1, 1], 'padding': [0, 0, 0, 0], 'dilation': [1, 1], 'groups': 1, 'channels': 448, 'kernel_size': [1, 1], 'data_layout': 'NCHW', 'kernel_layout': 'OIHW', 'out_layout': '', 'out_dtype': ''}
  }
}
layer {
  name:"Node_1369"
  type:"const"
  top:"Node_1369"
  layer_param {
    idx:1369
    out_0 {name:"Node_1369:0",dtype:float32,shape:[448]}
  }
}
layer {
  name:"Node_1370"
  type:"const"
  top:"Node_1370"
  layer_param {
    idx:1370
    out_0 {name:"Node_1370:0",dtype:float32,shape:[448]}
  }
}
layer {
  name:"Node_1371"
  type:"const"
  top:"Node_1371"
  layer_param {
    idx:1371
    out_0 {name:"Node_1371:0",dtype:float32,shape:[448]}
  }
}
layer {
  name:"Node_1372"
  type:"const"
  top:"Node_1372"
  layer_param {
    idx:1372
    out_0 {name:"Node_1372:0",dtype:float32,shape:[448]}
  }
}
layer {
  name:"Node_1373"
  type:"nn_batch_norm"
  top:"Node_1373"
  bottom:"Node_1368"
  bottom:"Node_1369"
  bottom:"Node_1370"
  bottom:"Node_1371"
  bottom:"Node_1372"
  layer_param {
    idx:1373
    in_0 {name:"Node_1368:0",dtype:float32,shape:[1, 448, 8, 8]}
    in_1 {name:"Node_1369:0",dtype:float32,shape:[448]}
    in_2 {name:"Node_1370:0",dtype:float32,shape:[448]}
    in_3 {name:"Node_1371:0",dtype:float32,shape:[448]}
    in_4 {name:"Node_1372:0",dtype:float32,shape:[448]}
    out_0 {name:"Node_1373:0",dtype:float32,shape:[1, 448, 8, 8]}
    out_1 {name:"Node_1373:1",dtype:float32,shape:[448]}
    out_2 {name:"Node_1373:2",dtype:float32,shape:[448]}
    attrs {'axis': 1, 'epsilon': 0.0010000000474974513, 'center': 1, 'scale': 0}
  }
}
layer {
  name:"Node_1375"
  type:"nn_relu"
  top:"Node_1375"
  bottom:"Node_1373"
  layer_param {
    idx:1375
    in_0 {name:"Node_1373:0",dtype:float32,shape:[1, 448, 8, 8]}
    out_0 {name:"Node_1375:0",dtype:float32,shape:[1, 448, 8, 8]}
  }
}
layer {
  name:"Node_1377"
  type:"const"
  top:"Node_1377"
  layer_param {
    idx:1377
    out_0 {name:"Node_1377:0",dtype:float32,shape:[3, 3, 448, 384]}
  }
}
layer {
  name:"Node_1378"
  type:"layout_transform"
  top:"Node_1378"
  bottom:"Node_1377"
  layer_param {
    idx:1378
    in_0 {name:"Node_1377:0",dtype:float32,shape:[3, 3, 448, 384]}
    out_0 {name:"Node_1378:0",dtype:float32,shape:[384, 448, 3, 3]}
    attrs {'src_layout': 'HWIO', 'dst_layout': 'OIHW'}
  }
}
layer {
  name:"Node_1379"
  type:"nn_conv2d"
  top:"Node_1379"
  bottom:"Node_1375"
  bottom:"Node_1378"
  layer_param {
    idx:1379
    in_0 {name:"Node_1375:0",dtype:float32,shape:[1, 448, 8, 8]}
    in_1 {name:"Node_1378:0",dtype:float32,shape:[384, 448, 3, 3]}
    out_0 {name:"Node_1379:0",dtype:float32,shape:[1, 384, 8, 8]}
    attrs {'strides': [1, 1], 'padding': [1, 1, 1, 1], 'dilation': [1, 1], 'groups': 1, 'channels': 384, 'kernel_size': [3, 3], 'data_layout': 'NCHW', 'kernel_layout': 'OIHW', 'out_layout': '', 'out_dtype': ''}
  }
}
layer {
  name:"Node_1380"
  type:"const"
  top:"Node_1380"
  layer_param {
    idx:1380
    out_0 {name:"Node_1380:0",dtype:float32,shape:[384]}
  }
}
layer {
  name:"Node_1381"
  type:"const"
  top:"Node_1381"
  layer_param {
    idx:1381
    out_0 {name:"Node_1381:0",dtype:float32,shape:[384]}
  }
}
layer {
  name:"Node_1382"
  type:"const"
  top:"Node_1382"
  layer_param {
    idx:1382
    out_0 {name:"Node_1382:0",dtype:float32,shape:[384]}
  }
}
layer {
  name:"Node_1383"
  type:"const"
  top:"Node_1383"
  layer_param {
    idx:1383
    out_0 {name:"Node_1383:0",dtype:float32,shape:[384]}
  }
}
layer {
  name:"Node_1384"
  type:"nn_batch_norm"
  top:"Node_1384"
  bottom:"Node_1379"
  bottom:"Node_1380"
  bottom:"Node_1381"
  bottom:"Node_1382"
  bottom:"Node_1383"
  layer_param {
    idx:1384
    in_0 {name:"Node_1379:0",dtype:float32,shape:[1, 384, 8, 8]}
    in_1 {name:"Node_1380:0",dtype:float32,shape:[384]}
    in_2 {name:"Node_1381:0",dtype:float32,shape:[384]}
    in_3 {name:"Node_1382:0",dtype:float32,shape:[384]}
    in_4 {name:"Node_1383:0",dtype:float32,shape:[384]}
    out_0 {name:"Node_1384:0",dtype:float32,shape:[1, 384, 8, 8]}
    out_1 {name:"Node_1384:1",dtype:float32,shape:[384]}
    out_2 {name:"Node_1384:2",dtype:float32,shape:[384]}
    attrs {'axis': 1, 'epsilon': 0.0010000000474974513, 'center': 1, 'scale': 0}
  }
}
layer {
  name:"Node_1386"
  type:"nn_relu"
  top:"Node_1386"
  bottom:"Node_1384"
  layer_param {
    idx:1386
    in_0 {name:"Node_1384:0",dtype:float32,shape:[1, 384, 8, 8]}
    out_0 {name:"Node_1386:0",dtype:float32,shape:[1, 384, 8, 8]}
  }
}
layer {
  name:"Node_1388"
  type:"const"
  top:"Node_1388"
  layer_param {
    idx:1388
    out_0 {name:"Node_1388:0",dtype:float32,shape:[1, 3, 384, 384]}
  }
}
layer {
  name:"Node_1389"
  type:"layout_transform"
  top:"Node_1389"
  bottom:"Node_1388"
  layer_param {
    idx:1389
    in_0 {name:"Node_1388:0",dtype:float32,shape:[1, 3, 384, 384]}
    out_0 {name:"Node_1389:0",dtype:float32,shape:[384, 384, 1, 3]}
    attrs {'src_layout': 'HWIO', 'dst_layout': 'OIHW'}
  }
}
layer {
  name:"Node_1390"
  type:"nn_conv2d"
  top:"Node_1390"
  bottom:"Node_1386"
  bottom:"Node_1389"
  layer_param {
    idx:1390
    in_0 {name:"Node_1386:0",dtype:float32,shape:[1, 384, 8, 8]}
    in_1 {name:"Node_1389:0",dtype:float32,shape:[384, 384, 1, 3]}
    out_0 {name:"Node_1390:0",dtype:float32,shape:[1, 384, 8, 8]}
    attrs {'strides': [1, 1], 'padding': [0, 1, 0, 1], 'dilation': [1, 1], 'groups': 1, 'channels': 384, 'kernel_size': [1, 3], 'data_layout': 'NCHW', 'kernel_layout': 'OIHW', 'out_layout': '', 'out_dtype': ''}
  }
}
layer {
  name:"Node_1391"
  type:"const"
  top:"Node_1391"
  layer_param {
    idx:1391
    out_0 {name:"Node_1391:0",dtype:float32,shape:[384]}
  }
}
layer {
  name:"Node_1392"
  type:"const"
  top:"Node_1392"
  layer_param {
    idx:1392
    out_0 {name:"Node_1392:0",dtype:float32,shape:[384]}
  }
}
layer {
  name:"Node_1393"
  type:"const"
  top:"Node_1393"
  layer_param {
    idx:1393
    out_0 {name:"Node_1393:0",dtype:float32,shape:[384]}
  }
}
layer {
  name:"Node_1394"
  type:"const"
  top:"Node_1394"
  layer_param {
    idx:1394
    out_0 {name:"Node_1394:0",dtype:float32,shape:[384]}
  }
}
layer {
  name:"Node_1395"
  type:"nn_batch_norm"
  top:"Node_1395"
  bottom:"Node_1390"
  bottom:"Node_1391"
  bottom:"Node_1392"
  bottom:"Node_1393"
  bottom:"Node_1394"
  layer_param {
    idx:1395
    in_0 {name:"Node_1390:0",dtype:float32,shape:[1, 384, 8, 8]}
    in_1 {name:"Node_1391:0",dtype:float32,shape:[384]}
    in_2 {name:"Node_1392:0",dtype:float32,shape:[384]}
    in_3 {name:"Node_1393:0",dtype:float32,shape:[384]}
    in_4 {name:"Node_1394:0",dtype:float32,shape:[384]}
    out_0 {name:"Node_1395:0",dtype:float32,shape:[1, 384, 8, 8]}
    out_1 {name:"Node_1395:1",dtype:float32,shape:[384]}
    out_2 {name:"Node_1395:2",dtype:float32,shape:[384]}
    attrs {'axis': 1, 'epsilon': 0.0010000000474974513, 'center': 1, 'scale': 0}
  }
}
layer {
  name:"Node_1397"
  type:"nn_relu"
  top:"Node_1397"
  bottom:"Node_1395"
  layer_param {
    idx:1397
    in_0 {name:"Node_1395:0",dtype:float32,shape:[1, 384, 8, 8]}
    out_0 {name:"Node_1397:0",dtype:float32,shape:[1, 384, 8, 8]}
  }
}
layer {
  name:"Node_1403"
  type:"const"
  top:"Node_1403"
  layer_param {
    idx:1403
    out_0 {name:"Node_1403:0",dtype:float32,shape:[3, 1, 384, 384]}
  }
}
layer {
  name:"Node_1404"
  type:"layout_transform"
  top:"Node_1404"
  bottom:"Node_1403"
  layer_param {
    idx:1404
    in_0 {name:"Node_1403:0",dtype:float32,shape:[3, 1, 384, 384]}
    out_0 {name:"Node_1404:0",dtype:float32,shape:[384, 384, 3, 1]}
    attrs {'src_layout': 'HWIO', 'dst_layout': 'OIHW'}
  }
}
layer {
  name:"Node_1405"
  type:"nn_conv2d"
  top:"Node_1405"
  bottom:"Node_1386"
  bottom:"Node_1404"
  layer_param {
    idx:1405
    in_0 {name:"Node_1386:0",dtype:float32,shape:[1, 384, 8, 8]}
    in_1 {name:"Node_1404:0",dtype:float32,shape:[384, 384, 3, 1]}
    out_0 {name:"Node_1405:0",dtype:float32,shape:[1, 384, 8, 8]}
    attrs {'strides': [1, 1], 'padding': [1, 0, 1, 0], 'dilation': [1, 1], 'groups': 1, 'channels': 384, 'kernel_size': [3, 1], 'data_layout': 'NCHW', 'kernel_layout': 'OIHW', 'out_layout': '', 'out_dtype': ''}
  }
}
layer {
  name:"Node_1406"
  type:"const"
  top:"Node_1406"
  layer_param {
    idx:1406
    out_0 {name:"Node_1406:0",dtype:float32,shape:[384]}
  }
}
layer {
  name:"Node_1407"
  type:"const"
  top:"Node_1407"
  layer_param {
    idx:1407
    out_0 {name:"Node_1407:0",dtype:float32,shape:[384]}
  }
}
layer {
  name:"Node_1408"
  type:"const"
  top:"Node_1408"
  layer_param {
    idx:1408
    out_0 {name:"Node_1408:0",dtype:float32,shape:[384]}
  }
}
layer {
  name:"Node_1409"
  type:"const"
  top:"Node_1409"
  layer_param {
    idx:1409
    out_0 {name:"Node_1409:0",dtype:float32,shape:[384]}
  }
}
layer {
  name:"Node_1410"
  type:"nn_batch_norm"
  top:"Node_1410"
  bottom:"Node_1405"
  bottom:"Node_1406"
  bottom:"Node_1407"
  bottom:"Node_1408"
  bottom:"Node_1409"
  layer_param {
    idx:1410
    in_0 {name:"Node_1405:0",dtype:float32,shape:[1, 384, 8, 8]}
    in_1 {name:"Node_1406:0",dtype:float32,shape:[384]}
    in_2 {name:"Node_1407:0",dtype:float32,shape:[384]}
    in_3 {name:"Node_1408:0",dtype:float32,shape:[384]}
    in_4 {name:"Node_1409:0",dtype:float32,shape:[384]}
    out_0 {name:"Node_1410:0",dtype:float32,shape:[1, 384, 8, 8]}
    out_1 {name:"Node_1410:1",dtype:float32,shape:[384]}
    out_2 {name:"Node_1410:2",dtype:float32,shape:[384]}
    attrs {'axis': 1, 'epsilon': 0.0010000000474974513, 'center': 1, 'scale': 0}
  }
}
layer {
  name:"Node_1412"
  type:"nn_relu"
  top:"Node_1412"
  bottom:"Node_1410"
  layer_param {
    idx:1412
    in_0 {name:"Node_1410:0",dtype:float32,shape:[1, 384, 8, 8]}
    out_0 {name:"Node_1412:0",dtype:float32,shape:[1, 384, 8, 8]}
  }
}
layer {
  name:"Node_1418"
  type:"nn_max_pool2d"
  top:"Node_1418"
  bottom:"Node_1299"
  layer_param {
    idx:1418
    in_0 {name:"Node_1299:0",dtype:float32,shape:[1, 2048, 8, 8]}
    out_0 {name:"Node_1418:0",dtype:float32,shape:[1, 2048, 8, 8]}
    attrs {'pool_size': [3, 3], 'strides': [1, 1], 'dilation': [1, 1], 'padding': [1, 1, 1, 1], 'layout': 'NCHW', 'ceil_mode': 0}
  }
}
layer {
  name:"Node_1420"
  type:"const"
  top:"Node_1420"
  layer_param {
    idx:1420
    out_0 {name:"Node_1420:0",dtype:float32,shape:[1, 1, 2048, 192]}
  }
}
layer {
  name:"Node_1421"
  type:"layout_transform"
  top:"Node_1421"
  bottom:"Node_1420"
  layer_param {
    idx:1421
    in_0 {name:"Node_1420:0",dtype:float32,shape:[1, 1, 2048, 192]}
    out_0 {name:"Node_1421:0",dtype:float32,shape:[192, 2048, 1, 1]}
    attrs {'src_layout': 'HWIO', 'dst_layout': 'OIHW'}
  }
}
layer {
  name:"Node_1422"
  type:"nn_conv2d"
  top:"Node_1422"
  bottom:"Node_1418"
  bottom:"Node_1421"
  layer_param {
    idx:1422
    in_0 {name:"Node_1418:0",dtype:float32,shape:[1, 2048, 8, 8]}
    in_1 {name:"Node_1421:0",dtype:float32,shape:[192, 2048, 1, 1]}
    out_0 {name:"Node_1422:0",dtype:float32,shape:[1, 192, 8, 8]}
    attrs {'strides': [1, 1], 'padding': [0, 0, 0, 0], 'dilation': [1, 1], 'groups': 1, 'channels': 192, 'kernel_size': [1, 1], 'data_layout': 'NCHW', 'kernel_layout': 'OIHW', 'out_layout': '', 'out_dtype': ''}
  }
}
layer {
  name:"Node_1423"
  type:"const"
  top:"Node_1423"
  layer_param {
    idx:1423
    out_0 {name:"Node_1423:0",dtype:float32,shape:[192]}
  }
}
layer {
  name:"Node_1424"
  type:"const"
  top:"Node_1424"
  layer_param {
    idx:1424
    out_0 {name:"Node_1424:0",dtype:float32,shape:[192]}
  }
}
layer {
  name:"Node_1425"
  type:"const"
  top:"Node_1425"
  layer_param {
    idx:1425
    out_0 {name:"Node_1425:0",dtype:float32,shape:[192]}
  }
}
layer {
  name:"Node_1426"
  type:"const"
  top:"Node_1426"
  layer_param {
    idx:1426
    out_0 {name:"Node_1426:0",dtype:float32,shape:[192]}
  }
}
layer {
  name:"Node_1427"
  type:"nn_batch_norm"
  top:"Node_1427"
  bottom:"Node_1422"
  bottom:"Node_1423"
  bottom:"Node_1424"
  bottom:"Node_1425"
  bottom:"Node_1426"
  layer_param {
    idx:1427
    in_0 {name:"Node_1422:0",dtype:float32,shape:[1, 192, 8, 8]}
    in_1 {name:"Node_1423:0",dtype:float32,shape:[192]}
    in_2 {name:"Node_1424:0",dtype:float32,shape:[192]}
    in_3 {name:"Node_1425:0",dtype:float32,shape:[192]}
    in_4 {name:"Node_1426:0",dtype:float32,shape:[192]}
    out_0 {name:"Node_1427:0",dtype:float32,shape:[1, 192, 8, 8]}
    out_1 {name:"Node_1427:1",dtype:float32,shape:[192]}
    out_2 {name:"Node_1427:2",dtype:float32,shape:[192]}
    attrs {'axis': 1, 'epsilon': 0.0010000000474974513, 'center': 1, 'scale': 0}
  }
}
layer {
  name:"Node_1429"
  type:"nn_relu"
  top:"Node_1429"
  bottom:"Node_1427"
  layer_param {
    idx:1429
    in_0 {name:"Node_1427:0",dtype:float32,shape:[1, 192, 8, 8]}
    out_0 {name:"Node_1429:0",dtype:float32,shape:[1, 192, 8, 8]}
  }
}
layer {
  name:"Node_1431"
  type:"concatenate"
  top:"Node_1431"
  bottom:"Node_1310"
  bottom:"Node_1339"
  bottom:"Node_1354"
  bottom:"Node_1397"
  bottom:"Node_1412"
  bottom:"Node_1429"
  layer_param {
    idx:1431
    in_0 {name:"Node_1310:0",dtype:float32,shape:[1, 320, 8, 8]}
    in_1 {name:"Node_1339:0",dtype:float32,shape:[1, 384, 8, 8]}
    in_2 {name:"Node_1354:0",dtype:float32,shape:[1, 384, 8, 8]}
    in_3 {name:"Node_1397:0",dtype:float32,shape:[1, 384, 8, 8]}
    in_4 {name:"Node_1412:0",dtype:float32,shape:[1, 384, 8, 8]}
    in_5 {name:"Node_1429:0",dtype:float32,shape:[1, 192, 8, 8]}
    out_0 {name:"Node_1431:0",dtype:float32,shape:[1, 2048, 8, 8]}
    attrs {'axis': 1}
  }
}
layer {
  name:"Node_1432"
  type:"nn_avg_pool2d"
  top:"Node_1432"
  bottom:"Node_1431"
  layer_param {
    idx:1432
    in_0 {name:"Node_1431:0",dtype:float32,shape:[1, 2048, 8, 8]}
    out_0 {name:"Node_1432:0",dtype:float32,shape:[1, 2048, 1, 1]}
    attrs {'pool_size': [8, 8], 'strides': [1, 1], 'dilation': [1, 1], 'padding': [0, 0, 0, 0], 'layout': 'NCHW', 'ceil_mode': 0, 'count_include_pad': 0}
  }
}
layer {
  name:"Node_1433"
  type:"layout_transform"
  top:"Node_1433"
  bottom:"Node_1432"
  layer_param {
    idx:1433
    in_0 {name:"Node_1432:0",dtype:float32,shape:[1, 2048, 1, 1]}
    out_0 {name:"Node_1433:0",dtype:float32,shape:[1, 1, 1, 2048]}
    attrs {'src_layout': 'NCHW', 'dst_layout': 'NHWC'}
  }
}
layer {
  name:"Node_1434"
  type:"reshape"
  top:"Node_1434"
  bottom:"Node_1433"
  layer_param {
    idx:1434
    in_0 {name:"Node_1433:0",dtype:float32,shape:[1, 1, 1, 2048]}
    out_0 {name:"Node_1434:0",dtype:float32,shape:[1, 2048]}
    attrs {'newshape': [1, 2048]}
  }
}
layer {
  name:"Node_1436"
  type:"const"
  top:"Node_1436"
  layer_param {
    idx:1436
    out_0 {name:"Node_1436:0",dtype:float32,shape:[2048, 1008]}
  }
}
layer {
  name:"Node_1437"
  type:"transpose"
  top:"Node_1437"
  bottom:"Node_1436"
  layer_param {
    idx:1437
    in_0 {name:"Node_1436:0",dtype:float32,shape:[2048, 1008]}
    out_0 {name:"Node_1437:0",dtype:float32,shape:[1008, 2048]}
    attrs {'axes': [1, 0]}
  }
}
layer {
  name:"Node_1438"
  type:"nn_dense"
  top:"Node_1438"
  bottom:"Node_1434"
  bottom:"Node_1437"
  layer_param {
    idx:1438
    in_0 {name:"Node_1434:0",dtype:float32,shape:[1, 2048]}
    in_1 {name:"Node_1437:0",dtype:float32,shape:[1008, 2048]}
    out_0 {name:"Node_1438:0",dtype:float32,shape:[1, 1008]}
    attrs {'units': 1008, 'out_dtype': ''}
  }
}
layer {
  name:"Node_1439"
  type:"const"
  top:"Node_1439"
  layer_param {
    idx:1439
    out_0 {name:"Node_1439:0",dtype:float32,shape:[1008]}
  }
}
layer {
  name:"Node_1440"
  type:"add"
  top:"Node_1440"
  bottom:"Node_1438"
  bottom:"Node_1439"
  layer_param {
    idx:1440
    in_0 {name:"Node_1438:0",dtype:float32,shape:[1, 1008]}
    in_1 {name:"Node_1439:0",dtype:float32,shape:[1008]}
    out_0 {name:"Node_1440:0",dtype:float32,shape:[1, 1008]}
  }
}
layer {
  name:"Node_1441"
  type:"nn_softmax"
  top:"Node_1441"
  bottom:"Node_1440"
  layer_param {
    idx:1441
    in_0 {name:"Node_1440:0",dtype:float32,shape:[1, 1008]}
    out_0 {name:"Node_1441:0",dtype:float32,shape:[1, 1008]}
    attrs {'axis': -1}
  }
}
layer {
  name:"Node_1442"
  type:"function"
  top:"Node_1442"
  bottom:"DecodeJpeg/contents"
  bottom:"Node_1441"
  layer_param {
    idx:1442
    in_0 {name:"DecodeJpeg/contents:0",dtype:uint8,shape:[299, 299, 3]}
    in_1 {name:"Node_1441:0",dtype:float32,shape:[1, 1008]}
    out_0 {name:"Node_1442:0",dtype:float32,shape:[1, 1008]}
  }
}
