name : "relay_ir"
layer {
  name:"DecodeJpeg/contents"
  type:"input"
  top:"DecodeJpeg/contents"
  layer_param {
    idx:0
    out_0 {name:"DecodeJpeg/contents:0",dtype:uint8,shape:[299, 299, 3]}
  }
}
layer {
  name:"Node_82"
  type:"annotation_compiler_begin"
  top:"Node_82"
  bottom:"DecodeJpeg/contents"
  layer_param {
    idx:82
    in_0 {name:"DecodeJpeg/contents:0",dtype:uint8,shape:[299, 299, 3]}
    out_0 {name:"Node_82:0",dtype:uint8,shape:[299, 299, 3]}
    attrs {'compiler': 'default'}
  }
}
layer {
  name:"Node_83"
  type:"cast"
  top:"Node_83"
  bottom:"Node_82"
  layer_param {
    idx:83
    in_0 {name:"Node_82:0",dtype:uint8,shape:[299, 299, 3]}
    out_0 {name:"Node_83:0",dtype:float32,shape:[299, 299, 3]}
    attrs {'dtype': 'float32'}
  }
}
layer {
  name:"Node_84"
  type:"expand_dims"
  top:"Node_84"
  bottom:"Node_83"
  layer_param {
    idx:84
    in_0 {name:"Node_83:0",dtype:float32,shape:[299, 299, 3]}
    out_0 {name:"Node_84:0",dtype:float32,shape:[1, 299, 299, 3]}
    attrs {'axis': 0, 'num_newaxis': 1}
  }
}
layer {
  name:"Node_85"
  type:"image_resize"
  top:"Node_85"
  bottom:"Node_84"
  layer_param {
    idx:85
    in_0 {name:"Node_84:0",dtype:float32,shape:[1, 299, 299, 3]}
    out_0 {name:"Node_85:0",dtype:float32,shape:[1, 299, 299, 3]}
    attrs {'size': [299, 299], 'layout': 'NHWC', 'method': 'bilinear', 'coordinate_transformation_mode': 'asymmetric', 'rounding_method': '', 'bicubic_alpha': -0.5, 'bicubic_exclude': 0, 'out_dtype': ''}
  }
}
layer {
  name:"Node_86"
  type:"annotation_compiler_end"
  top:"Node_86"
  bottom:"Node_85"
  layer_param {
    idx:86
    in_0 {name:"Node_85:0",dtype:float32,shape:[1, 299, 299, 3]}
    out_0 {name:"Node_86:0",dtype:float32,shape:[1, 299, 299, 3]}
    attrs {'compiler': 'default'}
  }
}
layer {
  name:"Node_87"
  type:"annotation_compiler_begin"
  top:"Node_87"
  bottom:"Node_86"
  layer_param {
    idx:87
    in_0 {name:"Node_86:0",dtype:float32,shape:[1, 299, 299, 3]}
    out_0 {name:"Node_87:0",dtype:float32,shape:[1, 299, 299, 3]}
    attrs {'compiler': 'tensorrt'}
  }
}
layer {
  name:"Node_89"
  type:"const"
  top:"Node_89"
  layer_param {
    idx:89
    out_0 {name:"Node_89:0",dtype:float32,shape:[]}
  }
}
layer {
  name:"Node_90"
  type:"annotation_compiler_begin"
  top:"Node_90"
  bottom:"Node_89"
  layer_param {
    idx:90
    in_0 {name:"Node_89:0",dtype:float32,shape:[]}
    out_0 {name:"Node_90:0",dtype:float32,shape:[]}
    attrs {'compiler': 'tensorrt'}
  }
}
layer {
  name:"Node_91"
  type:"subtract"
  top:"Node_91"
  bottom:"Node_87"
  bottom:"Node_90"
  layer_param {
    idx:91
    in_0 {name:"Node_87:0",dtype:float32,shape:[1, 299, 299, 3]}
    in_1 {name:"Node_90:0",dtype:float32,shape:[]}
    out_0 {name:"Node_91:0",dtype:float32,shape:[1, 299, 299, 3]}
  }
}
layer {
  name:"Node_93"
  type:"const"
  top:"Node_93"
  layer_param {
    idx:93
    out_0 {name:"Node_93:0",dtype:float32,shape:[]}
  }
}
layer {
  name:"Node_94"
  type:"annotation_compiler_begin"
  top:"Node_94"
  bottom:"Node_93"
  layer_param {
    idx:94
    in_0 {name:"Node_93:0",dtype:float32,shape:[]}
    out_0 {name:"Node_94:0",dtype:float32,shape:[]}
    attrs {'compiler': 'tensorrt'}
  }
}
layer {
  name:"Node_95"
  type:"multiply"
  top:"Node_95"
  bottom:"Node_91"
  bottom:"Node_94"
  layer_param {
    idx:95
    in_0 {name:"Node_91:0",dtype:float32,shape:[1, 299, 299, 3]}
    in_1 {name:"Node_94:0",dtype:float32,shape:[]}
    out_0 {name:"Node_95:0",dtype:float32,shape:[1, 299, 299, 3]}
  }
}
layer {
  name:"Node_96"
  type:"layout_transform"
  top:"Node_96"
  bottom:"Node_95"
  layer_param {
    idx:96
    in_0 {name:"Node_95:0",dtype:float32,shape:[1, 299, 299, 3]}
    out_0 {name:"Node_96:0",dtype:float32,shape:[1, 3, 299, 299]}
    attrs {'src_layout': 'NHWC', 'dst_layout': 'NCHW'}
  }
}
layer {
  name:"Node_98"
  type:"const"
  top:"Node_98"
  layer_param {
    idx:98
    out_0 {name:"Node_98:0",dtype:float32,shape:[32, 3, 3, 3]}
  }
}
layer {
  name:"Node_99"
  type:"annotation_compiler_begin"
  top:"Node_99"
  bottom:"Node_98"
  layer_param {
    idx:99
    in_0 {name:"Node_98:0",dtype:float32,shape:[32, 3, 3, 3]}
    out_0 {name:"Node_99:0",dtype:float32,shape:[32, 3, 3, 3]}
    attrs {'compiler': 'tensorrt'}
  }
}
layer {
  name:"Node_100"
  type:"nn_conv2d"
  top:"Node_100"
  bottom:"Node_96"
  bottom:"Node_99"
  layer_param {
    idx:100
    in_0 {name:"Node_96:0",dtype:float32,shape:[1, 3, 299, 299]}
    in_1 {name:"Node_99:0",dtype:float32,shape:[32, 3, 3, 3]}
    out_0 {name:"Node_100:0",dtype:float32,shape:[1, 32, 149, 149]}
    attrs {'strides': [2, 2], 'padding': [0, 0, 0, 0], 'dilation': [1, 1], 'groups': 1, 'channels': 32, 'kernel_size': [3, 3], 'data_layout': 'NCHW', 'kernel_layout': 'OIHW', 'out_layout': '', 'out_dtype': ''}
  }
}
layer {
  name:"Node_102"
  type:"const"
  top:"Node_102"
  layer_param {
    idx:102
    out_0 {name:"Node_102:0",dtype:float32,shape:[32]}
  }
}
layer {
  name:"Node_103"
  type:"annotation_compiler_begin"
  top:"Node_103"
  bottom:"Node_102"
  layer_param {
    idx:103
    in_0 {name:"Node_102:0",dtype:float32,shape:[32]}
    out_0 {name:"Node_103:0",dtype:float32,shape:[32]}
    attrs {'compiler': 'tensorrt'}
  }
}
layer {
  name:"Node_105"
  type:"const"
  top:"Node_105"
  layer_param {
    idx:105
    out_0 {name:"Node_105:0",dtype:float32,shape:[32]}
  }
}
layer {
  name:"Node_106"
  type:"annotation_compiler_begin"
  top:"Node_106"
  bottom:"Node_105"
  layer_param {
    idx:106
    in_0 {name:"Node_105:0",dtype:float32,shape:[32]}
    out_0 {name:"Node_106:0",dtype:float32,shape:[32]}
    attrs {'compiler': 'tensorrt'}
  }
}
layer {
  name:"Node_108"
  type:"const"
  top:"Node_108"
  layer_param {
    idx:108
    out_0 {name:"Node_108:0",dtype:float32,shape:[32]}
  }
}
layer {
  name:"Node_109"
  type:"annotation_compiler_begin"
  top:"Node_109"
  bottom:"Node_108"
  layer_param {
    idx:109
    in_0 {name:"Node_108:0",dtype:float32,shape:[32]}
    out_0 {name:"Node_109:0",dtype:float32,shape:[32]}
    attrs {'compiler': 'tensorrt'}
  }
}
layer {
  name:"Node_111"
  type:"const"
  top:"Node_111"
  layer_param {
    idx:111
    out_0 {name:"Node_111:0",dtype:float32,shape:[32]}
  }
}
layer {
  name:"Node_112"
  type:"annotation_compiler_begin"
  top:"Node_112"
  bottom:"Node_111"
  layer_param {
    idx:112
    in_0 {name:"Node_111:0",dtype:float32,shape:[32]}
    out_0 {name:"Node_112:0",dtype:float32,shape:[32]}
    attrs {'compiler': 'tensorrt'}
  }
}
layer {
  name:"Node_113"
  type:"nn_batch_norm"
  top:"Node_113"
  bottom:"Node_100"
  bottom:"Node_103"
  bottom:"Node_106"
  bottom:"Node_109"
  bottom:"Node_112"
  layer_param {
    idx:113
    in_0 {name:"Node_100:0",dtype:float32,shape:[1, 32, 149, 149]}
    in_1 {name:"Node_103:0",dtype:float32,shape:[32]}
    in_2 {name:"Node_106:0",dtype:float32,shape:[32]}
    in_3 {name:"Node_109:0",dtype:float32,shape:[32]}
    in_4 {name:"Node_112:0",dtype:float32,shape:[32]}
    out_0 {name:"Node_113:0",dtype:float32,shape:[1, 32, 149, 149]}
    out_1 {name:"Node_113:1",dtype:float32,shape:[32]}
    out_2 {name:"Node_113:2",dtype:float32,shape:[32]}
    attrs {'axis': 1, 'epsilon': 0.0010000000474974513, 'center': 1, 'scale': 0}
  }
}
layer {
  name:"Node_115"
  type:"nn_relu"
  top:"Node_115"
  bottom:"Node_113"
  layer_param {
    idx:115
    in_0 {name:"Node_113:0",dtype:float32,shape:[1, 32, 149, 149]}
    out_0 {name:"Node_115:0",dtype:float32,shape:[1, 32, 149, 149]}
  }
}
layer {
  name:"Node_117"
  type:"const"
  top:"Node_117"
  layer_param {
    idx:117
    out_0 {name:"Node_117:0",dtype:float32,shape:[32, 32, 3, 3]}
  }
}
layer {
  name:"Node_118"
  type:"annotation_compiler_begin"
  top:"Node_118"
  bottom:"Node_117"
  layer_param {
    idx:118
    in_0 {name:"Node_117:0",dtype:float32,shape:[32, 32, 3, 3]}
    out_0 {name:"Node_118:0",dtype:float32,shape:[32, 32, 3, 3]}
    attrs {'compiler': 'tensorrt'}
  }
}
layer {
  name:"Node_119"
  type:"nn_conv2d"
  top:"Node_119"
  bottom:"Node_115"
  bottom:"Node_118"
  layer_param {
    idx:119
    in_0 {name:"Node_115:0",dtype:float32,shape:[1, 32, 149, 149]}
    in_1 {name:"Node_118:0",dtype:float32,shape:[32, 32, 3, 3]}
    out_0 {name:"Node_119:0",dtype:float32,shape:[1, 32, 147, 147]}
    attrs {'strides': [1, 1], 'padding': [0, 0, 0, 0], 'dilation': [1, 1], 'groups': 1, 'channels': 32, 'kernel_size': [3, 3], 'data_layout': 'NCHW', 'kernel_layout': 'OIHW', 'out_layout': '', 'out_dtype': ''}
  }
}
layer {
  name:"Node_121"
  type:"const"
  top:"Node_121"
  layer_param {
    idx:121
    out_0 {name:"Node_121:0",dtype:float32,shape:[32]}
  }
}
layer {
  name:"Node_122"
  type:"annotation_compiler_begin"
  top:"Node_122"
  bottom:"Node_121"
  layer_param {
    idx:122
    in_0 {name:"Node_121:0",dtype:float32,shape:[32]}
    out_0 {name:"Node_122:0",dtype:float32,shape:[32]}
    attrs {'compiler': 'tensorrt'}
  }
}
layer {
  name:"Node_124"
  type:"const"
  top:"Node_124"
  layer_param {
    idx:124
    out_0 {name:"Node_124:0",dtype:float32,shape:[32]}
  }
}
layer {
  name:"Node_125"
  type:"annotation_compiler_begin"
  top:"Node_125"
  bottom:"Node_124"
  layer_param {
    idx:125
    in_0 {name:"Node_124:0",dtype:float32,shape:[32]}
    out_0 {name:"Node_125:0",dtype:float32,shape:[32]}
    attrs {'compiler': 'tensorrt'}
  }
}
layer {
  name:"Node_127"
  type:"const"
  top:"Node_127"
  layer_param {
    idx:127
    out_0 {name:"Node_127:0",dtype:float32,shape:[32]}
  }
}
layer {
  name:"Node_128"
  type:"annotation_compiler_begin"
  top:"Node_128"
  bottom:"Node_127"
  layer_param {
    idx:128
    in_0 {name:"Node_127:0",dtype:float32,shape:[32]}
    out_0 {name:"Node_128:0",dtype:float32,shape:[32]}
    attrs {'compiler': 'tensorrt'}
  }
}
layer {
  name:"Node_130"
  type:"const"
  top:"Node_130"
  layer_param {
    idx:130
    out_0 {name:"Node_130:0",dtype:float32,shape:[32]}
  }
}
layer {
  name:"Node_131"
  type:"annotation_compiler_begin"
  top:"Node_131"
  bottom:"Node_130"
  layer_param {
    idx:131
    in_0 {name:"Node_130:0",dtype:float32,shape:[32]}
    out_0 {name:"Node_131:0",dtype:float32,shape:[32]}
    attrs {'compiler': 'tensorrt'}
  }
}
layer {
  name:"Node_132"
  type:"nn_batch_norm"
  top:"Node_132"
  bottom:"Node_119"
  bottom:"Node_122"
  bottom:"Node_125"
  bottom:"Node_128"
  bottom:"Node_131"
  layer_param {
    idx:132
    in_0 {name:"Node_119:0",dtype:float32,shape:[1, 32, 147, 147]}
    in_1 {name:"Node_122:0",dtype:float32,shape:[32]}
    in_2 {name:"Node_125:0",dtype:float32,shape:[32]}
    in_3 {name:"Node_128:0",dtype:float32,shape:[32]}
    in_4 {name:"Node_131:0",dtype:float32,shape:[32]}
    out_0 {name:"Node_132:0",dtype:float32,shape:[1, 32, 147, 147]}
    out_1 {name:"Node_132:1",dtype:float32,shape:[32]}
    out_2 {name:"Node_132:2",dtype:float32,shape:[32]}
    attrs {'axis': 1, 'epsilon': 0.0010000000474974513, 'center': 1, 'scale': 0}
  }
}
layer {
  name:"Node_134"
  type:"nn_relu"
  top:"Node_134"
  bottom:"Node_132"
  layer_param {
    idx:134
    in_0 {name:"Node_132:0",dtype:float32,shape:[1, 32, 147, 147]}
    out_0 {name:"Node_134:0",dtype:float32,shape:[1, 32, 147, 147]}
  }
}
layer {
  name:"Node_136"
  type:"const"
  top:"Node_136"
  layer_param {
    idx:136
    out_0 {name:"Node_136:0",dtype:float32,shape:[64, 32, 3, 3]}
  }
}
layer {
  name:"Node_137"
  type:"annotation_compiler_begin"
  top:"Node_137"
  bottom:"Node_136"
  layer_param {
    idx:137
    in_0 {name:"Node_136:0",dtype:float32,shape:[64, 32, 3, 3]}
    out_0 {name:"Node_137:0",dtype:float32,shape:[64, 32, 3, 3]}
    attrs {'compiler': 'tensorrt'}
  }
}
layer {
  name:"Node_138"
  type:"nn_conv2d"
  top:"Node_138"
  bottom:"Node_134"
  bottom:"Node_137"
  layer_param {
    idx:138
    in_0 {name:"Node_134:0",dtype:float32,shape:[1, 32, 147, 147]}
    in_1 {name:"Node_137:0",dtype:float32,shape:[64, 32, 3, 3]}
    out_0 {name:"Node_138:0",dtype:float32,shape:[1, 64, 147, 147]}
    attrs {'strides': [1, 1], 'padding': [1, 1, 1, 1], 'dilation': [1, 1], 'groups': 1, 'channels': 64, 'kernel_size': [3, 3], 'data_layout': 'NCHW', 'kernel_layout': 'OIHW', 'out_layout': '', 'out_dtype': ''}
  }
}
layer {
  name:"Node_140"
  type:"const"
  top:"Node_140"
  layer_param {
    idx:140
    out_0 {name:"Node_140:0",dtype:float32,shape:[64]}
  }
}
layer {
  name:"Node_141"
  type:"annotation_compiler_begin"
  top:"Node_141"
  bottom:"Node_140"
  layer_param {
    idx:141
    in_0 {name:"Node_140:0",dtype:float32,shape:[64]}
    out_0 {name:"Node_141:0",dtype:float32,shape:[64]}
    attrs {'compiler': 'tensorrt'}
  }
}
layer {
  name:"Node_143"
  type:"const"
  top:"Node_143"
  layer_param {
    idx:143
    out_0 {name:"Node_143:0",dtype:float32,shape:[64]}
  }
}
layer {
  name:"Node_144"
  type:"annotation_compiler_begin"
  top:"Node_144"
  bottom:"Node_143"
  layer_param {
    idx:144
    in_0 {name:"Node_143:0",dtype:float32,shape:[64]}
    out_0 {name:"Node_144:0",dtype:float32,shape:[64]}
    attrs {'compiler': 'tensorrt'}
  }
}
layer {
  name:"Node_146"
  type:"const"
  top:"Node_146"
  layer_param {
    idx:146
    out_0 {name:"Node_146:0",dtype:float32,shape:[64]}
  }
}
layer {
  name:"Node_147"
  type:"annotation_compiler_begin"
  top:"Node_147"
  bottom:"Node_146"
  layer_param {
    idx:147
    in_0 {name:"Node_146:0",dtype:float32,shape:[64]}
    out_0 {name:"Node_147:0",dtype:float32,shape:[64]}
    attrs {'compiler': 'tensorrt'}
  }
}
layer {
  name:"Node_149"
  type:"const"
  top:"Node_149"
  layer_param {
    idx:149
    out_0 {name:"Node_149:0",dtype:float32,shape:[64]}
  }
}
layer {
  name:"Node_150"
  type:"annotation_compiler_begin"
  top:"Node_150"
  bottom:"Node_149"
  layer_param {
    idx:150
    in_0 {name:"Node_149:0",dtype:float32,shape:[64]}
    out_0 {name:"Node_150:0",dtype:float32,shape:[64]}
    attrs {'compiler': 'tensorrt'}
  }
}
layer {
  name:"Node_151"
  type:"nn_batch_norm"
  top:"Node_151"
  bottom:"Node_138"
  bottom:"Node_141"
  bottom:"Node_144"
  bottom:"Node_147"
  bottom:"Node_150"
  layer_param {
    idx:151
    in_0 {name:"Node_138:0",dtype:float32,shape:[1, 64, 147, 147]}
    in_1 {name:"Node_141:0",dtype:float32,shape:[64]}
    in_2 {name:"Node_144:0",dtype:float32,shape:[64]}
    in_3 {name:"Node_147:0",dtype:float32,shape:[64]}
    in_4 {name:"Node_150:0",dtype:float32,shape:[64]}
    out_0 {name:"Node_151:0",dtype:float32,shape:[1, 64, 147, 147]}
    out_1 {name:"Node_151:1",dtype:float32,shape:[64]}
    out_2 {name:"Node_151:2",dtype:float32,shape:[64]}
    attrs {'axis': 1, 'epsilon': 0.0010000000474974513, 'center': 1, 'scale': 0}
  }
}
layer {
  name:"Node_153"
  type:"nn_relu"
  top:"Node_153"
  bottom:"Node_151"
  layer_param {
    idx:153
    in_0 {name:"Node_151:0",dtype:float32,shape:[1, 64, 147, 147]}
    out_0 {name:"Node_153:0",dtype:float32,shape:[1, 64, 147, 147]}
  }
}
layer {
  name:"Node_154"
  type:"nn_max_pool2d"
  top:"Node_154"
  bottom:"Node_153"
  layer_param {
    idx:154
    in_0 {name:"Node_153:0",dtype:float32,shape:[1, 64, 147, 147]}
    out_0 {name:"Node_154:0",dtype:float32,shape:[1, 64, 73, 73]}
    attrs {'pool_size': [3, 3], 'strides': [2, 2], 'dilation': [1, 1], 'padding': [0, 0, 0, 0], 'layout': 'NCHW', 'ceil_mode': 0}
  }
}
layer {
  name:"Node_156"
  type:"const"
  top:"Node_156"
  layer_param {
    idx:156
    out_0 {name:"Node_156:0",dtype:float32,shape:[80, 64, 1, 1]}
  }
}
layer {
  name:"Node_157"
  type:"annotation_compiler_begin"
  top:"Node_157"
  bottom:"Node_156"
  layer_param {
    idx:157
    in_0 {name:"Node_156:0",dtype:float32,shape:[80, 64, 1, 1]}
    out_0 {name:"Node_157:0",dtype:float32,shape:[80, 64, 1, 1]}
    attrs {'compiler': 'tensorrt'}
  }
}
layer {
  name:"Node_158"
  type:"nn_conv2d"
  top:"Node_158"
  bottom:"Node_154"
  bottom:"Node_157"
  layer_param {
    idx:158
    in_0 {name:"Node_154:0",dtype:float32,shape:[1, 64, 73, 73]}
    in_1 {name:"Node_157:0",dtype:float32,shape:[80, 64, 1, 1]}
    out_0 {name:"Node_158:0",dtype:float32,shape:[1, 80, 73, 73]}
    attrs {'strides': [1, 1], 'padding': [0, 0, 0, 0], 'dilation': [1, 1], 'groups': 1, 'channels': 80, 'kernel_size': [1, 1], 'data_layout': 'NCHW', 'kernel_layout': 'OIHW', 'out_layout': '', 'out_dtype': ''}
  }
}
layer {
  name:"Node_160"
  type:"const"
  top:"Node_160"
  layer_param {
    idx:160
    out_0 {name:"Node_160:0",dtype:float32,shape:[80]}
  }
}
layer {
  name:"Node_161"
  type:"annotation_compiler_begin"
  top:"Node_161"
  bottom:"Node_160"
  layer_param {
    idx:161
    in_0 {name:"Node_160:0",dtype:float32,shape:[80]}
    out_0 {name:"Node_161:0",dtype:float32,shape:[80]}
    attrs {'compiler': 'tensorrt'}
  }
}
layer {
  name:"Node_163"
  type:"const"
  top:"Node_163"
  layer_param {
    idx:163
    out_0 {name:"Node_163:0",dtype:float32,shape:[80]}
  }
}
layer {
  name:"Node_164"
  type:"annotation_compiler_begin"
  top:"Node_164"
  bottom:"Node_163"
  layer_param {
    idx:164
    in_0 {name:"Node_163:0",dtype:float32,shape:[80]}
    out_0 {name:"Node_164:0",dtype:float32,shape:[80]}
    attrs {'compiler': 'tensorrt'}
  }
}
layer {
  name:"Node_166"
  type:"const"
  top:"Node_166"
  layer_param {
    idx:166
    out_0 {name:"Node_166:0",dtype:float32,shape:[80]}
  }
}
layer {
  name:"Node_167"
  type:"annotation_compiler_begin"
  top:"Node_167"
  bottom:"Node_166"
  layer_param {
    idx:167
    in_0 {name:"Node_166:0",dtype:float32,shape:[80]}
    out_0 {name:"Node_167:0",dtype:float32,shape:[80]}
    attrs {'compiler': 'tensorrt'}
  }
}
layer {
  name:"Node_169"
  type:"const"
  top:"Node_169"
  layer_param {
    idx:169
    out_0 {name:"Node_169:0",dtype:float32,shape:[80]}
  }
}
layer {
  name:"Node_170"
  type:"annotation_compiler_begin"
  top:"Node_170"
  bottom:"Node_169"
  layer_param {
    idx:170
    in_0 {name:"Node_169:0",dtype:float32,shape:[80]}
    out_0 {name:"Node_170:0",dtype:float32,shape:[80]}
    attrs {'compiler': 'tensorrt'}
  }
}
layer {
  name:"Node_171"
  type:"nn_batch_norm"
  top:"Node_171"
  bottom:"Node_158"
  bottom:"Node_161"
  bottom:"Node_164"
  bottom:"Node_167"
  bottom:"Node_170"
  layer_param {
    idx:171
    in_0 {name:"Node_158:0",dtype:float32,shape:[1, 80, 73, 73]}
    in_1 {name:"Node_161:0",dtype:float32,shape:[80]}
    in_2 {name:"Node_164:0",dtype:float32,shape:[80]}
    in_3 {name:"Node_167:0",dtype:float32,shape:[80]}
    in_4 {name:"Node_170:0",dtype:float32,shape:[80]}
    out_0 {name:"Node_171:0",dtype:float32,shape:[1, 80, 73, 73]}
    out_1 {name:"Node_171:1",dtype:float32,shape:[80]}
    out_2 {name:"Node_171:2",dtype:float32,shape:[80]}
    attrs {'axis': 1, 'epsilon': 0.0010000000474974513, 'center': 1, 'scale': 0}
  }
}
layer {
  name:"Node_173"
  type:"nn_relu"
  top:"Node_173"
  bottom:"Node_171"
  layer_param {
    idx:173
    in_0 {name:"Node_171:0",dtype:float32,shape:[1, 80, 73, 73]}
    out_0 {name:"Node_173:0",dtype:float32,shape:[1, 80, 73, 73]}
  }
}
layer {
  name:"Node_175"
  type:"const"
  top:"Node_175"
  layer_param {
    idx:175
    out_0 {name:"Node_175:0",dtype:float32,shape:[192, 80, 3, 3]}
  }
}
layer {
  name:"Node_176"
  type:"annotation_compiler_begin"
  top:"Node_176"
  bottom:"Node_175"
  layer_param {
    idx:176
    in_0 {name:"Node_175:0",dtype:float32,shape:[192, 80, 3, 3]}
    out_0 {name:"Node_176:0",dtype:float32,shape:[192, 80, 3, 3]}
    attrs {'compiler': 'tensorrt'}
  }
}
layer {
  name:"Node_177"
  type:"nn_conv2d"
  top:"Node_177"
  bottom:"Node_173"
  bottom:"Node_176"
  layer_param {
    idx:177
    in_0 {name:"Node_173:0",dtype:float32,shape:[1, 80, 73, 73]}
    in_1 {name:"Node_176:0",dtype:float32,shape:[192, 80, 3, 3]}
    out_0 {name:"Node_177:0",dtype:float32,shape:[1, 192, 71, 71]}
    attrs {'strides': [1, 1], 'padding': [0, 0, 0, 0], 'dilation': [1, 1], 'groups': 1, 'channels': 192, 'kernel_size': [3, 3], 'data_layout': 'NCHW', 'kernel_layout': 'OIHW', 'out_layout': '', 'out_dtype': ''}
  }
}
layer {
  name:"Node_179"
  type:"const"
  top:"Node_179"
  layer_param {
    idx:179
    out_0 {name:"Node_179:0",dtype:float32,shape:[192]}
  }
}
layer {
  name:"Node_180"
  type:"annotation_compiler_begin"
  top:"Node_180"
  bottom:"Node_179"
  layer_param {
    idx:180
    in_0 {name:"Node_179:0",dtype:float32,shape:[192]}
    out_0 {name:"Node_180:0",dtype:float32,shape:[192]}
    attrs {'compiler': 'tensorrt'}
  }
}
layer {
  name:"Node_182"
  type:"const"
  top:"Node_182"
  layer_param {
    idx:182
    out_0 {name:"Node_182:0",dtype:float32,shape:[192]}
  }
}
layer {
  name:"Node_183"
  type:"annotation_compiler_begin"
  top:"Node_183"
  bottom:"Node_182"
  layer_param {
    idx:183
    in_0 {name:"Node_182:0",dtype:float32,shape:[192]}
    out_0 {name:"Node_183:0",dtype:float32,shape:[192]}
    attrs {'compiler': 'tensorrt'}
  }
}
layer {
  name:"Node_185"
  type:"const"
  top:"Node_185"
  layer_param {
    idx:185
    out_0 {name:"Node_185:0",dtype:float32,shape:[192]}
  }
}
layer {
  name:"Node_186"
  type:"annotation_compiler_begin"
  top:"Node_186"
  bottom:"Node_185"
  layer_param {
    idx:186
    in_0 {name:"Node_185:0",dtype:float32,shape:[192]}
    out_0 {name:"Node_186:0",dtype:float32,shape:[192]}
    attrs {'compiler': 'tensorrt'}
  }
}
layer {
  name:"Node_188"
  type:"const"
  top:"Node_188"
  layer_param {
    idx:188
    out_0 {name:"Node_188:0",dtype:float32,shape:[192]}
  }
}
layer {
  name:"Node_189"
  type:"annotation_compiler_begin"
  top:"Node_189"
  bottom:"Node_188"
  layer_param {
    idx:189
    in_0 {name:"Node_188:0",dtype:float32,shape:[192]}
    out_0 {name:"Node_189:0",dtype:float32,shape:[192]}
    attrs {'compiler': 'tensorrt'}
  }
}
layer {
  name:"Node_190"
  type:"nn_batch_norm"
  top:"Node_190"
  bottom:"Node_177"
  bottom:"Node_180"
  bottom:"Node_183"
  bottom:"Node_186"
  bottom:"Node_189"
  layer_param {
    idx:190
    in_0 {name:"Node_177:0",dtype:float32,shape:[1, 192, 71, 71]}
    in_1 {name:"Node_180:0",dtype:float32,shape:[192]}
    in_2 {name:"Node_183:0",dtype:float32,shape:[192]}
    in_3 {name:"Node_186:0",dtype:float32,shape:[192]}
    in_4 {name:"Node_189:0",dtype:float32,shape:[192]}
    out_0 {name:"Node_190:0",dtype:float32,shape:[1, 192, 71, 71]}
    out_1 {name:"Node_190:1",dtype:float32,shape:[192]}
    out_2 {name:"Node_190:2",dtype:float32,shape:[192]}
    attrs {'axis': 1, 'epsilon': 0.0010000000474974513, 'center': 1, 'scale': 0}
  }
}
layer {
  name:"Node_192"
  type:"nn_relu"
  top:"Node_192"
  bottom:"Node_190"
  layer_param {
    idx:192
    in_0 {name:"Node_190:0",dtype:float32,shape:[1, 192, 71, 71]}
    out_0 {name:"Node_192:0",dtype:float32,shape:[1, 192, 71, 71]}
  }
}
layer {
  name:"Node_193"
  type:"nn_max_pool2d"
  top:"Node_193"
  bottom:"Node_192"
  layer_param {
    idx:193
    in_0 {name:"Node_192:0",dtype:float32,shape:[1, 192, 71, 71]}
    out_0 {name:"Node_193:0",dtype:float32,shape:[1, 192, 35, 35]}
    attrs {'pool_size': [3, 3], 'strides': [2, 2], 'dilation': [1, 1], 'padding': [0, 0, 0, 0], 'layout': 'NCHW', 'ceil_mode': 0}
  }
}
layer {
  name:"Node_195"
  type:"const"
  top:"Node_195"
  layer_param {
    idx:195
    out_0 {name:"Node_195:0",dtype:float32,shape:[64, 192, 1, 1]}
  }
}
layer {
  name:"Node_196"
  type:"annotation_compiler_begin"
  top:"Node_196"
  bottom:"Node_195"
  layer_param {
    idx:196
    in_0 {name:"Node_195:0",dtype:float32,shape:[64, 192, 1, 1]}
    out_0 {name:"Node_196:0",dtype:float32,shape:[64, 192, 1, 1]}
    attrs {'compiler': 'tensorrt'}
  }
}
layer {
  name:"Node_197"
  type:"nn_conv2d"
  top:"Node_197"
  bottom:"Node_193"
  bottom:"Node_196"
  layer_param {
    idx:197
    in_0 {name:"Node_193:0",dtype:float32,shape:[1, 192, 35, 35]}
    in_1 {name:"Node_196:0",dtype:float32,shape:[64, 192, 1, 1]}
    out_0 {name:"Node_197:0",dtype:float32,shape:[1, 64, 35, 35]}
    attrs {'strides': [1, 1], 'padding': [0, 0, 0, 0], 'dilation': [1, 1], 'groups': 1, 'channels': 64, 'kernel_size': [1, 1], 'data_layout': 'NCHW', 'kernel_layout': 'OIHW', 'out_layout': '', 'out_dtype': ''}
  }
}
layer {
  name:"Node_199"
  type:"const"
  top:"Node_199"
  layer_param {
    idx:199
    out_0 {name:"Node_199:0",dtype:float32,shape:[64]}
  }
}
layer {
  name:"Node_200"
  type:"annotation_compiler_begin"
  top:"Node_200"
  bottom:"Node_199"
  layer_param {
    idx:200
    in_0 {name:"Node_199:0",dtype:float32,shape:[64]}
    out_0 {name:"Node_200:0",dtype:float32,shape:[64]}
    attrs {'compiler': 'tensorrt'}
  }
}
layer {
  name:"Node_202"
  type:"const"
  top:"Node_202"
  layer_param {
    idx:202
    out_0 {name:"Node_202:0",dtype:float32,shape:[64]}
  }
}
layer {
  name:"Node_203"
  type:"annotation_compiler_begin"
  top:"Node_203"
  bottom:"Node_202"
  layer_param {
    idx:203
    in_0 {name:"Node_202:0",dtype:float32,shape:[64]}
    out_0 {name:"Node_203:0",dtype:float32,shape:[64]}
    attrs {'compiler': 'tensorrt'}
  }
}
layer {
  name:"Node_205"
  type:"const"
  top:"Node_205"
  layer_param {
    idx:205
    out_0 {name:"Node_205:0",dtype:float32,shape:[64]}
  }
}
layer {
  name:"Node_206"
  type:"annotation_compiler_begin"
  top:"Node_206"
  bottom:"Node_205"
  layer_param {
    idx:206
    in_0 {name:"Node_205:0",dtype:float32,shape:[64]}
    out_0 {name:"Node_206:0",dtype:float32,shape:[64]}
    attrs {'compiler': 'tensorrt'}
  }
}
layer {
  name:"Node_208"
  type:"const"
  top:"Node_208"
  layer_param {
    idx:208
    out_0 {name:"Node_208:0",dtype:float32,shape:[64]}
  }
}
layer {
  name:"Node_209"
  type:"annotation_compiler_begin"
  top:"Node_209"
  bottom:"Node_208"
  layer_param {
    idx:209
    in_0 {name:"Node_208:0",dtype:float32,shape:[64]}
    out_0 {name:"Node_209:0",dtype:float32,shape:[64]}
    attrs {'compiler': 'tensorrt'}
  }
}
layer {
  name:"Node_210"
  type:"nn_batch_norm"
  top:"Node_210"
  bottom:"Node_197"
  bottom:"Node_200"
  bottom:"Node_203"
  bottom:"Node_206"
  bottom:"Node_209"
  layer_param {
    idx:210
    in_0 {name:"Node_197:0",dtype:float32,shape:[1, 64, 35, 35]}
    in_1 {name:"Node_200:0",dtype:float32,shape:[64]}
    in_2 {name:"Node_203:0",dtype:float32,shape:[64]}
    in_3 {name:"Node_206:0",dtype:float32,shape:[64]}
    in_4 {name:"Node_209:0",dtype:float32,shape:[64]}
    out_0 {name:"Node_210:0",dtype:float32,shape:[1, 64, 35, 35]}
    out_1 {name:"Node_210:1",dtype:float32,shape:[64]}
    out_2 {name:"Node_210:2",dtype:float32,shape:[64]}
    attrs {'axis': 1, 'epsilon': 0.0010000000474974513, 'center': 1, 'scale': 0}
  }
}
layer {
  name:"Node_212"
  type:"nn_relu"
  top:"Node_212"
  bottom:"Node_210"
  layer_param {
    idx:212
    in_0 {name:"Node_210:0",dtype:float32,shape:[1, 64, 35, 35]}
    out_0 {name:"Node_212:0",dtype:float32,shape:[1, 64, 35, 35]}
  }
}
layer {
  name:"Node_221"
  type:"const"
  top:"Node_221"
  layer_param {
    idx:221
    out_0 {name:"Node_221:0",dtype:float32,shape:[48, 192, 1, 1]}
  }
}
layer {
  name:"Node_222"
  type:"annotation_compiler_begin"
  top:"Node_222"
  bottom:"Node_221"
  layer_param {
    idx:222
    in_0 {name:"Node_221:0",dtype:float32,shape:[48, 192, 1, 1]}
    out_0 {name:"Node_222:0",dtype:float32,shape:[48, 192, 1, 1]}
    attrs {'compiler': 'tensorrt'}
  }
}
layer {
  name:"Node_223"
  type:"nn_conv2d"
  top:"Node_223"
  bottom:"Node_193"
  bottom:"Node_222"
  layer_param {
    idx:223
    in_0 {name:"Node_193:0",dtype:float32,shape:[1, 192, 35, 35]}
    in_1 {name:"Node_222:0",dtype:float32,shape:[48, 192, 1, 1]}
    out_0 {name:"Node_223:0",dtype:float32,shape:[1, 48, 35, 35]}
    attrs {'strides': [1, 1], 'padding': [0, 0, 0, 0], 'dilation': [1, 1], 'groups': 1, 'channels': 48, 'kernel_size': [1, 1], 'data_layout': 'NCHW', 'kernel_layout': 'OIHW', 'out_layout': '', 'out_dtype': ''}
  }
}
layer {
  name:"Node_225"
  type:"const"
  top:"Node_225"
  layer_param {
    idx:225
    out_0 {name:"Node_225:0",dtype:float32,shape:[48]}
  }
}
layer {
  name:"Node_226"
  type:"annotation_compiler_begin"
  top:"Node_226"
  bottom:"Node_225"
  layer_param {
    idx:226
    in_0 {name:"Node_225:0",dtype:float32,shape:[48]}
    out_0 {name:"Node_226:0",dtype:float32,shape:[48]}
    attrs {'compiler': 'tensorrt'}
  }
}
layer {
  name:"Node_228"
  type:"const"
  top:"Node_228"
  layer_param {
    idx:228
    out_0 {name:"Node_228:0",dtype:float32,shape:[48]}
  }
}
layer {
  name:"Node_229"
  type:"annotation_compiler_begin"
  top:"Node_229"
  bottom:"Node_228"
  layer_param {
    idx:229
    in_0 {name:"Node_228:0",dtype:float32,shape:[48]}
    out_0 {name:"Node_229:0",dtype:float32,shape:[48]}
    attrs {'compiler': 'tensorrt'}
  }
}
layer {
  name:"Node_231"
  type:"const"
  top:"Node_231"
  layer_param {
    idx:231
    out_0 {name:"Node_231:0",dtype:float32,shape:[48]}
  }
}
layer {
  name:"Node_232"
  type:"annotation_compiler_begin"
  top:"Node_232"
  bottom:"Node_231"
  layer_param {
    idx:232
    in_0 {name:"Node_231:0",dtype:float32,shape:[48]}
    out_0 {name:"Node_232:0",dtype:float32,shape:[48]}
    attrs {'compiler': 'tensorrt'}
  }
}
layer {
  name:"Node_234"
  type:"const"
  top:"Node_234"
  layer_param {
    idx:234
    out_0 {name:"Node_234:0",dtype:float32,shape:[48]}
  }
}
layer {
  name:"Node_235"
  type:"annotation_compiler_begin"
  top:"Node_235"
  bottom:"Node_234"
  layer_param {
    idx:235
    in_0 {name:"Node_234:0",dtype:float32,shape:[48]}
    out_0 {name:"Node_235:0",dtype:float32,shape:[48]}
    attrs {'compiler': 'tensorrt'}
  }
}
layer {
  name:"Node_236"
  type:"nn_batch_norm"
  top:"Node_236"
  bottom:"Node_223"
  bottom:"Node_226"
  bottom:"Node_229"
  bottom:"Node_232"
  bottom:"Node_235"
  layer_param {
    idx:236
    in_0 {name:"Node_223:0",dtype:float32,shape:[1, 48, 35, 35]}
    in_1 {name:"Node_226:0",dtype:float32,shape:[48]}
    in_2 {name:"Node_229:0",dtype:float32,shape:[48]}
    in_3 {name:"Node_232:0",dtype:float32,shape:[48]}
    in_4 {name:"Node_235:0",dtype:float32,shape:[48]}
    out_0 {name:"Node_236:0",dtype:float32,shape:[1, 48, 35, 35]}
    out_1 {name:"Node_236:1",dtype:float32,shape:[48]}
    out_2 {name:"Node_236:2",dtype:float32,shape:[48]}
    attrs {'axis': 1, 'epsilon': 0.0010000000474974513, 'center': 1, 'scale': 0}
  }
}
layer {
  name:"Node_238"
  type:"nn_relu"
  top:"Node_238"
  bottom:"Node_236"
  layer_param {
    idx:238
    in_0 {name:"Node_236:0",dtype:float32,shape:[1, 48, 35, 35]}
    out_0 {name:"Node_238:0",dtype:float32,shape:[1, 48, 35, 35]}
  }
}
layer {
  name:"Node_240"
  type:"const"
  top:"Node_240"
  layer_param {
    idx:240
    out_0 {name:"Node_240:0",dtype:float32,shape:[64, 48, 5, 5]}
  }
}
layer {
  name:"Node_241"
  type:"annotation_compiler_begin"
  top:"Node_241"
  bottom:"Node_240"
  layer_param {
    idx:241
    in_0 {name:"Node_240:0",dtype:float32,shape:[64, 48, 5, 5]}
    out_0 {name:"Node_241:0",dtype:float32,shape:[64, 48, 5, 5]}
    attrs {'compiler': 'tensorrt'}
  }
}
layer {
  name:"Node_242"
  type:"nn_conv2d"
  top:"Node_242"
  bottom:"Node_238"
  bottom:"Node_241"
  layer_param {
    idx:242
    in_0 {name:"Node_238:0",dtype:float32,shape:[1, 48, 35, 35]}
    in_1 {name:"Node_241:0",dtype:float32,shape:[64, 48, 5, 5]}
    out_0 {name:"Node_242:0",dtype:float32,shape:[1, 64, 35, 35]}
    attrs {'strides': [1, 1], 'padding': [2, 2, 2, 2], 'dilation': [1, 1], 'groups': 1, 'channels': 64, 'kernel_size': [5, 5], 'data_layout': 'NCHW', 'kernel_layout': 'OIHW', 'out_layout': '', 'out_dtype': ''}
  }
}
layer {
  name:"Node_244"
  type:"const"
  top:"Node_244"
  layer_param {
    idx:244
    out_0 {name:"Node_244:0",dtype:float32,shape:[64]}
  }
}
layer {
  name:"Node_245"
  type:"annotation_compiler_begin"
  top:"Node_245"
  bottom:"Node_244"
  layer_param {
    idx:245
    in_0 {name:"Node_244:0",dtype:float32,shape:[64]}
    out_0 {name:"Node_245:0",dtype:float32,shape:[64]}
    attrs {'compiler': 'tensorrt'}
  }
}
layer {
  name:"Node_247"
  type:"const"
  top:"Node_247"
  layer_param {
    idx:247
    out_0 {name:"Node_247:0",dtype:float32,shape:[64]}
  }
}
layer {
  name:"Node_248"
  type:"annotation_compiler_begin"
  top:"Node_248"
  bottom:"Node_247"
  layer_param {
    idx:248
    in_0 {name:"Node_247:0",dtype:float32,shape:[64]}
    out_0 {name:"Node_248:0",dtype:float32,shape:[64]}
    attrs {'compiler': 'tensorrt'}
  }
}
layer {
  name:"Node_250"
  type:"const"
  top:"Node_250"
  layer_param {
    idx:250
    out_0 {name:"Node_250:0",dtype:float32,shape:[64]}
  }
}
layer {
  name:"Node_251"
  type:"annotation_compiler_begin"
  top:"Node_251"
  bottom:"Node_250"
  layer_param {
    idx:251
    in_0 {name:"Node_250:0",dtype:float32,shape:[64]}
    out_0 {name:"Node_251:0",dtype:float32,shape:[64]}
    attrs {'compiler': 'tensorrt'}
  }
}
layer {
  name:"Node_253"
  type:"const"
  top:"Node_253"
  layer_param {
    idx:253
    out_0 {name:"Node_253:0",dtype:float32,shape:[64]}
  }
}
layer {
  name:"Node_254"
  type:"annotation_compiler_begin"
  top:"Node_254"
  bottom:"Node_253"
  layer_param {
    idx:254
    in_0 {name:"Node_253:0",dtype:float32,shape:[64]}
    out_0 {name:"Node_254:0",dtype:float32,shape:[64]}
    attrs {'compiler': 'tensorrt'}
  }
}
layer {
  name:"Node_255"
  type:"nn_batch_norm"
  top:"Node_255"
  bottom:"Node_242"
  bottom:"Node_245"
  bottom:"Node_248"
  bottom:"Node_251"
  bottom:"Node_254"
  layer_param {
    idx:255
    in_0 {name:"Node_242:0",dtype:float32,shape:[1, 64, 35, 35]}
    in_1 {name:"Node_245:0",dtype:float32,shape:[64]}
    in_2 {name:"Node_248:0",dtype:float32,shape:[64]}
    in_3 {name:"Node_251:0",dtype:float32,shape:[64]}
    in_4 {name:"Node_254:0",dtype:float32,shape:[64]}
    out_0 {name:"Node_255:0",dtype:float32,shape:[1, 64, 35, 35]}
    out_1 {name:"Node_255:1",dtype:float32,shape:[64]}
    out_2 {name:"Node_255:2",dtype:float32,shape:[64]}
    attrs {'axis': 1, 'epsilon': 0.0010000000474974513, 'center': 1, 'scale': 0}
  }
}
layer {
  name:"Node_257"
  type:"nn_relu"
  top:"Node_257"
  bottom:"Node_255"
  layer_param {
    idx:257
    in_0 {name:"Node_255:0",dtype:float32,shape:[1, 64, 35, 35]}
    out_0 {name:"Node_257:0",dtype:float32,shape:[1, 64, 35, 35]}
  }
}
layer {
  name:"Node_269"
  type:"const"
  top:"Node_269"
  layer_param {
    idx:269
    out_0 {name:"Node_269:0",dtype:float32,shape:[64, 192, 1, 1]}
  }
}
layer {
  name:"Node_270"
  type:"annotation_compiler_begin"
  top:"Node_270"
  bottom:"Node_269"
  layer_param {
    idx:270
    in_0 {name:"Node_269:0",dtype:float32,shape:[64, 192, 1, 1]}
    out_0 {name:"Node_270:0",dtype:float32,shape:[64, 192, 1, 1]}
    attrs {'compiler': 'tensorrt'}
  }
}
layer {
  name:"Node_271"
  type:"nn_conv2d"
  top:"Node_271"
  bottom:"Node_193"
  bottom:"Node_270"
  layer_param {
    idx:271
    in_0 {name:"Node_193:0",dtype:float32,shape:[1, 192, 35, 35]}
    in_1 {name:"Node_270:0",dtype:float32,shape:[64, 192, 1, 1]}
    out_0 {name:"Node_271:0",dtype:float32,shape:[1, 64, 35, 35]}
    attrs {'strides': [1, 1], 'padding': [0, 0, 0, 0], 'dilation': [1, 1], 'groups': 1, 'channels': 64, 'kernel_size': [1, 1], 'data_layout': 'NCHW', 'kernel_layout': 'OIHW', 'out_layout': '', 'out_dtype': ''}
  }
}
layer {
  name:"Node_273"
  type:"const"
  top:"Node_273"
  layer_param {
    idx:273
    out_0 {name:"Node_273:0",dtype:float32,shape:[64]}
  }
}
layer {
  name:"Node_274"
  type:"annotation_compiler_begin"
  top:"Node_274"
  bottom:"Node_273"
  layer_param {
    idx:274
    in_0 {name:"Node_273:0",dtype:float32,shape:[64]}
    out_0 {name:"Node_274:0",dtype:float32,shape:[64]}
    attrs {'compiler': 'tensorrt'}
  }
}
layer {
  name:"Node_276"
  type:"const"
  top:"Node_276"
  layer_param {
    idx:276
    out_0 {name:"Node_276:0",dtype:float32,shape:[64]}
  }
}
layer {
  name:"Node_277"
  type:"annotation_compiler_begin"
  top:"Node_277"
  bottom:"Node_276"
  layer_param {
    idx:277
    in_0 {name:"Node_276:0",dtype:float32,shape:[64]}
    out_0 {name:"Node_277:0",dtype:float32,shape:[64]}
    attrs {'compiler': 'tensorrt'}
  }
}
layer {
  name:"Node_279"
  type:"const"
  top:"Node_279"
  layer_param {
    idx:279
    out_0 {name:"Node_279:0",dtype:float32,shape:[64]}
  }
}
layer {
  name:"Node_280"
  type:"annotation_compiler_begin"
  top:"Node_280"
  bottom:"Node_279"
  layer_param {
    idx:280
    in_0 {name:"Node_279:0",dtype:float32,shape:[64]}
    out_0 {name:"Node_280:0",dtype:float32,shape:[64]}
    attrs {'compiler': 'tensorrt'}
  }
}
layer {
  name:"Node_282"
  type:"const"
  top:"Node_282"
  layer_param {
    idx:282
    out_0 {name:"Node_282:0",dtype:float32,shape:[64]}
  }
}
layer {
  name:"Node_283"
  type:"annotation_compiler_begin"
  top:"Node_283"
  bottom:"Node_282"
  layer_param {
    idx:283
    in_0 {name:"Node_282:0",dtype:float32,shape:[64]}
    out_0 {name:"Node_283:0",dtype:float32,shape:[64]}
    attrs {'compiler': 'tensorrt'}
  }
}
layer {
  name:"Node_284"
  type:"nn_batch_norm"
  top:"Node_284"
  bottom:"Node_271"
  bottom:"Node_274"
  bottom:"Node_277"
  bottom:"Node_280"
  bottom:"Node_283"
  layer_param {
    idx:284
    in_0 {name:"Node_271:0",dtype:float32,shape:[1, 64, 35, 35]}
    in_1 {name:"Node_274:0",dtype:float32,shape:[64]}
    in_2 {name:"Node_277:0",dtype:float32,shape:[64]}
    in_3 {name:"Node_280:0",dtype:float32,shape:[64]}
    in_4 {name:"Node_283:0",dtype:float32,shape:[64]}
    out_0 {name:"Node_284:0",dtype:float32,shape:[1, 64, 35, 35]}
    out_1 {name:"Node_284:1",dtype:float32,shape:[64]}
    out_2 {name:"Node_284:2",dtype:float32,shape:[64]}
    attrs {'axis': 1, 'epsilon': 0.0010000000474974513, 'center': 1, 'scale': 0}
  }
}
layer {
  name:"Node_286"
  type:"nn_relu"
  top:"Node_286"
  bottom:"Node_284"
  layer_param {
    idx:286
    in_0 {name:"Node_284:0",dtype:float32,shape:[1, 64, 35, 35]}
    out_0 {name:"Node_286:0",dtype:float32,shape:[1, 64, 35, 35]}
  }
}
layer {
  name:"Node_288"
  type:"const"
  top:"Node_288"
  layer_param {
    idx:288
    out_0 {name:"Node_288:0",dtype:float32,shape:[96, 64, 3, 3]}
  }
}
layer {
  name:"Node_289"
  type:"annotation_compiler_begin"
  top:"Node_289"
  bottom:"Node_288"
  layer_param {
    idx:289
    in_0 {name:"Node_288:0",dtype:float32,shape:[96, 64, 3, 3]}
    out_0 {name:"Node_289:0",dtype:float32,shape:[96, 64, 3, 3]}
    attrs {'compiler': 'tensorrt'}
  }
}
layer {
  name:"Node_290"
  type:"nn_conv2d"
  top:"Node_290"
  bottom:"Node_286"
  bottom:"Node_289"
  layer_param {
    idx:290
    in_0 {name:"Node_286:0",dtype:float32,shape:[1, 64, 35, 35]}
    in_1 {name:"Node_289:0",dtype:float32,shape:[96, 64, 3, 3]}
    out_0 {name:"Node_290:0",dtype:float32,shape:[1, 96, 35, 35]}
    attrs {'strides': [1, 1], 'padding': [1, 1, 1, 1], 'dilation': [1, 1], 'groups': 1, 'channels': 96, 'kernel_size': [3, 3], 'data_layout': 'NCHW', 'kernel_layout': 'OIHW', 'out_layout': '', 'out_dtype': ''}
  }
}
layer {
  name:"Node_292"
  type:"const"
  top:"Node_292"
  layer_param {
    idx:292
    out_0 {name:"Node_292:0",dtype:float32,shape:[96]}
  }
}
layer {
  name:"Node_293"
  type:"annotation_compiler_begin"
  top:"Node_293"
  bottom:"Node_292"
  layer_param {
    idx:293
    in_0 {name:"Node_292:0",dtype:float32,shape:[96]}
    out_0 {name:"Node_293:0",dtype:float32,shape:[96]}
    attrs {'compiler': 'tensorrt'}
  }
}
layer {
  name:"Node_295"
  type:"const"
  top:"Node_295"
  layer_param {
    idx:295
    out_0 {name:"Node_295:0",dtype:float32,shape:[96]}
  }
}
layer {
  name:"Node_296"
  type:"annotation_compiler_begin"
  top:"Node_296"
  bottom:"Node_295"
  layer_param {
    idx:296
    in_0 {name:"Node_295:0",dtype:float32,shape:[96]}
    out_0 {name:"Node_296:0",dtype:float32,shape:[96]}
    attrs {'compiler': 'tensorrt'}
  }
}
layer {
  name:"Node_298"
  type:"const"
  top:"Node_298"
  layer_param {
    idx:298
    out_0 {name:"Node_298:0",dtype:float32,shape:[96]}
  }
}
layer {
  name:"Node_299"
  type:"annotation_compiler_begin"
  top:"Node_299"
  bottom:"Node_298"
  layer_param {
    idx:299
    in_0 {name:"Node_298:0",dtype:float32,shape:[96]}
    out_0 {name:"Node_299:0",dtype:float32,shape:[96]}
    attrs {'compiler': 'tensorrt'}
  }
}
layer {
  name:"Node_301"
  type:"const"
  top:"Node_301"
  layer_param {
    idx:301
    out_0 {name:"Node_301:0",dtype:float32,shape:[96]}
  }
}
layer {
  name:"Node_302"
  type:"annotation_compiler_begin"
  top:"Node_302"
  bottom:"Node_301"
  layer_param {
    idx:302
    in_0 {name:"Node_301:0",dtype:float32,shape:[96]}
    out_0 {name:"Node_302:0",dtype:float32,shape:[96]}
    attrs {'compiler': 'tensorrt'}
  }
}
layer {
  name:"Node_303"
  type:"nn_batch_norm"
  top:"Node_303"
  bottom:"Node_290"
  bottom:"Node_293"
  bottom:"Node_296"
  bottom:"Node_299"
  bottom:"Node_302"
  layer_param {
    idx:303
    in_0 {name:"Node_290:0",dtype:float32,shape:[1, 96, 35, 35]}
    in_1 {name:"Node_293:0",dtype:float32,shape:[96]}
    in_2 {name:"Node_296:0",dtype:float32,shape:[96]}
    in_3 {name:"Node_299:0",dtype:float32,shape:[96]}
    in_4 {name:"Node_302:0",dtype:float32,shape:[96]}
    out_0 {name:"Node_303:0",dtype:float32,shape:[1, 96, 35, 35]}
    out_1 {name:"Node_303:1",dtype:float32,shape:[96]}
    out_2 {name:"Node_303:2",dtype:float32,shape:[96]}
    attrs {'axis': 1, 'epsilon': 0.0010000000474974513, 'center': 1, 'scale': 0}
  }
}
layer {
  name:"Node_305"
  type:"nn_relu"
  top:"Node_305"
  bottom:"Node_303"
  layer_param {
    idx:305
    in_0 {name:"Node_303:0",dtype:float32,shape:[1, 96, 35, 35]}
    out_0 {name:"Node_305:0",dtype:float32,shape:[1, 96, 35, 35]}
  }
}
layer {
  name:"Node_307"
  type:"const"
  top:"Node_307"
  layer_param {
    idx:307
    out_0 {name:"Node_307:0",dtype:float32,shape:[96, 96, 3, 3]}
  }
}
layer {
  name:"Node_308"
  type:"annotation_compiler_begin"
  top:"Node_308"
  bottom:"Node_307"
  layer_param {
    idx:308
    in_0 {name:"Node_307:0",dtype:float32,shape:[96, 96, 3, 3]}
    out_0 {name:"Node_308:0",dtype:float32,shape:[96, 96, 3, 3]}
    attrs {'compiler': 'tensorrt'}
  }
}
layer {
  name:"Node_309"
  type:"nn_conv2d"
  top:"Node_309"
  bottom:"Node_305"
  bottom:"Node_308"
  layer_param {
    idx:309
    in_0 {name:"Node_305:0",dtype:float32,shape:[1, 96, 35, 35]}
    in_1 {name:"Node_308:0",dtype:float32,shape:[96, 96, 3, 3]}
    out_0 {name:"Node_309:0",dtype:float32,shape:[1, 96, 35, 35]}
    attrs {'strides': [1, 1], 'padding': [1, 1, 1, 1], 'dilation': [1, 1], 'groups': 1, 'channels': 96, 'kernel_size': [3, 3], 'data_layout': 'NCHW', 'kernel_layout': 'OIHW', 'out_layout': '', 'out_dtype': ''}
  }
}
layer {
  name:"Node_311"
  type:"const"
  top:"Node_311"
  layer_param {
    idx:311
    out_0 {name:"Node_311:0",dtype:float32,shape:[96]}
  }
}
layer {
  name:"Node_312"
  type:"annotation_compiler_begin"
  top:"Node_312"
  bottom:"Node_311"
  layer_param {
    idx:312
    in_0 {name:"Node_311:0",dtype:float32,shape:[96]}
    out_0 {name:"Node_312:0",dtype:float32,shape:[96]}
    attrs {'compiler': 'tensorrt'}
  }
}
layer {
  name:"Node_314"
  type:"const"
  top:"Node_314"
  layer_param {
    idx:314
    out_0 {name:"Node_314:0",dtype:float32,shape:[96]}
  }
}
layer {
  name:"Node_315"
  type:"annotation_compiler_begin"
  top:"Node_315"
  bottom:"Node_314"
  layer_param {
    idx:315
    in_0 {name:"Node_314:0",dtype:float32,shape:[96]}
    out_0 {name:"Node_315:0",dtype:float32,shape:[96]}
    attrs {'compiler': 'tensorrt'}
  }
}
layer {
  name:"Node_317"
  type:"const"
  top:"Node_317"
  layer_param {
    idx:317
    out_0 {name:"Node_317:0",dtype:float32,shape:[96]}
  }
}
layer {
  name:"Node_318"
  type:"annotation_compiler_begin"
  top:"Node_318"
  bottom:"Node_317"
  layer_param {
    idx:318
    in_0 {name:"Node_317:0",dtype:float32,shape:[96]}
    out_0 {name:"Node_318:0",dtype:float32,shape:[96]}
    attrs {'compiler': 'tensorrt'}
  }
}
layer {
  name:"Node_320"
  type:"const"
  top:"Node_320"
  layer_param {
    idx:320
    out_0 {name:"Node_320:0",dtype:float32,shape:[96]}
  }
}
layer {
  name:"Node_321"
  type:"annotation_compiler_begin"
  top:"Node_321"
  bottom:"Node_320"
  layer_param {
    idx:321
    in_0 {name:"Node_320:0",dtype:float32,shape:[96]}
    out_0 {name:"Node_321:0",dtype:float32,shape:[96]}
    attrs {'compiler': 'tensorrt'}
  }
}
layer {
  name:"Node_322"
  type:"nn_batch_norm"
  top:"Node_322"
  bottom:"Node_309"
  bottom:"Node_312"
  bottom:"Node_315"
  bottom:"Node_318"
  bottom:"Node_321"
  layer_param {
    idx:322
    in_0 {name:"Node_309:0",dtype:float32,shape:[1, 96, 35, 35]}
    in_1 {name:"Node_312:0",dtype:float32,shape:[96]}
    in_2 {name:"Node_315:0",dtype:float32,shape:[96]}
    in_3 {name:"Node_318:0",dtype:float32,shape:[96]}
    in_4 {name:"Node_321:0",dtype:float32,shape:[96]}
    out_0 {name:"Node_322:0",dtype:float32,shape:[1, 96, 35, 35]}
    out_1 {name:"Node_322:1",dtype:float32,shape:[96]}
    out_2 {name:"Node_322:2",dtype:float32,shape:[96]}
    attrs {'axis': 1, 'epsilon': 0.0010000000474974513, 'center': 1, 'scale': 0}
  }
}
layer {
  name:"Node_324"
  type:"nn_relu"
  top:"Node_324"
  bottom:"Node_322"
  layer_param {
    idx:324
    in_0 {name:"Node_322:0",dtype:float32,shape:[1, 96, 35, 35]}
    out_0 {name:"Node_324:0",dtype:float32,shape:[1, 96, 35, 35]}
  }
}
layer {
  name:"Node_330"
  type:"nn_avg_pool2d"
  top:"Node_330"
  bottom:"Node_193"
  layer_param {
    idx:330
    in_0 {name:"Node_193:0",dtype:float32,shape:[1, 192, 35, 35]}
    out_0 {name:"Node_330:0",dtype:float32,shape:[1, 192, 35, 35]}
    attrs {'pool_size': [3, 3], 'strides': [1, 1], 'dilation': [1, 1], 'padding': [1, 1, 1, 1], 'layout': 'NCHW', 'ceil_mode': 0, 'count_include_pad': 0}
  }
}
layer {
  name:"Node_332"
  type:"const"
  top:"Node_332"
  layer_param {
    idx:332
    out_0 {name:"Node_332:0",dtype:float32,shape:[32, 192, 1, 1]}
  }
}
layer {
  name:"Node_333"
  type:"annotation_compiler_begin"
  top:"Node_333"
  bottom:"Node_332"
  layer_param {
    idx:333
    in_0 {name:"Node_332:0",dtype:float32,shape:[32, 192, 1, 1]}
    out_0 {name:"Node_333:0",dtype:float32,shape:[32, 192, 1, 1]}
    attrs {'compiler': 'tensorrt'}
  }
}
layer {
  name:"Node_334"
  type:"nn_conv2d"
  top:"Node_334"
  bottom:"Node_330"
  bottom:"Node_333"
  layer_param {
    idx:334
    in_0 {name:"Node_330:0",dtype:float32,shape:[1, 192, 35, 35]}
    in_1 {name:"Node_333:0",dtype:float32,shape:[32, 192, 1, 1]}
    out_0 {name:"Node_334:0",dtype:float32,shape:[1, 32, 35, 35]}
    attrs {'strides': [1, 1], 'padding': [0, 0, 0, 0], 'dilation': [1, 1], 'groups': 1, 'channels': 32, 'kernel_size': [1, 1], 'data_layout': 'NCHW', 'kernel_layout': 'OIHW', 'out_layout': '', 'out_dtype': ''}
  }
}
layer {
  name:"Node_336"
  type:"const"
  top:"Node_336"
  layer_param {
    idx:336
    out_0 {name:"Node_336:0",dtype:float32,shape:[32]}
  }
}
layer {
  name:"Node_337"
  type:"annotation_compiler_begin"
  top:"Node_337"
  bottom:"Node_336"
  layer_param {
    idx:337
    in_0 {name:"Node_336:0",dtype:float32,shape:[32]}
    out_0 {name:"Node_337:0",dtype:float32,shape:[32]}
    attrs {'compiler': 'tensorrt'}
  }
}
layer {
  name:"Node_339"
  type:"const"
  top:"Node_339"
  layer_param {
    idx:339
    out_0 {name:"Node_339:0",dtype:float32,shape:[32]}
  }
}
layer {
  name:"Node_340"
  type:"annotation_compiler_begin"
  top:"Node_340"
  bottom:"Node_339"
  layer_param {
    idx:340
    in_0 {name:"Node_339:0",dtype:float32,shape:[32]}
    out_0 {name:"Node_340:0",dtype:float32,shape:[32]}
    attrs {'compiler': 'tensorrt'}
  }
}
layer {
  name:"Node_342"
  type:"const"
  top:"Node_342"
  layer_param {
    idx:342
    out_0 {name:"Node_342:0",dtype:float32,shape:[32]}
  }
}
layer {
  name:"Node_343"
  type:"annotation_compiler_begin"
  top:"Node_343"
  bottom:"Node_342"
  layer_param {
    idx:343
    in_0 {name:"Node_342:0",dtype:float32,shape:[32]}
    out_0 {name:"Node_343:0",dtype:float32,shape:[32]}
    attrs {'compiler': 'tensorrt'}
  }
}
layer {
  name:"Node_345"
  type:"const"
  top:"Node_345"
  layer_param {
    idx:345
    out_0 {name:"Node_345:0",dtype:float32,shape:[32]}
  }
}
layer {
  name:"Node_346"
  type:"annotation_compiler_begin"
  top:"Node_346"
  bottom:"Node_345"
  layer_param {
    idx:346
    in_0 {name:"Node_345:0",dtype:float32,shape:[32]}
    out_0 {name:"Node_346:0",dtype:float32,shape:[32]}
    attrs {'compiler': 'tensorrt'}
  }
}
layer {
  name:"Node_347"
  type:"nn_batch_norm"
  top:"Node_347"
  bottom:"Node_334"
  bottom:"Node_337"
  bottom:"Node_340"
  bottom:"Node_343"
  bottom:"Node_346"
  layer_param {
    idx:347
    in_0 {name:"Node_334:0",dtype:float32,shape:[1, 32, 35, 35]}
    in_1 {name:"Node_337:0",dtype:float32,shape:[32]}
    in_2 {name:"Node_340:0",dtype:float32,shape:[32]}
    in_3 {name:"Node_343:0",dtype:float32,shape:[32]}
    in_4 {name:"Node_346:0",dtype:float32,shape:[32]}
    out_0 {name:"Node_347:0",dtype:float32,shape:[1, 32, 35, 35]}
    out_1 {name:"Node_347:1",dtype:float32,shape:[32]}
    out_2 {name:"Node_347:2",dtype:float32,shape:[32]}
    attrs {'axis': 1, 'epsilon': 0.0010000000474974513, 'center': 1, 'scale': 0}
  }
}
layer {
  name:"Node_349"
  type:"nn_relu"
  top:"Node_349"
  bottom:"Node_347"
  layer_param {
    idx:349
    in_0 {name:"Node_347:0",dtype:float32,shape:[1, 32, 35, 35]}
    out_0 {name:"Node_349:0",dtype:float32,shape:[1, 32, 35, 35]}
  }
}
layer {
  name:"Node_351"
  type:"concatenate"
  top:"Node_351"
  bottom:"Node_212"
  bottom:"Node_257"
  bottom:"Node_324"
  bottom:"Node_349"
  layer_param {
    idx:351
    in_0 {name:"Node_212:0",dtype:float32,shape:[1, 64, 35, 35]}
    in_1 {name:"Node_257:0",dtype:float32,shape:[1, 64, 35, 35]}
    in_2 {name:"Node_324:0",dtype:float32,shape:[1, 96, 35, 35]}
    in_3 {name:"Node_349:0",dtype:float32,shape:[1, 32, 35, 35]}
    out_0 {name:"Node_351:0",dtype:float32,shape:[1, 256, 35, 35]}
    attrs {'axis': 1}
  }
}
layer {
  name:"Node_353"
  type:"const"
  top:"Node_353"
  layer_param {
    idx:353
    out_0 {name:"Node_353:0",dtype:float32,shape:[64, 256, 1, 1]}
  }
}
layer {
  name:"Node_354"
  type:"annotation_compiler_begin"
  top:"Node_354"
  bottom:"Node_353"
  layer_param {
    idx:354
    in_0 {name:"Node_353:0",dtype:float32,shape:[64, 256, 1, 1]}
    out_0 {name:"Node_354:0",dtype:float32,shape:[64, 256, 1, 1]}
    attrs {'compiler': 'tensorrt'}
  }
}
layer {
  name:"Node_355"
  type:"nn_conv2d"
  top:"Node_355"
  bottom:"Node_351"
  bottom:"Node_354"
  layer_param {
    idx:355
    in_0 {name:"Node_351:0",dtype:float32,shape:[1, 256, 35, 35]}
    in_1 {name:"Node_354:0",dtype:float32,shape:[64, 256, 1, 1]}
    out_0 {name:"Node_355:0",dtype:float32,shape:[1, 64, 35, 35]}
    attrs {'strides': [1, 1], 'padding': [0, 0, 0, 0], 'dilation': [1, 1], 'groups': 1, 'channels': 64, 'kernel_size': [1, 1], 'data_layout': 'NCHW', 'kernel_layout': 'OIHW', 'out_layout': '', 'out_dtype': ''}
  }
}
layer {
  name:"Node_357"
  type:"const"
  top:"Node_357"
  layer_param {
    idx:357
    out_0 {name:"Node_357:0",dtype:float32,shape:[64]}
  }
}
layer {
  name:"Node_358"
  type:"annotation_compiler_begin"
  top:"Node_358"
  bottom:"Node_357"
  layer_param {
    idx:358
    in_0 {name:"Node_357:0",dtype:float32,shape:[64]}
    out_0 {name:"Node_358:0",dtype:float32,shape:[64]}
    attrs {'compiler': 'tensorrt'}
  }
}
layer {
  name:"Node_360"
  type:"const"
  top:"Node_360"
  layer_param {
    idx:360
    out_0 {name:"Node_360:0",dtype:float32,shape:[64]}
  }
}
layer {
  name:"Node_361"
  type:"annotation_compiler_begin"
  top:"Node_361"
  bottom:"Node_360"
  layer_param {
    idx:361
    in_0 {name:"Node_360:0",dtype:float32,shape:[64]}
    out_0 {name:"Node_361:0",dtype:float32,shape:[64]}
    attrs {'compiler': 'tensorrt'}
  }
}
layer {
  name:"Node_363"
  type:"const"
  top:"Node_363"
  layer_param {
    idx:363
    out_0 {name:"Node_363:0",dtype:float32,shape:[64]}
  }
}
layer {
  name:"Node_364"
  type:"annotation_compiler_begin"
  top:"Node_364"
  bottom:"Node_363"
  layer_param {
    idx:364
    in_0 {name:"Node_363:0",dtype:float32,shape:[64]}
    out_0 {name:"Node_364:0",dtype:float32,shape:[64]}
    attrs {'compiler': 'tensorrt'}
  }
}
layer {
  name:"Node_366"
  type:"const"
  top:"Node_366"
  layer_param {
    idx:366
    out_0 {name:"Node_366:0",dtype:float32,shape:[64]}
  }
}
layer {
  name:"Node_367"
  type:"annotation_compiler_begin"
  top:"Node_367"
  bottom:"Node_366"
  layer_param {
    idx:367
    in_0 {name:"Node_366:0",dtype:float32,shape:[64]}
    out_0 {name:"Node_367:0",dtype:float32,shape:[64]}
    attrs {'compiler': 'tensorrt'}
  }
}
layer {
  name:"Node_368"
  type:"nn_batch_norm"
  top:"Node_368"
  bottom:"Node_355"
  bottom:"Node_358"
  bottom:"Node_361"
  bottom:"Node_364"
  bottom:"Node_367"
  layer_param {
    idx:368
    in_0 {name:"Node_355:0",dtype:float32,shape:[1, 64, 35, 35]}
    in_1 {name:"Node_358:0",dtype:float32,shape:[64]}
    in_2 {name:"Node_361:0",dtype:float32,shape:[64]}
    in_3 {name:"Node_364:0",dtype:float32,shape:[64]}
    in_4 {name:"Node_367:0",dtype:float32,shape:[64]}
    out_0 {name:"Node_368:0",dtype:float32,shape:[1, 64, 35, 35]}
    out_1 {name:"Node_368:1",dtype:float32,shape:[64]}
    out_2 {name:"Node_368:2",dtype:float32,shape:[64]}
    attrs {'axis': 1, 'epsilon': 0.0010000000474974513, 'center': 1, 'scale': 0}
  }
}
layer {
  name:"Node_370"
  type:"nn_relu"
  top:"Node_370"
  bottom:"Node_368"
  layer_param {
    idx:370
    in_0 {name:"Node_368:0",dtype:float32,shape:[1, 64, 35, 35]}
    out_0 {name:"Node_370:0",dtype:float32,shape:[1, 64, 35, 35]}
  }
}
layer {
  name:"Node_379"
  type:"const"
  top:"Node_379"
  layer_param {
    idx:379
    out_0 {name:"Node_379:0",dtype:float32,shape:[48, 256, 1, 1]}
  }
}
layer {
  name:"Node_380"
  type:"annotation_compiler_begin"
  top:"Node_380"
  bottom:"Node_379"
  layer_param {
    idx:380
    in_0 {name:"Node_379:0",dtype:float32,shape:[48, 256, 1, 1]}
    out_0 {name:"Node_380:0",dtype:float32,shape:[48, 256, 1, 1]}
    attrs {'compiler': 'tensorrt'}
  }
}
layer {
  name:"Node_381"
  type:"nn_conv2d"
  top:"Node_381"
  bottom:"Node_351"
  bottom:"Node_380"
  layer_param {
    idx:381
    in_0 {name:"Node_351:0",dtype:float32,shape:[1, 256, 35, 35]}
    in_1 {name:"Node_380:0",dtype:float32,shape:[48, 256, 1, 1]}
    out_0 {name:"Node_381:0",dtype:float32,shape:[1, 48, 35, 35]}
    attrs {'strides': [1, 1], 'padding': [0, 0, 0, 0], 'dilation': [1, 1], 'groups': 1, 'channels': 48, 'kernel_size': [1, 1], 'data_layout': 'NCHW', 'kernel_layout': 'OIHW', 'out_layout': '', 'out_dtype': ''}
  }
}
layer {
  name:"Node_383"
  type:"const"
  top:"Node_383"
  layer_param {
    idx:383
    out_0 {name:"Node_383:0",dtype:float32,shape:[48]}
  }
}
layer {
  name:"Node_384"
  type:"annotation_compiler_begin"
  top:"Node_384"
  bottom:"Node_383"
  layer_param {
    idx:384
    in_0 {name:"Node_383:0",dtype:float32,shape:[48]}
    out_0 {name:"Node_384:0",dtype:float32,shape:[48]}
    attrs {'compiler': 'tensorrt'}
  }
}
layer {
  name:"Node_386"
  type:"const"
  top:"Node_386"
  layer_param {
    idx:386
    out_0 {name:"Node_386:0",dtype:float32,shape:[48]}
  }
}
layer {
  name:"Node_387"
  type:"annotation_compiler_begin"
  top:"Node_387"
  bottom:"Node_386"
  layer_param {
    idx:387
    in_0 {name:"Node_386:0",dtype:float32,shape:[48]}
    out_0 {name:"Node_387:0",dtype:float32,shape:[48]}
    attrs {'compiler': 'tensorrt'}
  }
}
layer {
  name:"Node_389"
  type:"const"
  top:"Node_389"
  layer_param {
    idx:389
    out_0 {name:"Node_389:0",dtype:float32,shape:[48]}
  }
}
layer {
  name:"Node_390"
  type:"annotation_compiler_begin"
  top:"Node_390"
  bottom:"Node_389"
  layer_param {
    idx:390
    in_0 {name:"Node_389:0",dtype:float32,shape:[48]}
    out_0 {name:"Node_390:0",dtype:float32,shape:[48]}
    attrs {'compiler': 'tensorrt'}
  }
}
layer {
  name:"Node_392"
  type:"const"
  top:"Node_392"
  layer_param {
    idx:392
    out_0 {name:"Node_392:0",dtype:float32,shape:[48]}
  }
}
layer {
  name:"Node_393"
  type:"annotation_compiler_begin"
  top:"Node_393"
  bottom:"Node_392"
  layer_param {
    idx:393
    in_0 {name:"Node_392:0",dtype:float32,shape:[48]}
    out_0 {name:"Node_393:0",dtype:float32,shape:[48]}
    attrs {'compiler': 'tensorrt'}
  }
}
layer {
  name:"Node_394"
  type:"nn_batch_norm"
  top:"Node_394"
  bottom:"Node_381"
  bottom:"Node_384"
  bottom:"Node_387"
  bottom:"Node_390"
  bottom:"Node_393"
  layer_param {
    idx:394
    in_0 {name:"Node_381:0",dtype:float32,shape:[1, 48, 35, 35]}
    in_1 {name:"Node_384:0",dtype:float32,shape:[48]}
    in_2 {name:"Node_387:0",dtype:float32,shape:[48]}
    in_3 {name:"Node_390:0",dtype:float32,shape:[48]}
    in_4 {name:"Node_393:0",dtype:float32,shape:[48]}
    out_0 {name:"Node_394:0",dtype:float32,shape:[1, 48, 35, 35]}
    out_1 {name:"Node_394:1",dtype:float32,shape:[48]}
    out_2 {name:"Node_394:2",dtype:float32,shape:[48]}
    attrs {'axis': 1, 'epsilon': 0.0010000000474974513, 'center': 1, 'scale': 0}
  }
}
layer {
  name:"Node_396"
  type:"nn_relu"
  top:"Node_396"
  bottom:"Node_394"
  layer_param {
    idx:396
    in_0 {name:"Node_394:0",dtype:float32,shape:[1, 48, 35, 35]}
    out_0 {name:"Node_396:0",dtype:float32,shape:[1, 48, 35, 35]}
  }
}
layer {
  name:"Node_398"
  type:"const"
  top:"Node_398"
  layer_param {
    idx:398
    out_0 {name:"Node_398:0",dtype:float32,shape:[64, 48, 5, 5]}
  }
}
layer {
  name:"Node_399"
  type:"annotation_compiler_begin"
  top:"Node_399"
  bottom:"Node_398"
  layer_param {
    idx:399
    in_0 {name:"Node_398:0",dtype:float32,shape:[64, 48, 5, 5]}
    out_0 {name:"Node_399:0",dtype:float32,shape:[64, 48, 5, 5]}
    attrs {'compiler': 'tensorrt'}
  }
}
layer {
  name:"Node_400"
  type:"nn_conv2d"
  top:"Node_400"
  bottom:"Node_396"
  bottom:"Node_399"
  layer_param {
    idx:400
    in_0 {name:"Node_396:0",dtype:float32,shape:[1, 48, 35, 35]}
    in_1 {name:"Node_399:0",dtype:float32,shape:[64, 48, 5, 5]}
    out_0 {name:"Node_400:0",dtype:float32,shape:[1, 64, 35, 35]}
    attrs {'strides': [1, 1], 'padding': [2, 2, 2, 2], 'dilation': [1, 1], 'groups': 1, 'channels': 64, 'kernel_size': [5, 5], 'data_layout': 'NCHW', 'kernel_layout': 'OIHW', 'out_layout': '', 'out_dtype': ''}
  }
}
layer {
  name:"Node_402"
  type:"const"
  top:"Node_402"
  layer_param {
    idx:402
    out_0 {name:"Node_402:0",dtype:float32,shape:[64]}
  }
}
layer {
  name:"Node_403"
  type:"annotation_compiler_begin"
  top:"Node_403"
  bottom:"Node_402"
  layer_param {
    idx:403
    in_0 {name:"Node_402:0",dtype:float32,shape:[64]}
    out_0 {name:"Node_403:0",dtype:float32,shape:[64]}
    attrs {'compiler': 'tensorrt'}
  }
}
layer {
  name:"Node_405"
  type:"const"
  top:"Node_405"
  layer_param {
    idx:405
    out_0 {name:"Node_405:0",dtype:float32,shape:[64]}
  }
}
layer {
  name:"Node_406"
  type:"annotation_compiler_begin"
  top:"Node_406"
  bottom:"Node_405"
  layer_param {
    idx:406
    in_0 {name:"Node_405:0",dtype:float32,shape:[64]}
    out_0 {name:"Node_406:0",dtype:float32,shape:[64]}
    attrs {'compiler': 'tensorrt'}
  }
}
layer {
  name:"Node_408"
  type:"const"
  top:"Node_408"
  layer_param {
    idx:408
    out_0 {name:"Node_408:0",dtype:float32,shape:[64]}
  }
}
layer {
  name:"Node_409"
  type:"annotation_compiler_begin"
  top:"Node_409"
  bottom:"Node_408"
  layer_param {
    idx:409
    in_0 {name:"Node_408:0",dtype:float32,shape:[64]}
    out_0 {name:"Node_409:0",dtype:float32,shape:[64]}
    attrs {'compiler': 'tensorrt'}
  }
}
layer {
  name:"Node_411"
  type:"const"
  top:"Node_411"
  layer_param {
    idx:411
    out_0 {name:"Node_411:0",dtype:float32,shape:[64]}
  }
}
layer {
  name:"Node_412"
  type:"annotation_compiler_begin"
  top:"Node_412"
  bottom:"Node_411"
  layer_param {
    idx:412
    in_0 {name:"Node_411:0",dtype:float32,shape:[64]}
    out_0 {name:"Node_412:0",dtype:float32,shape:[64]}
    attrs {'compiler': 'tensorrt'}
  }
}
layer {
  name:"Node_413"
  type:"nn_batch_norm"
  top:"Node_413"
  bottom:"Node_400"
  bottom:"Node_403"
  bottom:"Node_406"
  bottom:"Node_409"
  bottom:"Node_412"
  layer_param {
    idx:413
    in_0 {name:"Node_400:0",dtype:float32,shape:[1, 64, 35, 35]}
    in_1 {name:"Node_403:0",dtype:float32,shape:[64]}
    in_2 {name:"Node_406:0",dtype:float32,shape:[64]}
    in_3 {name:"Node_409:0",dtype:float32,shape:[64]}
    in_4 {name:"Node_412:0",dtype:float32,shape:[64]}
    out_0 {name:"Node_413:0",dtype:float32,shape:[1, 64, 35, 35]}
    out_1 {name:"Node_413:1",dtype:float32,shape:[64]}
    out_2 {name:"Node_413:2",dtype:float32,shape:[64]}
    attrs {'axis': 1, 'epsilon': 0.0010000000474974513, 'center': 1, 'scale': 0}
  }
}
layer {
  name:"Node_415"
  type:"nn_relu"
  top:"Node_415"
  bottom:"Node_413"
  layer_param {
    idx:415
    in_0 {name:"Node_413:0",dtype:float32,shape:[1, 64, 35, 35]}
    out_0 {name:"Node_415:0",dtype:float32,shape:[1, 64, 35, 35]}
  }
}
layer {
  name:"Node_427"
  type:"const"
  top:"Node_427"
  layer_param {
    idx:427
    out_0 {name:"Node_427:0",dtype:float32,shape:[64, 256, 1, 1]}
  }
}
layer {
  name:"Node_428"
  type:"annotation_compiler_begin"
  top:"Node_428"
  bottom:"Node_427"
  layer_param {
    idx:428
    in_0 {name:"Node_427:0",dtype:float32,shape:[64, 256, 1, 1]}
    out_0 {name:"Node_428:0",dtype:float32,shape:[64, 256, 1, 1]}
    attrs {'compiler': 'tensorrt'}
  }
}
layer {
  name:"Node_429"
  type:"nn_conv2d"
  top:"Node_429"
  bottom:"Node_351"
  bottom:"Node_428"
  layer_param {
    idx:429
    in_0 {name:"Node_351:0",dtype:float32,shape:[1, 256, 35, 35]}
    in_1 {name:"Node_428:0",dtype:float32,shape:[64, 256, 1, 1]}
    out_0 {name:"Node_429:0",dtype:float32,shape:[1, 64, 35, 35]}
    attrs {'strides': [1, 1], 'padding': [0, 0, 0, 0], 'dilation': [1, 1], 'groups': 1, 'channels': 64, 'kernel_size': [1, 1], 'data_layout': 'NCHW', 'kernel_layout': 'OIHW', 'out_layout': '', 'out_dtype': ''}
  }
}
layer {
  name:"Node_431"
  type:"const"
  top:"Node_431"
  layer_param {
    idx:431
    out_0 {name:"Node_431:0",dtype:float32,shape:[64]}
  }
}
layer {
  name:"Node_432"
  type:"annotation_compiler_begin"
  top:"Node_432"
  bottom:"Node_431"
  layer_param {
    idx:432
    in_0 {name:"Node_431:0",dtype:float32,shape:[64]}
    out_0 {name:"Node_432:0",dtype:float32,shape:[64]}
    attrs {'compiler': 'tensorrt'}
  }
}
layer {
  name:"Node_434"
  type:"const"
  top:"Node_434"
  layer_param {
    idx:434
    out_0 {name:"Node_434:0",dtype:float32,shape:[64]}
  }
}
layer {
  name:"Node_435"
  type:"annotation_compiler_begin"
  top:"Node_435"
  bottom:"Node_434"
  layer_param {
    idx:435
    in_0 {name:"Node_434:0",dtype:float32,shape:[64]}
    out_0 {name:"Node_435:0",dtype:float32,shape:[64]}
    attrs {'compiler': 'tensorrt'}
  }
}
layer {
  name:"Node_437"
  type:"const"
  top:"Node_437"
  layer_param {
    idx:437
    out_0 {name:"Node_437:0",dtype:float32,shape:[64]}
  }
}
layer {
  name:"Node_438"
  type:"annotation_compiler_begin"
  top:"Node_438"
  bottom:"Node_437"
  layer_param {
    idx:438
    in_0 {name:"Node_437:0",dtype:float32,shape:[64]}
    out_0 {name:"Node_438:0",dtype:float32,shape:[64]}
    attrs {'compiler': 'tensorrt'}
  }
}
layer {
  name:"Node_440"
  type:"const"
  top:"Node_440"
  layer_param {
    idx:440
    out_0 {name:"Node_440:0",dtype:float32,shape:[64]}
  }
}
layer {
  name:"Node_441"
  type:"annotation_compiler_begin"
  top:"Node_441"
  bottom:"Node_440"
  layer_param {
    idx:441
    in_0 {name:"Node_440:0",dtype:float32,shape:[64]}
    out_0 {name:"Node_441:0",dtype:float32,shape:[64]}
    attrs {'compiler': 'tensorrt'}
  }
}
layer {
  name:"Node_442"
  type:"nn_batch_norm"
  top:"Node_442"
  bottom:"Node_429"
  bottom:"Node_432"
  bottom:"Node_435"
  bottom:"Node_438"
  bottom:"Node_441"
  layer_param {
    idx:442
    in_0 {name:"Node_429:0",dtype:float32,shape:[1, 64, 35, 35]}
    in_1 {name:"Node_432:0",dtype:float32,shape:[64]}
    in_2 {name:"Node_435:0",dtype:float32,shape:[64]}
    in_3 {name:"Node_438:0",dtype:float32,shape:[64]}
    in_4 {name:"Node_441:0",dtype:float32,shape:[64]}
    out_0 {name:"Node_442:0",dtype:float32,shape:[1, 64, 35, 35]}
    out_1 {name:"Node_442:1",dtype:float32,shape:[64]}
    out_2 {name:"Node_442:2",dtype:float32,shape:[64]}
    attrs {'axis': 1, 'epsilon': 0.0010000000474974513, 'center': 1, 'scale': 0}
  }
}
layer {
  name:"Node_444"
  type:"nn_relu"
  top:"Node_444"
  bottom:"Node_442"
  layer_param {
    idx:444
    in_0 {name:"Node_442:0",dtype:float32,shape:[1, 64, 35, 35]}
    out_0 {name:"Node_444:0",dtype:float32,shape:[1, 64, 35, 35]}
  }
}
layer {
  name:"Node_446"
  type:"const"
  top:"Node_446"
  layer_param {
    idx:446
    out_0 {name:"Node_446:0",dtype:float32,shape:[96, 64, 3, 3]}
  }
}
layer {
  name:"Node_447"
  type:"annotation_compiler_begin"
  top:"Node_447"
  bottom:"Node_446"
  layer_param {
    idx:447
    in_0 {name:"Node_446:0",dtype:float32,shape:[96, 64, 3, 3]}
    out_0 {name:"Node_447:0",dtype:float32,shape:[96, 64, 3, 3]}
    attrs {'compiler': 'tensorrt'}
  }
}
layer {
  name:"Node_448"
  type:"nn_conv2d"
  top:"Node_448"
  bottom:"Node_444"
  bottom:"Node_447"
  layer_param {
    idx:448
    in_0 {name:"Node_444:0",dtype:float32,shape:[1, 64, 35, 35]}
    in_1 {name:"Node_447:0",dtype:float32,shape:[96, 64, 3, 3]}
    out_0 {name:"Node_448:0",dtype:float32,shape:[1, 96, 35, 35]}
    attrs {'strides': [1, 1], 'padding': [1, 1, 1, 1], 'dilation': [1, 1], 'groups': 1, 'channels': 96, 'kernel_size': [3, 3], 'data_layout': 'NCHW', 'kernel_layout': 'OIHW', 'out_layout': '', 'out_dtype': ''}
  }
}
layer {
  name:"Node_450"
  type:"const"
  top:"Node_450"
  layer_param {
    idx:450
    out_0 {name:"Node_450:0",dtype:float32,shape:[96]}
  }
}
layer {
  name:"Node_451"
  type:"annotation_compiler_begin"
  top:"Node_451"
  bottom:"Node_450"
  layer_param {
    idx:451
    in_0 {name:"Node_450:0",dtype:float32,shape:[96]}
    out_0 {name:"Node_451:0",dtype:float32,shape:[96]}
    attrs {'compiler': 'tensorrt'}
  }
}
layer {
  name:"Node_453"
  type:"const"
  top:"Node_453"
  layer_param {
    idx:453
    out_0 {name:"Node_453:0",dtype:float32,shape:[96]}
  }
}
layer {
  name:"Node_454"
  type:"annotation_compiler_begin"
  top:"Node_454"
  bottom:"Node_453"
  layer_param {
    idx:454
    in_0 {name:"Node_453:0",dtype:float32,shape:[96]}
    out_0 {name:"Node_454:0",dtype:float32,shape:[96]}
    attrs {'compiler': 'tensorrt'}
  }
}
layer {
  name:"Node_456"
  type:"const"
  top:"Node_456"
  layer_param {
    idx:456
    out_0 {name:"Node_456:0",dtype:float32,shape:[96]}
  }
}
layer {
  name:"Node_457"
  type:"annotation_compiler_begin"
  top:"Node_457"
  bottom:"Node_456"
  layer_param {
    idx:457
    in_0 {name:"Node_456:0",dtype:float32,shape:[96]}
    out_0 {name:"Node_457:0",dtype:float32,shape:[96]}
    attrs {'compiler': 'tensorrt'}
  }
}
layer {
  name:"Node_459"
  type:"const"
  top:"Node_459"
  layer_param {
    idx:459
    out_0 {name:"Node_459:0",dtype:float32,shape:[96]}
  }
}
layer {
  name:"Node_460"
  type:"annotation_compiler_begin"
  top:"Node_460"
  bottom:"Node_459"
  layer_param {
    idx:460
    in_0 {name:"Node_459:0",dtype:float32,shape:[96]}
    out_0 {name:"Node_460:0",dtype:float32,shape:[96]}
    attrs {'compiler': 'tensorrt'}
  }
}
layer {
  name:"Node_461"
  type:"nn_batch_norm"
  top:"Node_461"
  bottom:"Node_448"
  bottom:"Node_451"
  bottom:"Node_454"
  bottom:"Node_457"
  bottom:"Node_460"
  layer_param {
    idx:461
    in_0 {name:"Node_448:0",dtype:float32,shape:[1, 96, 35, 35]}
    in_1 {name:"Node_451:0",dtype:float32,shape:[96]}
    in_2 {name:"Node_454:0",dtype:float32,shape:[96]}
    in_3 {name:"Node_457:0",dtype:float32,shape:[96]}
    in_4 {name:"Node_460:0",dtype:float32,shape:[96]}
    out_0 {name:"Node_461:0",dtype:float32,shape:[1, 96, 35, 35]}
    out_1 {name:"Node_461:1",dtype:float32,shape:[96]}
    out_2 {name:"Node_461:2",dtype:float32,shape:[96]}
    attrs {'axis': 1, 'epsilon': 0.0010000000474974513, 'center': 1, 'scale': 0}
  }
}
layer {
  name:"Node_463"
  type:"nn_relu"
  top:"Node_463"
  bottom:"Node_461"
  layer_param {
    idx:463
    in_0 {name:"Node_461:0",dtype:float32,shape:[1, 96, 35, 35]}
    out_0 {name:"Node_463:0",dtype:float32,shape:[1, 96, 35, 35]}
  }
}
layer {
  name:"Node_465"
  type:"const"
  top:"Node_465"
  layer_param {
    idx:465
    out_0 {name:"Node_465:0",dtype:float32,shape:[96, 96, 3, 3]}
  }
}
layer {
  name:"Node_466"
  type:"annotation_compiler_begin"
  top:"Node_466"
  bottom:"Node_465"
  layer_param {
    idx:466
    in_0 {name:"Node_465:0",dtype:float32,shape:[96, 96, 3, 3]}
    out_0 {name:"Node_466:0",dtype:float32,shape:[96, 96, 3, 3]}
    attrs {'compiler': 'tensorrt'}
  }
}
layer {
  name:"Node_467"
  type:"nn_conv2d"
  top:"Node_467"
  bottom:"Node_463"
  bottom:"Node_466"
  layer_param {
    idx:467
    in_0 {name:"Node_463:0",dtype:float32,shape:[1, 96, 35, 35]}
    in_1 {name:"Node_466:0",dtype:float32,shape:[96, 96, 3, 3]}
    out_0 {name:"Node_467:0",dtype:float32,shape:[1, 96, 35, 35]}
    attrs {'strides': [1, 1], 'padding': [1, 1, 1, 1], 'dilation': [1, 1], 'groups': 1, 'channels': 96, 'kernel_size': [3, 3], 'data_layout': 'NCHW', 'kernel_layout': 'OIHW', 'out_layout': '', 'out_dtype': ''}
  }
}
layer {
  name:"Node_469"
  type:"const"
  top:"Node_469"
  layer_param {
    idx:469
    out_0 {name:"Node_469:0",dtype:float32,shape:[96]}
  }
}
layer {
  name:"Node_470"
  type:"annotation_compiler_begin"
  top:"Node_470"
  bottom:"Node_469"
  layer_param {
    idx:470
    in_0 {name:"Node_469:0",dtype:float32,shape:[96]}
    out_0 {name:"Node_470:0",dtype:float32,shape:[96]}
    attrs {'compiler': 'tensorrt'}
  }
}
layer {
  name:"Node_472"
  type:"const"
  top:"Node_472"
  layer_param {
    idx:472
    out_0 {name:"Node_472:0",dtype:float32,shape:[96]}
  }
}
layer {
  name:"Node_473"
  type:"annotation_compiler_begin"
  top:"Node_473"
  bottom:"Node_472"
  layer_param {
    idx:473
    in_0 {name:"Node_472:0",dtype:float32,shape:[96]}
    out_0 {name:"Node_473:0",dtype:float32,shape:[96]}
    attrs {'compiler': 'tensorrt'}
  }
}
layer {
  name:"Node_475"
  type:"const"
  top:"Node_475"
  layer_param {
    idx:475
    out_0 {name:"Node_475:0",dtype:float32,shape:[96]}
  }
}
layer {
  name:"Node_476"
  type:"annotation_compiler_begin"
  top:"Node_476"
  bottom:"Node_475"
  layer_param {
    idx:476
    in_0 {name:"Node_475:0",dtype:float32,shape:[96]}
    out_0 {name:"Node_476:0",dtype:float32,shape:[96]}
    attrs {'compiler': 'tensorrt'}
  }
}
layer {
  name:"Node_478"
  type:"const"
  top:"Node_478"
  layer_param {
    idx:478
    out_0 {name:"Node_478:0",dtype:float32,shape:[96]}
  }
}
layer {
  name:"Node_479"
  type:"annotation_compiler_begin"
  top:"Node_479"
  bottom:"Node_478"
  layer_param {
    idx:479
    in_0 {name:"Node_478:0",dtype:float32,shape:[96]}
    out_0 {name:"Node_479:0",dtype:float32,shape:[96]}
    attrs {'compiler': 'tensorrt'}
  }
}
layer {
  name:"Node_480"
  type:"nn_batch_norm"
  top:"Node_480"
  bottom:"Node_467"
  bottom:"Node_470"
  bottom:"Node_473"
  bottom:"Node_476"
  bottom:"Node_479"
  layer_param {
    idx:480
    in_0 {name:"Node_467:0",dtype:float32,shape:[1, 96, 35, 35]}
    in_1 {name:"Node_470:0",dtype:float32,shape:[96]}
    in_2 {name:"Node_473:0",dtype:float32,shape:[96]}
    in_3 {name:"Node_476:0",dtype:float32,shape:[96]}
    in_4 {name:"Node_479:0",dtype:float32,shape:[96]}
    out_0 {name:"Node_480:0",dtype:float32,shape:[1, 96, 35, 35]}
    out_1 {name:"Node_480:1",dtype:float32,shape:[96]}
    out_2 {name:"Node_480:2",dtype:float32,shape:[96]}
    attrs {'axis': 1, 'epsilon': 0.0010000000474974513, 'center': 1, 'scale': 0}
  }
}
layer {
  name:"Node_482"
  type:"nn_relu"
  top:"Node_482"
  bottom:"Node_480"
  layer_param {
    idx:482
    in_0 {name:"Node_480:0",dtype:float32,shape:[1, 96, 35, 35]}
    out_0 {name:"Node_482:0",dtype:float32,shape:[1, 96, 35, 35]}
  }
}
layer {
  name:"Node_488"
  type:"nn_avg_pool2d"
  top:"Node_488"
  bottom:"Node_351"
  layer_param {
    idx:488
    in_0 {name:"Node_351:0",dtype:float32,shape:[1, 256, 35, 35]}
    out_0 {name:"Node_488:0",dtype:float32,shape:[1, 256, 35, 35]}
    attrs {'pool_size': [3, 3], 'strides': [1, 1], 'dilation': [1, 1], 'padding': [1, 1, 1, 1], 'layout': 'NCHW', 'ceil_mode': 0, 'count_include_pad': 0}
  }
}
layer {
  name:"Node_490"
  type:"const"
  top:"Node_490"
  layer_param {
    idx:490
    out_0 {name:"Node_490:0",dtype:float32,shape:[64, 256, 1, 1]}
  }
}
layer {
  name:"Node_491"
  type:"annotation_compiler_begin"
  top:"Node_491"
  bottom:"Node_490"
  layer_param {
    idx:491
    in_0 {name:"Node_490:0",dtype:float32,shape:[64, 256, 1, 1]}
    out_0 {name:"Node_491:0",dtype:float32,shape:[64, 256, 1, 1]}
    attrs {'compiler': 'tensorrt'}
  }
}
layer {
  name:"Node_492"
  type:"nn_conv2d"
  top:"Node_492"
  bottom:"Node_488"
  bottom:"Node_491"
  layer_param {
    idx:492
    in_0 {name:"Node_488:0",dtype:float32,shape:[1, 256, 35, 35]}
    in_1 {name:"Node_491:0",dtype:float32,shape:[64, 256, 1, 1]}
    out_0 {name:"Node_492:0",dtype:float32,shape:[1, 64, 35, 35]}
    attrs {'strides': [1, 1], 'padding': [0, 0, 0, 0], 'dilation': [1, 1], 'groups': 1, 'channels': 64, 'kernel_size': [1, 1], 'data_layout': 'NCHW', 'kernel_layout': 'OIHW', 'out_layout': '', 'out_dtype': ''}
  }
}
layer {
  name:"Node_494"
  type:"const"
  top:"Node_494"
  layer_param {
    idx:494
    out_0 {name:"Node_494:0",dtype:float32,shape:[64]}
  }
}
layer {
  name:"Node_495"
  type:"annotation_compiler_begin"
  top:"Node_495"
  bottom:"Node_494"
  layer_param {
    idx:495
    in_0 {name:"Node_494:0",dtype:float32,shape:[64]}
    out_0 {name:"Node_495:0",dtype:float32,shape:[64]}
    attrs {'compiler': 'tensorrt'}
  }
}
layer {
  name:"Node_497"
  type:"const"
  top:"Node_497"
  layer_param {
    idx:497
    out_0 {name:"Node_497:0",dtype:float32,shape:[64]}
  }
}
layer {
  name:"Node_498"
  type:"annotation_compiler_begin"
  top:"Node_498"
  bottom:"Node_497"
  layer_param {
    idx:498
    in_0 {name:"Node_497:0",dtype:float32,shape:[64]}
    out_0 {name:"Node_498:0",dtype:float32,shape:[64]}
    attrs {'compiler': 'tensorrt'}
  }
}
layer {
  name:"Node_500"
  type:"const"
  top:"Node_500"
  layer_param {
    idx:500
    out_0 {name:"Node_500:0",dtype:float32,shape:[64]}
  }
}
layer {
  name:"Node_501"
  type:"annotation_compiler_begin"
  top:"Node_501"
  bottom:"Node_500"
  layer_param {
    idx:501
    in_0 {name:"Node_500:0",dtype:float32,shape:[64]}
    out_0 {name:"Node_501:0",dtype:float32,shape:[64]}
    attrs {'compiler': 'tensorrt'}
  }
}
layer {
  name:"Node_503"
  type:"const"
  top:"Node_503"
  layer_param {
    idx:503
    out_0 {name:"Node_503:0",dtype:float32,shape:[64]}
  }
}
layer {
  name:"Node_504"
  type:"annotation_compiler_begin"
  top:"Node_504"
  bottom:"Node_503"
  layer_param {
    idx:504
    in_0 {name:"Node_503:0",dtype:float32,shape:[64]}
    out_0 {name:"Node_504:0",dtype:float32,shape:[64]}
    attrs {'compiler': 'tensorrt'}
  }
}
layer {
  name:"Node_505"
  type:"nn_batch_norm"
  top:"Node_505"
  bottom:"Node_492"
  bottom:"Node_495"
  bottom:"Node_498"
  bottom:"Node_501"
  bottom:"Node_504"
  layer_param {
    idx:505
    in_0 {name:"Node_492:0",dtype:float32,shape:[1, 64, 35, 35]}
    in_1 {name:"Node_495:0",dtype:float32,shape:[64]}
    in_2 {name:"Node_498:0",dtype:float32,shape:[64]}
    in_3 {name:"Node_501:0",dtype:float32,shape:[64]}
    in_4 {name:"Node_504:0",dtype:float32,shape:[64]}
    out_0 {name:"Node_505:0",dtype:float32,shape:[1, 64, 35, 35]}
    out_1 {name:"Node_505:1",dtype:float32,shape:[64]}
    out_2 {name:"Node_505:2",dtype:float32,shape:[64]}
    attrs {'axis': 1, 'epsilon': 0.0010000000474974513, 'center': 1, 'scale': 0}
  }
}
layer {
  name:"Node_507"
  type:"nn_relu"
  top:"Node_507"
  bottom:"Node_505"
  layer_param {
    idx:507
    in_0 {name:"Node_505:0",dtype:float32,shape:[1, 64, 35, 35]}
    out_0 {name:"Node_507:0",dtype:float32,shape:[1, 64, 35, 35]}
  }
}
layer {
  name:"Node_509"
  type:"concatenate"
  top:"Node_509"
  bottom:"Node_370"
  bottom:"Node_415"
  bottom:"Node_482"
  bottom:"Node_507"
  layer_param {
    idx:509
    in_0 {name:"Node_370:0",dtype:float32,shape:[1, 64, 35, 35]}
    in_1 {name:"Node_415:0",dtype:float32,shape:[1, 64, 35, 35]}
    in_2 {name:"Node_482:0",dtype:float32,shape:[1, 96, 35, 35]}
    in_3 {name:"Node_507:0",dtype:float32,shape:[1, 64, 35, 35]}
    out_0 {name:"Node_509:0",dtype:float32,shape:[1, 288, 35, 35]}
    attrs {'axis': 1}
  }
}
layer {
  name:"Node_511"
  type:"const"
  top:"Node_511"
  layer_param {
    idx:511
    out_0 {name:"Node_511:0",dtype:float32,shape:[64, 288, 1, 1]}
  }
}
layer {
  name:"Node_512"
  type:"annotation_compiler_begin"
  top:"Node_512"
  bottom:"Node_511"
  layer_param {
    idx:512
    in_0 {name:"Node_511:0",dtype:float32,shape:[64, 288, 1, 1]}
    out_0 {name:"Node_512:0",dtype:float32,shape:[64, 288, 1, 1]}
    attrs {'compiler': 'tensorrt'}
  }
}
layer {
  name:"Node_513"
  type:"nn_conv2d"
  top:"Node_513"
  bottom:"Node_509"
  bottom:"Node_512"
  layer_param {
    idx:513
    in_0 {name:"Node_509:0",dtype:float32,shape:[1, 288, 35, 35]}
    in_1 {name:"Node_512:0",dtype:float32,shape:[64, 288, 1, 1]}
    out_0 {name:"Node_513:0",dtype:float32,shape:[1, 64, 35, 35]}
    attrs {'strides': [1, 1], 'padding': [0, 0, 0, 0], 'dilation': [1, 1], 'groups': 1, 'channels': 64, 'kernel_size': [1, 1], 'data_layout': 'NCHW', 'kernel_layout': 'OIHW', 'out_layout': '', 'out_dtype': ''}
  }
}
layer {
  name:"Node_515"
  type:"const"
  top:"Node_515"
  layer_param {
    idx:515
    out_0 {name:"Node_515:0",dtype:float32,shape:[64]}
  }
}
layer {
  name:"Node_516"
  type:"annotation_compiler_begin"
  top:"Node_516"
  bottom:"Node_515"
  layer_param {
    idx:516
    in_0 {name:"Node_515:0",dtype:float32,shape:[64]}
    out_0 {name:"Node_516:0",dtype:float32,shape:[64]}
    attrs {'compiler': 'tensorrt'}
  }
}
layer {
  name:"Node_518"
  type:"const"
  top:"Node_518"
  layer_param {
    idx:518
    out_0 {name:"Node_518:0",dtype:float32,shape:[64]}
  }
}
layer {
  name:"Node_519"
  type:"annotation_compiler_begin"
  top:"Node_519"
  bottom:"Node_518"
  layer_param {
    idx:519
    in_0 {name:"Node_518:0",dtype:float32,shape:[64]}
    out_0 {name:"Node_519:0",dtype:float32,shape:[64]}
    attrs {'compiler': 'tensorrt'}
  }
}
layer {
  name:"Node_521"
  type:"const"
  top:"Node_521"
  layer_param {
    idx:521
    out_0 {name:"Node_521:0",dtype:float32,shape:[64]}
  }
}
layer {
  name:"Node_522"
  type:"annotation_compiler_begin"
  top:"Node_522"
  bottom:"Node_521"
  layer_param {
    idx:522
    in_0 {name:"Node_521:0",dtype:float32,shape:[64]}
    out_0 {name:"Node_522:0",dtype:float32,shape:[64]}
    attrs {'compiler': 'tensorrt'}
  }
}
layer {
  name:"Node_524"
  type:"const"
  top:"Node_524"
  layer_param {
    idx:524
    out_0 {name:"Node_524:0",dtype:float32,shape:[64]}
  }
}
layer {
  name:"Node_525"
  type:"annotation_compiler_begin"
  top:"Node_525"
  bottom:"Node_524"
  layer_param {
    idx:525
    in_0 {name:"Node_524:0",dtype:float32,shape:[64]}
    out_0 {name:"Node_525:0",dtype:float32,shape:[64]}
    attrs {'compiler': 'tensorrt'}
  }
}
layer {
  name:"Node_526"
  type:"nn_batch_norm"
  top:"Node_526"
  bottom:"Node_513"
  bottom:"Node_516"
  bottom:"Node_519"
  bottom:"Node_522"
  bottom:"Node_525"
  layer_param {
    idx:526
    in_0 {name:"Node_513:0",dtype:float32,shape:[1, 64, 35, 35]}
    in_1 {name:"Node_516:0",dtype:float32,shape:[64]}
    in_2 {name:"Node_519:0",dtype:float32,shape:[64]}
    in_3 {name:"Node_522:0",dtype:float32,shape:[64]}
    in_4 {name:"Node_525:0",dtype:float32,shape:[64]}
    out_0 {name:"Node_526:0",dtype:float32,shape:[1, 64, 35, 35]}
    out_1 {name:"Node_526:1",dtype:float32,shape:[64]}
    out_2 {name:"Node_526:2",dtype:float32,shape:[64]}
    attrs {'axis': 1, 'epsilon': 0.0010000000474974513, 'center': 1, 'scale': 0}
  }
}
layer {
  name:"Node_528"
  type:"nn_relu"
  top:"Node_528"
  bottom:"Node_526"
  layer_param {
    idx:528
    in_0 {name:"Node_526:0",dtype:float32,shape:[1, 64, 35, 35]}
    out_0 {name:"Node_528:0",dtype:float32,shape:[1, 64, 35, 35]}
  }
}
layer {
  name:"Node_537"
  type:"const"
  top:"Node_537"
  layer_param {
    idx:537
    out_0 {name:"Node_537:0",dtype:float32,shape:[48, 288, 1, 1]}
  }
}
layer {
  name:"Node_538"
  type:"annotation_compiler_begin"
  top:"Node_538"
  bottom:"Node_537"
  layer_param {
    idx:538
    in_0 {name:"Node_537:0",dtype:float32,shape:[48, 288, 1, 1]}
    out_0 {name:"Node_538:0",dtype:float32,shape:[48, 288, 1, 1]}
    attrs {'compiler': 'tensorrt'}
  }
}
layer {
  name:"Node_539"
  type:"nn_conv2d"
  top:"Node_539"
  bottom:"Node_509"
  bottom:"Node_538"
  layer_param {
    idx:539
    in_0 {name:"Node_509:0",dtype:float32,shape:[1, 288, 35, 35]}
    in_1 {name:"Node_538:0",dtype:float32,shape:[48, 288, 1, 1]}
    out_0 {name:"Node_539:0",dtype:float32,shape:[1, 48, 35, 35]}
    attrs {'strides': [1, 1], 'padding': [0, 0, 0, 0], 'dilation': [1, 1], 'groups': 1, 'channels': 48, 'kernel_size': [1, 1], 'data_layout': 'NCHW', 'kernel_layout': 'OIHW', 'out_layout': '', 'out_dtype': ''}
  }
}
layer {
  name:"Node_541"
  type:"const"
  top:"Node_541"
  layer_param {
    idx:541
    out_0 {name:"Node_541:0",dtype:float32,shape:[48]}
  }
}
layer {
  name:"Node_542"
  type:"annotation_compiler_begin"
  top:"Node_542"
  bottom:"Node_541"
  layer_param {
    idx:542
    in_0 {name:"Node_541:0",dtype:float32,shape:[48]}
    out_0 {name:"Node_542:0",dtype:float32,shape:[48]}
    attrs {'compiler': 'tensorrt'}
  }
}
layer {
  name:"Node_544"
  type:"const"
  top:"Node_544"
  layer_param {
    idx:544
    out_0 {name:"Node_544:0",dtype:float32,shape:[48]}
  }
}
layer {
  name:"Node_545"
  type:"annotation_compiler_begin"
  top:"Node_545"
  bottom:"Node_544"
  layer_param {
    idx:545
    in_0 {name:"Node_544:0",dtype:float32,shape:[48]}
    out_0 {name:"Node_545:0",dtype:float32,shape:[48]}
    attrs {'compiler': 'tensorrt'}
  }
}
layer {
  name:"Node_547"
  type:"const"
  top:"Node_547"
  layer_param {
    idx:547
    out_0 {name:"Node_547:0",dtype:float32,shape:[48]}
  }
}
layer {
  name:"Node_548"
  type:"annotation_compiler_begin"
  top:"Node_548"
  bottom:"Node_547"
  layer_param {
    idx:548
    in_0 {name:"Node_547:0",dtype:float32,shape:[48]}
    out_0 {name:"Node_548:0",dtype:float32,shape:[48]}
    attrs {'compiler': 'tensorrt'}
  }
}
layer {
  name:"Node_550"
  type:"const"
  top:"Node_550"
  layer_param {
    idx:550
    out_0 {name:"Node_550:0",dtype:float32,shape:[48]}
  }
}
layer {
  name:"Node_551"
  type:"annotation_compiler_begin"
  top:"Node_551"
  bottom:"Node_550"
  layer_param {
    idx:551
    in_0 {name:"Node_550:0",dtype:float32,shape:[48]}
    out_0 {name:"Node_551:0",dtype:float32,shape:[48]}
    attrs {'compiler': 'tensorrt'}
  }
}
layer {
  name:"Node_552"
  type:"nn_batch_norm"
  top:"Node_552"
  bottom:"Node_539"
  bottom:"Node_542"
  bottom:"Node_545"
  bottom:"Node_548"
  bottom:"Node_551"
  layer_param {
    idx:552
    in_0 {name:"Node_539:0",dtype:float32,shape:[1, 48, 35, 35]}
    in_1 {name:"Node_542:0",dtype:float32,shape:[48]}
    in_2 {name:"Node_545:0",dtype:float32,shape:[48]}
    in_3 {name:"Node_548:0",dtype:float32,shape:[48]}
    in_4 {name:"Node_551:0",dtype:float32,shape:[48]}
    out_0 {name:"Node_552:0",dtype:float32,shape:[1, 48, 35, 35]}
    out_1 {name:"Node_552:1",dtype:float32,shape:[48]}
    out_2 {name:"Node_552:2",dtype:float32,shape:[48]}
    attrs {'axis': 1, 'epsilon': 0.0010000000474974513, 'center': 1, 'scale': 0}
  }
}
layer {
  name:"Node_554"
  type:"nn_relu"
  top:"Node_554"
  bottom:"Node_552"
  layer_param {
    idx:554
    in_0 {name:"Node_552:0",dtype:float32,shape:[1, 48, 35, 35]}
    out_0 {name:"Node_554:0",dtype:float32,shape:[1, 48, 35, 35]}
  }
}
layer {
  name:"Node_556"
  type:"const"
  top:"Node_556"
  layer_param {
    idx:556
    out_0 {name:"Node_556:0",dtype:float32,shape:[64, 48, 5, 5]}
  }
}
layer {
  name:"Node_557"
  type:"annotation_compiler_begin"
  top:"Node_557"
  bottom:"Node_556"
  layer_param {
    idx:557
    in_0 {name:"Node_556:0",dtype:float32,shape:[64, 48, 5, 5]}
    out_0 {name:"Node_557:0",dtype:float32,shape:[64, 48, 5, 5]}
    attrs {'compiler': 'tensorrt'}
  }
}
layer {
  name:"Node_558"
  type:"nn_conv2d"
  top:"Node_558"
  bottom:"Node_554"
  bottom:"Node_557"
  layer_param {
    idx:558
    in_0 {name:"Node_554:0",dtype:float32,shape:[1, 48, 35, 35]}
    in_1 {name:"Node_557:0",dtype:float32,shape:[64, 48, 5, 5]}
    out_0 {name:"Node_558:0",dtype:float32,shape:[1, 64, 35, 35]}
    attrs {'strides': [1, 1], 'padding': [2, 2, 2, 2], 'dilation': [1, 1], 'groups': 1, 'channels': 64, 'kernel_size': [5, 5], 'data_layout': 'NCHW', 'kernel_layout': 'OIHW', 'out_layout': '', 'out_dtype': ''}
  }
}
layer {
  name:"Node_560"
  type:"const"
  top:"Node_560"
  layer_param {
    idx:560
    out_0 {name:"Node_560:0",dtype:float32,shape:[64]}
  }
}
layer {
  name:"Node_561"
  type:"annotation_compiler_begin"
  top:"Node_561"
  bottom:"Node_560"
  layer_param {
    idx:561
    in_0 {name:"Node_560:0",dtype:float32,shape:[64]}
    out_0 {name:"Node_561:0",dtype:float32,shape:[64]}
    attrs {'compiler': 'tensorrt'}
  }
}
layer {
  name:"Node_563"
  type:"const"
  top:"Node_563"
  layer_param {
    idx:563
    out_0 {name:"Node_563:0",dtype:float32,shape:[64]}
  }
}
layer {
  name:"Node_564"
  type:"annotation_compiler_begin"
  top:"Node_564"
  bottom:"Node_563"
  layer_param {
    idx:564
    in_0 {name:"Node_563:0",dtype:float32,shape:[64]}
    out_0 {name:"Node_564:0",dtype:float32,shape:[64]}
    attrs {'compiler': 'tensorrt'}
  }
}
layer {
  name:"Node_566"
  type:"const"
  top:"Node_566"
  layer_param {
    idx:566
    out_0 {name:"Node_566:0",dtype:float32,shape:[64]}
  }
}
layer {
  name:"Node_567"
  type:"annotation_compiler_begin"
  top:"Node_567"
  bottom:"Node_566"
  layer_param {
    idx:567
    in_0 {name:"Node_566:0",dtype:float32,shape:[64]}
    out_0 {name:"Node_567:0",dtype:float32,shape:[64]}
    attrs {'compiler': 'tensorrt'}
  }
}
layer {
  name:"Node_569"
  type:"const"
  top:"Node_569"
  layer_param {
    idx:569
    out_0 {name:"Node_569:0",dtype:float32,shape:[64]}
  }
}
layer {
  name:"Node_570"
  type:"annotation_compiler_begin"
  top:"Node_570"
  bottom:"Node_569"
  layer_param {
    idx:570
    in_0 {name:"Node_569:0",dtype:float32,shape:[64]}
    out_0 {name:"Node_570:0",dtype:float32,shape:[64]}
    attrs {'compiler': 'tensorrt'}
  }
}
layer {
  name:"Node_571"
  type:"nn_batch_norm"
  top:"Node_571"
  bottom:"Node_558"
  bottom:"Node_561"
  bottom:"Node_564"
  bottom:"Node_567"
  bottom:"Node_570"
  layer_param {
    idx:571
    in_0 {name:"Node_558:0",dtype:float32,shape:[1, 64, 35, 35]}
    in_1 {name:"Node_561:0",dtype:float32,shape:[64]}
    in_2 {name:"Node_564:0",dtype:float32,shape:[64]}
    in_3 {name:"Node_567:0",dtype:float32,shape:[64]}
    in_4 {name:"Node_570:0",dtype:float32,shape:[64]}
    out_0 {name:"Node_571:0",dtype:float32,shape:[1, 64, 35, 35]}
    out_1 {name:"Node_571:1",dtype:float32,shape:[64]}
    out_2 {name:"Node_571:2",dtype:float32,shape:[64]}
    attrs {'axis': 1, 'epsilon': 0.0010000000474974513, 'center': 1, 'scale': 0}
  }
}
layer {
  name:"Node_573"
  type:"nn_relu"
  top:"Node_573"
  bottom:"Node_571"
  layer_param {
    idx:573
    in_0 {name:"Node_571:0",dtype:float32,shape:[1, 64, 35, 35]}
    out_0 {name:"Node_573:0",dtype:float32,shape:[1, 64, 35, 35]}
  }
}
layer {
  name:"Node_585"
  type:"const"
  top:"Node_585"
  layer_param {
    idx:585
    out_0 {name:"Node_585:0",dtype:float32,shape:[64, 288, 1, 1]}
  }
}
layer {
  name:"Node_586"
  type:"annotation_compiler_begin"
  top:"Node_586"
  bottom:"Node_585"
  layer_param {
    idx:586
    in_0 {name:"Node_585:0",dtype:float32,shape:[64, 288, 1, 1]}
    out_0 {name:"Node_586:0",dtype:float32,shape:[64, 288, 1, 1]}
    attrs {'compiler': 'tensorrt'}
  }
}
layer {
  name:"Node_587"
  type:"nn_conv2d"
  top:"Node_587"
  bottom:"Node_509"
  bottom:"Node_586"
  layer_param {
    idx:587
    in_0 {name:"Node_509:0",dtype:float32,shape:[1, 288, 35, 35]}
    in_1 {name:"Node_586:0",dtype:float32,shape:[64, 288, 1, 1]}
    out_0 {name:"Node_587:0",dtype:float32,shape:[1, 64, 35, 35]}
    attrs {'strides': [1, 1], 'padding': [0, 0, 0, 0], 'dilation': [1, 1], 'groups': 1, 'channels': 64, 'kernel_size': [1, 1], 'data_layout': 'NCHW', 'kernel_layout': 'OIHW', 'out_layout': '', 'out_dtype': ''}
  }
}
layer {
  name:"Node_589"
  type:"const"
  top:"Node_589"
  layer_param {
    idx:589
    out_0 {name:"Node_589:0",dtype:float32,shape:[64]}
  }
}
layer {
  name:"Node_590"
  type:"annotation_compiler_begin"
  top:"Node_590"
  bottom:"Node_589"
  layer_param {
    idx:590
    in_0 {name:"Node_589:0",dtype:float32,shape:[64]}
    out_0 {name:"Node_590:0",dtype:float32,shape:[64]}
    attrs {'compiler': 'tensorrt'}
  }
}
layer {
  name:"Node_592"
  type:"const"
  top:"Node_592"
  layer_param {
    idx:592
    out_0 {name:"Node_592:0",dtype:float32,shape:[64]}
  }
}
layer {
  name:"Node_593"
  type:"annotation_compiler_begin"
  top:"Node_593"
  bottom:"Node_592"
  layer_param {
    idx:593
    in_0 {name:"Node_592:0",dtype:float32,shape:[64]}
    out_0 {name:"Node_593:0",dtype:float32,shape:[64]}
    attrs {'compiler': 'tensorrt'}
  }
}
layer {
  name:"Node_595"
  type:"const"
  top:"Node_595"
  layer_param {
    idx:595
    out_0 {name:"Node_595:0",dtype:float32,shape:[64]}
  }
}
layer {
  name:"Node_596"
  type:"annotation_compiler_begin"
  top:"Node_596"
  bottom:"Node_595"
  layer_param {
    idx:596
    in_0 {name:"Node_595:0",dtype:float32,shape:[64]}
    out_0 {name:"Node_596:0",dtype:float32,shape:[64]}
    attrs {'compiler': 'tensorrt'}
  }
}
layer {
  name:"Node_598"
  type:"const"
  top:"Node_598"
  layer_param {
    idx:598
    out_0 {name:"Node_598:0",dtype:float32,shape:[64]}
  }
}
layer {
  name:"Node_599"
  type:"annotation_compiler_begin"
  top:"Node_599"
  bottom:"Node_598"
  layer_param {
    idx:599
    in_0 {name:"Node_598:0",dtype:float32,shape:[64]}
    out_0 {name:"Node_599:0",dtype:float32,shape:[64]}
    attrs {'compiler': 'tensorrt'}
  }
}
layer {
  name:"Node_600"
  type:"nn_batch_norm"
  top:"Node_600"
  bottom:"Node_587"
  bottom:"Node_590"
  bottom:"Node_593"
  bottom:"Node_596"
  bottom:"Node_599"
  layer_param {
    idx:600
    in_0 {name:"Node_587:0",dtype:float32,shape:[1, 64, 35, 35]}
    in_1 {name:"Node_590:0",dtype:float32,shape:[64]}
    in_2 {name:"Node_593:0",dtype:float32,shape:[64]}
    in_3 {name:"Node_596:0",dtype:float32,shape:[64]}
    in_4 {name:"Node_599:0",dtype:float32,shape:[64]}
    out_0 {name:"Node_600:0",dtype:float32,shape:[1, 64, 35, 35]}
    out_1 {name:"Node_600:1",dtype:float32,shape:[64]}
    out_2 {name:"Node_600:2",dtype:float32,shape:[64]}
    attrs {'axis': 1, 'epsilon': 0.0010000000474974513, 'center': 1, 'scale': 0}
  }
}
layer {
  name:"Node_602"
  type:"nn_relu"
  top:"Node_602"
  bottom:"Node_600"
  layer_param {
    idx:602
    in_0 {name:"Node_600:0",dtype:float32,shape:[1, 64, 35, 35]}
    out_0 {name:"Node_602:0",dtype:float32,shape:[1, 64, 35, 35]}
  }
}
layer {
  name:"Node_604"
  type:"const"
  top:"Node_604"
  layer_param {
    idx:604
    out_0 {name:"Node_604:0",dtype:float32,shape:[96, 64, 3, 3]}
  }
}
layer {
  name:"Node_605"
  type:"annotation_compiler_begin"
  top:"Node_605"
  bottom:"Node_604"
  layer_param {
    idx:605
    in_0 {name:"Node_604:0",dtype:float32,shape:[96, 64, 3, 3]}
    out_0 {name:"Node_605:0",dtype:float32,shape:[96, 64, 3, 3]}
    attrs {'compiler': 'tensorrt'}
  }
}
layer {
  name:"Node_606"
  type:"nn_conv2d"
  top:"Node_606"
  bottom:"Node_602"
  bottom:"Node_605"
  layer_param {
    idx:606
    in_0 {name:"Node_602:0",dtype:float32,shape:[1, 64, 35, 35]}
    in_1 {name:"Node_605:0",dtype:float32,shape:[96, 64, 3, 3]}
    out_0 {name:"Node_606:0",dtype:float32,shape:[1, 96, 35, 35]}
    attrs {'strides': [1, 1], 'padding': [1, 1, 1, 1], 'dilation': [1, 1], 'groups': 1, 'channels': 96, 'kernel_size': [3, 3], 'data_layout': 'NCHW', 'kernel_layout': 'OIHW', 'out_layout': '', 'out_dtype': ''}
  }
}
layer {
  name:"Node_608"
  type:"const"
  top:"Node_608"
  layer_param {
    idx:608
    out_0 {name:"Node_608:0",dtype:float32,shape:[96]}
  }
}
layer {
  name:"Node_609"
  type:"annotation_compiler_begin"
  top:"Node_609"
  bottom:"Node_608"
  layer_param {
    idx:609
    in_0 {name:"Node_608:0",dtype:float32,shape:[96]}
    out_0 {name:"Node_609:0",dtype:float32,shape:[96]}
    attrs {'compiler': 'tensorrt'}
  }
}
layer {
  name:"Node_611"
  type:"const"
  top:"Node_611"
  layer_param {
    idx:611
    out_0 {name:"Node_611:0",dtype:float32,shape:[96]}
  }
}
layer {
  name:"Node_612"
  type:"annotation_compiler_begin"
  top:"Node_612"
  bottom:"Node_611"
  layer_param {
    idx:612
    in_0 {name:"Node_611:0",dtype:float32,shape:[96]}
    out_0 {name:"Node_612:0",dtype:float32,shape:[96]}
    attrs {'compiler': 'tensorrt'}
  }
}
layer {
  name:"Node_614"
  type:"const"
  top:"Node_614"
  layer_param {
    idx:614
    out_0 {name:"Node_614:0",dtype:float32,shape:[96]}
  }
}
layer {
  name:"Node_615"
  type:"annotation_compiler_begin"
  top:"Node_615"
  bottom:"Node_614"
  layer_param {
    idx:615
    in_0 {name:"Node_614:0",dtype:float32,shape:[96]}
    out_0 {name:"Node_615:0",dtype:float32,shape:[96]}
    attrs {'compiler': 'tensorrt'}
  }
}
layer {
  name:"Node_617"
  type:"const"
  top:"Node_617"
  layer_param {
    idx:617
    out_0 {name:"Node_617:0",dtype:float32,shape:[96]}
  }
}
layer {
  name:"Node_618"
  type:"annotation_compiler_begin"
  top:"Node_618"
  bottom:"Node_617"
  layer_param {
    idx:618
    in_0 {name:"Node_617:0",dtype:float32,shape:[96]}
    out_0 {name:"Node_618:0",dtype:float32,shape:[96]}
    attrs {'compiler': 'tensorrt'}
  }
}
layer {
  name:"Node_619"
  type:"nn_batch_norm"
  top:"Node_619"
  bottom:"Node_606"
  bottom:"Node_609"
  bottom:"Node_612"
  bottom:"Node_615"
  bottom:"Node_618"
  layer_param {
    idx:619
    in_0 {name:"Node_606:0",dtype:float32,shape:[1, 96, 35, 35]}
    in_1 {name:"Node_609:0",dtype:float32,shape:[96]}
    in_2 {name:"Node_612:0",dtype:float32,shape:[96]}
    in_3 {name:"Node_615:0",dtype:float32,shape:[96]}
    in_4 {name:"Node_618:0",dtype:float32,shape:[96]}
    out_0 {name:"Node_619:0",dtype:float32,shape:[1, 96, 35, 35]}
    out_1 {name:"Node_619:1",dtype:float32,shape:[96]}
    out_2 {name:"Node_619:2",dtype:float32,shape:[96]}
    attrs {'axis': 1, 'epsilon': 0.0010000000474974513, 'center': 1, 'scale': 0}
  }
}
layer {
  name:"Node_621"
  type:"nn_relu"
  top:"Node_621"
  bottom:"Node_619"
  layer_param {
    idx:621
    in_0 {name:"Node_619:0",dtype:float32,shape:[1, 96, 35, 35]}
    out_0 {name:"Node_621:0",dtype:float32,shape:[1, 96, 35, 35]}
  }
}
layer {
  name:"Node_623"
  type:"const"
  top:"Node_623"
  layer_param {
    idx:623
    out_0 {name:"Node_623:0",dtype:float32,shape:[96, 96, 3, 3]}
  }
}
layer {
  name:"Node_624"
  type:"annotation_compiler_begin"
  top:"Node_624"
  bottom:"Node_623"
  layer_param {
    idx:624
    in_0 {name:"Node_623:0",dtype:float32,shape:[96, 96, 3, 3]}
    out_0 {name:"Node_624:0",dtype:float32,shape:[96, 96, 3, 3]}
    attrs {'compiler': 'tensorrt'}
  }
}
layer {
  name:"Node_625"
  type:"nn_conv2d"
  top:"Node_625"
  bottom:"Node_621"
  bottom:"Node_624"
  layer_param {
    idx:625
    in_0 {name:"Node_621:0",dtype:float32,shape:[1, 96, 35, 35]}
    in_1 {name:"Node_624:0",dtype:float32,shape:[96, 96, 3, 3]}
    out_0 {name:"Node_625:0",dtype:float32,shape:[1, 96, 35, 35]}
    attrs {'strides': [1, 1], 'padding': [1, 1, 1, 1], 'dilation': [1, 1], 'groups': 1, 'channels': 96, 'kernel_size': [3, 3], 'data_layout': 'NCHW', 'kernel_layout': 'OIHW', 'out_layout': '', 'out_dtype': ''}
  }
}
layer {
  name:"Node_627"
  type:"const"
  top:"Node_627"
  layer_param {
    idx:627
    out_0 {name:"Node_627:0",dtype:float32,shape:[96]}
  }
}
layer {
  name:"Node_628"
  type:"annotation_compiler_begin"
  top:"Node_628"
  bottom:"Node_627"
  layer_param {
    idx:628
    in_0 {name:"Node_627:0",dtype:float32,shape:[96]}
    out_0 {name:"Node_628:0",dtype:float32,shape:[96]}
    attrs {'compiler': 'tensorrt'}
  }
}
layer {
  name:"Node_630"
  type:"const"
  top:"Node_630"
  layer_param {
    idx:630
    out_0 {name:"Node_630:0",dtype:float32,shape:[96]}
  }
}
layer {
  name:"Node_631"
  type:"annotation_compiler_begin"
  top:"Node_631"
  bottom:"Node_630"
  layer_param {
    idx:631
    in_0 {name:"Node_630:0",dtype:float32,shape:[96]}
    out_0 {name:"Node_631:0",dtype:float32,shape:[96]}
    attrs {'compiler': 'tensorrt'}
  }
}
layer {
  name:"Node_633"
  type:"const"
  top:"Node_633"
  layer_param {
    idx:633
    out_0 {name:"Node_633:0",dtype:float32,shape:[96]}
  }
}
layer {
  name:"Node_634"
  type:"annotation_compiler_begin"
  top:"Node_634"
  bottom:"Node_633"
  layer_param {
    idx:634
    in_0 {name:"Node_633:0",dtype:float32,shape:[96]}
    out_0 {name:"Node_634:0",dtype:float32,shape:[96]}
    attrs {'compiler': 'tensorrt'}
  }
}
layer {
  name:"Node_636"
  type:"const"
  top:"Node_636"
  layer_param {
    idx:636
    out_0 {name:"Node_636:0",dtype:float32,shape:[96]}
  }
}
layer {
  name:"Node_637"
  type:"annotation_compiler_begin"
  top:"Node_637"
  bottom:"Node_636"
  layer_param {
    idx:637
    in_0 {name:"Node_636:0",dtype:float32,shape:[96]}
    out_0 {name:"Node_637:0",dtype:float32,shape:[96]}
    attrs {'compiler': 'tensorrt'}
  }
}
layer {
  name:"Node_638"
  type:"nn_batch_norm"
  top:"Node_638"
  bottom:"Node_625"
  bottom:"Node_628"
  bottom:"Node_631"
  bottom:"Node_634"
  bottom:"Node_637"
  layer_param {
    idx:638
    in_0 {name:"Node_625:0",dtype:float32,shape:[1, 96, 35, 35]}
    in_1 {name:"Node_628:0",dtype:float32,shape:[96]}
    in_2 {name:"Node_631:0",dtype:float32,shape:[96]}
    in_3 {name:"Node_634:0",dtype:float32,shape:[96]}
    in_4 {name:"Node_637:0",dtype:float32,shape:[96]}
    out_0 {name:"Node_638:0",dtype:float32,shape:[1, 96, 35, 35]}
    out_1 {name:"Node_638:1",dtype:float32,shape:[96]}
    out_2 {name:"Node_638:2",dtype:float32,shape:[96]}
    attrs {'axis': 1, 'epsilon': 0.0010000000474974513, 'center': 1, 'scale': 0}
  }
}
layer {
  name:"Node_640"
  type:"nn_relu"
  top:"Node_640"
  bottom:"Node_638"
  layer_param {
    idx:640
    in_0 {name:"Node_638:0",dtype:float32,shape:[1, 96, 35, 35]}
    out_0 {name:"Node_640:0",dtype:float32,shape:[1, 96, 35, 35]}
  }
}
layer {
  name:"Node_646"
  type:"nn_avg_pool2d"
  top:"Node_646"
  bottom:"Node_509"
  layer_param {
    idx:646
    in_0 {name:"Node_509:0",dtype:float32,shape:[1, 288, 35, 35]}
    out_0 {name:"Node_646:0",dtype:float32,shape:[1, 288, 35, 35]}
    attrs {'pool_size': [3, 3], 'strides': [1, 1], 'dilation': [1, 1], 'padding': [1, 1, 1, 1], 'layout': 'NCHW', 'ceil_mode': 0, 'count_include_pad': 0}
  }
}
layer {
  name:"Node_648"
  type:"const"
  top:"Node_648"
  layer_param {
    idx:648
    out_0 {name:"Node_648:0",dtype:float32,shape:[64, 288, 1, 1]}
  }
}
layer {
  name:"Node_649"
  type:"annotation_compiler_begin"
  top:"Node_649"
  bottom:"Node_648"
  layer_param {
    idx:649
    in_0 {name:"Node_648:0",dtype:float32,shape:[64, 288, 1, 1]}
    out_0 {name:"Node_649:0",dtype:float32,shape:[64, 288, 1, 1]}
    attrs {'compiler': 'tensorrt'}
  }
}
layer {
  name:"Node_650"
  type:"nn_conv2d"
  top:"Node_650"
  bottom:"Node_646"
  bottom:"Node_649"
  layer_param {
    idx:650
    in_0 {name:"Node_646:0",dtype:float32,shape:[1, 288, 35, 35]}
    in_1 {name:"Node_649:0",dtype:float32,shape:[64, 288, 1, 1]}
    out_0 {name:"Node_650:0",dtype:float32,shape:[1, 64, 35, 35]}
    attrs {'strides': [1, 1], 'padding': [0, 0, 0, 0], 'dilation': [1, 1], 'groups': 1, 'channels': 64, 'kernel_size': [1, 1], 'data_layout': 'NCHW', 'kernel_layout': 'OIHW', 'out_layout': '', 'out_dtype': ''}
  }
}
layer {
  name:"Node_652"
  type:"const"
  top:"Node_652"
  layer_param {
    idx:652
    out_0 {name:"Node_652:0",dtype:float32,shape:[64]}
  }
}
layer {
  name:"Node_653"
  type:"annotation_compiler_begin"
  top:"Node_653"
  bottom:"Node_652"
  layer_param {
    idx:653
    in_0 {name:"Node_652:0",dtype:float32,shape:[64]}
    out_0 {name:"Node_653:0",dtype:float32,shape:[64]}
    attrs {'compiler': 'tensorrt'}
  }
}
layer {
  name:"Node_655"
  type:"const"
  top:"Node_655"
  layer_param {
    idx:655
    out_0 {name:"Node_655:0",dtype:float32,shape:[64]}
  }
}
layer {
  name:"Node_656"
  type:"annotation_compiler_begin"
  top:"Node_656"
  bottom:"Node_655"
  layer_param {
    idx:656
    in_0 {name:"Node_655:0",dtype:float32,shape:[64]}
    out_0 {name:"Node_656:0",dtype:float32,shape:[64]}
    attrs {'compiler': 'tensorrt'}
  }
}
layer {
  name:"Node_658"
  type:"const"
  top:"Node_658"
  layer_param {
    idx:658
    out_0 {name:"Node_658:0",dtype:float32,shape:[64]}
  }
}
layer {
  name:"Node_659"
  type:"annotation_compiler_begin"
  top:"Node_659"
  bottom:"Node_658"
  layer_param {
    idx:659
    in_0 {name:"Node_658:0",dtype:float32,shape:[64]}
    out_0 {name:"Node_659:0",dtype:float32,shape:[64]}
    attrs {'compiler': 'tensorrt'}
  }
}
layer {
  name:"Node_661"
  type:"const"
  top:"Node_661"
  layer_param {
    idx:661
    out_0 {name:"Node_661:0",dtype:float32,shape:[64]}
  }
}
layer {
  name:"Node_662"
  type:"annotation_compiler_begin"
  top:"Node_662"
  bottom:"Node_661"
  layer_param {
    idx:662
    in_0 {name:"Node_661:0",dtype:float32,shape:[64]}
    out_0 {name:"Node_662:0",dtype:float32,shape:[64]}
    attrs {'compiler': 'tensorrt'}
  }
}
layer {
  name:"Node_663"
  type:"nn_batch_norm"
  top:"Node_663"
  bottom:"Node_650"
  bottom:"Node_653"
  bottom:"Node_656"
  bottom:"Node_659"
  bottom:"Node_662"
  layer_param {
    idx:663
    in_0 {name:"Node_650:0",dtype:float32,shape:[1, 64, 35, 35]}
    in_1 {name:"Node_653:0",dtype:float32,shape:[64]}
    in_2 {name:"Node_656:0",dtype:float32,shape:[64]}
    in_3 {name:"Node_659:0",dtype:float32,shape:[64]}
    in_4 {name:"Node_662:0",dtype:float32,shape:[64]}
    out_0 {name:"Node_663:0",dtype:float32,shape:[1, 64, 35, 35]}
    out_1 {name:"Node_663:1",dtype:float32,shape:[64]}
    out_2 {name:"Node_663:2",dtype:float32,shape:[64]}
    attrs {'axis': 1, 'epsilon': 0.0010000000474974513, 'center': 1, 'scale': 0}
  }
}
layer {
  name:"Node_665"
  type:"nn_relu"
  top:"Node_665"
  bottom:"Node_663"
  layer_param {
    idx:665
    in_0 {name:"Node_663:0",dtype:float32,shape:[1, 64, 35, 35]}
    out_0 {name:"Node_665:0",dtype:float32,shape:[1, 64, 35, 35]}
  }
}
layer {
  name:"Node_667"
  type:"concatenate"
  top:"Node_667"
  bottom:"Node_528"
  bottom:"Node_573"
  bottom:"Node_640"
  bottom:"Node_665"
  layer_param {
    idx:667
    in_0 {name:"Node_528:0",dtype:float32,shape:[1, 64, 35, 35]}
    in_1 {name:"Node_573:0",dtype:float32,shape:[1, 64, 35, 35]}
    in_2 {name:"Node_640:0",dtype:float32,shape:[1, 96, 35, 35]}
    in_3 {name:"Node_665:0",dtype:float32,shape:[1, 64, 35, 35]}
    out_0 {name:"Node_667:0",dtype:float32,shape:[1, 288, 35, 35]}
    attrs {'axis': 1}
  }
}
layer {
  name:"Node_669"
  type:"const"
  top:"Node_669"
  layer_param {
    idx:669
    out_0 {name:"Node_669:0",dtype:float32,shape:[384, 288, 3, 3]}
  }
}
layer {
  name:"Node_670"
  type:"annotation_compiler_begin"
  top:"Node_670"
  bottom:"Node_669"
  layer_param {
    idx:670
    in_0 {name:"Node_669:0",dtype:float32,shape:[384, 288, 3, 3]}
    out_0 {name:"Node_670:0",dtype:float32,shape:[384, 288, 3, 3]}
    attrs {'compiler': 'tensorrt'}
  }
}
layer {
  name:"Node_671"
  type:"nn_conv2d"
  top:"Node_671"
  bottom:"Node_667"
  bottom:"Node_670"
  layer_param {
    idx:671
    in_0 {name:"Node_667:0",dtype:float32,shape:[1, 288, 35, 35]}
    in_1 {name:"Node_670:0",dtype:float32,shape:[384, 288, 3, 3]}
    out_0 {name:"Node_671:0",dtype:float32,shape:[1, 384, 17, 17]}
    attrs {'strides': [2, 2], 'padding': [0, 0, 0, 0], 'dilation': [1, 1], 'groups': 1, 'channels': 384, 'kernel_size': [3, 3], 'data_layout': 'NCHW', 'kernel_layout': 'OIHW', 'out_layout': '', 'out_dtype': ''}
  }
}
layer {
  name:"Node_673"
  type:"const"
  top:"Node_673"
  layer_param {
    idx:673
    out_0 {name:"Node_673:0",dtype:float32,shape:[384]}
  }
}
layer {
  name:"Node_674"
  type:"annotation_compiler_begin"
  top:"Node_674"
  bottom:"Node_673"
  layer_param {
    idx:674
    in_0 {name:"Node_673:0",dtype:float32,shape:[384]}
    out_0 {name:"Node_674:0",dtype:float32,shape:[384]}
    attrs {'compiler': 'tensorrt'}
  }
}
layer {
  name:"Node_676"
  type:"const"
  top:"Node_676"
  layer_param {
    idx:676
    out_0 {name:"Node_676:0",dtype:float32,shape:[384]}
  }
}
layer {
  name:"Node_677"
  type:"annotation_compiler_begin"
  top:"Node_677"
  bottom:"Node_676"
  layer_param {
    idx:677
    in_0 {name:"Node_676:0",dtype:float32,shape:[384]}
    out_0 {name:"Node_677:0",dtype:float32,shape:[384]}
    attrs {'compiler': 'tensorrt'}
  }
}
layer {
  name:"Node_679"
  type:"const"
  top:"Node_679"
  layer_param {
    idx:679
    out_0 {name:"Node_679:0",dtype:float32,shape:[384]}
  }
}
layer {
  name:"Node_680"
  type:"annotation_compiler_begin"
  top:"Node_680"
  bottom:"Node_679"
  layer_param {
    idx:680
    in_0 {name:"Node_679:0",dtype:float32,shape:[384]}
    out_0 {name:"Node_680:0",dtype:float32,shape:[384]}
    attrs {'compiler': 'tensorrt'}
  }
}
layer {
  name:"Node_682"
  type:"const"
  top:"Node_682"
  layer_param {
    idx:682
    out_0 {name:"Node_682:0",dtype:float32,shape:[384]}
  }
}
layer {
  name:"Node_683"
  type:"annotation_compiler_begin"
  top:"Node_683"
  bottom:"Node_682"
  layer_param {
    idx:683
    in_0 {name:"Node_682:0",dtype:float32,shape:[384]}
    out_0 {name:"Node_683:0",dtype:float32,shape:[384]}
    attrs {'compiler': 'tensorrt'}
  }
}
layer {
  name:"Node_684"
  type:"nn_batch_norm"
  top:"Node_684"
  bottom:"Node_671"
  bottom:"Node_674"
  bottom:"Node_677"
  bottom:"Node_680"
  bottom:"Node_683"
  layer_param {
    idx:684
    in_0 {name:"Node_671:0",dtype:float32,shape:[1, 384, 17, 17]}
    in_1 {name:"Node_674:0",dtype:float32,shape:[384]}
    in_2 {name:"Node_677:0",dtype:float32,shape:[384]}
    in_3 {name:"Node_680:0",dtype:float32,shape:[384]}
    in_4 {name:"Node_683:0",dtype:float32,shape:[384]}
    out_0 {name:"Node_684:0",dtype:float32,shape:[1, 384, 17, 17]}
    out_1 {name:"Node_684:1",dtype:float32,shape:[384]}
    out_2 {name:"Node_684:2",dtype:float32,shape:[384]}
    attrs {'axis': 1, 'epsilon': 0.0010000000474974513, 'center': 1, 'scale': 0}
  }
}
layer {
  name:"Node_686"
  type:"nn_relu"
  top:"Node_686"
  bottom:"Node_684"
  layer_param {
    idx:686
    in_0 {name:"Node_684:0",dtype:float32,shape:[1, 384, 17, 17]}
    out_0 {name:"Node_686:0",dtype:float32,shape:[1, 384, 17, 17]}
  }
}
layer {
  name:"Node_698"
  type:"const"
  top:"Node_698"
  layer_param {
    idx:698
    out_0 {name:"Node_698:0",dtype:float32,shape:[64, 288, 1, 1]}
  }
}
layer {
  name:"Node_699"
  type:"annotation_compiler_begin"
  top:"Node_699"
  bottom:"Node_698"
  layer_param {
    idx:699
    in_0 {name:"Node_698:0",dtype:float32,shape:[64, 288, 1, 1]}
    out_0 {name:"Node_699:0",dtype:float32,shape:[64, 288, 1, 1]}
    attrs {'compiler': 'tensorrt'}
  }
}
layer {
  name:"Node_700"
  type:"nn_conv2d"
  top:"Node_700"
  bottom:"Node_667"
  bottom:"Node_699"
  layer_param {
    idx:700
    in_0 {name:"Node_667:0",dtype:float32,shape:[1, 288, 35, 35]}
    in_1 {name:"Node_699:0",dtype:float32,shape:[64, 288, 1, 1]}
    out_0 {name:"Node_700:0",dtype:float32,shape:[1, 64, 35, 35]}
    attrs {'strides': [1, 1], 'padding': [0, 0, 0, 0], 'dilation': [1, 1], 'groups': 1, 'channels': 64, 'kernel_size': [1, 1], 'data_layout': 'NCHW', 'kernel_layout': 'OIHW', 'out_layout': '', 'out_dtype': ''}
  }
}
layer {
  name:"Node_702"
  type:"const"
  top:"Node_702"
  layer_param {
    idx:702
    out_0 {name:"Node_702:0",dtype:float32,shape:[64]}
  }
}
layer {
  name:"Node_703"
  type:"annotation_compiler_begin"
  top:"Node_703"
  bottom:"Node_702"
  layer_param {
    idx:703
    in_0 {name:"Node_702:0",dtype:float32,shape:[64]}
    out_0 {name:"Node_703:0",dtype:float32,shape:[64]}
    attrs {'compiler': 'tensorrt'}
  }
}
layer {
  name:"Node_705"
  type:"const"
  top:"Node_705"
  layer_param {
    idx:705
    out_0 {name:"Node_705:0",dtype:float32,shape:[64]}
  }
}
layer {
  name:"Node_706"
  type:"annotation_compiler_begin"
  top:"Node_706"
  bottom:"Node_705"
  layer_param {
    idx:706
    in_0 {name:"Node_705:0",dtype:float32,shape:[64]}
    out_0 {name:"Node_706:0",dtype:float32,shape:[64]}
    attrs {'compiler': 'tensorrt'}
  }
}
layer {
  name:"Node_708"
  type:"const"
  top:"Node_708"
  layer_param {
    idx:708
    out_0 {name:"Node_708:0",dtype:float32,shape:[64]}
  }
}
layer {
  name:"Node_709"
  type:"annotation_compiler_begin"
  top:"Node_709"
  bottom:"Node_708"
  layer_param {
    idx:709
    in_0 {name:"Node_708:0",dtype:float32,shape:[64]}
    out_0 {name:"Node_709:0",dtype:float32,shape:[64]}
    attrs {'compiler': 'tensorrt'}
  }
}
layer {
  name:"Node_711"
  type:"const"
  top:"Node_711"
  layer_param {
    idx:711
    out_0 {name:"Node_711:0",dtype:float32,shape:[64]}
  }
}
layer {
  name:"Node_712"
  type:"annotation_compiler_begin"
  top:"Node_712"
  bottom:"Node_711"
  layer_param {
    idx:712
    in_0 {name:"Node_711:0",dtype:float32,shape:[64]}
    out_0 {name:"Node_712:0",dtype:float32,shape:[64]}
    attrs {'compiler': 'tensorrt'}
  }
}
layer {
  name:"Node_713"
  type:"nn_batch_norm"
  top:"Node_713"
  bottom:"Node_700"
  bottom:"Node_703"
  bottom:"Node_706"
  bottom:"Node_709"
  bottom:"Node_712"
  layer_param {
    idx:713
    in_0 {name:"Node_700:0",dtype:float32,shape:[1, 64, 35, 35]}
    in_1 {name:"Node_703:0",dtype:float32,shape:[64]}
    in_2 {name:"Node_706:0",dtype:float32,shape:[64]}
    in_3 {name:"Node_709:0",dtype:float32,shape:[64]}
    in_4 {name:"Node_712:0",dtype:float32,shape:[64]}
    out_0 {name:"Node_713:0",dtype:float32,shape:[1, 64, 35, 35]}
    out_1 {name:"Node_713:1",dtype:float32,shape:[64]}
    out_2 {name:"Node_713:2",dtype:float32,shape:[64]}
    attrs {'axis': 1, 'epsilon': 0.0010000000474974513, 'center': 1, 'scale': 0}
  }
}
layer {
  name:"Node_715"
  type:"nn_relu"
  top:"Node_715"
  bottom:"Node_713"
  layer_param {
    idx:715
    in_0 {name:"Node_713:0",dtype:float32,shape:[1, 64, 35, 35]}
    out_0 {name:"Node_715:0",dtype:float32,shape:[1, 64, 35, 35]}
  }
}
layer {
  name:"Node_717"
  type:"const"
  top:"Node_717"
  layer_param {
    idx:717
    out_0 {name:"Node_717:0",dtype:float32,shape:[96, 64, 3, 3]}
  }
}
layer {
  name:"Node_718"
  type:"annotation_compiler_begin"
  top:"Node_718"
  bottom:"Node_717"
  layer_param {
    idx:718
    in_0 {name:"Node_717:0",dtype:float32,shape:[96, 64, 3, 3]}
    out_0 {name:"Node_718:0",dtype:float32,shape:[96, 64, 3, 3]}
    attrs {'compiler': 'tensorrt'}
  }
}
layer {
  name:"Node_719"
  type:"nn_conv2d"
  top:"Node_719"
  bottom:"Node_715"
  bottom:"Node_718"
  layer_param {
    idx:719
    in_0 {name:"Node_715:0",dtype:float32,shape:[1, 64, 35, 35]}
    in_1 {name:"Node_718:0",dtype:float32,shape:[96, 64, 3, 3]}
    out_0 {name:"Node_719:0",dtype:float32,shape:[1, 96, 35, 35]}
    attrs {'strides': [1, 1], 'padding': [1, 1, 1, 1], 'dilation': [1, 1], 'groups': 1, 'channels': 96, 'kernel_size': [3, 3], 'data_layout': 'NCHW', 'kernel_layout': 'OIHW', 'out_layout': '', 'out_dtype': ''}
  }
}
layer {
  name:"Node_721"
  type:"const"
  top:"Node_721"
  layer_param {
    idx:721
    out_0 {name:"Node_721:0",dtype:float32,shape:[96]}
  }
}
layer {
  name:"Node_722"
  type:"annotation_compiler_begin"
  top:"Node_722"
  bottom:"Node_721"
  layer_param {
    idx:722
    in_0 {name:"Node_721:0",dtype:float32,shape:[96]}
    out_0 {name:"Node_722:0",dtype:float32,shape:[96]}
    attrs {'compiler': 'tensorrt'}
  }
}
layer {
  name:"Node_724"
  type:"const"
  top:"Node_724"
  layer_param {
    idx:724
    out_0 {name:"Node_724:0",dtype:float32,shape:[96]}
  }
}
layer {
  name:"Node_725"
  type:"annotation_compiler_begin"
  top:"Node_725"
  bottom:"Node_724"
  layer_param {
    idx:725
    in_0 {name:"Node_724:0",dtype:float32,shape:[96]}
    out_0 {name:"Node_725:0",dtype:float32,shape:[96]}
    attrs {'compiler': 'tensorrt'}
  }
}
layer {
  name:"Node_727"
  type:"const"
  top:"Node_727"
  layer_param {
    idx:727
    out_0 {name:"Node_727:0",dtype:float32,shape:[96]}
  }
}
layer {
  name:"Node_728"
  type:"annotation_compiler_begin"
  top:"Node_728"
  bottom:"Node_727"
  layer_param {
    idx:728
    in_0 {name:"Node_727:0",dtype:float32,shape:[96]}
    out_0 {name:"Node_728:0",dtype:float32,shape:[96]}
    attrs {'compiler': 'tensorrt'}
  }
}
layer {
  name:"Node_730"
  type:"const"
  top:"Node_730"
  layer_param {
    idx:730
    out_0 {name:"Node_730:0",dtype:float32,shape:[96]}
  }
}
layer {
  name:"Node_731"
  type:"annotation_compiler_begin"
  top:"Node_731"
  bottom:"Node_730"
  layer_param {
    idx:731
    in_0 {name:"Node_730:0",dtype:float32,shape:[96]}
    out_0 {name:"Node_731:0",dtype:float32,shape:[96]}
    attrs {'compiler': 'tensorrt'}
  }
}
layer {
  name:"Node_732"
  type:"nn_batch_norm"
  top:"Node_732"
  bottom:"Node_719"
  bottom:"Node_722"
  bottom:"Node_725"
  bottom:"Node_728"
  bottom:"Node_731"
  layer_param {
    idx:732
    in_0 {name:"Node_719:0",dtype:float32,shape:[1, 96, 35, 35]}
    in_1 {name:"Node_722:0",dtype:float32,shape:[96]}
    in_2 {name:"Node_725:0",dtype:float32,shape:[96]}
    in_3 {name:"Node_728:0",dtype:float32,shape:[96]}
    in_4 {name:"Node_731:0",dtype:float32,shape:[96]}
    out_0 {name:"Node_732:0",dtype:float32,shape:[1, 96, 35, 35]}
    out_1 {name:"Node_732:1",dtype:float32,shape:[96]}
    out_2 {name:"Node_732:2",dtype:float32,shape:[96]}
    attrs {'axis': 1, 'epsilon': 0.0010000000474974513, 'center': 1, 'scale': 0}
  }
}
layer {
  name:"Node_734"
  type:"nn_relu"
  top:"Node_734"
  bottom:"Node_732"
  layer_param {
    idx:734
    in_0 {name:"Node_732:0",dtype:float32,shape:[1, 96, 35, 35]}
    out_0 {name:"Node_734:0",dtype:float32,shape:[1, 96, 35, 35]}
  }
}
layer {
  name:"Node_736"
  type:"const"
  top:"Node_736"
  layer_param {
    idx:736
    out_0 {name:"Node_736:0",dtype:float32,shape:[96, 96, 3, 3]}
  }
}
layer {
  name:"Node_737"
  type:"annotation_compiler_begin"
  top:"Node_737"
  bottom:"Node_736"
  layer_param {
    idx:737
    in_0 {name:"Node_736:0",dtype:float32,shape:[96, 96, 3, 3]}
    out_0 {name:"Node_737:0",dtype:float32,shape:[96, 96, 3, 3]}
    attrs {'compiler': 'tensorrt'}
  }
}
layer {
  name:"Node_738"
  type:"nn_conv2d"
  top:"Node_738"
  bottom:"Node_734"
  bottom:"Node_737"
  layer_param {
    idx:738
    in_0 {name:"Node_734:0",dtype:float32,shape:[1, 96, 35, 35]}
    in_1 {name:"Node_737:0",dtype:float32,shape:[96, 96, 3, 3]}
    out_0 {name:"Node_738:0",dtype:float32,shape:[1, 96, 17, 17]}
    attrs {'strides': [2, 2], 'padding': [0, 0, 0, 0], 'dilation': [1, 1], 'groups': 1, 'channels': 96, 'kernel_size': [3, 3], 'data_layout': 'NCHW', 'kernel_layout': 'OIHW', 'out_layout': '', 'out_dtype': ''}
  }
}
layer {
  name:"Node_740"
  type:"const"
  top:"Node_740"
  layer_param {
    idx:740
    out_0 {name:"Node_740:0",dtype:float32,shape:[96]}
  }
}
layer {
  name:"Node_741"
  type:"annotation_compiler_begin"
  top:"Node_741"
  bottom:"Node_740"
  layer_param {
    idx:741
    in_0 {name:"Node_740:0",dtype:float32,shape:[96]}
    out_0 {name:"Node_741:0",dtype:float32,shape:[96]}
    attrs {'compiler': 'tensorrt'}
  }
}
layer {
  name:"Node_743"
  type:"const"
  top:"Node_743"
  layer_param {
    idx:743
    out_0 {name:"Node_743:0",dtype:float32,shape:[96]}
  }
}
layer {
  name:"Node_744"
  type:"annotation_compiler_begin"
  top:"Node_744"
  bottom:"Node_743"
  layer_param {
    idx:744
    in_0 {name:"Node_743:0",dtype:float32,shape:[96]}
    out_0 {name:"Node_744:0",dtype:float32,shape:[96]}
    attrs {'compiler': 'tensorrt'}
  }
}
layer {
  name:"Node_746"
  type:"const"
  top:"Node_746"
  layer_param {
    idx:746
    out_0 {name:"Node_746:0",dtype:float32,shape:[96]}
  }
}
layer {
  name:"Node_747"
  type:"annotation_compiler_begin"
  top:"Node_747"
  bottom:"Node_746"
  layer_param {
    idx:747
    in_0 {name:"Node_746:0",dtype:float32,shape:[96]}
    out_0 {name:"Node_747:0",dtype:float32,shape:[96]}
    attrs {'compiler': 'tensorrt'}
  }
}
layer {
  name:"Node_749"
  type:"const"
  top:"Node_749"
  layer_param {
    idx:749
    out_0 {name:"Node_749:0",dtype:float32,shape:[96]}
  }
}
layer {
  name:"Node_750"
  type:"annotation_compiler_begin"
  top:"Node_750"
  bottom:"Node_749"
  layer_param {
    idx:750
    in_0 {name:"Node_749:0",dtype:float32,shape:[96]}
    out_0 {name:"Node_750:0",dtype:float32,shape:[96]}
    attrs {'compiler': 'tensorrt'}
  }
}
layer {
  name:"Node_751"
  type:"nn_batch_norm"
  top:"Node_751"
  bottom:"Node_738"
  bottom:"Node_741"
  bottom:"Node_744"
  bottom:"Node_747"
  bottom:"Node_750"
  layer_param {
    idx:751
    in_0 {name:"Node_738:0",dtype:float32,shape:[1, 96, 17, 17]}
    in_1 {name:"Node_741:0",dtype:float32,shape:[96]}
    in_2 {name:"Node_744:0",dtype:float32,shape:[96]}
    in_3 {name:"Node_747:0",dtype:float32,shape:[96]}
    in_4 {name:"Node_750:0",dtype:float32,shape:[96]}
    out_0 {name:"Node_751:0",dtype:float32,shape:[1, 96, 17, 17]}
    out_1 {name:"Node_751:1",dtype:float32,shape:[96]}
    out_2 {name:"Node_751:2",dtype:float32,shape:[96]}
    attrs {'axis': 1, 'epsilon': 0.0010000000474974513, 'center': 1, 'scale': 0}
  }
}
layer {
  name:"Node_753"
  type:"nn_relu"
  top:"Node_753"
  bottom:"Node_751"
  layer_param {
    idx:753
    in_0 {name:"Node_751:0",dtype:float32,shape:[1, 96, 17, 17]}
    out_0 {name:"Node_753:0",dtype:float32,shape:[1, 96, 17, 17]}
  }
}
layer {
  name:"Node_756"
  type:"nn_max_pool2d"
  top:"Node_756"
  bottom:"Node_667"
  layer_param {
    idx:756
    in_0 {name:"Node_667:0",dtype:float32,shape:[1, 288, 35, 35]}
    out_0 {name:"Node_756:0",dtype:float32,shape:[1, 288, 17, 17]}
    attrs {'pool_size': [3, 3], 'strides': [2, 2], 'dilation': [1, 1], 'padding': [0, 0, 0, 0], 'layout': 'NCHW', 'ceil_mode': 0}
  }
}
layer {
  name:"Node_758"
  type:"concatenate"
  top:"Node_758"
  bottom:"Node_686"
  bottom:"Node_753"
  bottom:"Node_756"
  layer_param {
    idx:758
    in_0 {name:"Node_686:0",dtype:float32,shape:[1, 384, 17, 17]}
    in_1 {name:"Node_753:0",dtype:float32,shape:[1, 96, 17, 17]}
    in_2 {name:"Node_756:0",dtype:float32,shape:[1, 288, 17, 17]}
    out_0 {name:"Node_758:0",dtype:float32,shape:[1, 768, 17, 17]}
    attrs {'axis': 1}
  }
}
layer {
  name:"Node_760"
  type:"const"
  top:"Node_760"
  layer_param {
    idx:760
    out_0 {name:"Node_760:0",dtype:float32,shape:[192, 768, 1, 1]}
  }
}
layer {
  name:"Node_761"
  type:"annotation_compiler_begin"
  top:"Node_761"
  bottom:"Node_760"
  layer_param {
    idx:761
    in_0 {name:"Node_760:0",dtype:float32,shape:[192, 768, 1, 1]}
    out_0 {name:"Node_761:0",dtype:float32,shape:[192, 768, 1, 1]}
    attrs {'compiler': 'tensorrt'}
  }
}
layer {
  name:"Node_762"
  type:"nn_conv2d"
  top:"Node_762"
  bottom:"Node_758"
  bottom:"Node_761"
  layer_param {
    idx:762
    in_0 {name:"Node_758:0",dtype:float32,shape:[1, 768, 17, 17]}
    in_1 {name:"Node_761:0",dtype:float32,shape:[192, 768, 1, 1]}
    out_0 {name:"Node_762:0",dtype:float32,shape:[1, 192, 17, 17]}
    attrs {'strides': [1, 1], 'padding': [0, 0, 0, 0], 'dilation': [1, 1], 'groups': 1, 'channels': 192, 'kernel_size': [1, 1], 'data_layout': 'NCHW', 'kernel_layout': 'OIHW', 'out_layout': '', 'out_dtype': ''}
  }
}
layer {
  name:"Node_764"
  type:"const"
  top:"Node_764"
  layer_param {
    idx:764
    out_0 {name:"Node_764:0",dtype:float32,shape:[192]}
  }
}
layer {
  name:"Node_765"
  type:"annotation_compiler_begin"
  top:"Node_765"
  bottom:"Node_764"
  layer_param {
    idx:765
    in_0 {name:"Node_764:0",dtype:float32,shape:[192]}
    out_0 {name:"Node_765:0",dtype:float32,shape:[192]}
    attrs {'compiler': 'tensorrt'}
  }
}
layer {
  name:"Node_767"
  type:"const"
  top:"Node_767"
  layer_param {
    idx:767
    out_0 {name:"Node_767:0",dtype:float32,shape:[192]}
  }
}
layer {
  name:"Node_768"
  type:"annotation_compiler_begin"
  top:"Node_768"
  bottom:"Node_767"
  layer_param {
    idx:768
    in_0 {name:"Node_767:0",dtype:float32,shape:[192]}
    out_0 {name:"Node_768:0",dtype:float32,shape:[192]}
    attrs {'compiler': 'tensorrt'}
  }
}
layer {
  name:"Node_770"
  type:"const"
  top:"Node_770"
  layer_param {
    idx:770
    out_0 {name:"Node_770:0",dtype:float32,shape:[192]}
  }
}
layer {
  name:"Node_771"
  type:"annotation_compiler_begin"
  top:"Node_771"
  bottom:"Node_770"
  layer_param {
    idx:771
    in_0 {name:"Node_770:0",dtype:float32,shape:[192]}
    out_0 {name:"Node_771:0",dtype:float32,shape:[192]}
    attrs {'compiler': 'tensorrt'}
  }
}
layer {
  name:"Node_773"
  type:"const"
  top:"Node_773"
  layer_param {
    idx:773
    out_0 {name:"Node_773:0",dtype:float32,shape:[192]}
  }
}
layer {
  name:"Node_774"
  type:"annotation_compiler_begin"
  top:"Node_774"
  bottom:"Node_773"
  layer_param {
    idx:774
    in_0 {name:"Node_773:0",dtype:float32,shape:[192]}
    out_0 {name:"Node_774:0",dtype:float32,shape:[192]}
    attrs {'compiler': 'tensorrt'}
  }
}
layer {
  name:"Node_775"
  type:"nn_batch_norm"
  top:"Node_775"
  bottom:"Node_762"
  bottom:"Node_765"
  bottom:"Node_768"
  bottom:"Node_771"
  bottom:"Node_774"
  layer_param {
    idx:775
    in_0 {name:"Node_762:0",dtype:float32,shape:[1, 192, 17, 17]}
    in_1 {name:"Node_765:0",dtype:float32,shape:[192]}
    in_2 {name:"Node_768:0",dtype:float32,shape:[192]}
    in_3 {name:"Node_771:0",dtype:float32,shape:[192]}
    in_4 {name:"Node_774:0",dtype:float32,shape:[192]}
    out_0 {name:"Node_775:0",dtype:float32,shape:[1, 192, 17, 17]}
    out_1 {name:"Node_775:1",dtype:float32,shape:[192]}
    out_2 {name:"Node_775:2",dtype:float32,shape:[192]}
    attrs {'axis': 1, 'epsilon': 0.0010000000474974513, 'center': 1, 'scale': 0}
  }
}
layer {
  name:"Node_777"
  type:"nn_relu"
  top:"Node_777"
  bottom:"Node_775"
  layer_param {
    idx:777
    in_0 {name:"Node_775:0",dtype:float32,shape:[1, 192, 17, 17]}
    out_0 {name:"Node_777:0",dtype:float32,shape:[1, 192, 17, 17]}
  }
}
layer {
  name:"Node_789"
  type:"const"
  top:"Node_789"
  layer_param {
    idx:789
    out_0 {name:"Node_789:0",dtype:float32,shape:[128, 768, 1, 1]}
  }
}
layer {
  name:"Node_790"
  type:"annotation_compiler_begin"
  top:"Node_790"
  bottom:"Node_789"
  layer_param {
    idx:790
    in_0 {name:"Node_789:0",dtype:float32,shape:[128, 768, 1, 1]}
    out_0 {name:"Node_790:0",dtype:float32,shape:[128, 768, 1, 1]}
    attrs {'compiler': 'tensorrt'}
  }
}
layer {
  name:"Node_791"
  type:"nn_conv2d"
  top:"Node_791"
  bottom:"Node_758"
  bottom:"Node_790"
  layer_param {
    idx:791
    in_0 {name:"Node_758:0",dtype:float32,shape:[1, 768, 17, 17]}
    in_1 {name:"Node_790:0",dtype:float32,shape:[128, 768, 1, 1]}
    out_0 {name:"Node_791:0",dtype:float32,shape:[1, 128, 17, 17]}
    attrs {'strides': [1, 1], 'padding': [0, 0, 0, 0], 'dilation': [1, 1], 'groups': 1, 'channels': 128, 'kernel_size': [1, 1], 'data_layout': 'NCHW', 'kernel_layout': 'OIHW', 'out_layout': '', 'out_dtype': ''}
  }
}
layer {
  name:"Node_793"
  type:"const"
  top:"Node_793"
  layer_param {
    idx:793
    out_0 {name:"Node_793:0",dtype:float32,shape:[128]}
  }
}
layer {
  name:"Node_794"
  type:"annotation_compiler_begin"
  top:"Node_794"
  bottom:"Node_793"
  layer_param {
    idx:794
    in_0 {name:"Node_793:0",dtype:float32,shape:[128]}
    out_0 {name:"Node_794:0",dtype:float32,shape:[128]}
    attrs {'compiler': 'tensorrt'}
  }
}
layer {
  name:"Node_796"
  type:"const"
  top:"Node_796"
  layer_param {
    idx:796
    out_0 {name:"Node_796:0",dtype:float32,shape:[128]}
  }
}
layer {
  name:"Node_797"
  type:"annotation_compiler_begin"
  top:"Node_797"
  bottom:"Node_796"
  layer_param {
    idx:797
    in_0 {name:"Node_796:0",dtype:float32,shape:[128]}
    out_0 {name:"Node_797:0",dtype:float32,shape:[128]}
    attrs {'compiler': 'tensorrt'}
  }
}
layer {
  name:"Node_799"
  type:"const"
  top:"Node_799"
  layer_param {
    idx:799
    out_0 {name:"Node_799:0",dtype:float32,shape:[128]}
  }
}
layer {
  name:"Node_800"
  type:"annotation_compiler_begin"
  top:"Node_800"
  bottom:"Node_799"
  layer_param {
    idx:800
    in_0 {name:"Node_799:0",dtype:float32,shape:[128]}
    out_0 {name:"Node_800:0",dtype:float32,shape:[128]}
    attrs {'compiler': 'tensorrt'}
  }
}
layer {
  name:"Node_802"
  type:"const"
  top:"Node_802"
  layer_param {
    idx:802
    out_0 {name:"Node_802:0",dtype:float32,shape:[128]}
  }
}
layer {
  name:"Node_803"
  type:"annotation_compiler_begin"
  top:"Node_803"
  bottom:"Node_802"
  layer_param {
    idx:803
    in_0 {name:"Node_802:0",dtype:float32,shape:[128]}
    out_0 {name:"Node_803:0",dtype:float32,shape:[128]}
    attrs {'compiler': 'tensorrt'}
  }
}
layer {
  name:"Node_804"
  type:"nn_batch_norm"
  top:"Node_804"
  bottom:"Node_791"
  bottom:"Node_794"
  bottom:"Node_797"
  bottom:"Node_800"
  bottom:"Node_803"
  layer_param {
    idx:804
    in_0 {name:"Node_791:0",dtype:float32,shape:[1, 128, 17, 17]}
    in_1 {name:"Node_794:0",dtype:float32,shape:[128]}
    in_2 {name:"Node_797:0",dtype:float32,shape:[128]}
    in_3 {name:"Node_800:0",dtype:float32,shape:[128]}
    in_4 {name:"Node_803:0",dtype:float32,shape:[128]}
    out_0 {name:"Node_804:0",dtype:float32,shape:[1, 128, 17, 17]}
    out_1 {name:"Node_804:1",dtype:float32,shape:[128]}
    out_2 {name:"Node_804:2",dtype:float32,shape:[128]}
    attrs {'axis': 1, 'epsilon': 0.0010000000474974513, 'center': 1, 'scale': 0}
  }
}
layer {
  name:"Node_806"
  type:"nn_relu"
  top:"Node_806"
  bottom:"Node_804"
  layer_param {
    idx:806
    in_0 {name:"Node_804:0",dtype:float32,shape:[1, 128, 17, 17]}
    out_0 {name:"Node_806:0",dtype:float32,shape:[1, 128, 17, 17]}
  }
}
layer {
  name:"Node_808"
  type:"const"
  top:"Node_808"
  layer_param {
    idx:808
    out_0 {name:"Node_808:0",dtype:float32,shape:[128, 128, 1, 7]}
  }
}
layer {
  name:"Node_809"
  type:"annotation_compiler_begin"
  top:"Node_809"
  bottom:"Node_808"
  layer_param {
    idx:809
    in_0 {name:"Node_808:0",dtype:float32,shape:[128, 128, 1, 7]}
    out_0 {name:"Node_809:0",dtype:float32,shape:[128, 128, 1, 7]}
    attrs {'compiler': 'tensorrt'}
  }
}
layer {
  name:"Node_810"
  type:"nn_conv2d"
  top:"Node_810"
  bottom:"Node_806"
  bottom:"Node_809"
  layer_param {
    idx:810
    in_0 {name:"Node_806:0",dtype:float32,shape:[1, 128, 17, 17]}
    in_1 {name:"Node_809:0",dtype:float32,shape:[128, 128, 1, 7]}
    out_0 {name:"Node_810:0",dtype:float32,shape:[1, 128, 17, 17]}
    attrs {'strides': [1, 1], 'padding': [0, 3, 0, 3], 'dilation': [1, 1], 'groups': 1, 'channels': 128, 'kernel_size': [1, 7], 'data_layout': 'NCHW', 'kernel_layout': 'OIHW', 'out_layout': '', 'out_dtype': ''}
  }
}
layer {
  name:"Node_812"
  type:"const"
  top:"Node_812"
  layer_param {
    idx:812
    out_0 {name:"Node_812:0",dtype:float32,shape:[128]}
  }
}
layer {
  name:"Node_813"
  type:"annotation_compiler_begin"
  top:"Node_813"
  bottom:"Node_812"
  layer_param {
    idx:813
    in_0 {name:"Node_812:0",dtype:float32,shape:[128]}
    out_0 {name:"Node_813:0",dtype:float32,shape:[128]}
    attrs {'compiler': 'tensorrt'}
  }
}
layer {
  name:"Node_815"
  type:"const"
  top:"Node_815"
  layer_param {
    idx:815
    out_0 {name:"Node_815:0",dtype:float32,shape:[128]}
  }
}
layer {
  name:"Node_816"
  type:"annotation_compiler_begin"
  top:"Node_816"
  bottom:"Node_815"
  layer_param {
    idx:816
    in_0 {name:"Node_815:0",dtype:float32,shape:[128]}
    out_0 {name:"Node_816:0",dtype:float32,shape:[128]}
    attrs {'compiler': 'tensorrt'}
  }
}
layer {
  name:"Node_818"
  type:"const"
  top:"Node_818"
  layer_param {
    idx:818
    out_0 {name:"Node_818:0",dtype:float32,shape:[128]}
  }
}
layer {
  name:"Node_819"
  type:"annotation_compiler_begin"
  top:"Node_819"
  bottom:"Node_818"
  layer_param {
    idx:819
    in_0 {name:"Node_818:0",dtype:float32,shape:[128]}
    out_0 {name:"Node_819:0",dtype:float32,shape:[128]}
    attrs {'compiler': 'tensorrt'}
  }
}
layer {
  name:"Node_821"
  type:"const"
  top:"Node_821"
  layer_param {
    idx:821
    out_0 {name:"Node_821:0",dtype:float32,shape:[128]}
  }
}
layer {
  name:"Node_822"
  type:"annotation_compiler_begin"
  top:"Node_822"
  bottom:"Node_821"
  layer_param {
    idx:822
    in_0 {name:"Node_821:0",dtype:float32,shape:[128]}
    out_0 {name:"Node_822:0",dtype:float32,shape:[128]}
    attrs {'compiler': 'tensorrt'}
  }
}
layer {
  name:"Node_823"
  type:"nn_batch_norm"
  top:"Node_823"
  bottom:"Node_810"
  bottom:"Node_813"
  bottom:"Node_816"
  bottom:"Node_819"
  bottom:"Node_822"
  layer_param {
    idx:823
    in_0 {name:"Node_810:0",dtype:float32,shape:[1, 128, 17, 17]}
    in_1 {name:"Node_813:0",dtype:float32,shape:[128]}
    in_2 {name:"Node_816:0",dtype:float32,shape:[128]}
    in_3 {name:"Node_819:0",dtype:float32,shape:[128]}
    in_4 {name:"Node_822:0",dtype:float32,shape:[128]}
    out_0 {name:"Node_823:0",dtype:float32,shape:[1, 128, 17, 17]}
    out_1 {name:"Node_823:1",dtype:float32,shape:[128]}
    out_2 {name:"Node_823:2",dtype:float32,shape:[128]}
    attrs {'axis': 1, 'epsilon': 0.0010000000474974513, 'center': 1, 'scale': 0}
  }
}
layer {
  name:"Node_825"
  type:"nn_relu"
  top:"Node_825"
  bottom:"Node_823"
  layer_param {
    idx:825
    in_0 {name:"Node_823:0",dtype:float32,shape:[1, 128, 17, 17]}
    out_0 {name:"Node_825:0",dtype:float32,shape:[1, 128, 17, 17]}
  }
}
layer {
  name:"Node_827"
  type:"const"
  top:"Node_827"
  layer_param {
    idx:827
    out_0 {name:"Node_827:0",dtype:float32,shape:[192, 128, 7, 1]}
  }
}
layer {
  name:"Node_828"
  type:"annotation_compiler_begin"
  top:"Node_828"
  bottom:"Node_827"
  layer_param {
    idx:828
    in_0 {name:"Node_827:0",dtype:float32,shape:[192, 128, 7, 1]}
    out_0 {name:"Node_828:0",dtype:float32,shape:[192, 128, 7, 1]}
    attrs {'compiler': 'tensorrt'}
  }
}
layer {
  name:"Node_829"
  type:"nn_conv2d"
  top:"Node_829"
  bottom:"Node_825"
  bottom:"Node_828"
  layer_param {
    idx:829
    in_0 {name:"Node_825:0",dtype:float32,shape:[1, 128, 17, 17]}
    in_1 {name:"Node_828:0",dtype:float32,shape:[192, 128, 7, 1]}
    out_0 {name:"Node_829:0",dtype:float32,shape:[1, 192, 17, 17]}
    attrs {'strides': [1, 1], 'padding': [3, 0, 3, 0], 'dilation': [1, 1], 'groups': 1, 'channels': 192, 'kernel_size': [7, 1], 'data_layout': 'NCHW', 'kernel_layout': 'OIHW', 'out_layout': '', 'out_dtype': ''}
  }
}
layer {
  name:"Node_831"
  type:"const"
  top:"Node_831"
  layer_param {
    idx:831
    out_0 {name:"Node_831:0",dtype:float32,shape:[192]}
  }
}
layer {
  name:"Node_832"
  type:"annotation_compiler_begin"
  top:"Node_832"
  bottom:"Node_831"
  layer_param {
    idx:832
    in_0 {name:"Node_831:0",dtype:float32,shape:[192]}
    out_0 {name:"Node_832:0",dtype:float32,shape:[192]}
    attrs {'compiler': 'tensorrt'}
  }
}
layer {
  name:"Node_834"
  type:"const"
  top:"Node_834"
  layer_param {
    idx:834
    out_0 {name:"Node_834:0",dtype:float32,shape:[192]}
  }
}
layer {
  name:"Node_835"
  type:"annotation_compiler_begin"
  top:"Node_835"
  bottom:"Node_834"
  layer_param {
    idx:835
    in_0 {name:"Node_834:0",dtype:float32,shape:[192]}
    out_0 {name:"Node_835:0",dtype:float32,shape:[192]}
    attrs {'compiler': 'tensorrt'}
  }
}
layer {
  name:"Node_837"
  type:"const"
  top:"Node_837"
  layer_param {
    idx:837
    out_0 {name:"Node_837:0",dtype:float32,shape:[192]}
  }
}
layer {
  name:"Node_838"
  type:"annotation_compiler_begin"
  top:"Node_838"
  bottom:"Node_837"
  layer_param {
    idx:838
    in_0 {name:"Node_837:0",dtype:float32,shape:[192]}
    out_0 {name:"Node_838:0",dtype:float32,shape:[192]}
    attrs {'compiler': 'tensorrt'}
  }
}
layer {
  name:"Node_840"
  type:"const"
  top:"Node_840"
  layer_param {
    idx:840
    out_0 {name:"Node_840:0",dtype:float32,shape:[192]}
  }
}
layer {
  name:"Node_841"
  type:"annotation_compiler_begin"
  top:"Node_841"
  bottom:"Node_840"
  layer_param {
    idx:841
    in_0 {name:"Node_840:0",dtype:float32,shape:[192]}
    out_0 {name:"Node_841:0",dtype:float32,shape:[192]}
    attrs {'compiler': 'tensorrt'}
  }
}
layer {
  name:"Node_842"
  type:"nn_batch_norm"
  top:"Node_842"
  bottom:"Node_829"
  bottom:"Node_832"
  bottom:"Node_835"
  bottom:"Node_838"
  bottom:"Node_841"
  layer_param {
    idx:842
    in_0 {name:"Node_829:0",dtype:float32,shape:[1, 192, 17, 17]}
    in_1 {name:"Node_832:0",dtype:float32,shape:[192]}
    in_2 {name:"Node_835:0",dtype:float32,shape:[192]}
    in_3 {name:"Node_838:0",dtype:float32,shape:[192]}
    in_4 {name:"Node_841:0",dtype:float32,shape:[192]}
    out_0 {name:"Node_842:0",dtype:float32,shape:[1, 192, 17, 17]}
    out_1 {name:"Node_842:1",dtype:float32,shape:[192]}
    out_2 {name:"Node_842:2",dtype:float32,shape:[192]}
    attrs {'axis': 1, 'epsilon': 0.0010000000474974513, 'center': 1, 'scale': 0}
  }
}
layer {
  name:"Node_844"
  type:"nn_relu"
  top:"Node_844"
  bottom:"Node_842"
  layer_param {
    idx:844
    in_0 {name:"Node_842:0",dtype:float32,shape:[1, 192, 17, 17]}
    out_0 {name:"Node_844:0",dtype:float32,shape:[1, 192, 17, 17]}
  }
}
layer {
  name:"Node_862"
  type:"const"
  top:"Node_862"
  layer_param {
    idx:862
    out_0 {name:"Node_862:0",dtype:float32,shape:[128, 768, 1, 1]}
  }
}
layer {
  name:"Node_863"
  type:"annotation_compiler_begin"
  top:"Node_863"
  bottom:"Node_862"
  layer_param {
    idx:863
    in_0 {name:"Node_862:0",dtype:float32,shape:[128, 768, 1, 1]}
    out_0 {name:"Node_863:0",dtype:float32,shape:[128, 768, 1, 1]}
    attrs {'compiler': 'tensorrt'}
  }
}
layer {
  name:"Node_864"
  type:"nn_conv2d"
  top:"Node_864"
  bottom:"Node_758"
  bottom:"Node_863"
  layer_param {
    idx:864
    in_0 {name:"Node_758:0",dtype:float32,shape:[1, 768, 17, 17]}
    in_1 {name:"Node_863:0",dtype:float32,shape:[128, 768, 1, 1]}
    out_0 {name:"Node_864:0",dtype:float32,shape:[1, 128, 17, 17]}
    attrs {'strides': [1, 1], 'padding': [0, 0, 0, 0], 'dilation': [1, 1], 'groups': 1, 'channels': 128, 'kernel_size': [1, 1], 'data_layout': 'NCHW', 'kernel_layout': 'OIHW', 'out_layout': '', 'out_dtype': ''}
  }
}
layer {
  name:"Node_866"
  type:"const"
  top:"Node_866"
  layer_param {
    idx:866
    out_0 {name:"Node_866:0",dtype:float32,shape:[128]}
  }
}
layer {
  name:"Node_867"
  type:"annotation_compiler_begin"
  top:"Node_867"
  bottom:"Node_866"
  layer_param {
    idx:867
    in_0 {name:"Node_866:0",dtype:float32,shape:[128]}
    out_0 {name:"Node_867:0",dtype:float32,shape:[128]}
    attrs {'compiler': 'tensorrt'}
  }
}
layer {
  name:"Node_869"
  type:"const"
  top:"Node_869"
  layer_param {
    idx:869
    out_0 {name:"Node_869:0",dtype:float32,shape:[128]}
  }
}
layer {
  name:"Node_870"
  type:"annotation_compiler_begin"
  top:"Node_870"
  bottom:"Node_869"
  layer_param {
    idx:870
    in_0 {name:"Node_869:0",dtype:float32,shape:[128]}
    out_0 {name:"Node_870:0",dtype:float32,shape:[128]}
    attrs {'compiler': 'tensorrt'}
  }
}
layer {
  name:"Node_872"
  type:"const"
  top:"Node_872"
  layer_param {
    idx:872
    out_0 {name:"Node_872:0",dtype:float32,shape:[128]}
  }
}
layer {
  name:"Node_873"
  type:"annotation_compiler_begin"
  top:"Node_873"
  bottom:"Node_872"
  layer_param {
    idx:873
    in_0 {name:"Node_872:0",dtype:float32,shape:[128]}
    out_0 {name:"Node_873:0",dtype:float32,shape:[128]}
    attrs {'compiler': 'tensorrt'}
  }
}
layer {
  name:"Node_875"
  type:"const"
  top:"Node_875"
  layer_param {
    idx:875
    out_0 {name:"Node_875:0",dtype:float32,shape:[128]}
  }
}
layer {
  name:"Node_876"
  type:"annotation_compiler_begin"
  top:"Node_876"
  bottom:"Node_875"
  layer_param {
    idx:876
    in_0 {name:"Node_875:0",dtype:float32,shape:[128]}
    out_0 {name:"Node_876:0",dtype:float32,shape:[128]}
    attrs {'compiler': 'tensorrt'}
  }
}
layer {
  name:"Node_877"
  type:"nn_batch_norm"
  top:"Node_877"
  bottom:"Node_864"
  bottom:"Node_867"
  bottom:"Node_870"
  bottom:"Node_873"
  bottom:"Node_876"
  layer_param {
    idx:877
    in_0 {name:"Node_864:0",dtype:float32,shape:[1, 128, 17, 17]}
    in_1 {name:"Node_867:0",dtype:float32,shape:[128]}
    in_2 {name:"Node_870:0",dtype:float32,shape:[128]}
    in_3 {name:"Node_873:0",dtype:float32,shape:[128]}
    in_4 {name:"Node_876:0",dtype:float32,shape:[128]}
    out_0 {name:"Node_877:0",dtype:float32,shape:[1, 128, 17, 17]}
    out_1 {name:"Node_877:1",dtype:float32,shape:[128]}
    out_2 {name:"Node_877:2",dtype:float32,shape:[128]}
    attrs {'axis': 1, 'epsilon': 0.0010000000474974513, 'center': 1, 'scale': 0}
  }
}
layer {
  name:"Node_879"
  type:"nn_relu"
  top:"Node_879"
  bottom:"Node_877"
  layer_param {
    idx:879
    in_0 {name:"Node_877:0",dtype:float32,shape:[1, 128, 17, 17]}
    out_0 {name:"Node_879:0",dtype:float32,shape:[1, 128, 17, 17]}
  }
}
layer {
  name:"Node_881"
  type:"const"
  top:"Node_881"
  layer_param {
    idx:881
    out_0 {name:"Node_881:0",dtype:float32,shape:[128, 128, 7, 1]}
  }
}
layer {
  name:"Node_882"
  type:"annotation_compiler_begin"
  top:"Node_882"
  bottom:"Node_881"
  layer_param {
    idx:882
    in_0 {name:"Node_881:0",dtype:float32,shape:[128, 128, 7, 1]}
    out_0 {name:"Node_882:0",dtype:float32,shape:[128, 128, 7, 1]}
    attrs {'compiler': 'tensorrt'}
  }
}
layer {
  name:"Node_883"
  type:"nn_conv2d"
  top:"Node_883"
  bottom:"Node_879"
  bottom:"Node_882"
  layer_param {
    idx:883
    in_0 {name:"Node_879:0",dtype:float32,shape:[1, 128, 17, 17]}
    in_1 {name:"Node_882:0",dtype:float32,shape:[128, 128, 7, 1]}
    out_0 {name:"Node_883:0",dtype:float32,shape:[1, 128, 17, 17]}
    attrs {'strides': [1, 1], 'padding': [3, 0, 3, 0], 'dilation': [1, 1], 'groups': 1, 'channels': 128, 'kernel_size': [7, 1], 'data_layout': 'NCHW', 'kernel_layout': 'OIHW', 'out_layout': '', 'out_dtype': ''}
  }
}
layer {
  name:"Node_885"
  type:"const"
  top:"Node_885"
  layer_param {
    idx:885
    out_0 {name:"Node_885:0",dtype:float32,shape:[128]}
  }
}
layer {
  name:"Node_886"
  type:"annotation_compiler_begin"
  top:"Node_886"
  bottom:"Node_885"
  layer_param {
    idx:886
    in_0 {name:"Node_885:0",dtype:float32,shape:[128]}
    out_0 {name:"Node_886:0",dtype:float32,shape:[128]}
    attrs {'compiler': 'tensorrt'}
  }
}
layer {
  name:"Node_888"
  type:"const"
  top:"Node_888"
  layer_param {
    idx:888
    out_0 {name:"Node_888:0",dtype:float32,shape:[128]}
  }
}
layer {
  name:"Node_889"
  type:"annotation_compiler_begin"
  top:"Node_889"
  bottom:"Node_888"
  layer_param {
    idx:889
    in_0 {name:"Node_888:0",dtype:float32,shape:[128]}
    out_0 {name:"Node_889:0",dtype:float32,shape:[128]}
    attrs {'compiler': 'tensorrt'}
  }
}
layer {
  name:"Node_891"
  type:"const"
  top:"Node_891"
  layer_param {
    idx:891
    out_0 {name:"Node_891:0",dtype:float32,shape:[128]}
  }
}
layer {
  name:"Node_892"
  type:"annotation_compiler_begin"
  top:"Node_892"
  bottom:"Node_891"
  layer_param {
    idx:892
    in_0 {name:"Node_891:0",dtype:float32,shape:[128]}
    out_0 {name:"Node_892:0",dtype:float32,shape:[128]}
    attrs {'compiler': 'tensorrt'}
  }
}
layer {
  name:"Node_894"
  type:"const"
  top:"Node_894"
  layer_param {
    idx:894
    out_0 {name:"Node_894:0",dtype:float32,shape:[128]}
  }
}
layer {
  name:"Node_895"
  type:"annotation_compiler_begin"
  top:"Node_895"
  bottom:"Node_894"
  layer_param {
    idx:895
    in_0 {name:"Node_894:0",dtype:float32,shape:[128]}
    out_0 {name:"Node_895:0",dtype:float32,shape:[128]}
    attrs {'compiler': 'tensorrt'}
  }
}
layer {
  name:"Node_896"
  type:"nn_batch_norm"
  top:"Node_896"
  bottom:"Node_883"
  bottom:"Node_886"
  bottom:"Node_889"
  bottom:"Node_892"
  bottom:"Node_895"
  layer_param {
    idx:896
    in_0 {name:"Node_883:0",dtype:float32,shape:[1, 128, 17, 17]}
    in_1 {name:"Node_886:0",dtype:float32,shape:[128]}
    in_2 {name:"Node_889:0",dtype:float32,shape:[128]}
    in_3 {name:"Node_892:0",dtype:float32,shape:[128]}
    in_4 {name:"Node_895:0",dtype:float32,shape:[128]}
    out_0 {name:"Node_896:0",dtype:float32,shape:[1, 128, 17, 17]}
    out_1 {name:"Node_896:1",dtype:float32,shape:[128]}
    out_2 {name:"Node_896:2",dtype:float32,shape:[128]}
    attrs {'axis': 1, 'epsilon': 0.0010000000474974513, 'center': 1, 'scale': 0}
  }
}
layer {
  name:"Node_898"
  type:"nn_relu"
  top:"Node_898"
  bottom:"Node_896"
  layer_param {
    idx:898
    in_0 {name:"Node_896:0",dtype:float32,shape:[1, 128, 17, 17]}
    out_0 {name:"Node_898:0",dtype:float32,shape:[1, 128, 17, 17]}
  }
}
layer {
  name:"Node_900"
  type:"const"
  top:"Node_900"
  layer_param {
    idx:900
    out_0 {name:"Node_900:0",dtype:float32,shape:[128, 128, 1, 7]}
  }
}
layer {
  name:"Node_901"
  type:"annotation_compiler_begin"
  top:"Node_901"
  bottom:"Node_900"
  layer_param {
    idx:901
    in_0 {name:"Node_900:0",dtype:float32,shape:[128, 128, 1, 7]}
    out_0 {name:"Node_901:0",dtype:float32,shape:[128, 128, 1, 7]}
    attrs {'compiler': 'tensorrt'}
  }
}
layer {
  name:"Node_902"
  type:"nn_conv2d"
  top:"Node_902"
  bottom:"Node_898"
  bottom:"Node_901"
  layer_param {
    idx:902
    in_0 {name:"Node_898:0",dtype:float32,shape:[1, 128, 17, 17]}
    in_1 {name:"Node_901:0",dtype:float32,shape:[128, 128, 1, 7]}
    out_0 {name:"Node_902:0",dtype:float32,shape:[1, 128, 17, 17]}
    attrs {'strides': [1, 1], 'padding': [0, 3, 0, 3], 'dilation': [1, 1], 'groups': 1, 'channels': 128, 'kernel_size': [1, 7], 'data_layout': 'NCHW', 'kernel_layout': 'OIHW', 'out_layout': '', 'out_dtype': ''}
  }
}
layer {
  name:"Node_904"
  type:"const"
  top:"Node_904"
  layer_param {
    idx:904
    out_0 {name:"Node_904:0",dtype:float32,shape:[128]}
  }
}
layer {
  name:"Node_905"
  type:"annotation_compiler_begin"
  top:"Node_905"
  bottom:"Node_904"
  layer_param {
    idx:905
    in_0 {name:"Node_904:0",dtype:float32,shape:[128]}
    out_0 {name:"Node_905:0",dtype:float32,shape:[128]}
    attrs {'compiler': 'tensorrt'}
  }
}
layer {
  name:"Node_907"
  type:"const"
  top:"Node_907"
  layer_param {
    idx:907
    out_0 {name:"Node_907:0",dtype:float32,shape:[128]}
  }
}
layer {
  name:"Node_908"
  type:"annotation_compiler_begin"
  top:"Node_908"
  bottom:"Node_907"
  layer_param {
    idx:908
    in_0 {name:"Node_907:0",dtype:float32,shape:[128]}
    out_0 {name:"Node_908:0",dtype:float32,shape:[128]}
    attrs {'compiler': 'tensorrt'}
  }
}
layer {
  name:"Node_910"
  type:"const"
  top:"Node_910"
  layer_param {
    idx:910
    out_0 {name:"Node_910:0",dtype:float32,shape:[128]}
  }
}
layer {
  name:"Node_911"
  type:"annotation_compiler_begin"
  top:"Node_911"
  bottom:"Node_910"
  layer_param {
    idx:911
    in_0 {name:"Node_910:0",dtype:float32,shape:[128]}
    out_0 {name:"Node_911:0",dtype:float32,shape:[128]}
    attrs {'compiler': 'tensorrt'}
  }
}
layer {
  name:"Node_913"
  type:"const"
  top:"Node_913"
  layer_param {
    idx:913
    out_0 {name:"Node_913:0",dtype:float32,shape:[128]}
  }
}
layer {
  name:"Node_914"
  type:"annotation_compiler_begin"
  top:"Node_914"
  bottom:"Node_913"
  layer_param {
    idx:914
    in_0 {name:"Node_913:0",dtype:float32,shape:[128]}
    out_0 {name:"Node_914:0",dtype:float32,shape:[128]}
    attrs {'compiler': 'tensorrt'}
  }
}
layer {
  name:"Node_915"
  type:"nn_batch_norm"
  top:"Node_915"
  bottom:"Node_902"
  bottom:"Node_905"
  bottom:"Node_908"
  bottom:"Node_911"
  bottom:"Node_914"
  layer_param {
    idx:915
    in_0 {name:"Node_902:0",dtype:float32,shape:[1, 128, 17, 17]}
    in_1 {name:"Node_905:0",dtype:float32,shape:[128]}
    in_2 {name:"Node_908:0",dtype:float32,shape:[128]}
    in_3 {name:"Node_911:0",dtype:float32,shape:[128]}
    in_4 {name:"Node_914:0",dtype:float32,shape:[128]}
    out_0 {name:"Node_915:0",dtype:float32,shape:[1, 128, 17, 17]}
    out_1 {name:"Node_915:1",dtype:float32,shape:[128]}
    out_2 {name:"Node_915:2",dtype:float32,shape:[128]}
    attrs {'axis': 1, 'epsilon': 0.0010000000474974513, 'center': 1, 'scale': 0}
  }
}
layer {
  name:"Node_917"
  type:"nn_relu"
  top:"Node_917"
  bottom:"Node_915"
  layer_param {
    idx:917
    in_0 {name:"Node_915:0",dtype:float32,shape:[1, 128, 17, 17]}
    out_0 {name:"Node_917:0",dtype:float32,shape:[1, 128, 17, 17]}
  }
}
layer {
  name:"Node_919"
  type:"const"
  top:"Node_919"
  layer_param {
    idx:919
    out_0 {name:"Node_919:0",dtype:float32,shape:[128, 128, 7, 1]}
  }
}
layer {
  name:"Node_920"
  type:"annotation_compiler_begin"
  top:"Node_920"
  bottom:"Node_919"
  layer_param {
    idx:920
    in_0 {name:"Node_919:0",dtype:float32,shape:[128, 128, 7, 1]}
    out_0 {name:"Node_920:0",dtype:float32,shape:[128, 128, 7, 1]}
    attrs {'compiler': 'tensorrt'}
  }
}
layer {
  name:"Node_921"
  type:"nn_conv2d"
  top:"Node_921"
  bottom:"Node_917"
  bottom:"Node_920"
  layer_param {
    idx:921
    in_0 {name:"Node_917:0",dtype:float32,shape:[1, 128, 17, 17]}
    in_1 {name:"Node_920:0",dtype:float32,shape:[128, 128, 7, 1]}
    out_0 {name:"Node_921:0",dtype:float32,shape:[1, 128, 17, 17]}
    attrs {'strides': [1, 1], 'padding': [3, 0, 3, 0], 'dilation': [1, 1], 'groups': 1, 'channels': 128, 'kernel_size': [7, 1], 'data_layout': 'NCHW', 'kernel_layout': 'OIHW', 'out_layout': '', 'out_dtype': ''}
  }
}
layer {
  name:"Node_923"
  type:"const"
  top:"Node_923"
  layer_param {
    idx:923
    out_0 {name:"Node_923:0",dtype:float32,shape:[128]}
  }
}
layer {
  name:"Node_924"
  type:"annotation_compiler_begin"
  top:"Node_924"
  bottom:"Node_923"
  layer_param {
    idx:924
    in_0 {name:"Node_923:0",dtype:float32,shape:[128]}
    out_0 {name:"Node_924:0",dtype:float32,shape:[128]}
    attrs {'compiler': 'tensorrt'}
  }
}
layer {
  name:"Node_926"
  type:"const"
  top:"Node_926"
  layer_param {
    idx:926
    out_0 {name:"Node_926:0",dtype:float32,shape:[128]}
  }
}
layer {
  name:"Node_927"
  type:"annotation_compiler_begin"
  top:"Node_927"
  bottom:"Node_926"
  layer_param {
    idx:927
    in_0 {name:"Node_926:0",dtype:float32,shape:[128]}
    out_0 {name:"Node_927:0",dtype:float32,shape:[128]}
    attrs {'compiler': 'tensorrt'}
  }
}
layer {
  name:"Node_929"
  type:"const"
  top:"Node_929"
  layer_param {
    idx:929
    out_0 {name:"Node_929:0",dtype:float32,shape:[128]}
  }
}
layer {
  name:"Node_930"
  type:"annotation_compiler_begin"
  top:"Node_930"
  bottom:"Node_929"
  layer_param {
    idx:930
    in_0 {name:"Node_929:0",dtype:float32,shape:[128]}
    out_0 {name:"Node_930:0",dtype:float32,shape:[128]}
    attrs {'compiler': 'tensorrt'}
  }
}
layer {
  name:"Node_932"
  type:"const"
  top:"Node_932"
  layer_param {
    idx:932
    out_0 {name:"Node_932:0",dtype:float32,shape:[128]}
  }
}
layer {
  name:"Node_933"
  type:"annotation_compiler_begin"
  top:"Node_933"
  bottom:"Node_932"
  layer_param {
    idx:933
    in_0 {name:"Node_932:0",dtype:float32,shape:[128]}
    out_0 {name:"Node_933:0",dtype:float32,shape:[128]}
    attrs {'compiler': 'tensorrt'}
  }
}
layer {
  name:"Node_934"
  type:"nn_batch_norm"
  top:"Node_934"
  bottom:"Node_921"
  bottom:"Node_924"
  bottom:"Node_927"
  bottom:"Node_930"
  bottom:"Node_933"
  layer_param {
    idx:934
    in_0 {name:"Node_921:0",dtype:float32,shape:[1, 128, 17, 17]}
    in_1 {name:"Node_924:0",dtype:float32,shape:[128]}
    in_2 {name:"Node_927:0",dtype:float32,shape:[128]}
    in_3 {name:"Node_930:0",dtype:float32,shape:[128]}
    in_4 {name:"Node_933:0",dtype:float32,shape:[128]}
    out_0 {name:"Node_934:0",dtype:float32,shape:[1, 128, 17, 17]}
    out_1 {name:"Node_934:1",dtype:float32,shape:[128]}
    out_2 {name:"Node_934:2",dtype:float32,shape:[128]}
    attrs {'axis': 1, 'epsilon': 0.0010000000474974513, 'center': 1, 'scale': 0}
  }
}
layer {
  name:"Node_936"
  type:"nn_relu"
  top:"Node_936"
  bottom:"Node_934"
  layer_param {
    idx:936
    in_0 {name:"Node_934:0",dtype:float32,shape:[1, 128, 17, 17]}
    out_0 {name:"Node_936:0",dtype:float32,shape:[1, 128, 17, 17]}
  }
}
layer {
  name:"Node_938"
  type:"const"
  top:"Node_938"
  layer_param {
    idx:938
    out_0 {name:"Node_938:0",dtype:float32,shape:[192, 128, 1, 7]}
  }
}
layer {
  name:"Node_939"
  type:"annotation_compiler_begin"
  top:"Node_939"
  bottom:"Node_938"
  layer_param {
    idx:939
    in_0 {name:"Node_938:0",dtype:float32,shape:[192, 128, 1, 7]}
    out_0 {name:"Node_939:0",dtype:float32,shape:[192, 128, 1, 7]}
    attrs {'compiler': 'tensorrt'}
  }
}
layer {
  name:"Node_940"
  type:"nn_conv2d"
  top:"Node_940"
  bottom:"Node_936"
  bottom:"Node_939"
  layer_param {
    idx:940
    in_0 {name:"Node_936:0",dtype:float32,shape:[1, 128, 17, 17]}
    in_1 {name:"Node_939:0",dtype:float32,shape:[192, 128, 1, 7]}
    out_0 {name:"Node_940:0",dtype:float32,shape:[1, 192, 17, 17]}
    attrs {'strides': [1, 1], 'padding': [0, 3, 0, 3], 'dilation': [1, 1], 'groups': 1, 'channels': 192, 'kernel_size': [1, 7], 'data_layout': 'NCHW', 'kernel_layout': 'OIHW', 'out_layout': '', 'out_dtype': ''}
  }
}
layer {
  name:"Node_942"
  type:"const"
  top:"Node_942"
  layer_param {
    idx:942
    out_0 {name:"Node_942:0",dtype:float32,shape:[192]}
  }
}
layer {
  name:"Node_943"
  type:"annotation_compiler_begin"
  top:"Node_943"
  bottom:"Node_942"
  layer_param {
    idx:943
    in_0 {name:"Node_942:0",dtype:float32,shape:[192]}
    out_0 {name:"Node_943:0",dtype:float32,shape:[192]}
    attrs {'compiler': 'tensorrt'}
  }
}
layer {
  name:"Node_945"
  type:"const"
  top:"Node_945"
  layer_param {
    idx:945
    out_0 {name:"Node_945:0",dtype:float32,shape:[192]}
  }
}
layer {
  name:"Node_946"
  type:"annotation_compiler_begin"
  top:"Node_946"
  bottom:"Node_945"
  layer_param {
    idx:946
    in_0 {name:"Node_945:0",dtype:float32,shape:[192]}
    out_0 {name:"Node_946:0",dtype:float32,shape:[192]}
    attrs {'compiler': 'tensorrt'}
  }
}
layer {
  name:"Node_948"
  type:"const"
  top:"Node_948"
  layer_param {
    idx:948
…
    attrs {'strides': [1, 1], 'padding': [0, 1, 0, 1], 'dilation': [1, 1], 'groups': 1, 'channels': 384, 'kernel_size': [1, 3], 'data_layout': 'NCHW', 'kernel_layout': 'OIHW', 'out_layout': '', 'out_dtype': ''}
  }
}
layer {
  name:"Node_1927"
  type:"const"
  top:"Node_1927"
  layer_param {
    idx:1927
    out_0 {name:"Node_1927:0",dtype:float32,shape:[384]}
  }
}
layer {
  name:"Node_1928"
  type:"annotation_compiler_begin"
  top:"Node_1928"
  bottom:"Node_1927"
  layer_param {
    idx:1928
    in_0 {name:"Node_1927:0",dtype:float32,shape:[384]}
    out_0 {name:"Node_1928:0",dtype:float32,shape:[384]}
    attrs {'compiler': 'tensorrt'}
  }
}
layer {
  name:"Node_1930"
  type:"const"
  top:"Node_1930"
  layer_param {
    idx:1930
    out_0 {name:"Node_1930:0",dtype:float32,shape:[384]}
  }
}
layer {
  name:"Node_1931"
  type:"annotation_compiler_begin"
  top:"Node_1931"
  bottom:"Node_1930"
  layer_param {
    idx:1931
    in_0 {name:"Node_1930:0",dtype:float32,shape:[384]}
    out_0 {name:"Node_1931:0",dtype:float32,shape:[384]}
    attrs {'compiler': 'tensorrt'}
  }
}
layer {
  name:"Node_1933"
  type:"const"
  top:"Node_1933"
  layer_param {
    idx:1933
    out_0 {name:"Node_1933:0",dtype:float32,shape:[384]}
  }
}
layer {
  name:"Node_1934"
  type:"annotation_compiler_begin"
  top:"Node_1934"
  bottom:"Node_1933"
  layer_param {
    idx:1934
    in_0 {name:"Node_1933:0",dtype:float32,shape:[384]}
    out_0 {name:"Node_1934:0",dtype:float32,shape:[384]}
    attrs {'compiler': 'tensorrt'}
  }
}
layer {
  name:"Node_1936"
  type:"const"
  top:"Node_1936"
  layer_param {
    idx:1936
    out_0 {name:"Node_1936:0",dtype:float32,shape:[384]}
  }
}
layer {
  name:"Node_1937"
  type:"annotation_compiler_begin"
  top:"Node_1937"
  bottom:"Node_1936"
  layer_param {
    idx:1937
    in_0 {name:"Node_1936:0",dtype:float32,shape:[384]}
    out_0 {name:"Node_1937:0",dtype:float32,shape:[384]}
    attrs {'compiler': 'tensorrt'}
  }
}
layer {
  name:"Node_1938"
  type:"nn_batch_norm"
  top:"Node_1938"
  bottom:"Node_1925"
  bottom:"Node_1928"
  bottom:"Node_1931"
  bottom:"Node_1934"
  bottom:"Node_1937"
  layer_param {
    idx:1938
    in_0 {name:"Node_1925:0",dtype:float32,shape:[1, 384, 8, 8]}
    in_1 {name:"Node_1928:0",dtype:float32,shape:[384]}
    in_2 {name:"Node_1931:0",dtype:float32,shape:[384]}
    in_3 {name:"Node_1934:0",dtype:float32,shape:[384]}
    in_4 {name:"Node_1937:0",dtype:float32,shape:[384]}
    out_0 {name:"Node_1938:0",dtype:float32,shape:[1, 384, 8, 8]}
    out_1 {name:"Node_1938:1",dtype:float32,shape:[384]}
    out_2 {name:"Node_1938:2",dtype:float32,shape:[384]}
    attrs {'axis': 1, 'epsilon': 0.0010000000474974513, 'center': 1, 'scale': 0}
  }
}
layer {
  name:"Node_1940"
  type:"nn_relu"
  top:"Node_1940"
  bottom:"Node_1938"
  layer_param {
    idx:1940
    in_0 {name:"Node_1938:0",dtype:float32,shape:[1, 384, 8, 8]}
    out_0 {name:"Node_1940:0",dtype:float32,shape:[1, 384, 8, 8]}
  }
}
layer {
  name:"Node_1946"
  type:"const"
  top:"Node_1946"
  layer_param {
    idx:1946
    out_0 {name:"Node_1946:0",dtype:float32,shape:[384, 384, 3, 1]}
  }
}
layer {
  name:"Node_1947"
  type:"annotation_compiler_begin"
  top:"Node_1947"
  bottom:"Node_1946"
  layer_param {
    idx:1947
    in_0 {name:"Node_1946:0",dtype:float32,shape:[384, 384, 3, 1]}
    out_0 {name:"Node_1947:0",dtype:float32,shape:[384, 384, 3, 1]}
    attrs {'compiler': 'tensorrt'}
  }
}
layer {
  name:"Node_1948"
  type:"nn_conv2d"
  top:"Node_1948"
  bottom:"Node_1921"
  bottom:"Node_1947"
  layer_param {
    idx:1948
    in_0 {name:"Node_1921:0",dtype:float32,shape:[1, 384, 8, 8]}
    in_1 {name:"Node_1947:0",dtype:float32,shape:[384, 384, 3, 1]}
    out_0 {name:"Node_1948:0",dtype:float32,shape:[1, 384, 8, 8]}
    attrs {'strides': [1, 1], 'padding': [1, 0, 1, 0], 'dilation': [1, 1], 'groups': 1, 'channels': 384, 'kernel_size': [3, 1], 'data_layout': 'NCHW', 'kernel_layout': 'OIHW', 'out_layout': '', 'out_dtype': ''}
  }
}
layer {
  name:"Node_1950"
  type:"const"
  top:"Node_1950"
  layer_param {
    idx:1950
    out_0 {name:"Node_1950:0",dtype:float32,shape:[384]}
  }
}
layer {
  name:"Node_1951"
  type:"annotation_compiler_begin"
  top:"Node_1951"
  bottom:"Node_1950"
  layer_param {
    idx:1951
    in_0 {name:"Node_1950:0",dtype:float32,shape:[384]}
    out_0 {name:"Node_1951:0",dtype:float32,shape:[384]}
    attrs {'compiler': 'tensorrt'}
  }
}
layer {
  name:"Node_1953"
  type:"const"
  top:"Node_1953"
  layer_param {
    idx:1953
    out_0 {name:"Node_1953:0",dtype:float32,shape:[384]}
  }
}
layer {
  name:"Node_1954"
  type:"annotation_compiler_begin"
  top:"Node_1954"
  bottom:"Node_1953"
  layer_param {
    idx:1954
    in_0 {name:"Node_1953:0",dtype:float32,shape:[384]}
    out_0 {name:"Node_1954:0",dtype:float32,shape:[384]}
    attrs {'compiler': 'tensorrt'}
  }
}
layer {
  name:"Node_1956"
  type:"const"
  top:"Node_1956"
  layer_param {
    idx:1956
    out_0 {name:"Node_1956:0",dtype:float32,shape:[384]}
  }
}
layer {
  name:"Node_1957"
  type:"annotation_compiler_begin"
  top:"Node_1957"
  bottom:"Node_1956"
  layer_param {
    idx:1957
    in_0 {name:"Node_1956:0",dtype:float32,shape:[384]}
    out_0 {name:"Node_1957:0",dtype:float32,shape:[384]}
    attrs {'compiler': 'tensorrt'}
  }
}
layer {
  name:"Node_1959"
  type:"const"
  top:"Node_1959"
  layer_param {
    idx:1959
    out_0 {name:"Node_1959:0",dtype:float32,shape:[384]}
  }
}
layer {
  name:"Node_1960"
  type:"annotation_compiler_begin"
  top:"Node_1960"
  bottom:"Node_1959"
  layer_param {
    idx:1960
    in_0 {name:"Node_1959:0",dtype:float32,shape:[384]}
    out_0 {name:"Node_1960:0",dtype:float32,shape:[384]}
    attrs {'compiler': 'tensorrt'}
  }
}
layer {
  name:"Node_1961"
  type:"nn_batch_norm"
  top:"Node_1961"
  bottom:"Node_1948"
  bottom:"Node_1951"
  bottom:"Node_1954"
  bottom:"Node_1957"
  bottom:"Node_1960"
  layer_param {
    idx:1961
    in_0 {name:"Node_1948:0",dtype:float32,shape:[1, 384, 8, 8]}
    in_1 {name:"Node_1951:0",dtype:float32,shape:[384]}
    in_2 {name:"Node_1954:0",dtype:float32,shape:[384]}
    in_3 {name:"Node_1957:0",dtype:float32,shape:[384]}
    in_4 {name:"Node_1960:0",dtype:float32,shape:[384]}
    out_0 {name:"Node_1961:0",dtype:float32,shape:[1, 384, 8, 8]}
    out_1 {name:"Node_1961:1",dtype:float32,shape:[384]}
    out_2 {name:"Node_1961:2",dtype:float32,shape:[384]}
    attrs {'axis': 1, 'epsilon': 0.0010000000474974513, 'center': 1, 'scale': 0}
  }
}
layer {
  name:"Node_1963"
  type:"nn_relu"
  top:"Node_1963"
  bottom:"Node_1961"
  layer_param {
    idx:1963
    in_0 {name:"Node_1961:0",dtype:float32,shape:[1, 384, 8, 8]}
    out_0 {name:"Node_1963:0",dtype:float32,shape:[1, 384, 8, 8]}
  }
}
layer {
  name:"Node_1969"
  type:"nn_avg_pool2d"
  top:"Node_1969"
  bottom:"Node_1786"
  layer_param {
    idx:1969
    in_0 {name:"Node_1786:0",dtype:float32,shape:[1, 1280, 8, 8]}
    out_0 {name:"Node_1969:0",dtype:float32,shape:[1, 1280, 8, 8]}
    attrs {'pool_size': [3, 3], 'strides': [1, 1], 'dilation': [1, 1], 'padding': [1, 1, 1, 1], 'layout': 'NCHW', 'ceil_mode': 0, 'count_include_pad': 0}
  }
}
layer {
  name:"Node_1971"
  type:"const"
  top:"Node_1971"
  layer_param {
    idx:1971
    out_0 {name:"Node_1971:0",dtype:float32,shape:[192, 1280, 1, 1]}
  }
}
layer {
  name:"Node_1972"
  type:"annotation_compiler_begin"
  top:"Node_1972"
  bottom:"Node_1971"
  layer_param {
    idx:1972
    in_0 {name:"Node_1971:0",dtype:float32,shape:[192, 1280, 1, 1]}
    out_0 {name:"Node_1972:0",dtype:float32,shape:[192, 1280, 1, 1]}
    attrs {'compiler': 'tensorrt'}
  }
}
layer {
  name:"Node_1973"
  type:"nn_conv2d"
  top:"Node_1973"
  bottom:"Node_1969"
  bottom:"Node_1972"
  layer_param {
    idx:1973
    in_0 {name:"Node_1969:0",dtype:float32,shape:[1, 1280, 8, 8]}
    in_1 {name:"Node_1972:0",dtype:float32,shape:[192, 1280, 1, 1]}
    out_0 {name:"Node_1973:0",dtype:float32,shape:[1, 192, 8, 8]}
    attrs {'strides': [1, 1], 'padding': [0, 0, 0, 0], 'dilation': [1, 1], 'groups': 1, 'channels': 192, 'kernel_size': [1, 1], 'data_layout': 'NCHW', 'kernel_layout': 'OIHW', 'out_layout': '', 'out_dtype': ''}
  }
}
layer {
  name:"Node_1975"
  type:"const"
  top:"Node_1975"
  layer_param {
    idx:1975
    out_0 {name:"Node_1975:0",dtype:float32,shape:[192]}
  }
}
layer {
  name:"Node_1976"
  type:"annotation_compiler_begin"
  top:"Node_1976"
  bottom:"Node_1975"
  layer_param {
    idx:1976
    in_0 {name:"Node_1975:0",dtype:float32,shape:[192]}
    out_0 {name:"Node_1976:0",dtype:float32,shape:[192]}
    attrs {'compiler': 'tensorrt'}
  }
}
layer {
  name:"Node_1978"
  type:"const"
  top:"Node_1978"
  layer_param {
    idx:1978
    out_0 {name:"Node_1978:0",dtype:float32,shape:[192]}
  }
}
layer {
  name:"Node_1979"
  type:"annotation_compiler_begin"
  top:"Node_1979"
  bottom:"Node_1978"
  layer_param {
    idx:1979
    in_0 {name:"Node_1978:0",dtype:float32,shape:[192]}
    out_0 {name:"Node_1979:0",dtype:float32,shape:[192]}
    attrs {'compiler': 'tensorrt'}
  }
}
layer {
  name:"Node_1981"
  type:"const"
  top:"Node_1981"
  layer_param {
    idx:1981
    out_0 {name:"Node_1981:0",dtype:float32,shape:[192]}
  }
}
layer {
  name:"Node_1982"
  type:"annotation_compiler_begin"
  top:"Node_1982"
  bottom:"Node_1981"
  layer_param {
    idx:1982
    in_0 {name:"Node_1981:0",dtype:float32,shape:[192]}
    out_0 {name:"Node_1982:0",dtype:float32,shape:[192]}
    attrs {'compiler': 'tensorrt'}
  }
}
layer {
  name:"Node_1984"
  type:"const"
  top:"Node_1984"
  layer_param {
    idx:1984
    out_0 {name:"Node_1984:0",dtype:float32,shape:[192]}
  }
}
layer {
  name:"Node_1985"
  type:"annotation_compiler_begin"
  top:"Node_1985"
  bottom:"Node_1984"
  layer_param {
    idx:1985
    in_0 {name:"Node_1984:0",dtype:float32,shape:[192]}
    out_0 {name:"Node_1985:0",dtype:float32,shape:[192]}
    attrs {'compiler': 'tensorrt'}
  }
}
layer {
  name:"Node_1986"
  type:"nn_batch_norm"
  top:"Node_1986"
  bottom:"Node_1973"
  bottom:"Node_1976"
  bottom:"Node_1979"
  bottom:"Node_1982"
  bottom:"Node_1985"
  layer_param {
    idx:1986
    in_0 {name:"Node_1973:0",dtype:float32,shape:[1, 192, 8, 8]}
    in_1 {name:"Node_1976:0",dtype:float32,shape:[192]}
    in_2 {name:"Node_1979:0",dtype:float32,shape:[192]}
    in_3 {name:"Node_1982:0",dtype:float32,shape:[192]}
    in_4 {name:"Node_1985:0",dtype:float32,shape:[192]}
    out_0 {name:"Node_1986:0",dtype:float32,shape:[1, 192, 8, 8]}
    out_1 {name:"Node_1986:1",dtype:float32,shape:[192]}
    out_2 {name:"Node_1986:2",dtype:float32,shape:[192]}
    attrs {'axis': 1, 'epsilon': 0.0010000000474974513, 'center': 1, 'scale': 0}
  }
}
layer {
  name:"Node_1988"
  type:"nn_relu"
  top:"Node_1988"
  bottom:"Node_1986"
  layer_param {
    idx:1988
    in_0 {name:"Node_1986:0",dtype:float32,shape:[1, 192, 8, 8]}
    out_0 {name:"Node_1988:0",dtype:float32,shape:[1, 192, 8, 8]}
  }
}
layer {
  name:"Node_1990"
  type:"concatenate"
  top:"Node_1990"
  bottom:"Node_1805"
  bottom:"Node_1850"
  bottom:"Node_1873"
  bottom:"Node_1940"
  bottom:"Node_1963"
  bottom:"Node_1988"
  layer_param {
    idx:1990
    in_0 {name:"Node_1805:0",dtype:float32,shape:[1, 320, 8, 8]}
    in_1 {name:"Node_1850:0",dtype:float32,shape:[1, 384, 8, 8]}
    in_2 {name:"Node_1873:0",dtype:float32,shape:[1, 384, 8, 8]}
    in_3 {name:"Node_1940:0",dtype:float32,shape:[1, 384, 8, 8]}
    in_4 {name:"Node_1963:0",dtype:float32,shape:[1, 384, 8, 8]}
    in_5 {name:"Node_1988:0",dtype:float32,shape:[1, 192, 8, 8]}
    out_0 {name:"Node_1990:0",dtype:float32,shape:[1, 2048, 8, 8]}
    attrs {'axis': 1}
  }
}
layer {
  name:"Node_1992"
  type:"const"
  top:"Node_1992"
  layer_param {
    idx:1992
    out_0 {name:"Node_1992:0",dtype:float32,shape:[320, 2048, 1, 1]}
  }
}
layer {
  name:"Node_1993"
  type:"annotation_compiler_begin"
  top:"Node_1993"
  bottom:"Node_1992"
  layer_param {
    idx:1993
    in_0 {name:"Node_1992:0",dtype:float32,shape:[320, 2048, 1, 1]}
    out_0 {name:"Node_1993:0",dtype:float32,shape:[320, 2048, 1, 1]}
    attrs {'compiler': 'tensorrt'}
  }
}
layer {
  name:"Node_1994"
  type:"nn_conv2d"
  top:"Node_1994"
  bottom:"Node_1990"
  bottom:"Node_1993"
  layer_param {
    idx:1994
    in_0 {name:"Node_1990:0",dtype:float32,shape:[1, 2048, 8, 8]}
    in_1 {name:"Node_1993:0",dtype:float32,shape:[320, 2048, 1, 1]}
    out_0 {name:"Node_1994:0",dtype:float32,shape:[1, 320, 8, 8]}
    attrs {'strides': [1, 1], 'padding': [0, 0, 0, 0], 'dilation': [1, 1], 'groups': 1, 'channels': 320, 'kernel_size': [1, 1], 'data_layout': 'NCHW', 'kernel_layout': 'OIHW', 'out_layout': '', 'out_dtype': ''}
  }
}
layer {
  name:"Node_1996"
  type:"const"
  top:"Node_1996"
  layer_param {
    idx:1996
    out_0 {name:"Node_1996:0",dtype:float32,shape:[320]}
  }
}
layer {
  name:"Node_1997"
  type:"annotation_compiler_begin"
  top:"Node_1997"
  bottom:"Node_1996"
  layer_param {
    idx:1997
    in_0 {name:"Node_1996:0",dtype:float32,shape:[320]}
    out_0 {name:"Node_1997:0",dtype:float32,shape:[320]}
    attrs {'compiler': 'tensorrt'}
  }
}
layer {
  name:"Node_1999"
  type:"const"
  top:"Node_1999"
  layer_param {
    idx:1999
    out_0 {name:"Node_1999:0",dtype:float32,shape:[320]}
  }
}
layer {
  name:"Node_2000"
  type:"annotation_compiler_begin"
  top:"Node_2000"
  bottom:"Node_1999"
  layer_param {
    idx:2000
    in_0 {name:"Node_1999:0",dtype:float32,shape:[320]}
    out_0 {name:"Node_2000:0",dtype:float32,shape:[320]}
    attrs {'compiler': 'tensorrt'}
  }
}
layer {
  name:"Node_2002"
  type:"const"
  top:"Node_2002"
  layer_param {
    idx:2002
    out_0 {name:"Node_2002:0",dtype:float32,shape:[320]}
  }
}
layer {
  name:"Node_2003"
  type:"annotation_compiler_begin"
  top:"Node_2003"
  bottom:"Node_2002"
  layer_param {
    idx:2003
    in_0 {name:"Node_2002:0",dtype:float32,shape:[320]}
    out_0 {name:"Node_2003:0",dtype:float32,shape:[320]}
    attrs {'compiler': 'tensorrt'}
  }
}
layer {
  name:"Node_2005"
  type:"const"
  top:"Node_2005"
  layer_param {
    idx:2005
    out_0 {name:"Node_2005:0",dtype:float32,shape:[320]}
  }
}
layer {
  name:"Node_2006"
  type:"annotation_compiler_begin"
  top:"Node_2006"
  bottom:"Node_2005"
  layer_param {
    idx:2006
    in_0 {name:"Node_2005:0",dtype:float32,shape:[320]}
    out_0 {name:"Node_2006:0",dtype:float32,shape:[320]}
    attrs {'compiler': 'tensorrt'}
  }
}
layer {
  name:"Node_2007"
  type:"nn_batch_norm"
  top:"Node_2007"
  bottom:"Node_1994"
  bottom:"Node_1997"
  bottom:"Node_2000"
  bottom:"Node_2003"
  bottom:"Node_2006"
  layer_param {
    idx:2007
    in_0 {name:"Node_1994:0",dtype:float32,shape:[1, 320, 8, 8]}
    in_1 {name:"Node_1997:0",dtype:float32,shape:[320]}
    in_2 {name:"Node_2000:0",dtype:float32,shape:[320]}
    in_3 {name:"Node_2003:0",dtype:float32,shape:[320]}
    in_4 {name:"Node_2006:0",dtype:float32,shape:[320]}
    out_0 {name:"Node_2007:0",dtype:float32,shape:[1, 320, 8, 8]}
    out_1 {name:"Node_2007:1",dtype:float32,shape:[320]}
    out_2 {name:"Node_2007:2",dtype:float32,shape:[320]}
    attrs {'axis': 1, 'epsilon': 0.0010000000474974513, 'center': 1, 'scale': 0}
  }
}
layer {
  name:"Node_2009"
  type:"nn_relu"
  top:"Node_2009"
  bottom:"Node_2007"
  layer_param {
    idx:2009
    in_0 {name:"Node_2007:0",dtype:float32,shape:[1, 320, 8, 8]}
    out_0 {name:"Node_2009:0",dtype:float32,shape:[1, 320, 8, 8]}
  }
}
layer {
  name:"Node_2018"
  type:"const"
  top:"Node_2018"
  layer_param {
    idx:2018
    out_0 {name:"Node_2018:0",dtype:float32,shape:[384, 2048, 1, 1]}
  }
}
layer {
  name:"Node_2019"
  type:"annotation_compiler_begin"
  top:"Node_2019"
  bottom:"Node_2018"
  layer_param {
    idx:2019
    in_0 {name:"Node_2018:0",dtype:float32,shape:[384, 2048, 1, 1]}
    out_0 {name:"Node_2019:0",dtype:float32,shape:[384, 2048, 1, 1]}
    attrs {'compiler': 'tensorrt'}
  }
}
layer {
  name:"Node_2020"
  type:"nn_conv2d"
  top:"Node_2020"
  bottom:"Node_1990"
  bottom:"Node_2019"
  layer_param {
    idx:2020
    in_0 {name:"Node_1990:0",dtype:float32,shape:[1, 2048, 8, 8]}
    in_1 {name:"Node_2019:0",dtype:float32,shape:[384, 2048, 1, 1]}
    out_0 {name:"Node_2020:0",dtype:float32,shape:[1, 384, 8, 8]}
    attrs {'strides': [1, 1], 'padding': [0, 0, 0, 0], 'dilation': [1, 1], 'groups': 1, 'channels': 384, 'kernel_size': [1, 1], 'data_layout': 'NCHW', 'kernel_layout': 'OIHW', 'out_layout': '', 'out_dtype': ''}
  }
}
layer {
  name:"Node_2022"
  type:"const"
  top:"Node_2022"
  layer_param {
    idx:2022
    out_0 {name:"Node_2022:0",dtype:float32,shape:[384]}
  }
}
layer {
  name:"Node_2023"
  type:"annotation_compiler_begin"
  top:"Node_2023"
  bottom:"Node_2022"
  layer_param {
    idx:2023
    in_0 {name:"Node_2022:0",dtype:float32,shape:[384]}
    out_0 {name:"Node_2023:0",dtype:float32,shape:[384]}
    attrs {'compiler': 'tensorrt'}
  }
}
layer {
  name:"Node_2025"
  type:"const"
  top:"Node_2025"
  layer_param {
    idx:2025
    out_0 {name:"Node_2025:0",dtype:float32,shape:[384]}
  }
}
layer {
  name:"Node_2026"
  type:"annotation_compiler_begin"
  top:"Node_2026"
  bottom:"Node_2025"
  layer_param {
    idx:2026
    in_0 {name:"Node_2025:0",dtype:float32,shape:[384]}
    out_0 {name:"Node_2026:0",dtype:float32,shape:[384]}
    attrs {'compiler': 'tensorrt'}
  }
}
layer {
  name:"Node_2028"
  type:"const"
  top:"Node_2028"
  layer_param {
    idx:2028
    out_0 {name:"Node_2028:0",dtype:float32,shape:[384]}
  }
}
layer {
  name:"Node_2029"
  type:"annotation_compiler_begin"
  top:"Node_2029"
  bottom:"Node_2028"
  layer_param {
    idx:2029
    in_0 {name:"Node_2028:0",dtype:float32,shape:[384]}
    out_0 {name:"Node_2029:0",dtype:float32,shape:[384]}
    attrs {'compiler': 'tensorrt'}
  }
}
layer {
  name:"Node_2031"
  type:"const"
  top:"Node_2031"
  layer_param {
    idx:2031
    out_0 {name:"Node_2031:0",dtype:float32,shape:[384]}
  }
}
layer {
  name:"Node_2032"
  type:"annotation_compiler_begin"
  top:"Node_2032"
  bottom:"Node_2031"
  layer_param {
    idx:2032
    in_0 {name:"Node_2031:0",dtype:float32,shape:[384]}
    out_0 {name:"Node_2032:0",dtype:float32,shape:[384]}
    attrs {'compiler': 'tensorrt'}
  }
}
layer {
  name:"Node_2033"
  type:"nn_batch_norm"
  top:"Node_2033"
  bottom:"Node_2020"
  bottom:"Node_2023"
  bottom:"Node_2026"
  bottom:"Node_2029"
  bottom:"Node_2032"
  layer_param {
    idx:2033
    in_0 {name:"Node_2020:0",dtype:float32,shape:[1, 384, 8, 8]}
    in_1 {name:"Node_2023:0",dtype:float32,shape:[384]}
    in_2 {name:"Node_2026:0",dtype:float32,shape:[384]}
    in_3 {name:"Node_2029:0",dtype:float32,shape:[384]}
    in_4 {name:"Node_2032:0",dtype:float32,shape:[384]}
    out_0 {name:"Node_2033:0",dtype:float32,shape:[1, 384, 8, 8]}
    out_1 {name:"Node_2033:1",dtype:float32,shape:[384]}
    out_2 {name:"Node_2033:2",dtype:float32,shape:[384]}
    attrs {'axis': 1, 'epsilon': 0.0010000000474974513, 'center': 1, 'scale': 0}
  }
}
layer {
  name:"Node_2035"
  type:"nn_relu"
  top:"Node_2035"
  bottom:"Node_2033"
  layer_param {
    idx:2035
    in_0 {name:"Node_2033:0",dtype:float32,shape:[1, 384, 8, 8]}
    out_0 {name:"Node_2035:0",dtype:float32,shape:[1, 384, 8, 8]}
  }
}
layer {
  name:"Node_2037"
  type:"const"
  top:"Node_2037"
  layer_param {
    idx:2037
    out_0 {name:"Node_2037:0",dtype:float32,shape:[384, 384, 1, 3]}
  }
}
layer {
  name:"Node_2038"
  type:"annotation_compiler_begin"
  top:"Node_2038"
  bottom:"Node_2037"
  layer_param {
    idx:2038
    in_0 {name:"Node_2037:0",dtype:float32,shape:[384, 384, 1, 3]}
    out_0 {name:"Node_2038:0",dtype:float32,shape:[384, 384, 1, 3]}
    attrs {'compiler': 'tensorrt'}
  }
}
layer {
  name:"Node_2039"
  type:"nn_conv2d"
  top:"Node_2039"
  bottom:"Node_2035"
  bottom:"Node_2038"
  layer_param {
    idx:2039
    in_0 {name:"Node_2035:0",dtype:float32,shape:[1, 384, 8, 8]}
    in_1 {name:"Node_2038:0",dtype:float32,shape:[384, 384, 1, 3]}
    out_0 {name:"Node_2039:0",dtype:float32,shape:[1, 384, 8, 8]}
    attrs {'strides': [1, 1], 'padding': [0, 1, 0, 1], 'dilation': [1, 1], 'groups': 1, 'channels': 384, 'kernel_size': [1, 3], 'data_layout': 'NCHW', 'kernel_layout': 'OIHW', 'out_layout': '', 'out_dtype': ''}
  }
}
layer {
  name:"Node_2041"
  type:"const"
  top:"Node_2041"
  layer_param {
    idx:2041
    out_0 {name:"Node_2041:0",dtype:float32,shape:[384]}
  }
}
layer {
  name:"Node_2042"
  type:"annotation_compiler_begin"
  top:"Node_2042"
  bottom:"Node_2041"
  layer_param {
    idx:2042
    in_0 {name:"Node_2041:0",dtype:float32,shape:[384]}
    out_0 {name:"Node_2042:0",dtype:float32,shape:[384]}
    attrs {'compiler': 'tensorrt'}
  }
}
layer {
  name:"Node_2044"
  type:"const"
  top:"Node_2044"
  layer_param {
    idx:2044
    out_0 {name:"Node_2044:0",dtype:float32,shape:[384]}
  }
}
layer {
  name:"Node_2045"
  type:"annotation_compiler_begin"
  top:"Node_2045"
  bottom:"Node_2044"
  layer_param {
    idx:2045
    in_0 {name:"Node_2044:0",dtype:float32,shape:[384]}
    out_0 {name:"Node_2045:0",dtype:float32,shape:[384]}
    attrs {'compiler': 'tensorrt'}
  }
}
layer {
  name:"Node_2047"
  type:"const"
  top:"Node_2047"
  layer_param {
    idx:2047
    out_0 {name:"Node_2047:0",dtype:float32,shape:[384]}
  }
}
layer {
  name:"Node_2048"
  type:"annotation_compiler_begin"
  top:"Node_2048"
  bottom:"Node_2047"
  layer_param {
    idx:2048
    in_0 {name:"Node_2047:0",dtype:float32,shape:[384]}
    out_0 {name:"Node_2048:0",dtype:float32,shape:[384]}
    attrs {'compiler': 'tensorrt'}
  }
}
layer {
  name:"Node_2050"
  type:"const"
  top:"Node_2050"
  layer_param {
    idx:2050
    out_0 {name:"Node_2050:0",dtype:float32,shape:[384]}
  }
}
layer {
  name:"Node_2051"
  type:"annotation_compiler_begin"
  top:"Node_2051"
  bottom:"Node_2050"
  layer_param {
    idx:2051
    in_0 {name:"Node_2050:0",dtype:float32,shape:[384]}
    out_0 {name:"Node_2051:0",dtype:float32,shape:[384]}
    attrs {'compiler': 'tensorrt'}
  }
}
layer {
  name:"Node_2052"
  type:"nn_batch_norm"
  top:"Node_2052"
  bottom:"Node_2039"
  bottom:"Node_2042"
  bottom:"Node_2045"
  bottom:"Node_2048"
  bottom:"Node_2051"
  layer_param {
    idx:2052
    in_0 {name:"Node_2039:0",dtype:float32,shape:[1, 384, 8, 8]}
    in_1 {name:"Node_2042:0",dtype:float32,shape:[384]}
    in_2 {name:"Node_2045:0",dtype:float32,shape:[384]}
    in_3 {name:"Node_2048:0",dtype:float32,shape:[384]}
    in_4 {name:"Node_2051:0",dtype:float32,shape:[384]}
    out_0 {name:"Node_2052:0",dtype:float32,shape:[1, 384, 8, 8]}
    out_1 {name:"Node_2052:1",dtype:float32,shape:[384]}
    out_2 {name:"Node_2052:2",dtype:float32,shape:[384]}
    attrs {'axis': 1, 'epsilon': 0.0010000000474974513, 'center': 1, 'scale': 0}
  }
}
layer {
  name:"Node_2054"
  type:"nn_relu"
  top:"Node_2054"
  bottom:"Node_2052"
  layer_param {
    idx:2054
    in_0 {name:"Node_2052:0",dtype:float32,shape:[1, 384, 8, 8]}
    out_0 {name:"Node_2054:0",dtype:float32,shape:[1, 384, 8, 8]}
  }
}
layer {
  name:"Node_2060"
  type:"const"
  top:"Node_2060"
  layer_param {
    idx:2060
    out_0 {name:"Node_2060:0",dtype:float32,shape:[384, 384, 3, 1]}
  }
}
layer {
  name:"Node_2061"
  type:"annotation_compiler_begin"
  top:"Node_2061"
  bottom:"Node_2060"
  layer_param {
    idx:2061
    in_0 {name:"Node_2060:0",dtype:float32,shape:[384, 384, 3, 1]}
    out_0 {name:"Node_2061:0",dtype:float32,shape:[384, 384, 3, 1]}
    attrs {'compiler': 'tensorrt'}
  }
}
layer {
  name:"Node_2062"
  type:"nn_conv2d"
  top:"Node_2062"
  bottom:"Node_2035"
  bottom:"Node_2061"
  layer_param {
    idx:2062
    in_0 {name:"Node_2035:0",dtype:float32,shape:[1, 384, 8, 8]}
    in_1 {name:"Node_2061:0",dtype:float32,shape:[384, 384, 3, 1]}
    out_0 {name:"Node_2062:0",dtype:float32,shape:[1, 384, 8, 8]}
    attrs {'strides': [1, 1], 'padding': [1, 0, 1, 0], 'dilation': [1, 1], 'groups': 1, 'channels': 384, 'kernel_size': [3, 1], 'data_layout': 'NCHW', 'kernel_layout': 'OIHW', 'out_layout': '', 'out_dtype': ''}
  }
}
layer {
  name:"Node_2064"
  type:"const"
  top:"Node_2064"
  layer_param {
    idx:2064
    out_0 {name:"Node_2064:0",dtype:float32,shape:[384]}
  }
}
layer {
  name:"Node_2065"
  type:"annotation_compiler_begin"
  top:"Node_2065"
  bottom:"Node_2064"
  layer_param {
    idx:2065
    in_0 {name:"Node_2064:0",dtype:float32,shape:[384]}
    out_0 {name:"Node_2065:0",dtype:float32,shape:[384]}
    attrs {'compiler': 'tensorrt'}
  }
}
layer {
  name:"Node_2067"
  type:"const"
  top:"Node_2067"
  layer_param {
    idx:2067
    out_0 {name:"Node_2067:0",dtype:float32,shape:[384]}
  }
}
layer {
  name:"Node_2068"
  type:"annotation_compiler_begin"
  top:"Node_2068"
  bottom:"Node_2067"
  layer_param {
    idx:2068
    in_0 {name:"Node_2067:0",dtype:float32,shape:[384]}
    out_0 {name:"Node_2068:0",dtype:float32,shape:[384]}
    attrs {'compiler': 'tensorrt'}
  }
}
layer {
  name:"Node_2070"
  type:"const"
  top:"Node_2070"
  layer_param {
    idx:2070
    out_0 {name:"Node_2070:0",dtype:float32,shape:[384]}
  }
}
layer {
  name:"Node_2071"
  type:"annotation_compiler_begin"
  top:"Node_2071"
  bottom:"Node_2070"
  layer_param {
    idx:2071
    in_0 {name:"Node_2070:0",dtype:float32,shape:[384]}
    out_0 {name:"Node_2071:0",dtype:float32,shape:[384]}
    attrs {'compiler': 'tensorrt'}
  }
}
layer {
  name:"Node_2073"
  type:"const"
  top:"Node_2073"
  layer_param {
    idx:2073
    out_0 {name:"Node_2073:0",dtype:float32,shape:[384]}
  }
}
layer {
  name:"Node_2074"
  type:"annotation_compiler_begin"
  top:"Node_2074"
  bottom:"Node_2073"
  layer_param {
    idx:2074
    in_0 {name:"Node_2073:0",dtype:float32,shape:[384]}
    out_0 {name:"Node_2074:0",dtype:float32,shape:[384]}
    attrs {'compiler': 'tensorrt'}
  }
}
layer {
  name:"Node_2075"
  type:"nn_batch_norm"
  top:"Node_2075"
  bottom:"Node_2062"
  bottom:"Node_2065"
  bottom:"Node_2068"
  bottom:"Node_2071"
  bottom:"Node_2074"
  layer_param {
    idx:2075
    in_0 {name:"Node_2062:0",dtype:float32,shape:[1, 384, 8, 8]}
    in_1 {name:"Node_2065:0",dtype:float32,shape:[384]}
    in_2 {name:"Node_2068:0",dtype:float32,shape:[384]}
    in_3 {name:"Node_2071:0",dtype:float32,shape:[384]}
    in_4 {name:"Node_2074:0",dtype:float32,shape:[384]}
    out_0 {name:"Node_2075:0",dtype:float32,shape:[1, 384, 8, 8]}
    out_1 {name:"Node_2075:1",dtype:float32,shape:[384]}
    out_2 {name:"Node_2075:2",dtype:float32,shape:[384]}
    attrs {'axis': 1, 'epsilon': 0.0010000000474974513, 'center': 1, 'scale': 0}
  }
}
layer {
  name:"Node_2077"
  type:"nn_relu"
  top:"Node_2077"
  bottom:"Node_2075"
  layer_param {
    idx:2077
    in_0 {name:"Node_2075:0",dtype:float32,shape:[1, 384, 8, 8]}
    out_0 {name:"Node_2077:0",dtype:float32,shape:[1, 384, 8, 8]}
  }
}
layer {
  name:"Node_2089"
  type:"const"
  top:"Node_2089"
  layer_param {
    idx:2089
    out_0 {name:"Node_2089:0",dtype:float32,shape:[448, 2048, 1, 1]}
  }
}
layer {
  name:"Node_2090"
  type:"annotation_compiler_begin"
  top:"Node_2090"
  bottom:"Node_2089"
  layer_param {
    idx:2090
    in_0 {name:"Node_2089:0",dtype:float32,shape:[448, 2048, 1, 1]}
    out_0 {name:"Node_2090:0",dtype:float32,shape:[448, 2048, 1, 1]}
    attrs {'compiler': 'tensorrt'}
  }
}
layer {
  name:"Node_2091"
  type:"nn_conv2d"
  top:"Node_2091"
  bottom:"Node_1990"
  bottom:"Node_2090"
  layer_param {
    idx:2091
    in_0 {name:"Node_1990:0",dtype:float32,shape:[1, 2048, 8, 8]}
    in_1 {name:"Node_2090:0",dtype:float32,shape:[448, 2048, 1, 1]}
    out_0 {name:"Node_2091:0",dtype:float32,shape:[1, 448, 8, 8]}
    attrs {'strides': [1, 1], 'padding': [0, 0, 0, 0], 'dilation': [1, 1], 'groups': 1, 'channels': 448, 'kernel_size': [1, 1], 'data_layout': 'NCHW', 'kernel_layout': 'OIHW', 'out_layout': '', 'out_dtype': ''}
  }
}
layer {
  name:"Node_2093"
  type:"const"
  top:"Node_2093"
  layer_param {
    idx:2093
    out_0 {name:"Node_2093:0",dtype:float32,shape:[448]}
  }
}
layer {
  name:"Node_2094"
  type:"annotation_compiler_begin"
  top:"Node_2094"
  bottom:"Node_2093"
  layer_param {
    idx:2094
    in_0 {name:"Node_2093:0",dtype:float32,shape:[448]}
    out_0 {name:"Node_2094:0",dtype:float32,shape:[448]}
    attrs {'compiler': 'tensorrt'}
  }
}
layer {
  name:"Node_2096"
  type:"const"
  top:"Node_2096"
  layer_param {
    idx:2096
    out_0 {name:"Node_2096:0",dtype:float32,shape:[448]}
  }
}
layer {
  name:"Node_2097"
  type:"annotation_compiler_begin"
  top:"Node_2097"
  bottom:"Node_2096"
  layer_param {
    idx:2097
    in_0 {name:"Node_2096:0",dtype:float32,shape:[448]}
    out_0 {name:"Node_2097:0",dtype:float32,shape:[448]}
    attrs {'compiler': 'tensorrt'}
  }
}
layer {
  name:"Node_2099"
  type:"const"
  top:"Node_2099"
  layer_param {
    idx:2099
    out_0 {name:"Node_2099:0",dtype:float32,shape:[448]}
  }
}
layer {
  name:"Node_2100"
  type:"annotation_compiler_begin"
  top:"Node_2100"
  bottom:"Node_2099"
  layer_param {
    idx:2100
    in_0 {name:"Node_2099:0",dtype:float32,shape:[448]}
    out_0 {name:"Node_2100:0",dtype:float32,shape:[448]}
    attrs {'compiler': 'tensorrt'}
  }
}
layer {
  name:"Node_2102"
  type:"const"
  top:"Node_2102"
  layer_param {
    idx:2102
    out_0 {name:"Node_2102:0",dtype:float32,shape:[448]}
  }
}
layer {
  name:"Node_2103"
  type:"annotation_compiler_begin"
  top:"Node_2103"
  bottom:"Node_2102"
  layer_param {
    idx:2103
    in_0 {name:"Node_2102:0",dtype:float32,shape:[448]}
    out_0 {name:"Node_2103:0",dtype:float32,shape:[448]}
    attrs {'compiler': 'tensorrt'}
  }
}
layer {
  name:"Node_2104"
  type:"nn_batch_norm"
  top:"Node_2104"
  bottom:"Node_2091"
  bottom:"Node_2094"
  bottom:"Node_2097"
  bottom:"Node_2100"
  bottom:"Node_2103"
  layer_param {
    idx:2104
    in_0 {name:"Node_2091:0",dtype:float32,shape:[1, 448, 8, 8]}
    in_1 {name:"Node_2094:0",dtype:float32,shape:[448]}
    in_2 {name:"Node_2097:0",dtype:float32,shape:[448]}
    in_3 {name:"Node_2100:0",dtype:float32,shape:[448]}
    in_4 {name:"Node_2103:0",dtype:float32,shape:[448]}
    out_0 {name:"Node_2104:0",dtype:float32,shape:[1, 448, 8, 8]}
    out_1 {name:"Node_2104:1",dtype:float32,shape:[448]}
    out_2 {name:"Node_2104:2",dtype:float32,shape:[448]}
    attrs {'axis': 1, 'epsilon': 0.0010000000474974513, 'center': 1, 'scale': 0}
  }
}
layer {
  name:"Node_2106"
  type:"nn_relu"
  top:"Node_2106"
  bottom:"Node_2104"
  layer_param {
    idx:2106
    in_0 {name:"Node_2104:0",dtype:float32,shape:[1, 448, 8, 8]}
    out_0 {name:"Node_2106:0",dtype:float32,shape:[1, 448, 8, 8]}
  }
}
layer {
  name:"Node_2108"
  type:"const"
  top:"Node_2108"
  layer_param {
    idx:2108
    out_0 {name:"Node_2108:0",dtype:float32,shape:[384, 448, 3, 3]}
  }
}
layer {
  name:"Node_2109"
  type:"annotation_compiler_begin"
  top:"Node_2109"
  bottom:"Node_2108"
  layer_param {
    idx:2109
    in_0 {name:"Node_2108:0",dtype:float32,shape:[384, 448, 3, 3]}
    out_0 {name:"Node_2109:0",dtype:float32,shape:[384, 448, 3, 3]}
    attrs {'compiler': 'tensorrt'}
  }
}
layer {
  name:"Node_2110"
  type:"nn_conv2d"
  top:"Node_2110"
  bottom:"Node_2106"
  bottom:"Node_2109"
  layer_param {
    idx:2110
    in_0 {name:"Node_2106:0",dtype:float32,shape:[1, 448, 8, 8]}
    in_1 {name:"Node_2109:0",dtype:float32,shape:[384, 448, 3, 3]}
    out_0 {name:"Node_2110:0",dtype:float32,shape:[1, 384, 8, 8]}
    attrs {'strides': [1, 1], 'padding': [1, 1, 1, 1], 'dilation': [1, 1], 'groups': 1, 'channels': 384, 'kernel_size': [3, 3], 'data_layout': 'NCHW', 'kernel_layout': 'OIHW', 'out_layout': '', 'out_dtype': ''}
  }
}
layer {
  name:"Node_2112"
  type:"const"
  top:"Node_2112"
  layer_param {
    idx:2112
    out_0 {name:"Node_2112:0",dtype:float32,shape:[384]}
  }
}
layer {
  name:"Node_2113"
  type:"annotation_compiler_begin"
  top:"Node_2113"
  bottom:"Node_2112"
  layer_param {
    idx:2113
    in_0 {name:"Node_2112:0",dtype:float32,shape:[384]}
    out_0 {name:"Node_2113:0",dtype:float32,shape:[384]}
    attrs {'compiler': 'tensorrt'}
  }
}
layer {
  name:"Node_2115"
  type:"const"
  top:"Node_2115"
  layer_param {
    idx:2115
    out_0 {name:"Node_2115:0",dtype:float32,shape:[384]}
  }
}
layer {
  name:"Node_2116"
  type:"annotation_compiler_begin"
  top:"Node_2116"
  bottom:"Node_2115"
  layer_param {
    idx:2116
    in_0 {name:"Node_2115:0",dtype:float32,shape:[384]}
    out_0 {name:"Node_2116:0",dtype:float32,shape:[384]}
    attrs {'compiler': 'tensorrt'}
  }
}
layer {
  name:"Node_2118"
  type:"const"
  top:"Node_2118"
  layer_param {
    idx:2118
    out_0 {name:"Node_2118:0",dtype:float32,shape:[384]}
  }
}
layer {
  name:"Node_2119"
  type:"annotation_compiler_begin"
  top:"Node_2119"
  bottom:"Node_2118"
  layer_param {
    idx:2119
    in_0 {name:"Node_2118:0",dtype:float32,shape:[384]}
    out_0 {name:"Node_2119:0",dtype:float32,shape:[384]}
    attrs {'compiler': 'tensorrt'}
  }
}
layer {
  name:"Node_2121"
  type:"const"
  top:"Node_2121"
  layer_param {
    idx:2121
    out_0 {name:"Node_2121:0",dtype:float32,shape:[384]}
  }
}
layer {
  name:"Node_2122"
  type:"annotation_compiler_begin"
  top:"Node_2122"
  bottom:"Node_2121"
  layer_param {
    idx:2122
    in_0 {name:"Node_2121:0",dtype:float32,shape:[384]}
    out_0 {name:"Node_2122:0",dtype:float32,shape:[384]}
    attrs {'compiler': 'tensorrt'}
  }
}
layer {
  name:"Node_2123"
  type:"nn_batch_norm"
  top:"Node_2123"
  bottom:"Node_2110"
  bottom:"Node_2113"
  bottom:"Node_2116"
  bottom:"Node_2119"
  bottom:"Node_2122"
  layer_param {
    idx:2123
    in_0 {name:"Node_2110:0",dtype:float32,shape:[1, 384, 8, 8]}
    in_1 {name:"Node_2113:0",dtype:float32,shape:[384]}
    in_2 {name:"Node_2116:0",dtype:float32,shape:[384]}
    in_3 {name:"Node_2119:0",dtype:float32,shape:[384]}
    in_4 {name:"Node_2122:0",dtype:float32,shape:[384]}
    out_0 {name:"Node_2123:0",dtype:float32,shape:[1, 384, 8, 8]}
    out_1 {name:"Node_2123:1",dtype:float32,shape:[384]}
    out_2 {name:"Node_2123:2",dtype:float32,shape:[384]}
    attrs {'axis': 1, 'epsilon': 0.0010000000474974513, 'center': 1, 'scale': 0}
  }
}
layer {
  name:"Node_2125"
  type:"nn_relu"
  top:"Node_2125"
  bottom:"Node_2123"
  layer_param {
    idx:2125
    in_0 {name:"Node_2123:0",dtype:float32,shape:[1, 384, 8, 8]}
    out_0 {name:"Node_2125:0",dtype:float32,shape:[1, 384, 8, 8]}
  }
}
layer {
  name:"Node_2127"
  type:"const"
  top:"Node_2127"
  layer_param {
    idx:2127
    out_0 {name:"Node_2127:0",dtype:float32,shape:[384, 384, 1, 3]}
  }
}
layer {
  name:"Node_2128"
  type:"annotation_compiler_begin"
  top:"Node_2128"
  bottom:"Node_2127"
  layer_param {
    idx:2128
    in_0 {name:"Node_2127:0",dtype:float32,shape:[384, 384, 1, 3]}
    out_0 {name:"Node_2128:0",dtype:float32,shape:[384, 384, 1, 3]}
    attrs {'compiler': 'tensorrt'}
  }
}
layer {
  name:"Node_2129"
  type:"nn_conv2d"
  top:"Node_2129"
  bottom:"Node_2125"
  bottom:"Node_2128"
  layer_param {
    idx:2129
    in_0 {name:"Node_2125:0",dtype:float32,shape:[1, 384, 8, 8]}
    in_1 {name:"Node_2128:0",dtype:float32,shape:[384, 384, 1, 3]}
    out_0 {name:"Node_2129:0",dtype:float32,shape:[1, 384, 8, 8]}
    attrs {'strides': [1, 1], 'padding': [0, 1, 0, 1], 'dilation': [1, 1], 'groups': 1, 'channels': 384, 'kernel_size': [1, 3], 'data_layout': 'NCHW', 'kernel_layout': 'OIHW', 'out_layout': '', 'out_dtype': ''}
  }
}
layer {
  name:"Node_2131"
  type:"const"
  top:"Node_2131"
  layer_param {
    idx:2131
    out_0 {name:"Node_2131:0",dtype:float32,shape:[384]}
  }
}
layer {
  name:"Node_2132"
  type:"annotation_compiler_begin"
  top:"Node_2132"
  bottom:"Node_2131"
  layer_param {
    idx:2132
    in_0 {name:"Node_2131:0",dtype:float32,shape:[384]}
    out_0 {name:"Node_2132:0",dtype:float32,shape:[384]}
    attrs {'compiler': 'tensorrt'}
  }
}
layer {
  name:"Node_2134"
  type:"const"
  top:"Node_2134"
  layer_param {
    idx:2134
    out_0 {name:"Node_2134:0",dtype:float32,shape:[384]}
  }
}
layer {
  name:"Node_2135"
  type:"annotation_compiler_begin"
  top:"Node_2135"
  bottom:"Node_2134"
  layer_param {
    idx:2135
    in_0 {name:"Node_2134:0",dtype:float32,shape:[384]}
    out_0 {name:"Node_2135:0",dtype:float32,shape:[384]}
    attrs {'compiler': 'tensorrt'}
  }
}
layer {
  name:"Node_2137"
  type:"const"
  top:"Node_2137"
  layer_param {
    idx:2137
    out_0 {name:"Node_2137:0",dtype:float32,shape:[384]}
  }
}
layer {
  name:"Node_2138"
  type:"annotation_compiler_begin"
  top:"Node_2138"
  bottom:"Node_2137"
  layer_param {
    idx:2138
    in_0 {name:"Node_2137:0",dtype:float32,shape:[384]}
    out_0 {name:"Node_2138:0",dtype:float32,shape:[384]}
    attrs {'compiler': 'tensorrt'}
  }
}
layer {
  name:"Node_2140"
  type:"const"
  top:"Node_2140"
  layer_param {
    idx:2140
    out_0 {name:"Node_2140:0",dtype:float32,shape:[384]}
  }
}
layer {
  name:"Node_2141"
  type:"annotation_compiler_begin"
  top:"Node_2141"
  bottom:"Node_2140"
  layer_param {
    idx:2141
    in_0 {name:"Node_2140:0",dtype:float32,shape:[384]}
    out_0 {name:"Node_2141:0",dtype:float32,shape:[384]}
    attrs {'compiler': 'tensorrt'}
  }
}
layer {
  name:"Node_2142"
  type:"nn_batch_norm"
  top:"Node_2142"
  bottom:"Node_2129"
  bottom:"Node_2132"
  bottom:"Node_2135"
  bottom:"Node_2138"
  bottom:"Node_2141"
  layer_param {
    idx:2142
    in_0 {name:"Node_2129:0",dtype:float32,shape:[1, 384, 8, 8]}
    in_1 {name:"Node_2132:0",dtype:float32,shape:[384]}
    in_2 {name:"Node_2135:0",dtype:float32,shape:[384]}
    in_3 {name:"Node_2138:0",dtype:float32,shape:[384]}
    in_4 {name:"Node_2141:0",dtype:float32,shape:[384]}
    out_0 {name:"Node_2142:0",dtype:float32,shape:[1, 384, 8, 8]}
    out_1 {name:"Node_2142:1",dtype:float32,shape:[384]}
    out_2 {name:"Node_2142:2",dtype:float32,shape:[384]}
    attrs {'axis': 1, 'epsilon': 0.0010000000474974513, 'center': 1, 'scale': 0}
  }
}
layer {
  name:"Node_2144"
  type:"nn_relu"
  top:"Node_2144"
  bottom:"Node_2142"
  layer_param {
    idx:2144
    in_0 {name:"Node_2142:0",dtype:float32,shape:[1, 384, 8, 8]}
    out_0 {name:"Node_2144:0",dtype:float32,shape:[1, 384, 8, 8]}
  }
}
layer {
  name:"Node_2150"
  type:"const"
  top:"Node_2150"
  layer_param {
    idx:2150
    out_0 {name:"Node_2150:0",dtype:float32,shape:[384, 384, 3, 1]}
  }
}
layer {
  name:"Node_2151"
  type:"annotation_compiler_begin"
  top:"Node_2151"
  bottom:"Node_2150"
  layer_param {
    idx:2151
    in_0 {name:"Node_2150:0",dtype:float32,shape:[384, 384, 3, 1]}
    out_0 {name:"Node_2151:0",dtype:float32,shape:[384, 384, 3, 1]}
    attrs {'compiler': 'tensorrt'}
  }
}
layer {
  name:"Node_2152"
  type:"nn_conv2d"
  top:"Node_2152"
  bottom:"Node_2125"
  bottom:"Node_2151"
  layer_param {
    idx:2152
    in_0 {name:"Node_2125:0",dtype:float32,shape:[1, 384, 8, 8]}
    in_1 {name:"Node_2151:0",dtype:float32,shape:[384, 384, 3, 1]}
    out_0 {name:"Node_2152:0",dtype:float32,shape:[1, 384, 8, 8]}
    attrs {'strides': [1, 1], 'padding': [1, 0, 1, 0], 'dilation': [1, 1], 'groups': 1, 'channels': 384, 'kernel_size': [3, 1], 'data_layout': 'NCHW', 'kernel_layout': 'OIHW', 'out_layout': '', 'out_dtype': ''}
  }
}
layer {
  name:"Node_2154"
  type:"const"
  top:"Node_2154"
  layer_param {
    idx:2154
    out_0 {name:"Node_2154:0",dtype:float32,shape:[384]}
  }
}
layer {
  name:"Node_2155"
  type:"annotation_compiler_begin"
  top:"Node_2155"
  bottom:"Node_2154"
  layer_param {
    idx:2155
    in_0 {name:"Node_2154:0",dtype:float32,shape:[384]}
    out_0 {name:"Node_2155:0",dtype:float32,shape:[384]}
    attrs {'compiler': 'tensorrt'}
  }
}
layer {
  name:"Node_2157"
  type:"const"
  top:"Node_2157"
  layer_param {
    idx:2157
    out_0 {name:"Node_2157:0",dtype:float32,shape:[384]}
  }
}
layer {
  name:"Node_2158"
  type:"annotation_compiler_begin"
  top:"Node_2158"
  bottom:"Node_2157"
  layer_param {
    idx:2158
    in_0 {name:"Node_2157:0",dtype:float32,shape:[384]}
    out_0 {name:"Node_2158:0",dtype:float32,shape:[384]}
    attrs {'compiler': 'tensorrt'}
  }
}
layer {
  name:"Node_2160"
  type:"const"
  top:"Node_2160"
  layer_param {
    idx:2160
    out_0 {name:"Node_2160:0",dtype:float32,shape:[384]}
  }
}
layer {
  name:"Node_2161"
  type:"annotation_compiler_begin"
  top:"Node_2161"
  bottom:"Node_2160"
  layer_param {
    idx:2161
    in_0 {name:"Node_2160:0",dtype:float32,shape:[384]}
    out_0 {name:"Node_2161:0",dtype:float32,shape:[384]}
    attrs {'compiler': 'tensorrt'}
  }
}
layer {
  name:"Node_2163"
  type:"const"
  top:"Node_2163"
  layer_param {
    idx:2163
    out_0 {name:"Node_2163:0",dtype:float32,shape:[384]}
  }
}
layer {
  name:"Node_2164"
  type:"annotation_compiler_begin"
  top:"Node_2164"
  bottom:"Node_2163"
  layer_param {
    idx:2164
    in_0 {name:"Node_2163:0",dtype:float32,shape:[384]}
    out_0 {name:"Node_2164:0",dtype:float32,shape:[384]}
    attrs {'compiler': 'tensorrt'}
  }
}
layer {
  name:"Node_2165"
  type:"nn_batch_norm"
  top:"Node_2165"
  bottom:"Node_2152"
  bottom:"Node_2155"
  bottom:"Node_2158"
  bottom:"Node_2161"
  bottom:"Node_2164"
  layer_param {
    idx:2165
    in_0 {name:"Node_2152:0",dtype:float32,shape:[1, 384, 8, 8]}
    in_1 {name:"Node_2155:0",dtype:float32,shape:[384]}
    in_2 {name:"Node_2158:0",dtype:float32,shape:[384]}
    in_3 {name:"Node_2161:0",dtype:float32,shape:[384]}
    in_4 {name:"Node_2164:0",dtype:float32,shape:[384]}
    out_0 {name:"Node_2165:0",dtype:float32,shape:[1, 384, 8, 8]}
    out_1 {name:"Node_2165:1",dtype:float32,shape:[384]}
    out_2 {name:"Node_2165:2",dtype:float32,shape:[384]}
    attrs {'axis': 1, 'epsilon': 0.0010000000474974513, 'center': 1, 'scale': 0}
  }
}
layer {
  name:"Node_2167"
  type:"nn_relu"
  top:"Node_2167"
  bottom:"Node_2165"
  layer_param {
    idx:2167
    in_0 {name:"Node_2165:0",dtype:float32,shape:[1, 384, 8, 8]}
    out_0 {name:"Node_2167:0",dtype:float32,shape:[1, 384, 8, 8]}
  }
}
layer {
  name:"Node_2173"
  type:"nn_max_pool2d"
  top:"Node_2173"
  bottom:"Node_1990"
  layer_param {
    idx:2173
    in_0 {name:"Node_1990:0",dtype:float32,shape:[1, 2048, 8, 8]}
    out_0 {name:"Node_2173:0",dtype:float32,shape:[1, 2048, 8, 8]}
    attrs {'pool_size': [3, 3], 'strides': [1, 1], 'dilation': [1, 1], 'padding': [1, 1, 1, 1], 'layout': 'NCHW', 'ceil_mode': 0}
  }
}
layer {
  name:"Node_2175"
  type:"const"
  top:"Node_2175"
  layer_param {
    idx:2175
    out_0 {name:"Node_2175:0",dtype:float32,shape:[192, 2048, 1, 1]}
  }
}
layer {
  name:"Node_2176"
  type:"annotation_compiler_begin"
  top:"Node_2176"
  bottom:"Node_2175"
  layer_param {
    idx:2176
    in_0 {name:"Node_2175:0",dtype:float32,shape:[192, 2048, 1, 1]}
    out_0 {name:"Node_2176:0",dtype:float32,shape:[192, 2048, 1, 1]}
    attrs {'compiler': 'tensorrt'}
  }
}
layer {
  name:"Node_2177"
  type:"nn_conv2d"
  top:"Node_2177"
  bottom:"Node_2173"
  bottom:"Node_2176"
  layer_param {
    idx:2177
    in_0 {name:"Node_2173:0",dtype:float32,shape:[1, 2048, 8, 8]}
    in_1 {name:"Node_2176:0",dtype:float32,shape:[192, 2048, 1, 1]}
    out_0 {name:"Node_2177:0",dtype:float32,shape:[1, 192, 8, 8]}
    attrs {'strides': [1, 1], 'padding': [0, 0, 0, 0], 'dilation': [1, 1], 'groups': 1, 'channels': 192, 'kernel_size': [1, 1], 'data_layout': 'NCHW', 'kernel_layout': 'OIHW', 'out_layout': '', 'out_dtype': ''}
  }
}
layer {
  name:"Node_2179"
  type:"const"
  top:"Node_2179"
  layer_param {
    idx:2179
    out_0 {name:"Node_2179:0",dtype:float32,shape:[192]}
  }
}
layer {
  name:"Node_2180"
  type:"annotation_compiler_begin"
  top:"Node_2180"
  bottom:"Node_2179"
  layer_param {
    idx:2180
    in_0 {name:"Node_2179:0",dtype:float32,shape:[192]}
    out_0 {name:"Node_2180:0",dtype:float32,shape:[192]}
    attrs {'compiler': 'tensorrt'}
  }
}
layer {
  name:"Node_2182"
  type:"const"
  top:"Node_2182"
  layer_param {
    idx:2182
    out_0 {name:"Node_2182:0",dtype:float32,shape:[192]}
  }
}
layer {
  name:"Node_2183"
  type:"annotation_compiler_begin"
  top:"Node_2183"
  bottom:"Node_2182"
  layer_param {
    idx:2183
    in_0 {name:"Node_2182:0",dtype:float32,shape:[192]}
    out_0 {name:"Node_2183:0",dtype:float32,shape:[192]}
    attrs {'compiler': 'tensorrt'}
  }
}
layer {
  name:"Node_2185"
  type:"const"
  top:"Node_2185"
  layer_param {
    idx:2185
    out_0 {name:"Node_2185:0",dtype:float32,shape:[192]}
  }
}
layer {
  name:"Node_2186"
  type:"annotation_compiler_begin"
  top:"Node_2186"
  bottom:"Node_2185"
  layer_param {
    idx:2186
    in_0 {name:"Node_2185:0",dtype:float32,shape:[192]}
    out_0 {name:"Node_2186:0",dtype:float32,shape:[192]}
    attrs {'compiler': 'tensorrt'}
  }
}
layer {
  name:"Node_2188"
  type:"const"
  top:"Node_2188"
  layer_param {
    idx:2188
    out_0 {name:"Node_2188:0",dtype:float32,shape:[192]}
  }
}
layer {
  name:"Node_2189"
  type:"annotation_compiler_begin"
  top:"Node_2189"
  bottom:"Node_2188"
  layer_param {
    idx:2189
    in_0 {name:"Node_2188:0",dtype:float32,shape:[192]}
    out_0 {name:"Node_2189:0",dtype:float32,shape:[192]}
    attrs {'compiler': 'tensorrt'}
  }
}
layer {
  name:"Node_2190"
  type:"nn_batch_norm"
  top:"Node_2190"
  bottom:"Node_2177"
  bottom:"Node_2180"
  bottom:"Node_2183"
  bottom:"Node_2186"
  bottom:"Node_2189"
  layer_param {
    idx:2190
    in_0 {name:"Node_2177:0",dtype:float32,shape:[1, 192, 8, 8]}
    in_1 {name:"Node_2180:0",dtype:float32,shape:[192]}
    in_2 {name:"Node_2183:0",dtype:float32,shape:[192]}
    in_3 {name:"Node_2186:0",dtype:float32,shape:[192]}
    in_4 {name:"Node_2189:0",dtype:float32,shape:[192]}
    out_0 {name:"Node_2190:0",dtype:float32,shape:[1, 192, 8, 8]}
    out_1 {name:"Node_2190:1",dtype:float32,shape:[192]}
    out_2 {name:"Node_2190:2",dtype:float32,shape:[192]}
    attrs {'axis': 1, 'epsilon': 0.0010000000474974513, 'center': 1, 'scale': 0}
  }
}
layer {
  name:"Node_2192"
  type:"nn_relu"
  top:"Node_2192"
  bottom:"Node_2190"
  layer_param {
    idx:2192
    in_0 {name:"Node_2190:0",dtype:float32,shape:[1, 192, 8, 8]}
    out_0 {name:"Node_2192:0",dtype:float32,shape:[1, 192, 8, 8]}
  }
}
layer {
  name:"Node_2194"
  type:"concatenate"
  top:"Node_2194"
  bottom:"Node_2009"
  bottom:"Node_2054"
  bottom:"Node_2077"
  bottom:"Node_2144"
  bottom:"Node_2167"
  bottom:"Node_2192"
  layer_param {
    idx:2194
    in_0 {name:"Node_2009:0",dtype:float32,shape:[1, 320, 8, 8]}
    in_1 {name:"Node_2054:0",dtype:float32,shape:[1, 384, 8, 8]}
    in_2 {name:"Node_2077:0",dtype:float32,shape:[1, 384, 8, 8]}
    in_3 {name:"Node_2144:0",dtype:float32,shape:[1, 384, 8, 8]}
    in_4 {name:"Node_2167:0",dtype:float32,shape:[1, 384, 8, 8]}
    in_5 {name:"Node_2192:0",dtype:float32,shape:[1, 192, 8, 8]}
    out_0 {name:"Node_2194:0",dtype:float32,shape:[1, 2048, 8, 8]}
    attrs {'axis': 1}
  }
}
layer {
  name:"Node_2195"
  type:"nn_avg_pool2d"
  top:"Node_2195"
  bottom:"Node_2194"
  layer_param {
    idx:2195
    in_0 {name:"Node_2194:0",dtype:float32,shape:[1, 2048, 8, 8]}
    out_0 {name:"Node_2195:0",dtype:float32,shape:[1, 2048, 1, 1]}
    attrs {'pool_size': [8, 8], 'strides': [1, 1], 'dilation': [1, 1], 'padding': [0, 0, 0, 0], 'layout': 'NCHW', 'ceil_mode': 0, 'count_include_pad': 0}
  }
}
layer {
  name:"Node_2196"
  type:"layout_transform"
  top:"Node_2196"
  bottom:"Node_2195"
  layer_param {
    idx:2196
    in_0 {name:"Node_2195:0",dtype:float32,shape:[1, 2048, 1, 1]}
    out_0 {name:"Node_2196:0",dtype:float32,shape:[1, 1, 1, 2048]}
    attrs {'src_layout': 'NCHW', 'dst_layout': 'NHWC'}
  }
}
layer {
  name:"Node_2197"
  type:"reshape"
  top:"Node_2197"
  bottom:"Node_2196"
  layer_param {
    idx:2197
    in_0 {name:"Node_2196:0",dtype:float32,shape:[1, 1, 1, 2048]}
    out_0 {name:"Node_2197:0",dtype:float32,shape:[1, 2048]}
    attrs {'newshape': [1, 2048]}
  }
}
layer {
  name:"Node_2199"
  type:"const"
  top:"Node_2199"
  layer_param {
    idx:2199
    out_0 {name:"Node_2199:0",dtype:float32,shape:[1008, 2048]}
  }
}
layer {
  name:"Node_2200"
  type:"annotation_compiler_begin"
  top:"Node_2200"
  bottom:"Node_2199"
  layer_param {
    idx:2200
    in_0 {name:"Node_2199:0",dtype:float32,shape:[1008, 2048]}
    out_0 {name:"Node_2200:0",dtype:float32,shape:[1008, 2048]}
    attrs {'compiler': 'tensorrt'}
  }
}
layer {
  name:"Node_2201"
  type:"nn_dense"
  top:"Node_2201"
  bottom:"Node_2197"
  bottom:"Node_2200"
  layer_param {
    idx:2201
    in_0 {name:"Node_2197:0",dtype:float32,shape:[1, 2048]}
    in_1 {name:"Node_2200:0",dtype:float32,shape:[1008, 2048]}
    out_0 {name:"Node_2201:0",dtype:float32,shape:[1, 1008]}
    attrs {'units': 1008, 'out_dtype': ''}
  }
}
layer {
  name:"Node_2203"
  type:"const"
  top:"Node_2203"
  layer_param {
    idx:2203
    out_0 {name:"Node_2203:0",dtype:float32,shape:[1008]}
  }
}
layer {
  name:"Node_2204"
  type:"annotation_compiler_begin"
  top:"Node_2204"
  bottom:"Node_2203"
  layer_param {
    idx:2204
    in_0 {name:"Node_2203:0",dtype:float32,shape:[1008]}
    out_0 {name:"Node_2204:0",dtype:float32,shape:[1008]}
    attrs {'compiler': 'tensorrt'}
  }
}
layer {
  name:"Node_2205"
  type:"add"
  top:"Node_2205"
  bottom:"Node_2201"
  bottom:"Node_2204"
  layer_param {
    idx:2205
    in_0 {name:"Node_2201:0",dtype:float32,shape:[1, 1008]}
    in_1 {name:"Node_2204:0",dtype:float32,shape:[1008]}
    out_0 {name:"Node_2205:0",dtype:float32,shape:[1, 1008]}
  }
}
layer {
  name:"Node_2206"
  type:"nn_softmax"
  top:"Node_2206"
  bottom:"Node_2205"
  layer_param {
    idx:2206
    in_0 {name:"Node_2205:0",dtype:float32,shape:[1, 1008]}
    out_0 {name:"Node_2206:0",dtype:float32,shape:[1, 1008]}
    attrs {'axis': -1}
  }
}
layer {
  name:"Node_2207"
  type:"annotation_compiler_end"
  top:"Node_2207"
  bottom:"Node_2206"
  layer_param {
    idx:2207
    in_0 {name:"Node_2206:0",dtype:float32,shape:[1, 1008]}
    out_0 {name:"Node_2207:0",dtype:float32,shape:[1, 1008]}
    attrs {'compiler': 'tensorrt'}
  }
}
layer {
  name:"Node_2208"
  type:"function"
  top:"Node_2208"
  bottom:"DecodeJpeg/contents"
  bottom:"Node_2207"
  layer_param {
    idx:2208
    in_0 {name:"DecodeJpeg/contents:0",dtype:uint8,shape:[299, 299, 3]}
    in_1 {name:"Node_2207:0",dtype:float32,shape:[1, 1008]}
    out_0 {name:"Node_2208:0",dtype:float32,shape:[1, 1008]}
  }
}
