name : "relay_ir"
layer {
  name:"DecodeJpeg/contents"
  type:"input"
  top:"DecodeJpeg/contents"
  layer_param {
    idx:0
    out_0 {name:"DecodeJpeg/contents:0",dtype:uint8,shape:[299, 299, 3]}
  }
}
layer {
  name:"tensorrt_0_i0"
  type:"input"
  top:"tensorrt_0_i0"
  layer_param {
    idx:1
    out_0 {name:"tensorrt_0_i0:0",dtype:float32,shape:[1, 299, 299, 3]}
  }
}
layer {
  name:"Node_76"
  type:"const"
  top:"Node_76"
  layer_param {
    idx:76
    out_0 {name:"Node_76:0",dtype:float32,shape:[]}
  }
}
layer {
  name:"Node_77"
  type:"subtract"
  top:"Node_77"
  bottom:"tensorrt_0_i0"
  bottom:"Node_76"
  layer_param {
    idx:77
    in_0 {name:"tensorrt_0_i0:0",dtype:float32,shape:[1, 299, 299, 3]}
    in_1 {name:"Node_76:0",dtype:float32,shape:[]}
    out_0 {name:"Node_77:0",dtype:float32,shape:[1, 299, 299, 3]}
  }
}
layer {
  name:"Node_78"
  type:"const"
  top:"Node_78"
  layer_param {
    idx:78
    out_0 {name:"Node_78:0",dtype:float32,shape:[]}
  }
}
layer {
  name:"Node_79"
  type:"multiply"
  top:"Node_79"
  bottom:"Node_77"
  bottom:"Node_78"
  layer_param {
    idx:79
    in_0 {name:"Node_77:0",dtype:float32,shape:[1, 299, 299, 3]}
    in_1 {name:"Node_78:0",dtype:float32,shape:[]}
    out_0 {name:"Node_79:0",dtype:float32,shape:[1, 299, 299, 3]}
  }
}
layer {
  name:"Node_80"
  type:"layout_transform"
  top:"Node_80"
  bottom:"Node_79"
  layer_param {
    idx:80
    in_0 {name:"Node_79:0",dtype:float32,shape:[1, 299, 299, 3]}
    out_0 {name:"Node_80:0",dtype:float32,shape:[1, 3, 299, 299]}
    attrs {'src_layout': 'NHWC', 'dst_layout': 'NCHW'}
  }
}
layer {
  name:"Node_81"
  type:"const"
  top:"Node_81"
  layer_param {
    idx:81
    out_0 {name:"Node_81:0",dtype:float32,shape:[32, 3, 3, 3]}
  }
}
layer {
  name:"Node_82"
  type:"nn_conv2d"
  top:"Node_82"
  bottom:"Node_80"
  bottom:"Node_81"
  layer_param {
    idx:82
    in_0 {name:"Node_80:0",dtype:float32,shape:[1, 3, 299, 299]}
    in_1 {name:"Node_81:0",dtype:float32,shape:[32, 3, 3, 3]}
    out_0 {name:"Node_82:0",dtype:float32,shape:[1, 32, 149, 149]}
    attrs {'strides': [2, 2], 'padding': [0, 0, 0, 0], 'dilation': [1, 1], 'groups': 1, 'channels': 32, 'kernel_size': [3, 3], 'data_layout': 'NCHW', 'kernel_layout': 'OIHW', 'out_layout': '', 'out_dtype': ''}
  }
}
layer {
  name:"Node_83"
  type:"const"
  top:"Node_83"
  layer_param {
    idx:83
    out_0 {name:"Node_83:0",dtype:float32,shape:[32]}
  }
}
layer {
  name:"Node_84"
  type:"const"
  top:"Node_84"
  layer_param {
    idx:84
    out_0 {name:"Node_84:0",dtype:float32,shape:[32]}
  }
}
layer {
  name:"Node_85"
  type:"const"
  top:"Node_85"
  layer_param {
    idx:85
    out_0 {name:"Node_85:0",dtype:float32,shape:[32]}
  }
}
layer {
  name:"Node_86"
  type:"const"
  top:"Node_86"
  layer_param {
    idx:86
    out_0 {name:"Node_86:0",dtype:float32,shape:[32]}
  }
}
layer {
  name:"Node_87"
  type:"nn_batch_norm"
  top:"Node_87"
  bottom:"Node_82"
  bottom:"Node_83"
  bottom:"Node_84"
  bottom:"Node_85"
  bottom:"Node_86"
  layer_param {
    idx:87
    in_0 {name:"Node_82:0",dtype:float32,shape:[1, 32, 149, 149]}
    in_1 {name:"Node_83:0",dtype:float32,shape:[32]}
    in_2 {name:"Node_84:0",dtype:float32,shape:[32]}
    in_3 {name:"Node_85:0",dtype:float32,shape:[32]}
    in_4 {name:"Node_86:0",dtype:float32,shape:[32]}
    out_0 {name:"Node_87:0",dtype:float32,shape:[1, 32, 149, 149]}
    out_1 {name:"Node_87:1",dtype:float32,shape:[32]}
    out_2 {name:"Node_87:2",dtype:float32,shape:[32]}
    attrs {'axis': 1, 'epsilon': 0.0010000000474974513, 'center': 1, 'scale': 0}
  }
}
layer {
  name:"Node_89"
  type:"nn_relu"
  top:"Node_89"
  bottom:"Node_87"
  layer_param {
    idx:89
    in_0 {name:"Node_87:0",dtype:float32,shape:[1, 32, 149, 149]}
    out_0 {name:"Node_89:0",dtype:float32,shape:[1, 32, 149, 149]}
  }
}
layer {
  name:"Node_90"
  type:"const"
  top:"Node_90"
  layer_param {
    idx:90
    out_0 {name:"Node_90:0",dtype:float32,shape:[32, 32, 3, 3]}
  }
}
layer {
  name:"Node_91"
  type:"nn_conv2d"
  top:"Node_91"
  bottom:"Node_89"
  bottom:"Node_90"
  layer_param {
    idx:91
    in_0 {name:"Node_89:0",dtype:float32,shape:[1, 32, 149, 149]}
    in_1 {name:"Node_90:0",dtype:float32,shape:[32, 32, 3, 3]}
    out_0 {name:"Node_91:0",dtype:float32,shape:[1, 32, 147, 147]}
    attrs {'strides': [1, 1], 'padding': [0, 0, 0, 0], 'dilation': [1, 1], 'groups': 1, 'channels': 32, 'kernel_size': [3, 3], 'data_layout': 'NCHW', 'kernel_layout': 'OIHW', 'out_layout': '', 'out_dtype': ''}
  }
}
layer {
  name:"Node_92"
  type:"const"
  top:"Node_92"
  layer_param {
    idx:92
    out_0 {name:"Node_92:0",dtype:float32,shape:[32]}
  }
}
layer {
  name:"Node_93"
  type:"const"
  top:"Node_93"
  layer_param {
    idx:93
    out_0 {name:"Node_93:0",dtype:float32,shape:[32]}
  }
}
layer {
  name:"Node_94"
  type:"const"
  top:"Node_94"
  layer_param {
    idx:94
    out_0 {name:"Node_94:0",dtype:float32,shape:[32]}
  }
}
layer {
  name:"Node_95"
  type:"const"
  top:"Node_95"
  layer_param {
    idx:95
    out_0 {name:"Node_95:0",dtype:float32,shape:[32]}
  }
}
layer {
  name:"Node_96"
  type:"nn_batch_norm"
  top:"Node_96"
  bottom:"Node_91"
  bottom:"Node_92"
  bottom:"Node_93"
  bottom:"Node_94"
  bottom:"Node_95"
  layer_param {
    idx:96
    in_0 {name:"Node_91:0",dtype:float32,shape:[1, 32, 147, 147]}
    in_1 {name:"Node_92:0",dtype:float32,shape:[32]}
    in_2 {name:"Node_93:0",dtype:float32,shape:[32]}
    in_3 {name:"Node_94:0",dtype:float32,shape:[32]}
    in_4 {name:"Node_95:0",dtype:float32,shape:[32]}
    out_0 {name:"Node_96:0",dtype:float32,shape:[1, 32, 147, 147]}
    out_1 {name:"Node_96:1",dtype:float32,shape:[32]}
    out_2 {name:"Node_96:2",dtype:float32,shape:[32]}
    attrs {'axis': 1, 'epsilon': 0.0010000000474974513, 'center': 1, 'scale': 0}
  }
}
layer {
  name:"Node_98"
  type:"nn_relu"
  top:"Node_98"
  bottom:"Node_96"
  layer_param {
    idx:98
    in_0 {name:"Node_96:0",dtype:float32,shape:[1, 32, 147, 147]}
    out_0 {name:"Node_98:0",dtype:float32,shape:[1, 32, 147, 147]}
  }
}
layer {
  name:"Node_99"
  type:"const"
  top:"Node_99"
  layer_param {
    idx:99
    out_0 {name:"Node_99:0",dtype:float32,shape:[64, 32, 3, 3]}
  }
}
layer {
  name:"Node_100"
  type:"nn_conv2d"
  top:"Node_100"
  bottom:"Node_98"
  bottom:"Node_99"
  layer_param {
    idx:100
    in_0 {name:"Node_98:0",dtype:float32,shape:[1, 32, 147, 147]}
    in_1 {name:"Node_99:0",dtype:float32,shape:[64, 32, 3, 3]}
    out_0 {name:"Node_100:0",dtype:float32,shape:[1, 64, 147, 147]}
    attrs {'strides': [1, 1], 'padding': [1, 1, 1, 1], 'dilation': [1, 1], 'groups': 1, 'channels': 64, 'kernel_size': [3, 3], 'data_layout': 'NCHW', 'kernel_layout': 'OIHW', 'out_layout': '', 'out_dtype': ''}
  }
}
layer {
  name:"Node_101"
  type:"const"
  top:"Node_101"
  layer_param {
    idx:101
    out_0 {name:"Node_101:0",dtype:float32,shape:[64]}
  }
}
layer {
  name:"Node_102"
  type:"const"
  top:"Node_102"
  layer_param {
    idx:102
    out_0 {name:"Node_102:0",dtype:float32,shape:[64]}
  }
}
layer {
  name:"Node_103"
  type:"const"
  top:"Node_103"
  layer_param {
    idx:103
    out_0 {name:"Node_103:0",dtype:float32,shape:[64]}
  }
}
layer {
  name:"Node_104"
  type:"const"
  top:"Node_104"
  layer_param {
    idx:104
    out_0 {name:"Node_104:0",dtype:float32,shape:[64]}
  }
}
layer {
  name:"Node_105"
  type:"nn_batch_norm"
  top:"Node_105"
  bottom:"Node_100"
  bottom:"Node_101"
  bottom:"Node_102"
  bottom:"Node_103"
  bottom:"Node_104"
  layer_param {
    idx:105
    in_0 {name:"Node_100:0",dtype:float32,shape:[1, 64, 147, 147]}
    in_1 {name:"Node_101:0",dtype:float32,shape:[64]}
    in_2 {name:"Node_102:0",dtype:float32,shape:[64]}
    in_3 {name:"Node_103:0",dtype:float32,shape:[64]}
    in_4 {name:"Node_104:0",dtype:float32,shape:[64]}
    out_0 {name:"Node_105:0",dtype:float32,shape:[1, 64, 147, 147]}
    out_1 {name:"Node_105:1",dtype:float32,shape:[64]}
    out_2 {name:"Node_105:2",dtype:float32,shape:[64]}
    attrs {'axis': 1, 'epsilon': 0.0010000000474974513, 'center': 1, 'scale': 0}
  }
}
layer {
  name:"Node_107"
  type:"nn_relu"
  top:"Node_107"
  bottom:"Node_105"
  layer_param {
    idx:107
    in_0 {name:"Node_105:0",dtype:float32,shape:[1, 64, 147, 147]}
    out_0 {name:"Node_107:0",dtype:float32,shape:[1, 64, 147, 147]}
  }
}
layer {
  name:"Node_108"
  type:"nn_max_pool2d"
  top:"Node_108"
  bottom:"Node_107"
  layer_param {
    idx:108
    in_0 {name:"Node_107:0",dtype:float32,shape:[1, 64, 147, 147]}
    out_0 {name:"Node_108:0",dtype:float32,shape:[1, 64, 73, 73]}
    attrs {'pool_size': [3, 3], 'strides': [2, 2], 'dilation': [1, 1], 'padding': [0, 0, 0, 0], 'layout': 'NCHW', 'ceil_mode': 0}
  }
}
layer {
  name:"Node_109"
  type:"const"
  top:"Node_109"
  layer_param {
    idx:109
    out_0 {name:"Node_109:0",dtype:float32,shape:[80, 64, 1, 1]}
  }
}
layer {
  name:"Node_110"
  type:"nn_conv2d"
  top:"Node_110"
  bottom:"Node_108"
  bottom:"Node_109"
  layer_param {
    idx:110
    in_0 {name:"Node_108:0",dtype:float32,shape:[1, 64, 73, 73]}
    in_1 {name:"Node_109:0",dtype:float32,shape:[80, 64, 1, 1]}
    out_0 {name:"Node_110:0",dtype:float32,shape:[1, 80, 73, 73]}
    attrs {'strides': [1, 1], 'padding': [0, 0, 0, 0], 'dilation': [1, 1], 'groups': 1, 'channels': 80, 'kernel_size': [1, 1], 'data_layout': 'NCHW', 'kernel_layout': 'OIHW', 'out_layout': '', 'out_dtype': ''}
  }
}
layer {
  name:"Node_111"
  type:"const"
  top:"Node_111"
  layer_param {
    idx:111
    out_0 {name:"Node_111:0",dtype:float32,shape:[80]}
  }
}
layer {
  name:"Node_112"
  type:"const"
  top:"Node_112"
  layer_param {
    idx:112
    out_0 {name:"Node_112:0",dtype:float32,shape:[80]}
  }
}
layer {
  name:"Node_113"
  type:"const"
  top:"Node_113"
  layer_param {
    idx:113
    out_0 {name:"Node_113:0",dtype:float32,shape:[80]}
  }
}
layer {
  name:"Node_114"
  type:"const"
  top:"Node_114"
  layer_param {
    idx:114
    out_0 {name:"Node_114:0",dtype:float32,shape:[80]}
  }
}
layer {
  name:"Node_115"
  type:"nn_batch_norm"
  top:"Node_115"
  bottom:"Node_110"
  bottom:"Node_111"
  bottom:"Node_112"
  bottom:"Node_113"
  bottom:"Node_114"
  layer_param {
    idx:115
    in_0 {name:"Node_110:0",dtype:float32,shape:[1, 80, 73, 73]}
    in_1 {name:"Node_111:0",dtype:float32,shape:[80]}
    in_2 {name:"Node_112:0",dtype:float32,shape:[80]}
    in_3 {name:"Node_113:0",dtype:float32,shape:[80]}
    in_4 {name:"Node_114:0",dtype:float32,shape:[80]}
    out_0 {name:"Node_115:0",dtype:float32,shape:[1, 80, 73, 73]}
    out_1 {name:"Node_115:1",dtype:float32,shape:[80]}
    out_2 {name:"Node_115:2",dtype:float32,shape:[80]}
    attrs {'axis': 1, 'epsilon': 0.0010000000474974513, 'center': 1, 'scale': 0}
  }
}
layer {
  name:"Node_117"
  type:"nn_relu"
  top:"Node_117"
  bottom:"Node_115"
  layer_param {
    idx:117
    in_0 {name:"Node_115:0",dtype:float32,shape:[1, 80, 73, 73]}
    out_0 {name:"Node_117:0",dtype:float32,shape:[1, 80, 73, 73]}
  }
}
layer {
  name:"Node_118"
  type:"const"
  top:"Node_118"
  layer_param {
    idx:118
    out_0 {name:"Node_118:0",dtype:float32,shape:[192, 80, 3, 3]}
  }
}
layer {
  name:"Node_119"
  type:"nn_conv2d"
  top:"Node_119"
  bottom:"Node_117"
  bottom:"Node_118"
  layer_param {
    idx:119
    in_0 {name:"Node_117:0",dtype:float32,shape:[1, 80, 73, 73]}
    in_1 {name:"Node_118:0",dtype:float32,shape:[192, 80, 3, 3]}
    out_0 {name:"Node_119:0",dtype:float32,shape:[1, 192, 71, 71]}
    attrs {'strides': [1, 1], 'padding': [0, 0, 0, 0], 'dilation': [1, 1], 'groups': 1, 'channels': 192, 'kernel_size': [3, 3], 'data_layout': 'NCHW', 'kernel_layout': 'OIHW', 'out_layout': '', 'out_dtype': ''}
  }
}
layer {
  name:"Node_120"
  type:"const"
  top:"Node_120"
  layer_param {
    idx:120
    out_0 {name:"Node_120:0",dtype:float32,shape:[192]}
  }
}
layer {
  name:"Node_121"
  type:"const"
  top:"Node_121"
  layer_param {
    idx:121
    out_0 {name:"Node_121:0",dtype:float32,shape:[192]}
  }
}
layer {
  name:"Node_122"
  type:"const"
  top:"Node_122"
  layer_param {
    idx:122
    out_0 {name:"Node_122:0",dtype:float32,shape:[192]}
  }
}
layer {
  name:"Node_123"
  type:"const"
  top:"Node_123"
  layer_param {
    idx:123
    out_0 {name:"Node_123:0",dtype:float32,shape:[192]}
  }
}
layer {
  name:"Node_124"
  type:"nn_batch_norm"
  top:"Node_124"
  bottom:"Node_119"
  bottom:"Node_120"
  bottom:"Node_121"
  bottom:"Node_122"
  bottom:"Node_123"
  layer_param {
    idx:124
    in_0 {name:"Node_119:0",dtype:float32,shape:[1, 192, 71, 71]}
    in_1 {name:"Node_120:0",dtype:float32,shape:[192]}
    in_2 {name:"Node_121:0",dtype:float32,shape:[192]}
    in_3 {name:"Node_122:0",dtype:float32,shape:[192]}
    in_4 {name:"Node_123:0",dtype:float32,shape:[192]}
    out_0 {name:"Node_124:0",dtype:float32,shape:[1, 192, 71, 71]}
    out_1 {name:"Node_124:1",dtype:float32,shape:[192]}
    out_2 {name:"Node_124:2",dtype:float32,shape:[192]}
    attrs {'axis': 1, 'epsilon': 0.0010000000474974513, 'center': 1, 'scale': 0}
  }
}
layer {
  name:"Node_126"
  type:"nn_relu"
  top:"Node_126"
  bottom:"Node_124"
  layer_param {
    idx:126
    in_0 {name:"Node_124:0",dtype:float32,shape:[1, 192, 71, 71]}
    out_0 {name:"Node_126:0",dtype:float32,shape:[1, 192, 71, 71]}
  }
}
layer {
  name:"Node_127"
  type:"nn_max_pool2d"
  top:"Node_127"
  bottom:"Node_126"
  layer_param {
    idx:127
    in_0 {name:"Node_126:0",dtype:float32,shape:[1, 192, 71, 71]}
    out_0 {name:"Node_127:0",dtype:float32,shape:[1, 192, 35, 35]}
    attrs {'pool_size': [3, 3], 'strides': [2, 2], 'dilation': [1, 1], 'padding': [0, 0, 0, 0], 'layout': 'NCHW', 'ceil_mode': 0}
  }
}
layer {
  name:"Node_128"
  type:"const"
  top:"Node_128"
  layer_param {
    idx:128
    out_0 {name:"Node_128:0",dtype:float32,shape:[64, 192, 1, 1]}
  }
}
layer {
  name:"Node_129"
  type:"nn_conv2d"
  top:"Node_129"
  bottom:"Node_127"
  bottom:"Node_128"
  layer_param {
    idx:129
    in_0 {name:"Node_127:0",dtype:float32,shape:[1, 192, 35, 35]}
    in_1 {name:"Node_128:0",dtype:float32,shape:[64, 192, 1, 1]}
    out_0 {name:"Node_129:0",dtype:float32,shape:[1, 64, 35, 35]}
    attrs {'strides': [1, 1], 'padding': [0, 0, 0, 0], 'dilation': [1, 1], 'groups': 1, 'channels': 64, 'kernel_size': [1, 1], 'data_layout': 'NCHW', 'kernel_layout': 'OIHW', 'out_layout': '', 'out_dtype': ''}
  }
}
layer {
  name:"Node_130"
  type:"const"
  top:"Node_130"
  layer_param {
    idx:130
    out_0 {name:"Node_130:0",dtype:float32,shape:[64]}
  }
}
layer {
  name:"Node_131"
  type:"const"
  top:"Node_131"
  layer_param {
    idx:131
    out_0 {name:"Node_131:0",dtype:float32,shape:[64]}
  }
}
layer {
  name:"Node_132"
  type:"const"
  top:"Node_132"
  layer_param {
    idx:132
    out_0 {name:"Node_132:0",dtype:float32,shape:[64]}
  }
}
layer {
  name:"Node_133"
  type:"const"
  top:"Node_133"
  layer_param {
    idx:133
    out_0 {name:"Node_133:0",dtype:float32,shape:[64]}
  }
}
layer {
  name:"Node_134"
  type:"nn_batch_norm"
  top:"Node_134"
  bottom:"Node_129"
  bottom:"Node_130"
  bottom:"Node_131"
  bottom:"Node_132"
  bottom:"Node_133"
  layer_param {
    idx:134
    in_0 {name:"Node_129:0",dtype:float32,shape:[1, 64, 35, 35]}
    in_1 {name:"Node_130:0",dtype:float32,shape:[64]}
    in_2 {name:"Node_131:0",dtype:float32,shape:[64]}
    in_3 {name:"Node_132:0",dtype:float32,shape:[64]}
    in_4 {name:"Node_133:0",dtype:float32,shape:[64]}
    out_0 {name:"Node_134:0",dtype:float32,shape:[1, 64, 35, 35]}
    out_1 {name:"Node_134:1",dtype:float32,shape:[64]}
    out_2 {name:"Node_134:2",dtype:float32,shape:[64]}
    attrs {'axis': 1, 'epsilon': 0.0010000000474974513, 'center': 1, 'scale': 0}
  }
}
layer {
  name:"Node_136"
  type:"nn_relu"
  top:"Node_136"
  bottom:"Node_134"
  layer_param {
    idx:136
    in_0 {name:"Node_134:0",dtype:float32,shape:[1, 64, 35, 35]}
    out_0 {name:"Node_136:0",dtype:float32,shape:[1, 64, 35, 35]}
  }
}
layer {
  name:"Node_144"
  type:"const"
  top:"Node_144"
  layer_param {
    idx:144
    out_0 {name:"Node_144:0",dtype:float32,shape:[48, 192, 1, 1]}
  }
}
layer {
  name:"Node_145"
  type:"nn_conv2d"
  top:"Node_145"
  bottom:"Node_127"
  bottom:"Node_144"
  layer_param {
    idx:145
    in_0 {name:"Node_127:0",dtype:float32,shape:[1, 192, 35, 35]}
    in_1 {name:"Node_144:0",dtype:float32,shape:[48, 192, 1, 1]}
    out_0 {name:"Node_145:0",dtype:float32,shape:[1, 48, 35, 35]}
    attrs {'strides': [1, 1], 'padding': [0, 0, 0, 0], 'dilation': [1, 1], 'groups': 1, 'channels': 48, 'kernel_size': [1, 1], 'data_layout': 'NCHW', 'kernel_layout': 'OIHW', 'out_layout': '', 'out_dtype': ''}
  }
}
layer {
  name:"Node_146"
  type:"const"
  top:"Node_146"
  layer_param {
    idx:146
    out_0 {name:"Node_146:0",dtype:float32,shape:[48]}
  }
}
layer {
  name:"Node_147"
  type:"const"
  top:"Node_147"
  layer_param {
    idx:147
    out_0 {name:"Node_147:0",dtype:float32,shape:[48]}
  }
}
layer {
  name:"Node_148"
  type:"const"
  top:"Node_148"
  layer_param {
    idx:148
    out_0 {name:"Node_148:0",dtype:float32,shape:[48]}
  }
}
layer {
  name:"Node_149"
  type:"const"
  top:"Node_149"
  layer_param {
    idx:149
    out_0 {name:"Node_149:0",dtype:float32,shape:[48]}
  }
}
layer {
  name:"Node_150"
  type:"nn_batch_norm"
  top:"Node_150"
  bottom:"Node_145"
  bottom:"Node_146"
  bottom:"Node_147"
  bottom:"Node_148"
  bottom:"Node_149"
  layer_param {
    idx:150
    in_0 {name:"Node_145:0",dtype:float32,shape:[1, 48, 35, 35]}
    in_1 {name:"Node_146:0",dtype:float32,shape:[48]}
    in_2 {name:"Node_147:0",dtype:float32,shape:[48]}
    in_3 {name:"Node_148:0",dtype:float32,shape:[48]}
    in_4 {name:"Node_149:0",dtype:float32,shape:[48]}
    out_0 {name:"Node_150:0",dtype:float32,shape:[1, 48, 35, 35]}
    out_1 {name:"Node_150:1",dtype:float32,shape:[48]}
    out_2 {name:"Node_150:2",dtype:float32,shape:[48]}
    attrs {'axis': 1, 'epsilon': 0.0010000000474974513, 'center': 1, 'scale': 0}
  }
}
layer {
  name:"Node_152"
  type:"nn_relu"
  top:"Node_152"
  bottom:"Node_150"
  layer_param {
    idx:152
    in_0 {name:"Node_150:0",dtype:float32,shape:[1, 48, 35, 35]}
    out_0 {name:"Node_152:0",dtype:float32,shape:[1, 48, 35, 35]}
  }
}
layer {
  name:"Node_153"
  type:"const"
  top:"Node_153"
  layer_param {
    idx:153
    out_0 {name:"Node_153:0",dtype:float32,shape:[64, 48, 5, 5]}
  }
}
layer {
  name:"Node_154"
  type:"nn_conv2d"
  top:"Node_154"
  bottom:"Node_152"
  bottom:"Node_153"
  layer_param {
    idx:154
    in_0 {name:"Node_152:0",dtype:float32,shape:[1, 48, 35, 35]}
    in_1 {name:"Node_153:0",dtype:float32,shape:[64, 48, 5, 5]}
    out_0 {name:"Node_154:0",dtype:float32,shape:[1, 64, 35, 35]}
    attrs {'strides': [1, 1], 'padding': [2, 2, 2, 2], 'dilation': [1, 1], 'groups': 1, 'channels': 64, 'kernel_size': [5, 5], 'data_layout': 'NCHW', 'kernel_layout': 'OIHW', 'out_layout': '', 'out_dtype': ''}
  }
}
layer {
  name:"Node_155"
  type:"const"
  top:"Node_155"
  layer_param {
    idx:155
    out_0 {name:"Node_155:0",dtype:float32,shape:[64]}
  }
}
layer {
  name:"Node_156"
  type:"const"
  top:"Node_156"
  layer_param {
    idx:156
    out_0 {name:"Node_156:0",dtype:float32,shape:[64]}
  }
}
layer {
  name:"Node_157"
  type:"const"
  top:"Node_157"
  layer_param {
    idx:157
    out_0 {name:"Node_157:0",dtype:float32,shape:[64]}
  }
}
layer {
  name:"Node_158"
  type:"const"
  top:"Node_158"
  layer_param {
    idx:158
    out_0 {name:"Node_158:0",dtype:float32,shape:[64]}
  }
}
layer {
  name:"Node_159"
  type:"nn_batch_norm"
  top:"Node_159"
  bottom:"Node_154"
  bottom:"Node_155"
  bottom:"Node_156"
  bottom:"Node_157"
  bottom:"Node_158"
  layer_param {
    idx:159
    in_0 {name:"Node_154:0",dtype:float32,shape:[1, 64, 35, 35]}
    in_1 {name:"Node_155:0",dtype:float32,shape:[64]}
    in_2 {name:"Node_156:0",dtype:float32,shape:[64]}
    in_3 {name:"Node_157:0",dtype:float32,shape:[64]}
    in_4 {name:"Node_158:0",dtype:float32,shape:[64]}
    out_0 {name:"Node_159:0",dtype:float32,shape:[1, 64, 35, 35]}
    out_1 {name:"Node_159:1",dtype:float32,shape:[64]}
    out_2 {name:"Node_159:2",dtype:float32,shape:[64]}
    attrs {'axis': 1, 'epsilon': 0.0010000000474974513, 'center': 1, 'scale': 0}
  }
}
layer {
  name:"Node_161"
  type:"nn_relu"
  top:"Node_161"
  bottom:"Node_159"
  layer_param {
    idx:161
    in_0 {name:"Node_159:0",dtype:float32,shape:[1, 64, 35, 35]}
    out_0 {name:"Node_161:0",dtype:float32,shape:[1, 64, 35, 35]}
  }
}
layer {
  name:"Node_172"
  type:"const"
  top:"Node_172"
  layer_param {
    idx:172
    out_0 {name:"Node_172:0",dtype:float32,shape:[64, 192, 1, 1]}
  }
}
layer {
  name:"Node_173"
  type:"nn_conv2d"
  top:"Node_173"
  bottom:"Node_127"
  bottom:"Node_172"
  layer_param {
    idx:173
    in_0 {name:"Node_127:0",dtype:float32,shape:[1, 192, 35, 35]}
    in_1 {name:"Node_172:0",dtype:float32,shape:[64, 192, 1, 1]}
    out_0 {name:"Node_173:0",dtype:float32,shape:[1, 64, 35, 35]}
    attrs {'strides': [1, 1], 'padding': [0, 0, 0, 0], 'dilation': [1, 1], 'groups': 1, 'channels': 64, 'kernel_size': [1, 1], 'data_layout': 'NCHW', 'kernel_layout': 'OIHW', 'out_layout': '', 'out_dtype': ''}
  }
}
layer {
  name:"Node_174"
  type:"const"
  top:"Node_174"
  layer_param {
    idx:174
    out_0 {name:"Node_174:0",dtype:float32,shape:[64]}
  }
}
layer {
  name:"Node_175"
  type:"const"
  top:"Node_175"
  layer_param {
    idx:175
    out_0 {name:"Node_175:0",dtype:float32,shape:[64]}
  }
}
layer {
  name:"Node_176"
  type:"const"
  top:"Node_176"
  layer_param {
    idx:176
    out_0 {name:"Node_176:0",dtype:float32,shape:[64]}
  }
}
layer {
  name:"Node_177"
  type:"const"
  top:"Node_177"
  layer_param {
    idx:177
    out_0 {name:"Node_177:0",dtype:float32,shape:[64]}
  }
}
layer {
  name:"Node_178"
  type:"nn_batch_norm"
  top:"Node_178"
  bottom:"Node_173"
  bottom:"Node_174"
  bottom:"Node_175"
  bottom:"Node_176"
  bottom:"Node_177"
  layer_param {
    idx:178
    in_0 {name:"Node_173:0",dtype:float32,shape:[1, 64, 35, 35]}
    in_1 {name:"Node_174:0",dtype:float32,shape:[64]}
    in_2 {name:"Node_175:0",dtype:float32,shape:[64]}
    in_3 {name:"Node_176:0",dtype:float32,shape:[64]}
    in_4 {name:"Node_177:0",dtype:float32,shape:[64]}
    out_0 {name:"Node_178:0",dtype:float32,shape:[1, 64, 35, 35]}
    out_1 {name:"Node_178:1",dtype:float32,shape:[64]}
    out_2 {name:"Node_178:2",dtype:float32,shape:[64]}
    attrs {'axis': 1, 'epsilon': 0.0010000000474974513, 'center': 1, 'scale': 0}
  }
}
layer {
  name:"Node_180"
  type:"nn_relu"
  top:"Node_180"
  bottom:"Node_178"
  layer_param {
    idx:180
    in_0 {name:"Node_178:0",dtype:float32,shape:[1, 64, 35, 35]}
    out_0 {name:"Node_180:0",dtype:float32,shape:[1, 64, 35, 35]}
  }
}
layer {
  name:"Node_181"
  type:"const"
  top:"Node_181"
  layer_param {
    idx:181
    out_0 {name:"Node_181:0",dtype:float32,shape:[96, 64, 3, 3]}
  }
}
layer {
  name:"Node_182"
  type:"nn_conv2d"
  top:"Node_182"
  bottom:"Node_180"
  bottom:"Node_181"
  layer_param {
    idx:182
    in_0 {name:"Node_180:0",dtype:float32,shape:[1, 64, 35, 35]}
    in_1 {name:"Node_181:0",dtype:float32,shape:[96, 64, 3, 3]}
    out_0 {name:"Node_182:0",dtype:float32,shape:[1, 96, 35, 35]}
    attrs {'strides': [1, 1], 'padding': [1, 1, 1, 1], 'dilation': [1, 1], 'groups': 1, 'channels': 96, 'kernel_size': [3, 3], 'data_layout': 'NCHW', 'kernel_layout': 'OIHW', 'out_layout': '', 'out_dtype': ''}
  }
}
layer {
  name:"Node_183"
  type:"const"
  top:"Node_183"
  layer_param {
    idx:183
    out_0 {name:"Node_183:0",dtype:float32,shape:[96]}
  }
}
layer {
  name:"Node_184"
  type:"const"
  top:"Node_184"
  layer_param {
    idx:184
    out_0 {name:"Node_184:0",dtype:float32,shape:[96]}
  }
}
layer {
  name:"Node_185"
  type:"const"
  top:"Node_185"
  layer_param {
    idx:185
    out_0 {name:"Node_185:0",dtype:float32,shape:[96]}
  }
}
layer {
  name:"Node_186"
  type:"const"
  top:"Node_186"
  layer_param {
    idx:186
    out_0 {name:"Node_186:0",dtype:float32,shape:[96]}
  }
}
layer {
  name:"Node_187"
  type:"nn_batch_norm"
  top:"Node_187"
  bottom:"Node_182"
  bottom:"Node_183"
  bottom:"Node_184"
  bottom:"Node_185"
  bottom:"Node_186"
  layer_param {
    idx:187
    in_0 {name:"Node_182:0",dtype:float32,shape:[1, 96, 35, 35]}
    in_1 {name:"Node_183:0",dtype:float32,shape:[96]}
    in_2 {name:"Node_184:0",dtype:float32,shape:[96]}
    in_3 {name:"Node_185:0",dtype:float32,shape:[96]}
    in_4 {name:"Node_186:0",dtype:float32,shape:[96]}
    out_0 {name:"Node_187:0",dtype:float32,shape:[1, 96, 35, 35]}
    out_1 {name:"Node_187:1",dtype:float32,shape:[96]}
    out_2 {name:"Node_187:2",dtype:float32,shape:[96]}
    attrs {'axis': 1, 'epsilon': 0.0010000000474974513, 'center': 1, 'scale': 0}
  }
}
layer {
  name:"Node_189"
  type:"nn_relu"
  top:"Node_189"
  bottom:"Node_187"
  layer_param {
    idx:189
    in_0 {name:"Node_187:0",dtype:float32,shape:[1, 96, 35, 35]}
    out_0 {name:"Node_189:0",dtype:float32,shape:[1, 96, 35, 35]}
  }
}
layer {
  name:"Node_190"
  type:"const"
  top:"Node_190"
  layer_param {
    idx:190
    out_0 {name:"Node_190:0",dtype:float32,shape:[96, 96, 3, 3]}
  }
}
layer {
  name:"Node_191"
  type:"nn_conv2d"
  top:"Node_191"
  bottom:"Node_189"
  bottom:"Node_190"
  layer_param {
    idx:191
    in_0 {name:"Node_189:0",dtype:float32,shape:[1, 96, 35, 35]}
    in_1 {name:"Node_190:0",dtype:float32,shape:[96, 96, 3, 3]}
    out_0 {name:"Node_191:0",dtype:float32,shape:[1, 96, 35, 35]}
    attrs {'strides': [1, 1], 'padding': [1, 1, 1, 1], 'dilation': [1, 1], 'groups': 1, 'channels': 96, 'kernel_size': [3, 3], 'data_layout': 'NCHW', 'kernel_layout': 'OIHW', 'out_layout': '', 'out_dtype': ''}
  }
}
layer {
  name:"Node_192"
  type:"const"
  top:"Node_192"
  layer_param {
    idx:192
    out_0 {name:"Node_192:0",dtype:float32,shape:[96]}
  }
}
layer {
  name:"Node_193"
  type:"const"
  top:"Node_193"
  layer_param {
    idx:193
    out_0 {name:"Node_193:0",dtype:float32,shape:[96]}
  }
}
layer {
  name:"Node_194"
  type:"const"
  top:"Node_194"
  layer_param {
    idx:194
    out_0 {name:"Node_194:0",dtype:float32,shape:[96]}
  }
}
layer {
  name:"Node_195"
  type:"const"
  top:"Node_195"
  layer_param {
    idx:195
    out_0 {name:"Node_195:0",dtype:float32,shape:[96]}
  }
}
layer {
  name:"Node_196"
  type:"nn_batch_norm"
  top:"Node_196"
  bottom:"Node_191"
  bottom:"Node_192"
  bottom:"Node_193"
  bottom:"Node_194"
  bottom:"Node_195"
  layer_param {
    idx:196
    in_0 {name:"Node_191:0",dtype:float32,shape:[1, 96, 35, 35]}
    in_1 {name:"Node_192:0",dtype:float32,shape:[96]}
    in_2 {name:"Node_193:0",dtype:float32,shape:[96]}
    in_3 {name:"Node_194:0",dtype:float32,shape:[96]}
    in_4 {name:"Node_195:0",dtype:float32,shape:[96]}
    out_0 {name:"Node_196:0",dtype:float32,shape:[1, 96, 35, 35]}
    out_1 {name:"Node_196:1",dtype:float32,shape:[96]}
    out_2 {name:"Node_196:2",dtype:float32,shape:[96]}
    attrs {'axis': 1, 'epsilon': 0.0010000000474974513, 'center': 1, 'scale': 0}
  }
}
layer {
  name:"Node_198"
  type:"nn_relu"
  top:"Node_198"
  bottom:"Node_196"
  layer_param {
    idx:198
    in_0 {name:"Node_196:0",dtype:float32,shape:[1, 96, 35, 35]}
    out_0 {name:"Node_198:0",dtype:float32,shape:[1, 96, 35, 35]}
  }
}
layer {
  name:"Node_204"
  type:"nn_avg_pool2d"
  top:"Node_204"
  bottom:"Node_127"
  layer_param {
    idx:204
    in_0 {name:"Node_127:0",dtype:float32,shape:[1, 192, 35, 35]}
    out_0 {name:"Node_204:0",dtype:float32,shape:[1, 192, 35, 35]}
    attrs {'pool_size': [3, 3], 'strides': [1, 1], 'dilation': [1, 1], 'padding': [1, 1, 1, 1], 'layout': 'NCHW', 'ceil_mode': 0, 'count_include_pad': 0}
  }
}
layer {
  name:"Node_205"
  type:"const"
  top:"Node_205"
  layer_param {
    idx:205
    out_0 {name:"Node_205:0",dtype:float32,shape:[32, 192, 1, 1]}
  }
}
layer {
  name:"Node_206"
  type:"nn_conv2d"
  top:"Node_206"
  bottom:"Node_204"
  bottom:"Node_205"
  layer_param {
    idx:206
    in_0 {name:"Node_204:0",dtype:float32,shape:[1, 192, 35, 35]}
    in_1 {name:"Node_205:0",dtype:float32,shape:[32, 192, 1, 1]}
    out_0 {name:"Node_206:0",dtype:float32,shape:[1, 32, 35, 35]}
    attrs {'strides': [1, 1], 'padding': [0, 0, 0, 0], 'dilation': [1, 1], 'groups': 1, 'channels': 32, 'kernel_size': [1, 1], 'data_layout': 'NCHW', 'kernel_layout': 'OIHW', 'out_layout': '', 'out_dtype': ''}
  }
}
layer {
  name:"Node_207"
  type:"const"
  top:"Node_207"
  layer_param {
    idx:207
    out_0 {name:"Node_207:0",dtype:float32,shape:[32]}
  }
}
layer {
  name:"Node_208"
  type:"const"
  top:"Node_208"
  layer_param {
    idx:208
    out_0 {name:"Node_208:0",dtype:float32,shape:[32]}
  }
}
layer {
  name:"Node_209"
  type:"const"
  top:"Node_209"
  layer_param {
    idx:209
    out_0 {name:"Node_209:0",dtype:float32,shape:[32]}
  }
}
layer {
  name:"Node_210"
  type:"const"
  top:"Node_210"
  layer_param {
    idx:210
    out_0 {name:"Node_210:0",dtype:float32,shape:[32]}
  }
}
layer {
  name:"Node_211"
  type:"nn_batch_norm"
  top:"Node_211"
  bottom:"Node_206"
  bottom:"Node_207"
  bottom:"Node_208"
  bottom:"Node_209"
  bottom:"Node_210"
  layer_param {
    idx:211
    in_0 {name:"Node_206:0",dtype:float32,shape:[1, 32, 35, 35]}
    in_1 {name:"Node_207:0",dtype:float32,shape:[32]}
    in_2 {name:"Node_208:0",dtype:float32,shape:[32]}
    in_3 {name:"Node_209:0",dtype:float32,shape:[32]}
    in_4 {name:"Node_210:0",dtype:float32,shape:[32]}
    out_0 {name:"Node_211:0",dtype:float32,shape:[1, 32, 35, 35]}
    out_1 {name:"Node_211:1",dtype:float32,shape:[32]}
    out_2 {name:"Node_211:2",dtype:float32,shape:[32]}
    attrs {'axis': 1, 'epsilon': 0.0010000000474974513, 'center': 1, 'scale': 0}
  }
}
layer {
  name:"Node_213"
  type:"nn_relu"
  top:"Node_213"
  bottom:"Node_211"
  layer_param {
    idx:213
    in_0 {name:"Node_211:0",dtype:float32,shape:[1, 32, 35, 35]}
    out_0 {name:"Node_213:0",dtype:float32,shape:[1, 32, 35, 35]}
  }
}
layer {
  name:"Node_215"
  type:"concatenate"
  top:"Node_215"
  bottom:"Node_136"
  bottom:"Node_161"
  bottom:"Node_198"
  bottom:"Node_213"
  layer_param {
    idx:215
    in_0 {name:"Node_136:0",dtype:float32,shape:[1, 64, 35, 35]}
    in_1 {name:"Node_161:0",dtype:float32,shape:[1, 64, 35, 35]}
    in_2 {name:"Node_198:0",dtype:float32,shape:[1, 96, 35, 35]}
    in_3 {name:"Node_213:0",dtype:float32,shape:[1, 32, 35, 35]}
    out_0 {name:"Node_215:0",dtype:float32,shape:[1, 256, 35, 35]}
    attrs {'axis': 1}
  }
}
layer {
  name:"Node_216"
  type:"const"
  top:"Node_216"
  layer_param {
    idx:216
    out_0 {name:"Node_216:0",dtype:float32,shape:[64, 256, 1, 1]}
  }
}
layer {
  name:"Node_217"
  type:"nn_conv2d"
  top:"Node_217"
  bottom:"Node_215"
  bottom:"Node_216"
  layer_param {
    idx:217
    in_0 {name:"Node_215:0",dtype:float32,shape:[1, 256, 35, 35]}
    in_1 {name:"Node_216:0",dtype:float32,shape:[64, 256, 1, 1]}
    out_0 {name:"Node_217:0",dtype:float32,shape:[1, 64, 35, 35]}
    attrs {'strides': [1, 1], 'padding': [0, 0, 0, 0], 'dilation': [1, 1], 'groups': 1, 'channels': 64, 'kernel_size': [1, 1], 'data_layout': 'NCHW', 'kernel_layout': 'OIHW', 'out_layout': '', 'out_dtype': ''}
  }
}
layer {
  name:"Node_218"
  type:"const"
  top:"Node_218"
  layer_param {
    idx:218
    out_0 {name:"Node_218:0",dtype:float32,shape:[64]}
  }
}
layer {
  name:"Node_219"
  type:"const"
  top:"Node_219"
  layer_param {
    idx:219
    out_0 {name:"Node_219:0",dtype:float32,shape:[64]}
  }
}
layer {
  name:"Node_220"
  type:"const"
  top:"Node_220"
  layer_param {
    idx:220
    out_0 {name:"Node_220:0",dtype:float32,shape:[64]}
  }
}
layer {
  name:"Node_221"
  type:"const"
  top:"Node_221"
  layer_param {
    idx:221
    out_0 {name:"Node_221:0",dtype:float32,shape:[64]}
  }
}
layer {
  name:"Node_222"
  type:"nn_batch_norm"
  top:"Node_222"
  bottom:"Node_217"
  bottom:"Node_218"
  bottom:"Node_219"
  bottom:"Node_220"
  bottom:"Node_221"
  layer_param {
    idx:222
    in_0 {name:"Node_217:0",dtype:float32,shape:[1, 64, 35, 35]}
    in_1 {name:"Node_218:0",dtype:float32,shape:[64]}
    in_2 {name:"Node_219:0",dtype:float32,shape:[64]}
    in_3 {name:"Node_220:0",dtype:float32,shape:[64]}
    in_4 {name:"Node_221:0",dtype:float32,shape:[64]}
    out_0 {name:"Node_222:0",dtype:float32,shape:[1, 64, 35, 35]}
    out_1 {name:"Node_222:1",dtype:float32,shape:[64]}
    out_2 {name:"Node_222:2",dtype:float32,shape:[64]}
    attrs {'axis': 1, 'epsilon': 0.0010000000474974513, 'center': 1, 'scale': 0}
  }
}
layer {
  name:"Node_224"
  type:"nn_relu"
  top:"Node_224"
  bottom:"Node_222"
  layer_param {
    idx:224
    in_0 {name:"Node_222:0",dtype:float32,shape:[1, 64, 35, 35]}
    out_0 {name:"Node_224:0",dtype:float32,shape:[1, 64, 35, 35]}
  }
}
layer {
  name:"Node_232"
  type:"const"
  top:"Node_232"
  layer_param {
    idx:232
    out_0 {name:"Node_232:0",dtype:float32,shape:[48, 256, 1, 1]}
  }
}
layer {
  name:"Node_233"
  type:"nn_conv2d"
  top:"Node_233"
  bottom:"Node_215"
  bottom:"Node_232"
  layer_param {
    idx:233
    in_0 {name:"Node_215:0",dtype:float32,shape:[1, 256, 35, 35]}
    in_1 {name:"Node_232:0",dtype:float32,shape:[48, 256, 1, 1]}
    out_0 {name:"Node_233:0",dtype:float32,shape:[1, 48, 35, 35]}
    attrs {'strides': [1, 1], 'padding': [0, 0, 0, 0], 'dilation': [1, 1], 'groups': 1, 'channels': 48, 'kernel_size': [1, 1], 'data_layout': 'NCHW', 'kernel_layout': 'OIHW', 'out_layout': '', 'out_dtype': ''}
  }
}
layer {
  name:"Node_234"
  type:"const"
  top:"Node_234"
  layer_param {
    idx:234
    out_0 {name:"Node_234:0",dtype:float32,shape:[48]}
  }
}
layer {
  name:"Node_235"
  type:"const"
  top:"Node_235"
  layer_param {
    idx:235
    out_0 {name:"Node_235:0",dtype:float32,shape:[48]}
  }
}
layer {
  name:"Node_236"
  type:"const"
  top:"Node_236"
  layer_param {
    idx:236
    out_0 {name:"Node_236:0",dtype:float32,shape:[48]}
  }
}
layer {
  name:"Node_237"
  type:"const"
  top:"Node_237"
  layer_param {
    idx:237
    out_0 {name:"Node_237:0",dtype:float32,shape:[48]}
  }
}
layer {
  name:"Node_238"
  type:"nn_batch_norm"
  top:"Node_238"
  bottom:"Node_233"
  bottom:"Node_234"
  bottom:"Node_235"
  bottom:"Node_236"
  bottom:"Node_237"
  layer_param {
    idx:238
    in_0 {name:"Node_233:0",dtype:float32,shape:[1, 48, 35, 35]}
    in_1 {name:"Node_234:0",dtype:float32,shape:[48]}
    in_2 {name:"Node_235:0",dtype:float32,shape:[48]}
    in_3 {name:"Node_236:0",dtype:float32,shape:[48]}
    in_4 {name:"Node_237:0",dtype:float32,shape:[48]}
    out_0 {name:"Node_238:0",dtype:float32,shape:[1, 48, 35, 35]}
    out_1 {name:"Node_238:1",dtype:float32,shape:[48]}
    out_2 {name:"Node_238:2",dtype:float32,shape:[48]}
    attrs {'axis': 1, 'epsilon': 0.0010000000474974513, 'center': 1, 'scale': 0}
  }
}
layer {
  name:"Node_240"
  type:"nn_relu"
  top:"Node_240"
  bottom:"Node_238"
  layer_param {
    idx:240
    in_0 {name:"Node_238:0",dtype:float32,shape:[1, 48, 35, 35]}
    out_0 {name:"Node_240:0",dtype:float32,shape:[1, 48, 35, 35]}
  }
}
layer {
  name:"Node_241"
  type:"const"
  top:"Node_241"
  layer_param {
    idx:241
    out_0 {name:"Node_241:0",dtype:float32,shape:[64, 48, 5, 5]}
  }
}
layer {
  name:"Node_242"
  type:"nn_conv2d"
  top:"Node_242"
  bottom:"Node_240"
  bottom:"Node_241"
  layer_param {
    idx:242
    in_0 {name:"Node_240:0",dtype:float32,shape:[1, 48, 35, 35]}
    in_1 {name:"Node_241:0",dtype:float32,shape:[64, 48, 5, 5]}
    out_0 {name:"Node_242:0",dtype:float32,shape:[1, 64, 35, 35]}
    attrs {'strides': [1, 1], 'padding': [2, 2, 2, 2], 'dilation': [1, 1], 'groups': 1, 'channels': 64, 'kernel_size': [5, 5], 'data_layout': 'NCHW', 'kernel_layout': 'OIHW', 'out_layout': '', 'out_dtype': ''}
  }
}
layer {
  name:"Node_243"
  type:"const"
  top:"Node_243"
  layer_param {
    idx:243
    out_0 {name:"Node_243:0",dtype:float32,shape:[64]}
  }
}
layer {
  name:"Node_244"
  type:"const"
  top:"Node_244"
  layer_param {
    idx:244
    out_0 {name:"Node_244:0",dtype:float32,shape:[64]}
  }
}
layer {
  name:"Node_245"
  type:"const"
  top:"Node_245"
  layer_param {
    idx:245
    out_0 {name:"Node_245:0",dtype:float32,shape:[64]}
  }
}
layer {
  name:"Node_246"
  type:"const"
  top:"Node_246"
  layer_param {
    idx:246
    out_0 {name:"Node_246:0",dtype:float32,shape:[64]}
  }
}
layer {
  name:"Node_247"
  type:"nn_batch_norm"
  top:"Node_247"
  bottom:"Node_242"
  bottom:"Node_243"
  bottom:"Node_244"
  bottom:"Node_245"
  bottom:"Node_246"
  layer_param {
    idx:247
    in_0 {name:"Node_242:0",dtype:float32,shape:[1, 64, 35, 35]}
    in_1 {name:"Node_243:0",dtype:float32,shape:[64]}
    in_2 {name:"Node_244:0",dtype:float32,shape:[64]}
    in_3 {name:"Node_245:0",dtype:float32,shape:[64]}
    in_4 {name:"Node_246:0",dtype:float32,shape:[64]}
    out_0 {name:"Node_247:0",dtype:float32,shape:[1, 64, 35, 35]}
    out_1 {name:"Node_247:1",dtype:float32,shape:[64]}
    out_2 {name:"Node_247:2",dtype:float32,shape:[64]}
    attrs {'axis': 1, 'epsilon': 0.0010000000474974513, 'center': 1, 'scale': 0}
  }
}
layer {
  name:"Node_249"
  type:"nn_relu"
  top:"Node_249"
  bottom:"Node_247"
  layer_param {
    idx:249
    in_0 {name:"Node_247:0",dtype:float32,shape:[1, 64, 35, 35]}
    out_0 {name:"Node_249:0",dtype:float32,shape:[1, 64, 35, 35]}
  }
}
layer {
  name:"Node_260"
  type:"const"
  top:"Node_260"
  layer_param {
    idx:260
    out_0 {name:"Node_260:0",dtype:float32,shape:[64, 256, 1, 1]}
  }
}
layer {
  name:"Node_261"
  type:"nn_conv2d"
  top:"Node_261"
  bottom:"Node_215"
  bottom:"Node_260"
  layer_param {
    idx:261
    in_0 {name:"Node_215:0",dtype:float32,shape:[1, 256, 35, 35]}
    in_1 {name:"Node_260:0",dtype:float32,shape:[64, 256, 1, 1]}
    out_0 {name:"Node_261:0",dtype:float32,shape:[1, 64, 35, 35]}
    attrs {'strides': [1, 1], 'padding': [0, 0, 0, 0], 'dilation': [1, 1], 'groups': 1, 'channels': 64, 'kernel_size': [1, 1], 'data_layout': 'NCHW', 'kernel_layout': 'OIHW', 'out_layout': '', 'out_dtype': ''}
  }
}
layer {
  name:"Node_262"
  type:"const"
  top:"Node_262"
  layer_param {
    idx:262
    out_0 {name:"Node_262:0",dtype:float32,shape:[64]}
  }
}
layer {
  name:"Node_263"
  type:"const"
  top:"Node_263"
  layer_param {
    idx:263
    out_0 {name:"Node_263:0",dtype:float32,shape:[64]}
  }
}
layer {
  name:"Node_264"
  type:"const"
  top:"Node_264"
  layer_param {
    idx:264
    out_0 {name:"Node_264:0",dtype:float32,shape:[64]}
  }
}
layer {
  name:"Node_265"
  type:"const"
  top:"Node_265"
  layer_param {
    idx:265
    out_0 {name:"Node_265:0",dtype:float32,shape:[64]}
  }
}
layer {
  name:"Node_266"
  type:"nn_batch_norm"
  top:"Node_266"
  bottom:"Node_261"
  bottom:"Node_262"
  bottom:"Node_263"
  bottom:"Node_264"
  bottom:"Node_265"
  layer_param {
    idx:266
    in_0 {name:"Node_261:0",dtype:float32,shape:[1, 64, 35, 35]}
    in_1 {name:"Node_262:0",dtype:float32,shape:[64]}
    in_2 {name:"Node_263:0",dtype:float32,shape:[64]}
    in_3 {name:"Node_264:0",dtype:float32,shape:[64]}
    in_4 {name:"Node_265:0",dtype:float32,shape:[64]}
    out_0 {name:"Node_266:0",dtype:float32,shape:[1, 64, 35, 35]}
    out_1 {name:"Node_266:1",dtype:float32,shape:[64]}
    out_2 {name:"Node_266:2",dtype:float32,shape:[64]}
    attrs {'axis': 1, 'epsilon': 0.0010000000474974513, 'center': 1, 'scale': 0}
  }
}
layer {
  name:"Node_268"
  type:"nn_relu"
  top:"Node_268"
  bottom:"Node_266"
  layer_param {
    idx:268
    in_0 {name:"Node_266:0",dtype:float32,shape:[1, 64, 35, 35]}
    out_0 {name:"Node_268:0",dtype:float32,shape:[1, 64, 35, 35]}
  }
}
layer {
  name:"Node_269"
  type:"const"
  top:"Node_269"
  layer_param {
    idx:269
    out_0 {name:"Node_269:0",dtype:float32,shape:[96, 64, 3, 3]}
  }
}
layer {
  name:"Node_270"
  type:"nn_conv2d"
  top:"Node_270"
  bottom:"Node_268"
  bottom:"Node_269"
  layer_param {
    idx:270
    in_0 {name:"Node_268:0",dtype:float32,shape:[1, 64, 35, 35]}
    in_1 {name:"Node_269:0",dtype:float32,shape:[96, 64, 3, 3]}
    out_0 {name:"Node_270:0",dtype:float32,shape:[1, 96, 35, 35]}
    attrs {'strides': [1, 1], 'padding': [1, 1, 1, 1], 'dilation': [1, 1], 'groups': 1, 'channels': 96, 'kernel_size': [3, 3], 'data_layout': 'NCHW', 'kernel_layout': 'OIHW', 'out_layout': '', 'out_dtype': ''}
  }
}
layer {
  name:"Node_271"
  type:"const"
  top:"Node_271"
  layer_param {
    idx:271
    out_0 {name:"Node_271:0",dtype:float32,shape:[96]}
  }
}
layer {
  name:"Node_272"
  type:"const"
  top:"Node_272"
  layer_param {
    idx:272
    out_0 {name:"Node_272:0",dtype:float32,shape:[96]}
  }
}
layer {
  name:"Node_273"
  type:"const"
  top:"Node_273"
  layer_param {
    idx:273
    out_0 {name:"Node_273:0",dtype:float32,shape:[96]}
  }
}
layer {
  name:"Node_274"
  type:"const"
  top:"Node_274"
  layer_param {
    idx:274
    out_0 {name:"Node_274:0",dtype:float32,shape:[96]}
  }
}
layer {
  name:"Node_275"
  type:"nn_batch_norm"
  top:"Node_275"
  bottom:"Node_270"
  bottom:"Node_271"
  bottom:"Node_272"
  bottom:"Node_273"
  bottom:"Node_274"
  layer_param {
    idx:275
    in_0 {name:"Node_270:0",dtype:float32,shape:[1, 96, 35, 35]}
    in_1 {name:"Node_271:0",dtype:float32,shape:[96]}
    in_2 {name:"Node_272:0",dtype:float32,shape:[96]}
    in_3 {name:"Node_273:0",dtype:float32,shape:[96]}
    in_4 {name:"Node_274:0",dtype:float32,shape:[96]}
    out_0 {name:"Node_275:0",dtype:float32,shape:[1, 96, 35, 35]}
    out_1 {name:"Node_275:1",dtype:float32,shape:[96]}
    out_2 {name:"Node_275:2",dtype:float32,shape:[96]}
    attrs {'axis': 1, 'epsilon': 0.0010000000474974513, 'center': 1, 'scale': 0}
  }
}
layer {
  name:"Node_277"
  type:"nn_relu"
  top:"Node_277"
  bottom:"Node_275"
  layer_param {
    idx:277
    in_0 {name:"Node_275:0",dtype:float32,shape:[1, 96, 35, 35]}
    out_0 {name:"Node_277:0",dtype:float32,shape:[1, 96, 35, 35]}
  }
}
layer {
  name:"Node_278"
  type:"const"
  top:"Node_278"
  layer_param {
    idx:278
    out_0 {name:"Node_278:0",dtype:float32,shape:[96, 96, 3, 3]}
  }
}
layer {
  name:"Node_279"
  type:"nn_conv2d"
  top:"Node_279"
  bottom:"Node_277"
  bottom:"Node_278"
  layer_param {
    idx:279
    in_0 {name:"Node_277:0",dtype:float32,shape:[1, 96, 35, 35]}
    in_1 {name:"Node_278:0",dtype:float32,shape:[96, 96, 3, 3]}
    out_0 {name:"Node_279:0",dtype:float32,shape:[1, 96, 35, 35]}
    attrs {'strides': [1, 1], 'padding': [1, 1, 1, 1], 'dilation': [1, 1], 'groups': 1, 'channels': 96, 'kernel_size': [3, 3], 'data_layout': 'NCHW', 'kernel_layout': 'OIHW', 'out_layout': '', 'out_dtype': ''}
  }
}
layer {
  name:"Node_280"
  type:"const"
  top:"Node_280"
  layer_param {
    idx:280
    out_0 {name:"Node_280:0",dtype:float32,shape:[96]}
  }
}
layer {
  name:"Node_281"
  type:"const"
  top:"Node_281"
  layer_param {
    idx:281
    out_0 {name:"Node_281:0",dtype:float32,shape:[96]}
  }
}
layer {
  name:"Node_282"
  type:"const"
  top:"Node_282"
  layer_param {
    idx:282
    out_0 {name:"Node_282:0",dtype:float32,shape:[96]}
  }
}
layer {
  name:"Node_283"
  type:"const"
  top:"Node_283"
  layer_param {
    idx:283
    out_0 {name:"Node_283:0",dtype:float32,shape:[96]}
  }
}
layer {
  name:"Node_284"
  type:"nn_batch_norm"
  top:"Node_284"
  bottom:"Node_279"
  bottom:"Node_280"
  bottom:"Node_281"
  bottom:"Node_282"
  bottom:"Node_283"
  layer_param {
    idx:284
    in_0 {name:"Node_279:0",dtype:float32,shape:[1, 96, 35, 35]}
    in_1 {name:"Node_280:0",dtype:float32,shape:[96]}
    in_2 {name:"Node_281:0",dtype:float32,shape:[96]}
    in_3 {name:"Node_282:0",dtype:float32,shape:[96]}
    in_4 {name:"Node_283:0",dtype:float32,shape:[96]}
    out_0 {name:"Node_284:0",dtype:float32,shape:[1, 96, 35, 35]}
    out_1 {name:"Node_284:1",dtype:float32,shape:[96]}
    out_2 {name:"Node_284:2",dtype:float32,shape:[96]}
    attrs {'axis': 1, 'epsilon': 0.0010000000474974513, 'center': 1, 'scale': 0}
  }
}
layer {
  name:"Node_286"
  type:"nn_relu"
  top:"Node_286"
  bottom:"Node_284"
  layer_param {
    idx:286
    in_0 {name:"Node_284:0",dtype:float32,shape:[1, 96, 35, 35]}
    out_0 {name:"Node_286:0",dtype:float32,shape:[1, 96, 35, 35]}
  }
}
layer {
  name:"Node_292"
  type:"nn_avg_pool2d"
  top:"Node_292"
  bottom:"Node_215"
  layer_param {
    idx:292
    in_0 {name:"Node_215:0",dtype:float32,shape:[1, 256, 35, 35]}
    out_0 {name:"Node_292:0",dtype:float32,shape:[1, 256, 35, 35]}
    attrs {'pool_size': [3, 3], 'strides': [1, 1], 'dilation': [1, 1], 'padding': [1, 1, 1, 1], 'layout': 'NCHW', 'ceil_mode': 0, 'count_include_pad': 0}
  }
}
layer {
  name:"Node_293"
  type:"const"
  top:"Node_293"
  layer_param {
    idx:293
    out_0 {name:"Node_293:0",dtype:float32,shape:[64, 256, 1, 1]}
  }
}
layer {
  name:"Node_294"
  type:"nn_conv2d"
  top:"Node_294"
  bottom:"Node_292"
  bottom:"Node_293"
  layer_param {
    idx:294
    in_0 {name:"Node_292:0",dtype:float32,shape:[1, 256, 35, 35]}
    in_1 {name:"Node_293:0",dtype:float32,shape:[64, 256, 1, 1]}
    out_0 {name:"Node_294:0",dtype:float32,shape:[1, 64, 35, 35]}
    attrs {'strides': [1, 1], 'padding': [0, 0, 0, 0], 'dilation': [1, 1], 'groups': 1, 'channels': 64, 'kernel_size': [1, 1], 'data_layout': 'NCHW', 'kernel_layout': 'OIHW', 'out_layout': '', 'out_dtype': ''}
  }
}
layer {
  name:"Node_295"
  type:"const"
  top:"Node_295"
  layer_param {
    idx:295
    out_0 {name:"Node_295:0",dtype:float32,shape:[64]}
  }
}
layer {
  name:"Node_296"
  type:"const"
  top:"Node_296"
  layer_param {
    idx:296
    out_0 {name:"Node_296:0",dtype:float32,shape:[64]}
  }
}
layer {
  name:"Node_297"
  type:"const"
  top:"Node_297"
  layer_param {
    idx:297
    out_0 {name:"Node_297:0",dtype:float32,shape:[64]}
  }
}
layer {
  name:"Node_298"
  type:"const"
  top:"Node_298"
  layer_param {
    idx:298
    out_0 {name:"Node_298:0",dtype:float32,shape:[64]}
  }
}
layer {
  name:"Node_299"
  type:"nn_batch_norm"
  top:"Node_299"
  bottom:"Node_294"
  bottom:"Node_295"
  bottom:"Node_296"
  bottom:"Node_297"
  bottom:"Node_298"
  layer_param {
    idx:299
    in_0 {name:"Node_294:0",dtype:float32,shape:[1, 64, 35, 35]}
    in_1 {name:"Node_295:0",dtype:float32,shape:[64]}
    in_2 {name:"Node_296:0",dtype:float32,shape:[64]}
    in_3 {name:"Node_297:0",dtype:float32,shape:[64]}
    in_4 {name:"Node_298:0",dtype:float32,shape:[64]}
    out_0 {name:"Node_299:0",dtype:float32,shape:[1, 64, 35, 35]}
    out_1 {name:"Node_299:1",dtype:float32,shape:[64]}
    out_2 {name:"Node_299:2",dtype:float32,shape:[64]}
    attrs {'axis': 1, 'epsilon': 0.0010000000474974513, 'center': 1, 'scale': 0}
  }
}
layer {
  name:"Node_301"
  type:"nn_relu"
  top:"Node_301"
  bottom:"Node_299"
  layer_param {
    idx:301
    in_0 {name:"Node_299:0",dtype:float32,shape:[1, 64, 35, 35]}
    out_0 {name:"Node_301:0",dtype:float32,shape:[1, 64, 35, 35]}
  }
}
layer {
  name:"Node_303"
  type:"concatenate"
  top:"Node_303"
  bottom:"Node_224"
  bottom:"Node_249"
  bottom:"Node_286"
  bottom:"Node_301"
  layer_param {
    idx:303
    in_0 {name:"Node_224:0",dtype:float32,shape:[1, 64, 35, 35]}
    in_1 {name:"Node_249:0",dtype:float32,shape:[1, 64, 35, 35]}
    in_2 {name:"Node_286:0",dtype:float32,shape:[1, 96, 35, 35]}
    in_3 {name:"Node_301:0",dtype:float32,shape:[1, 64, 35, 35]}
    out_0 {name:"Node_303:0",dtype:float32,shape:[1, 288, 35, 35]}
    attrs {'axis': 1}
  }
}
layer {
  name:"Node_304"
  type:"const"
  top:"Node_304"
  layer_param {
    idx:304
    out_0 {name:"Node_304:0",dtype:float32,shape:[64, 288, 1, 1]}
  }
}
layer {
  name:"Node_305"
  type:"nn_conv2d"
  top:"Node_305"
  bottom:"Node_303"
  bottom:"Node_304"
  layer_param {
    idx:305
    in_0 {name:"Node_303:0",dtype:float32,shape:[1, 288, 35, 35]}
    in_1 {name:"Node_304:0",dtype:float32,shape:[64, 288, 1, 1]}
    out_0 {name:"Node_305:0",dtype:float32,shape:[1, 64, 35, 35]}
    attrs {'strides': [1, 1], 'padding': [0, 0, 0, 0], 'dilation': [1, 1], 'groups': 1, 'channels': 64, 'kernel_size': [1, 1], 'data_layout': 'NCHW', 'kernel_layout': 'OIHW', 'out_layout': '', 'out_dtype': ''}
  }
}
layer {
  name:"Node_306"
  type:"const"
  top:"Node_306"
  layer_param {
    idx:306
    out_0 {name:"Node_306:0",dtype:float32,shape:[64]}
  }
}
layer {
  name:"Node_307"
  type:"const"
  top:"Node_307"
  layer_param {
    idx:307
    out_0 {name:"Node_307:0",dtype:float32,shape:[64]}
  }
}
layer {
  name:"Node_308"
  type:"const"
  top:"Node_308"
  layer_param {
    idx:308
    out_0 {name:"Node_308:0",dtype:float32,shape:[64]}
  }
}
layer {
  name:"Node_309"
  type:"const"
  top:"Node_309"
  layer_param {
    idx:309
    out_0 {name:"Node_309:0",dtype:float32,shape:[64]}
  }
}
layer {
  name:"Node_310"
  type:"nn_batch_norm"
  top:"Node_310"
  bottom:"Node_305"
  bottom:"Node_306"
  bottom:"Node_307"
  bottom:"Node_308"
  bottom:"Node_309"
  layer_param {
    idx:310
    in_0 {name:"Node_305:0",dtype:float32,shape:[1, 64, 35, 35]}
    in_1 {name:"Node_306:0",dtype:float32,shape:[64]}
    in_2 {name:"Node_307:0",dtype:float32,shape:[64]}
    in_3 {name:"Node_308:0",dtype:float32,shape:[64]}
    in_4 {name:"Node_309:0",dtype:float32,shape:[64]}
    out_0 {name:"Node_310:0",dtype:float32,shape:[1, 64, 35, 35]}
    out_1 {name:"Node_310:1",dtype:float32,shape:[64]}
    out_2 {name:"Node_310:2",dtype:float32,shape:[64]}
    attrs {'axis': 1, 'epsilon': 0.0010000000474974513, 'center': 1, 'scale': 0}
  }
}
layer {
  name:"Node_312"
  type:"nn_relu"
  top:"Node_312"
  bottom:"Node_310"
  layer_param {
    idx:312
    in_0 {name:"Node_310:0",dtype:float32,shape:[1, 64, 35, 35]}
    out_0 {name:"Node_312:0",dtype:float32,shape:[1, 64, 35, 35]}
  }
}
layer {
  name:"Node_320"
  type:"const"
  top:"Node_320"
  layer_param {
    idx:320
    out_0 {name:"Node_320:0",dtype:float32,shape:[48, 288, 1, 1]}
  }
}
layer {
  name:"Node_321"
  type:"nn_conv2d"
  top:"Node_321"
  bottom:"Node_303"
  bottom:"Node_320"
  layer_param {
    idx:321
    in_0 {name:"Node_303:0",dtype:float32,shape:[1, 288, 35, 35]}
    in_1 {name:"Node_320:0",dtype:float32,shape:[48, 288, 1, 1]}
    out_0 {name:"Node_321:0",dtype:float32,shape:[1, 48, 35, 35]}
    attrs {'strides': [1, 1], 'padding': [0, 0, 0, 0], 'dilation': [1, 1], 'groups': 1, 'channels': 48, 'kernel_size': [1, 1], 'data_layout': 'NCHW', 'kernel_layout': 'OIHW', 'out_layout': '', 'out_dtype': ''}
  }
}
layer {
  name:"Node_322"
  type:"const"
  top:"Node_322"
  layer_param {
    idx:322
    out_0 {name:"Node_322:0",dtype:float32,shape:[48]}
  }
}
layer {
  name:"Node_323"
  type:"const"
  top:"Node_323"
  layer_param {
    idx:323
    out_0 {name:"Node_323:0",dtype:float32,shape:[48]}
  }
}
layer {
  name:"Node_324"
  type:"const"
  top:"Node_324"
  layer_param {
    idx:324
    out_0 {name:"Node_324:0",dtype:float32,shape:[48]}
  }
}
layer {
  name:"Node_325"
  type:"const"
  top:"Node_325"
  layer_param {
    idx:325
    out_0 {name:"Node_325:0",dtype:float32,shape:[48]}
  }
}
layer {
  name:"Node_326"
  type:"nn_batch_norm"
  top:"Node_326"
  bottom:"Node_321"
  bottom:"Node_322"
  bottom:"Node_323"
  bottom:"Node_324"
  bottom:"Node_325"
  layer_param {
    idx:326
    in_0 {name:"Node_321:0",dtype:float32,shape:[1, 48, 35, 35]}
    in_1 {name:"Node_322:0",dtype:float32,shape:[48]}
    in_2 {name:"Node_323:0",dtype:float32,shape:[48]}
    in_3 {name:"Node_324:0",dtype:float32,shape:[48]}
    in_4 {name:"Node_325:0",dtype:float32,shape:[48]}
    out_0 {name:"Node_326:0",dtype:float32,shape:[1, 48, 35, 35]}
    out_1 {name:"Node_326:1",dtype:float32,shape:[48]}
    out_2 {name:"Node_326:2",dtype:float32,shape:[48]}
    attrs {'axis': 1, 'epsilon': 0.0010000000474974513, 'center': 1, 'scale': 0}
  }
}
layer {
  name:"Node_328"
  type:"nn_relu"
  top:"Node_328"
  bottom:"Node_326"
  layer_param {
    idx:328
    in_0 {name:"Node_326:0",dtype:float32,shape:[1, 48, 35, 35]}
    out_0 {name:"Node_328:0",dtype:float32,shape:[1, 48, 35, 35]}
  }
}
layer {
  name:"Node_329"
  type:"const"
  top:"Node_329"
  layer_param {
    idx:329
    out_0 {name:"Node_329:0",dtype:float32,shape:[64, 48, 5, 5]}
  }
}
layer {
  name:"Node_330"
  type:"nn_conv2d"
  top:"Node_330"
  bottom:"Node_328"
  bottom:"Node_329"
  layer_param {
    idx:330
    in_0 {name:"Node_328:0",dtype:float32,shape:[1, 48, 35, 35]}
    in_1 {name:"Node_329:0",dtype:float32,shape:[64, 48, 5, 5]}
    out_0 {name:"Node_330:0",dtype:float32,shape:[1, 64, 35, 35]}
    attrs {'strides': [1, 1], 'padding': [2, 2, 2, 2], 'dilation': [1, 1], 'groups': 1, 'channels': 64, 'kernel_size': [5, 5], 'data_layout': 'NCHW', 'kernel_layout': 'OIHW', 'out_layout': '', 'out_dtype': ''}
  }
}
layer {
  name:"Node_331"
  type:"const"
  top:"Node_331"
  layer_param {
    idx:331
    out_0 {name:"Node_331:0",dtype:float32,shape:[64]}
  }
}
layer {
  name:"Node_332"
  type:"const"
  top:"Node_332"
  layer_param {
    idx:332
    out_0 {name:"Node_332:0",dtype:float32,shape:[64]}
  }
}
layer {
  name:"Node_333"
  type:"const"
  top:"Node_333"
  layer_param {
    idx:333
    out_0 {name:"Node_333:0",dtype:float32,shape:[64]}
  }
}
layer {
  name:"Node_334"
  type:"const"
  top:"Node_334"
  layer_param {
    idx:334
    out_0 {name:"Node_334:0",dtype:float32,shape:[64]}
  }
}
layer {
  name:"Node_335"
  type:"nn_batch_norm"
  top:"Node_335"
  bottom:"Node_330"
  bottom:"Node_331"
  bottom:"Node_332"
  bottom:"Node_333"
  bottom:"Node_334"
  layer_param {
    idx:335
    in_0 {name:"Node_330:0",dtype:float32,shape:[1, 64, 35, 35]}
    in_1 {name:"Node_331:0",dtype:float32,shape:[64]}
    in_2 {name:"Node_332:0",dtype:float32,shape:[64]}
    in_3 {name:"Node_333:0",dtype:float32,shape:[64]}
    in_4 {name:"Node_334:0",dtype:float32,shape:[64]}
    out_0 {name:"Node_335:0",dtype:float32,shape:[1, 64, 35, 35]}
    out_1 {name:"Node_335:1",dtype:float32,shape:[64]}
    out_2 {name:"Node_335:2",dtype:float32,shape:[64]}
    attrs {'axis': 1, 'epsilon': 0.0010000000474974513, 'center': 1, 'scale': 0}
  }
}
layer {
  name:"Node_337"
  type:"nn_relu"
  top:"Node_337"
  bottom:"Node_335"
  layer_param {
    idx:337
    in_0 {name:"Node_335:0",dtype:float32,shape:[1, 64, 35, 35]}
    out_0 {name:"Node_337:0",dtype:float32,shape:[1, 64, 35, 35]}
  }
}
layer {
  name:"Node_348"
  type:"const"
  top:"Node_348"
  layer_param {
    idx:348
    out_0 {name:"Node_348:0",dtype:float32,shape:[64, 288, 1, 1]}
  }
}
layer {
  name:"Node_349"
  type:"nn_conv2d"
  top:"Node_349"
  bottom:"Node_303"
  bottom:"Node_348"
  layer_param {
    idx:349
    in_0 {name:"Node_303:0",dtype:float32,shape:[1, 288, 35, 35]}
    in_1 {name:"Node_348:0",dtype:float32,shape:[64, 288, 1, 1]}
    out_0 {name:"Node_349:0",dtype:float32,shape:[1, 64, 35, 35]}
    attrs {'strides': [1, 1], 'padding': [0, 0, 0, 0], 'dilation': [1, 1], 'groups': 1, 'channels': 64, 'kernel_size': [1, 1], 'data_layout': 'NCHW', 'kernel_layout': 'OIHW', 'out_layout': '', 'out_dtype': ''}
  }
}
layer {
  name:"Node_350"
  type:"const"
  top:"Node_350"
  layer_param {
    idx:350
    out_0 {name:"Node_350:0",dtype:float32,shape:[64]}
  }
}
layer {
  name:"Node_351"
  type:"const"
  top:"Node_351"
  layer_param {
    idx:351
    out_0 {name:"Node_351:0",dtype:float32,shape:[64]}
  }
}
layer {
  name:"Node_352"
  type:"const"
  top:"Node_352"
  layer_param {
    idx:352
    out_0 {name:"Node_352:0",dtype:float32,shape:[64]}
  }
}
layer {
  name:"Node_353"
  type:"const"
  top:"Node_353"
  layer_param {
    idx:353
    out_0 {name:"Node_353:0",dtype:float32,shape:[64]}
  }
}
layer {
  name:"Node_354"
  type:"nn_batch_norm"
  top:"Node_354"
  bottom:"Node_349"
  bottom:"Node_350"
  bottom:"Node_351"
  bottom:"Node_352"
  bottom:"Node_353"
  layer_param {
    idx:354
    in_0 {name:"Node_349:0",dtype:float32,shape:[1, 64, 35, 35]}
    in_1 {name:"Node_350:0",dtype:float32,shape:[64]}
    in_2 {name:"Node_351:0",dtype:float32,shape:[64]}
    in_3 {name:"Node_352:0",dtype:float32,shape:[64]}
    in_4 {name:"Node_353:0",dtype:float32,shape:[64]}
    out_0 {name:"Node_354:0",dtype:float32,shape:[1, 64, 35, 35]}
    out_1 {name:"Node_354:1",dtype:float32,shape:[64]}
    out_2 {name:"Node_354:2",dtype:float32,shape:[64]}
    attrs {'axis': 1, 'epsilon': 0.0010000000474974513, 'center': 1, 'scale': 0}
  }
}
layer {
  name:"Node_356"
  type:"nn_relu"
  top:"Node_356"
  bottom:"Node_354"
  layer_param {
    idx:356
    in_0 {name:"Node_354:0",dtype:float32,shape:[1, 64, 35, 35]}
    out_0 {name:"Node_356:0",dtype:float32,shape:[1, 64, 35, 35]}
  }
}
layer {
  name:"Node_357"
  type:"const"
  top:"Node_357"
  layer_param {
    idx:357
    out_0 {name:"Node_357:0",dtype:float32,shape:[96, 64, 3, 3]}
  }
}
layer {
  name:"Node_358"
  type:"nn_conv2d"
  top:"Node_358"
  bottom:"Node_356"
  bottom:"Node_357"
  layer_param {
    idx:358
    in_0 {name:"Node_356:0",dtype:float32,shape:[1, 64, 35, 35]}
    in_1 {name:"Node_357:0",dtype:float32,shape:[96, 64, 3, 3]}
    out_0 {name:"Node_358:0",dtype:float32,shape:[1, 96, 35, 35]}
    attrs {'strides': [1, 1], 'padding': [1, 1, 1, 1], 'dilation': [1, 1], 'groups': 1, 'channels': 96, 'kernel_size': [3, 3], 'data_layout': 'NCHW', 'kernel_layout': 'OIHW', 'out_layout': '', 'out_dtype': ''}
  }
}
layer {
  name:"Node_359"
  type:"const"
  top:"Node_359"
  layer_param {
    idx:359
    out_0 {name:"Node_359:0",dtype:float32,shape:[96]}
  }
}
layer {
  name:"Node_360"
  type:"const"
  top:"Node_360"
  layer_param {
    idx:360
    out_0 {name:"Node_360:0",dtype:float32,shape:[96]}
  }
}
layer {
  name:"Node_361"
  type:"const"
  top:"Node_361"
  layer_param {
    idx:361
    out_0 {name:"Node_361:0",dtype:float32,shape:[96]}
  }
}
layer {
  name:"Node_362"
  type:"const"
  top:"Node_362"
  layer_param {
    idx:362
    out_0 {name:"Node_362:0",dtype:float32,shape:[96]}
  }
}
layer {
  name:"Node_363"
  type:"nn_batch_norm"
  top:"Node_363"
  bottom:"Node_358"
  bottom:"Node_359"
  bottom:"Node_360"
  bottom:"Node_361"
  bottom:"Node_362"
  layer_param {
    idx:363
    in_0 {name:"Node_358:0",dtype:float32,shape:[1, 96, 35, 35]}
    in_1 {name:"Node_359:0",dtype:float32,shape:[96]}
    in_2 {name:"Node_360:0",dtype:float32,shape:[96]}
    in_3 {name:"Node_361:0",dtype:float32,shape:[96]}
    in_4 {name:"Node_362:0",dtype:float32,shape:[96]}
    out_0 {name:"Node_363:0",dtype:float32,shape:[1, 96, 35, 35]}
    out_1 {name:"Node_363:1",dtype:float32,shape:[96]}
    out_2 {name:"Node_363:2",dtype:float32,shape:[96]}
    attrs {'axis': 1, 'epsilon': 0.0010000000474974513, 'center': 1, 'scale': 0}
  }
}
layer {
  name:"Node_365"
  type:"nn_relu"
  top:"Node_365"
  bottom:"Node_363"
  layer_param {
    idx:365
    in_0 {name:"Node_363:0",dtype:float32,shape:[1, 96, 35, 35]}
    out_0 {name:"Node_365:0",dtype:float32,shape:[1, 96, 35, 35]}
  }
}
layer {
  name:"Node_366"
  type:"const"
  top:"Node_366"
  layer_param {
    idx:366
    out_0 {name:"Node_366:0",dtype:float32,shape:[96, 96, 3, 3]}
  }
}
layer {
  name:"Node_367"
  type:"nn_conv2d"
  top:"Node_367"
  bottom:"Node_365"
  bottom:"Node_366"
  layer_param {
    idx:367
    in_0 {name:"Node_365:0",dtype:float32,shape:[1, 96, 35, 35]}
    in_1 {name:"Node_366:0",dtype:float32,shape:[96, 96, 3, 3]}
    out_0 {name:"Node_367:0",dtype:float32,shape:[1, 96, 35, 35]}
    attrs {'strides': [1, 1], 'padding': [1, 1, 1, 1], 'dilation': [1, 1], 'groups': 1, 'channels': 96, 'kernel_size': [3, 3], 'data_layout': 'NCHW', 'kernel_layout': 'OIHW', 'out_layout': '', 'out_dtype': ''}
  }
}
layer {
  name:"Node_368"
  type:"const"
  top:"Node_368"
  layer_param {
    idx:368
    out_0 {name:"Node_368:0",dtype:float32,shape:[96]}
  }
}
layer {
  name:"Node_369"
  type:"const"
  top:"Node_369"
  layer_param {
    idx:369
    out_0 {name:"Node_369:0",dtype:float32,shape:[96]}
  }
}
layer {
  name:"Node_370"
  type:"const"
  top:"Node_370"
  layer_param {
    idx:370
    out_0 {name:"Node_370:0",dtype:float32,shape:[96]}
  }
}
layer {
  name:"Node_371"
  type:"const"
  top:"Node_371"
  layer_param {
    idx:371
    out_0 {name:"Node_371:0",dtype:float32,shape:[96]}
  }
}
layer {
  name:"Node_372"
  type:"nn_batch_norm"
  top:"Node_372"
  bottom:"Node_367"
  bottom:"Node_368"
  bottom:"Node_369"
  bottom:"Node_370"
  bottom:"Node_371"
  layer_param {
    idx:372
    in_0 {name:"Node_367:0",dtype:float32,shape:[1, 96, 35, 35]}
    in_1 {name:"Node_368:0",dtype:float32,shape:[96]}
    in_2 {name:"Node_369:0",dtype:float32,shape:[96]}
    in_3 {name:"Node_370:0",dtype:float32,shape:[96]}
    in_4 {name:"Node_371:0",dtype:float32,shape:[96]}
    out_0 {name:"Node_372:0",dtype:float32,shape:[1, 96, 35, 35]}
    out_1 {name:"Node_372:1",dtype:float32,shape:[96]}
    out_2 {name:"Node_372:2",dtype:float32,shape:[96]}
    attrs {'axis': 1, 'epsilon': 0.0010000000474974513, 'center': 1, 'scale': 0}
  }
}
layer {
  name:"Node_374"
  type:"nn_relu"
  top:"Node_374"
  bottom:"Node_372"
  layer_param {
    idx:374
    in_0 {name:"Node_372:0",dtype:float32,shape:[1, 96, 35, 35]}
    out_0 {name:"Node_374:0",dtype:float32,shape:[1, 96, 35, 35]}
  }
}
layer {
  name:"Node_380"
  type:"nn_avg_pool2d"
  top:"Node_380"
  bottom:"Node_303"
  layer_param {
    idx:380
    in_0 {name:"Node_303:0",dtype:float32,shape:[1, 288, 35, 35]}
    out_0 {name:"Node_380:0",dtype:float32,shape:[1, 288, 35, 35]}
    attrs {'pool_size': [3, 3], 'strides': [1, 1], 'dilation': [1, 1], 'padding': [1, 1, 1, 1], 'layout': 'NCHW', 'ceil_mode': 0, 'count_include_pad': 0}
  }
}
layer {
  name:"Node_381"
  type:"const"
  top:"Node_381"
  layer_param {
    idx:381
    out_0 {name:"Node_381:0",dtype:float32,shape:[64, 288, 1, 1]}
  }
}
layer {
  name:"Node_382"
  type:"nn_conv2d"
  top:"Node_382"
  bottom:"Node_380"
  bottom:"Node_381"
  layer_param {
    idx:382
    in_0 {name:"Node_380:0",dtype:float32,shape:[1, 288, 35, 35]}
    in_1 {name:"Node_381:0",dtype:float32,shape:[64, 288, 1, 1]}
    out_0 {name:"Node_382:0",dtype:float32,shape:[1, 64, 35, 35]}
    attrs {'strides': [1, 1], 'padding': [0, 0, 0, 0], 'dilation': [1, 1], 'groups': 1, 'channels': 64, 'kernel_size': [1, 1], 'data_layout': 'NCHW', 'kernel_layout': 'OIHW', 'out_layout': '', 'out_dtype': ''}
  }
}
layer {
  name:"Node_383"
  type:"const"
  top:"Node_383"
  layer_param {
    idx:383
    out_0 {name:"Node_383:0",dtype:float32,shape:[64]}
  }
}
layer {
  name:"Node_384"
  type:"const"
  top:"Node_384"
  layer_param {
    idx:384
    out_0 {name:"Node_384:0",dtype:float32,shape:[64]}
  }
}
layer {
  name:"Node_385"
  type:"const"
  top:"Node_385"
  layer_param {
    idx:385
    out_0 {name:"Node_385:0",dtype:float32,shape:[64]}
  }
}
layer {
  name:"Node_386"
  type:"const"
  top:"Node_386"
  layer_param {
    idx:386
    out_0 {name:"Node_386:0",dtype:float32,shape:[64]}
  }
}
layer {
  name:"Node_387"
  type:"nn_batch_norm"
  top:"Node_387"
  bottom:"Node_382"
  bottom:"Node_383"
  bottom:"Node_384"
  bottom:"Node_385"
  bottom:"Node_386"
  layer_param {
    idx:387
    in_0 {name:"Node_382:0",dtype:float32,shape:[1, 64, 35, 35]}
    in_1 {name:"Node_383:0",dtype:float32,shape:[64]}
    in_2 {name:"Node_384:0",dtype:float32,shape:[64]}
    in_3 {name:"Node_385:0",dtype:float32,shape:[64]}
    in_4 {name:"Node_386:0",dtype:float32,shape:[64]}
    out_0 {name:"Node_387:0",dtype:float32,shape:[1, 64, 35, 35]}
    out_1 {name:"Node_387:1",dtype:float32,shape:[64]}
    out_2 {name:"Node_387:2",dtype:float32,shape:[64]}
    attrs {'axis': 1, 'epsilon': 0.0010000000474974513, 'center': 1, 'scale': 0}
  }
}
layer {
  name:"Node_389"
  type:"nn_relu"
  top:"Node_389"
  bottom:"Node_387"
  layer_param {
    idx:389
    in_0 {name:"Node_387:0",dtype:float32,shape:[1, 64, 35, 35]}
    out_0 {name:"Node_389:0",dtype:float32,shape:[1, 64, 35, 35]}
  }
}
layer {
  name:"Node_391"
  type:"concatenate"
  top:"Node_391"
  bottom:"Node_312"
  bottom:"Node_337"
  bottom:"Node_374"
  bottom:"Node_389"
  layer_param {
    idx:391
    in_0 {name:"Node_312:0",dtype:float32,shape:[1, 64, 35, 35]}
    in_1 {name:"Node_337:0",dtype:float32,shape:[1, 64, 35, 35]}
    in_2 {name:"Node_374:0",dtype:float32,shape:[1, 96, 35, 35]}
    in_3 {name:"Node_389:0",dtype:float32,shape:[1, 64, 35, 35]}
    out_0 {name:"Node_391:0",dtype:float32,shape:[1, 288, 35, 35]}
    attrs {'axis': 1}
  }
}
layer {
  name:"Node_392"
  type:"const"
  top:"Node_392"
  layer_param {
    idx:392
    out_0 {name:"Node_392:0",dtype:float32,shape:[384, 288, 3, 3]}
  }
}
layer {
  name:"Node_393"
  type:"nn_conv2d"
  top:"Node_393"
  bottom:"Node_391"
  bottom:"Node_392"
  layer_param {
    idx:393
    in_0 {name:"Node_391:0",dtype:float32,shape:[1, 288, 35, 35]}
    in_1 {name:"Node_392:0",dtype:float32,shape:[384, 288, 3, 3]}
    out_0 {name:"Node_393:0",dtype:float32,shape:[1, 384, 17, 17]}
    attrs {'strides': [2, 2], 'padding': [0, 0, 0, 0], 'dilation': [1, 1], 'groups': 1, 'channels': 384, 'kernel_size': [3, 3], 'data_layout': 'NCHW', 'kernel_layout': 'OIHW', 'out_layout': '', 'out_dtype': ''}
  }
}
layer {
  name:"Node_394"
  type:"const"
  top:"Node_394"
  layer_param {
    idx:394
    out_0 {name:"Node_394:0",dtype:float32,shape:[384]}
  }
}
layer {
  name:"Node_395"
  type:"const"
  top:"Node_395"
  layer_param {
    idx:395
    out_0 {name:"Node_395:0",dtype:float32,shape:[384]}
  }
}
layer {
  name:"Node_396"
  type:"const"
  top:"Node_396"
  layer_param {
    idx:396
    out_0 {name:"Node_396:0",dtype:float32,shape:[384]}
  }
}
layer {
  name:"Node_397"
  type:"const"
  top:"Node_397"
  layer_param {
    idx:397
    out_0 {name:"Node_397:0",dtype:float32,shape:[384]}
  }
}
layer {
  name:"Node_398"
  type:"nn_batch_norm"
  top:"Node_398"
  bottom:"Node_393"
  bottom:"Node_394"
  bottom:"Node_395"
  bottom:"Node_396"
  bottom:"Node_397"
  layer_param {
    idx:398
    in_0 {name:"Node_393:0",dtype:float32,shape:[1, 384, 17, 17]}
    in_1 {name:"Node_394:0",dtype:float32,shape:[384]}
    in_2 {name:"Node_395:0",dtype:float32,shape:[384]}
    in_3 {name:"Node_396:0",dtype:float32,shape:[384]}
    in_4 {name:"Node_397:0",dtype:float32,shape:[384]}
    out_0 {name:"Node_398:0",dtype:float32,shape:[1, 384, 17, 17]}
    out_1 {name:"Node_398:1",dtype:float32,shape:[384]}
    out_2 {name:"Node_398:2",dtype:float32,shape:[384]}
    attrs {'axis': 1, 'epsilon': 0.0010000000474974513, 'center': 1, 'scale': 0}
  }
}
layer {
  name:"Node_400"
  type:"nn_relu"
  top:"Node_400"
  bottom:"Node_398"
  layer_param {
    idx:400
    in_0 {name:"Node_398:0",dtype:float32,shape:[1, 384, 17, 17]}
    out_0 {name:"Node_400:0",dtype:float32,shape:[1, 384, 17, 17]}
  }
}
layer {
  name:"Node_411"
  type:"const"
  top:"Node_411"
  layer_param {
    idx:411
    out_0 {name:"Node_411:0",dtype:float32,shape:[64, 288, 1, 1]}
  }
}
layer {
  name:"Node_412"
  type:"nn_conv2d"
  top:"Node_412"
  bottom:"Node_391"
  bottom:"Node_411"
  layer_param {
    idx:412
    in_0 {name:"Node_391:0",dtype:float32,shape:[1, 288, 35, 35]}
    in_1 {name:"Node_411:0",dtype:float32,shape:[64, 288, 1, 1]}
    out_0 {name:"Node_412:0",dtype:float32,shape:[1, 64, 35, 35]}
    attrs {'strides': [1, 1], 'padding': [0, 0, 0, 0], 'dilation': [1, 1], 'groups': 1, 'channels': 64, 'kernel_size': [1, 1], 'data_layout': 'NCHW', 'kernel_layout': 'OIHW', 'out_layout': '', 'out_dtype': ''}
  }
}
layer {
  name:"Node_413"
  type:"const"
  top:"Node_413"
  layer_param {
    idx:413
    out_0 {name:"Node_413:0",dtype:float32,shape:[64]}
  }
}
layer {
  name:"Node_414"
  type:"const"
  top:"Node_414"
  layer_param {
    idx:414
    out_0 {name:"Node_414:0",dtype:float32,shape:[64]}
  }
}
layer {
  name:"Node_415"
  type:"const"
  top:"Node_415"
  layer_param {
    idx:415
    out_0 {name:"Node_415:0",dtype:float32,shape:[64]}
  }
}
layer {
  name:"Node_416"
  type:"const"
  top:"Node_416"
  layer_param {
    idx:416
    out_0 {name:"Node_416:0",dtype:float32,shape:[64]}
  }
}
layer {
  name:"Node_417"
  type:"nn_batch_norm"
  top:"Node_417"
  bottom:"Node_412"
  bottom:"Node_413"
  bottom:"Node_414"
  bottom:"Node_415"
  bottom:"Node_416"
  layer_param {
    idx:417
    in_0 {name:"Node_412:0",dtype:float32,shape:[1, 64, 35, 35]}
    in_1 {name:"Node_413:0",dtype:float32,shape:[64]}
    in_2 {name:"Node_414:0",dtype:float32,shape:[64]}
    in_3 {name:"Node_415:0",dtype:float32,shape:[64]}
    in_4 {name:"Node_416:0",dtype:float32,shape:[64]}
    out_0 {name:"Node_417:0",dtype:float32,shape:[1, 64, 35, 35]}
    out_1 {name:"Node_417:1",dtype:float32,shape:[64]}
    out_2 {name:"Node_417:2",dtype:float32,shape:[64]}
    attrs {'axis': 1, 'epsilon': 0.0010000000474974513, 'center': 1, 'scale': 0}
  }
}
layer {
  name:"Node_419"
  type:"nn_relu"
  top:"Node_419"
  bottom:"Node_417"
  layer_param {
    idx:419
    in_0 {name:"Node_417:0",dtype:float32,shape:[1, 64, 35, 35]}
    out_0 {name:"Node_419:0",dtype:float32,shape:[1, 64, 35, 35]}
  }
}
layer {
  name:"Node_420"
  type:"const"
  top:"Node_420"
  layer_param {
    idx:420
    out_0 {name:"Node_420:0",dtype:float32,shape:[96, 64, 3, 3]}
  }
}
layer {
  name:"Node_421"
  type:"nn_conv2d"
  top:"Node_421"
  bottom:"Node_419"
  bottom:"Node_420"
  layer_param {
    idx:421
    in_0 {name:"Node_419:0",dtype:float32,shape:[1, 64, 35, 35]}
    in_1 {name:"Node_420:0",dtype:float32,shape:[96, 64, 3, 3]}
    out_0 {name:"Node_421:0",dtype:float32,shape:[1, 96, 35, 35]}
    attrs {'strides': [1, 1], 'padding': [1, 1, 1, 1], 'dilation': [1, 1], 'groups': 1, 'channels': 96, 'kernel_size': [3, 3], 'data_layout': 'NCHW', 'kernel_layout': 'OIHW', 'out_layout': '', 'out_dtype': ''}
  }
}
layer {
  name:"Node_422"
  type:"const"
  top:"Node_422"
  layer_param {
    idx:422
    out_0 {name:"Node_422:0",dtype:float32,shape:[96]}
  }
}
layer {
  name:"Node_423"
  type:"const"
  top:"Node_423"
  layer_param {
    idx:423
    out_0 {name:"Node_423:0",dtype:float32,shape:[96]}
  }
}
layer {
  name:"Node_424"
  type:"const"
  top:"Node_424"
  layer_param {
    idx:424
    out_0 {name:"Node_424:0",dtype:float32,shape:[96]}
  }
}
layer {
  name:"Node_425"
  type:"const"
  top:"Node_425"
  layer_param {
    idx:425
    out_0 {name:"Node_425:0",dtype:float32,shape:[96]}
  }
}
layer {
  name:"Node_426"
  type:"nn_batch_norm"
  top:"Node_426"
  bottom:"Node_421"
  bottom:"Node_422"
  bottom:"Node_423"
  bottom:"Node_424"
  bottom:"Node_425"
  layer_param {
    idx:426
    in_0 {name:"Node_421:0",dtype:float32,shape:[1, 96, 35, 35]}
    in_1 {name:"Node_422:0",dtype:float32,shape:[96]}
    in_2 {name:"Node_423:0",dtype:float32,shape:[96]}
    in_3 {name:"Node_424:0",dtype:float32,shape:[96]}
    in_4 {name:"Node_425:0",dtype:float32,shape:[96]}
    out_0 {name:"Node_426:0",dtype:float32,shape:[1, 96, 35, 35]}
    out_1 {name:"Node_426:1",dtype:float32,shape:[96]}
    out_2 {name:"Node_426:2",dtype:float32,shape:[96]}
    attrs {'axis': 1, 'epsilon': 0.0010000000474974513, 'center': 1, 'scale': 0}
  }
}
layer {
  name:"Node_428"
  type:"nn_relu"
  top:"Node_428"
  bottom:"Node_426"
  layer_param {
    idx:428
    in_0 {name:"Node_426:0",dtype:float32,shape:[1, 96, 35, 35]}
    out_0 {name:"Node_428:0",dtype:float32,shape:[1, 96, 35, 35]}
  }
}
layer {
  name:"Node_429"
  type:"const"
  top:"Node_429"
  layer_param {
    idx:429
    out_0 {name:"Node_429:0",dtype:float32,shape:[96, 96, 3, 3]}
  }
}
layer {
  name:"Node_430"
  type:"nn_conv2d"
  top:"Node_430"
  bottom:"Node_428"
  bottom:"Node_429"
  layer_param {
    idx:430
    in_0 {name:"Node_428:0",dtype:float32,shape:[1, 96, 35, 35]}
    in_1 {name:"Node_429:0",dtype:float32,shape:[96, 96, 3, 3]}
    out_0 {name:"Node_430:0",dtype:float32,shape:[1, 96, 17, 17]}
    attrs {'strides': [2, 2], 'padding': [0, 0, 0, 0], 'dilation': [1, 1], 'groups': 1, 'channels': 96, 'kernel_size': [3, 3], 'data_layout': 'NCHW', 'kernel_layout': 'OIHW', 'out_layout': '', 'out_dtype': ''}
  }
}
layer {
  name:"Node_431"
  type:"const"
  top:"Node_431"
  layer_param {
    idx:431
    out_0 {name:"Node_431:0",dtype:float32,shape:[96]}
  }
}
layer {
  name:"Node_432"
  type:"const"
  top:"Node_432"
  layer_param {
    idx:432
    out_0 {name:"Node_432:0",dtype:float32,shape:[96]}
  }
}
layer {
  name:"Node_433"
  type:"const"
  top:"Node_433"
  layer_param {
    idx:433
    out_0 {name:"Node_433:0",dtype:float32,shape:[96]}
  }
}
layer {
  name:"Node_434"
  type:"const"
  top:"Node_434"
  layer_param {
    idx:434
    out_0 {name:"Node_434:0",dtype:float32,shape:[96]}
  }
}
layer {
  name:"Node_435"
  type:"nn_batch_norm"
  top:"Node_435"
  bottom:"Node_430"
  bottom:"Node_431"
  bottom:"Node_432"
  bottom:"Node_433"
  bottom:"Node_434"
  layer_param {
    idx:435
    in_0 {name:"Node_430:0",dtype:float32,shape:[1, 96, 17, 17]}
    in_1 {name:"Node_431:0",dtype:float32,shape:[96]}
    in_2 {name:"Node_432:0",dtype:float32,shape:[96]}
    in_3 {name:"Node_433:0",dtype:float32,shape:[96]}
    in_4 {name:"Node_434:0",dtype:float32,shape:[96]}
    out_0 {name:"Node_435:0",dtype:float32,shape:[1, 96, 17, 17]}
    out_1 {name:"Node_435:1",dtype:float32,shape:[96]}
    out_2 {name:"Node_435:2",dtype:float32,shape:[96]}
    attrs {'axis': 1, 'epsilon': 0.0010000000474974513, 'center': 1, 'scale': 0}
  }
}
layer {
  name:"Node_437"
  type:"nn_relu"
  top:"Node_437"
  bottom:"Node_435"
  layer_param {
    idx:437
    in_0 {name:"Node_435:0",dtype:float32,shape:[1, 96, 17, 17]}
    out_0 {name:"Node_437:0",dtype:float32,shape:[1, 96, 17, 17]}
  }
}
layer {
  name:"Node_440"
  type:"nn_max_pool2d"
  top:"Node_440"
  bottom:"Node_391"
  layer_param {
    idx:440
    in_0 {name:"Node_391:0",dtype:float32,shape:[1, 288, 35, 35]}
    out_0 {name:"Node_440:0",dtype:float32,shape:[1, 288, 17, 17]}
    attrs {'pool_size': [3, 3], 'strides': [2, 2], 'dilation': [1, 1], 'padding': [0, 0, 0, 0], 'layout': 'NCHW', 'ceil_mode': 0}
  }
}
layer {
  name:"Node_442"
  type:"concatenate"
  top:"Node_442"
  bottom:"Node_400"
  bottom:"Node_437"
  bottom:"Node_440"
  layer_param {
    idx:442
    in_0 {name:"Node_400:0",dtype:float32,shape:[1, 384, 17, 17]}
    in_1 {name:"Node_437:0",dtype:float32,shape:[1, 96, 17, 17]}
    in_2 {name:"Node_440:0",dtype:float32,shape:[1, 288, 17, 17]}
    out_0 {name:"Node_442:0",dtype:float32,shape:[1, 768, 17, 17]}
    attrs {'axis': 1}
  }
}
layer {
  name:"Node_443"
  type:"const"
  top:"Node_443"
  layer_param {
    idx:443
    out_0 {name:"Node_443:0",dtype:float32,shape:[192, 768, 1, 1]}
  }
}
layer {
  name:"Node_444"
  type:"nn_conv2d"
  top:"Node_444"
  bottom:"Node_442"
  bottom:"Node_443"
  layer_param {
    idx:444
    in_0 {name:"Node_442:0",dtype:float32,shape:[1, 768, 17, 17]}
    in_1 {name:"Node_443:0",dtype:float32,shape:[192, 768, 1, 1]}
    out_0 {name:"Node_444:0",dtype:float32,shape:[1, 192, 17, 17]}
    attrs {'strides': [1, 1], 'padding': [0, 0, 0, 0], 'dilation': [1, 1], 'groups': 1, 'channels': 192, 'kernel_size': [1, 1], 'data_layout': 'NCHW', 'kernel_layout': 'OIHW', 'out_layout': '', 'out_dtype': ''}
  }
}
layer {
  name:"Node_445"
  type:"const"
  top:"Node_445"
  layer_param {
    idx:445
    out_0 {name:"Node_445:0",dtype:float32,shape:[192]}
  }
}
layer {
  name:"Node_446"
  type:"const"
  top:"Node_446"
  layer_param {
    idx:446
    out_0 {name:"Node_446:0",dtype:float32,shape:[192]}
  }
}
layer {
  name:"Node_447"
  type:"const"
  top:"Node_447"
  layer_param {
    idx:447
    out_0 {name:"Node_447:0",dtype:float32,shape:[192]}
  }
}
layer {
  name:"Node_448"
  type:"const"
  top:"Node_448"
  layer_param {
    idx:448
    out_0 {name:"Node_448:0",dtype:float32,shape:[192]}
  }
}
layer {
  name:"Node_449"
  type:"nn_batch_norm"
  top:"Node_449"
  bottom:"Node_444"
  bottom:"Node_445"
  bottom:"Node_446"
  bottom:"Node_447"
  bottom:"Node_448"
  layer_param {
    idx:449
    in_0 {name:"Node_444:0",dtype:float32,shape:[1, 192, 17, 17]}
    in_1 {name:"Node_445:0",dtype:float32,shape:[192]}
    in_2 {name:"Node_446:0",dtype:float32,shape:[192]}
    in_3 {name:"Node_447:0",dtype:float32,shape:[192]}
    in_4 {name:"Node_448:0",dtype:float32,shape:[192]}
    out_0 {name:"Node_449:0",dtype:float32,shape:[1, 192, 17, 17]}
    out_1 {name:"Node_449:1",dtype:float32,shape:[192]}
    out_2 {name:"Node_449:2",dtype:float32,shape:[192]}
    attrs {'axis': 1, 'epsilon': 0.0010000000474974513, 'center': 1, 'scale': 0}
  }
}
layer {
  name:"Node_451"
  type:"nn_relu"
  top:"Node_451"
  bottom:"Node_449"
  layer_param {
    idx:451
    in_0 {name:"Node_449:0",dtype:float32,shape:[1, 192, 17, 17]}
    out_0 {name:"Node_451:0",dtype:float32,shape:[1, 192, 17, 17]}
  }
}
layer {
  name:"Node_462"
  type:"const"
  top:"Node_462"
  layer_param {
    idx:462
    out_0 {name:"Node_462:0",dtype:float32,shape:[128, 768, 1, 1]}
  }
}
layer {
  name:"Node_463"
  type:"nn_conv2d"
  top:"Node_463"
  bottom:"Node_442"
  bottom:"Node_462"
  layer_param {
    idx:463
    in_0 {name:"Node_442:0",dtype:float32,shape:[1, 768, 17, 17]}
    in_1 {name:"Node_462:0",dtype:float32,shape:[128, 768, 1, 1]}
    out_0 {name:"Node_463:0",dtype:float32,shape:[1, 128, 17, 17]}
    attrs {'strides': [1, 1], 'padding': [0, 0, 0, 0], 'dilation': [1, 1], 'groups': 1, 'channels': 128, 'kernel_size': [1, 1], 'data_layout': 'NCHW', 'kernel_layout': 'OIHW', 'out_layout': '', 'out_dtype': ''}
  }
}
layer {
  name:"Node_464"
  type:"const"
  top:"Node_464"
  layer_param {
    idx:464
    out_0 {name:"Node_464:0",dtype:float32,shape:[128]}
  }
}
layer {
  name:"Node_465"
  type:"const"
  top:"Node_465"
  layer_param {
    idx:465
    out_0 {name:"Node_465:0",dtype:float32,shape:[128]}
  }
}
layer {
  name:"Node_466"
  type:"const"
  top:"Node_466"
  layer_param {
    idx:466
    out_0 {name:"Node_466:0",dtype:float32,shape:[128]}
  }
}
layer {
  name:"Node_467"
  type:"const"
  top:"Node_467"
  layer_param {
    idx:467
    out_0 {name:"Node_467:0",dtype:float32,shape:[128]}
  }
}
layer {
  name:"Node_468"
  type:"nn_batch_norm"
  top:"Node_468"
  bottom:"Node_463"
  bottom:"Node_464"
  bottom:"Node_465"
  bottom:"Node_466"
  bottom:"Node_467"
  layer_param {
    idx:468
    in_0 {name:"Node_463:0",dtype:float32,shape:[1, 128, 17, 17]}
    in_1 {name:"Node_464:0",dtype:float32,shape:[128]}
    in_2 {name:"Node_465:0",dtype:float32,shape:[128]}
    in_3 {name:"Node_466:0",dtype:float32,shape:[128]}
    in_4 {name:"Node_467:0",dtype:float32,shape:[128]}
    out_0 {name:"Node_468:0",dtype:float32,shape:[1, 128, 17, 17]}
    out_1 {name:"Node_468:1",dtype:float32,shape:[128]}
    out_2 {name:"Node_468:2",dtype:float32,shape:[128]}
    attrs {'axis': 1, 'epsilon': 0.0010000000474974513, 'center': 1, 'scale': 0}
  }
}
layer {
  name:"Node_470"
  type:"nn_relu"
  top:"Node_470"
  bottom:"Node_468"
  layer_param {
    idx:470
    in_0 {name:"Node_468:0",dtype:float32,shape:[1, 128, 17, 17]}
    out_0 {name:"Node_470:0",dtype:float32,shape:[1, 128, 17, 17]}
  }
}
layer {
  name:"Node_471"
  type:"const"
  top:"Node_471"
  layer_param {
    idx:471
    out_0 {name:"Node_471:0",dtype:float32,shape:[128, 128, 1, 7]}
  }
}
layer {
  name:"Node_472"
  type:"nn_conv2d"
  top:"Node_472"
  bottom:"Node_470"
  bottom:"Node_471"
  layer_param {
    idx:472
    in_0 {name:"Node_470:0",dtype:float32,shape:[1, 128, 17, 17]}
    in_1 {name:"Node_471:0",dtype:float32,shape:[128, 128, 1, 7]}
    out_0 {name:"Node_472:0",dtype:float32,shape:[1, 128, 17, 17]}
    attrs {'strides': [1, 1], 'padding': [0, 3, 0, 3], 'dilation': [1, 1], 'groups': 1, 'channels': 128, 'kernel_size': [1, 7], 'data_layout': 'NCHW', 'kernel_layout': 'OIHW', 'out_layout': '', 'out_dtype': ''}
  }
}
layer {
  name:"Node_473"
  type:"const"
  top:"Node_473"
  layer_param {
    idx:473
    out_0 {name:"Node_473:0",dtype:float32,shape:[128]}
  }
}
layer {
  name:"Node_474"
  type:"const"
  top:"Node_474"
  layer_param {
    idx:474
    out_0 {name:"Node_474:0",dtype:float32,shape:[128]}
  }
}
layer {
  name:"Node_475"
  type:"const"
  top:"Node_475"
  layer_param {
    idx:475
    out_0 {name:"Node_475:0",dtype:float32,shape:[128]}
  }
}
layer {
  name:"Node_476"
  type:"const"
  top:"Node_476"
  layer_param {
    idx:476
    out_0 {name:"Node_476:0",dtype:float32,shape:[128]}
  }
}
layer {
  name:"Node_477"
  type:"nn_batch_norm"
  top:"Node_477"
  bottom:"Node_472"
  bottom:"Node_473"
  bottom:"Node_474"
  bottom:"Node_475"
  bottom:"Node_476"
  layer_param {
    idx:477
    in_0 {name:"Node_472:0",dtype:float32,shape:[1, 128, 17, 17]}
    in_1 {name:"Node_473:0",dtype:float32,shape:[128]}
    in_2 {name:"Node_474:0",dtype:float32,shape:[128]}
    in_3 {name:"Node_475:0",dtype:float32,shape:[128]}
    in_4 {name:"Node_476:0",dtype:float32,shape:[128]}
    out_0 {name:"Node_477:0",dtype:float32,shape:[1, 128, 17, 17]}
    out_1 {name:"Node_477:1",dtype:float32,shape:[128]}
    out_2 {name:"Node_477:2",dtype:float32,shape:[128]}
    attrs {'axis': 1, 'epsilon': 0.0010000000474974513, 'center': 1, 'scale': 0}
  }
}
layer {
  name:"Node_479"
  type:"nn_relu"
  top:"Node_479"
  bottom:"Node_477"
  layer_param {
    idx:479
    in_0 {name:"Node_477:0",dtype:float32,shape:[1, 128, 17, 17]}
    out_0 {name:"Node_479:0",dtype:float32,shape:[1, 128, 17, 17]}
  }
}
layer {
  name:"Node_480"
  type:"const"
  top:"Node_480"
  layer_param {
    idx:480
    out_0 {name:"Node_480:0",dtype:float32,shape:[192, 128, 7, 1]}
  }
}
layer {
  name:"Node_481"
  type:"nn_conv2d"
  top:"Node_481"
  bottom:"Node_479"
  bottom:"Node_480"
  layer_param {
    idx:481
    in_0 {name:"Node_479:0",dtype:float32,shape:[1, 128, 17, 17]}
    in_1 {name:"Node_480:0",dtype:float32,shape:[192, 128, 7, 1]}
    out_0 {name:"Node_481:0",dtype:float32,shape:[1, 192, 17, 17]}
    attrs {'strides': [1, 1], 'padding': [3, 0, 3, 0], 'dilation': [1, 1], 'groups': 1, 'channels': 192, 'kernel_size': [7, 1], 'data_layout': 'NCHW', 'kernel_layout': 'OIHW', 'out_layout': '', 'out_dtype': ''}
  }
}
layer {
  name:"Node_482"
  type:"const"
  top:"Node_482"
  layer_param {
    idx:482
    out_0 {name:"Node_482:0",dtype:float32,shape:[192]}
  }
}
layer {
  name:"Node_483"
  type:"const"
  top:"Node_483"
  layer_param {
    idx:483
    out_0 {name:"Node_483:0",dtype:float32,shape:[192]}
  }
}
layer {
  name:"Node_484"
  type:"const"
  top:"Node_484"
  layer_param {
    idx:484
    out_0 {name:"Node_484:0",dtype:float32,shape:[192]}
  }
}
layer {
  name:"Node_485"
  type:"const"
  top:"Node_485"
  layer_param {
    idx:485
    out_0 {name:"Node_485:0",dtype:float32,shape:[192]}
  }
}
layer {
  name:"Node_486"
  type:"nn_batch_norm"
  top:"Node_486"
  bottom:"Node_481"
  bottom:"Node_482"
  bottom:"Node_483"
  bottom:"Node_484"
  bottom:"Node_485"
  layer_param {
    idx:486
    in_0 {name:"Node_481:0",dtype:float32,shape:[1, 192, 17, 17]}
    in_1 {name:"Node_482:0",dtype:float32,shape:[192]}
    in_2 {name:"Node_483:0",dtype:float32,shape:[192]}
    in_3 {name:"Node_484:0",dtype:float32,shape:[192]}
    in_4 {name:"Node_485:0",dtype:float32,shape:[192]}
    out_0 {name:"Node_486:0",dtype:float32,shape:[1, 192, 17, 17]}
    out_1 {name:"Node_486:1",dtype:float32,shape:[192]}
    out_2 {name:"Node_486:2",dtype:float32,shape:[192]}
    attrs {'axis': 1, 'epsilon': 0.0010000000474974513, 'center': 1, 'scale': 0}
  }
}
layer {
  name:"Node_488"
  type:"nn_relu"
  top:"Node_488"
  bottom:"Node_486"
  layer_param {
    idx:488
    in_0 {name:"Node_486:0",dtype:float32,shape:[1, 192, 17, 17]}
    out_0 {name:"Node_488:0",dtype:float32,shape:[1, 192, 17, 17]}
  }
}
layer {
  name:"Node_505"
  type:"const"
  top:"Node_505"
  layer_param {
    idx:505
    out_0 {name:"Node_505:0",dtype:float32,shape:[128, 768, 1, 1]}
  }
}
layer {
  name:"Node_506"
  type:"nn_conv2d"
  top:"Node_506"
  bottom:"Node_442"
  bottom:"Node_505"
  layer_param {
    idx:506
    in_0 {name:"Node_442:0",dtype:float32,shape:[1, 768, 17, 17]}
    in_1 {name:"Node_505:0",dtype:float32,shape:[128, 768, 1, 1]}
    out_0 {name:"Node_506:0",dtype:float32,shape:[1, 128, 17, 17]}
    attrs {'strides': [1, 1], 'padding': [0, 0, 0, 0], 'dilation': [1, 1], 'groups': 1, 'channels': 128, 'kernel_size': [1, 1], 'data_layout': 'NCHW', 'kernel_layout': 'OIHW', 'out_layout': '', 'out_dtype': ''}
  }
}
layer {
  name:"Node_507"
  type:"const"
  top:"Node_507"
  layer_param {
    idx:507
    out_0 {name:"Node_507:0",dtype:float32,shape:[128]}
  }
}
layer {
  name:"Node_508"
  type:"const"
  top:"Node_508"
  layer_param {
    idx:508
    out_0 {name:"Node_508:0",dtype:float32,shape:[128]}
  }
}
layer {
  name:"Node_509"
  type:"const"
  top:"Node_509"
  layer_param {
    idx:509
    out_0 {name:"Node_509:0",dtype:float32,shape:[128]}
  }
}
layer {
  name:"Node_510"
  type:"const"
  top:"Node_510"
  layer_param {
    idx:510
    out_0 {name:"Node_510:0",dtype:float32,shape:[128]}
  }
}
layer {
  name:"Node_511"
  type:"nn_batch_norm"
  top:"Node_511"
  bottom:"Node_506"
  bottom:"Node_507"
  bottom:"Node_508"
  bottom:"Node_509"
  bottom:"Node_510"
  layer_param {
    idx:511
    in_0 {name:"Node_506:0",dtype:float32,shape:[1, 128, 17, 17]}
    in_1 {name:"Node_507:0",dtype:float32,shape:[128]}
    in_2 {name:"Node_508:0",dtype:float32,shape:[128]}
    in_3 {name:"Node_509:0",dtype:float32,shape:[128]}
    in_4 {name:"Node_510:0",dtype:float32,shape:[128]}
    out_0 {name:"Node_511:0",dtype:float32,shape:[1, 128, 17, 17]}
    out_1 {name:"Node_511:1",dtype:float32,shape:[128]}
    out_2 {name:"Node_511:2",dtype:float32,shape:[128]}
    attrs {'axis': 1, 'epsilon': 0.0010000000474974513, 'center': 1, 'scale': 0}
  }
}
layer {
  name:"Node_513"
  type:"nn_relu"
  top:"Node_513"
  bottom:"Node_511"
  layer_param {
    idx:513
    in_0 {name:"Node_511:0",dtype:float32,shape:[1, 128, 17, 17]}
    out_0 {name:"Node_513:0",dtype:float32,shape:[1, 128, 17, 17]}
  }
}
layer {
  name:"Node_514"
  type:"const"
  top:"Node_514"
  layer_param {
    idx:514
    out_0 {name:"Node_514:0",dtype:float32,shape:[128, 128, 7, 1]}
  }
}
layer {
  name:"Node_515"
  type:"nn_conv2d"
  top:"Node_515"
  bottom:"Node_513"
  bottom:"Node_514"
  layer_param {
    idx:515
    in_0 {name:"Node_513:0",dtype:float32,shape:[1, 128, 17, 17]}
    in_1 {name:"Node_514:0",dtype:float32,shape:[128, 128, 7, 1]}
    out_0 {name:"Node_515:0",dtype:float32,shape:[1, 128, 17, 17]}
    attrs {'strides': [1, 1], 'padding': [3, 0, 3, 0], 'dilation': [1, 1], 'groups': 1, 'channels': 128, 'kernel_size': [7, 1], 'data_layout': 'NCHW', 'kernel_layout': 'OIHW', 'out_layout': '', 'out_dtype': ''}
  }
}
layer {
  name:"Node_516"
  type:"const"
  top:"Node_516"
  layer_param {
    idx:516
    out_0 {name:"Node_516:0",dtype:float32,shape:[128]}
  }
}
layer {
  name:"Node_517"
  type:"const"
  top:"Node_517"
  layer_param {
    idx:517
    out_0 {name:"Node_517:0",dtype:float32,shape:[128]}
  }
}
layer {
  name:"Node_518"
  type:"const"
  top:"Node_518"
  layer_param {
    idx:518
    out_0 {name:"Node_518:0",dtype:float32,shape:[128]}
  }
}
layer {
  name:"Node_519"
  type:"const"
  top:"Node_519"
  layer_param {
    idx:519
    out_0 {name:"Node_519:0",dtype:float32,shape:[128]}
  }
}
layer {
  name:"Node_520"
  type:"nn_batch_norm"
  top:"Node_520"
  bottom:"Node_515"
  bottom:"Node_516"
  bottom:"Node_517"
  bottom:"Node_518"
  bottom:"Node_519"
  layer_param {
    idx:520
    in_0 {name:"Node_515:0",dtype:float32,shape:[1, 128, 17, 17]}
    in_1 {name:"Node_516:0",dtype:float32,shape:[128]}
    in_2 {name:"Node_517:0",dtype:float32,shape:[128]}
    in_3 {name:"Node_518:0",dtype:float32,shape:[128]}
    in_4 {name:"Node_519:0",dtype:float32,shape:[128]}
    out_0 {name:"Node_520:0",dtype:float32,shape:[1, 128, 17, 17]}
    out_1 {name:"Node_520:1",dtype:float32,shape:[128]}
    out_2 {name:"Node_520:2",dtype:float32,shape:[128]}
    attrs {'axis': 1, 'epsilon': 0.0010000000474974513, 'center': 1, 'scale': 0}
  }
}
layer {
  name:"Node_522"
  type:"nn_relu"
  top:"Node_522"
  bottom:"Node_520"
  layer_param {
    idx:522
    in_0 {name:"Node_520:0",dtype:float32,shape:[1, 128, 17, 17]}
    out_0 {name:"Node_522:0",dtype:float32,shape:[1, 128, 17, 17]}
  }
}
layer {
  name:"Node_523"
  type:"const"
  top:"Node_523"
  layer_param {
    idx:523
    out_0 {name:"Node_523:0",dtype:float32,shape:[128, 128, 1, 7]}
  }
}
layer {
  name:"Node_524"
  type:"nn_conv2d"
  top:"Node_524"
  bottom:"Node_522"
  bottom:"Node_523"
  layer_param {
    idx:524
    in_0 {name:"Node_522:0",dtype:float32,shape:[1, 128, 17, 17]}
    in_1 {name:"Node_523:0",dtype:float32,shape:[128, 128, 1, 7]}
    out_0 {name:"Node_524:0",dtype:float32,shape:[1, 128, 17, 17]}
    attrs {'strides': [1, 1], 'padding': [0, 3, 0, 3], 'dilation': [1, 1], 'groups': 1, 'channels': 128, 'kernel_size': [1, 7], 'data_layout': 'NCHW', 'kernel_layout': 'OIHW', 'out_layout': '', 'out_dtype': ''}
  }
}
layer {
  name:"Node_525"
  type:"const"
  top:"Node_525"
  layer_param {
    idx:525
    out_0 {name:"Node_525:0",dtype:float32,shape:[128]}
  }
}
layer {
  name:"Node_526"
  type:"const"
  top:"Node_526"
  layer_param {
    idx:526
    out_0 {name:"Node_526:0",dtype:float32,shape:[128]}
  }
}
layer {
  name:"Node_527"
  type:"const"
  top:"Node_527"
  layer_param {
    idx:527
    out_0 {name:"Node_527:0",dtype:float32,shape:[128]}
  }
}
layer {
  name:"Node_528"
  type:"const"
  top:"Node_528"
  layer_param {
    idx:528
    out_0 {name:"Node_528:0",dtype:float32,shape:[128]}
  }
}
layer {
  name:"Node_529"
  type:"nn_batch_norm"
  top:"Node_529"
  bottom:"Node_524"
  bottom:"Node_525"
  bottom:"Node_526"
  bottom:"Node_527"
  bottom:"Node_528"
  layer_param {
    idx:529
    in_0 {name:"Node_524:0",dtype:float32,shape:[1, 128, 17, 17]}
    in_1 {name:"Node_525:0",dtype:float32,shape:[128]}
    in_2 {name:"Node_526:0",dtype:float32,shape:[128]}
    in_3 {name:"Node_527:0",dtype:float32,shape:[128]}
    in_4 {name:"Node_528:0",dtype:float32,shape:[128]}
    out_0 {name:"Node_529:0",dtype:float32,shape:[1, 128, 17, 17]}
    out_1 {name:"Node_529:1",dtype:float32,shape:[128]}
    out_2 {name:"Node_529:2",dtype:float32,shape:[128]}
    attrs {'axis': 1, 'epsilon': 0.0010000000474974513, 'center': 1, 'scale': 0}
  }
}
layer {
  name:"Node_531"
  type:"nn_relu"
  top:"Node_531"
  bottom:"Node_529"
  layer_param {
    idx:531
    in_0 {name:"Node_529:0",dtype:float32,shape:[1, 128, 17, 17]}
    out_0 {name:"Node_531:0",dtype:float32,shape:[1, 128, 17, 17]}
  }
}
layer {
  name:"Node_532"
  type:"const"
  top:"Node_532"
  layer_param {
    idx:532
    out_0 {name:"Node_532:0",dtype:float32,shape:[128, 128, 7, 1]}
  }
}
layer {
  name:"Node_533"
  type:"nn_conv2d"
  top:"Node_533"
  bottom:"Node_531"
  bottom:"Node_532"
  layer_param {
    idx:533
    in_0 {name:"Node_531:0",dtype:float32,shape:[1, 128, 17, 17]}
    in_1 {name:"Node_532:0",dtype:float32,shape:[128, 128, 7, 1]}
    out_0 {name:"Node_533:0",dtype:float32,shape:[1, 128, 17, 17]}
    attrs {'strides': [1, 1], 'padding': [3, 0, 3, 0], 'dilation': [1, 1], 'groups': 1, 'channels': 128, 'kernel_size': [7, 1], 'data_layout': 'NCHW', 'kernel_layout': 'OIHW', 'out_layout': '', 'out_dtype': ''}
  }
}
layer {
  name:"Node_534"
  type:"const"
  top:"Node_534"
  layer_param {
    idx:534
    out_0 {name:"Node_534:0",dtype:float32,shape:[128]}
  }
}
layer {
  name:"Node_535"
  type:"const"
  top:"Node_535"
  layer_param {
    idx:535
    out_0 {name:"Node_535:0",dtype:float32,shape:[128]}
  }
}
layer {
  name:"Node_536"
  type:"const"
  top:"Node_536"
  layer_param {
    idx:536
    out_0 {name:"Node_536:0",dtype:float32,shape:[128]}
  }
}
layer {
  name:"Node_537"
  type:"const"
  top:"Node_537"
  layer_param {
    idx:537
    out_0 {name:"Node_537:0",dtype:float32,shape:[128]}
  }
}
layer {
  name:"Node_538"
  type:"nn_batch_norm"
  top:"Node_538"
  bottom:"Node_533"
  bottom:"Node_534"
  bottom:"Node_535"
  bottom:"Node_536"
  bottom:"Node_537"
  layer_param {
    idx:538
    in_0 {name:"Node_533:0",dtype:float32,shape:[1, 128, 17, 17]}
    in_1 {name:"Node_534:0",dtype:float32,shape:[128]}
    in_2 {name:"Node_535:0",dtype:float32,shape:[128]}
    in_3 {name:"Node_536:0",dtype:float32,shape:[128]}
    in_4 {name:"Node_537:0",dtype:float32,shape:[128]}
    out_0 {name:"Node_538:0",dtype:float32,shape:[1, 128, 17, 17]}
    out_1 {name:"Node_538:1",dtype:float32,shape:[128]}
    out_2 {name:"Node_538:2",dtype:float32,shape:[128]}
    attrs {'axis': 1, 'epsilon': 0.0010000000474974513, 'center': 1, 'scale': 0}
  }
}
layer {
  name:"Node_540"
  type:"nn_relu"
  top:"Node_540"
  bottom:"Node_538"
  layer_param {
    idx:540
    in_0 {name:"Node_538:0",dtype:float32,shape:[1, 128, 17, 17]}
    out_0 {name:"Node_540:0",dtype:float32,shape:[1, 128, 17, 17]}
  }
}
layer {
  name:"Node_541"
  type:"const"
  top:"Node_541"
  layer_param {
    idx:541
    out_0 {name:"Node_541:0",dtype:float32,shape:[192, 128, 1, 7]}
  }
}
layer {
  name:"Node_542"
  type:"nn_conv2d"
  top:"Node_542"
  bottom:"Node_540"
  bottom:"Node_541"
  layer_param {
    idx:542
    in_0 {name:"Node_540:0",dtype:float32,shape:[1, 128, 17, 17]}
    in_1 {name:"Node_541:0",dtype:float32,shape:[192, 128, 1, 7]}
    out_0 {name:"Node_542:0",dtype:float32,shape:[1, 192, 17, 17]}
    attrs {'strides': [1, 1], 'padding': [0, 3, 0, 3], 'dilation': [1, 1], 'groups': 1, 'channels': 192, 'kernel_size': [1, 7], 'data_layout': 'NCHW', 'kernel_layout': 'OIHW', 'out_layout': '', 'out_dtype': ''}
  }
}
layer {
  name:"Node_543"
  type:"const"
  top:"Node_543"
  layer_param {
    idx:543
    out_0 {name:"Node_543:0",dtype:float32,shape:[192]}
  }
}
layer {
  name:"Node_544"
  type:"const"
  top:"Node_544"
  layer_param {
    idx:544
    out_0 {name:"Node_544:0",dtype:float32,shape:[192]}
  }
}
layer {
  name:"Node_545"
  type:"const"
  top:"Node_545"
  layer_param {
    idx:545
    out_0 {name:"Node_545:0",dtype:float32,shape:[192]}
  }
}
layer {
  name:"Node_546"
  type:"const"
  top:"Node_546"
  layer_param {
    idx:546
    out_0 {name:"Node_546:0",dtype:float32,shape:[192]}
  }
}
layer {
  name:"Node_547"
  type:"nn_batch_norm"
  top:"Node_547"
  bottom:"Node_542"
  bottom:"Node_543"
  bottom:"Node_544"
  bottom:"Node_545"
  bottom:"Node_546"
  layer_param {
    idx:547
    in_0 {name:"Node_542:0",dtype:float32,shape:[1, 192, 17, 17]}
    in_1 {name:"Node_543:0",dtype:float32,shape:[192]}
    in_2 {name:"Node_544:0",dtype:float32,shape:[192]}
    in_3 {name:"Node_545:0",dtype:float32,shape:[192]}
    in_4 {name:"Node_546:0",dtype:float32,shape:[192]}
    out_0 {name:"Node_547:0",dtype:float32,shape:[1, 192, 17, 17]}
    out_1 {name:"Node_547:1",dtype:float32,shape:[192]}
    out_2 {name:"Node_547:2",dtype:float32,shape:[192]}
    attrs {'axis': 1, 'epsilon': 0.0010000000474974513, 'center': 1, 'scale': 0}
  }
}
layer {
  name:"Node_549"
  type:"nn_relu"
  top:"Node_549"
  bottom:"Node_547"
  layer_param {
    idx:549
    in_0 {name:"Node_547:0",dtype:float32,shape:[1, 192, 17, 17]}
    out_0 {name:"Node_549:0",dtype:float32,shape:[1, 192, 17, 17]}
  }
}
layer {
  name:"Node_555"
  type:"nn_avg_pool2d"
  top:"Node_555"
  bottom:"Node_442"
  layer_param {
    idx:555
    in_0 {name:"Node_442:0",dtype:float32,shape:[1, 768, 17, 17]}
    out_0 {name:"Node_555:0",dtype:float32,shape:[1, 768, 17, 17]}
    attrs {'pool_size': [3, 3], 'strides': [1, 1], 'dilation': [1, 1], 'padding': [1, 1, 1, 1], 'layout': 'NCHW', 'ceil_mode': 0, 'count_include_pad': 0}
  }
}
layer {
  name:"Node_556"
  type:"const"
  top:"Node_556"
  layer_param {
    idx:556
    out_0 {name:"Node_556:0",dtype:float32,shape:[192, 768, 1, 1]}
  }
}
layer {
  name:"Node_557"
  type:"nn_conv2d"
  top:"Node_557"
  bottom:"Node_555"
  bottom:"Node_556"
  layer_param {
    idx:557
    in_0 {name:"Node_555:0",dtype:float32,shape:[1, 768, 17, 17]}
    in_1 {name:"Node_556:0",dtype:float32,shape:[192, 768, 1, 1]}
    out_0 {name:"Node_557:0",dtype:float32,shape:[1, 192, 17, 17]}
    attrs {'strides': [1, 1], 'padding': [0, 0, 0, 0], 'dilation': [1, 1], 'groups': 1, 'channels': 192, 'kernel_size': [1, 1], 'data_layout': 'NCHW', 'kernel_layout': 'OIHW', 'out_layout': '', 'out_dtype': ''}
  }
}
layer {
  name:"Node_558"
  type:"const"
  top:"Node_558"
  layer_param {
    idx:558
    out_0 {name:"Node_558:0",dtype:float32,shape:[192]}
  }
}
layer {
  name:"Node_559"
  type:"const"
  top:"Node_559"
  layer_param {
    idx:559
    out_0 {name:"Node_559:0",dtype:float32,shape:[192]}
  }
}
layer {
  name:"Node_560"
  type:"const"
  top:"Node_560"
  layer_param {
    idx:560
    out_0 {name:"Node_560:0",dtype:float32,shape:[192]}
  }
}
layer {
  name:"Node_561"
  type:"const"
  top:"Node_561"
  layer_param {
    idx:561
    out_0 {name:"Node_561:0",dtype:float32,shape:[192]}
  }
}
layer {
  name:"Node_562"
  type:"nn_batch_norm"
  top:"Node_562"
  bottom:"Node_557"
  bottom:"Node_558"
  bottom:"Node_559"
  bottom:"Node_560"
  bottom:"Node_561"
  layer_param {
    idx:562
    in_0 {name:"Node_557:0",dtype:float32,shape:[1, 192, 17, 17]}
    in_1 {name:"Node_558:0",dtype:float32,shape:[192]}
    in_2 {name:"Node_559:0",dtype:float32,shape:[192]}
    in_3 {name:"Node_560:0",dtype:float32,shape:[192]}
    in_4 {name:"Node_561:0",dtype:float32,shape:[192]}
    out_0 {name:"Node_562:0",dtype:float32,shape:[1, 192, 17, 17]}
    out_1 {name:"Node_562:1",dtype:float32,shape:[192]}
    out_2 {name:"Node_562:2",dtype:float32,shape:[192]}
    attrs {'axis': 1, 'epsilon': 0.0010000000474974513, 'center': 1, 'scale': 0}
  }
}
layer {
  name:"Node_564"
  type:"nn_relu"
  top:"Node_564"
  bottom:"Node_562"
  layer_param {
    idx:564
    in_0 {name:"Node_562:0",dtype:float32,shape:[1, 192, 17, 17]}
    out_0 {name:"Node_564:0",dtype:float32,shape:[1, 192, 17, 17]}
  }
}
layer {
  name:"Node_566"
  type:"concatenate"
  top:"Node_566"
  bottom:"Node_451"
  bottom:"Node_488"
  bottom:"Node_549"
  bottom:"Node_564"
  layer_param {
    idx:566
    in_0 {name:"Node_451:0",dtype:float32,shape:[1, 192, 17, 17]}
    in_1 {name:"Node_488:0",dtype:float32,shape:[1, 192, 17, 17]}
    in_2 {name:"Node_549:0",dtype:float32,shape:[1, 192, 17, 17]}
    in_3 {name:"Node_564:0",dtype:float32,shape:[1, 192, 17, 17]}
    out_0 {name:"Node_566:0",dtype:float32,shape:[1, 768, 17, 17]}
    attrs {'axis': 1}
  }
}
layer {
  name:"Node_567"
  type:"const"
  top:"Node_567"
  layer_param {
    idx:567
    out_0 {name:"Node_567:0",dtype:float32,shape:[192, 768, 1, 1]}
  }
}
layer {
  name:"Node_568"
  type:"nn_conv2d"
  top:"Node_568"
  bottom:"Node_566"
  bottom:"Node_567"
  layer_param {
    idx:568
    in_0 {name:"Node_566:0",dtype:float32,shape:[1, 768, 17, 17]}
    in_1 {name:"Node_567:0",dtype:float32,shape:[192, 768, 1, 1]}
    out_0 {name:"Node_568:0",dtype:float32,shape:[1, 192, 17, 17]}
    attrs {'strides': [1, 1], 'padding': [0, 0, 0, 0], 'dilation': [1, 1], 'groups': 1, 'channels': 192, 'kernel_size': [1, 1], 'data_layout': 'NCHW', 'kernel_layout': 'OIHW', 'out_layout': '', 'out_dtype': ''}
  }
}
layer {
  name:"Node_569"
  type:"const"
  top:"Node_569"
  layer_param {
    idx:569
    out_0 {name:"Node_569:0",dtype:float32,shape:[192]}
  }
}
layer {
  name:"Node_570"
  type:"const"
  top:"Node_570"
  layer_param {
    idx:570
    out_0 {name:"Node_570:0",dtype:float32,shape:[192]}
  }
}
layer {
  name:"Node_571"
  type:"const"
  top:"Node_571"
  layer_param {
    idx:571
    out_0 {name:"Node_571:0",dtype:float32,shape:[192]}
  }
}
layer {
  name:"Node_572"
  type:"const"
  top:"Node_572"
  layer_param {
    idx:572
    out_0 {name:"Node_572:0",dtype:float32,shape:[192]}
  }
}
layer {
  name:"Node_573"
  type:"nn_batch_norm"
  top:"Node_573"
  bottom:"Node_568"
  bottom:"Node_569"
  bottom:"Node_570"
  bottom:"Node_571"
  bottom:"Node_572"
  layer_param {
    idx:573
    in_0 {name:"Node_568:0",dtype:float32,shape:[1, 192, 17, 17]}
    in_1 {name:"Node_569:0",dtype:float32,shape:[192]}
    in_2 {name:"Node_570:0",dtype:float32,shape:[192]}
    in_3 {name:"Node_571:0",dtype:float32,shape:[192]}
    in_4 {name:"Node_572:0",dtype:float32,shape:[192]}
    out_0 {name:"Node_573:0",dtype:float32,shape:[1, 192, 17, 17]}
    out_1 {name:"Node_573:1",dtype:float32,shape:[192]}
    out_2 {name:"Node_573:2",dtype:float32,shape:[192]}
    attrs {'axis': 1, 'epsilon': 0.0010000000474974513, 'center': 1, 'scale': 0}
  }
}
layer {
  name:"Node_575"
  type:"nn_relu"
  top:"Node_575"
  bottom:"Node_573"
  layer_param {
    idx:575
    in_0 {name:"Node_573:0",dtype:float32,shape:[1, 192, 17, 17]}
    out_0 {name:"Node_575:0",dtype:float32,shape:[1, 192, 17, 17]}
  }
}
layer {
  name:"Node_586"
  type:"const"
  top:"Node_586"
  layer_param {
    idx:586
    out_0 {name:"Node_586:0",dtype:float32,shape:[160, 768, 1, 1]}
  }
}
layer {
  name:"Node_587"
  type:"nn_conv2d"
  top:"Node_587"
  bottom:"Node_566"
  bottom:"Node_586"
  layer_param {
    idx:587
    in_0 {name:"Node_566:0",dtype:float32,shape:[1, 768, 17, 17]}
    in_1 {name:"Node_586:0",dtype:float32,shape:[160, 768, 1, 1]}
    out_0 {name:"Node_587:0",dtype:float32,shape:[1, 160, 17, 17]}
    attrs {'strides': [1, 1], 'padding': [0, 0, 0, 0], 'dilation': [1, 1], 'groups': 1, 'channels': 160, 'kernel_size': [1, 1], 'data_layout': 'NCHW', 'kernel_layout': 'OIHW', 'out_layout': '', 'out_dtype': ''}
  }
}
layer {
  name:"Node_588"
  type:"const"
  top:"Node_588"
  layer_param {
    idx:588
    out_0 {name:"Node_588:0",dtype:float32,shape:[160]}
  }
}
layer {
  name:"Node_589"
  type:"const"
  top:"Node_589"
  layer_param {
    idx:589
    out_0 {name:"Node_589:0",dtype:float32,shape:[160]}
  }
}
layer {
  name:"Node_590"
  type:"const"
  top:"Node_590"
  layer_param {
    idx:590
    out_0 {name:"Node_590:0",dtype:float32,shape:[160]}
  }
}
layer {
  name:"Node_591"
  type:"const"
  top:"Node_591"
  layer_param {
    idx:591
    out_0 {name:"Node_591:0",dtype:float32,shape:[160]}
  }
}
layer {
  name:"Node_592"
  type:"nn_batch_norm"
  top:"Node_592"
  bottom:"Node_587"
  bottom:"Node_588"
  bottom:"Node_589"
  bottom:"Node_590"
  bottom:"Node_591"
  layer_param {
    idx:592
    in_0 {name:"Node_587:0",dtype:float32,shape:[1, 160, 17, 17]}
    in_1 {name:"Node_588:0",dtype:float32,shape:[160]}
    in_2 {name:"Node_589:0",dtype:float32,shape:[160]}
    in_3 {name:"Node_590:0",dtype:float32,shape:[160]}
    in_4 {name:"Node_591:0",dtype:float32,shape:[160]}
    out_0 {name:"Node_592:0",dtype:float32,shape:[1, 160, 17, 17]}
    out_1 {name:"Node_592:1",dtype:float32,shape:[160]}
    out_2 {name:"Node_592:2",dtype:float32,shape:[160]}
    attrs {'axis': 1, 'epsilon': 0.0010000000474974513, 'center': 1, 'scale': 0}
  }
}
layer {
  name:"Node_594"
  type:"nn_relu"
  top:"Node_594"
  bottom:"Node_592"
  layer_param {
    idx:594
    in_0 {name:"Node_592:0",dtype:float32,shape:[1, 160, 17, 17]}
    out_0 {name:"Node_594:0",dtype:float32,shape:[1, 160, 17, 17]}
  }
}
layer {
  name:"Node_595"
  type:"const"
  top:"Node_595"
  layer_param {
    idx:595
    out_0 {name:"Node_595:0",dtype:float32,shape:[160, 160, 1, 7]}
  }
}
layer {
  name:"Node_596"
  type:"nn_conv2d"
  top:"Node_596"
  bottom:"Node_594"
  bottom:"Node_595"
  layer_param {
    idx:596
    in_0 {name:"Node_594:0",dtype:float32,shape:[1, 160, 17, 17]}
    in_1 {name:"Node_595:0",dtype:float32,shape:[160, 160, 1, 7]}
    out_0 {name:"Node_596:0",dtype:float32,shape:[1, 160, 17, 17]}
    attrs {'strides': [1, 1], 'padding': [0, 3, 0, 3], 'dilation': [1, 1], 'groups': 1, 'channels': 160, 'kernel_size': [1, 7], 'data_layout': 'NCHW', 'kernel_layout': 'OIHW', 'out_layout': '', 'out_dtype': ''}
  }
}
layer {
  name:"Node_597"
  type:"const"
  top:"Node_597"
  layer_param {
    idx:597
    out_0 {name:"Node_597:0",dtype:float32,shape:[160]}
  }
}
layer {
  name:"Node_598"
  type:"const"
  top:"Node_598"
  layer_param {
    idx:598
    out_0 {name:"Node_598:0",dtype:float32,shape:[160]}
  }
}
layer {
  name:"Node_599"
  type:"const"
  top:"Node_599"
  layer_param {
    idx:599
    out_0 {name:"Node_599:0",dtype:float32,shape:[160]}
  }
}
layer {
  name:"Node_600"
  type:"const"
  top:"Node_600"
  layer_param {
    idx:600
    out_0 {name:"Node_600:0",dtype:float32,shape:[160]}
  }
}
layer {
  name:"Node_601"
  type:"nn_batch_norm"
  top:"Node_601"
  bottom:"Node_596"
  bottom:"Node_597"
  bottom:"Node_598"
  bottom:"Node_599"
  bottom:"Node_600"
  layer_param {
    idx:601
    in_0 {name:"Node_596:0",dtype:float32,shape:[1, 160, 17, 17]}
    in_1 {name:"Node_597:0",dtype:float32,shape:[160]}
    in_2 {name:"Node_598:0",dtype:float32,shape:[160]}
    in_3 {name:"Node_599:0",dtype:float32,shape:[160]}
    in_4 {name:"Node_600:0",dtype:float32,shape:[160]}
    out_0 {name:"Node_601:0",dtype:float32,shape:[1, 160, 17, 17]}
    out_1 {name:"Node_601:1",dtype:float32,shape:[160]}
    out_2 {name:"Node_601:2",dtype:float32,shape:[160]}
    attrs {'axis': 1, 'epsilon': 0.0010000000474974513, 'center': 1, 'scale': 0}
  }
}
layer {
  name:"Node_603"
  type:"nn_relu"
  top:"Node_603"
  bottom:"Node_601"
  layer_param {
    idx:603
    in_0 {name:"Node_601:0",dtype:float32,shape:[1, 160, 17, 17]}
    out_0 {name:"Node_603:0",dtype:float32,shape:[1, 160, 17, 17]}
  }
}
layer {
  name:"Node_604"
  type:"const"
  top:"Node_604"
  layer_param {
    idx:604
    out_0 {name:"Node_604:0",dtype:float32,shape:[192, 160, 7, 1]}
  }
}
layer {
  name:"Node_605"
  type:"nn_conv2d"
  top:"Node_605"
  bottom:"Node_603"
  bottom:"Node_604"
  layer_param {
    idx:605
    in_0 {name:"Node_603:0",dtype:float32,shape:[1, 160, 17, 17]}
    in_1 {name:"Node_604:0",dtype:float32,shape:[192, 160, 7, 1]}
    out_0 {name:"Node_605:0",dtype:float32,shape:[1, 192, 17, 17]}
    attrs {'strides': [1, 1], 'padding': [3, 0, 3, 0], 'dilation': [1, 1], 'groups': 1, 'channels': 192, 'kernel_size': [7, 1], 'data_layout': 'NCHW', 'kernel_layout': 'OIHW', 'out_layout': '', 'out_dtype': ''}
  }
}
layer {
  name:"Node_606"
  type:"const"
  top:"Node_606"
  layer_param {
    idx:606
    out_0 {name:"Node_606:0",dtype:float32,shape:[192]}
  }
}
layer {
  name:"Node_607"
  type:"const"
  top:"Node_607"
  layer_param {
    idx:607
    out_0 {name:"Node_607:0",dtype:float32,shape:[192]}
  }
}
layer {
  name:"Node_608"
  type:"const"
  top:"Node_608"
  layer_param {
    idx:608
    out_0 {name:"Node_608:0",dtype:float32,shape:[192]}
  }
}
layer {
  name:"Node_609"
  type:"const"
  top:"Node_609"
  layer_param {
    idx:609
    out_0 {name:"Node_609:0",dtype:float32,shape:[192]}
  }
}
layer {
  name:"Node_610"
  type:"nn_batch_norm"
  top:"Node_610"
  bottom:"Node_605"
  bottom:"Node_606"
  bottom:"Node_607"
  bottom:"Node_608"
  bottom:"Node_609"
  layer_param {
    idx:610
    in_0 {name:"Node_605:0",dtype:float32,shape:[1, 192, 17, 17]}
    in_1 {name:"Node_606:0",dtype:float32,shape:[192]}
    in_2 {name:"Node_607:0",dtype:float32,shape:[192]}
    in_3 {name:"Node_608:0",dtype:float32,shape:[192]}
    in_4 {name:"Node_609:0",dtype:float32,shape:[192]}
    out_0 {name:"Node_610:0",dtype:float32,shape:[1, 192, 17, 17]}
    out_1 {name:"Node_610:1",dtype:float32,shape:[192]}
    out_2 {name:"Node_610:2",dtype:float32,shape:[192]}
    attrs {'axis': 1, 'epsilon': 0.0010000000474974513, 'center': 1, 'scale': 0}
  }
}
layer {
  name:"Node_612"
  type:"nn_relu"
  top:"Node_612"
  bottom:"Node_610"
  layer_param {
    idx:612
    in_0 {name:"Node_610:0",dtype:float32,shape:[1, 192, 17, 17]}
    out_0 {name:"Node_612:0",dtype:float32,shape:[1, 192, 17, 17]}
  }
}
layer {
  name:"Node_629"
  type:"const"
  top:"Node_629"
  layer_param {
    idx:629
    out_0 {name:"Node_629:0",dtype:float32,shape:[160, 768, 1, 1]}
  }
}
layer {
  name:"Node_630"
  type:"nn_conv2d"
  top:"Node_630"
  bottom:"Node_566"
  bottom:"Node_629"
  layer_param {
    idx:630
    in_0 {name:"Node_566:0",dtype:float32,shape:[1, 768, 17, 17]}
    in_1 {name:"Node_629:0",dtype:float32,shape:[160, 768, 1, 1]}
    out_0 {name:"Node_630:0",dtype:float32,shape:[1, 160, 17, 17]}
    attrs {'strides': [1, 1], 'padding': [0, 0, 0, 0], 'dilation': [1, 1], 'groups': 1, 'channels': 160, 'kernel_size': [1, 1], 'data_layout': 'NCHW', 'kernel_layout': 'OIHW', 'out_layout': '', 'out_dtype': ''}
  }
}
layer {
  name:"Node_631"
  type:"const"
  top:"Node_631"
  layer_param {
    idx:631
    out_0 {name:"Node_631:0",dtype:float32,shape:[160]}
  }
}
layer {
  name:"Node_632"
  type:"const"
  top:"Node_632"
  layer_param {
    idx:632
    out_0 {name:"Node_632:0",dtype:float32,shape:[160]}
  }
}
layer {
  name:"Node_633"
  type:"const"
  top:"Node_633"
  layer_param {
    idx:633
    out_0 {name:"Node_633:0",dtype:float32,shape:[160]}
  }
}
layer {
  name:"Node_634"
  type:"const"
  top:"Node_634"
  layer_param {
    idx:634
    out_0 {name:"Node_634:0",dtype:float32,shape:[160]}
  }
}
layer {
  name:"Node_635"
  type:"nn_batch_norm"
  top:"Node_635"
  bottom:"Node_630"
  bottom:"Node_631"
  bottom:"Node_632"
  bottom:"Node_633"
  bottom:"Node_634"
  layer_param {
    idx:635
    in_0 {name:"Node_630:0",dtype:float32,shape:[1, 160, 17, 17]}
    in_1 {name:"Node_631:0",dtype:float32,shape:[160]}
    in_2 {name:"Node_632:0",dtype:float32,shape:[160]}
    in_3 {name:"Node_633:0",dtype:float32,shape:[160]}
    in_4 {name:"Node_634:0",dtype:float32,shape:[160]}
    out_0 {name:"Node_635:0",dtype:float32,shape:[1, 160, 17, 17]}
    out_1 {name:"Node_635:1",dtype:float32,shape:[160]}
    out_2 {name:"Node_635:2",dtype:float32,shape:[160]}
    attrs {'axis': 1, 'epsilon': 0.0010000000474974513, 'center': 1, 'scale': 0}
  }
}
layer {
  name:"Node_637"
  type:"nn_relu"
  top:"Node_637"
  bottom:"Node_635"
  layer_param {
    idx:637
    in_0 {name:"Node_635:0",dtype:float32,shape:[1, 160, 17, 17]}
    out_0 {name:"Node_637:0",dtype:float32,shape:[1, 160, 17, 17]}
  }
}
layer {
  name:"Node_638"
  type:"const"
  top:"Node_638"
  layer_param {
    idx:638
    out_0 {name:"Node_638:0",dtype:float32,shape:[160, 160, 7, 1]}
  }
}
layer {
  name:"Node_639"
  type:"nn_conv2d"
  top:"Node_639"
  bottom:"Node_637"
  bottom:"Node_638"
  layer_param {
    idx:639
    in_0 {name:"Node_637:0",dtype:float32,shape:[1, 160, 17, 17]}
    in_1 {name:"Node_638:0",dtype:float32,shape:[160, 160, 7, 1]}
    out_0 {name:"Node_639:0",dtype:float32,shape:[1, 160, 17, 17]}
    attrs {'strides': [1, 1], 'padding': [3, 0, 3, 0], 'dilation': [1, 1], 'groups': 1, 'channels': 160, 'kernel_size': [7, 1], 'data_layout': 'NCHW', 'kernel_layout': 'OIHW', 'out_layout': '', 'out_dtype': ''}
  }
}
layer {
  name:"Node_640"
  type:"const"
  top:"Node_640"
  layer_param {
    idx:640
    out_0 {name:"Node_640:0",dtype:float32,shape:[160]}
  }
}
layer {
  name:"Node_641"
  type:"const"
  top:"Node_641"
  layer_param {
    idx:641
    out_0 {name:"Node_641:0",dtype:float32,shape:[160]}
  }
}
layer {
  name:"Node_642"
  type:"const"
  top:"Node_642"
  layer_param {
    idx:642
    out_0 {name:"Node_642:0",dtype:float32,shape:[160]}
  }
}
layer {
  name:"Node_643"
  type:"const"
  top:"Node_643"
  layer_param {
    idx:643
    out_0 {name:"Node_643:0",dtype:float32,shape:[160]}
  }
}
layer {
  name:"Node_644"
  type:"nn_batch_norm"
  top:"Node_644"
  bottom:"Node_639"
  bottom:"Node_640"
  bottom:"Node_641"
  bottom:"Node_642"
  bottom:"Node_643"
  layer_param {
    idx:644
    in_0 {name:"Node_639:0",dtype:float32,shape:[1, 160, 17, 17]}
    in_1 {name:"Node_640:0",dtype:float32,shape:[160]}
    in_2 {name:"Node_641:0",dtype:float32,shape:[160]}
    in_3 {name:"Node_642:0",dtype:float32,shape:[160]}
    in_4 {name:"Node_643:0",dtype:float32,shape:[160]}
    out_0 {name:"Node_644:0",dtype:float32,shape:[1, 160, 17, 17]}
    out_1 {name:"Node_644:1",dtype:float32,shape:[160]}
    out_2 {name:"Node_644:2",dtype:float32,shape:[160]}
    attrs {'axis': 1, 'epsilon': 0.0010000000474974513, 'center': 1, 'scale': 0}
  }
}
layer {
  name:"Node_646"
  type:"nn_relu"
  top:"Node_646"
  bottom:"Node_644"
  layer_param {
    idx:646
    in_0 {name:"Node_644:0",dtype:float32,shape:[1, 160, 17, 17]}
    out_0 {name:"Node_646:0",dtype:float32,shape:[1, 160, 17, 17]}
  }
}
layer {
  name:"Node_647"
  type:"const"
  top:"Node_647"
  layer_param {
    idx:647
    out_0 {name:"Node_647:0",dtype:float32,shape:[160, 160, 1, 7]}
  }
}
layer {
  name:"Node_648"
  type:"nn_conv2d"
  top:"Node_648"
  bottom:"Node_646"
  bottom:"Node_647"
  layer_param {
    idx:648
    in_0 {name:"Node_646:0",dtype:float32,shape:[1, 160, 17, 17]}
    in_1 {name:"Node_647:0",dtype:float32,shape:[160, 160, 1, 7]}
    out_0 {name:"Node_648:0",dtype:float32,shape:[1, 160, 17, 17]}
    attrs {'strides': [1, 1], 'padding': [0, 3, 0, 3], 'dilation': [1, 1], 'groups': 1, 'channels': 160, 'kernel_size': [1, 7], 'data_layout': 'NCHW', 'kernel_layout': 'OIHW', 'out_layout': '', 'out_dtype': ''}
  }
}
layer {
  name:"Node_649"
  type:"const"
  top:"Node_649"
  layer_param {
    idx:649
    out_0 {name:"Node_649:0",dtype:float32,shape:[160]}
  }
}
layer {
  name:"Node_650"
  type:"const"
  top:"Node_650"
  layer_param {
    idx:650
    out_0 {name:"Node_650:0",dtype:float32,shape:[160]}
  }
}
layer {
  name:"Node_651"
  type:"const"
  top:"Node_651"
  layer_param {
    idx:651
    out_0 {name:"Node_651:0",dtype:float32,shape:[160]}
  }
}
layer {
  name:"Node_652"
  type:"const"
  top:"Node_652"
  layer_param {
    idx:652
    out_0 {name:"Node_652:0",dtype:float32,shape:[160]}
  }
}
layer {
  name:"Node_653"
  type:"nn_batch_norm"
  top:"Node_653"
  bottom:"Node_648"
  bottom:"Node_649"
  bottom:"Node_650"
  bottom:"Node_651"
  bottom:"Node_652"
  layer_param {
    idx:653
    in_0 {name:"Node_648:0",dtype:float32,shape:[1, 160, 17, 17]}
    in_1 {name:"Node_649:0",dtype:float32,shape:[160]}
    in_2 {name:"Node_650:0",dtype:float32,shape:[160]}
    in_3 {name:"Node_651:0",dtype:float32,shape:[160]}
    in_4 {name:"Node_652:0",dtype:float32,shape:[160]}
    out_0 {name:"Node_653:0",dtype:float32,shape:[1, 160, 17, 17]}
    out_1 {name:"Node_653:1",dtype:float32,shape:[160]}
    out_2 {name:"Node_653:2",dtype:float32,shape:[160]}
    attrs {'axis': 1, 'epsilon': 0.0010000000474974513, 'center': 1, 'scale': 0}
  }
}
layer {
  name:"Node_655"
  type:"nn_relu"
  top:"Node_655"
  bottom:"Node_653"
  layer_param {
    idx:655
    in_0 {name:"Node_653:0",dtype:float32,shape:[1, 160, 17, 17]}
    out_0 {name:"Node_655:0",dtype:float32,shape:[1, 160, 17, 17]}
  }
}
layer {
  name:"Node_656"
  type:"const"
  top:"Node_656"
  layer_param {
    idx:656
    out_0 {name:"Node_656:0",dtype:float32,shape:[160, 160, 7, 1]}
  }
}
layer {
  name:"Node_657"
  type:"nn_conv2d"
  top:"Node_657"
  bottom:"Node_655"
  bottom:"Node_656"
  layer_param {
    idx:657
    in_0 {name:"Node_655:0",dtype:float32,shape:[1, 160, 17, 17]}
    in_1 {name:"Node_656:0",dtype:float32,shape:[160, 160, 7, 1]}
    out_0 {name:"Node_657:0",dtype:float32,shape:[1, 160, 17, 17]}
    attrs {'strides': [1, 1], 'padding': [3, 0, 3, 0], 'dilation': [1, 1], 'groups': 1, 'channels': 160, 'kernel_size': [7, 1], 'data_layout': 'NCHW', 'kernel_layout': 'OIHW', 'out_layout': '', 'out_dtype': ''}
  }
}
layer {
  name:"Node_658"
  type:"const"
  top:"Node_658"
  layer_param {
    idx:658
    out_0 {name:"Node_658:0",dtype:float32,shape:[160]}
  }
}
layer {
  name:"Node_659"
  type:"const"
  top:"Node_659"
  layer_param {
    idx:659
    out_0 {name:"Node_659:0",dtype:float32,shape:[160]}
  }
}
layer {
  name:"Node_660"
  type:"const"
  top:"Node_660"
  layer_param {
    idx:660
    out_0 {name:"Node_660:0",dtype:float32,shape:[160]}
  }
}
layer {
  name:"Node_661"
  type:"const"
  top:"Node_661"
  layer_param {
    idx:661
    out_0 {name:"Node_661:0",dtype:float32,shape:[160]}
  }
}
layer {
  name:"Node_662"
  type:"nn_batch_norm"
  top:"Node_662"
  bottom:"Node_657"
  bottom:"Node_658"
  bottom:"Node_659"
  bottom:"Node_660"
  bottom:"Node_661"
  layer_param {
    idx:662
    in_0 {name:"Node_657:0",dtype:float32,shape:[1, 160, 17, 17]}
    in_1 {name:"Node_658:0",dtype:float32,shape:[160]}
    in_2 {name:"Node_659:0",dtype:float32,shape:[160]}
    in_3 {name:"Node_660:0",dtype:float32,shape:[160]}
    in_4 {name:"Node_661:0",dtype:float32,shape:[160]}
    out_0 {name:"Node_662:0",dtype:float32,shape:[1, 160, 17, 17]}
    out_1 {name:"Node_662:1",dtype:float32,shape:[160]}
    out_2 {name:"Node_662:2",dtype:float32,shape:[160]}
    attrs {'axis': 1, 'epsilon': 0.0010000000474974513, 'center': 1, 'scale': 0}
  }
}
layer {
  name:"Node_664"
  type:"nn_relu"
  top:"Node_664"
  bottom:"Node_662"
  layer_param {
    idx:664
    in_0 {name:"Node_662:0",dtype:float32,shape:[1, 160, 17, 17]}
    out_0 {name:"Node_664:0",dtype:float32,shape:[1, 160, 17, 17]}
  }
}
layer {
  name:"Node_665"
  type:"const"
  top:"Node_665"
  layer_param {
    idx:665
    out_0 {name:"Node_665:0",dtype:float32,shape:[192, 160, 1, 7]}
  }
}
layer {
  name:"Node_666"
  type:"nn_conv2d"
  top:"Node_666"
  bottom:"Node_664"
  bottom:"Node_665"
  layer_param {
    idx:666
    in_0 {name:"Node_664:0",dtype:float32,shape:[1, 160, 17, 17]}
    in_1 {name:"Node_665:0",dtype:float32,shape:[192, 160, 1, 7]}
    out_0 {name:"Node_666:0",dtype:float32,shape:[1, 192, 17, 17]}
    attrs {'strides': [1, 1], 'padding': [0, 3, 0, 3], 'dilation': [1, 1], 'groups': 1, 'channels': 192, 'kernel_size': [1, 7], 'data_layout': 'NCHW', 'kernel_layout': 'OIHW', 'out_layout': '', 'out_dtype': ''}
  }
}
layer {
  name:"Node_667"
  type:"const"
  top:"Node_667"
  layer_param {
    idx:667
    out_0 {name:"Node_667:0",dtype:float32,shape:[192]}
  }
}
layer {
  name:"Node_668"
  type:"const"
  top:"Node_668"
  layer_param {
    idx:668
    out_0 {name:"Node_668:0",dtype:float32,shape:[192]}
  }
}
layer {
  name:"Node_669"
  type:"const"
  top:"Node_669"
  layer_param {
    idx:669
    out_0 {name:"Node_669:0",dtype:float32,shape:[192]}
  }
}
layer {
  name:"Node_670"
  type:"const"
  top:"Node_670"
  layer_param {
    idx:670
    out_0 {name:"Node_670:0",dtype:float32,shape:[192]}
  }
}
layer {
  name:"Node_671"
  type:"nn_batch_norm"
  top:"Node_671"
  bottom:"Node_666"
  bottom:"Node_667"
  bottom:"Node_668"
  bottom:"Node_669"
  bottom:"Node_670"
  layer_param {
    idx:671
    in_0 {name:"Node_666:0",dtype:float32,shape:[1, 192, 17, 17]}
    in_1 {name:"Node_667:0",dtype:float32,shape:[192]}
    in_2 {name:"Node_668:0",dtype:float32,shape:[192]}
    in_3 {name:"Node_669:0",dtype:float32,shape:[192]}
    in_4 {name:"Node_670:0",dtype:float32,shape:[192]}
    out_0 {name:"Node_671:0",dtype:float32,shape:[1, 192, 17, 17]}
    out_1 {name:"Node_671:1",dtype:float32,shape:[192]}
    out_2 {name:"Node_671:2",dtype:float32,shape:[192]}
    attrs {'axis': 1, 'epsilon': 0.0010000000474974513, 'center': 1, 'scale': 0}
  }
}
layer {
  name:"Node_673"
  type:"nn_relu"
  top:"Node_673"
  bottom:"Node_671"
  layer_param {
    idx:673
    in_0 {name:"Node_671:0",dtype:float32,shape:[1, 192, 17, 17]}
    out_0 {name:"Node_673:0",dtype:float32,shape:[1, 192, 17, 17]}
  }
}
layer {
  name:"Node_679"
  type:"nn_avg_pool2d"
  top:"Node_679"
  bottom:"Node_566"
  layer_param {
    idx:679
    in_0 {name:"Node_566:0",dtype:float32,shape:[1, 768, 17, 17]}
    out_0 {name:"Node_679:0",dtype:float32,shape:[1, 768, 17, 17]}
    attrs {'pool_size': [3, 3], 'strides': [1, 1], 'dilation': [1, 1], 'padding': [1, 1, 1, 1], 'layout': 'NCHW', 'ceil_mode': 0, 'count_include_pad': 0}
  }
}
layer {
  name:"Node_680"
  type:"const"
  top:"Node_680"
  layer_param {
    idx:680
    out_0 {name:"Node_680:0",dtype:float32,shape:[192, 768, 1, 1]}
  }
}
layer {
  name:"Node_681"
  type:"nn_conv2d"
  top:"Node_681"
  bottom:"Node_679"
  bottom:"Node_680"
  layer_param {
    idx:681
    in_0 {name:"Node_679:0",dtype:float32,shape:[1, 768, 17, 17]}
    in_1 {name:"Node_680:0",dtype:float32,shape:[192, 768, 1, 1]}
    out_0 {name:"Node_681:0",dtype:float32,shape:[1, 192, 17, 17]}
    attrs {'strides': [1, 1], 'padding': [0, 0, 0, 0], 'dilation': [1, 1], 'groups': 1, 'channels': 192, 'kernel_size': [1, 1], 'data_layout': 'NCHW', 'kernel_layout': 'OIHW', 'out_layout': '', 'out_dtype': ''}
  }
}
layer {
  name:"Node_682"
  type:"const"
  top:"Node_682"
  layer_param {
    idx:682
    out_0 {name:"Node_682:0",dtype:float32,shape:[192]}
  }
}
layer {
  name:"Node_683"
  type:"const"
  top:"Node_683"
  layer_param {
    idx:683
    out_0 {name:"Node_683:0",dtype:float32,shape:[192]}
  }
}
layer {
  name:"Node_684"
  type:"const"
  top:"Node_684"
  layer_param {
    idx:684
    out_0 {name:"Node_684:0",dtype:float32,shape:[192]}
  }
}
layer {
  name:"Node_685"
  type:"const"
  top:"Node_685"
  layer_param {
    idx:685
    out_0 {name:"Node_685:0",dtype:float32,shape:[192]}
  }
}
layer {
  name:"Node_686"
  type:"nn_batch_norm"
  top:"Node_686"
  bottom:"Node_681"
  bottom:"Node_682"
  bottom:"Node_683"
  bottom:"Node_684"
  bottom:"Node_685"
  layer_param {
    idx:686
    in_0 {name:"Node_681:0",dtype:float32,shape:[1, 192, 17, 17]}
    in_1 {name:"Node_682:0",dtype:float32,shape:[192]}
    in_2 {name:"Node_683:0",dtype:float32,shape:[192]}
    in_3 {name:"Node_684:0",dtype:float32,shape:[192]}
    in_4 {name:"Node_685:0",dtype:float32,shape:[192]}
    out_0 {name:"Node_686:0",dtype:float32,shape:[1, 192, 17, 17]}
    out_1 {name:"Node_686:1",dtype:float32,shape:[192]}
    out_2 {name:"Node_686:2",dtype:float32,shape:[192]}
    attrs {'axis': 1, 'epsilon': 0.0010000000474974513, 'center': 1, 'scale': 0}
  }
}
layer {
  name:"Node_688"
  type:"nn_relu"
  top:"Node_688"
  bottom:"Node_686"
  layer_param {
    idx:688
    in_0 {name:"Node_686:0",dtype:float32,shape:[1, 192, 17, 17]}
    out_0 {name:"Node_688:0",dtype:float32,shape:[1, 192, 17, 17]}
  }
}
layer {
  name:"Node_690"
  type:"concatenate"
  top:"Node_690"
  bottom:"Node_575"
  bottom:"Node_612"
  bottom:"Node_673"
  bottom:"Node_688"
  layer_param {
    idx:690
    in_0 {name:"Node_575:0",dtype:float32,shape:[1, 192, 17, 17]}
    in_1 {name:"Node_612:0",dtype:float32,shape:[1, 192, 17, 17]}
    in_2 {name:"Node_673:0",dtype:float32,shape:[1, 192, 17, 17]}
    in_3 {name:"Node_688:0",dtype:float32,shape:[1, 192, 17, 17]}
    out_0 {name:"Node_690:0",dtype:float32,shape:[1, 768, 17, 17]}
    attrs {'axis': 1}
  }
}
layer {
  name:"Node_691"
  type:"const"
  top:"Node_691"
  layer_param {
    idx:691
    out_0 {name:"Node_691:0",dtype:float32,shape:[192, 768, 1, 1]}
  }
}
layer {
  name:"Node_692"
  type:"nn_conv2d"
  top:"Node_692"
  bottom:"Node_690"
  bottom:"Node_691"
  layer_param {
    idx:692
    in_0 {name:"Node_690:0",dtype:float32,shape:[1, 768, 17, 17]}
    in_1 {name:"Node_691:0",dtype:float32,shape:[192, 768, 1, 1]}
    out_0 {name:"Node_692:0",dtype:float32,shape:[1, 192, 17, 17]}
    attrs {'strides': [1, 1], 'padding': [0, 0, 0, 0], 'dilation': [1, 1], 'groups': 1, 'channels': 192, 'kernel_size': [1, 1], 'data_layout': 'NCHW', 'kernel_layout': 'OIHW', 'out_layout': '', 'out_dtype': ''}
  }
}
layer {
  name:"Node_693"
  type:"const"
  top:"Node_693"
  layer_param {
    idx:693
    out_0 {name:"Node_693:0",dtype:float32,shape:[192]}
  }
}
layer {
  name:"Node_694"
  type:"const"
  top:"Node_694"
  layer_param {
    idx:694
    out_0 {name:"Node_694:0",dtype:float32,shape:[192]}
  }
}
layer {
  name:"Node_695"
  type:"const"
  top:"Node_695"
  layer_param {
    idx:695
    out_0 {name:"Node_695:0",dtype:float32,shape:[192]}
  }
}
layer {
  name:"Node_696"
  type:"const"
  top:"Node_696"
  layer_param {
    idx:696
    out_0 {name:"Node_696:0",dtype:float32,shape:[192]}
  }
}
layer {
  name:"Node_697"
  type:"nn_batch_norm"
  top:"Node_697"
  bottom:"Node_692"
  bottom:"Node_693"
  bottom:"Node_694"
  bottom:"Node_695"
  bottom:"Node_696"
  layer_param {
    idx:697
    in_0 {name:"Node_692:0",dtype:float32,shape:[1, 192, 17, 17]}
    in_1 {name:"Node_693:0",dtype:float32,shape:[192]}
    in_2 {name:"Node_694:0",dtype:float32,shape:[192]}
    in_3 {name:"Node_695:0",dtype:float32,shape:[192]}
    in_4 {name:"Node_696:0",dtype:float32,shape:[192]}
    out_0 {name:"Node_697:0",dtype:float32,shape:[1, 192, 17, 17]}
    out_1 {name:"Node_697:1",dtype:float32,shape:[192]}
    out_2 {name:"Node_697:2",dtype:float32,shape:[192]}
    attrs {'axis': 1, 'epsilon': 0.0010000000474974513, 'center': 1, 'scale': 0}
  }
}
layer {
  name:"Node_699"
  type:"nn_relu"
  top:"Node_699"
  bottom:"Node_697"
  layer_param {
    idx:699
    in_0 {name:"Node_697:0",dtype:float32,shape:[1, 192, 17, 17]}
    out_0 {name:"Node_699:0",dtype:float32,shape:[1, 192, 17, 17]}
  }
}
layer {
  name:"Node_710"
  type:"const"
  top:"Node_710"
  layer_param {
    idx:710
    out_0 {name:"Node_710:0",dtype:float32,shape:[160, 768, 1, 1]}
  }
}
layer {
  name:"Node_711"
  type:"nn_conv2d"
  top:"Node_711"
  bottom:"Node_690"
  bottom:"Node_710"
  layer_param {
    idx:711
    in_0 {name:"Node_690:0",dtype:float32,shape:[1, 768, 17, 17]}
    in_1 {name:"Node_710:0",dtype:float32,shape:[160, 768, 1, 1]}
    out_0 {name:"Node_711:0",dtype:float32,shape:[1, 160, 17, 17]}
    attrs {'strides': [1, 1], 'padding': [0, 0, 0, 0], 'dilation': [1, 1], 'groups': 1, 'channels': 160, 'kernel_size': [1, 1], 'data_layout': 'NCHW', 'kernel_layout': 'OIHW', 'out_layout': '', 'out_dtype': ''}
  }
}
layer {
  name:"Node_712"
  type:"const"
  top:"Node_712"
  layer_param {
    idx:712
    out_0 {name:"Node_712:0",dtype:float32,shape:[160]}
  }
}
layer {
  name:"Node_713"
  type:"const"
  top:"Node_713"
  layer_param {
    idx:713
    out_0 {name:"Node_713:0",dtype:float32,shape:[160]}
  }
}
layer {
  name:"Node_714"
  type:"const"
  top:"Node_714"
  layer_param {
    idx:714
    out_0 {name:"Node_714:0",dtype:float32,shape:[160]}
  }
}
layer {
  name:"Node_715"
  type:"const"
  top:"Node_715"
  layer_param {
    idx:715
    out_0 {name:"Node_715:0",dtype:float32,shape:[160]}
  }
}
layer {
  name:"Node_716"
  type:"nn_batch_norm"
  top:"Node_716"
  bottom:"Node_711"
  bottom:"Node_712"
  bottom:"Node_713"
  bottom:"Node_714"
  bottom:"Node_715"
  layer_param {
    idx:716
    in_0 {name:"Node_711:0",dtype:float32,shape:[1, 160, 17, 17]}
    in_1 {name:"Node_712:0",dtype:float32,shape:[160]}
    in_2 {name:"Node_713:0",dtype:float32,shape:[160]}
    in_3 {name:"Node_714:0",dtype:float32,shape:[160]}
    in_4 {name:"Node_715:0",dtype:float32,shape:[160]}
    out_0 {name:"Node_716:0",dtype:float32,shape:[1, 160, 17, 17]}
    out_1 {name:"Node_716:1",dtype:float32,shape:[160]}
    out_2 {name:"Node_716:2",dtype:float32,shape:[160]}
    attrs {'axis': 1, 'epsilon': 0.0010000000474974513, 'center': 1, 'scale': 0}
  }
}
layer {
  name:"Node_718"
  type:"nn_relu"
  top:"Node_718"
  bottom:"Node_716"
  layer_param {
    idx:718
    in_0 {name:"Node_716:0",dtype:float32,shape:[1, 160, 17, 17]}
    out_0 {name:"Node_718:0",dtype:float32,shape:[1, 160, 17, 17]}
  }
}
layer {
  name:"Node_719"
  type:"const"
  top:"Node_719"
  layer_param {
    idx:719
    out_0 {name:"Node_719:0",dtype:float32,shape:[160, 160, 1, 7]}
  }
}
layer {
  name:"Node_720"
  type:"nn_conv2d"
  top:"Node_720"
  bottom:"Node_718"
  bottom:"Node_719"
  layer_param {
    idx:720
    in_0 {name:"Node_718:0",dtype:float32,shape:[1, 160, 17, 17]}
    in_1 {name:"Node_719:0",dtype:float32,shape:[160, 160, 1, 7]}
    out_0 {name:"Node_720:0",dtype:float32,shape:[1, 160, 17, 17]}
    attrs {'strides': [1, 1], 'padding': [0, 3, 0, 3], 'dilation': [1, 1], 'groups': 1, 'channels': 160, 'kernel_size': [1, 7], 'data_layout': 'NCHW', 'kernel_layout': 'OIHW', 'out_layout': '', 'out_dtype': ''}
  }
}
layer {
  name:"Node_721"
  type:"const"
  top:"Node_721"
  layer_param {
    idx:721
    out_0 {name:"Node_721:0",dtype:float32,shape:[160]}
  }
}
layer {
  name:"Node_722"
  type:"const"
  top:"Node_722"
  layer_param {
    idx:722
    out_0 {name:"Node_722:0",dtype:float32,shape:[160]}
  }
}
layer {
  name:"Node_723"
  type:"const"
  top:"Node_723"
  layer_param {
    idx:723
    out_0 {name:"Node_723:0",dtype:float32,shape:[160]}
  }
}
layer {
  name:"Node_724"
  type:"const"
  top:"Node_724"
  layer_param {
    idx:724
    out_0 {name:"Node_724:0",dtype:float32,shape:[160]}
  }
}
layer {
  name:"Node_725"
  type:"nn_batch_norm"
  top:"Node_725"
  bottom:"Node_720"
  bottom:"Node_721"
  bottom:"Node_722"
  bottom:"Node_723"
  bottom:"Node_724"
  layer_param {
    idx:725
    in_0 {name:"Node_720:0",dtype:float32,shape:[1, 160, 17, 17]}
    in_1 {name:"Node_721:0",dtype:float32,shape:[160]}
    in_2 {name:"Node_722:0",dtype:float32,shape:[160]}
    in_3 {name:"Node_723:0",dtype:float32,shape:[160]}
    in_4 {name:"Node_724:0",dtype:float32,shape:[160]}
    out_0 {name:"Node_725:0",dtype:float32,shape:[1, 160, 17, 17]}
    out_1 {name:"Node_725:1",dtype:float32,shape:[160]}
    out_2 {name:"Node_725:2",dtype:float32,shape:[160]}
    attrs {'axis': 1, 'epsilon': 0.0010000000474974513, 'center': 1, 'scale': 0}
  }
}
layer {
  name:"Node_727"
  type:"nn_relu"
  top:"Node_727"
  bottom:"Node_725"
  layer_param {
    idx:727
    in_0 {name:"Node_725:0",dtype:float32,shape:[1, 160, 17, 17]}
    out_0 {name:"Node_727:0",dtype:float32,shape:[1, 160, 17, 17]}
  }
}
layer {
  name:"Node_728"
  type:"const"
  top:"Node_728"
  layer_param {
    idx:728
    out_0 {name:"Node_728:0",dtype:float32,shape:[192, 160, 7, 1]}
  }
}
layer {
  name:"Node_729"
  type:"nn_conv2d"
  top:"Node_729"
  bottom:"Node_727"
  bottom:"Node_728"
  layer_param {
    idx:729
    in_0 {name:"Node_727:0",dtype:float32,shape:[1, 160, 17, 17]}
    in_1 {name:"Node_728:0",dtype:float32,shape:[192, 160, 7, 1]}
    out_0 {name:"Node_729:0",dtype:float32,shape:[1, 192, 17, 17]}
    attrs {'strides': [1, 1], 'padding': [3, 0, 3, 0], 'dilation': [1, 1], 'groups': 1, 'channels': 192, 'kernel_size': [7, 1], 'data_layout': 'NCHW', 'kernel_layout': 'OIHW', 'out_layout': '', 'out_dtype': ''}
  }
}
layer {
  name:"Node_730"
  type:"const"
  top:"Node_730"
  layer_param {
    idx:730
    out_0 {name:"Node_730:0",dtype:float32,shape:[192]}
  }
}
layer {
  name:"Node_731"
  type:"const"
  top:"Node_731"
  layer_param {
    idx:731
    out_0 {name:"Node_731:0",dtype:float32,shape:[192]}
  }
}
layer {
  name:"Node_732"
  type:"const"
  top:"Node_732"
  layer_param {
    idx:732
    out_0 {name:"Node_732:0",dtype:float32,shape:[192]}
  }
}
layer {
  name:"Node_733"
  type:"const"
  top:"Node_733"
  layer_param {
    idx:733
    out_0 {name:"Node_733:0",dtype:float32,shape:[192]}
  }
}
layer {
  name:"Node_734"
  type:"nn_batch_norm"
  top:"Node_734"
  bottom:"Node_729"
  bottom:"Node_730"
  bottom:"Node_731"
  bottom:"Node_732"
  bottom:"Node_733"
  layer_param {
    idx:734
    in_0 {name:"Node_729:0",dtype:float32,shape:[1, 192, 17, 17]}
    in_1 {name:"Node_730:0",dtype:float32,shape:[192]}
    in_2 {name:"Node_731:0",dtype:float32,shape:[192]}
    in_3 {name:"Node_732:0",dtype:float32,shape:[192]}
    in_4 {name:"Node_733:0",dtype:float32,shape:[192]}
    out_0 {name:"Node_734:0",dtype:float32,shape:[1, 192, 17, 17]}
    out_1 {name:"Node_734:1",dtype:float32,shape:[192]}
    out_2 {name:"Node_734:2",dtype:float32,shape:[192]}
    attrs {'axis': 1, 'epsilon': 0.0010000000474974513, 'center': 1, 'scale': 0}
  }
}
layer {
  name:"Node_736"
  type:"nn_relu"
  top:"Node_736"
  bottom:"Node_734"
  layer_param {
    idx:736
    in_0 {name:"Node_734:0",dtype:float32,shape:[1, 192, 17, 17]}
    out_0 {name:"Node_736:0",dtype:float32,shape:[1, 192, 17, 17]}
  }
}
layer {
  name:"Node_753"
  type:"const"
  top:"Node_753"
  layer_param {
    idx:753
    out_0 {name:"Node_753:0",dtype:float32,shape:[160, 768, 1, 1]}
  }
}
layer {
  name:"Node_754"
  type:"nn_conv2d"
  top:"Node_754"
  bottom:"Node_690"
  bottom:"Node_753"
  layer_param {
    idx:754
    in_0 {name:"Node_690:0",dtype:float32,shape:[1, 768, 17, 17]}
    in_1 {name:"Node_753:0",dtype:float32,shape:[160, 768, 1, 1]}
    out_0 {name:"Node_754:0",dtype:float32,shape:[1, 160, 17, 17]}
    attrs {'strides': [1, 1], 'padding': [0, 0, 0, 0], 'dilation': [1, 1], 'groups': 1, 'channels': 160, 'kernel_size': [1, 1], 'data_layout': 'NCHW', 'kernel_layout': 'OIHW', 'out_layout': '', 'out_dtype': ''}
  }
}
layer {
  name:"Node_755"
  type:"const"
  top:"Node_755"
  layer_param {
    idx:755
    out_0 {name:"Node_755:0",dtype:float32,shape:[160]}
  }
}
layer {
  name:"Node_756"
  type:"const"
  top:"Node_756"
  layer_param {
    idx:756
    out_0 {name:"Node_756:0",dtype:float32,shape:[160]}
  }
}
layer {
  name:"Node_757"
  type:"const"
  top:"Node_757"
  layer_param {
    idx:757
    out_0 {name:"Node_757:0",dtype:float32,shape:[160]}
  }
}
layer {
  name:"Node_758"
  type:"const"
  top:"Node_758"
  layer_param {
    idx:758
    out_0 {name:"Node_758:0",dtype:float32,shape:[160]}
  }
}
layer {
  name:"Node_759"
  type:"nn_batch_norm"
  top:"Node_759"
  bottom:"Node_754"
  bottom:"Node_755"
  bottom:"Node_756"
  bottom:"Node_757"
  bottom:"Node_758"
  layer_param {
    idx:759
    in_0 {name:"Node_754:0",dtype:float32,shape:[1, 160, 17, 17]}
    in_1 {name:"Node_755:0",dtype:float32,shape:[160]}
    in_2 {name:"Node_756:0",dtype:float32,shape:[160]}
    in_3 {name:"Node_757:0",dtype:float32,shape:[160]}
    in_4 {name:"Node_758:0",dtype:float32,shape:[160]}
    out_0 {name:"Node_759:0",dtype:float32,shape:[1, 160, 17, 17]}
    out_1 {name:"Node_759:1",dtype:float32,shape:[160]}
    out_2 {name:"Node_759:2",dtype:float32,shape:[160]}
    attrs {'axis': 1, 'epsilon': 0.0010000000474974513, 'center': 1, 'scale': 0}
  }
}
layer {
  name:"Node_761"
  type:"nn_relu"
  top:"Node_761"
  bottom:"Node_759"
  layer_param {
    idx:761
    in_0 {name:"Node_759:0",dtype:float32,shape:[1, 160, 17, 17]}
    out_0 {name:"Node_761:0",dtype:float32,shape:[1, 160, 17, 17]}
  }
}
layer {
  name:"Node_762"
  type:"const"
  top:"Node_762"
  layer_param {
    idx:762
    out_0 {name:"Node_762:0",dtype:float32,shape:[160, 160, 7, 1]}
  }
}
layer {
  name:"Node_763"
  type:"nn_conv2d"
  top:"Node_763"
  bottom:"Node_761"
  bottom:"Node_762"
  layer_param {
    idx:763
    in_0 {name:"Node_761:0",dtype:float32,shape:[1, 160, 17, 17]}
    in_1 {name:"Node_762:0",dtype:float32,shape:[160, 160, 7, 1]}
    out_0 {name:"Node_763:0",dtype:float32,shape:[1, 160, 17, 17]}
    attrs {'strides': [1, 1], 'padding': [3, 0, 3, 0], 'dilation': [1, 1], 'groups': 1, 'channels': 160, 'kernel_size': [7, 1], 'data_layout': 'NCHW', 'kernel_layout': 'OIHW', 'out_layout': '', 'out_dtype': ''}
  }
}
layer {
  name:"Node_764"
  type:"const"
  top:"Node_764"
  layer_param {
    idx:764
    out_0 {name:"Node_764:0",dtype:float32,shape:[160]}
  }
}
layer {
  name:"Node_765"
  type:"const"
  top:"Node_765"
  layer_param {
    idx:765
    out_0 {name:"Node_765:0",dtype:float32,shape:[160]}
  }
}
layer {
  name:"Node_766"
  type:"const"
  top:"Node_766"
  layer_param {
    idx:766
    out_0 {name:"Node_766:0",dtype:float32,shape:[160]}
  }
}
layer {
  name:"Node_767"
  type:"const"
  top:"Node_767"
  layer_param {
    idx:767
    out_0 {name:"Node_767:0",dtype:float32,shape:[160]}
  }
}
layer {
  name:"Node_768"
  type:"nn_batch_norm"
  top:"Node_768"
  bottom:"Node_763"
  bottom:"Node_764"
  bottom:"Node_765"
  bottom:"Node_766"
  bottom:"Node_767"
  layer_param {
    idx:768
    in_0 {name:"Node_763:0",dtype:float32,shape:[1, 160, 17, 17]}
    in_1 {name:"Node_764:0",dtype:float32,shape:[160]}
    in_2 {name:"Node_765:0",dtype:float32,shape:[160]}
    in_3 {name:"Node_766:0",dtype:float32,shape:[160]}
    in_4 {name:"Node_767:0",dtype:float32,shape:[160]}
    out_0 {name:"Node_768:0",dtype:float32,shape:[1, 160, 17, 17]}
    out_1 {name:"Node_768:1",dtype:float32,shape:[160]}
    out_2 {name:"Node_768:2",dtype:float32,shape:[160]}
    attrs {'axis': 1, 'epsilon': 0.0010000000474974513, 'center': 1, 'scale': 0}
  }
}
layer {
  name:"Node_770"
  type:"nn_relu"
  top:"Node_770"
  bottom:"Node_768"
  layer_param {
    idx:770
    in_0 {name:"Node_768:0",dtype:float32,shape:[1, 160, 17, 17]}
    out_0 {name:"Node_770:0",dtype:float32,shape:[1, 160, 17, 17]}
  }
}
layer {
  name:"Node_771"
  type:"const"
  top:"Node_771"
  layer_param {
    idx:771
    out_0 {name:"Node_771:0",dtype:float32,shape:[160, 160, 1, 7]}
  }
}
layer {
  name:"Node_772"
  type:"nn_conv2d"
  top:"Node_772"
  bottom:"Node_770"
  bottom:"Node_771"
  layer_param {
    idx:772
    in_0 {name:"Node_770:0",dtype:float32,shape:[1, 160, 17, 17]}
    in_1 {name:"Node_771:0",dtype:float32,shape:[160, 160, 1, 7]}
    out_0 {name:"Node_772:0",dtype:float32,shape:[1, 160, 17, 17]}
    attrs {'strides': [1, 1], 'padding': [0, 3, 0, 3], 'dilation': [1, 1], 'groups': 1, 'channels': 160, 'kernel_size': [1, 7], 'data_layout': 'NCHW', 'kernel_layout': 'OIHW', 'out_layout': '', 'out_dtype': ''}
  }
}
layer {
  name:"Node_773"
  type:"const"
  top:"Node_773"
  layer_param {
    idx:773
    out_0 {name:"Node_773:0",dtype:float32,shape:[160]}
  }
}
layer {
  name:"Node_774"
  type:"const"
  top:"Node_774"
  layer_param {
    idx:774
    out_0 {name:"Node_774:0",dtype:float32,shape:[160]}
  }
}
layer {
  name:"Node_775"
  type:"const"
  top:"Node_775"
  layer_param {
    idx:775
    out_0 {name:"Node_775:0",dtype:float32,shape:[160]}
  }
}
layer {
  name:"Node_776"
  type:"const"
  top:"Node_776"
  layer_param {
    idx:776
    out_0 {name:"Node_776:0",dtype:float32,shape:[160]}
  }
}
layer {
  name:"Node_777"
  type:"nn_batch_norm"
  top:"Node_777"
  bottom:"Node_772"
  bottom:"Node_773"
  bottom:"Node_774"
  bottom:"Node_775"
  bottom:"Node_776"
  layer_param {
    idx:777
    in_0 {name:"Node_772:0",dtype:float32,shape:[1, 160, 17, 17]}
    in_1 {name:"Node_773:0",dtype:float32,shape:[160]}
    in_2 {name:"Node_774:0",dtype:float32,shape:[160]}
    in_3 {name:"Node_775:0",dtype:float32,shape:[160]}
    in_4 {name:"Node_776:0",dtype:float32,shape:[160]}
    out_0 {name:"Node_777:0",dtype:float32,shape:[1, 160, 17, 17]}
    out_1 {name:"Node_777:1",dtype:float32,shape:[160]}
    out_2 {name:"Node_777:2",dtype:float32,shape:[160]}
    attrs {'axis': 1, 'epsilon': 0.0010000000474974513, 'center': 1, 'scale': 0}
  }
}
layer {
  name:"Node_779"
  type:"nn_relu"
  top:"Node_779"
  bottom:"Node_777"
  layer_param {
    idx:779
    in_0 {name:"Node_777:0",dtype:float32,shape:[1, 160, 17, 17]}
    out_0 {name:"Node_779:0",dtype:float32,shape:[1, 160, 17, 17]}
  }
}
layer {
  name:"Node_780"
  type:"const"
  top:"Node_780"
  layer_param {
    idx:780
    out_0 {name:"Node_780:0",dtype:float32,shape:[160, 160, 7, 1]}
  }
}
layer {
  name:"Node_781"
  type:"nn_conv2d"
  top:"Node_781"
  bottom:"Node_779"
  bottom:"Node_780"
  layer_param {
    idx:781
    in_0 {name:"Node_779:0",dtype:float32,shape:[1, 160, 17, 17]}
    in_1 {name:"Node_780:0",dtype:float32,shape:[160, 160, 7, 1]}
    out_0 {name:"Node_781:0",dtype:float32,shape:[1, 160, 17, 17]}
    attrs {'strides': [1, 1], 'padding': [3, 0, 3, 0], 'dilation': [1, 1], 'groups': 1, 'channels': 160, 'kernel_size': [7, 1], 'data_layout': 'NCHW', 'kernel_layout': 'OIHW', 'out_layout': '', 'out_dtype': ''}
  }
}
layer {
  name:"Node_782"
  type:"const"
  top:"Node_782"
  layer_param {
    idx:782
    out_0 {name:"Node_782:0",dtype:float32,shape:[160]}
  }
}
layer {
  name:"Node_783"
  type:"const"
  top:"Node_783"
  layer_param {
    idx:783
    out_0 {name:"Node_783:0",dtype:float32,shape:[160]}
  }
}
layer {
  name:"Node_784"
  type:"const"
  top:"Node_784"
  layer_param {
    idx:784
    out_0 {name:"Node_784:0",dtype:float32,shape:[160]}
  }
}
layer {
  name:"Node_785"
  type:"const"
  top:"Node_785"
  layer_param {
    idx:785
    out_0 {name:"Node_785:0",dtype:float32,shape:[160]}
  }
}
layer {
  name:"Node_786"
  type:"nn_batch_norm"
  top:"Node_786"
  bottom:"Node_781"
  bottom:"Node_782"
  bottom:"Node_783"
  bottom:"Node_784"
  bottom:"Node_785"
  layer_param {
    idx:786
    in_0 {name:"Node_781:0",dtype:float32,shape:[1, 160, 17, 17]}
    in_1 {name:"Node_782:0",dtype:float32,shape:[160]}
    in_2 {name:"Node_783:0",dtype:float32,shape:[160]}
    in_3 {name:"Node_784:0",dtype:float32,shape:[160]}
    in_4 {name:"Node_785:0",dtype:float32,shape:[160]}
    out_0 {name:"Node_786:0",dtype:float32,shape:[1, 160, 17, 17]}
    out_1 {name:"Node_786:1",dtype:float32,shape:[160]}
    out_2 {name:"Node_786:2",dtype:float32,shape:[160]}
    attrs {'axis': 1, 'epsilon': 0.0010000000474974513, 'center': 1, 'scale': 0}
  }
}
layer {
  name:"Node_788"
  type:"nn_relu"
  top:"Node_788"
  bottom:"Node_786"
  layer_param {
    idx:788
    in_0 {name:"Node_786:0",dtype:float32,shape:[1, 160, 17, 17]}
    out_0 {name:"Node_788:0",dtype:float32,shape:[1, 160, 17, 17]}
  }
}
layer {
  name:"Node_789"
  type:"const"
  top:"Node_789"
  layer_param {
    idx:789
    out_0 {name:"Node_789:0",dtype:float32,shape:[192, 160, 1, 7]}
  }
}
layer {
  name:"Node_790"
  type:"nn_conv2d"
  top:"Node_790"
  bottom:"Node_788"
  bottom:"Node_789"
  layer_param {
    idx:790
    in_0 {name:"Node_788:0",dtype:float32,shape:[1, 160, 17, 17]}
    in_1 {name:"Node_789:0",dtype:float32,shape:[192, 160, 1, 7]}
    out_0 {name:"Node_790:0",dtype:float32,shape:[1, 192, 17, 17]}
    attrs {'strides': [1, 1], 'padding': [0, 3, 0, 3], 'dilation': [1, 1], 'groups': 1, 'channels': 192, 'kernel_size': [1, 7], 'data_layout': 'NCHW', 'kernel_layout': 'OIHW', 'out_layout': '', 'out_dtype': ''}
  }
}
layer {
  name:"Node_791"
  type:"const"
  top:"Node_791"
  layer_param {
    idx:791
    out_0 {name:"Node_791:0",dtype:float32,shape:[192]}
  }
}
layer {
  name:"Node_792"
  type:"const"
  top:"Node_792"
  layer_param {
    idx:792
    out_0 {name:"Node_792:0",dtype:float32,shape:[192]}
  }
}
layer {
  name:"Node_793"
  type:"const"
  top:"Node_793"
  layer_param {
    idx:793
    out_0 {name:"Node_793:0",dtype:float32,shape:[192]}
  }
}
layer {
  name:"Node_794"
  type:"const"
  top:"Node_794"
  layer_param {
    idx:794
    out_0 {name:"Node_794:0",dtype:float32,shape:[192]}
  }
}
layer {
  name:"Node_795"
  type:"nn_batch_norm"
  top:"Node_795"
  bottom:"Node_790"
  bottom:"Node_791"
  bottom:"Node_792"
  bottom:"Node_793"
  bottom:"Node_794"
  layer_param {
    idx:795
    in_0 {name:"Node_790:0",dtype:float32,shape:[1, 192, 17, 17]}
    in_1 {name:"Node_791:0",dtype:float32,shape:[192]}
    in_2 {name:"Node_792:0",dtype:float32,shape:[192]}
    in_3 {name:"Node_793:0",dtype:float32,shape:[192]}
    in_4 {name:"Node_794:0",dtype:float32,shape:[192]}
    out_0 {name:"Node_795:0",dtype:float32,shape:[1, 192, 17, 17]}
    out_1 {name:"Node_795:1",dtype:float32,shape:[192]}
    out_2 {name:"Node_795:2",dtype:float32,shape:[192]}
    attrs {'axis': 1, 'epsilon': 0.0010000000474974513, 'center': 1, 'scale': 0}
  }
}
layer {
  name:"Node_797"
  type:"nn_relu"
  top:"Node_797"
  bottom:"Node_795"
  layer_param {
    idx:797
    in_0 {name:"Node_795:0",dtype:float32,shape:[1, 192, 17, 17]}
    out_0 {name:"Node_797:0",dtype:float32,shape:[1, 192, 17, 17]}
  }
}
layer {
  name:"Node_803"
  type:"nn_avg_pool2d"
  top:"Node_803"
  bottom:"Node_690"
  layer_param {
    idx:803
    in_0 {name:"Node_690:0",dtype:float32,shape:[1, 768, 17, 17]}
    out_0 {name:"Node_803:0",dtype:float32,shape:[1, 768, 17, 17]}
    attrs {'pool_size': [3, 3], 'strides': [1, 1], 'dilation': [1, 1], 'padding': [1, 1, 1, 1], 'layout': 'NCHW', 'ceil_mode': 0, 'count_include_pad': 0}
  }
}
layer {
  name:"Node_804"
  type:"const"
  top:"Node_804"
  layer_param {
    idx:804
    out_0 {name:"Node_804:0",dtype:float32,shape:[192, 768, 1, 1]}
  }
}
layer {
  name:"Node_805"
  type:"nn_conv2d"
  top:"Node_805"
  bottom:"Node_803"
  bottom:"Node_804"
  layer_param {
    idx:805
    in_0 {name:"Node_803:0",dtype:float32,shape:[1, 768, 17, 17]}
    in_1 {name:"Node_804:0",dtype:float32,shape:[192, 768, 1, 1]}
    out_0 {name:"Node_805:0",dtype:float32,shape:[1, 192, 17, 17]}
    attrs {'strides': [1, 1], 'padding': [0, 0, 0, 0], 'dilation': [1, 1], 'groups': 1, 'channels': 192, 'kernel_size': [1, 1], 'data_layout': 'NCHW', 'kernel_layout': 'OIHW', 'out_layout': '', 'out_dtype': ''}
  }
}
layer {
  name:"Node_806"
  type:"const"
  top:"Node_806"
  layer_param {
    idx:806
    out_0 {name:"Node_806:0",dtype:float32,shape:[192]}
  }
}
layer {
  name:"Node_807"
  type:"const"
  top:"Node_807"
  layer_param {
    idx:807
    out_0 {name:"Node_807:0",dtype:float32,shape:[192]}
  }
}
layer {
  name:"Node_808"
  type:"const"
  top:"Node_808"
  layer_param {
    idx:808
    out_0 {name:"Node_808:0",dtype:float32,shape:[192]}
  }
}
layer {
  name:"Node_809"
  type:"const"
  top:"Node_809"
  layer_param {
    idx:809
    out_0 {name:"Node_809:0",dtype:float32,shape:[192]}
  }
}
layer {
  name:"Node_810"
  type:"nn_batch_norm"
  top:"Node_810"
  bottom:"Node_805"
  bottom:"Node_806"
  bottom:"Node_807"
  bottom:"Node_808"
  bottom:"Node_809"
  layer_param {
    idx:810
    in_0 {name:"Node_805:0",dtype:float32,shape:[1, 192, 17, 17]}
    in_1 {name:"Node_806:0",dtype:float32,shape:[192]}
    in_2 {name:"Node_807:0",dtype:float32,shape:[192]}
    in_3 {name:"Node_808:0",dtype:float32,shape:[192]}
    in_4 {name:"Node_809:0",dtype:float32,shape:[192]}
    out_0 {name:"Node_810:0",dtype:float32,shape:[1, 192, 17, 17]}
    out_1 {name:"Node_810:1",dtype:float32,shape:[192]}
    out_2 {name:"Node_810:2",dtype:float32,shape:[192]}
    attrs {'axis': 1, 'epsilon': 0.0010000000474974513, 'center': 1, 'scale': 0}
  }
}
layer {
  name:"Node_812"
  type:"nn_relu"
  top:"Node_812"
  bottom:"Node_810"
  layer_param {
    idx:812
    in_0 {name:"Node_810:0",dtype:float32,shape:[1, 192, 17, 17]}
    out_0 {name:"Node_812:0",dtype:float32,shape:[1, 192, 17, 17]}
  }
}
layer {
  name:"Node_814"
  type:"concatenate"
  top:"Node_814"
  bottom:"Node_699"
  bottom:"Node_736"
  bottom:"Node_797"
  bottom:"Node_812"
  layer_param {
    idx:814
    in_0 {name:"Node_699:0",dtype:float32,shape:[1, 192, 17, 17]}
    in_1 {name:"Node_736:0",dtype:float32,shape:[1, 192, 17, 17]}
    in_2 {name:"Node_797:0",dtype:float32,shape:[1, 192, 17, 17]}
    in_3 {name:"Node_812:0",dtype:float32,shape:[1, 192, 17, 17]}
    out_0 {name:"Node_814:0",dtype:float32,shape:[1, 768, 17, 17]}
    attrs {'axis': 1}
  }
}
layer {
  name:"Node_815"
  type:"const"
  top:"Node_815"
  layer_param {
    idx:815
    out_0 {name:"Node_815:0",dtype:float32,shape:[192, 768, 1, 1]}
  }
}
layer {
  name:"Node_816"
  type:"nn_conv2d"
  top:"Node_816"
  bottom:"Node_814"
  bottom:"Node_815"
  layer_param {
    idx:816
    in_0 {name:"Node_814:0",dtype:float32,shape:[1, 768, 17, 17]}
    in_1 {name:"Node_815:0",dtype:float32,shape:[192, 768, 1, 1]}
    out_0 {name:"Node_816:0",dtype:float32,shape:[1, 192, 17, 17]}
    attrs {'strides': [1, 1], 'padding': [0, 0, 0, 0], 'dilation': [1, 1], 'groups': 1, 'channels': 192, 'kernel_size': [1, 1], 'data_layout': 'NCHW', 'kernel_layout': 'OIHW', 'out_layout': '', 'out_dtype': ''}
  }
}
layer {
  name:"Node_817"
  type:"const"
  top:"Node_817"
  layer_param {
    idx:817
    out_0 {name:"Node_817:0",dtype:float32,shape:[192]}
  }
}
layer {
  name:"Node_818"
  type:"const"
  top:"Node_818"
  layer_param {
    idx:818
    out_0 {name:"Node_818:0",dtype:float32,shape:[192]}
  }
}
layer {
  name:"Node_819"
  type:"const"
  top:"Node_819"
  layer_param {
    idx:819
    out_0 {name:"Node_819:0",dtype:float32,shape:[192]}
  }
}
layer {
  name:"Node_820"
  type:"const"
  top:"Node_820"
  layer_param {
    idx:820
    out_0 {name:"Node_820:0",dtype:float32,shape:[192]}
  }
}
layer {
  name:"Node_821"
  type:"nn_batch_norm"
  top:"Node_821"
  bottom:"Node_816"
  bottom:"Node_817"
  bottom:"Node_818"
  bottom:"Node_819"
  bottom:"Node_820"
  layer_param {
    idx:821
    in_0 {name:"Node_816:0",dtype:float32,shape:[1, 192, 17, 17]}
    in_1 {name:"Node_817:0",dtype:float32,shape:[192]}
    in_2 {name:"Node_818:0",dtype:float32,shape:[192]}
    in_3 {name:"Node_819:0",dtype:float32,shape:[192]}
    in_4 {name:"Node_820:0",dtype:float32,shape:[192]}
    out_0 {name:"Node_821:0",dtype:float32,shape:[1, 192, 17, 17]}
    out_1 {name:"Node_821:1",dtype:float32,shape:[192]}
    out_2 {name:"Node_821:2",dtype:float32,shape:[192]}
    attrs {'axis': 1, 'epsilon': 0.0010000000474974513, 'center': 1, 'scale': 0}
  }
}
layer {
  name:"Node_823"
  type:"nn_relu"
  top:"Node_823"
  bottom:"Node_821"
  layer_param {
    idx:823
    in_0 {name:"Node_821:0",dtype:float32,shape:[1, 192, 17, 17]}
    out_0 {name:"Node_823:0",dtype:float32,shape:[1, 192, 17, 17]}
  }
}
layer {
  name:"Node_834"
  type:"const"
  top:"Node_834"
  layer_param {
    idx:834
    out_0 {name:"Node_834:0",dtype:float32,shape:[192, 768, 1, 1]}
  }
}
layer {
  name:"Node_835"
  type:"nn_conv2d"
  top:"Node_835"
  bottom:"Node_814"
  bottom:"Node_834"
  layer_param {
    idx:835
    in_0 {name:"Node_814:0",dtype:float32,shape:[1, 768, 17, 17]}
    in_1 {name:"Node_834:0",dtype:float32,shape:[192, 768, 1, 1]}
    out_0 {name:"Node_835:0",dtype:float32,shape:[1, 192, 17, 17]}
    attrs {'strides': [1, 1], 'padding': [0, 0, 0, 0], 'dilation': [1, 1], 'groups': 1, 'channels': 192, 'kernel_size': [1, 1], 'data_layout': 'NCHW', 'kernel_layout': 'OIHW', 'out_layout': '', 'out_dtype': ''}
  }
}
layer {
  name:"Node_836"
  type:"const"
  top:"Node_836"
  layer_param {
    idx:836
    out_0 {name:"Node_836:0",dtype:float32,shape:[192]}
  }
}
layer {
  name:"Node_837"
  type:"const"
  top:"Node_837"
  layer_param {
    idx:837
    out_0 {name:"Node_837:0",dtype:float32,shape:[192]}
  }
}
layer {
  name:"Node_838"
  type:"const"
  top:"Node_838"
  layer_param {
    idx:838
    out_0 {name:"Node_838:0",dtype:float32,shape:[192]}
  }
}
layer {
  name:"Node_839"
  type:"const"
  top:"Node_839"
  layer_param {
    idx:839
    out_0 {name:"Node_839:0",dtype:float32,shape:[192]}
  }
}
layer {
  name:"Node_840"
  type:"nn_batch_norm"
  top:"Node_840"
  bottom:"Node_835"
  bottom:"Node_836"
  bottom:"Node_837"
  bottom:"Node_838"
  bottom:"Node_839"
  layer_param {
    idx:840
    in_0 {name:"Node_835:0",dtype:float32,shape:[1, 192, 17, 17]}
    in_1 {name:"Node_836:0",dtype:float32,shape:[192]}
    in_2 {name:"Node_837:0",dtype:float32,shape:[192]}
    in_3 {name:"Node_838:0",dtype:float32,shape:[192]}
    in_4 {name:"Node_839:0",dtype:float32,shape:[192]}
    out_0 {name:"Node_840:0",dtype:float32,shape:[1, 192, 17, 17]}
    out_1 {name:"Node_840:1",dtype:float32,shape:[192]}
    out_2 {name:"Node_840:2",dtype:float32,shape:[192]}
    attrs {'axis': 1, 'epsilon': 0.0010000000474974513, 'center': 1, 'scale': 0}
  }
}
layer {
  name:"Node_842"
  type:"nn_relu"
  top:"Node_842"
  bottom:"Node_840"
…
  bottom:"Node_938"
  layer_param {
    idx:1008
    in_0 {name:"Node_938:0",dtype:float32,shape:[1, 768, 17, 17]}
    out_0 {name:"Node_1008:0",dtype:float32,shape:[1, 768, 8, 8]}
    attrs {'pool_size': [3, 3], 'strides': [2, 2], 'dilation': [1, 1], 'padding': [0, 0, 0, 0], 'layout': 'NCHW', 'ceil_mode': 0}
  }
}
layer {
  name:"Node_1010"
  type:"concatenate"
  top:"Node_1010"
  bottom:"Node_956"
  bottom:"Node_1005"
  bottom:"Node_1008"
  layer_param {
    idx:1010
    in_0 {name:"Node_956:0",dtype:float32,shape:[1, 320, 8, 8]}
    in_1 {name:"Node_1005:0",dtype:float32,shape:[1, 192, 8, 8]}
    in_2 {name:"Node_1008:0",dtype:float32,shape:[1, 768, 8, 8]}
    out_0 {name:"Node_1010:0",dtype:float32,shape:[1, 1280, 8, 8]}
    attrs {'axis': 1}
  }
}
layer {
  name:"Node_1011"
  type:"const"
  top:"Node_1011"
  layer_param {
    idx:1011
    out_0 {name:"Node_1011:0",dtype:float32,shape:[320, 1280, 1, 1]}
  }
}
layer {
  name:"Node_1012"
  type:"nn_conv2d"
  top:"Node_1012"
  bottom:"Node_1010"
  bottom:"Node_1011"
  layer_param {
    idx:1012
    in_0 {name:"Node_1010:0",dtype:float32,shape:[1, 1280, 8, 8]}
    in_1 {name:"Node_1011:0",dtype:float32,shape:[320, 1280, 1, 1]}
    out_0 {name:"Node_1012:0",dtype:float32,shape:[1, 320, 8, 8]}
    attrs {'strides': [1, 1], 'padding': [0, 0, 0, 0], 'dilation': [1, 1], 'groups': 1, 'channels': 320, 'kernel_size': [1, 1], 'data_layout': 'NCHW', 'kernel_layout': 'OIHW', 'out_layout': '', 'out_dtype': ''}
  }
}
layer {
  name:"Node_1013"
  type:"const"
  top:"Node_1013"
  layer_param {
    idx:1013
    out_0 {name:"Node_1013:0",dtype:float32,shape:[320]}
  }
}
layer {
  name:"Node_1014"
  type:"const"
  top:"Node_1014"
  layer_param {
    idx:1014
    out_0 {name:"Node_1014:0",dtype:float32,shape:[320]}
  }
}
layer {
  name:"Node_1015"
  type:"const"
  top:"Node_1015"
  layer_param {
    idx:1015
    out_0 {name:"Node_1015:0",dtype:float32,shape:[320]}
  }
}
layer {
  name:"Node_1016"
  type:"const"
  top:"Node_1016"
  layer_param {
    idx:1016
    out_0 {name:"Node_1016:0",dtype:float32,shape:[320]}
  }
}
layer {
  name:"Node_1017"
  type:"nn_batch_norm"
  top:"Node_1017"
  bottom:"Node_1012"
  bottom:"Node_1013"
  bottom:"Node_1014"
  bottom:"Node_1015"
  bottom:"Node_1016"
  layer_param {
    idx:1017
    in_0 {name:"Node_1012:0",dtype:float32,shape:[1, 320, 8, 8]}
    in_1 {name:"Node_1013:0",dtype:float32,shape:[320]}
    in_2 {name:"Node_1014:0",dtype:float32,shape:[320]}
    in_3 {name:"Node_1015:0",dtype:float32,shape:[320]}
    in_4 {name:"Node_1016:0",dtype:float32,shape:[320]}
    out_0 {name:"Node_1017:0",dtype:float32,shape:[1, 320, 8, 8]}
    out_1 {name:"Node_1017:1",dtype:float32,shape:[320]}
    out_2 {name:"Node_1017:2",dtype:float32,shape:[320]}
    attrs {'axis': 1, 'epsilon': 0.0010000000474974513, 'center': 1, 'scale': 0}
  }
}
layer {
  name:"Node_1019"
  type:"nn_relu"
  top:"Node_1019"
  bottom:"Node_1017"
  layer_param {
    idx:1019
    in_0 {name:"Node_1017:0",dtype:float32,shape:[1, 320, 8, 8]}
    out_0 {name:"Node_1019:0",dtype:float32,shape:[1, 320, 8, 8]}
  }
}
layer {
  name:"Node_1027"
  type:"const"
  top:"Node_1027"
  layer_param {
    idx:1027
    out_0 {name:"Node_1027:0",dtype:float32,shape:[384, 1280, 1, 1]}
  }
}
layer {
  name:"Node_1028"
  type:"nn_conv2d"
  top:"Node_1028"
  bottom:"Node_1010"
  bottom:"Node_1027"
  layer_param {
    idx:1028
    in_0 {name:"Node_1010:0",dtype:float32,shape:[1, 1280, 8, 8]}
    in_1 {name:"Node_1027:0",dtype:float32,shape:[384, 1280, 1, 1]}
    out_0 {name:"Node_1028:0",dtype:float32,shape:[1, 384, 8, 8]}
    attrs {'strides': [1, 1], 'padding': [0, 0, 0, 0], 'dilation': [1, 1], 'groups': 1, 'channels': 384, 'kernel_size': [1, 1], 'data_layout': 'NCHW', 'kernel_layout': 'OIHW', 'out_layout': '', 'out_dtype': ''}
  }
}
layer {
  name:"Node_1029"
  type:"const"
  top:"Node_1029"
  layer_param {
    idx:1029
    out_0 {name:"Node_1029:0",dtype:float32,shape:[384]}
  }
}
layer {
  name:"Node_1030"
  type:"const"
  top:"Node_1030"
  layer_param {
    idx:1030
    out_0 {name:"Node_1030:0",dtype:float32,shape:[384]}
  }
}
layer {
  name:"Node_1031"
  type:"const"
  top:"Node_1031"
  layer_param {
    idx:1031
    out_0 {name:"Node_1031:0",dtype:float32,shape:[384]}
  }
}
layer {
  name:"Node_1032"
  type:"const"
  top:"Node_1032"
  layer_param {
    idx:1032
    out_0 {name:"Node_1032:0",dtype:float32,shape:[384]}
  }
}
layer {
  name:"Node_1033"
  type:"nn_batch_norm"
  top:"Node_1033"
  bottom:"Node_1028"
  bottom:"Node_1029"
  bottom:"Node_1030"
  bottom:"Node_1031"
  bottom:"Node_1032"
  layer_param {
    idx:1033
    in_0 {name:"Node_1028:0",dtype:float32,shape:[1, 384, 8, 8]}
    in_1 {name:"Node_1029:0",dtype:float32,shape:[384]}
    in_2 {name:"Node_1030:0",dtype:float32,shape:[384]}
    in_3 {name:"Node_1031:0",dtype:float32,shape:[384]}
    in_4 {name:"Node_1032:0",dtype:float32,shape:[384]}
    out_0 {name:"Node_1033:0",dtype:float32,shape:[1, 384, 8, 8]}
    out_1 {name:"Node_1033:1",dtype:float32,shape:[384]}
    out_2 {name:"Node_1033:2",dtype:float32,shape:[384]}
    attrs {'axis': 1, 'epsilon': 0.0010000000474974513, 'center': 1, 'scale': 0}
  }
}
layer {
  name:"Node_1035"
  type:"nn_relu"
  top:"Node_1035"
  bottom:"Node_1033"
  layer_param {
    idx:1035
    in_0 {name:"Node_1033:0",dtype:float32,shape:[1, 384, 8, 8]}
    out_0 {name:"Node_1035:0",dtype:float32,shape:[1, 384, 8, 8]}
  }
}
layer {
  name:"Node_1036"
  type:"const"
  top:"Node_1036"
  layer_param {
    idx:1036
    out_0 {name:"Node_1036:0",dtype:float32,shape:[384, 384, 1, 3]}
  }
}
layer {
  name:"Node_1037"
  type:"nn_conv2d"
  top:"Node_1037"
  bottom:"Node_1035"
  bottom:"Node_1036"
  layer_param {
    idx:1037
    in_0 {name:"Node_1035:0",dtype:float32,shape:[1, 384, 8, 8]}
    in_1 {name:"Node_1036:0",dtype:float32,shape:[384, 384, 1, 3]}
    out_0 {name:"Node_1037:0",dtype:float32,shape:[1, 384, 8, 8]}
    attrs {'strides': [1, 1], 'padding': [0, 1, 0, 1], 'dilation': [1, 1], 'groups': 1, 'channels': 384, 'kernel_size': [1, 3], 'data_layout': 'NCHW', 'kernel_layout': 'OIHW', 'out_layout': '', 'out_dtype': ''}
  }
}
layer {
  name:"Node_1038"
  type:"const"
  top:"Node_1038"
  layer_param {
    idx:1038
    out_0 {name:"Node_1038:0",dtype:float32,shape:[384]}
  }
}
layer {
  name:"Node_1039"
  type:"const"
  top:"Node_1039"
  layer_param {
    idx:1039
    out_0 {name:"Node_1039:0",dtype:float32,shape:[384]}
  }
}
layer {
  name:"Node_1040"
  type:"const"
  top:"Node_1040"
  layer_param {
    idx:1040
    out_0 {name:"Node_1040:0",dtype:float32,shape:[384]}
  }
}
layer {
  name:"Node_1041"
  type:"const"
  top:"Node_1041"
  layer_param {
    idx:1041
    out_0 {name:"Node_1041:0",dtype:float32,shape:[384]}
  }
}
layer {
  name:"Node_1042"
  type:"nn_batch_norm"
  top:"Node_1042"
  bottom:"Node_1037"
  bottom:"Node_1038"
  bottom:"Node_1039"
  bottom:"Node_1040"
  bottom:"Node_1041"
  layer_param {
    idx:1042
    in_0 {name:"Node_1037:0",dtype:float32,shape:[1, 384, 8, 8]}
    in_1 {name:"Node_1038:0",dtype:float32,shape:[384]}
    in_2 {name:"Node_1039:0",dtype:float32,shape:[384]}
    in_3 {name:"Node_1040:0",dtype:float32,shape:[384]}
    in_4 {name:"Node_1041:0",dtype:float32,shape:[384]}
    out_0 {name:"Node_1042:0",dtype:float32,shape:[1, 384, 8, 8]}
    out_1 {name:"Node_1042:1",dtype:float32,shape:[384]}
    out_2 {name:"Node_1042:2",dtype:float32,shape:[384]}
    attrs {'axis': 1, 'epsilon': 0.0010000000474974513, 'center': 1, 'scale': 0}
  }
}
layer {
  name:"Node_1044"
  type:"nn_relu"
  top:"Node_1044"
  bottom:"Node_1042"
  layer_param {
    idx:1044
    in_0 {name:"Node_1042:0",dtype:float32,shape:[1, 384, 8, 8]}
    out_0 {name:"Node_1044:0",dtype:float32,shape:[1, 384, 8, 8]}
  }
}
layer {
  name:"Node_1049"
  type:"const"
  top:"Node_1049"
  layer_param {
    idx:1049
    out_0 {name:"Node_1049:0",dtype:float32,shape:[384, 384, 3, 1]}
  }
}
layer {
  name:"Node_1050"
  type:"nn_conv2d"
  top:"Node_1050"
  bottom:"Node_1035"
  bottom:"Node_1049"
  layer_param {
    idx:1050
    in_0 {name:"Node_1035:0",dtype:float32,shape:[1, 384, 8, 8]}
    in_1 {name:"Node_1049:0",dtype:float32,shape:[384, 384, 3, 1]}
    out_0 {name:"Node_1050:0",dtype:float32,shape:[1, 384, 8, 8]}
    attrs {'strides': [1, 1], 'padding': [1, 0, 1, 0], 'dilation': [1, 1], 'groups': 1, 'channels': 384, 'kernel_size': [3, 1], 'data_layout': 'NCHW', 'kernel_layout': 'OIHW', 'out_layout': '', 'out_dtype': ''}
  }
}
layer {
  name:"Node_1051"
  type:"const"
  top:"Node_1051"
  layer_param {
    idx:1051
    out_0 {name:"Node_1051:0",dtype:float32,shape:[384]}
  }
}
layer {
  name:"Node_1052"
  type:"const"
  top:"Node_1052"
  layer_param {
    idx:1052
    out_0 {name:"Node_1052:0",dtype:float32,shape:[384]}
  }
}
layer {
  name:"Node_1053"
  type:"const"
  top:"Node_1053"
  layer_param {
    idx:1053
    out_0 {name:"Node_1053:0",dtype:float32,shape:[384]}
  }
}
layer {
  name:"Node_1054"
  type:"const"
  top:"Node_1054"
  layer_param {
    idx:1054
    out_0 {name:"Node_1054:0",dtype:float32,shape:[384]}
  }
}
layer {
  name:"Node_1055"
  type:"nn_batch_norm"
  top:"Node_1055"
  bottom:"Node_1050"
  bottom:"Node_1051"
  bottom:"Node_1052"
  bottom:"Node_1053"
  bottom:"Node_1054"
  layer_param {
    idx:1055
    in_0 {name:"Node_1050:0",dtype:float32,shape:[1, 384, 8, 8]}
    in_1 {name:"Node_1051:0",dtype:float32,shape:[384]}
    in_2 {name:"Node_1052:0",dtype:float32,shape:[384]}
    in_3 {name:"Node_1053:0",dtype:float32,shape:[384]}
    in_4 {name:"Node_1054:0",dtype:float32,shape:[384]}
    out_0 {name:"Node_1055:0",dtype:float32,shape:[1, 384, 8, 8]}
    out_1 {name:"Node_1055:1",dtype:float32,shape:[384]}
    out_2 {name:"Node_1055:2",dtype:float32,shape:[384]}
    attrs {'axis': 1, 'epsilon': 0.0010000000474974513, 'center': 1, 'scale': 0}
  }
}
layer {
  name:"Node_1057"
  type:"nn_relu"
  top:"Node_1057"
  bottom:"Node_1055"
  layer_param {
    idx:1057
    in_0 {name:"Node_1055:0",dtype:float32,shape:[1, 384, 8, 8]}
    out_0 {name:"Node_1057:0",dtype:float32,shape:[1, 384, 8, 8]}
  }
}
layer {
  name:"Node_1068"
  type:"const"
  top:"Node_1068"
  layer_param {
    idx:1068
    out_0 {name:"Node_1068:0",dtype:float32,shape:[448, 1280, 1, 1]}
  }
}
layer {
  name:"Node_1069"
  type:"nn_conv2d"
  top:"Node_1069"
  bottom:"Node_1010"
  bottom:"Node_1068"
  layer_param {
    idx:1069
    in_0 {name:"Node_1010:0",dtype:float32,shape:[1, 1280, 8, 8]}
    in_1 {name:"Node_1068:0",dtype:float32,shape:[448, 1280, 1, 1]}
    out_0 {name:"Node_1069:0",dtype:float32,shape:[1, 448, 8, 8]}
    attrs {'strides': [1, 1], 'padding': [0, 0, 0, 0], 'dilation': [1, 1], 'groups': 1, 'channels': 448, 'kernel_size': [1, 1], 'data_layout': 'NCHW', 'kernel_layout': 'OIHW', 'out_layout': '', 'out_dtype': ''}
  }
}
layer {
  name:"Node_1070"
  type:"const"
  top:"Node_1070"
  layer_param {
    idx:1070
    out_0 {name:"Node_1070:0",dtype:float32,shape:[448]}
  }
}
layer {
  name:"Node_1071"
  type:"const"
  top:"Node_1071"
  layer_param {
    idx:1071
    out_0 {name:"Node_1071:0",dtype:float32,shape:[448]}
  }
}
layer {
  name:"Node_1072"
  type:"const"
  top:"Node_1072"
  layer_param {
    idx:1072
    out_0 {name:"Node_1072:0",dtype:float32,shape:[448]}
  }
}
layer {
  name:"Node_1073"
  type:"const"
  top:"Node_1073"
  layer_param {
    idx:1073
    out_0 {name:"Node_1073:0",dtype:float32,shape:[448]}
  }
}
layer {
  name:"Node_1074"
  type:"nn_batch_norm"
  top:"Node_1074"
  bottom:"Node_1069"
  bottom:"Node_1070"
  bottom:"Node_1071"
  bottom:"Node_1072"
  bottom:"Node_1073"
  layer_param {
    idx:1074
    in_0 {name:"Node_1069:0",dtype:float32,shape:[1, 448, 8, 8]}
    in_1 {name:"Node_1070:0",dtype:float32,shape:[448]}
    in_2 {name:"Node_1071:0",dtype:float32,shape:[448]}
    in_3 {name:"Node_1072:0",dtype:float32,shape:[448]}
    in_4 {name:"Node_1073:0",dtype:float32,shape:[448]}
    out_0 {name:"Node_1074:0",dtype:float32,shape:[1, 448, 8, 8]}
    out_1 {name:"Node_1074:1",dtype:float32,shape:[448]}
    out_2 {name:"Node_1074:2",dtype:float32,shape:[448]}
    attrs {'axis': 1, 'epsilon': 0.0010000000474974513, 'center': 1, 'scale': 0}
  }
}
layer {
  name:"Node_1076"
  type:"nn_relu"
  top:"Node_1076"
  bottom:"Node_1074"
  layer_param {
    idx:1076
    in_0 {name:"Node_1074:0",dtype:float32,shape:[1, 448, 8, 8]}
    out_0 {name:"Node_1076:0",dtype:float32,shape:[1, 448, 8, 8]}
  }
}
layer {
  name:"Node_1077"
  type:"const"
  top:"Node_1077"
  layer_param {
    idx:1077
    out_0 {name:"Node_1077:0",dtype:float32,shape:[384, 448, 3, 3]}
  }
}
layer {
  name:"Node_1078"
  type:"nn_conv2d"
  top:"Node_1078"
  bottom:"Node_1076"
  bottom:"Node_1077"
  layer_param {
    idx:1078
    in_0 {name:"Node_1076:0",dtype:float32,shape:[1, 448, 8, 8]}
    in_1 {name:"Node_1077:0",dtype:float32,shape:[384, 448, 3, 3]}
    out_0 {name:"Node_1078:0",dtype:float32,shape:[1, 384, 8, 8]}
    attrs {'strides': [1, 1], 'padding': [1, 1, 1, 1], 'dilation': [1, 1], 'groups': 1, 'channels': 384, 'kernel_size': [3, 3], 'data_layout': 'NCHW', 'kernel_layout': 'OIHW', 'out_layout': '', 'out_dtype': ''}
  }
}
layer {
  name:"Node_1079"
  type:"const"
  top:"Node_1079"
  layer_param {
    idx:1079
    out_0 {name:"Node_1079:0",dtype:float32,shape:[384]}
  }
}
layer {
  name:"Node_1080"
  type:"const"
  top:"Node_1080"
  layer_param {
    idx:1080
    out_0 {name:"Node_1080:0",dtype:float32,shape:[384]}
  }
}
layer {
  name:"Node_1081"
  type:"const"
  top:"Node_1081"
  layer_param {
    idx:1081
    out_0 {name:"Node_1081:0",dtype:float32,shape:[384]}
  }
}
layer {
  name:"Node_1082"
  type:"const"
  top:"Node_1082"
  layer_param {
    idx:1082
    out_0 {name:"Node_1082:0",dtype:float32,shape:[384]}
  }
}
layer {
  name:"Node_1083"
  type:"nn_batch_norm"
  top:"Node_1083"
  bottom:"Node_1078"
  bottom:"Node_1079"
  bottom:"Node_1080"
  bottom:"Node_1081"
  bottom:"Node_1082"
  layer_param {
    idx:1083
    in_0 {name:"Node_1078:0",dtype:float32,shape:[1, 384, 8, 8]}
    in_1 {name:"Node_1079:0",dtype:float32,shape:[384]}
    in_2 {name:"Node_1080:0",dtype:float32,shape:[384]}
    in_3 {name:"Node_1081:0",dtype:float32,shape:[384]}
    in_4 {name:"Node_1082:0",dtype:float32,shape:[384]}
    out_0 {name:"Node_1083:0",dtype:float32,shape:[1, 384, 8, 8]}
    out_1 {name:"Node_1083:1",dtype:float32,shape:[384]}
    out_2 {name:"Node_1083:2",dtype:float32,shape:[384]}
    attrs {'axis': 1, 'epsilon': 0.0010000000474974513, 'center': 1, 'scale': 0}
  }
}
layer {
  name:"Node_1085"
  type:"nn_relu"
  top:"Node_1085"
  bottom:"Node_1083"
  layer_param {
    idx:1085
    in_0 {name:"Node_1083:0",dtype:float32,shape:[1, 384, 8, 8]}
    out_0 {name:"Node_1085:0",dtype:float32,shape:[1, 384, 8, 8]}
  }
}
layer {
  name:"Node_1086"
  type:"const"
  top:"Node_1086"
  layer_param {
    idx:1086
    out_0 {name:"Node_1086:0",dtype:float32,shape:[384, 384, 1, 3]}
  }
}
layer {
  name:"Node_1087"
  type:"nn_conv2d"
  top:"Node_1087"
  bottom:"Node_1085"
  bottom:"Node_1086"
  layer_param {
    idx:1087
    in_0 {name:"Node_1085:0",dtype:float32,shape:[1, 384, 8, 8]}
    in_1 {name:"Node_1086:0",dtype:float32,shape:[384, 384, 1, 3]}
    out_0 {name:"Node_1087:0",dtype:float32,shape:[1, 384, 8, 8]}
    attrs {'strides': [1, 1], 'padding': [0, 1, 0, 1], 'dilation': [1, 1], 'groups': 1, 'channels': 384, 'kernel_size': [1, 3], 'data_layout': 'NCHW', 'kernel_layout': 'OIHW', 'out_layout': '', 'out_dtype': ''}
  }
}
layer {
  name:"Node_1088"
  type:"const"
  top:"Node_1088"
  layer_param {
    idx:1088
    out_0 {name:"Node_1088:0",dtype:float32,shape:[384]}
  }
}
layer {
  name:"Node_1089"
  type:"const"
  top:"Node_1089"
  layer_param {
    idx:1089
    out_0 {name:"Node_1089:0",dtype:float32,shape:[384]}
  }
}
layer {
  name:"Node_1090"
  type:"const"
  top:"Node_1090"
  layer_param {
    idx:1090
    out_0 {name:"Node_1090:0",dtype:float32,shape:[384]}
  }
}
layer {
  name:"Node_1091"
  type:"const"
  top:"Node_1091"
  layer_param {
    idx:1091
    out_0 {name:"Node_1091:0",dtype:float32,shape:[384]}
  }
}
layer {
  name:"Node_1092"
  type:"nn_batch_norm"
  top:"Node_1092"
  bottom:"Node_1087"
  bottom:"Node_1088"
  bottom:"Node_1089"
  bottom:"Node_1090"
  bottom:"Node_1091"
  layer_param {
    idx:1092
    in_0 {name:"Node_1087:0",dtype:float32,shape:[1, 384, 8, 8]}
    in_1 {name:"Node_1088:0",dtype:float32,shape:[384]}
    in_2 {name:"Node_1089:0",dtype:float32,shape:[384]}
    in_3 {name:"Node_1090:0",dtype:float32,shape:[384]}
    in_4 {name:"Node_1091:0",dtype:float32,shape:[384]}
    out_0 {name:"Node_1092:0",dtype:float32,shape:[1, 384, 8, 8]}
    out_1 {name:"Node_1092:1",dtype:float32,shape:[384]}
    out_2 {name:"Node_1092:2",dtype:float32,shape:[384]}
    attrs {'axis': 1, 'epsilon': 0.0010000000474974513, 'center': 1, 'scale': 0}
  }
}
layer {
  name:"Node_1094"
  type:"nn_relu"
  top:"Node_1094"
  bottom:"Node_1092"
  layer_param {
    idx:1094
    in_0 {name:"Node_1092:0",dtype:float32,shape:[1, 384, 8, 8]}
    out_0 {name:"Node_1094:0",dtype:float32,shape:[1, 384, 8, 8]}
  }
}
layer {
  name:"Node_1099"
  type:"const"
  top:"Node_1099"
  layer_param {
    idx:1099
    out_0 {name:"Node_1099:0",dtype:float32,shape:[384, 384, 3, 1]}
  }
}
layer {
  name:"Node_1100"
  type:"nn_conv2d"
  top:"Node_1100"
  bottom:"Node_1085"
  bottom:"Node_1099"
  layer_param {
    idx:1100
    in_0 {name:"Node_1085:0",dtype:float32,shape:[1, 384, 8, 8]}
    in_1 {name:"Node_1099:0",dtype:float32,shape:[384, 384, 3, 1]}
    out_0 {name:"Node_1100:0",dtype:float32,shape:[1, 384, 8, 8]}
    attrs {'strides': [1, 1], 'padding': [1, 0, 1, 0], 'dilation': [1, 1], 'groups': 1, 'channels': 384, 'kernel_size': [3, 1], 'data_layout': 'NCHW', 'kernel_layout': 'OIHW', 'out_layout': '', 'out_dtype': ''}
  }
}
layer {
  name:"Node_1101"
  type:"const"
  top:"Node_1101"
  layer_param {
    idx:1101
    out_0 {name:"Node_1101:0",dtype:float32,shape:[384]}
  }
}
layer {
  name:"Node_1102"
  type:"const"
  top:"Node_1102"
  layer_param {
    idx:1102
    out_0 {name:"Node_1102:0",dtype:float32,shape:[384]}
  }
}
layer {
  name:"Node_1103"
  type:"const"
  top:"Node_1103"
  layer_param {
    idx:1103
    out_0 {name:"Node_1103:0",dtype:float32,shape:[384]}
  }
}
layer {
  name:"Node_1104"
  type:"const"
  top:"Node_1104"
  layer_param {
    idx:1104
    out_0 {name:"Node_1104:0",dtype:float32,shape:[384]}
  }
}
layer {
  name:"Node_1105"
  type:"nn_batch_norm"
  top:"Node_1105"
  bottom:"Node_1100"
  bottom:"Node_1101"
  bottom:"Node_1102"
  bottom:"Node_1103"
  bottom:"Node_1104"
  layer_param {
    idx:1105
    in_0 {name:"Node_1100:0",dtype:float32,shape:[1, 384, 8, 8]}
    in_1 {name:"Node_1101:0",dtype:float32,shape:[384]}
    in_2 {name:"Node_1102:0",dtype:float32,shape:[384]}
    in_3 {name:"Node_1103:0",dtype:float32,shape:[384]}
    in_4 {name:"Node_1104:0",dtype:float32,shape:[384]}
    out_0 {name:"Node_1105:0",dtype:float32,shape:[1, 384, 8, 8]}
    out_1 {name:"Node_1105:1",dtype:float32,shape:[384]}
    out_2 {name:"Node_1105:2",dtype:float32,shape:[384]}
    attrs {'axis': 1, 'epsilon': 0.0010000000474974513, 'center': 1, 'scale': 0}
  }
}
layer {
  name:"Node_1107"
  type:"nn_relu"
  top:"Node_1107"
  bottom:"Node_1105"
  layer_param {
    idx:1107
    in_0 {name:"Node_1105:0",dtype:float32,shape:[1, 384, 8, 8]}
    out_0 {name:"Node_1107:0",dtype:float32,shape:[1, 384, 8, 8]}
  }
}
layer {
  name:"Node_1113"
  type:"nn_avg_pool2d"
  top:"Node_1113"
  bottom:"Node_1010"
  layer_param {
    idx:1113
    in_0 {name:"Node_1010:0",dtype:float32,shape:[1, 1280, 8, 8]}
    out_0 {name:"Node_1113:0",dtype:float32,shape:[1, 1280, 8, 8]}
    attrs {'pool_size': [3, 3], 'strides': [1, 1], 'dilation': [1, 1], 'padding': [1, 1, 1, 1], 'layout': 'NCHW', 'ceil_mode': 0, 'count_include_pad': 0}
  }
}
layer {
  name:"Node_1114"
  type:"const"
  top:"Node_1114"
  layer_param {
    idx:1114
    out_0 {name:"Node_1114:0",dtype:float32,shape:[192, 1280, 1, 1]}
  }
}
layer {
  name:"Node_1115"
  type:"nn_conv2d"
  top:"Node_1115"
  bottom:"Node_1113"
  bottom:"Node_1114"
  layer_param {
    idx:1115
    in_0 {name:"Node_1113:0",dtype:float32,shape:[1, 1280, 8, 8]}
    in_1 {name:"Node_1114:0",dtype:float32,shape:[192, 1280, 1, 1]}
    out_0 {name:"Node_1115:0",dtype:float32,shape:[1, 192, 8, 8]}
    attrs {'strides': [1, 1], 'padding': [0, 0, 0, 0], 'dilation': [1, 1], 'groups': 1, 'channels': 192, 'kernel_size': [1, 1], 'data_layout': 'NCHW', 'kernel_layout': 'OIHW', 'out_layout': '', 'out_dtype': ''}
  }
}
layer {
  name:"Node_1116"
  type:"const"
  top:"Node_1116"
  layer_param {
    idx:1116
    out_0 {name:"Node_1116:0",dtype:float32,shape:[192]}
  }
}
layer {
  name:"Node_1117"
  type:"const"
  top:"Node_1117"
  layer_param {
    idx:1117
    out_0 {name:"Node_1117:0",dtype:float32,shape:[192]}
  }
}
layer {
  name:"Node_1118"
  type:"const"
  top:"Node_1118"
  layer_param {
    idx:1118
    out_0 {name:"Node_1118:0",dtype:float32,shape:[192]}
  }
}
layer {
  name:"Node_1119"
  type:"const"
  top:"Node_1119"
  layer_param {
    idx:1119
    out_0 {name:"Node_1119:0",dtype:float32,shape:[192]}
  }
}
layer {
  name:"Node_1120"
  type:"nn_batch_norm"
  top:"Node_1120"
  bottom:"Node_1115"
  bottom:"Node_1116"
  bottom:"Node_1117"
  bottom:"Node_1118"
  bottom:"Node_1119"
  layer_param {
    idx:1120
    in_0 {name:"Node_1115:0",dtype:float32,shape:[1, 192, 8, 8]}
    in_1 {name:"Node_1116:0",dtype:float32,shape:[192]}
    in_2 {name:"Node_1117:0",dtype:float32,shape:[192]}
    in_3 {name:"Node_1118:0",dtype:float32,shape:[192]}
    in_4 {name:"Node_1119:0",dtype:float32,shape:[192]}
    out_0 {name:"Node_1120:0",dtype:float32,shape:[1, 192, 8, 8]}
    out_1 {name:"Node_1120:1",dtype:float32,shape:[192]}
    out_2 {name:"Node_1120:2",dtype:float32,shape:[192]}
    attrs {'axis': 1, 'epsilon': 0.0010000000474974513, 'center': 1, 'scale': 0}
  }
}
layer {
  name:"Node_1122"
  type:"nn_relu"
  top:"Node_1122"
  bottom:"Node_1120"
  layer_param {
    idx:1122
    in_0 {name:"Node_1120:0",dtype:float32,shape:[1, 192, 8, 8]}
    out_0 {name:"Node_1122:0",dtype:float32,shape:[1, 192, 8, 8]}
  }
}
layer {
  name:"Node_1124"
  type:"concatenate"
  top:"Node_1124"
  bottom:"Node_1019"
  bottom:"Node_1044"
  bottom:"Node_1057"
  bottom:"Node_1094"
  bottom:"Node_1107"
  bottom:"Node_1122"
  layer_param {
    idx:1124
    in_0 {name:"Node_1019:0",dtype:float32,shape:[1, 320, 8, 8]}
    in_1 {name:"Node_1044:0",dtype:float32,shape:[1, 384, 8, 8]}
    in_2 {name:"Node_1057:0",dtype:float32,shape:[1, 384, 8, 8]}
    in_3 {name:"Node_1094:0",dtype:float32,shape:[1, 384, 8, 8]}
    in_4 {name:"Node_1107:0",dtype:float32,shape:[1, 384, 8, 8]}
    in_5 {name:"Node_1122:0",dtype:float32,shape:[1, 192, 8, 8]}
    out_0 {name:"Node_1124:0",dtype:float32,shape:[1, 2048, 8, 8]}
    attrs {'axis': 1}
  }
}
layer {
  name:"Node_1125"
  type:"const"
  top:"Node_1125"
  layer_param {
    idx:1125
    out_0 {name:"Node_1125:0",dtype:float32,shape:[320, 2048, 1, 1]}
  }
}
layer {
  name:"Node_1126"
  type:"nn_conv2d"
  top:"Node_1126"
  bottom:"Node_1124"
  bottom:"Node_1125"
  layer_param {
    idx:1126
    in_0 {name:"Node_1124:0",dtype:float32,shape:[1, 2048, 8, 8]}
    in_1 {name:"Node_1125:0",dtype:float32,shape:[320, 2048, 1, 1]}
    out_0 {name:"Node_1126:0",dtype:float32,shape:[1, 320, 8, 8]}
    attrs {'strides': [1, 1], 'padding': [0, 0, 0, 0], 'dilation': [1, 1], 'groups': 1, 'channels': 320, 'kernel_size': [1, 1], 'data_layout': 'NCHW', 'kernel_layout': 'OIHW', 'out_layout': '', 'out_dtype': ''}
  }
}
layer {
  name:"Node_1127"
  type:"const"
  top:"Node_1127"
  layer_param {
    idx:1127
    out_0 {name:"Node_1127:0",dtype:float32,shape:[320]}
  }
}
layer {
  name:"Node_1128"
  type:"const"
  top:"Node_1128"
  layer_param {
    idx:1128
    out_0 {name:"Node_1128:0",dtype:float32,shape:[320]}
  }
}
layer {
  name:"Node_1129"
  type:"const"
  top:"Node_1129"
  layer_param {
    idx:1129
    out_0 {name:"Node_1129:0",dtype:float32,shape:[320]}
  }
}
layer {
  name:"Node_1130"
  type:"const"
  top:"Node_1130"
  layer_param {
    idx:1130
    out_0 {name:"Node_1130:0",dtype:float32,shape:[320]}
  }
}
layer {
  name:"Node_1131"
  type:"nn_batch_norm"
  top:"Node_1131"
  bottom:"Node_1126"
  bottom:"Node_1127"
  bottom:"Node_1128"
  bottom:"Node_1129"
  bottom:"Node_1130"
  layer_param {
    idx:1131
    in_0 {name:"Node_1126:0",dtype:float32,shape:[1, 320, 8, 8]}
    in_1 {name:"Node_1127:0",dtype:float32,shape:[320]}
    in_2 {name:"Node_1128:0",dtype:float32,shape:[320]}
    in_3 {name:"Node_1129:0",dtype:float32,shape:[320]}
    in_4 {name:"Node_1130:0",dtype:float32,shape:[320]}
    out_0 {name:"Node_1131:0",dtype:float32,shape:[1, 320, 8, 8]}
    out_1 {name:"Node_1131:1",dtype:float32,shape:[320]}
    out_2 {name:"Node_1131:2",dtype:float32,shape:[320]}
    attrs {'axis': 1, 'epsilon': 0.0010000000474974513, 'center': 1, 'scale': 0}
  }
}
layer {
  name:"Node_1133"
  type:"nn_relu"
  top:"Node_1133"
  bottom:"Node_1131"
  layer_param {
    idx:1133
    in_0 {name:"Node_1131:0",dtype:float32,shape:[1, 320, 8, 8]}
    out_0 {name:"Node_1133:0",dtype:float32,shape:[1, 320, 8, 8]}
  }
}
layer {
  name:"Node_1141"
  type:"const"
  top:"Node_1141"
  layer_param {
    idx:1141
    out_0 {name:"Node_1141:0",dtype:float32,shape:[384, 2048, 1, 1]}
  }
}
layer {
  name:"Node_1142"
  type:"nn_conv2d"
  top:"Node_1142"
  bottom:"Node_1124"
  bottom:"Node_1141"
  layer_param {
    idx:1142
    in_0 {name:"Node_1124:0",dtype:float32,shape:[1, 2048, 8, 8]}
    in_1 {name:"Node_1141:0",dtype:float32,shape:[384, 2048, 1, 1]}
    out_0 {name:"Node_1142:0",dtype:float32,shape:[1, 384, 8, 8]}
    attrs {'strides': [1, 1], 'padding': [0, 0, 0, 0], 'dilation': [1, 1], 'groups': 1, 'channels': 384, 'kernel_size': [1, 1], 'data_layout': 'NCHW', 'kernel_layout': 'OIHW', 'out_layout': '', 'out_dtype': ''}
  }
}
layer {
  name:"Node_1143"
  type:"const"
  top:"Node_1143"
  layer_param {
    idx:1143
    out_0 {name:"Node_1143:0",dtype:float32,shape:[384]}
  }
}
layer {
  name:"Node_1144"
  type:"const"
  top:"Node_1144"
  layer_param {
    idx:1144
    out_0 {name:"Node_1144:0",dtype:float32,shape:[384]}
  }
}
layer {
  name:"Node_1145"
  type:"const"
  top:"Node_1145"
  layer_param {
    idx:1145
    out_0 {name:"Node_1145:0",dtype:float32,shape:[384]}
  }
}
layer {
  name:"Node_1146"
  type:"const"
  top:"Node_1146"
  layer_param {
    idx:1146
    out_0 {name:"Node_1146:0",dtype:float32,shape:[384]}
  }
}
layer {
  name:"Node_1147"
  type:"nn_batch_norm"
  top:"Node_1147"
  bottom:"Node_1142"
  bottom:"Node_1143"
  bottom:"Node_1144"
  bottom:"Node_1145"
  bottom:"Node_1146"
  layer_param {
    idx:1147
    in_0 {name:"Node_1142:0",dtype:float32,shape:[1, 384, 8, 8]}
    in_1 {name:"Node_1143:0",dtype:float32,shape:[384]}
    in_2 {name:"Node_1144:0",dtype:float32,shape:[384]}
    in_3 {name:"Node_1145:0",dtype:float32,shape:[384]}
    in_4 {name:"Node_1146:0",dtype:float32,shape:[384]}
    out_0 {name:"Node_1147:0",dtype:float32,shape:[1, 384, 8, 8]}
    out_1 {name:"Node_1147:1",dtype:float32,shape:[384]}
    out_2 {name:"Node_1147:2",dtype:float32,shape:[384]}
    attrs {'axis': 1, 'epsilon': 0.0010000000474974513, 'center': 1, 'scale': 0}
  }
}
layer {
  name:"Node_1149"
  type:"nn_relu"
  top:"Node_1149"
  bottom:"Node_1147"
  layer_param {
    idx:1149
    in_0 {name:"Node_1147:0",dtype:float32,shape:[1, 384, 8, 8]}
    out_0 {name:"Node_1149:0",dtype:float32,shape:[1, 384, 8, 8]}
  }
}
layer {
  name:"Node_1150"
  type:"const"
  top:"Node_1150"
  layer_param {
    idx:1150
    out_0 {name:"Node_1150:0",dtype:float32,shape:[384, 384, 1, 3]}
  }
}
layer {
  name:"Node_1151"
  type:"nn_conv2d"
  top:"Node_1151"
  bottom:"Node_1149"
  bottom:"Node_1150"
  layer_param {
    idx:1151
    in_0 {name:"Node_1149:0",dtype:float32,shape:[1, 384, 8, 8]}
    in_1 {name:"Node_1150:0",dtype:float32,shape:[384, 384, 1, 3]}
    out_0 {name:"Node_1151:0",dtype:float32,shape:[1, 384, 8, 8]}
    attrs {'strides': [1, 1], 'padding': [0, 1, 0, 1], 'dilation': [1, 1], 'groups': 1, 'channels': 384, 'kernel_size': [1, 3], 'data_layout': 'NCHW', 'kernel_layout': 'OIHW', 'out_layout': '', 'out_dtype': ''}
  }
}
layer {
  name:"Node_1152"
  type:"const"
  top:"Node_1152"
  layer_param {
    idx:1152
    out_0 {name:"Node_1152:0",dtype:float32,shape:[384]}
  }
}
layer {
  name:"Node_1153"
  type:"const"
  top:"Node_1153"
  layer_param {
    idx:1153
    out_0 {name:"Node_1153:0",dtype:float32,shape:[384]}
  }
}
layer {
  name:"Node_1154"
  type:"const"
  top:"Node_1154"
  layer_param {
    idx:1154
    out_0 {name:"Node_1154:0",dtype:float32,shape:[384]}
  }
}
layer {
  name:"Node_1155"
  type:"const"
  top:"Node_1155"
  layer_param {
    idx:1155
    out_0 {name:"Node_1155:0",dtype:float32,shape:[384]}
  }
}
layer {
  name:"Node_1156"
  type:"nn_batch_norm"
  top:"Node_1156"
  bottom:"Node_1151"
  bottom:"Node_1152"
  bottom:"Node_1153"
  bottom:"Node_1154"
  bottom:"Node_1155"
  layer_param {
    idx:1156
    in_0 {name:"Node_1151:0",dtype:float32,shape:[1, 384, 8, 8]}
    in_1 {name:"Node_1152:0",dtype:float32,shape:[384]}
    in_2 {name:"Node_1153:0",dtype:float32,shape:[384]}
    in_3 {name:"Node_1154:0",dtype:float32,shape:[384]}
    in_4 {name:"Node_1155:0",dtype:float32,shape:[384]}
    out_0 {name:"Node_1156:0",dtype:float32,shape:[1, 384, 8, 8]}
    out_1 {name:"Node_1156:1",dtype:float32,shape:[384]}
    out_2 {name:"Node_1156:2",dtype:float32,shape:[384]}
    attrs {'axis': 1, 'epsilon': 0.0010000000474974513, 'center': 1, 'scale': 0}
  }
}
layer {
  name:"Node_1158"
  type:"nn_relu"
  top:"Node_1158"
  bottom:"Node_1156"
  layer_param {
    idx:1158
    in_0 {name:"Node_1156:0",dtype:float32,shape:[1, 384, 8, 8]}
    out_0 {name:"Node_1158:0",dtype:float32,shape:[1, 384, 8, 8]}
  }
}
layer {
  name:"Node_1163"
  type:"const"
  top:"Node_1163"
  layer_param {
    idx:1163
    out_0 {name:"Node_1163:0",dtype:float32,shape:[384, 384, 3, 1]}
  }
}
layer {
  name:"Node_1164"
  type:"nn_conv2d"
  top:"Node_1164"
  bottom:"Node_1149"
  bottom:"Node_1163"
  layer_param {
    idx:1164
    in_0 {name:"Node_1149:0",dtype:float32,shape:[1, 384, 8, 8]}
    in_1 {name:"Node_1163:0",dtype:float32,shape:[384, 384, 3, 1]}
    out_0 {name:"Node_1164:0",dtype:float32,shape:[1, 384, 8, 8]}
    attrs {'strides': [1, 1], 'padding': [1, 0, 1, 0], 'dilation': [1, 1], 'groups': 1, 'channels': 384, 'kernel_size': [3, 1], 'data_layout': 'NCHW', 'kernel_layout': 'OIHW', 'out_layout': '', 'out_dtype': ''}
  }
}
layer {
  name:"Node_1165"
  type:"const"
  top:"Node_1165"
  layer_param {
    idx:1165
    out_0 {name:"Node_1165:0",dtype:float32,shape:[384]}
  }
}
layer {
  name:"Node_1166"
  type:"const"
  top:"Node_1166"
  layer_param {
    idx:1166
    out_0 {name:"Node_1166:0",dtype:float32,shape:[384]}
  }
}
layer {
  name:"Node_1167"
  type:"const"
  top:"Node_1167"
  layer_param {
    idx:1167
    out_0 {name:"Node_1167:0",dtype:float32,shape:[384]}
  }
}
layer {
  name:"Node_1168"
  type:"const"
  top:"Node_1168"
  layer_param {
    idx:1168
    out_0 {name:"Node_1168:0",dtype:float32,shape:[384]}
  }
}
layer {
  name:"Node_1169"
  type:"nn_batch_norm"
  top:"Node_1169"
  bottom:"Node_1164"
  bottom:"Node_1165"
  bottom:"Node_1166"
  bottom:"Node_1167"
  bottom:"Node_1168"
  layer_param {
    idx:1169
    in_0 {name:"Node_1164:0",dtype:float32,shape:[1, 384, 8, 8]}
    in_1 {name:"Node_1165:0",dtype:float32,shape:[384]}
    in_2 {name:"Node_1166:0",dtype:float32,shape:[384]}
    in_3 {name:"Node_1167:0",dtype:float32,shape:[384]}
    in_4 {name:"Node_1168:0",dtype:float32,shape:[384]}
    out_0 {name:"Node_1169:0",dtype:float32,shape:[1, 384, 8, 8]}
    out_1 {name:"Node_1169:1",dtype:float32,shape:[384]}
    out_2 {name:"Node_1169:2",dtype:float32,shape:[384]}
    attrs {'axis': 1, 'epsilon': 0.0010000000474974513, 'center': 1, 'scale': 0}
  }
}
layer {
  name:"Node_1171"
  type:"nn_relu"
  top:"Node_1171"
  bottom:"Node_1169"
  layer_param {
    idx:1171
    in_0 {name:"Node_1169:0",dtype:float32,shape:[1, 384, 8, 8]}
    out_0 {name:"Node_1171:0",dtype:float32,shape:[1, 384, 8, 8]}
  }
}
layer {
  name:"Node_1182"
  type:"const"
  top:"Node_1182"
  layer_param {
    idx:1182
    out_0 {name:"Node_1182:0",dtype:float32,shape:[448, 2048, 1, 1]}
  }
}
layer {
  name:"Node_1183"
  type:"nn_conv2d"
  top:"Node_1183"
  bottom:"Node_1124"
  bottom:"Node_1182"
  layer_param {
    idx:1183
    in_0 {name:"Node_1124:0",dtype:float32,shape:[1, 2048, 8, 8]}
    in_1 {name:"Node_1182:0",dtype:float32,shape:[448, 2048, 1, 1]}
    out_0 {name:"Node_1183:0",dtype:float32,shape:[1, 448, 8, 8]}
    attrs {'strides': [1, 1], 'padding': [0, 0, 0, 0], 'dilation': [1, 1], 'groups': 1, 'channels': 448, 'kernel_size': [1, 1], 'data_layout': 'NCHW', 'kernel_layout': 'OIHW', 'out_layout': '', 'out_dtype': ''}
  }
}
layer {
  name:"Node_1184"
  type:"const"
  top:"Node_1184"
  layer_param {
    idx:1184
    out_0 {name:"Node_1184:0",dtype:float32,shape:[448]}
  }
}
layer {
  name:"Node_1185"
  type:"const"
  top:"Node_1185"
  layer_param {
    idx:1185
    out_0 {name:"Node_1185:0",dtype:float32,shape:[448]}
  }
}
layer {
  name:"Node_1186"
  type:"const"
  top:"Node_1186"
  layer_param {
    idx:1186
    out_0 {name:"Node_1186:0",dtype:float32,shape:[448]}
  }
}
layer {
  name:"Node_1187"
  type:"const"
  top:"Node_1187"
  layer_param {
    idx:1187
    out_0 {name:"Node_1187:0",dtype:float32,shape:[448]}
  }
}
layer {
  name:"Node_1188"
  type:"nn_batch_norm"
  top:"Node_1188"
  bottom:"Node_1183"
  bottom:"Node_1184"
  bottom:"Node_1185"
  bottom:"Node_1186"
  bottom:"Node_1187"
  layer_param {
    idx:1188
    in_0 {name:"Node_1183:0",dtype:float32,shape:[1, 448, 8, 8]}
    in_1 {name:"Node_1184:0",dtype:float32,shape:[448]}
    in_2 {name:"Node_1185:0",dtype:float32,shape:[448]}
    in_3 {name:"Node_1186:0",dtype:float32,shape:[448]}
    in_4 {name:"Node_1187:0",dtype:float32,shape:[448]}
    out_0 {name:"Node_1188:0",dtype:float32,shape:[1, 448, 8, 8]}
    out_1 {name:"Node_1188:1",dtype:float32,shape:[448]}
    out_2 {name:"Node_1188:2",dtype:float32,shape:[448]}
    attrs {'axis': 1, 'epsilon': 0.0010000000474974513, 'center': 1, 'scale': 0}
  }
}
layer {
  name:"Node_1190"
  type:"nn_relu"
  top:"Node_1190"
  bottom:"Node_1188"
  layer_param {
    idx:1190
    in_0 {name:"Node_1188:0",dtype:float32,shape:[1, 448, 8, 8]}
    out_0 {name:"Node_1190:0",dtype:float32,shape:[1, 448, 8, 8]}
  }
}
layer {
  name:"Node_1191"
  type:"const"
  top:"Node_1191"
  layer_param {
    idx:1191
    out_0 {name:"Node_1191:0",dtype:float32,shape:[384, 448, 3, 3]}
  }
}
layer {
  name:"Node_1192"
  type:"nn_conv2d"
  top:"Node_1192"
  bottom:"Node_1190"
  bottom:"Node_1191"
  layer_param {
    idx:1192
    in_0 {name:"Node_1190:0",dtype:float32,shape:[1, 448, 8, 8]}
    in_1 {name:"Node_1191:0",dtype:float32,shape:[384, 448, 3, 3]}
    out_0 {name:"Node_1192:0",dtype:float32,shape:[1, 384, 8, 8]}
    attrs {'strides': [1, 1], 'padding': [1, 1, 1, 1], 'dilation': [1, 1], 'groups': 1, 'channels': 384, 'kernel_size': [3, 3], 'data_layout': 'NCHW', 'kernel_layout': 'OIHW', 'out_layout': '', 'out_dtype': ''}
  }
}
layer {
  name:"Node_1193"
  type:"const"
  top:"Node_1193"
  layer_param {
    idx:1193
    out_0 {name:"Node_1193:0",dtype:float32,shape:[384]}
  }
}
layer {
  name:"Node_1194"
  type:"const"
  top:"Node_1194"
  layer_param {
    idx:1194
    out_0 {name:"Node_1194:0",dtype:float32,shape:[384]}
  }
}
layer {
  name:"Node_1195"
  type:"const"
  top:"Node_1195"
  layer_param {
    idx:1195
    out_0 {name:"Node_1195:0",dtype:float32,shape:[384]}
  }
}
layer {
  name:"Node_1196"
  type:"const"
  top:"Node_1196"
  layer_param {
    idx:1196
    out_0 {name:"Node_1196:0",dtype:float32,shape:[384]}
  }
}
layer {
  name:"Node_1197"
  type:"nn_batch_norm"
  top:"Node_1197"
  bottom:"Node_1192"
  bottom:"Node_1193"
  bottom:"Node_1194"
  bottom:"Node_1195"
  bottom:"Node_1196"
  layer_param {
    idx:1197
    in_0 {name:"Node_1192:0",dtype:float32,shape:[1, 384, 8, 8]}
    in_1 {name:"Node_1193:0",dtype:float32,shape:[384]}
    in_2 {name:"Node_1194:0",dtype:float32,shape:[384]}
    in_3 {name:"Node_1195:0",dtype:float32,shape:[384]}
    in_4 {name:"Node_1196:0",dtype:float32,shape:[384]}
    out_0 {name:"Node_1197:0",dtype:float32,shape:[1, 384, 8, 8]}
    out_1 {name:"Node_1197:1",dtype:float32,shape:[384]}
    out_2 {name:"Node_1197:2",dtype:float32,shape:[384]}
    attrs {'axis': 1, 'epsilon': 0.0010000000474974513, 'center': 1, 'scale': 0}
  }
}
layer {
  name:"Node_1199"
  type:"nn_relu"
  top:"Node_1199"
  bottom:"Node_1197"
  layer_param {
    idx:1199
    in_0 {name:"Node_1197:0",dtype:float32,shape:[1, 384, 8, 8]}
    out_0 {name:"Node_1199:0",dtype:float32,shape:[1, 384, 8, 8]}
  }
}
layer {
  name:"Node_1200"
  type:"const"
  top:"Node_1200"
  layer_param {
    idx:1200
    out_0 {name:"Node_1200:0",dtype:float32,shape:[384, 384, 1, 3]}
  }
}
layer {
  name:"Node_1201"
  type:"nn_conv2d"
  top:"Node_1201"
  bottom:"Node_1199"
  bottom:"Node_1200"
  layer_param {
    idx:1201
    in_0 {name:"Node_1199:0",dtype:float32,shape:[1, 384, 8, 8]}
    in_1 {name:"Node_1200:0",dtype:float32,shape:[384, 384, 1, 3]}
    out_0 {name:"Node_1201:0",dtype:float32,shape:[1, 384, 8, 8]}
    attrs {'strides': [1, 1], 'padding': [0, 1, 0, 1], 'dilation': [1, 1], 'groups': 1, 'channels': 384, 'kernel_size': [1, 3], 'data_layout': 'NCHW', 'kernel_layout': 'OIHW', 'out_layout': '', 'out_dtype': ''}
  }
}
layer {
  name:"Node_1202"
  type:"const"
  top:"Node_1202"
  layer_param {
    idx:1202
    out_0 {name:"Node_1202:0",dtype:float32,shape:[384]}
  }
}
layer {
  name:"Node_1203"
  type:"const"
  top:"Node_1203"
  layer_param {
    idx:1203
    out_0 {name:"Node_1203:0",dtype:float32,shape:[384]}
  }
}
layer {
  name:"Node_1204"
  type:"const"
  top:"Node_1204"
  layer_param {
    idx:1204
    out_0 {name:"Node_1204:0",dtype:float32,shape:[384]}
  }
}
layer {
  name:"Node_1205"
  type:"const"
  top:"Node_1205"
  layer_param {
    idx:1205
    out_0 {name:"Node_1205:0",dtype:float32,shape:[384]}
  }
}
layer {
  name:"Node_1206"
  type:"nn_batch_norm"
  top:"Node_1206"
  bottom:"Node_1201"
  bottom:"Node_1202"
  bottom:"Node_1203"
  bottom:"Node_1204"
  bottom:"Node_1205"
  layer_param {
    idx:1206
    in_0 {name:"Node_1201:0",dtype:float32,shape:[1, 384, 8, 8]}
    in_1 {name:"Node_1202:0",dtype:float32,shape:[384]}
    in_2 {name:"Node_1203:0",dtype:float32,shape:[384]}
    in_3 {name:"Node_1204:0",dtype:float32,shape:[384]}
    in_4 {name:"Node_1205:0",dtype:float32,shape:[384]}
    out_0 {name:"Node_1206:0",dtype:float32,shape:[1, 384, 8, 8]}
    out_1 {name:"Node_1206:1",dtype:float32,shape:[384]}
    out_2 {name:"Node_1206:2",dtype:float32,shape:[384]}
    attrs {'axis': 1, 'epsilon': 0.0010000000474974513, 'center': 1, 'scale': 0}
  }
}
layer {
  name:"Node_1208"
  type:"nn_relu"
  top:"Node_1208"
  bottom:"Node_1206"
  layer_param {
    idx:1208
    in_0 {name:"Node_1206:0",dtype:float32,shape:[1, 384, 8, 8]}
    out_0 {name:"Node_1208:0",dtype:float32,shape:[1, 384, 8, 8]}
  }
}
layer {
  name:"Node_1213"
  type:"const"
  top:"Node_1213"
  layer_param {
    idx:1213
    out_0 {name:"Node_1213:0",dtype:float32,shape:[384, 384, 3, 1]}
  }
}
layer {
  name:"Node_1214"
  type:"nn_conv2d"
  top:"Node_1214"
  bottom:"Node_1199"
  bottom:"Node_1213"
  layer_param {
    idx:1214
    in_0 {name:"Node_1199:0",dtype:float32,shape:[1, 384, 8, 8]}
    in_1 {name:"Node_1213:0",dtype:float32,shape:[384, 384, 3, 1]}
    out_0 {name:"Node_1214:0",dtype:float32,shape:[1, 384, 8, 8]}
    attrs {'strides': [1, 1], 'padding': [1, 0, 1, 0], 'dilation': [1, 1], 'groups': 1, 'channels': 384, 'kernel_size': [3, 1], 'data_layout': 'NCHW', 'kernel_layout': 'OIHW', 'out_layout': '', 'out_dtype': ''}
  }
}
layer {
  name:"Node_1215"
  type:"const"
  top:"Node_1215"
  layer_param {
    idx:1215
    out_0 {name:"Node_1215:0",dtype:float32,shape:[384]}
  }
}
layer {
  name:"Node_1216"
  type:"const"
  top:"Node_1216"
  layer_param {
    idx:1216
    out_0 {name:"Node_1216:0",dtype:float32,shape:[384]}
  }
}
layer {
  name:"Node_1217"
  type:"const"
  top:"Node_1217"
  layer_param {
    idx:1217
    out_0 {name:"Node_1217:0",dtype:float32,shape:[384]}
  }
}
layer {
  name:"Node_1218"
  type:"const"
  top:"Node_1218"
  layer_param {
    idx:1218
    out_0 {name:"Node_1218:0",dtype:float32,shape:[384]}
  }
}
layer {
  name:"Node_1219"
  type:"nn_batch_norm"
  top:"Node_1219"
  bottom:"Node_1214"
  bottom:"Node_1215"
  bottom:"Node_1216"
  bottom:"Node_1217"
  bottom:"Node_1218"
  layer_param {
    idx:1219
    in_0 {name:"Node_1214:0",dtype:float32,shape:[1, 384, 8, 8]}
    in_1 {name:"Node_1215:0",dtype:float32,shape:[384]}
    in_2 {name:"Node_1216:0",dtype:float32,shape:[384]}
    in_3 {name:"Node_1217:0",dtype:float32,shape:[384]}
    in_4 {name:"Node_1218:0",dtype:float32,shape:[384]}
    out_0 {name:"Node_1219:0",dtype:float32,shape:[1, 384, 8, 8]}
    out_1 {name:"Node_1219:1",dtype:float32,shape:[384]}
    out_2 {name:"Node_1219:2",dtype:float32,shape:[384]}
    attrs {'axis': 1, 'epsilon': 0.0010000000474974513, 'center': 1, 'scale': 0}
  }
}
layer {
  name:"Node_1221"
  type:"nn_relu"
  top:"Node_1221"
  bottom:"Node_1219"
  layer_param {
    idx:1221
    in_0 {name:"Node_1219:0",dtype:float32,shape:[1, 384, 8, 8]}
    out_0 {name:"Node_1221:0",dtype:float32,shape:[1, 384, 8, 8]}
  }
}
layer {
  name:"Node_1227"
  type:"nn_max_pool2d"
  top:"Node_1227"
  bottom:"Node_1124"
  layer_param {
    idx:1227
    in_0 {name:"Node_1124:0",dtype:float32,shape:[1, 2048, 8, 8]}
    out_0 {name:"Node_1227:0",dtype:float32,shape:[1, 2048, 8, 8]}
    attrs {'pool_size': [3, 3], 'strides': [1, 1], 'dilation': [1, 1], 'padding': [1, 1, 1, 1], 'layout': 'NCHW', 'ceil_mode': 0}
  }
}
layer {
  name:"Node_1228"
  type:"const"
  top:"Node_1228"
  layer_param {
    idx:1228
    out_0 {name:"Node_1228:0",dtype:float32,shape:[192, 2048, 1, 1]}
  }
}
layer {
  name:"Node_1229"
  type:"nn_conv2d"
  top:"Node_1229"
  bottom:"Node_1227"
  bottom:"Node_1228"
  layer_param {
    idx:1229
    in_0 {name:"Node_1227:0",dtype:float32,shape:[1, 2048, 8, 8]}
    in_1 {name:"Node_1228:0",dtype:float32,shape:[192, 2048, 1, 1]}
    out_0 {name:"Node_1229:0",dtype:float32,shape:[1, 192, 8, 8]}
    attrs {'strides': [1, 1], 'padding': [0, 0, 0, 0], 'dilation': [1, 1], 'groups': 1, 'channels': 192, 'kernel_size': [1, 1], 'data_layout': 'NCHW', 'kernel_layout': 'OIHW', 'out_layout': '', 'out_dtype': ''}
  }
}
layer {
  name:"Node_1230"
  type:"const"
  top:"Node_1230"
  layer_param {
    idx:1230
    out_0 {name:"Node_1230:0",dtype:float32,shape:[192]}
  }
}
layer {
  name:"Node_1231"
  type:"const"
  top:"Node_1231"
  layer_param {
    idx:1231
    out_0 {name:"Node_1231:0",dtype:float32,shape:[192]}
  }
}
layer {
  name:"Node_1232"
  type:"const"
  top:"Node_1232"
  layer_param {
    idx:1232
    out_0 {name:"Node_1232:0",dtype:float32,shape:[192]}
  }
}
layer {
  name:"Node_1233"
  type:"const"
  top:"Node_1233"
  layer_param {
    idx:1233
    out_0 {name:"Node_1233:0",dtype:float32,shape:[192]}
  }
}
layer {
  name:"Node_1234"
  type:"nn_batch_norm"
  top:"Node_1234"
  bottom:"Node_1229"
  bottom:"Node_1230"
  bottom:"Node_1231"
  bottom:"Node_1232"
  bottom:"Node_1233"
  layer_param {
    idx:1234
    in_0 {name:"Node_1229:0",dtype:float32,shape:[1, 192, 8, 8]}
    in_1 {name:"Node_1230:0",dtype:float32,shape:[192]}
    in_2 {name:"Node_1231:0",dtype:float32,shape:[192]}
    in_3 {name:"Node_1232:0",dtype:float32,shape:[192]}
    in_4 {name:"Node_1233:0",dtype:float32,shape:[192]}
    out_0 {name:"Node_1234:0",dtype:float32,shape:[1, 192, 8, 8]}
    out_1 {name:"Node_1234:1",dtype:float32,shape:[192]}
    out_2 {name:"Node_1234:2",dtype:float32,shape:[192]}
    attrs {'axis': 1, 'epsilon': 0.0010000000474974513, 'center': 1, 'scale': 0}
  }
}
layer {
  name:"Node_1236"
  type:"nn_relu"
  top:"Node_1236"
  bottom:"Node_1234"
  layer_param {
    idx:1236
    in_0 {name:"Node_1234:0",dtype:float32,shape:[1, 192, 8, 8]}
    out_0 {name:"Node_1236:0",dtype:float32,shape:[1, 192, 8, 8]}
  }
}
layer {
  name:"Node_1238"
  type:"concatenate"
  top:"Node_1238"
  bottom:"Node_1133"
  bottom:"Node_1158"
  bottom:"Node_1171"
  bottom:"Node_1208"
  bottom:"Node_1221"
  bottom:"Node_1236"
  layer_param {
    idx:1238
    in_0 {name:"Node_1133:0",dtype:float32,shape:[1, 320, 8, 8]}
    in_1 {name:"Node_1158:0",dtype:float32,shape:[1, 384, 8, 8]}
    in_2 {name:"Node_1171:0",dtype:float32,shape:[1, 384, 8, 8]}
    in_3 {name:"Node_1208:0",dtype:float32,shape:[1, 384, 8, 8]}
    in_4 {name:"Node_1221:0",dtype:float32,shape:[1, 384, 8, 8]}
    in_5 {name:"Node_1236:0",dtype:float32,shape:[1, 192, 8, 8]}
    out_0 {name:"Node_1238:0",dtype:float32,shape:[1, 2048, 8, 8]}
    attrs {'axis': 1}
  }
}
layer {
  name:"Node_1239"
  type:"nn_avg_pool2d"
  top:"Node_1239"
  bottom:"Node_1238"
  layer_param {
    idx:1239
    in_0 {name:"Node_1238:0",dtype:float32,shape:[1, 2048, 8, 8]}
    out_0 {name:"Node_1239:0",dtype:float32,shape:[1, 2048, 1, 1]}
    attrs {'pool_size': [8, 8], 'strides': [1, 1], 'dilation': [1, 1], 'padding': [0, 0, 0, 0], 'layout': 'NCHW', 'ceil_mode': 0, 'count_include_pad': 0}
  }
}
layer {
  name:"Node_1240"
  type:"layout_transform"
  top:"Node_1240"
  bottom:"Node_1239"
  layer_param {
    idx:1240
    in_0 {name:"Node_1239:0",dtype:float32,shape:[1, 2048, 1, 1]}
    out_0 {name:"Node_1240:0",dtype:float32,shape:[1, 1, 1, 2048]}
    attrs {'src_layout': 'NCHW', 'dst_layout': 'NHWC'}
  }
}
layer {
  name:"Node_1241"
  type:"reshape"
  top:"Node_1241"
  bottom:"Node_1240"
  layer_param {
    idx:1241
    in_0 {name:"Node_1240:0",dtype:float32,shape:[1, 1, 1, 2048]}
    out_0 {name:"Node_1241:0",dtype:float32,shape:[1, 2048]}
    attrs {'newshape': [1, 2048]}
  }
}
layer {
  name:"Node_1242"
  type:"const"
  top:"Node_1242"
  layer_param {
    idx:1242
    out_0 {name:"Node_1242:0",dtype:float32,shape:[1008, 2048]}
  }
}
layer {
  name:"Node_1243"
  type:"nn_dense"
  top:"Node_1243"
  bottom:"Node_1241"
  bottom:"Node_1242"
  layer_param {
    idx:1243
    in_0 {name:"Node_1241:0",dtype:float32,shape:[1, 2048]}
    in_1 {name:"Node_1242:0",dtype:float32,shape:[1008, 2048]}
    out_0 {name:"Node_1243:0",dtype:float32,shape:[1, 1008]}
    attrs {'units': 1008, 'out_dtype': ''}
  }
}
layer {
  name:"Node_1244"
  type:"const"
  top:"Node_1244"
  layer_param {
    idx:1244
    out_0 {name:"Node_1244:0",dtype:float32,shape:[1008]}
  }
}
layer {
  name:"Node_1245"
  type:"add"
  top:"Node_1245"
  bottom:"Node_1243"
  bottom:"Node_1244"
  layer_param {
    idx:1245
    in_0 {name:"Node_1243:0",dtype:float32,shape:[1, 1008]}
    in_1 {name:"Node_1244:0",dtype:float32,shape:[1008]}
    out_0 {name:"Node_1245:0",dtype:float32,shape:[1, 1008]}
  }
}
layer {
  name:"Node_1246"
  type:"nn_softmax"
  top:"Node_1246"
  bottom:"Node_1245"
  layer_param {
    idx:1246
    in_0 {name:"Node_1245:0",dtype:float32,shape:[1, 1008]}
    out_0 {name:"Node_1246:0",dtype:float32,shape:[1, 1008]}
    attrs {'axis': -1}
  }
}
layer {
  name:"Node_1247"
  type:"function"
  top:"Node_1247"
  bottom:"tensorrt_0_i0"
  bottom:"Node_1246"
  layer_param {
    idx:1247
    in_0 {name:"tensorrt_0_i0:0",dtype:float32,shape:[1, 299, 299, 3]}
    in_1 {name:"Node_1246:0",dtype:float32,shape:[1, 1008]}
    out_0 {name:"Node_1247:0",dtype:float32,shape:[1, 1008]}
  }
}
layer {
  name:"p0"
  type:"input"
  top:"p0"
  layer_param {
    idx:1248
    out_0 {name:"p0:0",dtype:uint8,shape:[299, 299, 3]}
  }
}
layer {
  name:"Node_1253"
  type:"cast"
  top:"Node_1253"
  bottom:"p0"
  layer_param {
    idx:1253
    in_0 {name:"p0:0",dtype:uint8,shape:[299, 299, 3]}
    out_0 {name:"Node_1253:0",dtype:float32,shape:[299, 299, 3]}
    attrs {'dtype': 'float32'}
  }
}
layer {
  name:"Node_1254"
  type:"expand_dims"
  top:"Node_1254"
  bottom:"Node_1253"
  layer_param {
    idx:1254
    in_0 {name:"Node_1253:0",dtype:float32,shape:[299, 299, 3]}
    out_0 {name:"Node_1254:0",dtype:float32,shape:[1, 299, 299, 3]}
    attrs {'axis': 0, 'num_newaxis': 1}
  }
}
layer {
  name:"Node_1255"
  type:"image_resize"
  top:"Node_1255"
  bottom:"Node_1254"
  layer_param {
    idx:1255
    in_0 {name:"Node_1254:0",dtype:float32,shape:[1, 299, 299, 3]}
    out_0 {name:"Node_1255:0",dtype:float32,shape:[1, 299, 299, 3]}
    attrs {'size': [299, 299], 'layout': 'NHWC', 'method': 'bilinear', 'coordinate_transformation_mode': 'asymmetric', 'rounding_method': '', 'bicubic_alpha': -0.5, 'bicubic_exclude': 0, 'out_dtype': ''}
  }
}
layer {
  name:"Node_1256"
  type:"function"
  top:"Node_1256"
  bottom:"p0"
  bottom:"Node_1255"
  layer_param {
    idx:1256
    in_0 {name:"p0:0",dtype:uint8,shape:[299, 299, 3]}
    in_1 {name:"Node_1255:0",dtype:float32,shape:[1, 299, 299, 3]}
    out_0 {name:"Node_1256:0",dtype:float32,shape:[1, 299, 299, 3]}
  }
}
layer {
  name:"Node_1258"
  type:"func_call"
  top:"Node_1258"
  bottom:"DecodeJpeg/contents"
  bottom:"Node_1256"
  layer_param {
    idx:1258
    in_0 {name:"DecodeJpeg/contents:0",dtype:uint8,shape:[299, 299, 3]}
    in_1 {name:"Node_1256:0",dtype:float32,shape:[1, 299, 299, 3]}
    out_0 {name:"Node_1258:0",dtype:float32,shape:[1, 299, 299, 3]}
  }
}
layer {
  name:"Node_1259"
  type:"func_call"
  top:"Node_1259"
  bottom:"Node_1258"
  bottom:"Node_1247"
  layer_param {
    idx:1259
    in_0 {name:"Node_1258:0",dtype:float32,shape:[1, 299, 299, 3]}
    in_1 {name:"Node_1247:0",dtype:float32,shape:[1, 1008]}
    out_0 {name:"Node_1259:0",dtype:float32,shape:[1, 1008]}
  }
}
layer {
  name:"Node_1260"
  type:"function"
  top:"Node_1260"
  bottom:"DecodeJpeg/contents"
  bottom:"Node_1259"
  layer_param {
    idx:1260
    in_0 {name:"DecodeJpeg/contents:0",dtype:uint8,shape:[299, 299, 3]}
    in_1 {name:"Node_1259:0",dtype:float32,shape:[1, 1008]}
    out_0 {name:"Node_1260:0",dtype:float32,shape:[1, 1008]}
  }
}
