name : "relay_ir"
layer {
  name:"tensorrt_0_i0"
  type:"input"
  top:"tensorrt_0_i0"
  layer_param {
    idx:0
    out_0 {name:"tensorrt_0_i0:0",dtype:float32,shape:[1, 299, 299, 3]}
  }
}
layer {
  name:"Node_75"
  type:"const"
  top:"Node_75"
  layer_param {
    idx:75
    out_0 {name:"Node_75:0",dtype:float32,shape:[]}
  }
}
layer {
  name:"Node_76"
  type:"subtract"
  top:"Node_76"
  bottom:"tensorrt_0_i0"
  bottom:"Node_75"
  layer_param {
    idx:76
    in_0 {name:"tensorrt_0_i0:0",dtype:float32,shape:[1, 299, 299, 3]}
    in_1 {name:"Node_75:0",dtype:float32,shape:[]}
    out_0 {name:"Node_76:0",dtype:float32,shape:[1, 299, 299, 3]}
  }
}
layer {
  name:"Node_77"
  type:"const"
  top:"Node_77"
  layer_param {
    idx:77
    out_0 {name:"Node_77:0",dtype:float32,shape:[]}
  }
}
layer {
  name:"Node_78"
  type:"multiply"
  top:"Node_78"
  bottom:"Node_76"
  bottom:"Node_77"
  layer_param {
    idx:78
    in_0 {name:"Node_76:0",dtype:float32,shape:[1, 299, 299, 3]}
    in_1 {name:"Node_77:0",dtype:float32,shape:[]}
    out_0 {name:"Node_78:0",dtype:float32,shape:[1, 299, 299, 3]}
  }
}
layer {
  name:"Node_79"
  type:"layout_transform"
  top:"Node_79"
  bottom:"Node_78"
  layer_param {
    idx:79
    in_0 {name:"Node_78:0",dtype:float32,shape:[1, 299, 299, 3]}
    out_0 {name:"Node_79:0",dtype:float32,shape:[1, 3, 299, 299]}
    attrs {'src_layout': 'NHWC', 'dst_layout': 'NCHW'}
  }
}
layer {
  name:"Node_80"
  type:"const"
  top:"Node_80"
  layer_param {
    idx:80
    out_0 {name:"Node_80:0",dtype:float32,shape:[32, 3, 3, 3]}
  }
}
layer {
  name:"Node_81"
  type:"nn_conv2d"
  top:"Node_81"
  bottom:"Node_79"
  bottom:"Node_80"
  layer_param {
    idx:81
    in_0 {name:"Node_79:0",dtype:float32,shape:[1, 3, 299, 299]}
    in_1 {name:"Node_80:0",dtype:float32,shape:[32, 3, 3, 3]}
    out_0 {name:"Node_81:0",dtype:float32,shape:[1, 32, 149, 149]}
    attrs {'strides': [2, 2], 'padding': [0, 0, 0, 0], 'dilation': [1, 1], 'groups': 1, 'channels': 32, 'kernel_size': [3, 3], 'data_layout': 'NCHW', 'kernel_layout': 'OIHW', 'out_layout': '', 'out_dtype': ''}
  }
}
layer {
  name:"Node_82"
  type:"const"
  top:"Node_82"
  layer_param {
    idx:82
    out_0 {name:"Node_82:0",dtype:float32,shape:[32]}
  }
}
layer {
  name:"Node_83"
  type:"const"
  top:"Node_83"
  layer_param {
    idx:83
    out_0 {name:"Node_83:0",dtype:float32,shape:[32]}
  }
}
layer {
  name:"Node_84"
  type:"const"
  top:"Node_84"
  layer_param {
    idx:84
    out_0 {name:"Node_84:0",dtype:float32,shape:[32]}
  }
}
layer {
  name:"Node_85"
  type:"const"
  top:"Node_85"
  layer_param {
    idx:85
    out_0 {name:"Node_85:0",dtype:float32,shape:[32]}
  }
}
layer {
  name:"Node_86"
  type:"nn_batch_norm"
  top:"Node_86"
  bottom:"Node_81"
  bottom:"Node_82"
  bottom:"Node_83"
  bottom:"Node_84"
  bottom:"Node_85"
  layer_param {
    idx:86
    in_0 {name:"Node_81:0",dtype:float32,shape:[1, 32, 149, 149]}
    in_1 {name:"Node_82:0",dtype:float32,shape:[32]}
    in_2 {name:"Node_83:0",dtype:float32,shape:[32]}
    in_3 {name:"Node_84:0",dtype:float32,shape:[32]}
    in_4 {name:"Node_85:0",dtype:float32,shape:[32]}
    out_0 {name:"Node_86:0",dtype:float32,shape:[1, 32, 149, 149]}
    out_1 {name:"Node_86:1",dtype:float32,shape:[32]}
    out_2 {name:"Node_86:2",dtype:float32,shape:[32]}
    attrs {'axis': 1, 'epsilon': 0.0010000000474974513, 'center': 1, 'scale': 0}
  }
}
layer {
  name:"Node_88"
  type:"nn_relu"
  top:"Node_88"
  bottom:"Node_86"
  layer_param {
    idx:88
    in_0 {name:"Node_86:0",dtype:float32,shape:[1, 32, 149, 149]}
    out_0 {name:"Node_88:0",dtype:float32,shape:[1, 32, 149, 149]}
  }
}
layer {
  name:"Node_89"
  type:"const"
  top:"Node_89"
  layer_param {
    idx:89
    out_0 {name:"Node_89:0",dtype:float32,shape:[32, 32, 3, 3]}
  }
}
layer {
  name:"Node_90"
  type:"nn_conv2d"
  top:"Node_90"
  bottom:"Node_88"
  bottom:"Node_89"
  layer_param {
    idx:90
    in_0 {name:"Node_88:0",dtype:float32,shape:[1, 32, 149, 149]}
    in_1 {name:"Node_89:0",dtype:float32,shape:[32, 32, 3, 3]}
    out_0 {name:"Node_90:0",dtype:float32,shape:[1, 32, 147, 147]}
    attrs {'strides': [1, 1], 'padding': [0, 0, 0, 0], 'dilation': [1, 1], 'groups': 1, 'channels': 32, 'kernel_size': [3, 3], 'data_layout': 'NCHW', 'kernel_layout': 'OIHW', 'out_layout': '', 'out_dtype': ''}
  }
}
layer {
  name:"Node_91"
  type:"const"
  top:"Node_91"
  layer_param {
    idx:91
    out_0 {name:"Node_91:0",dtype:float32,shape:[32]}
  }
}
layer {
  name:"Node_92"
  type:"const"
  top:"Node_92"
  layer_param {
    idx:92
    out_0 {name:"Node_92:0",dtype:float32,shape:[32]}
  }
}
layer {
  name:"Node_93"
  type:"const"
  top:"Node_93"
  layer_param {
    idx:93
    out_0 {name:"Node_93:0",dtype:float32,shape:[32]}
  }
}
layer {
  name:"Node_94"
  type:"const"
  top:"Node_94"
  layer_param {
    idx:94
    out_0 {name:"Node_94:0",dtype:float32,shape:[32]}
  }
}
layer {
  name:"Node_95"
  type:"nn_batch_norm"
  top:"Node_95"
  bottom:"Node_90"
  bottom:"Node_91"
  bottom:"Node_92"
  bottom:"Node_93"
  bottom:"Node_94"
  layer_param {
    idx:95
    in_0 {name:"Node_90:0",dtype:float32,shape:[1, 32, 147, 147]}
    in_1 {name:"Node_91:0",dtype:float32,shape:[32]}
    in_2 {name:"Node_92:0",dtype:float32,shape:[32]}
    in_3 {name:"Node_93:0",dtype:float32,shape:[32]}
    in_4 {name:"Node_94:0",dtype:float32,shape:[32]}
    out_0 {name:"Node_95:0",dtype:float32,shape:[1, 32, 147, 147]}
    out_1 {name:"Node_95:1",dtype:float32,shape:[32]}
    out_2 {name:"Node_95:2",dtype:float32,shape:[32]}
    attrs {'axis': 1, 'epsilon': 0.0010000000474974513, 'center': 1, 'scale': 0}
  }
}
layer {
  name:"Node_97"
  type:"nn_relu"
  top:"Node_97"
  bottom:"Node_95"
  layer_param {
    idx:97
    in_0 {name:"Node_95:0",dtype:float32,shape:[1, 32, 147, 147]}
    out_0 {name:"Node_97:0",dtype:float32,shape:[1, 32, 147, 147]}
  }
}
layer {
  name:"Node_98"
  type:"const"
  top:"Node_98"
  layer_param {
    idx:98
    out_0 {name:"Node_98:0",dtype:float32,shape:[64, 32, 3, 3]}
  }
}
layer {
  name:"Node_99"
  type:"nn_conv2d"
  top:"Node_99"
  bottom:"Node_97"
  bottom:"Node_98"
  layer_param {
    idx:99
    in_0 {name:"Node_97:0",dtype:float32,shape:[1, 32, 147, 147]}
    in_1 {name:"Node_98:0",dtype:float32,shape:[64, 32, 3, 3]}
    out_0 {name:"Node_99:0",dtype:float32,shape:[1, 64, 147, 147]}
    attrs {'strides': [1, 1], 'padding': [1, 1, 1, 1], 'dilation': [1, 1], 'groups': 1, 'channels': 64, 'kernel_size': [3, 3], 'data_layout': 'NCHW', 'kernel_layout': 'OIHW', 'out_layout': '', 'out_dtype': ''}
  }
}
layer {
  name:"Node_100"
  type:"const"
  top:"Node_100"
  layer_param {
    idx:100
    out_0 {name:"Node_100:0",dtype:float32,shape:[64]}
  }
}
layer {
  name:"Node_101"
  type:"const"
  top:"Node_101"
  layer_param {
    idx:101
    out_0 {name:"Node_101:0",dtype:float32,shape:[64]}
  }
}
layer {
  name:"Node_102"
  type:"const"
  top:"Node_102"
  layer_param {
    idx:102
    out_0 {name:"Node_102:0",dtype:float32,shape:[64]}
  }
}
layer {
  name:"Node_103"
  type:"const"
  top:"Node_103"
  layer_param {
    idx:103
    out_0 {name:"Node_103:0",dtype:float32,shape:[64]}
  }
}
layer {
  name:"Node_104"
  type:"nn_batch_norm"
  top:"Node_104"
  bottom:"Node_99"
  bottom:"Node_100"
  bottom:"Node_101"
  bottom:"Node_102"
  bottom:"Node_103"
  layer_param {
    idx:104
    in_0 {name:"Node_99:0",dtype:float32,shape:[1, 64, 147, 147]}
    in_1 {name:"Node_100:0",dtype:float32,shape:[64]}
    in_2 {name:"Node_101:0",dtype:float32,shape:[64]}
    in_3 {name:"Node_102:0",dtype:float32,shape:[64]}
    in_4 {name:"Node_103:0",dtype:float32,shape:[64]}
    out_0 {name:"Node_104:0",dtype:float32,shape:[1, 64, 147, 147]}
    out_1 {name:"Node_104:1",dtype:float32,shape:[64]}
    out_2 {name:"Node_104:2",dtype:float32,shape:[64]}
    attrs {'axis': 1, 'epsilon': 0.0010000000474974513, 'center': 1, 'scale': 0}
  }
}
layer {
  name:"Node_106"
  type:"nn_relu"
  top:"Node_106"
  bottom:"Node_104"
  layer_param {
    idx:106
    in_0 {name:"Node_104:0",dtype:float32,shape:[1, 64, 147, 147]}
    out_0 {name:"Node_106:0",dtype:float32,shape:[1, 64, 147, 147]}
  }
}
layer {
  name:"Node_107"
  type:"nn_max_pool2d"
  top:"Node_107"
  bottom:"Node_106"
  layer_param {
    idx:107
    in_0 {name:"Node_106:0",dtype:float32,shape:[1, 64, 147, 147]}
    out_0 {name:"Node_107:0",dtype:float32,shape:[1, 64, 73, 73]}
    attrs {'pool_size': [3, 3], 'strides': [2, 2], 'dilation': [1, 1], 'padding': [0, 0, 0, 0], 'layout': 'NCHW', 'ceil_mode': 0}
  }
}
layer {
  name:"Node_108"
  type:"const"
  top:"Node_108"
  layer_param {
    idx:108
    out_0 {name:"Node_108:0",dtype:float32,shape:[80, 64, 1, 1]}
  }
}
layer {
  name:"Node_109"
  type:"nn_conv2d"
  top:"Node_109"
  bottom:"Node_107"
  bottom:"Node_108"
  layer_param {
    idx:109
    in_0 {name:"Node_107:0",dtype:float32,shape:[1, 64, 73, 73]}
    in_1 {name:"Node_108:0",dtype:float32,shape:[80, 64, 1, 1]}
    out_0 {name:"Node_109:0",dtype:float32,shape:[1, 80, 73, 73]}
    attrs {'strides': [1, 1], 'padding': [0, 0, 0, 0], 'dilation': [1, 1], 'groups': 1, 'channels': 80, 'kernel_size': [1, 1], 'data_layout': 'NCHW', 'kernel_layout': 'OIHW', 'out_layout': '', 'out_dtype': ''}
  }
}
layer {
  name:"Node_110"
  type:"const"
  top:"Node_110"
  layer_param {
    idx:110
    out_0 {name:"Node_110:0",dtype:float32,shape:[80]}
  }
}
layer {
  name:"Node_111"
  type:"const"
  top:"Node_111"
  layer_param {
    idx:111
    out_0 {name:"Node_111:0",dtype:float32,shape:[80]}
  }
}
layer {
  name:"Node_112"
  type:"const"
  top:"Node_112"
  layer_param {
    idx:112
    out_0 {name:"Node_112:0",dtype:float32,shape:[80]}
  }
}
layer {
  name:"Node_113"
  type:"const"
  top:"Node_113"
  layer_param {
    idx:113
    out_0 {name:"Node_113:0",dtype:float32,shape:[80]}
  }
}
layer {
  name:"Node_114"
  type:"nn_batch_norm"
  top:"Node_114"
  bottom:"Node_109"
  bottom:"Node_110"
  bottom:"Node_111"
  bottom:"Node_112"
  bottom:"Node_113"
  layer_param {
    idx:114
    in_0 {name:"Node_109:0",dtype:float32,shape:[1, 80, 73, 73]}
    in_1 {name:"Node_110:0",dtype:float32,shape:[80]}
    in_2 {name:"Node_111:0",dtype:float32,shape:[80]}
    in_3 {name:"Node_112:0",dtype:float32,shape:[80]}
    in_4 {name:"Node_113:0",dtype:float32,shape:[80]}
    out_0 {name:"Node_114:0",dtype:float32,shape:[1, 80, 73, 73]}
    out_1 {name:"Node_114:1",dtype:float32,shape:[80]}
    out_2 {name:"Node_114:2",dtype:float32,shape:[80]}
    attrs {'axis': 1, 'epsilon': 0.0010000000474974513, 'center': 1, 'scale': 0}
  }
}
layer {
  name:"Node_116"
  type:"nn_relu"
  top:"Node_116"
  bottom:"Node_114"
  layer_param {
    idx:116
    in_0 {name:"Node_114:0",dtype:float32,shape:[1, 80, 73, 73]}
    out_0 {name:"Node_116:0",dtype:float32,shape:[1, 80, 73, 73]}
  }
}
layer {
  name:"Node_117"
  type:"const"
  top:"Node_117"
  layer_param {
    idx:117
    out_0 {name:"Node_117:0",dtype:float32,shape:[192, 80, 3, 3]}
  }
}
layer {
  name:"Node_118"
  type:"nn_conv2d"
  top:"Node_118"
  bottom:"Node_116"
  bottom:"Node_117"
  layer_param {
    idx:118
    in_0 {name:"Node_116:0",dtype:float32,shape:[1, 80, 73, 73]}
    in_1 {name:"Node_117:0",dtype:float32,shape:[192, 80, 3, 3]}
    out_0 {name:"Node_118:0",dtype:float32,shape:[1, 192, 71, 71]}
    attrs {'strides': [1, 1], 'padding': [0, 0, 0, 0], 'dilation': [1, 1], 'groups': 1, 'channels': 192, 'kernel_size': [3, 3], 'data_layout': 'NCHW', 'kernel_layout': 'OIHW', 'out_layout': '', 'out_dtype': ''}
  }
}
layer {
  name:"Node_119"
  type:"const"
  top:"Node_119"
  layer_param {
    idx:119
    out_0 {name:"Node_119:0",dtype:float32,shape:[192]}
  }
}
layer {
  name:"Node_120"
  type:"const"
  top:"Node_120"
  layer_param {
    idx:120
    out_0 {name:"Node_120:0",dtype:float32,shape:[192]}
  }
}
layer {
  name:"Node_121"
  type:"const"
  top:"Node_121"
  layer_param {
    idx:121
    out_0 {name:"Node_121:0",dtype:float32,shape:[192]}
  }
}
layer {
  name:"Node_122"
  type:"const"
  top:"Node_122"
  layer_param {
    idx:122
    out_0 {name:"Node_122:0",dtype:float32,shape:[192]}
  }
}
layer {
  name:"Node_123"
  type:"nn_batch_norm"
  top:"Node_123"
  bottom:"Node_118"
  bottom:"Node_119"
  bottom:"Node_120"
  bottom:"Node_121"
  bottom:"Node_122"
  layer_param {
    idx:123
    in_0 {name:"Node_118:0",dtype:float32,shape:[1, 192, 71, 71]}
    in_1 {name:"Node_119:0",dtype:float32,shape:[192]}
    in_2 {name:"Node_120:0",dtype:float32,shape:[192]}
    in_3 {name:"Node_121:0",dtype:float32,shape:[192]}
    in_4 {name:"Node_122:0",dtype:float32,shape:[192]}
    out_0 {name:"Node_123:0",dtype:float32,shape:[1, 192, 71, 71]}
    out_1 {name:"Node_123:1",dtype:float32,shape:[192]}
    out_2 {name:"Node_123:2",dtype:float32,shape:[192]}
    attrs {'axis': 1, 'epsilon': 0.0010000000474974513, 'center': 1, 'scale': 0}
  }
}
layer {
  name:"Node_125"
  type:"nn_relu"
  top:"Node_125"
  bottom:"Node_123"
  layer_param {
    idx:125
    in_0 {name:"Node_123:0",dtype:float32,shape:[1, 192, 71, 71]}
    out_0 {name:"Node_125:0",dtype:float32,shape:[1, 192, 71, 71]}
  }
}
layer {
  name:"Node_126"
  type:"nn_max_pool2d"
  top:"Node_126"
  bottom:"Node_125"
  layer_param {
    idx:126
    in_0 {name:"Node_125:0",dtype:float32,shape:[1, 192, 71, 71]}
    out_0 {name:"Node_126:0",dtype:float32,shape:[1, 192, 35, 35]}
    attrs {'pool_size': [3, 3], 'strides': [2, 2], 'dilation': [1, 1], 'padding': [0, 0, 0, 0], 'layout': 'NCHW', 'ceil_mode': 0}
  }
}
layer {
  name:"Node_127"
  type:"const"
  top:"Node_127"
  layer_param {
    idx:127
    out_0 {name:"Node_127:0",dtype:float32,shape:[64, 192, 1, 1]}
  }
}
layer {
  name:"Node_128"
  type:"nn_conv2d"
  top:"Node_128"
  bottom:"Node_126"
  bottom:"Node_127"
  layer_param {
    idx:128
    in_0 {name:"Node_126:0",dtype:float32,shape:[1, 192, 35, 35]}
    in_1 {name:"Node_127:0",dtype:float32,shape:[64, 192, 1, 1]}
    out_0 {name:"Node_128:0",dtype:float32,shape:[1, 64, 35, 35]}
    attrs {'strides': [1, 1], 'padding': [0, 0, 0, 0], 'dilation': [1, 1], 'groups': 1, 'channels': 64, 'kernel_size': [1, 1], 'data_layout': 'NCHW', 'kernel_layout': 'OIHW', 'out_layout': '', 'out_dtype': ''}
  }
}
layer {
  name:"Node_129"
  type:"const"
  top:"Node_129"
  layer_param {
    idx:129
    out_0 {name:"Node_129:0",dtype:float32,shape:[64]}
  }
}
layer {
  name:"Node_130"
  type:"const"
  top:"Node_130"
  layer_param {
    idx:130
    out_0 {name:"Node_130:0",dtype:float32,shape:[64]}
  }
}
layer {
  name:"Node_131"
  type:"const"
  top:"Node_131"
  layer_param {
    idx:131
    out_0 {name:"Node_131:0",dtype:float32,shape:[64]}
  }
}
layer {
  name:"Node_132"
  type:"const"
  top:"Node_132"
  layer_param {
    idx:132
    out_0 {name:"Node_132:0",dtype:float32,shape:[64]}
  }
}
layer {
  name:"Node_133"
  type:"nn_batch_norm"
  top:"Node_133"
  bottom:"Node_128"
  bottom:"Node_129"
  bottom:"Node_130"
  bottom:"Node_131"
  bottom:"Node_132"
  layer_param {
    idx:133
    in_0 {name:"Node_128:0",dtype:float32,shape:[1, 64, 35, 35]}
    in_1 {name:"Node_129:0",dtype:float32,shape:[64]}
    in_2 {name:"Node_130:0",dtype:float32,shape:[64]}
    in_3 {name:"Node_131:0",dtype:float32,shape:[64]}
    in_4 {name:"Node_132:0",dtype:float32,shape:[64]}
    out_0 {name:"Node_133:0",dtype:float32,shape:[1, 64, 35, 35]}
    out_1 {name:"Node_133:1",dtype:float32,shape:[64]}
    out_2 {name:"Node_133:2",dtype:float32,shape:[64]}
    attrs {'axis': 1, 'epsilon': 0.0010000000474974513, 'center': 1, 'scale': 0}
  }
}
layer {
  name:"Node_135"
  type:"nn_relu"
  top:"Node_135"
  bottom:"Node_133"
  layer_param {
    idx:135
    in_0 {name:"Node_133:0",dtype:float32,shape:[1, 64, 35, 35]}
    out_0 {name:"Node_135:0",dtype:float32,shape:[1, 64, 35, 35]}
  }
}
layer {
  name:"Node_143"
  type:"const"
  top:"Node_143"
  layer_param {
    idx:143
    out_0 {name:"Node_143:0",dtype:float32,shape:[48, 192, 1, 1]}
  }
}
layer {
  name:"Node_144"
  type:"nn_conv2d"
  top:"Node_144"
  bottom:"Node_126"
  bottom:"Node_143"
  layer_param {
    idx:144
    in_0 {name:"Node_126:0",dtype:float32,shape:[1, 192, 35, 35]}
    in_1 {name:"Node_143:0",dtype:float32,shape:[48, 192, 1, 1]}
    out_0 {name:"Node_144:0",dtype:float32,shape:[1, 48, 35, 35]}
    attrs {'strides': [1, 1], 'padding': [0, 0, 0, 0], 'dilation': [1, 1], 'groups': 1, 'channels': 48, 'kernel_size': [1, 1], 'data_layout': 'NCHW', 'kernel_layout': 'OIHW', 'out_layout': '', 'out_dtype': ''}
  }
}
layer {
  name:"Node_145"
  type:"const"
  top:"Node_145"
  layer_param {
    idx:145
    out_0 {name:"Node_145:0",dtype:float32,shape:[48]}
  }
}
layer {
  name:"Node_146"
  type:"const"
  top:"Node_146"
  layer_param {
    idx:146
    out_0 {name:"Node_146:0",dtype:float32,shape:[48]}
  }
}
layer {
  name:"Node_147"
  type:"const"
  top:"Node_147"
  layer_param {
    idx:147
    out_0 {name:"Node_147:0",dtype:float32,shape:[48]}
  }
}
layer {
  name:"Node_148"
  type:"const"
  top:"Node_148"
  layer_param {
    idx:148
    out_0 {name:"Node_148:0",dtype:float32,shape:[48]}
  }
}
layer {
  name:"Node_149"
  type:"nn_batch_norm"
  top:"Node_149"
  bottom:"Node_144"
  bottom:"Node_145"
  bottom:"Node_146"
  bottom:"Node_147"
  bottom:"Node_148"
  layer_param {
    idx:149
    in_0 {name:"Node_144:0",dtype:float32,shape:[1, 48, 35, 35]}
    in_1 {name:"Node_145:0",dtype:float32,shape:[48]}
    in_2 {name:"Node_146:0",dtype:float32,shape:[48]}
    in_3 {name:"Node_147:0",dtype:float32,shape:[48]}
    in_4 {name:"Node_148:0",dtype:float32,shape:[48]}
    out_0 {name:"Node_149:0",dtype:float32,shape:[1, 48, 35, 35]}
    out_1 {name:"Node_149:1",dtype:float32,shape:[48]}
    out_2 {name:"Node_149:2",dtype:float32,shape:[48]}
    attrs {'axis': 1, 'epsilon': 0.0010000000474974513, 'center': 1, 'scale': 0}
  }
}
layer {
  name:"Node_151"
  type:"nn_relu"
  top:"Node_151"
  bottom:"Node_149"
  layer_param {
    idx:151
    in_0 {name:"Node_149:0",dtype:float32,shape:[1, 48, 35, 35]}
    out_0 {name:"Node_151:0",dtype:float32,shape:[1, 48, 35, 35]}
  }
}
layer {
  name:"Node_152"
  type:"const"
  top:"Node_152"
  layer_param {
    idx:152
    out_0 {name:"Node_152:0",dtype:float32,shape:[64, 48, 5, 5]}
  }
}
layer {
  name:"Node_153"
  type:"nn_conv2d"
  top:"Node_153"
  bottom:"Node_151"
  bottom:"Node_152"
  layer_param {
    idx:153
    in_0 {name:"Node_151:0",dtype:float32,shape:[1, 48, 35, 35]}
    in_1 {name:"Node_152:0",dtype:float32,shape:[64, 48, 5, 5]}
    out_0 {name:"Node_153:0",dtype:float32,shape:[1, 64, 35, 35]}
    attrs {'strides': [1, 1], 'padding': [2, 2, 2, 2], 'dilation': [1, 1], 'groups': 1, 'channels': 64, 'kernel_size': [5, 5], 'data_layout': 'NCHW', 'kernel_layout': 'OIHW', 'out_layout': '', 'out_dtype': ''}
  }
}
layer {
  name:"Node_154"
  type:"const"
  top:"Node_154"
  layer_param {
    idx:154
    out_0 {name:"Node_154:0",dtype:float32,shape:[64]}
  }
}
layer {
  name:"Node_155"
  type:"const"
  top:"Node_155"
  layer_param {
    idx:155
    out_0 {name:"Node_155:0",dtype:float32,shape:[64]}
  }
}
layer {
  name:"Node_156"
  type:"const"
  top:"Node_156"
  layer_param {
    idx:156
    out_0 {name:"Node_156:0",dtype:float32,shape:[64]}
  }
}
layer {
  name:"Node_157"
  type:"const"
  top:"Node_157"
  layer_param {
    idx:157
    out_0 {name:"Node_157:0",dtype:float32,shape:[64]}
  }
}
layer {
  name:"Node_158"
  type:"nn_batch_norm"
  top:"Node_158"
  bottom:"Node_153"
  bottom:"Node_154"
  bottom:"Node_155"
  bottom:"Node_156"
  bottom:"Node_157"
  layer_param {
    idx:158
    in_0 {name:"Node_153:0",dtype:float32,shape:[1, 64, 35, 35]}
    in_1 {name:"Node_154:0",dtype:float32,shape:[64]}
    in_2 {name:"Node_155:0",dtype:float32,shape:[64]}
    in_3 {name:"Node_156:0",dtype:float32,shape:[64]}
    in_4 {name:"Node_157:0",dtype:float32,shape:[64]}
    out_0 {name:"Node_158:0",dtype:float32,shape:[1, 64, 35, 35]}
    out_1 {name:"Node_158:1",dtype:float32,shape:[64]}
    out_2 {name:"Node_158:2",dtype:float32,shape:[64]}
    attrs {'axis': 1, 'epsilon': 0.0010000000474974513, 'center': 1, 'scale': 0}
  }
}
layer {
  name:"Node_160"
  type:"nn_relu"
  top:"Node_160"
  bottom:"Node_158"
  layer_param {
    idx:160
    in_0 {name:"Node_158:0",dtype:float32,shape:[1, 64, 35, 35]}
    out_0 {name:"Node_160:0",dtype:float32,shape:[1, 64, 35, 35]}
  }
}
layer {
  name:"Node_171"
  type:"const"
  top:"Node_171"
  layer_param {
    idx:171
    out_0 {name:"Node_171:0",dtype:float32,shape:[64, 192, 1, 1]}
  }
}
layer {
  name:"Node_172"
  type:"nn_conv2d"
  top:"Node_172"
  bottom:"Node_126"
  bottom:"Node_171"
  layer_param {
    idx:172
    in_0 {name:"Node_126:0",dtype:float32,shape:[1, 192, 35, 35]}
    in_1 {name:"Node_171:0",dtype:float32,shape:[64, 192, 1, 1]}
    out_0 {name:"Node_172:0",dtype:float32,shape:[1, 64, 35, 35]}
    attrs {'strides': [1, 1], 'padding': [0, 0, 0, 0], 'dilation': [1, 1], 'groups': 1, 'channels': 64, 'kernel_size': [1, 1], 'data_layout': 'NCHW', 'kernel_layout': 'OIHW', 'out_layout': '', 'out_dtype': ''}
  }
}
layer {
  name:"Node_173"
  type:"const"
  top:"Node_173"
  layer_param {
    idx:173
    out_0 {name:"Node_173:0",dtype:float32,shape:[64]}
  }
}
layer {
  name:"Node_174"
  type:"const"
  top:"Node_174"
  layer_param {
    idx:174
    out_0 {name:"Node_174:0",dtype:float32,shape:[64]}
  }
}
layer {
  name:"Node_175"
  type:"const"
  top:"Node_175"
  layer_param {
    idx:175
    out_0 {name:"Node_175:0",dtype:float32,shape:[64]}
  }
}
layer {
  name:"Node_176"
  type:"const"
  top:"Node_176"
  layer_param {
    idx:176
    out_0 {name:"Node_176:0",dtype:float32,shape:[64]}
  }
}
layer {
  name:"Node_177"
  type:"nn_batch_norm"
  top:"Node_177"
  bottom:"Node_172"
  bottom:"Node_173"
  bottom:"Node_174"
  bottom:"Node_175"
  bottom:"Node_176"
  layer_param {
    idx:177
    in_0 {name:"Node_172:0",dtype:float32,shape:[1, 64, 35, 35]}
    in_1 {name:"Node_173:0",dtype:float32,shape:[64]}
    in_2 {name:"Node_174:0",dtype:float32,shape:[64]}
    in_3 {name:"Node_175:0",dtype:float32,shape:[64]}
    in_4 {name:"Node_176:0",dtype:float32,shape:[64]}
    out_0 {name:"Node_177:0",dtype:float32,shape:[1, 64, 35, 35]}
    out_1 {name:"Node_177:1",dtype:float32,shape:[64]}
    out_2 {name:"Node_177:2",dtype:float32,shape:[64]}
    attrs {'axis': 1, 'epsilon': 0.0010000000474974513, 'center': 1, 'scale': 0}
  }
}
layer {
  name:"Node_179"
  type:"nn_relu"
  top:"Node_179"
  bottom:"Node_177"
  layer_param {
    idx:179
    in_0 {name:"Node_177:0",dtype:float32,shape:[1, 64, 35, 35]}
    out_0 {name:"Node_179:0",dtype:float32,shape:[1, 64, 35, 35]}
  }
}
layer {
  name:"Node_180"
  type:"const"
  top:"Node_180"
  layer_param {
    idx:180
    out_0 {name:"Node_180:0",dtype:float32,shape:[96, 64, 3, 3]}
  }
}
layer {
  name:"Node_181"
  type:"nn_conv2d"
  top:"Node_181"
  bottom:"Node_179"
  bottom:"Node_180"
  layer_param {
    idx:181
    in_0 {name:"Node_179:0",dtype:float32,shape:[1, 64, 35, 35]}
    in_1 {name:"Node_180:0",dtype:float32,shape:[96, 64, 3, 3]}
    out_0 {name:"Node_181:0",dtype:float32,shape:[1, 96, 35, 35]}
    attrs {'strides': [1, 1], 'padding': [1, 1, 1, 1], 'dilation': [1, 1], 'groups': 1, 'channels': 96, 'kernel_size': [3, 3], 'data_layout': 'NCHW', 'kernel_layout': 'OIHW', 'out_layout': '', 'out_dtype': ''}
  }
}
layer {
  name:"Node_182"
  type:"const"
  top:"Node_182"
  layer_param {
    idx:182
    out_0 {name:"Node_182:0",dtype:float32,shape:[96]}
  }
}
layer {
  name:"Node_183"
  type:"const"
  top:"Node_183"
  layer_param {
    idx:183
    out_0 {name:"Node_183:0",dtype:float32,shape:[96]}
  }
}
layer {
  name:"Node_184"
  type:"const"
  top:"Node_184"
  layer_param {
    idx:184
    out_0 {name:"Node_184:0",dtype:float32,shape:[96]}
  }
}
layer {
  name:"Node_185"
  type:"const"
  top:"Node_185"
  layer_param {
    idx:185
    out_0 {name:"Node_185:0",dtype:float32,shape:[96]}
  }
}
layer {
  name:"Node_186"
  type:"nn_batch_norm"
  top:"Node_186"
  bottom:"Node_181"
  bottom:"Node_182"
  bottom:"Node_183"
  bottom:"Node_184"
  bottom:"Node_185"
  layer_param {
    idx:186
    in_0 {name:"Node_181:0",dtype:float32,shape:[1, 96, 35, 35]}
    in_1 {name:"Node_182:0",dtype:float32,shape:[96]}
    in_2 {name:"Node_183:0",dtype:float32,shape:[96]}
    in_3 {name:"Node_184:0",dtype:float32,shape:[96]}
    in_4 {name:"Node_185:0",dtype:float32,shape:[96]}
    out_0 {name:"Node_186:0",dtype:float32,shape:[1, 96, 35, 35]}
    out_1 {name:"Node_186:1",dtype:float32,shape:[96]}
    out_2 {name:"Node_186:2",dtype:float32,shape:[96]}
    attrs {'axis': 1, 'epsilon': 0.0010000000474974513, 'center': 1, 'scale': 0}
  }
}
layer {
  name:"Node_188"
  type:"nn_relu"
  top:"Node_188"
  bottom:"Node_186"
  layer_param {
    idx:188
    in_0 {name:"Node_186:0",dtype:float32,shape:[1, 96, 35, 35]}
    out_0 {name:"Node_188:0",dtype:float32,shape:[1, 96, 35, 35]}
  }
}
layer {
  name:"Node_189"
  type:"const"
  top:"Node_189"
  layer_param {
    idx:189
    out_0 {name:"Node_189:0",dtype:float32,shape:[96, 96, 3, 3]}
  }
}
layer {
  name:"Node_190"
  type:"nn_conv2d"
  top:"Node_190"
  bottom:"Node_188"
  bottom:"Node_189"
  layer_param {
    idx:190
    in_0 {name:"Node_188:0",dtype:float32,shape:[1, 96, 35, 35]}
    in_1 {name:"Node_189:0",dtype:float32,shape:[96, 96, 3, 3]}
    out_0 {name:"Node_190:0",dtype:float32,shape:[1, 96, 35, 35]}
    attrs {'strides': [1, 1], 'padding': [1, 1, 1, 1], 'dilation': [1, 1], 'groups': 1, 'channels': 96, 'kernel_size': [3, 3], 'data_layout': 'NCHW', 'kernel_layout': 'OIHW', 'out_layout': '', 'out_dtype': ''}
  }
}
layer {
  name:"Node_191"
  type:"const"
  top:"Node_191"
  layer_param {
    idx:191
    out_0 {name:"Node_191:0",dtype:float32,shape:[96]}
  }
}
layer {
  name:"Node_192"
  type:"const"
  top:"Node_192"
  layer_param {
    idx:192
    out_0 {name:"Node_192:0",dtype:float32,shape:[96]}
  }
}
layer {
  name:"Node_193"
  type:"const"
  top:"Node_193"
  layer_param {
    idx:193
    out_0 {name:"Node_193:0",dtype:float32,shape:[96]}
  }
}
layer {
  name:"Node_194"
  type:"const"
  top:"Node_194"
  layer_param {
    idx:194
    out_0 {name:"Node_194:0",dtype:float32,shape:[96]}
  }
}
layer {
  name:"Node_195"
  type:"nn_batch_norm"
  top:"Node_195"
  bottom:"Node_190"
  bottom:"Node_191"
  bottom:"Node_192"
  bottom:"Node_193"
  bottom:"Node_194"
  layer_param {
    idx:195
    in_0 {name:"Node_190:0",dtype:float32,shape:[1, 96, 35, 35]}
    in_1 {name:"Node_191:0",dtype:float32,shape:[96]}
    in_2 {name:"Node_192:0",dtype:float32,shape:[96]}
    in_3 {name:"Node_193:0",dtype:float32,shape:[96]}
    in_4 {name:"Node_194:0",dtype:float32,shape:[96]}
    out_0 {name:"Node_195:0",dtype:float32,shape:[1, 96, 35, 35]}
    out_1 {name:"Node_195:1",dtype:float32,shape:[96]}
    out_2 {name:"Node_195:2",dtype:float32,shape:[96]}
    attrs {'axis': 1, 'epsilon': 0.0010000000474974513, 'center': 1, 'scale': 0}
  }
}
layer {
  name:"Node_197"
  type:"nn_relu"
  top:"Node_197"
  bottom:"Node_195"
  layer_param {
    idx:197
    in_0 {name:"Node_195:0",dtype:float32,shape:[1, 96, 35, 35]}
    out_0 {name:"Node_197:0",dtype:float32,shape:[1, 96, 35, 35]}
  }
}
layer {
  name:"Node_203"
  type:"nn_avg_pool2d"
  top:"Node_203"
  bottom:"Node_126"
  layer_param {
    idx:203
    in_0 {name:"Node_126:0",dtype:float32,shape:[1, 192, 35, 35]}
    out_0 {name:"Node_203:0",dtype:float32,shape:[1, 192, 35, 35]}
    attrs {'pool_size': [3, 3], 'strides': [1, 1], 'dilation': [1, 1], 'padding': [1, 1, 1, 1], 'layout': 'NCHW', 'ceil_mode': 0, 'count_include_pad': 0}
  }
}
layer {
  name:"Node_204"
  type:"const"
  top:"Node_204"
  layer_param {
    idx:204
    out_0 {name:"Node_204:0",dtype:float32,shape:[32, 192, 1, 1]}
  }
}
layer {
  name:"Node_205"
  type:"nn_conv2d"
  top:"Node_205"
  bottom:"Node_203"
  bottom:"Node_204"
  layer_param {
    idx:205
    in_0 {name:"Node_203:0",dtype:float32,shape:[1, 192, 35, 35]}
    in_1 {name:"Node_204:0",dtype:float32,shape:[32, 192, 1, 1]}
    out_0 {name:"Node_205:0",dtype:float32,shape:[1, 32, 35, 35]}
    attrs {'strides': [1, 1], 'padding': [0, 0, 0, 0], 'dilation': [1, 1], 'groups': 1, 'channels': 32, 'kernel_size': [1, 1], 'data_layout': 'NCHW', 'kernel_layout': 'OIHW', 'out_layout': '', 'out_dtype': ''}
  }
}
layer {
  name:"Node_206"
  type:"const"
  top:"Node_206"
  layer_param {
    idx:206
    out_0 {name:"Node_206:0",dtype:float32,shape:[32]}
  }
}
layer {
  name:"Node_207"
  type:"const"
  top:"Node_207"
  layer_param {
    idx:207
    out_0 {name:"Node_207:0",dtype:float32,shape:[32]}
  }
}
layer {
  name:"Node_208"
  type:"const"
  top:"Node_208"
  layer_param {
    idx:208
    out_0 {name:"Node_208:0",dtype:float32,shape:[32]}
  }
}
layer {
  name:"Node_209"
  type:"const"
  top:"Node_209"
  layer_param {
    idx:209
    out_0 {name:"Node_209:0",dtype:float32,shape:[32]}
  }
}
layer {
  name:"Node_210"
  type:"nn_batch_norm"
  top:"Node_210"
  bottom:"Node_205"
  bottom:"Node_206"
  bottom:"Node_207"
  bottom:"Node_208"
  bottom:"Node_209"
  layer_param {
    idx:210
    in_0 {name:"Node_205:0",dtype:float32,shape:[1, 32, 35, 35]}
    in_1 {name:"Node_206:0",dtype:float32,shape:[32]}
    in_2 {name:"Node_207:0",dtype:float32,shape:[32]}
    in_3 {name:"Node_208:0",dtype:float32,shape:[32]}
    in_4 {name:"Node_209:0",dtype:float32,shape:[32]}
    out_0 {name:"Node_210:0",dtype:float32,shape:[1, 32, 35, 35]}
    out_1 {name:"Node_210:1",dtype:float32,shape:[32]}
    out_2 {name:"Node_210:2",dtype:float32,shape:[32]}
    attrs {'axis': 1, 'epsilon': 0.0010000000474974513, 'center': 1, 'scale': 0}
  }
}
layer {
  name:"Node_212"
  type:"nn_relu"
  top:"Node_212"
  bottom:"Node_210"
  layer_param {
    idx:212
    in_0 {name:"Node_210:0",dtype:float32,shape:[1, 32, 35, 35]}
    out_0 {name:"Node_212:0",dtype:float32,shape:[1, 32, 35, 35]}
  }
}
layer {
  name:"Node_214"
  type:"concatenate"
  top:"Node_214"
  bottom:"Node_135"
  bottom:"Node_160"
  bottom:"Node_197"
  bottom:"Node_212"
  layer_param {
    idx:214
    in_0 {name:"Node_135:0",dtype:float32,shape:[1, 64, 35, 35]}
    in_1 {name:"Node_160:0",dtype:float32,shape:[1, 64, 35, 35]}
    in_2 {name:"Node_197:0",dtype:float32,shape:[1, 96, 35, 35]}
    in_3 {name:"Node_212:0",dtype:float32,shape:[1, 32, 35, 35]}
    out_0 {name:"Node_214:0",dtype:float32,shape:[1, 256, 35, 35]}
    attrs {'axis': 1}
  }
}
layer {
  name:"Node_215"
  type:"const"
  top:"Node_215"
  layer_param {
    idx:215
    out_0 {name:"Node_215:0",dtype:float32,shape:[64, 256, 1, 1]}
  }
}
layer {
  name:"Node_216"
  type:"nn_conv2d"
  top:"Node_216"
  bottom:"Node_214"
  bottom:"Node_215"
  layer_param {
    idx:216
    in_0 {name:"Node_214:0",dtype:float32,shape:[1, 256, 35, 35]}
    in_1 {name:"Node_215:0",dtype:float32,shape:[64, 256, 1, 1]}
    out_0 {name:"Node_216:0",dtype:float32,shape:[1, 64, 35, 35]}
    attrs {'strides': [1, 1], 'padding': [0, 0, 0, 0], 'dilation': [1, 1], 'groups': 1, 'channels': 64, 'kernel_size': [1, 1], 'data_layout': 'NCHW', 'kernel_layout': 'OIHW', 'out_layout': '', 'out_dtype': ''}
  }
}
layer {
  name:"Node_217"
  type:"const"
  top:"Node_217"
  layer_param {
    idx:217
    out_0 {name:"Node_217:0",dtype:float32,shape:[64]}
  }
}
layer {
  name:"Node_218"
  type:"const"
  top:"Node_218"
  layer_param {
    idx:218
    out_0 {name:"Node_218:0",dtype:float32,shape:[64]}
  }
}
layer {
  name:"Node_219"
  type:"const"
  top:"Node_219"
  layer_param {
    idx:219
    out_0 {name:"Node_219:0",dtype:float32,shape:[64]}
  }
}
layer {
  name:"Node_220"
  type:"const"
  top:"Node_220"
  layer_param {
    idx:220
    out_0 {name:"Node_220:0",dtype:float32,shape:[64]}
  }
}
layer {
  name:"Node_221"
  type:"nn_batch_norm"
  top:"Node_221"
  bottom:"Node_216"
  bottom:"Node_217"
  bottom:"Node_218"
  bottom:"Node_219"
  bottom:"Node_220"
  layer_param {
    idx:221
    in_0 {name:"Node_216:0",dtype:float32,shape:[1, 64, 35, 35]}
    in_1 {name:"Node_217:0",dtype:float32,shape:[64]}
    in_2 {name:"Node_218:0",dtype:float32,shape:[64]}
    in_3 {name:"Node_219:0",dtype:float32,shape:[64]}
    in_4 {name:"Node_220:0",dtype:float32,shape:[64]}
    out_0 {name:"Node_221:0",dtype:float32,shape:[1, 64, 35, 35]}
    out_1 {name:"Node_221:1",dtype:float32,shape:[64]}
    out_2 {name:"Node_221:2",dtype:float32,shape:[64]}
    attrs {'axis': 1, 'epsilon': 0.0010000000474974513, 'center': 1, 'scale': 0}
  }
}
layer {
  name:"Node_223"
  type:"nn_relu"
  top:"Node_223"
  bottom:"Node_221"
  layer_param {
    idx:223
    in_0 {name:"Node_221:0",dtype:float32,shape:[1, 64, 35, 35]}
    out_0 {name:"Node_223:0",dtype:float32,shape:[1, 64, 35, 35]}
  }
}
layer {
  name:"Node_231"
  type:"const"
  top:"Node_231"
  layer_param {
    idx:231
    out_0 {name:"Node_231:0",dtype:float32,shape:[48, 256, 1, 1]}
  }
}
layer {
  name:"Node_232"
  type:"nn_conv2d"
  top:"Node_232"
  bottom:"Node_214"
  bottom:"Node_231"
  layer_param {
    idx:232
    in_0 {name:"Node_214:0",dtype:float32,shape:[1, 256, 35, 35]}
    in_1 {name:"Node_231:0",dtype:float32,shape:[48, 256, 1, 1]}
    out_0 {name:"Node_232:0",dtype:float32,shape:[1, 48, 35, 35]}
    attrs {'strides': [1, 1], 'padding': [0, 0, 0, 0], 'dilation': [1, 1], 'groups': 1, 'channels': 48, 'kernel_size': [1, 1], 'data_layout': 'NCHW', 'kernel_layout': 'OIHW', 'out_layout': '', 'out_dtype': ''}
  }
}
layer {
  name:"Node_233"
  type:"const"
  top:"Node_233"
  layer_param {
    idx:233
    out_0 {name:"Node_233:0",dtype:float32,shape:[48]}
  }
}
layer {
  name:"Node_234"
  type:"const"
  top:"Node_234"
  layer_param {
    idx:234
    out_0 {name:"Node_234:0",dtype:float32,shape:[48]}
  }
}
layer {
  name:"Node_235"
  type:"const"
  top:"Node_235"
  layer_param {
    idx:235
    out_0 {name:"Node_235:0",dtype:float32,shape:[48]}
  }
}
layer {
  name:"Node_236"
  type:"const"
  top:"Node_236"
  layer_param {
    idx:236
    out_0 {name:"Node_236:0",dtype:float32,shape:[48]}
  }
}
layer {
  name:"Node_237"
  type:"nn_batch_norm"
  top:"Node_237"
  bottom:"Node_232"
  bottom:"Node_233"
  bottom:"Node_234"
  bottom:"Node_235"
  bottom:"Node_236"
  layer_param {
    idx:237
    in_0 {name:"Node_232:0",dtype:float32,shape:[1, 48, 35, 35]}
    in_1 {name:"Node_233:0",dtype:float32,shape:[48]}
    in_2 {name:"Node_234:0",dtype:float32,shape:[48]}
    in_3 {name:"Node_235:0",dtype:float32,shape:[48]}
    in_4 {name:"Node_236:0",dtype:float32,shape:[48]}
    out_0 {name:"Node_237:0",dtype:float32,shape:[1, 48, 35, 35]}
    out_1 {name:"Node_237:1",dtype:float32,shape:[48]}
    out_2 {name:"Node_237:2",dtype:float32,shape:[48]}
    attrs {'axis': 1, 'epsilon': 0.0010000000474974513, 'center': 1, 'scale': 0}
  }
}
layer {
  name:"Node_239"
  type:"nn_relu"
  top:"Node_239"
  bottom:"Node_237"
  layer_param {
    idx:239
    in_0 {name:"Node_237:0",dtype:float32,shape:[1, 48, 35, 35]}
    out_0 {name:"Node_239:0",dtype:float32,shape:[1, 48, 35, 35]}
  }
}
layer {
  name:"Node_240"
  type:"const"
  top:"Node_240"
  layer_param {
    idx:240
    out_0 {name:"Node_240:0",dtype:float32,shape:[64, 48, 5, 5]}
  }
}
layer {
  name:"Node_241"
  type:"nn_conv2d"
  top:"Node_241"
  bottom:"Node_239"
  bottom:"Node_240"
  layer_param {
    idx:241
    in_0 {name:"Node_239:0",dtype:float32,shape:[1, 48, 35, 35]}
    in_1 {name:"Node_240:0",dtype:float32,shape:[64, 48, 5, 5]}
    out_0 {name:"Node_241:0",dtype:float32,shape:[1, 64, 35, 35]}
    attrs {'strides': [1, 1], 'padding': [2, 2, 2, 2], 'dilation': [1, 1], 'groups': 1, 'channels': 64, 'kernel_size': [5, 5], 'data_layout': 'NCHW', 'kernel_layout': 'OIHW', 'out_layout': '', 'out_dtype': ''}
  }
}
layer {
  name:"Node_242"
  type:"const"
  top:"Node_242"
  layer_param {
    idx:242
    out_0 {name:"Node_242:0",dtype:float32,shape:[64]}
  }
}
layer {
  name:"Node_243"
  type:"const"
  top:"Node_243"
  layer_param {
    idx:243
    out_0 {name:"Node_243:0",dtype:float32,shape:[64]}
  }
}
layer {
  name:"Node_244"
  type:"const"
  top:"Node_244"
  layer_param {
    idx:244
    out_0 {name:"Node_244:0",dtype:float32,shape:[64]}
  }
}
layer {
  name:"Node_245"
  type:"const"
  top:"Node_245"
  layer_param {
    idx:245
    out_0 {name:"Node_245:0",dtype:float32,shape:[64]}
  }
}
layer {
  name:"Node_246"
  type:"nn_batch_norm"
  top:"Node_246"
  bottom:"Node_241"
  bottom:"Node_242"
  bottom:"Node_243"
  bottom:"Node_244"
  bottom:"Node_245"
  layer_param {
    idx:246
    in_0 {name:"Node_241:0",dtype:float32,shape:[1, 64, 35, 35]}
    in_1 {name:"Node_242:0",dtype:float32,shape:[64]}
    in_2 {name:"Node_243:0",dtype:float32,shape:[64]}
    in_3 {name:"Node_244:0",dtype:float32,shape:[64]}
    in_4 {name:"Node_245:0",dtype:float32,shape:[64]}
    out_0 {name:"Node_246:0",dtype:float32,shape:[1, 64, 35, 35]}
    out_1 {name:"Node_246:1",dtype:float32,shape:[64]}
    out_2 {name:"Node_246:2",dtype:float32,shape:[64]}
    attrs {'axis': 1, 'epsilon': 0.0010000000474974513, 'center': 1, 'scale': 0}
  }
}
layer {
  name:"Node_248"
  type:"nn_relu"
  top:"Node_248"
  bottom:"Node_246"
  layer_param {
    idx:248
    in_0 {name:"Node_246:0",dtype:float32,shape:[1, 64, 35, 35]}
    out_0 {name:"Node_248:0",dtype:float32,shape:[1, 64, 35, 35]}
  }
}
layer {
  name:"Node_259"
  type:"const"
  top:"Node_259"
  layer_param {
    idx:259
    out_0 {name:"Node_259:0",dtype:float32,shape:[64, 256, 1, 1]}
  }
}
layer {
  name:"Node_260"
  type:"nn_conv2d"
  top:"Node_260"
  bottom:"Node_214"
  bottom:"Node_259"
  layer_param {
    idx:260
    in_0 {name:"Node_214:0",dtype:float32,shape:[1, 256, 35, 35]}
    in_1 {name:"Node_259:0",dtype:float32,shape:[64, 256, 1, 1]}
    out_0 {name:"Node_260:0",dtype:float32,shape:[1, 64, 35, 35]}
    attrs {'strides': [1, 1], 'padding': [0, 0, 0, 0], 'dilation': [1, 1], 'groups': 1, 'channels': 64, 'kernel_size': [1, 1], 'data_layout': 'NCHW', 'kernel_layout': 'OIHW', 'out_layout': '', 'out_dtype': ''}
  }
}
layer {
  name:"Node_261"
  type:"const"
  top:"Node_261"
  layer_param {
    idx:261
    out_0 {name:"Node_261:0",dtype:float32,shape:[64]}
  }
}
layer {
  name:"Node_262"
  type:"const"
  top:"Node_262"
  layer_param {
    idx:262
    out_0 {name:"Node_262:0",dtype:float32,shape:[64]}
  }
}
layer {
  name:"Node_263"
  type:"const"
  top:"Node_263"
  layer_param {
    idx:263
    out_0 {name:"Node_263:0",dtype:float32,shape:[64]}
  }
}
layer {
  name:"Node_264"
  type:"const"
  top:"Node_264"
  layer_param {
    idx:264
    out_0 {name:"Node_264:0",dtype:float32,shape:[64]}
  }
}
layer {
  name:"Node_265"
  type:"nn_batch_norm"
  top:"Node_265"
  bottom:"Node_260"
  bottom:"Node_261"
  bottom:"Node_262"
  bottom:"Node_263"
  bottom:"Node_264"
  layer_param {
    idx:265
    in_0 {name:"Node_260:0",dtype:float32,shape:[1, 64, 35, 35]}
    in_1 {name:"Node_261:0",dtype:float32,shape:[64]}
    in_2 {name:"Node_262:0",dtype:float32,shape:[64]}
    in_3 {name:"Node_263:0",dtype:float32,shape:[64]}
    in_4 {name:"Node_264:0",dtype:float32,shape:[64]}
    out_0 {name:"Node_265:0",dtype:float32,shape:[1, 64, 35, 35]}
    out_1 {name:"Node_265:1",dtype:float32,shape:[64]}
    out_2 {name:"Node_265:2",dtype:float32,shape:[64]}
    attrs {'axis': 1, 'epsilon': 0.0010000000474974513, 'center': 1, 'scale': 0}
  }
}
layer {
  name:"Node_267"
  type:"nn_relu"
  top:"Node_267"
  bottom:"Node_265"
  layer_param {
    idx:267
    in_0 {name:"Node_265:0",dtype:float32,shape:[1, 64, 35, 35]}
    out_0 {name:"Node_267:0",dtype:float32,shape:[1, 64, 35, 35]}
  }
}
layer {
  name:"Node_268"
  type:"const"
  top:"Node_268"
  layer_param {
    idx:268
    out_0 {name:"Node_268:0",dtype:float32,shape:[96, 64, 3, 3]}
  }
}
layer {
  name:"Node_269"
  type:"nn_conv2d"
  top:"Node_269"
  bottom:"Node_267"
  bottom:"Node_268"
  layer_param {
    idx:269
    in_0 {name:"Node_267:0",dtype:float32,shape:[1, 64, 35, 35]}
    in_1 {name:"Node_268:0",dtype:float32,shape:[96, 64, 3, 3]}
    out_0 {name:"Node_269:0",dtype:float32,shape:[1, 96, 35, 35]}
    attrs {'strides': [1, 1], 'padding': [1, 1, 1, 1], 'dilation': [1, 1], 'groups': 1, 'channels': 96, 'kernel_size': [3, 3], 'data_layout': 'NCHW', 'kernel_layout': 'OIHW', 'out_layout': '', 'out_dtype': ''}
  }
}
layer {
  name:"Node_270"
  type:"const"
  top:"Node_270"
  layer_param {
    idx:270
    out_0 {name:"Node_270:0",dtype:float32,shape:[96]}
  }
}
layer {
  name:"Node_271"
  type:"const"
  top:"Node_271"
  layer_param {
    idx:271
    out_0 {name:"Node_271:0",dtype:float32,shape:[96]}
  }
}
layer {
  name:"Node_272"
  type:"const"
  top:"Node_272"
  layer_param {
    idx:272
    out_0 {name:"Node_272:0",dtype:float32,shape:[96]}
  }
}
layer {
  name:"Node_273"
  type:"const"
  top:"Node_273"
  layer_param {
    idx:273
    out_0 {name:"Node_273:0",dtype:float32,shape:[96]}
  }
}
layer {
  name:"Node_274"
  type:"nn_batch_norm"
  top:"Node_274"
  bottom:"Node_269"
  bottom:"Node_270"
  bottom:"Node_271"
  bottom:"Node_272"
  bottom:"Node_273"
  layer_param {
    idx:274
    in_0 {name:"Node_269:0",dtype:float32,shape:[1, 96, 35, 35]}
    in_1 {name:"Node_270:0",dtype:float32,shape:[96]}
    in_2 {name:"Node_271:0",dtype:float32,shape:[96]}
    in_3 {name:"Node_272:0",dtype:float32,shape:[96]}
    in_4 {name:"Node_273:0",dtype:float32,shape:[96]}
    out_0 {name:"Node_274:0",dtype:float32,shape:[1, 96, 35, 35]}
    out_1 {name:"Node_274:1",dtype:float32,shape:[96]}
    out_2 {name:"Node_274:2",dtype:float32,shape:[96]}
    attrs {'axis': 1, 'epsilon': 0.0010000000474974513, 'center': 1, 'scale': 0}
  }
}
layer {
  name:"Node_276"
  type:"nn_relu"
  top:"Node_276"
  bottom:"Node_274"
  layer_param {
    idx:276
    in_0 {name:"Node_274:0",dtype:float32,shape:[1, 96, 35, 35]}
    out_0 {name:"Node_276:0",dtype:float32,shape:[1, 96, 35, 35]}
  }
}
layer {
  name:"Node_277"
  type:"const"
  top:"Node_277"
  layer_param {
    idx:277
    out_0 {name:"Node_277:0",dtype:float32,shape:[96, 96, 3, 3]}
  }
}
layer {
  name:"Node_278"
  type:"nn_conv2d"
  top:"Node_278"
  bottom:"Node_276"
  bottom:"Node_277"
  layer_param {
    idx:278
    in_0 {name:"Node_276:0",dtype:float32,shape:[1, 96, 35, 35]}
    in_1 {name:"Node_277:0",dtype:float32,shape:[96, 96, 3, 3]}
    out_0 {name:"Node_278:0",dtype:float32,shape:[1, 96, 35, 35]}
    attrs {'strides': [1, 1], 'padding': [1, 1, 1, 1], 'dilation': [1, 1], 'groups': 1, 'channels': 96, 'kernel_size': [3, 3], 'data_layout': 'NCHW', 'kernel_layout': 'OIHW', 'out_layout': '', 'out_dtype': ''}
  }
}
layer {
  name:"Node_279"
  type:"const"
  top:"Node_279"
  layer_param {
    idx:279
    out_0 {name:"Node_279:0",dtype:float32,shape:[96]}
  }
}
layer {
  name:"Node_280"
  type:"const"
  top:"Node_280"
  layer_param {
    idx:280
    out_0 {name:"Node_280:0",dtype:float32,shape:[96]}
  }
}
layer {
  name:"Node_281"
  type:"const"
  top:"Node_281"
  layer_param {
    idx:281
    out_0 {name:"Node_281:0",dtype:float32,shape:[96]}
  }
}
layer {
  name:"Node_282"
  type:"const"
  top:"Node_282"
  layer_param {
    idx:282
    out_0 {name:"Node_282:0",dtype:float32,shape:[96]}
  }
}
layer {
  name:"Node_283"
  type:"nn_batch_norm"
  top:"Node_283"
  bottom:"Node_278"
  bottom:"Node_279"
  bottom:"Node_280"
  bottom:"Node_281"
  bottom:"Node_282"
  layer_param {
    idx:283
    in_0 {name:"Node_278:0",dtype:float32,shape:[1, 96, 35, 35]}
    in_1 {name:"Node_279:0",dtype:float32,shape:[96]}
    in_2 {name:"Node_280:0",dtype:float32,shape:[96]}
    in_3 {name:"Node_281:0",dtype:float32,shape:[96]}
    in_4 {name:"Node_282:0",dtype:float32,shape:[96]}
    out_0 {name:"Node_283:0",dtype:float32,shape:[1, 96, 35, 35]}
    out_1 {name:"Node_283:1",dtype:float32,shape:[96]}
    out_2 {name:"Node_283:2",dtype:float32,shape:[96]}
    attrs {'axis': 1, 'epsilon': 0.0010000000474974513, 'center': 1, 'scale': 0}
  }
}
layer {
  name:"Node_285"
  type:"nn_relu"
  top:"Node_285"
  bottom:"Node_283"
  layer_param {
    idx:285
    in_0 {name:"Node_283:0",dtype:float32,shape:[1, 96, 35, 35]}
    out_0 {name:"Node_285:0",dtype:float32,shape:[1, 96, 35, 35]}
  }
}
layer {
  name:"Node_291"
  type:"nn_avg_pool2d"
  top:"Node_291"
  bottom:"Node_214"
  layer_param {
    idx:291
    in_0 {name:"Node_214:0",dtype:float32,shape:[1, 256, 35, 35]}
    out_0 {name:"Node_291:0",dtype:float32,shape:[1, 256, 35, 35]}
    attrs {'pool_size': [3, 3], 'strides': [1, 1], 'dilation': [1, 1], 'padding': [1, 1, 1, 1], 'layout': 'NCHW', 'ceil_mode': 0, 'count_include_pad': 0}
  }
}
layer {
  name:"Node_292"
  type:"const"
  top:"Node_292"
  layer_param {
    idx:292
    out_0 {name:"Node_292:0",dtype:float32,shape:[64, 256, 1, 1]}
  }
}
layer {
  name:"Node_293"
  type:"nn_conv2d"
  top:"Node_293"
  bottom:"Node_291"
  bottom:"Node_292"
  layer_param {
    idx:293
    in_0 {name:"Node_291:0",dtype:float32,shape:[1, 256, 35, 35]}
    in_1 {name:"Node_292:0",dtype:float32,shape:[64, 256, 1, 1]}
    out_0 {name:"Node_293:0",dtype:float32,shape:[1, 64, 35, 35]}
    attrs {'strides': [1, 1], 'padding': [0, 0, 0, 0], 'dilation': [1, 1], 'groups': 1, 'channels': 64, 'kernel_size': [1, 1], 'data_layout': 'NCHW', 'kernel_layout': 'OIHW', 'out_layout': '', 'out_dtype': ''}
  }
}
layer {
  name:"Node_294"
  type:"const"
  top:"Node_294"
  layer_param {
    idx:294
    out_0 {name:"Node_294:0",dtype:float32,shape:[64]}
  }
}
layer {
  name:"Node_295"
  type:"const"
  top:"Node_295"
  layer_param {
    idx:295
    out_0 {name:"Node_295:0",dtype:float32,shape:[64]}
  }
}
layer {
  name:"Node_296"
  type:"const"
  top:"Node_296"
  layer_param {
    idx:296
    out_0 {name:"Node_296:0",dtype:float32,shape:[64]}
  }
}
layer {
  name:"Node_297"
  type:"const"
  top:"Node_297"
  layer_param {
    idx:297
    out_0 {name:"Node_297:0",dtype:float32,shape:[64]}
  }
}
layer {
  name:"Node_298"
  type:"nn_batch_norm"
  top:"Node_298"
  bottom:"Node_293"
  bottom:"Node_294"
  bottom:"Node_295"
  bottom:"Node_296"
  bottom:"Node_297"
  layer_param {
    idx:298
    in_0 {name:"Node_293:0",dtype:float32,shape:[1, 64, 35, 35]}
    in_1 {name:"Node_294:0",dtype:float32,shape:[64]}
    in_2 {name:"Node_295:0",dtype:float32,shape:[64]}
    in_3 {name:"Node_296:0",dtype:float32,shape:[64]}
    in_4 {name:"Node_297:0",dtype:float32,shape:[64]}
    out_0 {name:"Node_298:0",dtype:float32,shape:[1, 64, 35, 35]}
    out_1 {name:"Node_298:1",dtype:float32,shape:[64]}
    out_2 {name:"Node_298:2",dtype:float32,shape:[64]}
    attrs {'axis': 1, 'epsilon': 0.0010000000474974513, 'center': 1, 'scale': 0}
  }
}
layer {
  name:"Node_300"
  type:"nn_relu"
  top:"Node_300"
  bottom:"Node_298"
  layer_param {
    idx:300
    in_0 {name:"Node_298:0",dtype:float32,shape:[1, 64, 35, 35]}
    out_0 {name:"Node_300:0",dtype:float32,shape:[1, 64, 35, 35]}
  }
}
layer {
  name:"Node_302"
  type:"concatenate"
  top:"Node_302"
  bottom:"Node_223"
  bottom:"Node_248"
  bottom:"Node_285"
  bottom:"Node_300"
  layer_param {
    idx:302
    in_0 {name:"Node_223:0",dtype:float32,shape:[1, 64, 35, 35]}
    in_1 {name:"Node_248:0",dtype:float32,shape:[1, 64, 35, 35]}
    in_2 {name:"Node_285:0",dtype:float32,shape:[1, 96, 35, 35]}
    in_3 {name:"Node_300:0",dtype:float32,shape:[1, 64, 35, 35]}
    out_0 {name:"Node_302:0",dtype:float32,shape:[1, 288, 35, 35]}
    attrs {'axis': 1}
  }
}
layer {
  name:"Node_303"
  type:"const"
  top:"Node_303"
  layer_param {
    idx:303
    out_0 {name:"Node_303:0",dtype:float32,shape:[64, 288, 1, 1]}
  }
}
layer {
  name:"Node_304"
  type:"nn_conv2d"
  top:"Node_304"
  bottom:"Node_302"
  bottom:"Node_303"
  layer_param {
    idx:304
    in_0 {name:"Node_302:0",dtype:float32,shape:[1, 288, 35, 35]}
    in_1 {name:"Node_303:0",dtype:float32,shape:[64, 288, 1, 1]}
    out_0 {name:"Node_304:0",dtype:float32,shape:[1, 64, 35, 35]}
    attrs {'strides': [1, 1], 'padding': [0, 0, 0, 0], 'dilation': [1, 1], 'groups': 1, 'channels': 64, 'kernel_size': [1, 1], 'data_layout': 'NCHW', 'kernel_layout': 'OIHW', 'out_layout': '', 'out_dtype': ''}
  }
}
layer {
  name:"Node_305"
  type:"const"
  top:"Node_305"
  layer_param {
    idx:305
    out_0 {name:"Node_305:0",dtype:float32,shape:[64]}
  }
}
layer {
  name:"Node_306"
  type:"const"
  top:"Node_306"
  layer_param {
    idx:306
    out_0 {name:"Node_306:0",dtype:float32,shape:[64]}
  }
}
layer {
  name:"Node_307"
  type:"const"
  top:"Node_307"
  layer_param {
    idx:307
    out_0 {name:"Node_307:0",dtype:float32,shape:[64]}
  }
}
layer {
  name:"Node_308"
  type:"const"
  top:"Node_308"
  layer_param {
    idx:308
    out_0 {name:"Node_308:0",dtype:float32,shape:[64]}
  }
}
layer {
  name:"Node_309"
  type:"nn_batch_norm"
  top:"Node_309"
  bottom:"Node_304"
  bottom:"Node_305"
  bottom:"Node_306"
  bottom:"Node_307"
  bottom:"Node_308"
  layer_param {
    idx:309
    in_0 {name:"Node_304:0",dtype:float32,shape:[1, 64, 35, 35]}
    in_1 {name:"Node_305:0",dtype:float32,shape:[64]}
    in_2 {name:"Node_306:0",dtype:float32,shape:[64]}
    in_3 {name:"Node_307:0",dtype:float32,shape:[64]}
    in_4 {name:"Node_308:0",dtype:float32,shape:[64]}
    out_0 {name:"Node_309:0",dtype:float32,shape:[1, 64, 35, 35]}
    out_1 {name:"Node_309:1",dtype:float32,shape:[64]}
    out_2 {name:"Node_309:2",dtype:float32,shape:[64]}
    attrs {'axis': 1, 'epsilon': 0.0010000000474974513, 'center': 1, 'scale': 0}
  }
}
layer {
  name:"Node_311"
  type:"nn_relu"
  top:"Node_311"
  bottom:"Node_309"
  layer_param {
    idx:311
    in_0 {name:"Node_309:0",dtype:float32,shape:[1, 64, 35, 35]}
    out_0 {name:"Node_311:0",dtype:float32,shape:[1, 64, 35, 35]}
  }
}
layer {
  name:"Node_319"
  type:"const"
  top:"Node_319"
  layer_param {
    idx:319
    out_0 {name:"Node_319:0",dtype:float32,shape:[48, 288, 1, 1]}
  }
}
layer {
  name:"Node_320"
  type:"nn_conv2d"
  top:"Node_320"
  bottom:"Node_302"
  bottom:"Node_319"
  layer_param {
    idx:320
    in_0 {name:"Node_302:0",dtype:float32,shape:[1, 288, 35, 35]}
    in_1 {name:"Node_319:0",dtype:float32,shape:[48, 288, 1, 1]}
    out_0 {name:"Node_320:0",dtype:float32,shape:[1, 48, 35, 35]}
    attrs {'strides': [1, 1], 'padding': [0, 0, 0, 0], 'dilation': [1, 1], 'groups': 1, 'channels': 48, 'kernel_size': [1, 1], 'data_layout': 'NCHW', 'kernel_layout': 'OIHW', 'out_layout': '', 'out_dtype': ''}
  }
}
layer {
  name:"Node_321"
  type:"const"
  top:"Node_321"
  layer_param {
    idx:321
    out_0 {name:"Node_321:0",dtype:float32,shape:[48]}
  }
}
layer {
  name:"Node_322"
  type:"const"
  top:"Node_322"
  layer_param {
    idx:322
    out_0 {name:"Node_322:0",dtype:float32,shape:[48]}
  }
}
layer {
  name:"Node_323"
  type:"const"
  top:"Node_323"
  layer_param {
    idx:323
    out_0 {name:"Node_323:0",dtype:float32,shape:[48]}
  }
}
layer {
  name:"Node_324"
  type:"const"
  top:"Node_324"
  layer_param {
    idx:324
    out_0 {name:"Node_324:0",dtype:float32,shape:[48]}
  }
}
layer {
  name:"Node_325"
  type:"nn_batch_norm"
  top:"Node_325"
  bottom:"Node_320"
  bottom:"Node_321"
  bottom:"Node_322"
  bottom:"Node_323"
  bottom:"Node_324"
  layer_param {
    idx:325
    in_0 {name:"Node_320:0",dtype:float32,shape:[1, 48, 35, 35]}
    in_1 {name:"Node_321:0",dtype:float32,shape:[48]}
    in_2 {name:"Node_322:0",dtype:float32,shape:[48]}
    in_3 {name:"Node_323:0",dtype:float32,shape:[48]}
    in_4 {name:"Node_324:0",dtype:float32,shape:[48]}
    out_0 {name:"Node_325:0",dtype:float32,shape:[1, 48, 35, 35]}
    out_1 {name:"Node_325:1",dtype:float32,shape:[48]}
    out_2 {name:"Node_325:2",dtype:float32,shape:[48]}
    attrs {'axis': 1, 'epsilon': 0.0010000000474974513, 'center': 1, 'scale': 0}
  }
}
layer {
  name:"Node_327"
  type:"nn_relu"
  top:"Node_327"
  bottom:"Node_325"
  layer_param {
    idx:327
    in_0 {name:"Node_325:0",dtype:float32,shape:[1, 48, 35, 35]}
    out_0 {name:"Node_327:0",dtype:float32,shape:[1, 48, 35, 35]}
  }
}
layer {
  name:"Node_328"
  type:"const"
  top:"Node_328"
  layer_param {
    idx:328
    out_0 {name:"Node_328:0",dtype:float32,shape:[64, 48, 5, 5]}
  }
}
layer {
  name:"Node_329"
  type:"nn_conv2d"
  top:"Node_329"
  bottom:"Node_327"
  bottom:"Node_328"
  layer_param {
    idx:329
    in_0 {name:"Node_327:0",dtype:float32,shape:[1, 48, 35, 35]}
    in_1 {name:"Node_328:0",dtype:float32,shape:[64, 48, 5, 5]}
    out_0 {name:"Node_329:0",dtype:float32,shape:[1, 64, 35, 35]}
    attrs {'strides': [1, 1], 'padding': [2, 2, 2, 2], 'dilation': [1, 1], 'groups': 1, 'channels': 64, 'kernel_size': [5, 5], 'data_layout': 'NCHW', 'kernel_layout': 'OIHW', 'out_layout': '', 'out_dtype': ''}
  }
}
layer {
  name:"Node_330"
  type:"const"
  top:"Node_330"
  layer_param {
    idx:330
    out_0 {name:"Node_330:0",dtype:float32,shape:[64]}
  }
}
layer {
  name:"Node_331"
  type:"const"
  top:"Node_331"
  layer_param {
    idx:331
    out_0 {name:"Node_331:0",dtype:float32,shape:[64]}
  }
}
layer {
  name:"Node_332"
  type:"const"
  top:"Node_332"
  layer_param {
    idx:332
    out_0 {name:"Node_332:0",dtype:float32,shape:[64]}
  }
}
layer {
  name:"Node_333"
  type:"const"
  top:"Node_333"
  layer_param {
    idx:333
    out_0 {name:"Node_333:0",dtype:float32,shape:[64]}
  }
}
layer {
  name:"Node_334"
  type:"nn_batch_norm"
  top:"Node_334"
  bottom:"Node_329"
  bottom:"Node_330"
  bottom:"Node_331"
  bottom:"Node_332"
  bottom:"Node_333"
  layer_param {
    idx:334
    in_0 {name:"Node_329:0",dtype:float32,shape:[1, 64, 35, 35]}
    in_1 {name:"Node_330:0",dtype:float32,shape:[64]}
    in_2 {name:"Node_331:0",dtype:float32,shape:[64]}
    in_3 {name:"Node_332:0",dtype:float32,shape:[64]}
    in_4 {name:"Node_333:0",dtype:float32,shape:[64]}
    out_0 {name:"Node_334:0",dtype:float32,shape:[1, 64, 35, 35]}
    out_1 {name:"Node_334:1",dtype:float32,shape:[64]}
    out_2 {name:"Node_334:2",dtype:float32,shape:[64]}
    attrs {'axis': 1, 'epsilon': 0.0010000000474974513, 'center': 1, 'scale': 0}
  }
}
layer {
  name:"Node_336"
  type:"nn_relu"
  top:"Node_336"
  bottom:"Node_334"
  layer_param {
    idx:336
    in_0 {name:"Node_334:0",dtype:float32,shape:[1, 64, 35, 35]}
    out_0 {name:"Node_336:0",dtype:float32,shape:[1, 64, 35, 35]}
  }
}
layer {
  name:"Node_347"
  type:"const"
  top:"Node_347"
  layer_param {
    idx:347
    out_0 {name:"Node_347:0",dtype:float32,shape:[64, 288, 1, 1]}
  }
}
layer {
  name:"Node_348"
  type:"nn_conv2d"
  top:"Node_348"
  bottom:"Node_302"
  bottom:"Node_347"
  layer_param {
    idx:348
    in_0 {name:"Node_302:0",dtype:float32,shape:[1, 288, 35, 35]}
    in_1 {name:"Node_347:0",dtype:float32,shape:[64, 288, 1, 1]}
    out_0 {name:"Node_348:0",dtype:float32,shape:[1, 64, 35, 35]}
    attrs {'strides': [1, 1], 'padding': [0, 0, 0, 0], 'dilation': [1, 1], 'groups': 1, 'channels': 64, 'kernel_size': [1, 1], 'data_layout': 'NCHW', 'kernel_layout': 'OIHW', 'out_layout': '', 'out_dtype': ''}
  }
}
layer {
  name:"Node_349"
  type:"const"
  top:"Node_349"
  layer_param {
    idx:349
    out_0 {name:"Node_349:0",dtype:float32,shape:[64]}
  }
}
layer {
  name:"Node_350"
  type:"const"
  top:"Node_350"
  layer_param {
    idx:350
    out_0 {name:"Node_350:0",dtype:float32,shape:[64]}
  }
}
layer {
  name:"Node_351"
  type:"const"
  top:"Node_351"
  layer_param {
    idx:351
    out_0 {name:"Node_351:0",dtype:float32,shape:[64]}
  }
}
layer {
  name:"Node_352"
  type:"const"
  top:"Node_352"
  layer_param {
    idx:352
    out_0 {name:"Node_352:0",dtype:float32,shape:[64]}
  }
}
layer {
  name:"Node_353"
  type:"nn_batch_norm"
  top:"Node_353"
  bottom:"Node_348"
  bottom:"Node_349"
  bottom:"Node_350"
  bottom:"Node_351"
  bottom:"Node_352"
  layer_param {
    idx:353
    in_0 {name:"Node_348:0",dtype:float32,shape:[1, 64, 35, 35]}
    in_1 {name:"Node_349:0",dtype:float32,shape:[64]}
    in_2 {name:"Node_350:0",dtype:float32,shape:[64]}
    in_3 {name:"Node_351:0",dtype:float32,shape:[64]}
    in_4 {name:"Node_352:0",dtype:float32,shape:[64]}
    out_0 {name:"Node_353:0",dtype:float32,shape:[1, 64, 35, 35]}
    out_1 {name:"Node_353:1",dtype:float32,shape:[64]}
    out_2 {name:"Node_353:2",dtype:float32,shape:[64]}
    attrs {'axis': 1, 'epsilon': 0.0010000000474974513, 'center': 1, 'scale': 0}
  }
}
layer {
  name:"Node_355"
  type:"nn_relu"
  top:"Node_355"
  bottom:"Node_353"
  layer_param {
    idx:355
    in_0 {name:"Node_353:0",dtype:float32,shape:[1, 64, 35, 35]}
    out_0 {name:"Node_355:0",dtype:float32,shape:[1, 64, 35, 35]}
  }
}
layer {
  name:"Node_356"
  type:"const"
  top:"Node_356"
  layer_param {
    idx:356
    out_0 {name:"Node_356:0",dtype:float32,shape:[96, 64, 3, 3]}
  }
}
layer {
  name:"Node_357"
  type:"nn_conv2d"
  top:"Node_357"
  bottom:"Node_355"
  bottom:"Node_356"
  layer_param {
    idx:357
    in_0 {name:"Node_355:0",dtype:float32,shape:[1, 64, 35, 35]}
    in_1 {name:"Node_356:0",dtype:float32,shape:[96, 64, 3, 3]}
    out_0 {name:"Node_357:0",dtype:float32,shape:[1, 96, 35, 35]}
    attrs {'strides': [1, 1], 'padding': [1, 1, 1, 1], 'dilation': [1, 1], 'groups': 1, 'channels': 96, 'kernel_size': [3, 3], 'data_layout': 'NCHW', 'kernel_layout': 'OIHW', 'out_layout': '', 'out_dtype': ''}
  }
}
layer {
  name:"Node_358"
  type:"const"
  top:"Node_358"
  layer_param {
    idx:358
    out_0 {name:"Node_358:0",dtype:float32,shape:[96]}
  }
}
layer {
  name:"Node_359"
  type:"const"
  top:"Node_359"
  layer_param {
    idx:359
    out_0 {name:"Node_359:0",dtype:float32,shape:[96]}
  }
}
layer {
  name:"Node_360"
  type:"const"
  top:"Node_360"
  layer_param {
    idx:360
    out_0 {name:"Node_360:0",dtype:float32,shape:[96]}
  }
}
layer {
  name:"Node_361"
  type:"const"
  top:"Node_361"
  layer_param {
    idx:361
    out_0 {name:"Node_361:0",dtype:float32,shape:[96]}
  }
}
layer {
  name:"Node_362"
  type:"nn_batch_norm"
  top:"Node_362"
  bottom:"Node_357"
  bottom:"Node_358"
  bottom:"Node_359"
  bottom:"Node_360"
  bottom:"Node_361"
  layer_param {
    idx:362
    in_0 {name:"Node_357:0",dtype:float32,shape:[1, 96, 35, 35]}
    in_1 {name:"Node_358:0",dtype:float32,shape:[96]}
    in_2 {name:"Node_359:0",dtype:float32,shape:[96]}
    in_3 {name:"Node_360:0",dtype:float32,shape:[96]}
    in_4 {name:"Node_361:0",dtype:float32,shape:[96]}
    out_0 {name:"Node_362:0",dtype:float32,shape:[1, 96, 35, 35]}
    out_1 {name:"Node_362:1",dtype:float32,shape:[96]}
    out_2 {name:"Node_362:2",dtype:float32,shape:[96]}
    attrs {'axis': 1, 'epsilon': 0.0010000000474974513, 'center': 1, 'scale': 0}
  }
}
layer {
  name:"Node_364"
  type:"nn_relu"
  top:"Node_364"
  bottom:"Node_362"
  layer_param {
    idx:364
    in_0 {name:"Node_362:0",dtype:float32,shape:[1, 96, 35, 35]}
    out_0 {name:"Node_364:0",dtype:float32,shape:[1, 96, 35, 35]}
  }
}
layer {
  name:"Node_365"
  type:"const"
  top:"Node_365"
  layer_param {
    idx:365
    out_0 {name:"Node_365:0",dtype:float32,shape:[96, 96, 3, 3]}
  }
}
layer {
  name:"Node_366"
  type:"nn_conv2d"
  top:"Node_366"
  bottom:"Node_364"
  bottom:"Node_365"
  layer_param {
    idx:366
    in_0 {name:"Node_364:0",dtype:float32,shape:[1, 96, 35, 35]}
    in_1 {name:"Node_365:0",dtype:float32,shape:[96, 96, 3, 3]}
    out_0 {name:"Node_366:0",dtype:float32,shape:[1, 96, 35, 35]}
    attrs {'strides': [1, 1], 'padding': [1, 1, 1, 1], 'dilation': [1, 1], 'groups': 1, 'channels': 96, 'kernel_size': [3, 3], 'data_layout': 'NCHW', 'kernel_layout': 'OIHW', 'out_layout': '', 'out_dtype': ''}
  }
}
layer {
  name:"Node_367"
  type:"const"
  top:"Node_367"
  layer_param {
    idx:367
    out_0 {name:"Node_367:0",dtype:float32,shape:[96]}
  }
}
layer {
  name:"Node_368"
  type:"const"
  top:"Node_368"
  layer_param {
    idx:368
    out_0 {name:"Node_368:0",dtype:float32,shape:[96]}
  }
}
layer {
  name:"Node_369"
  type:"const"
  top:"Node_369"
  layer_param {
    idx:369
    out_0 {name:"Node_369:0",dtype:float32,shape:[96]}
  }
}
layer {
  name:"Node_370"
  type:"const"
  top:"Node_370"
  layer_param {
    idx:370
    out_0 {name:"Node_370:0",dtype:float32,shape:[96]}
  }
}
layer {
  name:"Node_371"
  type:"nn_batch_norm"
  top:"Node_371"
  bottom:"Node_366"
  bottom:"Node_367"
  bottom:"Node_368"
  bottom:"Node_369"
  bottom:"Node_370"
  layer_param {
    idx:371
    in_0 {name:"Node_366:0",dtype:float32,shape:[1, 96, 35, 35]}
    in_1 {name:"Node_367:0",dtype:float32,shape:[96]}
    in_2 {name:"Node_368:0",dtype:float32,shape:[96]}
    in_3 {name:"Node_369:0",dtype:float32,shape:[96]}
    in_4 {name:"Node_370:0",dtype:float32,shape:[96]}
    out_0 {name:"Node_371:0",dtype:float32,shape:[1, 96, 35, 35]}
    out_1 {name:"Node_371:1",dtype:float32,shape:[96]}
    out_2 {name:"Node_371:2",dtype:float32,shape:[96]}
    attrs {'axis': 1, 'epsilon': 0.0010000000474974513, 'center': 1, 'scale': 0}
  }
}
layer {
  name:"Node_373"
  type:"nn_relu"
  top:"Node_373"
  bottom:"Node_371"
  layer_param {
    idx:373
    in_0 {name:"Node_371:0",dtype:float32,shape:[1, 96, 35, 35]}
    out_0 {name:"Node_373:0",dtype:float32,shape:[1, 96, 35, 35]}
  }
}
layer {
  name:"Node_379"
  type:"nn_avg_pool2d"
  top:"Node_379"
  bottom:"Node_302"
  layer_param {
    idx:379
    in_0 {name:"Node_302:0",dtype:float32,shape:[1, 288, 35, 35]}
    out_0 {name:"Node_379:0",dtype:float32,shape:[1, 288, 35, 35]}
    attrs {'pool_size': [3, 3], 'strides': [1, 1], 'dilation': [1, 1], 'padding': [1, 1, 1, 1], 'layout': 'NCHW', 'ceil_mode': 0, 'count_include_pad': 0}
  }
}
layer {
  name:"Node_380"
  type:"const"
  top:"Node_380"
  layer_param {
    idx:380
    out_0 {name:"Node_380:0",dtype:float32,shape:[64, 288, 1, 1]}
  }
}
layer {
  name:"Node_381"
  type:"nn_conv2d"
  top:"Node_381"
  bottom:"Node_379"
  bottom:"Node_380"
  layer_param {
    idx:381
    in_0 {name:"Node_379:0",dtype:float32,shape:[1, 288, 35, 35]}
    in_1 {name:"Node_380:0",dtype:float32,shape:[64, 288, 1, 1]}
    out_0 {name:"Node_381:0",dtype:float32,shape:[1, 64, 35, 35]}
    attrs {'strides': [1, 1], 'padding': [0, 0, 0, 0], 'dilation': [1, 1], 'groups': 1, 'channels': 64, 'kernel_size': [1, 1], 'data_layout': 'NCHW', 'kernel_layout': 'OIHW', 'out_layout': '', 'out_dtype': ''}
  }
}
layer {
  name:"Node_382"
  type:"const"
  top:"Node_382"
  layer_param {
    idx:382
    out_0 {name:"Node_382:0",dtype:float32,shape:[64]}
  }
}
layer {
  name:"Node_383"
  type:"const"
  top:"Node_383"
  layer_param {
    idx:383
    out_0 {name:"Node_383:0",dtype:float32,shape:[64]}
  }
}
layer {
  name:"Node_384"
  type:"const"
  top:"Node_384"
  layer_param {
    idx:384
    out_0 {name:"Node_384:0",dtype:float32,shape:[64]}
  }
}
layer {
  name:"Node_385"
  type:"const"
  top:"Node_385"
  layer_param {
    idx:385
    out_0 {name:"Node_385:0",dtype:float32,shape:[64]}
  }
}
layer {
  name:"Node_386"
  type:"nn_batch_norm"
  top:"Node_386"
  bottom:"Node_381"
  bottom:"Node_382"
  bottom:"Node_383"
  bottom:"Node_384"
  bottom:"Node_385"
  layer_param {
    idx:386
    in_0 {name:"Node_381:0",dtype:float32,shape:[1, 64, 35, 35]}
    in_1 {name:"Node_382:0",dtype:float32,shape:[64]}
    in_2 {name:"Node_383:0",dtype:float32,shape:[64]}
    in_3 {name:"Node_384:0",dtype:float32,shape:[64]}
    in_4 {name:"Node_385:0",dtype:float32,shape:[64]}
    out_0 {name:"Node_386:0",dtype:float32,shape:[1, 64, 35, 35]}
    out_1 {name:"Node_386:1",dtype:float32,shape:[64]}
    out_2 {name:"Node_386:2",dtype:float32,shape:[64]}
    attrs {'axis': 1, 'epsilon': 0.0010000000474974513, 'center': 1, 'scale': 0}
  }
}
layer {
  name:"Node_388"
  type:"nn_relu"
  top:"Node_388"
  bottom:"Node_386"
  layer_param {
    idx:388
    in_0 {name:"Node_386:0",dtype:float32,shape:[1, 64, 35, 35]}
    out_0 {name:"Node_388:0",dtype:float32,shape:[1, 64, 35, 35]}
  }
}
layer {
  name:"Node_390"
  type:"concatenate"
  top:"Node_390"
  bottom:"Node_311"
  bottom:"Node_336"
  bottom:"Node_373"
  bottom:"Node_388"
  layer_param {
    idx:390
    in_0 {name:"Node_311:0",dtype:float32,shape:[1, 64, 35, 35]}
    in_1 {name:"Node_336:0",dtype:float32,shape:[1, 64, 35, 35]}
    in_2 {name:"Node_373:0",dtype:float32,shape:[1, 96, 35, 35]}
    in_3 {name:"Node_388:0",dtype:float32,shape:[1, 64, 35, 35]}
    out_0 {name:"Node_390:0",dtype:float32,shape:[1, 288, 35, 35]}
    attrs {'axis': 1}
  }
}
layer {
  name:"Node_391"
  type:"const"
  top:"Node_391"
  layer_param {
    idx:391
    out_0 {name:"Node_391:0",dtype:float32,shape:[384, 288, 3, 3]}
  }
}
layer {
  name:"Node_392"
  type:"nn_conv2d"
  top:"Node_392"
  bottom:"Node_390"
  bottom:"Node_391"
  layer_param {
    idx:392
    in_0 {name:"Node_390:0",dtype:float32,shape:[1, 288, 35, 35]}
    in_1 {name:"Node_391:0",dtype:float32,shape:[384, 288, 3, 3]}
    out_0 {name:"Node_392:0",dtype:float32,shape:[1, 384, 17, 17]}
    attrs {'strides': [2, 2], 'padding': [0, 0, 0, 0], 'dilation': [1, 1], 'groups': 1, 'channels': 384, 'kernel_size': [3, 3], 'data_layout': 'NCHW', 'kernel_layout': 'OIHW', 'out_layout': '', 'out_dtype': ''}
  }
}
layer {
  name:"Node_393"
  type:"const"
  top:"Node_393"
  layer_param {
    idx:393
    out_0 {name:"Node_393:0",dtype:float32,shape:[384]}
  }
}
layer {
  name:"Node_394"
  type:"const"
  top:"Node_394"
  layer_param {
    idx:394
    out_0 {name:"Node_394:0",dtype:float32,shape:[384]}
  }
}
layer {
  name:"Node_395"
  type:"const"
  top:"Node_395"
  layer_param {
    idx:395
    out_0 {name:"Node_395:0",dtype:float32,shape:[384]}
  }
}
layer {
  name:"Node_396"
  type:"const"
  top:"Node_396"
  layer_param {
    idx:396
    out_0 {name:"Node_396:0",dtype:float32,shape:[384]}
  }
}
layer {
  name:"Node_397"
  type:"nn_batch_norm"
  top:"Node_397"
  bottom:"Node_392"
  bottom:"Node_393"
  bottom:"Node_394"
  bottom:"Node_395"
  bottom:"Node_396"
  layer_param {
    idx:397
    in_0 {name:"Node_392:0",dtype:float32,shape:[1, 384, 17, 17]}
    in_1 {name:"Node_393:0",dtype:float32,shape:[384]}
    in_2 {name:"Node_394:0",dtype:float32,shape:[384]}
    in_3 {name:"Node_395:0",dtype:float32,shape:[384]}
    in_4 {name:"Node_396:0",dtype:float32,shape:[384]}
    out_0 {name:"Node_397:0",dtype:float32,shape:[1, 384, 17, 17]}
    out_1 {name:"Node_397:1",dtype:float32,shape:[384]}
    out_2 {name:"Node_397:2",dtype:float32,shape:[384]}
    attrs {'axis': 1, 'epsilon': 0.0010000000474974513, 'center': 1, 'scale': 0}
  }
}
layer {
  name:"Node_399"
  type:"nn_relu"
  top:"Node_399"
  bottom:"Node_397"
  layer_param {
    idx:399
    in_0 {name:"Node_397:0",dtype:float32,shape:[1, 384, 17, 17]}
    out_0 {name:"Node_399:0",dtype:float32,shape:[1, 384, 17, 17]}
  }
}
layer {
  name:"Node_410"
  type:"const"
  top:"Node_410"
  layer_param {
    idx:410
    out_0 {name:"Node_410:0",dtype:float32,shape:[64, 288, 1, 1]}
  }
}
layer {
  name:"Node_411"
  type:"nn_conv2d"
  top:"Node_411"
  bottom:"Node_390"
  bottom:"Node_410"
  layer_param {
    idx:411
    in_0 {name:"Node_390:0",dtype:float32,shape:[1, 288, 35, 35]}
    in_1 {name:"Node_410:0",dtype:float32,shape:[64, 288, 1, 1]}
    out_0 {name:"Node_411:0",dtype:float32,shape:[1, 64, 35, 35]}
    attrs {'strides': [1, 1], 'padding': [0, 0, 0, 0], 'dilation': [1, 1], 'groups': 1, 'channels': 64, 'kernel_size': [1, 1], 'data_layout': 'NCHW', 'kernel_layout': 'OIHW', 'out_layout': '', 'out_dtype': ''}
  }
}
layer {
  name:"Node_412"
  type:"const"
  top:"Node_412"
  layer_param {
    idx:412
    out_0 {name:"Node_412:0",dtype:float32,shape:[64]}
  }
}
layer {
  name:"Node_413"
  type:"const"
  top:"Node_413"
  layer_param {
    idx:413
    out_0 {name:"Node_413:0",dtype:float32,shape:[64]}
  }
}
layer {
  name:"Node_414"
  type:"const"
  top:"Node_414"
  layer_param {
    idx:414
    out_0 {name:"Node_414:0",dtype:float32,shape:[64]}
  }
}
layer {
  name:"Node_415"
  type:"const"
  top:"Node_415"
  layer_param {
    idx:415
    out_0 {name:"Node_415:0",dtype:float32,shape:[64]}
  }
}
layer {
  name:"Node_416"
  type:"nn_batch_norm"
  top:"Node_416"
  bottom:"Node_411"
  bottom:"Node_412"
  bottom:"Node_413"
  bottom:"Node_414"
  bottom:"Node_415"
  layer_param {
    idx:416
    in_0 {name:"Node_411:0",dtype:float32,shape:[1, 64, 35, 35]}
    in_1 {name:"Node_412:0",dtype:float32,shape:[64]}
    in_2 {name:"Node_413:0",dtype:float32,shape:[64]}
    in_3 {name:"Node_414:0",dtype:float32,shape:[64]}
    in_4 {name:"Node_415:0",dtype:float32,shape:[64]}
    out_0 {name:"Node_416:0",dtype:float32,shape:[1, 64, 35, 35]}
    out_1 {name:"Node_416:1",dtype:float32,shape:[64]}
    out_2 {name:"Node_416:2",dtype:float32,shape:[64]}
    attrs {'axis': 1, 'epsilon': 0.0010000000474974513, 'center': 1, 'scale': 0}
  }
}
layer {
  name:"Node_418"
  type:"nn_relu"
  top:"Node_418"
  bottom:"Node_416"
  layer_param {
    idx:418
    in_0 {name:"Node_416:0",dtype:float32,shape:[1, 64, 35, 35]}
    out_0 {name:"Node_418:0",dtype:float32,shape:[1, 64, 35, 35]}
  }
}
layer {
  name:"Node_419"
  type:"const"
  top:"Node_419"
  layer_param {
    idx:419
    out_0 {name:"Node_419:0",dtype:float32,shape:[96, 64, 3, 3]}
  }
}
layer {
  name:"Node_420"
  type:"nn_conv2d"
  top:"Node_420"
  bottom:"Node_418"
  bottom:"Node_419"
  layer_param {
    idx:420
    in_0 {name:"Node_418:0",dtype:float32,shape:[1, 64, 35, 35]}
    in_1 {name:"Node_419:0",dtype:float32,shape:[96, 64, 3, 3]}
    out_0 {name:"Node_420:0",dtype:float32,shape:[1, 96, 35, 35]}
    attrs {'strides': [1, 1], 'padding': [1, 1, 1, 1], 'dilation': [1, 1], 'groups': 1, 'channels': 96, 'kernel_size': [3, 3], 'data_layout': 'NCHW', 'kernel_layout': 'OIHW', 'out_layout': '', 'out_dtype': ''}
  }
}
layer {
  name:"Node_421"
  type:"const"
  top:"Node_421"
  layer_param {
    idx:421
    out_0 {name:"Node_421:0",dtype:float32,shape:[96]}
  }
}
layer {
  name:"Node_422"
  type:"const"
  top:"Node_422"
  layer_param {
    idx:422
    out_0 {name:"Node_422:0",dtype:float32,shape:[96]}
  }
}
layer {
  name:"Node_423"
  type:"const"
  top:"Node_423"
  layer_param {
    idx:423
    out_0 {name:"Node_423:0",dtype:float32,shape:[96]}
  }
}
layer {
  name:"Node_424"
  type:"const"
  top:"Node_424"
  layer_param {
    idx:424
    out_0 {name:"Node_424:0",dtype:float32,shape:[96]}
  }
}
layer {
  name:"Node_425"
  type:"nn_batch_norm"
  top:"Node_425"
  bottom:"Node_420"
  bottom:"Node_421"
  bottom:"Node_422"
  bottom:"Node_423"
  bottom:"Node_424"
  layer_param {
    idx:425
    in_0 {name:"Node_420:0",dtype:float32,shape:[1, 96, 35, 35]}
    in_1 {name:"Node_421:0",dtype:float32,shape:[96]}
    in_2 {name:"Node_422:0",dtype:float32,shape:[96]}
    in_3 {name:"Node_423:0",dtype:float32,shape:[96]}
    in_4 {name:"Node_424:0",dtype:float32,shape:[96]}
    out_0 {name:"Node_425:0",dtype:float32,shape:[1, 96, 35, 35]}
    out_1 {name:"Node_425:1",dtype:float32,shape:[96]}
    out_2 {name:"Node_425:2",dtype:float32,shape:[96]}
    attrs {'axis': 1, 'epsilon': 0.0010000000474974513, 'center': 1, 'scale': 0}
  }
}
layer {
  name:"Node_427"
  type:"nn_relu"
  top:"Node_427"
  bottom:"Node_425"
  layer_param {
    idx:427
    in_0 {name:"Node_425:0",dtype:float32,shape:[1, 96, 35, 35]}
    out_0 {name:"Node_427:0",dtype:float32,shape:[1, 96, 35, 35]}
  }
}
layer {
  name:"Node_428"
  type:"const"
  top:"Node_428"
  layer_param {
    idx:428
    out_0 {name:"Node_428:0",dtype:float32,shape:[96, 96, 3, 3]}
  }
}
layer {
  name:"Node_429"
  type:"nn_conv2d"
  top:"Node_429"
  bottom:"Node_427"
  bottom:"Node_428"
  layer_param {
    idx:429
    in_0 {name:"Node_427:0",dtype:float32,shape:[1, 96, 35, 35]}
    in_1 {name:"Node_428:0",dtype:float32,shape:[96, 96, 3, 3]}
    out_0 {name:"Node_429:0",dtype:float32,shape:[1, 96, 17, 17]}
    attrs {'strides': [2, 2], 'padding': [0, 0, 0, 0], 'dilation': [1, 1], 'groups': 1, 'channels': 96, 'kernel_size': [3, 3], 'data_layout': 'NCHW', 'kernel_layout': 'OIHW', 'out_layout': '', 'out_dtype': ''}
  }
}
layer {
  name:"Node_430"
  type:"const"
  top:"Node_430"
  layer_param {
    idx:430
    out_0 {name:"Node_430:0",dtype:float32,shape:[96]}
  }
}
layer {
  name:"Node_431"
  type:"const"
  top:"Node_431"
  layer_param {
    idx:431
    out_0 {name:"Node_431:0",dtype:float32,shape:[96]}
  }
}
layer {
  name:"Node_432"
  type:"const"
  top:"Node_432"
  layer_param {
    idx:432
    out_0 {name:"Node_432:0",dtype:float32,shape:[96]}
  }
}
layer {
  name:"Node_433"
  type:"const"
  top:"Node_433"
  layer_param {
    idx:433
    out_0 {name:"Node_433:0",dtype:float32,shape:[96]}
  }
}
layer {
  name:"Node_434"
  type:"nn_batch_norm"
  top:"Node_434"
  bottom:"Node_429"
  bottom:"Node_430"
  bottom:"Node_431"
  bottom:"Node_432"
  bottom:"Node_433"
  layer_param {
    idx:434
    in_0 {name:"Node_429:0",dtype:float32,shape:[1, 96, 17, 17]}
    in_1 {name:"Node_430:0",dtype:float32,shape:[96]}
    in_2 {name:"Node_431:0",dtype:float32,shape:[96]}
    in_3 {name:"Node_432:0",dtype:float32,shape:[96]}
    in_4 {name:"Node_433:0",dtype:float32,shape:[96]}
    out_0 {name:"Node_434:0",dtype:float32,shape:[1, 96, 17, 17]}
    out_1 {name:"Node_434:1",dtype:float32,shape:[96]}
    out_2 {name:"Node_434:2",dtype:float32,shape:[96]}
    attrs {'axis': 1, 'epsilon': 0.0010000000474974513, 'center': 1, 'scale': 0}
  }
}
layer {
  name:"Node_436"
  type:"nn_relu"
  top:"Node_436"
  bottom:"Node_434"
  layer_param {
    idx:436
    in_0 {name:"Node_434:0",dtype:float32,shape:[1, 96, 17, 17]}
    out_0 {name:"Node_436:0",dtype:float32,shape:[1, 96, 17, 17]}
  }
}
layer {
  name:"Node_439"
  type:"nn_max_pool2d"
  top:"Node_439"
  bottom:"Node_390"
  layer_param {
    idx:439
    in_0 {name:"Node_390:0",dtype:float32,shape:[1, 288, 35, 35]}
    out_0 {name:"Node_439:0",dtype:float32,shape:[1, 288, 17, 17]}
    attrs {'pool_size': [3, 3], 'strides': [2, 2], 'dilation': [1, 1], 'padding': [0, 0, 0, 0], 'layout': 'NCHW', 'ceil_mode': 0}
  }
}
layer {
  name:"Node_441"
  type:"concatenate"
  top:"Node_441"
  bottom:"Node_399"
  bottom:"Node_436"
  bottom:"Node_439"
  layer_param {
    idx:441
    in_0 {name:"Node_399:0",dtype:float32,shape:[1, 384, 17, 17]}
    in_1 {name:"Node_436:0",dtype:float32,shape:[1, 96, 17, 17]}
    in_2 {name:"Node_439:0",dtype:float32,shape:[1, 288, 17, 17]}
    out_0 {name:"Node_441:0",dtype:float32,shape:[1, 768, 17, 17]}
    attrs {'axis': 1}
  }
}
layer {
  name:"Node_442"
  type:"const"
  top:"Node_442"
  layer_param {
    idx:442
    out_0 {name:"Node_442:0",dtype:float32,shape:[192, 768, 1, 1]}
  }
}
layer {
  name:"Node_443"
  type:"nn_conv2d"
  top:"Node_443"
  bottom:"Node_441"
  bottom:"Node_442"
  layer_param {
    idx:443
    in_0 {name:"Node_441:0",dtype:float32,shape:[1, 768, 17, 17]}
    in_1 {name:"Node_442:0",dtype:float32,shape:[192, 768, 1, 1]}
    out_0 {name:"Node_443:0",dtype:float32,shape:[1, 192, 17, 17]}
    attrs {'strides': [1, 1], 'padding': [0, 0, 0, 0], 'dilation': [1, 1], 'groups': 1, 'channels': 192, 'kernel_size': [1, 1], 'data_layout': 'NCHW', 'kernel_layout': 'OIHW', 'out_layout': '', 'out_dtype': ''}
  }
}
layer {
  name:"Node_444"
  type:"const"
  top:"Node_444"
  layer_param {
    idx:444
    out_0 {name:"Node_444:0",dtype:float32,shape:[192]}
  }
}
layer {
  name:"Node_445"
  type:"const"
  top:"Node_445"
  layer_param {
    idx:445
    out_0 {name:"Node_445:0",dtype:float32,shape:[192]}
  }
}
layer {
  name:"Node_446"
  type:"const"
  top:"Node_446"
  layer_param {
    idx:446
    out_0 {name:"Node_446:0",dtype:float32,shape:[192]}
  }
}
layer {
  name:"Node_447"
  type:"const"
  top:"Node_447"
  layer_param {
    idx:447
    out_0 {name:"Node_447:0",dtype:float32,shape:[192]}
  }
}
layer {
  name:"Node_448"
  type:"nn_batch_norm"
  top:"Node_448"
  bottom:"Node_443"
  bottom:"Node_444"
  bottom:"Node_445"
  bottom:"Node_446"
  bottom:"Node_447"
  layer_param {
    idx:448
    in_0 {name:"Node_443:0",dtype:float32,shape:[1, 192, 17, 17]}
    in_1 {name:"Node_444:0",dtype:float32,shape:[192]}
    in_2 {name:"Node_445:0",dtype:float32,shape:[192]}
    in_3 {name:"Node_446:0",dtype:float32,shape:[192]}
    in_4 {name:"Node_447:0",dtype:float32,shape:[192]}
    out_0 {name:"Node_448:0",dtype:float32,shape:[1, 192, 17, 17]}
    out_1 {name:"Node_448:1",dtype:float32,shape:[192]}
    out_2 {name:"Node_448:2",dtype:float32,shape:[192]}
    attrs {'axis': 1, 'epsilon': 0.0010000000474974513, 'center': 1, 'scale': 0}
  }
}
layer {
  name:"Node_450"
  type:"nn_relu"
  top:"Node_450"
  bottom:"Node_448"
  layer_param {
    idx:450
    in_0 {name:"Node_448:0",dtype:float32,shape:[1, 192, 17, 17]}
    out_0 {name:"Node_450:0",dtype:float32,shape:[1, 192, 17, 17]}
  }
}
layer {
  name:"Node_461"
  type:"const"
  top:"Node_461"
  layer_param {
    idx:461
    out_0 {name:"Node_461:0",dtype:float32,shape:[128, 768, 1, 1]}
  }
}
layer {
  name:"Node_462"
  type:"nn_conv2d"
  top:"Node_462"
  bottom:"Node_441"
  bottom:"Node_461"
  layer_param {
    idx:462
    in_0 {name:"Node_441:0",dtype:float32,shape:[1, 768, 17, 17]}
    in_1 {name:"Node_461:0",dtype:float32,shape:[128, 768, 1, 1]}
    out_0 {name:"Node_462:0",dtype:float32,shape:[1, 128, 17, 17]}
    attrs {'strides': [1, 1], 'padding': [0, 0, 0, 0], 'dilation': [1, 1], 'groups': 1, 'channels': 128, 'kernel_size': [1, 1], 'data_layout': 'NCHW', 'kernel_layout': 'OIHW', 'out_layout': '', 'out_dtype': ''}
  }
}
layer {
  name:"Node_463"
  type:"const"
  top:"Node_463"
  layer_param {
    idx:463
    out_0 {name:"Node_463:0",dtype:float32,shape:[128]}
  }
}
layer {
  name:"Node_464"
  type:"const"
  top:"Node_464"
  layer_param {
    idx:464
    out_0 {name:"Node_464:0",dtype:float32,shape:[128]}
  }
}
layer {
  name:"Node_465"
  type:"const"
  top:"Node_465"
  layer_param {
    idx:465
    out_0 {name:"Node_465:0",dtype:float32,shape:[128]}
  }
}
layer {
  name:"Node_466"
  type:"const"
  top:"Node_466"
  layer_param {
    idx:466
    out_0 {name:"Node_466:0",dtype:float32,shape:[128]}
  }
}
layer {
  name:"Node_467"
  type:"nn_batch_norm"
  top:"Node_467"
  bottom:"Node_462"
  bottom:"Node_463"
  bottom:"Node_464"
  bottom:"Node_465"
  bottom:"Node_466"
  layer_param {
    idx:467
    in_0 {name:"Node_462:0",dtype:float32,shape:[1, 128, 17, 17]}
    in_1 {name:"Node_463:0",dtype:float32,shape:[128]}
    in_2 {name:"Node_464:0",dtype:float32,shape:[128]}
    in_3 {name:"Node_465:0",dtype:float32,shape:[128]}
    in_4 {name:"Node_466:0",dtype:float32,shape:[128]}
    out_0 {name:"Node_467:0",dtype:float32,shape:[1, 128, 17, 17]}
    out_1 {name:"Node_467:1",dtype:float32,shape:[128]}
    out_2 {name:"Node_467:2",dtype:float32,shape:[128]}
    attrs {'axis': 1, 'epsilon': 0.0010000000474974513, 'center': 1, 'scale': 0}
  }
}
layer {
  name:"Node_469"
  type:"nn_relu"
  top:"Node_469"
  bottom:"Node_467"
  layer_param {
    idx:469
    in_0 {name:"Node_467:0",dtype:float32,shape:[1, 128, 17, 17]}
    out_0 {name:"Node_469:0",dtype:float32,shape:[1, 128, 17, 17]}
  }
}
layer {
  name:"Node_470"
  type:"const"
  top:"Node_470"
  layer_param {
    idx:470
    out_0 {name:"Node_470:0",dtype:float32,shape:[128, 128, 1, 7]}
  }
}
layer {
  name:"Node_471"
  type:"nn_conv2d"
  top:"Node_471"
  bottom:"Node_469"
  bottom:"Node_470"
  layer_param {
    idx:471
    in_0 {name:"Node_469:0",dtype:float32,shape:[1, 128, 17, 17]}
    in_1 {name:"Node_470:0",dtype:float32,shape:[128, 128, 1, 7]}
    out_0 {name:"Node_471:0",dtype:float32,shape:[1, 128, 17, 17]}
    attrs {'strides': [1, 1], 'padding': [0, 3, 0, 3], 'dilation': [1, 1], 'groups': 1, 'channels': 128, 'kernel_size': [1, 7], 'data_layout': 'NCHW', 'kernel_layout': 'OIHW', 'out_layout': '', 'out_dtype': ''}
  }
}
layer {
  name:"Node_472"
  type:"const"
  top:"Node_472"
  layer_param {
    idx:472
    out_0 {name:"Node_472:0",dtype:float32,shape:[128]}
  }
}
layer {
  name:"Node_473"
  type:"const"
  top:"Node_473"
  layer_param {
    idx:473
    out_0 {name:"Node_473:0",dtype:float32,shape:[128]}
  }
}
layer {
  name:"Node_474"
  type:"const"
  top:"Node_474"
  layer_param {
    idx:474
    out_0 {name:"Node_474:0",dtype:float32,shape:[128]}
  }
}
layer {
  name:"Node_475"
  type:"const"
  top:"Node_475"
  layer_param {
    idx:475
    out_0 {name:"Node_475:0",dtype:float32,shape:[128]}
  }
}
layer {
  name:"Node_476"
  type:"nn_batch_norm"
  top:"Node_476"
  bottom:"Node_471"
  bottom:"Node_472"
  bottom:"Node_473"
  bottom:"Node_474"
  bottom:"Node_475"
  layer_param {
    idx:476
    in_0 {name:"Node_471:0",dtype:float32,shape:[1, 128, 17, 17]}
    in_1 {name:"Node_472:0",dtype:float32,shape:[128]}
    in_2 {name:"Node_473:0",dtype:float32,shape:[128]}
    in_3 {name:"Node_474:0",dtype:float32,shape:[128]}
    in_4 {name:"Node_475:0",dtype:float32,shape:[128]}
    out_0 {name:"Node_476:0",dtype:float32,shape:[1, 128, 17, 17]}
    out_1 {name:"Node_476:1",dtype:float32,shape:[128]}
    out_2 {name:"Node_476:2",dtype:float32,shape:[128]}
    attrs {'axis': 1, 'epsilon': 0.0010000000474974513, 'center': 1, 'scale': 0}
  }
}
layer {
  name:"Node_478"
  type:"nn_relu"
  top:"Node_478"
  bottom:"Node_476"
  layer_param {
    idx:478
    in_0 {name:"Node_476:0",dtype:float32,shape:[1, 128, 17, 17]}
    out_0 {name:"Node_478:0",dtype:float32,shape:[1, 128, 17, 17]}
  }
}
layer {
  name:"Node_479"
  type:"const"
  top:"Node_479"
  layer_param {
    idx:479
    out_0 {name:"Node_479:0",dtype:float32,shape:[192, 128, 7, 1]}
  }
}
layer {
  name:"Node_480"
  type:"nn_conv2d"
  top:"Node_480"
  bottom:"Node_478"
  bottom:"Node_479"
  layer_param {
    idx:480
    in_0 {name:"Node_478:0",dtype:float32,shape:[1, 128, 17, 17]}
    in_1 {name:"Node_479:0",dtype:float32,shape:[192, 128, 7, 1]}
    out_0 {name:"Node_480:0",dtype:float32,shape:[1, 192, 17, 17]}
    attrs {'strides': [1, 1], 'padding': [3, 0, 3, 0], 'dilation': [1, 1], 'groups': 1, 'channels': 192, 'kernel_size': [7, 1], 'data_layout': 'NCHW', 'kernel_layout': 'OIHW', 'out_layout': '', 'out_dtype': ''}
  }
}
layer {
  name:"Node_481"
  type:"const"
  top:"Node_481"
  layer_param {
    idx:481
    out_0 {name:"Node_481:0",dtype:float32,shape:[192]}
  }
}
layer {
  name:"Node_482"
  type:"const"
  top:"Node_482"
  layer_param {
    idx:482
    out_0 {name:"Node_482:0",dtype:float32,shape:[192]}
  }
}
layer {
  name:"Node_483"
  type:"const"
  top:"Node_483"
  layer_param {
    idx:483
    out_0 {name:"Node_483:0",dtype:float32,shape:[192]}
  }
}
layer {
  name:"Node_484"
  type:"const"
  top:"Node_484"
  layer_param {
    idx:484
    out_0 {name:"Node_484:0",dtype:float32,shape:[192]}
  }
}
layer {
  name:"Node_485"
  type:"nn_batch_norm"
  top:"Node_485"
  bottom:"Node_480"
  bottom:"Node_481"
  bottom:"Node_482"
  bottom:"Node_483"
  bottom:"Node_484"
  layer_param {
    idx:485
    in_0 {name:"Node_480:0",dtype:float32,shape:[1, 192, 17, 17]}
    in_1 {name:"Node_481:0",dtype:float32,shape:[192]}
    in_2 {name:"Node_482:0",dtype:float32,shape:[192]}
    in_3 {name:"Node_483:0",dtype:float32,shape:[192]}
    in_4 {name:"Node_484:0",dtype:float32,shape:[192]}
    out_0 {name:"Node_485:0",dtype:float32,shape:[1, 192, 17, 17]}
    out_1 {name:"Node_485:1",dtype:float32,shape:[192]}
    out_2 {name:"Node_485:2",dtype:float32,shape:[192]}
    attrs {'axis': 1, 'epsilon': 0.0010000000474974513, 'center': 1, 'scale': 0}
  }
}
layer {
  name:"Node_487"
  type:"nn_relu"
  top:"Node_487"
  bottom:"Node_485"
  layer_param {
    idx:487
    in_0 {name:"Node_485:0",dtype:float32,shape:[1, 192, 17, 17]}
    out_0 {name:"Node_487:0",dtype:float32,shape:[1, 192, 17, 17]}
  }
}
layer {
  name:"Node_504"
  type:"const"
  top:"Node_504"
  layer_param {
    idx:504
    out_0 {name:"Node_504:0",dtype:float32,shape:[128, 768, 1, 1]}
  }
}
layer {
  name:"Node_505"
  type:"nn_conv2d"
  top:"Node_505"
  bottom:"Node_441"
  bottom:"Node_504"
  layer_param {
    idx:505
    in_0 {name:"Node_441:0",dtype:float32,shape:[1, 768, 17, 17]}
    in_1 {name:"Node_504:0",dtype:float32,shape:[128, 768, 1, 1]}
    out_0 {name:"Node_505:0",dtype:float32,shape:[1, 128, 17, 17]}
    attrs {'strides': [1, 1], 'padding': [0, 0, 0, 0], 'dilation': [1, 1], 'groups': 1, 'channels': 128, 'kernel_size': [1, 1], 'data_layout': 'NCHW', 'kernel_layout': 'OIHW', 'out_layout': '', 'out_dtype': ''}
  }
}
layer {
  name:"Node_506"
  type:"const"
  top:"Node_506"
  layer_param {
    idx:506
    out_0 {name:"Node_506:0",dtype:float32,shape:[128]}
  }
}
layer {
  name:"Node_507"
  type:"const"
  top:"Node_507"
  layer_param {
    idx:507
    out_0 {name:"Node_507:0",dtype:float32,shape:[128]}
  }
}
layer {
  name:"Node_508"
  type:"const"
  top:"Node_508"
  layer_param {
    idx:508
    out_0 {name:"Node_508:0",dtype:float32,shape:[128]}
  }
}
layer {
  name:"Node_509"
  type:"const"
  top:"Node_509"
  layer_param {
    idx:509
    out_0 {name:"Node_509:0",dtype:float32,shape:[128]}
  }
}
layer {
  name:"Node_510"
  type:"nn_batch_norm"
  top:"Node_510"
  bottom:"Node_505"
  bottom:"Node_506"
  bottom:"Node_507"
  bottom:"Node_508"
  bottom:"Node_509"
  layer_param {
    idx:510
    in_0 {name:"Node_505:0",dtype:float32,shape:[1, 128, 17, 17]}
    in_1 {name:"Node_506:0",dtype:float32,shape:[128]}
    in_2 {name:"Node_507:0",dtype:float32,shape:[128]}
    in_3 {name:"Node_508:0",dtype:float32,shape:[128]}
    in_4 {name:"Node_509:0",dtype:float32,shape:[128]}
    out_0 {name:"Node_510:0",dtype:float32,shape:[1, 128, 17, 17]}
    out_1 {name:"Node_510:1",dtype:float32,shape:[128]}
    out_2 {name:"Node_510:2",dtype:float32,shape:[128]}
    attrs {'axis': 1, 'epsilon': 0.0010000000474974513, 'center': 1, 'scale': 0}
  }
}
layer {
  name:"Node_512"
  type:"nn_relu"
  top:"Node_512"
  bottom:"Node_510"
  layer_param {
    idx:512
    in_0 {name:"Node_510:0",dtype:float32,shape:[1, 128, 17, 17]}
    out_0 {name:"Node_512:0",dtype:float32,shape:[1, 128, 17, 17]}
  }
}
layer {
  name:"Node_513"
  type:"const"
  top:"Node_513"
  layer_param {
    idx:513
    out_0 {name:"Node_513:0",dtype:float32,shape:[128, 128, 7, 1]}
  }
}
layer {
  name:"Node_514"
  type:"nn_conv2d"
  top:"Node_514"
  bottom:"Node_512"
  bottom:"Node_513"
  layer_param {
    idx:514
    in_0 {name:"Node_512:0",dtype:float32,shape:[1, 128, 17, 17]}
    in_1 {name:"Node_513:0",dtype:float32,shape:[128, 128, 7, 1]}
    out_0 {name:"Node_514:0",dtype:float32,shape:[1, 128, 17, 17]}
    attrs {'strides': [1, 1], 'padding': [3, 0, 3, 0], 'dilation': [1, 1], 'groups': 1, 'channels': 128, 'kernel_size': [7, 1], 'data_layout': 'NCHW', 'kernel_layout': 'OIHW', 'out_layout': '', 'out_dtype': ''}
  }
}
layer {
  name:"Node_515"
  type:"const"
  top:"Node_515"
  layer_param {
    idx:515
    out_0 {name:"Node_515:0",dtype:float32,shape:[128]}
  }
}
layer {
  name:"Node_516"
  type:"const"
  top:"Node_516"
  layer_param {
    idx:516
    out_0 {name:"Node_516:0",dtype:float32,shape:[128]}
  }
}
layer {
  name:"Node_517"
  type:"const"
  top:"Node_517"
  layer_param {
    idx:517
    out_0 {name:"Node_517:0",dtype:float32,shape:[128]}
  }
}
layer {
  name:"Node_518"
  type:"const"
  top:"Node_518"
  layer_param {
    idx:518
    out_0 {name:"Node_518:0",dtype:float32,shape:[128]}
  }
}
layer {
  name:"Node_519"
  type:"nn_batch_norm"
  top:"Node_519"
  bottom:"Node_514"
  bottom:"Node_515"
  bottom:"Node_516"
  bottom:"Node_517"
  bottom:"Node_518"
  layer_param {
    idx:519
    in_0 {name:"Node_514:0",dtype:float32,shape:[1, 128, 17, 17]}
    in_1 {name:"Node_515:0",dtype:float32,shape:[128]}
    in_2 {name:"Node_516:0",dtype:float32,shape:[128]}
    in_3 {name:"Node_517:0",dtype:float32,shape:[128]}
    in_4 {name:"Node_518:0",dtype:float32,shape:[128]}
    out_0 {name:"Node_519:0",dtype:float32,shape:[1, 128, 17, 17]}
    out_1 {name:"Node_519:1",dtype:float32,shape:[128]}
    out_2 {name:"Node_519:2",dtype:float32,shape:[128]}
    attrs {'axis': 1, 'epsilon': 0.0010000000474974513, 'center': 1, 'scale': 0}
  }
}
layer {
  name:"Node_521"
  type:"nn_relu"
  top:"Node_521"
  bottom:"Node_519"
  layer_param {
    idx:521
    in_0 {name:"Node_519:0",dtype:float32,shape:[1, 128, 17, 17]}
    out_0 {name:"Node_521:0",dtype:float32,shape:[1, 128, 17, 17]}
  }
}
layer {
  name:"Node_522"
  type:"const"
  top:"Node_522"
  layer_param {
    idx:522
    out_0 {name:"Node_522:0",dtype:float32,shape:[128, 128, 1, 7]}
  }
}
layer {
  name:"Node_523"
  type:"nn_conv2d"
  top:"Node_523"
  bottom:"Node_521"
  bottom:"Node_522"
  layer_param {
    idx:523
    in_0 {name:"Node_521:0",dtype:float32,shape:[1, 128, 17, 17]}
    in_1 {name:"Node_522:0",dtype:float32,shape:[128, 128, 1, 7]}
    out_0 {name:"Node_523:0",dtype:float32,shape:[1, 128, 17, 17]}
    attrs {'strides': [1, 1], 'padding': [0, 3, 0, 3], 'dilation': [1, 1], 'groups': 1, 'channels': 128, 'kernel_size': [1, 7], 'data_layout': 'NCHW', 'kernel_layout': 'OIHW', 'out_layout': '', 'out_dtype': ''}
  }
}
layer {
  name:"Node_524"
  type:"const"
  top:"Node_524"
  layer_param {
    idx:524
    out_0 {name:"Node_524:0",dtype:float32,shape:[128]}
  }
}
layer {
  name:"Node_525"
  type:"const"
  top:"Node_525"
  layer_param {
    idx:525
    out_0 {name:"Node_525:0",dtype:float32,shape:[128]}
  }
}
layer {
  name:"Node_526"
  type:"const"
  top:"Node_526"
  layer_param {
    idx:526
    out_0 {name:"Node_526:0",dtype:float32,shape:[128]}
  }
}
layer {
  name:"Node_527"
  type:"const"
  top:"Node_527"
  layer_param {
    idx:527
    out_0 {name:"Node_527:0",dtype:float32,shape:[128]}
  }
}
layer {
  name:"Node_528"
  type:"nn_batch_norm"
  top:"Node_528"
  bottom:"Node_523"
  bottom:"Node_524"
  bottom:"Node_525"
  bottom:"Node_526"
  bottom:"Node_527"
  layer_param {
    idx:528
    in_0 {name:"Node_523:0",dtype:float32,shape:[1, 128, 17, 17]}
    in_1 {name:"Node_524:0",dtype:float32,shape:[128]}
    in_2 {name:"Node_525:0",dtype:float32,shape:[128]}
    in_3 {name:"Node_526:0",dtype:float32,shape:[128]}
    in_4 {name:"Node_527:0",dtype:float32,shape:[128]}
    out_0 {name:"Node_528:0",dtype:float32,shape:[1, 128, 17, 17]}
    out_1 {name:"Node_528:1",dtype:float32,shape:[128]}
    out_2 {name:"Node_528:2",dtype:float32,shape:[128]}
    attrs {'axis': 1, 'epsilon': 0.0010000000474974513, 'center': 1, 'scale': 0}
  }
}
layer {
  name:"Node_530"
  type:"nn_relu"
  top:"Node_530"
  bottom:"Node_528"
  layer_param {
    idx:530
    in_0 {name:"Node_528:0",dtype:float32,shape:[1, 128, 17, 17]}
    out_0 {name:"Node_530:0",dtype:float32,shape:[1, 128, 17, 17]}
  }
}
layer {
  name:"Node_531"
  type:"const"
  top:"Node_531"
  layer_param {
    idx:531
    out_0 {name:"Node_531:0",dtype:float32,shape:[128, 128, 7, 1]}
  }
}
layer {
  name:"Node_532"
  type:"nn_conv2d"
  top:"Node_532"
  bottom:"Node_530"
  bottom:"Node_531"
  layer_param {
    idx:532
    in_0 {name:"Node_530:0",dtype:float32,shape:[1, 128, 17, 17]}
    in_1 {name:"Node_531:0",dtype:float32,shape:[128, 128, 7, 1]}
    out_0 {name:"Node_532:0",dtype:float32,shape:[1, 128, 17, 17]}
    attrs {'strides': [1, 1], 'padding': [3, 0, 3, 0], 'dilation': [1, 1], 'groups': 1, 'channels': 128, 'kernel_size': [7, 1], 'data_layout': 'NCHW', 'kernel_layout': 'OIHW', 'out_layout': '', 'out_dtype': ''}
  }
}
layer {
  name:"Node_533"
  type:"const"
  top:"Node_533"
  layer_param {
    idx:533
    out_0 {name:"Node_533:0",dtype:float32,shape:[128]}
  }
}
layer {
  name:"Node_534"
  type:"const"
  top:"Node_534"
  layer_param {
    idx:534
    out_0 {name:"Node_534:0",dtype:float32,shape:[128]}
  }
}
layer {
  name:"Node_535"
  type:"const"
  top:"Node_535"
  layer_param {
    idx:535
    out_0 {name:"Node_535:0",dtype:float32,shape:[128]}
  }
}
layer {
  name:"Node_536"
  type:"const"
  top:"Node_536"
  layer_param {
    idx:536
    out_0 {name:"Node_536:0",dtype:float32,shape:[128]}
  }
}
layer {
  name:"Node_537"
  type:"nn_batch_norm"
  top:"Node_537"
  bottom:"Node_532"
  bottom:"Node_533"
  bottom:"Node_534"
  bottom:"Node_535"
  bottom:"Node_536"
  layer_param {
    idx:537
    in_0 {name:"Node_532:0",dtype:float32,shape:[1, 128, 17, 17]}
    in_1 {name:"Node_533:0",dtype:float32,shape:[128]}
    in_2 {name:"Node_534:0",dtype:float32,shape:[128]}
    in_3 {name:"Node_535:0",dtype:float32,shape:[128]}
    in_4 {name:"Node_536:0",dtype:float32,shape:[128]}
    out_0 {name:"Node_537:0",dtype:float32,shape:[1, 128, 17, 17]}
    out_1 {name:"Node_537:1",dtype:float32,shape:[128]}
    out_2 {name:"Node_537:2",dtype:float32,shape:[128]}
    attrs {'axis': 1, 'epsilon': 0.0010000000474974513, 'center': 1, 'scale': 0}
  }
}
layer {
  name:"Node_539"
  type:"nn_relu"
  top:"Node_539"
  bottom:"Node_537"
  layer_param {
    idx:539
    in_0 {name:"Node_537:0",dtype:float32,shape:[1, 128, 17, 17]}
    out_0 {name:"Node_539:0",dtype:float32,shape:[1, 128, 17, 17]}
  }
}
layer {
  name:"Node_540"
  type:"const"
  top:"Node_540"
  layer_param {
    idx:540
    out_0 {name:"Node_540:0",dtype:float32,shape:[192, 128, 1, 7]}
  }
}
layer {
  name:"Node_541"
  type:"nn_conv2d"
  top:"Node_541"
  bottom:"Node_539"
  bottom:"Node_540"
  layer_param {
    idx:541
    in_0 {name:"Node_539:0",dtype:float32,shape:[1, 128, 17, 17]}
    in_1 {name:"Node_540:0",dtype:float32,shape:[192, 128, 1, 7]}
    out_0 {name:"Node_541:0",dtype:float32,shape:[1, 192, 17, 17]}
    attrs {'strides': [1, 1], 'padding': [0, 3, 0, 3], 'dilation': [1, 1], 'groups': 1, 'channels': 192, 'kernel_size': [1, 7], 'data_layout': 'NCHW', 'kernel_layout': 'OIHW', 'out_layout': '', 'out_dtype': ''}
  }
}
layer {
  name:"Node_542"
  type:"const"
  top:"Node_542"
  layer_param {
    idx:542
    out_0 {name:"Node_542:0",dtype:float32,shape:[192]}
  }
}
layer {
  name:"Node_543"
  type:"const"
  top:"Node_543"
  layer_param {
    idx:543
    out_0 {name:"Node_543:0",dtype:float32,shape:[192]}
  }
}
layer {
  name:"Node_544"
  type:"const"
  top:"Node_544"
  layer_param {
    idx:544
    out_0 {name:"Node_544:0",dtype:float32,shape:[192]}
  }
}
layer {
  name:"Node_545"
  type:"const"
  top:"Node_545"
  layer_param {
    idx:545
    out_0 {name:"Node_545:0",dtype:float32,shape:[192]}
  }
}
layer {
  name:"Node_546"
  type:"nn_batch_norm"
  top:"Node_546"
  bottom:"Node_541"
  bottom:"Node_542"
  bottom:"Node_543"
  bottom:"Node_544"
  bottom:"Node_545"
  layer_param {
    idx:546
    in_0 {name:"Node_541:0",dtype:float32,shape:[1, 192, 17, 17]}
    in_1 {name:"Node_542:0",dtype:float32,shape:[192]}
    in_2 {name:"Node_543:0",dtype:float32,shape:[192]}
    in_3 {name:"Node_544:0",dtype:float32,shape:[192]}
    in_4 {name:"Node_545:0",dtype:float32,shape:[192]}
    out_0 {name:"Node_546:0",dtype:float32,shape:[1, 192, 17, 17]}
    out_1 {name:"Node_546:1",dtype:float32,shape:[192]}
    out_2 {name:"Node_546:2",dtype:float32,shape:[192]}
    attrs {'axis': 1, 'epsilon': 0.0010000000474974513, 'center': 1, 'scale': 0}
  }
}
layer {
  name:"Node_548"
  type:"nn_relu"
  top:"Node_548"
  bottom:"Node_546"
  layer_param {
    idx:548
    in_0 {name:"Node_546:0",dtype:float32,shape:[1, 192, 17, 17]}
    out_0 {name:"Node_548:0",dtype:float32,shape:[1, 192, 17, 17]}
  }
}
layer {
  name:"Node_554"
  type:"nn_avg_pool2d"
  top:"Node_554"
  bottom:"Node_441"
  layer_param {
    idx:554
    in_0 {name:"Node_441:0",dtype:float32,shape:[1, 768, 17, 17]}
    out_0 {name:"Node_554:0",dtype:float32,shape:[1, 768, 17, 17]}
    attrs {'pool_size': [3, 3], 'strides': [1, 1], 'dilation': [1, 1], 'padding': [1, 1, 1, 1], 'layout': 'NCHW', 'ceil_mode': 0, 'count_include_pad': 0}
  }
}
layer {
  name:"Node_555"
  type:"const"
  top:"Node_555"
  layer_param {
    idx:555
    out_0 {name:"Node_555:0",dtype:float32,shape:[192, 768, 1, 1]}
  }
}
layer {
  name:"Node_556"
  type:"nn_conv2d"
  top:"Node_556"
  bottom:"Node_554"
  bottom:"Node_555"
  layer_param {
    idx:556
    in_0 {name:"Node_554:0",dtype:float32,shape:[1, 768, 17, 17]}
    in_1 {name:"Node_555:0",dtype:float32,shape:[192, 768, 1, 1]}
    out_0 {name:"Node_556:0",dtype:float32,shape:[1, 192, 17, 17]}
    attrs {'strides': [1, 1], 'padding': [0, 0, 0, 0], 'dilation': [1, 1], 'groups': 1, 'channels': 192, 'kernel_size': [1, 1], 'data_layout': 'NCHW', 'kernel_layout': 'OIHW', 'out_layout': '', 'out_dtype': ''}
  }
}
layer {
  name:"Node_557"
  type:"const"
  top:"Node_557"
  layer_param {
    idx:557
    out_0 {name:"Node_557:0",dtype:float32,shape:[192]}
  }
}
layer {
  name:"Node_558"
  type:"const"
  top:"Node_558"
  layer_param {
    idx:558
    out_0 {name:"Node_558:0",dtype:float32,shape:[192]}
  }
}
layer {
  name:"Node_559"
  type:"const"
  top:"Node_559"
  layer_param {
    idx:559
    out_0 {name:"Node_559:0",dtype:float32,shape:[192]}
  }
}
layer {
  name:"Node_560"
  type:"const"
  top:"Node_560"
  layer_param {
    idx:560
    out_0 {name:"Node_560:0",dtype:float32,shape:[192]}
  }
}
layer {
  name:"Node_561"
  type:"nn_batch_norm"
  top:"Node_561"
  bottom:"Node_556"
  bottom:"Node_557"
  bottom:"Node_558"
  bottom:"Node_559"
  bottom:"Node_560"
  layer_param {
    idx:561
    in_0 {name:"Node_556:0",dtype:float32,shape:[1, 192, 17, 17]}
    in_1 {name:"Node_557:0",dtype:float32,shape:[192]}
    in_2 {name:"Node_558:0",dtype:float32,shape:[192]}
    in_3 {name:"Node_559:0",dtype:float32,shape:[192]}
    in_4 {name:"Node_560:0",dtype:float32,shape:[192]}
    out_0 {name:"Node_561:0",dtype:float32,shape:[1, 192, 17, 17]}
    out_1 {name:"Node_561:1",dtype:float32,shape:[192]}
    out_2 {name:"Node_561:2",dtype:float32,shape:[192]}
    attrs {'axis': 1, 'epsilon': 0.0010000000474974513, 'center': 1, 'scale': 0}
  }
}
layer {
  name:"Node_563"
  type:"nn_relu"
  top:"Node_563"
  bottom:"Node_561"
  layer_param {
    idx:563
    in_0 {name:"Node_561:0",dtype:float32,shape:[1, 192, 17, 17]}
    out_0 {name:"Node_563:0",dtype:float32,shape:[1, 192, 17, 17]}
  }
}
layer {
  name:"Node_565"
  type:"concatenate"
  top:"Node_565"
  bottom:"Node_450"
  bottom:"Node_487"
  bottom:"Node_548"
  bottom:"Node_563"
  layer_param {
    idx:565
    in_0 {name:"Node_450:0",dtype:float32,shape:[1, 192, 17, 17]}
    in_1 {name:"Node_487:0",dtype:float32,shape:[1, 192, 17, 17]}
    in_2 {name:"Node_548:0",dtype:float32,shape:[1, 192, 17, 17]}
    in_3 {name:"Node_563:0",dtype:float32,shape:[1, 192, 17, 17]}
    out_0 {name:"Node_565:0",dtype:float32,shape:[1, 768, 17, 17]}
    attrs {'axis': 1}
  }
}
layer {
  name:"Node_566"
  type:"const"
  top:"Node_566"
  layer_param {
    idx:566
    out_0 {name:"Node_566:0",dtype:float32,shape:[192, 768, 1, 1]}
  }
}
layer {
  name:"Node_567"
  type:"nn_conv2d"
  top:"Node_567"
  bottom:"Node_565"
  bottom:"Node_566"
  layer_param {
    idx:567
    in_0 {name:"Node_565:0",dtype:float32,shape:[1, 768, 17, 17]}
    in_1 {name:"Node_566:0",dtype:float32,shape:[192, 768, 1, 1]}
    out_0 {name:"Node_567:0",dtype:float32,shape:[1, 192, 17, 17]}
    attrs {'strides': [1, 1], 'padding': [0, 0, 0, 0], 'dilation': [1, 1], 'groups': 1, 'channels': 192, 'kernel_size': [1, 1], 'data_layout': 'NCHW', 'kernel_layout': 'OIHW', 'out_layout': '', 'out_dtype': ''}
  }
}
layer {
  name:"Node_568"
  type:"const"
  top:"Node_568"
  layer_param {
    idx:568
    out_0 {name:"Node_568:0",dtype:float32,shape:[192]}
  }
}
layer {
  name:"Node_569"
  type:"const"
  top:"Node_569"
  layer_param {
    idx:569
    out_0 {name:"Node_569:0",dtype:float32,shape:[192]}
  }
}
layer {
  name:"Node_570"
  type:"const"
  top:"Node_570"
  layer_param {
    idx:570
    out_0 {name:"Node_570:0",dtype:float32,shape:[192]}
  }
}
layer {
  name:"Node_571"
  type:"const"
  top:"Node_571"
  layer_param {
    idx:571
    out_0 {name:"Node_571:0",dtype:float32,shape:[192]}
  }
}
layer {
  name:"Node_572"
  type:"nn_batch_norm"
  top:"Node_572"
  bottom:"Node_567"
  bottom:"Node_568"
  bottom:"Node_569"
  bottom:"Node_570"
  bottom:"Node_571"
  layer_param {
    idx:572
    in_0 {name:"Node_567:0",dtype:float32,shape:[1, 192, 17, 17]}
    in_1 {name:"Node_568:0",dtype:float32,shape:[192]}
    in_2 {name:"Node_569:0",dtype:float32,shape:[192]}
    in_3 {name:"Node_570:0",dtype:float32,shape:[192]}
    in_4 {name:"Node_571:0",dtype:float32,shape:[192]}
    out_0 {name:"Node_572:0",dtype:float32,shape:[1, 192, 17, 17]}
    out_1 {name:"Node_572:1",dtype:float32,shape:[192]}
    out_2 {name:"Node_572:2",dtype:float32,shape:[192]}
    attrs {'axis': 1, 'epsilon': 0.0010000000474974513, 'center': 1, 'scale': 0}
  }
}
layer {
  name:"Node_574"
  type:"nn_relu"
  top:"Node_574"
  bottom:"Node_572"
  layer_param {
    idx:574
    in_0 {name:"Node_572:0",dtype:float32,shape:[1, 192, 17, 17]}
    out_0 {name:"Node_574:0",dtype:float32,shape:[1, 192, 17, 17]}
  }
}
layer {
  name:"Node_585"
  type:"const"
  top:"Node_585"
  layer_param {
    idx:585
    out_0 {name:"Node_585:0",dtype:float32,shape:[160, 768, 1, 1]}
  }
}
layer {
  name:"Node_586"
  type:"nn_conv2d"
  top:"Node_586"
  bottom:"Node_565"
  bottom:"Node_585"
  layer_param {
    idx:586
    in_0 {name:"Node_565:0",dtype:float32,shape:[1, 768, 17, 17]}
    in_1 {name:"Node_585:0",dtype:float32,shape:[160, 768, 1, 1]}
    out_0 {name:"Node_586:0",dtype:float32,shape:[1, 160, 17, 17]}
    attrs {'strides': [1, 1], 'padding': [0, 0, 0, 0], 'dilation': [1, 1], 'groups': 1, 'channels': 160, 'kernel_size': [1, 1], 'data_layout': 'NCHW', 'kernel_layout': 'OIHW', 'out_layout': '', 'out_dtype': ''}
  }
}
layer {
  name:"Node_587"
  type:"const"
  top:"Node_587"
  layer_param {
    idx:587
    out_0 {name:"Node_587:0",dtype:float32,shape:[160]}
  }
}
layer {
  name:"Node_588"
  type:"const"
  top:"Node_588"
  layer_param {
    idx:588
    out_0 {name:"Node_588:0",dtype:float32,shape:[160]}
  }
}
layer {
  name:"Node_589"
  type:"const"
  top:"Node_589"
  layer_param {
    idx:589
    out_0 {name:"Node_589:0",dtype:float32,shape:[160]}
  }
}
layer {
  name:"Node_590"
  type:"const"
  top:"Node_590"
  layer_param {
    idx:590
    out_0 {name:"Node_590:0",dtype:float32,shape:[160]}
  }
}
layer {
  name:"Node_591"
  type:"nn_batch_norm"
  top:"Node_591"
  bottom:"Node_586"
  bottom:"Node_587"
  bottom:"Node_588"
  bottom:"Node_589"
  bottom:"Node_590"
  layer_param {
    idx:591
    in_0 {name:"Node_586:0",dtype:float32,shape:[1, 160, 17, 17]}
    in_1 {name:"Node_587:0",dtype:float32,shape:[160]}
    in_2 {name:"Node_588:0",dtype:float32,shape:[160]}
    in_3 {name:"Node_589:0",dtype:float32,shape:[160]}
    in_4 {name:"Node_590:0",dtype:float32,shape:[160]}
    out_0 {name:"Node_591:0",dtype:float32,shape:[1, 160, 17, 17]}
    out_1 {name:"Node_591:1",dtype:float32,shape:[160]}
    out_2 {name:"Node_591:2",dtype:float32,shape:[160]}
    attrs {'axis': 1, 'epsilon': 0.0010000000474974513, 'center': 1, 'scale': 0}
  }
}
layer {
  name:"Node_593"
  type:"nn_relu"
  top:"Node_593"
  bottom:"Node_591"
  layer_param {
    idx:593
    in_0 {name:"Node_591:0",dtype:float32,shape:[1, 160, 17, 17]}
    out_0 {name:"Node_593:0",dtype:float32,shape:[1, 160, 17, 17]}
  }
}
layer {
  name:"Node_594"
  type:"const"
  top:"Node_594"
  layer_param {
    idx:594
    out_0 {name:"Node_594:0",dtype:float32,shape:[160, 160, 1, 7]}
  }
}
layer {
  name:"Node_595"
  type:"nn_conv2d"
  top:"Node_595"
  bottom:"Node_593"
  bottom:"Node_594"
  layer_param {
    idx:595
    in_0 {name:"Node_593:0",dtype:float32,shape:[1, 160, 17, 17]}
    in_1 {name:"Node_594:0",dtype:float32,shape:[160, 160, 1, 7]}
    out_0 {name:"Node_595:0",dtype:float32,shape:[1, 160, 17, 17]}
    attrs {'strides': [1, 1], 'padding': [0, 3, 0, 3], 'dilation': [1, 1], 'groups': 1, 'channels': 160, 'kernel_size': [1, 7], 'data_layout': 'NCHW', 'kernel_layout': 'OIHW', 'out_layout': '', 'out_dtype': ''}
  }
}
layer {
  name:"Node_596"
  type:"const"
  top:"Node_596"
  layer_param {
    idx:596
    out_0 {name:"Node_596:0",dtype:float32,shape:[160]}
  }
}
layer {
  name:"Node_597"
  type:"const"
  top:"Node_597"
  layer_param {
    idx:597
    out_0 {name:"Node_597:0",dtype:float32,shape:[160]}
  }
}
layer {
  name:"Node_598"
  type:"const"
  top:"Node_598"
  layer_param {
    idx:598
    out_0 {name:"Node_598:0",dtype:float32,shape:[160]}
  }
}
layer {
  name:"Node_599"
  type:"const"
  top:"Node_599"
  layer_param {
    idx:599
    out_0 {name:"Node_599:0",dtype:float32,shape:[160]}
  }
}
layer {
  name:"Node_600"
  type:"nn_batch_norm"
  top:"Node_600"
  bottom:"Node_595"
  bottom:"Node_596"
  bottom:"Node_597"
  bottom:"Node_598"
  bottom:"Node_599"
  layer_param {
    idx:600
    in_0 {name:"Node_595:0",dtype:float32,shape:[1, 160, 17, 17]}
    in_1 {name:"Node_596:0",dtype:float32,shape:[160]}
    in_2 {name:"Node_597:0",dtype:float32,shape:[160]}
    in_3 {name:"Node_598:0",dtype:float32,shape:[160]}
    in_4 {name:"Node_599:0",dtype:float32,shape:[160]}
    out_0 {name:"Node_600:0",dtype:float32,shape:[1, 160, 17, 17]}
    out_1 {name:"Node_600:1",dtype:float32,shape:[160]}
    out_2 {name:"Node_600:2",dtype:float32,shape:[160]}
    attrs {'axis': 1, 'epsilon': 0.0010000000474974513, 'center': 1, 'scale': 0}
  }
}
layer {
  name:"Node_602"
  type:"nn_relu"
  top:"Node_602"
  bottom:"Node_600"
  layer_param {
    idx:602
    in_0 {name:"Node_600:0",dtype:float32,shape:[1, 160, 17, 17]}
    out_0 {name:"Node_602:0",dtype:float32,shape:[1, 160, 17, 17]}
  }
}
layer {
  name:"Node_603"
  type:"const"
  top:"Node_603"
  layer_param {
    idx:603
    out_0 {name:"Node_603:0",dtype:float32,shape:[192, 160, 7, 1]}
  }
}
layer {
  name:"Node_604"
  type:"nn_conv2d"
  top:"Node_604"
  bottom:"Node_602"
  bottom:"Node_603"
  layer_param {
    idx:604
    in_0 {name:"Node_602:0",dtype:float32,shape:[1, 160, 17, 17]}
    in_1 {name:"Node_603:0",dtype:float32,shape:[192, 160, 7, 1]}
    out_0 {name:"Node_604:0",dtype:float32,shape:[1, 192, 17, 17]}
    attrs {'strides': [1, 1], 'padding': [3, 0, 3, 0], 'dilation': [1, 1], 'groups': 1, 'channels': 192, 'kernel_size': [7, 1], 'data_layout': 'NCHW', 'kernel_layout': 'OIHW', 'out_layout': '', 'out_dtype': ''}
  }
}
layer {
  name:"Node_605"
  type:"const"
  top:"Node_605"
  layer_param {
    idx:605
    out_0 {name:"Node_605:0",dtype:float32,shape:[192]}
  }
}
layer {
  name:"Node_606"
  type:"const"
  top:"Node_606"
  layer_param {
    idx:606
    out_0 {name:"Node_606:0",dtype:float32,shape:[192]}
  }
}
layer {
  name:"Node_607"
  type:"const"
  top:"Node_607"
  layer_param {
    idx:607
    out_0 {name:"Node_607:0",dtype:float32,shape:[192]}
  }
}
layer {
  name:"Node_608"
  type:"const"
  top:"Node_608"
  layer_param {
    idx:608
    out_0 {name:"Node_608:0",dtype:float32,shape:[192]}
  }
}
layer {
  name:"Node_609"
  type:"nn_batch_norm"
  top:"Node_609"
  bottom:"Node_604"
  bottom:"Node_605"
  bottom:"Node_606"
  bottom:"Node_607"
  bottom:"Node_608"
  layer_param {
    idx:609
    in_0 {name:"Node_604:0",dtype:float32,shape:[1, 192, 17, 17]}
    in_1 {name:"Node_605:0",dtype:float32,shape:[192]}
    in_2 {name:"Node_606:0",dtype:float32,shape:[192]}
    in_3 {name:"Node_607:0",dtype:float32,shape:[192]}
    in_4 {name:"Node_608:0",dtype:float32,shape:[192]}
    out_0 {name:"Node_609:0",dtype:float32,shape:[1, 192, 17, 17]}
    out_1 {name:"Node_609:1",dtype:float32,shape:[192]}
    out_2 {name:"Node_609:2",dtype:float32,shape:[192]}
    attrs {'axis': 1, 'epsilon': 0.0010000000474974513, 'center': 1, 'scale': 0}
  }
}
layer {
  name:"Node_611"
  type:"nn_relu"
  top:"Node_611"
  bottom:"Node_609"
  layer_param {
    idx:611
    in_0 {name:"Node_609:0",dtype:float32,shape:[1, 192, 17, 17]}
    out_0 {name:"Node_611:0",dtype:float32,shape:[1, 192, 17, 17]}
  }
}
layer {
  name:"Node_628"
  type:"const"
  top:"Node_628"
  layer_param {
    idx:628
    out_0 {name:"Node_628:0",dtype:float32,shape:[160, 768, 1, 1]}
  }
}
layer {
  name:"Node_629"
  type:"nn_conv2d"
  top:"Node_629"
  bottom:"Node_565"
  bottom:"Node_628"
  layer_param {
    idx:629
    in_0 {name:"Node_565:0",dtype:float32,shape:[1, 768, 17, 17]}
    in_1 {name:"Node_628:0",dtype:float32,shape:[160, 768, 1, 1]}
    out_0 {name:"Node_629:0",dtype:float32,shape:[1, 160, 17, 17]}
    attrs {'strides': [1, 1], 'padding': [0, 0, 0, 0], 'dilation': [1, 1], 'groups': 1, 'channels': 160, 'kernel_size': [1, 1], 'data_layout': 'NCHW', 'kernel_layout': 'OIHW', 'out_layout': '', 'out_dtype': ''}
  }
}
layer {
  name:"Node_630"
  type:"const"
  top:"Node_630"
  layer_param {
    idx:630
    out_0 {name:"Node_630:0",dtype:float32,shape:[160]}
  }
}
layer {
  name:"Node_631"
  type:"const"
  top:"Node_631"
  layer_param {
    idx:631
    out_0 {name:"Node_631:0",dtype:float32,shape:[160]}
  }
}
layer {
  name:"Node_632"
  type:"const"
  top:"Node_632"
  layer_param {
    idx:632
    out_0 {name:"Node_632:0",dtype:float32,shape:[160]}
  }
}
layer {
  name:"Node_633"
  type:"const"
  top:"Node_633"
  layer_param {
    idx:633
    out_0 {name:"Node_633:0",dtype:float32,shape:[160]}
  }
}
layer {
  name:"Node_634"
  type:"nn_batch_norm"
  top:"Node_634"
  bottom:"Node_629"
  bottom:"Node_630"
  bottom:"Node_631"
  bottom:"Node_632"
  bottom:"Node_633"
  layer_param {
    idx:634
    in_0 {name:"Node_629:0",dtype:float32,shape:[1, 160, 17, 17]}
    in_1 {name:"Node_630:0",dtype:float32,shape:[160]}
    in_2 {name:"Node_631:0",dtype:float32,shape:[160]}
    in_3 {name:"Node_632:0",dtype:float32,shape:[160]}
    in_4 {name:"Node_633:0",dtype:float32,shape:[160]}
    out_0 {name:"Node_634:0",dtype:float32,shape:[1, 160, 17, 17]}
    out_1 {name:"Node_634:1",dtype:float32,shape:[160]}
    out_2 {name:"Node_634:2",dtype:float32,shape:[160]}
    attrs {'axis': 1, 'epsilon': 0.0010000000474974513, 'center': 1, 'scale': 0}
  }
}
layer {
  name:"Node_636"
  type:"nn_relu"
  top:"Node_636"
  bottom:"Node_634"
  layer_param {
    idx:636
    in_0 {name:"Node_634:0",dtype:float32,shape:[1, 160, 17, 17]}
    out_0 {name:"Node_636:0",dtype:float32,shape:[1, 160, 17, 17]}
  }
}
layer {
  name:"Node_637"
  type:"const"
  top:"Node_637"
  layer_param {
    idx:637
    out_0 {name:"Node_637:0",dtype:float32,shape:[160, 160, 7, 1]}
  }
}
layer {
  name:"Node_638"
  type:"nn_conv2d"
  top:"Node_638"
  bottom:"Node_636"
  bottom:"Node_637"
  layer_param {
    idx:638
    in_0 {name:"Node_636:0",dtype:float32,shape:[1, 160, 17, 17]}
    in_1 {name:"Node_637:0",dtype:float32,shape:[160, 160, 7, 1]}
    out_0 {name:"Node_638:0",dtype:float32,shape:[1, 160, 17, 17]}
    attrs {'strides': [1, 1], 'padding': [3, 0, 3, 0], 'dilation': [1, 1], 'groups': 1, 'channels': 160, 'kernel_size': [7, 1], 'data_layout': 'NCHW', 'kernel_layout': 'OIHW', 'out_layout': '', 'out_dtype': ''}
  }
}
layer {
  name:"Node_639"
  type:"const"
  top:"Node_639"
  layer_param {
    idx:639
    out_0 {name:"Node_639:0",dtype:float32,shape:[160]}
  }
}
layer {
  name:"Node_640"
  type:"const"
  top:"Node_640"
  layer_param {
    idx:640
    out_0 {name:"Node_640:0",dtype:float32,shape:[160]}
  }
}
layer {
  name:"Node_641"
  type:"const"
  top:"Node_641"
  layer_param {
    idx:641
    out_0 {name:"Node_641:0",dtype:float32,shape:[160]}
  }
}
layer {
  name:"Node_642"
  type:"const"
  top:"Node_642"
  layer_param {
    idx:642
    out_0 {name:"Node_642:0",dtype:float32,shape:[160]}
  }
}
layer {
  name:"Node_643"
  type:"nn_batch_norm"
  top:"Node_643"
  bottom:"Node_638"
  bottom:"Node_639"
  bottom:"Node_640"
  bottom:"Node_641"
  bottom:"Node_642"
  layer_param {
    idx:643
    in_0 {name:"Node_638:0",dtype:float32,shape:[1, 160, 17, 17]}
    in_1 {name:"Node_639:0",dtype:float32,shape:[160]}
    in_2 {name:"Node_640:0",dtype:float32,shape:[160]}
    in_3 {name:"Node_641:0",dtype:float32,shape:[160]}
    in_4 {name:"Node_642:0",dtype:float32,shape:[160]}
    out_0 {name:"Node_643:0",dtype:float32,shape:[1, 160, 17, 17]}
    out_1 {name:"Node_643:1",dtype:float32,shape:[160]}
    out_2 {name:"Node_643:2",dtype:float32,shape:[160]}
    attrs {'axis': 1, 'epsilon': 0.0010000000474974513, 'center': 1, 'scale': 0}
  }
}
layer {
  name:"Node_645"
  type:"nn_relu"
  top:"Node_645"
  bottom:"Node_643"
  layer_param {
    idx:645
    in_0 {name:"Node_643:0",dtype:float32,shape:[1, 160, 17, 17]}
    out_0 {name:"Node_645:0",dtype:float32,shape:[1, 160, 17, 17]}
  }
}
layer {
  name:"Node_646"
  type:"const"
  top:"Node_646"
  layer_param {
    idx:646
    out_0 {name:"Node_646:0",dtype:float32,shape:[160, 160, 1, 7]}
  }
}
layer {
  name:"Node_647"
  type:"nn_conv2d"
  top:"Node_647"
  bottom:"Node_645"
  bottom:"Node_646"
  layer_param {
    idx:647
    in_0 {name:"Node_645:0",dtype:float32,shape:[1, 160, 17, 17]}
    in_1 {name:"Node_646:0",dtype:float32,shape:[160, 160, 1, 7]}
    out_0 {name:"Node_647:0",dtype:float32,shape:[1, 160, 17, 17]}
    attrs {'strides': [1, 1], 'padding': [0, 3, 0, 3], 'dilation': [1, 1], 'groups': 1, 'channels': 160, 'kernel_size': [1, 7], 'data_layout': 'NCHW', 'kernel_layout': 'OIHW', 'out_layout': '', 'out_dtype': ''}
  }
}
layer {
  name:"Node_648"
  type:"const"
  top:"Node_648"
  layer_param {
    idx:648
    out_0 {name:"Node_648:0",dtype:float32,shape:[160]}
  }
}
layer {
  name:"Node_649"
  type:"const"
  top:"Node_649"
  layer_param {
    idx:649
    out_0 {name:"Node_649:0",dtype:float32,shape:[160]}
  }
}
layer {
  name:"Node_650"
  type:"const"
  top:"Node_650"
  layer_param {
    idx:650
    out_0 {name:"Node_650:0",dtype:float32,shape:[160]}
  }
}
layer {
  name:"Node_651"
  type:"const"
  top:"Node_651"
  layer_param {
    idx:651
    out_0 {name:"Node_651:0",dtype:float32,shape:[160]}
  }
}
layer {
  name:"Node_652"
  type:"nn_batch_norm"
  top:"Node_652"
  bottom:"Node_647"
  bottom:"Node_648"
  bottom:"Node_649"
  bottom:"Node_650"
  bottom:"Node_651"
  layer_param {
    idx:652
    in_0 {name:"Node_647:0",dtype:float32,shape:[1, 160, 17, 17]}
    in_1 {name:"Node_648:0",dtype:float32,shape:[160]}
    in_2 {name:"Node_649:0",dtype:float32,shape:[160]}
    in_3 {name:"Node_650:0",dtype:float32,shape:[160]}
    in_4 {name:"Node_651:0",dtype:float32,shape:[160]}
    out_0 {name:"Node_652:0",dtype:float32,shape:[1, 160, 17, 17]}
    out_1 {name:"Node_652:1",dtype:float32,shape:[160]}
    out_2 {name:"Node_652:2",dtype:float32,shape:[160]}
    attrs {'axis': 1, 'epsilon': 0.0010000000474974513, 'center': 1, 'scale': 0}
  }
}
layer {
  name:"Node_654"
  type:"nn_relu"
  top:"Node_654"
  bottom:"Node_652"
  layer_param {
    idx:654
    in_0 {name:"Node_652:0",dtype:float32,shape:[1, 160, 17, 17]}
    out_0 {name:"Node_654:0",dtype:float32,shape:[1, 160, 17, 17]}
  }
}
layer {
  name:"Node_655"
  type:"const"
  top:"Node_655"
  layer_param {
    idx:655
    out_0 {name:"Node_655:0",dtype:float32,shape:[160, 160, 7, 1]}
  }
}
layer {
  name:"Node_656"
  type:"nn_conv2d"
  top:"Node_656"
  bottom:"Node_654"
  bottom:"Node_655"
  layer_param {
    idx:656
    in_0 {name:"Node_654:0",dtype:float32,shape:[1, 160, 17, 17]}
    in_1 {name:"Node_655:0",dtype:float32,shape:[160, 160, 7, 1]}
    out_0 {name:"Node_656:0",dtype:float32,shape:[1, 160, 17, 17]}
    attrs {'strides': [1, 1], 'padding': [3, 0, 3, 0], 'dilation': [1, 1], 'groups': 1, 'channels': 160, 'kernel_size': [7, 1], 'data_layout': 'NCHW', 'kernel_layout': 'OIHW', 'out_layout': '', 'out_dtype': ''}
  }
}
layer {
  name:"Node_657"
  type:"const"
  top:"Node_657"
  layer_param {
    idx:657
    out_0 {name:"Node_657:0",dtype:float32,shape:[160]}
  }
}
layer {
  name:"Node_658"
  type:"const"
  top:"Node_658"
  layer_param {
    idx:658
    out_0 {name:"Node_658:0",dtype:float32,shape:[160]}
  }
}
layer {
  name:"Node_659"
  type:"const"
  top:"Node_659"
  layer_param {
    idx:659
    out_0 {name:"Node_659:0",dtype:float32,shape:[160]}
  }
}
layer {
  name:"Node_660"
  type:"const"
  top:"Node_660"
  layer_param {
    idx:660
    out_0 {name:"Node_660:0",dtype:float32,shape:[160]}
  }
}
layer {
  name:"Node_661"
  type:"nn_batch_norm"
  top:"Node_661"
  bottom:"Node_656"
  bottom:"Node_657"
  bottom:"Node_658"
  bottom:"Node_659"
  bottom:"Node_660"
  layer_param {
    idx:661
    in_0 {name:"Node_656:0",dtype:float32,shape:[1, 160, 17, 17]}
    in_1 {name:"Node_657:0",dtype:float32,shape:[160]}
    in_2 {name:"Node_658:0",dtype:float32,shape:[160]}
    in_3 {name:"Node_659:0",dtype:float32,shape:[160]}
    in_4 {name:"Node_660:0",dtype:float32,shape:[160]}
    out_0 {name:"Node_661:0",dtype:float32,shape:[1, 160, 17, 17]}
    out_1 {name:"Node_661:1",dtype:float32,shape:[160]}
    out_2 {name:"Node_661:2",dtype:float32,shape:[160]}
    attrs {'axis': 1, 'epsilon': 0.0010000000474974513, 'center': 1, 'scale': 0}
  }
}
layer {
  name:"Node_663"
  type:"nn_relu"
  top:"Node_663"
  bottom:"Node_661"
  layer_param {
    idx:663
    in_0 {name:"Node_661:0",dtype:float32,shape:[1, 160, 17, 17]}
    out_0 {name:"Node_663:0",dtype:float32,shape:[1, 160, 17, 17]}
  }
}
layer {
  name:"Node_664"
  type:"const"
  top:"Node_664"
  layer_param {
    idx:664
    out_0 {name:"Node_664:0",dtype:float32,shape:[192, 160, 1, 7]}
  }
}
layer {
  name:"Node_665"
  type:"nn_conv2d"
  top:"Node_665"
  bottom:"Node_663"
  bottom:"Node_664"
  layer_param {
    idx:665
    in_0 {name:"Node_663:0",dtype:float32,shape:[1, 160, 17, 17]}
    in_1 {name:"Node_664:0",dtype:float32,shape:[192, 160, 1, 7]}
    out_0 {name:"Node_665:0",dtype:float32,shape:[1, 192, 17, 17]}
    attrs {'strides': [1, 1], 'padding': [0, 3, 0, 3], 'dilation': [1, 1], 'groups': 1, 'channels': 192, 'kernel_size': [1, 7], 'data_layout': 'NCHW', 'kernel_layout': 'OIHW', 'out_layout': '', 'out_dtype': ''}
  }
}
layer {
  name:"Node_666"
  type:"const"
  top:"Node_666"
  layer_param {
    idx:666
    out_0 {name:"Node_666:0",dtype:float32,shape:[192]}
  }
}
layer {
  name:"Node_667"
  type:"const"
  top:"Node_667"
  layer_param {
    idx:667
    out_0 {name:"Node_667:0",dtype:float32,shape:[192]}
  }
}
layer {
  name:"Node_668"
  type:"const"
  top:"Node_668"
  layer_param {
    idx:668
    out_0 {name:"Node_668:0",dtype:float32,shape:[192]}
  }
}
layer {
  name:"Node_669"
  type:"const"
  top:"Node_669"
  layer_param {
    idx:669
    out_0 {name:"Node_669:0",dtype:float32,shape:[192]}
  }
}
layer {
  name:"Node_670"
  type:"nn_batch_norm"
  top:"Node_670"
  bottom:"Node_665"
  bottom:"Node_666"
  bottom:"Node_667"
  bottom:"Node_668"
  bottom:"Node_669"
  layer_param {
    idx:670
    in_0 {name:"Node_665:0",dtype:float32,shape:[1, 192, 17, 17]}
    in_1 {name:"Node_666:0",dtype:float32,shape:[192]}
    in_2 {name:"Node_667:0",dtype:float32,shape:[192]}
    in_3 {name:"Node_668:0",dtype:float32,shape:[192]}
    in_4 {name:"Node_669:0",dtype:float32,shape:[192]}
    out_0 {name:"Node_670:0",dtype:float32,shape:[1, 192, 17, 17]}
    out_1 {name:"Node_670:1",dtype:float32,shape:[192]}
    out_2 {name:"Node_670:2",dtype:float32,shape:[192]}
    attrs {'axis': 1, 'epsilon': 0.0010000000474974513, 'center': 1, 'scale': 0}
  }
}
layer {
  name:"Node_672"
  type:"nn_relu"
  top:"Node_672"
  bottom:"Node_670"
  layer_param {
    idx:672
    in_0 {name:"Node_670:0",dtype:float32,shape:[1, 192, 17, 17]}
    out_0 {name:"Node_672:0",dtype:float32,shape:[1, 192, 17, 17]}
  }
}
layer {
  name:"Node_678"
  type:"nn_avg_pool2d"
  top:"Node_678"
  bottom:"Node_565"
  layer_param {
    idx:678
    in_0 {name:"Node_565:0",dtype:float32,shape:[1, 768, 17, 17]}
    out_0 {name:"Node_678:0",dtype:float32,shape:[1, 768, 17, 17]}
    attrs {'pool_size': [3, 3], 'strides': [1, 1], 'dilation': [1, 1], 'padding': [1, 1, 1, 1], 'layout': 'NCHW', 'ceil_mode': 0, 'count_include_pad': 0}
  }
}
layer {
  name:"Node_679"
  type:"const"
  top:"Node_679"
  layer_param {
    idx:679
    out_0 {name:"Node_679:0",dtype:float32,shape:[192, 768, 1, 1]}
  }
}
layer {
  name:"Node_680"
  type:"nn_conv2d"
  top:"Node_680"
  bottom:"Node_678"
  bottom:"Node_679"
  layer_param {
    idx:680
    in_0 {name:"Node_678:0",dtype:float32,shape:[1, 768, 17, 17]}
    in_1 {name:"Node_679:0",dtype:float32,shape:[192, 768, 1, 1]}
    out_0 {name:"Node_680:0",dtype:float32,shape:[1, 192, 17, 17]}
    attrs {'strides': [1, 1], 'padding': [0, 0, 0, 0], 'dilation': [1, 1], 'groups': 1, 'channels': 192, 'kernel_size': [1, 1], 'data_layout': 'NCHW', 'kernel_layout': 'OIHW', 'out_layout': '', 'out_dtype': ''}
  }
}
layer {
  name:"Node_681"
  type:"const"
  top:"Node_681"
  layer_param {
    idx:681
    out_0 {name:"Node_681:0",dtype:float32,shape:[192]}
  }
}
layer {
  name:"Node_682"
  type:"const"
  top:"Node_682"
  layer_param {
    idx:682
    out_0 {name:"Node_682:0",dtype:float32,shape:[192]}
  }
}
layer {
  name:"Node_683"
  type:"const"
  top:"Node_683"
  layer_param {
    idx:683
    out_0 {name:"Node_683:0",dtype:float32,shape:[192]}
  }
}
layer {
  name:"Node_684"
  type:"const"
  top:"Node_684"
  layer_param {
    idx:684
    out_0 {name:"Node_684:0",dtype:float32,shape:[192]}
  }
}
layer {
  name:"Node_685"
  type:"nn_batch_norm"
  top:"Node_685"
  bottom:"Node_680"
  bottom:"Node_681"
  bottom:"Node_682"
  bottom:"Node_683"
  bottom:"Node_684"
  layer_param {
    idx:685
    in_0 {name:"Node_680:0",dtype:float32,shape:[1, 192, 17, 17]}
    in_1 {name:"Node_681:0",dtype:float32,shape:[192]}
    in_2 {name:"Node_682:0",dtype:float32,shape:[192]}
    in_3 {name:"Node_683:0",dtype:float32,shape:[192]}
    in_4 {name:"Node_684:0",dtype:float32,shape:[192]}
    out_0 {name:"Node_685:0",dtype:float32,shape:[1, 192, 17, 17]}
    out_1 {name:"Node_685:1",dtype:float32,shape:[192]}
    out_2 {name:"Node_685:2",dtype:float32,shape:[192]}
    attrs {'axis': 1, 'epsilon': 0.0010000000474974513, 'center': 1, 'scale': 0}
  }
}
layer {
  name:"Node_687"
  type:"nn_relu"
  top:"Node_687"
  bottom:"Node_685"
  layer_param {
    idx:687
    in_0 {name:"Node_685:0",dtype:float32,shape:[1, 192, 17, 17]}
    out_0 {name:"Node_687:0",dtype:float32,shape:[1, 192, 17, 17]}
  }
}
layer {
  name:"Node_689"
  type:"concatenate"
  top:"Node_689"
  bottom:"Node_574"
  bottom:"Node_611"
  bottom:"Node_672"
  bottom:"Node_687"
  layer_param {
    idx:689
    in_0 {name:"Node_574:0",dtype:float32,shape:[1, 192, 17, 17]}
    in_1 {name:"Node_611:0",dtype:float32,shape:[1, 192, 17, 17]}
    in_2 {name:"Node_672:0",dtype:float32,shape:[1, 192, 17, 17]}
    in_3 {name:"Node_687:0",dtype:float32,shape:[1, 192, 17, 17]}
    out_0 {name:"Node_689:0",dtype:float32,shape:[1, 768, 17, 17]}
    attrs {'axis': 1}
  }
}
layer {
  name:"Node_690"
  type:"const"
  top:"Node_690"
  layer_param {
    idx:690
    out_0 {name:"Node_690:0",dtype:float32,shape:[192, 768, 1, 1]}
  }
}
layer {
  name:"Node_691"
  type:"nn_conv2d"
  top:"Node_691"
  bottom:"Node_689"
  bottom:"Node_690"
  layer_param {
    idx:691
    in_0 {name:"Node_689:0",dtype:float32,shape:[1, 768, 17, 17]}
    in_1 {name:"Node_690:0",dtype:float32,shape:[192, 768, 1, 1]}
    out_0 {name:"Node_691:0",dtype:float32,shape:[1, 192, 17, 17]}
    attrs {'strides': [1, 1], 'padding': [0, 0, 0, 0], 'dilation': [1, 1], 'groups': 1, 'channels': 192, 'kernel_size': [1, 1], 'data_layout': 'NCHW', 'kernel_layout': 'OIHW', 'out_layout': '', 'out_dtype': ''}
  }
}
layer {
  name:"Node_692"
  type:"const"
  top:"Node_692"
  layer_param {
    idx:692
    out_0 {name:"Node_692:0",dtype:float32,shape:[192]}
  }
}
layer {
  name:"Node_693"
  type:"const"
  top:"Node_693"
  layer_param {
    idx:693
    out_0 {name:"Node_693:0",dtype:float32,shape:[192]}
  }
}
layer {
  name:"Node_694"
  type:"const"
  top:"Node_694"
  layer_param {
    idx:694
    out_0 {name:"Node_694:0",dtype:float32,shape:[192]}
  }
}
layer {
  name:"Node_695"
  type:"const"
  top:"Node_695"
  layer_param {
    idx:695
    out_0 {name:"Node_695:0",dtype:float32,shape:[192]}
  }
}
layer {
  name:"Node_696"
  type:"nn_batch_norm"
  top:"Node_696"
  bottom:"Node_691"
  bottom:"Node_692"
  bottom:"Node_693"
  bottom:"Node_694"
  bottom:"Node_695"
  layer_param {
    idx:696
    in_0 {name:"Node_691:0",dtype:float32,shape:[1, 192, 17, 17]}
    in_1 {name:"Node_692:0",dtype:float32,shape:[192]}
    in_2 {name:"Node_693:0",dtype:float32,shape:[192]}
    in_3 {name:"Node_694:0",dtype:float32,shape:[192]}
    in_4 {name:"Node_695:0",dtype:float32,shape:[192]}
    out_0 {name:"Node_696:0",dtype:float32,shape:[1, 192, 17, 17]}
    out_1 {name:"Node_696:1",dtype:float32,shape:[192]}
    out_2 {name:"Node_696:2",dtype:float32,shape:[192]}
    attrs {'axis': 1, 'epsilon': 0.0010000000474974513, 'center': 1, 'scale': 0}
  }
}
layer {
  name:"Node_698"
  type:"nn_relu"
  top:"Node_698"
  bottom:"Node_696"
  layer_param {
    idx:698
    in_0 {name:"Node_696:0",dtype:float32,shape:[1, 192, 17, 17]}
    out_0 {name:"Node_698:0",dtype:float32,shape:[1, 192, 17, 17]}
  }
}
layer {
  name:"Node_709"
  type:"const"
  top:"Node_709"
  layer_param {
    idx:709
    out_0 {name:"Node_709:0",dtype:float32,shape:[160, 768, 1, 1]}
  }
}
layer {
  name:"Node_710"
  type:"nn_conv2d"
  top:"Node_710"
  bottom:"Node_689"
  bottom:"Node_709"
  layer_param {
    idx:710
    in_0 {name:"Node_689:0",dtype:float32,shape:[1, 768, 17, 17]}
    in_1 {name:"Node_709:0",dtype:float32,shape:[160, 768, 1, 1]}
    out_0 {name:"Node_710:0",dtype:float32,shape:[1, 160, 17, 17]}
    attrs {'strides': [1, 1], 'padding': [0, 0, 0, 0], 'dilation': [1, 1], 'groups': 1, 'channels': 160, 'kernel_size': [1, 1], 'data_layout': 'NCHW', 'kernel_layout': 'OIHW', 'out_layout': '', 'out_dtype': ''}
  }
}
layer {
  name:"Node_711"
  type:"const"
  top:"Node_711"
  layer_param {
    idx:711
    out_0 {name:"Node_711:0",dtype:float32,shape:[160]}
  }
}
layer {
  name:"Node_712"
  type:"const"
  top:"Node_712"
  layer_param {
    idx:712
    out_0 {name:"Node_712:0",dtype:float32,shape:[160]}
  }
}
layer {
  name:"Node_713"
  type:"const"
  top:"Node_713"
  layer_param {
    idx:713
    out_0 {name:"Node_713:0",dtype:float32,shape:[160]}
  }
}
layer {
  name:"Node_714"
  type:"const"
  top:"Node_714"
  layer_param {
    idx:714
    out_0 {name:"Node_714:0",dtype:float32,shape:[160]}
  }
}
layer {
  name:"Node_715"
  type:"nn_batch_norm"
  top:"Node_715"
  bottom:"Node_710"
  bottom:"Node_711"
  bottom:"Node_712"
  bottom:"Node_713"
  bottom:"Node_714"
  layer_param {
    idx:715
    in_0 {name:"Node_710:0",dtype:float32,shape:[1, 160, 17, 17]}
    in_1 {name:"Node_711:0",dtype:float32,shape:[160]}
    in_2 {name:"Node_712:0",dtype:float32,shape:[160]}
    in_3 {name:"Node_713:0",dtype:float32,shape:[160]}
    in_4 {name:"Node_714:0",dtype:float32,shape:[160]}
    out_0 {name:"Node_715:0",dtype:float32,shape:[1, 160, 17, 17]}
    out_1 {name:"Node_715:1",dtype:float32,shape:[160]}
    out_2 {name:"Node_715:2",dtype:float32,shape:[160]}
    attrs {'axis': 1, 'epsilon': 0.0010000000474974513, 'center': 1, 'scale': 0}
  }
}
layer {
  name:"Node_717"
  type:"nn_relu"
  top:"Node_717"
  bottom:"Node_715"
  layer_param {
    idx:717
    in_0 {name:"Node_715:0",dtype:float32,shape:[1, 160, 17, 17]}
    out_0 {name:"Node_717:0",dtype:float32,shape:[1, 160, 17, 17]}
  }
}
layer {
  name:"Node_718"
  type:"const"
  top:"Node_718"
  layer_param {
    idx:718
    out_0 {name:"Node_718:0",dtype:float32,shape:[160, 160, 1, 7]}
  }
}
layer {
  name:"Node_719"
  type:"nn_conv2d"
  top:"Node_719"
  bottom:"Node_717"
  bottom:"Node_718"
  layer_param {
    idx:719
    in_0 {name:"Node_717:0",dtype:float32,shape:[1, 160, 17, 17]}
    in_1 {name:"Node_718:0",dtype:float32,shape:[160, 160, 1, 7]}
    out_0 {name:"Node_719:0",dtype:float32,shape:[1, 160, 17, 17]}
    attrs {'strides': [1, 1], 'padding': [0, 3, 0, 3], 'dilation': [1, 1], 'groups': 1, 'channels': 160, 'kernel_size': [1, 7], 'data_layout': 'NCHW', 'kernel_layout': 'OIHW', 'out_layout': '', 'out_dtype': ''}
  }
}
layer {
  name:"Node_720"
  type:"const"
  top:"Node_720"
  layer_param {
    idx:720
    out_0 {name:"Node_720:0",dtype:float32,shape:[160]}
  }
}
layer {
  name:"Node_721"
  type:"const"
  top:"Node_721"
  layer_param {
    idx:721
    out_0 {name:"Node_721:0",dtype:float32,shape:[160]}
  }
}
layer {
  name:"Node_722"
  type:"const"
  top:"Node_722"
  layer_param {
    idx:722
    out_0 {name:"Node_722:0",dtype:float32,shape:[160]}
  }
}
layer {
  name:"Node_723"
  type:"const"
  top:"Node_723"
  layer_param {
    idx:723
    out_0 {name:"Node_723:0",dtype:float32,shape:[160]}
  }
}
layer {
  name:"Node_724"
  type:"nn_batch_norm"
  top:"Node_724"
  bottom:"Node_719"
  bottom:"Node_720"
  bottom:"Node_721"
  bottom:"Node_722"
  bottom:"Node_723"
  layer_param {
    idx:724
    in_0 {name:"Node_719:0",dtype:float32,shape:[1, 160, 17, 17]}
    in_1 {name:"Node_720:0",dtype:float32,shape:[160]}
    in_2 {name:"Node_721:0",dtype:float32,shape:[160]}
    in_3 {name:"Node_722:0",dtype:float32,shape:[160]}
    in_4 {name:"Node_723:0",dtype:float32,shape:[160]}
    out_0 {name:"Node_724:0",dtype:float32,shape:[1, 160, 17, 17]}
    out_1 {name:"Node_724:1",dtype:float32,shape:[160]}
    out_2 {name:"Node_724:2",dtype:float32,shape:[160]}
    attrs {'axis': 1, 'epsilon': 0.0010000000474974513, 'center': 1, 'scale': 0}
  }
}
layer {
  name:"Node_726"
  type:"nn_relu"
  top:"Node_726"
  bottom:"Node_724"
  layer_param {
    idx:726
    in_0 {name:"Node_724:0",dtype:float32,shape:[1, 160, 17, 17]}
    out_0 {name:"Node_726:0",dtype:float32,shape:[1, 160, 17, 17]}
  }
}
layer {
  name:"Node_727"
  type:"const"
  top:"Node_727"
  layer_param {
    idx:727
    out_0 {name:"Node_727:0",dtype:float32,shape:[192, 160, 7, 1]}
  }
}
layer {
  name:"Node_728"
  type:"nn_conv2d"
  top:"Node_728"
  bottom:"Node_726"
  bottom:"Node_727"
  layer_param {
    idx:728
    in_0 {name:"Node_726:0",dtype:float32,shape:[1, 160, 17, 17]}
    in_1 {name:"Node_727:0",dtype:float32,shape:[192, 160, 7, 1]}
    out_0 {name:"Node_728:0",dtype:float32,shape:[1, 192, 17, 17]}
    attrs {'strides': [1, 1], 'padding': [3, 0, 3, 0], 'dilation': [1, 1], 'groups': 1, 'channels': 192, 'kernel_size': [7, 1], 'data_layout': 'NCHW', 'kernel_layout': 'OIHW', 'out_layout': '', 'out_dtype': ''}
  }
}
layer {
  name:"Node_729"
  type:"const"
  top:"Node_729"
  layer_param {
    idx:729
    out_0 {name:"Node_729:0",dtype:float32,shape:[192]}
  }
}
layer {
  name:"Node_730"
  type:"const"
  top:"Node_730"
  layer_param {
    idx:730
    out_0 {name:"Node_730:0",dtype:float32,shape:[192]}
  }
}
layer {
  name:"Node_731"
  type:"const"
  top:"Node_731"
  layer_param {
    idx:731
    out_0 {name:"Node_731:0",dtype:float32,shape:[192]}
  }
}
layer {
  name:"Node_732"
  type:"const"
  top:"Node_732"
  layer_param {
    idx:732
    out_0 {name:"Node_732:0",dtype:float32,shape:[192]}
  }
}
layer {
  name:"Node_733"
  type:"nn_batch_norm"
  top:"Node_733"
  bottom:"Node_728"
  bottom:"Node_729"
  bottom:"Node_730"
  bottom:"Node_731"
  bottom:"Node_732"
  layer_param {
    idx:733
    in_0 {name:"Node_728:0",dtype:float32,shape:[1, 192, 17, 17]}
    in_1 {name:"Node_729:0",dtype:float32,shape:[192]}
    in_2 {name:"Node_730:0",dtype:float32,shape:[192]}
    in_3 {name:"Node_731:0",dtype:float32,shape:[192]}
    in_4 {name:"Node_732:0",dtype:float32,shape:[192]}
    out_0 {name:"Node_733:0",dtype:float32,shape:[1, 192, 17, 17]}
    out_1 {name:"Node_733:1",dtype:float32,shape:[192]}
    out_2 {name:"Node_733:2",dtype:float32,shape:[192]}
    attrs {'axis': 1, 'epsilon': 0.0010000000474974513, 'center': 1, 'scale': 0}
  }
}
layer {
  name:"Node_735"
  type:"nn_relu"
  top:"Node_735"
  bottom:"Node_733"
  layer_param {
    idx:735
    in_0 {name:"Node_733:0",dtype:float32,shape:[1, 192, 17, 17]}
    out_0 {name:"Node_735:0",dtype:float32,shape:[1, 192, 17, 17]}
  }
}
layer {
  name:"Node_752"
  type:"const"
  top:"Node_752"
  layer_param {
    idx:752
    out_0 {name:"Node_752:0",dtype:float32,shape:[160, 768, 1, 1]}
  }
}
layer {
  name:"Node_753"
  type:"nn_conv2d"
  top:"Node_753"
  bottom:"Node_689"
  bottom:"Node_752"
  layer_param {
    idx:753
    in_0 {name:"Node_689:0",dtype:float32,shape:[1, 768, 17, 17]}
    in_1 {name:"Node_752:0",dtype:float32,shape:[160, 768, 1, 1]}
    out_0 {name:"Node_753:0",dtype:float32,shape:[1, 160, 17, 17]}
    attrs {'strides': [1, 1], 'padding': [0, 0, 0, 0], 'dilation': [1, 1], 'groups': 1, 'channels': 160, 'kernel_size': [1, 1], 'data_layout': 'NCHW', 'kernel_layout': 'OIHW', 'out_layout': '', 'out_dtype': ''}
  }
}
layer {
  name:"Node_754"
  type:"const"
  top:"Node_754"
  layer_param {
    idx:754
    out_0 {name:"Node_754:0",dtype:float32,shape:[160]}
  }
}
layer {
  name:"Node_755"
  type:"const"
  top:"Node_755"
  layer_param {
    idx:755
    out_0 {name:"Node_755:0",dtype:float32,shape:[160]}
  }
}
layer {
  name:"Node_756"
  type:"const"
  top:"Node_756"
  layer_param {
    idx:756
    out_0 {name:"Node_756:0",dtype:float32,shape:[160]}
  }
}
layer {
  name:"Node_757"
  type:"const"
  top:"Node_757"
  layer_param {
    idx:757
    out_0 {name:"Node_757:0",dtype:float32,shape:[160]}
  }
}
layer {
  name:"Node_758"
  type:"nn_batch_norm"
  top:"Node_758"
  bottom:"Node_753"
  bottom:"Node_754"
  bottom:"Node_755"
  bottom:"Node_756"
  bottom:"Node_757"
  layer_param {
    idx:758
    in_0 {name:"Node_753:0",dtype:float32,shape:[1, 160, 17, 17]}
    in_1 {name:"Node_754:0",dtype:float32,shape:[160]}
    in_2 {name:"Node_755:0",dtype:float32,shape:[160]}
    in_3 {name:"Node_756:0",dtype:float32,shape:[160]}
    in_4 {name:"Node_757:0",dtype:float32,shape:[160]}
    out_0 {name:"Node_758:0",dtype:float32,shape:[1, 160, 17, 17]}
    out_1 {name:"Node_758:1",dtype:float32,shape:[160]}
    out_2 {name:"Node_758:2",dtype:float32,shape:[160]}
    attrs {'axis': 1, 'epsilon': 0.0010000000474974513, 'center': 1, 'scale': 0}
  }
}
layer {
  name:"Node_760"
  type:"nn_relu"
  top:"Node_760"
  bottom:"Node_758"
  layer_param {
    idx:760
    in_0 {name:"Node_758:0",dtype:float32,shape:[1, 160, 17, 17]}
    out_0 {name:"Node_760:0",dtype:float32,shape:[1, 160, 17, 17]}
  }
}
layer {
  name:"Node_761"
  type:"const"
  top:"Node_761"
  layer_param {
    idx:761
    out_0 {name:"Node_761:0",dtype:float32,shape:[160, 160, 7, 1]}
  }
}
layer {
  name:"Node_762"
  type:"nn_conv2d"
  top:"Node_762"
  bottom:"Node_760"
  bottom:"Node_761"
  layer_param {
    idx:762
    in_0 {name:"Node_760:0",dtype:float32,shape:[1, 160, 17, 17]}
    in_1 {name:"Node_761:0",dtype:float32,shape:[160, 160, 7, 1]}
    out_0 {name:"Node_762:0",dtype:float32,shape:[1, 160, 17, 17]}
    attrs {'strides': [1, 1], 'padding': [3, 0, 3, 0], 'dilation': [1, 1], 'groups': 1, 'channels': 160, 'kernel_size': [7, 1], 'data_layout': 'NCHW', 'kernel_layout': 'OIHW', 'out_layout': '', 'out_dtype': ''}
  }
}
layer {
  name:"Node_763"
  type:"const"
  top:"Node_763"
  layer_param {
    idx:763
    out_0 {name:"Node_763:0",dtype:float32,shape:[160]}
  }
}
layer {
  name:"Node_764"
  type:"const"
  top:"Node_764"
  layer_param {
    idx:764
    out_0 {name:"Node_764:0",dtype:float32,shape:[160]}
  }
}
layer {
  name:"Node_765"
  type:"const"
  top:"Node_765"
  layer_param {
    idx:765
    out_0 {name:"Node_765:0",dtype:float32,shape:[160]}
  }
}
layer {
  name:"Node_766"
  type:"const"
  top:"Node_766"
  layer_param {
    idx:766
    out_0 {name:"Node_766:0",dtype:float32,shape:[160]}
  }
}
layer {
  name:"Node_767"
  type:"nn_batch_norm"
  top:"Node_767"
  bottom:"Node_762"
  bottom:"Node_763"
  bottom:"Node_764"
  bottom:"Node_765"
  bottom:"Node_766"
  layer_param {
    idx:767
    in_0 {name:"Node_762:0",dtype:float32,shape:[1, 160, 17, 17]}
    in_1 {name:"Node_763:0",dtype:float32,shape:[160]}
    in_2 {name:"Node_764:0",dtype:float32,shape:[160]}
    in_3 {name:"Node_765:0",dtype:float32,shape:[160]}
    in_4 {name:"Node_766:0",dtype:float32,shape:[160]}
    out_0 {name:"Node_767:0",dtype:float32,shape:[1, 160, 17, 17]}
    out_1 {name:"Node_767:1",dtype:float32,shape:[160]}
    out_2 {name:"Node_767:2",dtype:float32,shape:[160]}
    attrs {'axis': 1, 'epsilon': 0.0010000000474974513, 'center': 1, 'scale': 0}
  }
}
layer {
  name:"Node_769"
  type:"nn_relu"
  top:"Node_769"
  bottom:"Node_767"
  layer_param {
    idx:769
    in_0 {name:"Node_767:0",dtype:float32,shape:[1, 160, 17, 17]}
    out_0 {name:"Node_769:0",dtype:float32,shape:[1, 160, 17, 17]}
  }
}
layer {
  name:"Node_770"
  type:"const"
  top:"Node_770"
  layer_param {
    idx:770
    out_0 {name:"Node_770:0",dtype:float32,shape:[160, 160, 1, 7]}
  }
}
layer {
  name:"Node_771"
  type:"nn_conv2d"
  top:"Node_771"
  bottom:"Node_769"
  bottom:"Node_770"
  layer_param {
    idx:771
    in_0 {name:"Node_769:0",dtype:float32,shape:[1, 160, 17, 17]}
    in_1 {name:"Node_770:0",dtype:float32,shape:[160, 160, 1, 7]}
    out_0 {name:"Node_771:0",dtype:float32,shape:[1, 160, 17, 17]}
    attrs {'strides': [1, 1], 'padding': [0, 3, 0, 3], 'dilation': [1, 1], 'groups': 1, 'channels': 160, 'kernel_size': [1, 7], 'data_layout': 'NCHW', 'kernel_layout': 'OIHW', 'out_layout': '', 'out_dtype': ''}
  }
}
layer {
  name:"Node_772"
  type:"const"
  top:"Node_772"
  layer_param {
    idx:772
    out_0 {name:"Node_772:0",dtype:float32,shape:[160]}
  }
}
layer {
  name:"Node_773"
  type:"const"
  top:"Node_773"
  layer_param {
    idx:773
    out_0 {name:"Node_773:0",dtype:float32,shape:[160]}
  }
}
layer {
  name:"Node_774"
  type:"const"
  top:"Node_774"
  layer_param {
    idx:774
    out_0 {name:"Node_774:0",dtype:float32,shape:[160]}
  }
}
layer {
  name:"Node_775"
  type:"const"
  top:"Node_775"
  layer_param {
    idx:775
    out_0 {name:"Node_775:0",dtype:float32,shape:[160]}
  }
}
layer {
  name:"Node_776"
  type:"nn_batch_norm"
  top:"Node_776"
  bottom:"Node_771"
  bottom:"Node_772"
  bottom:"Node_773"
  bottom:"Node_774"
  bottom:"Node_775"
  layer_param {
    idx:776
    in_0 {name:"Node_771:0",dtype:float32,shape:[1, 160, 17, 17]}
    in_1 {name:"Node_772:0",dtype:float32,shape:[160]}
    in_2 {name:"Node_773:0",dtype:float32,shape:[160]}
    in_3 {name:"Node_774:0",dtype:float32,shape:[160]}
    in_4 {name:"Node_775:0",dtype:float32,shape:[160]}
    out_0 {name:"Node_776:0",dtype:float32,shape:[1, 160, 17, 17]}
    out_1 {name:"Node_776:1",dtype:float32,shape:[160]}
    out_2 {name:"Node_776:2",dtype:float32,shape:[160]}
    attrs {'axis': 1, 'epsilon': 0.0010000000474974513, 'center': 1, 'scale': 0}
  }
}
layer {
  name:"Node_778"
  type:"nn_relu"
  top:"Node_778"
  bottom:"Node_776"
  layer_param {
    idx:778
    in_0 {name:"Node_776:0",dtype:float32,shape:[1, 160, 17, 17]}
    out_0 {name:"Node_778:0",dtype:float32,shape:[1, 160, 17, 17]}
  }
}
layer {
  name:"Node_779"
  type:"const"
  top:"Node_779"
  layer_param {
    idx:779
    out_0 {name:"Node_779:0",dtype:float32,shape:[160, 160, 7, 1]}
  }
}
layer {
  name:"Node_780"
  type:"nn_conv2d"
  top:"Node_780"
  bottom:"Node_778"
  bottom:"Node_779"
  layer_param {
    idx:780
    in_0 {name:"Node_778:0",dtype:float32,shape:[1, 160, 17, 17]}
    in_1 {name:"Node_779:0",dtype:float32,shape:[160, 160, 7, 1]}
    out_0 {name:"Node_780:0",dtype:float32,shape:[1, 160, 17, 17]}
    attrs {'strides': [1, 1], 'padding': [3, 0, 3, 0], 'dilation': [1, 1], 'groups': 1, 'channels': 160, 'kernel_size': [7, 1], 'data_layout': 'NCHW', 'kernel_layout': 'OIHW', 'out_layout': '', 'out_dtype': ''}
  }
}
layer {
  name:"Node_781"
  type:"const"
  top:"Node_781"
  layer_param {
    idx:781
    out_0 {name:"Node_781:0",dtype:float32,shape:[160]}
  }
}
layer {
  name:"Node_782"
  type:"const"
  top:"Node_782"
  layer_param {
    idx:782
    out_0 {name:"Node_782:0",dtype:float32,shape:[160]}
  }
}
layer {
  name:"Node_783"
  type:"const"
  top:"Node_783"
  layer_param {
    idx:783
    out_0 {name:"Node_783:0",dtype:float32,shape:[160]}
  }
}
layer {
  name:"Node_784"
  type:"const"
  top:"Node_784"
  layer_param {
    idx:784
    out_0 {name:"Node_784:0",dtype:float32,shape:[160]}
  }
}
layer {
  name:"Node_785"
  type:"nn_batch_norm"
  top:"Node_785"
  bottom:"Node_780"
  bottom:"Node_781"
  bottom:"Node_782"
  bottom:"Node_783"
  bottom:"Node_784"
  layer_param {
    idx:785
    in_0 {name:"Node_780:0",dtype:float32,shape:[1, 160, 17, 17]}
    in_1 {name:"Node_781:0",dtype:float32,shape:[160]}
    in_2 {name:"Node_782:0",dtype:float32,shape:[160]}
    in_3 {name:"Node_783:0",dtype:float32,shape:[160]}
    in_4 {name:"Node_784:0",dtype:float32,shape:[160]}
    out_0 {name:"Node_785:0",dtype:float32,shape:[1, 160, 17, 17]}
    out_1 {name:"Node_785:1",dtype:float32,shape:[160]}
    out_2 {name:"Node_785:2",dtype:float32,shape:[160]}
    attrs {'axis': 1, 'epsilon': 0.0010000000474974513, 'center': 1, 'scale': 0}
  }
}
layer {
  name:"Node_787"
  type:"nn_relu"
  top:"Node_787"
  bottom:"Node_785"
  layer_param {
    idx:787
    in_0 {name:"Node_785:0",dtype:float32,shape:[1, 160, 17, 17]}
    out_0 {name:"Node_787:0",dtype:float32,shape:[1, 160, 17, 17]}
  }
}
layer {
  name:"Node_788"
  type:"const"
  top:"Node_788"
  layer_param {
    idx:788
    out_0 {name:"Node_788:0",dtype:float32,shape:[192, 160, 1, 7]}
  }
}
layer {
  name:"Node_789"
  type:"nn_conv2d"
  top:"Node_789"
  bottom:"Node_787"
  bottom:"Node_788"
  layer_param {
    idx:789
    in_0 {name:"Node_787:0",dtype:float32,shape:[1, 160, 17, 17]}
    in_1 {name:"Node_788:0",dtype:float32,shape:[192, 160, 1, 7]}
    out_0 {name:"Node_789:0",dtype:float32,shape:[1, 192, 17, 17]}
    attrs {'strides': [1, 1], 'padding': [0, 3, 0, 3], 'dilation': [1, 1], 'groups': 1, 'channels': 192, 'kernel_size': [1, 7], 'data_layout': 'NCHW', 'kernel_layout': 'OIHW', 'out_layout': '', 'out_dtype': ''}
  }
}
layer {
  name:"Node_790"
  type:"const"
  top:"Node_790"
  layer_param {
    idx:790
    out_0 {name:"Node_790:0",dtype:float32,shape:[192]}
  }
}
layer {
  name:"Node_791"
  type:"const"
  top:"Node_791"
  layer_param {
    idx:791
    out_0 {name:"Node_791:0",dtype:float32,shape:[192]}
  }
}
layer {
  name:"Node_792"
  type:"const"
  top:"Node_792"
  layer_param {
    idx:792
    out_0 {name:"Node_792:0",dtype:float32,shape:[192]}
  }
}
layer {
  name:"Node_793"
  type:"const"
  top:"Node_793"
  layer_param {
    idx:793
    out_0 {name:"Node_793:0",dtype:float32,shape:[192]}
  }
}
layer {
  name:"Node_794"
  type:"nn_batch_norm"
  top:"Node_794"
  bottom:"Node_789"
  bottom:"Node_790"
  bottom:"Node_791"
  bottom:"Node_792"
  bottom:"Node_793"
  layer_param {
    idx:794
    in_0 {name:"Node_789:0",dtype:float32,shape:[1, 192, 17, 17]}
    in_1 {name:"Node_790:0",dtype:float32,shape:[192]}
    in_2 {name:"Node_791:0",dtype:float32,shape:[192]}
    in_3 {name:"Node_792:0",dtype:float32,shape:[192]}
    in_4 {name:"Node_793:0",dtype:float32,shape:[192]}
    out_0 {name:"Node_794:0",dtype:float32,shape:[1, 192, 17, 17]}
    out_1 {name:"Node_794:1",dtype:float32,shape:[192]}
    out_2 {name:"Node_794:2",dtype:float32,shape:[192]}
    attrs {'axis': 1, 'epsilon': 0.0010000000474974513, 'center': 1, 'scale': 0}
  }
}
layer {
  name:"Node_796"
  type:"nn_relu"
  top:"Node_796"
  bottom:"Node_794"
  layer_param {
    idx:796
    in_0 {name:"Node_794:0",dtype:float32,shape:[1, 192, 17, 17]}
    out_0 {name:"Node_796:0",dtype:float32,shape:[1, 192, 17, 17]}
  }
}
layer {
  name:"Node_802"
  type:"nn_avg_pool2d"
  top:"Node_802"
  bottom:"Node_689"
  layer_param {
    idx:802
    in_0 {name:"Node_689:0",dtype:float32,shape:[1, 768, 17, 17]}
    out_0 {name:"Node_802:0",dtype:float32,shape:[1, 768, 17, 17]}
    attrs {'pool_size': [3, 3], 'strides': [1, 1], 'dilation': [1, 1], 'padding': [1, 1, 1, 1], 'layout': 'NCHW', 'ceil_mode': 0, 'count_include_pad': 0}
  }
}
layer {
  name:"Node_803"
  type:"const"
  top:"Node_803"
  layer_param {
    idx:803
    out_0 {name:"Node_803:0",dtype:float32,shape:[192, 768, 1, 1]}
  }
}
layer {
  name:"Node_804"
  type:"nn_conv2d"
  top:"Node_804"
  bottom:"Node_802"
  bottom:"Node_803"
  layer_param {
    idx:804
    in_0 {name:"Node_802:0",dtype:float32,shape:[1, 768, 17, 17]}
    in_1 {name:"Node_803:0",dtype:float32,shape:[192, 768, 1, 1]}
    out_0 {name:"Node_804:0",dtype:float32,shape:[1, 192, 17, 17]}
    attrs {'strides': [1, 1], 'padding': [0, 0, 0, 0], 'dilation': [1, 1], 'groups': 1, 'channels': 192, 'kernel_size': [1, 1], 'data_layout': 'NCHW', 'kernel_layout': 'OIHW', 'out_layout': '', 'out_dtype': ''}
  }
}
layer {
  name:"Node_805"
  type:"const"
  top:"Node_805"
  layer_param {
    idx:805
    out_0 {name:"Node_805:0",dtype:float32,shape:[192]}
  }
}
layer {
  name:"Node_806"
  type:"const"
  top:"Node_806"
  layer_param {
    idx:806
    out_0 {name:"Node_806:0",dtype:float32,shape:[192]}
  }
}
layer {
  name:"Node_807"
  type:"const"
  top:"Node_807"
  layer_param {
    idx:807
    out_0 {name:"Node_807:0",dtype:float32,shape:[192]}
  }
}
layer {
  name:"Node_808"
  type:"const"
  top:"Node_808"
  layer_param {
    idx:808
    out_0 {name:"Node_808:0",dtype:float32,shape:[192]}
  }
}
layer {
  name:"Node_809"
  type:"nn_batch_norm"
  top:"Node_809"
  bottom:"Node_804"
  bottom:"Node_805"
  bottom:"Node_806"
  bottom:"Node_807"
  bottom:"Node_808"
  layer_param {
    idx:809
    in_0 {name:"Node_804:0",dtype:float32,shape:[1, 192, 17, 17]}
    in_1 {name:"Node_805:0",dtype:float32,shape:[192]}
    in_2 {name:"Node_806:0",dtype:float32,shape:[192]}
    in_3 {name:"Node_807:0",dtype:float32,shape:[192]}
    in_4 {name:"Node_808:0",dtype:float32,shape:[192]}
    out_0 {name:"Node_809:0",dtype:float32,shape:[1, 192, 17, 17]}
    out_1 {name:"Node_809:1",dtype:float32,shape:[192]}
    out_2 {name:"Node_809:2",dtype:float32,shape:[192]}
    attrs {'axis': 1, 'epsilon': 0.0010000000474974513, 'center': 1, 'scale': 0}
  }
}
layer {
  name:"Node_811"
  type:"nn_relu"
  top:"Node_811"
  bottom:"Node_809"
  layer_param {
    idx:811
    in_0 {name:"Node_809:0",dtype:float32,shape:[1, 192, 17, 17]}
    out_0 {name:"Node_811:0",dtype:float32,shape:[1, 192, 17, 17]}
  }
}
layer {
  name:"Node_813"
  type:"concatenate"
  top:"Node_813"
  bottom:"Node_698"
  bottom:"Node_735"
  bottom:"Node_796"
  bottom:"Node_811"
  layer_param {
    idx:813
    in_0 {name:"Node_698:0",dtype:float32,shape:[1, 192, 17, 17]}
    in_1 {name:"Node_735:0",dtype:float32,shape:[1, 192, 17, 17]}
    in_2 {name:"Node_796:0",dtype:float32,shape:[1, 192, 17, 17]}
    in_3 {name:"Node_811:0",dtype:float32,shape:[1, 192, 17, 17]}
    out_0 {name:"Node_813:0",dtype:float32,shape:[1, 768, 17, 17]}
    attrs {'axis': 1}
  }
}
layer {
  name:"Node_814"
  type:"const"
  top:"Node_814"
  layer_param {
    idx:814
    out_0 {name:"Node_814:0",dtype:float32,shape:[192, 768, 1, 1]}
  }
}
layer {
  name:"Node_815"
  type:"nn_conv2d"
  top:"Node_815"
  bottom:"Node_813"
  bottom:"Node_814"
  layer_param {
    idx:815
    in_0 {name:"Node_813:0",dtype:float32,shape:[1, 768, 17, 17]}
    in_1 {name:"Node_814:0",dtype:float32,shape:[192, 768, 1, 1]}
    out_0 {name:"Node_815:0",dtype:float32,shape:[1, 192, 17, 17]}
    attrs {'strides': [1, 1], 'padding': [0, 0, 0, 0], 'dilation': [1, 1], 'groups': 1, 'channels': 192, 'kernel_size': [1, 1], 'data_layout': 'NCHW', 'kernel_layout': 'OIHW', 'out_layout': '', 'out_dtype': ''}
  }
}
layer {
  name:"Node_816"
  type:"const"
  top:"Node_816"
  layer_param {
    idx:816
    out_0 {name:"Node_816:0",dtype:float32,shape:[192]}
  }
}
layer {
  name:"Node_817"
  type:"const"
  top:"Node_817"
  layer_param {
    idx:817
    out_0 {name:"Node_817:0",dtype:float32,shape:[192]}
  }
}
layer {
  name:"Node_818"
  type:"const"
  top:"Node_818"
  layer_param {
    idx:818
    out_0 {name:"Node_818:0",dtype:float32,shape:[192]}
  }
}
layer {
  name:"Node_819"
  type:"const"
  top:"Node_819"
  layer_param {
    idx:819
    out_0 {name:"Node_819:0",dtype:float32,shape:[192]}
  }
}
layer {
  name:"Node_820"
  type:"nn_batch_norm"
  top:"Node_820"
  bottom:"Node_815"
  bottom:"Node_816"
  bottom:"Node_817"
  bottom:"Node_818"
  bottom:"Node_819"
  layer_param {
    idx:820
    in_0 {name:"Node_815:0",dtype:float32,shape:[1, 192, 17, 17]}
    in_1 {name:"Node_816:0",dtype:float32,shape:[192]}
    in_2 {name:"Node_817:0",dtype:float32,shape:[192]}
    in_3 {name:"Node_818:0",dtype:float32,shape:[192]}
    in_4 {name:"Node_819:0",dtype:float32,shape:[192]}
    out_0 {name:"Node_820:0",dtype:float32,shape:[1, 192, 17, 17]}
    out_1 {name:"Node_820:1",dtype:float32,shape:[192]}
    out_2 {name:"Node_820:2",dtype:float32,shape:[192]}
    attrs {'axis': 1, 'epsilon': 0.0010000000474974513, 'center': 1, 'scale': 0}
  }
}
layer {
  name:"Node_822"
  type:"nn_relu"
  top:"Node_822"
  bottom:"Node_820"
  layer_param {
    idx:822
    in_0 {name:"Node_820:0",dtype:float32,shape:[1, 192, 17, 17]}
    out_0 {name:"Node_822:0",dtype:float32,shape:[1, 192, 17, 17]}
  }
}
layer {
  name:"Node_833"
  type:"const"
  top:"Node_833"
  layer_param {
    idx:833
    out_0 {name:"Node_833:0",dtype:float32,shape:[192, 768, 1, 1]}
  }
}
layer {
  name:"Node_834"
  type:"nn_conv2d"
  top:"Node_834"
  bottom:"Node_813"
  bottom:"Node_833"
  layer_param {
    idx:834
    in_0 {name:"Node_813:0",dtype:float32,shape:[1, 768, 17, 17]}
    in_1 {name:"Node_833:0",dtype:float32,shape:[192, 768, 1, 1]}
    out_0 {name:"Node_834:0",dtype:float32,shape:[1, 192, 17, 17]}
    attrs {'strides': [1, 1], 'padding': [0, 0, 0, 0], 'dilation': [1, 1], 'groups': 1, 'channels': 192, 'kernel_size': [1, 1], 'data_layout': 'NCHW', 'kernel_layout': 'OIHW', 'out_layout': '', 'out_dtype': ''}
  }
}
layer {
  name:"Node_835"
  type:"const"
  top:"Node_835"
  layer_param {
    idx:835
    out_0 {name:"Node_835:0",dtype:float32,shape:[192]}
  }
}
layer {
  name:"Node_836"
  type:"const"
  top:"Node_836"
  layer_param {
    idx:836
    out_0 {name:"Node_836:0",dtype:float32,shape:[192]}
  }
}
layer {
  name:"Node_837"
  type:"const"
  top:"Node_837"
  layer_param {
    idx:837
    out_0 {name:"Node_837:0",dtype:float32,shape:[192]}
  }
}
layer {
  name:"Node_838"
  type:"const"
  top:"Node_838"
  layer_param {
    idx:838
    out_0 {name:"Node_838:0",dtype:float32,shape:[192]}
  }
}
layer {
  name:"Node_839"
  type:"nn_batch_norm"
  top:"Node_839"
  bottom:"Node_834"
  bottom:"Node_835"
  bottom:"Node_836"
  bottom:"Node_837"
  bottom:"Node_838"
  layer_param {
    idx:839
    in_0 {name:"Node_834:0",dtype:float32,shape:[1, 192, 17, 17]}
    in_1 {name:"Node_835:0",dtype:float32,shape:[192]}
    in_2 {name:"Node_836:0",dtype:float32,shape:[192]}
    in_3 {name:"Node_837:0",dtype:float32,shape:[192]}
    in_4 {name:"Node_838:0",dtype:float32,shape:[192]}
    out_0 {name:"Node_839:0",dtype:float32,shape:[1, 192, 17, 17]}
    out_1 {name:"Node_839:1",dtype:float32,shape:[192]}
    out_2 {name:"Node_839:2",dtype:float32,shape:[192]}
    attrs {'axis': 1, 'epsilon': 0.0010000000474974513, 'center': 1, 'scale': 0}
  }
}
layer {
  name:"Node_841"
  type:"nn_relu"
  top:"Node_841"
  bottom:"Node_839"
  layer_param {
    idx:841
    in_0 {name:"Node_839:0",dtype:float32,shape:[1, 192, 17, 17]}
    out_0 {name:"Node_841:0",dtype:float32,shape:[1, 192, 17, 17]}
  }
}
layer {
  name:"Node_842"
…
    in_0 {name:"Node_993:0",dtype:float32,shape:[1, 192, 17, 17]}
    out_0 {name:"Node_995:0",dtype:float32,shape:[1, 192, 17, 17]}
  }
}
layer {
  name:"Node_996"
  type:"const"
  top:"Node_996"
  layer_param {
    idx:996
    out_0 {name:"Node_996:0",dtype:float32,shape:[192, 192, 3, 3]}
  }
}
layer {
  name:"Node_997"
  type:"nn_conv2d"
  top:"Node_997"
  bottom:"Node_995"
  bottom:"Node_996"
  layer_param {
    idx:997
    in_0 {name:"Node_995:0",dtype:float32,shape:[1, 192, 17, 17]}
    in_1 {name:"Node_996:0",dtype:float32,shape:[192, 192, 3, 3]}
    out_0 {name:"Node_997:0",dtype:float32,shape:[1, 192, 8, 8]}
    attrs {'strides': [2, 2], 'padding': [0, 0, 0, 0], 'dilation': [1, 1], 'groups': 1, 'channels': 192, 'kernel_size': [3, 3], 'data_layout': 'NCHW', 'kernel_layout': 'OIHW', 'out_layout': '', 'out_dtype': ''}
  }
}
layer {
  name:"Node_998"
  type:"const"
  top:"Node_998"
  layer_param {
    idx:998
    out_0 {name:"Node_998:0",dtype:float32,shape:[192]}
  }
}
layer {
  name:"Node_999"
  type:"const"
  top:"Node_999"
  layer_param {
    idx:999
    out_0 {name:"Node_999:0",dtype:float32,shape:[192]}
  }
}
layer {
  name:"Node_1000"
  type:"const"
  top:"Node_1000"
  layer_param {
    idx:1000
    out_0 {name:"Node_1000:0",dtype:float32,shape:[192]}
  }
}
layer {
  name:"Node_1001"
  type:"const"
  top:"Node_1001"
  layer_param {
    idx:1001
    out_0 {name:"Node_1001:0",dtype:float32,shape:[192]}
  }
}
layer {
  name:"Node_1002"
  type:"nn_batch_norm"
  top:"Node_1002"
  bottom:"Node_997"
  bottom:"Node_998"
  bottom:"Node_999"
  bottom:"Node_1000"
  bottom:"Node_1001"
  layer_param {
    idx:1002
    in_0 {name:"Node_997:0",dtype:float32,shape:[1, 192, 8, 8]}
    in_1 {name:"Node_998:0",dtype:float32,shape:[192]}
    in_2 {name:"Node_999:0",dtype:float32,shape:[192]}
    in_3 {name:"Node_1000:0",dtype:float32,shape:[192]}
    in_4 {name:"Node_1001:0",dtype:float32,shape:[192]}
    out_0 {name:"Node_1002:0",dtype:float32,shape:[1, 192, 8, 8]}
    out_1 {name:"Node_1002:1",dtype:float32,shape:[192]}
    out_2 {name:"Node_1002:2",dtype:float32,shape:[192]}
    attrs {'axis': 1, 'epsilon': 0.0010000000474974513, 'center': 1, 'scale': 0}
  }
}
layer {
  name:"Node_1004"
  type:"nn_relu"
  top:"Node_1004"
  bottom:"Node_1002"
  layer_param {
    idx:1004
    in_0 {name:"Node_1002:0",dtype:float32,shape:[1, 192, 8, 8]}
    out_0 {name:"Node_1004:0",dtype:float32,shape:[1, 192, 8, 8]}
  }
}
layer {
  name:"Node_1007"
  type:"nn_max_pool2d"
  top:"Node_1007"
  bottom:"Node_937"
  layer_param {
    idx:1007
    in_0 {name:"Node_937:0",dtype:float32,shape:[1, 768, 17, 17]}
    out_0 {name:"Node_1007:0",dtype:float32,shape:[1, 768, 8, 8]}
    attrs {'pool_size': [3, 3], 'strides': [2, 2], 'dilation': [1, 1], 'padding': [0, 0, 0, 0], 'layout': 'NCHW', 'ceil_mode': 0}
  }
}
layer {
  name:"Node_1009"
  type:"concatenate"
  top:"Node_1009"
  bottom:"Node_955"
  bottom:"Node_1004"
  bottom:"Node_1007"
  layer_param {
    idx:1009
    in_0 {name:"Node_955:0",dtype:float32,shape:[1, 320, 8, 8]}
    in_1 {name:"Node_1004:0",dtype:float32,shape:[1, 192, 8, 8]}
    in_2 {name:"Node_1007:0",dtype:float32,shape:[1, 768, 8, 8]}
    out_0 {name:"Node_1009:0",dtype:float32,shape:[1, 1280, 8, 8]}
    attrs {'axis': 1}
  }
}
layer {
  name:"Node_1010"
  type:"const"
  top:"Node_1010"
  layer_param {
    idx:1010
    out_0 {name:"Node_1010:0",dtype:float32,shape:[320, 1280, 1, 1]}
  }
}
layer {
  name:"Node_1011"
  type:"nn_conv2d"
  top:"Node_1011"
  bottom:"Node_1009"
  bottom:"Node_1010"
  layer_param {
    idx:1011
    in_0 {name:"Node_1009:0",dtype:float32,shape:[1, 1280, 8, 8]}
    in_1 {name:"Node_1010:0",dtype:float32,shape:[320, 1280, 1, 1]}
    out_0 {name:"Node_1011:0",dtype:float32,shape:[1, 320, 8, 8]}
    attrs {'strides': [1, 1], 'padding': [0, 0, 0, 0], 'dilation': [1, 1], 'groups': 1, 'channels': 320, 'kernel_size': [1, 1], 'data_layout': 'NCHW', 'kernel_layout': 'OIHW', 'out_layout': '', 'out_dtype': ''}
  }
}
layer {
  name:"Node_1012"
  type:"const"
  top:"Node_1012"
  layer_param {
    idx:1012
    out_0 {name:"Node_1012:0",dtype:float32,shape:[320]}
  }
}
layer {
  name:"Node_1013"
  type:"const"
  top:"Node_1013"
  layer_param {
    idx:1013
    out_0 {name:"Node_1013:0",dtype:float32,shape:[320]}
  }
}
layer {
  name:"Node_1014"
  type:"const"
  top:"Node_1014"
  layer_param {
    idx:1014
    out_0 {name:"Node_1014:0",dtype:float32,shape:[320]}
  }
}
layer {
  name:"Node_1015"
  type:"const"
  top:"Node_1015"
  layer_param {
    idx:1015
    out_0 {name:"Node_1015:0",dtype:float32,shape:[320]}
  }
}
layer {
  name:"Node_1016"
  type:"nn_batch_norm"
  top:"Node_1016"
  bottom:"Node_1011"
  bottom:"Node_1012"
  bottom:"Node_1013"
  bottom:"Node_1014"
  bottom:"Node_1015"
  layer_param {
    idx:1016
    in_0 {name:"Node_1011:0",dtype:float32,shape:[1, 320, 8, 8]}
    in_1 {name:"Node_1012:0",dtype:float32,shape:[320]}
    in_2 {name:"Node_1013:0",dtype:float32,shape:[320]}
    in_3 {name:"Node_1014:0",dtype:float32,shape:[320]}
    in_4 {name:"Node_1015:0",dtype:float32,shape:[320]}
    out_0 {name:"Node_1016:0",dtype:float32,shape:[1, 320, 8, 8]}
    out_1 {name:"Node_1016:1",dtype:float32,shape:[320]}
    out_2 {name:"Node_1016:2",dtype:float32,shape:[320]}
    attrs {'axis': 1, 'epsilon': 0.0010000000474974513, 'center': 1, 'scale': 0}
  }
}
layer {
  name:"Node_1018"
  type:"nn_relu"
  top:"Node_1018"
  bottom:"Node_1016"
  layer_param {
    idx:1018
    in_0 {name:"Node_1016:0",dtype:float32,shape:[1, 320, 8, 8]}
    out_0 {name:"Node_1018:0",dtype:float32,shape:[1, 320, 8, 8]}
  }
}
layer {
  name:"Node_1026"
  type:"const"
  top:"Node_1026"
  layer_param {
    idx:1026
    out_0 {name:"Node_1026:0",dtype:float32,shape:[384, 1280, 1, 1]}
  }
}
layer {
  name:"Node_1027"
  type:"nn_conv2d"
  top:"Node_1027"
  bottom:"Node_1009"
  bottom:"Node_1026"
  layer_param {
    idx:1027
    in_0 {name:"Node_1009:0",dtype:float32,shape:[1, 1280, 8, 8]}
    in_1 {name:"Node_1026:0",dtype:float32,shape:[384, 1280, 1, 1]}
    out_0 {name:"Node_1027:0",dtype:float32,shape:[1, 384, 8, 8]}
    attrs {'strides': [1, 1], 'padding': [0, 0, 0, 0], 'dilation': [1, 1], 'groups': 1, 'channels': 384, 'kernel_size': [1, 1], 'data_layout': 'NCHW', 'kernel_layout': 'OIHW', 'out_layout': '', 'out_dtype': ''}
  }
}
layer {
  name:"Node_1028"
  type:"const"
  top:"Node_1028"
  layer_param {
    idx:1028
    out_0 {name:"Node_1028:0",dtype:float32,shape:[384]}
  }
}
layer {
  name:"Node_1029"
  type:"const"
  top:"Node_1029"
  layer_param {
    idx:1029
    out_0 {name:"Node_1029:0",dtype:float32,shape:[384]}
  }
}
layer {
  name:"Node_1030"
  type:"const"
  top:"Node_1030"
  layer_param {
    idx:1030
    out_0 {name:"Node_1030:0",dtype:float32,shape:[384]}
  }
}
layer {
  name:"Node_1031"
  type:"const"
  top:"Node_1031"
  layer_param {
    idx:1031
    out_0 {name:"Node_1031:0",dtype:float32,shape:[384]}
  }
}
layer {
  name:"Node_1032"
  type:"nn_batch_norm"
  top:"Node_1032"
  bottom:"Node_1027"
  bottom:"Node_1028"
  bottom:"Node_1029"
  bottom:"Node_1030"
  bottom:"Node_1031"
  layer_param {
    idx:1032
    in_0 {name:"Node_1027:0",dtype:float32,shape:[1, 384, 8, 8]}
    in_1 {name:"Node_1028:0",dtype:float32,shape:[384]}
    in_2 {name:"Node_1029:0",dtype:float32,shape:[384]}
    in_3 {name:"Node_1030:0",dtype:float32,shape:[384]}
    in_4 {name:"Node_1031:0",dtype:float32,shape:[384]}
    out_0 {name:"Node_1032:0",dtype:float32,shape:[1, 384, 8, 8]}
    out_1 {name:"Node_1032:1",dtype:float32,shape:[384]}
    out_2 {name:"Node_1032:2",dtype:float32,shape:[384]}
    attrs {'axis': 1, 'epsilon': 0.0010000000474974513, 'center': 1, 'scale': 0}
  }
}
layer {
  name:"Node_1034"
  type:"nn_relu"
  top:"Node_1034"
  bottom:"Node_1032"
  layer_param {
    idx:1034
    in_0 {name:"Node_1032:0",dtype:float32,shape:[1, 384, 8, 8]}
    out_0 {name:"Node_1034:0",dtype:float32,shape:[1, 384, 8, 8]}
  }
}
layer {
  name:"Node_1035"
  type:"const"
  top:"Node_1035"
  layer_param {
    idx:1035
    out_0 {name:"Node_1035:0",dtype:float32,shape:[384, 384, 1, 3]}
  }
}
layer {
  name:"Node_1036"
  type:"nn_conv2d"
  top:"Node_1036"
  bottom:"Node_1034"
  bottom:"Node_1035"
  layer_param {
    idx:1036
    in_0 {name:"Node_1034:0",dtype:float32,shape:[1, 384, 8, 8]}
    in_1 {name:"Node_1035:0",dtype:float32,shape:[384, 384, 1, 3]}
    out_0 {name:"Node_1036:0",dtype:float32,shape:[1, 384, 8, 8]}
    attrs {'strides': [1, 1], 'padding': [0, 1, 0, 1], 'dilation': [1, 1], 'groups': 1, 'channels': 384, 'kernel_size': [1, 3], 'data_layout': 'NCHW', 'kernel_layout': 'OIHW', 'out_layout': '', 'out_dtype': ''}
  }
}
layer {
  name:"Node_1037"
  type:"const"
  top:"Node_1037"
  layer_param {
    idx:1037
    out_0 {name:"Node_1037:0",dtype:float32,shape:[384]}
  }
}
layer {
  name:"Node_1038"
  type:"const"
  top:"Node_1038"
  layer_param {
    idx:1038
    out_0 {name:"Node_1038:0",dtype:float32,shape:[384]}
  }
}
layer {
  name:"Node_1039"
  type:"const"
  top:"Node_1039"
  layer_param {
    idx:1039
    out_0 {name:"Node_1039:0",dtype:float32,shape:[384]}
  }
}
layer {
  name:"Node_1040"
  type:"const"
  top:"Node_1040"
  layer_param {
    idx:1040
    out_0 {name:"Node_1040:0",dtype:float32,shape:[384]}
  }
}
layer {
  name:"Node_1041"
  type:"nn_batch_norm"
  top:"Node_1041"
  bottom:"Node_1036"
  bottom:"Node_1037"
  bottom:"Node_1038"
  bottom:"Node_1039"
  bottom:"Node_1040"
  layer_param {
    idx:1041
    in_0 {name:"Node_1036:0",dtype:float32,shape:[1, 384, 8, 8]}
    in_1 {name:"Node_1037:0",dtype:float32,shape:[384]}
    in_2 {name:"Node_1038:0",dtype:float32,shape:[384]}
    in_3 {name:"Node_1039:0",dtype:float32,shape:[384]}
    in_4 {name:"Node_1040:0",dtype:float32,shape:[384]}
    out_0 {name:"Node_1041:0",dtype:float32,shape:[1, 384, 8, 8]}
    out_1 {name:"Node_1041:1",dtype:float32,shape:[384]}
    out_2 {name:"Node_1041:2",dtype:float32,shape:[384]}
    attrs {'axis': 1, 'epsilon': 0.0010000000474974513, 'center': 1, 'scale': 0}
  }
}
layer {
  name:"Node_1043"
  type:"nn_relu"
  top:"Node_1043"
  bottom:"Node_1041"
  layer_param {
    idx:1043
    in_0 {name:"Node_1041:0",dtype:float32,shape:[1, 384, 8, 8]}
    out_0 {name:"Node_1043:0",dtype:float32,shape:[1, 384, 8, 8]}
  }
}
layer {
  name:"Node_1048"
  type:"const"
  top:"Node_1048"
  layer_param {
    idx:1048
    out_0 {name:"Node_1048:0",dtype:float32,shape:[384, 384, 3, 1]}
  }
}
layer {
  name:"Node_1049"
  type:"nn_conv2d"
  top:"Node_1049"
  bottom:"Node_1034"
  bottom:"Node_1048"
  layer_param {
    idx:1049
    in_0 {name:"Node_1034:0",dtype:float32,shape:[1, 384, 8, 8]}
    in_1 {name:"Node_1048:0",dtype:float32,shape:[384, 384, 3, 1]}
    out_0 {name:"Node_1049:0",dtype:float32,shape:[1, 384, 8, 8]}
    attrs {'strides': [1, 1], 'padding': [1, 0, 1, 0], 'dilation': [1, 1], 'groups': 1, 'channels': 384, 'kernel_size': [3, 1], 'data_layout': 'NCHW', 'kernel_layout': 'OIHW', 'out_layout': '', 'out_dtype': ''}
  }
}
layer {
  name:"Node_1050"
  type:"const"
  top:"Node_1050"
  layer_param {
    idx:1050
    out_0 {name:"Node_1050:0",dtype:float32,shape:[384]}
  }
}
layer {
  name:"Node_1051"
  type:"const"
  top:"Node_1051"
  layer_param {
    idx:1051
    out_0 {name:"Node_1051:0",dtype:float32,shape:[384]}
  }
}
layer {
  name:"Node_1052"
  type:"const"
  top:"Node_1052"
  layer_param {
    idx:1052
    out_0 {name:"Node_1052:0",dtype:float32,shape:[384]}
  }
}
layer {
  name:"Node_1053"
  type:"const"
  top:"Node_1053"
  layer_param {
    idx:1053
    out_0 {name:"Node_1053:0",dtype:float32,shape:[384]}
  }
}
layer {
  name:"Node_1054"
  type:"nn_batch_norm"
  top:"Node_1054"
  bottom:"Node_1049"
  bottom:"Node_1050"
  bottom:"Node_1051"
  bottom:"Node_1052"
  bottom:"Node_1053"
  layer_param {
    idx:1054
    in_0 {name:"Node_1049:0",dtype:float32,shape:[1, 384, 8, 8]}
    in_1 {name:"Node_1050:0",dtype:float32,shape:[384]}
    in_2 {name:"Node_1051:0",dtype:float32,shape:[384]}
    in_3 {name:"Node_1052:0",dtype:float32,shape:[384]}
    in_4 {name:"Node_1053:0",dtype:float32,shape:[384]}
    out_0 {name:"Node_1054:0",dtype:float32,shape:[1, 384, 8, 8]}
    out_1 {name:"Node_1054:1",dtype:float32,shape:[384]}
    out_2 {name:"Node_1054:2",dtype:float32,shape:[384]}
    attrs {'axis': 1, 'epsilon': 0.0010000000474974513, 'center': 1, 'scale': 0}
  }
}
layer {
  name:"Node_1056"
  type:"nn_relu"
  top:"Node_1056"
  bottom:"Node_1054"
  layer_param {
    idx:1056
    in_0 {name:"Node_1054:0",dtype:float32,shape:[1, 384, 8, 8]}
    out_0 {name:"Node_1056:0",dtype:float32,shape:[1, 384, 8, 8]}
  }
}
layer {
  name:"Node_1067"
  type:"const"
  top:"Node_1067"
  layer_param {
    idx:1067
    out_0 {name:"Node_1067:0",dtype:float32,shape:[448, 1280, 1, 1]}
  }
}
layer {
  name:"Node_1068"
  type:"nn_conv2d"
  top:"Node_1068"
  bottom:"Node_1009"
  bottom:"Node_1067"
  layer_param {
    idx:1068
    in_0 {name:"Node_1009:0",dtype:float32,shape:[1, 1280, 8, 8]}
    in_1 {name:"Node_1067:0",dtype:float32,shape:[448, 1280, 1, 1]}
    out_0 {name:"Node_1068:0",dtype:float32,shape:[1, 448, 8, 8]}
    attrs {'strides': [1, 1], 'padding': [0, 0, 0, 0], 'dilation': [1, 1], 'groups': 1, 'channels': 448, 'kernel_size': [1, 1], 'data_layout': 'NCHW', 'kernel_layout': 'OIHW', 'out_layout': '', 'out_dtype': ''}
  }
}
layer {
  name:"Node_1069"
  type:"const"
  top:"Node_1069"
  layer_param {
    idx:1069
    out_0 {name:"Node_1069:0",dtype:float32,shape:[448]}
  }
}
layer {
  name:"Node_1070"
  type:"const"
  top:"Node_1070"
  layer_param {
    idx:1070
    out_0 {name:"Node_1070:0",dtype:float32,shape:[448]}
  }
}
layer {
  name:"Node_1071"
  type:"const"
  top:"Node_1071"
  layer_param {
    idx:1071
    out_0 {name:"Node_1071:0",dtype:float32,shape:[448]}
  }
}
layer {
  name:"Node_1072"
  type:"const"
  top:"Node_1072"
  layer_param {
    idx:1072
    out_0 {name:"Node_1072:0",dtype:float32,shape:[448]}
  }
}
layer {
  name:"Node_1073"
  type:"nn_batch_norm"
  top:"Node_1073"
  bottom:"Node_1068"
  bottom:"Node_1069"
  bottom:"Node_1070"
  bottom:"Node_1071"
  bottom:"Node_1072"
  layer_param {
    idx:1073
    in_0 {name:"Node_1068:0",dtype:float32,shape:[1, 448, 8, 8]}
    in_1 {name:"Node_1069:0",dtype:float32,shape:[448]}
    in_2 {name:"Node_1070:0",dtype:float32,shape:[448]}
    in_3 {name:"Node_1071:0",dtype:float32,shape:[448]}
    in_4 {name:"Node_1072:0",dtype:float32,shape:[448]}
    out_0 {name:"Node_1073:0",dtype:float32,shape:[1, 448, 8, 8]}
    out_1 {name:"Node_1073:1",dtype:float32,shape:[448]}
    out_2 {name:"Node_1073:2",dtype:float32,shape:[448]}
    attrs {'axis': 1, 'epsilon': 0.0010000000474974513, 'center': 1, 'scale': 0}
  }
}
layer {
  name:"Node_1075"
  type:"nn_relu"
  top:"Node_1075"
  bottom:"Node_1073"
  layer_param {
    idx:1075
    in_0 {name:"Node_1073:0",dtype:float32,shape:[1, 448, 8, 8]}
    out_0 {name:"Node_1075:0",dtype:float32,shape:[1, 448, 8, 8]}
  }
}
layer {
  name:"Node_1076"
  type:"const"
  top:"Node_1076"
  layer_param {
    idx:1076
    out_0 {name:"Node_1076:0",dtype:float32,shape:[384, 448, 3, 3]}
  }
}
layer {
  name:"Node_1077"
  type:"nn_conv2d"
  top:"Node_1077"
  bottom:"Node_1075"
  bottom:"Node_1076"
  layer_param {
    idx:1077
    in_0 {name:"Node_1075:0",dtype:float32,shape:[1, 448, 8, 8]}
    in_1 {name:"Node_1076:0",dtype:float32,shape:[384, 448, 3, 3]}
    out_0 {name:"Node_1077:0",dtype:float32,shape:[1, 384, 8, 8]}
    attrs {'strides': [1, 1], 'padding': [1, 1, 1, 1], 'dilation': [1, 1], 'groups': 1, 'channels': 384, 'kernel_size': [3, 3], 'data_layout': 'NCHW', 'kernel_layout': 'OIHW', 'out_layout': '', 'out_dtype': ''}
  }
}
layer {
  name:"Node_1078"
  type:"const"
  top:"Node_1078"
  layer_param {
    idx:1078
    out_0 {name:"Node_1078:0",dtype:float32,shape:[384]}
  }
}
layer {
  name:"Node_1079"
  type:"const"
  top:"Node_1079"
  layer_param {
    idx:1079
    out_0 {name:"Node_1079:0",dtype:float32,shape:[384]}
  }
}
layer {
  name:"Node_1080"
  type:"const"
  top:"Node_1080"
  layer_param {
    idx:1080
    out_0 {name:"Node_1080:0",dtype:float32,shape:[384]}
  }
}
layer {
  name:"Node_1081"
  type:"const"
  top:"Node_1081"
  layer_param {
    idx:1081
    out_0 {name:"Node_1081:0",dtype:float32,shape:[384]}
  }
}
layer {
  name:"Node_1082"
  type:"nn_batch_norm"
  top:"Node_1082"
  bottom:"Node_1077"
  bottom:"Node_1078"
  bottom:"Node_1079"
  bottom:"Node_1080"
  bottom:"Node_1081"
  layer_param {
    idx:1082
    in_0 {name:"Node_1077:0",dtype:float32,shape:[1, 384, 8, 8]}
    in_1 {name:"Node_1078:0",dtype:float32,shape:[384]}
    in_2 {name:"Node_1079:0",dtype:float32,shape:[384]}
    in_3 {name:"Node_1080:0",dtype:float32,shape:[384]}
    in_4 {name:"Node_1081:0",dtype:float32,shape:[384]}
    out_0 {name:"Node_1082:0",dtype:float32,shape:[1, 384, 8, 8]}
    out_1 {name:"Node_1082:1",dtype:float32,shape:[384]}
    out_2 {name:"Node_1082:2",dtype:float32,shape:[384]}
    attrs {'axis': 1, 'epsilon': 0.0010000000474974513, 'center': 1, 'scale': 0}
  }
}
layer {
  name:"Node_1084"
  type:"nn_relu"
  top:"Node_1084"
  bottom:"Node_1082"
  layer_param {
    idx:1084
    in_0 {name:"Node_1082:0",dtype:float32,shape:[1, 384, 8, 8]}
    out_0 {name:"Node_1084:0",dtype:float32,shape:[1, 384, 8, 8]}
  }
}
layer {
  name:"Node_1085"
  type:"const"
  top:"Node_1085"
  layer_param {
    idx:1085
    out_0 {name:"Node_1085:0",dtype:float32,shape:[384, 384, 1, 3]}
  }
}
layer {
  name:"Node_1086"
  type:"nn_conv2d"
  top:"Node_1086"
  bottom:"Node_1084"
  bottom:"Node_1085"
  layer_param {
    idx:1086
    in_0 {name:"Node_1084:0",dtype:float32,shape:[1, 384, 8, 8]}
    in_1 {name:"Node_1085:0",dtype:float32,shape:[384, 384, 1, 3]}
    out_0 {name:"Node_1086:0",dtype:float32,shape:[1, 384, 8, 8]}
    attrs {'strides': [1, 1], 'padding': [0, 1, 0, 1], 'dilation': [1, 1], 'groups': 1, 'channels': 384, 'kernel_size': [1, 3], 'data_layout': 'NCHW', 'kernel_layout': 'OIHW', 'out_layout': '', 'out_dtype': ''}
  }
}
layer {
  name:"Node_1087"
  type:"const"
  top:"Node_1087"
  layer_param {
    idx:1087
    out_0 {name:"Node_1087:0",dtype:float32,shape:[384]}
  }
}
layer {
  name:"Node_1088"
  type:"const"
  top:"Node_1088"
  layer_param {
    idx:1088
    out_0 {name:"Node_1088:0",dtype:float32,shape:[384]}
  }
}
layer {
  name:"Node_1089"
  type:"const"
  top:"Node_1089"
  layer_param {
    idx:1089
    out_0 {name:"Node_1089:0",dtype:float32,shape:[384]}
  }
}
layer {
  name:"Node_1090"
  type:"const"
  top:"Node_1090"
  layer_param {
    idx:1090
    out_0 {name:"Node_1090:0",dtype:float32,shape:[384]}
  }
}
layer {
  name:"Node_1091"
  type:"nn_batch_norm"
  top:"Node_1091"
  bottom:"Node_1086"
  bottom:"Node_1087"
  bottom:"Node_1088"
  bottom:"Node_1089"
  bottom:"Node_1090"
  layer_param {
    idx:1091
    in_0 {name:"Node_1086:0",dtype:float32,shape:[1, 384, 8, 8]}
    in_1 {name:"Node_1087:0",dtype:float32,shape:[384]}
    in_2 {name:"Node_1088:0",dtype:float32,shape:[384]}
    in_3 {name:"Node_1089:0",dtype:float32,shape:[384]}
    in_4 {name:"Node_1090:0",dtype:float32,shape:[384]}
    out_0 {name:"Node_1091:0",dtype:float32,shape:[1, 384, 8, 8]}
    out_1 {name:"Node_1091:1",dtype:float32,shape:[384]}
    out_2 {name:"Node_1091:2",dtype:float32,shape:[384]}
    attrs {'axis': 1, 'epsilon': 0.0010000000474974513, 'center': 1, 'scale': 0}
  }
}
layer {
  name:"Node_1093"
  type:"nn_relu"
  top:"Node_1093"
  bottom:"Node_1091"
  layer_param {
    idx:1093
    in_0 {name:"Node_1091:0",dtype:float32,shape:[1, 384, 8, 8]}
    out_0 {name:"Node_1093:0",dtype:float32,shape:[1, 384, 8, 8]}
  }
}
layer {
  name:"Node_1098"
  type:"const"
  top:"Node_1098"
  layer_param {
    idx:1098
    out_0 {name:"Node_1098:0",dtype:float32,shape:[384, 384, 3, 1]}
  }
}
layer {
  name:"Node_1099"
  type:"nn_conv2d"
  top:"Node_1099"
  bottom:"Node_1084"
  bottom:"Node_1098"
  layer_param {
    idx:1099
    in_0 {name:"Node_1084:0",dtype:float32,shape:[1, 384, 8, 8]}
    in_1 {name:"Node_1098:0",dtype:float32,shape:[384, 384, 3, 1]}
    out_0 {name:"Node_1099:0",dtype:float32,shape:[1, 384, 8, 8]}
    attrs {'strides': [1, 1], 'padding': [1, 0, 1, 0], 'dilation': [1, 1], 'groups': 1, 'channels': 384, 'kernel_size': [3, 1], 'data_layout': 'NCHW', 'kernel_layout': 'OIHW', 'out_layout': '', 'out_dtype': ''}
  }
}
layer {
  name:"Node_1100"
  type:"const"
  top:"Node_1100"
  layer_param {
    idx:1100
    out_0 {name:"Node_1100:0",dtype:float32,shape:[384]}
  }
}
layer {
  name:"Node_1101"
  type:"const"
  top:"Node_1101"
  layer_param {
    idx:1101
    out_0 {name:"Node_1101:0",dtype:float32,shape:[384]}
  }
}
layer {
  name:"Node_1102"
  type:"const"
  top:"Node_1102"
  layer_param {
    idx:1102
    out_0 {name:"Node_1102:0",dtype:float32,shape:[384]}
  }
}
layer {
  name:"Node_1103"
  type:"const"
  top:"Node_1103"
  layer_param {
    idx:1103
    out_0 {name:"Node_1103:0",dtype:float32,shape:[384]}
  }
}
layer {
  name:"Node_1104"
  type:"nn_batch_norm"
  top:"Node_1104"
  bottom:"Node_1099"
  bottom:"Node_1100"
  bottom:"Node_1101"
  bottom:"Node_1102"
  bottom:"Node_1103"
  layer_param {
    idx:1104
    in_0 {name:"Node_1099:0",dtype:float32,shape:[1, 384, 8, 8]}
    in_1 {name:"Node_1100:0",dtype:float32,shape:[384]}
    in_2 {name:"Node_1101:0",dtype:float32,shape:[384]}
    in_3 {name:"Node_1102:0",dtype:float32,shape:[384]}
    in_4 {name:"Node_1103:0",dtype:float32,shape:[384]}
    out_0 {name:"Node_1104:0",dtype:float32,shape:[1, 384, 8, 8]}
    out_1 {name:"Node_1104:1",dtype:float32,shape:[384]}
    out_2 {name:"Node_1104:2",dtype:float32,shape:[384]}
    attrs {'axis': 1, 'epsilon': 0.0010000000474974513, 'center': 1, 'scale': 0}
  }
}
layer {
  name:"Node_1106"
  type:"nn_relu"
  top:"Node_1106"
  bottom:"Node_1104"
  layer_param {
    idx:1106
    in_0 {name:"Node_1104:0",dtype:float32,shape:[1, 384, 8, 8]}
    out_0 {name:"Node_1106:0",dtype:float32,shape:[1, 384, 8, 8]}
  }
}
layer {
  name:"Node_1112"
  type:"nn_avg_pool2d"
  top:"Node_1112"
  bottom:"Node_1009"
  layer_param {
    idx:1112
    in_0 {name:"Node_1009:0",dtype:float32,shape:[1, 1280, 8, 8]}
    out_0 {name:"Node_1112:0",dtype:float32,shape:[1, 1280, 8, 8]}
    attrs {'pool_size': [3, 3], 'strides': [1, 1], 'dilation': [1, 1], 'padding': [1, 1, 1, 1], 'layout': 'NCHW', 'ceil_mode': 0, 'count_include_pad': 0}
  }
}
layer {
  name:"Node_1113"
  type:"const"
  top:"Node_1113"
  layer_param {
    idx:1113
    out_0 {name:"Node_1113:0",dtype:float32,shape:[192, 1280, 1, 1]}
  }
}
layer {
  name:"Node_1114"
  type:"nn_conv2d"
  top:"Node_1114"
  bottom:"Node_1112"
  bottom:"Node_1113"
  layer_param {
    idx:1114
    in_0 {name:"Node_1112:0",dtype:float32,shape:[1, 1280, 8, 8]}
    in_1 {name:"Node_1113:0",dtype:float32,shape:[192, 1280, 1, 1]}
    out_0 {name:"Node_1114:0",dtype:float32,shape:[1, 192, 8, 8]}
    attrs {'strides': [1, 1], 'padding': [0, 0, 0, 0], 'dilation': [1, 1], 'groups': 1, 'channels': 192, 'kernel_size': [1, 1], 'data_layout': 'NCHW', 'kernel_layout': 'OIHW', 'out_layout': '', 'out_dtype': ''}
  }
}
layer {
  name:"Node_1115"
  type:"const"
  top:"Node_1115"
  layer_param {
    idx:1115
    out_0 {name:"Node_1115:0",dtype:float32,shape:[192]}
  }
}
layer {
  name:"Node_1116"
  type:"const"
  top:"Node_1116"
  layer_param {
    idx:1116
    out_0 {name:"Node_1116:0",dtype:float32,shape:[192]}
  }
}
layer {
  name:"Node_1117"
  type:"const"
  top:"Node_1117"
  layer_param {
    idx:1117
    out_0 {name:"Node_1117:0",dtype:float32,shape:[192]}
  }
}
layer {
  name:"Node_1118"
  type:"const"
  top:"Node_1118"
  layer_param {
    idx:1118
    out_0 {name:"Node_1118:0",dtype:float32,shape:[192]}
  }
}
layer {
  name:"Node_1119"
  type:"nn_batch_norm"
  top:"Node_1119"
  bottom:"Node_1114"
  bottom:"Node_1115"
  bottom:"Node_1116"
  bottom:"Node_1117"
  bottom:"Node_1118"
  layer_param {
    idx:1119
    in_0 {name:"Node_1114:0",dtype:float32,shape:[1, 192, 8, 8]}
    in_1 {name:"Node_1115:0",dtype:float32,shape:[192]}
    in_2 {name:"Node_1116:0",dtype:float32,shape:[192]}
    in_3 {name:"Node_1117:0",dtype:float32,shape:[192]}
    in_4 {name:"Node_1118:0",dtype:float32,shape:[192]}
    out_0 {name:"Node_1119:0",dtype:float32,shape:[1, 192, 8, 8]}
    out_1 {name:"Node_1119:1",dtype:float32,shape:[192]}
    out_2 {name:"Node_1119:2",dtype:float32,shape:[192]}
    attrs {'axis': 1, 'epsilon': 0.0010000000474974513, 'center': 1, 'scale': 0}
  }
}
layer {
  name:"Node_1121"
  type:"nn_relu"
  top:"Node_1121"
  bottom:"Node_1119"
  layer_param {
    idx:1121
    in_0 {name:"Node_1119:0",dtype:float32,shape:[1, 192, 8, 8]}
    out_0 {name:"Node_1121:0",dtype:float32,shape:[1, 192, 8, 8]}
  }
}
layer {
  name:"Node_1123"
  type:"concatenate"
  top:"Node_1123"
  bottom:"Node_1018"
  bottom:"Node_1043"
  bottom:"Node_1056"
  bottom:"Node_1093"
  bottom:"Node_1106"
  bottom:"Node_1121"
  layer_param {
    idx:1123
    in_0 {name:"Node_1018:0",dtype:float32,shape:[1, 320, 8, 8]}
    in_1 {name:"Node_1043:0",dtype:float32,shape:[1, 384, 8, 8]}
    in_2 {name:"Node_1056:0",dtype:float32,shape:[1, 384, 8, 8]}
    in_3 {name:"Node_1093:0",dtype:float32,shape:[1, 384, 8, 8]}
    in_4 {name:"Node_1106:0",dtype:float32,shape:[1, 384, 8, 8]}
    in_5 {name:"Node_1121:0",dtype:float32,shape:[1, 192, 8, 8]}
    out_0 {name:"Node_1123:0",dtype:float32,shape:[1, 2048, 8, 8]}
    attrs {'axis': 1}
  }
}
layer {
  name:"Node_1124"
  type:"const"
  top:"Node_1124"
  layer_param {
    idx:1124
    out_0 {name:"Node_1124:0",dtype:float32,shape:[320, 2048, 1, 1]}
  }
}
layer {
  name:"Node_1125"
  type:"nn_conv2d"
  top:"Node_1125"
  bottom:"Node_1123"
  bottom:"Node_1124"
  layer_param {
    idx:1125
    in_0 {name:"Node_1123:0",dtype:float32,shape:[1, 2048, 8, 8]}
    in_1 {name:"Node_1124:0",dtype:float32,shape:[320, 2048, 1, 1]}
    out_0 {name:"Node_1125:0",dtype:float32,shape:[1, 320, 8, 8]}
    attrs {'strides': [1, 1], 'padding': [0, 0, 0, 0], 'dilation': [1, 1], 'groups': 1, 'channels': 320, 'kernel_size': [1, 1], 'data_layout': 'NCHW', 'kernel_layout': 'OIHW', 'out_layout': '', 'out_dtype': ''}
  }
}
layer {
  name:"Node_1126"
  type:"const"
  top:"Node_1126"
  layer_param {
    idx:1126
    out_0 {name:"Node_1126:0",dtype:float32,shape:[320]}
  }
}
layer {
  name:"Node_1127"
  type:"const"
  top:"Node_1127"
  layer_param {
    idx:1127
    out_0 {name:"Node_1127:0",dtype:float32,shape:[320]}
  }
}
layer {
  name:"Node_1128"
  type:"const"
  top:"Node_1128"
  layer_param {
    idx:1128
    out_0 {name:"Node_1128:0",dtype:float32,shape:[320]}
  }
}
layer {
  name:"Node_1129"
  type:"const"
  top:"Node_1129"
  layer_param {
    idx:1129
    out_0 {name:"Node_1129:0",dtype:float32,shape:[320]}
  }
}
layer {
  name:"Node_1130"
  type:"nn_batch_norm"
  top:"Node_1130"
  bottom:"Node_1125"
  bottom:"Node_1126"
  bottom:"Node_1127"
  bottom:"Node_1128"
  bottom:"Node_1129"
  layer_param {
    idx:1130
    in_0 {name:"Node_1125:0",dtype:float32,shape:[1, 320, 8, 8]}
    in_1 {name:"Node_1126:0",dtype:float32,shape:[320]}
    in_2 {name:"Node_1127:0",dtype:float32,shape:[320]}
    in_3 {name:"Node_1128:0",dtype:float32,shape:[320]}
    in_4 {name:"Node_1129:0",dtype:float32,shape:[320]}
    out_0 {name:"Node_1130:0",dtype:float32,shape:[1, 320, 8, 8]}
    out_1 {name:"Node_1130:1",dtype:float32,shape:[320]}
    out_2 {name:"Node_1130:2",dtype:float32,shape:[320]}
    attrs {'axis': 1, 'epsilon': 0.0010000000474974513, 'center': 1, 'scale': 0}
  }
}
layer {
  name:"Node_1132"
  type:"nn_relu"
  top:"Node_1132"
  bottom:"Node_1130"
  layer_param {
    idx:1132
    in_0 {name:"Node_1130:0",dtype:float32,shape:[1, 320, 8, 8]}
    out_0 {name:"Node_1132:0",dtype:float32,shape:[1, 320, 8, 8]}
  }
}
layer {
  name:"Node_1140"
  type:"const"
  top:"Node_1140"
  layer_param {
    idx:1140
    out_0 {name:"Node_1140:0",dtype:float32,shape:[384, 2048, 1, 1]}
  }
}
layer {
  name:"Node_1141"
  type:"nn_conv2d"
  top:"Node_1141"
  bottom:"Node_1123"
  bottom:"Node_1140"
  layer_param {
    idx:1141
    in_0 {name:"Node_1123:0",dtype:float32,shape:[1, 2048, 8, 8]}
    in_1 {name:"Node_1140:0",dtype:float32,shape:[384, 2048, 1, 1]}
    out_0 {name:"Node_1141:0",dtype:float32,shape:[1, 384, 8, 8]}
    attrs {'strides': [1, 1], 'padding': [0, 0, 0, 0], 'dilation': [1, 1], 'groups': 1, 'channels': 384, 'kernel_size': [1, 1], 'data_layout': 'NCHW', 'kernel_layout': 'OIHW', 'out_layout': '', 'out_dtype': ''}
  }
}
layer {
  name:"Node_1142"
  type:"const"
  top:"Node_1142"
  layer_param {
    idx:1142
    out_0 {name:"Node_1142:0",dtype:float32,shape:[384]}
  }
}
layer {
  name:"Node_1143"
  type:"const"
  top:"Node_1143"
  layer_param {
    idx:1143
    out_0 {name:"Node_1143:0",dtype:float32,shape:[384]}
  }
}
layer {
  name:"Node_1144"
  type:"const"
  top:"Node_1144"
  layer_param {
    idx:1144
    out_0 {name:"Node_1144:0",dtype:float32,shape:[384]}
  }
}
layer {
  name:"Node_1145"
  type:"const"
  top:"Node_1145"
  layer_param {
    idx:1145
    out_0 {name:"Node_1145:0",dtype:float32,shape:[384]}
  }
}
layer {
  name:"Node_1146"
  type:"nn_batch_norm"
  top:"Node_1146"
  bottom:"Node_1141"
  bottom:"Node_1142"
  bottom:"Node_1143"
  bottom:"Node_1144"
  bottom:"Node_1145"
  layer_param {
    idx:1146
    in_0 {name:"Node_1141:0",dtype:float32,shape:[1, 384, 8, 8]}
    in_1 {name:"Node_1142:0",dtype:float32,shape:[384]}
    in_2 {name:"Node_1143:0",dtype:float32,shape:[384]}
    in_3 {name:"Node_1144:0",dtype:float32,shape:[384]}
    in_4 {name:"Node_1145:0",dtype:float32,shape:[384]}
    out_0 {name:"Node_1146:0",dtype:float32,shape:[1, 384, 8, 8]}
    out_1 {name:"Node_1146:1",dtype:float32,shape:[384]}
    out_2 {name:"Node_1146:2",dtype:float32,shape:[384]}
    attrs {'axis': 1, 'epsilon': 0.0010000000474974513, 'center': 1, 'scale': 0}
  }
}
layer {
  name:"Node_1148"
  type:"nn_relu"
  top:"Node_1148"
  bottom:"Node_1146"
  layer_param {
    idx:1148
    in_0 {name:"Node_1146:0",dtype:float32,shape:[1, 384, 8, 8]}
    out_0 {name:"Node_1148:0",dtype:float32,shape:[1, 384, 8, 8]}
  }
}
layer {
  name:"Node_1149"
  type:"const"
  top:"Node_1149"
  layer_param {
    idx:1149
    out_0 {name:"Node_1149:0",dtype:float32,shape:[384, 384, 1, 3]}
  }
}
layer {
  name:"Node_1150"
  type:"nn_conv2d"
  top:"Node_1150"
  bottom:"Node_1148"
  bottom:"Node_1149"
  layer_param {
    idx:1150
    in_0 {name:"Node_1148:0",dtype:float32,shape:[1, 384, 8, 8]}
    in_1 {name:"Node_1149:0",dtype:float32,shape:[384, 384, 1, 3]}
    out_0 {name:"Node_1150:0",dtype:float32,shape:[1, 384, 8, 8]}
    attrs {'strides': [1, 1], 'padding': [0, 1, 0, 1], 'dilation': [1, 1], 'groups': 1, 'channels': 384, 'kernel_size': [1, 3], 'data_layout': 'NCHW', 'kernel_layout': 'OIHW', 'out_layout': '', 'out_dtype': ''}
  }
}
layer {
  name:"Node_1151"
  type:"const"
  top:"Node_1151"
  layer_param {
    idx:1151
    out_0 {name:"Node_1151:0",dtype:float32,shape:[384]}
  }
}
layer {
  name:"Node_1152"
  type:"const"
  top:"Node_1152"
  layer_param {
    idx:1152
    out_0 {name:"Node_1152:0",dtype:float32,shape:[384]}
  }
}
layer {
  name:"Node_1153"
  type:"const"
  top:"Node_1153"
  layer_param {
    idx:1153
    out_0 {name:"Node_1153:0",dtype:float32,shape:[384]}
  }
}
layer {
  name:"Node_1154"
  type:"const"
  top:"Node_1154"
  layer_param {
    idx:1154
    out_0 {name:"Node_1154:0",dtype:float32,shape:[384]}
  }
}
layer {
  name:"Node_1155"
  type:"nn_batch_norm"
  top:"Node_1155"
  bottom:"Node_1150"
  bottom:"Node_1151"
  bottom:"Node_1152"
  bottom:"Node_1153"
  bottom:"Node_1154"
  layer_param {
    idx:1155
    in_0 {name:"Node_1150:0",dtype:float32,shape:[1, 384, 8, 8]}
    in_1 {name:"Node_1151:0",dtype:float32,shape:[384]}
    in_2 {name:"Node_1152:0",dtype:float32,shape:[384]}
    in_3 {name:"Node_1153:0",dtype:float32,shape:[384]}
    in_4 {name:"Node_1154:0",dtype:float32,shape:[384]}
    out_0 {name:"Node_1155:0",dtype:float32,shape:[1, 384, 8, 8]}
    out_1 {name:"Node_1155:1",dtype:float32,shape:[384]}
    out_2 {name:"Node_1155:2",dtype:float32,shape:[384]}
    attrs {'axis': 1, 'epsilon': 0.0010000000474974513, 'center': 1, 'scale': 0}
  }
}
layer {
  name:"Node_1157"
  type:"nn_relu"
  top:"Node_1157"
  bottom:"Node_1155"
  layer_param {
    idx:1157
    in_0 {name:"Node_1155:0",dtype:float32,shape:[1, 384, 8, 8]}
    out_0 {name:"Node_1157:0",dtype:float32,shape:[1, 384, 8, 8]}
  }
}
layer {
  name:"Node_1162"
  type:"const"
  top:"Node_1162"
  layer_param {
    idx:1162
    out_0 {name:"Node_1162:0",dtype:float32,shape:[384, 384, 3, 1]}
  }
}
layer {
  name:"Node_1163"
  type:"nn_conv2d"
  top:"Node_1163"
  bottom:"Node_1148"
  bottom:"Node_1162"
  layer_param {
    idx:1163
    in_0 {name:"Node_1148:0",dtype:float32,shape:[1, 384, 8, 8]}
    in_1 {name:"Node_1162:0",dtype:float32,shape:[384, 384, 3, 1]}
    out_0 {name:"Node_1163:0",dtype:float32,shape:[1, 384, 8, 8]}
    attrs {'strides': [1, 1], 'padding': [1, 0, 1, 0], 'dilation': [1, 1], 'groups': 1, 'channels': 384, 'kernel_size': [3, 1], 'data_layout': 'NCHW', 'kernel_layout': 'OIHW', 'out_layout': '', 'out_dtype': ''}
  }
}
layer {
  name:"Node_1164"
  type:"const"
  top:"Node_1164"
  layer_param {
    idx:1164
    out_0 {name:"Node_1164:0",dtype:float32,shape:[384]}
  }
}
layer {
  name:"Node_1165"
  type:"const"
  top:"Node_1165"
  layer_param {
    idx:1165
    out_0 {name:"Node_1165:0",dtype:float32,shape:[384]}
  }
}
layer {
  name:"Node_1166"
  type:"const"
  top:"Node_1166"
  layer_param {
    idx:1166
    out_0 {name:"Node_1166:0",dtype:float32,shape:[384]}
  }
}
layer {
  name:"Node_1167"
  type:"const"
  top:"Node_1167"
  layer_param {
    idx:1167
    out_0 {name:"Node_1167:0",dtype:float32,shape:[384]}
  }
}
layer {
  name:"Node_1168"
  type:"nn_batch_norm"
  top:"Node_1168"
  bottom:"Node_1163"
  bottom:"Node_1164"
  bottom:"Node_1165"
  bottom:"Node_1166"
  bottom:"Node_1167"
  layer_param {
    idx:1168
    in_0 {name:"Node_1163:0",dtype:float32,shape:[1, 384, 8, 8]}
    in_1 {name:"Node_1164:0",dtype:float32,shape:[384]}
    in_2 {name:"Node_1165:0",dtype:float32,shape:[384]}
    in_3 {name:"Node_1166:0",dtype:float32,shape:[384]}
    in_4 {name:"Node_1167:0",dtype:float32,shape:[384]}
    out_0 {name:"Node_1168:0",dtype:float32,shape:[1, 384, 8, 8]}
    out_1 {name:"Node_1168:1",dtype:float32,shape:[384]}
    out_2 {name:"Node_1168:2",dtype:float32,shape:[384]}
    attrs {'axis': 1, 'epsilon': 0.0010000000474974513, 'center': 1, 'scale': 0}
  }
}
layer {
  name:"Node_1170"
  type:"nn_relu"
  top:"Node_1170"
  bottom:"Node_1168"
  layer_param {
    idx:1170
    in_0 {name:"Node_1168:0",dtype:float32,shape:[1, 384, 8, 8]}
    out_0 {name:"Node_1170:0",dtype:float32,shape:[1, 384, 8, 8]}
  }
}
layer {
  name:"Node_1181"
  type:"const"
  top:"Node_1181"
  layer_param {
    idx:1181
    out_0 {name:"Node_1181:0",dtype:float32,shape:[448, 2048, 1, 1]}
  }
}
layer {
  name:"Node_1182"
  type:"nn_conv2d"
  top:"Node_1182"
  bottom:"Node_1123"
  bottom:"Node_1181"
  layer_param {
    idx:1182
    in_0 {name:"Node_1123:0",dtype:float32,shape:[1, 2048, 8, 8]}
    in_1 {name:"Node_1181:0",dtype:float32,shape:[448, 2048, 1, 1]}
    out_0 {name:"Node_1182:0",dtype:float32,shape:[1, 448, 8, 8]}
    attrs {'strides': [1, 1], 'padding': [0, 0, 0, 0], 'dilation': [1, 1], 'groups': 1, 'channels': 448, 'kernel_size': [1, 1], 'data_layout': 'NCHW', 'kernel_layout': 'OIHW', 'out_layout': '', 'out_dtype': ''}
  }
}
layer {
  name:"Node_1183"
  type:"const"
  top:"Node_1183"
  layer_param {
    idx:1183
    out_0 {name:"Node_1183:0",dtype:float32,shape:[448]}
  }
}
layer {
  name:"Node_1184"
  type:"const"
  top:"Node_1184"
  layer_param {
    idx:1184
    out_0 {name:"Node_1184:0",dtype:float32,shape:[448]}
  }
}
layer {
  name:"Node_1185"
  type:"const"
  top:"Node_1185"
  layer_param {
    idx:1185
    out_0 {name:"Node_1185:0",dtype:float32,shape:[448]}
  }
}
layer {
  name:"Node_1186"
  type:"const"
  top:"Node_1186"
  layer_param {
    idx:1186
    out_0 {name:"Node_1186:0",dtype:float32,shape:[448]}
  }
}
layer {
  name:"Node_1187"
  type:"nn_batch_norm"
  top:"Node_1187"
  bottom:"Node_1182"
  bottom:"Node_1183"
  bottom:"Node_1184"
  bottom:"Node_1185"
  bottom:"Node_1186"
  layer_param {
    idx:1187
    in_0 {name:"Node_1182:0",dtype:float32,shape:[1, 448, 8, 8]}
    in_1 {name:"Node_1183:0",dtype:float32,shape:[448]}
    in_2 {name:"Node_1184:0",dtype:float32,shape:[448]}
    in_3 {name:"Node_1185:0",dtype:float32,shape:[448]}
    in_4 {name:"Node_1186:0",dtype:float32,shape:[448]}
    out_0 {name:"Node_1187:0",dtype:float32,shape:[1, 448, 8, 8]}
    out_1 {name:"Node_1187:1",dtype:float32,shape:[448]}
    out_2 {name:"Node_1187:2",dtype:float32,shape:[448]}
    attrs {'axis': 1, 'epsilon': 0.0010000000474974513, 'center': 1, 'scale': 0}
  }
}
layer {
  name:"Node_1189"
  type:"nn_relu"
  top:"Node_1189"
  bottom:"Node_1187"
  layer_param {
    idx:1189
    in_0 {name:"Node_1187:0",dtype:float32,shape:[1, 448, 8, 8]}
    out_0 {name:"Node_1189:0",dtype:float32,shape:[1, 448, 8, 8]}
  }
}
layer {
  name:"Node_1190"
  type:"const"
  top:"Node_1190"
  layer_param {
    idx:1190
    out_0 {name:"Node_1190:0",dtype:float32,shape:[384, 448, 3, 3]}
  }
}
layer {
  name:"Node_1191"
  type:"nn_conv2d"
  top:"Node_1191"
  bottom:"Node_1189"
  bottom:"Node_1190"
  layer_param {
    idx:1191
    in_0 {name:"Node_1189:0",dtype:float32,shape:[1, 448, 8, 8]}
    in_1 {name:"Node_1190:0",dtype:float32,shape:[384, 448, 3, 3]}
    out_0 {name:"Node_1191:0",dtype:float32,shape:[1, 384, 8, 8]}
    attrs {'strides': [1, 1], 'padding': [1, 1, 1, 1], 'dilation': [1, 1], 'groups': 1, 'channels': 384, 'kernel_size': [3, 3], 'data_layout': 'NCHW', 'kernel_layout': 'OIHW', 'out_layout': '', 'out_dtype': ''}
  }
}
layer {
  name:"Node_1192"
  type:"const"
  top:"Node_1192"
  layer_param {
    idx:1192
    out_0 {name:"Node_1192:0",dtype:float32,shape:[384]}
  }
}
layer {
  name:"Node_1193"
  type:"const"
  top:"Node_1193"
  layer_param {
    idx:1193
    out_0 {name:"Node_1193:0",dtype:float32,shape:[384]}
  }
}
layer {
  name:"Node_1194"
  type:"const"
  top:"Node_1194"
  layer_param {
    idx:1194
    out_0 {name:"Node_1194:0",dtype:float32,shape:[384]}
  }
}
layer {
  name:"Node_1195"
  type:"const"
  top:"Node_1195"
  layer_param {
    idx:1195
    out_0 {name:"Node_1195:0",dtype:float32,shape:[384]}
  }
}
layer {
  name:"Node_1196"
  type:"nn_batch_norm"
  top:"Node_1196"
  bottom:"Node_1191"
  bottom:"Node_1192"
  bottom:"Node_1193"
  bottom:"Node_1194"
  bottom:"Node_1195"
  layer_param {
    idx:1196
    in_0 {name:"Node_1191:0",dtype:float32,shape:[1, 384, 8, 8]}
    in_1 {name:"Node_1192:0",dtype:float32,shape:[384]}
    in_2 {name:"Node_1193:0",dtype:float32,shape:[384]}
    in_3 {name:"Node_1194:0",dtype:float32,shape:[384]}
    in_4 {name:"Node_1195:0",dtype:float32,shape:[384]}
    out_0 {name:"Node_1196:0",dtype:float32,shape:[1, 384, 8, 8]}
    out_1 {name:"Node_1196:1",dtype:float32,shape:[384]}
    out_2 {name:"Node_1196:2",dtype:float32,shape:[384]}
    attrs {'axis': 1, 'epsilon': 0.0010000000474974513, 'center': 1, 'scale': 0}
  }
}
layer {
  name:"Node_1198"
  type:"nn_relu"
  top:"Node_1198"
  bottom:"Node_1196"
  layer_param {
    idx:1198
    in_0 {name:"Node_1196:0",dtype:float32,shape:[1, 384, 8, 8]}
    out_0 {name:"Node_1198:0",dtype:float32,shape:[1, 384, 8, 8]}
  }
}
layer {
  name:"Node_1199"
  type:"const"
  top:"Node_1199"
  layer_param {
    idx:1199
    out_0 {name:"Node_1199:0",dtype:float32,shape:[384, 384, 1, 3]}
  }
}
layer {
  name:"Node_1200"
  type:"nn_conv2d"
  top:"Node_1200"
  bottom:"Node_1198"
  bottom:"Node_1199"
  layer_param {
    idx:1200
    in_0 {name:"Node_1198:0",dtype:float32,shape:[1, 384, 8, 8]}
    in_1 {name:"Node_1199:0",dtype:float32,shape:[384, 384, 1, 3]}
    out_0 {name:"Node_1200:0",dtype:float32,shape:[1, 384, 8, 8]}
    attrs {'strides': [1, 1], 'padding': [0, 1, 0, 1], 'dilation': [1, 1], 'groups': 1, 'channels': 384, 'kernel_size': [1, 3], 'data_layout': 'NCHW', 'kernel_layout': 'OIHW', 'out_layout': '', 'out_dtype': ''}
  }
}
layer {
  name:"Node_1201"
  type:"const"
  top:"Node_1201"
  layer_param {
    idx:1201
    out_0 {name:"Node_1201:0",dtype:float32,shape:[384]}
  }
}
layer {
  name:"Node_1202"
  type:"const"
  top:"Node_1202"
  layer_param {
    idx:1202
    out_0 {name:"Node_1202:0",dtype:float32,shape:[384]}
  }
}
layer {
  name:"Node_1203"
  type:"const"
  top:"Node_1203"
  layer_param {
    idx:1203
    out_0 {name:"Node_1203:0",dtype:float32,shape:[384]}
  }
}
layer {
  name:"Node_1204"
  type:"const"
  top:"Node_1204"
  layer_param {
    idx:1204
    out_0 {name:"Node_1204:0",dtype:float32,shape:[384]}
  }
}
layer {
  name:"Node_1205"
  type:"nn_batch_norm"
  top:"Node_1205"
  bottom:"Node_1200"
  bottom:"Node_1201"
  bottom:"Node_1202"
  bottom:"Node_1203"
  bottom:"Node_1204"
  layer_param {
    idx:1205
    in_0 {name:"Node_1200:0",dtype:float32,shape:[1, 384, 8, 8]}
    in_1 {name:"Node_1201:0",dtype:float32,shape:[384]}
    in_2 {name:"Node_1202:0",dtype:float32,shape:[384]}
    in_3 {name:"Node_1203:0",dtype:float32,shape:[384]}
    in_4 {name:"Node_1204:0",dtype:float32,shape:[384]}
    out_0 {name:"Node_1205:0",dtype:float32,shape:[1, 384, 8, 8]}
    out_1 {name:"Node_1205:1",dtype:float32,shape:[384]}
    out_2 {name:"Node_1205:2",dtype:float32,shape:[384]}
    attrs {'axis': 1, 'epsilon': 0.0010000000474974513, 'center': 1, 'scale': 0}
  }
}
layer {
  name:"Node_1207"
  type:"nn_relu"
  top:"Node_1207"
  bottom:"Node_1205"
  layer_param {
    idx:1207
    in_0 {name:"Node_1205:0",dtype:float32,shape:[1, 384, 8, 8]}
    out_0 {name:"Node_1207:0",dtype:float32,shape:[1, 384, 8, 8]}
  }
}
layer {
  name:"Node_1212"
  type:"const"
  top:"Node_1212"
  layer_param {
    idx:1212
    out_0 {name:"Node_1212:0",dtype:float32,shape:[384, 384, 3, 1]}
  }
}
layer {
  name:"Node_1213"
  type:"nn_conv2d"
  top:"Node_1213"
  bottom:"Node_1198"
  bottom:"Node_1212"
  layer_param {
    idx:1213
    in_0 {name:"Node_1198:0",dtype:float32,shape:[1, 384, 8, 8]}
    in_1 {name:"Node_1212:0",dtype:float32,shape:[384, 384, 3, 1]}
    out_0 {name:"Node_1213:0",dtype:float32,shape:[1, 384, 8, 8]}
    attrs {'strides': [1, 1], 'padding': [1, 0, 1, 0], 'dilation': [1, 1], 'groups': 1, 'channels': 384, 'kernel_size': [3, 1], 'data_layout': 'NCHW', 'kernel_layout': 'OIHW', 'out_layout': '', 'out_dtype': ''}
  }
}
layer {
  name:"Node_1214"
  type:"const"
  top:"Node_1214"
  layer_param {
    idx:1214
    out_0 {name:"Node_1214:0",dtype:float32,shape:[384]}
  }
}
layer {
  name:"Node_1215"
  type:"const"
  top:"Node_1215"
  layer_param {
    idx:1215
    out_0 {name:"Node_1215:0",dtype:float32,shape:[384]}
  }
}
layer {
  name:"Node_1216"
  type:"const"
  top:"Node_1216"
  layer_param {
    idx:1216
    out_0 {name:"Node_1216:0",dtype:float32,shape:[384]}
  }
}
layer {
  name:"Node_1217"
  type:"const"
  top:"Node_1217"
  layer_param {
    idx:1217
    out_0 {name:"Node_1217:0",dtype:float32,shape:[384]}
  }
}
layer {
  name:"Node_1218"
  type:"nn_batch_norm"
  top:"Node_1218"
  bottom:"Node_1213"
  bottom:"Node_1214"
  bottom:"Node_1215"
  bottom:"Node_1216"
  bottom:"Node_1217"
  layer_param {
    idx:1218
    in_0 {name:"Node_1213:0",dtype:float32,shape:[1, 384, 8, 8]}
    in_1 {name:"Node_1214:0",dtype:float32,shape:[384]}
    in_2 {name:"Node_1215:0",dtype:float32,shape:[384]}
    in_3 {name:"Node_1216:0",dtype:float32,shape:[384]}
    in_4 {name:"Node_1217:0",dtype:float32,shape:[384]}
    out_0 {name:"Node_1218:0",dtype:float32,shape:[1, 384, 8, 8]}
    out_1 {name:"Node_1218:1",dtype:float32,shape:[384]}
    out_2 {name:"Node_1218:2",dtype:float32,shape:[384]}
    attrs {'axis': 1, 'epsilon': 0.0010000000474974513, 'center': 1, 'scale': 0}
  }
}
layer {
  name:"Node_1220"
  type:"nn_relu"
  top:"Node_1220"
  bottom:"Node_1218"
  layer_param {
    idx:1220
    in_0 {name:"Node_1218:0",dtype:float32,shape:[1, 384, 8, 8]}
    out_0 {name:"Node_1220:0",dtype:float32,shape:[1, 384, 8, 8]}
  }
}
layer {
  name:"Node_1226"
  type:"nn_max_pool2d"
  top:"Node_1226"
  bottom:"Node_1123"
  layer_param {
    idx:1226
    in_0 {name:"Node_1123:0",dtype:float32,shape:[1, 2048, 8, 8]}
    out_0 {name:"Node_1226:0",dtype:float32,shape:[1, 2048, 8, 8]}
    attrs {'pool_size': [3, 3], 'strides': [1, 1], 'dilation': [1, 1], 'padding': [1, 1, 1, 1], 'layout': 'NCHW', 'ceil_mode': 0}
  }
}
layer {
  name:"Node_1227"
  type:"const"
  top:"Node_1227"
  layer_param {
    idx:1227
    out_0 {name:"Node_1227:0",dtype:float32,shape:[192, 2048, 1, 1]}
  }
}
layer {
  name:"Node_1228"
  type:"nn_conv2d"
  top:"Node_1228"
  bottom:"Node_1226"
  bottom:"Node_1227"
  layer_param {
    idx:1228
    in_0 {name:"Node_1226:0",dtype:float32,shape:[1, 2048, 8, 8]}
    in_1 {name:"Node_1227:0",dtype:float32,shape:[192, 2048, 1, 1]}
    out_0 {name:"Node_1228:0",dtype:float32,shape:[1, 192, 8, 8]}
    attrs {'strides': [1, 1], 'padding': [0, 0, 0, 0], 'dilation': [1, 1], 'groups': 1, 'channels': 192, 'kernel_size': [1, 1], 'data_layout': 'NCHW', 'kernel_layout': 'OIHW', 'out_layout': '', 'out_dtype': ''}
  }
}
layer {
  name:"Node_1229"
  type:"const"
  top:"Node_1229"
  layer_param {
    idx:1229
    out_0 {name:"Node_1229:0",dtype:float32,shape:[192]}
  }
}
layer {
  name:"Node_1230"
  type:"const"
  top:"Node_1230"
  layer_param {
    idx:1230
    out_0 {name:"Node_1230:0",dtype:float32,shape:[192]}
  }
}
layer {
  name:"Node_1231"
  type:"const"
  top:"Node_1231"
  layer_param {
    idx:1231
    out_0 {name:"Node_1231:0",dtype:float32,shape:[192]}
  }
}
layer {
  name:"Node_1232"
  type:"const"
  top:"Node_1232"
  layer_param {
    idx:1232
    out_0 {name:"Node_1232:0",dtype:float32,shape:[192]}
  }
}
layer {
  name:"Node_1233"
  type:"nn_batch_norm"
  top:"Node_1233"
  bottom:"Node_1228"
  bottom:"Node_1229"
  bottom:"Node_1230"
  bottom:"Node_1231"
  bottom:"Node_1232"
  layer_param {
    idx:1233
    in_0 {name:"Node_1228:0",dtype:float32,shape:[1, 192, 8, 8]}
    in_1 {name:"Node_1229:0",dtype:float32,shape:[192]}
    in_2 {name:"Node_1230:0",dtype:float32,shape:[192]}
    in_3 {name:"Node_1231:0",dtype:float32,shape:[192]}
    in_4 {name:"Node_1232:0",dtype:float32,shape:[192]}
    out_0 {name:"Node_1233:0",dtype:float32,shape:[1, 192, 8, 8]}
    out_1 {name:"Node_1233:1",dtype:float32,shape:[192]}
    out_2 {name:"Node_1233:2",dtype:float32,shape:[192]}
    attrs {'axis': 1, 'epsilon': 0.0010000000474974513, 'center': 1, 'scale': 0}
  }
}
layer {
  name:"Node_1235"
  type:"nn_relu"
  top:"Node_1235"
  bottom:"Node_1233"
  layer_param {
    idx:1235
    in_0 {name:"Node_1233:0",dtype:float32,shape:[1, 192, 8, 8]}
    out_0 {name:"Node_1235:0",dtype:float32,shape:[1, 192, 8, 8]}
  }
}
layer {
  name:"Node_1237"
  type:"concatenate"
  top:"Node_1237"
  bottom:"Node_1132"
  bottom:"Node_1157"
  bottom:"Node_1170"
  bottom:"Node_1207"
  bottom:"Node_1220"
  bottom:"Node_1235"
  layer_param {
    idx:1237
    in_0 {name:"Node_1132:0",dtype:float32,shape:[1, 320, 8, 8]}
    in_1 {name:"Node_1157:0",dtype:float32,shape:[1, 384, 8, 8]}
    in_2 {name:"Node_1170:0",dtype:float32,shape:[1, 384, 8, 8]}
    in_3 {name:"Node_1207:0",dtype:float32,shape:[1, 384, 8, 8]}
    in_4 {name:"Node_1220:0",dtype:float32,shape:[1, 384, 8, 8]}
    in_5 {name:"Node_1235:0",dtype:float32,shape:[1, 192, 8, 8]}
    out_0 {name:"Node_1237:0",dtype:float32,shape:[1, 2048, 8, 8]}
    attrs {'axis': 1}
  }
}
layer {
  name:"Node_1238"
  type:"nn_avg_pool2d"
  top:"Node_1238"
  bottom:"Node_1237"
  layer_param {
    idx:1238
    in_0 {name:"Node_1237:0",dtype:float32,shape:[1, 2048, 8, 8]}
    out_0 {name:"Node_1238:0",dtype:float32,shape:[1, 2048, 1, 1]}
    attrs {'pool_size': [8, 8], 'strides': [1, 1], 'dilation': [1, 1], 'padding': [0, 0, 0, 0], 'layout': 'NCHW', 'ceil_mode': 0, 'count_include_pad': 0}
  }
}
layer {
  name:"Node_1239"
  type:"layout_transform"
  top:"Node_1239"
  bottom:"Node_1238"
  layer_param {
    idx:1239
    in_0 {name:"Node_1238:0",dtype:float32,shape:[1, 2048, 1, 1]}
    out_0 {name:"Node_1239:0",dtype:float32,shape:[1, 1, 1, 2048]}
    attrs {'src_layout': 'NCHW', 'dst_layout': 'NHWC'}
  }
}
layer {
  name:"Node_1240"
  type:"reshape"
  top:"Node_1240"
  bottom:"Node_1239"
  layer_param {
    idx:1240
    in_0 {name:"Node_1239:0",dtype:float32,shape:[1, 1, 1, 2048]}
    out_0 {name:"Node_1240:0",dtype:float32,shape:[1, 2048]}
    attrs {'newshape': [1, 2048]}
  }
}
layer {
  name:"Node_1241"
  type:"const"
  top:"Node_1241"
  layer_param {
    idx:1241
    out_0 {name:"Node_1241:0",dtype:float32,shape:[1008, 2048]}
  }
}
layer {
  name:"Node_1242"
  type:"nn_dense"
  top:"Node_1242"
  bottom:"Node_1240"
  bottom:"Node_1241"
  layer_param {
    idx:1242
    in_0 {name:"Node_1240:0",dtype:float32,shape:[1, 2048]}
    in_1 {name:"Node_1241:0",dtype:float32,shape:[1008, 2048]}
    out_0 {name:"Node_1242:0",dtype:float32,shape:[1, 1008]}
    attrs {'units': 1008, 'out_dtype': ''}
  }
}
layer {
  name:"Node_1243"
  type:"const"
  top:"Node_1243"
  layer_param {
    idx:1243
    out_0 {name:"Node_1243:0",dtype:float32,shape:[1008]}
  }
}
layer {
  name:"Node_1244"
  type:"add"
  top:"Node_1244"
  bottom:"Node_1242"
  bottom:"Node_1243"
  layer_param {
    idx:1244
    in_0 {name:"Node_1242:0",dtype:float32,shape:[1, 1008]}
    in_1 {name:"Node_1243:0",dtype:float32,shape:[1008]}
    out_0 {name:"Node_1244:0",dtype:float32,shape:[1, 1008]}
  }
}
layer {
  name:"Node_1245"
  type:"nn_softmax"
  top:"Node_1245"
  bottom:"Node_1244"
  layer_param {
    idx:1245
    in_0 {name:"Node_1244:0",dtype:float32,shape:[1, 1008]}
    out_0 {name:"Node_1245:0",dtype:float32,shape:[1, 1008]}
    attrs {'axis': -1}
  }
}
layer {
  name:"Node_1246"
  type:"function"
  top:"Node_1246"
  bottom:"tensorrt_0_i0"
  bottom:"Node_1245"
  layer_param {
    idx:1246
    in_0 {name:"tensorrt_0_i0:0",dtype:float32,shape:[1, 299, 299, 3]}
    in_1 {name:"Node_1245:0",dtype:float32,shape:[1, 1008]}
    out_0 {name:"Node_1246:0",dtype:float32,shape:[1, 1008]}
  }
}
