name : "relay_ir"
layer {
  name:"DecodeJpeg/contents"
  type:"input"
  top:"DecodeJpeg/contents"
  layer_param {
    idx:0
    out_0 {name:"DecodeJpeg/contents:0",dtype:uint8,shape:[299, 299, 3]}
  }
}
layer {
  name:"conv/conv2d_params"
  type:"input"
  top:"conv/conv2d_params"
  layer_param {
    idx:1
    out_0 {name:"conv/conv2d_params:0",dtype:float32,shape:[3, 3, 3, 32]}
  }
}
layer {
  name:"conv/batchnorm/gamma"
  type:"input"
  top:"conv/batchnorm/gamma"
  layer_param {
    idx:2
    out_0 {name:"conv/batchnorm/gamma:0",dtype:float32,shape:[32]}
  }
}
layer {
  name:"conv/batchnorm/beta"
  type:"input"
  top:"conv/batchnorm/beta"
  layer_param {
    idx:3
    out_0 {name:"conv/batchnorm/beta:0",dtype:float32,shape:[32]}
  }
}
layer {
  name:"conv/batchnorm/moving_mean"
  type:"input"
  top:"conv/batchnorm/moving_mean"
  layer_param {
    idx:4
    out_0 {name:"conv/batchnorm/moving_mean:0",dtype:float32,shape:[32]}
  }
}
layer {
  name:"conv/batchnorm/moving_variance"
  type:"input"
  top:"conv/batchnorm/moving_variance"
  layer_param {
    idx:5
    out_0 {name:"conv/batchnorm/moving_variance:0",dtype:float32,shape:[32]}
  }
}
layer {
  name:"conv_1/conv2d_params"
  type:"input"
  top:"conv_1/conv2d_params"
  layer_param {
    idx:6
    out_0 {name:"conv_1/conv2d_params:0",dtype:float32,shape:[3, 3, 32, 32]}
  }
}
layer {
  name:"conv_1/batchnorm/gamma"
  type:"input"
  top:"conv_1/batchnorm/gamma"
  layer_param {
    idx:7
    out_0 {name:"conv_1/batchnorm/gamma:0",dtype:float32,shape:[32]}
  }
}
layer {
  name:"conv_1/batchnorm/beta"
  type:"input"
  top:"conv_1/batchnorm/beta"
  layer_param {
    idx:8
    out_0 {name:"conv_1/batchnorm/beta:0",dtype:float32,shape:[32]}
  }
}
layer {
  name:"conv_1/batchnorm/moving_mean"
  type:"input"
  top:"conv_1/batchnorm/moving_mean"
  layer_param {
    idx:9
    out_0 {name:"conv_1/batchnorm/moving_mean:0",dtype:float32,shape:[32]}
  }
}
layer {
  name:"conv_1/batchnorm/moving_variance"
  type:"input"
  top:"conv_1/batchnorm/moving_variance"
  layer_param {
    idx:10
    out_0 {name:"conv_1/batchnorm/moving_variance:0",dtype:float32,shape:[32]}
  }
}
layer {
  name:"conv_2/conv2d_params"
  type:"input"
  top:"conv_2/conv2d_params"
  layer_param {
    idx:11
    out_0 {name:"conv_2/conv2d_params:0",dtype:float32,shape:[3, 3, 32, 64]}
  }
}
layer {
  name:"conv_2/batchnorm/gamma"
  type:"input"
  top:"conv_2/batchnorm/gamma"
  layer_param {
    idx:12
    out_0 {name:"conv_2/batchnorm/gamma:0",dtype:float32,shape:[64]}
  }
}
layer {
  name:"conv_2/batchnorm/beta"
  type:"input"
  top:"conv_2/batchnorm/beta"
  layer_param {
    idx:13
    out_0 {name:"conv_2/batchnorm/beta:0",dtype:float32,shape:[64]}
  }
}
layer {
  name:"conv_2/batchnorm/moving_mean"
  type:"input"
  top:"conv_2/batchnorm/moving_mean"
  layer_param {
    idx:14
    out_0 {name:"conv_2/batchnorm/moving_mean:0",dtype:float32,shape:[64]}
  }
}
layer {
  name:"conv_2/batchnorm/moving_variance"
  type:"input"
  top:"conv_2/batchnorm/moving_variance"
  layer_param {
    idx:15
    out_0 {name:"conv_2/batchnorm/moving_variance:0",dtype:float32,shape:[64]}
  }
}
layer {
  name:"conv_3/conv2d_params"
  type:"input"
  top:"conv_3/conv2d_params"
  layer_param {
    idx:16
    out_0 {name:"conv_3/conv2d_params:0",dtype:float32,shape:[1, 1, 64, 80]}
  }
}
layer {
  name:"conv_3/batchnorm/gamma"
  type:"input"
  top:"conv_3/batchnorm/gamma"
  layer_param {
    idx:17
    out_0 {name:"conv_3/batchnorm/gamma:0",dtype:float32,shape:[80]}
  }
}
layer {
  name:"conv_3/batchnorm/beta"
  type:"input"
  top:"conv_3/batchnorm/beta"
  layer_param {
    idx:18
    out_0 {name:"conv_3/batchnorm/beta:0",dtype:float32,shape:[80]}
  }
}
layer {
  name:"conv_3/batchnorm/moving_mean"
  type:"input"
  top:"conv_3/batchnorm/moving_mean"
  layer_param {
    idx:19
    out_0 {name:"conv_3/batchnorm/moving_mean:0",dtype:float32,shape:[80]}
  }
}
layer {
  name:"conv_3/batchnorm/moving_variance"
  type:"input"
  top:"conv_3/batchnorm/moving_variance"
  layer_param {
    idx:20
    out_0 {name:"conv_3/batchnorm/moving_variance:0",dtype:float32,shape:[80]}
  }
}
layer {
  name:"conv_4/conv2d_params"
  type:"input"
  top:"conv_4/conv2d_params"
  layer_param {
    idx:21
    out_0 {name:"conv_4/conv2d_params:0",dtype:float32,shape:[3, 3, 80, 192]}
  }
}
layer {
  name:"conv_4/batchnorm/gamma"
  type:"input"
  top:"conv_4/batchnorm/gamma"
  layer_param {
    idx:22
    out_0 {name:"conv_4/batchnorm/gamma:0",dtype:float32,shape:[192]}
  }
}
layer {
  name:"conv_4/batchnorm/beta"
  type:"input"
  top:"conv_4/batchnorm/beta"
  layer_param {
    idx:23
    out_0 {name:"conv_4/batchnorm/beta:0",dtype:float32,shape:[192]}
  }
}
layer {
  name:"conv_4/batchnorm/moving_mean"
  type:"input"
  top:"conv_4/batchnorm/moving_mean"
  layer_param {
    idx:24
    out_0 {name:"conv_4/batchnorm/moving_mean:0",dtype:float32,shape:[192]}
  }
}
layer {
  name:"conv_4/batchnorm/moving_variance"
  type:"input"
  top:"conv_4/batchnorm/moving_variance"
  layer_param {
    idx:25
    out_0 {name:"conv_4/batchnorm/moving_variance:0",dtype:float32,shape:[192]}
  }
}
layer {
  name:"mixed/conv/conv2d_params"
  type:"input"
  top:"mixed/conv/conv2d_params"
  layer_param {
    idx:26
    out_0 {name:"mixed/conv/conv2d_params:0",dtype:float32,shape:[1, 1, 192, 64]}
  }
}
layer {
  name:"mixed/conv/batchnorm/gamma"
  type:"input"
  top:"mixed/conv/batchnorm/gamma"
  layer_param {
    idx:27
    out_0 {name:"mixed/conv/batchnorm/gamma:0",dtype:float32,shape:[64]}
  }
}
layer {
  name:"mixed/conv/batchnorm/beta"
  type:"input"
  top:"mixed/conv/batchnorm/beta"
  layer_param {
    idx:28
    out_0 {name:"mixed/conv/batchnorm/beta:0",dtype:float32,shape:[64]}
  }
}
layer {
  name:"mixed/conv/batchnorm/moving_mean"
  type:"input"
  top:"mixed/conv/batchnorm/moving_mean"
  layer_param {
    idx:29
    out_0 {name:"mixed/conv/batchnorm/moving_mean:0",dtype:float32,shape:[64]}
  }
}
layer {
  name:"mixed/conv/batchnorm/moving_variance"
  type:"input"
  top:"mixed/conv/batchnorm/moving_variance"
  layer_param {
    idx:30
    out_0 {name:"mixed/conv/batchnorm/moving_variance:0",dtype:float32,shape:[64]}
  }
}
layer {
  name:"mixed/tower/conv/conv2d_params"
  type:"input"
  top:"mixed/tower/conv/conv2d_params"
  layer_param {
    idx:31
    out_0 {name:"mixed/tower/conv/conv2d_params:0",dtype:float32,shape:[1, 1, 192, 48]}
  }
}
layer {
  name:"mixed/tower/conv/batchnorm/gamma"
  type:"input"
  top:"mixed/tower/conv/batchnorm/gamma"
  layer_param {
    idx:32
    out_0 {name:"mixed/tower/conv/batchnorm/gamma:0",dtype:float32,shape:[48]}
  }
}
layer {
  name:"mixed/tower/conv/batchnorm/beta"
  type:"input"
  top:"mixed/tower/conv/batchnorm/beta"
  layer_param {
    idx:33
    out_0 {name:"mixed/tower/conv/batchnorm/beta:0",dtype:float32,shape:[48]}
  }
}
layer {
  name:"mixed/tower/conv/batchnorm/moving_mean"
  type:"input"
  top:"mixed/tower/conv/batchnorm/moving_mean"
  layer_param {
    idx:34
    out_0 {name:"mixed/tower/conv/batchnorm/moving_mean:0",dtype:float32,shape:[48]}
  }
}
layer {
  name:"mixed/tower/conv/batchnorm/moving_variance"
  type:"input"
  top:"mixed/tower/conv/batchnorm/moving_variance"
  layer_param {
    idx:35
    out_0 {name:"mixed/tower/conv/batchnorm/moving_variance:0",dtype:float32,shape:[48]}
  }
}
layer {
  name:"mixed/tower/conv_1/conv2d_params"
  type:"input"
  top:"mixed/tower/conv_1/conv2d_params"
  layer_param {
    idx:36
    out_0 {name:"mixed/tower/conv_1/conv2d_params:0",dtype:float32,shape:[5, 5, 48, 64]}
  }
}
layer {
  name:"mixed/tower/conv_1/batchnorm/gamma"
  type:"input"
  top:"mixed/tower/conv_1/batchnorm/gamma"
  layer_param {
    idx:37
    out_0 {name:"mixed/tower/conv_1/batchnorm/gamma:0",dtype:float32,shape:[64]}
  }
}
layer {
  name:"mixed/tower/conv_1/batchnorm/beta"
  type:"input"
  top:"mixed/tower/conv_1/batchnorm/beta"
  layer_param {
    idx:38
    out_0 {name:"mixed/tower/conv_1/batchnorm/beta:0",dtype:float32,shape:[64]}
  }
}
layer {
  name:"mixed/tower/conv_1/batchnorm/moving_mean"
  type:"input"
  top:"mixed/tower/conv_1/batchnorm/moving_mean"
  layer_param {
    idx:39
    out_0 {name:"mixed/tower/conv_1/batchnorm/moving_mean:0",dtype:float32,shape:[64]}
  }
}
layer {
  name:"mixed/tower/conv_1/batchnorm/moving_variance"
  type:"input"
  top:"mixed/tower/conv_1/batchnorm/moving_variance"
  layer_param {
    idx:40
    out_0 {name:"mixed/tower/conv_1/batchnorm/moving_variance:0",dtype:float32,shape:[64]}
  }
}
layer {
  name:"mixed/tower_1/conv/conv2d_params"
  type:"input"
  top:"mixed/tower_1/conv/conv2d_params"
  layer_param {
    idx:41
    out_0 {name:"mixed/tower_1/conv/conv2d_params:0",dtype:float32,shape:[1, 1, 192, 64]}
  }
}
layer {
  name:"mixed/tower_1/conv/batchnorm/gamma"
  type:"input"
  top:"mixed/tower_1/conv/batchnorm/gamma"
  layer_param {
    idx:42
    out_0 {name:"mixed/tower_1/conv/batchnorm/gamma:0",dtype:float32,shape:[64]}
  }
}
layer {
  name:"mixed/tower_1/conv/batchnorm/beta"
  type:"input"
  top:"mixed/tower_1/conv/batchnorm/beta"
  layer_param {
    idx:43
    out_0 {name:"mixed/tower_1/conv/batchnorm/beta:0",dtype:float32,shape:[64]}
  }
}
layer {
  name:"mixed/tower_1/conv/batchnorm/moving_mean"
  type:"input"
  top:"mixed/tower_1/conv/batchnorm/moving_mean"
  layer_param {
    idx:44
    out_0 {name:"mixed/tower_1/conv/batchnorm/moving_mean:0",dtype:float32,shape:[64]}
  }
}
layer {
  name:"mixed/tower_1/conv/batchnorm/moving_variance"
  type:"input"
  top:"mixed/tower_1/conv/batchnorm/moving_variance"
  layer_param {
    idx:45
    out_0 {name:"mixed/tower_1/conv/batchnorm/moving_variance:0",dtype:float32,shape:[64]}
  }
}
layer {
  name:"mixed/tower_1/conv_1/conv2d_params"
  type:"input"
  top:"mixed/tower_1/conv_1/conv2d_params"
  layer_param {
    idx:46
    out_0 {name:"mixed/tower_1/conv_1/conv2d_params:0",dtype:float32,shape:[3, 3, 64, 96]}
  }
}
layer {
  name:"mixed/tower_1/conv_1/batchnorm/gamma"
  type:"input"
  top:"mixed/tower_1/conv_1/batchnorm/gamma"
  layer_param {
    idx:47
    out_0 {name:"mixed/tower_1/conv_1/batchnorm/gamma:0",dtype:float32,shape:[96]}
  }
}
layer {
  name:"mixed/tower_1/conv_1/batchnorm/beta"
  type:"input"
  top:"mixed/tower_1/conv_1/batchnorm/beta"
  layer_param {
    idx:48
    out_0 {name:"mixed/tower_1/conv_1/batchnorm/beta:0",dtype:float32,shape:[96]}
  }
}
layer {
  name:"mixed/tower_1/conv_1/batchnorm/moving_mean"
  type:"input"
  top:"mixed/tower_1/conv_1/batchnorm/moving_mean"
  layer_param {
    idx:49
    out_0 {name:"mixed/tower_1/conv_1/batchnorm/moving_mean:0",dtype:float32,shape:[96]}
  }
}
layer {
  name:"mixed/tower_1/conv_1/batchnorm/moving_variance"
  type:"input"
  top:"mixed/tower_1/conv_1/batchnorm/moving_variance"
  layer_param {
    idx:50
    out_0 {name:"mixed/tower_1/conv_1/batchnorm/moving_variance:0",dtype:float32,shape:[96]}
  }
}
layer {
  name:"mixed/tower_1/conv_2/conv2d_params"
  type:"input"
  top:"mixed/tower_1/conv_2/conv2d_params"
  layer_param {
    idx:51
    out_0 {name:"mixed/tower_1/conv_2/conv2d_params:0",dtype:float32,shape:[3, 3, 96, 96]}
  }
}
layer {
  name:"mixed/tower_1/conv_2/batchnorm/gamma"
  type:"input"
  top:"mixed/tower_1/conv_2/batchnorm/gamma"
  layer_param {
    idx:52
    out_0 {name:"mixed/tower_1/conv_2/batchnorm/gamma:0",dtype:float32,shape:[96]}
  }
}
layer {
  name:"mixed/tower_1/conv_2/batchnorm/beta"
  type:"input"
  top:"mixed/tower_1/conv_2/batchnorm/beta"
  layer_param {
    idx:53
    out_0 {name:"mixed/tower_1/conv_2/batchnorm/beta:0",dtype:float32,shape:[96]}
  }
}
layer {
  name:"mixed/tower_1/conv_2/batchnorm/moving_mean"
  type:"input"
  top:"mixed/tower_1/conv_2/batchnorm/moving_mean"
  layer_param {
    idx:54
    out_0 {name:"mixed/tower_1/conv_2/batchnorm/moving_mean:0",dtype:float32,shape:[96]}
  }
}
layer {
  name:"mixed/tower_1/conv_2/batchnorm/moving_variance"
  type:"input"
  top:"mixed/tower_1/conv_2/batchnorm/moving_variance"
  layer_param {
    idx:55
    out_0 {name:"mixed/tower_1/conv_2/batchnorm/moving_variance:0",dtype:float32,shape:[96]}
  }
}
layer {
  name:"mixed/tower_2/conv/conv2d_params"
  type:"input"
  top:"mixed/tower_2/conv/conv2d_params"
  layer_param {
    idx:56
    out_0 {name:"mixed/tower_2/conv/conv2d_params:0",dtype:float32,shape:[1, 1, 192, 32]}
  }
}
layer {
  name:"mixed/tower_2/conv/batchnorm/gamma"
  type:"input"
  top:"mixed/tower_2/conv/batchnorm/gamma"
  layer_param {
    idx:57
    out_0 {name:"mixed/tower_2/conv/batchnorm/gamma:0",dtype:float32,shape:[32]}
  }
}
layer {
  name:"mixed/tower_2/conv/batchnorm/beta"
  type:"input"
  top:"mixed/tower_2/conv/batchnorm/beta"
  layer_param {
    idx:58
    out_0 {name:"mixed/tower_2/conv/batchnorm/beta:0",dtype:float32,shape:[32]}
  }
}
layer {
  name:"mixed/tower_2/conv/batchnorm/moving_mean"
  type:"input"
  top:"mixed/tower_2/conv/batchnorm/moving_mean"
  layer_param {
    idx:59
    out_0 {name:"mixed/tower_2/conv/batchnorm/moving_mean:0",dtype:float32,shape:[32]}
  }
}
layer {
  name:"mixed/tower_2/conv/batchnorm/moving_variance"
  type:"input"
  top:"mixed/tower_2/conv/batchnorm/moving_variance"
  layer_param {
    idx:60
    out_0 {name:"mixed/tower_2/conv/batchnorm/moving_variance:0",dtype:float32,shape:[32]}
  }
}
layer {
  name:"mixed_1/conv/conv2d_params"
  type:"input"
  top:"mixed_1/conv/conv2d_params"
  layer_param {
    idx:61
    out_0 {name:"mixed_1/conv/conv2d_params:0",dtype:float32,shape:[1, 1, 256, 64]}
  }
}
layer {
  name:"mixed_1/conv/batchnorm/gamma"
  type:"input"
  top:"mixed_1/conv/batchnorm/gamma"
  layer_param {
    idx:62
    out_0 {name:"mixed_1/conv/batchnorm/gamma:0",dtype:float32,shape:[64]}
  }
}
layer {
  name:"mixed_1/conv/batchnorm/beta"
  type:"input"
  top:"mixed_1/conv/batchnorm/beta"
  layer_param {
    idx:63
    out_0 {name:"mixed_1/conv/batchnorm/beta:0",dtype:float32,shape:[64]}
  }
}
layer {
  name:"mixed_1/conv/batchnorm/moving_mean"
  type:"input"
  top:"mixed_1/conv/batchnorm/moving_mean"
  layer_param {
    idx:64
    out_0 {name:"mixed_1/conv/batchnorm/moving_mean:0",dtype:float32,shape:[64]}
  }
}
layer {
  name:"mixed_1/conv/batchnorm/moving_variance"
  type:"input"
  top:"mixed_1/conv/batchnorm/moving_variance"
  layer_param {
    idx:65
    out_0 {name:"mixed_1/conv/batchnorm/moving_variance:0",dtype:float32,shape:[64]}
  }
}
layer {
  name:"mixed_1/tower/conv/conv2d_params"
  type:"input"
  top:"mixed_1/tower/conv/conv2d_params"
  layer_param {
    idx:66
    out_0 {name:"mixed_1/tower/conv/conv2d_params:0",dtype:float32,shape:[1, 1, 256, 48]}
  }
}
layer {
  name:"mixed_1/tower/conv/batchnorm/gamma"
  type:"input"
  top:"mixed_1/tower/conv/batchnorm/gamma"
  layer_param {
    idx:67
    out_0 {name:"mixed_1/tower/conv/batchnorm/gamma:0",dtype:float32,shape:[48]}
  }
}
layer {
  name:"mixed_1/tower/conv/batchnorm/beta"
  type:"input"
  top:"mixed_1/tower/conv/batchnorm/beta"
  layer_param {
    idx:68
    out_0 {name:"mixed_1/tower/conv/batchnorm/beta:0",dtype:float32,shape:[48]}
  }
}
layer {
  name:"mixed_1/tower/conv/batchnorm/moving_mean"
  type:"input"
  top:"mixed_1/tower/conv/batchnorm/moving_mean"
  layer_param {
    idx:69
    out_0 {name:"mixed_1/tower/conv/batchnorm/moving_mean:0",dtype:float32,shape:[48]}
  }
}
layer {
  name:"mixed_1/tower/conv/batchnorm/moving_variance"
  type:"input"
  top:"mixed_1/tower/conv/batchnorm/moving_variance"
  layer_param {
    idx:70
    out_0 {name:"mixed_1/tower/conv/batchnorm/moving_variance:0",dtype:float32,shape:[48]}
  }
}
layer {
  name:"mixed_1/tower/conv_1/conv2d_params"
  type:"input"
  top:"mixed_1/tower/conv_1/conv2d_params"
  layer_param {
    idx:71
    out_0 {name:"mixed_1/tower/conv_1/conv2d_params:0",dtype:float32,shape:[5, 5, 48, 64]}
  }
}
layer {
  name:"mixed_1/tower/conv_1/batchnorm/gamma"
  type:"input"
  top:"mixed_1/tower/conv_1/batchnorm/gamma"
  layer_param {
    idx:72
    out_0 {name:"mixed_1/tower/conv_1/batchnorm/gamma:0",dtype:float32,shape:[64]}
  }
}
layer {
  name:"mixed_1/tower/conv_1/batchnorm/beta"
  type:"input"
  top:"mixed_1/tower/conv_1/batchnorm/beta"
  layer_param {
    idx:73
    out_0 {name:"mixed_1/tower/conv_1/batchnorm/beta:0",dtype:float32,shape:[64]}
  }
}
layer {
  name:"mixed_1/tower/conv_1/batchnorm/moving_mean"
  type:"input"
  top:"mixed_1/tower/conv_1/batchnorm/moving_mean"
  layer_param {
    idx:74
    out_0 {name:"mixed_1/tower/conv_1/batchnorm/moving_mean:0",dtype:float32,shape:[64]}
  }
}
layer {
  name:"mixed_1/tower/conv_1/batchnorm/moving_variance"
  type:"input"
  top:"mixed_1/tower/conv_1/batchnorm/moving_variance"
  layer_param {
    idx:75
    out_0 {name:"mixed_1/tower/conv_1/batchnorm/moving_variance:0",dtype:float32,shape:[64]}
  }
}
layer {
  name:"mixed_1/tower_1/conv/conv2d_params"
  type:"input"
  top:"mixed_1/tower_1/conv/conv2d_params"
  layer_param {
    idx:76
    out_0 {name:"mixed_1/tower_1/conv/conv2d_params:0",dtype:float32,shape:[1, 1, 256, 64]}
  }
}
layer {
  name:"mixed_1/tower_1/conv/batchnorm/gamma"
  type:"input"
  top:"mixed_1/tower_1/conv/batchnorm/gamma"
  layer_param {
    idx:77
    out_0 {name:"mixed_1/tower_1/conv/batchnorm/gamma:0",dtype:float32,shape:[64]}
  }
}
layer {
  name:"mixed_1/tower_1/conv/batchnorm/beta"
  type:"input"
  top:"mixed_1/tower_1/conv/batchnorm/beta"
  layer_param {
    idx:78
    out_0 {name:"mixed_1/tower_1/conv/batchnorm/beta:0",dtype:float32,shape:[64]}
  }
}
layer {
  name:"mixed_1/tower_1/conv/batchnorm/moving_mean"
  type:"input"
  top:"mixed_1/tower_1/conv/batchnorm/moving_mean"
  layer_param {
    idx:79
    out_0 {name:"mixed_1/tower_1/conv/batchnorm/moving_mean:0",dtype:float32,shape:[64]}
  }
}
layer {
  name:"mixed_1/tower_1/conv/batchnorm/moving_variance"
  type:"input"
  top:"mixed_1/tower_1/conv/batchnorm/moving_variance"
  layer_param {
    idx:80
    out_0 {name:"mixed_1/tower_1/conv/batchnorm/moving_variance:0",dtype:float32,shape:[64]}
  }
}
layer {
  name:"mixed_1/tower_1/conv_1/conv2d_params"
  type:"input"
  top:"mixed_1/tower_1/conv_1/conv2d_params"
  layer_param {
    idx:81
    out_0 {name:"mixed_1/tower_1/conv_1/conv2d_params:0",dtype:float32,shape:[3, 3, 64, 96]}
  }
}
layer {
  name:"mixed_1/tower_1/conv_1/batchnorm/gamma"
  type:"input"
  top:"mixed_1/tower_1/conv_1/batchnorm/gamma"
  layer_param {
    idx:82
    out_0 {name:"mixed_1/tower_1/conv_1/batchnorm/gamma:0",dtype:float32,shape:[96]}
  }
}
layer {
  name:"mixed_1/tower_1/conv_1/batchnorm/beta"
  type:"input"
  top:"mixed_1/tower_1/conv_1/batchnorm/beta"
  layer_param {
    idx:83
    out_0 {name:"mixed_1/tower_1/conv_1/batchnorm/beta:0",dtype:float32,shape:[96]}
  }
}
layer {
  name:"mixed_1/tower_1/conv_1/batchnorm/moving_mean"
  type:"input"
  top:"mixed_1/tower_1/conv_1/batchnorm/moving_mean"
  layer_param {
    idx:84
    out_0 {name:"mixed_1/tower_1/conv_1/batchnorm/moving_mean:0",dtype:float32,shape:[96]}
  }
}
layer {
  name:"mixed_1/tower_1/conv_1/batchnorm/moving_variance"
  type:"input"
  top:"mixed_1/tower_1/conv_1/batchnorm/moving_variance"
  layer_param {
    idx:85
    out_0 {name:"mixed_1/tower_1/conv_1/batchnorm/moving_variance:0",dtype:float32,shape:[96]}
  }
}
layer {
  name:"mixed_1/tower_1/conv_2/conv2d_params"
  type:"input"
  top:"mixed_1/tower_1/conv_2/conv2d_params"
  layer_param {
    idx:86
    out_0 {name:"mixed_1/tower_1/conv_2/conv2d_params:0",dtype:float32,shape:[3, 3, 96, 96]}
  }
}
layer {
  name:"mixed_1/tower_1/conv_2/batchnorm/gamma"
  type:"input"
  top:"mixed_1/tower_1/conv_2/batchnorm/gamma"
  layer_param {
    idx:87
    out_0 {name:"mixed_1/tower_1/conv_2/batchnorm/gamma:0",dtype:float32,shape:[96]}
  }
}
layer {
  name:"mixed_1/tower_1/conv_2/batchnorm/beta"
  type:"input"
  top:"mixed_1/tower_1/conv_2/batchnorm/beta"
  layer_param {
    idx:88
    out_0 {name:"mixed_1/tower_1/conv_2/batchnorm/beta:0",dtype:float32,shape:[96]}
  }
}
layer {
  name:"mixed_1/tower_1/conv_2/batchnorm/moving_mean"
  type:"input"
  top:"mixed_1/tower_1/conv_2/batchnorm/moving_mean"
  layer_param {
    idx:89
    out_0 {name:"mixed_1/tower_1/conv_2/batchnorm/moving_mean:0",dtype:float32,shape:[96]}
  }
}
layer {
  name:"mixed_1/tower_1/conv_2/batchnorm/moving_variance"
  type:"input"
  top:"mixed_1/tower_1/conv_2/batchnorm/moving_variance"
  layer_param {
    idx:90
    out_0 {name:"mixed_1/tower_1/conv_2/batchnorm/moving_variance:0",dtype:float32,shape:[96]}
  }
}
layer {
  name:"mixed_1/tower_2/conv/conv2d_params"
  type:"input"
  top:"mixed_1/tower_2/conv/conv2d_params"
  layer_param {
    idx:91
    out_0 {name:"mixed_1/tower_2/conv/conv2d_params:0",dtype:float32,shape:[1, 1, 256, 64]}
  }
}
layer {
  name:"mixed_1/tower_2/conv/batchnorm/gamma"
  type:"input"
  top:"mixed_1/tower_2/conv/batchnorm/gamma"
  layer_param {
    idx:92
    out_0 {name:"mixed_1/tower_2/conv/batchnorm/gamma:0",dtype:float32,shape:[64]}
  }
}
layer {
  name:"mixed_1/tower_2/conv/batchnorm/beta"
  type:"input"
  top:"mixed_1/tower_2/conv/batchnorm/beta"
  layer_param {
    idx:93
    out_0 {name:"mixed_1/tower_2/conv/batchnorm/beta:0",dtype:float32,shape:[64]}
  }
}
layer {
  name:"mixed_1/tower_2/conv/batchnorm/moving_mean"
  type:"input"
  top:"mixed_1/tower_2/conv/batchnorm/moving_mean"
  layer_param {
    idx:94
    out_0 {name:"mixed_1/tower_2/conv/batchnorm/moving_mean:0",dtype:float32,shape:[64]}
  }
}
layer {
  name:"mixed_1/tower_2/conv/batchnorm/moving_variance"
  type:"input"
  top:"mixed_1/tower_2/conv/batchnorm/moving_variance"
  layer_param {
    idx:95
    out_0 {name:"mixed_1/tower_2/conv/batchnorm/moving_variance:0",dtype:float32,shape:[64]}
  }
}
layer {
  name:"mixed_2/conv/conv2d_params"
  type:"input"
  top:"mixed_2/conv/conv2d_params"
  layer_param {
    idx:96
    out_0 {name:"mixed_2/conv/conv2d_params:0",dtype:float32,shape:[1, 1, 288, 64]}
  }
}
layer {
  name:"mixed_2/conv/batchnorm/gamma"
  type:"input"
  top:"mixed_2/conv/batchnorm/gamma"
  layer_param {
    idx:97
    out_0 {name:"mixed_2/conv/batchnorm/gamma:0",dtype:float32,shape:[64]}
  }
}
layer {
  name:"mixed_2/conv/batchnorm/beta"
  type:"input"
  top:"mixed_2/conv/batchnorm/beta"
  layer_param {
    idx:98
    out_0 {name:"mixed_2/conv/batchnorm/beta:0",dtype:float32,shape:[64]}
  }
}
layer {
  name:"mixed_2/conv/batchnorm/moving_mean"
  type:"input"
  top:"mixed_2/conv/batchnorm/moving_mean"
  layer_param {
    idx:99
    out_0 {name:"mixed_2/conv/batchnorm/moving_mean:0",dtype:float32,shape:[64]}
  }
}
layer {
  name:"mixed_2/conv/batchnorm/moving_variance"
  type:"input"
  top:"mixed_2/conv/batchnorm/moving_variance"
  layer_param {
    idx:100
    out_0 {name:"mixed_2/conv/batchnorm/moving_variance:0",dtype:float32,shape:[64]}
  }
}
layer {
  name:"mixed_2/tower/conv/conv2d_params"
  type:"input"
  top:"mixed_2/tower/conv/conv2d_params"
  layer_param {
    idx:101
    out_0 {name:"mixed_2/tower/conv/conv2d_params:0",dtype:float32,shape:[1, 1, 288, 48]}
  }
}
layer {
  name:"mixed_2/tower/conv/batchnorm/gamma"
  type:"input"
  top:"mixed_2/tower/conv/batchnorm/gamma"
  layer_param {
    idx:102
    out_0 {name:"mixed_2/tower/conv/batchnorm/gamma:0",dtype:float32,shape:[48]}
  }
}
layer {
  name:"mixed_2/tower/conv/batchnorm/beta"
  type:"input"
  top:"mixed_2/tower/conv/batchnorm/beta"
  layer_param {
    idx:103
    out_0 {name:"mixed_2/tower/conv/batchnorm/beta:0",dtype:float32,shape:[48]}
  }
}
layer {
  name:"mixed_2/tower/conv/batchnorm/moving_mean"
  type:"input"
  top:"mixed_2/tower/conv/batchnorm/moving_mean"
  layer_param {
    idx:104
    out_0 {name:"mixed_2/tower/conv/batchnorm/moving_mean:0",dtype:float32,shape:[48]}
  }
}
layer {
  name:"mixed_2/tower/conv/batchnorm/moving_variance"
  type:"input"
  top:"mixed_2/tower/conv/batchnorm/moving_variance"
  layer_param {
    idx:105
    out_0 {name:"mixed_2/tower/conv/batchnorm/moving_variance:0",dtype:float32,shape:[48]}
  }
}
layer {
  name:"mixed_2/tower/conv_1/conv2d_params"
  type:"input"
  top:"mixed_2/tower/conv_1/conv2d_params"
  layer_param {
    idx:106
    out_0 {name:"mixed_2/tower/conv_1/conv2d_params:0",dtype:float32,shape:[5, 5, 48, 64]}
  }
}
layer {
  name:"mixed_2/tower/conv_1/batchnorm/gamma"
  type:"input"
  top:"mixed_2/tower/conv_1/batchnorm/gamma"
  layer_param {
    idx:107
    out_0 {name:"mixed_2/tower/conv_1/batchnorm/gamma:0",dtype:float32,shape:[64]}
  }
}
layer {
  name:"mixed_2/tower/conv_1/batchnorm/beta"
  type:"input"
  top:"mixed_2/tower/conv_1/batchnorm/beta"
  layer_param {
    idx:108
    out_0 {name:"mixed_2/tower/conv_1/batchnorm/beta:0",dtype:float32,shape:[64]}
  }
}
layer {
  name:"mixed_2/tower/conv_1/batchnorm/moving_mean"
  type:"input"
  top:"mixed_2/tower/conv_1/batchnorm/moving_mean"
  layer_param {
    idx:109
    out_0 {name:"mixed_2/tower/conv_1/batchnorm/moving_mean:0",dtype:float32,shape:[64]}
  }
}
layer {
  name:"mixed_2/tower/conv_1/batchnorm/moving_variance"
  type:"input"
  top:"mixed_2/tower/conv_1/batchnorm/moving_variance"
  layer_param {
    idx:110
    out_0 {name:"mixed_2/tower/conv_1/batchnorm/moving_variance:0",dtype:float32,shape:[64]}
  }
}
layer {
  name:"mixed_2/tower_1/conv/conv2d_params"
  type:"input"
  top:"mixed_2/tower_1/conv/conv2d_params"
  layer_param {
    idx:111
    out_0 {name:"mixed_2/tower_1/conv/conv2d_params:0",dtype:float32,shape:[1, 1, 288, 64]}
  }
}
layer {
  name:"mixed_2/tower_1/conv/batchnorm/gamma"
  type:"input"
  top:"mixed_2/tower_1/conv/batchnorm/gamma"
  layer_param {
    idx:112
    out_0 {name:"mixed_2/tower_1/conv/batchnorm/gamma:0",dtype:float32,shape:[64]}
  }
}
layer {
  name:"mixed_2/tower_1/conv/batchnorm/beta"
  type:"input"
  top:"mixed_2/tower_1/conv/batchnorm/beta"
  layer_param {
    idx:113
    out_0 {name:"mixed_2/tower_1/conv/batchnorm/beta:0",dtype:float32,shape:[64]}
  }
}
layer {
  name:"mixed_2/tower_1/conv/batchnorm/moving_mean"
  type:"input"
  top:"mixed_2/tower_1/conv/batchnorm/moving_mean"
  layer_param {
    idx:114
    out_0 {name:"mixed_2/tower_1/conv/batchnorm/moving_mean:0",dtype:float32,shape:[64]}
  }
}
layer {
  name:"mixed_2/tower_1/conv/batchnorm/moving_variance"
  type:"input"
  top:"mixed_2/tower_1/conv/batchnorm/moving_variance"
  layer_param {
    idx:115
    out_0 {name:"mixed_2/tower_1/conv/batchnorm/moving_variance:0",dtype:float32,shape:[64]}
  }
}
layer {
  name:"mixed_2/tower_1/conv_1/conv2d_params"
  type:"input"
  top:"mixed_2/tower_1/conv_1/conv2d_params"
  layer_param {
    idx:116
    out_0 {name:"mixed_2/tower_1/conv_1/conv2d_params:0",dtype:float32,shape:[3, 3, 64, 96]}
  }
}
layer {
  name:"mixed_2/tower_1/conv_1/batchnorm/gamma"
  type:"input"
  top:"mixed_2/tower_1/conv_1/batchnorm/gamma"
  layer_param {
    idx:117
    out_0 {name:"mixed_2/tower_1/conv_1/batchnorm/gamma:0",dtype:float32,shape:[96]}
  }
}
layer {
  name:"mixed_2/tower_1/conv_1/batchnorm/beta"
  type:"input"
  top:"mixed_2/tower_1/conv_1/batchnorm/beta"
  layer_param {
    idx:118
    out_0 {name:"mixed_2/tower_1/conv_1/batchnorm/beta:0",dtype:float32,shape:[96]}
  }
}
layer {
  name:"mixed_2/tower_1/conv_1/batchnorm/moving_mean"
  type:"input"
  top:"mixed_2/tower_1/conv_1/batchnorm/moving_mean"
  layer_param {
    idx:119
    out_0 {name:"mixed_2/tower_1/conv_1/batchnorm/moving_mean:0",dtype:float32,shape:[96]}
  }
}
layer {
  name:"mixed_2/tower_1/conv_1/batchnorm/moving_variance"
  type:"input"
  top:"mixed_2/tower_1/conv_1/batchnorm/moving_variance"
  layer_param {
    idx:120
    out_0 {name:"mixed_2/tower_1/conv_1/batchnorm/moving_variance:0",dtype:float32,shape:[96]}
  }
}
layer {
  name:"mixed_2/tower_1/conv_2/conv2d_params"
  type:"input"
  top:"mixed_2/tower_1/conv_2/conv2d_params"
  layer_param {
    idx:121
    out_0 {name:"mixed_2/tower_1/conv_2/conv2d_params:0",dtype:float32,shape:[3, 3, 96, 96]}
  }
}
layer {
  name:"mixed_2/tower_1/conv_2/batchnorm/gamma"
  type:"input"
  top:"mixed_2/tower_1/conv_2/batchnorm/gamma"
  layer_param {
    idx:122
    out_0 {name:"mixed_2/tower_1/conv_2/batchnorm/gamma:0",dtype:float32,shape:[96]}
  }
}
layer {
  name:"mixed_2/tower_1/conv_2/batchnorm/beta"
  type:"input"
  top:"mixed_2/tower_1/conv_2/batchnorm/beta"
  layer_param {
    idx:123
    out_0 {name:"mixed_2/tower_1/conv_2/batchnorm/beta:0",dtype:float32,shape:[96]}
  }
}
layer {
  name:"mixed_2/tower_1/conv_2/batchnorm/moving_mean"
  type:"input"
  top:"mixed_2/tower_1/conv_2/batchnorm/moving_mean"
  layer_param {
    idx:124
    out_0 {name:"mixed_2/tower_1/conv_2/batchnorm/moving_mean:0",dtype:float32,shape:[96]}
  }
}
layer {
  name:"mixed_2/tower_1/conv_2/batchnorm/moving_variance"
  type:"input"
  top:"mixed_2/tower_1/conv_2/batchnorm/moving_variance"
  layer_param {
    idx:125
    out_0 {name:"mixed_2/tower_1/conv_2/batchnorm/moving_variance:0",dtype:float32,shape:[96]}
  }
}
layer {
  name:"mixed_2/tower_2/conv/conv2d_params"
  type:"input"
  top:"mixed_2/tower_2/conv/conv2d_params"
  layer_param {
    idx:126
    out_0 {name:"mixed_2/tower_2/conv/conv2d_params:0",dtype:float32,shape:[1, 1, 288, 64]}
  }
}
layer {
  name:"mixed_2/tower_2/conv/batchnorm/gamma"
  type:"input"
  top:"mixed_2/tower_2/conv/batchnorm/gamma"
  layer_param {
    idx:127
    out_0 {name:"mixed_2/tower_2/conv/batchnorm/gamma:0",dtype:float32,shape:[64]}
  }
}
layer {
  name:"mixed_2/tower_2/conv/batchnorm/beta"
  type:"input"
  top:"mixed_2/tower_2/conv/batchnorm/beta"
  layer_param {
    idx:128
    out_0 {name:"mixed_2/tower_2/conv/batchnorm/beta:0",dtype:float32,shape:[64]}
  }
}
layer {
  name:"mixed_2/tower_2/conv/batchnorm/moving_mean"
  type:"input"
  top:"mixed_2/tower_2/conv/batchnorm/moving_mean"
  layer_param {
    idx:129
    out_0 {name:"mixed_2/tower_2/conv/batchnorm/moving_mean:0",dtype:float32,shape:[64]}
  }
}
layer {
  name:"mixed_2/tower_2/conv/batchnorm/moving_variance"
  type:"input"
  top:"mixed_2/tower_2/conv/batchnorm/moving_variance"
  layer_param {
    idx:130
    out_0 {name:"mixed_2/tower_2/conv/batchnorm/moving_variance:0",dtype:float32,shape:[64]}
  }
}
layer {
  name:"mixed_3/conv/conv2d_params"
  type:"input"
  top:"mixed_3/conv/conv2d_params"
  layer_param {
    idx:131
    out_0 {name:"mixed_3/conv/conv2d_params:0",dtype:float32,shape:[3, 3, 288, 384]}
  }
}
layer {
  name:"mixed_3/conv/batchnorm/gamma"
  type:"input"
  top:"mixed_3/conv/batchnorm/gamma"
  layer_param {
    idx:132
    out_0 {name:"mixed_3/conv/batchnorm/gamma:0",dtype:float32,shape:[384]}
  }
}
layer {
  name:"mixed_3/conv/batchnorm/beta"
  type:"input"
  top:"mixed_3/conv/batchnorm/beta"
  layer_param {
    idx:133
    out_0 {name:"mixed_3/conv/batchnorm/beta:0",dtype:float32,shape:[384]}
  }
}
layer {
  name:"mixed_3/conv/batchnorm/moving_mean"
  type:"input"
  top:"mixed_3/conv/batchnorm/moving_mean"
  layer_param {
    idx:134
    out_0 {name:"mixed_3/conv/batchnorm/moving_mean:0",dtype:float32,shape:[384]}
  }
}
layer {
  name:"mixed_3/conv/batchnorm/moving_variance"
  type:"input"
  top:"mixed_3/conv/batchnorm/moving_variance"
  layer_param {
    idx:135
    out_0 {name:"mixed_3/conv/batchnorm/moving_variance:0",dtype:float32,shape:[384]}
  }
}
layer {
  name:"mixed_3/tower/conv/conv2d_params"
  type:"input"
  top:"mixed_3/tower/conv/conv2d_params"
  layer_param {
    idx:136
    out_0 {name:"mixed_3/tower/conv/conv2d_params:0",dtype:float32,shape:[1, 1, 288, 64]}
  }
}
layer {
  name:"mixed_3/tower/conv/batchnorm/gamma"
  type:"input"
  top:"mixed_3/tower/conv/batchnorm/gamma"
  layer_param {
    idx:137
    out_0 {name:"mixed_3/tower/conv/batchnorm/gamma:0",dtype:float32,shape:[64]}
  }
}
layer {
  name:"mixed_3/tower/conv/batchnorm/beta"
  type:"input"
  top:"mixed_3/tower/conv/batchnorm/beta"
  layer_param {
    idx:138
    out_0 {name:"mixed_3/tower/conv/batchnorm/beta:0",dtype:float32,shape:[64]}
  }
}
layer {
  name:"mixed_3/tower/conv/batchnorm/moving_mean"
  type:"input"
  top:"mixed_3/tower/conv/batchnorm/moving_mean"
  layer_param {
    idx:139
    out_0 {name:"mixed_3/tower/conv/batchnorm/moving_mean:0",dtype:float32,shape:[64]}
  }
}
layer {
  name:"mixed_3/tower/conv/batchnorm/moving_variance"
  type:"input"
  top:"mixed_3/tower/conv/batchnorm/moving_variance"
  layer_param {
    idx:140
    out_0 {name:"mixed_3/tower/conv/batchnorm/moving_variance:0",dtype:float32,shape:[64]}
  }
}
layer {
  name:"mixed_3/tower/conv_1/conv2d_params"
  type:"input"
  top:"mixed_3/tower/conv_1/conv2d_params"
  layer_param {
    idx:141
    out_0 {name:"mixed_3/tower/conv_1/conv2d_params:0",dtype:float32,shape:[3, 3, 64, 96]}
  }
}
layer {
  name:"mixed_3/tower/conv_1/batchnorm/gamma"
  type:"input"
  top:"mixed_3/tower/conv_1/batchnorm/gamma"
  layer_param {
    idx:142
    out_0 {name:"mixed_3/tower/conv_1/batchnorm/gamma:0",dtype:float32,shape:[96]}
  }
}
layer {
  name:"mixed_3/tower/conv_1/batchnorm/beta"
  type:"input"
  top:"mixed_3/tower/conv_1/batchnorm/beta"
  layer_param {
    idx:143
    out_0 {name:"mixed_3/tower/conv_1/batchnorm/beta:0",dtype:float32,shape:[96]}
  }
}
layer {
  name:"mixed_3/tower/conv_1/batchnorm/moving_mean"
  type:"input"
  top:"mixed_3/tower/conv_1/batchnorm/moving_mean"
  layer_param {
    idx:144
    out_0 {name:"mixed_3/tower/conv_1/batchnorm/moving_mean:0",dtype:float32,shape:[96]}
  }
}
layer {
  name:"mixed_3/tower/conv_1/batchnorm/moving_variance"
  type:"input"
  top:"mixed_3/tower/conv_1/batchnorm/moving_variance"
  layer_param {
    idx:145
    out_0 {name:"mixed_3/tower/conv_1/batchnorm/moving_variance:0",dtype:float32,shape:[96]}
  }
}
layer {
  name:"mixed_3/tower/conv_2/conv2d_params"
  type:"input"
  top:"mixed_3/tower/conv_2/conv2d_params"
  layer_param {
    idx:146
    out_0 {name:"mixed_3/tower/conv_2/conv2d_params:0",dtype:float32,shape:[3, 3, 96, 96]}
  }
}
layer {
  name:"mixed_3/tower/conv_2/batchnorm/gamma"
  type:"input"
  top:"mixed_3/tower/conv_2/batchnorm/gamma"
  layer_param {
    idx:147
    out_0 {name:"mixed_3/tower/conv_2/batchnorm/gamma:0",dtype:float32,shape:[96]}
  }
}
layer {
  name:"mixed_3/tower/conv_2/batchnorm/beta"
  type:"input"
  top:"mixed_3/tower/conv_2/batchnorm/beta"
  layer_param {
    idx:148
    out_0 {name:"mixed_3/tower/conv_2/batchnorm/beta:0",dtype:float32,shape:[96]}
  }
}
layer {
  name:"mixed_3/tower/conv_2/batchnorm/moving_mean"
  type:"input"
  top:"mixed_3/tower/conv_2/batchnorm/moving_mean"
  layer_param {
    idx:149
    out_0 {name:"mixed_3/tower/conv_2/batchnorm/moving_mean:0",dtype:float32,shape:[96]}
  }
}
layer {
  name:"mixed_3/tower/conv_2/batchnorm/moving_variance"
  type:"input"
  top:"mixed_3/tower/conv_2/batchnorm/moving_variance"
  layer_param {
    idx:150
    out_0 {name:"mixed_3/tower/conv_2/batchnorm/moving_variance:0",dtype:float32,shape:[96]}
  }
}
layer {
  name:"mixed_4/conv/conv2d_params"
  type:"input"
  top:"mixed_4/conv/conv2d_params"
  layer_param {
    idx:151
    out_0 {name:"mixed_4/conv/conv2d_params:0",dtype:float32,shape:[1, 1, 768, 192]}
  }
}
layer {
  name:"mixed_4/conv/batchnorm/gamma"
  type:"input"
  top:"mixed_4/conv/batchnorm/gamma"
  layer_param {
    idx:152
    out_0 {name:"mixed_4/conv/batchnorm/gamma:0",dtype:float32,shape:[192]}
  }
}
layer {
  name:"mixed_4/conv/batchnorm/beta"
  type:"input"
  top:"mixed_4/conv/batchnorm/beta"
  layer_param {
    idx:153
    out_0 {name:"mixed_4/conv/batchnorm/beta:0",dtype:float32,shape:[192]}
  }
}
layer {
  name:"mixed_4/conv/batchnorm/moving_mean"
  type:"input"
  top:"mixed_4/conv/batchnorm/moving_mean"
  layer_param {
    idx:154
    out_0 {name:"mixed_4/conv/batchnorm/moving_mean:0",dtype:float32,shape:[192]}
  }
}
layer {
  name:"mixed_4/conv/batchnorm/moving_variance"
  type:"input"
  top:"mixed_4/conv/batchnorm/moving_variance"
  layer_param {
    idx:155
    out_0 {name:"mixed_4/conv/batchnorm/moving_variance:0",dtype:float32,shape:[192]}
  }
}
layer {
  name:"mixed_4/tower/conv/conv2d_params"
  type:"input"
  top:"mixed_4/tower/conv/conv2d_params"
  layer_param {
    idx:156
    out_0 {name:"mixed_4/tower/conv/conv2d_params:0",dtype:float32,shape:[1, 1, 768, 128]}
  }
}
layer {
  name:"mixed_4/tower/conv/batchnorm/gamma"
  type:"input"
  top:"mixed_4/tower/conv/batchnorm/gamma"
  layer_param {
    idx:157
    out_0 {name:"mixed_4/tower/conv/batchnorm/gamma:0",dtype:float32,shape:[128]}
  }
}
layer {
  name:"mixed_4/tower/conv/batchnorm/beta"
  type:"input"
  top:"mixed_4/tower/conv/batchnorm/beta"
  layer_param {
    idx:158
    out_0 {name:"mixed_4/tower/conv/batchnorm/beta:0",dtype:float32,shape:[128]}
  }
}
layer {
  name:"mixed_4/tower/conv/batchnorm/moving_mean"
  type:"input"
  top:"mixed_4/tower/conv/batchnorm/moving_mean"
  layer_param {
    idx:159
    out_0 {name:"mixed_4/tower/conv/batchnorm/moving_mean:0",dtype:float32,shape:[128]}
  }
}
layer {
  name:"mixed_4/tower/conv/batchnorm/moving_variance"
  type:"input"
  top:"mixed_4/tower/conv/batchnorm/moving_variance"
  layer_param {
    idx:160
    out_0 {name:"mixed_4/tower/conv/batchnorm/moving_variance:0",dtype:float32,shape:[128]}
  }
}
layer {
  name:"mixed_4/tower/conv_1/conv2d_params"
  type:"input"
  top:"mixed_4/tower/conv_1/conv2d_params"
  layer_param {
    idx:161
    out_0 {name:"mixed_4/tower/conv_1/conv2d_params:0",dtype:float32,shape:[1, 7, 128, 128]}
  }
}
layer {
  name:"mixed_4/tower/conv_1/batchnorm/gamma"
  type:"input"
  top:"mixed_4/tower/conv_1/batchnorm/gamma"
  layer_param {
    idx:162
    out_0 {name:"mixed_4/tower/conv_1/batchnorm/gamma:0",dtype:float32,shape:[128]}
  }
}
layer {
  name:"mixed_4/tower/conv_1/batchnorm/beta"
  type:"input"
  top:"mixed_4/tower/conv_1/batchnorm/beta"
  layer_param {
    idx:163
    out_0 {name:"mixed_4/tower/conv_1/batchnorm/beta:0",dtype:float32,shape:[128]}
  }
}
layer {
  name:"mixed_4/tower/conv_1/batchnorm/moving_mean"
  type:"input"
  top:"mixed_4/tower/conv_1/batchnorm/moving_mean"
  layer_param {
    idx:164
    out_0 {name:"mixed_4/tower/conv_1/batchnorm/moving_mean:0",dtype:float32,shape:[128]}
  }
}
layer {
  name:"mixed_4/tower/conv_1/batchnorm/moving_variance"
  type:"input"
  top:"mixed_4/tower/conv_1/batchnorm/moving_variance"
  layer_param {
    idx:165
    out_0 {name:"mixed_4/tower/conv_1/batchnorm/moving_variance:0",dtype:float32,shape:[128]}
  }
}
layer {
  name:"mixed_4/tower/conv_2/conv2d_params"
  type:"input"
  top:"mixed_4/tower/conv_2/conv2d_params"
  layer_param {
    idx:166
    out_0 {name:"mixed_4/tower/conv_2/conv2d_params:0",dtype:float32,shape:[7, 1, 128, 192]}
  }
}
layer {
  name:"mixed_4/tower/conv_2/batchnorm/gamma"
  type:"input"
  top:"mixed_4/tower/conv_2/batchnorm/gamma"
  layer_param {
    idx:167
    out_0 {name:"mixed_4/tower/conv_2/batchnorm/gamma:0",dtype:float32,shape:[192]}
  }
}
layer {
  name:"mixed_4/tower/conv_2/batchnorm/beta"
  type:"input"
  top:"mixed_4/tower/conv_2/batchnorm/beta"
  layer_param {
    idx:168
    out_0 {name:"mixed_4/tower/conv_2/batchnorm/beta:0",dtype:float32,shape:[192]}
  }
}
layer {
  name:"mixed_4/tower/conv_2/batchnorm/moving_mean"
  type:"input"
  top:"mixed_4/tower/conv_2/batchnorm/moving_mean"
  layer_param {
    idx:169
    out_0 {name:"mixed_4/tower/conv_2/batchnorm/moving_mean:0",dtype:float32,shape:[192]}
  }
}
layer {
  name:"mixed_4/tower/conv_2/batchnorm/moving_variance"
  type:"input"
  top:"mixed_4/tower/conv_2/batchnorm/moving_variance"
  layer_param {
    idx:170
    out_0 {name:"mixed_4/tower/conv_2/batchnorm/moving_variance:0",dtype:float32,shape:[192]}
  }
}
layer {
  name:"mixed_4/tower_1/conv/conv2d_params"
  type:"input"
  top:"mixed_4/tower_1/conv/conv2d_params"
  layer_param {
    idx:171
    out_0 {name:"mixed_4/tower_1/conv/conv2d_params:0",dtype:float32,shape:[1, 1, 768, 128]}
  }
}
layer {
  name:"mixed_4/tower_1/conv/batchnorm/gamma"
  type:"input"
  top:"mixed_4/tower_1/conv/batchnorm/gamma"
  layer_param {
    idx:172
    out_0 {name:"mixed_4/tower_1/conv/batchnorm/gamma:0",dtype:float32,shape:[128]}
  }
}
layer {
  name:"mixed_4/tower_1/conv/batchnorm/beta"
  type:"input"
  top:"mixed_4/tower_1/conv/batchnorm/beta"
  layer_param {
    idx:173
    out_0 {name:"mixed_4/tower_1/conv/batchnorm/beta:0",dtype:float32,shape:[128]}
  }
}
layer {
  name:"mixed_4/tower_1/conv/batchnorm/moving_mean"
  type:"input"
  top:"mixed_4/tower_1/conv/batchnorm/moving_mean"
  layer_param {
    idx:174
    out_0 {name:"mixed_4/tower_1/conv/batchnorm/moving_mean:0",dtype:float32,shape:[128]}
  }
}
layer {
  name:"mixed_4/tower_1/conv/batchnorm/moving_variance"
  type:"input"
  top:"mixed_4/tower_1/conv/batchnorm/moving_variance"
  layer_param {
    idx:175
    out_0 {name:"mixed_4/tower_1/conv/batchnorm/moving_variance:0",dtype:float32,shape:[128]}
  }
}
layer {
  name:"mixed_4/tower_1/conv_1/conv2d_params"
  type:"input"
  top:"mixed_4/tower_1/conv_1/conv2d_params"
  layer_param {
    idx:176
    out_0 {name:"mixed_4/tower_1/conv_1/conv2d_params:0",dtype:float32,shape:[7, 1, 128, 128]}
  }
}
layer {
  name:"mixed_4/tower_1/conv_1/batchnorm/gamma"
  type:"input"
  top:"mixed_4/tower_1/conv_1/batchnorm/gamma"
  layer_param {
    idx:177
    out_0 {name:"mixed_4/tower_1/conv_1/batchnorm/gamma:0",dtype:float32,shape:[128]}
  }
}
layer {
  name:"mixed_4/tower_1/conv_1/batchnorm/beta"
  type:"input"
  top:"mixed_4/tower_1/conv_1/batchnorm/beta"
  layer_param {
    idx:178
    out_0 {name:"mixed_4/tower_1/conv_1/batchnorm/beta:0",dtype:float32,shape:[128]}
  }
}
layer {
  name:"mixed_4/tower_1/conv_1/batchnorm/moving_mean"
  type:"input"
  top:"mixed_4/tower_1/conv_1/batchnorm/moving_mean"
  layer_param {
    idx:179
    out_0 {name:"mixed_4/tower_1/conv_1/batchnorm/moving_mean:0",dtype:float32,shape:[128]}
  }
}
layer {
  name:"mixed_4/tower_1/conv_1/batchnorm/moving_variance"
  type:"input"
  top:"mixed_4/tower_1/conv_1/batchnorm/moving_variance"
  layer_param {
    idx:180
    out_0 {name:"mixed_4/tower_1/conv_1/batchnorm/moving_variance:0",dtype:float32,shape:[128]}
  }
}
layer {
  name:"mixed_4/tower_1/conv_2/conv2d_params"
  type:"input"
  top:"mixed_4/tower_1/conv_2/conv2d_params"
  layer_param {
    idx:181
    out_0 {name:"mixed_4/tower_1/conv_2/conv2d_params:0",dtype:float32,shape:[1, 7, 128, 128]}
  }
}
layer {
  name:"mixed_4/tower_1/conv_2/batchnorm/gamma"
  type:"input"
  top:"mixed_4/tower_1/conv_2/batchnorm/gamma"
  layer_param {
    idx:182
    out_0 {name:"mixed_4/tower_1/conv_2/batchnorm/gamma:0",dtype:float32,shape:[128]}
  }
}
layer {
  name:"mixed_4/tower_1/conv_2/batchnorm/beta"
  type:"input"
  top:"mixed_4/tower_1/conv_2/batchnorm/beta"
  layer_param {
    idx:183
    out_0 {name:"mixed_4/tower_1/conv_2/batchnorm/beta:0",dtype:float32,shape:[128]}
  }
}
layer {
  name:"mixed_4/tower_1/conv_2/batchnorm/moving_mean"
  type:"input"
  top:"mixed_4/tower_1/conv_2/batchnorm/moving_mean"
  layer_param {
    idx:184
    out_0 {name:"mixed_4/tower_1/conv_2/batchnorm/moving_mean:0",dtype:float32,shape:[128]}
  }
}
layer {
  name:"mixed_4/tower_1/conv_2/batchnorm/moving_variance"
  type:"input"
  top:"mixed_4/tower_1/conv_2/batchnorm/moving_variance"
  layer_param {
    idx:185
    out_0 {name:"mixed_4/tower_1/conv_2/batchnorm/moving_variance:0",dtype:float32,shape:[128]}
  }
}
layer {
  name:"mixed_4/tower_1/conv_3/conv2d_params"
  type:"input"
  top:"mixed_4/tower_1/conv_3/conv2d_params"
  layer_param {
    idx:186
    out_0 {name:"mixed_4/tower_1/conv_3/conv2d_params:0",dtype:float32,shape:[7, 1, 128, 128]}
  }
}
layer {
  name:"mixed_4/tower_1/conv_3/batchnorm/gamma"
  type:"input"
  top:"mixed_4/tower_1/conv_3/batchnorm/gamma"
  layer_param {
    idx:187
    out_0 {name:"mixed_4/tower_1/conv_3/batchnorm/gamma:0",dtype:float32,shape:[128]}
  }
}
layer {
  name:"mixed_4/tower_1/conv_3/batchnorm/beta"
  type:"input"
  top:"mixed_4/tower_1/conv_3/batchnorm/beta"
  layer_param {
    idx:188
    out_0 {name:"mixed_4/tower_1/conv_3/batchnorm/beta:0",dtype:float32,shape:[128]}
  }
}
layer {
  name:"mixed_4/tower_1/conv_3/batchnorm/moving_mean"
  type:"input"
  top:"mixed_4/tower_1/conv_3/batchnorm/moving_mean"
  layer_param {
    idx:189
    out_0 {name:"mixed_4/tower_1/conv_3/batchnorm/moving_mean:0",dtype:float32,shape:[128]}
  }
}
layer {
  name:"mixed_4/tower_1/conv_3/batchnorm/moving_variance"
  type:"input"
  top:"mixed_4/tower_1/conv_3/batchnorm/moving_variance"
  layer_param {
    idx:190
    out_0 {name:"mixed_4/tower_1/conv_3/batchnorm/moving_variance:0",dtype:float32,shape:[128]}
  }
}
layer {
  name:"mixed_4/tower_1/conv_4/conv2d_params"
  type:"input"
  top:"mixed_4/tower_1/conv_4/conv2d_params"
  layer_param {
    idx:191
    out_0 {name:"mixed_4/tower_1/conv_4/conv2d_params:0",dtype:float32,shape:[1, 7, 128, 192]}
  }
}
layer {
  name:"mixed_4/tower_1/conv_4/batchnorm/gamma"
  type:"input"
  top:"mixed_4/tower_1/conv_4/batchnorm/gamma"
  layer_param {
    idx:192
    out_0 {name:"mixed_4/tower_1/conv_4/batchnorm/gamma:0",dtype:float32,shape:[192]}
  }
}
layer {
  name:"mixed_4/tower_1/conv_4/batchnorm/beta"
  type:"input"
  top:"mixed_4/tower_1/conv_4/batchnorm/beta"
  layer_param {
    idx:193
    out_0 {name:"mixed_4/tower_1/conv_4/batchnorm/beta:0",dtype:float32,shape:[192]}
  }
}
layer {
  name:"mixed_4/tower_1/conv_4/batchnorm/moving_mean"
  type:"input"
  top:"mixed_4/tower_1/conv_4/batchnorm/moving_mean"
  layer_param {
    idx:194
    out_0 {name:"mixed_4/tower_1/conv_4/batchnorm/moving_mean:0",dtype:float32,shape:[192]}
  }
}
layer {
  name:"mixed_4/tower_1/conv_4/batchnorm/moving_variance"
  type:"input"
  top:"mixed_4/tower_1/conv_4/batchnorm/moving_variance"
  layer_param {
    idx:195
    out_0 {name:"mixed_4/tower_1/conv_4/batchnorm/moving_variance:0",dtype:float32,shape:[192]}
  }
}
layer {
  name:"mixed_4/tower_2/conv/conv2d_params"
  type:"input"
  top:"mixed_4/tower_2/conv/conv2d_params"
  layer_param {
    idx:196
    out_0 {name:"mixed_4/tower_2/conv/conv2d_params:0",dtype:float32,shape:[1, 1, 768, 192]}
  }
}
layer {
  name:"mixed_4/tower_2/conv/batchnorm/gamma"
  type:"input"
  top:"mixed_4/tower_2/conv/batchnorm/gamma"
  layer_param {
    idx:197
    out_0 {name:"mixed_4/tower_2/conv/batchnorm/gamma:0",dtype:float32,shape:[192]}
  }
}
layer {
  name:"mixed_4/tower_2/conv/batchnorm/beta"
  type:"input"
  top:"mixed_4/tower_2/conv/batchnorm/beta"
  layer_param {
    idx:198
    out_0 {name:"mixed_4/tower_2/conv/batchnorm/beta:0",dtype:float32,shape:[192]}
  }
}
layer {
  name:"mixed_4/tower_2/conv/batchnorm/moving_mean"
  type:"input"
  top:"mixed_4/tower_2/conv/batchnorm/moving_mean"
  layer_param {
    idx:199
    out_0 {name:"mixed_4/tower_2/conv/batchnorm/moving_mean:0",dtype:float32,shape:[192]}
  }
}
layer {
  name:"mixed_4/tower_2/conv/batchnorm/moving_variance"
  type:"input"
  top:"mixed_4/tower_2/conv/batchnorm/moving_variance"
  layer_param {
    idx:200
    out_0 {name:"mixed_4/tower_2/conv/batchnorm/moving_variance:0",dtype:float32,shape:[192]}
  }
}
layer {
  name:"mixed_5/conv/conv2d_params"
  type:"input"
  top:"mixed_5/conv/conv2d_params"
  layer_param {
    idx:201
    out_0 {name:"mixed_5/conv/conv2d_params:0",dtype:float32,shape:[1, 1, 768, 192]}
  }
}
layer {
  name:"mixed_5/conv/batchnorm/gamma"
  type:"input"
  top:"mixed_5/conv/batchnorm/gamma"
  layer_param {
    idx:202
    out_0 {name:"mixed_5/conv/batchnorm/gamma:0",dtype:float32,shape:[192]}
  }
}
layer {
  name:"mixed_5/conv/batchnorm/beta"
  type:"input"
  top:"mixed_5/conv/batchnorm/beta"
  layer_param {
    idx:203
    out_0 {name:"mixed_5/conv/batchnorm/beta:0",dtype:float32,shape:[192]}
  }
}
layer {
  name:"mixed_5/conv/batchnorm/moving_mean"
  type:"input"
  top:"mixed_5/conv/batchnorm/moving_mean"
  layer_param {
    idx:204
    out_0 {name:"mixed_5/conv/batchnorm/moving_mean:0",dtype:float32,shape:[192]}
  }
}
layer {
  name:"mixed_5/conv/batchnorm/moving_variance"
  type:"input"
  top:"mixed_5/conv/batchnorm/moving_variance"
  layer_param {
    idx:205
    out_0 {name:"mixed_5/conv/batchnorm/moving_variance:0",dtype:float32,shape:[192]}
  }
}
layer {
  name:"mixed_5/tower/conv/conv2d_params"
  type:"input"
  top:"mixed_5/tower/conv/conv2d_params"
  layer_param {
    idx:206
    out_0 {name:"mixed_5/tower/conv/conv2d_params:0",dtype:float32,shape:[1, 1, 768, 160]}
  }
}
layer {
  name:"mixed_5/tower/conv/batchnorm/gamma"
  type:"input"
  top:"mixed_5/tower/conv/batchnorm/gamma"
  layer_param {
    idx:207
    out_0 {name:"mixed_5/tower/conv/batchnorm/gamma:0",dtype:float32,shape:[160]}
  }
}
layer {
  name:"mixed_5/tower/conv/batchnorm/beta"
  type:"input"
  top:"mixed_5/tower/conv/batchnorm/beta"
  layer_param {
    idx:208
    out_0 {name:"mixed_5/tower/conv/batchnorm/beta:0",dtype:float32,shape:[160]}
  }
}
layer {
  name:"mixed_5/tower/conv/batchnorm/moving_mean"
  type:"input"
  top:"mixed_5/tower/conv/batchnorm/moving_mean"
  layer_param {
    idx:209
    out_0 {name:"mixed_5/tower/conv/batchnorm/moving_mean:0",dtype:float32,shape:[160]}
  }
}
layer {
  name:"mixed_5/tower/conv/batchnorm/moving_variance"
  type:"input"
  top:"mixed_5/tower/conv/batchnorm/moving_variance"
  layer_param {
    idx:210
    out_0 {name:"mixed_5/tower/conv/batchnorm/moving_variance:0",dtype:float32,shape:[160]}
  }
}
layer {
  name:"mixed_5/tower/conv_1/conv2d_params"
  type:"input"
  top:"mixed_5/tower/conv_1/conv2d_params"
  layer_param {
    idx:211
    out_0 {name:"mixed_5/tower/conv_1/conv2d_params:0",dtype:float32,shape:[1, 7, 160, 160]}
  }
}
layer {
  name:"mixed_5/tower/conv_1/batchnorm/gamma"
  type:"input"
  top:"mixed_5/tower/conv_1/batchnorm/gamma"
  layer_param {
    idx:212
    out_0 {name:"mixed_5/tower/conv_1/batchnorm/gamma:0",dtype:float32,shape:[160]}
  }
}
layer {
  name:"mixed_5/tower/conv_1/batchnorm/beta"
  type:"input"
  top:"mixed_5/tower/conv_1/batchnorm/beta"
  layer_param {
    idx:213
    out_0 {name:"mixed_5/tower/conv_1/batchnorm/beta:0",dtype:float32,shape:[160]}
  }
}
layer {
  name:"mixed_5/tower/conv_1/batchnorm/moving_mean"
  type:"input"
  top:"mixed_5/tower/conv_1/batchnorm/moving_mean"
  layer_param {
    idx:214
    out_0 {name:"mixed_5/tower/conv_1/batchnorm/moving_mean:0",dtype:float32,shape:[160]}
  }
}
layer {
  name:"mixed_5/tower/conv_1/batchnorm/moving_variance"
  type:"input"
  top:"mixed_5/tower/conv_1/batchnorm/moving_variance"
  layer_param {
    idx:215
    out_0 {name:"mixed_5/tower/conv_1/batchnorm/moving_variance:0",dtype:float32,shape:[160]}
  }
}
layer {
  name:"mixed_5/tower/conv_2/conv2d_params"
  type:"input"
  top:"mixed_5/tower/conv_2/conv2d_params"
  layer_param {
    idx:216
    out_0 {name:"mixed_5/tower/conv_2/conv2d_params:0",dtype:float32,shape:[7, 1, 160, 192]}
  }
}
layer {
  name:"mixed_5/tower/conv_2/batchnorm/gamma"
  type:"input"
  top:"mixed_5/tower/conv_2/batchnorm/gamma"
  layer_param {
    idx:217
    out_0 {name:"mixed_5/tower/conv_2/batchnorm/gamma:0",dtype:float32,shape:[192]}
  }
}
layer {
  name:"mixed_5/tower/conv_2/batchnorm/beta"
  type:"input"
  top:"mixed_5/tower/conv_2/batchnorm/beta"
  layer_param {
    idx:218
    out_0 {name:"mixed_5/tower/conv_2/batchnorm/beta:0",dtype:float32,shape:[192]}
  }
}
layer {
  name:"mixed_5/tower/conv_2/batchnorm/moving_mean"
  type:"input"
  top:"mixed_5/tower/conv_2/batchnorm/moving_mean"
  layer_param {
    idx:219
    out_0 {name:"mixed_5/tower/conv_2/batchnorm/moving_mean:0",dtype:float32,shape:[192]}
  }
}
layer {
  name:"mixed_5/tower/conv_2/batchnorm/moving_variance"
  type:"input"
  top:"mixed_5/tower/conv_2/batchnorm/moving_variance"
  layer_param {
    idx:220
    out_0 {name:"mixed_5/tower/conv_2/batchnorm/moving_variance:0",dtype:float32,shape:[192]}
  }
}
layer {
  name:"mixed_5/tower_1/conv/conv2d_params"
  type:"input"
  top:"mixed_5/tower_1/conv/conv2d_params"
  layer_param {
    idx:221
    out_0 {name:"mixed_5/tower_1/conv/conv2d_params:0",dtype:float32,shape:[1, 1, 768, 160]}
  }
}
layer {
  name:"mixed_5/tower_1/conv/batchnorm/gamma"
  type:"input"
  top:"mixed_5/tower_1/conv/batchnorm/gamma"
  layer_param {
    idx:222
    out_0 {name:"mixed_5/tower_1/conv/batchnorm/gamma:0",dtype:float32,shape:[160]}
  }
}
layer {
  name:"mixed_5/tower_1/conv/batchnorm/beta"
  type:"input"
  top:"mixed_5/tower_1/conv/batchnorm/beta"
  layer_param {
    idx:223
    out_0 {name:"mixed_5/tower_1/conv/batchnorm/beta:0",dtype:float32,shape:[160]}
  }
}
layer {
  name:"mixed_5/tower_1/conv/batchnorm/moving_mean"
  type:"input"
  top:"mixed_5/tower_1/conv/batchnorm/moving_mean"
  layer_param {
    idx:224
    out_0 {name:"mixed_5/tower_1/conv/batchnorm/moving_mean:0",dtype:float32,shape:[160]}
  }
}
layer {
  name:"mixed_5/tower_1/conv/batchnorm/moving_variance"
  type:"input"
  top:"mixed_5/tower_1/conv/batchnorm/moving_variance"
  layer_param {
    idx:225
    out_0 {name:"mixed_5/tower_1/conv/batchnorm/moving_variance:0",dtype:float32,shape:[160]}
  }
}
layer {
  name:"mixed_5/tower_1/conv_1/conv2d_params"
  type:"input"
  top:"mixed_5/tower_1/conv_1/conv2d_params"
  layer_param {
    idx:226
    out_0 {name:"mixed_5/tower_1/conv_1/conv2d_params:0",dtype:float32,shape:[7, 1, 160, 160]}
  }
}
layer {
  name:"mixed_5/tower_1/conv_1/batchnorm/gamma"
  type:"input"
  top:"mixed_5/tower_1/conv_1/batchnorm/gamma"
  layer_param {
    idx:227
    out_0 {name:"mixed_5/tower_1/conv_1/batchnorm/gamma:0",dtype:float32,shape:[160]}
  }
}
layer {
  name:"mixed_5/tower_1/conv_1/batchnorm/beta"
  type:"input"
  top:"mixed_5/tower_1/conv_1/batchnorm/beta"
  layer_param {
    idx:228
    out_0 {name:"mixed_5/tower_1/conv_1/batchnorm/beta:0",dtype:float32,shape:[160]}
  }
}
layer {
  name:"mixed_5/tower_1/conv_1/batchnorm/moving_mean"
  type:"input"
  top:"mixed_5/tower_1/conv_1/batchnorm/moving_mean"
  layer_param {
    idx:229
    out_0 {name:"mixed_5/tower_1/conv_1/batchnorm/moving_mean:0",dtype:float32,shape:[160]}
  }
}
layer {
  name:"mixed_5/tower_1/conv_1/batchnorm/moving_variance"
  type:"input"
  top:"mixed_5/tower_1/conv_1/batchnorm/moving_variance"
  layer_param {
    idx:230
    out_0 {name:"mixed_5/tower_1/conv_1/batchnorm/moving_variance:0",dtype:float32,shape:[160]}
  }
}
layer {
  name:"mixed_5/tower_1/conv_2/conv2d_params"
  type:"input"
  top:"mixed_5/tower_1/conv_2/conv2d_params"
  layer_param {
    idx:231
    out_0 {name:"mixed_5/tower_1/conv_2/conv2d_params:0",dtype:float32,shape:[1, 7, 160, 160]}
  }
}
layer {
  name:"mixed_5/tower_1/conv_2/batchnorm/gamma"
  type:"input"
  top:"mixed_5/tower_1/conv_2/batchnorm/gamma"
  layer_param {
    idx:232
    out_0 {name:"mixed_5/tower_1/conv_2/batchnorm/gamma:0",dtype:float32,shape:[160]}
  }
}
layer {
  name:"mixed_5/tower_1/conv_2/batchnorm/beta"
  type:"input"
  top:"mixed_5/tower_1/conv_2/batchnorm/beta"
  layer_param {
    idx:233
    out_0 {name:"mixed_5/tower_1/conv_2/batchnorm/beta:0",dtype:float32,shape:[160]}
  }
}
layer {
  name:"mixed_5/tower_1/conv_2/batchnorm/moving_mean"
  type:"input"
  top:"mixed_5/tower_1/conv_2/batchnorm/moving_mean"
  layer_param {
    idx:234
    out_0 {name:"mixed_5/tower_1/conv_2/batchnorm/moving_mean:0",dtype:float32,shape:[160]}
  }
}
layer {
  name:"mixed_5/tower_1/conv_2/batchnorm/moving_variance"
  type:"input"
  top:"mixed_5/tower_1/conv_2/batchnorm/moving_variance"
  layer_param {
    idx:235
    out_0 {name:"mixed_5/tower_1/conv_2/batchnorm/moving_variance:0",dtype:float32,shape:[160]}
  }
}
layer {
  name:"mixed_5/tower_1/conv_3/conv2d_params"
  type:"input"
  top:"mixed_5/tower_1/conv_3/conv2d_params"
  layer_param {
    idx:236
    out_0 {name:"mixed_5/tower_1/conv_3/conv2d_params:0",dtype:float32,shape:[7, 1, 160, 160]}
  }
}
layer {
  name:"mixed_5/tower_1/conv_3/batchnorm/gamma"
  type:"input"
  top:"mixed_5/tower_1/conv_3/batchnorm/gamma"
  layer_param {
    idx:237
    out_0 {name:"mixed_5/tower_1/conv_3/batchnorm/gamma:0",dtype:float32,shape:[160]}
  }
}
layer {
  name:"mixed_5/tower_1/conv_3/batchnorm/beta"
  type:"input"
  top:"mixed_5/tower_1/conv_3/batchnorm/beta"
  layer_param {
    idx:238
    out_0 {name:"mixed_5/tower_1/conv_3/batchnorm/beta:0",dtype:float32,shape:[160]}
  }
}
layer {
  name:"mixed_5/tower_1/conv_3/batchnorm/moving_mean"
  type:"input"
  top:"mixed_5/tower_1/conv_3/batchnorm/moving_mean"
  layer_param {
    idx:239
    out_0 {name:"mixed_5/tower_1/conv_3/batchnorm/moving_mean:0",dtype:float32,shape:[160]}
  }
}
layer {
  name:"mixed_5/tower_1/conv_3/batchnorm/moving_variance"
  type:"input"
  top:"mixed_5/tower_1/conv_3/batchnorm/moving_variance"
  layer_param {
    idx:240
    out_0 {name:"mixed_5/tower_1/conv_3/batchnorm/moving_variance:0",dtype:float32,shape:[160]}
  }
}
layer {
  name:"mixed_5/tower_1/conv_4/conv2d_params"
  type:"input"
  top:"mixed_5/tower_1/conv_4/conv2d_params"
  layer_param {
    idx:241
    out_0 {name:"mixed_5/tower_1/conv_4/conv2d_params:0",dtype:float32,shape:[1, 7, 160, 192]}
  }
}
layer {
  name:"mixed_5/tower_1/conv_4/batchnorm/gamma"
  type:"input"
  top:"mixed_5/tower_1/conv_4/batchnorm/gamma"
  layer_param {
    idx:242
    out_0 {name:"mixed_5/tower_1/conv_4/batchnorm/gamma:0",dtype:float32,shape:[192]}
  }
}
layer {
  name:"mixed_5/tower_1/conv_4/batchnorm/beta"
  type:"input"
  top:"mixed_5/tower_1/conv_4/batchnorm/beta"
  layer_param {
    idx:243
    out_0 {name:"mixed_5/tower_1/conv_4/batchnorm/beta:0",dtype:float32,shape:[192]}
  }
}
layer {
  name:"mixed_5/tower_1/conv_4/batchnorm/moving_mean"
  type:"input"
  top:"mixed_5/tower_1/conv_4/batchnorm/moving_mean"
  layer_param {
    idx:244
    out_0 {name:"mixed_5/tower_1/conv_4/batchnorm/moving_mean:0",dtype:float32,shape:[192]}
  }
}
layer {
  name:"mixed_5/tower_1/conv_4/batchnorm/moving_variance"
  type:"input"
  top:"mixed_5/tower_1/conv_4/batchnorm/moving_variance"
  layer_param {
    idx:245
    out_0 {name:"mixed_5/tower_1/conv_4/batchnorm/moving_variance:0",dtype:float32,shape:[192]}
  }
}
layer {
  name:"mixed_5/tower_2/conv/conv2d_params"
  type:"input"
  top:"mixed_5/tower_2/conv/conv2d_params"
  layer_param {
    idx:246
    out_0 {name:"mixed_5/tower_2/conv/conv2d_params:0",dtype:float32,shape:[1, 1, 768, 192]}
  }
}
layer {
  name:"mixed_5/tower_2/conv/batchnorm/gamma"
  type:"input"
  top:"mixed_5/tower_2/conv/batchnorm/gamma"
  layer_param {
    idx:247
    out_0 {name:"mixed_5/tower_2/conv/batchnorm/gamma:0",dtype:float32,shape:[192]}
  }
}
layer {
  name:"mixed_5/tower_2/conv/batchnorm/beta"
  type:"input"
  top:"mixed_5/tower_2/conv/batchnorm/beta"
  layer_param {
    idx:248
    out_0 {name:"mixed_5/tower_2/conv/batchnorm/beta:0",dtype:float32,shape:[192]}
  }
}
layer {
  name:"mixed_5/tower_2/conv/batchnorm/moving_mean"
  type:"input"
  top:"mixed_5/tower_2/conv/batchnorm/moving_mean"
  layer_param {
    idx:249
    out_0 {name:"mixed_5/tower_2/conv/batchnorm/moving_mean:0",dtype:float32,shape:[192]}
  }
}
layer {
  name:"mixed_5/tower_2/conv/batchnorm/moving_variance"
  type:"input"
  top:"mixed_5/tower_2/conv/batchnorm/moving_variance"
  layer_param {
    idx:250
    out_0 {name:"mixed_5/tower_2/conv/batchnorm/moving_variance:0",dtype:float32,shape:[192]}
  }
}
layer {
  name:"mixed_6/conv/conv2d_params"
  type:"input"
  top:"mixed_6/conv/conv2d_params"
  layer_param {
    idx:251
    out_0 {name:"mixed_6/conv/conv2d_params:0",dtype:float32,shape:[1, 1, 768, 192]}
  }
}
layer {
  name:"mixed_6/conv/batchnorm/gamma"
  type:"input"
  top:"mixed_6/conv/batchnorm/gamma"
  layer_param {
    idx:252
    out_0 {name:"mixed_6/conv/batchnorm/gamma:0",dtype:float32,shape:[192]}
  }
}
layer {
  name:"mixed_6/conv/batchnorm/beta"
  type:"input"
  top:"mixed_6/conv/batchnorm/beta"
  layer_param {
    idx:253
    out_0 {name:"mixed_6/conv/batchnorm/beta:0",dtype:float32,shape:[192]}
  }
}
layer {
  name:"mixed_6/conv/batchnorm/moving_mean"
  type:"input"
  top:"mixed_6/conv/batchnorm/moving_mean"
  layer_param {
    idx:254
    out_0 {name:"mixed_6/conv/batchnorm/moving_mean:0",dtype:float32,shape:[192]}
  }
}
layer {
  name:"mixed_6/conv/batchnorm/moving_variance"
  type:"input"
  top:"mixed_6/conv/batchnorm/moving_variance"
  layer_param {
    idx:255
    out_0 {name:"mixed_6/conv/batchnorm/moving_variance:0",dtype:float32,shape:[192]}
  }
}
layer {
  name:"mixed_6/tower/conv/conv2d_params"
  type:"input"
  top:"mixed_6/tower/conv/conv2d_params"
  layer_param {
    idx:256
    out_0 {name:"mixed_6/tower/conv/conv2d_params:0",dtype:float32,shape:[1, 1, 768, 160]}
  }
}
layer {
  name:"mixed_6/tower/conv/batchnorm/gamma"
  type:"input"
  top:"mixed_6/tower/conv/batchnorm/gamma"
  layer_param {
    idx:257
    out_0 {name:"mixed_6/tower/conv/batchnorm/gamma:0",dtype:float32,shape:[160]}
  }
}
layer {
  name:"mixed_6/tower/conv/batchnorm/beta"
  type:"input"
  top:"mixed_6/tower/conv/batchnorm/beta"
  layer_param {
    idx:258
    out_0 {name:"mixed_6/tower/conv/batchnorm/beta:0",dtype:float32,shape:[160]}
  }
}
layer {
  name:"mixed_6/tower/conv/batchnorm/moving_mean"
  type:"input"
  top:"mixed_6/tower/conv/batchnorm/moving_mean"
  layer_param {
    idx:259
    out_0 {name:"mixed_6/tower/conv/batchnorm/moving_mean:0",dtype:float32,shape:[160]}
  }
}
layer {
  name:"mixed_6/tower/conv/batchnorm/moving_variance"
  type:"input"
  top:"mixed_6/tower/conv/batchnorm/moving_variance"
  layer_param {
    idx:260
    out_0 {name:"mixed_6/tower/conv/batchnorm/moving_variance:0",dtype:float32,shape:[160]}
  }
}
layer {
  name:"mixed_6/tower/conv_1/conv2d_params"
  type:"input"
  top:"mixed_6/tower/conv_1/conv2d_params"
  layer_param {
    idx:261
    out_0 {name:"mixed_6/tower/conv_1/conv2d_params:0",dtype:float32,shape:[1, 7, 160, 160]}
  }
}
layer {
  name:"mixed_6/tower/conv_1/batchnorm/gamma"
  type:"input"
  top:"mixed_6/tower/conv_1/batchnorm/gamma"
  layer_param {
    idx:262
    out_0 {name:"mixed_6/tower/conv_1/batchnorm/gamma:0",dtype:float32,shape:[160]}
  }
}
layer {
  name:"mixed_6/tower/conv_1/batchnorm/beta"
  type:"input"
  top:"mixed_6/tower/conv_1/batchnorm/beta"
  layer_param {
    idx:263
    out_0 {name:"mixed_6/tower/conv_1/batchnorm/beta:0",dtype:float32,shape:[160]}
  }
}
layer {
  name:"mixed_6/tower/conv_1/batchnorm/moving_mean"
  type:"input"
  top:"mixed_6/tower/conv_1/batchnorm/moving_mean"
  layer_param {
    idx:264
    out_0 {name:"mixed_6/tower/conv_1/batchnorm/moving_mean:0",dtype:float32,shape:[160]}
  }
}
layer {
  name:"mixed_6/tower/conv_1/batchnorm/moving_variance"
  type:"input"
  top:"mixed_6/tower/conv_1/batchnorm/moving_variance"
  layer_param {
    idx:265
    out_0 {name:"mixed_6/tower/conv_1/batchnorm/moving_variance:0",dtype:float32,shape:[160]}
  }
}
layer {
  name:"mixed_6/tower/conv_2/conv2d_params"
  type:"input"
  top:"mixed_6/tower/conv_2/conv2d_params"
  layer_param {
    idx:266
    out_0 {name:"mixed_6/tower/conv_2/conv2d_params:0",dtype:float32,shape:[7, 1, 160, 192]}
  }
}
layer {
  name:"mixed_6/tower/conv_2/batchnorm/gamma"
  type:"input"
  top:"mixed_6/tower/conv_2/batchnorm/gamma"
  layer_param {
    idx:267
    out_0 {name:"mixed_6/tower/conv_2/batchnorm/gamma:0",dtype:float32,shape:[192]}
  }
}
layer {
  name:"mixed_6/tower/conv_2/batchnorm/beta"
  type:"input"
  top:"mixed_6/tower/conv_2/batchnorm/beta"
  layer_param {
    idx:268
    out_0 {name:"mixed_6/tower/conv_2/batchnorm/beta:0",dtype:float32,shape:[192]}
  }
}
layer {
  name:"mixed_6/tower/conv_2/batchnorm/moving_mean"
  type:"input"
  top:"mixed_6/tower/conv_2/batchnorm/moving_mean"
  layer_param {
    idx:269
    out_0 {name:"mixed_6/tower/conv_2/batchnorm/moving_mean:0",dtype:float32,shape:[192]}
  }
}
layer {
  name:"mixed_6/tower/conv_2/batchnorm/moving_variance"
  type:"input"
  top:"mixed_6/tower/conv_2/batchnorm/moving_variance"
  layer_param {
    idx:270
    out_0 {name:"mixed_6/tower/conv_2/batchnorm/moving_variance:0",dtype:float32,shape:[192]}
  }
}
layer {
  name:"mixed_6/tower_1/conv/conv2d_params"
  type:"input"
  top:"mixed_6/tower_1/conv/conv2d_params"
  layer_param {
    idx:271
    out_0 {name:"mixed_6/tower_1/conv/conv2d_params:0",dtype:float32,shape:[1, 1, 768, 160]}
  }
}
layer {
  name:"mixed_6/tower_1/conv/batchnorm/gamma"
  type:"input"
  top:"mixed_6/tower_1/conv/batchnorm/gamma"
  layer_param {
    idx:272
    out_0 {name:"mixed_6/tower_1/conv/batchnorm/gamma:0",dtype:float32,shape:[160]}
  }
}
layer {
  name:"mixed_6/tower_1/conv/batchnorm/beta"
  type:"input"
  top:"mixed_6/tower_1/conv/batchnorm/beta"
  layer_param {
    idx:273
    out_0 {name:"mixed_6/tower_1/conv/batchnorm/beta:0",dtype:float32,shape:[160]}
  }
}
layer {
  name:"mixed_6/tower_1/conv/batchnorm/moving_mean"
  type:"input"
  top:"mixed_6/tower_1/conv/batchnorm/moving_mean"
  layer_param {
    idx:274
    out_0 {name:"mixed_6/tower_1/conv/batchnorm/moving_mean:0",dtype:float32,shape:[160]}
  }
}
layer {
  name:"mixed_6/tower_1/conv/batchnorm/moving_variance"
  type:"input"
  top:"mixed_6/tower_1/conv/batchnorm/moving_variance"
  layer_param {
    idx:275
    out_0 {name:"mixed_6/tower_1/conv/batchnorm/moving_variance:0",dtype:float32,shape:[160]}
  }
}
layer {
  name:"mixed_6/tower_1/conv_1/conv2d_params"
  type:"input"
  top:"mixed_6/tower_1/conv_1/conv2d_params"
  layer_param {
    idx:276
    out_0 {name:"mixed_6/tower_1/conv_1/conv2d_params:0",dtype:float32,shape:[7, 1, 160, 160]}
  }
}
layer {
  name:"mixed_6/tower_1/conv_1/batchnorm/gamma"
  type:"input"
  top:"mixed_6/tower_1/conv_1/batchnorm/gamma"
  layer_param {
    idx:277
    out_0 {name:"mixed_6/tower_1/conv_1/batchnorm/gamma:0",dtype:float32,shape:[160]}
  }
}
layer {
  name:"mixed_6/tower_1/conv_1/batchnorm/beta"
  type:"input"
  top:"mixed_6/tower_1/conv_1/batchnorm/beta"
  layer_param {
    idx:278
    out_0 {name:"mixed_6/tower_1/conv_1/batchnorm/beta:0",dtype:float32,shape:[160]}
  }
}
layer {
  name:"mixed_6/tower_1/conv_1/batchnorm/moving_mean"
  type:"input"
  top:"mixed_6/tower_1/conv_1/batchnorm/moving_mean"
  layer_param {
    idx:279
    out_0 {name:"mixed_6/tower_1/conv_1/batchnorm/moving_mean:0",dtype:float32,shape:[160]}
  }
}
layer {
  name:"mixed_6/tower_1/conv_1/batchnorm/moving_variance"
  type:"input"
  top:"mixed_6/tower_1/conv_1/batchnorm/moving_variance"
  layer_param {
    idx:280
    out_0 {name:"mixed_6/tower_1/conv_1/batchnorm/moving_variance:0",dtype:float32,shape:[160]}
  }
}
layer {
  name:"mixed_6/tower_1/conv_2/conv2d_params"
  type:"input"
  top:"mixed_6/tower_1/conv_2/conv2d_params"
  layer_param {
    idx:281
    out_0 {name:"mixed_6/tower_1/conv_2/conv2d_params:0",dtype:float32,shape:[1, 7, 160, 160]}
  }
}
layer {
  name:"mixed_6/tower_1/conv_2/batchnorm/gamma"
  type:"input"
  top:"mixed_6/tower_1/conv_2/batchnorm/gamma"
  layer_param {
    idx:282
    out_0 {name:"mixed_6/tower_1/conv_2/batchnorm/gamma:0",dtype:float32,shape:[160]}
  }
}
layer {
  name:"mixed_6/tower_1/conv_2/batchnorm/beta"
  type:"input"
  top:"mixed_6/tower_1/conv_2/batchnorm/beta"
  layer_param {
    idx:283
    out_0 {name:"mixed_6/tower_1/conv_2/batchnorm/beta:0",dtype:float32,shape:[160]}
  }
}
layer {
  name:"mixed_6/tower_1/conv_2/batchnorm/moving_mean"
  type:"input"
  top:"mixed_6/tower_1/conv_2/batchnorm/moving_mean"
  layer_param {
    idx:284
    out_0 {name:"mixed_6/tower_1/conv_2/batchnorm/moving_mean:0",dtype:float32,shape:[160]}
  }
}
layer {
  name:"mixed_6/tower_1/conv_2/batchnorm/moving_variance"
  type:"input"
  top:"mixed_6/tower_1/conv_2/batchnorm/moving_variance"
  layer_param {
    idx:285
    out_0 {name:"mixed_6/tower_1/conv_2/batchnorm/moving_variance:0",dtype:float32,shape:[160]}
  }
}
layer {
  name:"mixed_6/tower_1/conv_3/conv2d_params"
  type:"input"
  top:"mixed_6/tower_1/conv_3/conv2d_params"
  layer_param {
    idx:286
    out_0 {name:"mixed_6/tower_1/conv_3/conv2d_params:0",dtype:float32,shape:[7, 1, 160, 160]}
  }
}
layer {
  name:"mixed_6/tower_1/conv_3/batchnorm/gamma"
  type:"input"
  top:"mixed_6/tower_1/conv_3/batchnorm/gamma"
  layer_param {
    idx:287
    out_0 {name:"mixed_6/tower_1/conv_3/batchnorm/gamma:0",dtype:float32,shape:[160]}
  }
}
layer {
  name:"mixed_6/tower_1/conv_3/batchnorm/beta"
  type:"input"
  top:"mixed_6/tower_1/conv_3/batchnorm/beta"
  layer_param {
    idx:288
    out_0 {name:"mixed_6/tower_1/conv_3/batchnorm/beta:0",dtype:float32,shape:[160]}
  }
}
layer {
  name:"mixed_6/tower_1/conv_3/batchnorm/moving_mean"
  type:"input"
  top:"mixed_6/tower_1/conv_3/batchnorm/moving_mean"
  layer_param {
    idx:289
    out_0 {name:"mixed_6/tower_1/conv_3/batchnorm/moving_mean:0",dtype:float32,shape:[160]}
  }
}
layer {
  name:"mixed_6/tower_1/conv_3/batchnorm/moving_variance"
  type:"input"
  top:"mixed_6/tower_1/conv_3/batchnorm/moving_variance"
  layer_param {
    idx:290
    out_0 {name:"mixed_6/tower_1/conv_3/batchnorm/moving_variance:0",dtype:float32,shape:[160]}
  }
}
layer {
  name:"mixed_6/tower_1/conv_4/conv2d_params"
  type:"input"
  top:"mixed_6/tower_1/conv_4/conv2d_params"
  layer_param {
    idx:291
    out_0 {name:"mixed_6/tower_1/conv_4/conv2d_params:0",dtype:float32,shape:[1, 7, 160, 192]}
  }
}
layer {
  name:"mixed_6/tower_1/conv_4/batchnorm/gamma"
  type:"input"
  top:"mixed_6/tower_1/conv_4/batchnorm/gamma"
  layer_param {
    idx:292
    out_0 {name:"mixed_6/tower_1/conv_4/batchnorm/gamma:0",dtype:float32,shape:[192]}
  }
}
layer {
  name:"mixed_6/tower_1/conv_4/batchnorm/beta"
  type:"input"
  top:"mixed_6/tower_1/conv_4/batchnorm/beta"
  layer_param {
    idx:293
    out_0 {name:"mixed_6/tower_1/conv_4/batchnorm/beta:0",dtype:float32,shape:[192]}
  }
}
layer {
  name:"mixed_6/tower_1/conv_4/batchnorm/moving_mean"
  type:"input"
  top:"mixed_6/tower_1/conv_4/batchnorm/moving_mean"
  layer_param {
    idx:294
    out_0 {name:"mixed_6/tower_1/conv_4/batchnorm/moving_mean:0",dtype:float32,shape:[192]}
  }
}
layer {
  name:"mixed_6/tower_1/conv_4/batchnorm/moving_variance"
  type:"input"
  top:"mixed_6/tower_1/conv_4/batchnorm/moving_variance"
  layer_param {
    idx:295
    out_0 {name:"mixed_6/tower_1/conv_4/batchnorm/moving_variance:0",dtype:float32,shape:[192]}
  }
}
layer {
  name:"mixed_6/tower_2/conv/conv2d_params"
  type:"input"
  top:"mixed_6/tower_2/conv/conv2d_params"
  layer_param {
    idx:296
    out_0 {name:"mixed_6/tower_2/conv/conv2d_params:0",dtype:float32,shape:[1, 1, 768, 192]}
  }
}
layer {
  name:"mixed_6/tower_2/conv/batchnorm/gamma"
  type:"input"
  top:"mixed_6/tower_2/conv/batchnorm/gamma"
  layer_param {
    idx:297
    out_0 {name:"mixed_6/tower_2/conv/batchnorm/gamma:0",dtype:float32,shape:[192]}
  }
}
layer {
  name:"mixed_6/tower_2/conv/batchnorm/beta"
  type:"input"
  top:"mixed_6/tower_2/conv/batchnorm/beta"
  layer_param {
    idx:298
    out_0 {name:"mixed_6/tower_2/conv/batchnorm/beta:0",dtype:float32,shape:[192]}
  }
}
layer {
  name:"mixed_6/tower_2/conv/batchnorm/moving_mean"
  type:"input"
  top:"mixed_6/tower_2/conv/batchnorm/moving_mean"
  layer_param {
    idx:299
    out_0 {name:"mixed_6/tower_2/conv/batchnorm/moving_mean:0",dtype:float32,shape:[192]}
  }
}
layer {
  name:"mixed_6/tower_2/conv/batchnorm/moving_variance"
  type:"input"
  top:"mixed_6/tower_2/conv/batchnorm/moving_variance"
  layer_param {
    idx:300
    out_0 {name:"mixed_6/tower_2/conv/batchnorm/moving_variance:0",dtype:float32,shape:[192]}
  }
}
layer {
  name:"mixed_7/conv/conv2d_params"
  type:"input"
  top:"mixed_7/conv/conv2d_params"
  layer_param {
    idx:301
    out_0 {name:"mixed_7/conv/conv2d_params:0",dtype:float32,shape:[1, 1, 768, 192]}
  }
}
layer {
  name:"mixed_7/conv/batchnorm/gamma"
  type:"input"
  top:"mixed_7/conv/batchnorm/gamma"
  layer_param {
    idx:302
    out_0 {name:"mixed_7/conv/batchnorm/gamma:0",dtype:float32,shape:[192]}
  }
}
layer {
  name:"mixed_7/conv/batchnorm/beta"
  type:"input"
  top:"mixed_7/conv/batchnorm/beta"
  layer_param {
    idx:303
    out_0 {name:"mixed_7/conv/batchnorm/beta:0",dtype:float32,shape:[192]}
  }
}
layer {
  name:"mixed_7/conv/batchnorm/moving_mean"
  type:"input"
  top:"mixed_7/conv/batchnorm/moving_mean"
  layer_param {
    idx:304
    out_0 {name:"mixed_7/conv/batchnorm/moving_mean:0",dtype:float32,shape:[192]}
  }
}
layer {
  name:"mixed_7/conv/batchnorm/moving_variance"
  type:"input"
  top:"mixed_7/conv/batchnorm/moving_variance"
  layer_param {
    idx:305
    out_0 {name:"mixed_7/conv/batchnorm/moving_variance:0",dtype:float32,shape:[192]}
  }
}
layer {
  name:"mixed_7/tower/conv/conv2d_params"
  type:"input"
  top:"mixed_7/tower/conv/conv2d_params"
  layer_param {
    idx:306
    out_0 {name:"mixed_7/tower/conv/conv2d_params:0",dtype:float32,shape:[1, 1, 768, 192]}
  }
}
layer {
  name:"mixed_7/tower/conv/batchnorm/gamma"
  type:"input"
  top:"mixed_7/tower/conv/batchnorm/gamma"
  layer_param {
    idx:307
    out_0 {name:"mixed_7/tower/conv/batchnorm/gamma:0",dtype:float32,shape:[192]}
  }
}
layer {
  name:"mixed_7/tower/conv/batchnorm/beta"
  type:"input"
  top:"mixed_7/tower/conv/batchnorm/beta"
  layer_param {
    idx:308
    out_0 {name:"mixed_7/tower/conv/batchnorm/beta:0",dtype:float32,shape:[192]}
  }
}
layer {
  name:"mixed_7/tower/conv/batchnorm/moving_mean"
  type:"input"
  top:"mixed_7/tower/conv/batchnorm/moving_mean"
  layer_param {
    idx:309
    out_0 {name:"mixed_7/tower/conv/batchnorm/moving_mean:0",dtype:float32,shape:[192]}
  }
}
layer {
  name:"mixed_7/tower/conv/batchnorm/moving_variance"
  type:"input"
  top:"mixed_7/tower/conv/batchnorm/moving_variance"
  layer_param {
    idx:310
    out_0 {name:"mixed_7/tower/conv/batchnorm/moving_variance:0",dtype:float32,shape:[192]}
  }
}
layer {
  name:"mixed_7/tower/conv_1/conv2d_params"
  type:"input"
  top:"mixed_7/tower/conv_1/conv2d_params"
  layer_param {
    idx:311
    out_0 {name:"mixed_7/tower/conv_1/conv2d_params:0",dtype:float32,shape:[1, 7, 192, 192]}
  }
}
layer {
  name:"mixed_7/tower/conv_1/batchnorm/gamma"
  type:"input"
  top:"mixed_7/tower/conv_1/batchnorm/gamma"
  layer_param {
    idx:312
    out_0 {name:"mixed_7/tower/conv_1/batchnorm/gamma:0",dtype:float32,shape:[192]}
  }
}
layer {
  name:"mixed_7/tower/conv_1/batchnorm/beta"
  type:"input"
  top:"mixed_7/tower/conv_1/batchnorm/beta"
  layer_param {
    idx:313
    out_0 {name:"mixed_7/tower/conv_1/batchnorm/beta:0",dtype:float32,shape:[192]}
  }
}
layer {
  name:"mixed_7/tower/conv_1/batchnorm/moving_mean"
  type:"input"
  top:"mixed_7/tower/conv_1/batchnorm/moving_mean"
  layer_param {
    idx:314
    out_0 {name:"mixed_7/tower/conv_1/batchnorm/moving_mean:0",dtype:float32,shape:[192]}
  }
}
layer {
  name:"mixed_7/tower/conv_1/batchnorm/moving_variance"
  type:"input"
  top:"mixed_7/tower/conv_1/batchnorm/moving_variance"
  layer_param {
    idx:315
    out_0 {name:"mixed_7/tower/conv_1/batchnorm/moving_variance:0",dtype:float32,shape:[192]}
  }
}
layer {
  name:"mixed_7/tower/conv_2/conv2d_params"
  type:"input"
  top:"mixed_7/tower/conv_2/conv2d_params"
  layer_param {
    idx:316
    out_0 {name:"mixed_7/tower/conv_2/conv2d_params:0",dtype:float32,shape:[7, 1, 192, 192]}
  }
}
layer {
  name:"mixed_7/tower/conv_2/batchnorm/gamma"
  type:"input"
  top:"mixed_7/tower/conv_2/batchnorm/gamma"
  layer_param {
    idx:317
    out_0 {name:"mixed_7/tower/conv_2/batchnorm/gamma:0",dtype:float32,shape:[192]}
  }
}
layer {
  name:"mixed_7/tower/conv_2/batchnorm/beta"
  type:"input"
  top:"mixed_7/tower/conv_2/batchnorm/beta"
  layer_param {
    idx:318
    out_0 {name:"mixed_7/tower/conv_2/batchnorm/beta:0",dtype:float32,shape:[192]}
  }
}
layer {
  name:"mixed_7/tower/conv_2/batchnorm/moving_mean"
  type:"input"
  top:"mixed_7/tower/conv_2/batchnorm/moving_mean"
  layer_param {
    idx:319
    out_0 {name:"mixed_7/tower/conv_2/batchnorm/moving_mean:0",dtype:float32,shape:[192]}
  }
}
layer {
  name:"mixed_7/tower/conv_2/batchnorm/moving_variance"
  type:"input"
  top:"mixed_7/tower/conv_2/batchnorm/moving_variance"
  layer_param {
    idx:320
    out_0 {name:"mixed_7/tower/conv_2/batchnorm/moving_variance:0",dtype:float32,shape:[192]}
  }
}
layer {
  name:"mixed_7/tower_1/conv/conv2d_params"
  type:"input"
  top:"mixed_7/tower_1/conv/conv2d_params"
  layer_param {
    idx:321
    out_0 {name:"mixed_7/tower_1/conv/conv2d_params:0",dtype:float32,shape:[1, 1, 768, 192]}
  }
}
layer {
  name:"mixed_7/tower_1/conv/batchnorm/gamma"
  type:"input"
  top:"mixed_7/tower_1/conv/batchnorm/gamma"
  layer_param {
    idx:322
    out_0 {name:"mixed_7/tower_1/conv/batchnorm/gamma:0",dtype:float32,shape:[192]}
  }
}
layer {
  name:"mixed_7/tower_1/conv/batchnorm/beta"
  type:"input"
  top:"mixed_7/tower_1/conv/batchnorm/beta"
  layer_param {
    idx:323
    out_0 {name:"mixed_7/tower_1/conv/batchnorm/beta:0",dtype:float32,shape:[192]}
  }
}
layer {
  name:"mixed_7/tower_1/conv/batchnorm/moving_mean"
  type:"input"
  top:"mixed_7/tower_1/conv/batchnorm/moving_mean"
  layer_param {
    idx:324
    out_0 {name:"mixed_7/tower_1/conv/batchnorm/moving_mean:0",dtype:float32,shape:[192]}
  }
}
layer {
  name:"mixed_7/tower_1/conv/batchnorm/moving_variance"
  type:"input"
  top:"mixed_7/tower_1/conv/batchnorm/moving_variance"
  layer_param {
    idx:325
    out_0 {name:"mixed_7/tower_1/conv/batchnorm/moving_variance:0",dtype:float32,shape:[192]}
  }
}
layer {
  name:"mixed_7/tower_1/conv_1/conv2d_params"
  type:"input"
  top:"mixed_7/tower_1/conv_1/conv2d_params"
  layer_param {
    idx:326
    out_0 {name:"mixed_7/tower_1/conv_1/conv2d_params:0",dtype:float32,shape:[7, 1, 192, 192]}
  }
}
layer {
  name:"mixed_7/tower_1/conv_1/batchnorm/gamma"
  type:"input"
  top:"mixed_7/tower_1/conv_1/batchnorm/gamma"
  layer_param {
    idx:327
    out_0 {name:"mixed_7/tower_1/conv_1/batchnorm/gamma:0",dtype:float32,shape:[192]}
  }
}
layer {
  name:"mixed_7/tower_1/conv_1/batchnorm/beta"
  type:"input"
  top:"mixed_7/tower_1/conv_1/batchnorm/beta"
  layer_param {
    idx:328
    out_0 {name:"mixed_7/tower_1/conv_1/batchnorm/beta:0",dtype:float32,shape:[192]}
  }
}
layer {
  name:"mixed_7/tower_1/conv_1/batchnorm/moving_mean"
  type:"input"
  top:"mixed_7/tower_1/conv_1/batchnorm/moving_mean"
  layer_param {
    idx:329
    out_0 {name:"mixed_7/tower_1/conv_1/batchnorm/moving_mean:0",dtype:float32,shape:[192]}
  }
}
layer {
  name:"mixed_7/tower_1/conv_1/batchnorm/moving_variance"
  type:"input"
  top:"mixed_7/tower_1/conv_1/batchnorm/moving_variance"
  layer_param {
    idx:330
    out_0 {name:"mixed_7/tower_1/conv_1/batchnorm/moving_variance:0",dtype:float32,shape:[192]}
  }
}
layer {
  name:"mixed_7/tower_1/conv_2/conv2d_params"
  type:"input"
  top:"mixed_7/tower_1/conv_2/conv2d_params"
  layer_param {
    idx:331
    out_0 {name:"mixed_7/tower_1/conv_2/conv2d_params:0",dtype:float32,shape:[1, 7, 192, 192]}
  }
}
layer {
  name:"mixed_7/tower_1/conv_2/batchnorm/gamma"
  type:"input"
  top:"mixed_7/tower_1/conv_2/batchnorm/gamma"
  layer_param {
    idx:332
    out_0 {name:"mixed_7/tower_1/conv_2/batchnorm/gamma:0",dtype:float32,shape:[192]}
  }
}
layer {
  name:"mixed_7/tower_1/conv_2/batchnorm/beta"
  type:"input"
  top:"mixed_7/tower_1/conv_2/batchnorm/beta"
  layer_param {
    idx:333
    out_0 {name:"mixed_7/tower_1/conv_2/batchnorm/beta:0",dtype:float32,shape:[192]}
  }
}
layer {
  name:"mixed_7/tower_1/conv_2/batchnorm/moving_mean"
  type:"input"
  top:"mixed_7/tower_1/conv_2/batchnorm/moving_mean"
  layer_param {
    idx:334
    out_0 {name:"mixed_7/tower_1/conv_2/batchnorm/moving_mean:0",dtype:float32,shape:[192]}
  }
}
layer {
  name:"mixed_7/tower_1/conv_2/batchnorm/moving_variance"
  type:"input"
  top:"mixed_7/tower_1/conv_2/batchnorm/moving_variance"
  layer_param {
    idx:335
    out_0 {name:"mixed_7/tower_1/conv_2/batchnorm/moving_variance:0",dtype:float32,shape:[192]}
  }
}
layer {
  name:"mixed_7/tower_1/conv_3/conv2d_params"
  type:"input"
  top:"mixed_7/tower_1/conv_3/conv2d_params"
  layer_param {
    idx:336
    out_0 {name:"mixed_7/tower_1/conv_3/conv2d_params:0",dtype:float32,shape:[7, 1, 192, 192]}
  }
}
layer {
  name:"mixed_7/tower_1/conv_3/batchnorm/gamma"
  type:"input"
  top:"mixed_7/tower_1/conv_3/batchnorm/gamma"
  layer_param {
    idx:337
    out_0 {name:"mixed_7/tower_1/conv_3/batchnorm/gamma:0",dtype:float32,shape:[192]}
  }
}
layer {
  name:"mixed_7/tower_1/conv_3/batchnorm/beta"
  type:"input"
  top:"mixed_7/tower_1/conv_3/batchnorm/beta"
  layer_param {
    idx:338
    out_0 {name:"mixed_7/tower_1/conv_3/batchnorm/beta:0",dtype:float32,shape:[192]}
  }
}
layer {
  name:"mixed_7/tower_1/conv_3/batchnorm/moving_mean"
  type:"input"
  top:"mixed_7/tower_1/conv_3/batchnorm/moving_mean"
  layer_param {
    idx:339
    out_0 {name:"mixed_7/tower_1/conv_3/batchnorm/moving_mean:0",dtype:float32,shape:[192]}
  }
}
layer {
  name:"mixed_7/tower_1/conv_3/batchnorm/moving_variance"
  type:"input"
  top:"mixed_7/tower_1/conv_3/batchnorm/moving_variance"
  layer_param {
    idx:340
    out_0 {name:"mixed_7/tower_1/conv_3/batchnorm/moving_variance:0",dtype:float32,shape:[192]}
  }
}
layer {
  name:"mixed_7/tower_1/conv_4/conv2d_params"
  type:"input"
  top:"mixed_7/tower_1/conv_4/conv2d_params"
  layer_param {
    idx:341
    out_0 {name:"mixed_7/tower_1/conv_4/conv2d_params:0",dtype:float32,shape:[1, 7, 192, 192]}
  }
}
layer {
  name:"mixed_7/tower_1/conv_4/batchnorm/gamma"
  type:"input"
  top:"mixed_7/tower_1/conv_4/batchnorm/gamma"
  layer_param {
    idx:342
    out_0 {name:"mixed_7/tower_1/conv_4/batchnorm/gamma:0",dtype:float32,shape:[192]}
  }
}
layer {
  name:"mixed_7/tower_1/conv_4/batchnorm/beta"
  type:"input"
  top:"mixed_7/tower_1/conv_4/batchnorm/beta"
  layer_param {
    idx:343
    out_0 {name:"mixed_7/tower_1/conv_4/batchnorm/beta:0",dtype:float32,shape:[192]}
  }
}
layer {
  name:"mixed_7/tower_1/conv_4/batchnorm/moving_mean"
  type:"input"
  top:"mixed_7/tower_1/conv_4/batchnorm/moving_mean"
  layer_param {
    idx:344
    out_0 {name:"mixed_7/tower_1/conv_4/batchnorm/moving_mean:0",dtype:float32,shape:[192]}
  }
}
layer {
  name:"mixed_7/tower_1/conv_4/batchnorm/moving_variance"
  type:"input"
  top:"mixed_7/tower_1/conv_4/batchnorm/moving_variance"
  layer_param {
    idx:345
    out_0 {name:"mixed_7/tower_1/conv_4/batchnorm/moving_variance:0",dtype:float32,shape:[192]}
  }
}
layer {
  name:"mixed_7/tower_2/conv/conv2d_params"
  type:"input"
  top:"mixed_7/tower_2/conv/conv2d_params"
  layer_param {
    idx:346
    out_0 {name:"mixed_7/tower_2/conv/conv2d_params:0",dtype:float32,shape:[1, 1, 768, 192]}
  }
}
layer {
  name:"mixed_7/tower_2/conv/batchnorm/gamma"
  type:"input"
  top:"mixed_7/tower_2/conv/batchnorm/gamma"
  layer_param {
    idx:347
    out_0 {name:"mixed_7/tower_2/conv/batchnorm/gamma:0",dtype:float32,shape:[192]}
  }
}
layer {
  name:"mixed_7/tower_2/conv/batchnorm/beta"
  type:"input"
  top:"mixed_7/tower_2/conv/batchnorm/beta"
  layer_param {
    idx:348
    out_0 {name:"mixed_7/tower_2/conv/batchnorm/beta:0",dtype:float32,shape:[192]}
  }
}
layer {
  name:"mixed_7/tower_2/conv/batchnorm/moving_mean"
  type:"input"
  top:"mixed_7/tower_2/conv/batchnorm/moving_mean"
  layer_param {
    idx:349
    out_0 {name:"mixed_7/tower_2/conv/batchnorm/moving_mean:0",dtype:float32,shape:[192]}
  }
}
layer {
  name:"mixed_7/tower_2/conv/batchnorm/moving_variance"
  type:"input"
  top:"mixed_7/tower_2/conv/batchnorm/moving_variance"
  layer_param {
    idx:350
    out_0 {name:"mixed_7/tower_2/conv/batchnorm/moving_variance:0",dtype:float32,shape:[192]}
  }
}
layer {
  name:"mixed_8/tower/conv/conv2d_params"
  type:"input"
  top:"mixed_8/tower/conv/conv2d_params"
  layer_param {
    idx:351
    out_0 {name:"mixed_8/tower/conv/conv2d_params:0",dtype:float32,shape:[1, 1, 768, 192]}
  }
}
layer {
  name:"mixed_8/tower/conv/batchnorm/gamma"
  type:"input"
  top:"mixed_8/tower/conv/batchnorm/gamma"
  layer_param {
    idx:352
    out_0 {name:"mixed_8/tower/conv/batchnorm/gamma:0",dtype:float32,shape:[192]}
  }
}
layer {
  name:"mixed_8/tower/conv/batchnorm/beta"
  type:"input"
  top:"mixed_8/tower/conv/batchnorm/beta"
  layer_param {
    idx:353
    out_0 {name:"mixed_8/tower/conv/batchnorm/beta:0",dtype:float32,shape:[192]}
  }
}
layer {
  name:"mixed_8/tower/conv/batchnorm/moving_mean"
  type:"input"
  top:"mixed_8/tower/conv/batchnorm/moving_mean"
  layer_param {
    idx:354
    out_0 {name:"mixed_8/tower/conv/batchnorm/moving_mean:0",dtype:float32,shape:[192]}
  }
}
layer {
  name:"mixed_8/tower/conv/batchnorm/moving_variance"
  type:"input"
  top:"mixed_8/tower/conv/batchnorm/moving_variance"
  layer_param {
    idx:355
    out_0 {name:"mixed_8/tower/conv/batchnorm/moving_variance:0",dtype:float32,shape:[192]}
  }
}
layer {
  name:"mixed_8/tower/conv_1/conv2d_params"
  type:"input"
  top:"mixed_8/tower/conv_1/conv2d_params"
  layer_param {
    idx:356
    out_0 {name:"mixed_8/tower/conv_1/conv2d_params:0",dtype:float32,shape:[3, 3, 192, 320]}
  }
}
layer {
  name:"mixed_8/tower/conv_1/batchnorm/gamma"
  type:"input"
  top:"mixed_8/tower/conv_1/batchnorm/gamma"
  layer_param {
    idx:357
    out_0 {name:"mixed_8/tower/conv_1/batchnorm/gamma:0",dtype:float32,shape:[320]}
  }
}
layer {
  name:"mixed_8/tower/conv_1/batchnorm/beta"
  type:"input"
  top:"mixed_8/tower/conv_1/batchnorm/beta"
  layer_param {
    idx:358
    out_0 {name:"mixed_8/tower/conv_1/batchnorm/beta:0",dtype:float32,shape:[320]}
  }
}
layer {
  name:"mixed_8/tower/conv_1/batchnorm/moving_mean"
  type:"input"
  top:"mixed_8/tower/conv_1/batchnorm/moving_mean"
  layer_param {
    idx:359
    out_0 {name:"mixed_8/tower/conv_1/batchnorm/moving_mean:0",dtype:float32,shape:[320]}
  }
}
layer {
  name:"mixed_8/tower/conv_1/batchnorm/moving_variance"
  type:"input"
  top:"mixed_8/tower/conv_1/batchnorm/moving_variance"
  layer_param {
    idx:360
    out_0 {name:"mixed_8/tower/conv_1/batchnorm/moving_variance:0",dtype:float32,shape:[320]}
  }
}
layer {
  name:"mixed_8/tower_1/conv/conv2d_params"
  type:"input"
  top:"mixed_8/tower_1/conv/conv2d_params"
  layer_param {
    idx:361
    out_0 {name:"mixed_8/tower_1/conv/conv2d_params:0",dtype:float32,shape:[1, 1, 768, 192]}
  }
}
layer {
  name:"mixed_8/tower_1/conv/batchnorm/gamma"
  type:"input"
  top:"mixed_8/tower_1/conv/batchnorm/gamma"
  layer_param {
    idx:362
    out_0 {name:"mixed_8/tower_1/conv/batchnorm/gamma:0",dtype:float32,shape:[192]}
  }
}
layer {
  name:"mixed_8/tower_1/conv/batchnorm/beta"
  type:"input"
  top:"mixed_8/tower_1/conv/batchnorm/beta"
  layer_param {
    idx:363
    out_0 {name:"mixed_8/tower_1/conv/batchnorm/beta:0",dtype:float32,shape:[192]}
  }
}
layer {
  name:"mixed_8/tower_1/conv/batchnorm/moving_mean"
  type:"input"
  top:"mixed_8/tower_1/conv/batchnorm/moving_mean"
  layer_param {
    idx:364
    out_0 {name:"mixed_8/tower_1/conv/batchnorm/moving_mean:0",dtype:float32,shape:[192]}
  }
}
layer {
  name:"mixed_8/tower_1/conv/batchnorm/moving_variance"
  type:"input"
  top:"mixed_8/tower_1/conv/batchnorm/moving_variance"
  layer_param {
    idx:365
    out_0 {name:"mixed_8/tower_1/conv/batchnorm/moving_variance:0",dtype:float32,shape:[192]}
  }
}
layer {
  name:"mixed_8/tower_1/conv_1/conv2d_params"
  type:"input"
  top:"mixed_8/tower_1/conv_1/conv2d_params"
  layer_param {
    idx:366
    out_0 {name:"mixed_8/tower_1/conv_1/conv2d_params:0",dtype:float32,shape:[1, 7, 192, 192]}
  }
}
layer {
  name:"mixed_8/tower_1/conv_1/batchnorm/gamma"
  type:"input"
  top:"mixed_8/tower_1/conv_1/batchnorm/gamma"
  layer_param {
    idx:367
    out_0 {name:"mixed_8/tower_1/conv_1/batchnorm/gamma:0",dtype:float32,shape:[192]}
  }
}
layer {
  name:"mixed_8/tower_1/conv_1/batchnorm/beta"
  type:"input"
  top:"mixed_8/tower_1/conv_1/batchnorm/beta"
  layer_param {
    idx:368
    out_0 {name:"mixed_8/tower_1/conv_1/batchnorm/beta:0",dtype:float32,shape:[192]}
  }
}
layer {
  name:"mixed_8/tower_1/conv_1/batchnorm/moving_mean"
  type:"input"
  top:"mixed_8/tower_1/conv_1/batchnorm/moving_mean"
  layer_param {
    idx:369
    out_0 {name:"mixed_8/tower_1/conv_1/batchnorm/moving_mean:0",dtype:float32,shape:[192]}
  }
}
layer {
  name:"mixed_8/tower_1/conv_1/batchnorm/moving_variance"
  type:"input"
  top:"mixed_8/tower_1/conv_1/batchnorm/moving_variance"
  layer_param {
    idx:370
    out_0 {name:"mixed_8/tower_1/conv_1/batchnorm/moving_variance:0",dtype:float32,shape:[192]}
  }
}
layer {
  name:"mixed_8/tower_1/conv_2/conv2d_params"
  type:"input"
  top:"mixed_8/tower_1/conv_2/conv2d_params"
  layer_param {
    idx:371
    out_0 {name:"mixed_8/tower_1/conv_2/conv2d_params:0",dtype:float32,shape:[7, 1, 192, 192]}
  }
}
layer {
  name:"mixed_8/tower_1/conv_2/batchnorm/gamma"
  type:"input"
  top:"mixed_8/tower_1/conv_2/batchnorm/gamma"
  layer_param {
    idx:372
    out_0 {name:"mixed_8/tower_1/conv_2/batchnorm/gamma:0",dtype:float32,shape:[192]}
  }
}
layer {
  name:"mixed_8/tower_1/conv_2/batchnorm/beta"
  type:"input"
  top:"mixed_8/tower_1/conv_2/batchnorm/beta"
  layer_param {
    idx:373
    out_0 {name:"mixed_8/tower_1/conv_2/batchnorm/beta:0",dtype:float32,shape:[192]}
  }
}
layer {
  name:"mixed_8/tower_1/conv_2/batchnorm/moving_mean"
  type:"input"
  top:"mixed_8/tower_1/conv_2/batchnorm/moving_mean"
  layer_param {
    idx:374
    out_0 {name:"mixed_8/tower_1/conv_2/batchnorm/moving_mean:0",dtype:float32,shape:[192]}
  }
}
layer {
  name:"mixed_8/tower_1/conv_2/batchnorm/moving_variance"
  type:"input"
  top:"mixed_8/tower_1/conv_2/batchnorm/moving_variance"
  layer_param {
    idx:375
    out_0 {name:"mixed_8/tower_1/conv_2/batchnorm/moving_variance:0",dtype:float32,shape:[192]}
  }
}
layer {
  name:"mixed_8/tower_1/conv_3/conv2d_params"
  type:"input"
  top:"mixed_8/tower_1/conv_3/conv2d_params"
  layer_param {
    idx:376
    out_0 {name:"mixed_8/tower_1/conv_3/conv2d_params:0",dtype:float32,shape:[3, 3, 192, 192]}
  }
}
layer {
  name:"mixed_8/tower_1/conv_3/batchnorm/gamma"
  type:"input"
  top:"mixed_8/tower_1/conv_3/batchnorm/gamma"
  layer_param {
    idx:377
    out_0 {name:"mixed_8/tower_1/conv_3/batchnorm/gamma:0",dtype:float32,shape:[192]}
  }
}
layer {
  name:"mixed_8/tower_1/conv_3/batchnorm/beta"
  type:"input"
  top:"mixed_8/tower_1/conv_3/batchnorm/beta"
  layer_param {
    idx:378
    out_0 {name:"mixed_8/tower_1/conv_3/batchnorm/beta:0",dtype:float32,shape:[192]}
  }
}
layer {
  name:"mixed_8/tower_1/conv_3/batchnorm/moving_mean"
  type:"input"
  top:"mixed_8/tower_1/conv_3/batchnorm/moving_mean"
  layer_param {
    idx:379
    out_0 {name:"mixed_8/tower_1/conv_3/batchnorm/moving_mean:0",dtype:float32,shape:[192]}
  }
}
layer {
  name:"mixed_8/tower_1/conv_3/batchnorm/moving_variance"
  type:"input"
  top:"mixed_8/tower_1/conv_3/batchnorm/moving_variance"
  layer_param {
    idx:380
    out_0 {name:"mixed_8/tower_1/conv_3/batchnorm/moving_variance:0",dtype:float32,shape:[192]}
  }
}
layer {
  name:"mixed_9/conv/conv2d_params"
  type:"input"
  top:"mixed_9/conv/conv2d_params"
  layer_param {
    idx:381
    out_0 {name:"mixed_9/conv/conv2d_params:0",dtype:float32,shape:[1, 1, 1280, 320]}
  }
}
layer {
  name:"mixed_9/conv/batchnorm/gamma"
  type:"input"
  top:"mixed_9/conv/batchnorm/gamma"
  layer_param {
    idx:382
    out_0 {name:"mixed_9/conv/batchnorm/gamma:0",dtype:float32,shape:[320]}
  }
}
layer {
  name:"mixed_9/conv/batchnorm/beta"
  type:"input"
  top:"mixed_9/conv/batchnorm/beta"
  layer_param {
    idx:383
    out_0 {name:"mixed_9/conv/batchnorm/beta:0",dtype:float32,shape:[320]}
  }
}
layer {
  name:"mixed_9/conv/batchnorm/moving_mean"
  type:"input"
  top:"mixed_9/conv/batchnorm/moving_mean"
  layer_param {
    idx:384
    out_0 {name:"mixed_9/conv/batchnorm/moving_mean:0",dtype:float32,shape:[320]}
  }
}
layer {
  name:"mixed_9/conv/batchnorm/moving_variance"
  type:"input"
  top:"mixed_9/conv/batchnorm/moving_variance"
  layer_param {
    idx:385
    out_0 {name:"mixed_9/conv/batchnorm/moving_variance:0",dtype:float32,shape:[320]}
  }
}
layer {
  name:"mixed_9/tower/conv/conv2d_params"
  type:"input"
  top:"mixed_9/tower/conv/conv2d_params"
  layer_param {
    idx:386
    out_0 {name:"mixed_9/tower/conv/conv2d_params:0",dtype:float32,shape:[1, 1, 1280, 384]}
  }
}
layer {
  name:"mixed_9/tower/conv/batchnorm/gamma"
  type:"input"
  top:"mixed_9/tower/conv/batchnorm/gamma"
  layer_param {
    idx:387
    out_0 {name:"mixed_9/tower/conv/batchnorm/gamma:0",dtype:float32,shape:[384]}
  }
}
layer {
  name:"mixed_9/tower/conv/batchnorm/beta"
  type:"input"
  top:"mixed_9/tower/conv/batchnorm/beta"
  layer_param {
    idx:388
    out_0 {name:"mixed_9/tower/conv/batchnorm/beta:0",dtype:float32,shape:[384]}
  }
}
layer {
  name:"mixed_9/tower/conv/batchnorm/moving_mean"
  type:"input"
  top:"mixed_9/tower/conv/batchnorm/moving_mean"
  layer_param {
    idx:389
    out_0 {name:"mixed_9/tower/conv/batchnorm/moving_mean:0",dtype:float32,shape:[384]}
  }
}
layer {
  name:"mixed_9/tower/conv/batchnorm/moving_variance"
  type:"input"
  top:"mixed_9/tower/conv/batchnorm/moving_variance"
  layer_param {
    idx:390
    out_0 {name:"mixed_9/tower/conv/batchnorm/moving_variance:0",dtype:float32,shape:[384]}
  }
}
layer {
  name:"mixed_9/tower/mixed/conv/conv2d_params"
  type:"input"
  top:"mixed_9/tower/mixed/conv/conv2d_params"
  layer_param {
    idx:391
    out_0 {name:"mixed_9/tower/mixed/conv/conv2d_params:0",dtype:float32,shape:[1, 3, 384, 384]}
  }
}
layer {
  name:"mixed_9/tower/mixed/conv/batchnorm/gamma"
  type:"input"
  top:"mixed_9/tower/mixed/conv/batchnorm/gamma"
  layer_param {
    idx:392
    out_0 {name:"mixed_9/tower/mixed/conv/batchnorm/gamma:0",dtype:float32,shape:[384]}
  }
}
layer {
  name:"mixed_9/tower/mixed/conv/batchnorm/beta"
  type:"input"
  top:"mixed_9/tower/mixed/conv/batchnorm/beta"
  layer_param {
    idx:393
    out_0 {name:"mixed_9/tower/mixed/conv/batchnorm/beta:0",dtype:float32,shape:[384]}
  }
}
layer {
  name:"mixed_9/tower/mixed/conv/batchnorm/moving_mean"
  type:"input"
  top:"mixed_9/tower/mixed/conv/batchnorm/moving_mean"
  layer_param {
    idx:394
    out_0 {name:"mixed_9/tower/mixed/conv/batchnorm/moving_mean:0",dtype:float32,shape:[384]}
  }
}
layer {
  name:"mixed_9/tower/mixed/conv/batchnorm/moving_variance"
  type:"input"
  top:"mixed_9/tower/mixed/conv/batchnorm/moving_variance"
  layer_param {
    idx:395
    out_0 {name:"mixed_9/tower/mixed/conv/batchnorm/moving_variance:0",dtype:float32,shape:[384]}
  }
}
layer {
  name:"mixed_9/tower/mixed/conv_1/conv2d_params"
  type:"input"
  top:"mixed_9/tower/mixed/conv_1/conv2d_params"
  layer_param {
    idx:396
    out_0 {name:"mixed_9/tower/mixed/conv_1/conv2d_params:0",dtype:float32,shape:[3, 1, 384, 384]}
  }
}
layer {
  name:"mixed_9/tower/mixed/conv_1/batchnorm/gamma"
  type:"input"
  top:"mixed_9/tower/mixed/conv_1/batchnorm/gamma"
  layer_param {
    idx:397
    out_0 {name:"mixed_9/tower/mixed/conv_1/batchnorm/gamma:0",dtype:float32,shape:[384]}
  }
}
layer {
  name:"mixed_9/tower/mixed/conv_1/batchnorm/beta"
  type:"input"
  top:"mixed_9/tower/mixed/conv_1/batchnorm/beta"
  layer_param {
    idx:398
    out_0 {name:"mixed_9/tower/mixed/conv_1/batchnorm/beta:0",dtype:float32,shape:[384]}
  }
}
layer {
  name:"mixed_9/tower/mixed/conv_1/batchnorm/moving_mean"
  type:"input"
  top:"mixed_9/tower/mixed/conv_1/batchnorm/moving_mean"
  layer_param {
    idx:399
    out_0 {name:"mixed_9/tower/mixed/conv_1/batchnorm/moving_mean:0",dtype:float32,shape:[384]}
  }
}
layer {
  name:"mixed_9/tower/mixed/conv_1/batchnorm/moving_variance"
  type:"input"
  top:"mixed_9/tower/mixed/conv_1/batchnorm/moving_variance"
  layer_param {
    idx:400
    out_0 {name:"mixed_9/tower/mixed/conv_1/batchnorm/moving_variance:0",dtype:float32,shape:[384]}
  }
}
layer {
  name:"mixed_9/tower_1/conv/conv2d_params"
  type:"input"
  top:"mixed_9/tower_1/conv/conv2d_params"
  layer_param {
    idx:401
    out_0 {name:"mixed_9/tower_1/conv/conv2d_params:0",dtype:float32,shape:[1, 1, 1280, 448]}
  }
}
layer {
  name:"mixed_9/tower_1/conv/batchnorm/gamma"
  type:"input"
  top:"mixed_9/tower_1/conv/batchnorm/gamma"
  layer_param {
    idx:402
    out_0 {name:"mixed_9/tower_1/conv/batchnorm/gamma:0",dtype:float32,shape:[448]}
  }
}
layer {
  name:"mixed_9/tower_1/conv/batchnorm/beta"
  type:"input"
  top:"mixed_9/tower_1/conv/batchnorm/beta"
  layer_param {
    idx:403
    out_0 {name:"mixed_9/tower_1/conv/batchnorm/beta:0",dtype:float32,shape:[448]}
  }
}
layer {
  name:"mixed_9/tower_1/conv/batchnorm/moving_mean"
  type:"input"
  top:"mixed_9/tower_1/conv/batchnorm/moving_mean"
  layer_param {
    idx:404
    out_0 {name:"mixed_9/tower_1/conv/batchnorm/moving_mean:0",dtype:float32,shape:[448]}
  }
}
layer {
  name:"mixed_9/tower_1/conv/batchnorm/moving_variance"
  type:"input"
  top:"mixed_9/tower_1/conv/batchnorm/moving_variance"
  layer_param {
    idx:405
    out_0 {name:"mixed_9/tower_1/conv/batchnorm/moving_variance:0",dtype:float32,shape:[448]}
  }
}
layer {
  name:"mixed_9/tower_1/conv_1/conv2d_params"
  type:"input"
  top:"mixed_9/tower_1/conv_1/conv2d_params"
  layer_param {
    idx:406
    out_0 {name:"mixed_9/tower_1/conv_1/conv2d_params:0",dtype:float32,shape:[3, 3, 448, 384]}
  }
}
layer {
  name:"mixed_9/tower_1/conv_1/batchnorm/gamma"
  type:"input"
  top:"mixed_9/tower_1/conv_1/batchnorm/gamma"
  layer_param {
    idx:407
    out_0 {name:"mixed_9/tower_1/conv_1/batchnorm/gamma:0",dtype:float32,shape:[384]}
  }
}
layer {
  name:"mixed_9/tower_1/conv_1/batchnorm/beta"
  type:"input"
  top:"mixed_9/tower_1/conv_1/batchnorm/beta"
  layer_param {
    idx:408
    out_0 {name:"mixed_9/tower_1/conv_1/batchnorm/beta:0",dtype:float32,shape:[384]}
  }
}
layer {
  name:"mixed_9/tower_1/conv_1/batchnorm/moving_mean"
  type:"input"
  top:"mixed_9/tower_1/conv_1/batchnorm/moving_mean"
  layer_param {
    idx:409
    out_0 {name:"mixed_9/tower_1/conv_1/batchnorm/moving_mean:0",dtype:float32,shape:[384]}
  }
}
layer {
  name:"mixed_9/tower_1/conv_1/batchnorm/moving_variance"
  type:"input"
  top:"mixed_9/tower_1/conv_1/batchnorm/moving_variance"
  layer_param {
    idx:410
    out_0 {name:"mixed_9/tower_1/conv_1/batchnorm/moving_variance:0",dtype:float32,shape:[384]}
  }
}
layer {
  name:"mixed_9/tower_1/mixed/conv/conv2d_params"
  type:"input"
  top:"mixed_9/tower_1/mixed/conv/conv2d_params"
  layer_param {
    idx:411
    out_0 {name:"mixed_9/tower_1/mixed/conv/conv2d_params:0",dtype:float32,shape:[1, 3, 384, 384]}
  }
}
layer {
  name:"mixed_9/tower_1/mixed/conv/batchnorm/gamma"
  type:"input"
  top:"mixed_9/tower_1/mixed/conv/batchnorm/gamma"
  layer_param {
    idx:412
    out_0 {name:"mixed_9/tower_1/mixed/conv/batchnorm/gamma:0",dtype:float32,shape:[384]}
  }
}
layer {
  name:"mixed_9/tower_1/mixed/conv/batchnorm/beta"
  type:"input"
  top:"mixed_9/tower_1/mixed/conv/batchnorm/beta"
  layer_param {
    idx:413
    out_0 {name:"mixed_9/tower_1/mixed/conv/batchnorm/beta:0",dtype:float32,shape:[384]}
  }
}
layer {
  name:"mixed_9/tower_1/mixed/conv/batchnorm/moving_mean"
  type:"input"
  top:"mixed_9/tower_1/mixed/conv/batchnorm/moving_mean"
  layer_param {
    idx:414
    out_0 {name:"mixed_9/tower_1/mixed/conv/batchnorm/moving_mean:0",dtype:float32,shape:[384]}
  }
}
layer {
  name:"mixed_9/tower_1/mixed/conv/batchnorm/moving_variance"
  type:"input"
  top:"mixed_9/tower_1/mixed/conv/batchnorm/moving_variance"
  layer_param {
    idx:415
    out_0 {name:"mixed_9/tower_1/mixed/conv/batchnorm/moving_variance:0",dtype:float32,shape:[384]}
  }
}
layer {
  name:"mixed_9/tower_1/mixed/conv_1/conv2d_params"
  type:"input"
  top:"mixed_9/tower_1/mixed/conv_1/conv2d_params"
  layer_param {
    idx:416
    out_0 {name:"mixed_9/tower_1/mixed/conv_1/conv2d_params:0",dtype:float32,shape:[3, 1, 384, 384]}
  }
}
layer {
  name:"mixed_9/tower_1/mixed/conv_1/batchnorm/gamma"
  type:"input"
  top:"mixed_9/tower_1/mixed/conv_1/batchnorm/gamma"
  layer_param {
    idx:417
    out_0 {name:"mixed_9/tower_1/mixed/conv_1/batchnorm/gamma:0",dtype:float32,shape:[384]}
  }
}
layer {
  name:"mixed_9/tower_1/mixed/conv_1/batchnorm/beta"
  type:"input"
  top:"mixed_9/tower_1/mixed/conv_1/batchnorm/beta"
  layer_param {
    idx:418
    out_0 {name:"mixed_9/tower_1/mixed/conv_1/batchnorm/beta:0",dtype:float32,shape:[384]}
  }
}
layer {
  name:"mixed_9/tower_1/mixed/conv_1/batchnorm/moving_mean"
  type:"input"
  top:"mixed_9/tower_1/mixed/conv_1/batchnorm/moving_mean"
  layer_param {
    idx:419
    out_0 {name:"mixed_9/tower_1/mixed/conv_1/batchnorm/moving_mean:0",dtype:float32,shape:[384]}
  }
}
layer {
  name:"mixed_9/tower_1/mixed/conv_1/batchnorm/moving_variance"
  type:"input"
  top:"mixed_9/tower_1/mixed/conv_1/batchnorm/moving_variance"
  layer_param {
    idx:420
    out_0 {name:"mixed_9/tower_1/mixed/conv_1/batchnorm/moving_variance:0",dtype:float32,shape:[384]}
  }
}
layer {
  name:"mixed_9/tower_2/conv/conv2d_params"
  type:"input"
  top:"mixed_9/tower_2/conv/conv2d_params"
  layer_param {
    idx:421
    out_0 {name:"mixed_9/tower_2/conv/conv2d_params:0",dtype:float32,shape:[1, 1, 1280, 192]}
  }
}
layer {
  name:"mixed_9/tower_2/conv/batchnorm/gamma"
  type:"input"
  top:"mixed_9/tower_2/conv/batchnorm/gamma"
  layer_param {
    idx:422
    out_0 {name:"mixed_9/tower_2/conv/batchnorm/gamma:0",dtype:float32,shape:[192]}
  }
}
layer {
  name:"mixed_9/tower_2/conv/batchnorm/beta"
  type:"input"
  top:"mixed_9/tower_2/conv/batchnorm/beta"
  layer_param {
    idx:423
    out_0 {name:"mixed_9/tower_2/conv/batchnorm/beta:0",dtype:float32,shape:[192]}
  }
}
layer {
  name:"mixed_9/tower_2/conv/batchnorm/moving_mean"
  type:"input"
  top:"mixed_9/tower_2/conv/batchnorm/moving_mean"
  layer_param {
    idx:424
    out_0 {name:"mixed_9/tower_2/conv/batchnorm/moving_mean:0",dtype:float32,shape:[192]}
  }
}
layer {
  name:"mixed_9/tower_2/conv/batchnorm/moving_variance"
  type:"input"
  top:"mixed_9/tower_2/conv/batchnorm/moving_variance"
  layer_param {
    idx:425
    out_0 {name:"mixed_9/tower_2/conv/batchnorm/moving_variance:0",dtype:float32,shape:[192]}
  }
}
layer {
  name:"mixed_10/conv/conv2d_params"
  type:"input"
  top:"mixed_10/conv/conv2d_params"
  layer_param {
    idx:426
    out_0 {name:"mixed_10/conv/conv2d_params:0",dtype:float32,shape:[1, 1, 2048, 320]}
  }
}
layer {
  name:"mixed_10/conv/batchnorm/gamma"
  type:"input"
  top:"mixed_10/conv/batchnorm/gamma"
  layer_param {
    idx:427
    out_0 {name:"mixed_10/conv/batchnorm/gamma:0",dtype:float32,shape:[320]}
  }
}
layer {
  name:"mixed_10/conv/batchnorm/beta"
  type:"input"
  top:"mixed_10/conv/batchnorm/beta"
  layer_param {
    idx:428
    out_0 {name:"mixed_10/conv/batchnorm/beta:0",dtype:float32,shape:[320]}
  }
}
layer {
  name:"mixed_10/conv/batchnorm/moving_mean"
  type:"input"
  top:"mixed_10/conv/batchnorm/moving_mean"
  layer_param {
    idx:429
    out_0 {name:"mixed_10/conv/batchnorm/moving_mean:0",dtype:float32,shape:[320]}
  }
}
layer {
  name:"mixed_10/conv/batchnorm/moving_variance"
  type:"input"
  top:"mixed_10/conv/batchnorm/moving_variance"
  layer_param {
    idx:430
    out_0 {name:"mixed_10/conv/batchnorm/moving_variance:0",dtype:float32,shape:[320]}
  }
}
layer {
  name:"mixed_10/tower/conv/conv2d_params"
  type:"input"
  top:"mixed_10/tower/conv/conv2d_params"
  layer_param {
    idx:431
    out_0 {name:"mixed_10/tower/conv/conv2d_params:0",dtype:float32,shape:[1, 1, 2048, 384]}
  }
}
layer {
  name:"mixed_10/tower/conv/batchnorm/gamma"
  type:"input"
  top:"mixed_10/tower/conv/batchnorm/gamma"
  layer_param {
    idx:432
    out_0 {name:"mixed_10/tower/conv/batchnorm/gamma:0",dtype:float32,shape:[384]}
  }
}
layer {
  name:"mixed_10/tower/conv/batchnorm/beta"
  type:"input"
  top:"mixed_10/tower/conv/batchnorm/beta"
  layer_param {
    idx:433
    out_0 {name:"mixed_10/tower/conv/batchnorm/beta:0",dtype:float32,shape:[384]}
  }
}
layer {
  name:"mixed_10/tower/conv/batchnorm/moving_mean"
  type:"input"
  top:"mixed_10/tower/conv/batchnorm/moving_mean"
  layer_param {
    idx:434
    out_0 {name:"mixed_10/tower/conv/batchnorm/moving_mean:0",dtype:float32,shape:[384]}
  }
}
layer {
  name:"mixed_10/tower/conv/batchnorm/moving_variance"
  type:"input"
  top:"mixed_10/tower/conv/batchnorm/moving_variance"
  layer_param {
    idx:435
    out_0 {name:"mixed_10/tower/conv/batchnorm/moving_variance:0",dtype:float32,shape:[384]}
  }
}
layer {
  name:"mixed_10/tower/mixed/conv/conv2d_params"
  type:"input"
  top:"mixed_10/tower/mixed/conv/conv2d_params"
  layer_param {
    idx:436
    out_0 {name:"mixed_10/tower/mixed/conv/conv2d_params:0",dtype:float32,shape:[1, 3, 384, 384]}
  }
}
layer {
  name:"mixed_10/tower/mixed/conv/batchnorm/gamma"
  type:"input"
  top:"mixed_10/tower/mixed/conv/batchnorm/gamma"
  layer_param {
    idx:437
    out_0 {name:"mixed_10/tower/mixed/conv/batchnorm/gamma:0",dtype:float32,shape:[384]}
  }
}
layer {
  name:"mixed_10/tower/mixed/conv/batchnorm/beta"
  type:"input"
  top:"mixed_10/tower/mixed/conv/batchnorm/beta"
  layer_param {
    idx:438
    out_0 {name:"mixed_10/tower/mixed/conv/batchnorm/beta:0",dtype:float32,shape:[384]}
  }
}
layer {
  name:"mixed_10/tower/mixed/conv/batchnorm/moving_mean"
  type:"input"
  top:"mixed_10/tower/mixed/conv/batchnorm/moving_mean"
  layer_param {
    idx:439
    out_0 {name:"mixed_10/tower/mixed/conv/batchnorm/moving_mean:0",dtype:float32,shape:[384]}
  }
}
layer {
  name:"mixed_10/tower/mixed/conv/batchnorm/moving_variance"
  type:"input"
  top:"mixed_10/tower/mixed/conv/batchnorm/moving_variance"
  layer_param {
    idx:440
    out_0 {name:"mixed_10/tower/mixed/conv/batchnorm/moving_variance:0",dtype:float32,shape:[384]}
  }
}
layer {
  name:"mixed_10/tower/mixed/conv_1/conv2d_params"
  type:"input"
  top:"mixed_10/tower/mixed/conv_1/conv2d_params"
  layer_param {
    idx:441
    out_0 {name:"mixed_10/tower/mixed/conv_1/conv2d_params:0",dtype:float32,shape:[3, 1, 384, 384]}
  }
}
layer {
  name:"mixed_10/tower/mixed/conv_1/batchnorm/gamma"
  type:"input"
  top:"mixed_10/tower/mixed/conv_1/batchnorm/gamma"
  layer_param {
    idx:442
    out_0 {name:"mixed_10/tower/mixed/conv_1/batchnorm/gamma:0",dtype:float32,shape:[384]}
  }
}
layer {
  name:"mixed_10/tower/mixed/conv_1/batchnorm/beta"
  type:"input"
  top:"mixed_10/tower/mixed/conv_1/batchnorm/beta"
  layer_param {
    idx:443
    out_0 {name:"mixed_10/tower/mixed/conv_1/batchnorm/beta:0",dtype:float32,shape:[384]}
  }
}
layer {
  name:"mixed_10/tower/mixed/conv_1/batchnorm/moving_mean"
  type:"input"
  top:"mixed_10/tower/mixed/conv_1/batchnorm/moving_mean"
  layer_param {
    idx:444
    out_0 {name:"mixed_10/tower/mixed/conv_1/batchnorm/moving_mean:0",dtype:float32,shape:[384]}
  }
}
layer {
  name:"mixed_10/tower/mixed/conv_1/batchnorm/moving_variance"
  type:"input"
  top:"mixed_10/tower/mixed/conv_1/batchnorm/moving_variance"
  layer_param {
    idx:445
    out_0 {name:"mixed_10/tower/mixed/conv_1/batchnorm/moving_variance:0",dtype:float32,shape:[384]}
  }
}
layer {
  name:"mixed_10/tower_1/conv/conv2d_params"
  type:"input"
  top:"mixed_10/tower_1/conv/conv2d_params"
  layer_param {
    idx:446
    out_0 {name:"mixed_10/tower_1/conv/conv2d_params:0",dtype:float32,shape:[1, 1, 2048, 448]}
  }
}
layer {
  name:"mixed_10/tower_1/conv/batchnorm/gamma"
  type:"input"
  top:"mixed_10/tower_1/conv/batchnorm/gamma"
  layer_param {
    idx:447
    out_0 {name:"mixed_10/tower_1/conv/batchnorm/gamma:0",dtype:float32,shape:[448]}
  }
}
layer {
  name:"mixed_10/tower_1/conv/batchnorm/beta"
  type:"input"
  top:"mixed_10/tower_1/conv/batchnorm/beta"
  layer_param {
    idx:448
    out_0 {name:"mixed_10/tower_1/conv/batchnorm/beta:0",dtype:float32,shape:[448]}
  }
}
layer {
  name:"mixed_10/tower_1/conv/batchnorm/moving_mean"
  type:"input"
  top:"mixed_10/tower_1/conv/batchnorm/moving_mean"
  layer_param {
    idx:449
    out_0 {name:"mixed_10/tower_1/conv/batchnorm/moving_mean:0",dtype:float32,shape:[448]}
  }
}
layer {
  name:"mixed_10/tower_1/conv/batchnorm/moving_variance"
  type:"input"
  top:"mixed_10/tower_1/conv/batchnorm/moving_variance"
  layer_param {
    idx:450
    out_0 {name:"mixed_10/tower_1/conv/batchnorm/moving_variance:0",dtype:float32,shape:[448]}
  }
}
layer {
  name:"mixed_10/tower_1/conv_1/conv2d_params"
  type:"input"
  top:"mixed_10/tower_1/conv_1/conv2d_params"
  layer_param {
    idx:451
    out_0 {name:"mixed_10/tower_1/conv_1/conv2d_params:0",dtype:float32,shape:[3, 3, 448, 384]}
  }
}
layer {
  name:"mixed_10/tower_1/conv_1/batchnorm/gamma"
  type:"input"
  top:"mixed_10/tower_1/conv_1/batchnorm/gamma"
  layer_param {
    idx:452
    out_0 {name:"mixed_10/tower_1/conv_1/batchnorm/gamma:0",dtype:float32,shape:[384]}
  }
}
layer {
  name:"mixed_10/tower_1/conv_1/batchnorm/beta"
  type:"input"
  top:"mixed_10/tower_1/conv_1/batchnorm/beta"
  layer_param {
    idx:453
    out_0 {name:"mixed_10/tower_1/conv_1/batchnorm/beta:0",dtype:float32,shape:[384]}
  }
}
layer {
  name:"mixed_10/tower_1/conv_1/batchnorm/moving_mean"
  type:"input"
  top:"mixed_10/tower_1/conv_1/batchnorm/moving_mean"
  layer_param {
    idx:454
    out_0 {name:"mixed_10/tower_1/conv_1/batchnorm/moving_mean:0",dtype:float32,shape:[384]}
  }
}
layer {
  name:"mixed_10/tower_1/conv_1/batchnorm/moving_variance"
  type:"input"
  top:"mixed_10/tower_1/conv_1/batchnorm/moving_variance"
  layer_param {
    idx:455
    out_0 {name:"mixed_10/tower_1/conv_1/batchnorm/moving_variance:0",dtype:float32,shape:[384]}
  }
}
layer {
  name:"mixed_10/tower_1/mixed/conv/conv2d_params"
  type:"input"
  top:"mixed_10/tower_1/mixed/conv/conv2d_params"
  layer_param {
    idx:456
    out_0 {name:"mixed_10/tower_1/mixed/conv/conv2d_params:0",dtype:float32,shape:[1, 3, 384, 384]}
  }
}
layer {
  name:"mixed_10/tower_1/mixed/conv/batchnorm/gamma"
  type:"input"
  top:"mixed_10/tower_1/mixed/conv/batchnorm/gamma"
  layer_param {
    idx:457
    out_0 {name:"mixed_10/tower_1/mixed/conv/batchnorm/gamma:0",dtype:float32,shape:[384]}
  }
}
layer {
  name:"mixed_10/tower_1/mixed/conv/batchnorm/beta"
  type:"input"
  top:"mixed_10/tower_1/mixed/conv/batchnorm/beta"
  layer_param {
    idx:458
    out_0 {name:"mixed_10/tower_1/mixed/conv/batchnorm/beta:0",dtype:float32,shape:[384]}
  }
}
layer {
  name:"mixed_10/tower_1/mixed/conv/batchnorm/moving_mean"
  type:"input"
  top:"mixed_10/tower_1/mixed/conv/batchnorm/moving_mean"
  layer_param {
    idx:459
    out_0 {name:"mixed_10/tower_1/mixed/conv/batchnorm/moving_mean:0",dtype:float32,shape:[384]}
  }
}
layer {
  name:"mixed_10/tower_1/mixed/conv/batchnorm/moving_variance"
  type:"input"
  top:"mixed_10/tower_1/mixed/conv/batchnorm/moving_variance"
  layer_param {
    idx:460
    out_0 {name:"mixed_10/tower_1/mixed/conv/batchnorm/moving_variance:0",dtype:float32,shape:[384]}
  }
}
layer {
  name:"mixed_10/tower_1/mixed/conv_1/conv2d_params"
  type:"input"
  top:"mixed_10/tower_1/mixed/conv_1/conv2d_params"
  layer_param {
    idx:461
    out_0 {name:"mixed_10/tower_1/mixed/conv_1/conv2d_params:0",dtype:float32,shape:[3, 1, 384, 384]}
  }
}
layer {
  name:"mixed_10/tower_1/mixed/conv_1/batchnorm/gamma"
  type:"input"
  top:"mixed_10/tower_1/mixed/conv_1/batchnorm/gamma"
  layer_param {
    idx:462
    out_0 {name:"mixed_10/tower_1/mixed/conv_1/batchnorm/gamma:0",dtype:float32,shape:[384]}
  }
}
layer {
  name:"mixed_10/tower_1/mixed/conv_1/batchnorm/beta"
  type:"input"
  top:"mixed_10/tower_1/mixed/conv_1/batchnorm/beta"
  layer_param {
    idx:463
    out_0 {name:"mixed_10/tower_1/mixed/conv_1/batchnorm/beta:0",dtype:float32,shape:[384]}
  }
}
layer {
  name:"mixed_10/tower_1/mixed/conv_1/batchnorm/moving_mean"
  type:"input"
  top:"mixed_10/tower_1/mixed/conv_1/batchnorm/moving_mean"
  layer_param {
    idx:464
    out_0 {name:"mixed_10/tower_1/mixed/conv_1/batchnorm/moving_mean:0",dtype:float32,shape:[384]}
  }
}
layer {
  name:"mixed_10/tower_1/mixed/conv_1/batchnorm/moving_variance"
  type:"input"
  top:"mixed_10/tower_1/mixed/conv_1/batchnorm/moving_variance"
  layer_param {
    idx:465
    out_0 {name:"mixed_10/tower_1/mixed/conv_1/batchnorm/moving_variance:0",dtype:float32,shape:[384]}
  }
}
layer {
  name:"mixed_10/tower_2/conv/conv2d_params"
  type:"input"
  top:"mixed_10/tower_2/conv/conv2d_params"
  layer_param {
    idx:466
    out_0 {name:"mixed_10/tower_2/conv/conv2d_params:0",dtype:float32,shape:[1, 1, 2048, 192]}
  }
}
layer {
  name:"mixed_10/tower_2/conv/batchnorm/gamma"
  type:"input"
  top:"mixed_10/tower_2/conv/batchnorm/gamma"
  layer_param {
    idx:467
    out_0 {name:"mixed_10/tower_2/conv/batchnorm/gamma:0",dtype:float32,shape:[192]}
  }
}
layer {
  name:"mixed_10/tower_2/conv/batchnorm/beta"
  type:"input"
  top:"mixed_10/tower_2/conv/batchnorm/beta"
  layer_param {
    idx:468
    out_0 {name:"mixed_10/tower_2/conv/batchnorm/beta:0",dtype:float32,shape:[192]}
  }
}
layer {
  name:"mixed_10/tower_2/conv/batchnorm/moving_mean"
  type:"input"
  top:"mixed_10/tower_2/conv/batchnorm/moving_mean"
  layer_param {
    idx:469
    out_0 {name:"mixed_10/tower_2/conv/batchnorm/moving_mean:0",dtype:float32,shape:[192]}
  }
}
layer {
  name:"mixed_10/tower_2/conv/batchnorm/moving_variance"
  type:"input"
  top:"mixed_10/tower_2/conv/batchnorm/moving_variance"
  layer_param {
    idx:470
    out_0 {name:"mixed_10/tower_2/conv/batchnorm/moving_variance:0",dtype:float32,shape:[192]}
  }
}
layer {
  name:"softmax/weights"
  type:"input"
  top:"softmax/weights"
  layer_param {
    idx:471
    out_0 {name:"softmax/weights:0",dtype:float32,shape:[2048, 1008]}
  }
}
layer {
  name:"softmax/biases"
  type:"input"
  top:"softmax/biases"
  layer_param {
    idx:472
    out_0 {name:"softmax/biases:0",dtype:float32,shape:[1008]}
  }
}
layer {
  name:"Node_548"
  type:"cast"
  top:"Node_548"
  bottom:"DecodeJpeg/contents"
  layer_param {
    idx:548
    in_0 {name:"DecodeJpeg/contents:0",dtype:uint8,shape:[299, 299, 3]}
    out_0 {name:"Node_548:0",dtype:float32,shape:[299, 299, 3]}
    attrs {'dtype': 'float32'}
  }
}
layer {
  name:"Node_549"
  type:"expand_dims"
  top:"Node_549"
  bottom:"Node_548"
  layer_param {
    idx:549
    in_0 {name:"Node_548:0",dtype:float32,shape:[299, 299, 3]}
    out_0 {name:"Node_549:0",dtype:float32,shape:[1, 299, 299, 3]}
    attrs {'axis': 0, 'num_newaxis': 1}
  }
}
layer {
  name:"Node_550"
  type:"image_resize"
  top:"Node_550"
  bottom:"Node_549"
  layer_param {
    idx:550
    in_0 {name:"Node_549:0",dtype:float32,shape:[1, 299, 299, 3]}
    out_0 {name:"Node_550:0",dtype:float32,shape:[1, 299, 299, 3]}
    attrs {'size': [299, 299], 'layout': 'NHWC', 'method': 'bilinear', 'coordinate_transformation_mode': 'asymmetric', 'rounding_method': '', 'bicubic_alpha': -0.5, 'bicubic_exclude': 0, 'out_dtype': ''}
  }
}
layer {
  name:"Node_551"
  type:"const"
  top:"Node_551"
  layer_param {
    idx:551
    out_0 {name:"Node_551:0",dtype:float32,shape:[]}
  }
}
layer {
  name:"Node_552"
  type:"subtract"
  top:"Node_552"
  bottom:"Node_550"
  bottom:"Node_551"
  layer_param {
    idx:552
    in_0 {name:"Node_550:0",dtype:float32,shape:[1, 299, 299, 3]}
    in_1 {name:"Node_551:0",dtype:float32,shape:[]}
    out_0 {name:"Node_552:0",dtype:float32,shape:[1, 299, 299, 3]}
  }
}
layer {
  name:"Node_553"
  type:"const"
  top:"Node_553"
  layer_param {
    idx:553
    out_0 {name:"Node_553:0",dtype:float32,shape:[]}
  }
}
layer {
  name:"Node_554"
  type:"multiply"
  top:"Node_554"
  bottom:"Node_552"
  bottom:"Node_553"
  layer_param {
    idx:554
    in_0 {name:"Node_552:0",dtype:float32,shape:[1, 299, 299, 3]}
    in_1 {name:"Node_553:0",dtype:float32,shape:[]}
    out_0 {name:"Node_554:0",dtype:float32,shape:[1, 299, 299, 3]}
  }
}
layer {
  name:"Node_556"
  type:"nn_conv2d"
  top:"Node_556"
  bottom:"Node_554"
  bottom:"conv/conv2d_params"
  layer_param {
    idx:556
    in_0 {name:"Node_554:0",dtype:float32,shape:[1, 299, 299, 3]}
    in_1 {name:"conv/conv2d_params:0",dtype:float32,shape:[3, 3, 3, 32]}
    out_0 {name:"Node_556:0",dtype:float32,shape:[1, 149, 149, 32]}
    attrs {'strides': [2, 2], 'padding': [0, 0, 0, 0], 'dilation': [1, 1], 'groups': 1, 'channels': 32, 'kernel_size': [3, 3], 'data_layout': 'NHWC', 'kernel_layout': 'HWIO', 'out_layout': '', 'out_dtype': ''}
  }
}
layer {
  name:"Node_561"
  type:"nn_batch_norm"
  top:"Node_561"
  bottom:"Node_556"
  bottom:"conv/batchnorm/gamma"
  bottom:"conv/batchnorm/beta"
  bottom:"conv/batchnorm/moving_mean"
  bottom:"conv/batchnorm/moving_variance"
  layer_param {
    idx:561
    in_0 {name:"Node_556:0",dtype:float32,shape:[1, 149, 149, 32]}
    in_1 {name:"conv/batchnorm/gamma:0",dtype:float32,shape:[32]}
    in_2 {name:"conv/batchnorm/beta:0",dtype:float32,shape:[32]}
    in_3 {name:"conv/batchnorm/moving_mean:0",dtype:float32,shape:[32]}
    in_4 {name:"conv/batchnorm/moving_variance:0",dtype:float32,shape:[32]}
    out_0 {name:"Node_561:0",dtype:float32,shape:[1, 149, 149, 32]}
    out_1 {name:"Node_561:1",dtype:float32,shape:[32]}
    out_2 {name:"Node_561:2",dtype:float32,shape:[32]}
    attrs {'axis': 3, 'epsilon': 0.0010000000474974513, 'center': 1, 'scale': 0}
  }
}
layer {
  name:"Node_563"
  type:"nn_relu"
  top:"Node_563"
  bottom:"Node_561"
  layer_param {
    idx:563
    in_0 {name:"Node_561:0",dtype:float32,shape:[1, 149, 149, 32]}
    out_0 {name:"Node_563:0",dtype:float32,shape:[1, 149, 149, 32]}
  }
}
layer {
  name:"Node_565"
  type:"nn_conv2d"
  top:"Node_565"
  bottom:"Node_563"
  bottom:"conv_1/conv2d_params"
  layer_param {
    idx:565
    in_0 {name:"Node_563:0",dtype:float32,shape:[1, 149, 149, 32]}
    in_1 {name:"conv_1/conv2d_params:0",dtype:float32,shape:[3, 3, 32, 32]}
    out_0 {name:"Node_565:0",dtype:float32,shape:[1, 147, 147, 32]}
    attrs {'strides': [1, 1], 'padding': [0, 0, 0, 0], 'dilation': [1, 1], 'groups': 1, 'channels': 32, 'kernel_size': [3, 3], 'data_layout': 'NHWC', 'kernel_layout': 'HWIO', 'out_layout': '', 'out_dtype': ''}
  }
}
layer {
  name:"Node_570"
  type:"nn_batch_norm"
  top:"Node_570"
  bottom:"Node_565"
  bottom:"conv_1/batchnorm/gamma"
  bottom:"conv_1/batchnorm/beta"
  bottom:"conv_1/batchnorm/moving_mean"
  bottom:"conv_1/batchnorm/moving_variance"
  layer_param {
    idx:570
    in_0 {name:"Node_565:0",dtype:float32,shape:[1, 147, 147, 32]}
    in_1 {name:"conv_1/batchnorm/gamma:0",dtype:float32,shape:[32]}
    in_2 {name:"conv_1/batchnorm/beta:0",dtype:float32,shape:[32]}
    in_3 {name:"conv_1/batchnorm/moving_mean:0",dtype:float32,shape:[32]}
    in_4 {name:"conv_1/batchnorm/moving_variance:0",dtype:float32,shape:[32]}
    out_0 {name:"Node_570:0",dtype:float32,shape:[1, 147, 147, 32]}
    out_1 {name:"Node_570:1",dtype:float32,shape:[32]}
    out_2 {name:"Node_570:2",dtype:float32,shape:[32]}
    attrs {'axis': 3, 'epsilon': 0.0010000000474974513, 'center': 1, 'scale': 0}
  }
}
layer {
  name:"Node_572"
  type:"nn_relu"
  top:"Node_572"
  bottom:"Node_570"
  layer_param {
    idx:572
    in_0 {name:"Node_570:0",dtype:float32,shape:[1, 147, 147, 32]}
    out_0 {name:"Node_572:0",dtype:float32,shape:[1, 147, 147, 32]}
  }
}
layer {
  name:"Node_574"
  type:"nn_conv2d"
  top:"Node_574"
  bottom:"Node_572"
  bottom:"conv_2/conv2d_params"
  layer_param {
    idx:574
    in_0 {name:"Node_572:0",dtype:float32,shape:[1, 147, 147, 32]}
    in_1 {name:"conv_2/conv2d_params:0",dtype:float32,shape:[3, 3, 32, 64]}
    out_0 {name:"Node_574:0",dtype:float32,shape:[1, 147, 147, 64]}
    attrs {'strides': [1, 1], 'padding': [1, 1, 1, 1], 'dilation': [1, 1], 'groups': 1, 'channels': 64, 'kernel_size': [3, 3], 'data_layout': 'NHWC', 'kernel_layout': 'HWIO', 'out_layout': '', 'out_dtype': ''}
  }
}
layer {
  name:"Node_579"
  type:"nn_batch_norm"
  top:"Node_579"
  bottom:"Node_574"
  bottom:"conv_2/batchnorm/gamma"
  bottom:"conv_2/batchnorm/beta"
  bottom:"conv_2/batchnorm/moving_mean"
  bottom:"conv_2/batchnorm/moving_variance"
  layer_param {
    idx:579
    in_0 {name:"Node_574:0",dtype:float32,shape:[1, 147, 147, 64]}
    in_1 {name:"conv_2/batchnorm/gamma:0",dtype:float32,shape:[64]}
    in_2 {name:"conv_2/batchnorm/beta:0",dtype:float32,shape:[64]}
    in_3 {name:"conv_2/batchnorm/moving_mean:0",dtype:float32,shape:[64]}
    in_4 {name:"conv_2/batchnorm/moving_variance:0",dtype:float32,shape:[64]}
    out_0 {name:"Node_579:0",dtype:float32,shape:[1, 147, 147, 64]}
    out_1 {name:"Node_579:1",dtype:float32,shape:[64]}
    out_2 {name:"Node_579:2",dtype:float32,shape:[64]}
    attrs {'axis': 3, 'epsilon': 0.0010000000474974513, 'center': 1, 'scale': 0}
  }
}
layer {
  name:"Node_581"
  type:"nn_relu"
  top:"Node_581"
  bottom:"Node_579"
  layer_param {
    idx:581
    in_0 {name:"Node_579:0",dtype:float32,shape:[1, 147, 147, 64]}
    out_0 {name:"Node_581:0",dtype:float32,shape:[1, 147, 147, 64]}
  }
}
layer {
  name:"Node_582"
  type:"nn_max_pool2d"
  top:"Node_582"
  bottom:"Node_581"
  layer_param {
    idx:582
    in_0 {name:"Node_581:0",dtype:float32,shape:[1, 147, 147, 64]}
    out_0 {name:"Node_582:0",dtype:float32,shape:[1, 73, 73, 64]}
    attrs {'pool_size': [3, 3], 'strides': [2, 2], 'dilation': [1, 1], 'padding': [0, 0, 0, 0], 'layout': 'NHWC', 'ceil_mode': 0}
  }
}
layer {
  name:"Node_584"
  type:"nn_conv2d"
  top:"Node_584"
  bottom:"Node_582"
  bottom:"conv_3/conv2d_params"
  layer_param {
    idx:584
    in_0 {name:"Node_582:0",dtype:float32,shape:[1, 73, 73, 64]}
    in_1 {name:"conv_3/conv2d_params:0",dtype:float32,shape:[1, 1, 64, 80]}
    out_0 {name:"Node_584:0",dtype:float32,shape:[1, 73, 73, 80]}
    attrs {'strides': [1, 1], 'padding': [0, 0, 0, 0], 'dilation': [1, 1], 'groups': 1, 'channels': 80, 'kernel_size': [1, 1], 'data_layout': 'NHWC', 'kernel_layout': 'HWIO', 'out_layout': '', 'out_dtype': ''}
  }
}
layer {
  name:"Node_589"
  type:"nn_batch_norm"
  top:"Node_589"
  bottom:"Node_584"
  bottom:"conv_3/batchnorm/gamma"
  bottom:"conv_3/batchnorm/beta"
  bottom:"conv_3/batchnorm/moving_mean"
  bottom:"conv_3/batchnorm/moving_variance"
  layer_param {
    idx:589
    in_0 {name:"Node_584:0",dtype:float32,shape:[1, 73, 73, 80]}
    in_1 {name:"conv_3/batchnorm/gamma:0",dtype:float32,shape:[80]}
    in_2 {name:"conv_3/batchnorm/beta:0",dtype:float32,shape:[80]}
    in_3 {name:"conv_3/batchnorm/moving_mean:0",dtype:float32,shape:[80]}
    in_4 {name:"conv_3/batchnorm/moving_variance:0",dtype:float32,shape:[80]}
    out_0 {name:"Node_589:0",dtype:float32,shape:[1, 73, 73, 80]}
    out_1 {name:"Node_589:1",dtype:float32,shape:[80]}
    out_2 {name:"Node_589:2",dtype:float32,shape:[80]}
    attrs {'axis': 3, 'epsilon': 0.0010000000474974513, 'center': 1, 'scale': 0}
  }
}
layer {
  name:"Node_591"
  type:"nn_relu"
  top:"Node_591"
  bottom:"Node_589"
  layer_param {
    idx:591
    in_0 {name:"Node_589:0",dtype:float32,shape:[1, 73, 73, 80]}
    out_0 {name:"Node_591:0",dtype:float32,shape:[1, 73, 73, 80]}
  }
}
layer {
  name:"Node_593"
  type:"nn_conv2d"
  top:"Node_593"
  bottom:"Node_591"
  bottom:"conv_4/conv2d_params"
  layer_param {
    idx:593
    in_0 {name:"Node_591:0",dtype:float32,shape:[1, 73, 73, 80]}
    in_1 {name:"conv_4/conv2d_params:0",dtype:float32,shape:[3, 3, 80, 192]}
    out_0 {name:"Node_593:0",dtype:float32,shape:[1, 71, 71, 192]}
    attrs {'strides': [1, 1], 'padding': [0, 0, 0, 0], 'dilation': [1, 1], 'groups': 1, 'channels': 192, 'kernel_size': [3, 3], 'data_layout': 'NHWC', 'kernel_layout': 'HWIO', 'out_layout': '', 'out_dtype': ''}
  }
}
layer {
  name:"Node_598"
  type:"nn_batch_norm"
  top:"Node_598"
  bottom:"Node_593"
  bottom:"conv_4/batchnorm/gamma"
  bottom:"conv_4/batchnorm/beta"
  bottom:"conv_4/batchnorm/moving_mean"
  bottom:"conv_4/batchnorm/moving_variance"
  layer_param {
    idx:598
    in_0 {name:"Node_593:0",dtype:float32,shape:[1, 71, 71, 192]}
    in_1 {name:"conv_4/batchnorm/gamma:0",dtype:float32,shape:[192]}
    in_2 {name:"conv_4/batchnorm/beta:0",dtype:float32,shape:[192]}
    in_3 {name:"conv_4/batchnorm/moving_mean:0",dtype:float32,shape:[192]}
    in_4 {name:"conv_4/batchnorm/moving_variance:0",dtype:float32,shape:[192]}
    out_0 {name:"Node_598:0",dtype:float32,shape:[1, 71, 71, 192]}
    out_1 {name:"Node_598:1",dtype:float32,shape:[192]}
    out_2 {name:"Node_598:2",dtype:float32,shape:[192]}
    attrs {'axis': 3, 'epsilon': 0.0010000000474974513, 'center': 1, 'scale': 0}
  }
}
layer {
  name:"Node_600"
  type:"nn_relu"
  top:"Node_600"
  bottom:"Node_598"
  layer_param {
    idx:600
    in_0 {name:"Node_598:0",dtype:float32,shape:[1, 71, 71, 192]}
    out_0 {name:"Node_600:0",dtype:float32,shape:[1, 71, 71, 192]}
  }
}
layer {
  name:"Node_601"
  type:"nn_max_pool2d"
  top:"Node_601"
  bottom:"Node_600"
  layer_param {
    idx:601
    in_0 {name:"Node_600:0",dtype:float32,shape:[1, 71, 71, 192]}
    out_0 {name:"Node_601:0",dtype:float32,shape:[1, 35, 35, 192]}
    attrs {'pool_size': [3, 3], 'strides': [2, 2], 'dilation': [1, 1], 'padding': [0, 0, 0, 0], 'layout': 'NHWC', 'ceil_mode': 0}
  }
}
layer {
  name:"Node_603"
  type:"nn_conv2d"
  top:"Node_603"
  bottom:"Node_601"
  bottom:"mixed/conv/conv2d_params"
  layer_param {
    idx:603
    in_0 {name:"Node_601:0",dtype:float32,shape:[1, 35, 35, 192]}
    in_1 {name:"mixed/conv/conv2d_params:0",dtype:float32,shape:[1, 1, 192, 64]}
    out_0 {name:"Node_603:0",dtype:float32,shape:[1, 35, 35, 64]}
    attrs {'strides': [1, 1], 'padding': [0, 0, 0, 0], 'dilation': [1, 1], 'groups': 1, 'channels': 64, 'kernel_size': [1, 1], 'data_layout': 'NHWC', 'kernel_layout': 'HWIO', 'out_layout': '', 'out_dtype': ''}
  }
}
layer {
  name:"Node_608"
  type:"nn_batch_norm"
  top:"Node_608"
  bottom:"Node_603"
  bottom:"mixed/conv/batchnorm/gamma"
  bottom:"mixed/conv/batchnorm/beta"
  bottom:"mixed/conv/batchnorm/moving_mean"
  bottom:"mixed/conv/batchnorm/moving_variance"
  layer_param {
    idx:608
    in_0 {name:"Node_603:0",dtype:float32,shape:[1, 35, 35, 64]}
    in_1 {name:"mixed/conv/batchnorm/gamma:0",dtype:float32,shape:[64]}
    in_2 {name:"mixed/conv/batchnorm/beta:0",dtype:float32,shape:[64]}
    in_3 {name:"mixed/conv/batchnorm/moving_mean:0",dtype:float32,shape:[64]}
    in_4 {name:"mixed/conv/batchnorm/moving_variance:0",dtype:float32,shape:[64]}
    out_0 {name:"Node_608:0",dtype:float32,shape:[1, 35, 35, 64]}
    out_1 {name:"Node_608:1",dtype:float32,shape:[64]}
    out_2 {name:"Node_608:2",dtype:float32,shape:[64]}
    attrs {'axis': 3, 'epsilon': 0.0010000000474974513, 'center': 1, 'scale': 0}
  }
}
layer {
  name:"Node_610"
  type:"nn_relu"
  top:"Node_610"
  bottom:"Node_608"
  layer_param {
    idx:610
    in_0 {name:"Node_608:0",dtype:float32,shape:[1, 35, 35, 64]}
    out_0 {name:"Node_610:0",dtype:float32,shape:[1, 35, 35, 64]}
  }
}
layer {
  name:"Node_619"
  type:"nn_conv2d"
  top:"Node_619"
  bottom:"Node_601"
  bottom:"mixed/tower/conv/conv2d_params"
  layer_param {
    idx:619
    in_0 {name:"Node_601:0",dtype:float32,shape:[1, 35, 35, 192]}
    in_1 {name:"mixed/tower/conv/conv2d_params:0",dtype:float32,shape:[1, 1, 192, 48]}
    out_0 {name:"Node_619:0",dtype:float32,shape:[1, 35, 35, 48]}
    attrs {'strides': [1, 1], 'padding': [0, 0, 0, 0], 'dilation': [1, 1], 'groups': 1, 'channels': 48, 'kernel_size': [1, 1], 'data_layout': 'NHWC', 'kernel_layout': 'HWIO', 'out_layout': '', 'out_dtype': ''}
  }
}
layer {
  name:"Node_624"
  type:"nn_batch_norm"
  top:"Node_624"
  bottom:"Node_619"
  bottom:"mixed/tower/conv/batchnorm/gamma"
  bottom:"mixed/tower/conv/batchnorm/beta"
  bottom:"mixed/tower/conv/batchnorm/moving_mean"
  bottom:"mixed/tower/conv/batchnorm/moving_variance"
  layer_param {
    idx:624
    in_0 {name:"Node_619:0",dtype:float32,shape:[1, 35, 35, 48]}
    in_1 {name:"mixed/tower/conv/batchnorm/gamma:0",dtype:float32,shape:[48]}
    in_2 {name:"mixed/tower/conv/batchnorm/beta:0",dtype:float32,shape:[48]}
    in_3 {name:"mixed/tower/conv/batchnorm/moving_mean:0",dtype:float32,shape:[48]}
    in_4 {name:"mixed/tower/conv/batchnorm/moving_variance:0",dtype:float32,shape:[48]}
    out_0 {name:"Node_624:0",dtype:float32,shape:[1, 35, 35, 48]}
    out_1 {name:"Node_624:1",dtype:float32,shape:[48]}
    out_2 {name:"Node_624:2",dtype:float32,shape:[48]}
    attrs {'axis': 3, 'epsilon': 0.0010000000474974513, 'center': 1, 'scale': 0}
  }
}
layer {
  name:"Node_626"
  type:"nn_relu"
  top:"Node_626"
  bottom:"Node_624"
  layer_param {
    idx:626
    in_0 {name:"Node_624:0",dtype:float32,shape:[1, 35, 35, 48]}
    out_0 {name:"Node_626:0",dtype:float32,shape:[1, 35, 35, 48]}
  }
}
layer {
  name:"Node_628"
  type:"nn_conv2d"
  top:"Node_628"
  bottom:"Node_626"
  bottom:"mixed/tower/conv_1/conv2d_params"
  layer_param {
    idx:628
    in_0 {name:"Node_626:0",dtype:float32,shape:[1, 35, 35, 48]}
    in_1 {name:"mixed/tower/conv_1/conv2d_params:0",dtype:float32,shape:[5, 5, 48, 64]}
    out_0 {name:"Node_628:0",dtype:float32,shape:[1, 35, 35, 64]}
    attrs {'strides': [1, 1], 'padding': [2, 2, 2, 2], 'dilation': [1, 1], 'groups': 1, 'channels': 64, 'kernel_size': [5, 5], 'data_layout': 'NHWC', 'kernel_layout': 'HWIO', 'out_layout': '', 'out_dtype': ''}
  }
}
layer {
  name:"Node_633"
  type:"nn_batch_norm"
  top:"Node_633"
  bottom:"Node_628"
  bottom:"mixed/tower/conv_1/batchnorm/gamma"
  bottom:"mixed/tower/conv_1/batchnorm/beta"
  bottom:"mixed/tower/conv_1/batchnorm/moving_mean"
  bottom:"mixed/tower/conv_1/batchnorm/moving_variance"
  layer_param {
    idx:633
    in_0 {name:"Node_628:0",dtype:float32,shape:[1, 35, 35, 64]}
    in_1 {name:"mixed/tower/conv_1/batchnorm/gamma:0",dtype:float32,shape:[64]}
    in_2 {name:"mixed/tower/conv_1/batchnorm/beta:0",dtype:float32,shape:[64]}
    in_3 {name:"mixed/tower/conv_1/batchnorm/moving_mean:0",dtype:float32,shape:[64]}
    in_4 {name:"mixed/tower/conv_1/batchnorm/moving_variance:0",dtype:float32,shape:[64]}
    out_0 {name:"Node_633:0",dtype:float32,shape:[1, 35, 35, 64]}
    out_1 {name:"Node_633:1",dtype:float32,shape:[64]}
    out_2 {name:"Node_633:2",dtype:float32,shape:[64]}
    attrs {'axis': 3, 'epsilon': 0.0010000000474974513, 'center': 1, 'scale': 0}
  }
}
layer {
  name:"Node_635"
  type:"nn_relu"
  top:"Node_635"
  bottom:"Node_633"
  layer_param {
    idx:635
    in_0 {name:"Node_633:0",dtype:float32,shape:[1, 35, 35, 64]}
    out_0 {name:"Node_635:0",dtype:float32,shape:[1, 35, 35, 64]}
  }
}
layer {
  name:"Node_647"
  type:"nn_conv2d"
  top:"Node_647"
  bottom:"Node_601"
  bottom:"mixed/tower_1/conv/conv2d_params"
  layer_param {
    idx:647
    in_0 {name:"Node_601:0",dtype:float32,shape:[1, 35, 35, 192]}
    in_1 {name:"mixed/tower_1/conv/conv2d_params:0",dtype:float32,shape:[1, 1, 192, 64]}
    out_0 {name:"Node_647:0",dtype:float32,shape:[1, 35, 35, 64]}
    attrs {'strides': [1, 1], 'padding': [0, 0, 0, 0], 'dilation': [1, 1], 'groups': 1, 'channels': 64, 'kernel_size': [1, 1], 'data_layout': 'NHWC', 'kernel_layout': 'HWIO', 'out_layout': '', 'out_dtype': ''}
  }
}
layer {
  name:"Node_652"
  type:"nn_batch_norm"
  top:"Node_652"
  bottom:"Node_647"
  bottom:"mixed/tower_1/conv/batchnorm/gamma"
  bottom:"mixed/tower_1/conv/batchnorm/beta"
  bottom:"mixed/tower_1/conv/batchnorm/moving_mean"
  bottom:"mixed/tower_1/conv/batchnorm/moving_variance"
  layer_param {
    idx:652
    in_0 {name:"Node_647:0",dtype:float32,shape:[1, 35, 35, 64]}
    in_1 {name:"mixed/tower_1/conv/batchnorm/gamma:0",dtype:float32,shape:[64]}
    in_2 {name:"mixed/tower_1/conv/batchnorm/beta:0",dtype:float32,shape:[64]}
    in_3 {name:"mixed/tower_1/conv/batchnorm/moving_mean:0",dtype:float32,shape:[64]}
    in_4 {name:"mixed/tower_1/conv/batchnorm/moving_variance:0",dtype:float32,shape:[64]}
    out_0 {name:"Node_652:0",dtype:float32,shape:[1, 35, 35, 64]}
    out_1 {name:"Node_652:1",dtype:float32,shape:[64]}
    out_2 {name:"Node_652:2",dtype:float32,shape:[64]}
    attrs {'axis': 3, 'epsilon': 0.0010000000474974513, 'center': 1, 'scale': 0}
  }
}
layer {
  name:"Node_654"
  type:"nn_relu"
  top:"Node_654"
  bottom:"Node_652"
  layer_param {
    idx:654
    in_0 {name:"Node_652:0",dtype:float32,shape:[1, 35, 35, 64]}
    out_0 {name:"Node_654:0",dtype:float32,shape:[1, 35, 35, 64]}
  }
}
layer {
  name:"Node_656"
  type:"nn_conv2d"
  top:"Node_656"
  bottom:"Node_654"
  bottom:"mixed/tower_1/conv_1/conv2d_params"
  layer_param {
    idx:656
    in_0 {name:"Node_654:0",dtype:float32,shape:[1, 35, 35, 64]}
    in_1 {name:"mixed/tower_1/conv_1/conv2d_params:0",dtype:float32,shape:[3, 3, 64, 96]}
    out_0 {name:"Node_656:0",dtype:float32,shape:[1, 35, 35, 96]}
    attrs {'strides': [1, 1], 'padding': [1, 1, 1, 1], 'dilation': [1, 1], 'groups': 1, 'channels': 96, 'kernel_size': [3, 3], 'data_layout': 'NHWC', 'kernel_layout': 'HWIO', 'out_layout': '', 'out_dtype': ''}
  }
}
layer {
  name:"Node_661"
  type:"nn_batch_norm"
  top:"Node_661"
  bottom:"Node_656"
  bottom:"mixed/tower_1/conv_1/batchnorm/gamma"
  bottom:"mixed/tower_1/conv_1/batchnorm/beta"
  bottom:"mixed/tower_1/conv_1/batchnorm/moving_mean"
  bottom:"mixed/tower_1/conv_1/batchnorm/moving_variance"
  layer_param {
    idx:661
    in_0 {name:"Node_656:0",dtype:float32,shape:[1, 35, 35, 96]}
    in_1 {name:"mixed/tower_1/conv_1/batchnorm/gamma:0",dtype:float32,shape:[96]}
    in_2 {name:"mixed/tower_1/conv_1/batchnorm/beta:0",dtype:float32,shape:[96]}
    in_3 {name:"mixed/tower_1/conv_1/batchnorm/moving_mean:0",dtype:float32,shape:[96]}
    in_4 {name:"mixed/tower_1/conv_1/batchnorm/moving_variance:0",dtype:float32,shape:[96]}
    out_0 {name:"Node_661:0",dtype:float32,shape:[1, 35, 35, 96]}
    out_1 {name:"Node_661:1",dtype:float32,shape:[96]}
    out_2 {name:"Node_661:2",dtype:float32,shape:[96]}
    attrs {'axis': 3, 'epsilon': 0.0010000000474974513, 'center': 1, 'scale': 0}
  }
}
layer {
  name:"Node_663"
  type:"nn_relu"
  top:"Node_663"
  bottom:"Node_661"
  layer_param {
    idx:663
    in_0 {name:"Node_661:0",dtype:float32,shape:[1, 35, 35, 96]}
    out_0 {name:"Node_663:0",dtype:float32,shape:[1, 35, 35, 96]}
  }
}
layer {
  name:"Node_665"
  type:"nn_conv2d"
  top:"Node_665"
  bottom:"Node_663"
  bottom:"mixed/tower_1/conv_2/conv2d_params"
  layer_param {
    idx:665
    in_0 {name:"Node_663:0",dtype:float32,shape:[1, 35, 35, 96]}
    in_1 {name:"mixed/tower_1/conv_2/conv2d_params:0",dtype:float32,shape:[3, 3, 96, 96]}
    out_0 {name:"Node_665:0",dtype:float32,shape:[1, 35, 35, 96]}
    attrs {'strides': [1, 1], 'padding': [1, 1, 1, 1], 'dilation': [1, 1], 'groups': 1, 'channels': 96, 'kernel_size': [3, 3], 'data_layout': 'NHWC', 'kernel_layout': 'HWIO', 'out_layout': '', 'out_dtype': ''}
  }
}
layer {
  name:"Node_670"
  type:"nn_batch_norm"
  top:"Node_670"
  bottom:"Node_665"
  bottom:"mixed/tower_1/conv_2/batchnorm/gamma"
  bottom:"mixed/tower_1/conv_2/batchnorm/beta"
  bottom:"mixed/tower_1/conv_2/batchnorm/moving_mean"
  bottom:"mixed/tower_1/conv_2/batchnorm/moving_variance"
  layer_param {
    idx:670
    in_0 {name:"Node_665:0",dtype:float32,shape:[1, 35, 35, 96]}
    in_1 {name:"mixed/tower_1/conv_2/batchnorm/gamma:0",dtype:float32,shape:[96]}
    in_2 {name:"mixed/tower_1/conv_2/batchnorm/beta:0",dtype:float32,shape:[96]}
    in_3 {name:"mixed/tower_1/conv_2/batchnorm/moving_mean:0",dtype:float32,shape:[96]}
    in_4 {name:"mixed/tower_1/conv_2/batchnorm/moving_variance:0",dtype:float32,shape:[96]}
    out_0 {name:"Node_670:0",dtype:float32,shape:[1, 35, 35, 96]}
    out_1 {name:"Node_670:1",dtype:float32,shape:[96]}
    out_2 {name:"Node_670:2",dtype:float32,shape:[96]}
    attrs {'axis': 3, 'epsilon': 0.0010000000474974513, 'center': 1, 'scale': 0}
  }
}
layer {
  name:"Node_672"
  type:"nn_relu"
  top:"Node_672"
  bottom:"Node_670"
  layer_param {
    idx:672
    in_0 {name:"Node_670:0",dtype:float32,shape:[1, 35, 35, 96]}
    out_0 {name:"Node_672:0",dtype:float32,shape:[1, 35, 35, 96]}
  }
}
layer {
  name:"Node_678"
  type:"nn_avg_pool2d"
  top:"Node_678"
  bottom:"Node_601"
  layer_param {
    idx:678
    in_0 {name:"Node_601:0",dtype:float32,shape:[1, 35, 35, 192]}
    out_0 {name:"Node_678:0",dtype:float32,shape:[1, 35, 35, 192]}
    attrs {'pool_size': [3, 3], 'strides': [1, 1], 'dilation': [1, 1], 'padding': [1, 1, 1, 1], 'layout': 'NHWC', 'ceil_mode': 0, 'count_include_pad': 0}
  }
}
layer {
  name:"Node_680"
  type:"nn_conv2d"
  top:"Node_680"
  bottom:"Node_678"
  bottom:"mixed/tower_2/conv/conv2d_params"
  layer_param {
    idx:680
    in_0 {name:"Node_678:0",dtype:float32,shape:[1, 35, 35, 192]}
    in_1 {name:"mixed/tower_2/conv/conv2d_params:0",dtype:float32,shape:[1, 1, 192, 32]}
    out_0 {name:"Node_680:0",dtype:float32,shape:[1, 35, 35, 32]}
    attrs {'strides': [1, 1], 'padding': [0, 0, 0, 0], 'dilation': [1, 1], 'groups': 1, 'channels': 32, 'kernel_size': [1, 1], 'data_layout': 'NHWC', 'kernel_layout': 'HWIO', 'out_layout': '', 'out_dtype': ''}
  }
}
layer {
  name:"Node_685"
  type:"nn_batch_norm"
  top:"Node_685"
  bottom:"Node_680"
  bottom:"mixed/tower_2/conv/batchnorm/gamma"
  bottom:"mixed/tower_2/conv/batchnorm/beta"
  bottom:"mixed/tower_2/conv/batchnorm/moving_mean"
  bottom:"mixed/tower_2/conv/batchnorm/moving_variance"
  layer_param {
    idx:685
    in_0 {name:"Node_680:0",dtype:float32,shape:[1, 35, 35, 32]}
    in_1 {name:"mixed/tower_2/conv/batchnorm/gamma:0",dtype:float32,shape:[32]}
    in_2 {name:"mixed/tower_2/conv/batchnorm/beta:0",dtype:float32,shape:[32]}
    in_3 {name:"mixed/tower_2/conv/batchnorm/moving_mean:0",dtype:float32,shape:[32]}
    in_4 {name:"mixed/tower_2/conv/batchnorm/moving_variance:0",dtype:float32,shape:[32]}
    out_0 {name:"Node_685:0",dtype:float32,shape:[1, 35, 35, 32]}
    out_1 {name:"Node_685:1",dtype:float32,shape:[32]}
    out_2 {name:"Node_685:2",dtype:float32,shape:[32]}
    attrs {'axis': 3, 'epsilon': 0.0010000000474974513, 'center': 1, 'scale': 0}
  }
}
layer {
  name:"Node_687"
  type:"nn_relu"
  top:"Node_687"
  bottom:"Node_685"
  layer_param {
    idx:687
    in_0 {name:"Node_685:0",dtype:float32,shape:[1, 35, 35, 32]}
    out_0 {name:"Node_687:0",dtype:float32,shape:[1, 35, 35, 32]}
  }
}
layer {
  name:"Node_689"
  type:"concatenate"
  top:"Node_689"
  bottom:"Node_610"
  bottom:"Node_635"
  bottom:"Node_672"
  bottom:"Node_687"
  layer_param {
    idx:689
    in_0 {name:"Node_610:0",dtype:float32,shape:[1, 35, 35, 64]}
    in_1 {name:"Node_635:0",dtype:float32,shape:[1, 35, 35, 64]}
    in_2 {name:"Node_672:0",dtype:float32,shape:[1, 35, 35, 96]}
    in_3 {name:"Node_687:0",dtype:float32,shape:[1, 35, 35, 32]}
    out_0 {name:"Node_689:0",dtype:float32,shape:[1, 35, 35, 256]}
    attrs {'axis': 3}
  }
}
layer {
  name:"Node_691"
  type:"nn_conv2d"
  top:"Node_691"
  bottom:"Node_689"
  bottom:"mixed_1/conv/conv2d_params"
  layer_param {
    idx:691
    in_0 {name:"Node_689:0",dtype:float32,shape:[1, 35, 35, 256]}
    in_1 {name:"mixed_1/conv/conv2d_params:0",dtype:float32,shape:[1, 1, 256, 64]}
    out_0 {name:"Node_691:0",dtype:float32,shape:[1, 35, 35, 64]}
    attrs {'strides': [1, 1], 'padding': [0, 0, 0, 0], 'dilation': [1, 1], 'groups': 1, 'channels': 64, 'kernel_size': [1, 1], 'data_layout': 'NHWC', 'kernel_layout': 'HWIO', 'out_layout': '', 'out_dtype': ''}
  }
}
layer {
  name:"Node_696"
  type:"nn_batch_norm"
  top:"Node_696"
  bottom:"Node_691"
  bottom:"mixed_1/conv/batchnorm/gamma"
  bottom:"mixed_1/conv/batchnorm/beta"
  bottom:"mixed_1/conv/batchnorm/moving_mean"
  bottom:"mixed_1/conv/batchnorm/moving_variance"
  layer_param {
    idx:696
    in_0 {name:"Node_691:0",dtype:float32,shape:[1, 35, 35, 64]}
    in_1 {name:"mixed_1/conv/batchnorm/gamma:0",dtype:float32,shape:[64]}
    in_2 {name:"mixed_1/conv/batchnorm/beta:0",dtype:float32,shape:[64]}
    in_3 {name:"mixed_1/conv/batchnorm/moving_mean:0",dtype:float32,shape:[64]}
    in_4 {name:"mixed_1/conv/batchnorm/moving_variance:0",dtype:float32,shape:[64]}
    out_0 {name:"Node_696:0",dtype:float32,shape:[1, 35, 35, 64]}
    out_1 {name:"Node_696:1",dtype:float32,shape:[64]}
    out_2 {name:"Node_696:2",dtype:float32,shape:[64]}
    attrs {'axis': 3, 'epsilon': 0.0010000000474974513, 'center': 1, 'scale': 0}
  }
}
layer {
  name:"Node_698"
  type:"nn_relu"
  top:"Node_698"
  bottom:"Node_696"
  layer_param {
    idx:698
    in_0 {name:"Node_696:0",dtype:float32,shape:[1, 35, 35, 64]}
    out_0 {name:"Node_698:0",dtype:float32,shape:[1, 35, 35, 64]}
  }
}
layer {
  name:"Node_707"
  type:"nn_conv2d"
  top:"Node_707"
  bottom:"Node_689"
  bottom:"mixed_1/tower/conv/conv2d_params"
  layer_param {
    idx:707
    in_0 {name:"Node_689:0",dtype:float32,shape:[1, 35, 35, 256]}
    in_1 {name:"mixed_1/tower/conv/conv2d_params:0",dtype:float32,shape:[1, 1, 256, 48]}
    out_0 {name:"Node_707:0",dtype:float32,shape:[1, 35, 35, 48]}
    attrs {'strides': [1, 1], 'padding': [0, 0, 0, 0], 'dilation': [1, 1], 'groups': 1, 'channels': 48, 'kernel_size': [1, 1], 'data_layout': 'NHWC', 'kernel_layout': 'HWIO', 'out_layout': '', 'out_dtype': ''}
  }
}
layer {
  name:"Node_712"
  type:"nn_batch_norm"
  top:"Node_712"
  bottom:"Node_707"
  bottom:"mixed_1/tower/conv/batchnorm/gamma"
  bottom:"mixed_1/tower/conv/batchnorm/beta"
  bottom:"mixed_1/tower/conv/batchnorm/moving_mean"
  bottom:"mixed_1/tower/conv/batchnorm/moving_variance"
  layer_param {
    idx:712
    in_0 {name:"Node_707:0",dtype:float32,shape:[1, 35, 35, 48]}
    in_1 {name:"mixed_1/tower/conv/batchnorm/gamma:0",dtype:float32,shape:[48]}
    in_2 {name:"mixed_1/tower/conv/batchnorm/beta:0",dtype:float32,shape:[48]}
    in_3 {name:"mixed_1/tower/conv/batchnorm/moving_mean:0",dtype:float32,shape:[48]}
    in_4 {name:"mixed_1/tower/conv/batchnorm/moving_variance:0",dtype:float32,shape:[48]}
    out_0 {name:"Node_712:0",dtype:float32,shape:[1, 35, 35, 48]}
    out_1 {name:"Node_712:1",dtype:float32,shape:[48]}
    out_2 {name:"Node_712:2",dtype:float32,shape:[48]}
    attrs {'axis': 3, 'epsilon': 0.0010000000474974513, 'center': 1, 'scale': 0}
  }
}
layer {
  name:"Node_714"
  type:"nn_relu"
  top:"Node_714"
  bottom:"Node_712"
  layer_param {
    idx:714
    in_0 {name:"Node_712:0",dtype:float32,shape:[1, 35, 35, 48]}
    out_0 {name:"Node_714:0",dtype:float32,shape:[1, 35, 35, 48]}
  }
}
layer {
  name:"Node_716"
  type:"nn_conv2d"
  top:"Node_716"
  bottom:"Node_714"
  bottom:"mixed_1/tower/conv_1/conv2d_params"
  layer_param {
    idx:716
    in_0 {name:"Node_714:0",dtype:float32,shape:[1, 35, 35, 48]}
    in_1 {name:"mixed_1/tower/conv_1/conv2d_params:0",dtype:float32,shape:[5, 5, 48, 64]}
    out_0 {name:"Node_716:0",dtype:float32,shape:[1, 35, 35, 64]}
    attrs {'strides': [1, 1], 'padding': [2, 2, 2, 2], 'dilation': [1, 1], 'groups': 1, 'channels': 64, 'kernel_size': [5, 5], 'data_layout': 'NHWC', 'kernel_layout': 'HWIO', 'out_layout': '', 'out_dtype': ''}
  }
}
layer {
  name:"Node_721"
  type:"nn_batch_norm"
  top:"Node_721"
  bottom:"Node_716"
  bottom:"mixed_1/tower/conv_1/batchnorm/gamma"
  bottom:"mixed_1/tower/conv_1/batchnorm/beta"
  bottom:"mixed_1/tower/conv_1/batchnorm/moving_mean"
  bottom:"mixed_1/tower/conv_1/batchnorm/moving_variance"
  layer_param {
    idx:721
    in_0 {name:"Node_716:0",dtype:float32,shape:[1, 35, 35, 64]}
    in_1 {name:"mixed_1/tower/conv_1/batchnorm/gamma:0",dtype:float32,shape:[64]}
    in_2 {name:"mixed_1/tower/conv_1/batchnorm/beta:0",dtype:float32,shape:[64]}
    in_3 {name:"mixed_1/tower/conv_1/batchnorm/moving_mean:0",dtype:float32,shape:[64]}
    in_4 {name:"mixed_1/tower/conv_1/batchnorm/moving_variance:0",dtype:float32,shape:[64]}
    out_0 {name:"Node_721:0",dtype:float32,shape:[1, 35, 35, 64]}
    out_1 {name:"Node_721:1",dtype:float32,shape:[64]}
    out_2 {name:"Node_721:2",dtype:float32,shape:[64]}
    attrs {'axis': 3, 'epsilon': 0.0010000000474974513, 'center': 1, 'scale': 0}
  }
}
layer {
  name:"Node_723"
  type:"nn_relu"
  top:"Node_723"
  bottom:"Node_721"
  layer_param {
    idx:723
    in_0 {name:"Node_721:0",dtype:float32,shape:[1, 35, 35, 64]}
    out_0 {name:"Node_723:0",dtype:float32,shape:[1, 35, 35, 64]}
  }
}
layer {
  name:"Node_735"
  type:"nn_conv2d"
  top:"Node_735"
  bottom:"Node_689"
  bottom:"mixed_1/tower_1/conv/conv2d_params"
  layer_param {
    idx:735
    in_0 {name:"Node_689:0",dtype:float32,shape:[1, 35, 35, 256]}
    in_1 {name:"mixed_1/tower_1/conv/conv2d_params:0",dtype:float32,shape:[1, 1, 256, 64]}
    out_0 {name:"Node_735:0",dtype:float32,shape:[1, 35, 35, 64]}
    attrs {'strides': [1, 1], 'padding': [0, 0, 0, 0], 'dilation': [1, 1], 'groups': 1, 'channels': 64, 'kernel_size': [1, 1], 'data_layout': 'NHWC', 'kernel_layout': 'HWIO', 'out_layout': '', 'out_dtype': ''}
  }
}
layer {
  name:"Node_740"
  type:"nn_batch_norm"
  top:"Node_740"
  bottom:"Node_735"
  bottom:"mixed_1/tower_1/conv/batchnorm/gamma"
  bottom:"mixed_1/tower_1/conv/batchnorm/beta"
  bottom:"mixed_1/tower_1/conv/batchnorm/moving_mean"
  bottom:"mixed_1/tower_1/conv/batchnorm/moving_variance"
  layer_param {
    idx:740
    in_0 {name:"Node_735:0",dtype:float32,shape:[1, 35, 35, 64]}
    in_1 {name:"mixed_1/tower_1/conv/batchnorm/gamma:0",dtype:float32,shape:[64]}
    in_2 {name:"mixed_1/tower_1/conv/batchnorm/beta:0",dtype:float32,shape:[64]}
    in_3 {name:"mixed_1/tower_1/conv/batchnorm/moving_mean:0",dtype:float32,shape:[64]}
    in_4 {name:"mixed_1/tower_1/conv/batchnorm/moving_variance:0",dtype:float32,shape:[64]}
    out_0 {name:"Node_740:0",dtype:float32,shape:[1, 35, 35, 64]}
    out_1 {name:"Node_740:1",dtype:float32,shape:[64]}
    out_2 {name:"Node_740:2",dtype:float32,shape:[64]}
    attrs {'axis': 3, 'epsilon': 0.0010000000474974513, 'center': 1, 'scale': 0}
  }
}
layer {
  name:"Node_742"
  type:"nn_relu"
  top:"Node_742"
  bottom:"Node_740"
  layer_param {
    idx:742
    in_0 {name:"Node_740:0",dtype:float32,shape:[1, 35, 35, 64]}
    out_0 {name:"Node_742:0",dtype:float32,shape:[1, 35, 35, 64]}
  }
}
layer {
  name:"Node_744"
  type:"nn_conv2d"
  top:"Node_744"
  bottom:"Node_742"
  bottom:"mixed_1/tower_1/conv_1/conv2d_params"
  layer_param {
    idx:744
    in_0 {name:"Node_742:0",dtype:float32,shape:[1, 35, 35, 64]}
    in_1 {name:"mixed_1/tower_1/conv_1/conv2d_params:0",dtype:float32,shape:[3, 3, 64, 96]}
    out_0 {name:"Node_744:0",dtype:float32,shape:[1, 35, 35, 96]}
    attrs {'strides': [1, 1], 'padding': [1, 1, 1, 1], 'dilation': [1, 1], 'groups': 1, 'channels': 96, 'kernel_size': [3, 3], 'data_layout': 'NHWC', 'kernel_layout': 'HWIO', 'out_layout': '', 'out_dtype': ''}
  }
}
layer {
  name:"Node_749"
  type:"nn_batch_norm"
  top:"Node_749"
  bottom:"Node_744"
  bottom:"mixed_1/tower_1/conv_1/batchnorm/gamma"
  bottom:"mixed_1/tower_1/conv_1/batchnorm/beta"
  bottom:"mixed_1/tower_1/conv_1/batchnorm/moving_mean"
  bottom:"mixed_1/tower_1/conv_1/batchnorm/moving_variance"
  layer_param {
    idx:749
    in_0 {name:"Node_744:0",dtype:float32,shape:[1, 35, 35, 96]}
    in_1 {name:"mixed_1/tower_1/conv_1/batchnorm/gamma:0",dtype:float32,shape:[96]}
    in_2 {name:"mixed_1/tower_1/conv_1/batchnorm/beta:0",dtype:float32,shape:[96]}
    in_3 {name:"mixed_1/tower_1/conv_1/batchnorm/moving_mean:0",dtype:float32,shape:[96]}
    in_4 {name:"mixed_1/tower_1/conv_1/batchnorm/moving_variance:0",dtype:float32,shape:[96]}
    out_0 {name:"Node_749:0",dtype:float32,shape:[1, 35, 35, 96]}
    out_1 {name:"Node_749:1",dtype:float32,shape:[96]}
    out_2 {name:"Node_749:2",dtype:float32,shape:[96]}
    attrs {'axis': 3, 'epsilon': 0.0010000000474974513, 'center': 1, 'scale': 0}
  }
}
layer {
  name:"Node_751"
  type:"nn_relu"
  top:"Node_751"
  bottom:"Node_749"
  layer_param {
    idx:751
    in_0 {name:"Node_749:0",dtype:float32,shape:[1, 35, 35, 96]}
    out_0 {name:"Node_751:0",dtype:float32,shape:[1, 35, 35, 96]}
  }
}
layer {
  name:"Node_753"
  type:"nn_conv2d"
  top:"Node_753"
  bottom:"Node_751"
  bottom:"mixed_1/tower_1/conv_2/conv2d_params"
  layer_param {
    idx:753
    in_0 {name:"Node_751:0",dtype:float32,shape:[1, 35, 35, 96]}
    in_1 {name:"mixed_1/tower_1/conv_2/conv2d_params:0",dtype:float32,shape:[3, 3, 96, 96]}
    out_0 {name:"Node_753:0",dtype:float32,shape:[1, 35, 35, 96]}
    attrs {'strides': [1, 1], 'padding': [1, 1, 1, 1], 'dilation': [1, 1], 'groups': 1, 'channels': 96, 'kernel_size': [3, 3], 'data_layout': 'NHWC', 'kernel_layout': 'HWIO', 'out_layout': '', 'out_dtype': ''}
  }
}
layer {
  name:"Node_758"
  type:"nn_batch_norm"
  top:"Node_758"
  bottom:"Node_753"
  bottom:"mixed_1/tower_1/conv_2/batchnorm/gamma"
  bottom:"mixed_1/tower_1/conv_2/batchnorm/beta"
  bottom:"mixed_1/tower_1/conv_2/batchnorm/moving_mean"
  bottom:"mixed_1/tower_1/conv_2/batchnorm/moving_variance"
  layer_param {
    idx:758
    in_0 {name:"Node_753:0",dtype:float32,shape:[1, 35, 35, 96]}
    in_1 {name:"mixed_1/tower_1/conv_2/batchnorm/gamma:0",dtype:float32,shape:[96]}
    in_2 {name:"mixed_1/tower_1/conv_2/batchnorm/beta:0",dtype:float32,shape:[96]}
    in_3 {name:"mixed_1/tower_1/conv_2/batchnorm/moving_mean:0",dtype:float32,shape:[96]}
    in_4 {name:"mixed_1/tower_1/conv_2/batchnorm/moving_variance:0",dtype:float32,shape:[96]}
    out_0 {name:"Node_758:0",dtype:float32,shape:[1, 35, 35, 96]}
    out_1 {name:"Node_758:1",dtype:float32,shape:[96]}
    out_2 {name:"Node_758:2",dtype:float32,shape:[96]}
    attrs {'axis': 3, 'epsilon': 0.0010000000474974513, 'center': 1, 'scale': 0}
  }
}
layer {
  name:"Node_760"
  type:"nn_relu"
  top:"Node_760"
  bottom:"Node_758"
  layer_param {
    idx:760
    in_0 {name:"Node_758:0",dtype:float32,shape:[1, 35, 35, 96]}
    out_0 {name:"Node_760:0",dtype:float32,shape:[1, 35, 35, 96]}
  }
}
layer {
  name:"Node_766"
  type:"nn_avg_pool2d"
  top:"Node_766"
  bottom:"Node_689"
  layer_param {
    idx:766
    in_0 {name:"Node_689:0",dtype:float32,shape:[1, 35, 35, 256]}
    out_0 {name:"Node_766:0",dtype:float32,shape:[1, 35, 35, 256]}
    attrs {'pool_size': [3, 3], 'strides': [1, 1], 'dilation': [1, 1], 'padding': [1, 1, 1, 1], 'layout': 'NHWC', 'ceil_mode': 0, 'count_include_pad': 0}
  }
}
layer {
  name:"Node_768"
  type:"nn_conv2d"
  top:"Node_768"
  bottom:"Node_766"
  bottom:"mixed_1/tower_2/conv/conv2d_params"
  layer_param {
    idx:768
    in_0 {name:"Node_766:0",dtype:float32,shape:[1, 35, 35, 256]}
    in_1 {name:"mixed_1/tower_2/conv/conv2d_params:0",dtype:float32,shape:[1, 1, 256, 64]}
    out_0 {name:"Node_768:0",dtype:float32,shape:[1, 35, 35, 64]}
    attrs {'strides': [1, 1], 'padding': [0, 0, 0, 0], 'dilation': [1, 1], 'groups': 1, 'channels': 64, 'kernel_size': [1, 1], 'data_layout': 'NHWC', 'kernel_layout': 'HWIO', 'out_layout': '', 'out_dtype': ''}
  }
}
layer {
  name:"Node_773"
  type:"nn_batch_norm"
  top:"Node_773"
  bottom:"Node_768"
  bottom:"mixed_1/tower_2/conv/batchnorm/gamma"
  bottom:"mixed_1/tower_2/conv/batchnorm/beta"
  bottom:"mixed_1/tower_2/conv/batchnorm/moving_mean"
  bottom:"mixed_1/tower_2/conv/batchnorm/moving_variance"
  layer_param {
    idx:773
    in_0 {name:"Node_768:0",dtype:float32,shape:[1, 35, 35, 64]}
…
  bottom:"mixed_7/tower/conv_2/batchnorm/beta"
  bottom:"mixed_7/tower/conv_2/batchnorm/moving_mean"
  bottom:"mixed_7/tower/conv_2/batchnorm/moving_variance"
  bottom:"mixed_7/tower_1/conv/conv2d_params"
  bottom:"mixed_7/tower_1/conv/batchnorm/gamma"
  bottom:"mixed_7/tower_1/conv/batchnorm/beta"
  bottom:"mixed_7/tower_1/conv/batchnorm/moving_mean"
  bottom:"mixed_7/tower_1/conv/batchnorm/moving_variance"
  bottom:"mixed_7/tower_1/conv_1/conv2d_params"
  bottom:"mixed_7/tower_1/conv_1/batchnorm/gamma"
  bottom:"mixed_7/tower_1/conv_1/batchnorm/beta"
  bottom:"mixed_7/tower_1/conv_1/batchnorm/moving_mean"
  bottom:"mixed_7/tower_1/conv_1/batchnorm/moving_variance"
  bottom:"mixed_7/tower_1/conv_2/conv2d_params"
  bottom:"mixed_7/tower_1/conv_2/batchnorm/gamma"
  bottom:"mixed_7/tower_1/conv_2/batchnorm/beta"
  bottom:"mixed_7/tower_1/conv_2/batchnorm/moving_mean"
  bottom:"mixed_7/tower_1/conv_2/batchnorm/moving_variance"
  bottom:"mixed_7/tower_1/conv_3/conv2d_params"
  bottom:"mixed_7/tower_1/conv_3/batchnorm/gamma"
  bottom:"mixed_7/tower_1/conv_3/batchnorm/beta"
  bottom:"mixed_7/tower_1/conv_3/batchnorm/moving_mean"
  bottom:"mixed_7/tower_1/conv_3/batchnorm/moving_variance"
  bottom:"mixed_7/tower_1/conv_4/conv2d_params"
  bottom:"mixed_7/tower_1/conv_4/batchnorm/gamma"
  bottom:"mixed_7/tower_1/conv_4/batchnorm/beta"
  bottom:"mixed_7/tower_1/conv_4/batchnorm/moving_mean"
  bottom:"mixed_7/tower_1/conv_4/batchnorm/moving_variance"
  bottom:"mixed_7/tower_2/conv/conv2d_params"
  bottom:"mixed_7/tower_2/conv/batchnorm/gamma"
  bottom:"mixed_7/tower_2/conv/batchnorm/beta"
  bottom:"mixed_7/tower_2/conv/batchnorm/moving_mean"
  bottom:"mixed_7/tower_2/conv/batchnorm/moving_variance"
  bottom:"mixed_8/tower/conv/conv2d_params"
  bottom:"mixed_8/tower/conv/batchnorm/gamma"
  bottom:"mixed_8/tower/conv/batchnorm/beta"
  bottom:"mixed_8/tower/conv/batchnorm/moving_mean"
  bottom:"mixed_8/tower/conv/batchnorm/moving_variance"
  bottom:"mixed_8/tower/conv_1/conv2d_params"
  bottom:"mixed_8/tower/conv_1/batchnorm/gamma"
  bottom:"mixed_8/tower/conv_1/batchnorm/beta"
  bottom:"mixed_8/tower/conv_1/batchnorm/moving_mean"
  bottom:"mixed_8/tower/conv_1/batchnorm/moving_variance"
  bottom:"mixed_8/tower_1/conv/conv2d_params"
  bottom:"mixed_8/tower_1/conv/batchnorm/gamma"
  bottom:"mixed_8/tower_1/conv/batchnorm/beta"
  bottom:"mixed_8/tower_1/conv/batchnorm/moving_mean"
  bottom:"mixed_8/tower_1/conv/batchnorm/moving_variance"
  bottom:"mixed_8/tower_1/conv_1/conv2d_params"
  bottom:"mixed_8/tower_1/conv_1/batchnorm/gamma"
  bottom:"mixed_8/tower_1/conv_1/batchnorm/beta"
  bottom:"mixed_8/tower_1/conv_1/batchnorm/moving_mean"
  bottom:"mixed_8/tower_1/conv_1/batchnorm/moving_variance"
  bottom:"mixed_8/tower_1/conv_2/conv2d_params"
  bottom:"mixed_8/tower_1/conv_2/batchnorm/gamma"
  bottom:"mixed_8/tower_1/conv_2/batchnorm/beta"
  bottom:"mixed_8/tower_1/conv_2/batchnorm/moving_mean"
  bottom:"mixed_8/tower_1/conv_2/batchnorm/moving_variance"
  bottom:"mixed_8/tower_1/conv_3/conv2d_params"
  bottom:"mixed_8/tower_1/conv_3/batchnorm/gamma"
  bottom:"mixed_8/tower_1/conv_3/batchnorm/beta"
  bottom:"mixed_8/tower_1/conv_3/batchnorm/moving_mean"
  bottom:"mixed_8/tower_1/conv_3/batchnorm/moving_variance"
  bottom:"mixed_9/conv/conv2d_params"
  bottom:"mixed_9/conv/batchnorm/gamma"
  bottom:"mixed_9/conv/batchnorm/beta"
  bottom:"mixed_9/conv/batchnorm/moving_mean"
  bottom:"mixed_9/conv/batchnorm/moving_variance"
  bottom:"mixed_9/tower/conv/conv2d_params"
  bottom:"mixed_9/tower/conv/batchnorm/gamma"
  bottom:"mixed_9/tower/conv/batchnorm/beta"
  bottom:"mixed_9/tower/conv/batchnorm/moving_mean"
  bottom:"mixed_9/tower/conv/batchnorm/moving_variance"
  bottom:"mixed_9/tower/mixed/conv/conv2d_params"
  bottom:"mixed_9/tower/mixed/conv/batchnorm/gamma"
  bottom:"mixed_9/tower/mixed/conv/batchnorm/beta"
  bottom:"mixed_9/tower/mixed/conv/batchnorm/moving_mean"
  bottom:"mixed_9/tower/mixed/conv/batchnorm/moving_variance"
  bottom:"mixed_9/tower/mixed/conv_1/conv2d_params"
  bottom:"mixed_9/tower/mixed/conv_1/batchnorm/gamma"
  bottom:"mixed_9/tower/mixed/conv_1/batchnorm/beta"
  bottom:"mixed_9/tower/mixed/conv_1/batchnorm/moving_mean"
  bottom:"mixed_9/tower/mixed/conv_1/batchnorm/moving_variance"
  bottom:"mixed_9/tower_1/conv/conv2d_params"
  bottom:"mixed_9/tower_1/conv/batchnorm/gamma"
  bottom:"mixed_9/tower_1/conv/batchnorm/beta"
  bottom:"mixed_9/tower_1/conv/batchnorm/moving_mean"
  bottom:"mixed_9/tower_1/conv/batchnorm/moving_variance"
  bottom:"mixed_9/tower_1/conv_1/conv2d_params"
  bottom:"mixed_9/tower_1/conv_1/batchnorm/gamma"
  bottom:"mixed_9/tower_1/conv_1/batchnorm/beta"
  bottom:"mixed_9/tower_1/conv_1/batchnorm/moving_mean"
  bottom:"mixed_9/tower_1/conv_1/batchnorm/moving_variance"
  bottom:"mixed_9/tower_1/mixed/conv/conv2d_params"
  bottom:"mixed_9/tower_1/mixed/conv/batchnorm/gamma"
  bottom:"mixed_9/tower_1/mixed/conv/batchnorm/beta"
  bottom:"mixed_9/tower_1/mixed/conv/batchnorm/moving_mean"
  bottom:"mixed_9/tower_1/mixed/conv/batchnorm/moving_variance"
  bottom:"mixed_9/tower_1/mixed/conv_1/conv2d_params"
  bottom:"mixed_9/tower_1/mixed/conv_1/batchnorm/gamma"
  bottom:"mixed_9/tower_1/mixed/conv_1/batchnorm/beta"
  bottom:"mixed_9/tower_1/mixed/conv_1/batchnorm/moving_mean"
  bottom:"mixed_9/tower_1/mixed/conv_1/batchnorm/moving_variance"
  bottom:"mixed_9/tower_2/conv/conv2d_params"
  bottom:"mixed_9/tower_2/conv/batchnorm/gamma"
  bottom:"mixed_9/tower_2/conv/batchnorm/beta"
  bottom:"mixed_9/tower_2/conv/batchnorm/moving_mean"
  bottom:"mixed_9/tower_2/conv/batchnorm/moving_variance"
  bottom:"mixed_10/conv/conv2d_params"
  bottom:"mixed_10/conv/batchnorm/gamma"
  bottom:"mixed_10/conv/batchnorm/beta"
  bottom:"mixed_10/conv/batchnorm/moving_mean"
  bottom:"mixed_10/conv/batchnorm/moving_variance"
  bottom:"mixed_10/tower/conv/conv2d_params"
  bottom:"mixed_10/tower/conv/batchnorm/gamma"
  bottom:"mixed_10/tower/conv/batchnorm/beta"
  bottom:"mixed_10/tower/conv/batchnorm/moving_mean"
  bottom:"mixed_10/tower/conv/batchnorm/moving_variance"
  bottom:"mixed_10/tower/mixed/conv/conv2d_params"
  bottom:"mixed_10/tower/mixed/conv/batchnorm/gamma"
  bottom:"mixed_10/tower/mixed/conv/batchnorm/beta"
  bottom:"mixed_10/tower/mixed/conv/batchnorm/moving_mean"
  bottom:"mixed_10/tower/mixed/conv/batchnorm/moving_variance"
  bottom:"mixed_10/tower/mixed/conv_1/conv2d_params"
  bottom:"mixed_10/tower/mixed/conv_1/batchnorm/gamma"
  bottom:"mixed_10/tower/mixed/conv_1/batchnorm/beta"
  bottom:"mixed_10/tower/mixed/conv_1/batchnorm/moving_mean"
  bottom:"mixed_10/tower/mixed/conv_1/batchnorm/moving_variance"
  bottom:"mixed_10/tower_1/conv/conv2d_params"
  bottom:"mixed_10/tower_1/conv/batchnorm/gamma"
  bottom:"mixed_10/tower_1/conv/batchnorm/beta"
  bottom:"mixed_10/tower_1/conv/batchnorm/moving_mean"
  bottom:"mixed_10/tower_1/conv/batchnorm/moving_variance"
  bottom:"mixed_10/tower_1/conv_1/conv2d_params"
  bottom:"mixed_10/tower_1/conv_1/batchnorm/gamma"
  bottom:"mixed_10/tower_1/conv_1/batchnorm/beta"
  bottom:"mixed_10/tower_1/conv_1/batchnorm/moving_mean"
  bottom:"mixed_10/tower_1/conv_1/batchnorm/moving_variance"
  bottom:"mixed_10/tower_1/mixed/conv/conv2d_params"
  bottom:"mixed_10/tower_1/mixed/conv/batchnorm/gamma"
  bottom:"mixed_10/tower_1/mixed/conv/batchnorm/beta"
  bottom:"mixed_10/tower_1/mixed/conv/batchnorm/moving_mean"
  bottom:"mixed_10/tower_1/mixed/conv/batchnorm/moving_variance"
  bottom:"mixed_10/tower_1/mixed/conv_1/conv2d_params"
  bottom:"mixed_10/tower_1/mixed/conv_1/batchnorm/gamma"
  bottom:"mixed_10/tower_1/mixed/conv_1/batchnorm/beta"
  bottom:"mixed_10/tower_1/mixed/conv_1/batchnorm/moving_mean"
  bottom:"mixed_10/tower_1/mixed/conv_1/batchnorm/moving_variance"
  bottom:"mixed_10/tower_2/conv/conv2d_params"
  bottom:"mixed_10/tower_2/conv/batchnorm/gamma"
  bottom:"mixed_10/tower_2/conv/batchnorm/beta"
  bottom:"mixed_10/tower_2/conv/batchnorm/moving_mean"
  bottom:"mixed_10/tower_2/conv/batchnorm/moving_variance"
  bottom:"softmax/weights"
  bottom:"softmax/biases"
  bottom:"Node_1721"
  layer_param {
    idx:1722
    in_0 {name:"DecodeJpeg/contents:0",dtype:uint8,shape:[299, 299, 3]}
    in_1 {name:"conv/conv2d_params:0",dtype:float32,shape:[3, 3, 3, 32]}
    in_2 {name:"conv/batchnorm/gamma:0",dtype:float32,shape:[32]}
    in_3 {name:"conv/batchnorm/beta:0",dtype:float32,shape:[32]}
    in_4 {name:"conv/batchnorm/moving_mean:0",dtype:float32,shape:[32]}
    in_5 {name:"conv/batchnorm/moving_variance:0",dtype:float32,shape:[32]}
    in_6 {name:"conv_1/conv2d_params:0",dtype:float32,shape:[3, 3, 32, 32]}
    in_7 {name:"conv_1/batchnorm/gamma:0",dtype:float32,shape:[32]}
    in_8 {name:"conv_1/batchnorm/beta:0",dtype:float32,shape:[32]}
    in_9 {name:"conv_1/batchnorm/moving_mean:0",dtype:float32,shape:[32]}
    in_10 {name:"conv_1/batchnorm/moving_variance:0",dtype:float32,shape:[32]}
    in_11 {name:"conv_2/conv2d_params:0",dtype:float32,shape:[3, 3, 32, 64]}
    in_12 {name:"conv_2/batchnorm/gamma:0",dtype:float32,shape:[64]}
    in_13 {name:"conv_2/batchnorm/beta:0",dtype:float32,shape:[64]}
    in_14 {name:"conv_2/batchnorm/moving_mean:0",dtype:float32,shape:[64]}
    in_15 {name:"conv_2/batchnorm/moving_variance:0",dtype:float32,shape:[64]}
    in_16 {name:"conv_3/conv2d_params:0",dtype:float32,shape:[1, 1, 64, 80]}
    in_17 {name:"conv_3/batchnorm/gamma:0",dtype:float32,shape:[80]}
    in_18 {name:"conv_3/batchnorm/beta:0",dtype:float32,shape:[80]}
    in_19 {name:"conv_3/batchnorm/moving_mean:0",dtype:float32,shape:[80]}
    in_20 {name:"conv_3/batchnorm/moving_variance:0",dtype:float32,shape:[80]}
    in_21 {name:"conv_4/conv2d_params:0",dtype:float32,shape:[3, 3, 80, 192]}
    in_22 {name:"conv_4/batchnorm/gamma:0",dtype:float32,shape:[192]}
    in_23 {name:"conv_4/batchnorm/beta:0",dtype:float32,shape:[192]}
    in_24 {name:"conv_4/batchnorm/moving_mean:0",dtype:float32,shape:[192]}
    in_25 {name:"conv_4/batchnorm/moving_variance:0",dtype:float32,shape:[192]}
    in_26 {name:"mixed/conv/conv2d_params:0",dtype:float32,shape:[1, 1, 192, 64]}
    in_27 {name:"mixed/conv/batchnorm/gamma:0",dtype:float32,shape:[64]}
    in_28 {name:"mixed/conv/batchnorm/beta:0",dtype:float32,shape:[64]}
    in_29 {name:"mixed/conv/batchnorm/moving_mean:0",dtype:float32,shape:[64]}
    in_30 {name:"mixed/conv/batchnorm/moving_variance:0",dtype:float32,shape:[64]}
    in_31 {name:"mixed/tower/conv/conv2d_params:0",dtype:float32,shape:[1, 1, 192, 48]}
    in_32 {name:"mixed/tower/conv/batchnorm/gamma:0",dtype:float32,shape:[48]}
    in_33 {name:"mixed/tower/conv/batchnorm/beta:0",dtype:float32,shape:[48]}
    in_34 {name:"mixed/tower/conv/batchnorm/moving_mean:0",dtype:float32,shape:[48]}
    in_35 {name:"mixed/tower/conv/batchnorm/moving_variance:0",dtype:float32,shape:[48]}
    in_36 {name:"mixed/tower/conv_1/conv2d_params:0",dtype:float32,shape:[5, 5, 48, 64]}
    in_37 {name:"mixed/tower/conv_1/batchnorm/gamma:0",dtype:float32,shape:[64]}
    in_38 {name:"mixed/tower/conv_1/batchnorm/beta:0",dtype:float32,shape:[64]}
    in_39 {name:"mixed/tower/conv_1/batchnorm/moving_mean:0",dtype:float32,shape:[64]}
    in_40 {name:"mixed/tower/conv_1/batchnorm/moving_variance:0",dtype:float32,shape:[64]}
    in_41 {name:"mixed/tower_1/conv/conv2d_params:0",dtype:float32,shape:[1, 1, 192, 64]}
    in_42 {name:"mixed/tower_1/conv/batchnorm/gamma:0",dtype:float32,shape:[64]}
    in_43 {name:"mixed/tower_1/conv/batchnorm/beta:0",dtype:float32,shape:[64]}
    in_44 {name:"mixed/tower_1/conv/batchnorm/moving_mean:0",dtype:float32,shape:[64]}
    in_45 {name:"mixed/tower_1/conv/batchnorm/moving_variance:0",dtype:float32,shape:[64]}
    in_46 {name:"mixed/tower_1/conv_1/conv2d_params:0",dtype:float32,shape:[3, 3, 64, 96]}
    in_47 {name:"mixed/tower_1/conv_1/batchnorm/gamma:0",dtype:float32,shape:[96]}
    in_48 {name:"mixed/tower_1/conv_1/batchnorm/beta:0",dtype:float32,shape:[96]}
    in_49 {name:"mixed/tower_1/conv_1/batchnorm/moving_mean:0",dtype:float32,shape:[96]}
    in_50 {name:"mixed/tower_1/conv_1/batchnorm/moving_variance:0",dtype:float32,shape:[96]}
    in_51 {name:"mixed/tower_1/conv_2/conv2d_params:0",dtype:float32,shape:[3, 3, 96, 96]}
    in_52 {name:"mixed/tower_1/conv_2/batchnorm/gamma:0",dtype:float32,shape:[96]}
    in_53 {name:"mixed/tower_1/conv_2/batchnorm/beta:0",dtype:float32,shape:[96]}
    in_54 {name:"mixed/tower_1/conv_2/batchnorm/moving_mean:0",dtype:float32,shape:[96]}
    in_55 {name:"mixed/tower_1/conv_2/batchnorm/moving_variance:0",dtype:float32,shape:[96]}
    in_56 {name:"mixed/tower_2/conv/conv2d_params:0",dtype:float32,shape:[1, 1, 192, 32]}
    in_57 {name:"mixed/tower_2/conv/batchnorm/gamma:0",dtype:float32,shape:[32]}
    in_58 {name:"mixed/tower_2/conv/batchnorm/beta:0",dtype:float32,shape:[32]}
    in_59 {name:"mixed/tower_2/conv/batchnorm/moving_mean:0",dtype:float32,shape:[32]}
    in_60 {name:"mixed/tower_2/conv/batchnorm/moving_variance:0",dtype:float32,shape:[32]}
    in_61 {name:"mixed_1/conv/conv2d_params:0",dtype:float32,shape:[1, 1, 256, 64]}
    in_62 {name:"mixed_1/conv/batchnorm/gamma:0",dtype:float32,shape:[64]}
    in_63 {name:"mixed_1/conv/batchnorm/beta:0",dtype:float32,shape:[64]}
    in_64 {name:"mixed_1/conv/batchnorm/moving_mean:0",dtype:float32,shape:[64]}
    in_65 {name:"mixed_1/conv/batchnorm/moving_variance:0",dtype:float32,shape:[64]}
    in_66 {name:"mixed_1/tower/conv/conv2d_params:0",dtype:float32,shape:[1, 1, 256, 48]}
    in_67 {name:"mixed_1/tower/conv/batchnorm/gamma:0",dtype:float32,shape:[48]}
    in_68 {name:"mixed_1/tower/conv/batchnorm/beta:0",dtype:float32,shape:[48]}
    in_69 {name:"mixed_1/tower/conv/batchnorm/moving_mean:0",dtype:float32,shape:[48]}
    in_70 {name:"mixed_1/tower/conv/batchnorm/moving_variance:0",dtype:float32,shape:[48]}
    in_71 {name:"mixed_1/tower/conv_1/conv2d_params:0",dtype:float32,shape:[5, 5, 48, 64]}
    in_72 {name:"mixed_1/tower/conv_1/batchnorm/gamma:0",dtype:float32,shape:[64]}
    in_73 {name:"mixed_1/tower/conv_1/batchnorm/beta:0",dtype:float32,shape:[64]}
    in_74 {name:"mixed_1/tower/conv_1/batchnorm/moving_mean:0",dtype:float32,shape:[64]}
    in_75 {name:"mixed_1/tower/conv_1/batchnorm/moving_variance:0",dtype:float32,shape:[64]}
    in_76 {name:"mixed_1/tower_1/conv/conv2d_params:0",dtype:float32,shape:[1, 1, 256, 64]}
    in_77 {name:"mixed_1/tower_1/conv/batchnorm/gamma:0",dtype:float32,shape:[64]}
    in_78 {name:"mixed_1/tower_1/conv/batchnorm/beta:0",dtype:float32,shape:[64]}
    in_79 {name:"mixed_1/tower_1/conv/batchnorm/moving_mean:0",dtype:float32,shape:[64]}
    in_80 {name:"mixed_1/tower_1/conv/batchnorm/moving_variance:0",dtype:float32,shape:[64]}
    in_81 {name:"mixed_1/tower_1/conv_1/conv2d_params:0",dtype:float32,shape:[3, 3, 64, 96]}
    in_82 {name:"mixed_1/tower_1/conv_1/batchnorm/gamma:0",dtype:float32,shape:[96]}
    in_83 {name:"mixed_1/tower_1/conv_1/batchnorm/beta:0",dtype:float32,shape:[96]}
    in_84 {name:"mixed_1/tower_1/conv_1/batchnorm/moving_mean:0",dtype:float32,shape:[96]}
    in_85 {name:"mixed_1/tower_1/conv_1/batchnorm/moving_variance:0",dtype:float32,shape:[96]}
    in_86 {name:"mixed_1/tower_1/conv_2/conv2d_params:0",dtype:float32,shape:[3, 3, 96, 96]}
    in_87 {name:"mixed_1/tower_1/conv_2/batchnorm/gamma:0",dtype:float32,shape:[96]}
    in_88 {name:"mixed_1/tower_1/conv_2/batchnorm/beta:0",dtype:float32,shape:[96]}
    in_89 {name:"mixed_1/tower_1/conv_2/batchnorm/moving_mean:0",dtype:float32,shape:[96]}
    in_90 {name:"mixed_1/tower_1/conv_2/batchnorm/moving_variance:0",dtype:float32,shape:[96]}
    in_91 {name:"mixed_1/tower_2/conv/conv2d_params:0",dtype:float32,shape:[1, 1, 256, 64]}
    in_92 {name:"mixed_1/tower_2/conv/batchnorm/gamma:0",dtype:float32,shape:[64]}
    in_93 {name:"mixed_1/tower_2/conv/batchnorm/beta:0",dtype:float32,shape:[64]}
    in_94 {name:"mixed_1/tower_2/conv/batchnorm/moving_mean:0",dtype:float32,shape:[64]}
    in_95 {name:"mixed_1/tower_2/conv/batchnorm/moving_variance:0",dtype:float32,shape:[64]}
    in_96 {name:"mixed_2/conv/conv2d_params:0",dtype:float32,shape:[1, 1, 288, 64]}
    in_97 {name:"mixed_2/conv/batchnorm/gamma:0",dtype:float32,shape:[64]}
    in_98 {name:"mixed_2/conv/batchnorm/beta:0",dtype:float32,shape:[64]}
    in_99 {name:"mixed_2/conv/batchnorm/moving_mean:0",dtype:float32,shape:[64]}
    in_100 {name:"mixed_2/conv/batchnorm/moving_variance:0",dtype:float32,shape:[64]}
    in_101 {name:"mixed_2/tower/conv/conv2d_params:0",dtype:float32,shape:[1, 1, 288, 48]}
    in_102 {name:"mixed_2/tower/conv/batchnorm/gamma:0",dtype:float32,shape:[48]}
    in_103 {name:"mixed_2/tower/conv/batchnorm/beta:0",dtype:float32,shape:[48]}
    in_104 {name:"mixed_2/tower/conv/batchnorm/moving_mean:0",dtype:float32,shape:[48]}
    in_105 {name:"mixed_2/tower/conv/batchnorm/moving_variance:0",dtype:float32,shape:[48]}
    in_106 {name:"mixed_2/tower/conv_1/conv2d_params:0",dtype:float32,shape:[5, 5, 48, 64]}
    in_107 {name:"mixed_2/tower/conv_1/batchnorm/gamma:0",dtype:float32,shape:[64]}
    in_108 {name:"mixed_2/tower/conv_1/batchnorm/beta:0",dtype:float32,shape:[64]}
    in_109 {name:"mixed_2/tower/conv_1/batchnorm/moving_mean:0",dtype:float32,shape:[64]}
    in_110 {name:"mixed_2/tower/conv_1/batchnorm/moving_variance:0",dtype:float32,shape:[64]}
    in_111 {name:"mixed_2/tower_1/conv/conv2d_params:0",dtype:float32,shape:[1, 1, 288, 64]}
    in_112 {name:"mixed_2/tower_1/conv/batchnorm/gamma:0",dtype:float32,shape:[64]}
    in_113 {name:"mixed_2/tower_1/conv/batchnorm/beta:0",dtype:float32,shape:[64]}
    in_114 {name:"mixed_2/tower_1/conv/batchnorm/moving_mean:0",dtype:float32,shape:[64]}
    in_115 {name:"mixed_2/tower_1/conv/batchnorm/moving_variance:0",dtype:float32,shape:[64]}
    in_116 {name:"mixed_2/tower_1/conv_1/conv2d_params:0",dtype:float32,shape:[3, 3, 64, 96]}
    in_117 {name:"mixed_2/tower_1/conv_1/batchnorm/gamma:0",dtype:float32,shape:[96]}
    in_118 {name:"mixed_2/tower_1/conv_1/batchnorm/beta:0",dtype:float32,shape:[96]}
    in_119 {name:"mixed_2/tower_1/conv_1/batchnorm/moving_mean:0",dtype:float32,shape:[96]}
    in_120 {name:"mixed_2/tower_1/conv_1/batchnorm/moving_variance:0",dtype:float32,shape:[96]}
    in_121 {name:"mixed_2/tower_1/conv_2/conv2d_params:0",dtype:float32,shape:[3, 3, 96, 96]}
    in_122 {name:"mixed_2/tower_1/conv_2/batchnorm/gamma:0",dtype:float32,shape:[96]}
    in_123 {name:"mixed_2/tower_1/conv_2/batchnorm/beta:0",dtype:float32,shape:[96]}
    in_124 {name:"mixed_2/tower_1/conv_2/batchnorm/moving_mean:0",dtype:float32,shape:[96]}
    in_125 {name:"mixed_2/tower_1/conv_2/batchnorm/moving_variance:0",dtype:float32,shape:[96]}
    in_126 {name:"mixed_2/tower_2/conv/conv2d_params:0",dtype:float32,shape:[1, 1, 288, 64]}
    in_127 {name:"mixed_2/tower_2/conv/batchnorm/gamma:0",dtype:float32,shape:[64]}
    in_128 {name:"mixed_2/tower_2/conv/batchnorm/beta:0",dtype:float32,shape:[64]}
    in_129 {name:"mixed_2/tower_2/conv/batchnorm/moving_mean:0",dtype:float32,shape:[64]}
    in_130 {name:"mixed_2/tower_2/conv/batchnorm/moving_variance:0",dtype:float32,shape:[64]}
    in_131 {name:"mixed_3/conv/conv2d_params:0",dtype:float32,shape:[3, 3, 288, 384]}
    in_132 {name:"mixed_3/conv/batchnorm/gamma:0",dtype:float32,shape:[384]}
    in_133 {name:"mixed_3/conv/batchnorm/beta:0",dtype:float32,shape:[384]}
    in_134 {name:"mixed_3/conv/batchnorm/moving_mean:0",dtype:float32,shape:[384]}
    in_135 {name:"mixed_3/conv/batchnorm/moving_variance:0",dtype:float32,shape:[384]}
    in_136 {name:"mixed_3/tower/conv/conv2d_params:0",dtype:float32,shape:[1, 1, 288, 64]}
    in_137 {name:"mixed_3/tower/conv/batchnorm/gamma:0",dtype:float32,shape:[64]}
    in_138 {name:"mixed_3/tower/conv/batchnorm/beta:0",dtype:float32,shape:[64]}
    in_139 {name:"mixed_3/tower/conv/batchnorm/moving_mean:0",dtype:float32,shape:[64]}
    in_140 {name:"mixed_3/tower/conv/batchnorm/moving_variance:0",dtype:float32,shape:[64]}
    in_141 {name:"mixed_3/tower/conv_1/conv2d_params:0",dtype:float32,shape:[3, 3, 64, 96]}
    in_142 {name:"mixed_3/tower/conv_1/batchnorm/gamma:0",dtype:float32,shape:[96]}
    in_143 {name:"mixed_3/tower/conv_1/batchnorm/beta:0",dtype:float32,shape:[96]}
    in_144 {name:"mixed_3/tower/conv_1/batchnorm/moving_mean:0",dtype:float32,shape:[96]}
    in_145 {name:"mixed_3/tower/conv_1/batchnorm/moving_variance:0",dtype:float32,shape:[96]}
    in_146 {name:"mixed_3/tower/conv_2/conv2d_params:0",dtype:float32,shape:[3, 3, 96, 96]}
    in_147 {name:"mixed_3/tower/conv_2/batchnorm/gamma:0",dtype:float32,shape:[96]}
    in_148 {name:"mixed_3/tower/conv_2/batchnorm/beta:0",dtype:float32,shape:[96]}
    in_149 {name:"mixed_3/tower/conv_2/batchnorm/moving_mean:0",dtype:float32,shape:[96]}
    in_150 {name:"mixed_3/tower/conv_2/batchnorm/moving_variance:0",dtype:float32,shape:[96]}
    in_151 {name:"mixed_4/conv/conv2d_params:0",dtype:float32,shape:[1, 1, 768, 192]}
    in_152 {name:"mixed_4/conv/batchnorm/gamma:0",dtype:float32,shape:[192]}
    in_153 {name:"mixed_4/conv/batchnorm/beta:0",dtype:float32,shape:[192]}
    in_154 {name:"mixed_4/conv/batchnorm/moving_mean:0",dtype:float32,shape:[192]}
    in_155 {name:"mixed_4/conv/batchnorm/moving_variance:0",dtype:float32,shape:[192]}
    in_156 {name:"mixed_4/tower/conv/conv2d_params:0",dtype:float32,shape:[1, 1, 768, 128]}
    in_157 {name:"mixed_4/tower/conv/batchnorm/gamma:0",dtype:float32,shape:[128]}
    in_158 {name:"mixed_4/tower/conv/batchnorm/beta:0",dtype:float32,shape:[128]}
    in_159 {name:"mixed_4/tower/conv/batchnorm/moving_mean:0",dtype:float32,shape:[128]}
    in_160 {name:"mixed_4/tower/conv/batchnorm/moving_variance:0",dtype:float32,shape:[128]}
    in_161 {name:"mixed_4/tower/conv_1/conv2d_params:0",dtype:float32,shape:[1, 7, 128, 128]}
    in_162 {name:"mixed_4/tower/conv_1/batchnorm/gamma:0",dtype:float32,shape:[128]}
    in_163 {name:"mixed_4/tower/conv_1/batchnorm/beta:0",dtype:float32,shape:[128]}
    in_164 {name:"mixed_4/tower/conv_1/batchnorm/moving_mean:0",dtype:float32,shape:[128]}
    in_165 {name:"mixed_4/tower/conv_1/batchnorm/moving_variance:0",dtype:float32,shape:[128]}
    in_166 {name:"mixed_4/tower/conv_2/conv2d_params:0",dtype:float32,shape:[7, 1, 128, 192]}
    in_167 {name:"mixed_4/tower/conv_2/batchnorm/gamma:0",dtype:float32,shape:[192]}
    in_168 {name:"mixed_4/tower/conv_2/batchnorm/beta:0",dtype:float32,shape:[192]}
    in_169 {name:"mixed_4/tower/conv_2/batchnorm/moving_mean:0",dtype:float32,shape:[192]}
    in_170 {name:"mixed_4/tower/conv_2/batchnorm/moving_variance:0",dtype:float32,shape:[192]}
    in_171 {name:"mixed_4/tower_1/conv/conv2d_params:0",dtype:float32,shape:[1, 1, 768, 128]}
    in_172 {name:"mixed_4/tower_1/conv/batchnorm/gamma:0",dtype:float32,shape:[128]}
    in_173 {name:"mixed_4/tower_1/conv/batchnorm/beta:0",dtype:float32,shape:[128]}
    in_174 {name:"mixed_4/tower_1/conv/batchnorm/moving_mean:0",dtype:float32,shape:[128]}
    in_175 {name:"mixed_4/tower_1/conv/batchnorm/moving_variance:0",dtype:float32,shape:[128]}
    in_176 {name:"mixed_4/tower_1/conv_1/conv2d_params:0",dtype:float32,shape:[7, 1, 128, 128]}
    in_177 {name:"mixed_4/tower_1/conv_1/batchnorm/gamma:0",dtype:float32,shape:[128]}
    in_178 {name:"mixed_4/tower_1/conv_1/batchnorm/beta:0",dtype:float32,shape:[128]}
    in_179 {name:"mixed_4/tower_1/conv_1/batchnorm/moving_mean:0",dtype:float32,shape:[128]}
    in_180 {name:"mixed_4/tower_1/conv_1/batchnorm/moving_variance:0",dtype:float32,shape:[128]}
    in_181 {name:"mixed_4/tower_1/conv_2/conv2d_params:0",dtype:float32,shape:[1, 7, 128, 128]}
    in_182 {name:"mixed_4/tower_1/conv_2/batchnorm/gamma:0",dtype:float32,shape:[128]}
    in_183 {name:"mixed_4/tower_1/conv_2/batchnorm/beta:0",dtype:float32,shape:[128]}
    in_184 {name:"mixed_4/tower_1/conv_2/batchnorm/moving_mean:0",dtype:float32,shape:[128]}
    in_185 {name:"mixed_4/tower_1/conv_2/batchnorm/moving_variance:0",dtype:float32,shape:[128]}
    in_186 {name:"mixed_4/tower_1/conv_3/conv2d_params:0",dtype:float32,shape:[7, 1, 128, 128]}
    in_187 {name:"mixed_4/tower_1/conv_3/batchnorm/gamma:0",dtype:float32,shape:[128]}
    in_188 {name:"mixed_4/tower_1/conv_3/batchnorm/beta:0",dtype:float32,shape:[128]}
    in_189 {name:"mixed_4/tower_1/conv_3/batchnorm/moving_mean:0",dtype:float32,shape:[128]}
    in_190 {name:"mixed_4/tower_1/conv_3/batchnorm/moving_variance:0",dtype:float32,shape:[128]}
    in_191 {name:"mixed_4/tower_1/conv_4/conv2d_params:0",dtype:float32,shape:[1, 7, 128, 192]}
    in_192 {name:"mixed_4/tower_1/conv_4/batchnorm/gamma:0",dtype:float32,shape:[192]}
    in_193 {name:"mixed_4/tower_1/conv_4/batchnorm/beta:0",dtype:float32,shape:[192]}
    in_194 {name:"mixed_4/tower_1/conv_4/batchnorm/moving_mean:0",dtype:float32,shape:[192]}
    in_195 {name:"mixed_4/tower_1/conv_4/batchnorm/moving_variance:0",dtype:float32,shape:[192]}
    in_196 {name:"mixed_4/tower_2/conv/conv2d_params:0",dtype:float32,shape:[1, 1, 768, 192]}
    in_197 {name:"mixed_4/tower_2/conv/batchnorm/gamma:0",dtype:float32,shape:[192]}
    in_198 {name:"mixed_4/tower_2/conv/batchnorm/beta:0",dtype:float32,shape:[192]}
    in_199 {name:"mixed_4/tower_2/conv/batchnorm/moving_mean:0",dtype:float32,shape:[192]}
    in_200 {name:"mixed_4/tower_2/conv/batchnorm/moving_variance:0",dtype:float32,shape:[192]}
    in_201 {name:"mixed_5/conv/conv2d_params:0",dtype:float32,shape:[1, 1, 768, 192]}
    in_202 {name:"mixed_5/conv/batchnorm/gamma:0",dtype:float32,shape:[192]}
    in_203 {name:"mixed_5/conv/batchnorm/beta:0",dtype:float32,shape:[192]}
    in_204 {name:"mixed_5/conv/batchnorm/moving_mean:0",dtype:float32,shape:[192]}
    in_205 {name:"mixed_5/conv/batchnorm/moving_variance:0",dtype:float32,shape:[192]}
    in_206 {name:"mixed_5/tower/conv/conv2d_params:0",dtype:float32,shape:[1, 1, 768, 160]}
    in_207 {name:"mixed_5/tower/conv/batchnorm/gamma:0",dtype:float32,shape:[160]}
    in_208 {name:"mixed_5/tower/conv/batchnorm/beta:0",dtype:float32,shape:[160]}
    in_209 {name:"mixed_5/tower/conv/batchnorm/moving_mean:0",dtype:float32,shape:[160]}
    in_210 {name:"mixed_5/tower/conv/batchnorm/moving_variance:0",dtype:float32,shape:[160]}
    in_211 {name:"mixed_5/tower/conv_1/conv2d_params:0",dtype:float32,shape:[1, 7, 160, 160]}
    in_212 {name:"mixed_5/tower/conv_1/batchnorm/gamma:0",dtype:float32,shape:[160]}
    in_213 {name:"mixed_5/tower/conv_1/batchnorm/beta:0",dtype:float32,shape:[160]}
    in_214 {name:"mixed_5/tower/conv_1/batchnorm/moving_mean:0",dtype:float32,shape:[160]}
    in_215 {name:"mixed_5/tower/conv_1/batchnorm/moving_variance:0",dtype:float32,shape:[160]}
    in_216 {name:"mixed_5/tower/conv_2/conv2d_params:0",dtype:float32,shape:[7, 1, 160, 192]}
    in_217 {name:"mixed_5/tower/conv_2/batchnorm/gamma:0",dtype:float32,shape:[192]}
    in_218 {name:"mixed_5/tower/conv_2/batchnorm/beta:0",dtype:float32,shape:[192]}
    in_219 {name:"mixed_5/tower/conv_2/batchnorm/moving_mean:0",dtype:float32,shape:[192]}
    in_220 {name:"mixed_5/tower/conv_2/batchnorm/moving_variance:0",dtype:float32,shape:[192]}
    in_221 {name:"mixed_5/tower_1/conv/conv2d_params:0",dtype:float32,shape:[1, 1, 768, 160]}
    in_222 {name:"mixed_5/tower_1/conv/batchnorm/gamma:0",dtype:float32,shape:[160]}
    in_223 {name:"mixed_5/tower_1/conv/batchnorm/beta:0",dtype:float32,shape:[160]}
    in_224 {name:"mixed_5/tower_1/conv/batchnorm/moving_mean:0",dtype:float32,shape:[160]}
    in_225 {name:"mixed_5/tower_1/conv/batchnorm/moving_variance:0",dtype:float32,shape:[160]}
    in_226 {name:"mixed_5/tower_1/conv_1/conv2d_params:0",dtype:float32,shape:[7, 1, 160, 160]}
    in_227 {name:"mixed_5/tower_1/conv_1/batchnorm/gamma:0",dtype:float32,shape:[160]}
    in_228 {name:"mixed_5/tower_1/conv_1/batchnorm/beta:0",dtype:float32,shape:[160]}
    in_229 {name:"mixed_5/tower_1/conv_1/batchnorm/moving_mean:0",dtype:float32,shape:[160]}
    in_230 {name:"mixed_5/tower_1/conv_1/batchnorm/moving_variance:0",dtype:float32,shape:[160]}
    in_231 {name:"mixed_5/tower_1/conv_2/conv2d_params:0",dtype:float32,shape:[1, 7, 160, 160]}
    in_232 {name:"mixed_5/tower_1/conv_2/batchnorm/gamma:0",dtype:float32,shape:[160]}
    in_233 {name:"mixed_5/tower_1/conv_2/batchnorm/beta:0",dtype:float32,shape:[160]}
    in_234 {name:"mixed_5/tower_1/conv_2/batchnorm/moving_mean:0",dtype:float32,shape:[160]}
    in_235 {name:"mixed_5/tower_1/conv_2/batchnorm/moving_variance:0",dtype:float32,shape:[160]}
    in_236 {name:"mixed_5/tower_1/conv_3/conv2d_params:0",dtype:float32,shape:[7, 1, 160, 160]}
    in_237 {name:"mixed_5/tower_1/conv_3/batchnorm/gamma:0",dtype:float32,shape:[160]}
    in_238 {name:"mixed_5/tower_1/conv_3/batchnorm/beta:0",dtype:float32,shape:[160]}
    in_239 {name:"mixed_5/tower_1/conv_3/batchnorm/moving_mean:0",dtype:float32,shape:[160]}
    in_240 {name:"mixed_5/tower_1/conv_3/batchnorm/moving_variance:0",dtype:float32,shape:[160]}
    in_241 {name:"mixed_5/tower_1/conv_4/conv2d_params:0",dtype:float32,shape:[1, 7, 160, 192]}
    in_242 {name:"mixed_5/tower_1/conv_4/batchnorm/gamma:0",dtype:float32,shape:[192]}
    in_243 {name:"mixed_5/tower_1/conv_4/batchnorm/beta:0",dtype:float32,shape:[192]}
    in_244 {name:"mixed_5/tower_1/conv_4/batchnorm/moving_mean:0",dtype:float32,shape:[192]}
    in_245 {name:"mixed_5/tower_1/conv_4/batchnorm/moving_variance:0",dtype:float32,shape:[192]}
    in_246 {name:"mixed_5/tower_2/conv/conv2d_params:0",dtype:float32,shape:[1, 1, 768, 192]}
    in_247 {name:"mixed_5/tower_2/conv/batchnorm/gamma:0",dtype:float32,shape:[192]}
    in_248 {name:"mixed_5/tower_2/conv/batchnorm/beta:0",dtype:float32,shape:[192]}
    in_249 {name:"mixed_5/tower_2/conv/batchnorm/moving_mean:0",dtype:float32,shape:[192]}
    in_250 {name:"mixed_5/tower_2/conv/batchnorm/moving_variance:0",dtype:float32,shape:[192]}
    in_251 {name:"mixed_6/conv/conv2d_params:0",dtype:float32,shape:[1, 1, 768, 192]}
    in_252 {name:"mixed_6/conv/batchnorm/gamma:0",dtype:float32,shape:[192]}
    in_253 {name:"mixed_6/conv/batchnorm/beta:0",dtype:float32,shape:[192]}
    in_254 {name:"mixed_6/conv/batchnorm/moving_mean:0",dtype:float32,shape:[192]}
    in_255 {name:"mixed_6/conv/batchnorm/moving_variance:0",dtype:float32,shape:[192]}
    in_256 {name:"mixed_6/tower/conv/conv2d_params:0",dtype:float32,shape:[1, 1, 768, 160]}
    in_257 {name:"mixed_6/tower/conv/batchnorm/gamma:0",dtype:float32,shape:[160]}
    in_258 {name:"mixed_6/tower/conv/batchnorm/beta:0",dtype:float32,shape:[160]}
    in_259 {name:"mixed_6/tower/conv/batchnorm/moving_mean:0",dtype:float32,shape:[160]}
    in_260 {name:"mixed_6/tower/conv/batchnorm/moving_variance:0",dtype:float32,shape:[160]}
    in_261 {name:"mixed_6/tower/conv_1/conv2d_params:0",dtype:float32,shape:[1, 7, 160, 160]}
    in_262 {name:"mixed_6/tower/conv_1/batchnorm/gamma:0",dtype:float32,shape:[160]}
    in_263 {name:"mixed_6/tower/conv_1/batchnorm/beta:0",dtype:float32,shape:[160]}
    in_264 {name:"mixed_6/tower/conv_1/batchnorm/moving_mean:0",dtype:float32,shape:[160]}
    in_265 {name:"mixed_6/tower/conv_1/batchnorm/moving_variance:0",dtype:float32,shape:[160]}
    in_266 {name:"mixed_6/tower/conv_2/conv2d_params:0",dtype:float32,shape:[7, 1, 160, 192]}
    in_267 {name:"mixed_6/tower/conv_2/batchnorm/gamma:0",dtype:float32,shape:[192]}
    in_268 {name:"mixed_6/tower/conv_2/batchnorm/beta:0",dtype:float32,shape:[192]}
    in_269 {name:"mixed_6/tower/conv_2/batchnorm/moving_mean:0",dtype:float32,shape:[192]}
    in_270 {name:"mixed_6/tower/conv_2/batchnorm/moving_variance:0",dtype:float32,shape:[192]}
    in_271 {name:"mixed_6/tower_1/conv/conv2d_params:0",dtype:float32,shape:[1, 1, 768, 160]}
    in_272 {name:"mixed_6/tower_1/conv/batchnorm/gamma:0",dtype:float32,shape:[160]}
    in_273 {name:"mixed_6/tower_1/conv/batchnorm/beta:0",dtype:float32,shape:[160]}
    in_274 {name:"mixed_6/tower_1/conv/batchnorm/moving_mean:0",dtype:float32,shape:[160]}
    in_275 {name:"mixed_6/tower_1/conv/batchnorm/moving_variance:0",dtype:float32,shape:[160]}
    in_276 {name:"mixed_6/tower_1/conv_1/conv2d_params:0",dtype:float32,shape:[7, 1, 160, 160]}
    in_277 {name:"mixed_6/tower_1/conv_1/batchnorm/gamma:0",dtype:float32,shape:[160]}
    in_278 {name:"mixed_6/tower_1/conv_1/batchnorm/beta:0",dtype:float32,shape:[160]}
    in_279 {name:"mixed_6/tower_1/conv_1/batchnorm/moving_mean:0",dtype:float32,shape:[160]}
    in_280 {name:"mixed_6/tower_1/conv_1/batchnorm/moving_variance:0",dtype:float32,shape:[160]}
    in_281 {name:"mixed_6/tower_1/conv_2/conv2d_params:0",dtype:float32,shape:[1, 7, 160, 160]}
    in_282 {name:"mixed_6/tower_1/conv_2/batchnorm/gamma:0",dtype:float32,shape:[160]}
    in_283 {name:"mixed_6/tower_1/conv_2/batchnorm/beta:0",dtype:float32,shape:[160]}
    in_284 {name:"mixed_6/tower_1/conv_2/batchnorm/moving_mean:0",dtype:float32,shape:[160]}
    in_285 {name:"mixed_6/tower_1/conv_2/batchnorm/moving_variance:0",dtype:float32,shape:[160]}
    in_286 {name:"mixed_6/tower_1/conv_3/conv2d_params:0",dtype:float32,shape:[7, 1, 160, 160]}
    in_287 {name:"mixed_6/tower_1/conv_3/batchnorm/gamma:0",dtype:float32,shape:[160]}
    in_288 {name:"mixed_6/tower_1/conv_3/batchnorm/beta:0",dtype:float32,shape:[160]}
    in_289 {name:"mixed_6/tower_1/conv_3/batchnorm/moving_mean:0",dtype:float32,shape:[160]}
    in_290 {name:"mixed_6/tower_1/conv_3/batchnorm/moving_variance:0",dtype:float32,shape:[160]}
    in_291 {name:"mixed_6/tower_1/conv_4/conv2d_params:0",dtype:float32,shape:[1, 7, 160, 192]}
    in_292 {name:"mixed_6/tower_1/conv_4/batchnorm/gamma:0",dtype:float32,shape:[192]}
    in_293 {name:"mixed_6/tower_1/conv_4/batchnorm/beta:0",dtype:float32,shape:[192]}
    in_294 {name:"mixed_6/tower_1/conv_4/batchnorm/moving_mean:0",dtype:float32,shape:[192]}
    in_295 {name:"mixed_6/tower_1/conv_4/batchnorm/moving_variance:0",dtype:float32,shape:[192]}
    in_296 {name:"mixed_6/tower_2/conv/conv2d_params:0",dtype:float32,shape:[1, 1, 768, 192]}
    in_297 {name:"mixed_6/tower_2/conv/batchnorm/gamma:0",dtype:float32,shape:[192]}
    in_298 {name:"mixed_6/tower_2/conv/batchnorm/beta:0",dtype:float32,shape:[192]}
    in_299 {name:"mixed_6/tower_2/conv/batchnorm/moving_mean:0",dtype:float32,shape:[192]}
    in_300 {name:"mixed_6/tower_2/conv/batchnorm/moving_variance:0",dtype:float32,shape:[192]}
    in_301 {name:"mixed_7/conv/conv2d_params:0",dtype:float32,shape:[1, 1, 768, 192]}
    in_302 {name:"mixed_7/conv/batchnorm/gamma:0",dtype:float32,shape:[192]}
    in_303 {name:"mixed_7/conv/batchnorm/beta:0",dtype:float32,shape:[192]}
    in_304 {name:"mixed_7/conv/batchnorm/moving_mean:0",dtype:float32,shape:[192]}
    in_305 {name:"mixed_7/conv/batchnorm/moving_variance:0",dtype:float32,shape:[192]}
    in_306 {name:"mixed_7/tower/conv/conv2d_params:0",dtype:float32,shape:[1, 1, 768, 192]}
    in_307 {name:"mixed_7/tower/conv/batchnorm/gamma:0",dtype:float32,shape:[192]}
    in_308 {name:"mixed_7/tower/conv/batchnorm/beta:0",dtype:float32,shape:[192]}
    in_309 {name:"mixed_7/tower/conv/batchnorm/moving_mean:0",dtype:float32,shape:[192]}
    in_310 {name:"mixed_7/tower/conv/batchnorm/moving_variance:0",dtype:float32,shape:[192]}
    in_311 {name:"mixed_7/tower/conv_1/conv2d_params:0",dtype:float32,shape:[1, 7, 192, 192]}
    in_312 {name:"mixed_7/tower/conv_1/batchnorm/gamma:0",dtype:float32,shape:[192]}
    in_313 {name:"mixed_7/tower/conv_1/batchnorm/beta:0",dtype:float32,shape:[192]}
    in_314 {name:"mixed_7/tower/conv_1/batchnorm/moving_mean:0",dtype:float32,shape:[192]}
    in_315 {name:"mixed_7/tower/conv_1/batchnorm/moving_variance:0",dtype:float32,shape:[192]}
    in_316 {name:"mixed_7/tower/conv_2/conv2d_params:0",dtype:float32,shape:[7, 1, 192, 192]}
    in_317 {name:"mixed_7/tower/conv_2/batchnorm/gamma:0",dtype:float32,shape:[192]}
    in_318 {name:"mixed_7/tower/conv_2/batchnorm/beta:0",dtype:float32,shape:[192]}
    in_319 {name:"mixed_7/tower/conv_2/batchnorm/moving_mean:0",dtype:float32,shape:[192]}
    in_320 {name:"mixed_7/tower/conv_2/batchnorm/moving_variance:0",dtype:float32,shape:[192]}
    in_321 {name:"mixed_7/tower_1/conv/conv2d_params:0",dtype:float32,shape:[1, 1, 768, 192]}
    in_322 {name:"mixed_7/tower_1/conv/batchnorm/gamma:0",dtype:float32,shape:[192]}
    in_323 {name:"mixed_7/tower_1/conv/batchnorm/beta:0",dtype:float32,shape:[192]}
    in_324 {name:"mixed_7/tower_1/conv/batchnorm/moving_mean:0",dtype:float32,shape:[192]}
    in_325 {name:"mixed_7/tower_1/conv/batchnorm/moving_variance:0",dtype:float32,shape:[192]}
    in_326 {name:"mixed_7/tower_1/conv_1/conv2d_params:0",dtype:float32,shape:[7, 1, 192, 192]}
    in_327 {name:"mixed_7/tower_1/conv_1/batchnorm/gamma:0",dtype:float32,shape:[192]}
    in_328 {name:"mixed_7/tower_1/conv_1/batchnorm/beta:0",dtype:float32,shape:[192]}
    in_329 {name:"mixed_7/tower_1/conv_1/batchnorm/moving_mean:0",dtype:float32,shape:[192]}
    in_330 {name:"mixed_7/tower_1/conv_1/batchnorm/moving_variance:0",dtype:float32,shape:[192]}
    in_331 {name:"mixed_7/tower_1/conv_2/conv2d_params:0",dtype:float32,shape:[1, 7, 192, 192]}
    in_332 {name:"mixed_7/tower_1/conv_2/batchnorm/gamma:0",dtype:float32,shape:[192]}
    in_333 {name:"mixed_7/tower_1/conv_2/batchnorm/beta:0",dtype:float32,shape:[192]}
    in_334 {name:"mixed_7/tower_1/conv_2/batchnorm/moving_mean:0",dtype:float32,shape:[192]}
    in_335 {name:"mixed_7/tower_1/conv_2/batchnorm/moving_variance:0",dtype:float32,shape:[192]}
    in_336 {name:"mixed_7/tower_1/conv_3/conv2d_params:0",dtype:float32,shape:[7, 1, 192, 192]}
    in_337 {name:"mixed_7/tower_1/conv_3/batchnorm/gamma:0",dtype:float32,shape:[192]}
    in_338 {name:"mixed_7/tower_1/conv_3/batchnorm/beta:0",dtype:float32,shape:[192]}
    in_339 {name:"mixed_7/tower_1/conv_3/batchnorm/moving_mean:0",dtype:float32,shape:[192]}
    in_340 {name:"mixed_7/tower_1/conv_3/batchnorm/moving_variance:0",dtype:float32,shape:[192]}
    in_341 {name:"mixed_7/tower_1/conv_4/conv2d_params:0",dtype:float32,shape:[1, 7, 192, 192]}
    in_342 {name:"mixed_7/tower_1/conv_4/batchnorm/gamma:0",dtype:float32,shape:[192]}
    in_343 {name:"mixed_7/tower_1/conv_4/batchnorm/beta:0",dtype:float32,shape:[192]}
    in_344 {name:"mixed_7/tower_1/conv_4/batchnorm/moving_mean:0",dtype:float32,shape:[192]}
    in_345 {name:"mixed_7/tower_1/conv_4/batchnorm/moving_variance:0",dtype:float32,shape:[192]}
    in_346 {name:"mixed_7/tower_2/conv/conv2d_params:0",dtype:float32,shape:[1, 1, 768, 192]}
    in_347 {name:"mixed_7/tower_2/conv/batchnorm/gamma:0",dtype:float32,shape:[192]}
    in_348 {name:"mixed_7/tower_2/conv/batchnorm/beta:0",dtype:float32,shape:[192]}
    in_349 {name:"mixed_7/tower_2/conv/batchnorm/moving_mean:0",dtype:float32,shape:[192]}
    in_350 {name:"mixed_7/tower_2/conv/batchnorm/moving_variance:0",dtype:float32,shape:[192]}
    in_351 {name:"mixed_8/tower/conv/conv2d_params:0",dtype:float32,shape:[1, 1, 768, 192]}
    in_352 {name:"mixed_8/tower/conv/batchnorm/gamma:0",dtype:float32,shape:[192]}
    in_353 {name:"mixed_8/tower/conv/batchnorm/beta:0",dtype:float32,shape:[192]}
    in_354 {name:"mixed_8/tower/conv/batchnorm/moving_mean:0",dtype:float32,shape:[192]}
    in_355 {name:"mixed_8/tower/conv/batchnorm/moving_variance:0",dtype:float32,shape:[192]}
    in_356 {name:"mixed_8/tower/conv_1/conv2d_params:0",dtype:float32,shape:[3, 3, 192, 320]}
    in_357 {name:"mixed_8/tower/conv_1/batchnorm/gamma:0",dtype:float32,shape:[320]}
    in_358 {name:"mixed_8/tower/conv_1/batchnorm/beta:0",dtype:float32,shape:[320]}
    in_359 {name:"mixed_8/tower/conv_1/batchnorm/moving_mean:0",dtype:float32,shape:[320]}
    in_360 {name:"mixed_8/tower/conv_1/batchnorm/moving_variance:0",dtype:float32,shape:[320]}
    in_361 {name:"mixed_8/tower_1/conv/conv2d_params:0",dtype:float32,shape:[1, 1, 768, 192]}
    in_362 {name:"mixed_8/tower_1/conv/batchnorm/gamma:0",dtype:float32,shape:[192]}
    in_363 {name:"mixed_8/tower_1/conv/batchnorm/beta:0",dtype:float32,shape:[192]}
    in_364 {name:"mixed_8/tower_1/conv/batchnorm/moving_mean:0",dtype:float32,shape:[192]}
    in_365 {name:"mixed_8/tower_1/conv/batchnorm/moving_variance:0",dtype:float32,shape:[192]}
    in_366 {name:"mixed_8/tower_1/conv_1/conv2d_params:0",dtype:float32,shape:[1, 7, 192, 192]}
    in_367 {name:"mixed_8/tower_1/conv_1/batchnorm/gamma:0",dtype:float32,shape:[192]}
    in_368 {name:"mixed_8/tower_1/conv_1/batchnorm/beta:0",dtype:float32,shape:[192]}
    in_369 {name:"mixed_8/tower_1/conv_1/batchnorm/moving_mean:0",dtype:float32,shape:[192]}
    in_370 {name:"mixed_8/tower_1/conv_1/batchnorm/moving_variance:0",dtype:float32,shape:[192]}
    in_371 {name:"mixed_8/tower_1/conv_2/conv2d_params:0",dtype:float32,shape:[7, 1, 192, 192]}
    in_372 {name:"mixed_8/tower_1/conv_2/batchnorm/gamma:0",dtype:float32,shape:[192]}
    in_373 {name:"mixed_8/tower_1/conv_2/batchnorm/beta:0",dtype:float32,shape:[192]}
    in_374 {name:"mixed_8/tower_1/conv_2/batchnorm/moving_mean:0",dtype:float32,shape:[192]}
    in_375 {name:"mixed_8/tower_1/conv_2/batchnorm/moving_variance:0",dtype:float32,shape:[192]}
    in_376 {name:"mixed_8/tower_1/conv_3/conv2d_params:0",dtype:float32,shape:[3, 3, 192, 192]}
    in_377 {name:"mixed_8/tower_1/conv_3/batchnorm/gamma:0",dtype:float32,shape:[192]}
    in_378 {name:"mixed_8/tower_1/conv_3/batchnorm/beta:0",dtype:float32,shape:[192]}
    in_379 {name:"mixed_8/tower_1/conv_3/batchnorm/moving_mean:0",dtype:float32,shape:[192]}
    in_380 {name:"mixed_8/tower_1/conv_3/batchnorm/moving_variance:0",dtype:float32,shape:[192]}
    in_381 {name:"mixed_9/conv/conv2d_params:0",dtype:float32,shape:[1, 1, 1280, 320]}
    in_382 {name:"mixed_9/conv/batchnorm/gamma:0",dtype:float32,shape:[320]}
    in_383 {name:"mixed_9/conv/batchnorm/beta:0",dtype:float32,shape:[320]}
    in_384 {name:"mixed_9/conv/batchnorm/moving_mean:0",dtype:float32,shape:[320]}
    in_385 {name:"mixed_9/conv/batchnorm/moving_variance:0",dtype:float32,shape:[320]}
    in_386 {name:"mixed_9/tower/conv/conv2d_params:0",dtype:float32,shape:[1, 1, 1280, 384]}
    in_387 {name:"mixed_9/tower/conv/batchnorm/gamma:0",dtype:float32,shape:[384]}
    in_388 {name:"mixed_9/tower/conv/batchnorm/beta:0",dtype:float32,shape:[384]}
    in_389 {name:"mixed_9/tower/conv/batchnorm/moving_mean:0",dtype:float32,shape:[384]}
    in_390 {name:"mixed_9/tower/conv/batchnorm/moving_variance:0",dtype:float32,shape:[384]}
    in_391 {name:"mixed_9/tower/mixed/conv/conv2d_params:0",dtype:float32,shape:[1, 3, 384, 384]}
    in_392 {name:"mixed_9/tower/mixed/conv/batchnorm/gamma:0",dtype:float32,shape:[384]}
    in_393 {name:"mixed_9/tower/mixed/conv/batchnorm/beta:0",dtype:float32,shape:[384]}
    in_394 {name:"mixed_9/tower/mixed/conv/batchnorm/moving_mean:0",dtype:float32,shape:[384]}
    in_395 {name:"mixed_9/tower/mixed/conv/batchnorm/moving_variance:0",dtype:float32,shape:[384]}
    in_396 {name:"mixed_9/tower/mixed/conv_1/conv2d_params:0",dtype:float32,shape:[3, 1, 384, 384]}
    in_397 {name:"mixed_9/tower/mixed/conv_1/batchnorm/gamma:0",dtype:float32,shape:[384]}
    in_398 {name:"mixed_9/tower/mixed/conv_1/batchnorm/beta:0",dtype:float32,shape:[384]}
    in_399 {name:"mixed_9/tower/mixed/conv_1/batchnorm/moving_mean:0",dtype:float32,shape:[384]}
    in_400 {name:"mixed_9/tower/mixed/conv_1/batchnorm/moving_variance:0",dtype:float32,shape:[384]}
    in_401 {name:"mixed_9/tower_1/conv/conv2d_params:0",dtype:float32,shape:[1, 1, 1280, 448]}
    in_402 {name:"mixed_9/tower_1/conv/batchnorm/gamma:0",dtype:float32,shape:[448]}
    in_403 {name:"mixed_9/tower_1/conv/batchnorm/beta:0",dtype:float32,shape:[448]}
    in_404 {name:"mixed_9/tower_1/conv/batchnorm/moving_mean:0",dtype:float32,shape:[448]}
    in_405 {name:"mixed_9/tower_1/conv/batchnorm/moving_variance:0",dtype:float32,shape:[448]}
    in_406 {name:"mixed_9/tower_1/conv_1/conv2d_params:0",dtype:float32,shape:[3, 3, 448, 384]}
    in_407 {name:"mixed_9/tower_1/conv_1/batchnorm/gamma:0",dtype:float32,shape:[384]}
    in_408 {name:"mixed_9/tower_1/conv_1/batchnorm/beta:0",dtype:float32,shape:[384]}
    in_409 {name:"mixed_9/tower_1/conv_1/batchnorm/moving_mean:0",dtype:float32,shape:[384]}
    in_410 {name:"mixed_9/tower_1/conv_1/batchnorm/moving_variance:0",dtype:float32,shape:[384]}
    in_411 {name:"mixed_9/tower_1/mixed/conv/conv2d_params:0",dtype:float32,shape:[1, 3, 384, 384]}
    in_412 {name:"mixed_9/tower_1/mixed/conv/batchnorm/gamma:0",dtype:float32,shape:[384]}
    in_413 {name:"mixed_9/tower_1/mixed/conv/batchnorm/beta:0",dtype:float32,shape:[384]}
    in_414 {name:"mixed_9/tower_1/mixed/conv/batchnorm/moving_mean:0",dtype:float32,shape:[384]}
    in_415 {name:"mixed_9/tower_1/mixed/conv/batchnorm/moving_variance:0",dtype:float32,shape:[384]}
    in_416 {name:"mixed_9/tower_1/mixed/conv_1/conv2d_params:0",dtype:float32,shape:[3, 1, 384, 384]}
    in_417 {name:"mixed_9/tower_1/mixed/conv_1/batchnorm/gamma:0",dtype:float32,shape:[384]}
    in_418 {name:"mixed_9/tower_1/mixed/conv_1/batchnorm/beta:0",dtype:float32,shape:[384]}
    in_419 {name:"mixed_9/tower_1/mixed/conv_1/batchnorm/moving_mean:0",dtype:float32,shape:[384]}
    in_420 {name:"mixed_9/tower_1/mixed/conv_1/batchnorm/moving_variance:0",dtype:float32,shape:[384]}
    in_421 {name:"mixed_9/tower_2/conv/conv2d_params:0",dtype:float32,shape:[1, 1, 1280, 192]}
    in_422 {name:"mixed_9/tower_2/conv/batchnorm/gamma:0",dtype:float32,shape:[192]}
    in_423 {name:"mixed_9/tower_2/conv/batchnorm/beta:0",dtype:float32,shape:[192]}
    in_424 {name:"mixed_9/tower_2/conv/batchnorm/moving_mean:0",dtype:float32,shape:[192]}
    in_425 {name:"mixed_9/tower_2/conv/batchnorm/moving_variance:0",dtype:float32,shape:[192]}
    in_426 {name:"mixed_10/conv/conv2d_params:0",dtype:float32,shape:[1, 1, 2048, 320]}
    in_427 {name:"mixed_10/conv/batchnorm/gamma:0",dtype:float32,shape:[320]}
    in_428 {name:"mixed_10/conv/batchnorm/beta:0",dtype:float32,shape:[320]}
    in_429 {name:"mixed_10/conv/batchnorm/moving_mean:0",dtype:float32,shape:[320]}
    in_430 {name:"mixed_10/conv/batchnorm/moving_variance:0",dtype:float32,shape:[320]}
    in_431 {name:"mixed_10/tower/conv/conv2d_params:0",dtype:float32,shape:[1, 1, 2048, 384]}
    in_432 {name:"mixed_10/tower/conv/batchnorm/gamma:0",dtype:float32,shape:[384]}
    in_433 {name:"mixed_10/tower/conv/batchnorm/beta:0",dtype:float32,shape:[384]}
    in_434 {name:"mixed_10/tower/conv/batchnorm/moving_mean:0",dtype:float32,shape:[384]}
    in_435 {name:"mixed_10/tower/conv/batchnorm/moving_variance:0",dtype:float32,shape:[384]}
    in_436 {name:"mixed_10/tower/mixed/conv/conv2d_params:0",dtype:float32,shape:[1, 3, 384, 384]}
    in_437 {name:"mixed_10/tower/mixed/conv/batchnorm/gamma:0",dtype:float32,shape:[384]}
    in_438 {name:"mixed_10/tower/mixed/conv/batchnorm/beta:0",dtype:float32,shape:[384]}
    in_439 {name:"mixed_10/tower/mixed/conv/batchnorm/moving_mean:0",dtype:float32,shape:[384]}
    in_440 {name:"mixed_10/tower/mixed/conv/batchnorm/moving_variance:0",dtype:float32,shape:[384]}
    in_441 {name:"mixed_10/tower/mixed/conv_1/conv2d_params:0",dtype:float32,shape:[3, 1, 384, 384]}
    in_442 {name:"mixed_10/tower/mixed/conv_1/batchnorm/gamma:0",dtype:float32,shape:[384]}
    in_443 {name:"mixed_10/tower/mixed/conv_1/batchnorm/beta:0",dtype:float32,shape:[384]}
    in_444 {name:"mixed_10/tower/mixed/conv_1/batchnorm/moving_mean:0",dtype:float32,shape:[384]}
    in_445 {name:"mixed_10/tower/mixed/conv_1/batchnorm/moving_variance:0",dtype:float32,shape:[384]}
    in_446 {name:"mixed_10/tower_1/conv/conv2d_params:0",dtype:float32,shape:[1, 1, 2048, 448]}
    in_447 {name:"mixed_10/tower_1/conv/batchnorm/gamma:0",dtype:float32,shape:[448]}
    in_448 {name:"mixed_10/tower_1/conv/batchnorm/beta:0",dtype:float32,shape:[448]}
    in_449 {name:"mixed_10/tower_1/conv/batchnorm/moving_mean:0",dtype:float32,shape:[448]}
    in_450 {name:"mixed_10/tower_1/conv/batchnorm/moving_variance:0",dtype:float32,shape:[448]}
    in_451 {name:"mixed_10/tower_1/conv_1/conv2d_params:0",dtype:float32,shape:[3, 3, 448, 384]}
    in_452 {name:"mixed_10/tower_1/conv_1/batchnorm/gamma:0",dtype:float32,shape:[384]}
    in_453 {name:"mixed_10/tower_1/conv_1/batchnorm/beta:0",dtype:float32,shape:[384]}
    in_454 {name:"mixed_10/tower_1/conv_1/batchnorm/moving_mean:0",dtype:float32,shape:[384]}
    in_455 {name:"mixed_10/tower_1/conv_1/batchnorm/moving_variance:0",dtype:float32,shape:[384]}
    in_456 {name:"mixed_10/tower_1/mixed/conv/conv2d_params:0",dtype:float32,shape:[1, 3, 384, 384]}
    in_457 {name:"mixed_10/tower_1/mixed/conv/batchnorm/gamma:0",dtype:float32,shape:[384]}
    in_458 {name:"mixed_10/tower_1/mixed/conv/batchnorm/beta:0",dtype:float32,shape:[384]}
    in_459 {name:"mixed_10/tower_1/mixed/conv/batchnorm/moving_mean:0",dtype:float32,shape:[384]}
    in_460 {name:"mixed_10/tower_1/mixed/conv/batchnorm/moving_variance:0",dtype:float32,shape:[384]}
    in_461 {name:"mixed_10/tower_1/mixed/conv_1/conv2d_params:0",dtype:float32,shape:[3, 1, 384, 384]}
    in_462 {name:"mixed_10/tower_1/mixed/conv_1/batchnorm/gamma:0",dtype:float32,shape:[384]}
    in_463 {name:"mixed_10/tower_1/mixed/conv_1/batchnorm/beta:0",dtype:float32,shape:[384]}
    in_464 {name:"mixed_10/tower_1/mixed/conv_1/batchnorm/moving_mean:0",dtype:float32,shape:[384]}
    in_465 {name:"mixed_10/tower_1/mixed/conv_1/batchnorm/moving_variance:0",dtype:float32,shape:[384]}
    in_466 {name:"mixed_10/tower_2/conv/conv2d_params:0",dtype:float32,shape:[1, 1, 2048, 192]}
    in_467 {name:"mixed_10/tower_2/conv/batchnorm/gamma:0",dtype:float32,shape:[192]}
    in_468 {name:"mixed_10/tower_2/conv/batchnorm/beta:0",dtype:float32,shape:[192]}
    in_469 {name:"mixed_10/tower_2/conv/batchnorm/moving_mean:0",dtype:float32,shape:[192]}
    in_470 {name:"mixed_10/tower_2/conv/batchnorm/moving_variance:0",dtype:float32,shape:[192]}
    in_471 {name:"softmax/weights:0",dtype:float32,shape:[2048, 1008]}
    in_472 {name:"softmax/biases:0",dtype:float32,shape:[1008]}
    in_473 {name:"Node_1721:0",dtype:float32,shape:[1, 1008]}
    out_0 {name:"Node_1722:0",dtype:float32,shape:[1, 1008]}
  }
}
