name : "relay_ir"
layer {
  name:"input0"
  type:"input"
  top:"input0"
  layer_param {
    idx:0
    out_0 {name:"input0:0",dtype:float32,shape:[1, 3, 224, 224]}
  }
}
layer {
  name:"storage_0"
  type:"var"
  top:"storage_0"
  bottom:"Node_2"
  layer_param {
    idx:1
    in_0 {name:"Node_2:0",dtype:float32,shape:[602112, 64]}
    out_0 {name:"storage_0:0",dtype:,shape:[]}
  }
}
layer {
  name:"Node_2"
  type:"memory_alloc_storage"
  top:"Node_2"
  layer_param {
    idx:2
    out_0 {name:"Node_2:0",dtype:float32,shape:[602112, 64]}
    attrs {'dtype': 'float32', 'device_id': 0, 'device_type': 1}
  }
}
layer {
  name:"tensor_0"
  type:"var"
  top:"tensor_0"
  bottom:"Node_5"
  layer_param {
    idx:3
    in_0 {name:"Node_5:0",dtype:float32,shape:[1, 1, 224, 224, 3]}
    out_0 {name:"tensor_0:0",dtype:float32,shape:[1, 1, 224, 224, 3]}
  }
}
layer {
  name:"Node_5"
  type:"memory_alloc_tensor"
  top:"Node_5"
  bottom:"storage_0"
  layer_param {
    idx:5
    in_0 {name:"storage_0:0",dtype:,shape:[]}
    out_0 {name:"Node_5:0",dtype:float32,shape:[1, 1, 224, 224, 3]}
    attrs {'dtype': 'float32', 'const_shape': None, 'assert_shape': [1, 1, 224, 224, 3]}
  }
}
layer {
  name:"x"
  type:"var"
  top:"x"
  bottom:"Node_17"
  layer_param {
    idx:6
    in_0 {name:"Node_17:0",dtype:,shape:[]}
    out_0 {name:"x:0",dtype:,shape:[]}
  }
}
layer {
  name:"p0"
  type:"input"
  top:"p0"
  layer_param {
    idx:8
    out_0 {name:"p0:0",dtype:float32,shape:[1, 3, 224, 224]}
  }
}
layer {
  name:"Node_11"
  type:"layout_transform"
  top:"Node_11"
  bottom:"p0"
  layer_param {
    idx:11
    in_0 {name:"p0:0",dtype:float32,shape:[1, 3, 224, 224]}
    out_0 {name:"Node_11:0",dtype:float32,shape:[1, 1, 224, 224, 3]}
    attrs {'src_layout': 'NCHW', 'dst_layout': 'NCHW3c'}
  }
}
layer {
  name:"Node_12"
  type:"function"
  top:"Node_12"
  bottom:"p0"
  bottom:"Node_11"
  layer_param {
    idx:12
    in_0 {name:"p0:0",dtype:float32,shape:[1, 3, 224, 224]}
    in_1 {name:"Node_11:0",dtype:float32,shape:[1, 1, 224, 224, 3]}
    out_0 {name:"Node_12:0",dtype:float32,shape:[1, 1, 224, 224, 3]}
  }
}
layer {
  name:"Node_14"
  type:"tuple"
  top:"Node_14"
  bottom:"input0"
  layer_param {
    idx:14
    in_0 {name:"input0:0",dtype:float32,shape:[1, 3, 224, 224]}
    out_0 {name:"Node_14:0",dtype:,shape:[]}
  }
}
layer {
  name:"Node_16"
  type:"tuple"
  top:"Node_16"
  bottom:"tensor_0"
  layer_param {
    idx:16
    in_0 {name:"tensor_0:0",dtype:float32,shape:[1, 1, 224, 224, 3]}
    out_0 {name:"Node_16:0",dtype:,shape:[]}
  }
}
layer {
  name:"Node_17"
  type:"vm_invoke_tvm_op"
  top:"Node_17"
  bottom:"Node_12"
  bottom:"Node_14"
  bottom:"Node_16"
  layer_param {
    idx:17
    in_0 {name:"Node_12:0",dtype:float32,shape:[1, 1, 224, 224, 3]}
    in_1 {name:"Node_14:0",dtype:,shape:[]}
    in_2 {name:"Node_16:0",dtype:,shape:[]}
    out_0 {name:"Node_17:0",dtype:,shape:[]}
  }
}
layer {
  name:"x_1"
  type:"var"
  top:"x_1"
  bottom:"tensor_0"
  layer_param {
    idx:18
    in_0 {name:"tensor_0:0",dtype:float32,shape:[1, 1, 224, 224, 3]}
    out_0 {name:"x:0",dtype:float32,shape:[1, 1, 224, 224, 3]}
  }
}
layer {
  name:"storage_0_1"
  type:"var"
  top:"storage_0_1"
  bottom:"Node_21"
  layer_param {
    idx:20
    in_0 {name:"Node_21:0",dtype:float32,shape:[3211264, 64]}
    out_0 {name:"storage_0:0",dtype:,shape:[]}
  }
}
layer {
  name:"Node_21"
  type:"memory_alloc_storage"
  top:"Node_21"
  layer_param {
    idx:21
    out_0 {name:"Node_21:0",dtype:float32,shape:[3211264, 64]}
    attrs {'dtype': 'float32', 'device_id': 0, 'device_type': 1}
  }
}
layer {
  name:"tensor_0_1"
  type:"var"
  top:"tensor_0_1"
  bottom:"Node_24"
  layer_param {
    idx:22
    in_0 {name:"Node_24:0",dtype:float32,shape:[1, 8, 112, 112, 8]}
    out_0 {name:"tensor_0:0",dtype:float32,shape:[1, 8, 112, 112, 8]}
  }
}
layer {
  name:"Node_24"
  type:"memory_alloc_tensor"
  top:"Node_24"
  bottom:"storage_0_1"
  layer_param {
    idx:24
    in_0 {name:"storage_0:0",dtype:,shape:[]}
    out_0 {name:"Node_24:0",dtype:float32,shape:[1, 8, 112, 112, 8]}
    attrs {'dtype': 'float32', 'const_shape': None, 'assert_shape': [1, 8, 112, 112, 8]}
  }
}
layer {
  name:"x_2"
  type:"var"
  top:"x_2"
  bottom:"Node_46"
  layer_param {
    idx:25
    in_0 {name:"Node_46:0",dtype:,shape:[]}
    out_0 {name:"x:0",dtype:,shape:[]}
  }
}
layer {
  name:"p0_1"
  type:"input"
  top:"p0_1"
  layer_param {
    idx:27
    out_0 {name:"p0:0",dtype:float32,shape:[1, 1, 224, 224, 3]}
  }
}
layer {
  name:"p1"
  type:"input"
  top:"p1"
  layer_param {
    idx:28
    out_0 {name:"p1:0",dtype:float32,shape:[8, 1, 7, 7, 3, 8]}
  }
}
layer {
  name:"p2"
  type:"input"
  top:"p2"
  layer_param {
    idx:29
    out_0 {name:"p2:0",dtype:float32,shape:[1, 8, 1, 1, 8]}
  }
}
layer {
  name:"Node_35"
  type:"nn_contrib_conv2d_NCHWc"
  top:"Node_35"
  bottom:"p0_1"
  bottom:"p1"
  layer_param {
    idx:35
    in_0 {name:"p0:0",dtype:float32,shape:[1, 1, 224, 224, 3]}
    in_1 {name:"p1:0",dtype:float32,shape:[8, 1, 7, 7, 3, 8]}
    out_0 {name:"Node_35:0",dtype:float32,shape:[1, 8, 112, 112, 8]}
    attrs {'strides': [2, 2], 'padding': [3, 3, 3, 3], 'dilation': [1, 1], 'groups': 1, 'channels': 64, 'kernel_size': [7, 7], 'data_layout': 'NCHW3c', 'kernel_layout': 'OIHW3i8o', 'out_layout': 'NCHW8c', 'out_dtype': ''}
  }
}
layer {
  name:"Node_37"
  type:"add"
  top:"Node_37"
  bottom:"Node_35"
  bottom:"p2"
  layer_param {
    idx:37
    in_0 {name:"Node_35:0",dtype:float32,shape:[1, 8, 112, 112, 8]}
    in_1 {name:"p2:0",dtype:float32,shape:[1, 8, 1, 1, 8]}
    out_0 {name:"Node_37:0",dtype:float32,shape:[1, 8, 112, 112, 8]}
  }
}
layer {
  name:"Node_38"
  type:"nn_relu"
  top:"Node_38"
  bottom:"Node_37"
  layer_param {
    idx:38
    in_0 {name:"Node_37:0",dtype:float32,shape:[1, 8, 112, 112, 8]}
    out_0 {name:"Node_38:0",dtype:float32,shape:[1, 8, 112, 112, 8]}
  }
}
layer {
  name:"Node_39"
  type:"function"
  top:"Node_39"
  bottom:"p0_1"
  bottom:"p1"
  bottom:"p2"
  bottom:"Node_38"
  layer_param {
    idx:39
    in_0 {name:"p0:0",dtype:float32,shape:[1, 1, 224, 224, 3]}
    in_1 {name:"p1:0",dtype:float32,shape:[8, 1, 7, 7, 3, 8]}
    in_2 {name:"p2:0",dtype:float32,shape:[1, 8, 1, 1, 8]}
    in_3 {name:"Node_38:0",dtype:float32,shape:[1, 8, 112, 112, 8]}
    out_0 {name:"Node_39:0",dtype:float32,shape:[1, 8, 112, 112, 8]}
  }
}
layer {
  name:"Node_41"
  type:"const"
  top:"Node_41"
  layer_param {
    idx:41
    out_0 {name:"Node_41:0",dtype:float32,shape:[8, 1, 7, 7, 3, 8]}
  }
}
layer {
  name:"Node_42"
  type:"const"
  top:"Node_42"
  layer_param {
    idx:42
    out_0 {name:"Node_42:0",dtype:float32,shape:[1, 8, 1, 1, 8]}
  }
}
layer {
  name:"Node_43"
  type:"tuple"
  top:"Node_43"
  bottom:"x_1"
  bottom:"Node_41"
  bottom:"Node_42"
  layer_param {
    idx:43
    in_0 {name:"x:0",dtype:float32,shape:[1, 1, 224, 224, 3]}
    in_1 {name:"Node_41:0",dtype:float32,shape:[8, 1, 7, 7, 3, 8]}
    in_2 {name:"Node_42:0",dtype:float32,shape:[1, 8, 1, 1, 8]}
    out_0 {name:"Node_43:0",dtype:,shape:[]}
  }
}
layer {
  name:"Node_45"
  type:"tuple"
  top:"Node_45"
  bottom:"tensor_0_1"
  layer_param {
    idx:45
    in_0 {name:"tensor_0:0",dtype:float32,shape:[1, 8, 112, 112, 8]}
    out_0 {name:"Node_45:0",dtype:,shape:[]}
  }
}
layer {
  name:"Node_46"
  type:"vm_invoke_tvm_op"
  top:"Node_46"
  bottom:"Node_39"
  bottom:"Node_43"
  bottom:"Node_45"
  layer_param {
    idx:46
    in_0 {name:"Node_39:0",dtype:float32,shape:[1, 8, 112, 112, 8]}
    in_1 {name:"Node_43:0",dtype:,shape:[]}
    in_2 {name:"Node_45:0",dtype:,shape:[]}
    out_0 {name:"Node_46:0",dtype:,shape:[]}
  }
}
layer {
  name:"x_3"
  type:"var"
  top:"x_3"
  bottom:"tensor_0_1"
  layer_param {
    idx:47
    in_0 {name:"tensor_0:0",dtype:float32,shape:[1, 8, 112, 112, 8]}
    out_0 {name:"x:0",dtype:float32,shape:[1, 8, 112, 112, 8]}
  }
}
layer {
  name:"storage_0_2"
  type:"var"
  top:"storage_0_2"
  bottom:"Node_50"
  layer_param {
    idx:49
    in_0 {name:"Node_50:0",dtype:float32,shape:[802816, 64]}
    out_0 {name:"storage_0:0",dtype:,shape:[]}
  }
}
layer {
  name:"Node_50"
  type:"memory_alloc_storage"
  top:"Node_50"
  layer_param {
    idx:50
    out_0 {name:"Node_50:0",dtype:float32,shape:[802816, 64]}
    attrs {'dtype': 'float32', 'device_id': 0, 'device_type': 1}
  }
}
layer {
  name:"tensor_0_2"
  type:"var"
  top:"tensor_0_2"
  bottom:"Node_53"
  layer_param {
    idx:51
    in_0 {name:"Node_53:0",dtype:float32,shape:[1, 8, 56, 56, 8]}
    out_0 {name:"tensor_0:0",dtype:float32,shape:[1, 8, 56, 56, 8]}
  }
}
layer {
  name:"Node_53"
  type:"memory_alloc_tensor"
  top:"Node_53"
  bottom:"storage_0_2"
  layer_param {
    idx:53
    in_0 {name:"storage_0:0",dtype:,shape:[]}
    out_0 {name:"Node_53:0",dtype:float32,shape:[1, 8, 56, 56, 8]}
    attrs {'dtype': 'float32', 'const_shape': None, 'assert_shape': [1, 8, 56, 56, 8]}
  }
}
layer {
  name:"x_4"
  type:"var"
  top:"x_4"
  bottom:"Node_65"
  layer_param {
    idx:54
    in_0 {name:"Node_65:0",dtype:,shape:[]}
    out_0 {name:"x:0",dtype:,shape:[]}
  }
}
layer {
  name:"p0_2"
  type:"input"
  top:"p0_2"
  layer_param {
    idx:56
    out_0 {name:"p0:0",dtype:float32,shape:[1, 8, 112, 112, 8]}
  }
}
layer {
  name:"Node_59"
  type:"nn_max_pool2d"
  top:"Node_59"
  bottom:"p0_2"
  layer_param {
    idx:59
    in_0 {name:"p0:0",dtype:float32,shape:[1, 8, 112, 112, 8]}
    out_0 {name:"Node_59:0",dtype:float32,shape:[1, 8, 56, 56, 8]}
    attrs {'pool_size': [3, 3], 'strides': [2, 2], 'padding': [1, 1, 1, 1], 'layout': 'NCHW8c', 'ceil_mode': 0}
  }
}
layer {
  name:"Node_60"
  type:"function"
  top:"Node_60"
  bottom:"p0_2"
  bottom:"Node_59"
  layer_param {
    idx:60
    in_0 {name:"p0:0",dtype:float32,shape:[1, 8, 112, 112, 8]}
    in_1 {name:"Node_59:0",dtype:float32,shape:[1, 8, 56, 56, 8]}
    out_0 {name:"Node_60:0",dtype:float32,shape:[1, 8, 56, 56, 8]}
  }
}
layer {
  name:"Node_62"
  type:"tuple"
  top:"Node_62"
  bottom:"x_3"
  layer_param {
    idx:62
    in_0 {name:"x:0",dtype:float32,shape:[1, 8, 112, 112, 8]}
    out_0 {name:"Node_62:0",dtype:,shape:[]}
  }
}
layer {
  name:"Node_64"
  type:"tuple"
  top:"Node_64"
  bottom:"tensor_0_2"
  layer_param {
    idx:64
    in_0 {name:"tensor_0:0",dtype:float32,shape:[1, 8, 56, 56, 8]}
    out_0 {name:"Node_64:0",dtype:,shape:[]}
  }
}
layer {
  name:"Node_65"
  type:"vm_invoke_tvm_op"
  top:"Node_65"
  bottom:"Node_60"
  bottom:"Node_62"
  bottom:"Node_64"
  layer_param {
    idx:65
    in_0 {name:"Node_60:0",dtype:float32,shape:[1, 8, 56, 56, 8]}
    in_1 {name:"Node_62:0",dtype:,shape:[]}
    in_2 {name:"Node_64:0",dtype:,shape:[]}
    out_0 {name:"Node_65:0",dtype:,shape:[]}
  }
}
layer {
  name:"x_5"
  type:"var"
  top:"x_5"
  bottom:"tensor_0_2"
  layer_param {
    idx:66
    in_0 {name:"tensor_0:0",dtype:float32,shape:[1, 8, 56, 56, 8]}
    out_0 {name:"x:0",dtype:float32,shape:[1, 8, 56, 56, 8]}
  }
}
layer {
  name:"storage_0_3"
  type:"var"
  top:"storage_0_3"
  bottom:"Node_69"
  layer_param {
    idx:68
    in_0 {name:"Node_69:0",dtype:float32,shape:[802816, 64]}
    out_0 {name:"storage_0:0",dtype:,shape:[]}
  }
}
layer {
  name:"Node_69"
  type:"memory_alloc_storage"
  top:"Node_69"
  layer_param {
    idx:69
    out_0 {name:"Node_69:0",dtype:float32,shape:[802816, 64]}
    attrs {'dtype': 'float32', 'device_id': 0, 'device_type': 1}
  }
}
layer {
  name:"tensor_0_3"
  type:"var"
  top:"tensor_0_3"
  bottom:"Node_72"
  layer_param {
    idx:70
    in_0 {name:"Node_72:0",dtype:float32,shape:[1, 8, 56, 56, 8]}
    out_0 {name:"tensor_0:0",dtype:float32,shape:[1, 8, 56, 56, 8]}
  }
}
layer {
  name:"Node_72"
  type:"memory_alloc_tensor"
  top:"Node_72"
  bottom:"storage_0_3"
  layer_param {
    idx:72
    in_0 {name:"storage_0:0",dtype:,shape:[]}
    out_0 {name:"Node_72:0",dtype:float32,shape:[1, 8, 56, 56, 8]}
    attrs {'dtype': 'float32', 'const_shape': None, 'assert_shape': [1, 8, 56, 56, 8]}
  }
}
layer {
  name:"x_6"
  type:"var"
  top:"x_6"
  bottom:"Node_94"
  layer_param {
    idx:73
    in_0 {name:"Node_94:0",dtype:,shape:[]}
    out_0 {name:"x:0",dtype:,shape:[]}
  }
}
layer {
  name:"p0_3"
  type:"input"
  top:"p0_3"
  layer_param {
    idx:75
    out_0 {name:"p0:0",dtype:float32,shape:[1, 8, 56, 56, 8]}
  }
}
layer {
  name:"p1_1"
  type:"input"
  top:"p1_1"
  layer_param {
    idx:76
    out_0 {name:"p1:0",dtype:float32,shape:[8, 8, 3, 3, 8, 8]}
  }
}
layer {
  name:"p2_1"
  type:"input"
  top:"p2_1"
  layer_param {
    idx:77
    out_0 {name:"p2:0",dtype:float32,shape:[1, 8, 1, 1, 8]}
  }
}
layer {
  name:"Node_83"
  type:"nn_contrib_conv2d_NCHWc"
  top:"Node_83"
  bottom:"p0_3"
  bottom:"p1_1"
  layer_param {
    idx:83
    in_0 {name:"p0:0",dtype:float32,shape:[1, 8, 56, 56, 8]}
    in_1 {name:"p1:0",dtype:float32,shape:[8, 8, 3, 3, 8, 8]}
    out_0 {name:"Node_83:0",dtype:float32,shape:[1, 8, 56, 56, 8]}
    attrs {'strides': [1, 1], 'padding': [1, 1, 1, 1], 'dilation': [1, 1], 'groups': 1, 'channels': 64, 'kernel_size': [3, 3], 'data_layout': 'NCHW8c', 'kernel_layout': 'OIHW8i8o', 'out_layout': 'NCHW8c', 'out_dtype': ''}
  }
}
layer {
  name:"Node_85"
  type:"add"
  top:"Node_85"
  bottom:"Node_83"
  bottom:"p2_1"
  layer_param {
    idx:85
    in_0 {name:"Node_83:0",dtype:float32,shape:[1, 8, 56, 56, 8]}
    in_1 {name:"p2:0",dtype:float32,shape:[1, 8, 1, 1, 8]}
    out_0 {name:"Node_85:0",dtype:float32,shape:[1, 8, 56, 56, 8]}
  }
}
layer {
  name:"Node_86"
  type:"nn_relu"
  top:"Node_86"
  bottom:"Node_85"
  layer_param {
    idx:86
    in_0 {name:"Node_85:0",dtype:float32,shape:[1, 8, 56, 56, 8]}
    out_0 {name:"Node_86:0",dtype:float32,shape:[1, 8, 56, 56, 8]}
  }
}
layer {
  name:"Node_87"
  type:"function"
  top:"Node_87"
  bottom:"p0_3"
  bottom:"p1_1"
  bottom:"p2_1"
  bottom:"Node_86"
  layer_param {
    idx:87
    in_0 {name:"p0:0",dtype:float32,shape:[1, 8, 56, 56, 8]}
    in_1 {name:"p1:0",dtype:float32,shape:[8, 8, 3, 3, 8, 8]}
    in_2 {name:"p2:0",dtype:float32,shape:[1, 8, 1, 1, 8]}
    in_3 {name:"Node_86:0",dtype:float32,shape:[1, 8, 56, 56, 8]}
    out_0 {name:"Node_87:0",dtype:float32,shape:[1, 8, 56, 56, 8]}
  }
}
layer {
  name:"Node_89"
  type:"const"
  top:"Node_89"
  layer_param {
    idx:89
    out_0 {name:"Node_89:0",dtype:float32,shape:[8, 8, 3, 3, 8, 8]}
  }
}
layer {
  name:"Node_90"
  type:"const"
  top:"Node_90"
  layer_param {
    idx:90
    out_0 {name:"Node_90:0",dtype:float32,shape:[1, 8, 1, 1, 8]}
  }
}
layer {
  name:"Node_91"
  type:"tuple"
  top:"Node_91"
  bottom:"x_5"
  bottom:"Node_89"
  bottom:"Node_90"
  layer_param {
    idx:91
    in_0 {name:"x:0",dtype:float32,shape:[1, 8, 56, 56, 8]}
    in_1 {name:"Node_89:0",dtype:float32,shape:[8, 8, 3, 3, 8, 8]}
    in_2 {name:"Node_90:0",dtype:float32,shape:[1, 8, 1, 1, 8]}
    out_0 {name:"Node_91:0",dtype:,shape:[]}
  }
}
layer {
  name:"Node_93"
  type:"tuple"
  top:"Node_93"
  bottom:"tensor_0_3"
  layer_param {
    idx:93
    in_0 {name:"tensor_0:0",dtype:float32,shape:[1, 8, 56, 56, 8]}
    out_0 {name:"Node_93:0",dtype:,shape:[]}
  }
}
layer {
  name:"Node_94"
  type:"vm_invoke_tvm_op"
  top:"Node_94"
  bottom:"Node_87"
  bottom:"Node_91"
  bottom:"Node_93"
  layer_param {
    idx:94
    in_0 {name:"Node_87:0",dtype:float32,shape:[1, 8, 56, 56, 8]}
    in_1 {name:"Node_91:0",dtype:,shape:[]}
    in_2 {name:"Node_93:0",dtype:,shape:[]}
    out_0 {name:"Node_94:0",dtype:,shape:[]}
  }
}
layer {
  name:"x_7"
  type:"var"
  top:"x_7"
  bottom:"tensor_0_3"
  layer_param {
    idx:95
    in_0 {name:"tensor_0:0",dtype:float32,shape:[1, 8, 56, 56, 8]}
    out_0 {name:"x:0",dtype:float32,shape:[1, 8, 56, 56, 8]}
  }
}
layer {
  name:"storage_0_4"
  type:"var"
  top:"storage_0_4"
  bottom:"Node_98"
  layer_param {
    idx:97
    in_0 {name:"Node_98:0",dtype:float32,shape:[802816, 64]}
    out_0 {name:"storage_0:0",dtype:,shape:[]}
  }
}
layer {
  name:"Node_98"
  type:"memory_alloc_storage"
  top:"Node_98"
  layer_param {
    idx:98
    out_0 {name:"Node_98:0",dtype:float32,shape:[802816, 64]}
    attrs {'dtype': 'float32', 'device_id': 0, 'device_type': 1}
  }
}
layer {
  name:"tensor_0_4"
  type:"var"
  top:"tensor_0_4"
  bottom:"Node_101"
  layer_param {
    idx:99
    in_0 {name:"Node_101:0",dtype:float32,shape:[1, 8, 56, 56, 8]}
    out_0 {name:"tensor_0:0",dtype:float32,shape:[1, 8, 56, 56, 8]}
  }
}
layer {
  name:"Node_101"
  type:"memory_alloc_tensor"
  top:"Node_101"
  bottom:"storage_0_4"
  layer_param {
    idx:101
    in_0 {name:"storage_0:0",dtype:,shape:[]}
    out_0 {name:"Node_101:0",dtype:float32,shape:[1, 8, 56, 56, 8]}
    attrs {'dtype': 'float32', 'const_shape': None, 'assert_shape': [1, 8, 56, 56, 8]}
  }
}
layer {
  name:"x_8"
  type:"var"
  top:"x_8"
  bottom:"Node_128"
  layer_param {
    idx:102
    in_0 {name:"Node_128:0",dtype:,shape:[]}
    out_0 {name:"x:0",dtype:,shape:[]}
  }
}
layer {
  name:"p0_4"
  type:"input"
  top:"p0_4"
  layer_param {
    idx:104
    out_0 {name:"p0:0",dtype:float32,shape:[1, 8, 56, 56, 8]}
  }
}
layer {
  name:"p1_2"
  type:"input"
  top:"p1_2"
  layer_param {
    idx:105
    out_0 {name:"p1:0",dtype:float32,shape:[8, 8, 3, 3, 8, 8]}
  }
}
layer {
  name:"p2_2"
  type:"input"
  top:"p2_2"
  layer_param {
    idx:106
    out_0 {name:"p2:0",dtype:float32,shape:[1, 8, 1, 1, 8]}
  }
}
layer {
  name:"p3"
  type:"input"
  top:"p3"
  layer_param {
    idx:107
    out_0 {name:"p3:0",dtype:float32,shape:[1, 8, 56, 56, 8]}
  }
}
layer {
  name:"Node_114"
  type:"nn_contrib_conv2d_NCHWc"
  top:"Node_114"
  bottom:"p0_4"
  bottom:"p1_2"
  layer_param {
    idx:114
    in_0 {name:"p0:0",dtype:float32,shape:[1, 8, 56, 56, 8]}
    in_1 {name:"p1:0",dtype:float32,shape:[8, 8, 3, 3, 8, 8]}
    out_0 {name:"Node_114:0",dtype:float32,shape:[1, 8, 56, 56, 8]}
    attrs {'strides': [1, 1], 'padding': [1, 1, 1, 1], 'dilation': [1, 1], 'groups': 1, 'channels': 64, 'kernel_size': [3, 3], 'data_layout': 'NCHW8c', 'kernel_layout': 'OIHW8i8o', 'out_layout': 'NCHW8c', 'out_dtype': ''}
  }
}
layer {
  name:"Node_116"
  type:"add"
  top:"Node_116"
  bottom:"Node_114"
  bottom:"p2_2"
  layer_param {
    idx:116
    in_0 {name:"Node_114:0",dtype:float32,shape:[1, 8, 56, 56, 8]}
    in_1 {name:"p2:0",dtype:float32,shape:[1, 8, 1, 1, 8]}
    out_0 {name:"Node_116:0",dtype:float32,shape:[1, 8, 56, 56, 8]}
  }
}
layer {
  name:"Node_118"
  type:"add"
  top:"Node_118"
  bottom:"Node_116"
  bottom:"p3"
  layer_param {
    idx:118
    in_0 {name:"Node_116:0",dtype:float32,shape:[1, 8, 56, 56, 8]}
    in_1 {name:"p3:0",dtype:float32,shape:[1, 8, 56, 56, 8]}
    out_0 {name:"Node_118:0",dtype:float32,shape:[1, 8, 56, 56, 8]}
  }
}
layer {
  name:"Node_119"
  type:"nn_relu"
  top:"Node_119"
  bottom:"Node_118"
  layer_param {
    idx:119
    in_0 {name:"Node_118:0",dtype:float32,shape:[1, 8, 56, 56, 8]}
    out_0 {name:"Node_119:0",dtype:float32,shape:[1, 8, 56, 56, 8]}
  }
}
layer {
  name:"Node_120"
  type:"function"
  top:"Node_120"
  bottom:"p0_4"
  bottom:"p1_2"
  bottom:"p2_2"
  bottom:"p3"
  bottom:"Node_119"
  layer_param {
    idx:120
    in_0 {name:"p0:0",dtype:float32,shape:[1, 8, 56, 56, 8]}
    in_1 {name:"p1:0",dtype:float32,shape:[8, 8, 3, 3, 8, 8]}
    in_2 {name:"p2:0",dtype:float32,shape:[1, 8, 1, 1, 8]}
    in_3 {name:"p3:0",dtype:float32,shape:[1, 8, 56, 56, 8]}
    in_4 {name:"Node_119:0",dtype:float32,shape:[1, 8, 56, 56, 8]}
    out_0 {name:"Node_120:0",dtype:float32,shape:[1, 8, 56, 56, 8]}
  }
}
layer {
  name:"Node_122"
  type:"const"
  top:"Node_122"
  layer_param {
    idx:122
    out_0 {name:"Node_122:0",dtype:float32,shape:[8, 8, 3, 3, 8, 8]}
  }
}
layer {
  name:"Node_123"
  type:"const"
  top:"Node_123"
  layer_param {
    idx:123
    out_0 {name:"Node_123:0",dtype:float32,shape:[1, 8, 1, 1, 8]}
  }
}
layer {
  name:"Node_125"
  type:"tuple"
  top:"Node_125"
  bottom:"x_7"
  bottom:"Node_122"
  bottom:"Node_123"
  bottom:"x_5"
  layer_param {
    idx:125
    in_0 {name:"x:0",dtype:float32,shape:[1, 8, 56, 56, 8]}
    in_1 {name:"Node_122:0",dtype:float32,shape:[8, 8, 3, 3, 8, 8]}
    in_2 {name:"Node_123:0",dtype:float32,shape:[1, 8, 1, 1, 8]}
    in_3 {name:"x:0",dtype:float32,shape:[1, 8, 56, 56, 8]}
    out_0 {name:"Node_125:0",dtype:,shape:[]}
  }
}
layer {
  name:"Node_127"
  type:"tuple"
  top:"Node_127"
  bottom:"tensor_0_4"
  layer_param {
    idx:127
    in_0 {name:"tensor_0:0",dtype:float32,shape:[1, 8, 56, 56, 8]}
    out_0 {name:"Node_127:0",dtype:,shape:[]}
  }
}
layer {
  name:"Node_128"
  type:"vm_invoke_tvm_op"
  top:"Node_128"
  bottom:"Node_120"
  bottom:"Node_125"
  bottom:"Node_127"
  layer_param {
    idx:128
    in_0 {name:"Node_120:0",dtype:float32,shape:[1, 8, 56, 56, 8]}
    in_1 {name:"Node_125:0",dtype:,shape:[]}
    in_2 {name:"Node_127:0",dtype:,shape:[]}
    out_0 {name:"Node_128:0",dtype:,shape:[]}
  }
}
layer {
  name:"x_9"
  type:"var"
  top:"x_9"
  bottom:"tensor_0_4"
  layer_param {
    idx:129
    in_0 {name:"tensor_0:0",dtype:float32,shape:[1, 8, 56, 56, 8]}
    out_0 {name:"x:0",dtype:float32,shape:[1, 8, 56, 56, 8]}
  }
}
layer {
  name:"storage_0_5"
  type:"var"
  top:"storage_0_5"
  bottom:"Node_132"
  layer_param {
    idx:131
    in_0 {name:"Node_132:0",dtype:float32,shape:[802816, 64]}
    out_0 {name:"storage_0:0",dtype:,shape:[]}
  }
}
layer {
  name:"Node_132"
  type:"memory_alloc_storage"
  top:"Node_132"
  layer_param {
    idx:132
    out_0 {name:"Node_132:0",dtype:float32,shape:[802816, 64]}
    attrs {'dtype': 'float32', 'device_id': 0, 'device_type': 1}
  }
}
layer {
  name:"tensor_0_5"
  type:"var"
  top:"tensor_0_5"
  bottom:"Node_135"
  layer_param {
    idx:133
    in_0 {name:"Node_135:0",dtype:float32,shape:[1, 8, 56, 56, 8]}
    out_0 {name:"tensor_0:0",dtype:float32,shape:[1, 8, 56, 56, 8]}
  }
}
layer {
  name:"Node_135"
  type:"memory_alloc_tensor"
  top:"Node_135"
  bottom:"storage_0_5"
  layer_param {
    idx:135
    in_0 {name:"storage_0:0",dtype:,shape:[]}
    out_0 {name:"Node_135:0",dtype:float32,shape:[1, 8, 56, 56, 8]}
    attrs {'dtype': 'float32', 'const_shape': None, 'assert_shape': [1, 8, 56, 56, 8]}
  }
}
layer {
  name:"x_10"
  type:"var"
  top:"x_10"
  bottom:"Node_157"
  layer_param {
    idx:136
    in_0 {name:"Node_157:0",dtype:,shape:[]}
    out_0 {name:"x:0",dtype:,shape:[]}
  }
}
layer {
  name:"p0_5"
  type:"input"
  top:"p0_5"
  layer_param {
    idx:138
    out_0 {name:"p0:0",dtype:float32,shape:[1, 8, 56, 56, 8]}
  }
}
layer {
  name:"p1_3"
  type:"input"
  top:"p1_3"
  layer_param {
    idx:139
    out_0 {name:"p1:0",dtype:float32,shape:[8, 8, 3, 3, 8, 8]}
  }
}
layer {
  name:"p2_3"
  type:"input"
  top:"p2_3"
  layer_param {
    idx:140
    out_0 {name:"p2:0",dtype:float32,shape:[1, 8, 1, 1, 8]}
  }
}
layer {
  name:"Node_146"
  type:"nn_contrib_conv2d_NCHWc"
  top:"Node_146"
  bottom:"p0_5"
  bottom:"p1_3"
  layer_param {
    idx:146
    in_0 {name:"p0:0",dtype:float32,shape:[1, 8, 56, 56, 8]}
    in_1 {name:"p1:0",dtype:float32,shape:[8, 8, 3, 3, 8, 8]}
    out_0 {name:"Node_146:0",dtype:float32,shape:[1, 8, 56, 56, 8]}
    attrs {'strides': [1, 1], 'padding': [1, 1, 1, 1], 'dilation': [1, 1], 'groups': 1, 'channels': 64, 'kernel_size': [3, 3], 'data_layout': 'NCHW8c', 'kernel_layout': 'OIHW8i8o', 'out_layout': 'NCHW8c', 'out_dtype': ''}
  }
}
layer {
  name:"Node_148"
  type:"add"
  top:"Node_148"
  bottom:"Node_146"
  bottom:"p2_3"
  layer_param {
    idx:148
    in_0 {name:"Node_146:0",dtype:float32,shape:[1, 8, 56, 56, 8]}
    in_1 {name:"p2:0",dtype:float32,shape:[1, 8, 1, 1, 8]}
    out_0 {name:"Node_148:0",dtype:float32,shape:[1, 8, 56, 56, 8]}
  }
}
layer {
  name:"Node_149"
  type:"nn_relu"
  top:"Node_149"
  bottom:"Node_148"
  layer_param {
    idx:149
    in_0 {name:"Node_148:0",dtype:float32,shape:[1, 8, 56, 56, 8]}
    out_0 {name:"Node_149:0",dtype:float32,shape:[1, 8, 56, 56, 8]}
  }
}
layer {
  name:"Node_150"
  type:"function"
  top:"Node_150"
  bottom:"p0_5"
  bottom:"p1_3"
  bottom:"p2_3"
  bottom:"Node_149"
  layer_param {
    idx:150
    in_0 {name:"p0:0",dtype:float32,shape:[1, 8, 56, 56, 8]}
    in_1 {name:"p1:0",dtype:float32,shape:[8, 8, 3, 3, 8, 8]}
    in_2 {name:"p2:0",dtype:float32,shape:[1, 8, 1, 1, 8]}
    in_3 {name:"Node_149:0",dtype:float32,shape:[1, 8, 56, 56, 8]}
    out_0 {name:"Node_150:0",dtype:float32,shape:[1, 8, 56, 56, 8]}
  }
}
layer {
  name:"Node_152"
  type:"const"
  top:"Node_152"
  layer_param {
    idx:152
    out_0 {name:"Node_152:0",dtype:float32,shape:[8, 8, 3, 3, 8, 8]}
  }
}
layer {
  name:"Node_153"
  type:"const"
  top:"Node_153"
  layer_param {
    idx:153
    out_0 {name:"Node_153:0",dtype:float32,shape:[1, 8, 1, 1, 8]}
  }
}
layer {
  name:"Node_154"
  type:"tuple"
  top:"Node_154"
  bottom:"x_9"
  bottom:"Node_152"
  bottom:"Node_153"
  layer_param {
    idx:154
    in_0 {name:"x:0",dtype:float32,shape:[1, 8, 56, 56, 8]}
    in_1 {name:"Node_152:0",dtype:float32,shape:[8, 8, 3, 3, 8, 8]}
    in_2 {name:"Node_153:0",dtype:float32,shape:[1, 8, 1, 1, 8]}
    out_0 {name:"Node_154:0",dtype:,shape:[]}
  }
}
layer {
  name:"Node_156"
  type:"tuple"
  top:"Node_156"
  bottom:"tensor_0_5"
  layer_param {
    idx:156
    in_0 {name:"tensor_0:0",dtype:float32,shape:[1, 8, 56, 56, 8]}
    out_0 {name:"Node_156:0",dtype:,shape:[]}
  }
}
layer {
  name:"Node_157"
  type:"vm_invoke_tvm_op"
  top:"Node_157"
  bottom:"Node_150"
  bottom:"Node_154"
  bottom:"Node_156"
  layer_param {
    idx:157
    in_0 {name:"Node_150:0",dtype:float32,shape:[1, 8, 56, 56, 8]}
    in_1 {name:"Node_154:0",dtype:,shape:[]}
    in_2 {name:"Node_156:0",dtype:,shape:[]}
    out_0 {name:"Node_157:0",dtype:,shape:[]}
  }
}
layer {
  name:"x_11"
  type:"var"
  top:"x_11"
  bottom:"tensor_0_5"
  layer_param {
    idx:158
    in_0 {name:"tensor_0:0",dtype:float32,shape:[1, 8, 56, 56, 8]}
    out_0 {name:"x:0",dtype:float32,shape:[1, 8, 56, 56, 8]}
  }
}
layer {
  name:"storage_0_6"
  type:"var"
  top:"storage_0_6"
  bottom:"Node_161"
  layer_param {
    idx:160
    in_0 {name:"Node_161:0",dtype:float32,shape:[802816, 64]}
    out_0 {name:"storage_0:0",dtype:,shape:[]}
  }
}
layer {
  name:"Node_161"
  type:"memory_alloc_storage"
  top:"Node_161"
  layer_param {
    idx:161
    out_0 {name:"Node_161:0",dtype:float32,shape:[802816, 64]}
    attrs {'dtype': 'float32', 'device_id': 0, 'device_type': 1}
  }
}
layer {
  name:"tensor_0_6"
  type:"var"
  top:"tensor_0_6"
  bottom:"Node_164"
  layer_param {
    idx:162
    in_0 {name:"Node_164:0",dtype:float32,shape:[1, 8, 56, 56, 8]}
    out_0 {name:"tensor_0:0",dtype:float32,shape:[1, 8, 56, 56, 8]}
  }
}
layer {
  name:"Node_164"
  type:"memory_alloc_tensor"
  top:"Node_164"
  bottom:"storage_0_6"
  layer_param {
    idx:164
    in_0 {name:"storage_0:0",dtype:,shape:[]}
    out_0 {name:"Node_164:0",dtype:float32,shape:[1, 8, 56, 56, 8]}
    attrs {'dtype': 'float32', 'const_shape': None, 'assert_shape': [1, 8, 56, 56, 8]}
  }
}
layer {
  name:"x_12"
  type:"var"
  top:"x_12"
  bottom:"Node_191"
  layer_param {
    idx:165
    in_0 {name:"Node_191:0",dtype:,shape:[]}
    out_0 {name:"x:0",dtype:,shape:[]}
  }
}
layer {
  name:"p0_6"
  type:"input"
  top:"p0_6"
  layer_param {
    idx:167
    out_0 {name:"p0:0",dtype:float32,shape:[1, 8, 56, 56, 8]}
  }
}
layer {
  name:"p1_4"
  type:"input"
  top:"p1_4"
  layer_param {
    idx:168
    out_0 {name:"p1:0",dtype:float32,shape:[8, 8, 3, 3, 8, 8]}
  }
}
layer {
  name:"p2_4"
  type:"input"
  top:"p2_4"
  layer_param {
    idx:169
    out_0 {name:"p2:0",dtype:float32,shape:[1, 8, 1, 1, 8]}
  }
}
layer {
  name:"p3_1"
  type:"input"
  top:"p3_1"
  layer_param {
    idx:170
    out_0 {name:"p3:0",dtype:float32,shape:[1, 8, 56, 56, 8]}
  }
}
layer {
  name:"Node_177"
  type:"nn_contrib_conv2d_NCHWc"
  top:"Node_177"
  bottom:"p0_6"
  bottom:"p1_4"
  layer_param {
    idx:177
    in_0 {name:"p0:0",dtype:float32,shape:[1, 8, 56, 56, 8]}
    in_1 {name:"p1:0",dtype:float32,shape:[8, 8, 3, 3, 8, 8]}
    out_0 {name:"Node_177:0",dtype:float32,shape:[1, 8, 56, 56, 8]}
    attrs {'strides': [1, 1], 'padding': [1, 1, 1, 1], 'dilation': [1, 1], 'groups': 1, 'channels': 64, 'kernel_size': [3, 3], 'data_layout': 'NCHW8c', 'kernel_layout': 'OIHW8i8o', 'out_layout': 'NCHW8c', 'out_dtype': ''}
  }
}
layer {
  name:"Node_179"
  type:"add"
  top:"Node_179"
  bottom:"Node_177"
  bottom:"p2_4"
  layer_param {
    idx:179
    in_0 {name:"Node_177:0",dtype:float32,shape:[1, 8, 56, 56, 8]}
    in_1 {name:"p2:0",dtype:float32,shape:[1, 8, 1, 1, 8]}
    out_0 {name:"Node_179:0",dtype:float32,shape:[1, 8, 56, 56, 8]}
  }
}
layer {
  name:"Node_181"
  type:"add"
  top:"Node_181"
  bottom:"Node_179"
  bottom:"p3_1"
  layer_param {
    idx:181
    in_0 {name:"Node_179:0",dtype:float32,shape:[1, 8, 56, 56, 8]}
    in_1 {name:"p3:0",dtype:float32,shape:[1, 8, 56, 56, 8]}
    out_0 {name:"Node_181:0",dtype:float32,shape:[1, 8, 56, 56, 8]}
  }
}
layer {
  name:"Node_182"
  type:"nn_relu"
  top:"Node_182"
  bottom:"Node_181"
  layer_param {
    idx:182
    in_0 {name:"Node_181:0",dtype:float32,shape:[1, 8, 56, 56, 8]}
    out_0 {name:"Node_182:0",dtype:float32,shape:[1, 8, 56, 56, 8]}
  }
}
layer {
  name:"Node_183"
  type:"function"
  top:"Node_183"
  bottom:"p0_6"
  bottom:"p1_4"
  bottom:"p2_4"
  bottom:"p3_1"
  bottom:"Node_182"
  layer_param {
    idx:183
    in_0 {name:"p0:0",dtype:float32,shape:[1, 8, 56, 56, 8]}
    in_1 {name:"p1:0",dtype:float32,shape:[8, 8, 3, 3, 8, 8]}
    in_2 {name:"p2:0",dtype:float32,shape:[1, 8, 1, 1, 8]}
    in_3 {name:"p3:0",dtype:float32,shape:[1, 8, 56, 56, 8]}
    in_4 {name:"Node_182:0",dtype:float32,shape:[1, 8, 56, 56, 8]}
    out_0 {name:"Node_183:0",dtype:float32,shape:[1, 8, 56, 56, 8]}
  }
}
layer {
  name:"Node_185"
  type:"const"
  top:"Node_185"
  layer_param {
    idx:185
    out_0 {name:"Node_185:0",dtype:float32,shape:[8, 8, 3, 3, 8, 8]}
  }
}
layer {
  name:"Node_186"
  type:"const"
  top:"Node_186"
  layer_param {
    idx:186
    out_0 {name:"Node_186:0",dtype:float32,shape:[1, 8, 1, 1, 8]}
  }
}
layer {
  name:"Node_188"
  type:"tuple"
  top:"Node_188"
  bottom:"x_11"
  bottom:"Node_185"
  bottom:"Node_186"
  bottom:"x_9"
  layer_param {
    idx:188
    in_0 {name:"x:0",dtype:float32,shape:[1, 8, 56, 56, 8]}
    in_1 {name:"Node_185:0",dtype:float32,shape:[8, 8, 3, 3, 8, 8]}
    in_2 {name:"Node_186:0",dtype:float32,shape:[1, 8, 1, 1, 8]}
    in_3 {name:"x:0",dtype:float32,shape:[1, 8, 56, 56, 8]}
    out_0 {name:"Node_188:0",dtype:,shape:[]}
  }
}
layer {
  name:"Node_190"
  type:"tuple"
  top:"Node_190"
  bottom:"tensor_0_6"
  layer_param {
    idx:190
    in_0 {name:"tensor_0:0",dtype:float32,shape:[1, 8, 56, 56, 8]}
    out_0 {name:"Node_190:0",dtype:,shape:[]}
  }
}
layer {
  name:"Node_191"
  type:"vm_invoke_tvm_op"
  top:"Node_191"
  bottom:"Node_183"
  bottom:"Node_188"
  bottom:"Node_190"
  layer_param {
    idx:191
    in_0 {name:"Node_183:0",dtype:float32,shape:[1, 8, 56, 56, 8]}
    in_1 {name:"Node_188:0",dtype:,shape:[]}
    in_2 {name:"Node_190:0",dtype:,shape:[]}
    out_0 {name:"Node_191:0",dtype:,shape:[]}
  }
}
layer {
  name:"x_13"
  type:"var"
  top:"x_13"
  bottom:"tensor_0_6"
  layer_param {
    idx:192
    in_0 {name:"tensor_0:0",dtype:float32,shape:[1, 8, 56, 56, 8]}
    out_0 {name:"x:0",dtype:float32,shape:[1, 8, 56, 56, 8]}
  }
}
layer {
  name:"storage_0_7"
  type:"var"
  top:"storage_0_7"
  bottom:"Node_195"
  layer_param {
    idx:194
    in_0 {name:"Node_195:0",dtype:float32,shape:[401408, 64]}
    out_0 {name:"storage_0:0",dtype:,shape:[]}
  }
}
layer {
  name:"Node_195"
  type:"memory_alloc_storage"
  top:"Node_195"
  layer_param {
    idx:195
    out_0 {name:"Node_195:0",dtype:float32,shape:[401408, 64]}
    attrs {'dtype': 'float32', 'device_id': 0, 'device_type': 1}
  }
}
layer {
  name:"tensor_0_7"
  type:"var"
  top:"tensor_0_7"
  bottom:"Node_198"
  layer_param {
    idx:196
    in_0 {name:"Node_198:0",dtype:float32,shape:[1, 16, 28, 28, 8]}
    out_0 {name:"tensor_0:0",dtype:float32,shape:[1, 16, 28, 28, 8]}
  }
}
layer {
  name:"Node_198"
  type:"memory_alloc_tensor"
  top:"Node_198"
  bottom:"storage_0_7"
  layer_param {
    idx:198
    in_0 {name:"storage_0:0",dtype:,shape:[]}
    out_0 {name:"Node_198:0",dtype:float32,shape:[1, 16, 28, 28, 8]}
    attrs {'dtype': 'float32', 'const_shape': None, 'assert_shape': [1, 16, 28, 28, 8]}
  }
}
layer {
  name:"x_14"
  type:"var"
  top:"x_14"
  bottom:"Node_220"
  layer_param {
    idx:199
    in_0 {name:"Node_220:0",dtype:,shape:[]}
    out_0 {name:"x:0",dtype:,shape:[]}
  }
}
layer {
  name:"p0_7"
  type:"input"
  top:"p0_7"
  layer_param {
    idx:201
    out_0 {name:"p0:0",dtype:float32,shape:[1, 8, 56, 56, 8]}
  }
}
layer {
  name:"p1_5"
  type:"input"
  top:"p1_5"
  layer_param {
    idx:202
    out_0 {name:"p1:0",dtype:float32,shape:[16, 8, 3, 3, 8, 8]}
  }
}
layer {
  name:"p2_5"
  type:"input"
  top:"p2_5"
  layer_param {
    idx:203
    out_0 {name:"p2:0",dtype:float32,shape:[1, 16, 1, 1, 8]}
  }
}
layer {
  name:"Node_209"
  type:"nn_contrib_conv2d_NCHWc"
  top:"Node_209"
  bottom:"p0_7"
  bottom:"p1_5"
  layer_param {
    idx:209
    in_0 {name:"p0:0",dtype:float32,shape:[1, 8, 56, 56, 8]}
    in_1 {name:"p1:0",dtype:float32,shape:[16, 8, 3, 3, 8, 8]}
    out_0 {name:"Node_209:0",dtype:float32,shape:[1, 16, 28, 28, 8]}
    attrs {'strides': [2, 2], 'padding': [1, 1, 1, 1], 'dilation': [1, 1], 'groups': 1, 'channels': 128, 'kernel_size': [3, 3], 'data_layout': 'NCHW8c', 'kernel_layout': 'OIHW8i8o', 'out_layout': 'NCHW8c', 'out_dtype': ''}
  }
}
layer {
  name:"Node_211"
  type:"add"
  top:"Node_211"
  bottom:"Node_209"
  bottom:"p2_5"
  layer_param {
    idx:211
    in_0 {name:"Node_209:0",dtype:float32,shape:[1, 16, 28, 28, 8]}
    in_1 {name:"p2:0",dtype:float32,shape:[1, 16, 1, 1, 8]}
    out_0 {name:"Node_211:0",dtype:float32,shape:[1, 16, 28, 28, 8]}
  }
}
layer {
  name:"Node_212"
  type:"nn_relu"
  top:"Node_212"
  bottom:"Node_211"
  layer_param {
    idx:212
    in_0 {name:"Node_211:0",dtype:float32,shape:[1, 16, 28, 28, 8]}
    out_0 {name:"Node_212:0",dtype:float32,shape:[1, 16, 28, 28, 8]}
  }
}
layer {
  name:"Node_213"
  type:"function"
  top:"Node_213"
  bottom:"p0_7"
  bottom:"p1_5"
  bottom:"p2_5"
  bottom:"Node_212"
  layer_param {
    idx:213
    in_0 {name:"p0:0",dtype:float32,shape:[1, 8, 56, 56, 8]}
    in_1 {name:"p1:0",dtype:float32,shape:[16, 8, 3, 3, 8, 8]}
    in_2 {name:"p2:0",dtype:float32,shape:[1, 16, 1, 1, 8]}
    in_3 {name:"Node_212:0",dtype:float32,shape:[1, 16, 28, 28, 8]}
    out_0 {name:"Node_213:0",dtype:float32,shape:[1, 16, 28, 28, 8]}
  }
}
layer {
  name:"Node_215"
  type:"const"
  top:"Node_215"
  layer_param {
    idx:215
    out_0 {name:"Node_215:0",dtype:float32,shape:[16, 8, 3, 3, 8, 8]}
  }
}
layer {
  name:"Node_216"
  type:"const"
  top:"Node_216"
  layer_param {
    idx:216
    out_0 {name:"Node_216:0",dtype:float32,shape:[1, 16, 1, 1, 8]}
  }
}
layer {
  name:"Node_217"
  type:"tuple"
  top:"Node_217"
  bottom:"x_13"
  bottom:"Node_215"
  bottom:"Node_216"
  layer_param {
    idx:217
    in_0 {name:"x:0",dtype:float32,shape:[1, 8, 56, 56, 8]}
    in_1 {name:"Node_215:0",dtype:float32,shape:[16, 8, 3, 3, 8, 8]}
    in_2 {name:"Node_216:0",dtype:float32,shape:[1, 16, 1, 1, 8]}
    out_0 {name:"Node_217:0",dtype:,shape:[]}
  }
}
layer {
  name:"Node_219"
  type:"tuple"
  top:"Node_219"
  bottom:"tensor_0_7"
  layer_param {
    idx:219
    in_0 {name:"tensor_0:0",dtype:float32,shape:[1, 16, 28, 28, 8]}
    out_0 {name:"Node_219:0",dtype:,shape:[]}
  }
}
layer {
  name:"Node_220"
  type:"vm_invoke_tvm_op"
  top:"Node_220"
  bottom:"Node_213"
  bottom:"Node_217"
  bottom:"Node_219"
  layer_param {
    idx:220
    in_0 {name:"Node_213:0",dtype:float32,shape:[1, 16, 28, 28, 8]}
    in_1 {name:"Node_217:0",dtype:,shape:[]}
    in_2 {name:"Node_219:0",dtype:,shape:[]}
    out_0 {name:"Node_220:0",dtype:,shape:[]}
  }
}
layer {
  name:"x_15"
  type:"var"
  top:"x_15"
  bottom:"tensor_0_7"
  layer_param {
    idx:221
    in_0 {name:"tensor_0:0",dtype:float32,shape:[1, 16, 28, 28, 8]}
    out_0 {name:"x:0",dtype:float32,shape:[1, 16, 28, 28, 8]}
  }
}
layer {
  name:"storage_0_8"
  type:"var"
  top:"storage_0_8"
  bottom:"Node_224"
  layer_param {
    idx:223
    in_0 {name:"Node_224:0",dtype:float32,shape:[401408, 64]}
    out_0 {name:"storage_0:0",dtype:,shape:[]}
  }
}
layer {
  name:"Node_224"
  type:"memory_alloc_storage"
  top:"Node_224"
  layer_param {
    idx:224
    out_0 {name:"Node_224:0",dtype:float32,shape:[401408, 64]}
    attrs {'dtype': 'float32', 'device_id': 0, 'device_type': 1}
  }
}
layer {
  name:"tensor_0_8"
  type:"var"
  top:"tensor_0_8"
  bottom:"Node_227"
  layer_param {
    idx:225
    in_0 {name:"Node_227:0",dtype:float32,shape:[1, 16, 28, 28, 8]}
    out_0 {name:"tensor_0:0",dtype:float32,shape:[1, 16, 28, 28, 8]}
  }
}
layer {
  name:"Node_227"
  type:"memory_alloc_tensor"
  top:"Node_227"
  bottom:"storage_0_8"
  layer_param {
    idx:227
    in_0 {name:"storage_0:0",dtype:,shape:[]}
    out_0 {name:"Node_227:0",dtype:float32,shape:[1, 16, 28, 28, 8]}
    attrs {'dtype': 'float32', 'const_shape': None, 'assert_shape': [1, 16, 28, 28, 8]}
  }
}
layer {
  name:"x_16"
  type:"var"
  top:"x_16"
  bottom:"Node_247"
  layer_param {
    idx:228
    in_0 {name:"Node_247:0",dtype:,shape:[]}
    out_0 {name:"x:0",dtype:,shape:[]}
  }
}
layer {
  name:"p0_8"
  type:"input"
  top:"p0_8"
  layer_param {
    idx:230
    out_0 {name:"p0:0",dtype:float32,shape:[1, 8, 56, 56, 8]}
  }
}
layer {
  name:"p1_6"
  type:"input"
  top:"p1_6"
  layer_param {
    idx:231
    out_0 {name:"p1:0",dtype:float32,shape:[16, 8, 1, 1, 8, 8]}
  }
}
layer {
  name:"p2_6"
  type:"input"
  top:"p2_6"
  layer_param {
    idx:232
    out_0 {name:"p2:0",dtype:float32,shape:[1, 16, 1, 1, 8]}
  }
}
layer {
  name:"Node_237"
  type:"nn_contrib_conv2d_NCHWc"
  top:"Node_237"
  bottom:"p0_8"
  bottom:"p1_6"
  layer_param {
    idx:237
    in_0 {name:"p0:0",dtype:float32,shape:[1, 8, 56, 56, 8]}
    in_1 {name:"p1:0",dtype:float32,shape:[16, 8, 1, 1, 8, 8]}
    out_0 {name:"Node_237:0",dtype:float32,shape:[1, 16, 28, 28, 8]}
    attrs {'strides': [2, 2], 'padding': [0, 0, 0, 0], 'dilation': [1, 1], 'groups': 1, 'channels': 128, 'kernel_size': [1, 1], 'data_layout': 'NCHW8c', 'kernel_layout': 'OIHW8i8o', 'out_layout': 'NCHW8c', 'out_dtype': ''}
  }
}
layer {
  name:"Node_239"
  type:"add"
  top:"Node_239"
  bottom:"Node_237"
  bottom:"p2_6"
  layer_param {
    idx:239
    in_0 {name:"Node_237:0",dtype:float32,shape:[1, 16, 28, 28, 8]}
    in_1 {name:"p2:0",dtype:float32,shape:[1, 16, 1, 1, 8]}
    out_0 {name:"Node_239:0",dtype:float32,shape:[1, 16, 28, 28, 8]}
  }
}
layer {
  name:"Node_240"
  type:"function"
  top:"Node_240"
  bottom:"p0_8"
  bottom:"p1_6"
  bottom:"p2_6"
  bottom:"Node_239"
  layer_param {
    idx:240
    in_0 {name:"p0:0",dtype:float32,shape:[1, 8, 56, 56, 8]}
    in_1 {name:"p1:0",dtype:float32,shape:[16, 8, 1, 1, 8, 8]}
    in_2 {name:"p2:0",dtype:float32,shape:[1, 16, 1, 1, 8]}
    in_3 {name:"Node_239:0",dtype:float32,shape:[1, 16, 28, 28, 8]}
    out_0 {name:"Node_240:0",dtype:float32,shape:[1, 16, 28, 28, 8]}
  }
}
layer {
  name:"Node_242"
  type:"const"
  top:"Node_242"
  layer_param {
    idx:242
    out_0 {name:"Node_242:0",dtype:float32,shape:[16, 8, 1, 1, 8, 8]}
  }
}
layer {
  name:"Node_243"
  type:"const"
  top:"Node_243"
  layer_param {
    idx:243
    out_0 {name:"Node_243:0",dtype:float32,shape:[1, 16, 1, 1, 8]}
  }
}
layer {
  name:"Node_244"
  type:"tuple"
  top:"Node_244"
  bottom:"x_13"
  bottom:"Node_242"
  bottom:"Node_243"
  layer_param {
    idx:244
    in_0 {name:"x:0",dtype:float32,shape:[1, 8, 56, 56, 8]}
    in_1 {name:"Node_242:0",dtype:float32,shape:[16, 8, 1, 1, 8, 8]}
    in_2 {name:"Node_243:0",dtype:float32,shape:[1, 16, 1, 1, 8]}
    out_0 {name:"Node_244:0",dtype:,shape:[]}
  }
}
layer {
  name:"Node_246"
  type:"tuple"
  top:"Node_246"
  bottom:"tensor_0_8"
  layer_param {
    idx:246
    in_0 {name:"tensor_0:0",dtype:float32,shape:[1, 16, 28, 28, 8]}
    out_0 {name:"Node_246:0",dtype:,shape:[]}
  }
}
layer {
  name:"Node_247"
  type:"vm_invoke_tvm_op"
  top:"Node_247"
  bottom:"Node_240"
  bottom:"Node_244"
  bottom:"Node_246"
  layer_param {
    idx:247
    in_0 {name:"Node_240:0",dtype:float32,shape:[1, 16, 28, 28, 8]}
    in_1 {name:"Node_244:0",dtype:,shape:[]}
    in_2 {name:"Node_246:0",dtype:,shape:[]}
    out_0 {name:"Node_247:0",dtype:,shape:[]}
  }
}
layer {
  name:"x_17"
  type:"var"
  top:"x_17"
  bottom:"tensor_0_8"
  layer_param {
    idx:248
    in_0 {name:"tensor_0:0",dtype:float32,shape:[1, 16, 28, 28, 8]}
    out_0 {name:"x:0",dtype:float32,shape:[1, 16, 28, 28, 8]}
  }
}
layer {
  name:"storage_0_9"
  type:"var"
  top:"storage_0_9"
  bottom:"Node_251"
  layer_param {
    idx:250
    in_0 {name:"Node_251:0",dtype:float32,shape:[401408, 64]}
    out_0 {name:"storage_0:0",dtype:,shape:[]}
  }
}
layer {
  name:"Node_251"
  type:"memory_alloc_storage"
  top:"Node_251"
  layer_param {
    idx:251
    out_0 {name:"Node_251:0",dtype:float32,shape:[401408, 64]}
    attrs {'dtype': 'float32', 'device_id': 0, 'device_type': 1}
  }
}
layer {
  name:"tensor_0_9"
  type:"var"
  top:"tensor_0_9"
  bottom:"Node_254"
  layer_param {
    idx:252
    in_0 {name:"Node_254:0",dtype:float32,shape:[1, 16, 28, 28, 8]}
    out_0 {name:"tensor_0:0",dtype:float32,shape:[1, 16, 28, 28, 8]}
  }
}
layer {
  name:"Node_254"
  type:"memory_alloc_tensor"
  top:"Node_254"
  bottom:"storage_0_9"
  layer_param {
    idx:254
    in_0 {name:"storage_0:0",dtype:,shape:[]}
    out_0 {name:"Node_254:0",dtype:float32,shape:[1, 16, 28, 28, 8]}
    attrs {'dtype': 'float32', 'const_shape': None, 'assert_shape': [1, 16, 28, 28, 8]}
  }
}
layer {
  name:"x_18"
  type:"var"
  top:"x_18"
  bottom:"Node_281"
  layer_param {
    idx:255
    in_0 {name:"Node_281:0",dtype:,shape:[]}
    out_0 {name:"x:0",dtype:,shape:[]}
  }
}
layer {
  name:"p0_9"
  type:"input"
  top:"p0_9"
  layer_param {
    idx:257
    out_0 {name:"p0:0",dtype:float32,shape:[1, 16, 28, 28, 8]}
  }
}
layer {
  name:"p1_7"
  type:"input"
  top:"p1_7"
  layer_param {
    idx:258
    out_0 {name:"p1:0",dtype:float32,shape:[16, 16, 3, 3, 8, 8]}
  }
}
layer {
  name:"p2_7"
  type:"input"
  top:"p2_7"
  layer_param {
    idx:259
    out_0 {name:"p2:0",dtype:float32,shape:[1, 16, 1, 1, 8]}
  }
}
layer {
  name:"p3_2"
  type:"input"
  top:"p3_2"
  layer_param {
    idx:260
    out_0 {name:"p3:0",dtype:float32,shape:[1, 16, 28, 28, 8]}
  }
}
layer {
  name:"Node_267"
  type:"nn_contrib_conv2d_NCHWc"
  top:"Node_267"
  bottom:"p0_9"
  bottom:"p1_7"
  layer_param {
    idx:267
    in_0 {name:"p0:0",dtype:float32,shape:[1, 16, 28, 28, 8]}
    in_1 {name:"p1:0",dtype:float32,shape:[16, 16, 3, 3, 8, 8]}
    out_0 {name:"Node_267:0",dtype:float32,shape:[1, 16, 28, 28, 8]}
    attrs {'strides': [1, 1], 'padding': [1, 1, 1, 1], 'dilation': [1, 1], 'groups': 1, 'channels': 128, 'kernel_size': [3, 3], 'data_layout': 'NCHW8c', 'kernel_layout': 'OIHW8i8o', 'out_layout': 'NCHW8c', 'out_dtype': ''}
  }
}
layer {
  name:"Node_269"
  type:"add"
  top:"Node_269"
  bottom:"Node_267"
  bottom:"p2_7"
  layer_param {
    idx:269
    in_0 {name:"Node_267:0",dtype:float32,shape:[1, 16, 28, 28, 8]}
    in_1 {name:"p2:0",dtype:float32,shape:[1, 16, 1, 1, 8]}
    out_0 {name:"Node_269:0",dtype:float32,shape:[1, 16, 28, 28, 8]}
  }
}
layer {
  name:"Node_271"
  type:"add"
  top:"Node_271"
  bottom:"Node_269"
  bottom:"p3_2"
  layer_param {
    idx:271
    in_0 {name:"Node_269:0",dtype:float32,shape:[1, 16, 28, 28, 8]}
    in_1 {name:"p3:0",dtype:float32,shape:[1, 16, 28, 28, 8]}
    out_0 {name:"Node_271:0",dtype:float32,shape:[1, 16, 28, 28, 8]}
  }
}
layer {
  name:"Node_272"
  type:"nn_relu"
  top:"Node_272"
  bottom:"Node_271"
  layer_param {
    idx:272
    in_0 {name:"Node_271:0",dtype:float32,shape:[1, 16, 28, 28, 8]}
    out_0 {name:"Node_272:0",dtype:float32,shape:[1, 16, 28, 28, 8]}
  }
}
layer {
  name:"Node_273"
  type:"function"
  top:"Node_273"
  bottom:"p0_9"
  bottom:"p1_7"
  bottom:"p2_7"
  bottom:"p3_2"
  bottom:"Node_272"
  layer_param {
    idx:273
    in_0 {name:"p0:0",dtype:float32,shape:[1, 16, 28, 28, 8]}
    in_1 {name:"p1:0",dtype:float32,shape:[16, 16, 3, 3, 8, 8]}
    in_2 {name:"p2:0",dtype:float32,shape:[1, 16, 1, 1, 8]}
    in_3 {name:"p3:0",dtype:float32,shape:[1, 16, 28, 28, 8]}
    in_4 {name:"Node_272:0",dtype:float32,shape:[1, 16, 28, 28, 8]}
    out_0 {name:"Node_273:0",dtype:float32,shape:[1, 16, 28, 28, 8]}
  }
}
layer {
  name:"Node_275"
  type:"const"
  top:"Node_275"
  layer_param {
    idx:275
    out_0 {name:"Node_275:0",dtype:float32,shape:[16, 16, 3, 3, 8, 8]}
  }
}
layer {
  name:"Node_276"
  type:"const"
  top:"Node_276"
  layer_param {
    idx:276
    out_0 {name:"Node_276:0",dtype:float32,shape:[1, 16, 1, 1, 8]}
  }
}
layer {
  name:"Node_278"
  type:"tuple"
  top:"Node_278"
  bottom:"x_15"
  bottom:"Node_275"
  bottom:"Node_276"
  bottom:"x_17"
  layer_param {
    idx:278
    in_0 {name:"x:0",dtype:float32,shape:[1, 16, 28, 28, 8]}
    in_1 {name:"Node_275:0",dtype:float32,shape:[16, 16, 3, 3, 8, 8]}
    in_2 {name:"Node_276:0",dtype:float32,shape:[1, 16, 1, 1, 8]}
    in_3 {name:"x:0",dtype:float32,shape:[1, 16, 28, 28, 8]}
    out_0 {name:"Node_278:0",dtype:,shape:[]}
  }
}
layer {
  name:"Node_280"
  type:"tuple"
  top:"Node_280"
  bottom:"tensor_0_9"
  layer_param {
    idx:280
    in_0 {name:"tensor_0:0",dtype:float32,shape:[1, 16, 28, 28, 8]}
    out_0 {name:"Node_280:0",dtype:,shape:[]}
  }
}
layer {
  name:"Node_281"
  type:"vm_invoke_tvm_op"
  top:"Node_281"
  bottom:"Node_273"
  bottom:"Node_278"
  bottom:"Node_280"
  layer_param {
    idx:281
    in_0 {name:"Node_273:0",dtype:float32,shape:[1, 16, 28, 28, 8]}
    in_1 {name:"Node_278:0",dtype:,shape:[]}
    in_2 {name:"Node_280:0",dtype:,shape:[]}
    out_0 {name:"Node_281:0",dtype:,shape:[]}
  }
}
layer {
  name:"x_19"
  type:"var"
  top:"x_19"
  bottom:"tensor_0_9"
  layer_param {
    idx:282
    in_0 {name:"tensor_0:0",dtype:float32,shape:[1, 16, 28, 28, 8]}
    out_0 {name:"x:0",dtype:float32,shape:[1, 16, 28, 28, 8]}
  }
}
layer {
  name:"storage_0_10"
  type:"var"
  top:"storage_0_10"
  bottom:"Node_285"
  layer_param {
    idx:284
    in_0 {name:"Node_285:0",dtype:float32,shape:[401408, 64]}
    out_0 {name:"storage_0:0",dtype:,shape:[]}
  }
}
layer {
  name:"Node_285"
  type:"memory_alloc_storage"
  top:"Node_285"
  layer_param {
    idx:285
    out_0 {name:"Node_285:0",dtype:float32,shape:[401408, 64]}
    attrs {'dtype': 'float32', 'device_id': 0, 'device_type': 1}
  }
}
layer {
  name:"tensor_0_10"
  type:"var"
  top:"tensor_0_10"
  bottom:"Node_288"
  layer_param {
    idx:286
    in_0 {name:"Node_288:0",dtype:float32,shape:[1, 16, 28, 28, 8]}
    out_0 {name:"tensor_0:0",dtype:float32,shape:[1, 16, 28, 28, 8]}
  }
}
layer {
  name:"Node_288"
  type:"memory_alloc_tensor"
  top:"Node_288"
  bottom:"storage_0_10"
  layer_param {
    idx:288
    in_0 {name:"storage_0:0",dtype:,shape:[]}
    out_0 {name:"Node_288:0",dtype:float32,shape:[1, 16, 28, 28, 8]}
    attrs {'dtype': 'float32', 'const_shape': None, 'assert_shape': [1, 16, 28, 28, 8]}
  }
}
layer {
  name:"x_20"
  type:"var"
  top:"x_20"
  bottom:"Node_310"
  layer_param {
    idx:289
    in_0 {name:"Node_310:0",dtype:,shape:[]}
    out_0 {name:"x:0",dtype:,shape:[]}
  }
}
layer {
  name:"p0_10"
  type:"input"
  top:"p0_10"
  layer_param {
    idx:291
    out_0 {name:"p0:0",dtype:float32,shape:[1, 16, 28, 28, 8]}
  }
}
layer {
  name:"p1_8"
  type:"input"
  top:"p1_8"
  layer_param {
    idx:292
    out_0 {name:"p1:0",dtype:float32,shape:[16, 16, 3, 3, 8, 8]}
  }
}
layer {
  name:"p2_8"
  type:"input"
  top:"p2_8"
  layer_param {
    idx:293
    out_0 {name:"p2:0",dtype:float32,shape:[1, 16, 1, 1, 8]}
  }
}
layer {
  name:"Node_299"
  type:"nn_contrib_conv2d_NCHWc"
  top:"Node_299"
  bottom:"p0_10"
  bottom:"p1_8"
  layer_param {
    idx:299
    in_0 {name:"p0:0",dtype:float32,shape:[1, 16, 28, 28, 8]}
    in_1 {name:"p1:0",dtype:float32,shape:[16, 16, 3, 3, 8, 8]}
    out_0 {name:"Node_299:0",dtype:float32,shape:[1, 16, 28, 28, 8]}
    attrs {'strides': [1, 1], 'padding': [1, 1, 1, 1], 'dilation': [1, 1], 'groups': 1, 'channels': 128, 'kernel_size': [3, 3], 'data_layout': 'NCHW8c', 'kernel_layout': 'OIHW8i8o', 'out_layout': 'NCHW8c', 'out_dtype': ''}
  }
}
layer {
  name:"Node_301"
  type:"add"
  top:"Node_301"
  bottom:"Node_299"
  bottom:"p2_8"
  layer_param {
    idx:301
    in_0 {name:"Node_299:0",dtype:float32,shape:[1, 16, 28, 28, 8]}
    in_1 {name:"p2:0",dtype:float32,shape:[1, 16, 1, 1, 8]}
    out_0 {name:"Node_301:0",dtype:float32,shape:[1, 16, 28, 28, 8]}
  }
}
layer {
  name:"Node_302"
  type:"nn_relu"
  top:"Node_302"
  bottom:"Node_301"
  layer_param {
    idx:302
    in_0 {name:"Node_301:0",dtype:float32,shape:[1, 16, 28, 28, 8]}
    out_0 {name:"Node_302:0",dtype:float32,shape:[1, 16, 28, 28, 8]}
  }
}
layer {
  name:"Node_303"
  type:"function"
  top:"Node_303"
  bottom:"p0_10"
  bottom:"p1_8"
  bottom:"p2_8"
  bottom:"Node_302"
  layer_param {
    idx:303
    in_0 {name:"p0:0",dtype:float32,shape:[1, 16, 28, 28, 8]}
    in_1 {name:"p1:0",dtype:float32,shape:[16, 16, 3, 3, 8, 8]}
    in_2 {name:"p2:0",dtype:float32,shape:[1, 16, 1, 1, 8]}
    in_3 {name:"Node_302:0",dtype:float32,shape:[1, 16, 28, 28, 8]}
    out_0 {name:"Node_303:0",dtype:float32,shape:[1, 16, 28, 28, 8]}
  }
}
layer {
  name:"Node_305"
  type:"const"
  top:"Node_305"
  layer_param {
    idx:305
    out_0 {name:"Node_305:0",dtype:float32,shape:[16, 16, 3, 3, 8, 8]}
  }
}
layer {
  name:"Node_306"
  type:"const"
  top:"Node_306"
  layer_param {
    idx:306
    out_0 {name:"Node_306:0",dtype:float32,shape:[1, 16, 1, 1, 8]}
  }
}
layer {
  name:"Node_307"
  type:"tuple"
  top:"Node_307"
  bottom:"x_19"
  bottom:"Node_305"
  bottom:"Node_306"
  layer_param {
    idx:307
    in_0 {name:"x:0",dtype:float32,shape:[1, 16, 28, 28, 8]}
    in_1 {name:"Node_305:0",dtype:float32,shape:[16, 16, 3, 3, 8, 8]}
    in_2 {name:"Node_306:0",dtype:float32,shape:[1, 16, 1, 1, 8]}
    out_0 {name:"Node_307:0",dtype:,shape:[]}
  }
}
layer {
  name:"Node_309"
  type:"tuple"
  top:"Node_309"
  bottom:"tensor_0_10"
  layer_param {
    idx:309
    in_0 {name:"tensor_0:0",dtype:float32,shape:[1, 16, 28, 28, 8]}
    out_0 {name:"Node_309:0",dtype:,shape:[]}
  }
}
layer {
  name:"Node_310"
  type:"vm_invoke_tvm_op"
  top:"Node_310"
  bottom:"Node_303"
  bottom:"Node_307"
  bottom:"Node_309"
  layer_param {
    idx:310
    in_0 {name:"Node_303:0",dtype:float32,shape:[1, 16, 28, 28, 8]}
    in_1 {name:"Node_307:0",dtype:,shape:[]}
    in_2 {name:"Node_309:0",dtype:,shape:[]}
    out_0 {name:"Node_310:0",dtype:,shape:[]}
  }
}
layer {
  name:"x_21"
  type:"var"
  top:"x_21"
  bottom:"tensor_0_10"
  layer_param {
    idx:311
    in_0 {name:"tensor_0:0",dtype:float32,shape:[1, 16, 28, 28, 8]}
    out_0 {name:"x:0",dtype:float32,shape:[1, 16, 28, 28, 8]}
  }
}
layer {
  name:"storage_0_11"
  type:"var"
  top:"storage_0_11"
  bottom:"Node_314"
  layer_param {
    idx:313
    in_0 {name:"Node_314:0",dtype:float32,shape:[401408, 64]}
    out_0 {name:"storage_0:0",dtype:,shape:[]}
  }
}
layer {
  name:"Node_314"
  type:"memory_alloc_storage"
  top:"Node_314"
  layer_param {
    idx:314
    out_0 {name:"Node_314:0",dtype:float32,shape:[401408, 64]}
    attrs {'dtype': 'float32', 'device_id': 0, 'device_type': 1}
  }
}
layer {
  name:"tensor_0_11"
  type:"var"
  top:"tensor_0_11"
  bottom:"Node_317"
  layer_param {
    idx:315
    in_0 {name:"Node_317:0",dtype:float32,shape:[1, 16, 28, 28, 8]}
    out_0 {name:"tensor_0:0",dtype:float32,shape:[1, 16, 28, 28, 8]}
  }
}
layer {
  name:"Node_317"
  type:"memory_alloc_tensor"
  top:"Node_317"
  bottom:"storage_0_11"
  layer_param {
    idx:317
    in_0 {name:"storage_0:0",dtype:,shape:[]}
    out_0 {name:"Node_317:0",dtype:float32,shape:[1, 16, 28, 28, 8]}
    attrs {'dtype': 'float32', 'const_shape': None, 'assert_shape': [1, 16, 28, 28, 8]}
  }
}
layer {
  name:"x_22"
  type:"var"
  top:"x_22"
  bottom:"Node_344"
  layer_param {
    idx:318
    in_0 {name:"Node_344:0",dtype:,shape:[]}
    out_0 {name:"x:0",dtype:,shape:[]}
  }
}
layer {
  name:"p0_11"
  type:"input"
  top:"p0_11"
  layer_param {
    idx:320
    out_0 {name:"p0:0",dtype:float32,shape:[1, 16, 28, 28, 8]}
  }
}
layer {
  name:"p1_9"
  type:"input"
  top:"p1_9"
  layer_param {
    idx:321
    out_0 {name:"p1:0",dtype:float32,shape:[16, 16, 3, 3, 8, 8]}
  }
}
layer {
  name:"p2_9"
  type:"input"
  top:"p2_9"
  layer_param {
    idx:322
    out_0 {name:"p2:0",dtype:float32,shape:[1, 16, 1, 1, 8]}
  }
}
layer {
  name:"p3_3"
  type:"input"
  top:"p3_3"
  layer_param {
    idx:323
    out_0 {name:"p3:0",dtype:float32,shape:[1, 16, 28, 28, 8]}
  }
}
layer {
  name:"Node_330"
  type:"nn_contrib_conv2d_NCHWc"
  top:"Node_330"
  bottom:"p0_11"
  bottom:"p1_9"
  layer_param {
    idx:330
    in_0 {name:"p0:0",dtype:float32,shape:[1, 16, 28, 28, 8]}
    in_1 {name:"p1:0",dtype:float32,shape:[16, 16, 3, 3, 8, 8]}
    out_0 {name:"Node_330:0",dtype:float32,shape:[1, 16, 28, 28, 8]}
    attrs {'strides': [1, 1], 'padding': [1, 1, 1, 1], 'dilation': [1, 1], 'groups': 1, 'channels': 128, 'kernel_size': [3, 3], 'data_layout': 'NCHW8c', 'kernel_layout': 'OIHW8i8o', 'out_layout': 'NCHW8c', 'out_dtype': ''}
  }
}
layer {
  name:"Node_332"
  type:"add"
  top:"Node_332"
  bottom:"Node_330"
  bottom:"p2_9"
  layer_param {
    idx:332
    in_0 {name:"Node_330:0",dtype:float32,shape:[1, 16, 28, 28, 8]}
    in_1 {name:"p2:0",dtype:float32,shape:[1, 16, 1, 1, 8]}
    out_0 {name:"Node_332:0",dtype:float32,shape:[1, 16, 28, 28, 8]}
  }
}
layer {
  name:"Node_334"
  type:"add"
  top:"Node_334"
  bottom:"Node_332"
  bottom:"p3_3"
  layer_param {
    idx:334
    in_0 {name:"Node_332:0",dtype:float32,shape:[1, 16, 28, 28, 8]}
    in_1 {name:"p3:0",dtype:float32,shape:[1, 16, 28, 28, 8]}
    out_0 {name:"Node_334:0",dtype:float32,shape:[1, 16, 28, 28, 8]}
  }
}
layer {
  name:"Node_335"
  type:"nn_relu"
  top:"Node_335"
  bottom:"Node_334"
  layer_param {
    idx:335
    in_0 {name:"Node_334:0",dtype:float32,shape:[1, 16, 28, 28, 8]}
    out_0 {name:"Node_335:0",dtype:float32,shape:[1, 16, 28, 28, 8]}
  }
}
layer {
  name:"Node_336"
  type:"function"
  top:"Node_336"
  bottom:"p0_11"
  bottom:"p1_9"
  bottom:"p2_9"
  bottom:"p3_3"
  bottom:"Node_335"
  layer_param {
    idx:336
    in_0 {name:"p0:0",dtype:float32,shape:[1, 16, 28, 28, 8]}
    in_1 {name:"p1:0",dtype:float32,shape:[16, 16, 3, 3, 8, 8]}
    in_2 {name:"p2:0",dtype:float32,shape:[1, 16, 1, 1, 8]}
    in_3 {name:"p3:0",dtype:float32,shape:[1, 16, 28, 28, 8]}
    in_4 {name:"Node_335:0",dtype:float32,shape:[1, 16, 28, 28, 8]}
    out_0 {name:"Node_336:0",dtype:float32,shape:[1, 16, 28, 28, 8]}
  }
}
layer {
  name:"Node_338"
  type:"const"
  top:"Node_338"
  layer_param {
    idx:338
    out_0 {name:"Node_338:0",dtype:float32,shape:[16, 16, 3, 3, 8, 8]}
  }
}
layer {
  name:"Node_339"
  type:"const"
  top:"Node_339"
  layer_param {
    idx:339
    out_0 {name:"Node_339:0",dtype:float32,shape:[1, 16, 1, 1, 8]}
  }
}
layer {
  name:"Node_341"
  type:"tuple"
  top:"Node_341"
  bottom:"x_21"
  bottom:"Node_338"
  bottom:"Node_339"
  bottom:"x_19"
  layer_param {
    idx:341
    in_0 {name:"x:0",dtype:float32,shape:[1, 16, 28, 28, 8]}
    in_1 {name:"Node_338:0",dtype:float32,shape:[16, 16, 3, 3, 8, 8]}
    in_2 {name:"Node_339:0",dtype:float32,shape:[1, 16, 1, 1, 8]}
    in_3 {name:"x:0",dtype:float32,shape:[1, 16, 28, 28, 8]}
    out_0 {name:"Node_341:0",dtype:,shape:[]}
  }
}
layer {
  name:"Node_343"
  type:"tuple"
  top:"Node_343"
  bottom:"tensor_0_11"
  layer_param {
    idx:343
    in_0 {name:"tensor_0:0",dtype:float32,shape:[1, 16, 28, 28, 8]}
    out_0 {name:"Node_343:0",dtype:,shape:[]}
  }
}
layer {
  name:"Node_344"
  type:"vm_invoke_tvm_op"
  top:"Node_344"
  bottom:"Node_336"
  bottom:"Node_341"
  bottom:"Node_343"
  layer_param {
    idx:344
    in_0 {name:"Node_336:0",dtype:float32,shape:[1, 16, 28, 28, 8]}
    in_1 {name:"Node_341:0",dtype:,shape:[]}
    in_2 {name:"Node_343:0",dtype:,shape:[]}
    out_0 {name:"Node_344:0",dtype:,shape:[]}
  }
}
layer {
  name:"x_23"
  type:"var"
  top:"x_23"
  bottom:"tensor_0_11"
  layer_param {
    idx:345
    in_0 {name:"tensor_0:0",dtype:float32,shape:[1, 16, 28, 28, 8]}
    out_0 {name:"x:0",dtype:float32,shape:[1, 16, 28, 28, 8]}
  }
}
layer {
  name:"storage_0_12"
  type:"var"
  top:"storage_0_12"
  bottom:"Node_348"
  layer_param {
    idx:347
    in_0 {name:"Node_348:0",dtype:float32,shape:[200704, 64]}
    out_0 {name:"storage_0:0",dtype:,shape:[]}
  }
}
layer {
  name:"Node_348"
  type:"memory_alloc_storage"
  top:"Node_348"
  layer_param {
    idx:348
    out_0 {name:"Node_348:0",dtype:float32,shape:[200704, 64]}
    attrs {'dtype': 'float32', 'device_id': 0, 'device_type': 1}
  }
}
layer {
  name:"tensor_0_12"
  type:"var"
  top:"tensor_0_12"
  bottom:"Node_351"
  layer_param {
    idx:349
    in_0 {name:"Node_351:0",dtype:float32,shape:[1, 32, 14, 14, 8]}
    out_0 {name:"tensor_0:0",dtype:float32,shape:[1, 32, 14, 14, 8]}
  }
}
layer {
  name:"Node_351"
  type:"memory_alloc_tensor"
  top:"Node_351"
  bottom:"storage_0_12"
  layer_param {
    idx:351
    in_0 {name:"storage_0:0",dtype:,shape:[]}
    out_0 {name:"Node_351:0",dtype:float32,shape:[1, 32, 14, 14, 8]}
    attrs {'dtype': 'float32', 'const_shape': None, 'assert_shape': [1, 32, 14, 14, 8]}
  }
}
layer {
  name:"x_24"
  type:"var"
  top:"x_24"
  bottom:"Node_373"
  layer_param {
    idx:352
    in_0 {name:"Node_373:0",dtype:,shape:[]}
    out_0 {name:"x:0",dtype:,shape:[]}
  }
}
layer {
  name:"p0_12"
  type:"input"
  top:"p0_12"
  layer_param {
    idx:354
    out_0 {name:"p0:0",dtype:float32,shape:[1, 16, 28, 28, 8]}
  }
}
layer {
  name:"p1_10"
  type:"input"
  top:"p1_10"
  layer_param {
    idx:355
    out_0 {name:"p1:0",dtype:float32,shape:[32, 16, 3, 3, 8, 8]}
  }
}
layer {
  name:"p2_10"
  type:"input"
  top:"p2_10"
  layer_param {
    idx:356
    out_0 {name:"p2:0",dtype:float32,shape:[1, 32, 1, 1, 8]}
  }
}
layer {
  name:"Node_362"
  type:"nn_contrib_conv2d_NCHWc"
  top:"Node_362"
  bottom:"p0_12"
  bottom:"p1_10"
  layer_param {
    idx:362
    in_0 {name:"p0:0",dtype:float32,shape:[1, 16, 28, 28, 8]}
    in_1 {name:"p1:0",dtype:float32,shape:[32, 16, 3, 3, 8, 8]}
    out_0 {name:"Node_362:0",dtype:float32,shape:[1, 32, 14, 14, 8]}
    attrs {'strides': [2, 2], 'padding': [1, 1, 1, 1], 'dilation': [1, 1], 'groups': 1, 'channels': 256, 'kernel_size': [3, 3], 'data_layout': 'NCHW8c', 'kernel_layout': 'OIHW8i8o', 'out_layout': 'NCHW8c', 'out_dtype': ''}
  }
}
layer {
  name:"Node_364"
  type:"add"
  top:"Node_364"
  bottom:"Node_362"
  bottom:"p2_10"
  layer_param {
    idx:364
    in_0 {name:"Node_362:0",dtype:float32,shape:[1, 32, 14, 14, 8]}
    in_1 {name:"p2:0",dtype:float32,shape:[1, 32, 1, 1, 8]}
    out_0 {name:"Node_364:0",dtype:float32,shape:[1, 32, 14, 14, 8]}
  }
}
layer {
  name:"Node_365"
  type:"nn_relu"
  top:"Node_365"
  bottom:"Node_364"
  layer_param {
    idx:365
    in_0 {name:"Node_364:0",dtype:float32,shape:[1, 32, 14, 14, 8]}
    out_0 {name:"Node_365:0",dtype:float32,shape:[1, 32, 14, 14, 8]}
  }
}
layer {
  name:"Node_366"
  type:"function"
  top:"Node_366"
  bottom:"p0_12"
  bottom:"p1_10"
  bottom:"p2_10"
  bottom:"Node_365"
  layer_param {
    idx:366
    in_0 {name:"p0:0",dtype:float32,shape:[1, 16, 28, 28, 8]}
    in_1 {name:"p1:0",dtype:float32,shape:[32, 16, 3, 3, 8, 8]}
    in_2 {name:"p2:0",dtype:float32,shape:[1, 32, 1, 1, 8]}
    in_3 {name:"Node_365:0",dtype:float32,shape:[1, 32, 14, 14, 8]}
    out_0 {name:"Node_366:0",dtype:float32,shape:[1, 32, 14, 14, 8]}
  }
}
layer {
  name:"Node_368"
  type:"const"
  top:"Node_368"
  layer_param {
    idx:368
    out_0 {name:"Node_368:0",dtype:float32,shape:[32, 16, 3, 3, 8, 8]}
  }
}
layer {
  name:"Node_369"
  type:"const"
  top:"Node_369"
  layer_param {
    idx:369
    out_0 {name:"Node_369:0",dtype:float32,shape:[1, 32, 1, 1, 8]}
  }
}
layer {
  name:"Node_370"
  type:"tuple"
  top:"Node_370"
  bottom:"x_23"
  bottom:"Node_368"
  bottom:"Node_369"
  layer_param {
    idx:370
    in_0 {name:"x:0",dtype:float32,shape:[1, 16, 28, 28, 8]}
    in_1 {name:"Node_368:0",dtype:float32,shape:[32, 16, 3, 3, 8, 8]}
    in_2 {name:"Node_369:0",dtype:float32,shape:[1, 32, 1, 1, 8]}
    out_0 {name:"Node_370:0",dtype:,shape:[]}
  }
}
layer {
  name:"Node_372"
  type:"tuple"
  top:"Node_372"
  bottom:"tensor_0_12"
  layer_param {
    idx:372
    in_0 {name:"tensor_0:0",dtype:float32,shape:[1, 32, 14, 14, 8]}
    out_0 {name:"Node_372:0",dtype:,shape:[]}
  }
}
layer {
  name:"Node_373"
  type:"vm_invoke_tvm_op"
  top:"Node_373"
  bottom:"Node_366"
  bottom:"Node_370"
  bottom:"Node_372"
  layer_param {
    idx:373
    in_0 {name:"Node_366:0",dtype:float32,shape:[1, 32, 14, 14, 8]}
    in_1 {name:"Node_370:0",dtype:,shape:[]}
    in_2 {name:"Node_372:0",dtype:,shape:[]}
    out_0 {name:"Node_373:0",dtype:,shape:[]}
  }
}
layer {
  name:"x_25"
  type:"var"
  top:"x_25"
  bottom:"tensor_0_12"
  layer_param {
    idx:374
    in_0 {name:"tensor_0:0",dtype:float32,shape:[1, 32, 14, 14, 8]}
    out_0 {name:"x:0",dtype:float32,shape:[1, 32, 14, 14, 8]}
  }
}
layer {
  name:"storage_0_13"
  type:"var"
  top:"storage_0_13"
  bottom:"Node_377"
  layer_param {
    idx:376
    in_0 {name:"Node_377:0",dtype:float32,shape:[200704, 64]}
    out_0 {name:"storage_0:0",dtype:,shape:[]}
  }
}
layer {
  name:"Node_377"
  type:"memory_alloc_storage"
  top:"Node_377"
  layer_param {
    idx:377
    out_0 {name:"Node_377:0",dtype:float32,shape:[200704, 64]}
    attrs {'dtype': 'float32', 'device_id': 0, 'device_type': 1}
  }
}
layer {
  name:"tensor_0_13"
  type:"var"
  top:"tensor_0_13"
  bottom:"Node_380"
  layer_param {
    idx:378
    in_0 {name:"Node_380:0",dtype:float32,shape:[1, 32, 14, 14, 8]}
    out_0 {name:"tensor_0:0",dtype:float32,shape:[1, 32, 14, 14, 8]}
  }
}
layer {
  name:"Node_380"
  type:"memory_alloc_tensor"
  top:"Node_380"
  bottom:"storage_0_13"
  layer_param {
    idx:380
    in_0 {name:"storage_0:0",dtype:,shape:[]}
    out_0 {name:"Node_380:0",dtype:float32,shape:[1, 32, 14, 14, 8]}
    attrs {'dtype': 'float32', 'const_shape': None, 'assert_shape': [1, 32, 14, 14, 8]}
  }
}
layer {
  name:"x_26"
  type:"var"
  top:"x_26"
  bottom:"Node_400"
  layer_param {
    idx:381
    in_0 {name:"Node_400:0",dtype:,shape:[]}
    out_0 {name:"x:0",dtype:,shape:[]}
  }
}
layer {
  name:"p0_13"
  type:"input"
  top:"p0_13"
  layer_param {
    idx:383
    out_0 {name:"p0:0",dtype:float32,shape:[1, 16, 28, 28, 8]}
  }
}
layer {
  name:"p1_11"
  type:"input"
  top:"p1_11"
  layer_param {
    idx:384
    out_0 {name:"p1:0",dtype:float32,shape:[32, 16, 1, 1, 8, 8]}
  }
}
layer {
  name:"p2_11"
  type:"input"
  top:"p2_11"
  layer_param {
    idx:385
    out_0 {name:"p2:0",dtype:float32,shape:[1, 32, 1, 1, 8]}
  }
}
layer {
  name:"Node_390"
  type:"nn_contrib_conv2d_NCHWc"
  top:"Node_390"
  bottom:"p0_13"
  bottom:"p1_11"
  layer_param {
    idx:390
    in_0 {name:"p0:0",dtype:float32,shape:[1, 16, 28, 28, 8]}
    in_1 {name:"p1:0",dtype:float32,shape:[32, 16, 1, 1, 8, 8]}
    out_0 {name:"Node_390:0",dtype:float32,shape:[1, 32, 14, 14, 8]}
    attrs {'strides': [2, 2], 'padding': [0, 0, 0, 0], 'dilation': [1, 1], 'groups': 1, 'channels': 256, 'kernel_size': [1, 1], 'data_layout': 'NCHW8c', 'kernel_layout': 'OIHW8i8o', 'out_layout': 'NCHW8c', 'out_dtype': ''}
  }
}
layer {
  name:"Node_392"
  type:"add"
  top:"Node_392"
  bottom:"Node_390"
  bottom:"p2_11"
  layer_param {
    idx:392
    in_0 {name:"Node_390:0",dtype:float32,shape:[1, 32, 14, 14, 8]}
    in_1 {name:"p2:0",dtype:float32,shape:[1, 32, 1, 1, 8]}
    out_0 {name:"Node_392:0",dtype:float32,shape:[1, 32, 14, 14, 8]}
  }
}
layer {
  name:"Node_393"
  type:"function"
  top:"Node_393"
  bottom:"p0_13"
  bottom:"p1_11"
  bottom:"p2_11"
  bottom:"Node_392"
  layer_param {
    idx:393
    in_0 {name:"p0:0",dtype:float32,shape:[1, 16, 28, 28, 8]}
    in_1 {name:"p1:0",dtype:float32,shape:[32, 16, 1, 1, 8, 8]}
    in_2 {name:"p2:0",dtype:float32,shape:[1, 32, 1, 1, 8]}
    in_3 {name:"Node_392:0",dtype:float32,shape:[1, 32, 14, 14, 8]}
    out_0 {name:"Node_393:0",dtype:float32,shape:[1, 32, 14, 14, 8]}
  }
}
layer {
  name:"Node_395"
  type:"const"
  top:"Node_395"
  layer_param {
    idx:395
    out_0 {name:"Node_395:0",dtype:float32,shape:[32, 16, 1, 1, 8, 8]}
  }
}
layer {
  name:"Node_396"
  type:"const"
  top:"Node_396"
  layer_param {
    idx:396
    out_0 {name:"Node_396:0",dtype:float32,shape:[1, 32, 1, 1, 8]}
  }
}
layer {
  name:"Node_397"
  type:"tuple"
  top:"Node_397"
  bottom:"x_23"
  bottom:"Node_395"
  bottom:"Node_396"
  layer_param {
    idx:397
    in_0 {name:"x:0",dtype:float32,shape:[1, 16, 28, 28, 8]}
    in_1 {name:"Node_395:0",dtype:float32,shape:[32, 16, 1, 1, 8, 8]}
    in_2 {name:"Node_396:0",dtype:float32,shape:[1, 32, 1, 1, 8]}
    out_0 {name:"Node_397:0",dtype:,shape:[]}
  }
}
layer {
  name:"Node_399"
  type:"tuple"
  top:"Node_399"
  bottom:"tensor_0_13"
  layer_param {
    idx:399
    in_0 {name:"tensor_0:0",dtype:float32,shape:[1, 32, 14, 14, 8]}
    out_0 {name:"Node_399:0",dtype:,shape:[]}
  }
}
layer {
  name:"Node_400"
  type:"vm_invoke_tvm_op"
  top:"Node_400"
  bottom:"Node_393"
  bottom:"Node_397"
  bottom:"Node_399"
  layer_param {
    idx:400
    in_0 {name:"Node_393:0",dtype:float32,shape:[1, 32, 14, 14, 8]}
    in_1 {name:"Node_397:0",dtype:,shape:[]}
    in_2 {name:"Node_399:0",dtype:,shape:[]}
    out_0 {name:"Node_400:0",dtype:,shape:[]}
  }
}
layer {
  name:"x_27"
  type:"var"
  top:"x_27"
  bottom:"tensor_0_13"
  layer_param {
    idx:401
    in_0 {name:"tensor_0:0",dtype:float32,shape:[1, 32, 14, 14, 8]}
    out_0 {name:"x:0",dtype:float32,shape:[1, 32, 14, 14, 8]}
  }
}
layer {
  name:"storage_0_14"
  type:"var"
  top:"storage_0_14"
  bottom:"Node_404"
  layer_param {
    idx:403
    in_0 {name:"Node_404:0",dtype:float32,shape:[200704, 64]}
    out_0 {name:"storage_0:0",dtype:,shape:[]}
  }
}
layer {
  name:"Node_404"
  type:"memory_alloc_storage"
  top:"Node_404"
  layer_param {
    idx:404
    out_0 {name:"Node_404:0",dtype:float32,shape:[200704, 64]}
    attrs {'dtype': 'float32', 'device_id': 0, 'device_type': 1}
  }
}
layer {
  name:"tensor_0_14"
  type:"var"
  top:"tensor_0_14"
  bottom:"Node_407"
  layer_param {
    idx:405
    in_0 {name:"Node_407:0",dtype:float32,shape:[1, 32, 14, 14, 8]}
    out_0 {name:"tensor_0:0",dtype:float32,shape:[1, 32, 14, 14, 8]}
  }
}
layer {
  name:"Node_407"
  type:"memory_alloc_tensor"
  top:"Node_407"
  bottom:"storage_0_14"
  layer_param {
    idx:407
    in_0 {name:"storage_0:0",dtype:,shape:[]}
    out_0 {name:"Node_407:0",dtype:float32,shape:[1, 32, 14, 14, 8]}
    attrs {'dtype': 'float32', 'const_shape': None, 'assert_shape': [1, 32, 14, 14, 8]}
  }
}
layer {
  name:"x_28"
  type:"var"
  top:"x_28"
  bottom:"Node_434"
  layer_param {
    idx:408
    in_0 {name:"Node_434:0",dtype:,shape:[]}
    out_0 {name:"x:0",dtype:,shape:[]}
  }
}
layer {
  name:"p0_14"
  type:"input"
  top:"p0_14"
  layer_param {
    idx:410
    out_0 {name:"p0:0",dtype:float32,shape:[1, 32, 14, 14, 8]}
  }
}
layer {
  name:"p1_12"
  type:"input"
  top:"p1_12"
  layer_param {
    idx:411
    out_0 {name:"p1:0",dtype:float32,shape:[32, 32, 3, 3, 8, 8]}
  }
}
layer {
  name:"p2_12"
  type:"input"
  top:"p2_12"
  layer_param {
    idx:412
    out_0 {name:"p2:0",dtype:float32,shape:[1, 32, 1, 1, 8]}
  }
}
layer {
  name:"p3_4"
  type:"input"
  top:"p3_4"
  layer_param {
    idx:413
    out_0 {name:"p3:0",dtype:float32,shape:[1, 32, 14, 14, 8]}
  }
}
layer {
  name:"Node_420"
  type:"nn_contrib_conv2d_NCHWc"
  top:"Node_420"
  bottom:"p0_14"
  bottom:"p1_12"
  layer_param {
    idx:420
    in_0 {name:"p0:0",dtype:float32,shape:[1, 32, 14, 14, 8]}
    in_1 {name:"p1:0",dtype:float32,shape:[32, 32, 3, 3, 8, 8]}
    out_0 {name:"Node_420:0",dtype:float32,shape:[1, 32, 14, 14, 8]}
    attrs {'strides': [1, 1], 'padding': [1, 1, 1, 1], 'dilation': [1, 1], 'groups': 1, 'channels': 256, 'kernel_size': [3, 3], 'data_layout': 'NCHW8c', 'kernel_layout': 'OIHW8i8o', 'out_layout': 'NCHW8c', 'out_dtype': ''}
  }
}
layer {
  name:"Node_422"
  type:"add"
  top:"Node_422"
  bottom:"Node_420"
  bottom:"p2_12"
  layer_param {
    idx:422
    in_0 {name:"Node_420:0",dtype:float32,shape:[1, 32, 14, 14, 8]}
    in_1 {name:"p2:0",dtype:float32,shape:[1, 32, 1, 1, 8]}
    out_0 {name:"Node_422:0",dtype:float32,shape:[1, 32, 14, 14, 8]}
  }
}
layer {
  name:"Node_424"
  type:"add"
  top:"Node_424"
  bottom:"Node_422"
  bottom:"p3_4"
  layer_param {
    idx:424
    in_0 {name:"Node_422:0",dtype:float32,shape:[1, 32, 14, 14, 8]}
    in_1 {name:"p3:0",dtype:float32,shape:[1, 32, 14, 14, 8]}
    out_0 {name:"Node_424:0",dtype:float32,shape:[1, 32, 14, 14, 8]}
  }
}
layer {
  name:"Node_425"
  type:"nn_relu"
  top:"Node_425"
  bottom:"Node_424"
  layer_param {
    idx:425
    in_0 {name:"Node_424:0",dtype:float32,shape:[1, 32, 14, 14, 8]}
    out_0 {name:"Node_425:0",dtype:float32,shape:[1, 32, 14, 14, 8]}
  }
}
layer {
  name:"Node_426"
  type:"function"
  top:"Node_426"
  bottom:"p0_14"
  bottom:"p1_12"
  bottom:"p2_12"
  bottom:"p3_4"
  bottom:"Node_425"
  layer_param {
    idx:426
    in_0 {name:"p0:0",dtype:float32,shape:[1, 32, 14, 14, 8]}
    in_1 {name:"p1:0",dtype:float32,shape:[32, 32, 3, 3, 8, 8]}
    in_2 {name:"p2:0",dtype:float32,shape:[1, 32, 1, 1, 8]}
    in_3 {name:"p3:0",dtype:float32,shape:[1, 32, 14, 14, 8]}
    in_4 {name:"Node_425:0",dtype:float32,shape:[1, 32, 14, 14, 8]}
    out_0 {name:"Node_426:0",dtype:float32,shape:[1, 32, 14, 14, 8]}
  }
}
layer {
  name:"Node_428"
  type:"const"
  top:"Node_428"
  layer_param {
    idx:428
    out_0 {name:"Node_428:0",dtype:float32,shape:[32, 32, 3, 3, 8, 8]}
  }
}
layer {
  name:"Node_429"
  type:"const"
  top:"Node_429"
  layer_param {
    idx:429
    out_0 {name:"Node_429:0",dtype:float32,shape:[1, 32, 1, 1, 8]}
  }
}
layer {
  name:"Node_431"
  type:"tuple"
  top:"Node_431"
  bottom:"x_25"
  bottom:"Node_428"
  bottom:"Node_429"
  bottom:"x_27"
  layer_param {
    idx:431
    in_0 {name:"x:0",dtype:float32,shape:[1, 32, 14, 14, 8]}
    in_1 {name:"Node_428:0",dtype:float32,shape:[32, 32, 3, 3, 8, 8]}
    in_2 {name:"Node_429:0",dtype:float32,shape:[1, 32, 1, 1, 8]}
    in_3 {name:"x:0",dtype:float32,shape:[1, 32, 14, 14, 8]}
    out_0 {name:"Node_431:0",dtype:,shape:[]}
  }
}
layer {
  name:"Node_433"
  type:"tuple"
  top:"Node_433"
  bottom:"tensor_0_14"
  layer_param {
    idx:433
    in_0 {name:"tensor_0:0",dtype:float32,shape:[1, 32, 14, 14, 8]}
    out_0 {name:"Node_433:0",dtype:,shape:[]}
  }
}
layer {
  name:"Node_434"
  type:"vm_invoke_tvm_op"
  top:"Node_434"
  bottom:"Node_426"
  bottom:"Node_431"
  bottom:"Node_433"
  layer_param {
    idx:434
    in_0 {name:"Node_426:0",dtype:float32,shape:[1, 32, 14, 14, 8]}
    in_1 {name:"Node_431:0",dtype:,shape:[]}
    in_2 {name:"Node_433:0",dtype:,shape:[]}
    out_0 {name:"Node_434:0",dtype:,shape:[]}
  }
}
layer {
  name:"x_29"
  type:"var"
  top:"x_29"
  bottom:"tensor_0_14"
  layer_param {
    idx:435
    in_0 {name:"tensor_0:0",dtype:float32,shape:[1, 32, 14, 14, 8]}
    out_0 {name:"x:0",dtype:float32,shape:[1, 32, 14, 14, 8]}
  }
}
layer {
  name:"storage_0_15"
  type:"var"
  top:"storage_0_15"
  bottom:"Node_438"
  layer_param {
    idx:437
    in_0 {name:"Node_438:0",dtype:float32,shape:[200704, 64]}
    out_0 {name:"storage_0:0",dtype:,shape:[]}
  }
}
layer {
  name:"Node_438"
  type:"memory_alloc_storage"
  top:"Node_438"
  layer_param {
    idx:438
    out_0 {name:"Node_438:0",dtype:float32,shape:[200704, 64]}
    attrs {'dtype': 'float32', 'device_id': 0, 'device_type': 1}
  }
}
layer {
  name:"tensor_0_15"
  type:"var"
  top:"tensor_0_15"
  bottom:"Node_441"
  layer_param {
    idx:439
    in_0 {name:"Node_441:0",dtype:float32,shape:[1, 32, 14, 14, 8]}
    out_0 {name:"tensor_0:0",dtype:float32,shape:[1, 32, 14, 14, 8]}
  }
}
layer {
  name:"Node_441"
  type:"memory_alloc_tensor"
  top:"Node_441"
  bottom:"storage_0_15"
  layer_param {
    idx:441
    in_0 {name:"storage_0:0",dtype:,shape:[]}
    out_0 {name:"Node_441:0",dtype:float32,shape:[1, 32, 14, 14, 8]}
    attrs {'dtype': 'float32', 'const_shape': None, 'assert_shape': [1, 32, 14, 14, 8]}
  }
}
layer {
  name:"x_30"
  type:"var"
  top:"x_30"
  bottom:"Node_463"
  layer_param {
    idx:442
    in_0 {name:"Node_463:0",dtype:,shape:[]}
    out_0 {name:"x:0",dtype:,shape:[]}
  }
}
layer {
  name:"p0_15"
  type:"input"
  top:"p0_15"
  layer_param {
    idx:444
    out_0 {name:"p0:0",dtype:float32,shape:[1, 32, 14, 14, 8]}
  }
}
layer {
  name:"p1_13"
  type:"input"
  top:"p1_13"
  layer_param {
    idx:445
    out_0 {name:"p1:0",dtype:float32,shape:[32, 32, 3, 3, 8, 8]}
  }
}
layer {
  name:"p2_13"
  type:"input"
  top:"p2_13"
  layer_param {
    idx:446
    out_0 {name:"p2:0",dtype:float32,shape:[1, 32, 1, 1, 8]}
  }
}
layer {
  name:"Node_452"
  type:"nn_contrib_conv2d_NCHWc"
  top:"Node_452"
  bottom:"p0_15"
  bottom:"p1_13"
  layer_param {
    idx:452
    in_0 {name:"p0:0",dtype:float32,shape:[1, 32, 14, 14, 8]}
    in_1 {name:"p1:0",dtype:float32,shape:[32, 32, 3, 3, 8, 8]}
    out_0 {name:"Node_452:0",dtype:float32,shape:[1, 32, 14, 14, 8]}
    attrs {'strides': [1, 1], 'padding': [1, 1, 1, 1], 'dilation': [1, 1], 'groups': 1, 'channels': 256, 'kernel_size': [3, 3], 'data_layout': 'NCHW8c', 'kernel_layout': 'OIHW8i8o', 'out_layout': 'NCHW8c', 'out_dtype': ''}
  }
}
layer {
  name:"Node_454"
  type:"add"
  top:"Node_454"
  bottom:"Node_452"
  bottom:"p2_13"
  layer_param {
    idx:454
    in_0 {name:"Node_452:0",dtype:float32,shape:[1, 32, 14, 14, 8]}
    in_1 {name:"p2:0",dtype:float32,shape:[1, 32, 1, 1, 8]}
    out_0 {name:"Node_454:0",dtype:float32,shape:[1, 32, 14, 14, 8]}
  }
}
layer {
  name:"Node_455"
  type:"nn_relu"
  top:"Node_455"
  bottom:"Node_454"
  layer_param {
    idx:455
    in_0 {name:"Node_454:0",dtype:float32,shape:[1, 32, 14, 14, 8]}
    out_0 {name:"Node_455:0",dtype:float32,shape:[1, 32, 14, 14, 8]}
  }
}
layer {
  name:"Node_456"
  type:"function"
  top:"Node_456"
  bottom:"p0_15"
  bottom:"p1_13"
  bottom:"p2_13"
  bottom:"Node_455"
  layer_param {
    idx:456
    in_0 {name:"p0:0",dtype:float32,shape:[1, 32, 14, 14, 8]}
    in_1 {name:"p1:0",dtype:float32,shape:[32, 32, 3, 3, 8, 8]}
    in_2 {name:"p2:0",dtype:float32,shape:[1, 32, 1, 1, 8]}
    in_3 {name:"Node_455:0",dtype:float32,shape:[1, 32, 14, 14, 8]}
    out_0 {name:"Node_456:0",dtype:float32,shape:[1, 32, 14, 14, 8]}
  }
}
layer {
  name:"Node_458"
  type:"const"
  top:"Node_458"
  layer_param {
    idx:458
    out_0 {name:"Node_458:0",dtype:float32,shape:[32, 32, 3, 3, 8, 8]}
  }
}
layer {
  name:"Node_459"
  type:"const"
  top:"Node_459"
  layer_param {
    idx:459
    out_0 {name:"Node_459:0",dtype:float32,shape:[1, 32, 1, 1, 8]}
  }
}
layer {
  name:"Node_460"
  type:"tuple"
  top:"Node_460"
  bottom:"x_29"
  bottom:"Node_458"
  bottom:"Node_459"
  layer_param {
    idx:460
    in_0 {name:"x:0",dtype:float32,shape:[1, 32, 14, 14, 8]}
    in_1 {name:"Node_458:0",dtype:float32,shape:[32, 32, 3, 3, 8, 8]}
    in_2 {name:"Node_459:0",dtype:float32,shape:[1, 32, 1, 1, 8]}
    out_0 {name:"Node_460:0",dtype:,shape:[]}
  }
}
layer {
  name:"Node_462"
  type:"tuple"
  top:"Node_462"
  bottom:"tensor_0_15"
  layer_param {
    idx:462
    in_0 {name:"tensor_0:0",dtype:float32,shape:[1, 32, 14, 14, 8]}
    out_0 {name:"Node_462:0",dtype:,shape:[]}
  }
}
layer {
  name:"Node_463"
  type:"vm_invoke_tvm_op"
  top:"Node_463"
  bottom:"Node_456"
  bottom:"Node_460"
  bottom:"Node_462"
  layer_param {
    idx:463
    in_0 {name:"Node_456:0",dtype:float32,shape:[1, 32, 14, 14, 8]}
    in_1 {name:"Node_460:0",dtype:,shape:[]}
    in_2 {name:"Node_462:0",dtype:,shape:[]}
    out_0 {name:"Node_463:0",dtype:,shape:[]}
  }
}
layer {
  name:"x_31"
  type:"var"
  top:"x_31"
  bottom:"tensor_0_15"
  layer_param {
    idx:464
    in_0 {name:"tensor_0:0",dtype:float32,shape:[1, 32, 14, 14, 8]}
    out_0 {name:"x:0",dtype:float32,shape:[1, 32, 14, 14, 8]}
  }
}
layer {
  name:"storage_0_16"
  type:"var"
  top:"storage_0_16"
  bottom:"Node_467"
  layer_param {
    idx:466
    in_0 {name:"Node_467:0",dtype:float32,shape:[200704, 64]}
    out_0 {name:"storage_0:0",dtype:,shape:[]}
  }
}
layer {
  name:"Node_467"
  type:"memory_alloc_storage"
  top:"Node_467"
  layer_param {
    idx:467
    out_0 {name:"Node_467:0",dtype:float32,shape:[200704, 64]}
    attrs {'dtype': 'float32', 'device_id': 0, 'device_type': 1}
  }
}
layer {
  name:"tensor_0_16"
  type:"var"
  top:"tensor_0_16"
  bottom:"Node_470"
  layer_param {
    idx:468
    in_0 {name:"Node_470:0",dtype:float32,shape:[1, 32, 14, 14, 8]}
    out_0 {name:"tensor_0:0",dtype:float32,shape:[1, 32, 14, 14, 8]}
  }
}
layer {
  name:"Node_470"
  type:"memory_alloc_tensor"
  top:"Node_470"
  bottom:"storage_0_16"
  layer_param {
    idx:470
    in_0 {name:"storage_0:0",dtype:,shape:[]}
    out_0 {name:"Node_470:0",dtype:float32,shape:[1, 32, 14, 14, 8]}
    attrs {'dtype': 'float32', 'const_shape': None, 'assert_shape': [1, 32, 14, 14, 8]}
  }
}
layer {
  name:"x_32"
  type:"var"
  top:"x_32"
  bottom:"Node_497"
  layer_param {
    idx:471
    in_0 {name:"Node_497:0",dtype:,shape:[]}
    out_0 {name:"x:0",dtype:,shape:[]}
  }
}
layer {
  name:"p0_16"
  type:"input"
  top:"p0_16"
  layer_param {
    idx:473
    out_0 {name:"p0:0",dtype:float32,shape:[1, 32, 14, 14, 8]}
  }
}
layer {
  name:"p1_14"
  type:"input"
  top:"p1_14"
  layer_param {
    idx:474
    out_0 {name:"p1:0",dtype:float32,shape:[32, 32, 3, 3, 8, 8]}
  }
}
layer {
  name:"p2_14"
  type:"input"
  top:"p2_14"
  layer_param {
    idx:475
    out_0 {name:"p2:0",dtype:float32,shape:[1, 32, 1, 1, 8]}
  }
}
layer {
  name:"p3_5"
  type:"input"
  top:"p3_5"
  layer_param {
    idx:476
    out_0 {name:"p3:0",dtype:float32,shape:[1, 32, 14, 14, 8]}
  }
}
layer {
  name:"Node_483"
  type:"nn_contrib_conv2d_NCHWc"
  top:"Node_483"
  bottom:"p0_16"
  bottom:"p1_14"
  layer_param {
    idx:483
    in_0 {name:"p0:0",dtype:float32,shape:[1, 32, 14, 14, 8]}
    in_1 {name:"p1:0",dtype:float32,shape:[32, 32, 3, 3, 8, 8]}
    out_0 {name:"Node_483:0",dtype:float32,shape:[1, 32, 14, 14, 8]}
    attrs {'strides': [1, 1], 'padding': [1, 1, 1, 1], 'dilation': [1, 1], 'groups': 1, 'channels': 256, 'kernel_size': [3, 3], 'data_layout': 'NCHW8c', 'kernel_layout': 'OIHW8i8o', 'out_layout': 'NCHW8c', 'out_dtype': ''}
  }
}
layer {
  name:"Node_485"
  type:"add"
  top:"Node_485"
  bottom:"Node_483"
  bottom:"p2_14"
  layer_param {
    idx:485
    in_0 {name:"Node_483:0",dtype:float32,shape:[1, 32, 14, 14, 8]}
    in_1 {name:"p2:0",dtype:float32,shape:[1, 32, 1, 1, 8]}
    out_0 {name:"Node_485:0",dtype:float32,shape:[1, 32, 14, 14, 8]}
  }
}
layer {
  name:"Node_487"
  type:"add"
  top:"Node_487"
  bottom:"Node_485"
  bottom:"p3_5"
  layer_param {
    idx:487
    in_0 {name:"Node_485:0",dtype:float32,shape:[1, 32, 14, 14, 8]}
    in_1 {name:"p3:0",dtype:float32,shape:[1, 32, 14, 14, 8]}
    out_0 {name:"Node_487:0",dtype:float32,shape:[1, 32, 14, 14, 8]}
  }
}
layer {
  name:"Node_488"
  type:"nn_relu"
  top:"Node_488"
  bottom:"Node_487"
  layer_param {
    idx:488
    in_0 {name:"Node_487:0",dtype:float32,shape:[1, 32, 14, 14, 8]}
    out_0 {name:"Node_488:0",dtype:float32,shape:[1, 32, 14, 14, 8]}
  }
}
layer {
  name:"Node_489"
  type:"function"
  top:"Node_489"
  bottom:"p0_16"
  bottom:"p1_14"
  bottom:"p2_14"
  bottom:"p3_5"
  bottom:"Node_488"
  layer_param {
    idx:489
    in_0 {name:"p0:0",dtype:float32,shape:[1, 32, 14, 14, 8]}
    in_1 {name:"p1:0",dtype:float32,shape:[32, 32, 3, 3, 8, 8]}
    in_2 {name:"p2:0",dtype:float32,shape:[1, 32, 1, 1, 8]}
    in_3 {name:"p3:0",dtype:float32,shape:[1, 32, 14, 14, 8]}
    in_4 {name:"Node_488:0",dtype:float32,shape:[1, 32, 14, 14, 8]}
    out_0 {name:"Node_489:0",dtype:float32,shape:[1, 32, 14, 14, 8]}
  }
}
layer {
  name:"Node_491"
  type:"const"
  top:"Node_491"
  layer_param {
    idx:491
    out_0 {name:"Node_491:0",dtype:float32,shape:[32, 32, 3, 3, 8, 8]}
  }
}
layer {
  name:"Node_492"
  type:"const"
  top:"Node_492"
  layer_param {
    idx:492
    out_0 {name:"Node_492:0",dtype:float32,shape:[1, 32, 1, 1, 8]}
  }
}
layer {
  name:"Node_494"
  type:"tuple"
  top:"Node_494"
  bottom:"x_31"
  bottom:"Node_491"
  bottom:"Node_492"
  bottom:"x_29"
  layer_param {
    idx:494
    in_0 {name:"x:0",dtype:float32,shape:[1, 32, 14, 14, 8]}
    in_1 {name:"Node_491:0",dtype:float32,shape:[32, 32, 3, 3, 8, 8]}
    in_2 {name:"Node_492:0",dtype:float32,shape:[1, 32, 1, 1, 8]}
    in_3 {name:"x:0",dtype:float32,shape:[1, 32, 14, 14, 8]}
    out_0 {name:"Node_494:0",dtype:,shape:[]}
  }
}
layer {
  name:"Node_496"
  type:"tuple"
  top:"Node_496"
  bottom:"tensor_0_16"
  layer_param {
    idx:496
    in_0 {name:"tensor_0:0",dtype:float32,shape:[1, 32, 14, 14, 8]}
    out_0 {name:"Node_496:0",dtype:,shape:[]}
  }
}
layer {
  name:"Node_497"
  type:"vm_invoke_tvm_op"
  top:"Node_497"
  bottom:"Node_489"
  bottom:"Node_494"
  bottom:"Node_496"
  layer_param {
    idx:497
    in_0 {name:"Node_489:0",dtype:float32,shape:[1, 32, 14, 14, 8]}
    in_1 {name:"Node_494:0",dtype:,shape:[]}
    in_2 {name:"Node_496:0",dtype:,shape:[]}
    out_0 {name:"Node_497:0",dtype:,shape:[]}
  }
}
layer {
  name:"x_33"
  type:"var"
  top:"x_33"
  bottom:"tensor_0_16"
  layer_param {
    idx:498
    in_0 {name:"tensor_0:0",dtype:float32,shape:[1, 32, 14, 14, 8]}
    out_0 {name:"x:0",dtype:float32,shape:[1, 32, 14, 14, 8]}
  }
}
layer {
  name:"storage_0_17"
  type:"var"
  top:"storage_0_17"
  bottom:"Node_501"
  layer_param {
    idx:500
    in_0 {name:"Node_501:0",dtype:float32,shape:[100352, 64]}
    out_0 {name:"storage_0:0",dtype:,shape:[]}
  }
}
layer {
  name:"Node_501"
  type:"memory_alloc_storage"
  top:"Node_501"
  layer_param {
    idx:501
    out_0 {name:"Node_501:0",dtype:float32,shape:[100352, 64]}
    attrs {'dtype': 'float32', 'device_id': 0, 'device_type': 1}
  }
}
layer {
  name:"tensor_0_17"
  type:"var"
  top:"tensor_0_17"
  bottom:"Node_504"
  layer_param {
    idx:502
    in_0 {name:"Node_504:0",dtype:float32,shape:[1, 64, 7, 7, 8]}
    out_0 {name:"tensor_0:0",dtype:float32,shape:[1, 64, 7, 7, 8]}
  }
}
layer {
  name:"Node_504"
  type:"memory_alloc_tensor"
  top:"Node_504"
  bottom:"storage_0_17"
  layer_param {
    idx:504
    in_0 {name:"storage_0:0",dtype:,shape:[]}
    out_0 {name:"Node_504:0",dtype:float32,shape:[1, 64, 7, 7, 8]}
    attrs {'dtype': 'float32', 'const_shape': None, 'assert_shape': [1, 64, 7, 7, 8]}
  }
}
layer {
  name:"x_34"
  type:"var"
  top:"x_34"
  bottom:"Node_526"
  layer_param {
    idx:505
    in_0 {name:"Node_526:0",dtype:,shape:[]}
    out_0 {name:"x:0",dtype:,shape:[]}
  }
}
layer {
  name:"p0_17"
  type:"input"
  top:"p0_17"
  layer_param {
    idx:507
    out_0 {name:"p0:0",dtype:float32,shape:[1, 32, 14, 14, 8]}
  }
}
layer {
  name:"p1_15"
  type:"input"
  top:"p1_15"
  layer_param {
    idx:508
    out_0 {name:"p1:0",dtype:float32,shape:[64, 32, 3, 3, 8, 8]}
  }
}
layer {
  name:"p2_15"
  type:"input"
  top:"p2_15"
  layer_param {
    idx:509
    out_0 {name:"p2:0",dtype:float32,shape:[1, 64, 1, 1, 8]}
  }
}
layer {
  name:"Node_515"
  type:"nn_contrib_conv2d_NCHWc"
  top:"Node_515"
  bottom:"p0_17"
  bottom:"p1_15"
  layer_param {
    idx:515
    in_0 {name:"p0:0",dtype:float32,shape:[1, 32, 14, 14, 8]}
    in_1 {name:"p1:0",dtype:float32,shape:[64, 32, 3, 3, 8, 8]}
    out_0 {name:"Node_515:0",dtype:float32,shape:[1, 64, 7, 7, 8]}
    attrs {'strides': [2, 2], 'padding': [1, 1, 1, 1], 'dilation': [1, 1], 'groups': 1, 'channels': 512, 'kernel_size': [3, 3], 'data_layout': 'NCHW8c', 'kernel_layout': 'OIHW8i8o', 'out_layout': 'NCHW8c', 'out_dtype': ''}
  }
}
layer {
  name:"Node_517"
  type:"add"
  top:"Node_517"
  bottom:"Node_515"
  bottom:"p2_15"
  layer_param {
    idx:517
    in_0 {name:"Node_515:0",dtype:float32,shape:[1, 64, 7, 7, 8]}
    in_1 {name:"p2:0",dtype:float32,shape:[1, 64, 1, 1, 8]}
    out_0 {name:"Node_517:0",dtype:float32,shape:[1, 64, 7, 7, 8]}
  }
}
layer {
  name:"Node_518"
  type:"nn_relu"
  top:"Node_518"
  bottom:"Node_517"
  layer_param {
    idx:518
    in_0 {name:"Node_517:0",dtype:float32,shape:[1, 64, 7, 7, 8]}
    out_0 {name:"Node_518:0",dtype:float32,shape:[1, 64, 7, 7, 8]}
  }
}
layer {
  name:"Node_519"
  type:"function"
  top:"Node_519"
  bottom:"p0_17"
  bottom:"p1_15"
  bottom:"p2_15"
  bottom:"Node_518"
  layer_param {
    idx:519
    in_0 {name:"p0:0",dtype:float32,shape:[1, 32, 14, 14, 8]}
    in_1 {name:"p1:0",dtype:float32,shape:[64, 32, 3, 3, 8, 8]}
    in_2 {name:"p2:0",dtype:float32,shape:[1, 64, 1, 1, 8]}
    in_3 {name:"Node_518:0",dtype:float32,shape:[1, 64, 7, 7, 8]}
    out_0 {name:"Node_519:0",dtype:float32,shape:[1, 64, 7, 7, 8]}
  }
}
layer {
  name:"Node_521"
  type:"const"
  top:"Node_521"
  layer_param {
    idx:521
    out_0 {name:"Node_521:0",dtype:float32,shape:[64, 32, 3, 3, 8, 8]}
  }
}
layer {
  name:"Node_522"
  type:"const"
  top:"Node_522"
  layer_param {
    idx:522
    out_0 {name:"Node_522:0",dtype:float32,shape:[1, 64, 1, 1, 8]}
  }
}
layer {
  name:"Node_523"
  type:"tuple"
  top:"Node_523"
  bottom:"x_33"
  bottom:"Node_521"
  bottom:"Node_522"
  layer_param {
    idx:523
    in_0 {name:"x:0",dtype:float32,shape:[1, 32, 14, 14, 8]}
    in_1 {name:"Node_521:0",dtype:float32,shape:[64, 32, 3, 3, 8, 8]}
    in_2 {name:"Node_522:0",dtype:float32,shape:[1, 64, 1, 1, 8]}
    out_0 {name:"Node_523:0",dtype:,shape:[]}
  }
}
layer {
  name:"Node_525"
  type:"tuple"
  top:"Node_525"
  bottom:"tensor_0_17"
  layer_param {
    idx:525
    in_0 {name:"tensor_0:0",dtype:float32,shape:[1, 64, 7, 7, 8]}
    out_0 {name:"Node_525:0",dtype:,shape:[]}
  }
}
layer {
  name:"Node_526"
  type:"vm_invoke_tvm_op"
  top:"Node_526"
  bottom:"Node_519"
  bottom:"Node_523"
  bottom:"Node_525"
  layer_param {
    idx:526
    in_0 {name:"Node_519:0",dtype:float32,shape:[1, 64, 7, 7, 8]}
    in_1 {name:"Node_523:0",dtype:,shape:[]}
    in_2 {name:"Node_525:0",dtype:,shape:[]}
    out_0 {name:"Node_526:0",dtype:,shape:[]}
  }
}
layer {
  name:"x_35"
  type:"var"
  top:"x_35"
  bottom:"tensor_0_17"
  layer_param {
    idx:527
    in_0 {name:"tensor_0:0",dtype:float32,shape:[1, 64, 7, 7, 8]}
    out_0 {name:"x:0",dtype:float32,shape:[1, 64, 7, 7, 8]}
  }
}
layer {
  name:"storage_0_18"
  type:"var"
  top:"storage_0_18"
  bottom:"Node_530"
  layer_param {
    idx:529
    in_0 {name:"Node_530:0",dtype:float32,shape:[100352, 64]}
    out_0 {name:"storage_0:0",dtype:,shape:[]}
  }
}
layer {
  name:"Node_530"
  type:"memory_alloc_storage"
  top:"Node_530"
  layer_param {
    idx:530
    out_0 {name:"Node_530:0",dtype:float32,shape:[100352, 64]}
    attrs {'dtype': 'float32', 'device_id': 0, 'device_type': 1}
  }
}
layer {
  name:"tensor_0_18"
  type:"var"
  top:"tensor_0_18"
  bottom:"Node_533"
  layer_param {
    idx:531
    in_0 {name:"Node_533:0",dtype:float32,shape:[1, 64, 7, 7, 8]}
    out_0 {name:"tensor_0:0",dtype:float32,shape:[1, 64, 7, 7, 8]}
  }
}
layer {
  name:"Node_533"
  type:"memory_alloc_tensor"
  top:"Node_533"
  bottom:"storage_0_18"
  layer_param {
    idx:533
    in_0 {name:"storage_0:0",dtype:,shape:[]}
    out_0 {name:"Node_533:0",dtype:float32,shape:[1, 64, 7, 7, 8]}
    attrs {'dtype': 'float32', 'const_shape': None, 'assert_shape': [1, 64, 7, 7, 8]}
  }
}
layer {
  name:"x_36"
  type:"var"
  top:"x_36"
  bottom:"Node_553"
  layer_param {
    idx:534
    in_0 {name:"Node_553:0",dtype:,shape:[]}
    out_0 {name:"x:0",dtype:,shape:[]}
  }
}
layer {
  name:"p0_18"
  type:"input"
  top:"p0_18"
  layer_param {
    idx:536
    out_0 {name:"p0:0",dtype:float32,shape:[1, 32, 14, 14, 8]}
  }
}
layer {
  name:"p1_16"
  type:"input"
  top:"p1_16"
  layer_param {
    idx:537
    out_0 {name:"p1:0",dtype:float32,shape:[64, 32, 1, 1, 8, 8]}
  }
}
layer {
  name:"p2_16"
  type:"input"
  top:"p2_16"
  layer_param {
    idx:538
    out_0 {name:"p2:0",dtype:float32,shape:[1, 64, 1, 1, 8]}
  }
}
layer {
  name:"Node_543"
  type:"nn_contrib_conv2d_NCHWc"
  top:"Node_543"
  bottom:"p0_18"
  bottom:"p1_16"
  layer_param {
    idx:543
    in_0 {name:"p0:0",dtype:float32,shape:[1, 32, 14, 14, 8]}
    in_1 {name:"p1:0",dtype:float32,shape:[64, 32, 1, 1, 8, 8]}
    out_0 {name:"Node_543:0",dtype:float32,shape:[1, 64, 7, 7, 8]}
    attrs {'strides': [2, 2], 'padding': [0, 0, 0, 0], 'dilation': [1, 1], 'groups': 1, 'channels': 512, 'kernel_size': [1, 1], 'data_layout': 'NCHW8c', 'kernel_layout': 'OIHW8i8o', 'out_layout': 'NCHW8c', 'out_dtype': ''}
  }
}
layer {
  name:"Node_545"
  type:"add"
  top:"Node_545"
  bottom:"Node_543"
  bottom:"p2_16"
  layer_param {
    idx:545
    in_0 {name:"Node_543:0",dtype:float32,shape:[1, 64, 7, 7, 8]}
    in_1 {name:"p2:0",dtype:float32,shape:[1, 64, 1, 1, 8]}
    out_0 {name:"Node_545:0",dtype:float32,shape:[1, 64, 7, 7, 8]}
  }
}
layer {
  name:"Node_546"
  type:"function"
  top:"Node_546"
  bottom:"p0_18"
  bottom:"p1_16"
  bottom:"p2_16"
  bottom:"Node_545"
  layer_param {
    idx:546
    in_0 {name:"p0:0",dtype:float32,shape:[1, 32, 14, 14, 8]}
    in_1 {name:"p1:0",dtype:float32,shape:[64, 32, 1, 1, 8, 8]}
    in_2 {name:"p2:0",dtype:float32,shape:[1, 64, 1, 1, 8]}
    in_3 {name:"Node_545:0",dtype:float32,shape:[1, 64, 7, 7, 8]}
    out_0 {name:"Node_546:0",dtype:float32,shape:[1, 64, 7, 7, 8]}
  }
}
layer {
  name:"Node_548"
  type:"const"
  top:"Node_548"
  layer_param {
    idx:548
    out_0 {name:"Node_548:0",dtype:float32,shape:[64, 32, 1, 1, 8, 8]}
  }
}
layer {
  name:"Node_549"
  type:"const"
  top:"Node_549"
  layer_param {
    idx:549
    out_0 {name:"Node_549:0",dtype:float32,shape:[1, 64, 1, 1, 8]}
  }
}
layer {
  name:"Node_550"
  type:"tuple"
  top:"Node_550"
  bottom:"x_33"
  bottom:"Node_548"
  bottom:"Node_549"
  layer_param {
    idx:550
    in_0 {name:"x:0",dtype:float32,shape:[1, 32, 14, 14, 8]}
    in_1 {name:"Node_548:0",dtype:float32,shape:[64, 32, 1, 1, 8, 8]}
    in_2 {name:"Node_549:0",dtype:float32,shape:[1, 64, 1, 1, 8]}
    out_0 {name:"Node_550:0",dtype:,shape:[]}
  }
}
layer {
  name:"Node_552"
  type:"tuple"
  top:"Node_552"
  bottom:"tensor_0_18"
  layer_param {
    idx:552
    in_0 {name:"tensor_0:0",dtype:float32,shape:[1, 64, 7, 7, 8]}
    out_0 {name:"Node_552:0",dtype:,shape:[]}
  }
}
layer {
  name:"Node_553"
  type:"vm_invoke_tvm_op"
  top:"Node_553"
  bottom:"Node_546"
  bottom:"Node_550"
  bottom:"Node_552"
  layer_param {
    idx:553
    in_0 {name:"Node_546:0",dtype:float32,shape:[1, 64, 7, 7, 8]}
    in_1 {name:"Node_550:0",dtype:,shape:[]}
    in_2 {name:"Node_552:0",dtype:,shape:[]}
    out_0 {name:"Node_553:0",dtype:,shape:[]}
  }
}
layer {
  name:"x_37"
  type:"var"
  top:"x_37"
  bottom:"tensor_0_18"
  layer_param {
    idx:554
    in_0 {name:"tensor_0:0",dtype:float32,shape:[1, 64, 7, 7, 8]}
    out_0 {name:"x:0",dtype:float32,shape:[1, 64, 7, 7, 8]}
  }
}
layer {
  name:"storage_0_19"
  type:"var"
  top:"storage_0_19"
  bottom:"Node_557"
  layer_param {
    idx:556
    in_0 {name:"Node_557:0",dtype:float32,shape:[100352, 64]}
    out_0 {name:"storage_0:0",dtype:,shape:[]}
  }
}
layer {
  name:"Node_557"
  type:"memory_alloc_storage"
  top:"Node_557"
  layer_param {
    idx:557
    out_0 {name:"Node_557:0",dtype:float32,shape:[100352, 64]}
    attrs {'dtype': 'float32', 'device_id': 0, 'device_type': 1}
  }
}
layer {
  name:"tensor_0_19"
  type:"var"
  top:"tensor_0_19"
  bottom:"Node_560"
  layer_param {
    idx:558
    in_0 {name:"Node_560:0",dtype:float32,shape:[1, 64, 7, 7, 8]}
    out_0 {name:"tensor_0:0",dtype:float32,shape:[1, 64, 7, 7, 8]}
  }
}
layer {
  name:"Node_560"
  type:"memory_alloc_tensor"
  top:"Node_560"
  bottom:"storage_0_19"
  layer_param {
    idx:560
    in_0 {name:"storage_0:0",dtype:,shape:[]}
    out_0 {name:"Node_560:0",dtype:float32,shape:[1, 64, 7, 7, 8]}
    attrs {'dtype': 'float32', 'const_shape': None, 'assert_shape': [1, 64, 7, 7, 8]}
  }
}
layer {
  name:"x_38"
  type:"var"
  top:"x_38"
  bottom:"Node_587"
  layer_param {
    idx:561
    in_0 {name:"Node_587:0",dtype:,shape:[]}
    out_0 {name:"x:0",dtype:,shape:[]}
  }
}
layer {
  name:"p0_19"
  type:"input"
  top:"p0_19"
  layer_param {
    idx:563
    out_0 {name:"p0:0",dtype:float32,shape:[1, 64, 7, 7, 8]}
  }
}
layer {
  name:"p1_17"
  type:"input"
  top:"p1_17"
  layer_param {
    idx:564
    out_0 {name:"p1:0",dtype:float32,shape:[64, 64, 3, 3, 8, 8]}
  }
}
layer {
  name:"p2_17"
  type:"input"
  top:"p2_17"
  layer_param {
    idx:565
    out_0 {name:"p2:0",dtype:float32,shape:[1, 64, 1, 1, 8]}
  }
}
layer {
  name:"p3_6"
  type:"input"
  top:"p3_6"
  layer_param {
    idx:566
    out_0 {name:"p3:0",dtype:float32,shape:[1, 64, 7, 7, 8]}
  }
}
layer {
  name:"Node_573"
  type:"nn_contrib_conv2d_NCHWc"
  top:"Node_573"
  bottom:"p0_19"
  bottom:"p1_17"
  layer_param {
    idx:573
    in_0 {name:"p0:0",dtype:float32,shape:[1, 64, 7, 7, 8]}
    in_1 {name:"p1:0",dtype:float32,shape:[64, 64, 3, 3, 8, 8]}
    out_0 {name:"Node_573:0",dtype:float32,shape:[1, 64, 7, 7, 8]}
    attrs {'strides': [1, 1], 'padding': [1, 1, 1, 1], 'dilation': [1, 1], 'groups': 1, 'channels': 512, 'kernel_size': [3, 3], 'data_layout': 'NCHW8c', 'kernel_layout': 'OIHW8i8o', 'out_layout': 'NCHW8c', 'out_dtype': ''}
  }
}
layer {
  name:"Node_575"
  type:"add"
  top:"Node_575"
  bottom:"Node_573"
  bottom:"p2_17"
  layer_param {
    idx:575
    in_0 {name:"Node_573:0",dtype:float32,shape:[1, 64, 7, 7, 8]}
    in_1 {name:"p2:0",dtype:float32,shape:[1, 64, 1, 1, 8]}
    out_0 {name:"Node_575:0",dtype:float32,shape:[1, 64, 7, 7, 8]}
  }
}
layer {
  name:"Node_577"
  type:"add"
  top:"Node_577"
  bottom:"Node_575"
  bottom:"p3_6"
  layer_param {
    idx:577
    in_0 {name:"Node_575:0",dtype:float32,shape:[1, 64, 7, 7, 8]}
    in_1 {name:"p3:0",dtype:float32,shape:[1, 64, 7, 7, 8]}
    out_0 {name:"Node_577:0",dtype:float32,shape:[1, 64, 7, 7, 8]}
  }
}
layer {
  name:"Node_578"
  type:"nn_relu"
  top:"Node_578"
  bottom:"Node_577"
  layer_param {
    idx:578
    in_0 {name:"Node_577:0",dtype:float32,shape:[1, 64, 7, 7, 8]}
    out_0 {name:"Node_578:0",dtype:float32,shape:[1, 64, 7, 7, 8]}
  }
}
layer {
  name:"Node_579"
  type:"function"
  top:"Node_579"
  bottom:"p0_19"
  bottom:"p1_17"
  bottom:"p2_17"
  bottom:"p3_6"
  bottom:"Node_578"
  layer_param {
    idx:579
    in_0 {name:"p0:0",dtype:float32,shape:[1, 64, 7, 7, 8]}
    in_1 {name:"p1:0",dtype:float32,shape:[64, 64, 3, 3, 8, 8]}
    in_2 {name:"p2:0",dtype:float32,shape:[1, 64, 1, 1, 8]}
    in_3 {name:"p3:0",dtype:float32,shape:[1, 64, 7, 7, 8]}
    in_4 {name:"Node_578:0",dtype:float32,shape:[1, 64, 7, 7, 8]}
    out_0 {name:"Node_579:0",dtype:float32,shape:[1, 64, 7, 7, 8]}
  }
}
layer {
  name:"Node_581"
  type:"const"
  top:"Node_581"
  layer_param {
    idx:581
    out_0 {name:"Node_581:0",dtype:float32,shape:[64, 64, 3, 3, 8, 8]}
  }
}
layer {
  name:"Node_582"
  type:"const"
  top:"Node_582"
  layer_param {
    idx:582
    out_0 {name:"Node_582:0",dtype:float32,shape:[1, 64, 1, 1, 8]}
  }
}
layer {
  name:"Node_584"
  type:"tuple"
  top:"Node_584"
  bottom:"x_35"
  bottom:"Node_581"
  bottom:"Node_582"
  bottom:"x_37"
  layer_param {
    idx:584
    in_0 {name:"x:0",dtype:float32,shape:[1, 64, 7, 7, 8]}
    in_1 {name:"Node_581:0",dtype:float32,shape:[64, 64, 3, 3, 8, 8]}
    in_2 {name:"Node_582:0",dtype:float32,shape:[1, 64, 1, 1, 8]}
    in_3 {name:"x:0",dtype:float32,shape:[1, 64, 7, 7, 8]}
    out_0 {name:"Node_584:0",dtype:,shape:[]}
  }
}
layer {
  name:"Node_586"
  type:"tuple"
  top:"Node_586"
  bottom:"tensor_0_19"
  layer_param {
    idx:586
    in_0 {name:"tensor_0:0",dtype:float32,shape:[1, 64, 7, 7, 8]}
    out_0 {name:"Node_586:0",dtype:,shape:[]}
  }
}
layer {
  name:"Node_587"
  type:"vm_invoke_tvm_op"
  top:"Node_587"
  bottom:"Node_579"
  bottom:"Node_584"
  bottom:"Node_586"
  layer_param {
    idx:587
    in_0 {name:"Node_579:0",dtype:float32,shape:[1, 64, 7, 7, 8]}
    in_1 {name:"Node_584:0",dtype:,shape:[]}
    in_2 {name:"Node_586:0",dtype:,shape:[]}
    out_0 {name:"Node_587:0",dtype:,shape:[]}
  }
}
layer {
  name:"x_39"
  type:"var"
  top:"x_39"
  bottom:"tensor_0_19"
  layer_param {
    idx:588
    in_0 {name:"tensor_0:0",dtype:float32,shape:[1, 64, 7, 7, 8]}
    out_0 {name:"x:0",dtype:float32,shape:[1, 64, 7, 7, 8]}
  }
}
layer {
  name:"storage_0_20"
  type:"var"
  top:"storage_0_20"
  bottom:"Node_591"
  layer_param {
    idx:590
    in_0 {name:"Node_591:0",dtype:float32,shape:[100352, 64]}
    out_0 {name:"storage_0:0",dtype:,shape:[]}
  }
}
layer {
  name:"Node_591"
  type:"memory_alloc_storage"
  top:"Node_591"
  layer_param {
    idx:591
    out_0 {name:"Node_591:0",dtype:float32,shape:[100352, 64]}
    attrs {'dtype': 'float32', 'device_id': 0, 'device_type': 1}
  }
}
layer {
  name:"tensor_0_20"
  type:"var"
  top:"tensor_0_20"
  bottom:"Node_594"
  layer_param {
    idx:592
    in_0 {name:"Node_594:0",dtype:float32,shape:[1, 64, 7, 7, 8]}
    out_0 {name:"tensor_0:0",dtype:float32,shape:[1, 64, 7, 7, 8]}
  }
}
layer {
  name:"Node_594"
  type:"memory_alloc_tensor"
  top:"Node_594"
  bottom:"storage_0_20"
  layer_param {
    idx:594
    in_0 {name:"storage_0:0",dtype:,shape:[]}
    out_0 {name:"Node_594:0",dtype:float32,shape:[1, 64, 7, 7, 8]}
    attrs {'dtype': 'float32', 'const_shape': None, 'assert_shape': [1, 64, 7, 7, 8]}
  }
}
layer {
  name:"x_40"
  type:"var"
  top:"x_40"
  bottom:"Node_616"
  layer_param {
    idx:595
    in_0 {name:"Node_616:0",dtype:,shape:[]}
    out_0 {name:"x:0",dtype:,shape:[]}
  }
}
layer {
  name:"p0_20"
  type:"input"
  top:"p0_20"
  layer_param {
    idx:597
    out_0 {name:"p0:0",dtype:float32,shape:[1, 64, 7, 7, 8]}
  }
}
layer {
  name:"p1_18"
  type:"input"
  top:"p1_18"
  layer_param {
    idx:598
    out_0 {name:"p1:0",dtype:float32,shape:[64, 64, 3, 3, 8, 8]}
  }
}
layer {
  name:"p2_18"
  type:"input"
  top:"p2_18"
  layer_param {
    idx:599
    out_0 {name:"p2:0",dtype:float32,shape:[1, 64, 1, 1, 8]}
  }
}
layer {
  name:"Node_605"
  type:"nn_contrib_conv2d_NCHWc"
  top:"Node_605"
  bottom:"p0_20"
  bottom:"p1_18"
  layer_param {
    idx:605
    in_0 {name:"p0:0",dtype:float32,shape:[1, 64, 7, 7, 8]}
    in_1 {name:"p1:0",dtype:float32,shape:[64, 64, 3, 3, 8, 8]}
    out_0 {name:"Node_605:0",dtype:float32,shape:[1, 64, 7, 7, 8]}
    attrs {'strides': [1, 1], 'padding': [1, 1, 1, 1], 'dilation': [1, 1], 'groups': 1, 'channels': 512, 'kernel_size': [3, 3], 'data_layout': 'NCHW8c', 'kernel_layout': 'OIHW8i8o', 'out_layout': 'NCHW8c', 'out_dtype': ''}
  }
}
layer {
  name:"Node_607"
  type:"add"
  top:"Node_607"
  bottom:"Node_605"
  bottom:"p2_18"
  layer_param {
    idx:607
    in_0 {name:"Node_605:0",dtype:float32,shape:[1, 64, 7, 7, 8]}
    in_1 {name:"p2:0",dtype:float32,shape:[1, 64, 1, 1, 8]}
    out_0 {name:"Node_607:0",dtype:float32,shape:[1, 64, 7, 7, 8]}
  }
}
layer {
  name:"Node_608"
  type:"nn_relu"
  top:"Node_608"
  bottom:"Node_607"
  layer_param {
    idx:608
    in_0 {name:"Node_607:0",dtype:float32,shape:[1, 64, 7, 7, 8]}
    out_0 {name:"Node_608:0",dtype:float32,shape:[1, 64, 7, 7, 8]}
  }
}
layer {
  name:"Node_609"
  type:"function"
  top:"Node_609"
  bottom:"p0_20"
  bottom:"p1_18"
  bottom:"p2_18"
  bottom:"Node_608"
  layer_param {
    idx:609
    in_0 {name:"p0:0",dtype:float32,shape:[1, 64, 7, 7, 8]}
    in_1 {name:"p1:0",dtype:float32,shape:[64, 64, 3, 3, 8, 8]}
    in_2 {name:"p2:0",dtype:float32,shape:[1, 64, 1, 1, 8]}
    in_3 {name:"Node_608:0",dtype:float32,shape:[1, 64, 7, 7, 8]}
    out_0 {name:"Node_609:0",dtype:float32,shape:[1, 64, 7, 7, 8]}
  }
}
layer {
  name:"Node_611"
  type:"const"
  top:"Node_611"
  layer_param {
    idx:611
    out_0 {name:"Node_611:0",dtype:float32,shape:[64, 64, 3, 3, 8, 8]}
  }
}
layer {
  name:"Node_612"
  type:"const"
  top:"Node_612"
  layer_param {
    idx:612
    out_0 {name:"Node_612:0",dtype:float32,shape:[1, 64, 1, 1, 8]}
  }
}
layer {
  name:"Node_613"
  type:"tuple"
  top:"Node_613"
  bottom:"x_39"
  bottom:"Node_611"
  bottom:"Node_612"
  layer_param {
    idx:613
    in_0 {name:"x:0",dtype:float32,shape:[1, 64, 7, 7, 8]}
    in_1 {name:"Node_611:0",dtype:float32,shape:[64, 64, 3, 3, 8, 8]}
    in_2 {name:"Node_612:0",dtype:float32,shape:[1, 64, 1, 1, 8]}
    out_0 {name:"Node_613:0",dtype:,shape:[]}
  }
}
layer {
  name:"Node_615"
  type:"tuple"
  top:"Node_615"
  bottom:"tensor_0_20"
  layer_param {
    idx:615
    in_0 {name:"tensor_0:0",dtype:float32,shape:[1, 64, 7, 7, 8]}
    out_0 {name:"Node_615:0",dtype:,shape:[]}
  }
}
layer {
  name:"Node_616"
  type:"vm_invoke_tvm_op"
  top:"Node_616"
  bottom:"Node_609"
  bottom:"Node_613"
  bottom:"Node_615"
  layer_param {
    idx:616
    in_0 {name:"Node_609:0",dtype:float32,shape:[1, 64, 7, 7, 8]}
    in_1 {name:"Node_613:0",dtype:,shape:[]}
    in_2 {name:"Node_615:0",dtype:,shape:[]}
    out_0 {name:"Node_616:0",dtype:,shape:[]}
  }
}
layer {
  name:"x_41"
  type:"var"
  top:"x_41"
  bottom:"tensor_0_20"
  layer_param {
    idx:617
    in_0 {name:"tensor_0:0",dtype:float32,shape:[1, 64, 7, 7, 8]}
    out_0 {name:"x:0",dtype:float32,shape:[1, 64, 7, 7, 8]}
  }
}
layer {
  name:"storage_0_21"
  type:"var"
  top:"storage_0_21"
  bottom:"Node_620"
  layer_param {
    idx:619
    in_0 {name:"Node_620:0",dtype:float32,shape:[100352, 64]}
    out_0 {name:"storage_0:0",dtype:,shape:[]}
  }
}
layer {
  name:"Node_620"
  type:"memory_alloc_storage"
  top:"Node_620"
  layer_param {
    idx:620
    out_0 {name:"Node_620:0",dtype:float32,shape:[100352, 64]}
    attrs {'dtype': 'float32', 'device_id': 0, 'device_type': 1}
  }
}
layer {
  name:"tensor_0_21"
  type:"var"
  top:"tensor_0_21"
  bottom:"Node_623"
  layer_param {
    idx:621
    in_0 {name:"Node_623:0",dtype:float32,shape:[1, 64, 7, 7, 8]}
    out_0 {name:"tensor_0:0",dtype:float32,shape:[1, 64, 7, 7, 8]}
  }
}
layer {
  name:"Node_623"
  type:"memory_alloc_tensor"
  top:"Node_623"
  bottom:"storage_0_21"
  layer_param {
    idx:623
    in_0 {name:"storage_0:0",dtype:,shape:[]}
    out_0 {name:"Node_623:0",dtype:float32,shape:[1, 64, 7, 7, 8]}
    attrs {'dtype': 'float32', 'const_shape': None, 'assert_shape': [1, 64, 7, 7, 8]}
  }
}
layer {
  name:"x_42"
  type:"var"
  top:"x_42"
  bottom:"Node_650"
  layer_param {
    idx:624
    in_0 {name:"Node_650:0",dtype:,shape:[]}
    out_0 {name:"x:0",dtype:,shape:[]}
  }
}
layer {
  name:"p0_21"
  type:"input"
  top:"p0_21"
  layer_param {
    idx:626
    out_0 {name:"p0:0",dtype:float32,shape:[1, 64, 7, 7, 8]}
  }
}
layer {
  name:"p1_19"
  type:"input"
  top:"p1_19"
  layer_param {
    idx:627
    out_0 {name:"p1:0",dtype:float32,shape:[64, 64, 3, 3, 8, 8]}
  }
}
layer {
  name:"p2_19"
  type:"input"
  top:"p2_19"
  layer_param {
    idx:628
    out_0 {name:"p2:0",dtype:float32,shape:[1, 64, 1, 1, 8]}
  }
}
layer {
  name:"p3_7"
  type:"input"
  top:"p3_7"
  layer_param {
    idx:629
    out_0 {name:"p3:0",dtype:float32,shape:[1, 64, 7, 7, 8]}
  }
}
layer {
  name:"Node_636"
  type:"nn_contrib_conv2d_NCHWc"
  top:"Node_636"
  bottom:"p0_21"
  bottom:"p1_19"
  layer_param {
    idx:636
    in_0 {name:"p0:0",dtype:float32,shape:[1, 64, 7, 7, 8]}
    in_1 {name:"p1:0",dtype:float32,shape:[64, 64, 3, 3, 8, 8]}
    out_0 {name:"Node_636:0",dtype:float32,shape:[1, 64, 7, 7, 8]}
    attrs {'strides': [1, 1], 'padding': [1, 1, 1, 1], 'dilation': [1, 1], 'groups': 1, 'channels': 512, 'kernel_size': [3, 3], 'data_layout': 'NCHW8c', 'kernel_layout': 'OIHW8i8o', 'out_layout': 'NCHW8c', 'out_dtype': ''}
  }
}
layer {
  name:"Node_638"
  type:"add"
  top:"Node_638"
  bottom:"Node_636"
  bottom:"p2_19"
  layer_param {
    idx:638
    in_0 {name:"Node_636:0",dtype:float32,shape:[1, 64, 7, 7, 8]}
    in_1 {name:"p2:0",dtype:float32,shape:[1, 64, 1, 1, 8]}
    out_0 {name:"Node_638:0",dtype:float32,shape:[1, 64, 7, 7, 8]}
  }
}
layer {
  name:"Node_640"
  type:"add"
  top:"Node_640"
  bottom:"Node_638"
  bottom:"p3_7"
  layer_param {
    idx:640
    in_0 {name:"Node_638:0",dtype:float32,shape:[1, 64, 7, 7, 8]}
    in_1 {name:"p3:0",dtype:float32,shape:[1, 64, 7, 7, 8]}
    out_0 {name:"Node_640:0",dtype:float32,shape:[1, 64, 7, 7, 8]}
  }
}
layer {
  name:"Node_641"
  type:"nn_relu"
  top:"Node_641"
  bottom:"Node_640"
  layer_param {
    idx:641
    in_0 {name:"Node_640:0",dtype:float32,shape:[1, 64, 7, 7, 8]}
    out_0 {name:"Node_641:0",dtype:float32,shape:[1, 64, 7, 7, 8]}
  }
}
layer {
  name:"Node_642"
  type:"function"
  top:"Node_642"
  bottom:"p0_21"
  bottom:"p1_19"
  bottom:"p2_19"
  bottom:"p3_7"
  bottom:"Node_641"
  layer_param {
    idx:642
    in_0 {name:"p0:0",dtype:float32,shape:[1, 64, 7, 7, 8]}
    in_1 {name:"p1:0",dtype:float32,shape:[64, 64, 3, 3, 8, 8]}
    in_2 {name:"p2:0",dtype:float32,shape:[1, 64, 1, 1, 8]}
    in_3 {name:"p3:0",dtype:float32,shape:[1, 64, 7, 7, 8]}
    in_4 {name:"Node_641:0",dtype:float32,shape:[1, 64, 7, 7, 8]}
    out_0 {name:"Node_642:0",dtype:float32,shape:[1, 64, 7, 7, 8]}
  }
}
layer {
  name:"Node_644"
  type:"const"
  top:"Node_644"
  layer_param {
    idx:644
    out_0 {name:"Node_644:0",dtype:float32,shape:[64, 64, 3, 3, 8, 8]}
  }
}
layer {
  name:"Node_645"
  type:"const"
  top:"Node_645"
  layer_param {
    idx:645
    out_0 {name:"Node_645:0",dtype:float32,shape:[1, 64, 1, 1, 8]}
  }
}
layer {
  name:"Node_647"
  type:"tuple"
  top:"Node_647"
  bottom:"x_41"
  bottom:"Node_644"
  bottom:"Node_645"
  bottom:"x_39"
  layer_param {
    idx:647
    in_0 {name:"x:0",dtype:float32,shape:[1, 64, 7, 7, 8]}
    in_1 {name:"Node_644:0",dtype:float32,shape:[64, 64, 3, 3, 8, 8]}
    in_2 {name:"Node_645:0",dtype:float32,shape:[1, 64, 1, 1, 8]}
    in_3 {name:"x:0",dtype:float32,shape:[1, 64, 7, 7, 8]}
    out_0 {name:"Node_647:0",dtype:,shape:[]}
  }
}
layer {
  name:"Node_649"
  type:"tuple"
  top:"Node_649"
  bottom:"tensor_0_21"
  layer_param {
    idx:649
    in_0 {name:"tensor_0:0",dtype:float32,shape:[1, 64, 7, 7, 8]}
    out_0 {name:"Node_649:0",dtype:,shape:[]}
  }
}
layer {
  name:"Node_650"
  type:"vm_invoke_tvm_op"
  top:"Node_650"
  bottom:"Node_642"
  bottom:"Node_647"
  bottom:"Node_649"
  layer_param {
    idx:650
    in_0 {name:"Node_642:0",dtype:float32,shape:[1, 64, 7, 7, 8]}
    in_1 {name:"Node_647:0",dtype:,shape:[]}
    in_2 {name:"Node_649:0",dtype:,shape:[]}
    out_0 {name:"Node_650:0",dtype:,shape:[]}
  }
}
layer {
  name:"x_43"
  type:"var"
  top:"x_43"
  bottom:"tensor_0_21"
  layer_param {
    idx:651
    in_0 {name:"tensor_0:0",dtype:float32,shape:[1, 64, 7, 7, 8]}
    out_0 {name:"x:0",dtype:float32,shape:[1, 64, 7, 7, 8]}
  }
}
layer {
  name:"storage_0_22"
  type:"var"
  top:"storage_0_22"
  bottom:"Node_654"
  layer_param {
    idx:653
    in_0 {name:"Node_654:0",dtype:float32,shape:[2048, 64]}
    out_0 {name:"storage_0:0",dtype:,shape:[]}
  }
}
layer {
  name:"Node_654"
  type:"memory_alloc_storage"
  top:"Node_654"
  layer_param {
    idx:654
    out_0 {name:"Node_654:0",dtype:float32,shape:[2048, 64]}
    attrs {'dtype': 'float32', 'device_id': 0, 'device_type': 1}
  }
}
layer {
  name:"tensor_0_22"
  type:"var"
  top:"tensor_0_22"
  bottom:"Node_657"
  layer_param {
    idx:655
    in_0 {name:"Node_657:0",dtype:float32,shape:[1, 64, 1, 1, 8]}
    out_0 {name:"tensor_0:0",dtype:float32,shape:[1, 64, 1, 1, 8]}
  }
}
layer {
  name:"Node_657"
  type:"memory_alloc_tensor"
  top:"Node_657"
  bottom:"storage_0_22"
  layer_param {
    idx:657
    in_0 {name:"storage_0:0",dtype:,shape:[]}
    out_0 {name:"Node_657:0",dtype:float32,shape:[1, 64, 1, 1, 8]}
    attrs {'dtype': 'float32', 'const_shape': None, 'assert_shape': [1, 64, 1, 1, 8]}
  }
}
layer {
  name:"x_44"
  type:"var"
  top:"x_44"
  bottom:"Node_669"
  layer_param {
    idx:658
    in_0 {name:"Node_669:0",dtype:,shape:[]}
    out_0 {name:"x:0",dtype:,shape:[]}
  }
}
layer {
  name:"p0_22"
  type:"input"
  top:"p0_22"
  layer_param {
    idx:660
    out_0 {name:"p0:0",dtype:float32,shape:[1, 64, 7, 7, 8]}
  }
}
layer {
  name:"Node_663"
  type:"nn_adaptive_avg_pool2d"
  top:"Node_663"
  bottom:"p0_22"
  layer_param {
    idx:663
    in_0 {name:"p0:0",dtype:float32,shape:[1, 64, 7, 7, 8]}
    out_0 {name:"Node_663:0",dtype:float32,shape:[1, 64, 1, 1, 8]}
    attrs {'output_size': [1, 1], 'layout': 'NCHW8c'}
  }
}
layer {
  name:"Node_664"
  type:"function"
  top:"Node_664"
  bottom:"p0_22"
  bottom:"Node_663"
  layer_param {
    idx:664
    in_0 {name:"p0:0",dtype:float32,shape:[1, 64, 7, 7, 8]}
    in_1 {name:"Node_663:0",dtype:float32,shape:[1, 64, 1, 1, 8]}
    out_0 {name:"Node_664:0",dtype:float32,shape:[1, 64, 1, 1, 8]}
  }
}
layer {
  name:"Node_666"
  type:"tuple"
  top:"Node_666"
  bottom:"x_43"
  layer_param {
    idx:666
    in_0 {name:"x:0",dtype:float32,shape:[1, 64, 7, 7, 8]}
    out_0 {name:"Node_666:0",dtype:,shape:[]}
  }
}
layer {
  name:"Node_668"
  type:"tuple"
  top:"Node_668"
  bottom:"tensor_0_22"
  layer_param {
    idx:668
    in_0 {name:"tensor_0:0",dtype:float32,shape:[1, 64, 1, 1, 8]}
    out_0 {name:"Node_668:0",dtype:,shape:[]}
  }
}
layer {
  name:"Node_669"
  type:"vm_invoke_tvm_op"
  top:"Node_669"
  bottom:"Node_664"
  bottom:"Node_666"
  bottom:"Node_668"
  layer_param {
    idx:669
    in_0 {name:"Node_664:0",dtype:float32,shape:[1, 64, 1, 1, 8]}
    in_1 {name:"Node_666:0",dtype:,shape:[]}
    in_2 {name:"Node_668:0",dtype:,shape:[]}
    out_0 {name:"Node_669:0",dtype:,shape:[]}
  }
}
layer {
  name:"x_45"
  type:"var"
  top:"x_45"
  bottom:"tensor_0_22"
  layer_param {
    idx:670
    in_0 {name:"tensor_0:0",dtype:float32,shape:[1, 64, 1, 1, 8]}
    out_0 {name:"x:0",dtype:float32,shape:[1, 64, 1, 1, 8]}
  }
}
layer {
  name:"storage_0_23"
  type:"var"
  top:"storage_0_23"
  bottom:"Node_673"
  layer_param {
    idx:672
    in_0 {name:"Node_673:0",dtype:float32,shape:[2048, 64]}
    out_0 {name:"storage_0:0",dtype:,shape:[]}
  }
}
layer {
  name:"Node_673"
  type:"memory_alloc_storage"
  top:"Node_673"
  layer_param {
    idx:673
    out_0 {name:"Node_673:0",dtype:float32,shape:[2048, 64]}
    attrs {'dtype': 'float32', 'device_id': 0, 'device_type': 1}
  }
}
layer {
  name:"tensor_0_23"
  type:"var"
  top:"tensor_0_23"
  bottom:"Node_676"
  layer_param {
    idx:674
    in_0 {name:"Node_676:0",dtype:float32,shape:[1, 512]}
    out_0 {name:"tensor_0:0",dtype:float32,shape:[1, 512]}
  }
}
layer {
  name:"Node_676"
  type:"memory_alloc_tensor"
  top:"Node_676"
  bottom:"storage_0_23"
  layer_param {
    idx:676
    in_0 {name:"storage_0:0",dtype:,shape:[]}
    out_0 {name:"Node_676:0",dtype:float32,shape:[1, 512]}
    attrs {'dtype': 'float32', 'const_shape': None, 'assert_shape': [1, 512]}
  }
}
layer {
  name:"x_46"
  type:"var"
  top:"x_46"
  bottom:"Node_692"
  layer_param {
    idx:677
    in_0 {name:"Node_692:0",dtype:,shape:[]}
    out_0 {name:"x:0",dtype:,shape:[]}
  }
}
layer {
  name:"p0_23"
  type:"input"
  top:"p0_23"
  layer_param {
    idx:679
    out_0 {name:"p0:0",dtype:float32,shape:[1, 64, 1, 1, 8]}
  }
}
layer {
  name:"Node_684"
  type:"layout_transform"
  top:"Node_684"
  bottom:"p0_23"
  layer_param {
    idx:684
    in_0 {name:"p0:0",dtype:float32,shape:[1, 64, 1, 1, 8]}
    out_0 {name:"Node_684:0",dtype:float32,shape:[1, 512, 1, 1]}
    attrs {'src_layout': 'NCHW8c', 'dst_layout': 'NCHW'}
  }
}
layer {
  name:"Node_685"
  type:"reshape"
  top:"Node_685"
  bottom:"Node_684"
  layer_param {
    idx:685
    in_0 {name:"Node_684:0",dtype:float32,shape:[1, 512, 1, 1]}
    out_0 {name:"Node_685:0",dtype:float32,shape:[1, 512, 1, 1]}
    attrs {'newshape': [0, -1, 1, 1]}
  }
}
layer {
  name:"Node_686"
  type:"squeeze"
  top:"Node_686"
  bottom:"Node_685"
  layer_param {
    idx:686
    in_0 {name:"Node_685:0",dtype:float32,shape:[1, 512, 1, 1]}
    out_0 {name:"Node_686:0",dtype:float32,shape:[1, 512]}
    attrs {'axis': [2, 3]}
  }
}
layer {
  name:"Node_687"
  type:"function"
  top:"Node_687"
  bottom:"p0_23"
  bottom:"Node_686"
  layer_param {
    idx:687
    in_0 {name:"p0:0",dtype:float32,shape:[1, 64, 1, 1, 8]}
    in_1 {name:"Node_686:0",dtype:float32,shape:[1, 512]}
    out_0 {name:"Node_687:0",dtype:float32,shape:[1, 512]}
  }
}
layer {
  name:"Node_689"
  type:"tuple"
  top:"Node_689"
  bottom:"x_45"
  layer_param {
    idx:689
    in_0 {name:"x:0",dtype:float32,shape:[1, 64, 1, 1, 8]}
    out_0 {name:"Node_689:0",dtype:,shape:[]}
  }
}
layer {
  name:"Node_691"
  type:"tuple"
  top:"Node_691"
  bottom:"tensor_0_23"
  layer_param {
    idx:691
    in_0 {name:"tensor_0:0",dtype:float32,shape:[1, 512]}
    out_0 {name:"Node_691:0",dtype:,shape:[]}
  }
}
layer {
  name:"Node_692"
  type:"vm_invoke_tvm_op"
  top:"Node_692"
  bottom:"Node_687"
  bottom:"Node_689"
  bottom:"Node_691"
  layer_param {
    idx:692
    in_0 {name:"Node_687:0",dtype:float32,shape:[1, 512]}
    in_1 {name:"Node_689:0",dtype:,shape:[]}
    in_2 {name:"Node_691:0",dtype:,shape:[]}
    out_0 {name:"Node_692:0",dtype:,shape:[]}
  }
}
layer {
  name:"x_47"
  type:"var"
  top:"x_47"
  bottom:"tensor_0_23"
  layer_param {
    idx:693
    in_0 {name:"tensor_0:0",dtype:float32,shape:[1, 512]}
    out_0 {name:"x:0",dtype:float32,shape:[1, 512]}
  }
}
layer {
  name:"storage_0_24"
  type:"var"
  top:"storage_0_24"
  bottom:"Node_696"
  layer_param {
    idx:695
    in_0 {name:"Node_696:0",dtype:float32,shape:[4000, 64]}
    out_0 {name:"storage_0:0",dtype:,shape:[]}
  }
}
layer {
  name:"Node_696"
  type:"memory_alloc_storage"
  top:"Node_696"
  layer_param {
    idx:696
    out_0 {name:"Node_696:0",dtype:float32,shape:[4000, 64]}
    attrs {'dtype': 'float32', 'device_id': 0, 'device_type': 1}
  }
}
layer {
  name:"tensor_0_24"
  type:"var"
  top:"tensor_0_24"
  bottom:"Node_699"
  layer_param {
    idx:697
    in_0 {name:"Node_699:0",dtype:float32,shape:[1, 1000]}
    out_0 {name:"tensor_0:0",dtype:float32,shape:[1, 1000]}
  }
}
layer {
  name:"Node_699"
  type:"memory_alloc_tensor"
  top:"Node_699"
  bottom:"storage_0_24"
  layer_param {
    idx:699
    in_0 {name:"storage_0:0",dtype:,shape:[]}
    out_0 {name:"Node_699:0",dtype:float32,shape:[1, 1000]}
    attrs {'dtype': 'float32', 'const_shape': None, 'assert_shape': [1, 1000]}
  }
}
layer {
  name:"x_48"
  type:"var"
  top:"x_48"
  bottom:"Node_719"
  layer_param {
    idx:700
    in_0 {name:"Node_719:0",dtype:,shape:[]}
    out_0 {name:"x:0",dtype:,shape:[]}
  }
}
layer {
  name:"p0_24"
  type:"input"
  top:"p0_24"
  layer_param {
    idx:702
    out_0 {name:"p0:0",dtype:float32,shape:[1, 512]}
  }
}
layer {
  name:"p1_20"
  type:"input"
  top:"p1_20"
  layer_param {
    idx:703
    out_0 {name:"p1:0",dtype:float32,shape:[100, 512, 10]}
  }
}
layer {
  name:"p2_20"
  type:"input"
  top:"p2_20"
  layer_param {
    idx:704
    out_0 {name:"p2:0",dtype:float32,shape:[1000]}
  }
}
layer {
  name:"Node_709"
  type:"nn_contrib_dense_pack"
  top:"Node_709"
  bottom:"p0_24"
  bottom:"p1_20"
  layer_param {
    idx:709
    in_0 {name:"p0:0",dtype:float32,shape:[1, 512]}
    in_1 {name:"p1:0",dtype:float32,shape:[100, 512, 10]}
    out_0 {name:"Node_709:0",dtype:float32,shape:[1, 1000]}
    attrs {'units': None, 'out_dtype': 'float32'}
  }
}
layer {
  name:"Node_711"
  type:"add"
  top:"Node_711"
  bottom:"Node_709"
  bottom:"p2_20"
  layer_param {
    idx:711
    in_0 {name:"Node_709:0",dtype:float32,shape:[1, 1000]}
    in_1 {name:"p2:0",dtype:float32,shape:[1000]}
    out_0 {name:"Node_711:0",dtype:float32,shape:[1, 1000]}
  }
}
layer {
  name:"Node_712"
  type:"function"
  top:"Node_712"
  bottom:"p0_24"
  bottom:"p1_20"
  bottom:"p2_20"
  bottom:"Node_711"
  layer_param {
    idx:712
    in_0 {name:"p0:0",dtype:float32,shape:[1, 512]}
    in_1 {name:"p1:0",dtype:float32,shape:[100, 512, 10]}
    in_2 {name:"p2:0",dtype:float32,shape:[1000]}
    in_3 {name:"Node_711:0",dtype:float32,shape:[1, 1000]}
    out_0 {name:"Node_712:0",dtype:float32,shape:[1, 1000]}
  }
}
layer {
  name:"Node_714"
  type:"const"
  top:"Node_714"
  layer_param {
    idx:714
    out_0 {name:"Node_714:0",dtype:float32,shape:[100, 512, 10]}
  }
}
layer {
  name:"Node_715"
  type:"const"
  top:"Node_715"
  layer_param {
    idx:715
    out_0 {name:"Node_715:0",dtype:float32,shape:[1000]}
  }
}
layer {
  name:"Node_716"
  type:"tuple"
  top:"Node_716"
  bottom:"x_47"
  bottom:"Node_714"
  bottom:"Node_715"
  layer_param {
    idx:716
    in_0 {name:"x:0",dtype:float32,shape:[1, 512]}
    in_1 {name:"Node_714:0",dtype:float32,shape:[100, 512, 10]}
    in_2 {name:"Node_715:0",dtype:float32,shape:[1000]}
    out_0 {name:"Node_716:0",dtype:,shape:[]}
  }
}
layer {
  name:"Node_718"
  type:"tuple"
  top:"Node_718"
  bottom:"tensor_0_24"
  layer_param {
    idx:718
    in_0 {name:"tensor_0:0",dtype:float32,shape:[1, 1000]}
    out_0 {name:"Node_718:0",dtype:,shape:[]}
  }
}
layer {
  name:"Node_719"
  type:"vm_invoke_tvm_op"
  top:"Node_719"
  bottom:"Node_712"
  bottom:"Node_716"
  bottom:"Node_718"
  layer_param {
    idx:719
    in_0 {name:"Node_712:0",dtype:float32,shape:[1, 1000]}
    in_1 {name:"Node_716:0",dtype:,shape:[]}
    in_2 {name:"Node_718:0",dtype:,shape:[]}
    out_0 {name:"Node_719:0",dtype:,shape:[]}
  }
}
layer {
  name:"x_49"
  type:"var"
  top:"x_49"
  bottom:"tensor_0_24"
  layer_param {
    idx:720
    in_0 {name:"tensor_0:0",dtype:float32,shape:[1, 1000]}
    out_0 {name:"x:0",dtype:float32,shape:[1, 1000]}
  }
}
layer {
  name:"Node_723"
  type:"let"
  top:"Node_723"
  bottom:"x_49"
  layer_param {
    idx:723
    in_0 {name:"x:0",dtype:float32,shape:[1, 1000]}
    in_1 {name:"x:0",dtype:float32,shape:[1, 1000]}
    out_0 {name:"Node_723:0",dtype:float32,shape:[1, 1000]}
  }
}
layer {
  name:"Node_724"
  type:"let"
  top:"Node_724"
  bottom:"x_48"
  bottom:"Node_723"
  layer_param {
    idx:724
    in_0 {name:"x:0",dtype:,shape:[]}
    in_1 {name:"Node_723:0",dtype:float32,shape:[1, 1000]}
    out_0 {name:"Node_724:0",dtype:,shape:[]}
  }
}
layer {
  name:"Node_725"
  type:"let"
  top:"Node_725"
  bottom:"tensor_0_24"
  bottom:"Node_724"
  layer_param {
    idx:725
    in_0 {name:"tensor_0:0",dtype:float32,shape:[1, 1000]}
    in_1 {name:"Node_724:0",dtype:,shape:[]}
    out_0 {name:"Node_725:0",dtype:float32,shape:[1, 1000]}
  }
}
layer {
  name:"Node_726"
  type:"let"
  top:"Node_726"
  bottom:"storage_0_24"
  bottom:"Node_725"
  layer_param {
    idx:726
    in_0 {name:"storage_0:0",dtype:,shape:[]}
    in_1 {name:"Node_725:0",dtype:float32,shape:[1, 1000]}
    out_0 {name:"Node_726:0",dtype:,shape:[]}
  }
}
layer {
  name:"Node_727"
  type:"let"
  top:"Node_727"
  bottom:"x_47"
  bottom:"Node_726"
  layer_param {
    idx:727
    in_0 {name:"x:0",dtype:float32,shape:[1, 512]}
    in_1 {name:"Node_726:0",dtype:,shape:[]}
    out_0 {name:"Node_727:0",dtype:float32,shape:[1, 512]}
  }
}
layer {
  name:"Node_728"
  type:"let"
  top:"Node_728"
  bottom:"x_46"
  bottom:"Node_727"
  layer_param {
    idx:728
    in_0 {name:"x:0",dtype:,shape:[]}
    in_1 {name:"Node_727:0",dtype:float32,shape:[1, 512]}
    out_0 {name:"Node_728:0",dtype:,shape:[]}
  }
}
layer {
  name:"Node_729"
  type:"let"
  top:"Node_729"
  bottom:"tensor_0_23"
  bottom:"Node_728"
  layer_param {
    idx:729
    in_0 {name:"tensor_0:0",dtype:float32,shape:[1, 512]}
    in_1 {name:"Node_728:0",dtype:,shape:[]}
    out_0 {name:"Node_729:0",dtype:float32,shape:[1, 512]}
  }
}
layer {
  name:"Node_730"
  type:"let"
  top:"Node_730"
  bottom:"storage_0_23"
  bottom:"Node_729"
  layer_param {
    idx:730
    in_0 {name:"storage_0:0",dtype:,shape:[]}
    in_1 {name:"Node_729:0",dtype:float32,shape:[1, 512]}
    out_0 {name:"Node_730:0",dtype:,shape:[]}
  }
}
layer {
  name:"Node_731"
  type:"let"
  top:"Node_731"
  bottom:"x_45"
  bottom:"Node_730"
  layer_param {
    idx:731
    in_0 {name:"x:0",dtype:float32,shape:[1, 64, 1, 1, 8]}
    in_1 {name:"Node_730:0",dtype:,shape:[]}
    out_0 {name:"Node_731:0",dtype:float32,shape:[1, 64, 1, 1, 8]}
  }
}
layer {
  name:"Node_732"
  type:"let"
  top:"Node_732"
  bottom:"x_44"
  bottom:"Node_731"
  layer_param {
    idx:732
    in_0 {name:"x:0",dtype:,shape:[]}
    in_1 {name:"Node_731:0",dtype:float32,shape:[1, 64, 1, 1, 8]}
    out_0 {name:"Node_732:0",dtype:,shape:[]}
  }
}
layer {
  name:"Node_733"
  type:"let"
  top:"Node_733"
  bottom:"tensor_0_22"
  bottom:"Node_732"
  layer_param {
    idx:733
    in_0 {name:"tensor_0:0",dtype:float32,shape:[1, 64, 1, 1, 8]}
    in_1 {name:"Node_732:0",dtype:,shape:[]}
    out_0 {name:"Node_733:0",dtype:float32,shape:[1, 64, 1, 1, 8]}
  }
}
layer {
  name:"Node_734"
  type:"let"
  top:"Node_734"
  bottom:"storage_0_22"
  bottom:"Node_733"
  layer_param {
    idx:734
    in_0 {name:"storage_0:0",dtype:,shape:[]}
    in_1 {name:"Node_733:0",dtype:float32,shape:[1, 64, 1, 1, 8]}
    out_0 {name:"Node_734:0",dtype:,shape:[]}
  }
}
layer {
  name:"Node_735"
  type:"let"
  top:"Node_735"
  bottom:"x_43"
  bottom:"Node_734"
  layer_param {
    idx:735
    in_0 {name:"x:0",dtype:float32,shape:[1, 64, 7, 7, 8]}
    in_1 {name:"Node_734:0",dtype:,shape:[]}
    out_0 {name:"Node_735:0",dtype:float32,shape:[1, 64, 7, 7, 8]}
  }
}
layer {
  name:"Node_736"
  type:"let"
  top:"Node_736"
  bottom:"x_42"
  bottom:"Node_735"
  layer_param {
    idx:736
    in_0 {name:"x:0",dtype:,shape:[]}
    in_1 {name:"Node_735:0",dtype:float32,shape:[1, 64, 7, 7, 8]}
    out_0 {name:"Node_736:0",dtype:,shape:[]}
  }
}
layer {
  name:"Node_737"
  type:"let"
  top:"Node_737"
  bottom:"tensor_0_21"
  bottom:"Node_736"
  layer_param {
    idx:737
    in_0 {name:"tensor_0:0",dtype:float32,shape:[1, 64, 7, 7, 8]}
    in_1 {name:"Node_736:0",dtype:,shape:[]}
    out_0 {name:"Node_737:0",dtype:float32,shape:[1, 64, 7, 7, 8]}
  }
}
layer {
  name:"Node_738"
  type:"let"
  top:"Node_738"
  bottom:"storage_0_21"
  bottom:"Node_737"
  layer_param {
    idx:738
    in_0 {name:"storage_0:0",dtype:,shape:[]}
    in_1 {name:"Node_737:0",dtype:float32,shape:[1, 64, 7, 7, 8]}
    out_0 {name:"Node_738:0",dtype:,shape:[]}
  }
}
layer {
  name:"Node_739"
  type:"let"
  top:"Node_739"
  bottom:"x_41"
  bottom:"Node_738"
  layer_param {
    idx:739
    in_0 {name:"x:0",dtype:float32,shape:[1, 64, 7, 7, 8]}
    in_1 {name:"Node_738:0",dtype:,shape:[]}
    out_0 {name:"Node_739:0",dtype:float32,shape:[1, 64, 7, 7, 8]}
  }
}
layer {
  name:"Node_740"
  type:"let"
  top:"Node_740"
  bottom:"x_40"
  bottom:"Node_739"
  layer_param {
    idx:740
    in_0 {name:"x:0",dtype:,shape:[]}
    in_1 {name:"Node_739:0",dtype:float32,shape:[1, 64, 7, 7, 8]}
    out_0 {name:"Node_740:0",dtype:,shape:[]}
  }
}
layer {
  name:"Node_741"
  type:"let"
  top:"Node_741"
  bottom:"tensor_0_20"
  bottom:"Node_740"
  layer_param {
    idx:741
    in_0 {name:"tensor_0:0",dtype:float32,shape:[1, 64, 7, 7, 8]}
    in_1 {name:"Node_740:0",dtype:,shape:[]}
    out_0 {name:"Node_741:0",dtype:float32,shape:[1, 64, 7, 7, 8]}
  }
}
layer {
  name:"Node_742"
  type:"let"
  top:"Node_742"
  bottom:"storage_0_20"
  bottom:"Node_741"
  layer_param {
    idx:742
    in_0 {name:"storage_0:0",dtype:,shape:[]}
    in_1 {name:"Node_741:0",dtype:float32,shape:[1, 64, 7, 7, 8]}
    out_0 {name:"Node_742:0",dtype:,shape:[]}
  }
}
layer {
  name:"Node_743"
  type:"let"
  top:"Node_743"
  bottom:"x_39"
  bottom:"Node_742"
  layer_param {
    idx:743
    in_0 {name:"x:0",dtype:float32,shape:[1, 64, 7, 7, 8]}
    in_1 {name:"Node_742:0",dtype:,shape:[]}
    out_0 {name:"Node_743:0",dtype:float32,shape:[1, 64, 7, 7, 8]}
  }
}
layer {
  name:"Node_744"
  type:"let"
  top:"Node_744"
  bottom:"x_38"
  bottom:"Node_743"
  layer_param {
    idx:744
    in_0 {name:"x:0",dtype:,shape:[]}
    in_1 {name:"Node_743:0",dtype:float32,shape:[1, 64, 7, 7, 8]}
    out_0 {name:"Node_744:0",dtype:,shape:[]}
  }
}
layer {
  name:"Node_745"
  type:"let"
  top:"Node_745"
  bottom:"tensor_0_19"
  bottom:"Node_744"
  layer_param {
    idx:745
    in_0 {name:"tensor_0:0",dtype:float32,shape:[1, 64, 7, 7, 8]}
    in_1 {name:"Node_744:0",dtype:,shape:[]}
    out_0 {name:"Node_745:0",dtype:float32,shape:[1, 64, 7, 7, 8]}
  }
}
layer {
  name:"Node_746"
  type:"let"
  top:"Node_746"
  bottom:"storage_0_19"
  bottom:"Node_745"
  layer_param {
    idx:746
    in_0 {name:"storage_0:0",dtype:,shape:[]}
    in_1 {name:"Node_745:0",dtype:float32,shape:[1, 64, 7, 7, 8]}
    out_0 {name:"Node_746:0",dtype:,shape:[]}
  }
}
layer {
  name:"Node_747"
  type:"let"
  top:"Node_747"
  bottom:"x_37"
  bottom:"Node_746"
  layer_param {
    idx:747
    in_0 {name:"x:0",dtype:float32,shape:[1, 64, 7, 7, 8]}
    in_1 {name:"Node_746:0",dtype:,shape:[]}
    out_0 {name:"Node_747:0",dtype:float32,shape:[1, 64, 7, 7, 8]}
  }
}
layer {
  name:"Node_748"
  type:"let"
  top:"Node_748"
  bottom:"x_36"
  bottom:"Node_747"
  layer_param {
    idx:748
    in_0 {name:"x:0",dtype:,shape:[]}
    in_1 {name:"Node_747:0",dtype:float32,shape:[1, 64, 7, 7, 8]}
    out_0 {name:"Node_748:0",dtype:,shape:[]}
  }
}
layer {
  name:"Node_749"
  type:"let"
  top:"Node_749"
  bottom:"tensor_0_18"
  bottom:"Node_748"
  layer_param {
    idx:749
    in_0 {name:"tensor_0:0",dtype:float32,shape:[1, 64, 7, 7, 8]}
    in_1 {name:"Node_748:0",dtype:,shape:[]}
    out_0 {name:"Node_749:0",dtype:float32,shape:[1, 64, 7, 7, 8]}
  }
}
layer {
  name:"Node_750"
  type:"let"
  top:"Node_750"
  bottom:"storage_0_18"
  bottom:"Node_749"
  layer_param {
    idx:750
    in_0 {name:"storage_0:0",dtype:,shape:[]}
    in_1 {name:"Node_749:0",dtype:float32,shape:[1, 64, 7, 7, 8]}
    out_0 {name:"Node_750:0",dtype:,shape:[]}
  }
}
layer {
  name:"Node_751"
  type:"let"
  top:"Node_751"
  bottom:"x_35"
  bottom:"Node_750"
  layer_param {
    idx:751
    in_0 {name:"x:0",dtype:float32,shape:[1, 64, 7, 7, 8]}
    in_1 {name:"Node_750:0",dtype:,shape:[]}
    out_0 {name:"Node_751:0",dtype:float32,shape:[1, 64, 7, 7, 8]}
  }
}
layer {
  name:"Node_752"
  type:"let"
  top:"Node_752"
  bottom:"x_34"
  bottom:"Node_751"
  layer_param {
    idx:752
    in_0 {name:"x:0",dtype:,shape:[]}
    in_1 {name:"Node_751:0",dtype:float32,shape:[1, 64, 7, 7, 8]}
    out_0 {name:"Node_752:0",dtype:,shape:[]}
  }
}
layer {
  name:"Node_753"
  type:"let"
  top:"Node_753"
  bottom:"tensor_0_17"
  bottom:"Node_752"
  layer_param {
    idx:753
    in_0 {name:"tensor_0:0",dtype:float32,shape:[1, 64, 7, 7, 8]}
    in_1 {name:"Node_752:0",dtype:,shape:[]}
    out_0 {name:"Node_753:0",dtype:float32,shape:[1, 64, 7, 7, 8]}
  }
}
layer {
  name:"Node_754"
  type:"let"
  top:"Node_754"
  bottom:"storage_0_17"
  bottom:"Node_753"
  layer_param {
    idx:754
    in_0 {name:"storage_0:0",dtype:,shape:[]}
    in_1 {name:"Node_753:0",dtype:float32,shape:[1, 64, 7, 7, 8]}
    out_0 {name:"Node_754:0",dtype:,shape:[]}
  }
}
layer {
  name:"Node_755"
  type:"let"
  top:"Node_755"
  bottom:"x_33"
  bottom:"Node_754"
  layer_param {
    idx:755
    in_0 {name:"x:0",dtype:float32,shape:[1, 32, 14, 14, 8]}
    in_1 {name:"Node_754:0",dtype:,shape:[]}
    out_0 {name:"Node_755:0",dtype:float32,shape:[1, 32, 14, 14, 8]}
  }
}
layer {
  name:"Node_756"
  type:"let"
  top:"Node_756"
  bottom:"x_32"
  bottom:"Node_755"
  layer_param {
    idx:756
    in_0 {name:"x:0",dtype:,shape:[]}
    in_1 {name:"Node_755:0",dtype:float32,shape:[1, 32, 14, 14, 8]}
    out_0 {name:"Node_756:0",dtype:,shape:[]}
  }
}
layer {
  name:"Node_757"
  type:"let"
  top:"Node_757"
  bottom:"tensor_0_16"
  bottom:"Node_756"
  layer_param {
    idx:757
    in_0 {name:"tensor_0:0",dtype:float32,shape:[1, 32, 14, 14, 8]}
    in_1 {name:"Node_756:0",dtype:,shape:[]}
    out_0 {name:"Node_757:0",dtype:float32,shape:[1, 32, 14, 14, 8]}
  }
}
layer {
  name:"Node_758"
  type:"let"
  top:"Node_758"
  bottom:"storage_0_16"
  bottom:"Node_757"
  layer_param {
    idx:758
    in_0 {name:"storage_0:0",dtype:,shape:[]}
    in_1 {name:"Node_757:0",dtype:float32,shape:[1, 32, 14, 14, 8]}
    out_0 {name:"Node_758:0",dtype:,shape:[]}
  }
}
layer {
  name:"Node_759"
  type:"let"
  top:"Node_759"
  bottom:"x_31"
  bottom:"Node_758"
  layer_param {
    idx:759
    in_0 {name:"x:0",dtype:float32,shape:[1, 32, 14, 14, 8]}
    in_1 {name:"Node_758:0",dtype:,shape:[]}
    out_0 {name:"Node_759:0",dtype:float32,shape:[1, 32, 14, 14, 8]}
  }
}
layer {
  name:"Node_760"
  type:"let"
  top:"Node_760"
  bottom:"x_30"
  bottom:"Node_759"
  layer_param {
    idx:760
    in_0 {name:"x:0",dtype:,shape:[]}
    in_1 {name:"Node_759:0",dtype:float32,shape:[1, 32, 14, 14, 8]}
    out_0 {name:"Node_760:0",dtype:,shape:[]}
  }
}
layer {
  name:"Node_761"
  type:"let"
  top:"Node_761"
  bottom:"tensor_0_15"
  bottom:"Node_760"
  layer_param {
    idx:761
    in_0 {name:"tensor_0:0",dtype:float32,shape:[1, 32, 14, 14, 8]}
    in_1 {name:"Node_760:0",dtype:,shape:[]}
    out_0 {name:"Node_761:0",dtype:float32,shape:[1, 32, 14, 14, 8]}
  }
}
layer {
  name:"Node_762"
  type:"let"
  top:"Node_762"
  bottom:"storage_0_15"
  bottom:"Node_761"
  layer_param {
    idx:762
    in_0 {name:"storage_0:0",dtype:,shape:[]}
    in_1 {name:"Node_761:0",dtype:float32,shape:[1, 32, 14, 14, 8]}
    out_0 {name:"Node_762:0",dtype:,shape:[]}
  }
}
layer {
  name:"Node_763"
  type:"let"
  top:"Node_763"
  bottom:"x_29"
  bottom:"Node_762"
  layer_param {
    idx:763
    in_0 {name:"x:0",dtype:float32,shape:[1, 32, 14, 14, 8]}
    in_1 {name:"Node_762:0",dtype:,shape:[]}
    out_0 {name:"Node_763:0",dtype:float32,shape:[1, 32, 14, 14, 8]}
  }
}
layer {
  name:"Node_764"
  type:"let"
  top:"Node_764"
  bottom:"x_28"
  bottom:"Node_763"
  layer_param {
    idx:764
    in_0 {name:"x:0",dtype:,shape:[]}
    in_1 {name:"Node_763:0",dtype:float32,shape:[1, 32, 14, 14, 8]}
    out_0 {name:"Node_764:0",dtype:,shape:[]}
  }
}
layer {
  name:"Node_765"
  type:"let"
  top:"Node_765"
  bottom:"tensor_0_14"
  bottom:"Node_764"
  layer_param {
    idx:765
    in_0 {name:"tensor_0:0",dtype:float32,shape:[1, 32, 14, 14, 8]}
    in_1 {name:"Node_764:0",dtype:,shape:[]}
    out_0 {name:"Node_765:0",dtype:float32,shape:[1, 32, 14, 14, 8]}
  }
}
layer {
  name:"Node_766"
  type:"let"
  top:"Node_766"
  bottom:"storage_0_14"
  bottom:"Node_765"
  layer_param {
    idx:766
    in_0 {name:"storage_0:0",dtype:,shape:[]}
    in_1 {name:"Node_765:0",dtype:float32,shape:[1, 32, 14, 14, 8]}
    out_0 {name:"Node_766:0",dtype:,shape:[]}
  }
}
layer {
  name:"Node_767"
  type:"let"
  top:"Node_767"
  bottom:"x_27"
  bottom:"Node_766"
  layer_param {
    idx:767
    in_0 {name:"x:0",dtype:float32,shape:[1, 32, 14, 14, 8]}
    in_1 {name:"Node_766:0",dtype:,shape:[]}
    out_0 {name:"Node_767:0",dtype:float32,shape:[1, 32, 14, 14, 8]}
  }
}
layer {
  name:"Node_768"
  type:"let"
  top:"Node_768"
  bottom:"x_26"
  bottom:"Node_767"
  layer_param {
    idx:768
    in_0 {name:"x:0",dtype:,shape:[]}
    in_1 {name:"Node_767:0",dtype:float32,shape:[1, 32, 14, 14, 8]}
    out_0 {name:"Node_768:0",dtype:,shape:[]}
  }
}
layer {
  name:"Node_769"
  type:"let"
  top:"Node_769"
  bottom:"tensor_0_13"
  bottom:"Node_768"
  layer_param {
    idx:769
    in_0 {name:"tensor_0:0",dtype:float32,shape:[1, 32, 14, 14, 8]}
    in_1 {name:"Node_768:0",dtype:,shape:[]}
    out_0 {name:"Node_769:0",dtype:float32,shape:[1, 32, 14, 14, 8]}
  }
}
layer {
  name:"Node_770"
  type:"let"
  top:"Node_770"
  bottom:"storage_0_13"
  bottom:"Node_769"
  layer_param {
    idx:770
    in_0 {name:"storage_0:0",dtype:,shape:[]}
    in_1 {name:"Node_769:0",dtype:float32,shape:[1, 32, 14, 14, 8]}
    out_0 {name:"Node_770:0",dtype:,shape:[]}
  }
}
layer {
  name:"Node_771"
  type:"let"
  top:"Node_771"
  bottom:"x_25"
  bottom:"Node_770"
  layer_param {
    idx:771
    in_0 {name:"x:0",dtype:float32,shape:[1, 32, 14, 14, 8]}
    in_1 {name:"Node_770:0",dtype:,shape:[]}
    out_0 {name:"Node_771:0",dtype:float32,shape:[1, 32, 14, 14, 8]}
  }
}
layer {
  name:"Node_772"
  type:"let"
  top:"Node_772"
  bottom:"x_24"
  bottom:"Node_771"
  layer_param {
    idx:772
    in_0 {name:"x:0",dtype:,shape:[]}
    in_1 {name:"Node_771:0",dtype:float32,shape:[1, 32, 14, 14, 8]}
    out_0 {name:"Node_772:0",dtype:,shape:[]}
  }
}
layer {
  name:"Node_773"
  type:"let"
  top:"Node_773"
  bottom:"tensor_0_12"
  bottom:"Node_772"
  layer_param {
    idx:773
    in_0 {name:"tensor_0:0",dtype:float32,shape:[1, 32, 14, 14, 8]}
    in_1 {name:"Node_772:0",dtype:,shape:[]}
    out_0 {name:"Node_773:0",dtype:float32,shape:[1, 32, 14, 14, 8]}
  }
}
layer {
  name:"Node_774"
  type:"let"
  top:"Node_774"
  bottom:"storage_0_12"
  bottom:"Node_773"
  layer_param {
    idx:774
    in_0 {name:"storage_0:0",dtype:,shape:[]}
    in_1 {name:"Node_773:0",dtype:float32,shape:[1, 32, 14, 14, 8]}
    out_0 {name:"Node_774:0",dtype:,shape:[]}
  }
}
layer {
  name:"Node_775"
  type:"let"
  top:"Node_775"
  bottom:"x_23"
  bottom:"Node_774"
  layer_param {
    idx:775
    in_0 {name:"x:0",dtype:float32,shape:[1, 16, 28, 28, 8]}
    in_1 {name:"Node_774:0",dtype:,shape:[]}
    out_0 {name:"Node_775:0",dtype:float32,shape:[1, 16, 28, 28, 8]}
  }
}
layer {
  name:"Node_776"
  type:"let"
  top:"Node_776"
  bottom:"x_22"
  bottom:"Node_775"
  layer_param {
    idx:776
    in_0 {name:"x:0",dtype:,shape:[]}
    in_1 {name:"Node_775:0",dtype:float32,shape:[1, 16, 28, 28, 8]}
    out_0 {name:"Node_776:0",dtype:,shape:[]}
  }
}
layer {
  name:"Node_777"
  type:"let"
  top:"Node_777"
  bottom:"tensor_0_11"
  bottom:"Node_776"
  layer_param {
    idx:777
    in_0 {name:"tensor_0:0",dtype:float32,shape:[1, 16, 28, 28, 8]}
    in_1 {name:"Node_776:0",dtype:,shape:[]}
    out_0 {name:"Node_777:0",dtype:float32,shape:[1, 16, 28, 28, 8]}
  }
}
layer {
  name:"Node_778"
  type:"let"
  top:"Node_778"
  bottom:"storage_0_11"
  bottom:"Node_777"
  layer_param {
    idx:778
    in_0 {name:"storage_0:0",dtype:,shape:[]}
    in_1 {name:"Node_777:0",dtype:float32,shape:[1, 16, 28, 28, 8]}
    out_0 {name:"Node_778:0",dtype:,shape:[]}
  }
}
layer {
  name:"Node_779"
  type:"let"
  top:"Node_779"
  bottom:"x_21"
  bottom:"Node_778"
  layer_param {
    idx:779
    in_0 {name:"x:0",dtype:float32,shape:[1, 16, 28, 28, 8]}
    in_1 {name:"Node_778:0",dtype:,shape:[]}
    out_0 {name:"Node_779:0",dtype:float32,shape:[1, 16, 28, 28, 8]}
  }
}
layer {
  name:"Node_780"
  type:"let"
  top:"Node_780"
  bottom:"x_20"
  bottom:"Node_779"
  layer_param {
    idx:780
    in_0 {name:"x:0",dtype:,shape:[]}
    in_1 {name:"Node_779:0",dtype:float32,shape:[1, 16, 28, 28, 8]}
    out_0 {name:"Node_780:0",dtype:,shape:[]}
  }
}
layer {
  name:"Node_781"
  type:"let"
  top:"Node_781"
  bottom:"tensor_0_10"
  bottom:"Node_780"
  layer_param {
    idx:781
    in_0 {name:"tensor_0:0",dtype:float32,shape:[1, 16, 28, 28, 8]}
    in_1 {name:"Node_780:0",dtype:,shape:[]}
    out_0 {name:"Node_781:0",dtype:float32,shape:[1, 16, 28, 28, 8]}
  }
}
layer {
  name:"Node_782"
  type:"let"
  top:"Node_782"
  bottom:"storage_0_10"
  bottom:"Node_781"
  layer_param {
    idx:782
    in_0 {name:"storage_0:0",dtype:,shape:[]}
    in_1 {name:"Node_781:0",dtype:float32,shape:[1, 16, 28, 28, 8]}
    out_0 {name:"Node_782:0",dtype:,shape:[]}
  }
}
layer {
  name:"Node_783"
  type:"let"
  top:"Node_783"
  bottom:"x_19"
  bottom:"Node_782"
  layer_param {
    idx:783
    in_0 {name:"x:0",dtype:float32,shape:[1, 16, 28, 28, 8]}
    in_1 {name:"Node_782:0",dtype:,shape:[]}
    out_0 {name:"Node_783:0",dtype:float32,shape:[1, 16, 28, 28, 8]}
  }
}
layer {
  name:"Node_784"
  type:"let"
  top:"Node_784"
  bottom:"x_18"
  bottom:"Node_783"
  layer_param {
    idx:784
    in_0 {name:"x:0",dtype:,shape:[]}
    in_1 {name:"Node_783:0",dtype:float32,shape:[1, 16, 28, 28, 8]}
    out_0 {name:"Node_784:0",dtype:,shape:[]}
  }
}
layer {
  name:"Node_785"
  type:"let"
  top:"Node_785"
  bottom:"tensor_0_9"
  bottom:"Node_784"
  layer_param {
    idx:785
    in_0 {name:"tensor_0:0",dtype:float32,shape:[1, 16, 28, 28, 8]}
    in_1 {name:"Node_784:0",dtype:,shape:[]}
    out_0 {name:"Node_785:0",dtype:float32,shape:[1, 16, 28, 28, 8]}
  }
}
layer {
  name:"Node_786"
  type:"let"
  top:"Node_786"
  bottom:"storage_0_9"
  bottom:"Node_785"
  layer_param {
    idx:786
    in_0 {name:"storage_0:0",dtype:,shape:[]}
    in_1 {name:"Node_785:0",dtype:float32,shape:[1, 16, 28, 28, 8]}
    out_0 {name:"Node_786:0",dtype:,shape:[]}
  }
}
layer {
  name:"Node_787"
  type:"let"
  top:"Node_787"
  bottom:"x_17"
  bottom:"Node_786"
  layer_param {
    idx:787
    in_0 {name:"x:0",dtype:float32,shape:[1, 16, 28, 28, 8]}
    in_1 {name:"Node_786:0",dtype:,shape:[]}
    out_0 {name:"Node_787:0",dtype:float32,shape:[1, 16, 28, 28, 8]}
  }
}
layer {
  name:"Node_788"
  type:"let"
  top:"Node_788"
  bottom:"x_16"
  bottom:"Node_787"
  layer_param {
    idx:788
    in_0 {name:"x:0",dtype:,shape:[]}
    in_1 {name:"Node_787:0",dtype:float32,shape:[1, 16, 28, 28, 8]}
    out_0 {name:"Node_788:0",dtype:,shape:[]}
  }
}
layer {
  name:"Node_789"
  type:"let"
  top:"Node_789"
  bottom:"tensor_0_8"
  bottom:"Node_788"
  layer_param {
    idx:789
    in_0 {name:"tensor_0:0",dtype:float32,shape:[1, 16, 28, 28, 8]}
    in_1 {name:"Node_788:0",dtype:,shape:[]}
    out_0 {name:"Node_789:0",dtype:float32,shape:[1, 16, 28, 28, 8]}
  }
}
layer {
  name:"Node_790"
  type:"let"
  top:"Node_790"
  bottom:"storage_0_8"
  bottom:"Node_789"
  layer_param {
    idx:790
    in_0 {name:"storage_0:0",dtype:,shape:[]}
    in_1 {name:"Node_789:0",dtype:float32,shape:[1, 16, 28, 28, 8]}
    out_0 {name:"Node_790:0",dtype:,shape:[]}
  }
}
layer {
  name:"Node_791"
  type:"let"
  top:"Node_791"
  bottom:"x_15"
  bottom:"Node_790"
  layer_param {
    idx:791
    in_0 {name:"x:0",dtype:float32,shape:[1, 16, 28, 28, 8]}
    in_1 {name:"Node_790:0",dtype:,shape:[]}
    out_0 {name:"Node_791:0",dtype:float32,shape:[1, 16, 28, 28, 8]}
  }
}
layer {
  name:"Node_792"
  type:"let"
  top:"Node_792"
  bottom:"x_14"
  bottom:"Node_791"
  layer_param {
    idx:792
    in_0 {name:"x:0",dtype:,shape:[]}
    in_1 {name:"Node_791:0",dtype:float32,shape:[1, 16, 28, 28, 8]}
    out_0 {name:"Node_792:0",dtype:,shape:[]}
  }
}
layer {
  name:"Node_793"
  type:"let"
  top:"Node_793"
  bottom:"tensor_0_7"
  bottom:"Node_792"
  layer_param {
    idx:793
    in_0 {name:"tensor_0:0",dtype:float32,shape:[1, 16, 28, 28, 8]}
    in_1 {name:"Node_792:0",dtype:,shape:[]}
    out_0 {name:"Node_793:0",dtype:float32,shape:[1, 16, 28, 28, 8]}
  }
}
layer {
  name:"Node_794"
  type:"let"
  top:"Node_794"
  bottom:"storage_0_7"
  bottom:"Node_793"
  layer_param {
    idx:794
    in_0 {name:"storage_0:0",dtype:,shape:[]}
    in_1 {name:"Node_793:0",dtype:float32,shape:[1, 16, 28, 28, 8]}
    out_0 {name:"Node_794:0",dtype:,shape:[]}
  }
}
layer {
  name:"Node_795"
  type:"let"
  top:"Node_795"
  bottom:"x_13"
  bottom:"Node_794"
  layer_param {
    idx:795
    in_0 {name:"x:0",dtype:float32,shape:[1, 8, 56, 56, 8]}
    in_1 {name:"Node_794:0",dtype:,shape:[]}
    out_0 {name:"Node_795:0",dtype:float32,shape:[1, 8, 56, 56, 8]}
  }
}
layer {
  name:"Node_796"
  type:"let"
  top:"Node_796"
  bottom:"x_12"
  bottom:"Node_795"
  layer_param {
    idx:796
    in_0 {name:"x:0",dtype:,shape:[]}
    in_1 {name:"Node_795:0",dtype:float32,shape:[1, 8, 56, 56, 8]}
    out_0 {name:"Node_796:0",dtype:,shape:[]}
  }
}
layer {
  name:"Node_797"
  type:"let"
  top:"Node_797"
  bottom:"tensor_0_6"
  bottom:"Node_796"
  layer_param {
    idx:797
    in_0 {name:"tensor_0:0",dtype:float32,shape:[1, 8, 56, 56, 8]}
    in_1 {name:"Node_796:0",dtype:,shape:[]}
    out_0 {name:"Node_797:0",dtype:float32,shape:[1, 8, 56, 56, 8]}
  }
}
layer {
  name:"Node_798"
  type:"let"
  top:"Node_798"
  bottom:"storage_0_6"
  bottom:"Node_797"
  layer_param {
    idx:798
    in_0 {name:"storage_0:0",dtype:,shape:[]}
    in_1 {name:"Node_797:0",dtype:float32,shape:[1, 8, 56, 56, 8]}
    out_0 {name:"Node_798:0",dtype:,shape:[]}
  }
}
layer {
  name:"Node_799"
  type:"let"
  top:"Node_799"
  bottom:"x_11"
  bottom:"Node_798"
  layer_param {
    idx:799
    in_0 {name:"x:0",dtype:float32,shape:[1, 8, 56, 56, 8]}
    in_1 {name:"Node_798:0",dtype:,shape:[]}
    out_0 {name:"Node_799:0",dtype:float32,shape:[1, 8, 56, 56, 8]}
  }
}
layer {
  name:"Node_800"
  type:"let"
  top:"Node_800"
  bottom:"x_10"
  bottom:"Node_799"
  layer_param {
    idx:800
    in_0 {name:"x:0",dtype:,shape:[]}
    in_1 {name:"Node_799:0",dtype:float32,shape:[1, 8, 56, 56, 8]}
    out_0 {name:"Node_800:0",dtype:,shape:[]}
  }
}
layer {
  name:"Node_801"
  type:"let"
  top:"Node_801"
  bottom:"tensor_0_5"
  bottom:"Node_800"
  layer_param {
    idx:801
    in_0 {name:"tensor_0:0",dtype:float32,shape:[1, 8, 56, 56, 8]}
    in_1 {name:"Node_800:0",dtype:,shape:[]}
    out_0 {name:"Node_801:0",dtype:float32,shape:[1, 8, 56, 56, 8]}
  }
}
layer {
  name:"Node_802"
  type:"let"
  top:"Node_802"
  bottom:"storage_0_5"
  bottom:"Node_801"
  layer_param {
    idx:802
    in_0 {name:"storage_0:0",dtype:,shape:[]}
    in_1 {name:"Node_801:0",dtype:float32,shape:[1, 8, 56, 56, 8]}
    out_0 {name:"Node_802:0",dtype:,shape:[]}
  }
}
layer {
  name:"Node_803"
  type:"let"
  top:"Node_803"
  bottom:"x_9"
  bottom:"Node_802"
  layer_param {
    idx:803
    in_0 {name:"x:0",dtype:float32,shape:[1, 8, 56, 56, 8]}
    in_1 {name:"Node_802:0",dtype:,shape:[]}
    out_0 {name:"Node_803:0",dtype:float32,shape:[1, 8, 56, 56, 8]}
  }
}
layer {
  name:"Node_804"
  type:"let"
  top:"Node_804"
  bottom:"x_8"
  bottom:"Node_803"
  layer_param {
    idx:804
    in_0 {name:"x:0",dtype:,shape:[]}
    in_1 {name:"Node_803:0",dtype:float32,shape:[1, 8, 56, 56, 8]}
    out_0 {name:"Node_804:0",dtype:,shape:[]}
  }
}
layer {
  name:"Node_805"
  type:"let"
  top:"Node_805"
  bottom:"tensor_0_4"
  bottom:"Node_804"
  layer_param {
    idx:805
    in_0 {name:"tensor_0:0",dtype:float32,shape:[1, 8, 56, 56, 8]}
    in_1 {name:"Node_804:0",dtype:,shape:[]}
    out_0 {name:"Node_805:0",dtype:float32,shape:[1, 8, 56, 56, 8]}
  }
}
layer {
  name:"Node_806"
  type:"let"
  top:"Node_806"
  bottom:"storage_0_4"
  bottom:"Node_805"
  layer_param {
    idx:806
    in_0 {name:"storage_0:0",dtype:,shape:[]}
    in_1 {name:"Node_805:0",dtype:float32,shape:[1, 8, 56, 56, 8]}
    out_0 {name:"Node_806:0",dtype:,shape:[]}
  }
}
layer {
  name:"Node_807"
  type:"let"
  top:"Node_807"
  bottom:"x_7"
  bottom:"Node_806"
  layer_param {
    idx:807
    in_0 {name:"x:0",dtype:float32,shape:[1, 8, 56, 56, 8]}
    in_1 {name:"Node_806:0",dtype:,shape:[]}
    out_0 {name:"Node_807:0",dtype:float32,shape:[1, 8, 56, 56, 8]}
  }
}
layer {
  name:"Node_808"
  type:"let"
  top:"Node_808"
  bottom:"x_6"
  bottom:"Node_807"
  layer_param {
    idx:808
    in_0 {name:"x:0",dtype:,shape:[]}
    in_1 {name:"Node_807:0",dtype:float32,shape:[1, 8, 56, 56, 8]}
    out_0 {name:"Node_808:0",dtype:,shape:[]}
  }
}
layer {
  name:"Node_809"
  type:"let"
  top:"Node_809"
  bottom:"tensor_0_3"
  bottom:"Node_808"
  layer_param {
    idx:809
    in_0 {name:"tensor_0:0",dtype:float32,shape:[1, 8, 56, 56, 8]}
    in_1 {name:"Node_808:0",dtype:,shape:[]}
    out_0 {name:"Node_809:0",dtype:float32,shape:[1, 8, 56, 56, 8]}
  }
}
layer {
  name:"Node_810"
  type:"let"
  top:"Node_810"
  bottom:"storage_0_3"
  bottom:"Node_809"
  layer_param {
    idx:810
    in_0 {name:"storage_0:0",dtype:,shape:[]}
    in_1 {name:"Node_809:0",dtype:float32,shape:[1, 8, 56, 56, 8]}
    out_0 {name:"Node_810:0",dtype:,shape:[]}
  }
}
layer {
  name:"Node_811"
  type:"let"
  top:"Node_811"
  bottom:"x_5"
  bottom:"Node_810"
  layer_param {
    idx:811
    in_0 {name:"x:0",dtype:float32,shape:[1, 8, 56, 56, 8]}
    in_1 {name:"Node_810:0",dtype:,shape:[]}
    out_0 {name:"Node_811:0",dtype:float32,shape:[1, 8, 56, 56, 8]}
  }
}
layer {
  name:"Node_812"
  type:"let"
  top:"Node_812"
  bottom:"x_4"
  bottom:"Node_811"
  layer_param {
    idx:812
    in_0 {name:"x:0",dtype:,shape:[]}
    in_1 {name:"Node_811:0",dtype:float32,shape:[1, 8, 56, 56, 8]}
    out_0 {name:"Node_812:0",dtype:,shape:[]}
  }
}
layer {
  name:"Node_813"
  type:"let"
  top:"Node_813"
  bottom:"tensor_0_2"
  bottom:"Node_812"
  layer_param {
    idx:813
    in_0 {name:"tensor_0:0",dtype:float32,shape:[1, 8, 56, 56, 8]}
    in_1 {name:"Node_812:0",dtype:,shape:[]}
    out_0 {name:"Node_813:0",dtype:float32,shape:[1, 8, 56, 56, 8]}
  }
}
layer {
  name:"Node_814"
  type:"let"
  top:"Node_814"
  bottom:"storage_0_2"
  bottom:"Node_813"
  layer_param {
    idx:814
    in_0 {name:"storage_0:0",dtype:,shape:[]}
    in_1 {name:"Node_813:0",dtype:float32,shape:[1, 8, 56, 56, 8]}
    out_0 {name:"Node_814:0",dtype:,shape:[]}
  }
}
layer {
  name:"Node_815"
  type:"let"
  top:"Node_815"
  bottom:"x_3"
  bottom:"Node_814"
  layer_param {
    idx:815
    in_0 {name:"x:0",dtype:float32,shape:[1, 8, 112, 112, 8]}
    in_1 {name:"Node_814:0",dtype:,shape:[]}
    out_0 {name:"Node_815:0",dtype:float32,shape:[1, 8, 112, 112, 8]}
  }
}
layer {
  name:"Node_816"
  type:"let"
  top:"Node_816"
  bottom:"x_2"
  bottom:"Node_815"
  layer_param {
    idx:816
    in_0 {name:"x:0",dtype:,shape:[]}
    in_1 {name:"Node_815:0",dtype:float32,shape:[1, 8, 112, 112, 8]}
    out_0 {name:"Node_816:0",dtype:,shape:[]}
  }
}
layer {
  name:"Node_817"
  type:"let"
  top:"Node_817"
  bottom:"tensor_0_1"
  bottom:"Node_816"
  layer_param {
    idx:817
    in_0 {name:"tensor_0:0",dtype:float32,shape:[1, 8, 112, 112, 8]}
    in_1 {name:"Node_816:0",dtype:,shape:[]}
    out_0 {name:"Node_817:0",dtype:float32,shape:[1, 8, 112, 112, 8]}
  }
}
layer {
  name:"Node_818"
  type:"let"
  top:"Node_818"
  bottom:"storage_0_1"
  bottom:"Node_817"
  layer_param {
    idx:818
    in_0 {name:"storage_0:0",dtype:,shape:[]}
    in_1 {name:"Node_817:0",dtype:float32,shape:[1, 8, 112, 112, 8]}
    out_0 {name:"Node_818:0",dtype:,shape:[]}
  }
}
layer {
  name:"Node_819"
  type:"let"
  top:"Node_819"
  bottom:"x_1"
  bottom:"Node_818"
  layer_param {
    idx:819
    in_0 {name:"x:0",dtype:float32,shape:[1, 1, 224, 224, 3]}
    in_1 {name:"Node_818:0",dtype:,shape:[]}
    out_0 {name:"Node_819:0",dtype:float32,shape:[1, 1, 224, 224, 3]}
  }
}
layer {
  name:"Node_820"
  type:"let"
  top:"Node_820"
  bottom:"x"
  bottom:"Node_819"
  layer_param {
    idx:820
    in_0 {name:"x:0",dtype:,shape:[]}
    in_1 {name:"Node_819:0",dtype:float32,shape:[1, 1, 224, 224, 3]}
    out_0 {name:"Node_820:0",dtype:,shape:[]}
  }
}
layer {
  name:"Node_821"
  type:"let"
  top:"Node_821"
  bottom:"tensor_0"
  bottom:"Node_820"
  layer_param {
    idx:821
    in_0 {name:"tensor_0:0",dtype:float32,shape:[1, 1, 224, 224, 3]}
    in_1 {name:"Node_820:0",dtype:,shape:[]}
    out_0 {name:"Node_821:0",dtype:float32,shape:[1, 1, 224, 224, 3]}
  }
}
layer {
  name:"Node_822"
  type:"let"
  top:"Node_822"
  bottom:"storage_0"
  bottom:"Node_821"
  layer_param {
    idx:822
    in_0 {name:"storage_0:0",dtype:,shape:[]}
    in_1 {name:"Node_821:0",dtype:float32,shape:[1, 1, 224, 224, 3]}
    out_0 {name:"Node_822:0",dtype:,shape:[]}
  }
}
layer {
  name:"Node_823"
  type:"function"
  top:"Node_823"
  bottom:"input0"
  bottom:"Node_822"
  layer_param {
    idx:823
    in_0 {name:"input0:0",dtype:float32,shape:[1, 3, 224, 224]}
    in_1 {name:"Node_822:0",dtype:,shape:[]}
    out_0 {name:"Node_823:0",dtype:float32,shape:[1, 1000]}
  }
}
