name : "relay_ir"
layer {
  name:"input0"
  type:"input"
  top:"input0"
  layer_param {
    idx:0
    out_0 {name:"input0:0",dtype:float32,shape:[1, 3, 224, 224]}
  }
}
layer {
  name:"x"
  type:"var"
  top:"x"
  bottom:"Node_6"
  layer_param {
    idx:1
    in_0 {name:"Node_6:0",dtype:float32,shape:[1, 1, 224, 224, 3]}
    out_0 {name:"x:0",dtype:float32,shape:[1, 1, 224, 224, 3]}
  }
}
layer {
  name:"p0"
  type:"input"
  top:"p0"
  layer_param {
    idx:2
    out_0 {name:"p0:0",dtype:float32,shape:[1, 3, 224, 224]}
  }
}
layer {
  name:"Node_5"
  type:"layout_transform"
  top:"Node_5"
  bottom:"p0"
  layer_param {
    idx:5
    in_0 {name:"p0:0",dtype:float32,shape:[1, 3, 224, 224]}
    out_0 {name:"Node_5:0",dtype:float32,shape:[1, 1, 224, 224, 3]}
    attrs {'src_layout': 'NCHW', 'dst_layout': 'NCHW3c'}
  }
}
layer {
  name:"Node_6"
  type:"function"
  top:"Node_6"
  bottom:"p0"
  bottom:"Node_5"
  layer_param {
    idx:6
    in_0 {name:"p0:0",dtype:float32,shape:[1, 3, 224, 224]}
    in_1 {name:"Node_5:0",dtype:float32,shape:[1, 1, 224, 224, 3]}
    out_0 {name:"Node_6:0",dtype:float32,shape:[1, 1, 224, 224, 3]}
  }
}
layer {
  name:"x_1"
  type:"var"
  top:"x_1"
  bottom:"Node_10"
  layer_param {
    idx:7
    in_0 {name:"Node_10:0",dtype:float32,shape:[1, 1, 224, 224, 3]}
    out_0 {name:"x:0",dtype:float32,shape:[1, 1, 224, 224, 3]}
  }
}
layer {
  name:"Node_10"
  type:"var_call"
  top:"Node_10"
  bottom:"x"
  bottom:"input0"
  layer_param {
    idx:10
    in_0 {name:"x:0",dtype:float32,shape:[1, 1, 224, 224, 3]}
    in_1 {name:"input0:0",dtype:float32,shape:[1, 3, 224, 224]}
    out_0 {name:"Node_10:0",dtype:float32,shape:[1, 1, 224, 224, 3]}
  }
}
layer {
  name:"x_2"
  type:"var"
  top:"x_2"
  bottom:"Node_12"
  layer_param {
    idx:11
    in_0 {name:"Node_12:0",dtype:float32,shape:[8, 1, 7, 7, 3, 8]}
    out_0 {name:"x:0",dtype:float32,shape:[8, 1, 7, 7, 3, 8]}
  }
}
layer {
  name:"Node_12"
  type:"const"
  top:"Node_12"
  layer_param {
    idx:12
    out_0 {name:"Node_12:0",dtype:float32,shape:[8, 1, 7, 7, 3, 8]}
  }
}
layer {
  name:"x_3"
  type:"var"
  top:"x_3"
  bottom:"Node_14"
  layer_param {
    idx:13
    in_0 {name:"Node_14:0",dtype:float32,shape:[1, 8, 1, 1, 8]}
    out_0 {name:"x:0",dtype:float32,shape:[1, 8, 1, 1, 8]}
  }
}
layer {
  name:"Node_14"
  type:"const"
  top:"Node_14"
  layer_param {
    idx:14
    out_0 {name:"Node_14:0",dtype:float32,shape:[1, 8, 1, 1, 8]}
  }
}
layer {
  name:"x_4"
  type:"var"
  top:"x_4"
  bottom:"Node_28"
  layer_param {
    idx:15
    in_0 {name:"Node_28:0",dtype:float32,shape:[1, 8, 112, 112, 8]}
    out_0 {name:"x:0",dtype:float32,shape:[1, 8, 112, 112, 8]}
  }
}
layer {
  name:"p0_1"
  type:"input"
  top:"p0_1"
  layer_param {
    idx:16
    out_0 {name:"p0:0",dtype:float32,shape:[1, 1, 224, 224, 3]}
  }
}
layer {
  name:"p1"
  type:"input"
  top:"p1"
  layer_param {
    idx:17
    out_0 {name:"p1:0",dtype:float32,shape:[8, 1, 7, 7, 3, 8]}
  }
}
layer {
  name:"p2"
  type:"input"
  top:"p2"
  layer_param {
    idx:18
    out_0 {name:"p2:0",dtype:float32,shape:[1, 8, 1, 1, 8]}
  }
}
layer {
  name:"Node_24"
  type:"nn_contrib_conv2d_NCHWc"
  top:"Node_24"
  bottom:"p0_1"
  bottom:"p1"
  layer_param {
    idx:24
    in_0 {name:"p0:0",dtype:float32,shape:[1, 1, 224, 224, 3]}
    in_1 {name:"p1:0",dtype:float32,shape:[8, 1, 7, 7, 3, 8]}
    out_0 {name:"Node_24:0",dtype:float32,shape:[1, 8, 112, 112, 8]}
    attrs {'strides': [2, 2], 'padding': [3, 3, 3, 3], 'dilation': [1, 1], 'groups': 1, 'channels': 64, 'kernel_size': [7, 7], 'data_layout': 'NCHW3c', 'kernel_layout': 'OIHW3i8o', 'out_layout': 'NCHW8c', 'out_dtype': ''}
  }
}
layer {
  name:"Node_26"
  type:"add"
  top:"Node_26"
  bottom:"Node_24"
  bottom:"p2"
  layer_param {
    idx:26
    in_0 {name:"Node_24:0",dtype:float32,shape:[1, 8, 112, 112, 8]}
    in_1 {name:"p2:0",dtype:float32,shape:[1, 8, 1, 1, 8]}
    out_0 {name:"Node_26:0",dtype:float32,shape:[1, 8, 112, 112, 8]}
  }
}
layer {
  name:"Node_27"
  type:"nn_relu"
  top:"Node_27"
  bottom:"Node_26"
  layer_param {
    idx:27
    in_0 {name:"Node_26:0",dtype:float32,shape:[1, 8, 112, 112, 8]}
    out_0 {name:"Node_27:0",dtype:float32,shape:[1, 8, 112, 112, 8]}
  }
}
layer {
  name:"Node_28"
  type:"function"
  top:"Node_28"
  bottom:"p0_1"
  bottom:"p1"
  bottom:"p2"
  bottom:"Node_27"
  layer_param {
    idx:28
    in_0 {name:"p0:0",dtype:float32,shape:[1, 1, 224, 224, 3]}
    in_1 {name:"p1:0",dtype:float32,shape:[8, 1, 7, 7, 3, 8]}
    in_2 {name:"p2:0",dtype:float32,shape:[1, 8, 1, 1, 8]}
    in_3 {name:"Node_27:0",dtype:float32,shape:[1, 8, 112, 112, 8]}
    out_0 {name:"Node_28:0",dtype:float32,shape:[1, 8, 112, 112, 8]}
  }
}
layer {
  name:"x_5"
  type:"var"
  top:"x_5"
  bottom:"Node_34"
  layer_param {
    idx:29
    in_0 {name:"Node_34:0",dtype:float32,shape:[1, 8, 112, 112, 8]}
    out_0 {name:"x:0",dtype:float32,shape:[1, 8, 112, 112, 8]}
  }
}
layer {
  name:"Node_34"
  type:"var_call"
  top:"Node_34"
  bottom:"x_4"
  bottom:"x_1"
  bottom:"x_2"
  bottom:"x_3"
  layer_param {
    idx:34
    in_0 {name:"x:0",dtype:float32,shape:[1, 8, 112, 112, 8]}
    in_1 {name:"x:0",dtype:float32,shape:[1, 1, 224, 224, 3]}
    in_2 {name:"x:0",dtype:float32,shape:[8, 1, 7, 7, 3, 8]}
    in_3 {name:"x:0",dtype:float32,shape:[1, 8, 1, 1, 8]}
    out_0 {name:"Node_34:0",dtype:float32,shape:[1, 8, 112, 112, 8]}
  }
}
layer {
  name:"x_6"
  type:"var"
  top:"x_6"
  bottom:"Node_40"
  layer_param {
    idx:35
    in_0 {name:"Node_40:0",dtype:float32,shape:[1, 8, 56, 56, 8]}
    out_0 {name:"x:0",dtype:float32,shape:[1, 8, 56, 56, 8]}
  }
}
layer {
  name:"p0_2"
  type:"input"
  top:"p0_2"
  layer_param {
    idx:36
    out_0 {name:"p0:0",dtype:float32,shape:[1, 8, 112, 112, 8]}
  }
}
layer {
  name:"Node_39"
  type:"nn_max_pool2d"
  top:"Node_39"
  bottom:"p0_2"
  layer_param {
    idx:39
    in_0 {name:"p0:0",dtype:float32,shape:[1, 8, 112, 112, 8]}
    out_0 {name:"Node_39:0",dtype:float32,shape:[1, 8, 56, 56, 8]}
    attrs {'pool_size': [3, 3], 'strides': [2, 2], 'padding': [1, 1, 1, 1], 'layout': 'NCHW8c', 'ceil_mode': 0}
  }
}
layer {
  name:"Node_40"
  type:"function"
  top:"Node_40"
  bottom:"p0_2"
  bottom:"Node_39"
  layer_param {
    idx:40
    in_0 {name:"p0:0",dtype:float32,shape:[1, 8, 112, 112, 8]}
    in_1 {name:"Node_39:0",dtype:float32,shape:[1, 8, 56, 56, 8]}
    out_0 {name:"Node_40:0",dtype:float32,shape:[1, 8, 56, 56, 8]}
  }
}
layer {
  name:"x_7"
  type:"var"
  top:"x_7"
  bottom:"Node_44"
  layer_param {
    idx:41
    in_0 {name:"Node_44:0",dtype:float32,shape:[1, 8, 56, 56, 8]}
    out_0 {name:"x:0",dtype:float32,shape:[1, 8, 56, 56, 8]}
  }
}
layer {
  name:"Node_44"
  type:"var_call"
  top:"Node_44"
  bottom:"x_6"
  bottom:"x_5"
  layer_param {
    idx:44
    in_0 {name:"x:0",dtype:float32,shape:[1, 8, 56, 56, 8]}
    in_1 {name:"x:0",dtype:float32,shape:[1, 8, 112, 112, 8]}
    out_0 {name:"Node_44:0",dtype:float32,shape:[1, 8, 56, 56, 8]}
  }
}
layer {
  name:"x_8"
  type:"var"
  top:"x_8"
  bottom:"Node_46"
  layer_param {
    idx:45
    in_0 {name:"Node_46:0",dtype:float32,shape:[8, 8, 3, 3, 8, 8]}
    out_0 {name:"x:0",dtype:float32,shape:[8, 8, 3, 3, 8, 8]}
  }
}
layer {
  name:"Node_46"
  type:"const"
  top:"Node_46"
  layer_param {
    idx:46
    out_0 {name:"Node_46:0",dtype:float32,shape:[8, 8, 3, 3, 8, 8]}
  }
}
layer {
  name:"x_9"
  type:"var"
  top:"x_9"
  bottom:"Node_48"
  layer_param {
    idx:47
    in_0 {name:"Node_48:0",dtype:float32,shape:[1, 8, 1, 1, 8]}
    out_0 {name:"x:0",dtype:float32,shape:[1, 8, 1, 1, 8]}
  }
}
layer {
  name:"Node_48"
  type:"const"
  top:"Node_48"
  layer_param {
    idx:48
    out_0 {name:"Node_48:0",dtype:float32,shape:[1, 8, 1, 1, 8]}
  }
}
layer {
  name:"x_10"
  type:"var"
  top:"x_10"
  bottom:"Node_62"
  layer_param {
    idx:49
    in_0 {name:"Node_62:0",dtype:float32,shape:[1, 8, 56, 56, 8]}
    out_0 {name:"x:0",dtype:float32,shape:[1, 8, 56, 56, 8]}
  }
}
layer {
  name:"p0_3"
  type:"input"
  top:"p0_3"
  layer_param {
    idx:50
    out_0 {name:"p0:0",dtype:float32,shape:[1, 8, 56, 56, 8]}
  }
}
layer {
  name:"p1_1"
  type:"input"
  top:"p1_1"
  layer_param {
    idx:51
    out_0 {name:"p1:0",dtype:float32,shape:[8, 8, 3, 3, 8, 8]}
  }
}
layer {
  name:"p2_1"
  type:"input"
  top:"p2_1"
  layer_param {
    idx:52
    out_0 {name:"p2:0",dtype:float32,shape:[1, 8, 1, 1, 8]}
  }
}
layer {
  name:"Node_58"
  type:"nn_contrib_conv2d_NCHWc"
  top:"Node_58"
  bottom:"p0_3"
  bottom:"p1_1"
  layer_param {
    idx:58
    in_0 {name:"p0:0",dtype:float32,shape:[1, 8, 56, 56, 8]}
    in_1 {name:"p1:0",dtype:float32,shape:[8, 8, 3, 3, 8, 8]}
    out_0 {name:"Node_58:0",dtype:float32,shape:[1, 8, 56, 56, 8]}
    attrs {'strides': [1, 1], 'padding': [1, 1, 1, 1], 'dilation': [1, 1], 'groups': 1, 'channels': 64, 'kernel_size': [3, 3], 'data_layout': 'NCHW8c', 'kernel_layout': 'OIHW8i8o', 'out_layout': 'NCHW8c', 'out_dtype': ''}
  }
}
layer {
  name:"Node_60"
  type:"add"
  top:"Node_60"
  bottom:"Node_58"
  bottom:"p2_1"
  layer_param {
    idx:60
    in_0 {name:"Node_58:0",dtype:float32,shape:[1, 8, 56, 56, 8]}
    in_1 {name:"p2:0",dtype:float32,shape:[1, 8, 1, 1, 8]}
    out_0 {name:"Node_60:0",dtype:float32,shape:[1, 8, 56, 56, 8]}
  }
}
layer {
  name:"Node_61"
  type:"nn_relu"
  top:"Node_61"
  bottom:"Node_60"
  layer_param {
    idx:61
    in_0 {name:"Node_60:0",dtype:float32,shape:[1, 8, 56, 56, 8]}
    out_0 {name:"Node_61:0",dtype:float32,shape:[1, 8, 56, 56, 8]}
  }
}
layer {
  name:"Node_62"
  type:"function"
  top:"Node_62"
  bottom:"p0_3"
  bottom:"p1_1"
  bottom:"p2_1"
  bottom:"Node_61"
  layer_param {
    idx:62
    in_0 {name:"p0:0",dtype:float32,shape:[1, 8, 56, 56, 8]}
    in_1 {name:"p1:0",dtype:float32,shape:[8, 8, 3, 3, 8, 8]}
    in_2 {name:"p2:0",dtype:float32,shape:[1, 8, 1, 1, 8]}
    in_3 {name:"Node_61:0",dtype:float32,shape:[1, 8, 56, 56, 8]}
    out_0 {name:"Node_62:0",dtype:float32,shape:[1, 8, 56, 56, 8]}
  }
}
layer {
  name:"x_11"
  type:"var"
  top:"x_11"
  bottom:"Node_68"
  layer_param {
    idx:63
    in_0 {name:"Node_68:0",dtype:float32,shape:[1, 8, 56, 56, 8]}
    out_0 {name:"x:0",dtype:float32,shape:[1, 8, 56, 56, 8]}
  }
}
layer {
  name:"Node_68"
  type:"var_call"
  top:"Node_68"
  bottom:"x_10"
  bottom:"x_7"
  bottom:"x_8"
  bottom:"x_9"
  layer_param {
    idx:68
    in_0 {name:"x:0",dtype:float32,shape:[1, 8, 56, 56, 8]}
    in_1 {name:"x:0",dtype:float32,shape:[1, 8, 56, 56, 8]}
    in_2 {name:"x:0",dtype:float32,shape:[8, 8, 3, 3, 8, 8]}
    in_3 {name:"x:0",dtype:float32,shape:[1, 8, 1, 1, 8]}
    out_0 {name:"Node_68:0",dtype:float32,shape:[1, 8, 56, 56, 8]}
  }
}
layer {
  name:"x_12"
  type:"var"
  top:"x_12"
  bottom:"Node_70"
  layer_param {
    idx:69
    in_0 {name:"Node_70:0",dtype:float32,shape:[8, 8, 3, 3, 8, 8]}
    out_0 {name:"x:0",dtype:float32,shape:[8, 8, 3, 3, 8, 8]}
  }
}
layer {
  name:"Node_70"
  type:"const"
  top:"Node_70"
  layer_param {
    idx:70
    out_0 {name:"Node_70:0",dtype:float32,shape:[8, 8, 3, 3, 8, 8]}
  }
}
layer {
  name:"x_13"
  type:"var"
  top:"x_13"
  bottom:"Node_72"
  layer_param {
    idx:71
    in_0 {name:"Node_72:0",dtype:float32,shape:[1, 8, 1, 1, 8]}
    out_0 {name:"x:0",dtype:float32,shape:[1, 8, 1, 1, 8]}
  }
}
layer {
  name:"Node_72"
  type:"const"
  top:"Node_72"
  layer_param {
    idx:72
    out_0 {name:"Node_72:0",dtype:float32,shape:[1, 8, 1, 1, 8]}
  }
}
layer {
  name:"x_14"
  type:"var"
  top:"x_14"
  bottom:"Node_90"
  layer_param {
    idx:73
    in_0 {name:"Node_90:0",dtype:float32,shape:[1, 8, 56, 56, 8]}
    out_0 {name:"x:0",dtype:float32,shape:[1, 8, 56, 56, 8]}
  }
}
layer {
  name:"p0_4"
  type:"input"
  top:"p0_4"
  layer_param {
    idx:74
    out_0 {name:"p0:0",dtype:float32,shape:[1, 8, 56, 56, 8]}
  }
}
layer {
  name:"p1_2"
  type:"input"
  top:"p1_2"
  layer_param {
    idx:75
    out_0 {name:"p1:0",dtype:float32,shape:[8, 8, 3, 3, 8, 8]}
  }
}
layer {
  name:"p2_2"
  type:"input"
  top:"p2_2"
  layer_param {
    idx:76
    out_0 {name:"p2:0",dtype:float32,shape:[1, 8, 1, 1, 8]}
  }
}
layer {
  name:"p3"
  type:"input"
  top:"p3"
  layer_param {
    idx:77
    out_0 {name:"p3:0",dtype:float32,shape:[1, 8, 56, 56, 8]}
  }
}
layer {
  name:"Node_84"
  type:"nn_contrib_conv2d_NCHWc"
  top:"Node_84"
  bottom:"p0_4"
  bottom:"p1_2"
  layer_param {
    idx:84
    in_0 {name:"p0:0",dtype:float32,shape:[1, 8, 56, 56, 8]}
    in_1 {name:"p1:0",dtype:float32,shape:[8, 8, 3, 3, 8, 8]}
    out_0 {name:"Node_84:0",dtype:float32,shape:[1, 8, 56, 56, 8]}
    attrs {'strides': [1, 1], 'padding': [1, 1, 1, 1], 'dilation': [1, 1], 'groups': 1, 'channels': 64, 'kernel_size': [3, 3], 'data_layout': 'NCHW8c', 'kernel_layout': 'OIHW8i8o', 'out_layout': 'NCHW8c', 'out_dtype': ''}
  }
}
layer {
  name:"Node_86"
  type:"add"
  top:"Node_86"
  bottom:"Node_84"
  bottom:"p2_2"
  layer_param {
    idx:86
    in_0 {name:"Node_84:0",dtype:float32,shape:[1, 8, 56, 56, 8]}
    in_1 {name:"p2:0",dtype:float32,shape:[1, 8, 1, 1, 8]}
    out_0 {name:"Node_86:0",dtype:float32,shape:[1, 8, 56, 56, 8]}
  }
}
layer {
  name:"Node_88"
  type:"add"
  top:"Node_88"
  bottom:"Node_86"
  bottom:"p3"
  layer_param {
    idx:88
    in_0 {name:"Node_86:0",dtype:float32,shape:[1, 8, 56, 56, 8]}
    in_1 {name:"p3:0",dtype:float32,shape:[1, 8, 56, 56, 8]}
    out_0 {name:"Node_88:0",dtype:float32,shape:[1, 8, 56, 56, 8]}
  }
}
layer {
  name:"Node_89"
  type:"nn_relu"
  top:"Node_89"
  bottom:"Node_88"
  layer_param {
    idx:89
    in_0 {name:"Node_88:0",dtype:float32,shape:[1, 8, 56, 56, 8]}
    out_0 {name:"Node_89:0",dtype:float32,shape:[1, 8, 56, 56, 8]}
  }
}
layer {
  name:"Node_90"
  type:"function"
  top:"Node_90"
  bottom:"p0_4"
  bottom:"p1_2"
  bottom:"p2_2"
  bottom:"p3"
  bottom:"Node_89"
  layer_param {
    idx:90
    in_0 {name:"p0:0",dtype:float32,shape:[1, 8, 56, 56, 8]}
    in_1 {name:"p1:0",dtype:float32,shape:[8, 8, 3, 3, 8, 8]}
    in_2 {name:"p2:0",dtype:float32,shape:[1, 8, 1, 1, 8]}
    in_3 {name:"p3:0",dtype:float32,shape:[1, 8, 56, 56, 8]}
    in_4 {name:"Node_89:0",dtype:float32,shape:[1, 8, 56, 56, 8]}
    out_0 {name:"Node_90:0",dtype:float32,shape:[1, 8, 56, 56, 8]}
  }
}
layer {
  name:"x_15"
  type:"var"
  top:"x_15"
  bottom:"Node_97"
  layer_param {
    idx:91
    in_0 {name:"Node_97:0",dtype:float32,shape:[1, 8, 56, 56, 8]}
    out_0 {name:"x:0",dtype:float32,shape:[1, 8, 56, 56, 8]}
  }
}
layer {
  name:"Node_97"
  type:"var_call"
  top:"Node_97"
  bottom:"x_14"
  bottom:"x_11"
  bottom:"x_12"
  bottom:"x_13"
  bottom:"x_7"
  layer_param {
    idx:97
    in_0 {name:"x:0",dtype:float32,shape:[1, 8, 56, 56, 8]}
    in_1 {name:"x:0",dtype:float32,shape:[1, 8, 56, 56, 8]}
    in_2 {name:"x:0",dtype:float32,shape:[8, 8, 3, 3, 8, 8]}
    in_3 {name:"x:0",dtype:float32,shape:[1, 8, 1, 1, 8]}
    in_4 {name:"x:0",dtype:float32,shape:[1, 8, 56, 56, 8]}
    out_0 {name:"Node_97:0",dtype:float32,shape:[1, 8, 56, 56, 8]}
  }
}
layer {
  name:"x_16"
  type:"var"
  top:"x_16"
  bottom:"Node_99"
  layer_param {
    idx:98
    in_0 {name:"Node_99:0",dtype:float32,shape:[8, 8, 3, 3, 8, 8]}
    out_0 {name:"x:0",dtype:float32,shape:[8, 8, 3, 3, 8, 8]}
  }
}
layer {
  name:"Node_99"
  type:"const"
  top:"Node_99"
  layer_param {
    idx:99
    out_0 {name:"Node_99:0",dtype:float32,shape:[8, 8, 3, 3, 8, 8]}
  }
}
layer {
  name:"x_17"
  type:"var"
  top:"x_17"
  bottom:"Node_101"
  layer_param {
    idx:100
    in_0 {name:"Node_101:0",dtype:float32,shape:[1, 8, 1, 1, 8]}
    out_0 {name:"x:0",dtype:float32,shape:[1, 8, 1, 1, 8]}
  }
}
layer {
  name:"Node_101"
  type:"const"
  top:"Node_101"
  layer_param {
    idx:101
    out_0 {name:"Node_101:0",dtype:float32,shape:[1, 8, 1, 1, 8]}
  }
}
layer {
  name:"x_18"
  type:"var"
  top:"x_18"
  bottom:"Node_115"
  layer_param {
    idx:102
    in_0 {name:"Node_115:0",dtype:float32,shape:[1, 8, 56, 56, 8]}
    out_0 {name:"x:0",dtype:float32,shape:[1, 8, 56, 56, 8]}
  }
}
layer {
  name:"p0_5"
  type:"input"
  top:"p0_5"
  layer_param {
    idx:103
    out_0 {name:"p0:0",dtype:float32,shape:[1, 8, 56, 56, 8]}
  }
}
layer {
  name:"p1_3"
  type:"input"
  top:"p1_3"
  layer_param {
    idx:104
    out_0 {name:"p1:0",dtype:float32,shape:[8, 8, 3, 3, 8, 8]}
  }
}
layer {
  name:"p2_3"
  type:"input"
  top:"p2_3"
  layer_param {
    idx:105
    out_0 {name:"p2:0",dtype:float32,shape:[1, 8, 1, 1, 8]}
  }
}
layer {
  name:"Node_111"
  type:"nn_contrib_conv2d_NCHWc"
  top:"Node_111"
  bottom:"p0_5"
  bottom:"p1_3"
  layer_param {
    idx:111
    in_0 {name:"p0:0",dtype:float32,shape:[1, 8, 56, 56, 8]}
    in_1 {name:"p1:0",dtype:float32,shape:[8, 8, 3, 3, 8, 8]}
    out_0 {name:"Node_111:0",dtype:float32,shape:[1, 8, 56, 56, 8]}
    attrs {'strides': [1, 1], 'padding': [1, 1, 1, 1], 'dilation': [1, 1], 'groups': 1, 'channels': 64, 'kernel_size': [3, 3], 'data_layout': 'NCHW8c', 'kernel_layout': 'OIHW8i8o', 'out_layout': 'NCHW8c', 'out_dtype': ''}
  }
}
layer {
  name:"Node_113"
  type:"add"
  top:"Node_113"
  bottom:"Node_111"
  bottom:"p2_3"
  layer_param {
    idx:113
    in_0 {name:"Node_111:0",dtype:float32,shape:[1, 8, 56, 56, 8]}
    in_1 {name:"p2:0",dtype:float32,shape:[1, 8, 1, 1, 8]}
    out_0 {name:"Node_113:0",dtype:float32,shape:[1, 8, 56, 56, 8]}
  }
}
layer {
  name:"Node_114"
  type:"nn_relu"
  top:"Node_114"
  bottom:"Node_113"
  layer_param {
    idx:114
    in_0 {name:"Node_113:0",dtype:float32,shape:[1, 8, 56, 56, 8]}
    out_0 {name:"Node_114:0",dtype:float32,shape:[1, 8, 56, 56, 8]}
  }
}
layer {
  name:"Node_115"
  type:"function"
  top:"Node_115"
  bottom:"p0_5"
  bottom:"p1_3"
  bottom:"p2_3"
  bottom:"Node_114"
  layer_param {
    idx:115
    in_0 {name:"p0:0",dtype:float32,shape:[1, 8, 56, 56, 8]}
    in_1 {name:"p1:0",dtype:float32,shape:[8, 8, 3, 3, 8, 8]}
    in_2 {name:"p2:0",dtype:float32,shape:[1, 8, 1, 1, 8]}
    in_3 {name:"Node_114:0",dtype:float32,shape:[1, 8, 56, 56, 8]}
    out_0 {name:"Node_115:0",dtype:float32,shape:[1, 8, 56, 56, 8]}
  }
}
layer {
  name:"x_19"
  type:"var"
  top:"x_19"
  bottom:"Node_121"
  layer_param {
    idx:116
    in_0 {name:"Node_121:0",dtype:float32,shape:[1, 8, 56, 56, 8]}
    out_0 {name:"x:0",dtype:float32,shape:[1, 8, 56, 56, 8]}
  }
}
layer {
  name:"Node_121"
  type:"var_call"
  top:"Node_121"
  bottom:"x_18"
  bottom:"x_15"
  bottom:"x_16"
  bottom:"x_17"
  layer_param {
    idx:121
    in_0 {name:"x:0",dtype:float32,shape:[1, 8, 56, 56, 8]}
    in_1 {name:"x:0",dtype:float32,shape:[1, 8, 56, 56, 8]}
    in_2 {name:"x:0",dtype:float32,shape:[8, 8, 3, 3, 8, 8]}
    in_3 {name:"x:0",dtype:float32,shape:[1, 8, 1, 1, 8]}
    out_0 {name:"Node_121:0",dtype:float32,shape:[1, 8, 56, 56, 8]}
  }
}
layer {
  name:"x_20"
  type:"var"
  top:"x_20"
  bottom:"Node_123"
  layer_param {
    idx:122
    in_0 {name:"Node_123:0",dtype:float32,shape:[8, 8, 3, 3, 8, 8]}
    out_0 {name:"x:0",dtype:float32,shape:[8, 8, 3, 3, 8, 8]}
  }
}
layer {
  name:"Node_123"
  type:"const"
  top:"Node_123"
  layer_param {
    idx:123
    out_0 {name:"Node_123:0",dtype:float32,shape:[8, 8, 3, 3, 8, 8]}
  }
}
layer {
  name:"x_21"
  type:"var"
  top:"x_21"
  bottom:"Node_125"
  layer_param {
    idx:124
    in_0 {name:"Node_125:0",dtype:float32,shape:[1, 8, 1, 1, 8]}
    out_0 {name:"x:0",dtype:float32,shape:[1, 8, 1, 1, 8]}
  }
}
layer {
  name:"Node_125"
  type:"const"
  top:"Node_125"
  layer_param {
    idx:125
    out_0 {name:"Node_125:0",dtype:float32,shape:[1, 8, 1, 1, 8]}
  }
}
layer {
  name:"x_22"
  type:"var"
  top:"x_22"
  bottom:"Node_143"
  layer_param {
    idx:126
    in_0 {name:"Node_143:0",dtype:float32,shape:[1, 8, 56, 56, 8]}
    out_0 {name:"x:0",dtype:float32,shape:[1, 8, 56, 56, 8]}
  }
}
layer {
  name:"p0_6"
  type:"input"
  top:"p0_6"
  layer_param {
    idx:127
    out_0 {name:"p0:0",dtype:float32,shape:[1, 8, 56, 56, 8]}
  }
}
layer {
  name:"p1_4"
  type:"input"
  top:"p1_4"
  layer_param {
    idx:128
    out_0 {name:"p1:0",dtype:float32,shape:[8, 8, 3, 3, 8, 8]}
  }
}
layer {
  name:"p2_4"
  type:"input"
  top:"p2_4"
  layer_param {
    idx:129
    out_0 {name:"p2:0",dtype:float32,shape:[1, 8, 1, 1, 8]}
  }
}
layer {
  name:"p3_1"
  type:"input"
  top:"p3_1"
  layer_param {
    idx:130
    out_0 {name:"p3:0",dtype:float32,shape:[1, 8, 56, 56, 8]}
  }
}
layer {
  name:"Node_137"
  type:"nn_contrib_conv2d_NCHWc"
  top:"Node_137"
  bottom:"p0_6"
  bottom:"p1_4"
  layer_param {
    idx:137
    in_0 {name:"p0:0",dtype:float32,shape:[1, 8, 56, 56, 8]}
    in_1 {name:"p1:0",dtype:float32,shape:[8, 8, 3, 3, 8, 8]}
    out_0 {name:"Node_137:0",dtype:float32,shape:[1, 8, 56, 56, 8]}
    attrs {'strides': [1, 1], 'padding': [1, 1, 1, 1], 'dilation': [1, 1], 'groups': 1, 'channels': 64, 'kernel_size': [3, 3], 'data_layout': 'NCHW8c', 'kernel_layout': 'OIHW8i8o', 'out_layout': 'NCHW8c', 'out_dtype': ''}
  }
}
layer {
  name:"Node_139"
  type:"add"
  top:"Node_139"
  bottom:"Node_137"
  bottom:"p2_4"
  layer_param {
    idx:139
    in_0 {name:"Node_137:0",dtype:float32,shape:[1, 8, 56, 56, 8]}
    in_1 {name:"p2:0",dtype:float32,shape:[1, 8, 1, 1, 8]}
    out_0 {name:"Node_139:0",dtype:float32,shape:[1, 8, 56, 56, 8]}
  }
}
layer {
  name:"Node_141"
  type:"add"
  top:"Node_141"
  bottom:"Node_139"
  bottom:"p3_1"
  layer_param {
    idx:141
    in_0 {name:"Node_139:0",dtype:float32,shape:[1, 8, 56, 56, 8]}
    in_1 {name:"p3:0",dtype:float32,shape:[1, 8, 56, 56, 8]}
    out_0 {name:"Node_141:0",dtype:float32,shape:[1, 8, 56, 56, 8]}
  }
}
layer {
  name:"Node_142"
  type:"nn_relu"
  top:"Node_142"
  bottom:"Node_141"
  layer_param {
    idx:142
    in_0 {name:"Node_141:0",dtype:float32,shape:[1, 8, 56, 56, 8]}
    out_0 {name:"Node_142:0",dtype:float32,shape:[1, 8, 56, 56, 8]}
  }
}
layer {
  name:"Node_143"
  type:"function"
  top:"Node_143"
  bottom:"p0_6"
  bottom:"p1_4"
  bottom:"p2_4"
  bottom:"p3_1"
  bottom:"Node_142"
  layer_param {
    idx:143
    in_0 {name:"p0:0",dtype:float32,shape:[1, 8, 56, 56, 8]}
    in_1 {name:"p1:0",dtype:float32,shape:[8, 8, 3, 3, 8, 8]}
    in_2 {name:"p2:0",dtype:float32,shape:[1, 8, 1, 1, 8]}
    in_3 {name:"p3:0",dtype:float32,shape:[1, 8, 56, 56, 8]}
    in_4 {name:"Node_142:0",dtype:float32,shape:[1, 8, 56, 56, 8]}
    out_0 {name:"Node_143:0",dtype:float32,shape:[1, 8, 56, 56, 8]}
  }
}
layer {
  name:"x_23"
  type:"var"
  top:"x_23"
  bottom:"Node_150"
  layer_param {
    idx:144
    in_0 {name:"Node_150:0",dtype:float32,shape:[1, 8, 56, 56, 8]}
    out_0 {name:"x:0",dtype:float32,shape:[1, 8, 56, 56, 8]}
  }
}
layer {
  name:"Node_150"
  type:"var_call"
  top:"Node_150"
  bottom:"x_22"
  bottom:"x_19"
  bottom:"x_20"
  bottom:"x_21"
  bottom:"x_15"
  layer_param {
    idx:150
    in_0 {name:"x:0",dtype:float32,shape:[1, 8, 56, 56, 8]}
    in_1 {name:"x:0",dtype:float32,shape:[1, 8, 56, 56, 8]}
    in_2 {name:"x:0",dtype:float32,shape:[8, 8, 3, 3, 8, 8]}
    in_3 {name:"x:0",dtype:float32,shape:[1, 8, 1, 1, 8]}
    in_4 {name:"x:0",dtype:float32,shape:[1, 8, 56, 56, 8]}
    out_0 {name:"Node_150:0",dtype:float32,shape:[1, 8, 56, 56, 8]}
  }
}
layer {
  name:"x_24"
  type:"var"
  top:"x_24"
  bottom:"Node_152"
  layer_param {
    idx:151
    in_0 {name:"Node_152:0",dtype:float32,shape:[16, 8, 3, 3, 8, 8]}
    out_0 {name:"x:0",dtype:float32,shape:[16, 8, 3, 3, 8, 8]}
  }
}
layer {
  name:"Node_152"
  type:"const"
  top:"Node_152"
  layer_param {
    idx:152
    out_0 {name:"Node_152:0",dtype:float32,shape:[16, 8, 3, 3, 8, 8]}
  }
}
layer {
  name:"x_25"
  type:"var"
  top:"x_25"
  bottom:"Node_154"
  layer_param {
    idx:153
    in_0 {name:"Node_154:0",dtype:float32,shape:[1, 16, 1, 1, 8]}
    out_0 {name:"x:0",dtype:float32,shape:[1, 16, 1, 1, 8]}
  }
}
layer {
  name:"Node_154"
  type:"const"
  top:"Node_154"
  layer_param {
    idx:154
    out_0 {name:"Node_154:0",dtype:float32,shape:[1, 16, 1, 1, 8]}
  }
}
layer {
  name:"x_26"
  type:"var"
  top:"x_26"
  bottom:"Node_168"
  layer_param {
    idx:155
    in_0 {name:"Node_168:0",dtype:float32,shape:[1, 16, 28, 28, 8]}
    out_0 {name:"x:0",dtype:float32,shape:[1, 16, 28, 28, 8]}
  }
}
layer {
  name:"p0_7"
  type:"input"
  top:"p0_7"
  layer_param {
    idx:156
    out_0 {name:"p0:0",dtype:float32,shape:[1, 8, 56, 56, 8]}
  }
}
layer {
  name:"p1_5"
  type:"input"
  top:"p1_5"
  layer_param {
    idx:157
    out_0 {name:"p1:0",dtype:float32,shape:[16, 8, 3, 3, 8, 8]}
  }
}
layer {
  name:"p2_5"
  type:"input"
  top:"p2_5"
  layer_param {
    idx:158
    out_0 {name:"p2:0",dtype:float32,shape:[1, 16, 1, 1, 8]}
  }
}
layer {
  name:"Node_164"
  type:"nn_contrib_conv2d_NCHWc"
  top:"Node_164"
  bottom:"p0_7"
  bottom:"p1_5"
  layer_param {
    idx:164
    in_0 {name:"p0:0",dtype:float32,shape:[1, 8, 56, 56, 8]}
    in_1 {name:"p1:0",dtype:float32,shape:[16, 8, 3, 3, 8, 8]}
    out_0 {name:"Node_164:0",dtype:float32,shape:[1, 16, 28, 28, 8]}
    attrs {'strides': [2, 2], 'padding': [1, 1, 1, 1], 'dilation': [1, 1], 'groups': 1, 'channels': 128, 'kernel_size': [3, 3], 'data_layout': 'NCHW8c', 'kernel_layout': 'OIHW8i8o', 'out_layout': 'NCHW8c', 'out_dtype': ''}
  }
}
layer {
  name:"Node_166"
  type:"add"
  top:"Node_166"
  bottom:"Node_164"
  bottom:"p2_5"
  layer_param {
    idx:166
    in_0 {name:"Node_164:0",dtype:float32,shape:[1, 16, 28, 28, 8]}
    in_1 {name:"p2:0",dtype:float32,shape:[1, 16, 1, 1, 8]}
    out_0 {name:"Node_166:0",dtype:float32,shape:[1, 16, 28, 28, 8]}
  }
}
layer {
  name:"Node_167"
  type:"nn_relu"
  top:"Node_167"
  bottom:"Node_166"
  layer_param {
    idx:167
    in_0 {name:"Node_166:0",dtype:float32,shape:[1, 16, 28, 28, 8]}
    out_0 {name:"Node_167:0",dtype:float32,shape:[1, 16, 28, 28, 8]}
  }
}
layer {
  name:"Node_168"
  type:"function"
  top:"Node_168"
  bottom:"p0_7"
  bottom:"p1_5"
  bottom:"p2_5"
  bottom:"Node_167"
  layer_param {
    idx:168
    in_0 {name:"p0:0",dtype:float32,shape:[1, 8, 56, 56, 8]}
    in_1 {name:"p1:0",dtype:float32,shape:[16, 8, 3, 3, 8, 8]}
    in_2 {name:"p2:0",dtype:float32,shape:[1, 16, 1, 1, 8]}
    in_3 {name:"Node_167:0",dtype:float32,shape:[1, 16, 28, 28, 8]}
    out_0 {name:"Node_168:0",dtype:float32,shape:[1, 16, 28, 28, 8]}
  }
}
layer {
  name:"x_27"
  type:"var"
  top:"x_27"
  bottom:"Node_174"
  layer_param {
    idx:169
    in_0 {name:"Node_174:0",dtype:float32,shape:[1, 16, 28, 28, 8]}
    out_0 {name:"x:0",dtype:float32,shape:[1, 16, 28, 28, 8]}
  }
}
layer {
  name:"Node_174"
  type:"var_call"
  top:"Node_174"
  bottom:"x_26"
  bottom:"x_23"
  bottom:"x_24"
  bottom:"x_25"
  layer_param {
    idx:174
    in_0 {name:"x:0",dtype:float32,shape:[1, 16, 28, 28, 8]}
    in_1 {name:"x:0",dtype:float32,shape:[1, 8, 56, 56, 8]}
    in_2 {name:"x:0",dtype:float32,shape:[16, 8, 3, 3, 8, 8]}
    in_3 {name:"x:0",dtype:float32,shape:[1, 16, 1, 1, 8]}
    out_0 {name:"Node_174:0",dtype:float32,shape:[1, 16, 28, 28, 8]}
  }
}
layer {
  name:"x_28"
  type:"var"
  top:"x_28"
  bottom:"Node_176"
  layer_param {
    idx:175
    in_0 {name:"Node_176:0",dtype:float32,shape:[16, 16, 3, 3, 8, 8]}
    out_0 {name:"x:0",dtype:float32,shape:[16, 16, 3, 3, 8, 8]}
  }
}
layer {
  name:"Node_176"
  type:"const"
  top:"Node_176"
  layer_param {
    idx:176
    out_0 {name:"Node_176:0",dtype:float32,shape:[16, 16, 3, 3, 8, 8]}
  }
}
layer {
  name:"x_29"
  type:"var"
  top:"x_29"
  bottom:"Node_178"
  layer_param {
    idx:177
    in_0 {name:"Node_178:0",dtype:float32,shape:[1, 16, 1, 1, 8]}
    out_0 {name:"x:0",dtype:float32,shape:[1, 16, 1, 1, 8]}
  }
}
layer {
  name:"Node_178"
  type:"const"
  top:"Node_178"
  layer_param {
    idx:178
    out_0 {name:"Node_178:0",dtype:float32,shape:[1, 16, 1, 1, 8]}
  }
}
layer {
  name:"x_30"
  type:"var"
  top:"x_30"
  bottom:"Node_180"
  layer_param {
    idx:179
    in_0 {name:"Node_180:0",dtype:float32,shape:[16, 8, 1, 1, 8, 8]}
    out_0 {name:"x:0",dtype:float32,shape:[16, 8, 1, 1, 8, 8]}
  }
}
layer {
  name:"Node_180"
  type:"const"
  top:"Node_180"
  layer_param {
    idx:180
    out_0 {name:"Node_180:0",dtype:float32,shape:[16, 8, 1, 1, 8, 8]}
  }
}
layer {
  name:"x_31"
  type:"var"
  top:"x_31"
  bottom:"Node_182"
  layer_param {
    idx:181
    in_0 {name:"Node_182:0",dtype:float32,shape:[1, 16, 1, 1, 8]}
    out_0 {name:"x:0",dtype:float32,shape:[1, 16, 1, 1, 8]}
  }
}
layer {
  name:"Node_182"
  type:"const"
  top:"Node_182"
  layer_param {
    idx:182
    out_0 {name:"Node_182:0",dtype:float32,shape:[1, 16, 1, 1, 8]}
  }
}
layer {
  name:"x_32"
  type:"var"
  top:"x_32"
  bottom:"Node_194"
  layer_param {
    idx:183
    in_0 {name:"Node_194:0",dtype:float32,shape:[1, 16, 28, 28, 8]}
    out_0 {name:"x:0",dtype:float32,shape:[1, 16, 28, 28, 8]}
  }
}
layer {
  name:"p0_8"
  type:"input"
  top:"p0_8"
  layer_param {
    idx:184
    out_0 {name:"p0:0",dtype:float32,shape:[1, 8, 56, 56, 8]}
  }
}
layer {
  name:"p1_6"
  type:"input"
  top:"p1_6"
  layer_param {
    idx:185
    out_0 {name:"p1:0",dtype:float32,shape:[16, 8, 1, 1, 8, 8]}
  }
}
layer {
  name:"p2_6"
  type:"input"
  top:"p2_6"
  layer_param {
    idx:186
    out_0 {name:"p2:0",dtype:float32,shape:[1, 16, 1, 1, 8]}
  }
}
layer {
  name:"Node_191"
  type:"nn_contrib_conv2d_NCHWc"
  top:"Node_191"
  bottom:"p0_8"
  bottom:"p1_6"
  layer_param {
    idx:191
    in_0 {name:"p0:0",dtype:float32,shape:[1, 8, 56, 56, 8]}
    in_1 {name:"p1:0",dtype:float32,shape:[16, 8, 1, 1, 8, 8]}
    out_0 {name:"Node_191:0",dtype:float32,shape:[1, 16, 28, 28, 8]}
    attrs {'strides': [2, 2], 'padding': [0, 0, 0, 0], 'dilation': [1, 1], 'groups': 1, 'channels': 128, 'kernel_size': [1, 1], 'data_layout': 'NCHW8c', 'kernel_layout': 'OIHW8i8o', 'out_layout': 'NCHW8c', 'out_dtype': ''}
  }
}
layer {
  name:"Node_193"
  type:"add"
  top:"Node_193"
  bottom:"Node_191"
  bottom:"p2_6"
  layer_param {
    idx:193
    in_0 {name:"Node_191:0",dtype:float32,shape:[1, 16, 28, 28, 8]}
    in_1 {name:"p2:0",dtype:float32,shape:[1, 16, 1, 1, 8]}
    out_0 {name:"Node_193:0",dtype:float32,shape:[1, 16, 28, 28, 8]}
  }
}
layer {
  name:"Node_194"
  type:"function"
  top:"Node_194"
  bottom:"p0_8"
  bottom:"p1_6"
  bottom:"p2_6"
  bottom:"Node_193"
  layer_param {
    idx:194
    in_0 {name:"p0:0",dtype:float32,shape:[1, 8, 56, 56, 8]}
    in_1 {name:"p1:0",dtype:float32,shape:[16, 8, 1, 1, 8, 8]}
    in_2 {name:"p2:0",dtype:float32,shape:[1, 16, 1, 1, 8]}
    in_3 {name:"Node_193:0",dtype:float32,shape:[1, 16, 28, 28, 8]}
    out_0 {name:"Node_194:0",dtype:float32,shape:[1, 16, 28, 28, 8]}
  }
}
layer {
  name:"x_33"
  type:"var"
  top:"x_33"
  bottom:"Node_200"
  layer_param {
    idx:195
    in_0 {name:"Node_200:0",dtype:float32,shape:[1, 16, 28, 28, 8]}
    out_0 {name:"x:0",dtype:float32,shape:[1, 16, 28, 28, 8]}
  }
}
layer {
  name:"Node_200"
  type:"var_call"
  top:"Node_200"
  bottom:"x_32"
  bottom:"x_23"
  bottom:"x_30"
  bottom:"x_31"
  layer_param {
    idx:200
    in_0 {name:"x:0",dtype:float32,shape:[1, 16, 28, 28, 8]}
    in_1 {name:"x:0",dtype:float32,shape:[1, 8, 56, 56, 8]}
    in_2 {name:"x:0",dtype:float32,shape:[16, 8, 1, 1, 8, 8]}
    in_3 {name:"x:0",dtype:float32,shape:[1, 16, 1, 1, 8]}
    out_0 {name:"Node_200:0",dtype:float32,shape:[1, 16, 28, 28, 8]}
  }
}
layer {
  name:"x_34"
  type:"var"
  top:"x_34"
  bottom:"Node_218"
  layer_param {
    idx:201
    in_0 {name:"Node_218:0",dtype:float32,shape:[1, 16, 28, 28, 8]}
    out_0 {name:"x:0",dtype:float32,shape:[1, 16, 28, 28, 8]}
  }
}
layer {
  name:"p0_9"
  type:"input"
  top:"p0_9"
  layer_param {
    idx:202
    out_0 {name:"p0:0",dtype:float32,shape:[1, 16, 28, 28, 8]}
  }
}
layer {
  name:"p1_7"
  type:"input"
  top:"p1_7"
  layer_param {
    idx:203
    out_0 {name:"p1:0",dtype:float32,shape:[16, 16, 3, 3, 8, 8]}
  }
}
layer {
  name:"p2_7"
  type:"input"
  top:"p2_7"
  layer_param {
    idx:204
    out_0 {name:"p2:0",dtype:float32,shape:[1, 16, 1, 1, 8]}
  }
}
layer {
  name:"p3_2"
  type:"input"
  top:"p3_2"
  layer_param {
    idx:205
    out_0 {name:"p3:0",dtype:float32,shape:[1, 16, 28, 28, 8]}
  }
}
layer {
  name:"Node_212"
  type:"nn_contrib_conv2d_NCHWc"
  top:"Node_212"
  bottom:"p0_9"
  bottom:"p1_7"
  layer_param {
    idx:212
    in_0 {name:"p0:0",dtype:float32,shape:[1, 16, 28, 28, 8]}
    in_1 {name:"p1:0",dtype:float32,shape:[16, 16, 3, 3, 8, 8]}
    out_0 {name:"Node_212:0",dtype:float32,shape:[1, 16, 28, 28, 8]}
    attrs {'strides': [1, 1], 'padding': [1, 1, 1, 1], 'dilation': [1, 1], 'groups': 1, 'channels': 128, 'kernel_size': [3, 3], 'data_layout': 'NCHW8c', 'kernel_layout': 'OIHW8i8o', 'out_layout': 'NCHW8c', 'out_dtype': ''}
  }
}
layer {
  name:"Node_214"
  type:"add"
  top:"Node_214"
  bottom:"Node_212"
  bottom:"p2_7"
  layer_param {
    idx:214
    in_0 {name:"Node_212:0",dtype:float32,shape:[1, 16, 28, 28, 8]}
    in_1 {name:"p2:0",dtype:float32,shape:[1, 16, 1, 1, 8]}
    out_0 {name:"Node_214:0",dtype:float32,shape:[1, 16, 28, 28, 8]}
  }
}
layer {
  name:"Node_216"
  type:"add"
  top:"Node_216"
  bottom:"Node_214"
  bottom:"p3_2"
  layer_param {
    idx:216
    in_0 {name:"Node_214:0",dtype:float32,shape:[1, 16, 28, 28, 8]}
    in_1 {name:"p3:0",dtype:float32,shape:[1, 16, 28, 28, 8]}
    out_0 {name:"Node_216:0",dtype:float32,shape:[1, 16, 28, 28, 8]}
  }
}
layer {
  name:"Node_217"
  type:"nn_relu"
  top:"Node_217"
  bottom:"Node_216"
  layer_param {
    idx:217
    in_0 {name:"Node_216:0",dtype:float32,shape:[1, 16, 28, 28, 8]}
    out_0 {name:"Node_217:0",dtype:float32,shape:[1, 16, 28, 28, 8]}
  }
}
layer {
  name:"Node_218"
  type:"function"
  top:"Node_218"
  bottom:"p0_9"
  bottom:"p1_7"
  bottom:"p2_7"
  bottom:"p3_2"
  bottom:"Node_217"
  layer_param {
    idx:218
    in_0 {name:"p0:0",dtype:float32,shape:[1, 16, 28, 28, 8]}
    in_1 {name:"p1:0",dtype:float32,shape:[16, 16, 3, 3, 8, 8]}
    in_2 {name:"p2:0",dtype:float32,shape:[1, 16, 1, 1, 8]}
    in_3 {name:"p3:0",dtype:float32,shape:[1, 16, 28, 28, 8]}
    in_4 {name:"Node_217:0",dtype:float32,shape:[1, 16, 28, 28, 8]}
    out_0 {name:"Node_218:0",dtype:float32,shape:[1, 16, 28, 28, 8]}
  }
}
layer {
  name:"x_35"
  type:"var"
  top:"x_35"
  bottom:"Node_225"
  layer_param {
    idx:219
    in_0 {name:"Node_225:0",dtype:float32,shape:[1, 16, 28, 28, 8]}
    out_0 {name:"x:0",dtype:float32,shape:[1, 16, 28, 28, 8]}
  }
}
layer {
  name:"Node_225"
  type:"var_call"
  top:"Node_225"
  bottom:"x_34"
  bottom:"x_27"
  bottom:"x_28"
  bottom:"x_29"
  bottom:"x_33"
  layer_param {
    idx:225
    in_0 {name:"x:0",dtype:float32,shape:[1, 16, 28, 28, 8]}
    in_1 {name:"x:0",dtype:float32,shape:[1, 16, 28, 28, 8]}
    in_2 {name:"x:0",dtype:float32,shape:[16, 16, 3, 3, 8, 8]}
    in_3 {name:"x:0",dtype:float32,shape:[1, 16, 1, 1, 8]}
    in_4 {name:"x:0",dtype:float32,shape:[1, 16, 28, 28, 8]}
    out_0 {name:"Node_225:0",dtype:float32,shape:[1, 16, 28, 28, 8]}
  }
}
layer {
  name:"x_36"
  type:"var"
  top:"x_36"
  bottom:"Node_227"
  layer_param {
    idx:226
    in_0 {name:"Node_227:0",dtype:float32,shape:[16, 16, 3, 3, 8, 8]}
    out_0 {name:"x:0",dtype:float32,shape:[16, 16, 3, 3, 8, 8]}
  }
}
layer {
  name:"Node_227"
  type:"const"
  top:"Node_227"
  layer_param {
    idx:227
    out_0 {name:"Node_227:0",dtype:float32,shape:[16, 16, 3, 3, 8, 8]}
  }
}
layer {
  name:"x_37"
  type:"var"
  top:"x_37"
  bottom:"Node_229"
  layer_param {
    idx:228
    in_0 {name:"Node_229:0",dtype:float32,shape:[1, 16, 1, 1, 8]}
    out_0 {name:"x:0",dtype:float32,shape:[1, 16, 1, 1, 8]}
  }
}
layer {
  name:"Node_229"
  type:"const"
  top:"Node_229"
  layer_param {
    idx:229
    out_0 {name:"Node_229:0",dtype:float32,shape:[1, 16, 1, 1, 8]}
  }
}
layer {
  name:"x_38"
  type:"var"
  top:"x_38"
  bottom:"Node_243"
  layer_param {
    idx:230
    in_0 {name:"Node_243:0",dtype:float32,shape:[1, 16, 28, 28, 8]}
    out_0 {name:"x:0",dtype:float32,shape:[1, 16, 28, 28, 8]}
  }
}
layer {
  name:"p0_10"
  type:"input"
  top:"p0_10"
  layer_param {
    idx:231
    out_0 {name:"p0:0",dtype:float32,shape:[1, 16, 28, 28, 8]}
  }
}
layer {
  name:"p1_8"
  type:"input"
  top:"p1_8"
  layer_param {
    idx:232
    out_0 {name:"p1:0",dtype:float32,shape:[16, 16, 3, 3, 8, 8]}
  }
}
layer {
  name:"p2_8"
  type:"input"
  top:"p2_8"
  layer_param {
    idx:233
    out_0 {name:"p2:0",dtype:float32,shape:[1, 16, 1, 1, 8]}
  }
}
layer {
  name:"Node_239"
  type:"nn_contrib_conv2d_NCHWc"
  top:"Node_239"
  bottom:"p0_10"
  bottom:"p1_8"
  layer_param {
    idx:239
    in_0 {name:"p0:0",dtype:float32,shape:[1, 16, 28, 28, 8]}
    in_1 {name:"p1:0",dtype:float32,shape:[16, 16, 3, 3, 8, 8]}
    out_0 {name:"Node_239:0",dtype:float32,shape:[1, 16, 28, 28, 8]}
    attrs {'strides': [1, 1], 'padding': [1, 1, 1, 1], 'dilation': [1, 1], 'groups': 1, 'channels': 128, 'kernel_size': [3, 3], 'data_layout': 'NCHW8c', 'kernel_layout': 'OIHW8i8o', 'out_layout': 'NCHW8c', 'out_dtype': ''}
  }
}
layer {
  name:"Node_241"
  type:"add"
  top:"Node_241"
  bottom:"Node_239"
  bottom:"p2_8"
  layer_param {
    idx:241
    in_0 {name:"Node_239:0",dtype:float32,shape:[1, 16, 28, 28, 8]}
    in_1 {name:"p2:0",dtype:float32,shape:[1, 16, 1, 1, 8]}
    out_0 {name:"Node_241:0",dtype:float32,shape:[1, 16, 28, 28, 8]}
  }
}
layer {
  name:"Node_242"
  type:"nn_relu"
  top:"Node_242"
  bottom:"Node_241"
  layer_param {
    idx:242
    in_0 {name:"Node_241:0",dtype:float32,shape:[1, 16, 28, 28, 8]}
    out_0 {name:"Node_242:0",dtype:float32,shape:[1, 16, 28, 28, 8]}
  }
}
layer {
  name:"Node_243"
  type:"function"
  top:"Node_243"
  bottom:"p0_10"
  bottom:"p1_8"
  bottom:"p2_8"
  bottom:"Node_242"
  layer_param {
    idx:243
    in_0 {name:"p0:0",dtype:float32,shape:[1, 16, 28, 28, 8]}
    in_1 {name:"p1:0",dtype:float32,shape:[16, 16, 3, 3, 8, 8]}
    in_2 {name:"p2:0",dtype:float32,shape:[1, 16, 1, 1, 8]}
    in_3 {name:"Node_242:0",dtype:float32,shape:[1, 16, 28, 28, 8]}
    out_0 {name:"Node_243:0",dtype:float32,shape:[1, 16, 28, 28, 8]}
  }
}
layer {
  name:"x_39"
  type:"var"
  top:"x_39"
  bottom:"Node_249"
  layer_param {
    idx:244
    in_0 {name:"Node_249:0",dtype:float32,shape:[1, 16, 28, 28, 8]}
    out_0 {name:"x:0",dtype:float32,shape:[1, 16, 28, 28, 8]}
  }
}
layer {
  name:"Node_249"
  type:"var_call"
  top:"Node_249"
  bottom:"x_38"
  bottom:"x_35"
  bottom:"x_36"
  bottom:"x_37"
  layer_param {
    idx:249
    in_0 {name:"x:0",dtype:float32,shape:[1, 16, 28, 28, 8]}
    in_1 {name:"x:0",dtype:float32,shape:[1, 16, 28, 28, 8]}
    in_2 {name:"x:0",dtype:float32,shape:[16, 16, 3, 3, 8, 8]}
    in_3 {name:"x:0",dtype:float32,shape:[1, 16, 1, 1, 8]}
    out_0 {name:"Node_249:0",dtype:float32,shape:[1, 16, 28, 28, 8]}
  }
}
layer {
  name:"x_40"
  type:"var"
  top:"x_40"
  bottom:"Node_251"
  layer_param {
    idx:250
    in_0 {name:"Node_251:0",dtype:float32,shape:[16, 16, 3, 3, 8, 8]}
    out_0 {name:"x:0",dtype:float32,shape:[16, 16, 3, 3, 8, 8]}
  }
}
layer {
  name:"Node_251"
  type:"const"
  top:"Node_251"
  layer_param {
    idx:251
    out_0 {name:"Node_251:0",dtype:float32,shape:[16, 16, 3, 3, 8, 8]}
  }
}
layer {
  name:"x_41"
  type:"var"
  top:"x_41"
  bottom:"Node_253"
  layer_param {
    idx:252
    in_0 {name:"Node_253:0",dtype:float32,shape:[1, 16, 1, 1, 8]}
    out_0 {name:"x:0",dtype:float32,shape:[1, 16, 1, 1, 8]}
  }
}
layer {
  name:"Node_253"
  type:"const"
  top:"Node_253"
  layer_param {
    idx:253
    out_0 {name:"Node_253:0",dtype:float32,shape:[1, 16, 1, 1, 8]}
  }
}
layer {
  name:"x_42"
  type:"var"
  top:"x_42"
  bottom:"Node_271"
  layer_param {
    idx:254
    in_0 {name:"Node_271:0",dtype:float32,shape:[1, 16, 28, 28, 8]}
    out_0 {name:"x:0",dtype:float32,shape:[1, 16, 28, 28, 8]}
  }
}
layer {
  name:"p0_11"
  type:"input"
  top:"p0_11"
  layer_param {
    idx:255
    out_0 {name:"p0:0",dtype:float32,shape:[1, 16, 28, 28, 8]}
  }
}
layer {
  name:"p1_9"
  type:"input"
  top:"p1_9"
  layer_param {
    idx:256
    out_0 {name:"p1:0",dtype:float32,shape:[16, 16, 3, 3, 8, 8]}
  }
}
layer {
  name:"p2_9"
  type:"input"
  top:"p2_9"
  layer_param {
    idx:257
    out_0 {name:"p2:0",dtype:float32,shape:[1, 16, 1, 1, 8]}
  }
}
layer {
  name:"p3_3"
  type:"input"
  top:"p3_3"
  layer_param {
    idx:258
    out_0 {name:"p3:0",dtype:float32,shape:[1, 16, 28, 28, 8]}
  }
}
layer {
  name:"Node_265"
  type:"nn_contrib_conv2d_NCHWc"
  top:"Node_265"
  bottom:"p0_11"
  bottom:"p1_9"
  layer_param {
    idx:265
    in_0 {name:"p0:0",dtype:float32,shape:[1, 16, 28, 28, 8]}
    in_1 {name:"p1:0",dtype:float32,shape:[16, 16, 3, 3, 8, 8]}
    out_0 {name:"Node_265:0",dtype:float32,shape:[1, 16, 28, 28, 8]}
    attrs {'strides': [1, 1], 'padding': [1, 1, 1, 1], 'dilation': [1, 1], 'groups': 1, 'channels': 128, 'kernel_size': [3, 3], 'data_layout': 'NCHW8c', 'kernel_layout': 'OIHW8i8o', 'out_layout': 'NCHW8c', 'out_dtype': ''}
  }
}
layer {
  name:"Node_267"
  type:"add"
  top:"Node_267"
  bottom:"Node_265"
  bottom:"p2_9"
  layer_param {
    idx:267
    in_0 {name:"Node_265:0",dtype:float32,shape:[1, 16, 28, 28, 8]}
    in_1 {name:"p2:0",dtype:float32,shape:[1, 16, 1, 1, 8]}
    out_0 {name:"Node_267:0",dtype:float32,shape:[1, 16, 28, 28, 8]}
  }
}
layer {
  name:"Node_269"
  type:"add"
  top:"Node_269"
  bottom:"Node_267"
  bottom:"p3_3"
  layer_param {
    idx:269
    in_0 {name:"Node_267:0",dtype:float32,shape:[1, 16, 28, 28, 8]}
    in_1 {name:"p3:0",dtype:float32,shape:[1, 16, 28, 28, 8]}
    out_0 {name:"Node_269:0",dtype:float32,shape:[1, 16, 28, 28, 8]}
  }
}
layer {
  name:"Node_270"
  type:"nn_relu"
  top:"Node_270"
  bottom:"Node_269"
  layer_param {
    idx:270
    in_0 {name:"Node_269:0",dtype:float32,shape:[1, 16, 28, 28, 8]}
    out_0 {name:"Node_270:0",dtype:float32,shape:[1, 16, 28, 28, 8]}
  }
}
layer {
  name:"Node_271"
  type:"function"
  top:"Node_271"
  bottom:"p0_11"
  bottom:"p1_9"
  bottom:"p2_9"
  bottom:"p3_3"
  bottom:"Node_270"
  layer_param {
    idx:271
    in_0 {name:"p0:0",dtype:float32,shape:[1, 16, 28, 28, 8]}
    in_1 {name:"p1:0",dtype:float32,shape:[16, 16, 3, 3, 8, 8]}
    in_2 {name:"p2:0",dtype:float32,shape:[1, 16, 1, 1, 8]}
    in_3 {name:"p3:0",dtype:float32,shape:[1, 16, 28, 28, 8]}
    in_4 {name:"Node_270:0",dtype:float32,shape:[1, 16, 28, 28, 8]}
    out_0 {name:"Node_271:0",dtype:float32,shape:[1, 16, 28, 28, 8]}
  }
}
layer {
  name:"x_43"
  type:"var"
  top:"x_43"
  bottom:"Node_278"
  layer_param {
    idx:272
    in_0 {name:"Node_278:0",dtype:float32,shape:[1, 16, 28, 28, 8]}
    out_0 {name:"x:0",dtype:float32,shape:[1, 16, 28, 28, 8]}
  }
}
layer {
  name:"Node_278"
  type:"var_call"
  top:"Node_278"
  bottom:"x_42"
  bottom:"x_39"
  bottom:"x_40"
  bottom:"x_41"
  bottom:"x_35"
  layer_param {
    idx:278
    in_0 {name:"x:0",dtype:float32,shape:[1, 16, 28, 28, 8]}
    in_1 {name:"x:0",dtype:float32,shape:[1, 16, 28, 28, 8]}
    in_2 {name:"x:0",dtype:float32,shape:[16, 16, 3, 3, 8, 8]}
    in_3 {name:"x:0",dtype:float32,shape:[1, 16, 1, 1, 8]}
    in_4 {name:"x:0",dtype:float32,shape:[1, 16, 28, 28, 8]}
    out_0 {name:"Node_278:0",dtype:float32,shape:[1, 16, 28, 28, 8]}
  }
}
layer {
  name:"x_44"
  type:"var"
  top:"x_44"
  bottom:"Node_280"
  layer_param {
    idx:279
    in_0 {name:"Node_280:0",dtype:float32,shape:[32, 16, 3, 3, 8, 8]}
    out_0 {name:"x:0",dtype:float32,shape:[32, 16, 3, 3, 8, 8]}
  }
}
layer {
  name:"Node_280"
  type:"const"
  top:"Node_280"
  layer_param {
    idx:280
    out_0 {name:"Node_280:0",dtype:float32,shape:[32, 16, 3, 3, 8, 8]}
  }
}
layer {
  name:"x_45"
  type:"var"
  top:"x_45"
  bottom:"Node_282"
  layer_param {
    idx:281
    in_0 {name:"Node_282:0",dtype:float32,shape:[1, 32, 1, 1, 8]}
    out_0 {name:"x:0",dtype:float32,shape:[1, 32, 1, 1, 8]}
  }
}
layer {
  name:"Node_282"
  type:"const"
  top:"Node_282"
  layer_param {
    idx:282
    out_0 {name:"Node_282:0",dtype:float32,shape:[1, 32, 1, 1, 8]}
  }
}
layer {
  name:"x_46"
  type:"var"
  top:"x_46"
  bottom:"Node_296"
  layer_param {
    idx:283
    in_0 {name:"Node_296:0",dtype:float32,shape:[1, 32, 14, 14, 8]}
    out_0 {name:"x:0",dtype:float32,shape:[1, 32, 14, 14, 8]}
  }
}
layer {
  name:"p0_12"
  type:"input"
  top:"p0_12"
  layer_param {
    idx:284
    out_0 {name:"p0:0",dtype:float32,shape:[1, 16, 28, 28, 8]}
  }
}
layer {
  name:"p1_10"
  type:"input"
  top:"p1_10"
  layer_param {
    idx:285
    out_0 {name:"p1:0",dtype:float32,shape:[32, 16, 3, 3, 8, 8]}
  }
}
layer {
  name:"p2_10"
  type:"input"
  top:"p2_10"
  layer_param {
    idx:286
    out_0 {name:"p2:0",dtype:float32,shape:[1, 32, 1, 1, 8]}
  }
}
layer {
  name:"Node_292"
  type:"nn_contrib_conv2d_NCHWc"
  top:"Node_292"
  bottom:"p0_12"
  bottom:"p1_10"
  layer_param {
    idx:292
    in_0 {name:"p0:0",dtype:float32,shape:[1, 16, 28, 28, 8]}
    in_1 {name:"p1:0",dtype:float32,shape:[32, 16, 3, 3, 8, 8]}
    out_0 {name:"Node_292:0",dtype:float32,shape:[1, 32, 14, 14, 8]}
    attrs {'strides': [2, 2], 'padding': [1, 1, 1, 1], 'dilation': [1, 1], 'groups': 1, 'channels': 256, 'kernel_size': [3, 3], 'data_layout': 'NCHW8c', 'kernel_layout': 'OIHW8i8o', 'out_layout': 'NCHW8c', 'out_dtype': ''}
  }
}
layer {
  name:"Node_294"
  type:"add"
  top:"Node_294"
  bottom:"Node_292"
  bottom:"p2_10"
  layer_param {
    idx:294
    in_0 {name:"Node_292:0",dtype:float32,shape:[1, 32, 14, 14, 8]}
    in_1 {name:"p2:0",dtype:float32,shape:[1, 32, 1, 1, 8]}
    out_0 {name:"Node_294:0",dtype:float32,shape:[1, 32, 14, 14, 8]}
  }
}
layer {
  name:"Node_295"
  type:"nn_relu"
  top:"Node_295"
  bottom:"Node_294"
  layer_param {
    idx:295
    in_0 {name:"Node_294:0",dtype:float32,shape:[1, 32, 14, 14, 8]}
    out_0 {name:"Node_295:0",dtype:float32,shape:[1, 32, 14, 14, 8]}
  }
}
layer {
  name:"Node_296"
  type:"function"
  top:"Node_296"
  bottom:"p0_12"
  bottom:"p1_10"
  bottom:"p2_10"
  bottom:"Node_295"
  layer_param {
    idx:296
    in_0 {name:"p0:0",dtype:float32,shape:[1, 16, 28, 28, 8]}
    in_1 {name:"p1:0",dtype:float32,shape:[32, 16, 3, 3, 8, 8]}
    in_2 {name:"p2:0",dtype:float32,shape:[1, 32, 1, 1, 8]}
    in_3 {name:"Node_295:0",dtype:float32,shape:[1, 32, 14, 14, 8]}
    out_0 {name:"Node_296:0",dtype:float32,shape:[1, 32, 14, 14, 8]}
  }
}
layer {
  name:"x_47"
  type:"var"
  top:"x_47"
  bottom:"Node_302"
  layer_param {
    idx:297
    in_0 {name:"Node_302:0",dtype:float32,shape:[1, 32, 14, 14, 8]}
    out_0 {name:"x:0",dtype:float32,shape:[1, 32, 14, 14, 8]}
  }
}
layer {
  name:"Node_302"
  type:"var_call"
  top:"Node_302"
  bottom:"x_46"
  bottom:"x_43"
  bottom:"x_44"
  bottom:"x_45"
  layer_param {
    idx:302
    in_0 {name:"x:0",dtype:float32,shape:[1, 32, 14, 14, 8]}
    in_1 {name:"x:0",dtype:float32,shape:[1, 16, 28, 28, 8]}
    in_2 {name:"x:0",dtype:float32,shape:[32, 16, 3, 3, 8, 8]}
    in_3 {name:"x:0",dtype:float32,shape:[1, 32, 1, 1, 8]}
    out_0 {name:"Node_302:0",dtype:float32,shape:[1, 32, 14, 14, 8]}
  }
}
layer {
  name:"x_48"
  type:"var"
  top:"x_48"
  bottom:"Node_304"
  layer_param {
    idx:303
    in_0 {name:"Node_304:0",dtype:float32,shape:[32, 32, 3, 3, 8, 8]}
    out_0 {name:"x:0",dtype:float32,shape:[32, 32, 3, 3, 8, 8]}
  }
}
layer {
  name:"Node_304"
  type:"const"
  top:"Node_304"
  layer_param {
    idx:304
    out_0 {name:"Node_304:0",dtype:float32,shape:[32, 32, 3, 3, 8, 8]}
  }
}
layer {
  name:"x_49"
  type:"var"
  top:"x_49"
  bottom:"Node_306"
  layer_param {
    idx:305
    in_0 {name:"Node_306:0",dtype:float32,shape:[1, 32, 1, 1, 8]}
    out_0 {name:"x:0",dtype:float32,shape:[1, 32, 1, 1, 8]}
  }
}
layer {
  name:"Node_306"
  type:"const"
  top:"Node_306"
  layer_param {
    idx:306
    out_0 {name:"Node_306:0",dtype:float32,shape:[1, 32, 1, 1, 8]}
  }
}
layer {
  name:"x_50"
  type:"var"
  top:"x_50"
  bottom:"Node_308"
  layer_param {
    idx:307
    in_0 {name:"Node_308:0",dtype:float32,shape:[32, 16, 1, 1, 8, 8]}
    out_0 {name:"x:0",dtype:float32,shape:[32, 16, 1, 1, 8, 8]}
  }
}
layer {
  name:"Node_308"
  type:"const"
  top:"Node_308"
  layer_param {
    idx:308
    out_0 {name:"Node_308:0",dtype:float32,shape:[32, 16, 1, 1, 8, 8]}
  }
}
layer {
  name:"x_51"
  type:"var"
  top:"x_51"
  bottom:"Node_310"
  layer_param {
    idx:309
    in_0 {name:"Node_310:0",dtype:float32,shape:[1, 32, 1, 1, 8]}
    out_0 {name:"x:0",dtype:float32,shape:[1, 32, 1, 1, 8]}
  }
}
layer {
  name:"Node_310"
  type:"const"
  top:"Node_310"
  layer_param {
    idx:310
    out_0 {name:"Node_310:0",dtype:float32,shape:[1, 32, 1, 1, 8]}
  }
}
layer {
  name:"x_52"
  type:"var"
  top:"x_52"
  bottom:"Node_322"
  layer_param {
    idx:311
    in_0 {name:"Node_322:0",dtype:float32,shape:[1, 32, 14, 14, 8]}
    out_0 {name:"x:0",dtype:float32,shape:[1, 32, 14, 14, 8]}
  }
}
layer {
  name:"p0_13"
  type:"input"
  top:"p0_13"
  layer_param {
    idx:312
    out_0 {name:"p0:0",dtype:float32,shape:[1, 16, 28, 28, 8]}
  }
}
layer {
  name:"p1_11"
  type:"input"
  top:"p1_11"
  layer_param {
    idx:313
    out_0 {name:"p1:0",dtype:float32,shape:[32, 16, 1, 1, 8, 8]}
  }
}
layer {
  name:"p2_11"
  type:"input"
  top:"p2_11"
  layer_param {
    idx:314
    out_0 {name:"p2:0",dtype:float32,shape:[1, 32, 1, 1, 8]}
  }
}
layer {
  name:"Node_319"
  type:"nn_contrib_conv2d_NCHWc"
  top:"Node_319"
  bottom:"p0_13"
  bottom:"p1_11"
  layer_param {
    idx:319
    in_0 {name:"p0:0",dtype:float32,shape:[1, 16, 28, 28, 8]}
    in_1 {name:"p1:0",dtype:float32,shape:[32, 16, 1, 1, 8, 8]}
    out_0 {name:"Node_319:0",dtype:float32,shape:[1, 32, 14, 14, 8]}
    attrs {'strides': [2, 2], 'padding': [0, 0, 0, 0], 'dilation': [1, 1], 'groups': 1, 'channels': 256, 'kernel_size': [1, 1], 'data_layout': 'NCHW8c', 'kernel_layout': 'OIHW8i8o', 'out_layout': 'NCHW8c', 'out_dtype': ''}
  }
}
layer {
  name:"Node_321"
  type:"add"
  top:"Node_321"
  bottom:"Node_319"
  bottom:"p2_11"
  layer_param {
    idx:321
    in_0 {name:"Node_319:0",dtype:float32,shape:[1, 32, 14, 14, 8]}
    in_1 {name:"p2:0",dtype:float32,shape:[1, 32, 1, 1, 8]}
    out_0 {name:"Node_321:0",dtype:float32,shape:[1, 32, 14, 14, 8]}
  }
}
layer {
  name:"Node_322"
  type:"function"
  top:"Node_322"
  bottom:"p0_13"
  bottom:"p1_11"
  bottom:"p2_11"
  bottom:"Node_321"
  layer_param {
    idx:322
    in_0 {name:"p0:0",dtype:float32,shape:[1, 16, 28, 28, 8]}
    in_1 {name:"p1:0",dtype:float32,shape:[32, 16, 1, 1, 8, 8]}
    in_2 {name:"p2:0",dtype:float32,shape:[1, 32, 1, 1, 8]}
    in_3 {name:"Node_321:0",dtype:float32,shape:[1, 32, 14, 14, 8]}
    out_0 {name:"Node_322:0",dtype:float32,shape:[1, 32, 14, 14, 8]}
  }
}
layer {
  name:"x_53"
  type:"var"
  top:"x_53"
  bottom:"Node_328"
  layer_param {
    idx:323
    in_0 {name:"Node_328:0",dtype:float32,shape:[1, 32, 14, 14, 8]}
    out_0 {name:"x:0",dtype:float32,shape:[1, 32, 14, 14, 8]}
  }
}
layer {
  name:"Node_328"
  type:"var_call"
  top:"Node_328"
  bottom:"x_52"
  bottom:"x_43"
  bottom:"x_50"
  bottom:"x_51"
  layer_param {
    idx:328
    in_0 {name:"x:0",dtype:float32,shape:[1, 32, 14, 14, 8]}
    in_1 {name:"x:0",dtype:float32,shape:[1, 16, 28, 28, 8]}
    in_2 {name:"x:0",dtype:float32,shape:[32, 16, 1, 1, 8, 8]}
    in_3 {name:"x:0",dtype:float32,shape:[1, 32, 1, 1, 8]}
    out_0 {name:"Node_328:0",dtype:float32,shape:[1, 32, 14, 14, 8]}
  }
}
layer {
  name:"x_54"
  type:"var"
  top:"x_54"
  bottom:"Node_346"
  layer_param {
    idx:329
    in_0 {name:"Node_346:0",dtype:float32,shape:[1, 32, 14, 14, 8]}
    out_0 {name:"x:0",dtype:float32,shape:[1, 32, 14, 14, 8]}
  }
}
layer {
  name:"p0_14"
  type:"input"
  top:"p0_14"
  layer_param {
    idx:330
    out_0 {name:"p0:0",dtype:float32,shape:[1, 32, 14, 14, 8]}
  }
}
layer {
  name:"p1_12"
  type:"input"
  top:"p1_12"
  layer_param {
    idx:331
    out_0 {name:"p1:0",dtype:float32,shape:[32, 32, 3, 3, 8, 8]}
  }
}
layer {
  name:"p2_12"
  type:"input"
  top:"p2_12"
  layer_param {
    idx:332
    out_0 {name:"p2:0",dtype:float32,shape:[1, 32, 1, 1, 8]}
  }
}
layer {
  name:"p3_4"
  type:"input"
  top:"p3_4"
  layer_param {
    idx:333
    out_0 {name:"p3:0",dtype:float32,shape:[1, 32, 14, 14, 8]}
  }
}
layer {
  name:"Node_340"
  type:"nn_contrib_conv2d_NCHWc"
  top:"Node_340"
  bottom:"p0_14"
  bottom:"p1_12"
  layer_param {
    idx:340
    in_0 {name:"p0:0",dtype:float32,shape:[1, 32, 14, 14, 8]}
    in_1 {name:"p1:0",dtype:float32,shape:[32, 32, 3, 3, 8, 8]}
    out_0 {name:"Node_340:0",dtype:float32,shape:[1, 32, 14, 14, 8]}
    attrs {'strides': [1, 1], 'padding': [1, 1, 1, 1], 'dilation': [1, 1], 'groups': 1, 'channels': 256, 'kernel_size': [3, 3], 'data_layout': 'NCHW8c', 'kernel_layout': 'OIHW8i8o', 'out_layout': 'NCHW8c', 'out_dtype': ''}
  }
}
layer {
  name:"Node_342"
  type:"add"
  top:"Node_342"
  bottom:"Node_340"
  bottom:"p2_12"
  layer_param {
    idx:342
    in_0 {name:"Node_340:0",dtype:float32,shape:[1, 32, 14, 14, 8]}
    in_1 {name:"p2:0",dtype:float32,shape:[1, 32, 1, 1, 8]}
    out_0 {name:"Node_342:0",dtype:float32,shape:[1, 32, 14, 14, 8]}
  }
}
layer {
  name:"Node_344"
  type:"add"
  top:"Node_344"
  bottom:"Node_342"
  bottom:"p3_4"
  layer_param {
    idx:344
    in_0 {name:"Node_342:0",dtype:float32,shape:[1, 32, 14, 14, 8]}
    in_1 {name:"p3:0",dtype:float32,shape:[1, 32, 14, 14, 8]}
    out_0 {name:"Node_344:0",dtype:float32,shape:[1, 32, 14, 14, 8]}
  }
}
layer {
  name:"Node_345"
  type:"nn_relu"
  top:"Node_345"
  bottom:"Node_344"
  layer_param {
    idx:345
    in_0 {name:"Node_344:0",dtype:float32,shape:[1, 32, 14, 14, 8]}
    out_0 {name:"Node_345:0",dtype:float32,shape:[1, 32, 14, 14, 8]}
  }
}
layer {
  name:"Node_346"
  type:"function"
  top:"Node_346"
  bottom:"p0_14"
  bottom:"p1_12"
  bottom:"p2_12"
  bottom:"p3_4"
  bottom:"Node_345"
  layer_param {
    idx:346
    in_0 {name:"p0:0",dtype:float32,shape:[1, 32, 14, 14, 8]}
    in_1 {name:"p1:0",dtype:float32,shape:[32, 32, 3, 3, 8, 8]}
    in_2 {name:"p2:0",dtype:float32,shape:[1, 32, 1, 1, 8]}
    in_3 {name:"p3:0",dtype:float32,shape:[1, 32, 14, 14, 8]}
    in_4 {name:"Node_345:0",dtype:float32,shape:[1, 32, 14, 14, 8]}
    out_0 {name:"Node_346:0",dtype:float32,shape:[1, 32, 14, 14, 8]}
  }
}
layer {
  name:"x_55"
  type:"var"
  top:"x_55"
  bottom:"Node_353"
  layer_param {
    idx:347
    in_0 {name:"Node_353:0",dtype:float32,shape:[1, 32, 14, 14, 8]}
    out_0 {name:"x:0",dtype:float32,shape:[1, 32, 14, 14, 8]}
  }
}
layer {
  name:"Node_353"
  type:"var_call"
  top:"Node_353"
  bottom:"x_54"
  bottom:"x_47"
  bottom:"x_48"
  bottom:"x_49"
  bottom:"x_53"
  layer_param {
    idx:353
    in_0 {name:"x:0",dtype:float32,shape:[1, 32, 14, 14, 8]}
    in_1 {name:"x:0",dtype:float32,shape:[1, 32, 14, 14, 8]}
    in_2 {name:"x:0",dtype:float32,shape:[32, 32, 3, 3, 8, 8]}
    in_3 {name:"x:0",dtype:float32,shape:[1, 32, 1, 1, 8]}
    in_4 {name:"x:0",dtype:float32,shape:[1, 32, 14, 14, 8]}
    out_0 {name:"Node_353:0",dtype:float32,shape:[1, 32, 14, 14, 8]}
  }
}
layer {
  name:"x_56"
  type:"var"
  top:"x_56"
  bottom:"Node_355"
  layer_param {
    idx:354
    in_0 {name:"Node_355:0",dtype:float32,shape:[32, 32, 3, 3, 8, 8]}
    out_0 {name:"x:0",dtype:float32,shape:[32, 32, 3, 3, 8, 8]}
  }
}
layer {
  name:"Node_355"
  type:"const"
  top:"Node_355"
  layer_param {
    idx:355
    out_0 {name:"Node_355:0",dtype:float32,shape:[32, 32, 3, 3, 8, 8]}
  }
}
layer {
  name:"x_57"
  type:"var"
  top:"x_57"
  bottom:"Node_357"
  layer_param {
    idx:356
    in_0 {name:"Node_357:0",dtype:float32,shape:[1, 32, 1, 1, 8]}
    out_0 {name:"x:0",dtype:float32,shape:[1, 32, 1, 1, 8]}
  }
}
layer {
  name:"Node_357"
  type:"const"
  top:"Node_357"
  layer_param {
    idx:357
    out_0 {name:"Node_357:0",dtype:float32,shape:[1, 32, 1, 1, 8]}
  }
}
layer {
  name:"x_58"
  type:"var"
  top:"x_58"
  bottom:"Node_371"
  layer_param {
    idx:358
    in_0 {name:"Node_371:0",dtype:float32,shape:[1, 32, 14, 14, 8]}
    out_0 {name:"x:0",dtype:float32,shape:[1, 32, 14, 14, 8]}
  }
}
layer {
  name:"p0_15"
  type:"input"
  top:"p0_15"
  layer_param {
    idx:359
    out_0 {name:"p0:0",dtype:float32,shape:[1, 32, 14, 14, 8]}
  }
}
layer {
  name:"p1_13"
  type:"input"
  top:"p1_13"
  layer_param {
    idx:360
    out_0 {name:"p1:0",dtype:float32,shape:[32, 32, 3, 3, 8, 8]}
  }
}
layer {
  name:"p2_13"
  type:"input"
  top:"p2_13"
  layer_param {
    idx:361
    out_0 {name:"p2:0",dtype:float32,shape:[1, 32, 1, 1, 8]}
  }
}
layer {
  name:"Node_367"
  type:"nn_contrib_conv2d_NCHWc"
  top:"Node_367"
  bottom:"p0_15"
  bottom:"p1_13"
  layer_param {
    idx:367
    in_0 {name:"p0:0",dtype:float32,shape:[1, 32, 14, 14, 8]}
    in_1 {name:"p1:0",dtype:float32,shape:[32, 32, 3, 3, 8, 8]}
    out_0 {name:"Node_367:0",dtype:float32,shape:[1, 32, 14, 14, 8]}
    attrs {'strides': [1, 1], 'padding': [1, 1, 1, 1], 'dilation': [1, 1], 'groups': 1, 'channels': 256, 'kernel_size': [3, 3], 'data_layout': 'NCHW8c', 'kernel_layout': 'OIHW8i8o', 'out_layout': 'NCHW8c', 'out_dtype': ''}
  }
}
layer {
  name:"Node_369"
  type:"add"
  top:"Node_369"
  bottom:"Node_367"
  bottom:"p2_13"
  layer_param {
    idx:369
    in_0 {name:"Node_367:0",dtype:float32,shape:[1, 32, 14, 14, 8]}
    in_1 {name:"p2:0",dtype:float32,shape:[1, 32, 1, 1, 8]}
    out_0 {name:"Node_369:0",dtype:float32,shape:[1, 32, 14, 14, 8]}
  }
}
layer {
  name:"Node_370"
  type:"nn_relu"
  top:"Node_370"
  bottom:"Node_369"
  layer_param {
    idx:370
    in_0 {name:"Node_369:0",dtype:float32,shape:[1, 32, 14, 14, 8]}
    out_0 {name:"Node_370:0",dtype:float32,shape:[1, 32, 14, 14, 8]}
  }
}
layer {
  name:"Node_371"
  type:"function"
  top:"Node_371"
  bottom:"p0_15"
  bottom:"p1_13"
  bottom:"p2_13"
  bottom:"Node_370"
  layer_param {
    idx:371
    in_0 {name:"p0:0",dtype:float32,shape:[1, 32, 14, 14, 8]}
    in_1 {name:"p1:0",dtype:float32,shape:[32, 32, 3, 3, 8, 8]}
    in_2 {name:"p2:0",dtype:float32,shape:[1, 32, 1, 1, 8]}
    in_3 {name:"Node_370:0",dtype:float32,shape:[1, 32, 14, 14, 8]}
    out_0 {name:"Node_371:0",dtype:float32,shape:[1, 32, 14, 14, 8]}
  }
}
layer {
  name:"x_59"
  type:"var"
  top:"x_59"
  bottom:"Node_377"
  layer_param {
    idx:372
    in_0 {name:"Node_377:0",dtype:float32,shape:[1, 32, 14, 14, 8]}
    out_0 {name:"x:0",dtype:float32,shape:[1, 32, 14, 14, 8]}
  }
}
layer {
  name:"Node_377"
  type:"var_call"
  top:"Node_377"
  bottom:"x_58"
  bottom:"x_55"
  bottom:"x_56"
  bottom:"x_57"
  layer_param {
    idx:377
    in_0 {name:"x:0",dtype:float32,shape:[1, 32, 14, 14, 8]}
    in_1 {name:"x:0",dtype:float32,shape:[1, 32, 14, 14, 8]}
    in_2 {name:"x:0",dtype:float32,shape:[32, 32, 3, 3, 8, 8]}
    in_3 {name:"x:0",dtype:float32,shape:[1, 32, 1, 1, 8]}
    out_0 {name:"Node_377:0",dtype:float32,shape:[1, 32, 14, 14, 8]}
  }
}
layer {
  name:"x_60"
  type:"var"
  top:"x_60"
  bottom:"Node_379"
  layer_param {
    idx:378
    in_0 {name:"Node_379:0",dtype:float32,shape:[32, 32, 3, 3, 8, 8]}
    out_0 {name:"x:0",dtype:float32,shape:[32, 32, 3, 3, 8, 8]}
  }
}
layer {
  name:"Node_379"
  type:"const"
  top:"Node_379"
  layer_param {
    idx:379
    out_0 {name:"Node_379:0",dtype:float32,shape:[32, 32, 3, 3, 8, 8]}
  }
}
layer {
  name:"x_61"
  type:"var"
  top:"x_61"
  bottom:"Node_381"
  layer_param {
    idx:380
    in_0 {name:"Node_381:0",dtype:float32,shape:[1, 32, 1, 1, 8]}
    out_0 {name:"x:0",dtype:float32,shape:[1, 32, 1, 1, 8]}
  }
}
layer {
  name:"Node_381"
  type:"const"
  top:"Node_381"
  layer_param {
    idx:381
    out_0 {name:"Node_381:0",dtype:float32,shape:[1, 32, 1, 1, 8]}
  }
}
layer {
  name:"x_62"
  type:"var"
  top:"x_62"
  bottom:"Node_399"
  layer_param {
    idx:382
    in_0 {name:"Node_399:0",dtype:float32,shape:[1, 32, 14, 14, 8]}
    out_0 {name:"x:0",dtype:float32,shape:[1, 32, 14, 14, 8]}
  }
}
layer {
  name:"p0_16"
  type:"input"
  top:"p0_16"
  layer_param {
    idx:383
    out_0 {name:"p0:0",dtype:float32,shape:[1, 32, 14, 14, 8]}
  }
}
layer {
  name:"p1_14"
  type:"input"
  top:"p1_14"
  layer_param {
    idx:384
    out_0 {name:"p1:0",dtype:float32,shape:[32, 32, 3, 3, 8, 8]}
  }
}
layer {
  name:"p2_14"
  type:"input"
  top:"p2_14"
  layer_param {
    idx:385
    out_0 {name:"p2:0",dtype:float32,shape:[1, 32, 1, 1, 8]}
  }
}
layer {
  name:"p3_5"
  type:"input"
  top:"p3_5"
  layer_param {
    idx:386
    out_0 {name:"p3:0",dtype:float32,shape:[1, 32, 14, 14, 8]}
  }
}
layer {
  name:"Node_393"
  type:"nn_contrib_conv2d_NCHWc"
  top:"Node_393"
  bottom:"p0_16"
  bottom:"p1_14"
  layer_param {
    idx:393
    in_0 {name:"p0:0",dtype:float32,shape:[1, 32, 14, 14, 8]}
    in_1 {name:"p1:0",dtype:float32,shape:[32, 32, 3, 3, 8, 8]}
    out_0 {name:"Node_393:0",dtype:float32,shape:[1, 32, 14, 14, 8]}
    attrs {'strides': [1, 1], 'padding': [1, 1, 1, 1], 'dilation': [1, 1], 'groups': 1, 'channels': 256, 'kernel_size': [3, 3], 'data_layout': 'NCHW8c', 'kernel_layout': 'OIHW8i8o', 'out_layout': 'NCHW8c', 'out_dtype': ''}
  }
}
layer {
  name:"Node_395"
  type:"add"
  top:"Node_395"
  bottom:"Node_393"
  bottom:"p2_14"
  layer_param {
    idx:395
    in_0 {name:"Node_393:0",dtype:float32,shape:[1, 32, 14, 14, 8]}
    in_1 {name:"p2:0",dtype:float32,shape:[1, 32, 1, 1, 8]}
    out_0 {name:"Node_395:0",dtype:float32,shape:[1, 32, 14, 14, 8]}
  }
}
layer {
  name:"Node_397"
  type:"add"
  top:"Node_397"
  bottom:"Node_395"
  bottom:"p3_5"
  layer_param {
    idx:397
    in_0 {name:"Node_395:0",dtype:float32,shape:[1, 32, 14, 14, 8]}
    in_1 {name:"p3:0",dtype:float32,shape:[1, 32, 14, 14, 8]}
    out_0 {name:"Node_397:0",dtype:float32,shape:[1, 32, 14, 14, 8]}
  }
}
layer {
  name:"Node_398"
  type:"nn_relu"
  top:"Node_398"
  bottom:"Node_397"
  layer_param {
    idx:398
    in_0 {name:"Node_397:0",dtype:float32,shape:[1, 32, 14, 14, 8]}
    out_0 {name:"Node_398:0",dtype:float32,shape:[1, 32, 14, 14, 8]}
  }
}
layer {
  name:"Node_399"
  type:"function"
  top:"Node_399"
  bottom:"p0_16"
  bottom:"p1_14"
  bottom:"p2_14"
  bottom:"p3_5"
  bottom:"Node_398"
  layer_param {
    idx:399
    in_0 {name:"p0:0",dtype:float32,shape:[1, 32, 14, 14, 8]}
    in_1 {name:"p1:0",dtype:float32,shape:[32, 32, 3, 3, 8, 8]}
    in_2 {name:"p2:0",dtype:float32,shape:[1, 32, 1, 1, 8]}
    in_3 {name:"p3:0",dtype:float32,shape:[1, 32, 14, 14, 8]}
    in_4 {name:"Node_398:0",dtype:float32,shape:[1, 32, 14, 14, 8]}
    out_0 {name:"Node_399:0",dtype:float32,shape:[1, 32, 14, 14, 8]}
  }
}
layer {
  name:"x_63"
  type:"var"
  top:"x_63"
  bottom:"Node_406"
  layer_param {
    idx:400
    in_0 {name:"Node_406:0",dtype:float32,shape:[1, 32, 14, 14, 8]}
    out_0 {name:"x:0",dtype:float32,shape:[1, 32, 14, 14, 8]}
  }
}
layer {
  name:"Node_406"
  type:"var_call"
  top:"Node_406"
  bottom:"x_62"
  bottom:"x_59"
  bottom:"x_60"
  bottom:"x_61"
  bottom:"x_55"
  layer_param {
    idx:406
    in_0 {name:"x:0",dtype:float32,shape:[1, 32, 14, 14, 8]}
    in_1 {name:"x:0",dtype:float32,shape:[1, 32, 14, 14, 8]}
    in_2 {name:"x:0",dtype:float32,shape:[32, 32, 3, 3, 8, 8]}
    in_3 {name:"x:0",dtype:float32,shape:[1, 32, 1, 1, 8]}
    in_4 {name:"x:0",dtype:float32,shape:[1, 32, 14, 14, 8]}
    out_0 {name:"Node_406:0",dtype:float32,shape:[1, 32, 14, 14, 8]}
  }
}
layer {
  name:"x_64"
  type:"var"
  top:"x_64"
  bottom:"Node_408"
  layer_param {
    idx:407
    in_0 {name:"Node_408:0",dtype:float32,shape:[64, 32, 3, 3, 8, 8]}
    out_0 {name:"x:0",dtype:float32,shape:[64, 32, 3, 3, 8, 8]}
  }
}
layer {
  name:"Node_408"
  type:"const"
  top:"Node_408"
  layer_param {
    idx:408
    out_0 {name:"Node_408:0",dtype:float32,shape:[64, 32, 3, 3, 8, 8]}
  }
}
layer {
  name:"x_65"
  type:"var"
  top:"x_65"
  bottom:"Node_410"
  layer_param {
    idx:409
    in_0 {name:"Node_410:0",dtype:float32,shape:[1, 64, 1, 1, 8]}
    out_0 {name:"x:0",dtype:float32,shape:[1, 64, 1, 1, 8]}
  }
}
layer {
  name:"Node_410"
  type:"const"
  top:"Node_410"
  layer_param {
    idx:410
    out_0 {name:"Node_410:0",dtype:float32,shape:[1, 64, 1, 1, 8]}
  }
}
layer {
  name:"x_66"
  type:"var"
  top:"x_66"
  bottom:"Node_424"
  layer_param {
    idx:411
    in_0 {name:"Node_424:0",dtype:float32,shape:[1, 64, 7, 7, 8]}
    out_0 {name:"x:0",dtype:float32,shape:[1, 64, 7, 7, 8]}
  }
}
layer {
  name:"p0_17"
  type:"input"
  top:"p0_17"
  layer_param {
    idx:412
    out_0 {name:"p0:0",dtype:float32,shape:[1, 32, 14, 14, 8]}
  }
}
layer {
  name:"p1_15"
  type:"input"
  top:"p1_15"
  layer_param {
    idx:413
    out_0 {name:"p1:0",dtype:float32,shape:[64, 32, 3, 3, 8, 8]}
  }
}
layer {
  name:"p2_15"
  type:"input"
  top:"p2_15"
  layer_param {
    idx:414
    out_0 {name:"p2:0",dtype:float32,shape:[1, 64, 1, 1, 8]}
  }
}
layer {
  name:"Node_420"
  type:"nn_contrib_conv2d_NCHWc"
  top:"Node_420"
  bottom:"p0_17"
  bottom:"p1_15"
  layer_param {
    idx:420
    in_0 {name:"p0:0",dtype:float32,shape:[1, 32, 14, 14, 8]}
    in_1 {name:"p1:0",dtype:float32,shape:[64, 32, 3, 3, 8, 8]}
    out_0 {name:"Node_420:0",dtype:float32,shape:[1, 64, 7, 7, 8]}
    attrs {'strides': [2, 2], 'padding': [1, 1, 1, 1], 'dilation': [1, 1], 'groups': 1, 'channels': 512, 'kernel_size': [3, 3], 'data_layout': 'NCHW8c', 'kernel_layout': 'OIHW8i8o', 'out_layout': 'NCHW8c', 'out_dtype': ''}
  }
}
layer {
  name:"Node_422"
  type:"add"
  top:"Node_422"
  bottom:"Node_420"
  bottom:"p2_15"
  layer_param {
    idx:422
    in_0 {name:"Node_420:0",dtype:float32,shape:[1, 64, 7, 7, 8]}
    in_1 {name:"p2:0",dtype:float32,shape:[1, 64, 1, 1, 8]}
    out_0 {name:"Node_422:0",dtype:float32,shape:[1, 64, 7, 7, 8]}
  }
}
layer {
  name:"Node_423"
  type:"nn_relu"
  top:"Node_423"
  bottom:"Node_422"
  layer_param {
    idx:423
    in_0 {name:"Node_422:0",dtype:float32,shape:[1, 64, 7, 7, 8]}
    out_0 {name:"Node_423:0",dtype:float32,shape:[1, 64, 7, 7, 8]}
  }
}
layer {
  name:"Node_424"
  type:"function"
  top:"Node_424"
  bottom:"p0_17"
  bottom:"p1_15"
  bottom:"p2_15"
  bottom:"Node_423"
  layer_param {
    idx:424
    in_0 {name:"p0:0",dtype:float32,shape:[1, 32, 14, 14, 8]}
    in_1 {name:"p1:0",dtype:float32,shape:[64, 32, 3, 3, 8, 8]}
    in_2 {name:"p2:0",dtype:float32,shape:[1, 64, 1, 1, 8]}
    in_3 {name:"Node_423:0",dtype:float32,shape:[1, 64, 7, 7, 8]}
    out_0 {name:"Node_424:0",dtype:float32,shape:[1, 64, 7, 7, 8]}
  }
}
layer {
  name:"x_67"
  type:"var"
  top:"x_67"
  bottom:"Node_430"
  layer_param {
    idx:425
    in_0 {name:"Node_430:0",dtype:float32,shape:[1, 64, 7, 7, 8]}
    out_0 {name:"x:0",dtype:float32,shape:[1, 64, 7, 7, 8]}
  }
}
layer {
  name:"Node_430"
  type:"var_call"
  top:"Node_430"
  bottom:"x_66"
  bottom:"x_63"
  bottom:"x_64"
  bottom:"x_65"
  layer_param {
    idx:430
    in_0 {name:"x:0",dtype:float32,shape:[1, 64, 7, 7, 8]}
    in_1 {name:"x:0",dtype:float32,shape:[1, 32, 14, 14, 8]}
    in_2 {name:"x:0",dtype:float32,shape:[64, 32, 3, 3, 8, 8]}
    in_3 {name:"x:0",dtype:float32,shape:[1, 64, 1, 1, 8]}
    out_0 {name:"Node_430:0",dtype:float32,shape:[1, 64, 7, 7, 8]}
  }
}
layer {
  name:"x_68"
  type:"var"
  top:"x_68"
  bottom:"Node_432"
  layer_param {
    idx:431
    in_0 {name:"Node_432:0",dtype:float32,shape:[64, 64, 3, 3, 8, 8]}
    out_0 {name:"x:0",dtype:float32,shape:[64, 64, 3, 3, 8, 8]}
  }
}
layer {
  name:"Node_432"
  type:"const"
  top:"Node_432"
  layer_param {
    idx:432
    out_0 {name:"Node_432:0",dtype:float32,shape:[64, 64, 3, 3, 8, 8]}
  }
}
layer {
  name:"x_69"
  type:"var"
  top:"x_69"
  bottom:"Node_434"
  layer_param {
    idx:433
    in_0 {name:"Node_434:0",dtype:float32,shape:[1, 64, 1, 1, 8]}
    out_0 {name:"x:0",dtype:float32,shape:[1, 64, 1, 1, 8]}
  }
}
layer {
  name:"Node_434"
  type:"const"
  top:"Node_434"
  layer_param {
    idx:434
    out_0 {name:"Node_434:0",dtype:float32,shape:[1, 64, 1, 1, 8]}
  }
}
layer {
  name:"x_70"
  type:"var"
  top:"x_70"
  bottom:"Node_436"
  layer_param {
    idx:435
    in_0 {name:"Node_436:0",dtype:float32,shape:[64, 32, 1, 1, 8, 8]}
    out_0 {name:"x:0",dtype:float32,shape:[64, 32, 1, 1, 8, 8]}
  }
}
layer {
  name:"Node_436"
  type:"const"
  top:"Node_436"
  layer_param {
    idx:436
    out_0 {name:"Node_436:0",dtype:float32,shape:[64, 32, 1, 1, 8, 8]}
  }
}
layer {
  name:"x_71"
  type:"var"
  top:"x_71"
  bottom:"Node_438"
  layer_param {
    idx:437
    in_0 {name:"Node_438:0",dtype:float32,shape:[1, 64, 1, 1, 8]}
    out_0 {name:"x:0",dtype:float32,shape:[1, 64, 1, 1, 8]}
  }
}
layer {
  name:"Node_438"
  type:"const"
  top:"Node_438"
  layer_param {
    idx:438
    out_0 {name:"Node_438:0",dtype:float32,shape:[1, 64, 1, 1, 8]}
  }
}
layer {
  name:"x_72"
  type:"var"
  top:"x_72"
  bottom:"Node_450"
  layer_param {
    idx:439
    in_0 {name:"Node_450:0",dtype:float32,shape:[1, 64, 7, 7, 8]}
    out_0 {name:"x:0",dtype:float32,shape:[1, 64, 7, 7, 8]}
  }
}
layer {
  name:"p0_18"
  type:"input"
  top:"p0_18"
  layer_param {
    idx:440
    out_0 {name:"p0:0",dtype:float32,shape:[1, 32, 14, 14, 8]}
  }
}
layer {
  name:"p1_16"
  type:"input"
  top:"p1_16"
  layer_param {
    idx:441
    out_0 {name:"p1:0",dtype:float32,shape:[64, 32, 1, 1, 8, 8]}
  }
}
layer {
  name:"p2_16"
  type:"input"
  top:"p2_16"
  layer_param {
    idx:442
    out_0 {name:"p2:0",dtype:float32,shape:[1, 64, 1, 1, 8]}
  }
}
layer {
  name:"Node_447"
  type:"nn_contrib_conv2d_NCHWc"
  top:"Node_447"
  bottom:"p0_18"
  bottom:"p1_16"
  layer_param {
    idx:447
    in_0 {name:"p0:0",dtype:float32,shape:[1, 32, 14, 14, 8]}
    in_1 {name:"p1:0",dtype:float32,shape:[64, 32, 1, 1, 8, 8]}
    out_0 {name:"Node_447:0",dtype:float32,shape:[1, 64, 7, 7, 8]}
    attrs {'strides': [2, 2], 'padding': [0, 0, 0, 0], 'dilation': [1, 1], 'groups': 1, 'channels': 512, 'kernel_size': [1, 1], 'data_layout': 'NCHW8c', 'kernel_layout': 'OIHW8i8o', 'out_layout': 'NCHW8c', 'out_dtype': ''}
  }
}
layer {
  name:"Node_449"
  type:"add"
  top:"Node_449"
  bottom:"Node_447"
  bottom:"p2_16"
  layer_param {
    idx:449
    in_0 {name:"Node_447:0",dtype:float32,shape:[1, 64, 7, 7, 8]}
    in_1 {name:"p2:0",dtype:float32,shape:[1, 64, 1, 1, 8]}
    out_0 {name:"Node_449:0",dtype:float32,shape:[1, 64, 7, 7, 8]}
  }
}
layer {
  name:"Node_450"
  type:"function"
  top:"Node_450"
  bottom:"p0_18"
  bottom:"p1_16"
  bottom:"p2_16"
  bottom:"Node_449"
  layer_param {
    idx:450
    in_0 {name:"p0:0",dtype:float32,shape:[1, 32, 14, 14, 8]}
    in_1 {name:"p1:0",dtype:float32,shape:[64, 32, 1, 1, 8, 8]}
    in_2 {name:"p2:0",dtype:float32,shape:[1, 64, 1, 1, 8]}
    in_3 {name:"Node_449:0",dtype:float32,shape:[1, 64, 7, 7, 8]}
    out_0 {name:"Node_450:0",dtype:float32,shape:[1, 64, 7, 7, 8]}
  }
}
layer {
  name:"x_73"
  type:"var"
  top:"x_73"
  bottom:"Node_456"
  layer_param {
    idx:451
    in_0 {name:"Node_456:0",dtype:float32,shape:[1, 64, 7, 7, 8]}
    out_0 {name:"x:0",dtype:float32,shape:[1, 64, 7, 7, 8]}
  }
}
layer {
  name:"Node_456"
  type:"var_call"
  top:"Node_456"
  bottom:"x_72"
  bottom:"x_63"
  bottom:"x_70"
  bottom:"x_71"
  layer_param {
    idx:456
    in_0 {name:"x:0",dtype:float32,shape:[1, 64, 7, 7, 8]}
    in_1 {name:"x:0",dtype:float32,shape:[1, 32, 14, 14, 8]}
    in_2 {name:"x:0",dtype:float32,shape:[64, 32, 1, 1, 8, 8]}
    in_3 {name:"x:0",dtype:float32,shape:[1, 64, 1, 1, 8]}
    out_0 {name:"Node_456:0",dtype:float32,shape:[1, 64, 7, 7, 8]}
  }
}
layer {
  name:"x_74"
  type:"var"
  top:"x_74"
  bottom:"Node_474"
  layer_param {
    idx:457
    in_0 {name:"Node_474:0",dtype:float32,shape:[1, 64, 7, 7, 8]}
    out_0 {name:"x:0",dtype:float32,shape:[1, 64, 7, 7, 8]}
  }
}
layer {
  name:"p0_19"
  type:"input"
  top:"p0_19"
  layer_param {
    idx:458
    out_0 {name:"p0:0",dtype:float32,shape:[1, 64, 7, 7, 8]}
  }
}
layer {
  name:"p1_17"
  type:"input"
  top:"p1_17"
  layer_param {
    idx:459
    out_0 {name:"p1:0",dtype:float32,shape:[64, 64, 3, 3, 8, 8]}
  }
}
layer {
  name:"p2_17"
  type:"input"
  top:"p2_17"
  layer_param {
    idx:460
    out_0 {name:"p2:0",dtype:float32,shape:[1, 64, 1, 1, 8]}
  }
}
layer {
  name:"p3_6"
  type:"input"
  top:"p3_6"
  layer_param {
    idx:461
    out_0 {name:"p3:0",dtype:float32,shape:[1, 64, 7, 7, 8]}
  }
}
layer {
  name:"Node_468"
  type:"nn_contrib_conv2d_NCHWc"
  top:"Node_468"
  bottom:"p0_19"
  bottom:"p1_17"
  layer_param {
    idx:468
    in_0 {name:"p0:0",dtype:float32,shape:[1, 64, 7, 7, 8]}
    in_1 {name:"p1:0",dtype:float32,shape:[64, 64, 3, 3, 8, 8]}
    out_0 {name:"Node_468:0",dtype:float32,shape:[1, 64, 7, 7, 8]}
    attrs {'strides': [1, 1], 'padding': [1, 1, 1, 1], 'dilation': [1, 1], 'groups': 1, 'channels': 512, 'kernel_size': [3, 3], 'data_layout': 'NCHW8c', 'kernel_layout': 'OIHW8i8o', 'out_layout': 'NCHW8c', 'out_dtype': ''}
  }
}
layer {
  name:"Node_470"
  type:"add"
  top:"Node_470"
  bottom:"Node_468"
  bottom:"p2_17"
  layer_param {
    idx:470
    in_0 {name:"Node_468:0",dtype:float32,shape:[1, 64, 7, 7, 8]}
    in_1 {name:"p2:0",dtype:float32,shape:[1, 64, 1, 1, 8]}
    out_0 {name:"Node_470:0",dtype:float32,shape:[1, 64, 7, 7, 8]}
  }
}
layer {
  name:"Node_472"
  type:"add"
  top:"Node_472"
  bottom:"Node_470"
  bottom:"p3_6"
  layer_param {
    idx:472
    in_0 {name:"Node_470:0",dtype:float32,shape:[1, 64, 7, 7, 8]}
    in_1 {name:"p3:0",dtype:float32,shape:[1, 64, 7, 7, 8]}
    out_0 {name:"Node_472:0",dtype:float32,shape:[1, 64, 7, 7, 8]}
  }
}
layer {
  name:"Node_473"
  type:"nn_relu"
  top:"Node_473"
  bottom:"Node_472"
  layer_param {
    idx:473
    in_0 {name:"Node_472:0",dtype:float32,shape:[1, 64, 7, 7, 8]}
    out_0 {name:"Node_473:0",dtype:float32,shape:[1, 64, 7, 7, 8]}
  }
}
layer {
  name:"Node_474"
  type:"function"
  top:"Node_474"
  bottom:"p0_19"
  bottom:"p1_17"
  bottom:"p2_17"
  bottom:"p3_6"
  bottom:"Node_473"
  layer_param {
    idx:474
    in_0 {name:"p0:0",dtype:float32,shape:[1, 64, 7, 7, 8]}
    in_1 {name:"p1:0",dtype:float32,shape:[64, 64, 3, 3, 8, 8]}
    in_2 {name:"p2:0",dtype:float32,shape:[1, 64, 1, 1, 8]}
    in_3 {name:"p3:0",dtype:float32,shape:[1, 64, 7, 7, 8]}
    in_4 {name:"Node_473:0",dtype:float32,shape:[1, 64, 7, 7, 8]}
    out_0 {name:"Node_474:0",dtype:float32,shape:[1, 64, 7, 7, 8]}
  }
}
layer {
  name:"x_75"
  type:"var"
  top:"x_75"
  bottom:"Node_481"
  layer_param {
    idx:475
    in_0 {name:"Node_481:0",dtype:float32,shape:[1, 64, 7, 7, 8]}
    out_0 {name:"x:0",dtype:float32,shape:[1, 64, 7, 7, 8]}
  }
}
layer {
  name:"Node_481"
  type:"var_call"
  top:"Node_481"
  bottom:"x_74"
  bottom:"x_67"
  bottom:"x_68"
  bottom:"x_69"
  bottom:"x_73"
  layer_param {
    idx:481
    in_0 {name:"x:0",dtype:float32,shape:[1, 64, 7, 7, 8]}
    in_1 {name:"x:0",dtype:float32,shape:[1, 64, 7, 7, 8]}
    in_2 {name:"x:0",dtype:float32,shape:[64, 64, 3, 3, 8, 8]}
    in_3 {name:"x:0",dtype:float32,shape:[1, 64, 1, 1, 8]}
    in_4 {name:"x:0",dtype:float32,shape:[1, 64, 7, 7, 8]}
    out_0 {name:"Node_481:0",dtype:float32,shape:[1, 64, 7, 7, 8]}
  }
}
layer {
  name:"x_76"
  type:"var"
  top:"x_76"
  bottom:"Node_483"
  layer_param {
    idx:482
    in_0 {name:"Node_483:0",dtype:float32,shape:[64, 64, 3, 3, 8, 8]}
    out_0 {name:"x:0",dtype:float32,shape:[64, 64, 3, 3, 8, 8]}
  }
}
layer {
  name:"Node_483"
  type:"const"
  top:"Node_483"
  layer_param {
    idx:483
    out_0 {name:"Node_483:0",dtype:float32,shape:[64, 64, 3, 3, 8, 8]}
  }
}
layer {
  name:"x_77"
  type:"var"
  top:"x_77"
  bottom:"Node_485"
  layer_param {
    idx:484
    in_0 {name:"Node_485:0",dtype:float32,shape:[1, 64, 1, 1, 8]}
    out_0 {name:"x:0",dtype:float32,shape:[1, 64, 1, 1, 8]}
  }
}
layer {
  name:"Node_485"
  type:"const"
  top:"Node_485"
  layer_param {
    idx:485
    out_0 {name:"Node_485:0",dtype:float32,shape:[1, 64, 1, 1, 8]}
  }
}
layer {
  name:"x_78"
  type:"var"
  top:"x_78"
  bottom:"Node_499"
  layer_param {
    idx:486
    in_0 {name:"Node_499:0",dtype:float32,shape:[1, 64, 7, 7, 8]}
    out_0 {name:"x:0",dtype:float32,shape:[1, 64, 7, 7, 8]}
  }
}
layer {
  name:"p0_20"
  type:"input"
  top:"p0_20"
  layer_param {
    idx:487
    out_0 {name:"p0:0",dtype:float32,shape:[1, 64, 7, 7, 8]}
  }
}
layer {
  name:"p1_18"
  type:"input"
  top:"p1_18"
  layer_param {
    idx:488
    out_0 {name:"p1:0",dtype:float32,shape:[64, 64, 3, 3, 8, 8]}
  }
}
layer {
  name:"p2_18"
  type:"input"
  top:"p2_18"
  layer_param {
    idx:489
    out_0 {name:"p2:0",dtype:float32,shape:[1, 64, 1, 1, 8]}
  }
}
layer {
  name:"Node_495"
  type:"nn_contrib_conv2d_NCHWc"
  top:"Node_495"
  bottom:"p0_20"
  bottom:"p1_18"
  layer_param {
    idx:495
    in_0 {name:"p0:0",dtype:float32,shape:[1, 64, 7, 7, 8]}
    in_1 {name:"p1:0",dtype:float32,shape:[64, 64, 3, 3, 8, 8]}
    out_0 {name:"Node_495:0",dtype:float32,shape:[1, 64, 7, 7, 8]}
    attrs {'strides': [1, 1], 'padding': [1, 1, 1, 1], 'dilation': [1, 1], 'groups': 1, 'channels': 512, 'kernel_size': [3, 3], 'data_layout': 'NCHW8c', 'kernel_layout': 'OIHW8i8o', 'out_layout': 'NCHW8c', 'out_dtype': ''}
  }
}
layer {
  name:"Node_497"
  type:"add"
  top:"Node_497"
  bottom:"Node_495"
  bottom:"p2_18"
  layer_param {
    idx:497
    in_0 {name:"Node_495:0",dtype:float32,shape:[1, 64, 7, 7, 8]}
    in_1 {name:"p2:0",dtype:float32,shape:[1, 64, 1, 1, 8]}
    out_0 {name:"Node_497:0",dtype:float32,shape:[1, 64, 7, 7, 8]}
  }
}
layer {
  name:"Node_498"
  type:"nn_relu"
  top:"Node_498"
  bottom:"Node_497"
  layer_param {
    idx:498
    in_0 {name:"Node_497:0",dtype:float32,shape:[1, 64, 7, 7, 8]}
    out_0 {name:"Node_498:0",dtype:float32,shape:[1, 64, 7, 7, 8]}
  }
}
layer {
  name:"Node_499"
  type:"function"
  top:"Node_499"
  bottom:"p0_20"
  bottom:"p1_18"
  bottom:"p2_18"
  bottom:"Node_498"
  layer_param {
    idx:499
    in_0 {name:"p0:0",dtype:float32,shape:[1, 64, 7, 7, 8]}
    in_1 {name:"p1:0",dtype:float32,shape:[64, 64, 3, 3, 8, 8]}
    in_2 {name:"p2:0",dtype:float32,shape:[1, 64, 1, 1, 8]}
    in_3 {name:"Node_498:0",dtype:float32,shape:[1, 64, 7, 7, 8]}
    out_0 {name:"Node_499:0",dtype:float32,shape:[1, 64, 7, 7, 8]}
  }
}
layer {
  name:"x_79"
  type:"var"
  top:"x_79"
  bottom:"Node_505"
  layer_param {
    idx:500
    in_0 {name:"Node_505:0",dtype:float32,shape:[1, 64, 7, 7, 8]}
    out_0 {name:"x:0",dtype:float32,shape:[1, 64, 7, 7, 8]}
  }
}
layer {
  name:"Node_505"
  type:"var_call"
  top:"Node_505"
  bottom:"x_78"
  bottom:"x_75"
  bottom:"x_76"
  bottom:"x_77"
  layer_param {
    idx:505
    in_0 {name:"x:0",dtype:float32,shape:[1, 64, 7, 7, 8]}
    in_1 {name:"x:0",dtype:float32,shape:[1, 64, 7, 7, 8]}
    in_2 {name:"x:0",dtype:float32,shape:[64, 64, 3, 3, 8, 8]}
    in_3 {name:"x:0",dtype:float32,shape:[1, 64, 1, 1, 8]}
    out_0 {name:"Node_505:0",dtype:float32,shape:[1, 64, 7, 7, 8]}
  }
}
layer {
  name:"x_80"
  type:"var"
  top:"x_80"
  bottom:"Node_507"
  layer_param {
    idx:506
    in_0 {name:"Node_507:0",dtype:float32,shape:[64, 64, 3, 3, 8, 8]}
    out_0 {name:"x:0",dtype:float32,shape:[64, 64, 3, 3, 8, 8]}
  }
}
layer {
  name:"Node_507"
  type:"const"
  top:"Node_507"
  layer_param {
    idx:507
    out_0 {name:"Node_507:0",dtype:float32,shape:[64, 64, 3, 3, 8, 8]}
  }
}
layer {
  name:"x_81"
  type:"var"
  top:"x_81"
  bottom:"Node_509"
  layer_param {
    idx:508
    in_0 {name:"Node_509:0",dtype:float32,shape:[1, 64, 1, 1, 8]}
    out_0 {name:"x:0",dtype:float32,shape:[1, 64, 1, 1, 8]}
  }
}
layer {
  name:"Node_509"
  type:"const"
  top:"Node_509"
  layer_param {
    idx:509
    out_0 {name:"Node_509:0",dtype:float32,shape:[1, 64, 1, 1, 8]}
  }
}
layer {
  name:"x_82"
  type:"var"
  top:"x_82"
  bottom:"Node_527"
  layer_param {
    idx:510
    in_0 {name:"Node_527:0",dtype:float32,shape:[1, 64, 7, 7, 8]}
    out_0 {name:"x:0",dtype:float32,shape:[1, 64, 7, 7, 8]}
  }
}
layer {
  name:"p0_21"
  type:"input"
  top:"p0_21"
  layer_param {
    idx:511
    out_0 {name:"p0:0",dtype:float32,shape:[1, 64, 7, 7, 8]}
  }
}
layer {
  name:"p1_19"
  type:"input"
  top:"p1_19"
  layer_param {
    idx:512
    out_0 {name:"p1:0",dtype:float32,shape:[64, 64, 3, 3, 8, 8]}
  }
}
layer {
  name:"p2_19"
  type:"input"
  top:"p2_19"
  layer_param {
    idx:513
    out_0 {name:"p2:0",dtype:float32,shape:[1, 64, 1, 1, 8]}
  }
}
layer {
  name:"p3_7"
  type:"input"
  top:"p3_7"
  layer_param {
    idx:514
    out_0 {name:"p3:0",dtype:float32,shape:[1, 64, 7, 7, 8]}
  }
}
layer {
  name:"Node_521"
  type:"nn_contrib_conv2d_NCHWc"
  top:"Node_521"
  bottom:"p0_21"
  bottom:"p1_19"
  layer_param {
    idx:521
    in_0 {name:"p0:0",dtype:float32,shape:[1, 64, 7, 7, 8]}
    in_1 {name:"p1:0",dtype:float32,shape:[64, 64, 3, 3, 8, 8]}
    out_0 {name:"Node_521:0",dtype:float32,shape:[1, 64, 7, 7, 8]}
    attrs {'strides': [1, 1], 'padding': [1, 1, 1, 1], 'dilation': [1, 1], 'groups': 1, 'channels': 512, 'kernel_size': [3, 3], 'data_layout': 'NCHW8c', 'kernel_layout': 'OIHW8i8o', 'out_layout': 'NCHW8c', 'out_dtype': ''}
  }
}
layer {
  name:"Node_523"
  type:"add"
  top:"Node_523"
  bottom:"Node_521"
  bottom:"p2_19"
  layer_param {
    idx:523
    in_0 {name:"Node_521:0",dtype:float32,shape:[1, 64, 7, 7, 8]}
    in_1 {name:"p2:0",dtype:float32,shape:[1, 64, 1, 1, 8]}
    out_0 {name:"Node_523:0",dtype:float32,shape:[1, 64, 7, 7, 8]}
  }
}
layer {
  name:"Node_525"
  type:"add"
  top:"Node_525"
  bottom:"Node_523"
  bottom:"p3_7"
  layer_param {
    idx:525
    in_0 {name:"Node_523:0",dtype:float32,shape:[1, 64, 7, 7, 8]}
    in_1 {name:"p3:0",dtype:float32,shape:[1, 64, 7, 7, 8]}
    out_0 {name:"Node_525:0",dtype:float32,shape:[1, 64, 7, 7, 8]}
  }
}
layer {
  name:"Node_526"
  type:"nn_relu"
  top:"Node_526"
  bottom:"Node_525"
  layer_param {
    idx:526
    in_0 {name:"Node_525:0",dtype:float32,shape:[1, 64, 7, 7, 8]}
    out_0 {name:"Node_526:0",dtype:float32,shape:[1, 64, 7, 7, 8]}
  }
}
layer {
  name:"Node_527"
  type:"function"
  top:"Node_527"
  bottom:"p0_21"
  bottom:"p1_19"
  bottom:"p2_19"
  bottom:"p3_7"
  bottom:"Node_526"
  layer_param {
    idx:527
    in_0 {name:"p0:0",dtype:float32,shape:[1, 64, 7, 7, 8]}
    in_1 {name:"p1:0",dtype:float32,shape:[64, 64, 3, 3, 8, 8]}
    in_2 {name:"p2:0",dtype:float32,shape:[1, 64, 1, 1, 8]}
    in_3 {name:"p3:0",dtype:float32,shape:[1, 64, 7, 7, 8]}
    in_4 {name:"Node_526:0",dtype:float32,shape:[1, 64, 7, 7, 8]}
    out_0 {name:"Node_527:0",dtype:float32,shape:[1, 64, 7, 7, 8]}
  }
}
layer {
  name:"x_83"
  type:"var"
  top:"x_83"
  bottom:"Node_534"
  layer_param {
    idx:528
    in_0 {name:"Node_534:0",dtype:float32,shape:[1, 64, 7, 7, 8]}
    out_0 {name:"x:0",dtype:float32,shape:[1, 64, 7, 7, 8]}
  }
}
layer {
  name:"Node_534"
  type:"var_call"
  top:"Node_534"
  bottom:"x_82"
  bottom:"x_79"
  bottom:"x_80"
  bottom:"x_81"
  bottom:"x_75"
  layer_param {
    idx:534
    in_0 {name:"x:0",dtype:float32,shape:[1, 64, 7, 7, 8]}
    in_1 {name:"x:0",dtype:float32,shape:[1, 64, 7, 7, 8]}
    in_2 {name:"x:0",dtype:float32,shape:[64, 64, 3, 3, 8, 8]}
    in_3 {name:"x:0",dtype:float32,shape:[1, 64, 1, 1, 8]}
    in_4 {name:"x:0",dtype:float32,shape:[1, 64, 7, 7, 8]}
    out_0 {name:"Node_534:0",dtype:float32,shape:[1, 64, 7, 7, 8]}
  }
}
layer {
  name:"x_84"
  type:"var"
  top:"x_84"
  bottom:"Node_540"
  layer_param {
    idx:535
    in_0 {name:"Node_540:0",dtype:float32,shape:[1, 64, 1, 1, 8]}
    out_0 {name:"x:0",dtype:float32,shape:[1, 64, 1, 1, 8]}
  }
}
layer {
  name:"p0_22"
  type:"input"
  top:"p0_22"
  layer_param {
    idx:536
    out_0 {name:"p0:0",dtype:float32,shape:[1, 64, 7, 7, 8]}
  }
}
layer {
  name:"Node_539"
  type:"nn_adaptive_avg_pool2d"
  top:"Node_539"
  bottom:"p0_22"
  layer_param {
    idx:539
    in_0 {name:"p0:0",dtype:float32,shape:[1, 64, 7, 7, 8]}
    out_0 {name:"Node_539:0",dtype:float32,shape:[1, 64, 1, 1, 8]}
    attrs {'output_size': [1, 1], 'layout': 'NCHW8c'}
  }
}
layer {
  name:"Node_540"
  type:"function"
  top:"Node_540"
  bottom:"p0_22"
  bottom:"Node_539"
  layer_param {
    idx:540
    in_0 {name:"p0:0",dtype:float32,shape:[1, 64, 7, 7, 8]}
    in_1 {name:"Node_539:0",dtype:float32,shape:[1, 64, 1, 1, 8]}
    out_0 {name:"Node_540:0",dtype:float32,shape:[1, 64, 1, 1, 8]}
  }
}
layer {
  name:"x_85"
  type:"var"
  top:"x_85"
  bottom:"Node_544"
  layer_param {
    idx:541
    in_0 {name:"Node_544:0",dtype:float32,shape:[1, 64, 1, 1, 8]}
    out_0 {name:"x:0",dtype:float32,shape:[1, 64, 1, 1, 8]}
  }
}
layer {
  name:"Node_544"
  type:"var_call"
  top:"Node_544"
  bottom:"x_84"
  bottom:"x_83"
  layer_param {
    idx:544
    in_0 {name:"x:0",dtype:float32,shape:[1, 64, 1, 1, 8]}
    in_1 {name:"x:0",dtype:float32,shape:[1, 64, 7, 7, 8]}
    out_0 {name:"Node_544:0",dtype:float32,shape:[1, 64, 1, 1, 8]}
  }
}
layer {
  name:"x_86"
  type:"var"
  top:"x_86"
  bottom:"Node_554"
  layer_param {
    idx:545
    in_0 {name:"Node_554:0",dtype:float32,shape:[1, 512]}
    out_0 {name:"x:0",dtype:float32,shape:[1, 512]}
  }
}
layer {
  name:"p0_23"
  type:"input"
  top:"p0_23"
  layer_param {
    idx:546
    out_0 {name:"p0:0",dtype:float32,shape:[1, 64, 1, 1, 8]}
  }
}
layer {
  name:"Node_551"
  type:"layout_transform"
  top:"Node_551"
  bottom:"p0_23"
  layer_param {
    idx:551
    in_0 {name:"p0:0",dtype:float32,shape:[1, 64, 1, 1, 8]}
    out_0 {name:"Node_551:0",dtype:float32,shape:[1, 512, 1, 1]}
    attrs {'src_layout': 'NCHW8c', 'dst_layout': 'NCHW'}
  }
}
layer {
  name:"Node_552"
  type:"reshape"
  top:"Node_552"
  bottom:"Node_551"
  layer_param {
    idx:552
    in_0 {name:"Node_551:0",dtype:float32,shape:[1, 512, 1, 1]}
    out_0 {name:"Node_552:0",dtype:float32,shape:[1, 512, 1, 1]}
    attrs {'newshape': [0, -1, 1, 1]}
  }
}
layer {
  name:"Node_553"
  type:"squeeze"
  top:"Node_553"
  bottom:"Node_552"
  layer_param {
    idx:553
    in_0 {name:"Node_552:0",dtype:float32,shape:[1, 512, 1, 1]}
    out_0 {name:"Node_553:0",dtype:float32,shape:[1, 512]}
    attrs {'axis': [2, 3]}
  }
}
layer {
  name:"Node_554"
  type:"function"
  top:"Node_554"
  bottom:"p0_23"
  bottom:"Node_553"
  layer_param {
    idx:554
    in_0 {name:"p0:0",dtype:float32,shape:[1, 64, 1, 1, 8]}
    in_1 {name:"Node_553:0",dtype:float32,shape:[1, 512]}
    out_0 {name:"Node_554:0",dtype:float32,shape:[1, 512]}
  }
}
layer {
  name:"x_87"
  type:"var"
  top:"x_87"
  bottom:"Node_558"
  layer_param {
    idx:555
    in_0 {name:"Node_558:0",dtype:float32,shape:[1, 512]}
    out_0 {name:"x:0",dtype:float32,shape:[1, 512]}
  }
}
layer {
  name:"Node_558"
  type:"var_call"
  top:"Node_558"
  bottom:"x_86"
  bottom:"x_85"
  layer_param {
    idx:558
    in_0 {name:"x:0",dtype:float32,shape:[1, 512]}
    in_1 {name:"x:0",dtype:float32,shape:[1, 64, 1, 1, 8]}
    out_0 {name:"Node_558:0",dtype:float32,shape:[1, 512]}
  }
}
layer {
  name:"x_88"
  type:"var"
  top:"x_88"
  bottom:"Node_560"
  layer_param {
    idx:559
    in_0 {name:"Node_560:0",dtype:float32,shape:[100, 512, 10]}
    out_0 {name:"x:0",dtype:float32,shape:[100, 512, 10]}
  }
}
layer {
  name:"Node_560"
  type:"const"
  top:"Node_560"
  layer_param {
    idx:560
    out_0 {name:"Node_560:0",dtype:float32,shape:[100, 512, 10]}
  }
}
layer {
  name:"x_89"
  type:"var"
  top:"x_89"
  bottom:"Node_562"
  layer_param {
    idx:561
    in_0 {name:"Node_562:0",dtype:float32,shape:[1000]}
    out_0 {name:"x:0",dtype:float32,shape:[1000]}
  }
}
layer {
  name:"Node_562"
  type:"const"
  top:"Node_562"
  layer_param {
    idx:562
    out_0 {name:"Node_562:0",dtype:float32,shape:[1000]}
  }
}
layer {
  name:"x_90"
  type:"var"
  top:"x_90"
  bottom:"Node_574"
  layer_param {
    idx:563
    in_0 {name:"Node_574:0",dtype:float32,shape:[1, 1000]}
    out_0 {name:"x:0",dtype:float32,shape:[1, 1000]}
  }
}
layer {
  name:"p0_24"
  type:"input"
  top:"p0_24"
  layer_param {
    idx:564
    out_0 {name:"p0:0",dtype:float32,shape:[1, 512]}
  }
}
layer {
  name:"p1_20"
  type:"input"
  top:"p1_20"
  layer_param {
    idx:565
    out_0 {name:"p1:0",dtype:float32,shape:[100, 512, 10]}
  }
}
layer {
  name:"p2_20"
  type:"input"
  top:"p2_20"
  layer_param {
    idx:566
    out_0 {name:"p2:0",dtype:float32,shape:[1000]}
  }
}
layer {
  name:"Node_571"
  type:"nn_contrib_dense_pack"
  top:"Node_571"
  bottom:"p0_24"
  bottom:"p1_20"
  layer_param {
    idx:571
    in_0 {name:"p0:0",dtype:float32,shape:[1, 512]}
    in_1 {name:"p1:0",dtype:float32,shape:[100, 512, 10]}
    out_0 {name:"Node_571:0",dtype:float32,shape:[1, 1000]}
    attrs {'units': None, 'out_dtype': 'float32'}
  }
}
layer {
  name:"Node_573"
  type:"add"
  top:"Node_573"
  bottom:"Node_571"
  bottom:"p2_20"
  layer_param {
    idx:573
    in_0 {name:"Node_571:0",dtype:float32,shape:[1, 1000]}
    in_1 {name:"p2:0",dtype:float32,shape:[1000]}
    out_0 {name:"Node_573:0",dtype:float32,shape:[1, 1000]}
  }
}
layer {
  name:"Node_574"
  type:"function"
  top:"Node_574"
  bottom:"p0_24"
  bottom:"p1_20"
  bottom:"p2_20"
  bottom:"Node_573"
  layer_param {
    idx:574
    in_0 {name:"p0:0",dtype:float32,shape:[1, 512]}
    in_1 {name:"p1:0",dtype:float32,shape:[100, 512, 10]}
    in_2 {name:"p2:0",dtype:float32,shape:[1000]}
    in_3 {name:"Node_573:0",dtype:float32,shape:[1, 1000]}
    out_0 {name:"Node_574:0",dtype:float32,shape:[1, 1000]}
  }
}
layer {
  name:"x_91"
  type:"var"
  top:"x_91"
  bottom:"Node_580"
  layer_param {
    idx:575
    in_0 {name:"Node_580:0",dtype:float32,shape:[1, 1000]}
    out_0 {name:"x:0",dtype:float32,shape:[1, 1000]}
  }
}
layer {
  name:"Node_580"
  type:"var_call"
  top:"Node_580"
  bottom:"x_90"
  bottom:"x_87"
  bottom:"x_88"
  bottom:"x_89"
  layer_param {
    idx:580
    in_0 {name:"x:0",dtype:float32,shape:[1, 1000]}
    in_1 {name:"x:0",dtype:float32,shape:[1, 512]}
    in_2 {name:"x:0",dtype:float32,shape:[100, 512, 10]}
    in_3 {name:"x:0",dtype:float32,shape:[1000]}
    out_0 {name:"Node_580:0",dtype:float32,shape:[1, 1000]}
  }
}
layer {
  name:"Node_582"
  type:"let"
  top:"Node_582"
  bottom:"x_91"
  layer_param {
    idx:582
    in_0 {name:"x:0",dtype:float32,shape:[1, 1000]}
    in_1 {name:"x:0",dtype:float32,shape:[1, 1000]}
    out_0 {name:"Node_582:0",dtype:float32,shape:[1, 1000]}
  }
}
layer {
  name:"Node_583"
  type:"let"
  top:"Node_583"
  bottom:"x_90"
  bottom:"Node_582"
  layer_param {
    idx:583
    in_0 {name:"x:0",dtype:float32,shape:[1, 1000]}
    in_1 {name:"Node_582:0",dtype:float32,shape:[1, 1000]}
    out_0 {name:"Node_583:0",dtype:float32,shape:[1, 1000]}
  }
}
layer {
  name:"Node_584"
  type:"let"
  top:"Node_584"
  bottom:"x_89"
  bottom:"Node_583"
  layer_param {
    idx:584
    in_0 {name:"x:0",dtype:float32,shape:[1000]}
    in_1 {name:"Node_583:0",dtype:float32,shape:[1, 1000]}
    out_0 {name:"Node_584:0",dtype:float32,shape:[1000]}
  }
}
layer {
  name:"Node_585"
  type:"let"
  top:"Node_585"
  bottom:"x_88"
  bottom:"Node_584"
  layer_param {
    idx:585
    in_0 {name:"x:0",dtype:float32,shape:[100, 512, 10]}
    in_1 {name:"Node_584:0",dtype:float32,shape:[1000]}
    out_0 {name:"Node_585:0",dtype:float32,shape:[100, 512, 10]}
  }
}
layer {
  name:"Node_586"
  type:"let"
  top:"Node_586"
  bottom:"x_87"
  bottom:"Node_585"
  layer_param {
    idx:586
    in_0 {name:"x:0",dtype:float32,shape:[1, 512]}
    in_1 {name:"Node_585:0",dtype:float32,shape:[100, 512, 10]}
    out_0 {name:"Node_586:0",dtype:float32,shape:[1, 512]}
  }
}
layer {
  name:"Node_587"
  type:"let"
  top:"Node_587"
  bottom:"x_86"
  bottom:"Node_586"
  layer_param {
    idx:587
    in_0 {name:"x:0",dtype:float32,shape:[1, 512]}
    in_1 {name:"Node_586:0",dtype:float32,shape:[1, 512]}
    out_0 {name:"Node_587:0",dtype:float32,shape:[1, 512]}
  }
}
layer {
  name:"Node_588"
  type:"let"
  top:"Node_588"
  bottom:"x_85"
  bottom:"Node_587"
  layer_param {
    idx:588
    in_0 {name:"x:0",dtype:float32,shape:[1, 64, 1, 1, 8]}
    in_1 {name:"Node_587:0",dtype:float32,shape:[1, 512]}
    out_0 {name:"Node_588:0",dtype:float32,shape:[1, 64, 1, 1, 8]}
  }
}
layer {
  name:"Node_589"
  type:"let"
  top:"Node_589"
  bottom:"x_84"
  bottom:"Node_588"
  layer_param {
    idx:589
    in_0 {name:"x:0",dtype:float32,shape:[1, 64, 1, 1, 8]}
    in_1 {name:"Node_588:0",dtype:float32,shape:[1, 64, 1, 1, 8]}
    out_0 {name:"Node_589:0",dtype:float32,shape:[1, 64, 1, 1, 8]}
  }
}
layer {
  name:"Node_590"
  type:"let"
  top:"Node_590"
  bottom:"x_83"
  bottom:"Node_589"
  layer_param {
    idx:590
    in_0 {name:"x:0",dtype:float32,shape:[1, 64, 7, 7, 8]}
    in_1 {name:"Node_589:0",dtype:float32,shape:[1, 64, 1, 1, 8]}
    out_0 {name:"Node_590:0",dtype:float32,shape:[1, 64, 7, 7, 8]}
  }
}
layer {
  name:"Node_591"
  type:"let"
  top:"Node_591"
  bottom:"x_82"
  bottom:"Node_590"
  layer_param {
    idx:591
    in_0 {name:"x:0",dtype:float32,shape:[1, 64, 7, 7, 8]}
    in_1 {name:"Node_590:0",dtype:float32,shape:[1, 64, 7, 7, 8]}
    out_0 {name:"Node_591:0",dtype:float32,shape:[1, 64, 7, 7, 8]}
  }
}
layer {
  name:"Node_592"
  type:"let"
  top:"Node_592"
  bottom:"x_81"
  bottom:"Node_591"
  layer_param {
    idx:592
    in_0 {name:"x:0",dtype:float32,shape:[1, 64, 1, 1, 8]}
    in_1 {name:"Node_591:0",dtype:float32,shape:[1, 64, 7, 7, 8]}
    out_0 {name:"Node_592:0",dtype:float32,shape:[1, 64, 1, 1, 8]}
  }
}
layer {
  name:"Node_593"
  type:"let"
  top:"Node_593"
  bottom:"x_80"
  bottom:"Node_592"
  layer_param {
    idx:593
    in_0 {name:"x:0",dtype:float32,shape:[64, 64, 3, 3, 8, 8]}
    in_1 {name:"Node_592:0",dtype:float32,shape:[1, 64, 1, 1, 8]}
    out_0 {name:"Node_593:0",dtype:float32,shape:[64, 64, 3, 3, 8, 8]}
  }
}
layer {
  name:"Node_594"
  type:"let"
  top:"Node_594"
  bottom:"x_79"
  bottom:"Node_593"
  layer_param {
    idx:594
    in_0 {name:"x:0",dtype:float32,shape:[1, 64, 7, 7, 8]}
    in_1 {name:"Node_593:0",dtype:float32,shape:[64, 64, 3, 3, 8, 8]}
    out_0 {name:"Node_594:0",dtype:float32,shape:[1, 64, 7, 7, 8]}
  }
}
layer {
  name:"Node_595"
  type:"let"
  top:"Node_595"
  bottom:"x_78"
  bottom:"Node_594"
  layer_param {
    idx:595
    in_0 {name:"x:0",dtype:float32,shape:[1, 64, 7, 7, 8]}
    in_1 {name:"Node_594:0",dtype:float32,shape:[1, 64, 7, 7, 8]}
    out_0 {name:"Node_595:0",dtype:float32,shape:[1, 64, 7, 7, 8]}
  }
}
layer {
  name:"Node_596"
  type:"let"
  top:"Node_596"
  bottom:"x_77"
  bottom:"Node_595"
  layer_param {
    idx:596
    in_0 {name:"x:0",dtype:float32,shape:[1, 64, 1, 1, 8]}
    in_1 {name:"Node_595:0",dtype:float32,shape:[1, 64, 7, 7, 8]}
    out_0 {name:"Node_596:0",dtype:float32,shape:[1, 64, 1, 1, 8]}
  }
}
layer {
  name:"Node_597"
  type:"let"
  top:"Node_597"
  bottom:"x_76"
  bottom:"Node_596"
  layer_param {
    idx:597
    in_0 {name:"x:0",dtype:float32,shape:[64, 64, 3, 3, 8, 8]}
    in_1 {name:"Node_596:0",dtype:float32,shape:[1, 64, 1, 1, 8]}
    out_0 {name:"Node_597:0",dtype:float32,shape:[64, 64, 3, 3, 8, 8]}
  }
}
layer {
  name:"Node_598"
  type:"let"
  top:"Node_598"
  bottom:"x_75"
  bottom:"Node_597"
  layer_param {
    idx:598
    in_0 {name:"x:0",dtype:float32,shape:[1, 64, 7, 7, 8]}
    in_1 {name:"Node_597:0",dtype:float32,shape:[64, 64, 3, 3, 8, 8]}
    out_0 {name:"Node_598:0",dtype:float32,shape:[1, 64, 7, 7, 8]}
  }
}
layer {
  name:"Node_599"
  type:"let"
  top:"Node_599"
  bottom:"x_74"
  bottom:"Node_598"
  layer_param {
    idx:599
    in_0 {name:"x:0",dtype:float32,shape:[1, 64, 7, 7, 8]}
    in_1 {name:"Node_598:0",dtype:float32,shape:[1, 64, 7, 7, 8]}
    out_0 {name:"Node_599:0",dtype:float32,shape:[1, 64, 7, 7, 8]}
  }
}
layer {
  name:"Node_600"
  type:"let"
  top:"Node_600"
  bottom:"x_73"
  bottom:"Node_599"
  layer_param {
    idx:600
    in_0 {name:"x:0",dtype:float32,shape:[1, 64, 7, 7, 8]}
    in_1 {name:"Node_599:0",dtype:float32,shape:[1, 64, 7, 7, 8]}
    out_0 {name:"Node_600:0",dtype:float32,shape:[1, 64, 7, 7, 8]}
  }
}
layer {
  name:"Node_601"
  type:"let"
  top:"Node_601"
  bottom:"x_72"
  bottom:"Node_600"
  layer_param {
    idx:601
    in_0 {name:"x:0",dtype:float32,shape:[1, 64, 7, 7, 8]}
    in_1 {name:"Node_600:0",dtype:float32,shape:[1, 64, 7, 7, 8]}
    out_0 {name:"Node_601:0",dtype:float32,shape:[1, 64, 7, 7, 8]}
  }
}
layer {
  name:"Node_602"
  type:"let"
  top:"Node_602"
  bottom:"x_71"
  bottom:"Node_601"
  layer_param {
    idx:602
    in_0 {name:"x:0",dtype:float32,shape:[1, 64, 1, 1, 8]}
    in_1 {name:"Node_601:0",dtype:float32,shape:[1, 64, 7, 7, 8]}
    out_0 {name:"Node_602:0",dtype:float32,shape:[1, 64, 1, 1, 8]}
  }
}
layer {
  name:"Node_603"
  type:"let"
  top:"Node_603"
  bottom:"x_70"
  bottom:"Node_602"
  layer_param {
    idx:603
    in_0 {name:"x:0",dtype:float32,shape:[64, 32, 1, 1, 8, 8]}
    in_1 {name:"Node_602:0",dtype:float32,shape:[1, 64, 1, 1, 8]}
    out_0 {name:"Node_603:0",dtype:float32,shape:[64, 32, 1, 1, 8, 8]}
  }
}
layer {
  name:"Node_604"
  type:"let"
  top:"Node_604"
  bottom:"x_69"
  bottom:"Node_603"
  layer_param {
    idx:604
    in_0 {name:"x:0",dtype:float32,shape:[1, 64, 1, 1, 8]}
    in_1 {name:"Node_603:0",dtype:float32,shape:[64, 32, 1, 1, 8, 8]}
    out_0 {name:"Node_604:0",dtype:float32,shape:[1, 64, 1, 1, 8]}
  }
}
layer {
  name:"Node_605"
  type:"let"
  top:"Node_605"
  bottom:"x_68"
  bottom:"Node_604"
  layer_param {
    idx:605
    in_0 {name:"x:0",dtype:float32,shape:[64, 64, 3, 3, 8, 8]}
    in_1 {name:"Node_604:0",dtype:float32,shape:[1, 64, 1, 1, 8]}
    out_0 {name:"Node_605:0",dtype:float32,shape:[64, 64, 3, 3, 8, 8]}
  }
}
layer {
  name:"Node_606"
  type:"let"
  top:"Node_606"
  bottom:"x_67"
  bottom:"Node_605"
  layer_param {
    idx:606
    in_0 {name:"x:0",dtype:float32,shape:[1, 64, 7, 7, 8]}
    in_1 {name:"Node_605:0",dtype:float32,shape:[64, 64, 3, 3, 8, 8]}
    out_0 {name:"Node_606:0",dtype:float32,shape:[1, 64, 7, 7, 8]}
  }
}
layer {
  name:"Node_607"
  type:"let"
  top:"Node_607"
  bottom:"x_66"
  bottom:"Node_606"
  layer_param {
    idx:607
    in_0 {name:"x:0",dtype:float32,shape:[1, 64, 7, 7, 8]}
    in_1 {name:"Node_606:0",dtype:float32,shape:[1, 64, 7, 7, 8]}
    out_0 {name:"Node_607:0",dtype:float32,shape:[1, 64, 7, 7, 8]}
  }
}
layer {
  name:"Node_608"
  type:"let"
  top:"Node_608"
  bottom:"x_65"
  bottom:"Node_607"
  layer_param {
    idx:608
    in_0 {name:"x:0",dtype:float32,shape:[1, 64, 1, 1, 8]}
    in_1 {name:"Node_607:0",dtype:float32,shape:[1, 64, 7, 7, 8]}
    out_0 {name:"Node_608:0",dtype:float32,shape:[1, 64, 1, 1, 8]}
  }
}
layer {
  name:"Node_609"
  type:"let"
  top:"Node_609"
  bottom:"x_64"
  bottom:"Node_608"
  layer_param {
    idx:609
    in_0 {name:"x:0",dtype:float32,shape:[64, 32, 3, 3, 8, 8]}
    in_1 {name:"Node_608:0",dtype:float32,shape:[1, 64, 1, 1, 8]}
    out_0 {name:"Node_609:0",dtype:float32,shape:[64, 32, 3, 3, 8, 8]}
  }
}
layer {
  name:"Node_610"
  type:"let"
  top:"Node_610"
  bottom:"x_63"
  bottom:"Node_609"
  layer_param {
    idx:610
    in_0 {name:"x:0",dtype:float32,shape:[1, 32, 14, 14, 8]}
    in_1 {name:"Node_609:0",dtype:float32,shape:[64, 32, 3, 3, 8, 8]}
    out_0 {name:"Node_610:0",dtype:float32,shape:[1, 32, 14, 14, 8]}
  }
}
layer {
  name:"Node_611"
  type:"let"
  top:"Node_611"
  bottom:"x_62"
  bottom:"Node_610"
  layer_param {
    idx:611
    in_0 {name:"x:0",dtype:float32,shape:[1, 32, 14, 14, 8]}
    in_1 {name:"Node_610:0",dtype:float32,shape:[1, 32, 14, 14, 8]}
    out_0 {name:"Node_611:0",dtype:float32,shape:[1, 32, 14, 14, 8]}
  }
}
layer {
  name:"Node_612"
  type:"let"
  top:"Node_612"
  bottom:"x_61"
  bottom:"Node_611"
  layer_param {
    idx:612
    in_0 {name:"x:0",dtype:float32,shape:[1, 32, 1, 1, 8]}
    in_1 {name:"Node_611:0",dtype:float32,shape:[1, 32, 14, 14, 8]}
    out_0 {name:"Node_612:0",dtype:float32,shape:[1, 32, 1, 1, 8]}
  }
}
layer {
  name:"Node_613"
  type:"let"
  top:"Node_613"
  bottom:"x_60"
  bottom:"Node_612"
  layer_param {
    idx:613
    in_0 {name:"x:0",dtype:float32,shape:[32, 32, 3, 3, 8, 8]}
    in_1 {name:"Node_612:0",dtype:float32,shape:[1, 32, 1, 1, 8]}
    out_0 {name:"Node_613:0",dtype:float32,shape:[32, 32, 3, 3, 8, 8]}
  }
}
layer {
  name:"Node_614"
  type:"let"
  top:"Node_614"
  bottom:"x_59"
  bottom:"Node_613"
  layer_param {
    idx:614
    in_0 {name:"x:0",dtype:float32,shape:[1, 32, 14, 14, 8]}
    in_1 {name:"Node_613:0",dtype:float32,shape:[32, 32, 3, 3, 8, 8]}
    out_0 {name:"Node_614:0",dtype:float32,shape:[1, 32, 14, 14, 8]}
  }
}
layer {
  name:"Node_615"
  type:"let"
  top:"Node_615"
  bottom:"x_58"
  bottom:"Node_614"
  layer_param {
    idx:615
    in_0 {name:"x:0",dtype:float32,shape:[1, 32, 14, 14, 8]}
    in_1 {name:"Node_614:0",dtype:float32,shape:[1, 32, 14, 14, 8]}
    out_0 {name:"Node_615:0",dtype:float32,shape:[1, 32, 14, 14, 8]}
  }
}
layer {
  name:"Node_616"
  type:"let"
  top:"Node_616"
  bottom:"x_57"
  bottom:"Node_615"
  layer_param {
    idx:616
    in_0 {name:"x:0",dtype:float32,shape:[1, 32, 1, 1, 8]}
    in_1 {name:"Node_615:0",dtype:float32,shape:[1, 32, 14, 14, 8]}
    out_0 {name:"Node_616:0",dtype:float32,shape:[1, 32, 1, 1, 8]}
  }
}
layer {
  name:"Node_617"
  type:"let"
  top:"Node_617"
  bottom:"x_56"
  bottom:"Node_616"
  layer_param {
    idx:617
    in_0 {name:"x:0",dtype:float32,shape:[32, 32, 3, 3, 8, 8]}
    in_1 {name:"Node_616:0",dtype:float32,shape:[1, 32, 1, 1, 8]}
    out_0 {name:"Node_617:0",dtype:float32,shape:[32, 32, 3, 3, 8, 8]}
  }
}
layer {
  name:"Node_618"
  type:"let"
  top:"Node_618"
  bottom:"x_55"
  bottom:"Node_617"
  layer_param {
    idx:618
    in_0 {name:"x:0",dtype:float32,shape:[1, 32, 14, 14, 8]}
    in_1 {name:"Node_617:0",dtype:float32,shape:[32, 32, 3, 3, 8, 8]}
    out_0 {name:"Node_618:0",dtype:float32,shape:[1, 32, 14, 14, 8]}
  }
}
layer {
  name:"Node_619"
  type:"let"
  top:"Node_619"
  bottom:"x_54"
  bottom:"Node_618"
  layer_param {
    idx:619
    in_0 {name:"x:0",dtype:float32,shape:[1, 32, 14, 14, 8]}
    in_1 {name:"Node_618:0",dtype:float32,shape:[1, 32, 14, 14, 8]}
    out_0 {name:"Node_619:0",dtype:float32,shape:[1, 32, 14, 14, 8]}
  }
}
layer {
  name:"Node_620"
  type:"let"
  top:"Node_620"
  bottom:"x_53"
  bottom:"Node_619"
  layer_param {
    idx:620
    in_0 {name:"x:0",dtype:float32,shape:[1, 32, 14, 14, 8]}
    in_1 {name:"Node_619:0",dtype:float32,shape:[1, 32, 14, 14, 8]}
    out_0 {name:"Node_620:0",dtype:float32,shape:[1, 32, 14, 14, 8]}
  }
}
layer {
  name:"Node_621"
  type:"let"
  top:"Node_621"
  bottom:"x_52"
  bottom:"Node_620"
  layer_param {
    idx:621
    in_0 {name:"x:0",dtype:float32,shape:[1, 32, 14, 14, 8]}
    in_1 {name:"Node_620:0",dtype:float32,shape:[1, 32, 14, 14, 8]}
    out_0 {name:"Node_621:0",dtype:float32,shape:[1, 32, 14, 14, 8]}
  }
}
layer {
  name:"Node_622"
  type:"let"
  top:"Node_622"
  bottom:"x_51"
  bottom:"Node_621"
  layer_param {
    idx:622
    in_0 {name:"x:0",dtype:float32,shape:[1, 32, 1, 1, 8]}
    in_1 {name:"Node_621:0",dtype:float32,shape:[1, 32, 14, 14, 8]}
    out_0 {name:"Node_622:0",dtype:float32,shape:[1, 32, 1, 1, 8]}
  }
}
layer {
  name:"Node_623"
  type:"let"
  top:"Node_623"
  bottom:"x_50"
  bottom:"Node_622"
  layer_param {
    idx:623
    in_0 {name:"x:0",dtype:float32,shape:[32, 16, 1, 1, 8, 8]}
    in_1 {name:"Node_622:0",dtype:float32,shape:[1, 32, 1, 1, 8]}
    out_0 {name:"Node_623:0",dtype:float32,shape:[32, 16, 1, 1, 8, 8]}
  }
}
layer {
  name:"Node_624"
  type:"let"
  top:"Node_624"
  bottom:"x_49"
  bottom:"Node_623"
  layer_param {
    idx:624
    in_0 {name:"x:0",dtype:float32,shape:[1, 32, 1, 1, 8]}
    in_1 {name:"Node_623:0",dtype:float32,shape:[32, 16, 1, 1, 8, 8]}
    out_0 {name:"Node_624:0",dtype:float32,shape:[1, 32, 1, 1, 8]}
  }
}
layer {
  name:"Node_625"
  type:"let"
  top:"Node_625"
  bottom:"x_48"
  bottom:"Node_624"
  layer_param {
    idx:625
    in_0 {name:"x:0",dtype:float32,shape:[32, 32, 3, 3, 8, 8]}
    in_1 {name:"Node_624:0",dtype:float32,shape:[1, 32, 1, 1, 8]}
    out_0 {name:"Node_625:0",dtype:float32,shape:[32, 32, 3, 3, 8, 8]}
  }
}
layer {
  name:"Node_626"
  type:"let"
  top:"Node_626"
  bottom:"x_47"
  bottom:"Node_625"
  layer_param {
    idx:626
    in_0 {name:"x:0",dtype:float32,shape:[1, 32, 14, 14, 8]}
    in_1 {name:"Node_625:0",dtype:float32,shape:[32, 32, 3, 3, 8, 8]}
    out_0 {name:"Node_626:0",dtype:float32,shape:[1, 32, 14, 14, 8]}
  }
}
layer {
  name:"Node_627"
  type:"let"
  top:"Node_627"
  bottom:"x_46"
  bottom:"Node_626"
  layer_param {
    idx:627
    in_0 {name:"x:0",dtype:float32,shape:[1, 32, 14, 14, 8]}
    in_1 {name:"Node_626:0",dtype:float32,shape:[1, 32, 14, 14, 8]}
    out_0 {name:"Node_627:0",dtype:float32,shape:[1, 32, 14, 14, 8]}
  }
}
layer {
  name:"Node_628"
  type:"let"
  top:"Node_628"
  bottom:"x_45"
  bottom:"Node_627"
  layer_param {
    idx:628
    in_0 {name:"x:0",dtype:float32,shape:[1, 32, 1, 1, 8]}
    in_1 {name:"Node_627:0",dtype:float32,shape:[1, 32, 14, 14, 8]}
    out_0 {name:"Node_628:0",dtype:float32,shape:[1, 32, 1, 1, 8]}
  }
}
layer {
  name:"Node_629"
  type:"let"
  top:"Node_629"
  bottom:"x_44"
  bottom:"Node_628"
  layer_param {
    idx:629
    in_0 {name:"x:0",dtype:float32,shape:[32, 16, 3, 3, 8, 8]}
    in_1 {name:"Node_628:0",dtype:float32,shape:[1, 32, 1, 1, 8]}
    out_0 {name:"Node_629:0",dtype:float32,shape:[32, 16, 3, 3, 8, 8]}
  }
}
layer {
  name:"Node_630"
  type:"let"
  top:"Node_630"
  bottom:"x_43"
  bottom:"Node_629"
  layer_param {
    idx:630
    in_0 {name:"x:0",dtype:float32,shape:[1, 16, 28, 28, 8]}
    in_1 {name:"Node_629:0",dtype:float32,shape:[32, 16, 3, 3, 8, 8]}
    out_0 {name:"Node_630:0",dtype:float32,shape:[1, 16, 28, 28, 8]}
  }
}
layer {
  name:"Node_631"
  type:"let"
  top:"Node_631"
  bottom:"x_42"
  bottom:"Node_630"
  layer_param {
    idx:631
    in_0 {name:"x:0",dtype:float32,shape:[1, 16, 28, 28, 8]}
    in_1 {name:"Node_630:0",dtype:float32,shape:[1, 16, 28, 28, 8]}
    out_0 {name:"Node_631:0",dtype:float32,shape:[1, 16, 28, 28, 8]}
  }
}
layer {
  name:"Node_632"
  type:"let"
  top:"Node_632"
  bottom:"x_41"
  bottom:"Node_631"
  layer_param {
    idx:632
    in_0 {name:"x:0",dtype:float32,shape:[1, 16, 1, 1, 8]}
    in_1 {name:"Node_631:0",dtype:float32,shape:[1, 16, 28, 28, 8]}
    out_0 {name:"Node_632:0",dtype:float32,shape:[1, 16, 1, 1, 8]}
  }
}
layer {
  name:"Node_633"
  type:"let"
  top:"Node_633"
  bottom:"x_40"
  bottom:"Node_632"
  layer_param {
    idx:633
    in_0 {name:"x:0",dtype:float32,shape:[16, 16, 3, 3, 8, 8]}
    in_1 {name:"Node_632:0",dtype:float32,shape:[1, 16, 1, 1, 8]}
    out_0 {name:"Node_633:0",dtype:float32,shape:[16, 16, 3, 3, 8, 8]}
  }
}
layer {
  name:"Node_634"
  type:"let"
  top:"Node_634"
  bottom:"x_39"
  bottom:"Node_633"
  layer_param {
    idx:634
    in_0 {name:"x:0",dtype:float32,shape:[1, 16, 28, 28, 8]}
    in_1 {name:"Node_633:0",dtype:float32,shape:[16, 16, 3, 3, 8, 8]}
    out_0 {name:"Node_634:0",dtype:float32,shape:[1, 16, 28, 28, 8]}
  }
}
layer {
  name:"Node_635"
  type:"let"
  top:"Node_635"
  bottom:"x_38"
  bottom:"Node_634"
  layer_param {
    idx:635
    in_0 {name:"x:0",dtype:float32,shape:[1, 16, 28, 28, 8]}
    in_1 {name:"Node_634:0",dtype:float32,shape:[1, 16, 28, 28, 8]}
    out_0 {name:"Node_635:0",dtype:float32,shape:[1, 16, 28, 28, 8]}
  }
}
layer {
  name:"Node_636"
  type:"let"
  top:"Node_636"
  bottom:"x_37"
  bottom:"Node_635"
  layer_param {
    idx:636
    in_0 {name:"x:0",dtype:float32,shape:[1, 16, 1, 1, 8]}
    in_1 {name:"Node_635:0",dtype:float32,shape:[1, 16, 28, 28, 8]}
    out_0 {name:"Node_636:0",dtype:float32,shape:[1, 16, 1, 1, 8]}
  }
}
layer {
  name:"Node_637"
  type:"let"
  top:"Node_637"
  bottom:"x_36"
  bottom:"Node_636"
  layer_param {
    idx:637
    in_0 {name:"x:0",dtype:float32,shape:[16, 16, 3, 3, 8, 8]}
    in_1 {name:"Node_636:0",dtype:float32,shape:[1, 16, 1, 1, 8]}
    out_0 {name:"Node_637:0",dtype:float32,shape:[16, 16, 3, 3, 8, 8]}
  }
}
layer {
  name:"Node_638"
  type:"let"
  top:"Node_638"
  bottom:"x_35"
  bottom:"Node_637"
  layer_param {
    idx:638
    in_0 {name:"x:0",dtype:float32,shape:[1, 16, 28, 28, 8]}
    in_1 {name:"Node_637:0",dtype:float32,shape:[16, 16, 3, 3, 8, 8]}
    out_0 {name:"Node_638:0",dtype:float32,shape:[1, 16, 28, 28, 8]}
  }
}
layer {
  name:"Node_639"
  type:"let"
  top:"Node_639"
  bottom:"x_34"
  bottom:"Node_638"
  layer_param {
    idx:639
    in_0 {name:"x:0",dtype:float32,shape:[1, 16, 28, 28, 8]}
    in_1 {name:"Node_638:0",dtype:float32,shape:[1, 16, 28, 28, 8]}
    out_0 {name:"Node_639:0",dtype:float32,shape:[1, 16, 28, 28, 8]}
  }
}
layer {
  name:"Node_640"
  type:"let"
  top:"Node_640"
  bottom:"x_33"
  bottom:"Node_639"
  layer_param {
    idx:640
    in_0 {name:"x:0",dtype:float32,shape:[1, 16, 28, 28, 8]}
    in_1 {name:"Node_639:0",dtype:float32,shape:[1, 16, 28, 28, 8]}
    out_0 {name:"Node_640:0",dtype:float32,shape:[1, 16, 28, 28, 8]}
  }
}
layer {
  name:"Node_641"
  type:"let"
  top:"Node_641"
  bottom:"x_32"
  bottom:"Node_640"
  layer_param {
    idx:641
    in_0 {name:"x:0",dtype:float32,shape:[1, 16, 28, 28, 8]}
    in_1 {name:"Node_640:0",dtype:float32,shape:[1, 16, 28, 28, 8]}
    out_0 {name:"Node_641:0",dtype:float32,shape:[1, 16, 28, 28, 8]}
  }
}
layer {
  name:"Node_642"
  type:"let"
  top:"Node_642"
  bottom:"x_31"
  bottom:"Node_641"
  layer_param {
    idx:642
    in_0 {name:"x:0",dtype:float32,shape:[1, 16, 1, 1, 8]}
    in_1 {name:"Node_641:0",dtype:float32,shape:[1, 16, 28, 28, 8]}
    out_0 {name:"Node_642:0",dtype:float32,shape:[1, 16, 1, 1, 8]}
  }
}
layer {
  name:"Node_643"
  type:"let"
  top:"Node_643"
  bottom:"x_30"
  bottom:"Node_642"
  layer_param {
    idx:643
    in_0 {name:"x:0",dtype:float32,shape:[16, 8, 1, 1, 8, 8]}
    in_1 {name:"Node_642:0",dtype:float32,shape:[1, 16, 1, 1, 8]}
    out_0 {name:"Node_643:0",dtype:float32,shape:[16, 8, 1, 1, 8, 8]}
  }
}
layer {
  name:"Node_644"
  type:"let"
  top:"Node_644"
  bottom:"x_29"
  bottom:"Node_643"
  layer_param {
    idx:644
    in_0 {name:"x:0",dtype:float32,shape:[1, 16, 1, 1, 8]}
    in_1 {name:"Node_643:0",dtype:float32,shape:[16, 8, 1, 1, 8, 8]}
    out_0 {name:"Node_644:0",dtype:float32,shape:[1, 16, 1, 1, 8]}
  }
}
layer {
  name:"Node_645"
  type:"let"
  top:"Node_645"
  bottom:"x_28"
  bottom:"Node_644"
  layer_param {
    idx:645
    in_0 {name:"x:0",dtype:float32,shape:[16, 16, 3, 3, 8, 8]}
    in_1 {name:"Node_644:0",dtype:float32,shape:[1, 16, 1, 1, 8]}
    out_0 {name:"Node_645:0",dtype:float32,shape:[16, 16, 3, 3, 8, 8]}
  }
}
layer {
  name:"Node_646"
  type:"let"
  top:"Node_646"
  bottom:"x_27"
  bottom:"Node_645"
  layer_param {
    idx:646
    in_0 {name:"x:0",dtype:float32,shape:[1, 16, 28, 28, 8]}
    in_1 {name:"Node_645:0",dtype:float32,shape:[16, 16, 3, 3, 8, 8]}
    out_0 {name:"Node_646:0",dtype:float32,shape:[1, 16, 28, 28, 8]}
  }
}
layer {
  name:"Node_647"
  type:"let"
  top:"Node_647"
  bottom:"x_26"
  bottom:"Node_646"
  layer_param {
    idx:647
    in_0 {name:"x:0",dtype:float32,shape:[1, 16, 28, 28, 8]}
    in_1 {name:"Node_646:0",dtype:float32,shape:[1, 16, 28, 28, 8]}
    out_0 {name:"Node_647:0",dtype:float32,shape:[1, 16, 28, 28, 8]}
  }
}
layer {
  name:"Node_648"
  type:"let"
  top:"Node_648"
  bottom:"x_25"
  bottom:"Node_647"
  layer_param {
    idx:648
    in_0 {name:"x:0",dtype:float32,shape:[1, 16, 1, 1, 8]}
    in_1 {name:"Node_647:0",dtype:float32,shape:[1, 16, 28, 28, 8]}
    out_0 {name:"Node_648:0",dtype:float32,shape:[1, 16, 1, 1, 8]}
  }
}
layer {
  name:"Node_649"
  type:"let"
  top:"Node_649"
  bottom:"x_24"
  bottom:"Node_648"
  layer_param {
    idx:649
    in_0 {name:"x:0",dtype:float32,shape:[16, 8, 3, 3, 8, 8]}
    in_1 {name:"Node_648:0",dtype:float32,shape:[1, 16, 1, 1, 8]}
    out_0 {name:"Node_649:0",dtype:float32,shape:[16, 8, 3, 3, 8, 8]}
  }
}
layer {
  name:"Node_650"
  type:"let"
  top:"Node_650"
  bottom:"x_23"
  bottom:"Node_649"
  layer_param {
    idx:650
    in_0 {name:"x:0",dtype:float32,shape:[1, 8, 56, 56, 8]}
    in_1 {name:"Node_649:0",dtype:float32,shape:[16, 8, 3, 3, 8, 8]}
    out_0 {name:"Node_650:0",dtype:float32,shape:[1, 8, 56, 56, 8]}
  }
}
layer {
  name:"Node_651"
  type:"let"
  top:"Node_651"
  bottom:"x_22"
  bottom:"Node_650"
  layer_param {
    idx:651
    in_0 {name:"x:0",dtype:float32,shape:[1, 8, 56, 56, 8]}
    in_1 {name:"Node_650:0",dtype:float32,shape:[1, 8, 56, 56, 8]}
    out_0 {name:"Node_651:0",dtype:float32,shape:[1, 8, 56, 56, 8]}
  }
}
layer {
  name:"Node_652"
  type:"let"
  top:"Node_652"
  bottom:"x_21"
  bottom:"Node_651"
  layer_param {
    idx:652
    in_0 {name:"x:0",dtype:float32,shape:[1, 8, 1, 1, 8]}
    in_1 {name:"Node_651:0",dtype:float32,shape:[1, 8, 56, 56, 8]}
    out_0 {name:"Node_652:0",dtype:float32,shape:[1, 8, 1, 1, 8]}
  }
}
layer {
  name:"Node_653"
  type:"let"
  top:"Node_653"
  bottom:"x_20"
  bottom:"Node_652"
  layer_param {
    idx:653
    in_0 {name:"x:0",dtype:float32,shape:[8, 8, 3, 3, 8, 8]}
    in_1 {name:"Node_652:0",dtype:float32,shape:[1, 8, 1, 1, 8]}
    out_0 {name:"Node_653:0",dtype:float32,shape:[8, 8, 3, 3, 8, 8]}
  }
}
layer {
  name:"Node_654"
  type:"let"
  top:"Node_654"
  bottom:"x_19"
  bottom:"Node_653"
  layer_param {
    idx:654
    in_0 {name:"x:0",dtype:float32,shape:[1, 8, 56, 56, 8]}
    in_1 {name:"Node_653:0",dtype:float32,shape:[8, 8, 3, 3, 8, 8]}
    out_0 {name:"Node_654:0",dtype:float32,shape:[1, 8, 56, 56, 8]}
  }
}
layer {
  name:"Node_655"
  type:"let"
  top:"Node_655"
  bottom:"x_18"
  bottom:"Node_654"
  layer_param {
    idx:655
    in_0 {name:"x:0",dtype:float32,shape:[1, 8, 56, 56, 8]}
    in_1 {name:"Node_654:0",dtype:float32,shape:[1, 8, 56, 56, 8]}
    out_0 {name:"Node_655:0",dtype:float32,shape:[1, 8, 56, 56, 8]}
  }
}
layer {
  name:"Node_656"
  type:"let"
  top:"Node_656"
  bottom:"x_17"
  bottom:"Node_655"
  layer_param {
    idx:656
    in_0 {name:"x:0",dtype:float32,shape:[1, 8, 1, 1, 8]}
    in_1 {name:"Node_655:0",dtype:float32,shape:[1, 8, 56, 56, 8]}
    out_0 {name:"Node_656:0",dtype:float32,shape:[1, 8, 1, 1, 8]}
  }
}
layer {
  name:"Node_657"
  type:"let"
  top:"Node_657"
  bottom:"x_16"
  bottom:"Node_656"
  layer_param {
    idx:657
    in_0 {name:"x:0",dtype:float32,shape:[8, 8, 3, 3, 8, 8]}
    in_1 {name:"Node_656:0",dtype:float32,shape:[1, 8, 1, 1, 8]}
    out_0 {name:"Node_657:0",dtype:float32,shape:[8, 8, 3, 3, 8, 8]}
  }
}
layer {
  name:"Node_658"
  type:"let"
  top:"Node_658"
  bottom:"x_15"
  bottom:"Node_657"
  layer_param {
    idx:658
    in_0 {name:"x:0",dtype:float32,shape:[1, 8, 56, 56, 8]}
    in_1 {name:"Node_657:0",dtype:float32,shape:[8, 8, 3, 3, 8, 8]}
    out_0 {name:"Node_658:0",dtype:float32,shape:[1, 8, 56, 56, 8]}
  }
}
layer {
  name:"Node_659"
  type:"let"
  top:"Node_659"
  bottom:"x_14"
  bottom:"Node_658"
  layer_param {
    idx:659
    in_0 {name:"x:0",dtype:float32,shape:[1, 8, 56, 56, 8]}
    in_1 {name:"Node_658:0",dtype:float32,shape:[1, 8, 56, 56, 8]}
    out_0 {name:"Node_659:0",dtype:float32,shape:[1, 8, 56, 56, 8]}
  }
}
layer {
  name:"Node_660"
  type:"let"
  top:"Node_660"
  bottom:"x_13"
  bottom:"Node_659"
  layer_param {
    idx:660
    in_0 {name:"x:0",dtype:float32,shape:[1, 8, 1, 1, 8]}
    in_1 {name:"Node_659:0",dtype:float32,shape:[1, 8, 56, 56, 8]}
    out_0 {name:"Node_660:0",dtype:float32,shape:[1, 8, 1, 1, 8]}
  }
}
layer {
  name:"Node_661"
  type:"let"
  top:"Node_661"
  bottom:"x_12"
  bottom:"Node_660"
  layer_param {
    idx:661
    in_0 {name:"x:0",dtype:float32,shape:[8, 8, 3, 3, 8, 8]}
    in_1 {name:"Node_660:0",dtype:float32,shape:[1, 8, 1, 1, 8]}
    out_0 {name:"Node_661:0",dtype:float32,shape:[8, 8, 3, 3, 8, 8]}
  }
}
layer {
  name:"Node_662"
  type:"let"
  top:"Node_662"
  bottom:"x_11"
  bottom:"Node_661"
  layer_param {
    idx:662
    in_0 {name:"x:0",dtype:float32,shape:[1, 8, 56, 56, 8]}
    in_1 {name:"Node_661:0",dtype:float32,shape:[8, 8, 3, 3, 8, 8]}
    out_0 {name:"Node_662:0",dtype:float32,shape:[1, 8, 56, 56, 8]}
  }
}
layer {
  name:"Node_663"
  type:"let"
  top:"Node_663"
  bottom:"x_10"
  bottom:"Node_662"
  layer_param {
    idx:663
    in_0 {name:"x:0",dtype:float32,shape:[1, 8, 56, 56, 8]}
    in_1 {name:"Node_662:0",dtype:float32,shape:[1, 8, 56, 56, 8]}
    out_0 {name:"Node_663:0",dtype:float32,shape:[1, 8, 56, 56, 8]}
  }
}
layer {
  name:"Node_664"
  type:"let"
  top:"Node_664"
  bottom:"x_9"
  bottom:"Node_663"
  layer_param {
    idx:664
    in_0 {name:"x:0",dtype:float32,shape:[1, 8, 1, 1, 8]}
    in_1 {name:"Node_663:0",dtype:float32,shape:[1, 8, 56, 56, 8]}
    out_0 {name:"Node_664:0",dtype:float32,shape:[1, 8, 1, 1, 8]}
  }
}
layer {
  name:"Node_665"
  type:"let"
  top:"Node_665"
  bottom:"x_8"
  bottom:"Node_664"
  layer_param {
    idx:665
    in_0 {name:"x:0",dtype:float32,shape:[8, 8, 3, 3, 8, 8]}
    in_1 {name:"Node_664:0",dtype:float32,shape:[1, 8, 1, 1, 8]}
    out_0 {name:"Node_665:0",dtype:float32,shape:[8, 8, 3, 3, 8, 8]}
  }
}
layer {
  name:"Node_666"
  type:"let"
  top:"Node_666"
  bottom:"x_7"
  bottom:"Node_665"
  layer_param {
    idx:666
    in_0 {name:"x:0",dtype:float32,shape:[1, 8, 56, 56, 8]}
    in_1 {name:"Node_665:0",dtype:float32,shape:[8, 8, 3, 3, 8, 8]}
    out_0 {name:"Node_666:0",dtype:float32,shape:[1, 8, 56, 56, 8]}
  }
}
layer {
  name:"Node_667"
  type:"let"
  top:"Node_667"
  bottom:"x_6"
  bottom:"Node_666"
  layer_param {
    idx:667
    in_0 {name:"x:0",dtype:float32,shape:[1, 8, 56, 56, 8]}
    in_1 {name:"Node_666:0",dtype:float32,shape:[1, 8, 56, 56, 8]}
    out_0 {name:"Node_667:0",dtype:float32,shape:[1, 8, 56, 56, 8]}
  }
}
layer {
  name:"Node_668"
  type:"let"
  top:"Node_668"
  bottom:"x_5"
  bottom:"Node_667"
  layer_param {
    idx:668
    in_0 {name:"x:0",dtype:float32,shape:[1, 8, 112, 112, 8]}
    in_1 {name:"Node_667:0",dtype:float32,shape:[1, 8, 56, 56, 8]}
    out_0 {name:"Node_668:0",dtype:float32,shape:[1, 8, 112, 112, 8]}
  }
}
layer {
  name:"Node_669"
  type:"let"
  top:"Node_669"
  bottom:"x_4"
  bottom:"Node_668"
  layer_param {
    idx:669
    in_0 {name:"x:0",dtype:float32,shape:[1, 8, 112, 112, 8]}
    in_1 {name:"Node_668:0",dtype:float32,shape:[1, 8, 112, 112, 8]}
    out_0 {name:"Node_669:0",dtype:float32,shape:[1, 8, 112, 112, 8]}
  }
}
layer {
  name:"Node_670"
  type:"let"
  top:"Node_670"
  bottom:"x_3"
  bottom:"Node_669"
  layer_param {
    idx:670
    in_0 {name:"x:0",dtype:float32,shape:[1, 8, 1, 1, 8]}
    in_1 {name:"Node_669:0",dtype:float32,shape:[1, 8, 112, 112, 8]}
    out_0 {name:"Node_670:0",dtype:float32,shape:[1, 8, 1, 1, 8]}
  }
}
layer {
  name:"Node_671"
  type:"let"
  top:"Node_671"
  bottom:"x_2"
  bottom:"Node_670"
  layer_param {
    idx:671
    in_0 {name:"x:0",dtype:float32,shape:[8, 1, 7, 7, 3, 8]}
    in_1 {name:"Node_670:0",dtype:float32,shape:[1, 8, 1, 1, 8]}
    out_0 {name:"Node_671:0",dtype:float32,shape:[8, 1, 7, 7, 3, 8]}
  }
}
layer {
  name:"Node_672"
  type:"let"
  top:"Node_672"
  bottom:"x_1"
  bottom:"Node_671"
  layer_param {
    idx:672
    in_0 {name:"x:0",dtype:float32,shape:[1, 1, 224, 224, 3]}
    in_1 {name:"Node_671:0",dtype:float32,shape:[8, 1, 7, 7, 3, 8]}
    out_0 {name:"Node_672:0",dtype:float32,shape:[1, 1, 224, 224, 3]}
  }
}
layer {
  name:"Node_673"
  type:"let"
  top:"Node_673"
  bottom:"x"
  bottom:"Node_672"
  layer_param {
    idx:673
    in_0 {name:"x:0",dtype:float32,shape:[1, 1, 224, 224, 3]}
    in_1 {name:"Node_672:0",dtype:float32,shape:[1, 1, 224, 224, 3]}
    out_0 {name:"Node_673:0",dtype:float32,shape:[1, 1, 224, 224, 3]}
  }
}
layer {
  name:"Node_674"
  type:"function"
  top:"Node_674"
  bottom:"input0"
  bottom:"Node_673"
  layer_param {
    idx:674
    in_0 {name:"input0:0",dtype:float32,shape:[1, 3, 224, 224]}
    in_1 {name:"Node_673:0",dtype:float32,shape:[1, 1, 224, 224, 3]}
    out_0 {name:"Node_674:0",dtype:float32,shape:[1, 1000]}
  }
}
